runs/torch/CartPole/23-09-28_14-08-45-335302_CEM/checkpoints/agent_55000.pt (torch, 62341 bytes, 18 tensors)

linear_layer_1.weight f4 [64, 4]
0	0x3cbd64cd	0.023119355
1	0xbda86d64	-0.082239896
2	0x3cddb311	0.027062925
3	0xbdc98201	-0.098392494
4	0xbe591424	-0.2119909
5	0x3d299a45	0.04140689
6	0xbd14b506	-0.03630545
7	0x3b9acdba	0.0047242315
8	0x3d856ac7	0.06514507
9	0x3dc477a1	0.0959313
10	0x3d133ecd	0.035948563
11	0xbcea156f	-0.028574673
12	0x3c535406	0.012898451
13	0x3b76fa28	0.0037685726
14	0x3cd77c2d	0.026304329
15	0xbbeaec10	-0.007169254
16	0xbd920dbf	-0.07131528
17	0x3d7a9471	0.06117672
18	0x3e269d53	0.16270952
19	0x3d234843	0.039863836
20	0xbd42084b	-0.04737119
21	0x3dbfef66	0.093718335
22	0x3e1fd127	0.15607129
23	0x3d6e6f4c	0.05821161
24	0x3cb21840	0.021740079
25	0x3d893908	0.06700331
26	0xbe9c4e9b	-0.3052872
27	0xbd2d4875	-0.04230543
28	0xbe1b4e82	-0.15166667
29	0x3d4053d8	0.04695496
30	0x3e7a1a9b	0.24424212
31	0x3e90f82e	0.28314346
32	0x3da0d61e	0.078533396
33	0x3a864a82	0.0010245594
34	0x3ef8cf33	0.4859558
35	0x3e619d92	0.22032765
36	0xbe50a051	-0.20373656
37	0x3e2c3f2c	0.16820973
38	0x3e118f0f	0.14214729
39	0x3c7ca04a	0.015419075
40	0xbce4b524	-0.027918406
41	0xbd45714d	-0.048203755
42	0x3d037795	0.032096464
43	0xbddf44d0	-0.10901797
44	0x3da0c493	0.078499936
45	0xbc8ed29e	-0.017434414
46	0x3eddefc2	0.43346983
47	0x3e7e7d7d	0.24852557
48	0x3c985979	0.018597351
49	0x3d7aa384	0.061191097
50	0xbea452dc	-0.32094467
51	0xbdfc3e7f	-0.12316608
52	0xbe112175	-0.14172919
53	0xbe28cc8a	-0.16484275
54	0xbea1625d	-0.31520358
55	0xbec283cc	-0.37991178
56	0x3ddcd076	0.10781948
57	0xbd9dc8bc	-0.07704303
58	0x3c9be99a	0.019032288
59	0x3bc1851c	0.0059057605
60	0x3e0d8960	0.13821936
61	0xbd892402	-0.06696321
62	0xbe3b1ff1	-0.18273903
63	0xbec706e7	-0.38872454
64	0x3d54da32	0.0519659
65	0xbdb23967	-0.08702355
66	0x3e8d6247	0.27614042
67	0x3e40be41	0.18822576
68	0x3d8a5c8d	0.06755934
69	0xbdf90a22	-0.12160136
70	0x3c2414bb	0.010014708
71	0xbd1c9cca	-0.038235463
72	0xbcf47933	-0.029842949
73	0xbc32836d	-0.010895592
74	0xbd670c23	-0.05640806
75	0x3e2e11c6	0.16998968
76	0xbdbe87d2	-0.093032494
77	0x3d733fc1	0.059386972
78	0x3d7f1add	0.06228148
79	0xbdde450c	-0.108530134
80	0xbe7d7551	-0.24751784
81	0xbe801409	-0.25015286
82	0x3ed5a909	0.41730526
83	0x3e829eac	0.25511682
84	0x3d60fa48	0.054926187
85	0x3d578a90	0.052622378
86	0x3da76408	0.08173376
87	0x3d4473a3	0.047961842
88	0x3c163785	0.00916851
89	0x3d999818	0.07499713
90	0x3ead2644	0.33818257
91	0x3ea1c299	0.3159378
92	0xbc9c0e22	-0.019049708
93	0xbc4f8228	-0.012665309
94	0xbdf33b60	-0.11876559
95	0xbd2b38f5	-0.041802365
96	0x3b2ab052	0.0026045037
97	0x3d2a0ef8	0.04151818
98	0x3ecdf530	0.40226126
99	0x3e9ba451	0.303988
100	0x3d3a3a11	0.045465533
101	0xbdd41006	-0.10354619
102	0x3e8313f8	0.25601172
103	0xbc74c9ab	-0.0149406595
104	0xbc987315	-0.018609563
105	0x3b558b96	0.003258442
106	0x3b5e6799	0.003393626
107	0x3d910ae6	0.07082157
108	0x3e533d69	0.20628895
109	0xbda43f7a	-0.0801992
110	0x3e68be66	0.22728881
111	0x3e82fd7d	0.2558402
112	0xbd7c2c00	-0.0615654
113	0xbdffc70b	-0.12489136
114	0xbe92a5cd	-0.2864212
115	0xbeaab4b6	-0.33340997
116	0x3c17bf0f	0.0092618605
117	0xbe20a74f	-0.15688823
118	0xbee2b1a5	-0.44276157
119	0xbe9088cf	-0.28229377
120	0xbce4a905	-0.027912626
121	0x3da6297c	0.08113381
122	0x3e806ad4	0.25081503
123	0x3ec187f5	0.3779904
124	0xbd058616	-0.032598577
125	0xbde33e70	-0.110958934
126	0xbea2053a	-0.31644613
127	0xbebb3b5f	-0.36568734
128	0x3dfdcb72	0.1239232
129	0xbd49d273	-0.049272966
130	0x3e426d96	0.18987116
131	0x3e32c060	0.17456198
132	0x3d0b801a	0.034057714
133	0xbd1c2147	-0.038117673
134	0xbc788ea6	-0.015170729
135	0x3ce86e82	0.028373007
136	0x3cbe6c93	0.023245132
137	0xbd43a334	-0.047763065
138	0x3d868754	0.065687805
139	0xbd84a4ce	-0.064767465
140	0xbe32dbce	-0.17466661
141	0x3c395c2d	0.01131348
142	0x3ea0488e	0.31305355
143	0x3e77dfc2	0.2420645
144	0x3cf5b0ad	0.029991472
145	0x3c7f1e7c	0.015571233
146	0x3e60e446	0.2196208
147	0x3e8ab813	0.27093562
148	0xbe2eb81e	-0.17062423
149	0xbe747987	-0.23874484
150	0xbdbc1cdf	-0.09185194
151	0xbe130855	-0.14358647
152	0xbd7d652f	-0.061864074
153	0xbde6206b	-0.11236652
154	0xbeb9207d	-0.361576
155	0xbe958a43	-0.29207048
156	0x3e847cfb	0.25876603
157	0x3d77557c	0.06038426
158	0x3d83e5f1	0.06440342
159	0x3dc43090	0.09579575
160	0xbd3ce1c0	-0.04611373
161	0x3d3af9dc	0.04564844
162	0x3e9af394	0.3026396
163	0x3ed0ebe2	0.40804964
164	0x3d5d4731	0.05402297
165	0xbe6749ae	-0.225867
166	0xbe232af9	-0.15934362
167	0xbeab22f2	-0.334251
168	0xbbf8100a	-0.0075702714
169	0x3d20c37a	0.03924892
170	0x3ee732bd	0.45155898
171	0x3e514e1a	0.2043995
172	0xbda8e3aa	-0.082465485
173	0x3d41836c	0.047244474
174	0x3e0bcd16	0.13652453
175	0xbab8ad99	-0.0014089822
176	0x3dbeea84	0.09322074
177	0xbc5c188b	-0.013433586
178	0xbddfa08a	-0.10919292
179	0x3d983ea5	0.074338235
180	0xbc89dd6e	-0.016829219
181	0x3d47d9a4	0.048791543
182	0xbe5e7aaf	-0.21726488
183	0xbe689145	-0.22711666
184	0x3c945d4d	0.018110896
185	0xbd849d3e	-0.06475304
186	0xbe649ae7	-0.22324716
187	0xbe6bf29e	-0.2304177
188	0xbd31e60e	-0.043432288
189	0xbd82830e	-0.06372653
190	0x3c54715e	0.012966482
191	0xbbf48d1b	-0.00746311
192	0x3c8b4828	0.01700218
193	0x3e23669b	0.1595711
194	0x3eac8d20	0.3370142
195	0x3e978199	0.29591063
196	0x3e116e84	0.14202315
197	0x3e1f9bdb	0.15586798
198	0x3f099ef9	0.537582
199	0x3e8dc5a2	0.27689844
200	0x3d5b6a75	0.053568322
201	0x3ca53e0f	0.020171193
202	0x3ed3c372	0.4136005
203	0x3e7af2df	0.2450671
204	0x3e86f339	0.2635744
205	0x3d7cd274	0.06172414
206	0x3efb6e54	0.4910761
207	0x3e47fb97	0.19529568
208	0xbdf951ff	-0.12173843
209	0xbd8941db	-0.06702014
210	0x3eca4914	0.3950888
211	0x3eb9483c	0.36187923
212	0xbd86a1a1	-0.06573797
213	0x3d4398c2	0.047753103
214	0xbe49241e	-0.19642684
215	0xbe873536	-0.26407784
216	0xbb7446b1	-0.003727358
217	0xbd87a5ab	-0.066233955
218	0x3df1df7f	0.118102066
219	0xbccf05fe	-0.025271412
220	0x3c3f6e4a	0.01168401
221	0xbd4dbc1f	-0.050228234
222	0x3d899787	0.06718355
223	0xbbb148be	-0.005410283
224	0xbd8a4618	-0.067516506
225	0x3e226230	0.15857768
226	0xbee11795	-0.43963304
227	0xbea55098	-0.3228805
228	0x3d3eefc6	0.046615385
229	0xbb88aa03	-0.0041706576
230	0x3dffd43d	0.12491653
231	0x3eff9ad6	0.49922818
232	0xbaa3a7ec	-0.0012485958
233	0xbccf84df	-0.025331913
234	0xbdb893fa	-0.09012599
235	0xbd86db6d	-0.06584821
236	0xbdc18c8f	-0.094506375
237	0xbd475f83	-0.04867507
238	0xbea9bc3e	-0.3315143
239	0xbeb50148	-0.3535254
240	0x3cecb90c	0.028896831
241	0x3e2952e7	0.16535531
242	0x3e4dc134	0.20093232
243	0x3df5df7e	0.120055184
244	0x3e56438c	0.20924205
245	0xbd83d18a	-0.06436451
246	0xbc1cc650	-0.009568766
247	0xbe45d0b8	-0.19317901
248	0xbc0f6256	-0.008751472
249	0xbd135fba	-0.035979964
250	0x3d29c528	0.04144779
251	0xbd8a1712	-0.067426816
252	0x3b20e445	0.0024550122
253	0x3e2dbce2	0.16966584
254	0x3cc790d3	0.02436105
255	0x3d534a44	0.051584497

linear_layer_1.bias f4 [64]
0	0xbe1a5bdd	-0.15074106
1	0xbe02f49c	-0.12788624
2	0xbde78f10	-0.11306584
3	0xbe5722f9	-0.21009435
4	0xbe694d57	-0.22783409
5	0xbddadce7	-0.10686665
6	0xbdd9bded	-0.106319286
7	0x3da32da3	0.07967689
8	0x3e0dbd9a	0.13841859
9	0xbd972041	-0.07379199
10	0xbdd4c608	-0.10389334
11	0x3e0c7119	0.13715018
12	0x3d9f5b94	0.07781139
13	0x3dd29b8a	0.10283573
14	0xbea8d586	-0.32975405
15	0x3dea1c13	0.11431136
16	0x3d8b654a	0.06806429
17	0xbe158b64	-0.14603955
18	0xbe0be373	-0.13660984
19	0xbe0ed23b	-0.13947384
20	0xbc7c212f	-0.015388771
21	0xbe0cfa39	-0.13767327
22	0x3e336c65	0.17521818
23	0xbdff3ae6	-0.12462406
24	0x3de618b0	0.112351775
25	0xbe5886e8	-0.21145213
26	0xbe3993b9	-0.18122758
27	0x3d031368	0.03200093
28	0x3dab1a32	0.08354606
29	0x3da2c3fb	0.079475366
30	0x3e1ad57e	0.15120503
31	0x3dad4d8e	0.08462058
32	0x3d3ca704	0.046057716
33	0xbe93a6ff	-0.28838345
34	0xbdfb0454	-0.12256685
35	0x3d905f1c	0.07049391
36	0x3dac60c2	0.084168926
37	0xbe505a76	-0.20347008
38	0x3d83dbd8	0.06438416
39	0x3c75080a	0.01495553
40	0x3dfc6e94	0.123257786
41	0x3d8c0bd5	0.06838194
42	0x3da8fd7b	0.082514726
43	0xbdc050ff	-0.09390449
44	0xbe29e2b0	-0.1659038
45	0xbdca6902	-0.0988331
46	0xbb28ee3b	-0.0025776762
47	0xbdf419fd	-0.11919019
48	0x3dea03a0	0.11426473
49	0x3df528c7	0.11970668
50	0x3de478f5	0.11155883
51	0x3dbe9491	0.093056805
52	0x3d99017e	0.07470988
53	0x3d067da7	0.032834675
54	0xbe46ab6c	-0.1940133
55	0xbe546951	-0.207433
56	0x3ddcef6a	0.10787852
57	0x3e1f4fad	0.15557738
58	0xbe02c534	-0.1277054
59	0x3e5732d0	0.21015477
60	0x3d8251b6	0.063632414
61	0xbe32afe7	-0.17449914
62	0xbde0abcb	-0.10970267
63	0xbd6ee5b4	-0.05832453

linear_layer_2.weight f4 [64, 64]
0	0xbe5dbe40	-0.21654606
1	0xbda3c725	-0.07996968
2	0xbe05edbc	-0.1307897
3	0x3bb7cd19	0.0056091663
4	0xbde36e06	-0.1110497
5	0xbd3e4f80	-0.046462536
6	0x3c58fc03	0.013243678
7	0xbdfa7999	-0.12230224
8	0xbe3f14a2	-0.18660215
9	0x3ddb2455	0.10700289
10	0x3d618d0e	0.05506616
11	0xbdd01373	-0.1015996
12	0xbdc10066	-0.09423904
13	0x3e73f1e7	0.23822747
14	0x3ce15e45	0.027510772
15	0x3e79a41c	0.24379009
16	0xbb96bdb8	-0.004600253
17	0xbca831a2	-0.02053148
18	0xbdac8309	-0.084234305
19	0x3e1f7cd9	0.1557497
20	0xbe27f3c5	-0.16401584
21	0xbe457864	-0.19284207
22	0xbea2a96d	-0.31769887
23	0xbdb254ff	-0.08707618
24	0xbe8bb1f6	-0.2728421
25	0x3e563003	0.20916753
26	0xbcace818	-0.021106765
27	0xbe1f1697	-0.15535961
28	0x3e824218	0.2544105
29	0x3dda109f	0.106477015
30	0xbe352d27	-0.17693006
31	0x3da6f9d6	0.08153121
32	0xbe343034	-0.17596513
33	0x3d47a4de	0.048741214
34	0x3e7edef0	0.24889731
35	0x3d206239	0.039156172
36	0xbe39be58	-0.18139017
37	0xbd8cefe8	-0.06881696
38	0x3d8f01fc	0.069828
39	0xbe1afdb6	-0.15135846
40	0xbd425d40	-0.04745221
41	0x3eafd468	0.3434174
42	0xbe127648	-0.14302933
43	0x3d4e84b0	0.05041951
44	0xbe815a66	-0.2526428
45	0x3e3e6299	0.185923
46	0x3de2f772	0.11082353
47	0x3db8a0d8	0.090150535
48	0xbea03b75	-0.31295362
49	0xbece5cbe	-0.40305132
50	0xbe8684b4	-0.2627312
51	0xbe2990f9	-0.16559209
52	0xbba47ad4	-0.005019525
53	0x3e6f2e7e	0.23357579
54	0x3d294491	0.041325156
55	0xbdaa8745	-0.08326582
56	0x3a9e6388	0.0012084106
57	0xbe81df74	-0.25365794
58	0xbcd91375	-0.026498536
59	0x3e812060	0.25220013
60	0xbe3054b7	-0.17219816
61	0xbe399721	-0.18124057
62	0xbc6d4553	-0.01448186
63	0xbae12502	-0.0017177167
64	0xbd859483	-0.06522467
65	0xbde58922	-0.11207797
66	0xbe241a78	-0.16025722
67	0xbd09312f	-0.03349417
68	0xbd98d599	-0.074626155
69	0x3c335bcc	0.010947179
70	0xbc66b94b	-0.014082263
71	0xbcc3306a	-0.023826797
72	0xbdd7acf9	-0.10531039
73	0x3dc9a3c1	0.09845687
74	0x3dc76829	0.09736664
75	0xbe12b2df	-0.14326046
76	0xbe111b2e	-0.14170524
77	0xbc81d6b2	-0.015849445
78	0x3e229c30	0.15879893
79	0x3d932186	0.071841285
80	0x3dae388e	0.08506881
81	0xbd4415a6	-0.047872208
82	0x3d479cb8	0.048733443
83	0xbde60513	-0.112314366
84	0x3d530ba4	0.051524773
85	0x3dc56e15	0.09640137
86	0x3dbeb315	0.09311501
87	0x3e1b9aff	0.15195845
88	0xbeafa488	-0.34305215
89	0x3e064a3b	0.13114254
90	0x3cda33f8	0.026636109
91	0xbc6d0fc3	-0.01446909
92	0xbdd652e4	-0.10465029
93	0xbe89b8fa	-0.26898938
94	0xbdc39b0a	-0.09551056
95	0x3e1161b5	0.14197429
96	0x3e04b400	0.1295929
97	0xbbef8ea8	-0.007310707
98	0xbdf474fc	-0.119363755
99	0xbd7e7546	-0.06212356
100	0xbe13d2bc	-0.14435858
101	0xbd87e69d	-0.06635783
102	0xbde065c7	-0.109569125
103	0xbd095bcf	-0.03353482
104	0x3db345f3	0.08753576
105	0xbe3f4738	-0.18679512
106	0x3e0678c7	0.1313201
107	0xbb8d6599	-0.00431509
108	0xbdf235a2	-0.11826636
109	0xbd95768d	-0.072980024
110	0x3d908687	0.07056909
111	0xbe352e97	-0.17693554
112	0x3d221cb8	0.03957817
113	0x3e224e4a	0.15850177
114	0x3d7e4903	0.06208135
115	0xbe31bfb4	-0.17358285
116	0xbe9db49b	-0.30801854
117	0xbe16bbc4	-0.14720064
118	0xbe110d87	-0.14165317
119	0xba713fd7	-0.0009202933
120	0xbcbb43c2	-0.022859458
121	0x3d351808	0.04421237
122	0x3d5022d5	0.05081447
123	0xbe0f2262	-0.1397796
124	0xbc9b63f8	-0.018968567
125	0x3d1b2a8a	0.037882365
126	0x3d98fdec	0.07470307
127	0xbd84c3cb	-0.06482657
128	0x3e232d9d	0.15935369
129	0xbd0dc425	-0.034610886
130	0x3bdbadfc	0.00670409
131	0x3ccf8ed0	0.025336653
132	0xbdd34bd9	-0.10317201
133	0xbda6b430	-0.08139837
134	0xbdc5c88a	-0.096573904
135	0x3ce63566	0.028101634
136	0x3e06f7f8	0.1318053
137	0xbea1466f	-0.3149905
138	0x3cc37010	0.023857147
139	0x3e02d9ec	0.12778443
140	0x3db7ee63	0.089810155
141	0xbac1958e	-0.0014769302
142	0x3d9f3b31	0.07774962
143	0xbc02219a	-0.007942582
144	0xbd8c1b23	-0.068411134
145	0x3dc3d8df	0.09562849
146	0x3d3ec90e	0.04657846
147	0xbc8f85fd	-0.017519945
148	0x3ddfd80a	0.10929878
149	0x3dbe211f	0.09283661
150	0x3e0f7580	0.14009666
151	0x3dc435de	0.09580587
152	0x3bb7876d	0.005600861
153	0xbe72ce8f	-0.23711608
154	0x3e011a61	0.12607719
155	0xbdf9527a	-0.12173934
156	0x3b88119e	0.0041524908
157	0xbde51b53	-0.11186852
158	0x3d3b1b7f	0.04568052
159	0xbe016d70	-0.12639403
160	0x3dae63bf	0.08515119
161	0xbccd462c	-0.025057875
162	0x3d4d0148	0.05005005
163	0xbc8083e2	-0.015687887
164	0x3e6bd3e1	0.23030044
165	0xbd05f1d4	-0.03270133
166	0xbd947586	-0.07248978
167	0x3e498648	0.1968013
168	0x3e92f726	0.28704184
169	0xbe88ca4b	-0.26716837
170	0x3e8236c3	0.25432405
171	0xbd0686f5	-0.03284355
172	0x3c9f6405	0.019456873
173	0xbca79efe	-0.020461556
174	0x3ca4c41a	0.02011304
175	0x3c49e176	0.0123218205
176	0x3df91c76	0.121636316
177	0x3e001837	0.12509237
178	0x3d971565	0.073771276
179	0x3bef0285	0.0072940015
180	0x3d9c126e	0.07620703
181	0xbd27861e	-0.04089939
182	0x3d77e774	0.060523465
183	0x3e6b90da	0.23004475
184	0xbe0af44e	-0.13569757
185	0x3d8fa250	0.070133805
186	0x3e1081ee	0.14112064
187	0xbe2bd5bf	-0.16780756
188	0xbcbc4d86	-0.022986185
189	0x3d152abf	0.03641772
190	0xbde10137	-0.1098656
191	0xbcf8ddfc	-0.030379288
192	0xbd7eed16	-0.06223782
193	0xbe1cc0f9	-0.15307988
194	0x3cb8ac7b	0.022543183
195	0x3e0d0e85	0.1377507
196	0x3ddc4275	0.10754863
197	0xbd8f7484	-0.070046455
198	0x3e22ac23	0.15885977
199	0xbc7f25ef	-0.015573009
200	0xbdfaffa7	-0.12255793
201	0x3e91489f	0.28375718
202	0x3de37c11	0.11107648
203	0xbe1c2a34	-0.15250474
204	0x3dd2923e	0.102818
205	0x3eae643b	0.34060845
206	0x3dbcb00a	0.09213264
207	0x3d318f09	0.0433493
208	0x3db9dec1	0.0907569
209	0x3d75f3e4	0.060047045
210	0x3e3b6caf	0.18303178
211	0x3d9b17d6	0.07572906
212	0xbd0d653a	-0.034520365
213	0xbddb247a	-0.10700317
214	0xbea376e7	-0.31926653
215	0xbd40a304	-0.047030464
216	0xbddfd6c9	-0.10929639
217	0xbd3c06aa	-0.045904793
218	0x3c39ec69	0.0113478685
219	0xbd2563ee	-0.040378504
220	0x3e937c25	0.28805652
221	0x3e5446ea	0.20730177
222	0xbd7c7cec	-0.061642572
223	0x3e699dd5	0.22814114
224	0xbe4c0e92	-0.19927433
225	0x3d7fb0eb	0.06242458
226	0x3d75bf31	0.059996787
227	0xbdc18235	-0.09448663
228	0x3d44586e	0.047935896
229	0x3e190b05	0.1494561
230	0x3e2517e8	0.16122401
231	0x3ddbf3ed	0.107398845
232	0xbe220028	-0.15820372
233	0x3e5c8505	0.21535118
234	0xbe43f5c5	-0.19136722
235	0x3c3fb5ca	0.011701057
236	0xbdc0dd96	-0.09417264
237	0x3d977150	0.073946595
238	0x3da7d9d6	0.08195846
239	0x3cea0413	0.028566396
240	0xbeab00d2	-0.33399063
241	0xbe23bc4f	-0.15989803
242	0xbecb4f05	-0.39708725
243	0xbdc6654a	-0.09687288
244	0xbe21a09e	-0.15783927
245	0x3d5949e0	0.05304897
246	0xbd4a2c48	-0.049358636
247	0x3ce59234	0.028023817
248	0x3e1d1bb2	0.15342596
249	0xbec967d3	-0.39337024
250	0x3e2750d0	0.16339421
251	0x3da6627e	0.08124255
252	0xbdb8ca47	-0.09022956
253	0xbc68318c	-0.014171969
254	0xbe0c958c	-0.13728923
255	0x3d8f228c	0.06989011

linear_layer_2.bias f4 [64]
0	0xbbcd7d84	-0.006271066
1	0xbdb5713d	-0.08859489
2	0x3d8c24f0	0.06842983
3	0x3e74e795	0.23916467
4	0xbe35ba60	-0.17746878
5	0x3ddfe78a	0.109328344
6	0xbe142f4b	-0.14471166
7	0xbdebfe4d	-0.115231134
8	0x3e7a4f96	0.24444422
9	0xbdf5a089	-0.1199351
10	0xbd34f761	-0.04418123
11	0x3e80a6a4	0.25127137
12	0x3d590cb9	0.05299065
13	0x3d6d55a2	0.057942994
14	0xbbe1bd09	-0.00688899
15	0xbceaaa1a	-0.028645564
16	0xbdfae860	-0.12251353
17	0xbd4b9831	-0.049705688
18	0x3e18dac0	0.14927197
19	0xbe110c0c	-0.14164752
20	0xbddbdc20	-0.10735345
21	0xbde6d2c0	-0.11270666
22	0xbd2b720c	-0.04185681
23	0xbd398f7f	-0.045302864
24	0xbcb98a6a	-0.022649009
25	0x3de211f0	0.110385776
26	0x3e8ca91f	0.2747278
27	0xbe1ccfb2	-0.15313604
28	0x3d98a5eb	0.07453521
29	0xbe10ce7a	-0.14141265
30	0x3b39f758	0.0028376188
31	0x3e14eea0	0.14544153
32	0xbdab27e8	-0.08357221
33	0x3d2bf170	0.0419783
34	0x3d905f23	0.07049396
35	0xbe05631d	-0.1302609
36	0xbdbcbe8a	-0.0921603
37	0xbd65ea63	-0.05613173
38	0x3ccb6882	0.024830107
39	0xbd574b62	-0.052562125
40	0x3d8992a5	0.06717423
41	0xbcde7c4d	-0.02715888
42	0x3dba4016	0.09094255
43	0xbddff7dd	-0.10935948
44	0x3e1eeefa	0.1552085
45	0xbdb4ea61	-0.08833767
46	0x3dc20d29	0.09475166
47	0x3d8384d7	0.064218216
48	0xbc5fe0d4	-0.013664443
49	0x3d44103d	0.04786705
50	0xbca8f210	-0.020623237
51	0xbe190313	-0.14942579
52	0x3bed8394	0.0072483514
53	0xbea00da7	-0.31260416
54	0x3d9a6e1e	0.075405344
55	0x3dfd4565	0.123667516
56	0xbcfa1881	-0.030529262
57	0xbe4f4d48	-0.20244324
58	0x3dfd0ec1	0.1235633
59	0x3d9ddbb4	0.07707921
60	0xbc01b5c7	-0.007916874
61	0xbdd2bf01	-0.10290337
62	0xbdd2a2d8	-0.10284966
63	0xbe824721	-0.25444892

output_layer.weight f4 [2, 64]
0	0x3e2320c7	0.15930472
1	0xbd3d899d	-0.046273816
2	0xbda16afd	-0.078817345
3	0x3e382715	0.17983659
4	0xbde6166b	-0.11234745
5	0x3d926553	0.07148232
6	0xbd60431a	-0.054751493
7	0xbbe65048	-0.0070286132
8	0x3e9ed384	0.3102075
9	0xbde64ec5	-0.11245493
10	0xbe0700c0	-0.1318388
11	0x3e8ad2e7	0.2711403
12	0xbcc24394	-0.023713864
13	0xbd6f5d04	-0.058438316
14	0xbe04bd55	-0.1296285
15	0x3d0132a3	0.03154243
16	0xbdf5fc15	-0.120109715
17	0x3d6b448d	0.057438422
18	0xbe6c3002	-0.23065189
19	0xbd3abc7d	-0.045589913
20	0x3dd3b435	0.10337106
21	0x3da082bf	0.07837438
22	0x3e277650	0.16353726
23	0xbd652103	-0.055939686
24	0xbe1caa9a	-0.15299454
25	0xbb82432a	-0.0039752917
26	0x3e35213a	0.17688456
27	0x3bbc4abc	0.0057462137
28	0xbe5a7393	-0.2133315
29	0xbbbd2084	-0.0057716984
30	0x3d5fc47b	0.054630738
31	0x3e690af5	0.22758086
32	0xbbdaf3fa	-0.0066819163
33	0x3e8bf722	0.27336985
34	0x3e553cf2	0.2082403
35	0xbde40deb	-0.11135467
36	0x3d132543	0.035924207
37	0xbcbd8000	-0.023132324
38	0xbe44d4a1	-0.19221736
39	0xbd842a9b	-0.06453439
40	0xbe22148b	-0.15828149
41	0xbdf01a79	-0.11723799
42	0xbe409359	-0.18806209
43	0xbd5b17e2	-0.053489573
44	0x3e7aff06	0.24511346
45	0xbc5236ef	-0.01283048
46	0xbd5109a8	-0.0510346
47	0xbcecdfc8	-0.028915301
48	0x3d6513fe	0.05592727
49	0x3e0f408e	0.1398947
50	0x3b1ec3f1	0.0024225677
51	0xbc5b90a4	-0.013401184
52	0x3e4d5522	0.20052007
53	0x3d0edc90	0.034878314
54	0xbba3293d	-0.004979281
55	0x3e72a82a	0.23696962
56	0x3d9edf78	0.07757467
57	0x3e47e2b6	0.19520077
58	0x3eb9433e	0.36184114
59	0x3e8046c1	0.2505398
60	0x3ebe7241	0.37196544
61	0x3ce2c004	0.02767945
62	0x3bbdc829	0.005791683
63	0xbe0bdfea	-0.13659635
64	0xbe898e93	-0.26866588
65	0xbcba1ae9	-0.02271791
66	0xbd3e661f	-0.04648411
67	0xbe72cfeb	-0.23712127
68	0xbe0fae35	-0.14031298
69	0xbe7a36e8	-0.24435008
70	0xbe43653b	-0.19081585
71	0x3c7c47f8	0.015398018
72	0xbdf93e3a	-0.12170072
73	0x3cea95ed	0.028635943
74	0xbd1cd35d	-0.03828751
75	0xbdaa9581	-0.08329297
76	0x3e3ef997	0.18649898
77	0x3cbcc4c7	0.02304305
78	0xbe122cdc	-0.14274925
79	0x3da2178b	0.07914647
80	0xbe068357	-0.1313604
81	0x3e3ff7fa	0.1874694
82	0x3e7a7aed	0.24460955
83	0xbd9f209f	-0.07769894
84	0xbd0882fa	-0.033328034
85	0x3e312c68	0.17302096
86	0x3d2dfa6a	0.04247514
87	0xbd5508bc	-0.052010283
88	0x3e457803	0.19284062
89	0xbc2fd332	-0.010731505
90	0xbe08726c	-0.13324898
91	0x3da4edeb	0.08053192
92	0x3e4686b9	0.1938733
93	0xbe9023f3	-0.28152427
94	0x3d4ce8e9	0.050026808
95	0xbe4cc12c	-0.19995564
96	0x3cc35046	0.023841988
97	0xbc344fe0	-0.011005372
98	0xbe41940c	-0.18904132
99	0x3d02643c	0.031833872
100	0x3d31a4ff	0.043370243
101	0x3d3efd2d	0.046628166
102	0x3db6ac29	0.08919556
103	0xbd0801cd	-0.033204842
104	0x3deb92c0	0.115026
105	0xbd3c8c2b	-0.046032112
106	0x3e524616	0.20534548
107	0x3d7ee385	0.0622287
108	0xbe532505	-0.2061959
109	0xbccfa833	-0.025348758
110	0x3c7bb33e	0.015362559
111	0x3ebeb38d	0.3724636
112	0x3d243576	0.040090047
113	0x3deb2e03	0.114833854
114	0xbd53f1b2	-0.05174417
115	0xbdf678b2	-0.120347396
116	0xbe47bf54	-0.1950658
117	0x3d5ddc3a	0.054165103
118	0xbd98ec98	-0.07467002
119	0xbe023f03	-0.1271935
120	0x3d861371	0.06546677
121	0xbd34e108	-0.04415992
122	0xbde5fc2a	-0.11229737
123	0xbe575177	-0.2102717
124	0xbe84bee8	-0.259269
125	0xbd893cf7	-0.06701081
126	0xbcb8b2b8	-0.022546157
127	0xbe485af2	-0.19565943

output_layer.bias f4 [2]
0	0xbe11078f	-0.1416304
1	0xbd033a94	-0.032038286

exp_avg f4 [64, 4]
0	0x3596b132	1.1227442e-06
1	0x36882190	4.057023e-06
2	0x342ebf6f	1.6274656e-07
3	0xb6b9b185	-5.5340956e-06
4	0xb9a7b238	-0.00031985505
5	0xb95b4f28	-0.00020914956
6	0xb67b9b2e	-3.749224e-06
7	0x3814ccb7	3.5476605e-05
8	0x3aac2ff4	0.001313685
9	0x399b6359	0.00029637924
10	0x38542adb	5.058465e-05
11	0xb89f70b2	-7.602702e-05
12	0x38206849	3.8244096e-05
13	0x363e7e97	2.8385891e-06
14	0x34c56fad	3.6775364e-07
15	0xb6cb11ae	-6.0519296e-06
16	0xb6197e6d	-2.2872366e-06
17	0xb650ede1	-3.113288e-06
18	0xb4a925d5	-3.150623e-07
19	0xb51f7fe7	-5.941824e-07
20	0x386b07f4	5.6035773e-05
21	0xb975ee2b	-0.00023453745
22	0xb6816788	-3.856552e-06
23	0x37c1782a	2.3063349e-05
24	0x3a797cf3	0.0009517215
25	0x39811d4f	0.00024626634
26	0x383e1773	4.532137e-05
27	0xb8794a48	-5.9435406e-05
28	0xbb10ad5e	-0.002207599
29	0xbb67f11e	-0.003539152
30	0xb98d737e	-0.00026979664
31	0x3a44590a	0.00074900745
32	0xbbae63db	-0.0053219623
33	0xbbb020b7	-0.0053749937
34	0xba0399df	-0.0005020182
35	0x3a7a79ec	0.0009554911
36	0x3a2bd4bd	0.0006554833
37	0xb9160c0a	-0.000143096
38	0xb70cca15	-8.391701e-06
39	0xb8e9dd6b	-0.00011151548
40	0xb6e1dcfd	-6.731249e-06
41	0xb7a9a826	-2.022467e-05
42	0xb501b8bb	-4.8325063e-07
43	0x373375ba	1.0696642e-05
44	0xbb8cfe03	-0.0043027415
45	0xbba3a88c	-0.0049944576
46	0xb9ed9969	-0.00045318462
47	0x3a5c47c9	0.0008403031
48	0x3a700f96	0.0009157596
49	0x39e8b9c5	0.00044388897
50	0x386bcf0b	5.622119e-05
51	0xb94efd2b	-0.00019740003
52	0x3ba0995b	0.004901094
53	0x3be88856	0.0070963306
54	0x3a167d5a	0.0005740725
55	0xbade87b4	-0.0016977699
56	0x3706d2aa	8.036071e-06
57	0x3708bc49	8.15007e-06
58	0x353ad0cd	6.9594245e-07
59	0xb45ccea4	-2.0564272e-07
60	0x3b266d8c	0.0025394885
61	0x3b769541	0.0037625583
62	0x39f15ab6	0.00046034687
63	0xba62f91f	-0.0008658338
64	0x399bc313	0.00029709245
65	0xb97dd686	-0.00024207876
66	0xb88f6ee2	-6.839425e-05
67	0xb8073408	-3.2234966e-05
68	0x38ed1a8b	0.00011305985
69	0x3864bf11	5.453738e-05
70	0xb78207ea	-1.5500893e-05
71	0x37e8a4dc	2.7733324e-05
72	0xb8c916eb	-9.588696e-05
73	0xb86d74ce	-5.6613986e-05
74	0x3643cc3d	2.9176147e-06
75	0x38470e75	4.745876e-05
76	0x3902a25b	0.00012458248
77	0xb9052072	-0.00012695955
78	0x3684365a	3.940234e-06
79	0x3724bdcb	9.819351e-06
80	0xba8c6ec0	-0.0010714158
81	0xbab847a1	-0.0014059433
82	0xb91a2576	-0.0001470054
83	0x38705a31	5.7304456e-05
84	0x3a4ec410	0.0007887492
85	0x39149958	0.00014171505
86	0x36e19105	6.722405e-06
87	0xb81ff2d0	-3.813469e-05
88	0xbbe4de4e	-0.0069845086
89	0xbbe82f4e	-0.0070857173
90	0xba397c17	-0.0007075681
91	0x3ad9855b	0.0016595529
92	0x363c7d64	2.808717e-06
93	0x362120e4	2.4010014e-06
94	0x34a2c36c	3.031704e-07
95	0x3494cc9d	2.7716024e-07
96	0xbb8f20dd	-0.0043679313
97	0xbbc47d56	-0.0059963865
98	0xba0a37b5	-0.0005272583
99	0x3a7fb5bc	0.00097545586
100	0x39311335	0.0001688719
101	0x39156a7c	0.00014249416
102	0xb7208698	-9.568081e-06
103	0xb6822722	-3.8788576e-06
104	0xb3dfa26c	-1.0413791e-07
105	0xb5661922	-8.571825e-07
106	0x342af9a6	1.5923305e-07
107	0x35bf893c	1.4270549e-06
108	0xba544e1c	-0.00080987974
109	0xbaf401a1	-0.0018616208
110	0xb978f42b	-0.00023742083
111	0x39367490	0.00017400295
112	0x3b655039	0.0034990443
113	0x3b80fcb3	0.003936374
114	0x39c341f5	0.0003724244
115	0xba726743	-0.00092469546
116	0x3b5c5a30	0.0033623092
117	0x3ba85867	0.0051374915
118	0x39e5def0	0.00043844385
119	0xba7e7f9d	-0.0009708347
120	0xbb1dc49d	-0.002407349
121	0xbb69b873	-0.0035662919
122	0xb9f68122	-0.00047016988
123	0x3a0d57f2	0.0005391828
124	0x3bd7c21b	0.0065844185
125	0x3bd235c5	0.0064151012
126	0x3a1b1729	0.0005916232
127	0xba9aee9d	-0.001182038
128	0x3961db1b	0.00021539295
129	0x373f0ee1	1.1387951e-05
130	0xb7076ecc	-8.072424e-06
131	0xb7f1ea04	-2.883841e-05
132	0x3558f243	8.081881e-07
133	0x35292477	6.301047e-07
134	0x335f6249	5.2010623e-08
135	0x3458da10	2.0195898e-07
136	0x35ab8449	1.2778993e-06
137	0xb6e972c1	-6.9573002e-06
138	0xb57ba39d	-9.3742875e-07
139	0xb6125dc9	-2.1810285e-06
140	0xba9d1108	-0.0011983225
141	0xbac34051	-0.0014896487
142	0xb94a5f36	-0.0001929969
143	0x39036e5a	0.00012534243
144	0xbafe9e06	-0.0019425757
145	0xbb0833d3	-0.0020782843
146	0xb9739368	-0.00023229199
147	0x3962ec56	0.00021641082
148	0xba3ff42c	-0.0007322456
149	0xb9e722ee	-0.00044085778
150	0xb76eda39	-1.4236714e-05
151	0x3922fc67	0.00015543551
152	0x3b70dc93	0.0036752566
153	0x3baaf135	0.0052167424
154	0x39f1d789	0.00046127688
155	0xbaad97f6	-0.001324414
156	0xba93e24d	-0.0011282653
157	0xbaa3a722	-0.0012485723
158	0xb9902e8b	-0.00027500498
159	0x39cbcbbb	0.00038870968
160	0xbb3a338a	-0.0028412067
161	0xbbb6e6ad	-0.005581698
162	0xba116d39	-0.00055475865
163	0x3a670905	0.00088132947
164	0x3bd33aca	0.006446217
165	0x3c118e21	0.008883984
166	0x3a34573d	0.00068794546
167	0xbaf116dd	-0.0018393655
168	0xbb19cb2d	-0.002346705
169	0xbb657692	-0.00350133
170	0xb99553e2	-0.00028481992
171	0x3a2651bc	0.0006344577
172	0xb95746de	-0.00020530398
173	0x390b0eec	0.00013261632
174	0x3787faa2	1.6209964e-05
175	0xb6d06bb6	-6.2114223e-06
176	0xb92c8c4e	-0.00016455466
177	0xb8c7170a	-9.493351e-05
178	0xb5fe7089	-1.8957227e-06
179	0xb63ded1c	-2.830121e-06
180	0x3b0c1557	0.0021375024
181	0x3a298c1a	0.0006467715
182	0x391833a3	0.00014515086
183	0xb9a7f644	-0.00032036204
184	0x3a9da2cf	0.001202667
185	0x3ac2e4b5	0.0014869185
186	0x3902e10d	0.00012481604
187	0xb9a0cd29	-0.00030670434
188	0x37ab1623	2.0395097e-05
189	0x3780cc71	1.535399e-05
190	0xb59c11d3	-1.1628093e-06
191	0x36c8f2b4	5.988719e-06
192	0xbb8f1eee	-0.004367701
193	0xbb98a13a	-0.0046578916
194	0xba40c45d	-0.0007353479
195	0x3a828884	0.0009958898
196	0xbb3c32a4	-0.0028716708
197	0xbb1e2989	-0.0024133644
198	0xba485058	-0.00076413667
199	0x39a657d8	0.00031727436
200	0xbbc3cae5	-0.0059751146
201	0xbbaa6775	-0.0052003213
202	0xba02f1d5	-0.0004995142
203	0x3a2fb888	0.00067032175
204	0xba75a8f8	-0.00093711866
205	0xbb0dd804	-0.0021643648
206	0xb9d1afdc	-0.00039994612
207	0x3a034611	0.0005007694
208	0xba4f0231	-0.000789675
209	0xbb316fbc	-0.0027074656
210	0xb99ebbe8	-0.0003027611
211	0x39905b3a	0.0002753379
212	0x3ae5e677	0.0017539997
213	0x3a9a26ac	0.0011760793
214	0x39306fef	0.00016826366
215	0xb9796411	-0.00023783768
216	0x365e4bcb	3.3124695e-06
217	0x3650d775	3.1119828e-06
218	0x34881575	2.5347586e-07
219	0xb31ff15e	-3.7239595e-08
220	0x3830359a	4.201159e-05
221	0xb86e5b05	-5.682839e-05
222	0xb645eb67	-2.949231e-06
223	0x3763f2a0	1.3586745e-05
224	0x3b4a67bb	0.0030884582
225	0x3ad4cc63	0.0016235228
226	0x39a8fd2f	0.00032232094
227	0xb9b9c645	-0.00035433672
228	0xbb8b2c7c	-0.0042472463
229	0xbb9396f3	-0.0045040785
230	0xb9d0719c	-0.00039757497
231	0x39a7f7df	0.000320374
232	0x36343223	2.6851274e-06
233	0xb66949a1	-3.4762563e-06
234	0xb5512386	-7.791026e-07
235	0xb5ed3f12	-1.7676232e-06
236	0x3b827cb2	0.00398215
237	0x3b81bdc6	0.0039593903
238	0x39dd9781	0.00042265284
239	0xba554522	-0.0008135607
240	0xba2f3a89	-0.00066844426
241	0xb9c577dd	-0.00037664073
242	0xb91bedf7	-0.000148706
243	0x390bf201	0.00013346226
244	0xba99c654	-0.001173208
245	0xb9b72193	-0.00034929495
246	0xb7c8419d	-2.3872411e-05
247	0x393bbcaf	0.00017904
248	0x38d41ae3	0.00010113956
249	0x38624415	5.3946005e-05
250	0xb48b16d4	-2.5907377e-07
251	0xb776e6d8	-1.471649e-05
252	0xb9a24ab0	-0.00030954694
253	0xbaaaba23	-0.0013025444
254	0xb77dbcfb	-1.5123976e-05
255	0x38d574e9	0.00010178408

exp_avg_sq f4 [64, 4]
0	0x301d209e	5.716262e-10
1	0x32b46371	2.0999979e-08
2	0x2f920641	2.656169e-10
3	0x3321186d	3.750795e-08
4	0x33525f96	4.898137e-08
5	0x33b9f5f6	8.659474e-08
6	0x3039541d	6.742214e-10
7	0x3058e65a	7.890769e-10
8	0x353ba0e9	6.9897084e-07
9	0x35182a38	5.668585e-07
10	0x315d2c27	3.218483e-09
11	0x333d2f80	4.4048193e-08
12	0x307ef18a	9.274791e-10
13	0x2daf94f7	1.996135e-11
14	0x2a17178a	1.3419661e-13
15	0x2e4966bf	4.5793366e-11
16	0x2ed6288d	9.7387966e-11
17	0x2f46f7a7	1.8095979e-10
18	0x2c11a2b1	2.0696051e-12
19	0x2d3d1ad5	1.0749364e-11
20	0x311b6084	2.2610331e-09
21	0x32f396f7	2.8357574e-08
22	0x3007d454	4.941445e-10
23	0x3331131d	4.1228407e-08
24	0x34fe7574	4.7396645e-07
25	0x34f8cde5	4.6343408e-07
26	0x31883c7e	3.964998e-09
27	0x3366925e	5.3684168e-08
28	0x35b10b7e	1.3190872e-06
29	0x3676d226	3.677918e-06
30	0x33372ed2	4.265059e-08
31	0x34811601	2.4044132e-07
32	0x371cb5ba	9.340636e-06
33	0x371f9140	9.510957e-06
34	0x33ba30aa	8.670152e-08
35	0x34dddf19	4.1326783e-07
36	0x3357a642	5.02098e-08
37	0x33f21823	1.12733936e-07
38	0x30d8bf48	1.5770434e-09
39	0x339a94e0	7.198264e-08
40	0x31707d46	3.4995806e-09
41	0x328b57e1	1.6221692e-08
42	0x2ee45fad	1.0385235e-10
43	0x3296b4a3	1.7544442e-08
44	0x3709b314	8.207531e-06
45	0x37066820	8.011266e-06
46	0x339ee126	7.3984026e-08
47	0x34b0e4dc	3.2949072e-07
48	0x347489d4	2.2774412e-07
49	0x34d68e96	3.996435e-07
50	0x3208487d	7.932724e-09
51	0x33f0a556	1.1205945e-07
52	0x368ee633	4.2587285e-06
53	0x37160a12	8.943041e-06
54	0x33f972ad	1.16158255e-07
55	0x354d01a2	7.637083e-07
56	0x30a84f9d	1.2246236e-09
57	0x30b5f55c	1.3239219e-09
58	0x2d2f2d44	9.957649e-12
59	0x2f1dd265	1.4353814e-10
60	0x36afa645	5.2347627e-06
61	0x36d9a195	6.4859146e-06
62	0x33971ecd	7.037088e-08
63	0x34c9f396	3.76164e-07
64	0x34ae6ae7	3.2487807e-07
65	0x34d020ff	3.8767027e-07
66	0x32845e26	1.5409636e-08
67	0x341da7f2	1.4682863e-07
68	0x330b1818	3.2385373e-08
69	0x32c23d40	2.2612426e-08
70	0x300467a9	4.816863e-10
71	0x3221cecf	9.418456e-09
72	0x327b83e4	1.4640111e-08
73	0x31db2cb2	6.37882e-09
74	0x2f16c5d1	1.3712699e-10
75	0x31bba48f	5.4611244e-09
76	0x3218eb91	8.901126e-09
77	0x33bc7e46	8.777401e-08
78	0x300d0ea4	5.1316307e-10
79	0x341c0510	1.4530474e-07
80	0x350c8c7d	5.23585e-07
81	0x35a60c31	1.2371512e-06
82	0x32ec0e8d	2.7480633e-08
83	0x346ba75b	2.1946964e-07
84	0x34c491cb	3.6613923e-07
85	0x3487e1c6	2.530998e-07
86	0x3084e4f5	9.669338e-10
87	0x3384865a	6.1711674e-08
88	0x375f5a0d	1.3312802e-05
89	0x379260c2	1.7449613e-05
90	0x34169578	1.4024215e-07
91	0x352f34ff	6.52697e-07
92	0x2f254e69	1.503452e-10
93	0x2fb64a40	3.3158365e-10
94	0x2c19582c	2.1791553e-12
95	0x2f57e384	1.9634966e-10
96	0x366caec1	3.526846e-06
97	0x36d74dfe	6.416579e-06
98	0x33a058a5	7.466705e-08
99	0x34f4b0a3	4.5577062e-07
100	0x33126f7d	3.4094672e-08
101	0x32e2edaf	2.6417949e-08
102	0x2f75fcbb	2.2372408e-10
103	0x315fa34c	3.2543594e-09
104	0x2e8a51e3	6.2900594e-11
105	0x3184f6fc	3.8697845e-09
106	0x2f12225c	1.329083e-10
107	0x32333b29	1.0432623e-08
108	0x3625d0b9	2.4708409e-06
109	0x36316bbe	2.643777e-06
110	0x3332fe3e	4.1675086e-08
111	0x34789970	2.315262e-07
112	0x367f0934	3.8003318e-06
113	0x36859560	3.9810984e-06
114	0x3347c678	4.6513804e-08
115	0x34a745e1	3.1157018e-07
116	0x36a02a62	4.7733056e-06
117	0x3692fd01	4.3805926e-06
118	0x33683100	5.4061275e-08
119	0x3493484a	2.743348e-07
120	0x363851fa	2.7465853e-06
121	0x3691a2cb	4.3402883e-06
122	0x3319579e	3.5702776e-08
123	0x346b72a7	2.1927791e-07
124	0x3728b725	1.0056222e-05
125	0x374738f2	1.1874583e-05
126	0x33ff37d2	1.18845165e-07
127	0x352023b7	5.9656617e-07
128	0x342f647a	1.6334698e-07
129	0x3457916d	2.0076341e-07
130	0x3216094f	8.733266e-09
131	0x339baf3f	7.249627e-08
132	0x2d5972e8	1.2360536e-11
133	0x2d042d76	7.513426e-12
134	0x29668b99	5.119134e-14
135	0x2b594267	7.718604e-13
136	0x2f089eb5	1.2425512e-10
137	0x31f6a2a4	7.1780324e-09
138	0x2e9410dd	6.733256e-11
139	0x325d3f26	1.2878251e-08
140	0x34e2fecf	4.2281178e-07
141	0x35a002bd	1.1921726e-06
142	0x3326be01	3.8822694e-08
143	0x346475d9	2.1277027e-07
144	0x36025383	1.942012e-06
145	0x3603e98c	1.9656463e-06
146	0x32b49a5c	2.1024952e-08
147	0x33b73eb4	8.533007e-08
148	0x33be4e44	8.861801e-08
149	0x342d9394	1.6165569e-07
150	0x30c4fb92	1.4332378e-09
151	0x321dfb3b	9.195726e-09
152	0x3673e337	3.6342078e-06
153	0x36b1c479	5.2978835e-06
154	0x338cb4ea	6.552166e-08
155	0x34dbae4b	4.0918744e-07
156	0x3612deee	2.1885457e-06
157	0x35b8fd8d	1.3782861e-06
158	0x325d6949	1.2887832e-08
159	0x33bfd70d	8.933248e-08
160	0x3670c6b1	3.587844e-06
161	0x36f14f79	7.1916115e-06
162	0x33b91243	8.6180556e-08
163	0x34ef8b8f	4.461876e-07
164	0x376bde09	1.4058788e-05
165	0x373fb2b7	1.1426097e-05
166	0x34097377	1.2801125e-07
167	0x356e4d79	8.8774647e-07
168	0x35d0beb6	1.5552712e-06
169	0x364891d6	2.988721e-06
170	0x32f16e7a	2.8106331e-08
171	0x3423c293	1.5251344e-07
172	0x3252420c	1.2238626e-08
173	0x33c8b585	9.346244e-08
174	0x302c3617	6.26501e-10
175	0x33ea7c48	1.0919081e-07
176	0x33e19fbd	1.0506435e-07
177	0x33ce7e90	9.615644e-08
178	0x2fbec71b	3.4702272e-10
179	0x312194d2	2.3513178e-09
180	0x360f0553	2.131176e-06
181	0x360088ae	1.9153044e-06
182	0x3274f5d0	1.42585606e-08
183	0x33f137ed	1.123261e-07
184	0x35471d66	7.417606e-07
185	0x35563927	7.980438e-07
186	0x32498a3e	1.17311725e-08
187	0x33c63007	9.2288296e-08
188	0x3278e265	1.4486976e-08
189	0x3314b9d1	3.4627934e-08
190	0x2f86c8d1	2.4517147e-10
191	0x326bfe79	1.3736661e-08
192	0x36c9e8df	6.0173766e-06
193	0x36eecc45	7.116733e-06
194	0x337f6c88	5.9470523e-08
195	0x35176fdf	5.641468e-07
196	0x36d0df35	6.224868e-06
197	0x36e40855	6.7958995e-06
198	0x33ad64b7	8.07426e-08
199	0x34d3a103	3.9418964e-07
200	0x36bb73cf	5.586516e-06
201	0x3706f35c	8.043684e-06
202	0x33a0f28d	7.4947e-08
203	0x34ca5238	3.7685254e-07
204	0x35cdfc38	1.5347096e-06
205	0x35a5c2d4	1.235016e-06
206	0x329ce03e	1.8262764e-08
207	0x33b2614f	8.306471e-08
208	0x3567eac8	8.639586e-07
209	0x35f9bd3e	1.8607022e-06
210	0x33346ed9	4.201033e-08
211	0x348321ba	2.442519e-07
212	0x358be0b9	1.042171e-06
213	0x35a72494	1.2453115e-06
214	0x32d2c377	2.4536105e-08
215	0x3432e17f	1.6659577e-07
216	0x2f652f00	2.0844126e-10
217	0x2f49cc36	1.8353394e-10
218	0x2bc1a679	1.375968e-12
219	0x2cb6e2cd	5.197931e-12
220	0x302e4745	6.340211e-10
221	0x3101cef6	1.8889614e-09
222	0x2df34ca5	2.7659939e-11
223	0x308b0504	1.0115007e-09
224	0x36892ba4	4.0879986e-06
225	0x3691e4a9	4.3479563e-06
226	0x3371a615	5.6263236e-08
227	0x34b1a5fa	3.3089583e-07
228	0x36ea55a9	6.9837156e-06
229	0x36e8c09d	6.936562e-06
230	0x339f4944	7.4173414e-08
231	0x344ffb8f	1.9369894e-07
232	0x2f161b6b	1.3652161e-10
233	0x3152bcf9	3.066644e-09
234	0x2da03bd1	1.8216458e-11
235	0x317e3657	3.6992753e-09
236	0x36ad9fb3	5.174393e-06
237	0x36df07ae	6.646812e-06
238	0x3399c06f	7.159621e-08
239	0x34e9d3d0	4.3553746e-07
240	0x34d5c109	3.9814793e-07
241	0x35079d39	5.052021e-07
242	0x314b41a6	2.9577705e-09
243	0x32ded90a	2.59429e-08
244	0x34dba05b	4.0908603e-07
245	0x33f5c9d3	1.1445413e-07
246	0x30f7c949	1.8028824e-09
247	0x33b0a515	8.225667e-08
248	0x323840cd	1.0724944e-08
249	0x32dad1cb	2.5473943e-08
250	0x2f175f4d	1.3767228e-10
251	0x331fc31c	3.7197523e-08
252	0x33db4f1e	1.02123735e-07
253	0x348821fe	2.5356707e-07
254	0x301d683e	5.7264404e-10
255	0x326373d4	1.3239475e-08

exp_avg f4 [64]
0	0x371cffa9	9.35785e-06
1	0x38b235a7	8.497695e-05
2	0x3a90c1e0	0.0011044107
3	0x3785f710	1.5969883e-05
4	0x35c7548e	1.4851264e-06
5	0xb9216dd3	-0.00015395069
6	0x3a4d9874	0.00078428467
7	0x3a7e2dcc	0.00096961553
8	0x39a220c4	0.0003092346
9	0xba1871b0	-0.00058152806
10	0x3788284e	1.6231232e-05
11	0xb9780792	-0.00023653943
12	0x3952d84b	0.00020107736
13	0xbad4da2b	-0.0016239336
14	0x368f037f	4.262139e-06
15	0x3aaa8f47	0.0013012671
16	0x37943aaa	1.7670292e-05
17	0x3924889b	0.00015691148
18	0x38d80da2	0.00010302222
19	0xb8eea598	-0.000113795686
20	0x3b376b35	0.0027987484
21	0x3a2a89fe	0.0006505548
22	0xba188c8b	-0.00058192824
23	0x35b9c9dc	1.3842323e-06
24	0xb9e84536	-0.00044302054
25	0x38ea8cc7	0.00011184211
26	0x360552a8	1.9866657e-06
27	0x39b49de3	0.0003444991
28	0xba0db731	-0.0005406021
29	0x3a39b485	0.00070840894
30	0x3a810ea2	0.000984628
31	0x39b15db7	0.00033829894
32	0x39fbe63b	0.00048045986
33	0x34c6cb47	3.7028278e-07
34	0x371b8668	9.270014e-06
35	0x3a301012	0.0006716262
36	0x39e89df7	0.0004436818
37	0x3a07dc8b	0.0005182705
38	0xbb190ac9	-0.0023352376
39	0xba42a544	-0.0007425139
40	0x3a97626b	0.0011549717
41	0x3a3a1680	0.00070986897
42	0x39d16705	0.00039940342
43	0x39854132	0.0002541631
44	0x38249a5d	3.924441e-05
45	0x3aef245a	0.0018245087
46	0x3a8afd07	0.0010603972
47	0xb688a7ec	-4.0726645e-06
48	0xb99a8db0	-0.00029478734
49	0xbb24d3d4	-0.0025150673
50	0x3a6b0bab	0.0008966277
51	0xbae1cc17	-0.0017226961
52	0x3b0778fa	0.0020671473
53	0x3ab1cf12	0.001356574
54	0x35c202a0	1.445489e-06
55	0x38188528	3.6363635e-05
56	0x3afbb38b	0.0019203288
57	0x3acb2731	0.0015499351
58	0x369b4be7	4.628196e-06
59	0x399f3650	0.0003036731
60	0xbaede81a	-0.0018150837
61	0xb9f4b08c	-0.00046670844
62	0x3847913d	4.758056e-05
63	0xba1077a5	-0.00055109925

exp_avg_sq f4 [64]
0	0x33991484	7.1283495e-08
1	0x331726ca	3.5192706e-08
2	0x3575bbc8	9.154287e-07
3	0x2f3f4edc	1.7399365e-10
4	0x2e388ee1	4.1963658e-11
5	0x3407ee12	1.2659464e-07
6	0x35541e12	7.901991e-07
7	0x36b4db3b	5.38994e-06
8	0x3767f795	1.3826318e-05
9	0x34e64e2c	4.2897716e-07
10	0x328bc267	1.6270134e-08
11	0x374610be	1.1805618e-05
12	0x353af2af	6.964355e-07
13	0x378bc419	1.6661406e-05
14	0x2fc88e44	3.6480874e-10
15	0x370e9f40	8.500938e-06
16	0x35cc79f3	1.5234676e-06
17	0x33563be9	4.9880246e-08
18	0x32d58ebd	2.4861373e-08
19	0x350ff622	5.362982e-07
20	0x36477110	2.9719122e-06
21	0x349e81f6	2.9524352e-07
22	0x37bd2567	2.2547973e-05
23	0x303fcf89	6.978032e-10
24	0x373715f9	1.0912766e-05
25	0x32d407e2	2.4683633e-08
26	0x32c58380	2.2993618e-08
27	0x368f6d7a	4.274477e-06
28	0x36f407bd	7.2726675e-06
29	0x36f30291	7.242263e-06
30	0x36bfd4d7	5.7170214e-06
31	0x3782f703	1.5612231e-05
32	0x354cdd10	7.631761e-07
33	0x2c36951b	2.5946526e-12
34	0x32dc42a3	2.5641674e-08
35	0x36526e2b	3.1356565e-06
36	0x3652485a	3.1334553e-06
37	0x33e05807	1.0446825e-07
38	0x371a09b5	9.181375e-06
39	0x361f4f7b	2.373911e-06
40	0x372ca6f7	1.0290873e-05
41	0x37a5ca69	1.9763787e-05
42	0x3686325e	3.9993747e-06
43	0x3483cc05	2.4549095e-07
44	0x32888477	1.5892722e-08
45	0x361b9cb7	2.318802e-06
46	0x35c1a36d	1.4427184e-06
47	0x33167101	3.5027373e-08
48	0x378383f4	1.5677862e-05
49	0x377d1fc8	1.5087375e-05
50	0x37436bfc	1.1648048e-05
51	0x363088aa	2.6305593e-06
52	0x36ac5329	5.1356806e-06
53	0x36540e8d	3.1598931e-06
54	0x2e2cf8f1	3.9329377e-11
55	0x30a1cbfe	1.177227e-09
56	0x3705666a	7.951263e-06
57	0x372f1f87	1.0438153e-05
58	0x310d7762	2.0586062e-09
59	0x370d24bf	8.4128105e-06
60	0x359705a8	1.1252023e-06
61	0x34729c9f	2.2594985e-07
62	0x33178527	3.527853e-08
63	0x344cd41a	1.9076143e-07

exp_avg f4 [64, 64]
0	0xb5092a28	-5.109782e-07
1	0x3817ea7d	3.621959e-05
2	0x3878c8a4	5.931467e-05
3	0x351f7f9f	5.941783e-07
4	0xb2272f1e	-9.731393e-09
5	0xb618dc00	-2.2777822e-06
6	0x3799d638	1.8338775e-05
7	0x38432c48	4.6532863e-05
8	0x38c5b029	9.4265044e-05
9	0x388ebc08	6.806111e-05
10	0xb67864c1	-3.7013526e-06
11	0x388f7682	6.840845e-05
12	0x39530914	0.0002012591
13	0x38b66b1c	8.698387e-05
14	0x34612d3c	2.0971214e-07
15	0x398c6ded	0.00026784782
16	0x3720be29	9.581018e-06
17	0xb5ed6c84	-1.7689458e-06
18	0x330b2bf4	3.2403435e-08
19	0x371923e2	9.127865e-06
20	0xb84b9f97	-4.85476e-05
21	0x37829198	1.5565005e-05
22	0x3927b3a0	0.00015993277
23	0x32a63b42	1.935189e-08
24	0x384e89e7	4.924266e-05
25	0xb5b32474	-1.3347149e-06
26	0x31ace80f	5.032241e-09
27	0x385c52c6	5.2529176e-05
28	0x38d3f857	0.00010107521
29	0x38a1a9d2	7.70871e-05
30	0x390c680c	0.00013390201
31	0x390f84b8	0.00013686984
32	0x38a83c4b	8.022095e-05
33	0x33d8c9b2	1.0094972e-07
34	0xb39e12a1	-7.360837e-08
35	0x383ff5b8	4.5766792e-05
36	0x37d6da82	2.5612539e-05
37	0xb7501d71	-1.2404621e-05
38	0x3876e35a	5.8862708e-05
39	0x38bbba80	8.951593e-05
40	0x3855e122	5.099283e-05
41	0x386f9b33	5.712658e-05
42	0x386fef8b	5.7205132e-05
43	0x36d7152e	6.409965e-06
44	0x350a5fde	5.154851e-07
45	0x380aadf6	3.3063778e-05
46	0x38ab56e6	8.1701015e-05
47	0xb5a89c76	-1.2562512e-06
48	0x392da934	0.00016561599
49	0x395fc1a0	0.00021339068
50	0x3852d60f	5.026726e-05
51	0x393d5729	0.00018056914
52	0xb7485408	-1.1940494e-05
53	0x39445b56	0.00018726042
54	0x325117eb	1.21708394e-08
55	0xb310715e	-3.363072e-08
56	0x39b5a330	0.00034644594
57	0x385e3e0a	5.2986703e-05
58	0xb3f2fc11	-1.1314854e-07
59	0x39a142d4	0.00030758104
60	0x38e13f95	0.00010740679
61	0x37a3e738	1.9538784e-05
62	0xb413aff1	-1.3754449e-07
63	0xb735be29	-1.0832716e-05
64	0x33de018c	1.0337962e-07
65	0x00000000	0.0
66	0x34c31ff7	3.6344838e-07
67	0x00000000	0.0
68	0x00000000	0.0
69	0x335deabc	5.1669062e-08
70	0x345dd7dd	2.066076e-07
71	0x3373b18b	5.673932e-08
72	0x3122d409	2.369463e-09
73	0x3506839b	5.01104e-07
74	0x333e2f75	4.4280984e-08
75	0x33ae37c4	8.11265e-08
76	0x34afaafc	3.2720698e-07
77	0x34ff319f	4.7533555e-07
78	0x00000000	0.0
79	0x356fd32e	8.9341745e-07
80	0x00000000	0.0
81	0xb0bc077b	-1.3680926e-09
82	0x00000000	0.0
83	0x34c3b429	3.6452664e-07
84	0x311a9e52	2.2499944e-09
85	0x32c8e31d	2.3386344e-08
86	0xb22cd73d	-1.0060657e-08
87	0x00000000	0.0
88	0x34128be1	1.3648197e-07
89	0x00000000	0.0
90	0x00000000	0.0
91	0x33106ab2	3.362465e-08
92	0x353a8df2	6.949696e-07
93	0x3528c80a	6.287597e-07
94	0x3507bd38	5.056677e-07
95	0x351706a5	5.626155e-07
96	0xb0471e14	-7.243852e-10
97	0x00000000	0.0
98	0x33bcc002	8.789358e-08
99	0xaeea69fd	-1.0659915e-10
100	0x3297c28d	1.7667185e-08
101	0x00000000	0.0
102	0x34acf5f8	3.2216462e-07
103	0xae54939b	-4.833432e-11
104	0x32ebd3f8	2.7453993e-08
105	0x34b2d5de	3.3310693e-07
106	0x3261d134	1.3144291e-08
107	0x339a86c9	7.195701e-08
108	0x302ad0e8	6.2142513e-10
109	0x348732c2	2.518264e-07
110	0x35246dda	6.1254616e-07
111	0x32eb4ef9	2.7393513e-08
112	0x34a51e53	3.075571e-07
113	0xb34a6c07	-4.713004e-08
114	0xafeec75e	-4.3433607e-10
115	0x34079599	1.2627278e-07
116	0x33d2908e	9.8051814e-08
117	0x359741b7	1.1269502e-06
118	0x00000000	0.0
119	0xb12750ee	-2.4347702e-09
120	0x35adf2a2	1.296012e-06
121	0xb216aa29	-8.769839e-09
122	0x322628ca	9.671746e-09
123	0x35b1414a	1.3206529e-06
124	0x34926a5e	2.7272011e-07
125	0x33a67f1f	7.7531006e-08
126	0x33394078	4.3132303e-08
127	0x3397ad31	7.062989e-08
128	0x33d1c116	9.767443e-08
129	0x375a3279	1.3005564e-05
130	0xb56c3b6f	-8.800334e-07
131	0x338cad3d	6.55077e-08
132	0x311c5e4a	2.2754585e-09
133	0x34a1892e	3.0088398e-07
134	0x348350d7	2.445947e-07
135	0x37941c0c	1.7656035e-05
136	0x36a343fb	4.8656925e-06
137	0x3718849f	9.090784e-06
138	0x351aa3cf	5.7607843e-07
139	0x370b0061	8.285134e-06
140	0xb4a90560	-3.1482614e-07
141	0x380227f4	3.1031625e-05
142	0xb19ad6dc	-4.5064166e-09
143	0x35d8d907	1.6156417e-06
144	0x37767328	1.46895545e-05
145	0x35677e78	8.623824e-07
146	0x34f24d6e	4.513235e-07
147	0x353b0f82	6.9685495e-07
148	0x383f3b05	4.5592915e-05
149	0x34e96871	4.3475623e-07
150	0x370842df	8.121801e-06
151	0xb19e29d4	-4.6031605e-09
152	0x371e7754	9.445317e-06
153	0x339b60f5	7.235386e-08
154	0xb322f588	-3.7941874e-08
155	0x3756df2f	1.2807358e-05
156	0x37a633d3	1.9812875e-05
157	0x37b169a1	2.1149232e-05
158	0x3741abc1	1.1543686e-05
159	0x3772f89e	1.448221e-05
160	0x36db9d15	6.5449954e-06
161	0x31c1eaae	5.6437193e-09
162	0x32db07aa	2.549844e-08
163	0x37c84c3d	2.387736e-05
164	0x370a1514	8.230349e-06
165	0x3783fddc	1.573463e-05
166	0x378bdac5	1.6671964e-05
167	0x365f8804	3.330876e-06
168	0x37816d3b	1.5428863e-05
169	0x37b23050	2.124175e-05
170	0x36bb27e6	5.577679e-06
171	0x3655212a	3.1758777e-06
172	0x33ba1d58	8.6666375e-08
173	0xb50ec0b6	-5.3179554e-07
174	0xb59005dd	-1.0730542e-06
175	0x34ba4dfa	3.4701935e-07
176	0xb6924c8f	-4.3600517e-06
177	0xb741a7e2	-1.1542785e-05
178	0x36d76c40	6.4201013e-06
179	0xb6196f96	-2.2863728e-06
180	0x37e53d11	2.7327364e-05
181	0x3612eada	2.1892397e-06
182	0xb10dd13d	-2.0637139e-09
183	0xb3a23644	-7.553584e-08
184	0x361b2b99	2.3122177e-06
185	0x3791805f	1.7345124e-05
186	0xafc11386	-3.5120368e-10
187	0x37d20318	2.5035391e-05
188	0xb676cd9a	-3.6776532e-06
189	0xb60d761c	-2.1079386e-06
190	0x33071c6a	3.145798e-08
191	0x36398ffa	2.7650954e-06
192	0xb5150df8	-5.552715e-07
193	0xb8b8a5a8	-8.8046596e-05
194	0x38c66db8	9.4618124e-05
195	0xb62bd0d7	-2.5602546e-06
196	0xb214ee12	-8.668865e-09
197	0xb6d74316	-6.415309e-06
198	0x37d889bb	2.5813342e-05
199	0xb987172c	-0.0002576647
200	0xb84bc2b5	-4.8580307e-05
201	0xb8cf4eca	-9.885205e-05
202	0xb666fc45	-3.441951e-06
203	0xb8b628f8	-8.686067e-05
204	0x391c2baa	0.00014893585
205	0xb98ebbad	-0.0002722418
206	0xb3e0a0c4	-1.0460056e-07
207	0x39853146	0.00025404448
208	0xb90f7ae3	-0.00013683322
209	0xb7119eb0	-8.679621e-06
210	0xb4c17437	-3.603361e-07
211	0xb610d3be	-2.1580922e-06
212	0xb9ec53ed	-0.00045075957
213	0x37e2a4c7	2.701803e-05
214	0xb901834b	-0.00012351309
215	0x32d9398a	2.528829e-08
216	0xb929edd3	-0.00016205692
217	0xb5b06640	-1.314278e-06
218	0x3333278e	4.171266e-08
219	0xb7329961	-1.0645338e-05
220	0xb90cc846	-0.00013426048
221	0xb8e01626	-0.00010685278
222	0xb9336fbd	-0.00017112396
223	0xb8411842	-4.6037378e-05
224	0x38648b71	5.44893e-05
225	0xb41d810e	-1.4668714e-07
226	0xb3aacf49	-7.953947e-08
227	0xb9931751	-0.00028055397
228	0xb8ec2e9b	-0.00011262038
229	0xb8a317d4	-7.776884e-05
230	0xb902a9b3	-0.00012460984
231	0x3922c760	0.00015523797
232	0xb980c7dc	-0.0002456297
233	0xb8ff0216	-0.00012159736
234	0xb8d3cdfe	-0.00010099633
235	0xb7ee7dbb	-2.8430359e-05
236	0x341efc33	1.4806646e-07
237	0x37b4eea6	2.1568801e-05
238	0x38b1e11a	8.481946e-05
239	0xb517739b	-5.642011e-07
240	0x37febbb5	3.0366567e-05
241	0x396c5116	0.00022536921
242	0xb8c8b5e8	-9.570626e-05
243	0x39711d97	0.00022994574
244	0xb9b94ebd	-0.00035344614
245	0x387ca383	6.0233764e-05
246	0x326c38f6	1.3749959e-08
247	0xb2e71961	-2.690348e-08
248	0x39053c12	0.00012706246
249	0xb9678280	-0.00022078492
250	0xb4007410	-1.1963152e-07
251	0xb915929c	-0.00014264364
252	0x38059680	3.1849835e-05
253	0x386b29f3	5.6067434e-05
254	0xb412d582	-1.3674983e-07
255	0xb84c9bc7	-4.878247e-05
