highway-v0/23-10-02_02-07-04-650039_CEM/checkpoints/agent_5000.pt (torch, 80747 bytes, 18 tensors)

linear_layer_1.weight f4 [64, 25]
00000000: eeb3 273c dcdb 4cbe 408e dbbc 25d5 c83c
00000010: 9909 d93d 507b 7bbd a712 83bd e73c 60bd
00000020: 9f5d 7f3c 768f b1bc b634 623d 0c94 4939
00000030: b47f 2cbe b537 44bd 0cfb 3abd 243b 35bc
00000040: 163c 0c3d 9aef 16be ef0d 26bd 0c10 023c
00000050: 4f85 fabc 0f4e 3b3d 1d71 8ebd f20b ad3d
00000060: 4143 0d3d 49d0 09be 9b47 4abd 8201 143c
00000070: 4739 963d de87 40be 1833 a83d 5fd4 493d
00000080: c2dc 75bd 40b0 0dbe 8f40 eebd 17b6 48be
00000090: c546 3b3d ddeb eb3c 1f7f 19be 75db d3bd
000000a0: 573a 11bd a887 093b baa2 32bc a529 bfbd
000000b0: b08c 6fbd 9008 bcbd 7da5 d13d 8103 903d
000000c0: 88a3 2bbd 5438 2a3c 8f89 813c 75c5 34bd
000000d0: 9036 853d 9ea7 22be 4fa7 b1bd 2b51 76bd
000000e0: 4169 11be 731d 053d 6032 76ba 33ff 2b3d
000000f0: 88e1 e0bc d7da bebd bc04 acbd 0e60 9f3d
00000100: d162 293e 5eaa 8a3d 30e2 21be c501 4dbd
00000110: c532 45be c7b9 79bd 7cf4 3fbd ef13 01be
00000120: 390d 1c3d 93a2 10be 55a5 213e 3c9e 0bbc
00000130: 3e28 46be 2a7b 493d 8976 893b eb8b b93d
00000140: c5e9 643d edc8 a5ba 8fca cfbd 2ba1 e93b
00000150: f815 d03d 51a0 b0bd 2f30 a33d d2d9 b2bd
00000160: 6750 e0bd 50e5 623e 2291 db3d 624a a13c
00000170: c57c b3bc 904b b93d 8fd9 fd3d 61d3 05bd
00000180: 6d82 b9bb 493a aabd 9038 af3d 921f a5bd
00000190: addb 8d3d 007f 39bd 7827 bcbd a7f5 f8bd
000001a0: a463 383d 3850 b8bb c677 61be 5fd2 0fbb
000001b0: 1e2a c0bd 2aee 08bd 569e a13c 3909 093e
000001c0: 4f86 dcbd 42fb 45bd 5d05 623d af06 20bd
000001d0: ac4a c239 c596 96be 42b8 553d bf50 cabd
000001e0: 9be7 a5bd 48b3 e3bd bea4 99bd 9e79 0fbe
000001f0: e042 09be b007 f13a bf59 743d 0c1a 1a3e
00000200: 5195 85bd 4e27 483d 18ba 763d 930c 98bd
00000210: a17e 173e e057 183d 80cc 3b39 70b4 043e
00000220: 1ca4 bd3d 3a1f 293d f6fa 4a3c 72fe df3c
00000230: afc3 03bd 34e7 fa3d e4be 38bc 34bb 823c
00000240: 807f cabd 6656 5b3e 7a20 1e3d 8e25 81bd
00000250: f002 84ba f354 fdbd 9fbd 663e 3791 263e
00000260: 5d53 d93d a090 0f3d f09c 74bb 7a85 f63d
00000270: 04d8 913b 43d5 5f3d 93b2 a7bd a181 75bd
00000280: 679d 353e b041 3c3d cb71 293e 584e 933c
00000290: feac 6e3c 84c0 acbd a031 513d ab38 893e
000002a0: 6c72 1c3e bc71 2cbd e9df 5b3d 6047 953d
000002b0: def6 4f3c 2992 6e3e 4e26 fc3d 0d74 86bc
000002c0: 9ce5 493e 5203 193d e7a4 24be d3f2 663d
000002d0: 4f23 783e 8b98 bdbd c501 41bc 42d8 61bd
000002e0: 3acd 0b3e af73 84bd 4443 94bb 207a 2c3e
000002f0: 09dc 993d 2ad9 58bc fc51 dfbc 86d1 b0bc
00000300: 8457 2ebe ab95 893c c90c e0bd d660 0dbd
00000310: 015a 673e 5a70 423d 7153 78be 76a3 b83c
00000320: 9252 313e 338f 2abe 8f70 49be edc5 dd3c
00000330: c8e3 653e 9fda 9cbb 78cd 4cbe f3d1 81bb
00000340: d6bb 9a3d 7844 ce3d e221 e0bd 1035 8cbc
00000350: af6e c0bc 7351 0c3e a874 753d 1681 2abe
00000360: 20dc 423c 31f3 993d eb13 a83c 3d5e c0bd
00000370: 65f2 99bc 323b 5b3d 5bda bcbd 5d23 163d
00000380: 23e2 483e 7228 18be 9c47 a5bd 9821 0d3e
00000390: d113 a6bd 1e30 80bc c4c5 033d 68fb 8ebc
000003a0: dd6c 8dbc a8c0 8d3d a6c3 1bbd 36bb 933d
000003b0: 952e 943d b815 0b3e eca6 1bbd 5509 83bd
000003c0: 3950 c9bd 2a3f 23bd 3851 b4bd 14e8 003e
000003d0: d1a5 173d d169 92bd 2aa6 0ebe ecc3 c8bc
000003e0: 44d4 853b 0a4f 2dbd e71c f43d e432 fe3d
000003f0: 2f56 37be a20e 933c 0f8e fd3d 7103 a13d
0.01023577 -0.20005745 -0.026801229 0.024515698 0.10597534 -0.061396897 -0.06400042 -0.05474558
0.015586286 -0.021674853 0.05522605 0.00019224006 -0.1684559 -0.04790469 -0.045649573 -0.0110614635
0.03423699 -0.14739838 -0.04054063 0.007938396 -0.030581145 0.04572874 -0.069551684 0.08449544
0.034487966 -0.1345836 -0.049384695 0.009033563 0.073351435 -0.18801829 0.0821287 0.0492748
-0.060024984 -0.13836765 -0.11633407 -0.19600712 0.045721788 0.028798992 -0.14989899 -0.103445925
-0.035456028 0.0020985398 -0.010903055 -0.09334115 -0.05848378 -0.09181321 0.102366425 0.07031918
-0.041904002 0.010389406 0.015812663 -0.044133622 0.065045476 -0.15884253 -0.0867449 -0.060136
-0.14200307 0.032498788 -0.0009391662 0.041991424 -0.027451292 -0.09319084 -0.083993405 0.07781993
0.16541602 0.06770776 -0.1580894 -0.050050516 -0.19257648 -0.060968187 -0.046864018 -0.1260526
0.038098548 -0.14124517 0.15785725 -0.008521613 -0.19351289 0.049189724 0.0041950387 0.0905989
0.055887002 -0.0012648382 -0.10146057 0.0071298084 0.1016044 -0.08624328 0.07968175 -0.08732952
-0.109528355 0.22157788 0.10721041 0.019688789 -0.02191008 0.090476155 0.12395012 -0.03267229
-0.0056613 -0.08311898 0.0855571 -0.08062662 0.069266655 -0.045287132 -0.091872156 -0.121562295
0.0450169 -0.005624797 -0.22018346 -0.002194546 -0.09383033 -0.033430256 0.01972882 0.13382424
-0.10767805 -0.04833532 0.055180896 -0.039068874 0.00037058198 -0.29411903 0.052177675 -0.09878682
-0.08100816 -0.111181796 -0.07502125 -0.14011237 -0.13404417 0.0018389132 0.0596559 0.15048999
-0.065226205 0.04886561 0.060236067 -0.07424273 0.14794399 0.03719318 0.00017909892 0.12959456
0.09259817 0.041289546 0.012388935 0.027343009 -0.03216904 0.1225113 -0.011275981 0.015958406
-0.098876 0.21419677 0.03860519 -0.06305991 -0.0010071676 -0.123697184 0.22533272 0.16266333
0.106116034 0.035050035 -0.0037324987 0.120371774 0.0044508 0.05464674 -0.08188357 -0.059938077
0.17735825 0.045961082 0.16547315 0.017981693 0.014567612 -0.08435157 0.051072717 0.26801047
0.15278023 -0.042100653 0.053680334 0.07289004 0.012693135 0.23297943 0.123119935 -0.01641276
0.19716495 0.037356682 -0.1607853 0.05638392 0.24232219 -0.09257611 -0.011780207 -0.05513788
0.13652506 -0.064673774 -0.0045246202 0.16843462 0.075126715 -0.01323537 -0.027260773 -0.021584284
-0.17025572 0.016795 -0.109399386 -0.034516178 0.22592928 0.047470428 -0.2425058 0.022538882
0.17316654 -0.16656189 -0.19671844 0.027071917 0.22450173 -0.004786804 -0.20000255 -0.0039617955
0.07555358 0.10071653 -0.10943963 -0.017115146 -0.023490278 0.13702945 0.059925705 -0.16650805
0.011893302 0.07517088 0.02051731 -0.093929745 -0.01879234 0.05352325 -0.092213355 0.03665482
0.19617514 -0.14859179 -0.08070299 0.13782346 -0.081092484 -0.015647944 0.032171026 -0.017453864
-0.017263824 0.06921512 -0.03802838 0.07213442 0.07235447 0.13582504 -0.038000986 -0.06398264
-0.098297544 -0.03985516 -0.08804554 0.12588531 0.03702337 -0.07149089 -0.13930574 -0.024507485
0.004084142 -0.042311706 0.11919575 0.1241205 -0.1790397 0.017951313 0.12380611 0.078619845

linear_layer_1.bias f4 [64]
00000000: 1d48 7bbc 43cf 83bd e0ec 52be 3a95 edbd
00000010: 8d7e 2f3e f7b6 d83d 73fa 043e 995d cc3c
00000020: 665a 21bd 5210 68bd 2267 c5bc 93b9 7cbc
00000030: a11f 6e3d 0402 6cbc e2b8 af3c cd1c 43be
00000040: b4ba 1abe 449b 4f3d 3e88 d5bd 7bed 6abd
00000050: 4754 febd 5b6f 093e 1740 783d 1aab 343e
00000060: 667a 903e 643d f13d e71b a5bb 64a1 183c
00000070: 82e7 703c 5b1c 9ebd 4c47 d03c cf5d 3e3e
00000080: fd62 9cbd ec56 4a3e e287 dabc 9bc0 a43e
00000090: 29e0 523d 79c7 0abe ca6f 253e 2132 9b3c
000000a0: 967d 7abd 17b8 f03d a891 7e3b 0008 843d
000000b0: 42b0 1dbe 3c75 41be de00 583e 15b4 05be
000000c0: 5733 e73d dcbd 6bbc 201e 9e3b 826c 38bc
000000d0: 14b8 6d3d 6ec5 853e 8af4 5f3e 2719 fbbc
000000e0: acfa 593e 5e62 80bd ba6e 1f3e 1b5a b33d
000000f0: c7cf 1abe ce79 8e3d 6525 12be 899f 2d3e
-0.015337017 -0.064360164 -0.20598173 -0.11600728 0.17138119 0.10581773 0.12986164 0.024946975
-0.03939285 -0.05665619 -0.02409703 -0.015425104 0.058135632 -0.014404777 0.021450464 -0.19053955
-0.15110284 0.050685182 -0.10426377 -0.057355385 -0.124184184 0.13421385 0.060607996 0.17643395
0.28218383 0.117792875 -0.0050387266 0.009315822 0.014703633 -0.07720252 0.025424622 0.18590473
-0.07636068 0.1975972 -0.026676122 0.32178196 0.051483307 -0.13552655 0.16155925 0.018944802
-0.061154924 0.11753862 0.0038844142 0.064468384 -0.15399268 -0.18892378 0.21094081 -0.13056977
0.11289089 -0.014388528 0.0048253685 -0.011256339 0.05803688 0.2612719 0.21870628 -0.030651642
0.2128703 -0.06268762 0.15569583 0.08757421 -0.15118323 0.06956826 -0.14272077 0.16955389

linear_layer_2.weight f4 [64, 64]
00000000: 9d2a 4cbd a227 79bd a929 0b3e 9eaa 263e
00000010: a163 b43d 497e 473d 75d9 6d3e 68c1 e8bc
00000020: e229 6b3e 5f34 b53d d0f1 02bd 63df 2e3e
00000030: d8f9 8f3d 0db4 573e cf4b 603e 202a fc3d
00000040: e22e f3bb b7ef e1bd 5e3f 94bd fd21 d63d
00000050: d53e 1c3d e47d 38bc 8e44 d1bd 67a2 233d
00000060: 2052 9e3d 5af9 f53b eaa4 adbc c800 4c3e
00000070: 7aec 25bb ce0a 19bd 2f0a 3f3e f0aa 47be
00000080: fd4a 883d dd9f 9b3d acb1 2dbb ce2e 9ebc
00000090: eab6 ee3c ebd9 4b3e e61f 393e d394 68bd
000000a0: 0d15 013e a256 38be 2527 843d 7b92 35be
000000b0: 41c5 c83d 30db 5bbc 056f 263e 270b 583e
000000c0: b54e 743c 25ca 8a3b 5aaf 673e 79e8 2e3e
000000d0: de6c 033e 0988 ea3d 7ad8 d3bb aef2 b8bc
000000e0: e6b1 3dbd 28f0 403e c0fe dcbd f22d 5b3d
000000f0: f97c 99bd 6879 f9bd 47c0 5e3d d4a2 56bb
00000100: 43f7 c43d 807d dd3d 2f47 083d 2847 88bd
00000110: bb60 b43c 14ec d8bd cfe6 7b3d 3063 c9bd
00000120: c202 4b3e b16d 7f3d a1cc b8bc 0b30 37bc
00000130: d84b 54bd 3d6f 823c ac11 08bd cf8b 93bd
00000140: 9605 1dbd d096 d4bd 0207 33be 7467 29bc
00000150: 7b24 d0bb 8924 ed3c 9189 97bd 3511 c5bc
00000160: 59a4 31be 0190 51bb fbb2 1dbc 2486 033e
00000170: e37c 9c3d 8b31 afbd a6fe 923d fa62 ebbb
00000180: 940d d2bc c128 a03d fe1c dbbc c770 60bd
00000190: ee37 013e 9e55 a7bd 1f7d 2fbe 6127 7b3b
000001a0: aef7 c0bd 7987 223e 6016 953d b33f eabd
000001b0: f634 5b3d c7f8 12bd 6958 283e 8c71 86bd
000001c0: c4a8 59bd 90b0 b2bd 8c2c 2d3d 9181 203e
000001d0: 2eb6 4d3c 63e1 e0bd b81e 81bd 4866 8e39
000001e0: 3abd 173e 7289 b93d 660f d5bb f402 073d
000001f0: 8348 5cbd 9506 563d eca8 efbc b328 79bd
00000200: eaca f0bc 3bbd eabc 5783 333c 42ac 913d
00000210: 8887 c5bc 231d de3d 61c2 6bbe 6d03 7ebd
00000220: 9750 8b3d 0c47 3b3d 301a 123e 31d4 b0bd
00000230: aff1 723d 465e 603e 10cb e93d e41a 123e
00000240: ede7 fabd 9778 cd3d c566 8bbd 1785 04be
00000250: a41b 1abe 57b4 f9bd 741a 913c 5cf4 acbd
00000260: 2701 543c 87a9 b63c 4de3 9cbc 9700 323c
00000270: 047a 83bd 5bd3 a3bd 6ce0 653e e9f0 95bc
00000280: 5d44 23bd ade9 01be 6b5c 823d cb52 f93d
00000290: 5009 04be ddc6 9bbd 30ac 333e b029 44be
000002a0: 744a d1bd 3972 403d 2862 973d 4238 383e
000002b0: 8958 0abd 0f71 1dbe 546f 803d ef4d 223e
000002c0: ac99 893c d9e8 813e 7eb2 fc3c a754 dc3d
000002d0: a126 be3d f958 76be 117f 50bd 2bfc 23be
000002e0: 7725 313d 8220 b03b 0c44 6f3d df6a 2dbe
000002f0: 524f 833d 4a28 edbc ae01 a5bb 5476 abbc
00000300: f2bb 0a3d 902f 523d 426f 5dbd 92ca db3c
00000310: 6d22 bd3d 87bb 65bd 3b29 9b3c 8b4e b6bd
00000320: 2302 6abe b99c 1e3d 859c 16be 7d9f 693c
00000330: 4d8e 4ebd d3d6 cebd d84a ab3d 37f1 bebd
00000340: cfae 413d c45f dc3d 7674 67bd 0c6a 133d
00000350: 577d 04be 5648 0c3d 289b 9d3d cbaa 863d
00000360: 3fbd 9cbc f85f c83d 022c 14bd fa51 f3bd
00000370: 6765 fd3d d115 39bd 1aa1 013c 7817 32be
00000380: 8103 4b3d 1c92 b33d 7b02 813d 8688 45be
00000390: 37ae 00be 2e5e b23d 7a61 fb3d 6e73 da3d
000003a0: f85d 123b cd2d 483e 92d2 2dbc aaa1 1e3e
000003b0: 2d79 a23c a96e 2c3e ca42 bfbc 0571 c9bd
000003c0: 32fa b1bd 4151 dabc 5ec1 9f3d c2c2 a8bc
000003d0: 1c88 12bd e8cf cdbd 0473 f2bd 0cc1 d03b
000003e0: 6e6b 953c e20f b1bd 403e 193d 0100 1cbd
000003f0: cd10 8a3e 3ce9 feba 297f 1e3e 093b a83d
-0.049845327 -0.060828812 0.13590111 0.16276023 0.08808065 0.04870442 0.23227485 -0.028412536
0.22965196 0.088478796 -0.03196889 0.17077403 0.07030076 0.21064778 0.21903919 0.12312722
-0.0074213604 -0.1103205 -0.07238649 0.104557015 0.03814586 -0.011260483 -0.10218154 0.0399498
0.07730508 0.0075065317 -0.021196801 0.19922173 -0.0025317953 -0.03736382 0.18656228 -0.19498801
0.06654928 0.07598851 -0.0026503606 -0.019309428 0.029139955 0.19907348 0.18078575 -0.056782555
0.12605686 -0.18001798 0.06452779 -0.17731659 0.09803248 -0.013418958 0.16253288 0.21098004
0.014911343 0.0042355233 0.22625485 0.17080869 0.12834498 0.11451728 -0.006465015 -0.022576656
-0.046312235 0.18841612 -0.10790777 0.053510614 -0.0749454 -0.121813595 0.05438259 -0.0032750862
0.09617474 0.10814953 0.03327101 -0.06654197 0.022018781 -0.10591903 0.061499413 -0.09833372
0.19825271 0.06236047 -0.022558512 -0.011180888 -0.051830143 0.015922183 -0.03321998 -0.07204401
-0.038335405 -0.10380328 -0.17483142 -0.010339607 -0.006352005 0.028948085 -0.073992856 -0.024056057
-0.1734785 -0.0031976702 -0.009625192 0.1284414 0.07641008 -0.085543714 0.071774766 -0.00718343
-0.02564124 0.07820273 -0.026747223 -0.054795053 0.12618992 -0.08170627 -0.17137574 0.0038323032
-0.09422241 0.15871991 0.07279658 -0.11437931 0.053517304 -0.035881784 0.16439976 -0.06564626
-0.053139463 -0.08725083 0.04227881 0.15674426 0.012555642 -0.10980489 -0.06304687 0.00027160556
0.14818278 0.09059419 -0.00650208 0.0329618 -0.05378009 0.05225237 -0.029255353 -0.06082983
-0.029393632 -0.028654685 0.010956607 0.07112934 -0.024112478 0.10845401 -0.23023368 -0.062014986
0.06802481 0.045722052 0.14267802 -0.08634222 0.05931252 0.21910962 0.11415684 0.1426807
-0.122512676 0.10032766 -0.06806711 -0.12941395 -0.15049607 -0.121926 0.01771281 -0.08445045
0.012939728 0.022297634 -0.019151354 0.010864398 -0.06419757 -0.07999297 0.22448891 -0.018303351
-0.03986012 -0.12686796 0.063652836 0.12173995 -0.12894177 -0.076062895 0.17546153 -0.19156528
-0.10219279 0.04698393 0.07391769 0.1799021 -0.03377584 -0.1537516 0.06271234 0.15850042
0.01679691 0.2537296 0.03084683 0.10758334 0.09284712 -0.24057378 -0.05090243 -0.16014163
0.04324862 0.005374969 0.058414504 -0.169353 0.064116135 -0.028949875 -0.0050356006 -0.020930447
0.033870645 0.05131489 -0.05406118 0.026829991 0.09235082 -0.056087043 0.018940559 -0.089017
-0.22852378 0.03872368 -0.14708145 0.014259216 -0.050428677 -0.10099568 0.08363885 -0.09323352
0.04728585 0.10760453 -0.05650755 0.035989806 -0.12938438 0.034248672 0.07695609 0.06575545
-0.019133208 0.097839296 -0.03617478 -0.1188087 0.123728566 -0.04518682 0.007911945 -0.17391765
0.04956389 0.087681025 0.06299301 -0.19290361 -0.12566458 0.087093696 0.122744516 0.10666548
0.0022333842 0.19548722 -0.010609286 0.15491357 0.019833172 0.16839088 -0.023347277 -0.0983601
-0.08690299 -0.026650073 0.07800554 -0.02060068 -0.035774335 -0.100494206 -0.11838344 0.006370669
0.018239703 -0.086456075 0.03741288 -0.03808594 0.26965943 -0.0019448171 0.15478195 0.08214385

linear_layer_2.bias f4 [64]
00000000: 80a4 223d 4ea9 0cbd 2fb6 2a3e 2909 ce3d
00000010: 6924 0abc fe40 a3bd 4a48 0ebe cd22 253d
00000020: 9dcf 1c3e d369 023e d017 b43c 3311 65be
00000030: 709e 80be 7e28 43bd 9bb5 e83d eb09 87be
00000040: 31dc 9ebd 3a1b 4f3c c262 d93c 6dfc 623e
00000050: f9cc 0bbe f846 e03d 98c5 a63a c21c 25be
00000060: d55a 303c 946c 943e 7daa 423c e7c1 3ebe
00000070: a4ff efbc c171 6a3d 0192 12be d5d0 76be
00000080: 979d 87bd 78d2 cf3c 05dd 953e 4fd8 80bd
00000090: bc83 81bc 1f7f 473d cbdc d53c af73 0d3e
000000a0: 5f51 14be afb5 13be 290a 7f3d cfb2 1dbe
000000b0: 8823 9b3c 07f0 0fbe 22ed 883d 3088 1b3e
000000c0: 89f0 adbd b2a2 c43d 2f71 37bd 9b4b c63c
000000d0: 6ee0 97bc f786 913d 275b e8bb d39a a8bd
000000e0: 6c98 dc3d cd95 b83d 49b6 8b3d c757 20bd
000000f0: a41a a8bd c268 2e3e 23ad ab3d e099 eabd
0.03970766 -0.03434115 0.1667106 0.10060341 -0.008431532 -0.07971381 -0.13894764 0.04031639
0.15313573 0.12735681 0.021984011 -0.22369842 -0.25120878 -0.04764604 0.113627635 -0.26374754
-0.07756842 0.012640769 0.02653635 0.22166605 -0.1365241 0.10951036 0.0012723682 -0.16124251
0.010763844 0.2898909 0.011881468 -0.18628655 -0.029296704 0.05723739 -0.14313509 -0.241031
-0.06621855 0.025368914 0.29270187 -0.062912576 -0.015809886 0.048705216 0.026106259 0.13813661
-0.14484166 -0.14424776 0.06226555 -0.15400241 0.018937841 -0.14056407 0.066858545 0.1518867
-0.08493144 0.09601344 -0.044785675 0.024205973 -0.018539634 0.071058206 -0.0070909443 -0.082326554
0.1077126 0.09012947 0.068218775 -0.03914621 -0.08208206 0.1703215 0.083826326 -0.114551306

output_layer.weight f4 [5, 64]
00000000: c482 85bd 6d92 7b3d 44ec e33c 2ec9 9f3d
00000010: c3c8 1dbd caee 003e b894 d2bd 8bd2 993d
00000020: 65ca 6bbd a70d c13c 994f b23d e3f8 463d
00000030: 88cd 823d f686 d23c 7c6e 863d b445 ae3d
00000040: ea09 283d 1720 1c3d 8505 5dbe 9458 023e
00000050: 99fc 4ebd 84f0 c6bd 3485 33bb 8d82 163c
00000060: 8d49 d3bd 14af 173e 1b1b 843d 1262 debb
00000070: c8d4 cbbd cf69 f83c 2c11 bbbd 8e36 11be
00000080: f7e4 8f3c 113d 943d f505 c1bc b91a a6bd
00000090: ba43 343c d480 8bbd 0f2f 933d 24b9 4cba
000000a0: dee3 2cbd 27bc 8c3d e750 673d 6a1b b1bc
000000b0: 3b1e 3c3d 97e0 3cbd 5a2a b03d df97 8a3d
000000c0: 205b 05be acd5 983d af5d 13be dad2 debd
000000d0: b4d6 e83a 0a82 b5bd 94ba 673d e325 3dbc
000000e0: 79c1 72bd 11ae 173e df2e f83d 8863 59be
000000f0: 0588 013d aec9 65bd 59ef 883d e04e 2abc
00000100: 3b70 24be e6af ef3d f542 15be 30fa 243e
00000110: de59 743d 435e f2bd 0a88 8cbd a50b e6bd
00000120: 2265 f8bc 0c49 46bb 6255 b9bd 0ace 98bd
00000130: bae1 cc3d 14b4 eb3d afa3 773e 9e80 d0bd
00000140: db11 f33d c019 563c 082a 18be 48a9 d2bd
00000150: 1acf 8dbd c69b aabd 6495 23be f685 97bd
00000160: e938 163e 4ca7 99bd 994a e93c 15d6 8ebd
00000170: 8200 44bd 0048 113d aba2 573d 46d2 7b3c
00000180: 052a 6dbd a82f 1c3e a1d9 74bd 8076 7dbb
00000190: a598 663d 3044 b3ba d0ff 0a3d 6416 ee3c
000001a0: fcd5 95bd cfa0 19bd ffd5 ddbd 3de0 4ebd
000001b0: 49a7 a8bb b10d c1bc 2d74 63bd c279 20be
000001c0: 5125 acbc 10a1 78bd 7018 41be 0093 debd
000001d0: a1e3 a1bd 62ce 90bd 22c7 efbd 8701 bb3d
000001e0: 3b1e febd d21c 983d e2dd 433e 6576 b53c
000001f0: e336 af3d 7cee 42be 424a a33d 86a9 8fbe
00000200: 0c5c 203e ca7a c2bd 94ae c23c cbba adbc
00000210: 8f6c 81bd 11f5 67be cd32 07bd 9cbe a0bd
00000220: a72e 81bd 8b30 cc3d 7059 fe3d a602 8dbd
00000230: 32e2 d1bd 8006 a9be c975 02be 87b9 963d
00000240: d57c b5bd 9ed4 ffbb 9f11 a6bd ca26 0c3e
00000250: 52de cebd 43b6 acbd c931 343d bf22 4d3d
00000260: 9f3a afbb d436 0b3e d697 613e d857 593c
00000270: e76a e93d 0fc7 90be 8b64 0ebe 3bb2 6e3e
00000280: bd26 1a3d 16c7 bbbd f198 433c 7cf6 15bc
00000290: 6e16 d53d a733 80bc 81cd 953e 0271 773d
000002a0: a922 8abd d3ba c9bd f033 d73c 9006 e3bd
000002b0: d1c8 14be 5dfc f2bd c601 993d 8c37 d83c
000002c0: 95ed 453d a8dd c8bd 27c1 6e3e a3a8 0d3d
000002d0: 63aa 92bc 8f31 c83d 74a3 63bd dc6a 8f3d
000002e0: 3079 67bd a333 a2bd 84ab 883e 75ba f33d
000002f0: 0e02 adbd d88a e23b 5a68 3ebd 1579 f53d
00000300: 71c6 50bd 96ab 493c 4d94 be3c 3a91 f13d
00000310: 88cc fabb 122c 39be 4965 7b3d 83b8 fdbd
00000320: b2c9 053e 1070 4ebe ff48 143d 25a5 8dbd
00000330: f5ef 573d ccac 0e3b cfe4 ee3c 1ed6 48bb
00000340: 1d83 c63d 72c0 0dbe 9c08 3ebc a63f ed3d
00000350: d0cc cabd 20ae 19bd 1751 68bd 6a99 28bd
00000360: 95e6 87bd f85b adbc 1a0b f7bd 0615 193e
00000370: 6186 943c c515 02be 68a2 fbbd 7880 083d
00000380: b7f0 47bd b8a5 673e fa9c 19be 802d 81bd
00000390: 8069 76b8 3131 ca3d b46a ddba 4abe 123d
000003a0: b6fd ec3d acc1 8bbd 0046 f5bd 828f b7bc
000003b0: 7e8f 233e ed2a d33d 571d 7c3d a2ac c2bd
000003c0: 5f61 24be a122 ea3d 9e76 853d cea2 83be
000003d0: 8b33 12be 2e74 3a3d 20be 81bd 24ff 7cbd
000003e0: 3e37 3ebc 3658 3d3d b455 d1bd 3a77 d93d
000003f0: 5ab2 3abe 7f3a 26bd 19d5 46be 58f9 303e
-0.06519082 0.06141894 0.027822621 0.07802044 -0.03852154 0.12591091 -0.10282272 0.07510861
-0.057566065 0.02356608 0.08706588 0.0485772 0.06386858 0.02569912 0.06564042 0.085093886
0.04102508 0.03811654 -0.21584137 0.12729102 -0.050533865 -0.097138435 -0.0027392628 0.009186399
-0.10316763 0.14812881 0.064504825 -0.0067865932 -0.09952694 0.030323891 -0.09134135 -0.14180967
0.017565234 0.0723821 -0.02356241 -0.08110566 0.011002475 -0.068116814 0.0718671 -0.00078095705
-0.0422095 0.06871825 0.05647364 -0.021619517 0.045927268 -0.046112623 0.08601828 0.06767248
-0.13023043 0.0746263 -0.14391206 -0.108800605 0.0017764182 -0.088626936 0.05657442 -0.011544677
-0.05926654 0.14812495 0.12118315 -0.21229374 0.03162386 -0.05610054 0.06686277 -0.010394782
-0.16058438 0.11703472 -0.14576323 0.16111064 0.059656017 -0.11834385 -0.06861885 -0.1123269
-0.030321661 -0.0030255942 -0.090494886 -0.07461174 0.100039914 0.115089566 0.24183534 -0.10180782
0.1186864 0.013067663 -0.14859784 -0.10286194 -0.06924267 -0.08330493 -0.15974957 -0.07398598
0.14670147 -0.075026125 0.028477954 -0.06974427 -0.047852047 0.035469055 0.052645367 0.015369957
-0.0579014 0.15252554 -0.05977786 -0.0038675368 0.056297917 -0.0013676938 0.033935368 0.029063411
-0.07316205 -0.037506875 -0.10831832 -0.05050682 -0.005146895 -0.023566099 -0.055530716 -0.15671447
-0.021013888 -0.060700476 -0.18856978 -0.10867882 -0.07904745 -0.070706144 -0.117079034 0.09131151
-0.1240811 0.07427372 0.1912761 0.022151181 0.08555391 -0.19036287 0.07973148 -0.28059024
0.15660113 -0.094960764 0.023764886 -0.021207234 -0.06319534 -0.22652079 -0.03300743 -0.07848856
-0.06307726 0.09970196 0.124194026 -0.06885271 -0.102482215 -0.33012772 -0.12740244 0.07359605
-0.088617004 -0.0078073284 -0.0810883 0.13686672 -0.10100998 -0.08433201 0.04399279 0.050081965
-0.0053475644 0.13595134 0.22030577 0.0132655725 0.11397343 -0.2827687 -0.13905542 0.23310177
0.0376346 -0.09168832 0.01193832 -0.009153005 0.10404669 -0.01564963 0.2925835 0.060410507
-0.06744892 -0.09850087 0.026269883 -0.11085236 -0.1452973 -0.11864541 0.074710414 0.026393674
0.04832228 -0.098079026 0.2331587 0.034584653 -0.017903512 0.097750776 -0.055575803 0.07002804
-0.056512058 -0.07920005 0.26693356 0.11900798 -0.084476575 0.006913524 -0.046486236 0.11985985
-0.0509705 0.012308976 0.023264075 0.11795278 -0.0076537766 -0.18083218 0.06137589 -0.123887084
0.13065222 -0.20159936 0.036202427 -0.069162644 0.052719075 0.0021770475 0.029161839 -0.0030645202
0.096929766 -0.13842943 -0.011598732 0.115844056 -0.09902346 -0.037519574 -0.05671796 -0.041161932
-0.06635777 -0.021162018 -0.12062664 0.14949426 0.018130483 -0.12703617 -0.12286836 0.033325642
-0.048813548 0.2262181 -0.15001288 -0.063075066 -5.8749225e-05 0.09872664 -0.0016892762 0.035826005
0.11571829 -0.06824049 -0.11976242 -0.022407297 0.15972707 0.10310922 0.06155142 -0.09505583
-0.16052769 0.11432386 0.06516765 -0.25710148 -0.14277475 0.045520954 -0.063350916 -0.06176676
-0.01160985 0.046226703 -0.10221425 0.10618444 -0.18232098 -0.04058313 -0.19417228 0.17282617

output_layer.bias f4 [5]
00000000: 8fdc cb3c f1d8 b23c f82f eabd 5acc 333e
00000010: 7f41 f23d
0.024885444 0.021831961 -0.114349306 0.17558423 0.11828899

exp_avg f4 [64, 25]
00000000: d9d2 9436 b279 9b36 12a6 f735 a3b3 1136
00000010: ee98 9133 d9d2 9436 9018 8b35 0c64 cc32
00000020: 2701 70b5 f627 58b4 d9d2 9436 1dfd b433
00000030: 5497 2d36 7c33 94b5 c78d b134 d9d2 9436
00000040: a1fb 1735 5296 80b6 a556 73b5 5f2c 4333
00000050: d9d2 9436 2fd4 6135 289e ea35 7421 c6b5
00000060: 2240 e8b3 0000 0000 0000 0000 0000 0000
00000070: 0000 0000 0000 0000 0000 0000 0000 0000
00000080: 0000 0000 0000 0000 0000 0000 0000 0000
00000090: 0000 0000 0000 0000 0000 0000 0000 0000
000000a0: 0000 0000 0000 0000 0000 0000 0000 0000
000000b0: 0000 0000 0000 0000 0000 0000 0000 0000
000000c0: 0000 0000 0000 0000 0000 0000 0000 0000
000000d0: 0000 0000 0000 0000 0000 0000 0000 0000
000000e0: 0000 0000 0000 0000 0000 0000 0000 0000
000000f0: 0000 0000 0000 0000 0000 0000 0000 0000
00000100: 0000 0000 0000 0000 0000 0000 0000 0000
00000110: 0000 0000 0000 0000 0000 0000 0000 0000
00000120: 0000 0000 0000 0000 0000 0000 0000 0000
00000130: 0000 0000 0000 0000 0000 0000 0000 0000
00000140: 0000 0000 0000 0000 0000 0000 0000 0000
00000150: 0000 0000 0000 0000 0000 0000 0000 0000
00000160: 0000 0000 0000 0000 0000 0000 0000 0000
00000170: 0000 0000 0000 0000 0000 0000 0000 0000
00000180: 0000 0000 0000 0000 0000 0000 0000 0000
00000190: 8024 0939 50d2 0f39 456a 0839 8957 1438
000001a0: c7c2 3cb6 8024 0939 3d13 6bb6 c906 97b8
000001b0: b368 4fb7 f9a9 ab35 8024 0939 56da 0438
000001c0: e7d1 af38 4e3c dcb5 e3b4 8836 8024 0939
000001d0: 265c ea37 c0ac 7fb9 b6b1 d8b6 768f 8935
000001e0: 8024 0939 8d06 0238 bf18 dcb8 7390 7f34
000001f0: 24d5 a135 2818 c1ba 766d beba 9f4b 48b9
00000200: 950e d5b9 6f3f f8b6 2818 c1ba 3ae6 42b9
00000210: 63c2 dfb9 5c38 4536 6e08 2e37 2818 c1ba
00000220: 3cb1 9bb9 be4e e9b9 c843 9337 1ffb ce36
00000230: 2818 c1ba 6f72 dbb9 bf7d f8b9 e222 b537
00000240: e827 bc36 2818 c1ba 8290 1fba 0e97 5ab9
00000250: 236e ea37 7479 0b37 626c f9b9 af49 f3b9
00000260: 4ebe 2339 47f3 e8b8 1f77 d6b6 626c f9b9
00000270: 44e5 c9b8 b96e dab9 99da dab7 81bf c536
00000280: 626c f9b9 a148 e7b8 ab30 cdb9 d6ff b6b7
00000290: 5ea4 b436 626c f9b9 69b1 04b9 67a7 00ba
000002a0: d673 32b7 5df8 2236 626c f9b9 8f46 40b9
000002b0: 8ea7 15b8 bc79 0b36 63cb e536 831a 49ba
000002c0: dea7 46ba 6c40 bab9 dcc6 6bb9 3b97 52b6
000002d0: 831a 49ba f51b f7b8 36dd 9b39 2763 5337
000002e0: 2a83 0636 831a 49ba edbe 2bb9 78a1 2b39
000002f0: 2f55 c437 dee3 5c36 831a 49ba e646 54b9
00000300: ccd5 a9b8 fa3a b837 8a76 5834 831a 49ba
00000310: 8685 a6b9 8475 4d39 9a72 ce37 29a6 2335
00000320: 0000 0000 0000 0000 0000 0000 0000 0000
00000330: 0000 0000 0000 0000 0000 0000 0000 0000
00000340: 0000 0000 0000 0000 0000 0000 0000 0000
00000350: 0000 0000 0000 0000 0000 0000 0000 0000
00000360: 0000 0000 0000 0000 0000 0000 0000 0000
00000370: 0000 0000 0000 0000 0000 0000 0000 0000
00000380: 0000 0000 191c 6237 bac0 4b37 b47d 0436
00000390: 23a4 8d36 cf7a 9db4 191c 6237 b726 d335
000003a0: 8191 64b6 39a3 3134 628c dd34 191c 6237
000003b0: bf36 dd35 2229 b936 002d 64b4 9eff d334
000003c0: 191c 6237 f58a 3bb5 e75d fe36 18db 58b5
000003d0: 04dd 9b34 191c 6237 2a35 26b5 8b8c 8fb6
000003e0: 43a6 4bb3 230e 0335 a327 98ba d776 96ba
000003f0: 7ee4 80b9 cb91 a3b9 7635 50b6 a327 98ba
4.4352896e-06 4.633527e-06 1.8451267e-06 2.1711246e-06 6.7799064e-08 4.4352896e-06 1.0363456e-06 2.3794222e-08
-8.9408644e-07 -2.0131105e-07 4.4352896e-06 8.427944e-08 2.5867093e-06 -1.1041843e-06 3.3071976e-07 4.4352896e-06
5.661805e-07 -3.832197e-06 -9.065064e-07 4.544233e-08 4.4352896e-06 8.41278e-07 1.7480388e-06 -1.4761886e-06
-1.08150076e-07 0.0 0.0 0.0 0.0 0.0 0.0 0.0
0.0 0.0 0.0 0.0 0.0 0.0 0.0 0.0
0.0 0.0 0.0 0.0 0.0 0.0 0.0 0.0
0.0 0.0 0.0 0.0 0.0 0.0 0.0 0.0
0.0 0.0 0.0 0.0 0.0 0.0 0.0 0.0
0.0 0.0 0.0 0.0 0.0 0.0 0.0 0.0
0.0 0.0 0.0 0.0 0.0 0.0 0.0 0.0
0.0 0.0 0.0 0.0 0.0 0.0 0.0 0.0
0.0 0.0 0.0 0.0 0.0 0.0 0.0 0.0
0.0 0.0 0.0 0.0 0.00013078935 0.0001371589 0.00013009559 3.5367473e-05
-2.8127558e-06 0.00013078935 -3.5028927e-06 -7.201505e-05 -1.2362539e-05 1.2789961e-06 0.00013078935 3.1674594e-05
8.3837476e-05 -1.6408828e-06 4.074174e-06 0.00013078935 2.7937884e-05 -0.0002438305 -6.45799e-06 1.0249048e-06
0.00013078935 3.1000516e-05 -0.00010495027 2.3801276e-07 1.2057467e-06 -0.001473193 -0.0014528472 -0.00019101657
-0.0004063739 -7.3983606e-06 -0.001473193 -0.00018587048 -0.00042678704 2.9388093e-06 1.0373171e-05 -0.001473193
-0.00029695954 -0.0004449989 1.7555329e-05 6.1685128e-06 -0.001473193 -0.00041856195 -0.00047395934 2.1593125e-05
5.6074823e-06 -0.001473193 -0.0006086902 -0.00020846372 2.794626e-05 8.313324e-06 -0.00047573732 -0.0004640347
0.00015615785 -0.00011107936 -6.3915645e-06 -0.00047573732 -9.627131e-05 -0.00041662695 -2.6089418e-05 5.8933515e-06
-0.00047573732 -0.000110284665 -0.00039136907 -2.1815224e-05 5.383553e-06 -0.00047573732 -0.00012654591 -0.00049077574
-1.0636597e-05 2.4284448e-06 -0.00047573732 -0.00018336832 -3.5680416e-05 2.0783473e-06 6.848409e-06 -0.0007671492
-0.0007578115 -0.00035524683 -0.00022485427 -3.1380466e-06 -0.0007671492 -0.00011783085 0.0002972872 1.2599666e-05
2.0043904e-06 -0.0007671492 -0.00016378956 0.00016367983 2.3404687e-05 3.291519e-06 -0.0007671492 -0.00020244307
-8.098371e-05 2.1961972e-05 2.0159692e-07 -0.0007671492 -0.0003176147 0.00019594101 2.461048e-05 6.0964027e-07
0.0 0.0 0.0 0.0 0.0 0.0 0.0 0.0
0.0 0.0 0.0 0.0 0.0 0.0 0.0 0.0
0.0 0.0 0.0 0.0 0.0 0.0 0.0 0.0
0.0 1.3477192e-05 1.21446155e-05 1.9742702e-06 4.2212355e-06 -2.9332884e-07 1.3477192e-05 1.5731993e-06
-3.4059342e-06 1.654379e-07 4.12666e-07 1.3477192e-05 1.6481716e-06 5.518218e-06 -2.1250526e-07 3.94878e-07
1.3477192e-05 -6.986514e-07 7.5807216e-06 -8.0785094e-07 2.903181e-07 1.3477192e-05 -6.1917183e-07 -4.2780935e-06
-4.7415835e-08 4.8821875e-07 -0.0011608492 -0.0011479509 -0.00024584302 -0.00031198407 -3.1025534e-06 -0.0011608492

exp_avg_sq f4 [64, 25]
00000000: c21a 082d c006 052d 4e98 3a2c e404 832b
00000010: bbc4 9426 c21a 082d c5fc ab2a a79c 3e2c
00000020: 5847 9229 30c8 8227 c21a 082d c0d1 af2a
00000030: f777 1c2b 12e3 fc29 269b 5228 c21a 082d
00000040: d4ec 932b 885a 5a2c c211 3829 d18e 2827
00000050: c21a 082d a510 ab2b 5967 c12a 7fcb 352a
00000060: 1c25 8c26 0000 0000 0000 0000 0000 0000
00000070: 0000 0000 0000 0000 0000 0000 0000 0000
00000080: 0000 0000 0000 0000 0000 0000 0000 0000
00000090: 0000 0000 0000 0000 0000 0000 0000 0000
000000a0: 0000 0000 0000 0000 0000 0000 0000 0000
000000b0: 0000 0000 0000 0000 0000 0000 0000 0000
000000c0: 0000 0000 0000 0000 0000 0000 0000 0000
000000d0: 0000 0000 0000 0000 0000 0000 0000 0000
000000e0: 0000 0000 0000 0000 0000 0000 0000 0000
000000f0: 0000 0000 0000 0000 0000 0000 0000 0000
00000100: 0000 0000 0000 0000 0000 0000 0000 0000
00000110: 0000 0000 0000 0000 0000 0000 0000 0000
00000120: 0000 0000 0000 0000 0000 0000 0000 0000
00000130: 0000 0000 0000 0000 0000 0000 0000 0000
00000140: 0000 0000 0000 0000 0000 0000 0000 0000
00000150: 0000 0000 0000 0000 0000 0000 0000 0000
00000160: 0000 0000 0000 0000 0000 0000 0000 0000
00000170: 0000 0000 0000 0000 0000 0000 0000 0000
00000180: 0000 0000 0000 0000 0000 0000 0000 0000
00000190: 66dc 6532 08ac 6332 b165 a431 5e10 9230
000001a0: 403d cf2a 66dc 6532 a54a dd2e c3a2 0a31
000001b0: 5bd5 c92d 3209 8f2a 66dc 6532 1522 1c30
000001c0: 1840 1f31 c393 7e2d 6ad9 812b 66dc 6532
000001d0: 525f 9b30 c41c 5731 98d4 ea2d fe98 9a2a
000001e0: 66dc 6532 c879 2d31 18b7 a230 f4a2 622d
000001f0: 7c3c 462a 8a2a c833 58af c333 1d33 e031
00000200: 1fe7 ec31 cce5 a32c 8a2a c833 26d2 ba30
00000210: f79a 1832 aef9 292e 7079 092d 8a2a c833
00000220: c37e 8831 7abe 8032 4b99 1e2e fef2 f62c
00000230: 8a2a c833 0258 1932 e867 4632 2895 5b2e
00000240: 3eb7 922c 8a2a c833 4691 8432 82f6 d031
00000250: 93d8 242e b448 e42c 8069 d332 5938 cb32
00000260: e1f2 9531 c109 f630 ce77 0b2c 8069 d332
00000270: d6c4 3f30 e61a 0932 5e51 752e 20ee 692c
00000280: 8069 d332 020b c430 fa9d 3632 a037 5e2e
00000290: 74f5 492c 8069 d332 59c8 1d31 e10f 5b32
000002a0: 74ea 732e 042a a62a 8069 d332 9345 8531
000002b0: 90a9 e431 5b3d ad2d 148f 342c b44f d332
000002c0: 744e d032 5c59 d331 7bc1 ff30 92b7 f62b
000002d0: b44f d332 0ac2 2430 48af be31 9ee2 4d2e
000002e0: b794 d42b b44f d332 581b a730 8a30 2931
000002f0: 5bb9 672e d82b 4f2c b44f d332 3aab e730
00000300: 1830 b231 7d21 4d2e 5947 832b b44f d332
00000310: c439 8a31 cbae eb30 fe9e 272e 0846 a62b
00000320: 0000 0000 0000 0000 0000 0000 0000 0000
00000330: 0000 0000 0000 0000 0000 0000 0000 0000
00000340: 0000 0000 0000 0000 0000 0000 0000 0000
00000350: 0000 0000 0000 0000 0000 0000 0000 0000
00000360: 0000 0000 0000 0000 0000 0000 0000 0000
00000370: 0000 0000 0000 0000 0000 0000 0000 0000
00000380: 0000 0000 3dcf b72d bd9b 8e2d 3f6c 652c
00000390: 5242 212c fa34 3629 3dcf b72d c7b7 382b
000003a0: 1ae2 b82b 0ac0 b327 13fa 9429 3dcf b72d
000003b0: 2627 a72a 54ae e52c af3b 4328 c868 8b29
000003c0: 3dcf b72d 4a10 7f2b 7ed4 0c2e 1ad6 5b2a
000003d0: aeab 3329 3dcf b72d 0537 9d2b 11e3 342c
000003e0: 2bb0 9c25 d449 c129 4d16 6333 598a 5d33
000003f0: 5847 9431 411c 9031 869d 852c 4d16 6333
7.736646e-12 7.5616735e-12 2.6516736e-12 9.309467e-13 1.0322887e-15 7.736646e-12 3.0551096e-13 2.7087583e-12
6.4960786e-14 3.629929e-15 7.736646e-12 3.1231788e-13 5.558882e-13 1.12304385e-13 1.1690984e-14 7.736646e-12
1.0510711e-12 3.1029918e-12 4.087161e-14 2.3392104e-15 7.736646e-12 1.2154901e-12 3.43554e-13 1.6146631e-13
9.72451e-16 0.0 0.0 0.0 0.0 0.0 0.0 0.0
0.0 0.0 0.0 0.0 0.0 0.0 0.0 0.0
0.0 0.0 0.0 0.0 0.0 0.0 0.0 0.0
0.0 0.0 0.0 0.0 0.0 0.0 0.0 0.0
0.0 0.0 0.0 0.0 0.0 0.0 0.0 0.0
0.0 0.0 0.0 0.0 0.0 0.0 0.0 0.0
0.0 0.0 0.0 0.0 0.0 0.0 0.0 0.0
0.0 0.0 0.0 0.0 0.0 0.0 0.0 0.0
0.0 0.0 0.0 0.0 0.0 0.0 0.0 0.0
0.0 0.0 0.0 0.0 1.3379667e-08 1.3252254e-08 4.784589e-09 1.062755e-09
3.6813087e-13 1.3379667e-08 1.0063176e-10 2.0174162e-09 2.2945803e-11 2.5408283e-13 1.3379667e-08 5.6800903e-10
2.3173978e-09 1.4471038e-11 9.226346e-13 1.3379667e-08 1.1304826e-09 3.130297e-09 2.669713e-11 2.7462055e-13
1.3379667e-08 2.5244038e-09 1.183909e-09 1.28827955e-11 1.7606917e-13 9.3209636e-08 9.11229e-08 6.525069e-09
6.8947794e-09 4.658251e-12 9.3209636e-08 1.3593009e-09 8.882799e-09 3.864791e-11 7.814513e-12 9.3209636e-08
3.972532e-09 1.498778e-08 3.6061192e-11 7.018718e-12 9.3209636e-08 8.925783e-09 1.1548742e-08 4.9927312e-11
4.1699135e-12 9.3209636e-08 1.5432885e-08 6.0816214e-09 3.748164e-11 6.4882214e-12 2.4611609e-08 2.3657934e-08
4.364083e-09 1.7901628e-09 1.9819593e-12 2.4611609e-08 6.9765116e-10 7.9805655e-09 5.577882e-11 3.3243477e-12
2.4611609e-08 1.4264006e-09 1.0629714e-08 5.052636e-11 2.8700072e-12 2.4611609e-08 2.2960391e-09 1.2751088e-08
5.546004e-11 2.9516678e-13 2.4611609e-08 3.878719e-09 6.6549504e-09 1.969507e-11 2.5658963e-12 2.4599878e-08
2.4250063e-08 6.151067e-09 1.8608682e-09 1.7530302e-12 2.4599878e-08 5.99386e-10 5.549655e-09 4.681288e-11
1.5104783e-12 2.4599878e-08 1.2158621e-09 2.4620328e-09 5.2687948e-11 2.9440807e-12 2.4599878e-08 1.6856128e-09
5.1859494e-09 4.6641347e-11 9.327913e-13 2.4599878e-08 4.022896e-09 1.714818e-09 3.8112617e-11 1.1814447e-12
0.0 0.0 0.0 0.0 0.0 0.0 0.0 0.0
0.0 0.0 0.0 0.0 0.0 0.0 0.0 0.0
0.0 0.0 0.0 0.0 0.0 0.0 0.0 0.0
0.0 2.0896724e-11 1.6212693e-11 3.2602946e-12 2.2916291e-12 4.0458068e-14 2.0896724e-11 6.5624974e-13
1.3136742e-12 4.989069e-15 6.615901e-14 2.0896724e-11 2.9692324e-13 6.5279258e-12 1.0837616e-14 6.191017e-14
2.0896724e-11 9.0616804e-13 3.2021046e-11 1.9525389e-13 3.9894893e-14 2.0896724e-11 1.1170792e-12 2.5705586e-12
2.7181062e-16 8.583729e-14 5.287284e-08 5.15814e-08 4.3154778e-09 4.1941637e-09 3.797576e-12 5.287284e-08

exp_avg f4 [64]
00000000: d5d2 9436 0000 0000 0000 0000 0000 0000
00000010: 8724 0939 2a18 c1ba 5a6c f9b9 841a 49ba
00000020: 0000 0000 1f1c 6237 a427 98ba 0000 0000
00000030: 698d 29ba 2df1 feba 87db b7b7 0000 0000
00000040: fd7c 8c37 a6ab 1738 f8c2 de39 0d58 ae37
00000050: a6fc 9239 3393 a0ba 5cbe 8739 9507 c3b9
00000060: b5bd 4aba 8e32 18ba abb9 653a 7ead 84b9
00000070: 0000 0000 0000 0000 4192 5bb9 7603 1fba
00000080: 0ee3 a8b8 e71f 9dba 1e0f 61ba 86cb 9fba
00000090: 814f f937 6f03 14ba f7cb acba 34f6 1439
000000a0: 5552 24ba f00c ff38 caf5 2f3a 0000 0000
000000b0: 6d75 f3b6 0000 0000 d20f 43ba 0000 0000
000000c0: 1a8a f538 6bcf 1939 7969 05ba 0000 0000
000000d0: aa1e 8f39 ed54 07bb f166 18ba 3382 0338
000000e0: 8cae e7b9 a685 5d38 d3a9 3eb9 8370 f3ba
000000f0: 7b82 8739 4b9e a738 6ad6 a536 6978 e3b9
4.435288e-06 0.0 0.0 0.0 0.00013078946 -0.0014731933 -0.0004757371 -0.00076714926
0.0 1.3477197e-05 -0.0011608494 0.0 -0.000646791 -0.0019450538 -2.1917525e-05 0.0
1.6747503e-05 3.6161066e-05 0.00042488403 2.0783418e-05 0.00028035528 -0.00122509 0.00025891035 -0.00037198947
-0.0007733957 -0.0005805873 0.00087633234 -0.00025306264 0.0 0.0 -0.00020939951 -0.00060658844
-8.0531565e-05 -0.0011987657 -0.00085853215 -0.0012191392 2.9720135e-05 -0.00056462636 -0.0013183345 0.00014206098
-0.0006268372 0.00012161757 0.00067123456 0.0 -7.2556345e-06 0.0 -0.0007441017 0.0
0.00011708234 0.00014668486 -0.0005089264 0.0 0.00027297932 -0.0020649985 -0.00058136793 3.135409e-05
-0.000441898 5.2814976e-05 -0.00018183076 -0.001857296 0.00025846422 7.992665e-05 4.9423443e-06 -0.00043386527

exp_avg_sq f4 [64]
00000000: c21a 082d 0000 0000 0000 0000 0000 0000
00000010: 6cdc 6532 8e2a c833 7669 d332 b44f d332
00000020: 0000 0000 47cf b72d 4f16 6333 0000 0000
00000030: f636 bd32 395b 0934 e983 4431 0000 0000
00000040: 8cb5 8e2e 272e 5b2f 5612 0232 7a86 1232
00000050: a1a1 ed31 6bef f533 4b73 6532 25da 4f33
00000060: 9e68 3d33 ffca b532 9826 0a33 4f32 fc31
00000070: 0000 0000 0000 0000 b7c7 3932 5e2c 8932
00000080: f4ea 6631 8c49 5333 8814 2333 8295 7133
00000090: e4b5 602f e6c2 7632 565d 9a33 8518 6631
000000a0: 7e18 e032 c413 b030 18b3 5133 0000 0000
000000b0: d871 2e30 0000 0000 c01e 0933 0000 0000
000000c0: 997f 0531 fdd6 7431 cce9 b632 0000 0000
000000d0: 9ba0 8d31 20f8 2334 0c0a 8532 db21 0a2f
000000e0: 5287 0e32 e4f9 9230 00f6 b631 380a 1934
000000f0: ed1a ee31 efea 0830 08db c62c 06bf db32
7.736646e-12 0.0 0.0 0.0 1.33796725e-08 9.3209664e-08 2.4611591e-08 2.4599878e-08
0.0 2.0896741e-11 5.2872846e-08 0.0 2.202749e-08 1.2792306e-07 2.8596736e-09 0.0
6.4896616e-11 1.993433e-10 7.571165e-09 8.528895e-09 6.915983e-09 1.14522514e-07 1.3355769e-08 4.8394345e-08
4.410014e-08 2.1163485e-08 3.216573e-08 7.3398847e-09 0.0 0.0 1.0813827e-08 1.5969075e-08
3.360296e-09 4.9194156e-08 3.7970068e-08 5.624816e-08 2.0437302e-10 1.4363399e-08 7.1881615e-08 3.3483343e-09
2.608817e-08 1.2811303e-09 4.882449e-08 0.0 6.3462613e-10 0.0 3.1925765e-08 0.0
1.9426578e-09 3.562888e-09 2.1293907e-08 0.0 4.121899e-09 1.5270825e-07 1.5487807e-08 1.2563055e-10
8.296256e-09 1.0693921e-09 5.324864e-09 1.4252953e-07 6.9297728e-09 4.981037e-10 5.651816e-12 2.5581823e-08

exp_avg f4 [64, 64]
00000000: 1a36 b3b6 0000 0000 0000 0000 0000 0000
00000010: fbba 2fb9 92d3 82ba 06ed eeba fee1 bcb9
00000020: 0000 0000 92a6 b035 0cf1 01ba 0000 0000
00000030: a1d3 88ba 5d60 90ba 5cb8 a8b7 0000 0000
00000040: ad0b 4fb5 ddc5 6fb6 b87a 14b9 73da 9cb6
00000050: 3702 2ab8 08d0 15ba dc5c f0b6 3b75 65b9
00000060: e705 55ba 693c 60ba 3cfa e7b9 5e97 25b9
00000070: 0000 0000 0000 0000 1171 0bb9 45d7 9eba
00000080: d31b 11b8 c930 8eba cb8e 08ba 886b d8ba
00000090: 564c 4fb5 48ef 08b9 866f 9eba 0d54 20b7
000000a0: 232f 8bba 198f 82b8 48fb cab9 0000 0000
000000b0: a2f4 3cb7 0000 0000 f496 8aba 0000 0000
000000c0: 8c72 05b8 83f6 2b36 5f20 cdb9 0000 0000
000000d0: 9580 27b9 98b7 faba fdb8 78ba ee46 f234
000000e0: e269 acba 6663 e0b6 bdc3 b0ba be82 2bba
000000f0: 2191 09b7 5156 0ab8 0000 0000 933f 75b9
00000100: 0000 0000 0000 0000 0000 0000 0000 0000
00000110: 9c23 b6b6 5240 bd37 20db 0d39 9efd 9c38
00000120: 0000 0000 97df b7b4 3102 3138 0000 0000
00000130: b505 4d38 89c8 4a38 12a8 a4b5 0000 0000
00000140: b7c7 7536 0000 0000 2bb3 1438 94b4 b9b5
00000150: 32b9 a537 d7ad 9f38 54a1 4936 c28d 5238
00000160: 482b d738 dce7 6038 dc85 9d38 a7d8 e1b6
00000170: 0000 0000 0000 0000 b520 1d37 dee5 f738
00000180: d7ed 55b5 ad3a 47b5 d77e 3d38 1569 cf38
00000190: 0000 0000 bf0e 4633 bbb3 2738 a558 6734
000001a0: 0f06 e937 e505 fab6 f289 43b7 0000 0000
000001b0: ca61 c136 0000 0000 2b50 f038 0000 0000
000001c0: 6e43 5837 a436 c637 8d86 4ab7 0000 0000
000001d0: 087b 5836 0436 ba38 cdc9 a438 e9ba 4537
000001e0: 124f 7a38 a79f 6f37 82f2 5738 670c 0937
000001f0: 4c69 0437 a78d b434 4020 96b2 cee0 c337
00000200: 4cf1 beb6 0000 0000 0000 0000 0000 0000
00000210: a8e8 8eb8 4af0 46b8 35cb 0e37 204e cbb6
00000220: 0000 0000 1683 a133 27d4 c437 0000 0000
00000230: 188e fbb8 650e 16b8 11b9 0db4 0000 0000
00000240: 7f4e 9c34 df08 6bb5 485e 2838 f0fd 8534
00000250: 710c 7037 1bad 7b38 7f8f 0037 051b 3f37
00000260: 4fd8 84b8 9601 45b7 3a39 a238 a1cf 04b8
00000270: 0000 0000 0000 0000 cab5 3f37 0b78 34b8
00000280: c47a d6b5 f0e7 b4b8 f43b eab7 64d2 14b9
00000290: a89e 9935 d3d9 75b7 f281 0ab9 477b 0db6
000002a0: c89a e1b8 4542 9435 2040 0a38 0000 0000
000002b0: 3b31 0ab7 0000 0000 fa9f 7d36 0000 0000
000002c0: 69df 75b4 e0a8 7c35 b435 39b8 0000 0000
000002d0: b14b a9b7 7f9f 99b8 495c 8cb8 7985 2c37
000002e0: 0f55 5cb8 11b7 d136 87f5 c7b8 0cea e1b7
000002f0: 7fb8 cbb5 22cf 4cb7 58a2 4532 8607 1337
00000300: d1d1 3036 0000 0000 0000 0000 0000 0000
00000310: aaca ff38 0b9c e939 1670 753a 9f7c 3439
00000320: 0000 0000 924a c5b5 76d3 7939 0000 0000
00000330: c8d0 d439 c3f3 f739 8536 2037 0000 0000
00000340: 92b9 f635 7aa6 0e36 529e 2d39 2d34 3237
00000350: 9c90 8038 5f6a 8a39 e860 bcb5 decb f138
00000360: 813e bc39 7da9 e539 b5a3 bf39 36e1 3f38
00000370: 0000 0000 0000 0000 f7c9 ff37 f725 013a
00000380: 5c8d 2038 7138 e339 f63f 6b39 416e 223a
00000390: d733 9534 3aec 7c37 ab3b df39 aed1 d5b6
000003a0: 116c e539 f7fb 5237 71f4 af39 0000 0000
000003b0: 7c51 72b6 0000 0000 f501 093a 0000 0000
000003c0: f73f 1136 1752 b0b5 4b3b 2e39 0000 0000
000003d0: 1ade 6138 6e0d 5f3a f8dd d239 83f6 3c37
000003e0: 83af 143a 2cd9 5d36 6909 173a a9c1 8439
000003f0: 6c2c b0b6 796b ed37 0000 0000 fd11 5e39
-5.340914e-06 0.0 0.0 0.0 -0.00016758956 -0.0009981266 -0.0018228597 -0.00036026532
0.0 1.31615e-06 -0.0004956878 0.0 -0.0010439047 -0.0011015047 -2.011301e-05 0.0
-7.71305e-07 -3.5728947e-06 -0.00014160096 -4.674593e-06 -4.053322e-05 -0.0005714898 -7.1633676e-06 -0.00021882814
-0.00081261847 -0.00085539237 -0.00044246193 -0.00015792015 0.0 0.0 -0.00013298194 -0.0012118599
-3.4596607e-05 -0.0010848279 -0.0005209266 -0.0016511539 -7.722459e-07 -0.0001305911 -0.001208768 -9.556313e-06
-0.0010618906 -6.225537e-05 -0.00038715662 0.0 -1.1262631e-05 0.0 -0.0010573552 0.0
-3.181635e-05 2.5624474e-06 -0.00039124765 0.0 -0.00015974262 -0.0019128202 -0.00094880146 4.512762e-07
-0.0013154114 -6.6872917e-06 -0.0013486069 -0.00065426144 -8.199627e-06 -3.2982152e-05 0.0 -0.00023388704
0.0 0.0 0.0 0.0 -5.428168e-06 2.2560507e-05 0.00013528438 7.4858996e-05
0.0 -3.424909e-07 4.220213e-05 0.0 4.8881124e-05 4.8347316e-05 -1.2267867e-06 0.0
3.6624094e-06 0.0 3.5452813e-05 -1.3836129e-06 1.9755771e-05 7.614091e-05 3.004524e-06 5.0199924e-05
0.00010260061 5.3621698e-05 7.5112766e-05 -6.730744e-06 0.0 0.0 9.365544e-06 0.00011820694
-7.9694786e-07 -7.421866e-07 4.517924e-05 9.890102e-05 0.0 4.611388e-08 3.998329e-05 2.15458e-07
2.7778586e-05 -7.451267e-06 -1.1655024e-05 0.0 5.7632324e-06 0.0 0.00011459024 0.0
1.2890303e-05 2.3628883e-05 -1.2071466e-05 0.0 3.2258122e-06 8.879232e-05 7.857718e-05 1.1785633e-05
5.9678285e-05 1.4282682e-05 5.1485848e-05 8.168724e-06 7.892329e-06 3.3630678e-07 -1.7476964e-08 2.3350494e-05
-5.690532e-06 0.0 0.0 0.0 -6.814423e-05 -4.7430665e-05 8.511172e-06 -6.0589664e-06
0.0 7.520991e-08 2.3463812e-05 0.0 -0.0001199508 -3.5776193e-05 -1.3198975e-07 0.0
2.9114378e-07 -8.755723e-07 4.0142128e-05 2.4957944e-07 1.43080115e-05 6.000428e-05 7.662805e-06 1.1390778e-05
-6.334541e-05 -1.1742484e-05 7.735421e-05 -3.1664622e-05 0.0 0.0 1.1426813e-05 -4.3027143e-05
-1.5979972e-06 -8.6262706e-05 -2.7922892e-05 -0.00014192756 1.1445563e-06 -1.4653854e-05 -0.00013209114 -2.1082394e-06
-0.00010757666 1.1046146e-06 3.2961485e-05 0.0 -8.236903e-06 0.0 3.7793056e-06 0.0
-2.2898679e-07 9.412306e-07 -4.4157452e-05 0.0 -2.0181616e-05 -7.325317e-05 -6.69291e-05 1.0283075e-05
-5.2531304e-05 6.249997e-06 -9.5347925e-05 -2.6931077e-05 -1.5178374e-06 -1.2207574e-05 1.1503822e-08 8.7636345e-06
2.6348173e-06 0.0 0.0 0.0 0.00012197097 0.00044557484 0.00093627104 0.00017212563
0.0 -1.4699347e-06 0.00023825266 0.0 0.00040591345 0.00047293128 9.549437e-06 0.0
1.8382436e-06 2.125655e-06 0.00016557545 1.0621775e-05 6.130451e-05 0.00026400664 -1.4035295e-06 0.00011529749
0.00035904723 0.00043804562 0.0003655233 4.5747693e-05 0.0 0.0 3.0492416e-05 0.00049266167
3.8278624e-05 0.00043338866 0.00022435174 0.00061962387 2.779113e-07 1.5075371e-05 0.0004257833 -6.3723046e-06
0.000437588 1.25756405e-05 0.00033560724 0.0 -3.610824e-06 0.0 0.0005226427 0.0
2.1643916e-06 -1.3136913e-06 0.00016616021 0.0 5.385103e-05 0.0008508776 0.000402197 1.1263069e-05
0.0005671905 3.3057977e-06 0.0005761595 0.0002532129 -5.25038e-06 2.8302647e-05 0.0 0.00021178271

exp_avg_sq f4 [64, 64]
00000000: d6d9 b42c 0000 0000 0000 0000 0000 0000
00000010: eb02 1c31 ec5b 1933 54c1 ec33 81b4 b431
00000020: 0000 0000 590a f72a 93c2 2032 0000 0000
00000030: e63f 1d33 de9f 2d33 920e d92d 0000 0000
00000040: bcfa 1a2a 37cb 632c 0fe4 bc30 1f75 3b2c
00000050: c294 172f 2ee7 4432 2286 702d 6bd5 f130
00000060: 0474 d532 7acc cf32 d451 0832 7614 9630
00000070: 0000 0000 0000 0000 210c 4f30 b4ab 4f33
00000080: 61ec ce2e aa2d 3233 8c86 1a32 76c5 c133
00000090: 985b 1b2a 1e4d 5f30 bb7f 5333 d904 762d
000000a0: 244a 2733 a2ec 702f 8ad7 ce31 0000 0000
000000b0: 0764 982d 0000 0000 7746 1d33 0000 0000
000000c0: d29b 102f ecb8 a72d 92df cd31 0000 0000
000000d0: 1f62 8d30 6cec 0234 0776 0433 a949 d72b
000000e0: 7684 8133 4ac3 9e2d e436 7e33 3e55 8732
000000f0: bcea d22d 96b7 542f 0000 0000 5e73 2d31
00000100: 0000 0000 0000 0000 0000 0000 0000 0000
00000110: 8ec0 e72c bb63 e92f 0fc1 f931 3e0e c730
00000120: 0000 0000 0e76 f428 dbe6 2230 0000 0000
00000130: 9e7c 4e30 e22a 8a30 5671 d32c 0000 0000
00000140: 3564 5a2c 0000 0000 8610 0a30 5028 342c
00000150: 2e7f 2b2f e297 0431 70fa 122c 2698 5c30
00000160: b145 5731 79ea 8b30 5a56 3431 d1f5 812d
00000170: 0000 0000 0000 0000 0b43 a42d 76be 9431
00000180: 3b05 cf2a 914a 1e2f cec1 1330 3b25 4031
00000190: 0000 0000 e3d0 0d26 b3a8 1b30 6a7e 4128
000001a0: f300 0c30 26ff 612d a14b f52e 0000 0000
000001b0: fe32 072d 0000 0000 b39e 8a31 0000 0000
000001c0: ec2b 262e ce42 082f 1b85 cd2d 0000 0000
000001d0: 3f9c a12b b5ef 6431 a9fa d930 bfda 042e
000001e0: 2e95 d730 6e96 4f2e 4d1a 8f30 ba87 b92e
000001f0: 5bfb 9f2d 77b6 eb28 04f6 a224 36e6 902f
00000200: 68c5 a22c 0000 0000 0000 0000 0000 0000
00000210: bacc 5e30 844a 3731 3ccd d231 f98b 6e30
00000220: 0000 0000 5c24 8727 9721 bd2f 0000 0000
00000230: e759 9d31 3fd3 0131 94b9 a32b 0000 0000
00000240: c3a7 b028 64ab e62b d755 0b30 ad55 062c
00000250: 7354 0f2e c432 1b30 93f6 232d 462f 0d2f
00000260: c05e a231 84b1 db30 4989 a730 0a33 e12e
00000270: 0000 0000 0000 0000 04ed a22e 1c9e 9931
00000280: b971 a42b 04fc 7831 7d7a 4030 843d 2c32
00000290: 5ca2 aa2a 40b4 d72e de9b b631 6604 1f2c
000002a0: c23e 9131 04e9 622e 989c 2230 0000 0000
000002b0: c3bd 112d 0000 0000 7643 5d31 0000 0000
000002c0: e782 a42a 7d10 482c d57f 3f30 0000 0000
000002d0: d366 7c2f 929e 1432 285a 7031 98c8 7c2d
000002e0: da80 8431 777c 1c2d b75c c431 f207 fa2f
000002f0: f04b 8e2a 511a 852d d135 0d24 fe0b b12e
00000300: 63bd ba2b 0000 0000 0000 0000 0000 0000
00000310: b50e 1231 45c2 b832 35c8 c333 e322 5931
00000320: 0000 0000 8a34 0a2b 01f7 b831 0000 0000
00000330: 4a34 9e32 3832 c932 75dd 942e 0000 0000
00000340: d512 5c2b 295c 452b b031 8631 44a0 832e
00000350: 2133 3c30 9308 dc31 8a80 1c2b d7e3 bb30
00000360: 19f8 7532 7056 b732 7a86 7032 ab1b 8e2f
00000370: 0000 0000 0000 0000 5383 d62f d837 d832
00000380: 42f2 692f 471e b432 5602 c331 e5bf 3433
00000390: 5cf6 a028 85b5 b02d 2604 b032 ea4c 6e2e
000003a0: 4e8e b332 e10d 312e b86a 5b32 0000 0000
000003b0: cd87 082d 0000 0000 0822 0133 0000 0000
000003c0: 4d72 5e2d 83ae 412c 681b 4731 0000 0000
000003d0: 9f36 8430 04e6 a733 3d14 9832 c0e2 a12d
000003e0: ee3a 0f33 6528 432c bbd8 1c33 57f9 d431
000003f0: 2c6c 042d 20d4 082f 0000 0000 24c5 9c31
5.1400923e-12 0.0 0.0 0.0 2.2702646e-09 3.570669e-08 1.10247726e-07 5.2592104e-09
0.0 4.3883194e-13 9.357467e-09 0.0 3.6612526e-08 4.04251e-08 2.4676514e-11 0.0
1.3764939e-13 3.2371447e-12 1.3743618e-09 2.6639314e-12 1.378622e-10 1.1461266e-08 1.3672204e-11 1.7595715e-09
2.4849221e-08 2.4190957e-08 7.9348474e-09 1.0919752e-09 0.0 0.0 7.53234e-10 4.8352106e-08
9.409785e-11 4.1485386e-08 8.994572e-09 9.023181e-08 1.3798543e-13 8.123652e-10 4.9243436e-08 1.39845574e-11
3.8950148e-08 2.1911942e-10 6.019893e-09 0.0 1.732482e-11 0.0 3.66185e-08 0.0
1.3152082e-10 1.9067824e-11 5.9917022e-09 0.0 1.0286988e-09 1.2193203e-07 3.084099e-08 1.5297114e-12
6.031125e-08 1.8049246e-11 5.9188906e-08 1.5754832e-08 2.3978479e-11 1.934651e-10 0.0 2.5240392e-09
0.0 0.0 0.0 0.0 6.5867927e-12 4.2453316e-10 7.268802e-09 1.4483204e-09
0.0 2.714064e-14 5.926332e-10 0.0 7.5119455e-10 1.005301e-09 6.0095635e-12 0.0
3.103529e-12 0.0 5.022759e-10 2.5601916e-12 1.5597543e-10 1.9294863e-09 2.0886869e-12 8.025175e-10
3.1326233e-09 1.0180222e-09 2.6242533e-09 1.4774766e-11 0.0 0.0 1.8674414e-11 4.32902e-09
3.6774216e-13 1.4396508e-10 5.37537e-10 2.796084e-09 0.0 4.9202296e-16 5.662841e-10 1.0741064e-14
5.093305e-10 1.2846424e-11 1.11547445e-10 0.0 7.685184e-12 0.0 4.0343706e-09 0.0
3.778304e-11 1.2392862e-10 2.3364912e-11 0.0 1.1483105e-12 3.3314624e-09 1.586007e-09 3.020761e-11
1.5685708e-09 4.719996e-11 1.0412095e-09 8.436936e-11 1.8187831e-11 2.6169373e-14 7.067307e-17 2.6357022e-10
4.6262334e-12 0.0 0.0 0.0 8.1054063e-10 2.6672362e-09 6.135137e-09 8.678281e-10
0.0 3.750945e-15 3.4402767e-10 0.0 4.579522e-09 1.889205e-09 1.1633355e-12 0.0
1.961268e-14 1.6390053e-12 5.068989e-10 1.9090105e-12 3.258944e-11 5.6460814e-10 9.320228e-12 1.284067e-10
4.7255924e-09 1.59848e-09 1.2189868e-09 1.0240882e-10 0.0 0.0 7.4090095e-11 4.470861e-09
1.1684465e-12 3.6232004e-09 7.002326e-10 1.0025705e-08 3.0310726e-13 9.809087e-11 5.314617e-09 2.25977e-12
4.22719e-09 5.159341e-11 5.915779e-10 0.0 8.284431e-12 0.0 3.219808e-09 0.0
2.9223084e-13 2.8430862e-12 6.9667055e-10 0.0 2.2955797e-10 8.6507885e-09 3.4975844e-09 1.4369082e-11
3.8563543e-09 8.89521e-12 5.7148912e-09 4.548038e-10 2.527696e-13 1.5132036e-11 3.0620086e-17 8.0511584e-11
1.326866e-12 0.0 0.0 0.0 2.1254156e-09 2.1508763e-08 9.1168125e-08 3.1597487e-09
0.0 4.910036e-13 5.383186e-09 0.0 1.84174e-08 2.3422317e-08 6.7695995e-11 0.0
7.8185836e-13 7.011636e-13 3.905562e-09 5.985659e-11 6.846666e-10 6.4038175e-09 5.5600717e-13 1.3670797e-09
1.4317288e-08 2.1343311e-08 1.4000415e-08 2.584931e-10 0.0 0.0 3.9019685e-10 2.5171104e-08
2.1277294e-10 2.0968526e-08 5.6755125e-09 4.2084043e-08 1.787041e-14 2.0089494e-11 2.0490983e-08 5.4183248e-11
2.0903055e-08 4.0257467e-11 1.2771743e-08 0.0 7.760859e-12 0.0 3.0066104e-08 0.0
1.2644619e-11 2.7523823e-12 2.897389e-09 0.0 9.619788e-10 7.818383e-08 1.7704332e-08 1.8404278e-11
3.334838e-08 2.773359e-12 3.6518696e-08 6.1983587e-09 7.52735e-12 1.244449e-10 0.0 4.56261e-09
