CartPole/Experiment_1/23-09-26_22-10-39-937242_DQN/checkpoints/agent_55000.pt (torch, 82571 bytes, 24 tensors)

net.0.weight f4 [64, 4]
-0.03890179 0.12913577 0.06914686 -0.052406766 0.14584947 -0.036105655 0.32311177 -0.041143026
-0.12412632 0.08433468 1.9794215 0.19565476 -0.20826137 -0.33470857 0.37602702 -0.07229043
-0.08385639 -0.020568294 0.048539206 0.0027877358 0.23725206 -0.16433933 -0.8541547 -0.036055885
-0.072207704 0.09872921 -0.56315696 0.094486944 -0.12941125 -0.006231787 0.009380656 0.06753905
-0.013146568 -0.06584931 0.04192394 -0.040761147 -0.1439654 0.05430353 -0.0062723076 0.16594717
-0.17745592 -0.06869728 -1.068129 -0.12234152 0.07917811 -0.10245862 -1.7536311 -0.206486
-0.33486497 -0.1019816 0.52837515 -0.011084573 0.10998807 0.44865793 0.55555326 0.09897423
0.02682325 -0.008666424 -0.18595499 -0.021548524 0.076781854 0.06816758 0.47799718 0.032669622
0.20793287 0.26093003 -1.073913 0.38160348 0.27979374 0.010493202 -0.2762422 -0.025882242
0.048201494 -0.042485498 -0.09614151 -0.03220898 -0.30456576 -0.22691074 -0.5724521 -0.17806308
0.03102372 0.09275074 -0.53591514 -0.031103529 0.3690711 0.13735963 0.018768167 0.072892256
0.06640849 -0.1896569 -0.6319609 -0.20526277 0.3148288 -0.051491365 -0.61753213 -0.030934764
-0.13235205 0.08682187 1.2621107 0.0581465 -0.1467549 -0.09373987 0.4830338 0.49109232
0.2019348 0.16342321 0.9733552 0.12960608 0.53749305 0.03999483 0.47971347 0.08416132
0.33243084 -0.23878223 0.9417102 0.13175987 -0.121667095 -0.25721693 -0.8471196 -0.1671089
-0.20168974 0.1659594 0.6279246 -0.0030159426 -0.028540602 -0.020619098 0.029088806 -0.07080355
0.004777713 0.0026280773 -1.0731087 -0.19192858 -0.03519232 0.024999121 -0.05038932 0.018373393
-0.13130668 0.11864093 1.0013595 0.31160313 0.111361735 -0.030112699 -0.10764304 0.014655906
0.124740355 -0.06482547 -1.9911559 -0.24275747 0.02818138 -0.4306218 0.78364825 -0.20720458
-0.0485909 0.06550647 -0.20835306 0.16058707 0.100924976 -0.09421592 -0.0556926 -0.011334017
-0.14176744 -0.047538225 -0.19337428 -0.0582252 0.5654035 -0.013491736 -1.5091519 -0.0867679
-0.16666318 0.30360413 0.88610566 0.2864915 -0.2179617 0.2287049 0.34177107 0.09040299
0.041922227 -0.027451498 -0.081361 -0.011531797 -0.07893259 0.112054765 1.298634 0.17352581
0.164596 -0.059213083 -1.9680055 -0.38048005 0.38156283 -0.08414146 -0.1827576 -0.22253688
-0.010744704 0.04419655 -0.0015444825 0.038893793 -0.1228488 0.035002112 -0.27442038 0.030263806
-0.047345284 -0.076965116 -0.5794207 -0.08498228 -0.6850011 -0.0077330517 1.0562831 0.10082924
-0.017474597 0.19659306 1.2458606 0.1513909 -0.050258677 -0.0591945 0.24393342 0.0034523727
0.037022855 0.015474828 -0.05165679 0.018036043 -0.20388843 0.15586315 0.77201104 0.054513495
0.23285662 -0.2605742 -1.126423 0.40013242 0.06911839 -0.08581423 -0.46286747 0.015414832
-0.029093403 0.082347564 -0.072306134 0.045801703 0.13500601 -0.07044533 -0.7188386 -0.24300346
0.11726465 -0.012468705 1.0229456 0.018535942 -0.024131887 0.01595536 -0.056990918 -0.02924141
0.18340515 -0.06418896 -1.2404835 -0.108996466 0.17154533 -0.125116 0.41979 -0.00634913
00000000: 7c57 1fbd 2b3c 043e de9c 8d3d 7aa8 56bd
00000010: 9059 153e 86e3 13bd e86e a53e 9785 28bd
00000020: f135 febd a9b7 ac3d af5d fd3f b959 483e
00000030: 7842 55be ec5e abbe 9d86 c03e 010d 94bd
00000040: e6bc abbd d77e a8bc 0cd1 463d 72b2 363b
00000050: 34f2 723e 9248 28be e2a9 5abf 56af 13bd
00000060: a2e1 93bd 8a32 ca3d 0e2b 10bf 5f82 c13d
00000070: 6284 04be 0534 ccbb 53b1 193c ea51 8a3d
00000080: b464 57bc 01dc 86bd 70b8 2b3d 29f5 26bd
00000090: aa6b 13be 616d 5e3d ee87 cdbb 0eee 293e
000000a0: 01b7 35be 29b1 8cbd 73b8 88bf 318e fabd
000000b0: 2228 a23d d3d5 d1bd fc76 e0bf 1171 53be
000000c0: 6c73 abbe bbdb d0bd 9843 073f 129c 35bc
000000d0: 6d41 e13d 7eb6 e53e bd38 0e3f 00b3 ca3d
000000e0: 6fbc db3c 9efd 0dbc fc6a 3ebe 8886 b0bc
000000f0: ce3f 9d3d 729b 8b3d 0cbc f43e 95d0 053d
00000100: 5bec 543e 9f98 853e fb75 89bf 8861 c33e
00000110: 2041 8f3e aeeb 2b3c 9e6f 8dbe ff06 d4bc
00000120: ee6e 453d 4605 2ebd d7e5 c4bd 90ed 03bd
00000130: 0bf0 9bbe 4a5b 68be 398c 12bf 2b56 36be
00000140: 7525 fe3c 1af4 bd3d bc31 09bf d4cc febc
00000150: e3f6 bc3e 01a8 0c3e b3bf 993c 8948 953d
00000160: 2d01 883d 6b35 42be 31c8 21bf 6730 52be
00000170: 3e31 a13e 9ce8 52bd 9616 1ebf e76a fdbc
00000180: 4c87 07be aacf b13d d88c a13f 062b 6e3d
00000190: eb46 16be b0fa bfbd 3550 f73e 7470 fb3e
000001a0: ffc7 4e3e 6a58 273e ce2d 793f 75b7 043e
000001b0: 2599 093f 9ed1 233d 019d f53e c55c ac3d
000001c0: 6034 aa3e 5483 74be eb13 713f 0fec 063e
000001d0: 992c f9bd f0b1 83be d5dc 58bf 981e 2bbe
000001e0: c187 4ebe 43f1 293e abbf 203f 1fa7 45bb
000001f0: fbcd e9bc 62e9 a8bc a64b ee3c 7401 91bd
00000200: 5d8e 9c3b d23b 2c3b a05b 89bf ed88 44be
00000210: d225 10bd f5ca cc3c 0865 4ebd cc83 963c
00000220: 4275 06be 04fa f23d 8c2c 803f 728a 9f3e
00000230: 9f11 e43d e8ae f6bc f473 dcbd 531f 703c
00000240: df77 ff3d 37c3 84bd 32de febf 6a95 78be
00000250: a3dc e63c 767a dcbe 2c9d 483f 702d 54be
00000260: 4007 47bd 4228 863d 815a 55be f070 243e
00000270: c1b1 ce3d 47f4 c0bd ec1d 64bd 50b2 39bc
00000280: 7c2b 11be 71b7 42bd e803 46be 8c7d 6ebd
00000290: 49be 103f 710c 5dbc e42b c1bf 5eb3 b1bd
000002a0: c1a9 2abe 0072 9b3e d2d7 623f 04af 923e
000002b0: 5a31 5fbe 9e31 6a3e 9efc ae3e 3425 b93d
000002c0: a4b6 2b3d f7e1 e0bc 99a0 a6bd ddef 3cbc
000002d0: 69a7 a1bd f87c e53d a439 a63f c0b0 313e
000002e0: db8b 283e 6b89 72bd 9be7 fbbf 48ce c2be
000002f0: 345c c33e 5c52 acbd cf24 3bbe b5e0 63be
00000300: 8e0a 30bc 7107 353d 3c70 caba 194f 1f3d
00000310: 2798 fbbd 605e 0f3d d480 8cbe cdeb f73c
00000320: 21ed 41bd e39f 9dbd ea54 14bf 310b aebd
00000330: 3b5c 2fbf 8a65 fdbb 4934 873f 907f ce3d
00000340: e326 8fbc b14f 493e 5c78 9f3f 3706 1b3e
00000350: 0bdc 4dbd ef75 72bd afc9 793e 3441 623b
00000360: 47a5 173d 228a 7d3c 1296 53bd 53c0 933c
00000370: 21c8 50be 979a 1f3e 84a2 453f 8b49 5f3d
00000380: f771 6e3e fb69 85be a12e 90bf 28de cc3e
00000390: f18d 8d3d 5fbf afbd f7fc ecbe 7e8e 7c3c
000003a0: 4a55 eebc d7a5 a83d 3d15 94bd 919a 3b3d
000003b0: 043f 0a3e a445 90bd ce05 38bf e6d5 78be
000003c0: 7328 f03d 8a49 4cbc e2ef 823f b0d8 973c
000003d0: 3cb0 c5bc d1b4 823c 4f6f 69bd ae8b efbc
000003e0: 8fce 3b3e 8075 83bd 2ac8 9ebf 8a39 dfbd
000003f0: 94a9 2f3e 691e 00be b7ee d63e 5d0c d0bb

net.0.bias f4 [64]
0.41772455 0.28911856 -0.42544612 -0.23338108 -0.29673266 0.35196555 -0.15949199 0.530101
0.35418132 -0.44561577 -0.34397146 -0.33644328 -0.538413 -0.2638891 -0.14654225 0.1951101
-0.077593856 -0.3084996 -0.08980318 -0.089327835 -0.41622853 -0.6909691 0.25459343 -0.64248
0.3239265 -0.5939433 -0.5765422 -0.68496233 -0.23933288 -0.4148637 -0.29712352 -0.2623621
0.3675976 -0.16845371 -0.42328843 0.4666512 0.26883808 0.12561488 -0.2995464 0.6203397
-0.55760485 -0.3575018 0.21379459 -0.38055027 -0.15146525 0.41625467 -0.5947825 -0.4203422
-0.12357267 0.3726632 0.22871625 -0.2977322 -0.34576026 0.52189946 -0.28821346 -0.39656678
0.24277565 -0.43010047 -0.14020263 0.43143806 -0.5220763 -0.1879339 0.39782137 -0.35342032
00000000: fedf d53e 5907 943e 13d4 d9be 73fb 6ebe
00000010: 58ed 97be d434 b43e de51 23be b3b4 073f
00000020: 4157 b53e c027 e4be 071d b0be 4b42 acbe
00000030: 6fd5 09bf 791c 87be 2c0f 16be f1ca 473e
00000040: 87e9 9ebd a9f3 9dbe bbea b7bd 83f1 b6bd
00000050: e81b d5be 5ae3 30bf 125a 823e 9279 24bf
00000060: b2d9 a53e ab0c 18bf 4598 13bf b159 2fbf
00000070: ae13 75be 0469 d4be 9320 98be 5354 86be
00000080: c135 bc3e 217f 2cbe 43b9 d8be e8ec ee3e
00000090: 25a5 893e 30a1 003e 255e 99be 95ce 1e3f
000000a0: 31bf 0ebf 7a0a b7be f8ec 5a3e 7cd7 c2be
000000b0: b519 1bbe 551f d53e aa43 18bf 1837 d7be
000000c0: ab13 fdbd b6cd be3e 9834 6a3e 5b70 98be
000000d0: 7d07 b1be 349b 053f b790 93be cd0a cbbe
000000e0: 2e9a 783e 2136 dcbe 4791 0fbe 73e5 dc3e
000000f0: cba6 05bf bf71 40be 3eaf cb3e 82f3 b4be

net.2.weight f4 [64, 64]
-0.18774211 -0.17229062 0.4175053 0.12041561 0.025860975 -0.1586354 -0.49164233 -0.27799696
-0.104638375 0.041631352 -0.045645013 -0.256905 -0.28458762 -0.05892125 -0.16932398 -0.10374381
-0.068905205 -0.572667 -0.15083928 -0.22377665 0.0015980221 0.07134684 -0.6502472 -0.8274642
0.23111497 -0.47951734 0.6229145 0.2406443 -0.4594195 -0.0012380277 0.089299016 0.13166706
-0.6527404 0.07165936 -0.31353188 0.05354787 -0.11750436 -0.08049068 -0.22609107 -0.20427346
0.0771422 -0.25749597 0.013850371 -0.14283413 0.032602597 0.5082071 0.07274054 0.07265685
-0.054143187 -0.16465238 -0.10664909 -0.493366 -0.09880707 -0.13739906 0.108545355 0.123713195
-0.044930216 -0.4356222 -0.004822993 -0.5097989 1.5351144 -0.009862494 -0.22889304 0.4478578
0.09366082 0.11601875 -0.20061609 0.19812562 0.012940978 0.058353093 -0.003886217 -0.15345143
-0.14806084 -0.011613441 -0.08755711 -0.09203189 0.11492277 -0.08927897 0.044355012 -0.12404926
0.048947744 0.036682203 -0.048588973 -0.13937981 -0.06758729 -0.03584855 -0.0059217573 -0.14797428
-0.07413755 0.0523679 0.16322944 -0.16346876 -0.08944527 -0.08364359 -0.05889894 -0.051157713
-0.17763756 0.0232781 -0.058773264 -0.0371661 -0.21427932 0.16839968 0.24844272 -0.21916829
-0.009869558 -0.057510775 -0.0718202 0.022835836 0.09274187 -0.0025562812 -0.17238577 -0.18070182
0.19361883 -0.16435985 -0.13248888 -0.052633677 -0.034358826 -0.014575675 0.14186065 -0.07543046
-0.20120208 -0.06164392 0.19217385 0.10707294 0.14705963 -0.10375487 -0.20471767 0.095685154
-0.19114982 -0.69658846 -0.3528636 -0.9271115 -0.09196377 -0.59392536 0.06125778 -0.15997998
-0.16857265 0.72599685 2.532238 -0.43442154 1.3446218 -0.76564986 0.11287838 -0.3590749
-0.27295488 -0.04728055 0.015775105 -0.44514647 -0.4139307 -0.08929198 -0.27331296 0.65148807
-0.3795439 0.04013762 0.53535783 -0.16320513 0.010712436 0.11826578 -0.6897622 0.059315152
-0.29680598 0.14905906 0.13252677 -0.47555414 0.63269585 -0.20098346 0.32524985 -0.15405366
1.2815872 0.9335711 -0.077453285 -0.06467134 0.07529325 -0.32120308 0.29311278 -0.2238455
-0.10339166 0.045863174 -0.79492766 0.855639 0.16352463 -0.137303 -0.034593474 -0.48476937
-1.0617425 -0.2861718 -0.071572475 -0.88533145 0.6874082 -0.060106516 -0.8427449 0.33890635
-0.026352093 0.060110178 -0.05137488 0.053709447 -0.09235129 -0.03643665 0.0295707 -0.10574179
-0.08976323 -0.063362956 -0.014516237 -0.0122992275 0.10494279 -0.09030105 -0.110042036 0.009613962
0.02576116 -0.09252936 0.11938044 -0.17810327 -0.0348841 -0.053519167 0.024502046 -0.084581904
-0.2072215 0.042651437 -0.044341054 0.06742796 0.15460575 0.017775748 0.029815016 -0.12432118
-0.03056374 0.25245893 0.008007982 -0.21012884 -0.051550504 -0.11973347 -0.04103769 -0.17597046
-0.02778625 0.052191466 -0.009953035 -0.07509329 0.0034892638 -0.044998974 -0.05800569 0.07051115
0.22355683 -0.04667857 -0.09311021 -0.1372804 -0.06060417 0.036329653 -0.028925616 -0.0037011318
-0.0026265222 -0.06386637 -0.05734097 -0.15027995 -0.043272898 0.0032300928 0.10984304 0.08271979
00000000: 783f 40be f46c 30be 41c3 d53e 769c f63d
00000010: 65da d33c 5171 22be 8bb8 fbbe 9e55 8ebe
00000020: a54c d6bd a385 2a3d 44f6 3abd 0d89 83be
00000030: 78b5 91be 6957 71bd 4463 2dbe a277 d4bd
00000040: 2c1e 8dbd 4e9a 12bf 9d75 1abe b525 65be
00000050: b974 d13a 4b1e 923d 9a76 26bf b2d4 53bf
00000060: 67a9 6c3e 4c83 f5be 5377 1f3f 766b 763e
00000070: 0839 ebbe 5145 a2ba 67e2 b63d bbd3 063e
00000080: ff19 27bf 24c2 923d 4087 a0be 0355 5b3d
00000090: 20a6 f0bd 4cd8 a4bd 6b84 67be 102d 51be
000000a0: bbfc 9d3d 83d6 83be abec 623c 1c43 12be
000000b0: 4d8a 053d dc19 023f fef8 943d 1dcd 943d
000000c0: 3fc5 5dbd a29a 28be d76a dabd 789a fcbe
000000d0: 5c5b cabd 57b2 0cbe 074d de3d 585d fd3d
000000e0: bf08 38bd df09 dfbe 330a 9ebb 2e82 02bf
000000f0: a17e c43f 4c96 21bc f062 6abe 9e4d e53e
00000100: 3ed1 bf3d 3d9b ed3d 4e6e 4dbe 71e1 4a3e
00000110: 6506 543c a703 6f3d e7af 7ebb 5f22 1dbe
00000120: 439d 17be 4d46 3ebc 2451 b3bd 377b bcbd
00000130: a15c eb3d e5d7 b6bd 9aad 353d 8a0d febd
00000140: 6e7d 483d 1440 163d 3b05 47bd 95b9 0ebe
00000150: 356b 8abd eed5 12bd 4d0b c2bb 9286 17be
00000160: 6ed5 97bd b97f 563d 9e25 273e 5b64 27be
00000170: 152f b7bd 554d abbd 0440 71bd c08a 51bd
00000180: 9fe6 35be b7b1 be3c 3cbc 70bd 7b3b 18bd
00000190: 0a6c 5bbe f770 2c3e c567 7e3e a76d 60be
000001a0: edb3 21bc 6b90 6bbd 7816 93bd 3812 bb3c
000001b0: 73ef bd3d 4887 27bb e585 30be e609 39be
000001c0: 0444 463e f34d 28be 2aab 07be 6996 57bd
000001d0: d7bb 0cbd d0ce 6ebc eb43 113e 497b 9abd
000001e0: eb07 4ebe 567e 7cbd 39c9 443e 0f49 db3d
000001f0: cd96 163e 6f7d d4bd 82a1 51be 94f6 c33d
00000200: c7bc 43be 9f53 32bf 8aaa b4be 2e57 6dbf
00000210: 8057 bcbd 7e0b 18bf 70e9 7a3d cbd1 23be
00000220: 4f9e 2cbe eeda 393f 3010 2240 806c debe
00000230: 911c ac3f a101 44bf c82c e73d aad8 b7be
00000240: bec0 8bbe 40a9 41bd cb3a 813c 3dea e3be
00000250: baee d3be b7de b6bd adef 8bbe ecc7 263f
00000260: 9453 c2be 5867 243d 360d 093f 3f1f 27be
00000270: 3783 2f3c 5435 f23d 4194 30bf 72f4 723d
00000280: f4f6 97be f0a2 183e 19b5 073e d57b f3be
00000290: 5bf8 213f 9cce 4dbe 2687 a63e 3ec0 1dbe
000002a0: 0d0b a43f 84fe 6e3f d49f 9ebd 6872 84bd
000002b0: 5933 9a3d bb74 a4be e112 963e c137 65be
000002c0: 02bf d3bd 06db 3b3d 6180 4bbf 280b 5b3f
000002d0: 0073 273e 2899 0cbe e3b1 0dbd b133 f8be
000002e0: 2ee7 87bf 1c85 92be 9794 92bd 15a5 62bf
000002f0: fcf9 2f3f 4032 76bd 21be 57bf 2285 ad3e
00000300: 58e0 d7bc 1736 763d 776e 52bd 70fe 5b3d
00000310: ac22 bdbd 993e 15bd 413e f23c 278f d8bd
00000320: c9d5 b7bd 70c4 81bd 83d5 6dbc b382 49bc
00000330: 3fec d63d c2ef b8bd b85d e1bd e183 1d3c
00000340: 1109 d33c 0880 bdbd bb7d f43d b460 36be
00000350: a1e2 0ebd ea36 5bbd 84b8 c83c 4739 adbd
00000360: df31 54be 46b3 2e3d f79e 35bd ac17 8a3d
00000370: f850 1e3e 729e 913c 9f3e f43c 1a9c febd
00000380: cf60 fabc 4c42 813e e933 033c 042c 57be
00000390: 9f26 53bd d236 f5bd 2317 28bd 9a31 34be
000003a0: fd9f e3bc b8c6 553d 0e12 23bc 83ca 99bd
000003b0: 22ac 643b d850 38bd 6097 6dbd 2668 903d
000003c0: 15ec 643e 0732 3fbd 91b0 bebd 3c93 0cbe
000003d0: 143c 78bd 67ce 143d 6af5 ecbc b08e 72bb
000003e0: bb21 2cbb 5fcc 82bd 5dde 6abd fde2 19be
000003f0: ec3e 31bd f7af 533b 63f5 e03d fe68 a93d

net.2.bias f4 [64]
-0.13802075 0.06387478 -0.24542946 -0.10025094 0.5580027 0.5120913 -0.20019016 0.48560983
-0.13666475 0.7257184 0.17351171 0.48031878 0.5383992 0.4579686 -0.3093224 0.0759189
-0.15495951 0.472742 -0.0032668354 0.52364635 0.009722281 -0.05459223 0.56359166 0.46162176
0.58557767 0.04312714 0.33329737 0.15786001 -0.04415113 0.40299043 -0.13652638 0.58150417
-0.21437849 0.4683578 -0.043598793 -0.0559136 0.55467486 -0.07622966 0.45258528 0.5724865
-0.30050722 0.44958258 -0.07201812 -0.17393489 0.68160486 0.574274 -0.14837283 0.566187
-0.06565319 0.094862126 0.631513 0.58500516 -0.12011685 -0.031977743 -0.10873567 0.5136765
0.1141884 0.6922445 -0.13788843 -0.104109205 0.57727754 -0.15997157 0.6124838 0.39403763
00000000: 5055 0dbe c8d0 823d dc51 7bbe 5d50 cdbd
00000010: 44d9 0e3f 6a18 033f a6fe 4cbe daa1 f83e
00000020: d8f1 0bbe aec8 393f 0ead 313e 58ec f53e
00000030: 88d4 093f dc7a ea3e 815f 9ebe 5e7b 9b3d
00000040: b5ad 1ebe 3d0b f23e 6718 56bb b00d 063f
00000050: 344a 1f3c 1a9c 5fbd 8b47 103f b059 ec3e
00000060: 6be8 153f 15a6 303d f4a5 aa3e 0ea6 213e
00000070: d1d7 34bd c354 ce3e 92cd 0bbe 75dd 143f
00000080: 0986 5bbe 98cc ef3e a694 32bd a905 65bd
00000090: 2cff 0d3f 4c1e 9cbd 42b9 e73e 7a8e 123f
000000a0: 15dc 99be b02f e63e 3c7e 93bd fd1b 32be
000000b0: a87d 2e3f 9f03 133f 0cef 17be a2f1 103f
000000c0: 2e75 86bd 1347 c23d d6aa 213f e6c2 153f
000000d0: d3ff f5bd 18fb 02bd cfb0 debd 4e80 033f
000000e0: 9cdb e93d f036 313f a032 0dbe 3537 d5bd
000000f0: 76c8 133f 96cf 23be bdcb 1c3f 4dbf c93e

net.4.weight f4 [2, 64]
-0.59509045 -0.10493792 -2.35854 0.16123834 0.90949625 1.3172283 -2.2101512 0.85923356
0.24948765 1.0933526 -3.1554816 0.9759966 0.38831738 1.1499826 -2.4032261 0.017211234
0.048309613 0.6954988 0.07433747 1.359445 -0.039378945 -0.121716924 0.65970004 1.2020084
1.3593811 -0.022441203 1.044023 -0.08791899 0.074865706 1.3129148 -2.6343634 0.94542336
-3.5306716 0.44398493 -1.2964181 -2.7458327 0.90945506 0.21101311 0.985546 0.8019684
-0.28086624 0.7962503 0.32333392 -0.36171088 0.08260923 0.89781886 0.01099979 0.79438883
-0.01310399 0.44282463 1.0917666 1.0573484 -0.06692429 -2.6348398 -0.025236353 0.8706862
-0.1370976 1.0909544 -0.0048479703 -0.07687066 0.70171297 -0.0016506136 0.54642504 1.0454515
0.8070111 0.021001467 -1.5844777 -0.1367548 1.0422496 0.8294178 -4.214762 0.66918564
-0.25028026 1.0826741 -2.3383555 0.36209652 1.0979584 0.55163395 -3.3673496 -0.13689707
0.16420554 1.1144515 -0.081221916 0.9147071 0.020490913 -0.14284658 1.1634008 1.314351
0.5352075 -0.1459074 0.74330485 0.0077993246 -0.0044440418 0.4665571 -2.88974 1.4577402
-4.7607903 1.0403578 -1.2324103 -1.4846771 0.98857427 0.060121667 0.8931031 0.6624753
-2.8374476 0.68363786 -0.2067038 0.25919542 1.2070681 0.47660106 0.025382569 0.8381413
-0.008171068 -0.5439948 1.0637417 1.332834 -0.15183333 -2.9236 0.07886565 0.813181
0.42667758 0.4348185 0.049574915 0.003975174 0.9220899 0.1178455 1.1450177 0.615315
00000000: d957 18bf b1e9 d6bd 52f2 16c0 aa1b 253e
00000010: bfd4 683f f09a a83f 1e73 0dc0 bbf6 5b3f
00000020: b179 7f3e faf2 8b3f 69f3 49c0 eada 793f
00000030: 89d1 c63e a132 933f 75ce 19c0 93fe 8c3c
00000040: 4de0 453d 360c 323f 3e3e 983d 4b02 ae3f
00000050: d14b 21bd b946 f9bd 1ae2 283f 69db 993f
00000060: 3300 ae3f 9dd6 b7bc 8ca2 853f df0e b4bd
00000070: 3153 993d 980d a83f 6999 28c0 4407 723f
00000080: 86f6 61c0 fe51 e33e 07f1 a5bf b9bb 2fc0
00000090: 0cd2 683f d213 583e be4c 7c3f cd4d 4d3f
000000a0: b3cd 8fbe 0fd7 4b3f 068c a53e 2b32 b9be
000000b0: 072f a93d 75d7 653f 7738 343c 115d 4b3f
000000c0: 1eb2 56bc e9b9 e23e 02bf 8b3f 3157 873f
000000d0: 9a0f 89bd 37a1 28c0 78bc cebc 4ae5 5e3f
000000e0: 5063 0cbe 65a4 8b3f b9db 9ebb 5d6e 9dbd
000000f0: 76a3 333f 6759 d8ba 83e2 0b3f 5bd1 853f
00000100: 4898 4e3f 450b ac3c 2ad0 cabf 7309 0cbe
00000110: 6f68 853f ba54 543f 55df 86c0 c04f 2b3f
00000120: bc24 80be 1195 8a3f 9ea7 15c0 b764 b93e
00000130: e789 8c3f e237 0d3f a882 57c0 bf2e 0cbe
00000140: 7f25 283e 59a6 8e3f ad57 a6bd 3f2a 6a3f
00000150: 8fdc a73c 6046 12be 51ea 943f a73c a83f
00000160: 5c03 093f c068 15be 3a49 3e3f 7a91 ff3b
00000170: 539f 91bb 92e0 ee3e 80f1 38c0 3b97 ba3f
00000180: 6558 98c0 722a 853f 9fbf 9dbf e609 bebf
00000190: 3413 7d3f 2342 763d 68a2 643f fb97 293f
000001a0: be98 35c0 e402 2f3f 29aa 53be 43b5 843e
000001b0: 3581 9a3f 0e05 f43e 1bef cf3c 6e90 563f
000001c0: f1df 05bc 3e43 0bbf b028 883f 4e9a aa3f
000001d0: 327a 1bbe 431c 3bc0 5084 a13d a12c 503f
000001e0: 7c75 da3e 88a0 de3e 110f 4b3d 2d42 823b
000001f0: 150e 6c3f fb58 f13d f18f 923f 4985 1d3f

net.4.bias f4 [2]
0.5427013 0.37424514
00000000: 79ee 0a3f 0f9d bf3e

net.0.weight f4 [64, 4]
-0.035061006 0.13264537 0.0516606 -0.06454239 0.14084916 -0.03912621 0.29984665 -0.043403566
-0.10316159 0.10464904 2.0006793 0.2190755 -0.20824179 -0.31449533 0.46152064 -0.08601081
-0.083857104 -0.02056865 0.04853872 0.0027877537 0.23074234 -0.17275813 -0.9073679 -0.035416275
-0.07220738 0.09872997 -0.56315124 0.09448761 -0.127498 -0.0034667456 -0.009492623 0.05792044
-0.013590614 -0.06729649 0.020063557 -0.045516334 -0.14458324 0.053843237 -0.0059235166 0.1659259
-0.17236137 -0.0700025 -1.0545776 -0.08387377 0.038890705 -0.064499855 -1.6723247 -0.3388598
-0.33516845 -0.10098376 0.56794447 -0.028364092 0.10952662 0.49047738 0.54315203 0.045752723
0.026823418 -0.008666431 -0.18595326 -0.021548405 0.0733957 0.062150653 0.45673603 0.034755107
0.18569317 0.31050512 -1.1622607 0.29404682 0.30148977 0.0367933 -0.28786018 -0.059222214
0.048201207 -0.042485856 -0.09614164 -0.03220852 -0.29948983 -0.22968851 -0.55690163 -0.18261535
0.031083636 0.09282797 -0.5358538 -0.031193536 0.36639982 0.13731483 -0.040902983 0.06319084
0.05865387 -0.18524288 -0.6527906 -0.24594131 0.31842893 -0.023637842 -0.74463224 -0.060667414
-0.13161175 0.094305284 1.2573819 0.070247374 -0.1199059 -0.0766801 0.49676403 0.5015097
0.20269796 0.17396006 0.9729868 0.11420272 0.53713745 0.040210117 0.42177814 0.07207372
0.33637297 -0.20967732 0.96370715 0.107514754 -0.12040164 -0.26071227 -0.7915671 -0.18612213
-0.1794945 0.19828667 0.6430777 -0.044022292 -0.028540779 -0.020619314 0.029088771 -0.0708022
0.0021268246 -0.0012155612 -1.095596 -0.19681902 -0.035188656 0.025002595 -0.050385617 0.018376976
-0.13237493 0.117325075 1.0030916 0.31274837 0.109346874 -0.030378826 -0.12741771 0.007380331
0.110068634 -0.062284548 -1.9572273 -0.22991173 0.022343077 -0.43279245 0.7786875 -0.16939113
-0.048591614 0.06550632 -0.20835271 0.16058847 0.101076305 -0.09328876 -0.07409892 -0.017792212
-0.14176829 -0.047538847 -0.19337702 -0.058225967 0.54676753 -0.019534856 -1.4944166 -0.07458714
-0.18285175 0.3149321 0.79285705 0.25053006 -0.19213702 0.25281537 0.37215757 0.07176584
0.041921463 -0.027452406 -0.08136116 -0.011532536 -0.091712706 0.09458615 1.3045527 0.24636856
0.12970054 -0.06316676 -1.9362373 -0.38964278 0.38083506 -0.0891777 -0.2988236 -0.18255019
-0.010744772 0.044196516 -0.0015444951 0.038893186 -0.12168724 0.034677997 -0.29524967 0.016863544
-0.052360564 -0.11018929 -0.6844833 -0.013546811 -0.6882351 -0.016018938 1.0666859 0.10136098
-0.049737964 0.16077715 1.2364844 0.20294136 -0.05023478 -0.057772417 0.22416073 -0.008042274
0.037022855 0.015474828 -0.05165679 0.018036043 -0.168969 0.19125229 0.80473155 0.020857409
0.20845868 -0.28004637 -1.1464392 0.42180574 0.06911836 -0.08581512 -0.4628633 0.015414986
-0.029093241 0.08234911 -0.072305724 0.045802113 0.13387017 -0.0744649 -0.74051684 -0.24561007
0.117265545 -0.012468652 1.0229478 0.01853613 -0.024131896 0.01595562 -0.056990664 -0.029241506
0.17737366 -0.07073831 -1.2744868 -0.108777456 0.17154382 -0.12511697 0.41979292 -0.0063490653
00000000: 219c 0fbd 30d4 073e 119a 533d cd2e 84bd
00000010: c33a 103e ce42 20bd 8085 993e f0c7 31bd
00000020: 6246 d3bd 3c52 d63d 210b 0040 5455 603e
00000030: 563d 55be 8805 a1be 6f4c ec3e 7026 b0bd
00000040: 46bd abbd 967f a8bc 89d0 463d bfb2 363b
00000050: b847 6c3e 82e7 30be 4349 68bf a810 11bd
00000060: 76e1 93bd f032 ca3d ae2a 10bf b882 c13d
00000070: d68e 02be 5732 63bb f286 1bbc fc3d 6d3d
00000080: 2bab 5ebc bed2 89bd 545c a43c 566f 3abd
00000090: a10d 14be ba8a 5c3d 0f1a c2bb 7be8 293e
000000a0: 807f 30be 795d 8fbd 66fc 86bf 03c6 abbd
000000b0: dc4b 1f3d 8018 84bd bc0e d6bf 087f adbe
000000c0: 339b abbe 93d0 cebd cf64 113f d05b e8bc
000000d0: 7e4f e03d da1f fb3e 030c 0b3f 3567 3b3d
000000e0: c9bc db3c a5fd 0dbc 886a 3ebe 4886 b0bc
000000f0: 7c50 963d af91 7e3d 4ed9 e93e 5f5b 0e3d
00000100: 5a26 3e3e 87fa 9e3e f5c4 94bf 4e8d 963e
00000110: de5c 9a3e 92b4 163d 6962 93be fe92 72bd
00000120: a16e 453d a605 2ebd e8e5 c4bd 15ed 03bd
00000130: bb56 99be 7733 6bbe 1b91 0ebf 85ff 3abe
00000140: 1ca3 fe3c 971c be3d b72d 09bf 9689 ffbc
00000150: c298 bb3e 429c 0c3e e389 27bd 336a 813d
00000160: 0a3f 703d 4fb0 3dbe 491d 27bf 0ad8 7bbe
00000170: 1e09 a33e 26a4 c1bc 38a0 3ebf 657e 78bd
00000180: 3bc5 06be 2123 c13d e4f1 a03f dbdd 8f3d
00000190: 3991 f5bd 750a 9dbd db57 fe3e f162 003f
000001a0: 0e90 4f3e 9622 323e aa15 793f 1ee3 e93d
000001b0: d781 093f 5db3 243d 4ef3 d73e 639b 933d
000001c0: 1439 ac3e a7b5 56be 83b5 763f b230 dc3d
000001d0: 2395 f6bd 147c 85be 24a4 4abf cd96 3ebe
000001e0: 68cd 37be a90b 4b3e bda0 243f b850 34bd
000001f0: 5ace e9bc d6e9 a8bc 934b ee3c be00 91bd
00000200: 3262 0b3b 7753 9fba 7d3c 8cbf ed8a 49be
00000210: fb21 10bd 3ed2 cc3c 2661 4ebd 508b 963c
00000220: 4b8d 07be 2148 f03d 4e65 803f 8e20 a03e
00000230: 41f1 df3d 04dd f8bc ca79 02be b4d6 f13b
00000240: aa6b e13d 151e 7fbd 6d86 fabf fb6d 6bbe
00000250: d408 b73c f996 ddbe 1058 473f de74 2dbe
00000260: 0008 47bd 2d28 863d 6a5a 55be 4e71 243e
00000270: 1801 cf3d 2d0e bfbd 2dc1 97bd f9c0 91bc
00000280: b52b 11be 18b8 42bd a004 46be 5a7e 6ebd
00000290: f5f8 0b3f 9007 a0bc 0b49 bfbf 24c1 98bd
000002a0: 7d3d 3bbe c83e a13e aef8 4a3f 7a45 803e
000002b0: 91bf 44be 0471 813e 708b be3e f8f9 923d
000002c0: d7b5 2b3d dee3 e0bc aea0 a6bd f6f2 3cbc
000002d0: dfd3 bbbd 62b6 c13d 95fb a63f 0a48 7c3e
000002e0: 38d0 043e 935d 81bd a0d6 f7bf 427f c7be
000002f0: d0fc c23e cca2 b6bd 68ff 98be 70ee 3abe
00000300: d70a 30bc 6807 353d a870 caba 764e 1f3d
00000310: 2937 f9bd 840a 0e3d f72a 97be 6a25 8a3c
00000320: 0878 56bd ecaa e1bd 4c3a 2fbf 72f3 5dbc
00000330: 2d30 30bf 263a 83bc 2a89 883f 5896 cf3d
00000340: 09ba 4bbd c4a2 243e 1f45 9e3f dccf 4f3e
00000350: fcc2 4dbd c5a2 6cbd 648a 653e bec3 03bc
00000360: 47a5 173d 228a 7d3c 1296 53bd 53c0 933c
00000370: 3606 2dbe a4d7 433e e302 4e3f 28dd aa3c
00000380: 3176 553e 3d62 8fbe 85be 92bf ecf6 d73e
00000390: ed8d 8d3d d6bf afbd 6bfc ecbe 238f 7c3c
000003a0: f354 eebc a6a6 a83d 0615 94bd ff9a 3b3d
000003b0: 4315 093e 0e81 98bd 8392 3dbf 3581 7bbe
000003c0: eb28 f03d 5149 4cbc f4ef 823f 15d9 973c
000003d0: 41b0 c5bc 5cb5 823c 0b6f 69bd e28b efbc
000003e0: 71a1 353e 3fdf 90bd 6222 a3bf b7c6 debd
000003f0: 2fa9 2f3e aa1e 00be 19ef d63e d20b d0bb

net.0.bias f4 [64]
0.4139528 0.29075167 -0.40371665 -0.22674033 -0.29672712 0.35341805 -0.15949176 0.5265701
0.35419926 -0.44505748 -0.36399162 -0.33038592 -0.53498435 -0.18870883 -0.14653966 0.20452176
0.00093058444 -0.28038234 -0.08980268 -0.08382978 -0.41615865 -0.687507 0.27637145 -0.6282852
0.31550917 -0.60535645 -0.5625328 -0.6810005 -0.24694768 -0.42294982 -0.26473185 -0.26235905
0.36511242 -0.16845116 -0.42200595 0.4640441 0.27161515 0.11834515 -0.29954642 0.61673087
-0.557596 -0.36675042 0.20686738 -0.3533795 -0.151463 0.39852092 -0.5903218 -0.40680644
-0.12357172 0.3715249 0.24582732 -0.28383532 -0.35534242 0.51979816 -0.28821346 -0.36216605
0.22515245 -0.4300986 -0.14020069 0.4295346 -0.52207166 -0.18793215 0.39514828 -0.35341716
00000000: 9ff1 d33e 67dd 943e f3b3 cebe 9e2e 68be
00000010: 9eec 97be 36f3 b43e cf51 23be 4ccd 063f
00000020: 9b59 b53e 93de e3be 1c5d babe 5828 a9be
00000030: bcf4 08bf e33c 41be 7e0e 16be 276e 513e
00000040: 77f2 733a 468e 8fbe 78ea b7bd f3ae abbd
00000050: bf12 d5be 7500 30bf 8f80 8d3e 4dd7 20bf
00000060: 6b8a a13e a4f8 1abf 2602 10bf 0c56 2ebf
00000070: dadf 7cbe e18c d8be ef8a 87be ed53 86be
00000080: 04f0 ba3e 767e 2cbe 2a11 d8be 3097 ed3e
00000090: 2411 8b3e f15e f23d 265e 99be 13e2 1d3f
000000a0: 9dbe 0ebf b6c6 bbbe 0bd5 533e 28ee b4be
000000b0: 1e19 1bbe ef0a cc3e 541f 17bf ef48 d0be
000000c0: 2c13 fdbd 8338 be3e 28ba 7b3e dd52 91be
000000d0: 71ef b5be 7e11 053f b790 93be d46d b9be
000000e0: 5d8e 663e e235 dcbe c590 0fbe f6eb db3e
000000f0: 7da6 05bf 4971 40be e050 ca3e 18f3 b4be

net.2.weight f4 [64, 64]
-0.18774141 -0.1722889 0.41750413 0.12041714 0.025860975 -0.15863346 -0.49164045 -0.27799335
-0.10463829 0.041631278 -0.04564565 -0.25690523 -0.28458565 -0.058921855 -0.16932355 -0.10374273
-0.06890379 -0.57266414 -0.15083928 -0.2237784 0.0015980463 0.07134757 -0.6502456 -0.8274623
0.23111573 -0.47951686 0.6229227 0.24064653 -0.45941815 -0.0012380277 0.089300506 0.13166706
-0.6527371 0.07165936 -0.3135297 0.05354849 -0.11750397 -0.08048945 -0.22609107 -0.20427278
0.07714115 -0.2574953 0.013850549 -0.14283521 0.032602597 0.5082195 0.07274083 0.072657384
-0.054143187 -0.16465054 -0.10664846 -0.49336302 -0.09880597 -0.13739629 0.10854538 0.12371477
-0.044929653 -0.43561798 -0.004822993 -0.5097931 1.535119 -0.009862494 -0.22889249 0.44786078
0.093662076 0.1160198 -0.20061602 0.19812751 0.012940978 0.05835263 -0.0038862033 -0.15345082
-0.14805958 -0.011613324 -0.08755708 -0.092031896 0.11492159 -0.08927816 0.044355012 -0.12404856
0.048948497 0.036682595 -0.048588973 -0.13937815 -0.06758652 -0.035848875 -0.0059217736 -0.14797315
-0.07413708 0.052368317 0.16322897 -0.16346739 -0.08944654 -0.08364359 -0.058898762 -0.051157713
-0.17763543 0.0232781 -0.058772847 -0.037165396 -0.21427742 0.16840264 0.24844283 -0.21916799
-0.0098697 -0.057510715 -0.071819946 0.022835493 0.09274187 -0.0025562735 -0.17238426 -0.18069911
0.19361883 -0.16435848 -0.13248785 -0.052634303 -0.0343595 -0.014575678 0.1418607 -0.0754305
-0.20120014 -0.061644297 0.19217598 0.107073136 0.14705822 -0.10375487 -0.20471683 0.09568418
-0.19114782 -0.6965823 -0.35286283 -0.9271213 -0.09196335 -0.59391916 0.061258357 -0.15997754
-0.16857253 0.7260031 2.5322225 -0.43442586 1.3446462 -0.7656522 0.112878636 -0.35907364
-0.2729508 -0.047281057 0.015775105 -0.44514284 -0.41392785 -0.08929157 -0.27330843 0.6514854
-0.3795419 0.040138178 0.5353516 -0.16320513 0.010712547 0.1182669 -0.6897516 0.059315246
-0.2968046 0.14905906 0.13252956 -0.47555315 0.63269794 -0.20098259 0.32524797 -0.15405282
1.2816083 0.9335824 -0.077452585 -0.06467036 0.07529325 -0.32120082 0.29310912 -0.22384694
-0.10339166 0.045863952 -0.7949181 0.85564333 0.16352698 -0.13730092 -0.034593474 -0.48477396
-1.0617386 -0.28617707 -0.0715711 -0.88532656 0.68740314 -0.060106516 -0.84274495 0.3389034
-0.026351798 0.060110968 -0.051374413 0.053709447 -0.09235129 -0.036435984 0.029570824 -0.10574098
-0.08976245 -0.063362956 -0.014516237 -0.012299151 0.10494376 -0.09030105 -0.110042036 0.009614144
0.025761338 -0.092528105 0.11938044 -0.17810333 -0.034884024 -0.053519167 0.024502188 -0.084581904
-0.20722023 0.042652003 -0.044341058 0.06742796 0.15460713 0.017775748 0.029815016 -0.12432125
-0.030563615 0.25245893 0.008008171 -0.21012893 -0.051550504 -0.119733185 -0.04103769 -0.17596948
-0.02778625 0.052191466 -0.0099529615 -0.07509329 0.0034892638 -0.044998944 -0.05800569 0.07051162
0.22355683 -0.046678305 -0.09310925 -0.13728006 -0.0606042 0.036330182 -0.028925616 -0.0037011318
-0.0026264952 -0.06386718 -0.05734097 -0.15027985 -0.043272898 0.0032300928 0.10984327 0.08271979
00000000: 493f 40be 806c 30be 1ac3 d53e 439d f63d
00000010: 65da d33c cf70 22be 4cb8 fbbe 2555 8ebe
00000020: 9a4c d6bd 8f85 2a3d eff6 3abd 1589 83be
00000030: 36b5 91be 0b58 71bd 2763 2dbe 1277 d4bd
00000040: 6e1d 8dbd 1e9a 12bf 9d75 1abe 2a26 65be
00000050: 8975 d13a ad1e 923d 7f76 26bf 92d4 53bf
00000060: 9aa9 6c3e 3c83 f5be dd77 1f3f 0b6c 763e
00000070: db38 ebbe 5145 a2ba 2fe3 b63d bbd3 063e
00000080: c719 27bf 24c2 923d f786 a0be a955 5b3d
00000090: eca5 f0bd a7d7 a4bd 6b84 67be e22c 51be
000000a0: 2efc 9d3d 6dd6 83be 6aed 623c 6543 12be
000000b0: 4d8a 053d ac1a 023f 25f9 943d 65cd 943d
000000c0: 3fc5 5dbd 279a 28be 826a dabd 149a fcbe
000000d0: c95a cabd 9db1 0cbe 0a4d de3d 2b5e fd3d
000000e0: 2808 38bd 5209 dfbe 330a 9ebb cd81 02bf
000000f0: c87e c43f 4c96 21bc cb62 6abe 024e e53e
00000100: e7d1 bf3d ca9b ed3d 496e 4dbe f0e1 4a3e
00000110: 6506 543c 2b03 6f3d acaf 7ebb 3622 1dbe
00000120: ee9c 17be d045 3ebc 2051 b3bd 387b bcbd
00000130: 035c eb3d 78d7 b6bd 9aad 353d 2c0d febd
00000140: 387e 483d 7d40 163d 3b05 47bd 25b9 0ebe
00000150: cd6a 8abd 45d6 12bd 700b c2bb 4686 17be
00000160: 2ed5 97bd 2980 563d 7f25 273e ff63 27be
00000170: bf2f b7bd 554d abbd d43f 71bd c08a 51bd
00000180: 10e6 35be b7b1 be3c ccbb 70bd be3a 18bd
00000190: 8a6b 5bbe be71 2c3e cc67 7e3e 936d 60be
000001a0: 86b4 21bc 5b90 6bbd 5616 93bd 8011 bb3c
000001b0: 73ef bd3d 2787 27bb 8085 30be 3009 39be
000001c0: 0444 463e 974d 28be e5aa 07be 1197 57bd
000001d0: 8cbc 0cbd d3ce 6ebc ee43 113e 4e7b 9abd
000001e0: 6907 4ebe bb7e 7cbd c8c9 443e 2949 db3d
000001f0: 6e96 163e 6f7d d4bd 4aa1 51be 11f6 c33d
00000200: 41bc 43be 3853 32bf 70aa b4be d257 6dbf
00000210: 4857 bcbd 160b 18bf 0bea 7a3d 27d1 23be
00000220: 479e 2cbe 57db 393f ef0f 2240 116d debe
00000230: 5e1d ac3f c801 44bf ea2c e73d 80d8 b7be
00000240: 35c0 8bbe c8a9 41bd cb3a 813c c3e9 e3be
00000250: 5aee d3be 80de b6bd 15ef 8bbe bfc7 263f
00000260: 5153 c2be ee67 243d cd0c 093f 3f1f 27be
00000270: ae83 2f3c eb35 f23d 9093 30bf 8bf4 723d
00000280: c6f6 97be f0a2 183e d4b5 073e b47b f3be
00000290: 7ef8 213f 61ce 4dbe e786 a63e 06c0 1dbe
000002a0: be0b a43f 42ff 6e3f 769f 9ebd e571 84bd
000002b0: 5933 9a3d 6f74 a4be 6612 963e 2238 65be
000002c0: 02bf d3bd d7db 3b3d c17f 4bbf 710b 5b3f
000002d0: 9e73 273e 9d98 0cbe e3b1 0dbd 4b34 f8be
000002e0: 0de7 87bf cd85 92be de93 92bd c3a4 62bf
000002f0: a7f9 2f3f 4032 76bd 22be 57bf bf84 ad3e
00000300: badf d7bc eb36 763d fa6d 52bd 70fe 5b3d
00000310: ac22 bdbd e63d 15bd 833e f23c ba8e d8bd
00000320: 60d5 b7bd 70c4 81bd 83d5 6dbc 6182 49bc
00000330: c1ec d63d c2ef b8bd b85d e1bd a584 1d3c
00000340: 7109 d33c 607f bdbd bb7d f43d b860 36be
00000350: 8de2 0ebd ea36 5bbd d0b8 c83c 4739 adbd
00000360: 8a31 54be deb3 2e3d f89e 35bd ac17 8a3d
00000370: 5551 1e3e 729e 913c 9f3e f43c 249c febd
00000380: 8c60 fabc 4c42 813e b434 033c 0a2c 57be
00000390: 9f26 53bd ac36 f5bd 2317 28bd 5831 34be
000003a0: fd9f e3bc b8c6 553d bf11 23bc 83ca 99bd
000003b0: 22ac 643b d050 38bd 6097 6dbd 6568 903d
000003c0: 15ec 643e c031 3fbd 10b0 bebd 2593 0cbe
000003d0: 1c3c 78bd f5ce 143d 6af5 ecbc b08e 72bb
000003e0: 4721 2cbb cccc 82bd 5dde 6abd f6e2 19be
000003f0: ec3e 31bd f7af 533b 82f5 e03d fe68 a93d

net.2.bias f4 [64]
-0.13801916 0.06387612 -0.24542683 -0.100249894 0.5536559 0.51499534 -0.18149714 0.47469017
-0.13666315 0.7195413 0.17351079 0.4816577 0.52398145 0.4605707 -0.34385058 0.07591925
-0.15347998 0.4622873 -0.0032668267 0.5188021 0.009722364 -0.054591574 0.555704 0.45224568
0.5792845 0.043127354 0.3360679 0.15786156 -0.044151068 0.39986113 -0.1336663 0.5670447
-0.22614504 0.46073285 -0.0881331 -0.05591331 0.5510179 -0.0762292 0.44730276 0.56267875
-0.30050606 0.4481137 -0.07201813 -0.15359002 0.6712393 0.5673746 -0.14833415 0.5551065
-0.06565235 0.106955476 0.6299233 0.57959104 -0.120116144 -0.03198271 -0.10873462 0.5122367
0.117981724 0.68599766 -0.13788803 -0.10410781 0.57427716 -0.15997158 0.60470474 0.3915357
00000000: e554 0dbe 7cd1 823d 2c51 7bbe d14f cdbd
00000010: 65bc 0d3f bcd6 033f 63da 39be 970a f33e
00000020: 6df1 0bbe dc33 383f d0ac 313e d79b f63e
00000030: a623 063f eccf eb3e 2f0d b0be 8d7b 9b3d
00000040: db29 1dbe ecb0 ec3e 4218 56bb 37d0 043f
00000050: 8d4a 1f3c 6a9b 5fbd 9e42 0e3f bf8c e73e
00000060: fd4b 143f 4fa6 303d 1711 ac3e 76a6 213e
00000070: c0d7 34bd 99ba cc3e d2df 08be d729 113f
00000080: 9192 67be 2de5 eb3e 207f b4bd 5b05 65bd
00000090: 820f 0d3f 0e1e 9cbd de04 e53e b70b 103f
000000a0: eedb 99be 296f e53e 3e7e 93bd b446 1dbe
000000b0: 57d6 2b3f 763f 113f e8e4 17be 761b 0e3f
000000c0: bd74 86bd 790b db3d a742 213f 1460 143f
000000d0: 74ff f5bd 4d00 03bd 42b0 debd f221 033f
000000e0: 67a0 f13d 8b9d 2f3f 8532 0dbe 7a36 d5bd
000000f0: d403 133f 97cf 23be eecd 1a3f 5e77 c83e

net.4.weight f4 [2, 64]
-0.5950874 -0.10493929 -2.358558 0.16123834 0.90251195 1.2651576 -2.238254 0.8606964
0.24948591 1.0847635 -3.1554492 0.98070437 0.37594607 1.1550294 -2.4243386 0.017211044
0.04915126 0.6850198 0.07433675 1.3586363 -0.039378967 -0.12171801 0.645914 1.1954391
1.3682554 -0.022440985 1.0442296 -0.08791917 0.074867226 1.3208474 -2.679249 0.9344501
-3.4953206 0.43273994 -1.2353777 -2.7457979 0.9049125 0.21101405 0.9799751 0.800628
-0.2808663 0.79514813 0.32333463 -0.35962692 0.077493936 0.9020314 0.011039676 0.7853537
-0.013104186 0.46153465 1.0825557 1.0466949 -0.0669249 -2.6348379 -0.025236443 0.8664681
-0.14135171 1.0986522 -0.0048479703 -0.07687066 0.6912697 -0.0016506136 0.54223585 1.0455828
0.8070178 0.021001158 -1.5844718 -0.13675553 1.0463105 0.8486083 -4.2114677 0.6701636
-0.2502846 1.0928705 -2.3383403 0.38324124 1.1104237 0.5503495 -3.3061142 -0.13689858
0.16420554 1.1291782 -0.08122258 0.9234996 0.020490794 -0.14284714 1.1799072 1.3261051
0.5335237 -0.14590783 0.754378 0.007799322 -0.004444043 0.47705165 -2.8953424 1.4739608
-4.7607946 1.0512147 -1.2323987 -1.4846697 0.9984538 0.060121667 0.90303266 0.6700629
-2.8374462 0.68948257 -0.20670463 0.2952698 1.2024199 0.47224906 0.025382569 0.8554111
-0.008171152 -0.553966 1.0694014 1.3429164 -0.15183552 -2.9235606 0.078866705 0.8183549
0.38669863 0.4274361 0.04957509 0.003975122 0.9341649 0.1178455 1.1425426 0.6262391
00000000: a657 18bf 69ea d6bd 9df2 16c0 aa1b 253e
00000010: 060b 673f aff0 a13f 8e3f 0fc0 9956 5c3f
00000020: 3c79 7f3e 88d9 8a3f e1f2 49c0 710f 7b3f
00000030: 017c c03e 01d8 933f 5d28 1bc0 2dfe 8c3c
00000040: d552 493d 755d 2f3f de3d 983d cbe7 ad3f
00000050: d74b 21bd 4b47 f9bd 9f5a 253f 2604 993f
00000060: fe22 af3f 28d6 b7bc 51a9 853f f70e b4bd
00000070: fd53 993d 8711 a93f d178 2bc0 1f38 6f3f
00000080: 55b3 5fc0 1790 dd3e db20 9ebf 27bb 2fc0
00000090: 58a8 673f 1114 583e a6df 7a3f f5f5 4c3f
000000a0: b5cd 8fbe d48e 4b3f 1e8c a53e 0521 b8be
000000b0: 24b5 9e3d 88eb 663f c2df 343c f10c 493f
000000c0: f1b2 56bc 454e ec3e 2f91 8a3f 19fa 853f
000000d0: ec0f 89bd 2fa1 28c0 a8bc cebc dad0 5d3f
000000e0: 81be 10be a3a0 8c3f b9db 9ebb 5d6e 9dbd
000000f0: 0df7 303f 6759 d8ba f8cf 0a3f a8d5 853f
00000100: b898 4e3f 9f0a ac3c f9cf cabf a409 0cbe
00000110: 81ed 853f 653e 593f 58c4 86c0 d78f 2b3f
00000120: 4e25 80be 2ee3 8b3f 5ea7 15c0 3238 c43e
00000130: 5d22 8e3f b4e3 0c3f 6097 53c0 242f 0cbe
00000140: 7f25 283e e988 903f 0658 a6bd 786a 6c3f
00000150: 4fdc a73c 8546 12be 3307 973f d0bd a93f
00000160: 0295 083f dd68 15be eb1e 413f 7491 ff3b
00000170: 569f 91bb 1d40 f43e 4a4d 39c0 bfaa bc3f
00000180: 6e58 98c0 348e 863f 3ebf 9dbf a809 bebf
00000190: ab9a 7f3f 2342 763d 262d 673f 3e89 2b3f
000001a0: b898 35c0 ee81 303f 61aa 53be 9a2d 973e
000001b0: e5e8 993f a1ca f13e 1bef cf3c 39fc 5a3f
000001c0: 4ce0 05bc b7d0 0dbf 25e2 883f afe4 ab3f
000001d0: c57a 1bbe 9e1b 3bc0 de84 a13d b57f 513f
000001e0: 5dfd c53e e8d8 da3e 400f 4b3d bd41 823b
000001f0: 6e25 6f3f fb58 f13d d63e 923f 3551 203f

net.4.bias f4 [2]
0.54112214 0.36191854
00000000: fb86 0a3f 634d b93e

exp_avg f4 [64, 4]
0.1426419 0.59421164 0.07736681 0.0011848261 0.06055546 0.27655548 0.037295572 0.00080669025
8.3606556e-16 9.466213e-16 1.9269862e-16 5.6042807e-16 -0.112251684 -0.2710579 -0.030046478 -0.029599804
-6e-45 -6e-45 -6e-45 6e-45 0.040731348 0.206294 0.027659321 0.0038138905
6e-45 6e-45 6e-45 6e-45 0.18733793 0.8639377 0.11285729 -0.0075277057
0.12109339 0.4913737 0.066423036 0.015574422 -6e-45 -6e-45 -6e-45 6e-45
-1.8021225 -2.957664 0.4970635 -0.00027370435 -0.14494722 -0.34612828 -0.02671934 -0.06645254
1.3033731 1.7354246 0.025328431 -0.5134224 -0.06076636 -0.18542314 0.017343968 0.18084197
6e-45 6e-45 6e-45 6e-45 0.00010841067 0.07998951 0.03158969 0.037028834
-0.017737728 -0.0011613359 0.003168835 -0.010493788 -0.024902787 -0.02311543 -0.0032339925 -0.0155412285
-6e-45 -6e-45 -6e-45 6e-45 -0.14701535 -0.555867 -0.08094329 -0.02889937
6e-45 6e-45 6e-45 -6e-45 -0.14757897 -0.18327871 -0.017597938 -0.04877071
-0.19019307 -0.37931803 -0.025059637 0.025521925 0.08518059 0.059582055 -0.0034492365 0.0073685115
0.013931975 0.03348829 0.043991923 0.17206472 0.02079453 0.016991947 -0.0003529664 -0.00046645917
-0.10413482 -0.13147053 -0.010243197 -0.017453104 -0.075741515 -0.09819164 -0.0065336274 -0.0050936346
5.04451e-05 -0.06339287 -0.006185052 0.05832554 -0.15827554 -0.41452834 -0.02115012 -0.07944921
1.3078477e-14 2.6526278e-14 1.8246256e-15 -1.1010361e-14 -6e-45 -6e-45 -6e-45 6e-45
0.19665599 0.7238368 0.08380024 -0.020339051 6e-45 6e-45 6e-45 6e-45
-6e-45 -6e-45 6e-45 6e-45 0.17738365 0.7427478 0.09825341 -0.004484511
-0.28580275 -0.5959237 -0.08384745 -0.18142673 -0.019901378 0.0424216 0.004492622 -0.025159078
-6e-45 -6e-45 6e-45 6e-45 0.2774447 1.12712 0.14583449 -0.005935909
-6e-45 -6e-45 -6e-45 -6e-45 -0.15212984 0.25723562 -0.18830532 -0.76603967
-0.017136421 -0.057120882 -0.017481906 0.03145029 7.447751e-15 1.6335398e-14 1.1013682e-15 -7.6451e-15
-6e-45 -6e-45 -6e-45 -6e-45 0.014100411 0.15428542 0.062442567 0.16171671
0.065955065 0.49682418 -0.061772935 -0.64207447 0.013469152 0.010366736 -0.0003241471 0.0007841939
-6e-45 -6e-45 -6e-45 -6e-45 0.16226031 0.63408303 0.075718336 -0.002671615
0.020915093 0.058061946 0.005181266 0.008056636 -0.2586383 -0.37643057 -0.038871832 -0.11379021
-0.059631348 -0.10885075 0.0014717383 0.06382128 0.21355882 0.8906493 0.12043 0.015026942
0.0 0.0 0.0 0.0 4.9570918e-15 1.0413824e-14 8.323169e-16 -4.221478e-15
-0.0932186 -0.08819718 -0.0041738874 -0.006366588 -6e-45 -6e-45 6e-45 6e-45
6e-45 6e-45 6e-45 -6e-45 0.21295185 0.74770164 0.090752505 0.0032741453
6e-45 6e-45 6e-45 6e-45 6e-45 6e-45 -6e-45 -6e-45
0.09871661 0.43962517 0.054902107 -0.015242134 -6e-45 -6e-45 6e-45 6e-45
00000000: b810 123e 411e 183f 7d72 9e3d 2b4c 9b3a
00000010: 0109 783d ae98 8d3e 3ec3 183d 1178 533a
00000020: c0fa 7026 296c 8826 982a 5e25 4b88 2126
00000030: 36e4 e5bd 1ac8 8abe 0824 f6bc 4a7b f2bc
00000040: 0400 0080 0400 0080 0400 0080 0400 0000
00000050: ead5 263d bc3e 533e cd95 e23c 77f2 793b
00000060: 0400 0000 0400 0000 0400 0000 0400 0000
00000070: 84d5 3f3e 052b 5d3f b921 e73d f9aa f6bb
00000080: d0ff f73d 5595 fb3e cd08 883d dc2b 7f3c
00000090: 0400 0080 0400 0080 0400 0080 0400 0000
000000a0: f3ab e6bf 5e4a 3dc0 1b7f fe3e fa7f 8fb9
000000b0: 0b6d 14be ba37 b1be 84e2 dabc 4518 88bd
000000c0: eed4 a63f 6522 de3f 927d cf3c a76f 03bf
000000d0: 26e6 78bd 90df 3dbe f014 8e3c a32e 393e
000000e0: 0400 0000 0400 0000 0400 0000 0400 0000
000000f0: 895a e338 8ad1 a33d 3164 013d 8cab 173d
00000100: b64e 91bc f737 98ba 3bac 4f3b 23ee 2bbc
00000110: ee00 ccbc 925c bdbc 64f1 53bb a3a0 7ebc
00000120: 0400 0080 0400 0080 0400 0080 0400 0000
00000130: 318b 16be 4d4d 0ebf 98c5 a5bd 5fbe ecbc
00000140: 0400 0000 0400 0000 0400 0000 0400 0080
00000150: f11e 17be 6aad 3bbe 8d29 90bc ccc3 47bd
00000160: f9c1 42be f935 c2be de49 cdbc 5b13 d13c
00000170: 2973 ae3d 500c 743d 960c 62bb 8e73 f13b
00000180: f042 643c 042b 093d e030 343d bc31 303e
00000190: 4a59 aa3c b232 8b3c 590e b9b9 178f f4b9
000001a0: a344 d5bd 36a0 06be 15d3 27bc d0f9 8ebc
000001b0: 5e1e 9bbd b318 c9bd 0a18 d6bb 81e8 a6bb
000001c0: 0495 5338 1fd4 81bd faab cabb c3e6 6e3d
000001d0: fc12 22be 0f3d d4be 0443 adbc 44b6 a2bd
000001e0: d499 6b28 6fed ee28 677a 0327 5458 46a8
000001f0: 0400 0080 0400 0080 0400 0080 0400 0000
00000200: 3060 493e 5e4d 393f 769f ab3d 159e a6bc
00000210: 0400 0000 0400 0000 0400 0000 0400 0000
00000220: 0400 0080 0400 0080 0400 0000 0400 0000
00000230: 0fa4 353e b824 3e3f 1539 c93d cef2 92bb
00000240: bd54 92be 758e 18bf 36b8 abbd eec7 39be
00000250: 3708 a3bc 46c2 2d3d d836 933b 691a cebc
00000260: 0400 0080 0400 0080 0400 0000 0400 0000
00000270: 3b0d 8e3e 7845 903f a355 153e 0482 c2bb
00000280: 0400 0080 0400 0080 0400 0080 0400 0080
00000290: edc7 1bbe 63b4 833e 1cd3 40be 2d1b 44bf
000002a0: ae61 8cbc 96f7 69bd 3736 8fbc 05d2 003d
000002b0: b02a 0628 dd22 9328 51b9 9e26 cdb8 09a8
000002c0: 0400 0080 0400 0080 0400 0080 0400 0080
000002d0: 6905 673c fffc 1d3e c7c3 7f3d 1199 253e
000002e0: 7313 873d bd5f fe3e 9e05 7dbd fe5e 24bf
000002f0: b8ad 5c3c 3ed9 293c 4af2 a9b9 5d92 4d3a
00000300: 0400 0080 0400 0080 0400 0080 0400 0080
00000310: 9127 263e 4453 223f 3712 9b3d 4316 2fbb
00000320: 2156 ab3c 5dd2 6d3d 9cc7 a93b fbff 033c
00000330: 3d6c 84be 82bb c0be 1238 1fbd d70a e9bd
00000340: 0040 74bd 24ed debd 58e7 c03a bbb4 823d
00000350: 2aaf 5a3e 9801 643f 01a4 f63d 9033 763c
00000360: 0000 0000 0000 0000 0000 0000 0000 0000
00000370: 1a99 b227 4999 3b28 26e6 6f26 4318 98a7
00000380: 65e9 bebd b9a0 b4bd 1bc5 88bb d09e d0bb
00000390: 0400 0080 0400 0080 0400 0000 0400 0000
000003a0: 0400 0000 0400 0000 0400 0000 0400 0080
000003b0: 0d10 5a3e 6069 3f3f 73dc b93d 0b93 563b
000003c0: 0400 0000 0400 0000 0400 0000 0400 0000
000003d0: 0400 0000 0400 0000 0400 0080 0400 0080
000003e0: ef2b ca3d 8d16 e13e 08e1 603d 25ba 79bc
000003f0: 0400 0080 0400 0080 0400 0000 0400 0000

exp_avg_sq f4 [64, 4]
1.0395105 2.961799 0.044927973 0.3393775 0.2897003 0.7921328 0.010988685 0.09448368
0.0011985172 0.0017999336 6.1205326e-05 0.00034008815 0.043765355 0.21438864 0.006482956 0.0072375545
1.3332379e-30 1.0338805e-30 8.3991786e-35 2.953742e-32 0.2546871 0.5357252 0.0065353643 0.04644683
3.5611457e-25 2.6072935e-25 1.2619226e-27 3.7345008e-26 2.3698275 6.769619 0.100259796 0.8154989
0.6546802 1.971491 0.032307684 0.27663237 4.3164075e-10 4.552021e-10 2.2713538e-13 4.963057e-11
80.16311 130.7957 1.713973 7.2146473 0.1298991 0.60286134 0.020681757 0.30728894
93.10057 127.79518 0.4945852 2.7104855 0.03826834 0.38507044 0.009948595 0.4752352
7e-43 7e-43 7e-43 7e-43 0.012972968 0.106794134 0.0032869051 0.054600485
0.015145141 0.0895496 0.0027158274 0.10305235 0.027305648 0.04941749 0.00022595555 0.0082664285
7e-43 7e-43 7e-43 7e-43 0.26555422 0.95017785 0.017964033 0.035284583
2.7953539e-11 3.0746447e-11 3.6188432e-14 2.1011814e-12 1.1636077 1.5377223 0.007696076 0.18072118
0.112685 0.2936441 0.006631839 0.030878501 0.0631983 0.033487417 7.028261e-05 0.004763943
0.13306826 0.5332242 0.009049493 0.3212822 0.003559861 0.0066244723 1.1273235e-05 0.00045369667
0.5056435 0.83044976 0.0039827023 0.16079679 0.16598873 0.2077968 0.001010414 0.027407544
0.0023937838 0.0030971216 1.536559e-05 0.0015054318 1.0251038 2.6279597 0.031161768 0.060254022
1.3095183e-05 5.958039e-05 2.2915603e-07 1.3746651e-05 6.81716e-36 4.9156757e-36 3.748071e-39 8.604368e-38
1.175239 3.4212584 0.05704281 0.35580903 1.1423293e-12 6.2472667e-13 1.0044418e-14 3.9584696e-13
1.6608918e-05 1.64756e-05 3.948216e-09 2.6615248e-06 1.4250897 4.2135663 0.06594851 0.50941235
0.4144337 2.0373216 0.05432753 0.8366258 0.07651609 0.16701196 0.0009209632 0.003989268
7e-43 2.8336e-41 7e-43 5.3971e-41 3.2742362 9.62289 0.15049154 1.1546403
4.4759847e-13 1.2413161e-13 1.857884e-15 2.256849e-15 1.1455493 9.314259 0.21298489 10.930108
0.008259578 0.02332658 0.00050201244 0.025788177 0.0002889578 0.0015046318 5.1388515e-06 0.0004309928
6.151772e-18 5.6469205e-18 1.518945e-20 6.1176513e-21 0.45315135 1.3841715 0.018767854 0.3680945
0.13648614 2.9731467 0.071495414 4.057441 0.0012593615 0.0006862332 9.1184853e-07 0.00015348439
2.2928124e-28 2.9726392e-29 6.8184743e-31 4.0834338e-30 1.0741976 3.1991813 0.0527022 0.41355857
0.039011877 0.06183643 0.0007164822 0.0048654545 0.5563122 0.96466684 0.0031453266 0.016055595
0.18230204 0.27151737 0.0024061813 0.03342092 2.1627607 6.466235 0.10202804 0.8900209
0.0 0.0 0.0 0.0 8.54516e-05 0.00036786395 2.6816865e-06 6.372846e-05
0.048675697 0.07159052 0.0002500269 0.0022790504 5.9399714e-17 7.218907e-16 4.0183062e-19 3.7853376e-16
7e-43 7e-43 7e-43 7e-43 1.1800914 3.543357 0.061754562 0.42864382
6.657941e-23 2.1780065e-23 1.451131e-25 2.198936e-24 7e-43 7e-43 7e-43 7e-43
0.67606676 1.6220069 0.022435257 0.13491645 4.3825612e-38 1.13566725e-36 1.6668892e-38 1.2976332e-36
00000000: ae0e 853f 1d8e 3d40 6506 383d e3c2 ad3e
00000010: 9953 943e 37c9 4a3f e309 343c a980 c13d
00000020: 9017 9d3a c0eb eb3a 5c5b 8038 dc4d b239
00000030: 4d43 333d b288 5b3e fa6e d43b 0229 ed3b
00000040: 8954 d80d b7c1 a70d d949 df06 f75d 190b
00000050: 5966 823e 4925 093f 9c26 d63b 083f 3e3d
00000060: 9b6c dc16 3762 a116 aaf5 c712 6cec 3815
00000070: 41ab 1740 b8a0 d840 0255 cd3d 89c4 503f
00000080: 1f99 273f d159 fc3f 1055 043d c2a2 8d3e
00000090: 094c ed2f 0040 fa2f 51bb 7f2a 0e47 5a2e
000000a0: 8353 a042 b3cb 0243 7863 db3f 64de e640
000000b0: 4504 053e 1f55 1a3f ca6c a93c fa54 9d3e
000000c0: 7e33 ba42 2297 ff42 453a fd3e 9878 2d40
000000d0: 43bf 1c3d f427 c53e 6fff 223c 0752 f33e
000000e0: f401 0000 f401 0000 f401 0000 f401 0000
000000f0: 928c 543c e2b6 da3d 1e69 573b c2a4 5f3d
00000100: 5323 783c c865 b73d 06fc 313b 1c0d d33d
00000110: 18b0 df3c fe69 4a3d 7bee 6c39 ea6f 073c
00000120: f401 0000 f401 0000 f401 0000 f401 0000
00000130: b9f6 873e db3e 733f 4f29 933c 9186 103d
00000140: c6e1 f52d 6c39 072e 6cfa 2229 85db 132c
00000150: 19f1 943f 16d4 c43f 5d2f fc3b f90e 393e
00000160: 65c7 e63d 8558 963e e64f d93b e9f4 fc3c
00000170: 1c6e 813d 1a2a 093d b064 9338 da1a 9c3b
00000180: 0c43 083e 6281 083f 5344 143c 1a7f a43e
00000190: 8f4c 693b 1a12 d93b 2d22 3d37 23de ed39
000001a0: da71 013f 5b98 543f 5481 823b eaa7 243e
000001b0: f3f8 293e afc8 543e de6f 843a c985 e03c
000001c0: 07e1 1c3b 14f9 4a3b 5ae5 8037 e951 c53a
000001d0: 9a36 833f 7e30 2840 f746 ff3c eccc 763d
000001e0: 62b3 5b37 f5e5 7938 ee0d 7634 6ba1 6637
000001f0: 26fc 1005 f816 d104 19d0 2800 b13b ea01
00000200: 3b6e 963f e6f5 5a40 b9a5 693d 9a2c b63e
00000210: c0c4 a02b 4dd8 2f2b b4f1 3428 8fd7 de2a
00000220: 6153 8b37 1535 8a37 e0a8 8731 a69c 3236
00000230: 5769 b63f 89d5 8640 0310 873d d968 023f
00000240: a730 d43e 7a63 0240 8b86 5e3d 1c2d 563f
00000250: 78b4 9c3d 2f05 2b3e cb6c 713a 68b8 823b
00000260: f401 0000 fd4e 0000 f401 0000 7396 0000
00000270: 168d 5140 5cf7 1941 741a 1a3e 41cb 933f
00000280: bdf9 fb2a 80c2 0b2a e9df 0527 849f 2227
00000290: 5ca1 923f 3407 1541 b618 5a3e b9e1 2e41
000002a0: 2e53 073c 6217 bf3c 7c99 033a ba41 d33c
000002b0: 427f 9739 1137 c53a 666e ac36 e0f6 e139
000002c0: d8f5 e222 a855 d022 d675 8f1e 4b1e e71d
000002d0: 7403 e83e 882c b13f 0bbf 993c e276 bc3e
000002e0: 06c3 0b3e 0948 3e40 306c 923d 8fd6 8140
000002f0: 2911 a53a 55e4 333a c1c5 7435 a7f0 2039
00000300: 0253 9111 10bb 1610 ab45 5d0d cda4 a50e
00000310: 4f7f 893f 63bf 4c40 43de 573d f3bd d33e
00000320: ebca 1f3d 3248 7d3d 4ed2 3b3a 646e 9f3b
00000330: 7a6a 0e3f 68f4 763f d321 4e3b 0687 833c
00000340: 63ad 3a3e 5304 8b3e 06b1 1d3b 60e4 083d
00000350: ac6a 0a40 66eb ce40 14f4 d03d 69d8 633f
00000360: 0000 0000 0000 0000 0000 0000 0000 0000
00000370: 7a34 b338 dddd c039 06f7 3336 f5a5 8538
00000380: 2b60 473d 0d9e 923d 0b16 8339 1f5c 153b
00000390: 67f7 8824 2212 5026 ed32 ed20 b935 da25
000003a0: f401 0000 f401 0000 f401 0000 f401 0000
000003b0: 3c0d 973f 5cc6 6240 5af2 7c3d 3477 db3e
000003c0: a9fa a01a d4a4 d219 2da4 3316 6a22 2a18
000003d0: f401 0000 f401 0000 f401 0000 f401 0000
000003e0: b612 2d3f ec9d cf3f 25ca b73c 8a27 0a3e
000003f0: fd9b 6e01 4939 c103 1782 b500 e6c7 dc03
