CartPole/Experiment_1/23-09-26_22-10-39-937242_DQN/checkpoints/agent_175000.pt (torch, 82603 bytes, 24 tensors)

net.0.weight f4 [64, 4]
00000000: 7210 03bd 012d b53d b770 bd3e 9131 403d
00000010: 26e6 1e3e d6fc 17bc 75fc 9e3f 4bee 7fbc
00000020: 56b4 09bd f499 a8bd e6d0 2340 53ed 793e
00000030: d703 53bc 14fa 0abf 82bd 9bbf 8126 e7be
00000040: e6bc abbd d77e a8bc 0cd1 463d 72b2 363b
00000050: 44f5 363e db2e 0dbe 6f91 d3bf fb07 8dbc
00000060: 88a6 25bd 2d24 893d c24c 18bf 2c48 013e
00000070: dd7f d2bd 2480 5b3d 1d9b 5b3e eea2 d13d
00000080: ccaa 2abd 5908 58bd 41ea 9e3e 4f88 99bd
00000090: aa6b 13be 616d 5e3d ee87 cdbb 0eee 293e
000000a0: eefe 8dbe 9370 04be d09f 65bf 2ca2 a3bd
000000b0: 76f3 1ebc a9ed 31be 9845 10c0 c6de d0be
000000c0: 16b1 afbe 287f 6bbe c647 2cbc 7523 1dbe
000000d0: 583b a53e 5af4 dd3d fd4d be3f af2a b23e
000000e0: 6fbc db3c 9efd 0dbc fc6a 3ebe 8886 b0bc
000000f0: dba4 753e 0dff 763e b13c f93f 1d97 a13e
00000100: b827 423e 56d8 ef3e ce8e d0be bf9e 893e
00000110: 6543 5e3e 3333 6ebd 8662 68be 8555 87bc
00000120: c8b4 063d 050c 27bd 701b 83bd 4bd7 eebc
00000130: 50b5 49bd a0fc babd 5feb f5bf a567 e1be
00000140: f6e3 023c 5311 543d 4d4c 15bf de0a b53c
00000150: a1c4 ea3e 5438 483e f76c 1a3f b844 1d3e
00000160: a903 123e 6f24 95be f45d 13bf 0dd2 053e
00000170: bb1b df3e 3566 2bbe 5069 56bf 8ff1 8ebe
00000180: b56d f43c 1f02 0ebc d810 1040 f9f2 d1bd
00000190: 3df6 df3c 08d8 51bf ce4e d13d d294 fabd
000001a0: 6020 843e e5b3 503e 654e b13f e79e 453e
000001b0: a7da 253f f34d d73e 30ea 8c3f bbb6 a03e
000001c0: e717 d33e 18cb e6bd fc80 0240 23ad 173e
000001d0: 18f6 40be 0197 2abe 1ab9 32bf a7da 01bf
000001e0: df30 b0bd 351e 0d3f 5ee4 c13f 8aa0 8e3e
000001f0: fbcd e9bc 62e9 a8bc a64b ee3c 7401 91bd
00000200: aac4 1a3d b1c0 503e bd83 b8bf 1eb9 b4bd
00000210: d225 10bd f5ca cc3c 0865 4ebd cc83 963c
00000220: 6068 263d 5aee a83d ff4c b53f 05d0 de3e
00000230: 412b 053e a9ff 1dbc d193 433d 3d9e 8b3d
00000240: 84c6 0fbe 61b2 63bc e179 34c0 23d4 98be
00000250: 8ea0 793e 0801 b1be ee37 903f 9c09 98be
00000260: 4007 47bd 4228 863d 815a 55be f070 243e
00000270: af55 0a3e 3fe4 76bd f7ab fa3d b151 573d
00000280: 7c2b 11be 71b7 42bd e803 46be 8c7d 6ebd
00000290: 9498 193f 36de ab3e 0493 6fbf c2a9 0b3e
000002a0: 189f 003d cbfd 1b3d c82b 0f40 05f9 b83e
000002b0: a8b5 d1bd c154 143e c7eb 623e 3c3b 1e3e
000002c0: a4b6 2b3d f7e1 e0bc 99a0 a6bd ddef 3cbc
000002d0: f436 85be 21ee 343e e236 0f40 e76d c43d
000002e0: 2183 f1bd 160a 4ebe 4146 17c0 d0b7 febe
000002f0: eee0 db3e b6ac 833e 6aa6 9bbf a220 a93c
00000300: 8e0a 30bc 7107 353d 3c70 caba 194f 1f3d
00000310: df26 06be 9bb9 d93d f5a1 99be 6624 c43d
00000320: 53dd 16bf d2d0 c6bd 4e9e efbf 9c06 1ebe
00000330: 49d7 1cbf acd9 5bbe 90a8 353f 0774 b6bd
00000340: 5361 f0bd 7a3d 413e 4125 a43f 2c81 a83d
00000350: 1362 2abd b718 4ebd 92d5 0b3f 82e1 c53d
00000360: 47a5 173d 228a 7d3c 1296 53bd 53c0 933c
00000370: d112 5bbe e5c4 273e 0489 123f 3bbe 32be
00000380: 3852 4a3e 3750 54be 4727 5fbf 5685 41bb
00000390: f18d 8d3d 5fbf afbd f7fc ecbe 7e8e 7c3c
000003a0: 8d1f 2f3b 202f 4f3d 5322 d5bd b2da 9e3d
000003b0: 1ecb 323d 4e42 653d 7c73 90bf 392d 6bbe
000003c0: 7328 f03d 8a49 4cbc e2ef 823f b0d8 973c
000003d0: 3cb0 c5bc d1b4 823c 4f6f 69bd ae8b efbc
000003e0: b758 393e c304 abbd 3bf3 01c0 83eb db3c
000003f0: c8ca e93d 7340 fdbd 51b1 bb3e 7319 5ebd
-0.031998105 0.088464744 0.37000057 0.04692227 0.15517482 -0.009276589 1.2420794 -0.015620778
-0.033619247 -0.08232489 2.5596251 0.24406938 -0.012879333 -0.5428784 -1.2167208 -0.45146564
-0.08385639 -0.020568294 0.048539206 0.0027877358 0.17866999 -0.13787405 -1.6528758 -0.01721572
-0.04044202 0.06696353 -0.59492123 0.12625188 -0.10278294 0.053589 0.2144589 0.102361545
-0.04166679 -0.052742336 0.31038097 -0.07496702 -0.1439654 0.05430353 -0.0062723076 0.16594717
-0.27733558 -0.12933569 -0.8969698 -0.07989916 -0.0097016 -0.17375816 -2.2542477 -0.40794963
-0.34314793 -0.22997725 -0.010515159 -0.15345557 0.32271838 0.10837622 1.486755 0.3479819
0.02682325 -0.008666424 -0.18595499 -0.021548524 0.23988669 0.24120732 1.9471647 0.31560603
0.18960464 0.4684474 -0.4073395 0.26878926 0.21705396 -0.058154296 -0.22693834 -0.016520271
0.03288725 -0.040782947 -0.06401718 -0.029155394 -0.04924518 -0.09130216 -1.9212455 -0.44024387
0.00798892 0.051774334 -0.5831955 0.022099908 0.4585314 0.19552737 0.6032252 0.15358245
0.14259209 -0.2912936 -0.57565236 0.1306841 0.43575844 -0.16738208 -0.83754444 -0.2791867
0.029837469 -0.008667498 2.251028 -0.102514215 0.027339095 -0.8197026 0.10220109 -0.122354165
0.2580595 0.20381124 1.3852049 0.19298898 0.6478676 0.42051658 1.1008968 0.31389412
0.41229174 -0.11269206 2.0391226 0.1481214 -0.18843877 -0.16659166 -0.6981369 -0.5072426
-0.086030714 0.5512422 1.5147817 0.27856857 -0.028540602 -0.020619098 0.029088806 -0.07080355
0.03778521 0.20386006 -1.4415203 -0.08824371 -0.03519232 0.024999121 -0.05038932 0.018373393
0.040626884 0.08248587 1.4164122 0.4351808 0.13004781 -0.009643474 0.04774839 0.06817291
-0.14040571 -0.013897509 -2.819939 -0.29849347 0.24377653 -0.345711 1.1267068 -0.2969483
-0.0485909 0.06550647 -0.20835306 0.16058707 0.13509248 -0.060276266 0.12239831 0.05256814
-0.14176744 -0.047538225 -0.19337428 -0.0582252 0.5999844 0.3356797 -0.93583703 0.13638976
0.031401724 0.038083833 2.2370472 0.36127487 -0.10239726 0.14485456 0.22160254 0.15452284
0.041922227 -0.027451498 -0.081361 -0.011531797 -0.26018488 0.17668964 2.2377248 0.09591275
-0.11792589 -0.20121035 -2.363663 -0.49749613 0.42945045 0.25717705 -1.216016 0.020645443
-0.010744704 0.04419655 -0.0015444825 0.038893793 -0.13100766 0.106311046 -0.30006376 0.09577255
-0.58931464 -0.09707798 -1.8720186 -0.15432209 -0.61266 -0.21469754 0.7096033 -0.08908849
-0.11737313 0.18871108 1.2823869 0.082277626 -0.041597437 -0.05031654 0.5462276 0.09662153
0.037022855 0.015474828 -0.05165679 0.018036043 -0.21393897 0.16383703 0.5724032 -0.1745538
0.19757926 -0.20733725 -0.8716931 -0.0029528937 0.06911839 -0.08581423 -0.46286747 0.015414832
0.0026721687 0.05058205 -0.104069375 0.077565566 0.04365074 0.055971436 -1.1285243 -0.2296647
0.11726465 -0.012468705 1.0229456 0.018535942 -0.024131887 0.01595536 -0.056990918 -0.02924141
0.18100248 -0.083505176 -2.0304706 0.0268457 0.114156306 -0.12365808 0.3665872 -0.05422349

net.0.bias f4 [64]
00000000: 9c08 e83e 862e 9cbc 945c 11bf 8625 97be
00000010: 58ed 97be 0420 c23e 08d9 43be fdd3 193f
00000020: bab3 943e c027 e4be 8e3d d8be 418a 15bf
00000030: cda4 0bbf 30b2 e03d 2c0f 16be 9407 393e
00000040: 14ac 86be 8e74 02bf 756c 30be f148 b8be
00000050: d2b2 e6be 423a 47bf 2606 913d e657 51bf
00000060: 0f55 df3e 3218 54bf e75e 10bf a60f 13bf
00000070: f728 2cbe e2ba 20bf 7864 62be 5354 86be
00000080: b359 f83e 217f 2cbe 6f78 efbe 7043 063f
00000090: 47a9 543e d9c9 093f 255e 99be 23d5 373f
000000a0: 31bf 0ebf 875a b3be e111 003f ed98 00bf
000000b0: b519 1bbe c7ca e53e bd64 39bf ac9c 4fbf
000000c0: ab13 fdbd 9564 bd3e bc53 0b3f 6b0b 50be
000000d0: 9e21 02bf 8c7f 153f b790 93be eee7 e4be
000000e0: 01b6 0dbe 2136 dcbe 6118 30be d7f6 f13e
000000f0: cba6 05bf bf71 40be fd9f f53e d469 d2be
0.45319068 -0.019065153 -0.5678189 -0.29520816 -0.29673266 0.3791505 -0.1912576 0.60089093
0.2904337 -0.44561577 -0.42234462 -0.58414084 -0.5454834 0.109714866 -0.14654225 0.18069297
-0.2630316 -0.509591 -0.17228873 -0.3599315 -0.45058304 -0.7782327 0.07081251 -0.8177475
0.43619582 -0.8284942 -0.5639481 -0.5744575 -0.16812502 -0.6278516 -0.22108638 -0.2623621
0.48505935 -0.16845371 -0.4677157 0.5244665 0.20767699 0.5382362 -0.2995464 0.71809596
-0.55760485 -0.35030004 0.5002728 -0.50233346 -0.15146525 0.4488127 -0.7241934 -0.8109844
-0.12357267 0.369908 0.54424644 -0.20316856 -0.50832546 0.58397746 -0.28821346 -0.44708198
-0.1383896 -0.43010047 -0.171968 0.47258636 -0.5220763 -0.1879339 0.47973624 -0.41096365

net.2.weight f4 [64, 64]
00000000: 783f 40be f46c 30be 41c3 d53e 769c f63d
00000010: 65da d33c 5171 22be 8bb8 fbbe 9e55 8ebe
00000020: a54c d6bd a385 2a3d 44f6 3abd 0d89 83be
00000030: 78b5 91be 6957 71bd 4463 2dbe a277 d4bd
00000040: 2c1e 8dbd 4e9a 12bf 9d75 1abe b525 65be
00000050: b974 d13a 4b1e 923d 9a76 26bf b2d4 53bf
00000060: 67a9 6c3e 4c83 f5be 5377 1f3f 766b 763e
00000070: 0839 ebbe 5145 a2ba 67e2 b63d bbd3 063e
00000080: ff19 27bf 24c2 923d 4087 a0be 0355 5b3d
00000090: 20a6 f0bd 4cd8 a4bd 6b84 67be 102d 51be
000000a0: bbfc 9d3d 83d6 83be abec 623c 1c43 12be
000000b0: 4d8a 053d dc19 023f fef8 943d 1dcd 943d
000000c0: 3fc5 5dbd a29a 28be d76a dabd 789a fcbe
000000d0: 5c5b cabd 57b2 0cbe 074d de3d 585d fd3d
000000e0: bf08 38bd df09 dfbe 330a 9ebb 2e82 02bf
000000f0: a17e c43f 4c96 21bc f062 6abe 9e4d e53e
00000100: 3ed1 bf3d 3d9b ed3d 4e6e 4dbe 71e1 4a3e
00000110: 6506 543c a703 6f3d e7af 7ebb 5f22 1dbe
00000120: 439d 17be 4d46 3ebc 2451 b3bd 377b bcbd
00000130: a15c eb3d e5d7 b6bd 9aad 353d 8a0d febd
00000140: 6e7d 483d 1440 163d 3b05 47bd 95b9 0ebe
00000150: 356b 8abd eed5 12bd 4d0b c2bb 9286 17be
00000160: 6ed5 97bd b97f 563d 9e25 273e 5b64 27be
00000170: 152f b7bd 554d abbd 0440 71bd c08a 51bd
00000180: 9fe6 35be b7b1 be3c 3cbc 70bd 7b3b 18bd
00000190: 0a6c 5bbe f770 2c3e c567 7e3e a76d 60be
000001a0: edb3 21bc 6b90 6bbd 7816 93bd 3812 bb3c
000001b0: 73ef bd3d 4887 27bb e585 30be e609 39be
000001c0: 0444 463e f34d 28be 2aab 07be 6996 57bd
000001d0: d7bb 0cbd d0ce 6ebc eb43 113e 497b 9abd
000001e0: eb07 4ebe 567e 7cbd 39c9 443e 0f49 db3d
000001f0: cd96 163e 6f7d d4bd 82a1 51be 94f6 c33d
00000200: c7bc 43be 9f53 32bf 8aaa b4be 2e57 6dbf
00000210: 8057 bcbd 7e0b 18bf 70e9 7a3d cbd1 23be
00000220: 4f9e 2cbe eeda 393f 3010 2240 806c debe
00000230: 911c ac3f a101 44bf c82c e73d aad8 b7be
00000240: bec0 8bbe 40a9 41bd cb3a 813c 3dea e3be
00000250: baee d3be b7de b6bd adef 8bbe ecc7 263f
00000260: 9453 c2be 5867 243d 360d 093f 3f1f 27be
00000270: 3783 2f3c 5435 f23d 4194 30bf 72f4 723d
00000280: f4f6 97be f0a2 183e 19b5 073e d57b f3be
00000290: 5bf8 213f 9cce 4dbe 2687 a63e 3ec0 1dbe
000002a0: 0d0b a43f 84fe 6e3f d49f 9ebd 6872 84bd
000002b0: 5933 9a3d bb74 a4be e112 963e c137 65be
000002c0: 02bf d3bd 06db 3b3d 6180 4bbf 280b 5b3f
000002d0: 0073 273e 2899 0cbe e3b1 0dbd b133 f8be
000002e0: 2ee7 87bf 1c85 92be 9794 92bd 15a5 62bf
000002f0: fcf9 2f3f 4032 76bd 21be 57bf 2285 ad3e
00000300: 58e0 d7bc 1736 763d 776e 52bd 70fe 5b3d
00000310: ac22 bdbd 993e 15bd 413e f23c 278f d8bd
00000320: c9d5 b7bd 70c4 81bd 83d5 6dbc b382 49bc
00000330: 3fec d63d c2ef b8bd b85d e1bd e183 1d3c
00000340: 1109 d33c 0880 bdbd bb7d f43d b460 36be
00000350: a1e2 0ebd ea36 5bbd 84b8 c83c 4739 adbd
00000360: df31 54be 46b3 2e3d f79e 35bd ac17 8a3d
00000370: f850 1e3e 729e 913c 9f3e f43c 1a9c febd
00000380: cf60 fabc 4c42 813e e933 033c 042c 57be
00000390: 9f26 53bd d236 f5bd 2317 28bd 9a31 34be
000003a0: fd9f e3bc b8c6 553d 0e12 23bc 83ca 99bd
000003b0: 22ac 643b d850 38bd 6097 6dbd 2668 903d
000003c0: 15ec 643e 0732 3fbd 91b0 bebd 3c93 0cbe
000003d0: 143c 78bd 67ce 143d 6af5 ecbc b08e 72bb
000003e0: bb21 2cbb 5fcc 82bd 5dde 6abd fde2 19be
000003f0: ec3e 31bd f7af 533b 63f5 e03d fe68 a93d
-0.18774211 -0.17229062 0.4175053 0.12041561 0.025860975 -0.1586354 -0.49164233 -0.27799696
-0.104638375 0.041631352 -0.045645013 -0.256905 -0.28458762 -0.05892125 -0.16932398 -0.10374381
-0.068905205 -0.572667 -0.15083928 -0.22377665 0.0015980221 0.07134684 -0.6502472 -0.8274642
0.23111497 -0.47951734 0.6229145 0.2406443 -0.4594195 -0.0012380277 0.089299016 0.13166706
-0.6527404 0.07165936 -0.31353188 0.05354787 -0.11750436 -0.08049068 -0.22609107 -0.20427346
0.0771422 -0.25749597 0.013850371 -0.14283413 0.032602597 0.5082071 0.07274054 0.07265685
-0.054143187 -0.16465238 -0.10664909 -0.493366 -0.09880707 -0.13739906 0.108545355 0.123713195
-0.044930216 -0.4356222 -0.004822993 -0.5097989 1.5351144 -0.009862494 -0.22889304 0.4478578
0.09366082 0.11601875 -0.20061609 0.19812562 0.012940978 0.058353093 -0.003886217 -0.15345143
-0.14806084 -0.011613441 -0.08755711 -0.09203189 0.11492277 -0.08927897 0.044355012 -0.12404926
0.048947744 0.036682203 -0.048588973 -0.13937981 -0.06758729 -0.03584855 -0.0059217573 -0.14797428
-0.07413755 0.0523679 0.16322944 -0.16346876 -0.08944527 -0.08364359 -0.05889894 -0.051157713
-0.17763756 0.0232781 -0.058773264 -0.0371661 -0.21427932 0.16839968 0.24844272 -0.21916829
-0.009869558 -0.057510775 -0.0718202 0.022835836 0.09274187 -0.0025562812 -0.17238577 -0.18070182
0.19361883 -0.16435985 -0.13248888 -0.052633677 -0.034358826 -0.014575675 0.14186065 -0.07543046
-0.20120208 -0.06164392 0.19217385 0.10707294 0.14705963 -0.10375487 -0.20471767 0.095685154
-0.19114982 -0.69658846 -0.3528636 -0.9271115 -0.09196377 -0.59392536 0.06125778 -0.15997998
-0.16857265 0.72599685 2.532238 -0.43442154 1.3446218 -0.76564986 0.11287838 -0.3590749
-0.27295488 -0.04728055 0.015775105 -0.44514647 -0.4139307 -0.08929198 -0.27331296 0.65148807
-0.3795439 0.04013762 0.53535783 -0.16320513 0.010712436 0.11826578 -0.6897622 0.059315152
-0.29680598 0.14905906 0.13252677 -0.47555414 0.63269585 -0.20098346 0.32524985 -0.15405366
1.2815872 0.9335711 -0.077453285 -0.06467134 0.07529325 -0.32120308 0.29311278 -0.2238455
-0.10339166 0.045863174 -0.79492766 0.855639 0.16352463 -0.137303 -0.034593474 -0.48476937
-1.0617425 -0.2861718 -0.071572475 -0.88533145 0.6874082 -0.060106516 -0.8427449 0.33890635
-0.026352093 0.060110178 -0.05137488 0.053709447 -0.09235129 -0.03643665 0.0295707 -0.10574179
-0.08976323 -0.063362956 -0.014516237 -0.0122992275 0.10494279 -0.09030105 -0.110042036 0.009613962
0.02576116 -0.09252936 0.11938044 -0.17810327 -0.0348841 -0.053519167 0.024502046 -0.084581904
-0.2072215 0.042651437 -0.044341054 0.06742796 0.15460575 0.017775748 0.029815016 -0.12432118
-0.03056374 0.25245893 0.008007982 -0.21012884 -0.051550504 -0.11973347 -0.04103769 -0.17597046
-0.02778625 0.052191466 -0.009953035 -0.07509329 0.0034892638 -0.044998974 -0.05800569 0.07051115
0.22355683 -0.04667857 -0.09311021 -0.1372804 -0.06060417 0.036329653 -0.028925616 -0.0037011318
-0.0026265222 -0.06386637 -0.05734097 -0.15027995 -0.043272898 0.0032300928 0.10984304 0.08271979

net.2.bias f4 [64]
00000000: 5055 0dbe c8d0 823d dc51 7bbe 5d50 cdbd
00000010: 35b8 273f a212 383f 51cc 64be 286e 2f3f
00000020: d8f1 0bbe 9d86 4c3f 7acf d23d 6618 243f
00000030: b98a 343f ab13 2b3f a4f1 bdbe 5e7b 9b3d
00000040: b5ad 1ebe 2c47 283f 6718 56bb 3ed6 3e3f
00000050: 1a6d b4bc 1a9c 5fbd 72db 1d3f 2e32 293f
00000060: a88b 533f 15a6 303d 6d8f df3e 0ea6 213e
00000070: d1d7 34bd 9742 113f bd32 97bc a059 1d3f
00000080: 1497 83be 52b2 1a3f 032e f0bd a905 65bd
00000090: c3ee 243f 5fb1 4f3d 29a7 293f 72d7 453f
000000a0: 15dc 99be 607d 123f 3c7e 93bd a6f8 92be
000000b0: 248d 633f e70a 443f 0cef 17be 3efa 413f
000000c0: 2e75 86bd f8fd 5f3e e085 593f e404 3c3f
000000d0: ed85 1bbe 012a 8cbd cfb0 debd 8c35 173f
000000e0: c970 7abd 2e81 613f 0ec3 23be 0583 5fbe
000000f0: 57bc 4a3f 02ad 48be 46f1 5d3f d6b9 1e3f
-0.13802075 0.06387478 -0.24542946 -0.10025094 0.6551545 0.7190343 -0.22343566 0.6852746
-0.13666475 0.79892904 0.10293479 0.6409973 0.70524174 0.66826886 -0.3709842 0.0759189
-0.15495951 0.657336 -0.0032668354 0.7454566 -0.02202468 -0.05459223 0.6166297 0.66092193
0.82634974 0.04312714 0.43664113 0.15786001 -0.04415113 0.56742233 -0.018456811 0.6146488
-0.257012 0.60428345 -0.11727526 -0.0559136 0.6442682 0.050706264 0.6627069 0.7728187
-0.30050722 0.5722256 -0.07201812 -0.2870533 0.8888724 0.76579136 -0.14837283 0.75772464
-0.06565319 0.21874225 0.849699 0.7344496 -0.15187807 -0.06843949 -0.10873567 0.5906608
-0.061142717 0.8808774 -0.15992376 -0.21827324 0.79193634 -0.19597247 0.8669628 0.62002313

net.4.weight f4 [2, 64]
00000000: d957 18bf b1e9 d6bd 52f2 16c0 aa1b 253e
00000010: e352 b33f 83b7 de3f cd04 4fc0 aed7 863f
00000020: b179 7f3e 6409 d73f 1fd1 97c0 5e03 af3f
00000030: 3706 873f bd87 a43f e916 21c0 93fe 8c3c
00000040: 4de0 453d 7fdc b73f 3e3e 983d 1cd2 b93f
00000050: d14b 21bd b946 f9bd c54c e83f 963d c03f
00000060: e294 d93f 9dd6 b7bc b29f e23f df0e b4bd
00000070: 3153 993d 1c51 a23f 328b f2c0 73e2 f63f
00000080: bcd1 93c0 b890 983f 09e3 d5bf b9bb 2fc0
00000090: c69a 9e3f 5227 473f 2455 ea3f ebd1 a23f
000000a0: b3cd 8fbe 757b 7c3f 068c a53e 7908 21be
000000b0: 1bda 913e c920 8c3f 7738 343c 1621 a43f
000000c0: 1eb2 56bc da74 363f 3681 933f 7eaf be3f
000000d0: 9a0f 89bd 77ca b4c0 78bc cebc 3451 ad3f
000000e0: db89 b9be 8ee8 a93f 55b4 33bd f551 69bf
000000f0: 4c62 393f b15c 123d c5e1 753f 5fb2 9d3f
00000100: 4898 4e3f 450b ac3c 2ad0 cabf 7309 0cbe
00000110: b6a5 b63f 7675 e23f d9e9 8bc0 bed7 983f
00000120: bc24 80be 334c bc3f 88e7 58c0 a7d9 ae3f
00000130: 78ad b03f c0b3 8b3f f7f6 4bc0 bf2e 0cbe
00000140: 7f25 283e f665 803f ad57 a6bd 9d6e d53f
00000150: 4eac 36bc 6046 12be 7a55 a23f 4053 e33f
00000160: aabc 4c3f c068 15be 24dc 213f 7a91 ff3b
00000170: 539f 91bb 02ba c53f c09b 59c0 7d6b ad3f
00000180: d53b ccc0 4765 973f b95c 51c0 e609 bebf
00000190: 00df e23f f382 35bf 37d0 313f 5f89 8b3f
000001a0: be98 35c0 50bc a63f 29aa 53be 25f6 373e
000001b0: 35cf be3f 7bc2 5f3f 1bef cf3c 4620 963f
000001c0: f1df 05bc aa9c fdbe 6762 f03f 8617 ff3f
000001d0: a4c6 f6bd c4a1 99c0 5084 a13d f4bc ad3f
000001e0: a640 2a3f 7ad1 453f 4399 923c c4a6 e23e
000001f0: f7d4 e23f fdb2 cb3d 989c b83f ddf1 bb3f
-0.59509045 -0.10493792 -2.35854 0.16123834 1.400967 1.7399753 -3.234668 1.053457
0.24948765 1.6799741 -4.7442775 1.3672903 1.0548772 1.2853924 -2.5170233 0.017211234
0.048309613 1.4364165 0.07433747 1.4517245 -0.039378945 -0.121716924 1.8148428 1.5018795
1.699856 -0.022441203 1.7704985 -0.08791899 0.074865706 1.2681003 -7.5794916 1.9287857
-4.6193523 1.1919165 -1.6709911 -2.7458327 1.2390983 0.77794373 1.8307233 1.2720312
-0.28086624 0.9862588 0.32333392 -0.15725888 0.28486714 1.0947505 0.01099979 1.2822597
-0.01310399 0.7127205 1.1523807 1.4897306 -0.06692429 -5.649715 -0.025236353 1.3540406
-0.36237988 1.3274095 -0.04387315 -0.9114068 0.72415614 0.03573293 0.9604762 1.232006
0.8070111 0.021001467 -1.5844777 -0.1367548 1.4269321 1.7692096 -4.372296 1.1940839
-0.25028026 1.4710754 -3.3891315 1.3660172 1.3802938 1.091423 -3.1869485 -0.13689707
0.16420554 1.0031116 -0.081221916 1.6674381 -0.011149479 -0.14284658 1.2682335 1.7759781
0.7997538 -0.1459074 0.6322653 0.0077993246 -0.0044440418 1.544739 -3.4001312 1.3548428
-6.3823037 1.1827782 -3.2712843 -1.4846771 1.7724304 -0.7090294 0.69458336 1.0901297
-2.8374476 1.3026218 -0.2067038 0.1796499 1.4906985 0.8740613 0.025382569 1.1728599
-0.008171068 -0.49533588 1.878003 1.9929054 -0.120496064 -4.800997 0.07886565 1.3573289
0.66504896 0.7727276 0.017895347 0.44267857 1.7721242 0.09946249 1.4422789 1.4683186

net.4.bias f4 [2]
00000000: 18c5 543f 3599 ec3e
0.8311324 0.46210638

net.0.weight f4 [64, 4]
00000000: aaec 1fbd c30d ba3d 2d44 ad3e e811 173d
00000010: b363 1c3e 09cf 43bc 533b 953f 1de1 9abd
00000020: 003a 39ba 9e13 adbd 986b 2440 ee23 763e
00000030: 4ac9 c2bc 5ce5 12bf 65a2 a2bf 8a05 f7be
00000040: 46bd abbd 967f a8bc 89d0 463d bfb2 363b
00000050: ed0d 3a3e a5ae 21be 0bf8 d6bf 10f4 d8bc
00000060: e7d1 25bd ab39 893d 624a 18bf 3c3d 013e
00000070: 9a61 e1bd 0e7e 543d bd78 3a3e 7ae1 ce3d
00000080: 5f1b 25bd 719b 78bd cc9d 8a3e 1972 a6bd
00000090: 456c 13be 126d 5e3d 4987 cdbb ffed 293e
000000a0: 9b88 8dbe 746c 03be 490c 66bf b86a a7bd
000000b0: 5b8a f5bc 747d 0fbe 5c6f 0bc0 f1bb c4be
000000c0: 7e59 afbe 9962 6abe 17d2 36bc 1966 1cbe
000000d0: 39e3 973e f560 d33d 957c b63f 3caf b63e
000000e0: c9bc db3c a5fd 0dbc 886a 3ebe 4886 b0bc
000000f0: 0363 8a3e 0ca8 4a3e 0621 ea3f cd7b a33e
00000100: bc74 463e 81a6 ed3e f3f3 e4be 1dda 8c3e
00000110: a943 5e3e 9332 6ebd 4b62 68be bc55 87bc
00000120: 6fa4 013d 8f1c 2cbd 7ba3 85bd 69f8 f8bc
00000130: 62f5 37bc a02d a8bd 1d61 f1bf b2e2 f3be
00000140: 3ce4 023c 8111 543d bd4c 15bf 880a b53c
00000150: 5061 e93e 5673 443e eaff 173f 556b 083e
00000160: 11b6 103e 723e 93be 8344 19bf e2bb b13d
00000170: 0b14 d93e d8ec 2bbe 8368 4dbf 351b 84be
00000180: a23f 7e3c 8996 a93c 7001 1040 f49d bdbd
00000190: d1d0 923d e41c 49bf 8a01 183e e2e1 5fbb
000001a0: d214 833e e6c7 503e 96eb b13f 3ee8 4b3e
000001b0: dcae 293f bf53 d93e a0e5 753f b251 9c3e
000001c0: ad4a c93e af8d b5bd 6406 0140 ecfa e63d
000001d0: 3b48 31be c8b2 4abe 106b 3bbf 4ede 08bf
000001e0: a71f 8ebd 30df 1c3f 08d9 c23f 0292 6b3e
000001f0: 5ace e9bc d6e9 a8bc 934b ee3c be00 91bd
00000200: 72d7 df3c d4dc 4d3e 20d4 bbbf 39aa b9bd
00000210: 3625 10bd c8cb cc3c 6164 4ebd 7584 963c
00000220: 0493 d7bc f18b ff3d e86b bd3f d6a1 c63e
00000230: 922f 003e cd99 55bc 0a25 613c 793e 813d
00000240: 2b2c d0bd f6bc 4bbd 444b 34c0 36c5 90be
00000250: 7b06 803e 7360 b7be 79fe 893f 1b27 99be
00000260: 0008 47bd 2d28 863d 6a5a 55be 4e71 243e
00000270: e6ad 033e 6ddc 84bd 9841 b53d 4372 523d
00000280: b52b 11be 18b8 42bd a004 46be 5a7e 6ebd
00000290: 72f5 133f 1d98 993e 729b 74bf e1ce 163e
000002a0: 24a9 9f3d e672 b53d 5e96 0b40 062a 723e
000002b0: f9f7 d1bd 336e 143e 8610 633e fb28 1e3e
000002c0: 3fb6 2b3d c2e2 e0bc aea0 a6bd 67f0 3cbc
000002d0: 6318 75be 0a23 413e 0e87 1240 9802 e23d
000002e0: 1edf 82bd 1d52 33be b9d5 15c0 3b81 fdbe
000002f0: 4442 e23e 215b 733e fb7b a2bf 3c43 e73c
00000300: d70a 30bc 6807 353d a870 caba 764e 1f3d
00000310: 86cb 0cbe 539b d23d 938d aabe 282e b33d
00000320: cda3 13bf 4508 ebbd 0b56 e9bf 4e82 04be
00000330: 23f8 1cbf 4d95 5bbe e3c9 353f 8db9 b4bd
00000340: 515b f0bd 8e3c 413e 0822 a43f 75c0 a83d
00000350: f2dc 42bd 1f21 53bd 8865 033f 1966 bc3d
00000360: 47a5 173d 228a 7d3c 1296 53bd 53c0 933c
00000370: b60d 5cbe 05e0 363e 9fe6 173f 4f19 47be
00000380: 1822 6f3e 557f 35be 71f9 6cbf e68d c6ba
00000390: ed8d 8d3d d6bf afbd 6bfc ecbe 238f 7c3c
000003a0: 8a65 2c3b b95a 4f3d bc0c d5bd a0c4 9e3d
000003b0: 9dde f33c 75bc 6c3d b49b 92bf 222a 97be
000003c0: eb28 f03d 5149 4cbc f4ef 823f 15d9 973c
000003d0: 41b0 c5bc 5cb5 823c 0b6f 69bd e28b efbc
000003e0: 255f 2e3e 00c1 bcbd 27b4 03c0 04fa c83c
000003f0: 3acb e93d 4341 fdbd a7b1 bb3e 7a19 5ebd
-0.03904406 0.09084656 0.33841076 0.03688231 0.15272407 -0.0119512165 1.1658729 -0.07562468
-0.00070658326 -0.08451007 2.569067 0.24037144 -0.023777623 -0.57381225 -1.2705809 -0.48246413
-0.083857104 -0.02056865 0.04853872 0.0027877537 0.18169375 -0.15789278 -1.6794447 -0.026483566
-0.04048338 0.067004524 -0.594885 0.12621015 -0.11004944 0.051878028 0.1821012 0.101016
-0.040309306 -0.060695115 0.27073514 -0.08127231 -0.1439677 0.054303236 -0.0062722308 0.16594695
-0.27643284 -0.1283434 -0.89862496 -0.08174652 -0.0299732 -0.140127 -2.1786718 -0.38424638
-0.34247965 -0.22889175 -0.011158488 -0.15273322 0.29665545 0.103212275 1.425677 0.35680568
0.026823418 -0.008666431 -0.18595326 -0.021548405 0.27028665 0.19790667 1.8291328 0.3193039
0.19380468 0.46416095 -0.44717368 0.27510157 0.21705498 -0.0581537 -0.22693746 -0.016520374
0.031650957 -0.042019423 -0.06525322 -0.030391889 -0.011227937 -0.08211827 -1.8857762 -0.47633892
0.007988986 0.051774506 -0.5832022 0.022099748 0.45582056 0.19184622 0.5937487 0.13322194
0.14131953 -0.2875858 -0.59870166 0.08678414 0.42398104 -0.16789567 -0.802376 -0.25802007
0.015518101 0.020701664 2.2500877 -0.09258643 0.07168735 -0.7855971 0.14844337 -0.0034161736
0.25601822 0.20388755 1.390002 0.19912812 0.6628244 0.42446706 0.96053505 0.3053108
0.39314786 -0.088649146 2.016015 0.11278328 -0.1731271 -0.19794762 -0.7321024 -0.5346421
-0.06939631 0.6127806 1.5222483 0.23004916 -0.028540779 -0.020619314 0.029088771 -0.0708022
0.027324412 0.2010377 -1.467411 -0.090656705 -0.035191737 0.024999514 -0.050388698 0.018373707
-0.02631522 0.124778636 1.4798555 0.38795346 0.12518147 -0.013037157 0.013741741 0.06310744
-0.10164674 -0.049740754 -2.8170938 -0.2827546 0.25004944 -0.35815772 1.0780784 -0.29912648
-0.048591614 0.06550632 -0.20835271 0.16058847 0.12859306 -0.064873554 0.08850402 0.0513785
-0.14176829 -0.047538847 -0.19337702 -0.058225967 0.57796395 0.29998866 -0.9554969 0.14727356
0.07795933 0.08859806 2.1810527 0.23648843 -0.10252375 0.14495163 0.22174272 0.1544532
0.04192185 -0.027451877 -0.08136116 -0.011531926 -0.23935084 0.18861023 2.289493 0.11035651
-0.063902125 -0.17511792 -2.3411696 -0.49512658 0.44191182 0.23765232 -1.2694086 0.028230302
-0.010744772 0.044196516 -0.0015444951 0.038893186 -0.13749513 0.10283532 -0.33311138 0.08749038
-0.57671815 -0.11476187 -1.8229383 -0.12940332 -0.61316127 -0.21443672 0.7101118 -0.088244535
-0.11736167 0.18870756 1.2822886 0.08239833 -0.04757399 -0.05154526 0.513268 0.09199161
0.037022855 0.015474828 -0.05165679 0.018036043 -0.21489605 0.17858894 0.59336275 -0.19443248
0.2335285 -0.17724355 -0.9256812 -0.001514849 0.06911836 -0.08581512 -0.4628633 0.015414986
0.002630564 0.05062363 -0.104028195 0.07752347 0.029769236 0.057796914 -1.1453767 -0.29524332
0.117265545 -0.012468652 1.0229478 0.01853613 -0.024131896 0.01595562 -0.056990664 -0.029241506
0.17028482 -0.09216499 -2.0578706 0.02453328 0.114157155 -0.12365963 0.36658975 -0.054223515

net.0.bias f4 [64]
00000000: 8046 e73e 6c7c 1abc 209d 0fbf 694f 94be
00000010: 9eec 97be 8e19 ca3e ddcd 43be f640 193f
00000020: 29ba 983e 7b27 e4be ac8b d8be 0463 1abf
00000030: 60ca 0bbf cd24 003d 7e0e 16be 0bbc 743e
00000040: 39cc 86be 8574 02bf ba28 2fbe c30c a5be
00000050: 43b2 e6be 5ff8 47bf 7a22 8a3d c5ba 50bf
00000060: 8bca da3e 6029 54bf c07c 10bf 116e 13bf
00000070: 0057 28be 0c85 18bf 3ebf 56be ed53 86be
00000080: 37ea fb3e 077f 2cbe 1156 e3be 6dc4 053f
00000090: 10b1 5c3e 33eb 0b3f 265e 99be de70 373f
000000a0: 9dbe 0ebf c618 b1be dcdf e03e 2c90 00bf
000000b0: 1e19 1bbe c641 eb3e e8aa 34bf afd0 4cbf
000000c0: 2c13 fdbd 30d2 be3e 7797 0e3f fa62 4fbe
000000d0: 611f 02bf 39b6 143f b790 93be 4924 dabe
000000e0: 56e3 e9bd e235 dcbe 990d 30be 9868 f43e
000000f0: 7da6 05bf 4971 40be f4b8 f83e 4a69 d2be
0.45170975 -0.009429079 -0.5609913 -0.28966835 -0.29672712 0.39472622 -0.191215 0.5986475
0.2982953 -0.4456137 -0.4229406 -0.60307336 -0.54605675 0.031285096 -0.14653966 0.23899858
-0.26327685 -0.50959045 -0.1710538 -0.322363 -0.45057878 -0.7811336 0.06744857 -0.8153499
0.42732653 -0.82875633 -0.56440353 -0.57589823 -0.16439438 -0.59578013 -0.2097139 -0.26235905
0.4920213 -0.16845332 -0.444016 0.52252847 0.21551919 0.5465576 -0.29954642 0.71656597
-0.557596 -0.34589213 0.4392079 -0.5021999 -0.151463 0.4594862 -0.7057328 -0.80005926
-0.12357172 0.37269735 0.55699867 -0.202526 -0.5082913 0.5809055 -0.28821346 -0.42605808
-0.11420314 -0.4300986 -0.17192687 0.4773605 -0.52207166 -0.18793215 0.48578608 -0.41095954

net.2.weight f4 [64, 64]
00000000: 493f 40be 806c 30be 1ac3 d53e 439d f63d
00000010: 65da d33c cf70 22be 4cb8 fbbe 2555 8ebe
00000020: 9a4c d6bd 8f85 2a3d eff6 3abd 1589 83be
00000030: 36b5 91be 0b58 71bd 2763 2dbe 1277 d4bd
00000040: 6e1d 8dbd 1e9a 12bf 9d75 1abe 2a26 65be
00000050: 8975 d13a ad1e 923d 7f76 26bf 92d4 53bf
00000060: 9aa9 6c3e 3c83 f5be dd77 1f3f 0b6c 763e
00000070: db38 ebbe 5145 a2ba 2fe3 b63d bbd3 063e
00000080: c719 27bf 24c2 923d f786 a0be a955 5b3d
00000090: eca5 f0bd a7d7 a4bd 6b84 67be e22c 51be
000000a0: 2efc 9d3d 6dd6 83be 6aed 623c 6543 12be
000000b0: 4d8a 053d ac1a 023f 25f9 943d 65cd 943d
000000c0: 3fc5 5dbd 279a 28be 826a dabd 149a fcbe
000000d0: c95a cabd 9db1 0cbe 0a4d de3d 2b5e fd3d
000000e0: 2808 38bd 5209 dfbe 330a 9ebb cd81 02bf
000000f0: c87e c43f 4c96 21bc cb62 6abe 024e e53e
00000100: e7d1 bf3d ca9b ed3d 496e 4dbe f0e1 4a3e
00000110: 6506 543c 2b03 6f3d acaf 7ebb 3622 1dbe
00000120: ee9c 17be d045 3ebc 2051 b3bd 387b bcbd
00000130: 035c eb3d 78d7 b6bd 9aad 353d 2c0d febd
00000140: 387e 483d 7d40 163d 3b05 47bd 25b9 0ebe
00000150: cd6a 8abd 45d6 12bd 700b c2bb 4686 17be
00000160: 2ed5 97bd 2980 563d 7f25 273e ff63 27be
00000170: bf2f b7bd 554d abbd d43f 71bd c08a 51bd
00000180: 10e6 35be b7b1 be3c ccbb 70bd be3a 18bd
00000190: 8a6b 5bbe be71 2c3e cc67 7e3e 936d 60be
000001a0: 86b4 21bc 5b90 6bbd 5616 93bd 8011 bb3c
000001b0: 73ef bd3d 2787 27bb 8085 30be 3009 39be
000001c0: 0444 463e 974d 28be e5aa 07be 1197 57bd
000001d0: 8cbc 0cbd d3ce 6ebc ee43 113e 4e7b 9abd
000001e0: 6907 4ebe bb7e 7cbd c8c9 443e 2949 db3d
000001f0: 6e96 163e 6f7d d4bd 4aa1 51be 11f6 c33d
00000200: 41bc 43be 3853 32bf 70aa b4be d257 6dbf
00000210: 4857 bcbd 160b 18bf 0bea 7a3d 27d1 23be
00000220: 479e 2cbe 57db 393f ef0f 2240 116d debe
00000230: 5e1d ac3f c801 44bf ea2c e73d 80d8 b7be
00000240: 35c0 8bbe c8a9 41bd cb3a 813c c3e9 e3be
00000250: 5aee d3be 80de b6bd 15ef 8bbe bfc7 263f
00000260: 5153 c2be ee67 243d cd0c 093f 3f1f 27be
00000270: ae83 2f3c eb35 f23d 9093 30bf 8bf4 723d
00000280: c6f6 97be f0a2 183e d4b5 073e b47b f3be
00000290: 7ef8 213f 61ce 4dbe e786 a63e 06c0 1dbe
000002a0: be0b a43f 42ff 6e3f 769f 9ebd e571 84bd
000002b0: 5933 9a3d 6f74 a4be 6612 963e 2238 65be
000002c0: 02bf d3bd d7db 3b3d c17f 4bbf 710b 5b3f
000002d0: 9e73 273e 9d98 0cbe e3b1 0dbd 4b34 f8be
000002e0: 0de7 87bf cd85 92be de93 92bd c3a4 62bf
000002f0: a7f9 2f3f 4032 76bd 22be 57bf bf84 ad3e
00000300: badf d7bc eb36 763d fa6d 52bd 70fe 5b3d
00000310: ac22 bdbd e63d 15bd 833e f23c ba8e d8bd
00000320: 60d5 b7bd 70c4 81bd 83d5 6dbc 6182 49bc
00000330: c1ec d63d c2ef b8bd b85d e1bd a584 1d3c
00000340: 7109 d33c 607f bdbd bb7d f43d b860 36be
00000350: 8de2 0ebd ea36 5bbd d0b8 c83c 4739 adbd
00000360: 8a31 54be deb3 2e3d f89e 35bd ac17 8a3d
00000370: 5551 1e3e 729e 913c 9f3e f43c 249c febd
00000380: 8c60 fabc 4c42 813e b434 033c 0a2c 57be
00000390: 9f26 53bd ac36 f5bd 2317 28bd 5831 34be
000003a0: fd9f e3bc b8c6 553d bf11 23bc 83ca 99bd
000003b0: 22ac 643b d050 38bd 6097 6dbd 6568 903d
000003c0: 15ec 643e c031 3fbd 10b0 bebd 2593 0cbe
000003d0: 1c3c 78bd f5ce 143d 6af5 ecbc b08e 72bb
000003e0: 4721 2cbb cccc 82bd 5dde 6abd f6e2 19be
000003f0: ec3e 31bd f7af 533b 82f5 e03d fe68 a93d
-0.18774141 -0.1722889 0.41750413 0.12041714 0.025860975 -0.15863346 -0.49164045 -0.27799335
-0.10463829 0.041631278 -0.04564565 -0.25690523 -0.28458565 -0.058921855 -0.16932355 -0.10374273
-0.06890379 -0.57266414 -0.15083928 -0.2237784 0.0015980463 0.07134757 -0.6502456 -0.8274623
0.23111573 -0.47951686 0.6229227 0.24064653 -0.45941815 -0.0012380277 0.089300506 0.13166706
-0.6527371 0.07165936 -0.3135297 0.05354849 -0.11750397 -0.08048945 -0.22609107 -0.20427278
0.07714115 -0.2574953 0.013850549 -0.14283521 0.032602597 0.5082195 0.07274083 0.072657384
-0.054143187 -0.16465054 -0.10664846 -0.49336302 -0.09880597 -0.13739629 0.10854538 0.12371477
-0.044929653 -0.43561798 -0.004822993 -0.5097931 1.535119 -0.009862494 -0.22889249 0.44786078
0.093662076 0.1160198 -0.20061602 0.19812751 0.012940978 0.05835263 -0.0038862033 -0.15345082
-0.14805958 -0.011613324 -0.08755708 -0.092031896 0.11492159 -0.08927816 0.044355012 -0.12404856
0.048948497 0.036682595 -0.048588973 -0.13937815 -0.06758652 -0.035848875 -0.0059217736 -0.14797315
-0.07413708 0.052368317 0.16322897 -0.16346739 -0.08944654 -0.08364359 -0.058898762 -0.051157713
-0.17763543 0.0232781 -0.058772847 -0.037165396 -0.21427742 0.16840264 0.24844283 -0.21916799
-0.0098697 -0.057510715 -0.071819946 0.022835493 0.09274187 -0.0025562735 -0.17238426 -0.18069911
0.19361883 -0.16435848 -0.13248785 -0.052634303 -0.0343595 -0.014575678 0.1418607 -0.0754305
-0.20120014 -0.061644297 0.19217598 0.107073136 0.14705822 -0.10375487 -0.20471683 0.09568418
-0.19114782 -0.6965823 -0.35286283 -0.9271213 -0.09196335 -0.59391916 0.061258357 -0.15997754
-0.16857253 0.7260031 2.5322225 -0.43442586 1.3446462 -0.7656522 0.112878636 -0.35907364
-0.2729508 -0.047281057 0.015775105 -0.44514284 -0.41392785 -0.08929157 -0.27330843 0.6514854
-0.3795419 0.040138178 0.5353516 -0.16320513 0.010712547 0.1182669 -0.6897516 0.059315246
-0.2968046 0.14905906 0.13252956 -0.47555315 0.63269794 -0.20098259 0.32524797 -0.15405282
1.2816083 0.9335824 -0.077452585 -0.06467036 0.07529325 -0.32120082 0.29310912 -0.22384694
-0.10339166 0.045863952 -0.7949181 0.85564333 0.16352698 -0.13730092 -0.034593474 -0.48477396
-1.0617386 -0.28617707 -0.0715711 -0.88532656 0.68740314 -0.060106516 -0.84274495 0.3389034
-0.026351798 0.060110968 -0.051374413 0.053709447 -0.09235129 -0.036435984 0.029570824 -0.10574098
-0.08976245 -0.063362956 -0.014516237 -0.012299151 0.10494376 -0.09030105 -0.110042036 0.009614144
0.025761338 -0.092528105 0.11938044 -0.17810333 -0.034884024 -0.053519167 0.024502188 -0.084581904
-0.20722023 0.042652003 -0.044341058 0.06742796 0.15460713 0.017775748 0.029815016 -0.12432125
-0.030563615 0.25245893 0.008008171 -0.21012893 -0.051550504 -0.119733185 -0.04103769 -0.17596948
-0.02778625 0.052191466 -0.0099529615 -0.07509329 0.0034892638 -0.044998944 -0.05800569 0.07051162
0.22355683 -0.046678305 -0.09310925 -0.13728006 -0.0606042 0.036330182 -0.028925616 -0.0037011318
-0.0026264952 -0.06386718 -0.05734097 -0.15027985 -0.043272898 0.0032300928 0.10984327 0.08271979

net.2.bias f4 [64]
00000000: e554 0dbe 7cd1 823d 2c51 7bbe d14f cdbd
00000010: 4398 263f 9179 313f 3484 67be 049a 2e3f
00000020: 6df1 0bbe 35ca 4d3f a810 0f3e 8ad5 1f3f
00000030: 94cb 313f 9218 2a3f 829d c4be 8d7b 9b3d
00000040: 86ad 1ebe 3f94 283f 4218 56bb 4266 3e3f
00000050: d640 b4bc 6a9b 5fbd 8db4 173f dd7f 283f
00000060: ee27 533f 4fa6 303d f5d6 e13e 76a6 213e
00000070: c0d7 34bd 2437 103f f5e5 7fbd f6b3 173f
00000080: 152e 83be 4234 1a3f 3519 efbd 5b05 65bd
00000090: 6a6d 203f a464 8e3c 6aa9 2a3f f53c 463f
000000a0: eedb 99be 3b9e 113f 3e7e 93bd a6f8 92be
000000b0: f2fd 5e3f 21fb 423f f6ee 17be 5f10 423f
000000c0: bd74 86bd f10f 6f3e 3360 573f 0fe1 3a3f
000000d0: b685 1bbe 537d 74bd 42b0 debd 7821 153f
000000e0: 2fb1 08bd 2e26 623f 17c3 23be 4f0f 54be
000000f0: 65ea 463f 51ac 48be 3000 5c3f e327 1e3f
-0.13801916 0.06387612 -0.24542683 -0.100249894 0.6507608 0.6932612 -0.22609025 0.6820376
-0.13666315 0.8038667 0.13971198 0.6243521 0.6945126 0.6644374 -0.3840142 0.07591925
-0.15495881 0.65851206 -0.0032668267 0.74374783 -0.022003572 -0.054591574 0.59259874 0.65820104
0.824828 0.043127354 0.44109312 0.15786156 -0.044151068 0.5633414 -0.062475163 0.59258974
-0.25621095 0.6023599 -0.1167473 -0.05591331 0.6266695 0.017381974 0.66664755 0.77436763
-0.30050606 0.56882066 -0.07201813 -0.2870533 0.8710624 0.7616444 -0.1483725 0.7580623
-0.06565235 0.23345925 0.84131163 0.7299966 -0.15187725 -0.05968983 -0.10873462 0.58254194
-0.0333721 0.8833951 -0.1599239 -0.20708965 0.7770141 -0.19596983 0.85937786 0.6177961

net.4.weight f4 [2, 64]
00000000: a657 18bf 69ea d6bd 9df2 16c0 aa1b 253e
00000010: 4d8b a93f 3d72 ce3f bd9d 4ec0 f3a8 853f
00000020: 3c79 7f3e 85e0 cb3f bbe5 97c0 5834 a13f
00000030: f3b5 803f 0afe a33f d3f7 28c0 2dfe 8c3c
00000040: b0e0 453d 011a b43f de3d 983d 2d55 b63f
00000050: d74b 21bd 4b47 f9bd da9a c53f 76bb ba3f
00000060: f5ad d93f 28d6 b7bc 1cb8 df3f f70e b4bd
00000070: fd53 993d 2bd7 9c3f 4ed3 efc0 e666 d93f
00000080: 1de2 93c0 378a 903f 903c d6bf 27bb 2fc0
00000090: fc87 8d3f a4f1 303f f63b e83f 054d 9e3f
000000a0: b5cd 8fbe 206e 623f 1e8c a53e 3109 21be
000000b0: 86b9 503e 8bc1 8c3f 2739 343c 9274 9e3f
000000c0: f1b2 56bc 5701 343f 342a 8c3f 32d9 b43f
000000d0: ec0f 89bd a75b b2c0 a8bc cebc 04dd 9f3f
000000e0: ed88 babe 0f46 aa3f c2b3 33bd 65f1 69bf
000000f0: cfcf 303f 665c 123d 819d 673f 9459 993f
00000100: b898 4e3f 9f0a ac3c f9cf cabf a409 0cbe
00000110: f8c9 b53f 2d27 dd3f 9330 8cc0 4386 953f
00000120: 4e25 80be 39b7 bb3f 8ecf 5ac0 b324 ae3f
00000130: 4730 ac3f 6de4 873f 619f 4bc0 242f 0cbe
00000140: 7f25 283e ef2c 833f 0658 a6bd 4623 d43f
00000150: d953 36bc 8546 12be de0a a53f dd4e e33f
00000160: 1233 4a3f dd68 15be 21b2 253f 7491 ff3b
00000170: 569f 91bb 91dd c43f d62d 60c0 cd7f b13f
00000180: 68f5 cbc0 daae 963f eaed 50c0 a809 bebf
00000190: 745c e13f ecd9 3ebf c7ff 343f 9105 893f
000001a0: b898 35c0 3cf7 a53f 61aa 53be 20f7 373e
000001b0: e1ac bb3f a932 593f 1bef cf3c bd17 953f
000001c0: 4ce0 05bc 0fe0 f4be e553 f03f 8c2a fc3f
000001d0: 73c7 f6bd 1ddf 9dc0 de84 a13d 1ea7 af3f
000001e0: 4e85 2b3f 71fb 423f 7b9a 923c f1b8 e23e
000001f0: 7b60 df3f 50b3 cb3d 9dfe b63f 5435 b93f
-0.5950874 -0.10493929 -2.358558 0.16123834 1.3245636 1.6128613 -3.2283776 1.0442184
0.24948591 1.5927893 -4.7467933 1.2594099 1.0055526 1.2811902 -2.640126 0.017211044
0.04830998 1.4070436 0.07433675 1.4244744 -0.039378967 -0.12171801 1.5437882 1.4588459
1.7006212 -0.022440985 1.7478061 -0.08791917 0.074867226 1.2253164 -7.494544 1.6984527
-4.6213517 1.129218 -1.6737232 -2.7457979 1.1057124 0.69118714 1.8143299 1.2367254
-0.2808663 0.8844929 0.32333463 -0.15726162 0.20383272 1.0996565 0.010999954 1.2379324
-0.013104186 0.70314544 1.0950379 1.4128783 -0.0669249 -5.573688 -0.025236443 1.2489324
-0.3643259 1.330263 -0.043872602 -0.91383964 0.6906709 0.03573265 0.90474707 1.1980462
0.8070178 0.021001158 -1.5844718 -0.13675553 1.4202261 1.727758 -4.3809295 1.1681598
-0.2502846 1.466529 -3.4189181 1.360495 1.3452233 1.0616585 -3.1816027 -0.13689858
0.16420554 1.0248088 -0.08122258 1.6573265 -0.011128389 -0.14284714 1.2893941 1.7758442
0.7898418 -0.14590783 0.6472493 0.007799322 -0.004444043 1.5380117 -3.5027976 1.3867127
-6.373707 1.177211 -3.2645211 -1.4846697 1.760634 -0.7455127 0.70702785 1.0704824
-2.8374462 1.2966075 -0.20670463 0.17965364 1.4662133 0.84842926 0.025382569 1.1647869
-0.008171152 -0.47827193 1.8775603 1.9700484 -0.12049761 -4.9334855 0.078866705 1.3722875
0.6700028 0.7616492 0.017895928 0.44281724 1.7451319 0.099463105 1.4296452 1.44694

net.4.bias f4 [2]
00000000: a008 563f d73b e13e
0.8360691 0.43990967

exp_avg f4 [64, 4]
00000000: fa24 2a40 72bf f4bf 84e4 10bf 271f 81bf
00000010: cff7 d1bc 609d 92bd 79d6 f2bb 1a5b c7bd
00000020: 52e7 75be ea7a 3a3f afea 13be 2334 e6bf
00000030: c032 0b40 097c 07c0 b247 0abf c344 82bf
00000040: 0400 0080 0400 0080 0400 0080 0400 0000
00000050: b140 393f fcaa 08bf cef5 01be 542b 8bbd
00000060: 0400 0080 0400 0000 0400 0000 0400 0080
00000070: 61f7 8c40 beb4 4dc0 2efe 72bf 57bc dbbf
00000080: b02c a03f 72a9 74bf c3bd 8abe 5508 f4be
00000090: 0400 0080 0400 0080 0400 0080 0400 0000
000000a0: 0400 0000 0400 0000 0400 0000 0400 0080
000000b0: 182c d3c1 ee28 9e41 ea58 ad40 6de8 0c41
000000c0: 0400 0000 0400 0000 0400 0000 0400 0080
000000d0: 5141 603e 1974 533d d721 a9bc ff7a 2dbd
000000e0: 0400 0000 0400 0000 0400 0000 0400 0000
000000f0: f5f1 bc3c 929b 7cbe 46df b8bc 2d0e 983c
00000100: 05af 47bd af92 123d d8bc da3a 5aa5 0abd
00000110: 0400 0000 0400 0000 0400 0000 0400 0080
00000120: 0400 0080 0400 0080 0400 0080 0400 0080
00000130: d305 06c0 a70a be3f 1bfc d43e e9f4 2f3f
00000140: 0400 0000 0400 0000 0400 0080 0400 0080
00000150: fcb5 383f f07d fa3e 789e e03c 6cc4 84bd
00000160: 3997 fd3a ab7a 35bc 2c18 883c 3dfa 013e
00000170: be2a 92c1 8118 7041 a3a0 6e40 e2a6 c540
00000180: 8059 dd3f 105c a3bf 6552 c0be 39dd 2ebf
00000190: ee3b 04c0 d29e fb3f 69c5 043f e927 c43f
000001a0: b54d e53e 4491 6e3e 7602 903c c971 b93c
000001b0: 65f9 c4bf 5bbf bebe d518 393c 10e0 2ebf
000001c0: a1d2 d73d 0fe6 17bf cd26 39bd e601 523e
000001d0: c580 7b32 dad5 d3b3 b2d5 4cb2 68e0 c3b2
000001e0: d6f2 7ebc 0510 62bd f59f ac3b 4828 c23d
000001f0: 0400 0080 0400 0080 0400 0080 0400 0000
00000200: d38d 2640 b2cb 00c0 1685 08bf fb9d 3abf
00000210: 0400 0000 0400 0000 0400 0000 0400 0000
00000220: 5dc8 6bbb 98ad b2be 685f f13b 210d 173f
00000230: ae78 6440 bc39 22c0 160d 41bf 939f acbf
00000240: ea71 2fc0 7d49 0d40 5ce5 133f 9cd0 693f
00000250: 004f 903f e188 69bf a66d 85be 98a8 01bf
00000260: 0400 0080 0400 0080 0400 0000 0400 0000
00000270: 9486 b840 2170 83c0 9331 9cbf 473a 0cc0
00000280: 0400 0080 0400 0080 0400 0080 0400 0080
00000290: ccce aec0 3d57 4540 8c0a 833f bfd2 943f
000002a0: 2f13 853e b1c0 31be a07c 57bd efd3 f8bd
000002b0: 0400 0080 0400 0000 0400 0000 0400 0080
000002c0: 0400 0080 0400 0080 0400 0080 0400 0080
000002d0: e9c4 0d3e 9237 173d a5d2 81bc 1eaf 90bc
000002e0: 244d 2ec1 1eb3 1d41 2e76 2540 c6c4 f040
000002f0: 20ae 643e 1dc8 9c3d 8266 b63b 790c b83c
00000300: 0400 0080 0400 0080 0400 0080 0400 0080
00000310: 3111 e83f ce80 b3bf 001d cbbe 87a7 2cbf
00000320: e74d 73bf 6cc3 1a3f 0917 713e 6490 1e3f
00000330: 0400 0080 0400 0080 0400 0000 0400 0000
00000340: 0400 0000 0400 0080 0400 0080 0400 0000
00000350: de8a 9140 f353 50c0 1e42 78bf 000c e2bf
00000360: 0000 0000 0000 0000 0000 0000 0000 0000
00000370: 9dfe e6b6 64f8 a1b8 5ece bfb5 e48e a838
00000380: 86dd 923e d7aa 27be d942 2cbd 6864 c8bb
00000390: 0400 0080 0400 0080 0400 0000 0400 0000
000003a0: 0400 0080 0400 0000 0400 0000 0400 0080
000003b0: 5c48 2a40 65a2 f7bf af16 0ebf 5295 70bf
000003c0: 0400 0000 0400 0000 0400 0000 0400 0000
000003d0: 0400 0000 0400 0000 0400 0080 0400 0080
000003e0: 6492 0440 4210 ccbf 5bdf d4be d122 06bf
000003f0: 0400 0000 0400 0080 0400 0000 0400 0000
2.6585069 -1.9120924 -0.5659869 -1.0087632 -0.02563086 -0.07158923 -0.007410821 -0.09734173
-0.24014023 0.728438 -0.14444993 -1.7984661 2.1749725 -2.1169455 -0.5401565 -1.0177234
-6e-45 -6e-45 -6e-45 6e-45 0.72364336 -0.533859 -0.12691423 -0.067953736
-6e-45 6e-45 6e-45 -6e-45 4.4051976 -3.2141566 -0.949191 -1.7166852
1.2513638 -0.95571053 -0.27097902 -0.47662607 -6e-45 -6e-45 -6e-45 6e-45
6e-45 6e-45 6e-45 -6e-45 -26.39653 19.769985 5.417104 8.806745
6e-45 6e-45 6e-45 -6e-45 0.21899916 0.05162439 -0.020646019 -0.042353626
6e-45 6e-45 6e-45 6e-45 0.023064593 -0.2466872 -0.022567403 0.018561447
-0.048750896 0.03578442 0.001668836 -0.033849098 6e-45 6e-45 6e-45 -6e-45
-6e-45 -6e-45 -6e-45 -6e-45 -2.0941055 1.4847001 0.4159859 0.6873308
6e-45 6e-45 -6e-45 -6e-45 0.72152686 0.48924208 0.027419314 -0.06482777
0.0019347436 -0.01107661 0.016613089 0.12693115 -18.27087 15.005982 3.7285545 6.1766214
1.7292938 -1.276247 -0.37562862 -0.6830631 -2.0661578 1.9657843 0.51863724 1.532468
0.44785848 0.23297602 0.017579298 0.022637265 -1.5388609 -0.37255368 0.011297424 -0.6831064
0.10538221 -0.59335417 -0.04520302 0.20508537 1.4639402e-08 -9.8643525e-08 -1.19229515e-08 -2.2803036e-08
-0.015560826 -0.05519106 0.005268092 0.09480339 -6e-45 -6e-45 -6e-45 6e-45
2.6024063 -2.0124326 -0.53328073 -0.7289731 6e-45 6e-45 6e-45 6e-45
-0.003597758 -0.34898067 0.0073661096 0.5900441 3.5698657 -2.5347738 -0.7541059 -1.3486198
-2.7413278 2.2076104 0.5777185 0.9133394 1.1274109 -0.91224486 -0.26060218 -0.5064788
-6e-45 -6e-45 6e-45 6e-45 5.766428 -4.1074376 -1.2202629 -2.191057
-6e-45 -6e-45 -6e-45 -6e-45 -5.4627438 3.0834496 1.0237594 1.1626815
0.25991198 -0.17358662 -0.052609086 -0.12149798 -6e-45 6e-45 6e-45 -6e-45
-6e-45 -6e-45 -6e-45 -6e-45 0.13844647 0.03691823 -0.015847513 -0.017661627
-10.893833 9.85623 2.585338 7.52402 0.22332048 0.07655356 0.005566419 0.022466885
-6e-45 -6e-45 -6e-45 -6e-45 1.8130246 -1.4023683 -0.39670563 -0.67443126
-0.95040745 0.6045444 0.23543943 0.6193907 -6e-45 -6e-45 6e-45 6e-45
6e-45 -6e-45 -6e-45 6e-45 4.5482016 -3.2551239 -0.96975887 -1.7659912
0.0 0.0 0.0 0.0 -6.884175e-06 -7.7233446e-05 -1.429067e-06 8.03748e-05
0.28684634 -0.16373764 -0.04205594 -0.006115485 -6e-45 -6e-45 6e-45 6e-45
-6e-45 6e-45 6e-45 -6e-45 2.6606665 -1.9346434 -0.5550336 -0.93977845
6e-45 6e-45 6e-45 6e-45 6e-45 6e-45 -6e-45 -6e-45
2.071435 -1.5942461 -0.41576657 -0.52396876 6e-45 -6e-45 6e-45 6e-45

exp_avg_sq f4 [64, 4]
00000000: 4e11 9a41 4ab0 a041 babd 2f3f bca7 4b40
00000010: 2aac 5b3f 1d1d 063f 8868 033c 02af 423e
00000020: 9fe8 963f c4a0 d940 66c8 213f cbf4 1c42
00000030: 2cc9 4a41 1414 8541 2e1a 173f 585c 0640
00000040: f401 0000 f401 0000 f401 0000 f401 0000
00000050: 3236 0a40 c418 e23f 8cd3 bd3d 343b 843f
00000060: 8271 5b2d 7cf2 352d af2a 092a 9652 722a
00000070: 60e2 4542 a495 5642 c4c8 ea3f d700 0941
00000080: 6a2c 8440 2f74 8940 73fb 163e 3348 313f
00000090: f401 0000 f401 0000 f401 0000 f401 0000
000000a0: 6fde c83d c6f1 fd3d ee3c 8539 53fe 163b
000000b0: 3d32 7244 5bca 9044 c998 3242 465a 2743
000000c0: 7920 993d 2f14 ba3d 2cdd 5839 189b bc3a
000000d0: 9d1a 9e3e 1b5d dd3d 59ae 973b 4cfb 123e
000000e0: f401 0000 f401 0000 f401 0000 f401 0000
000000f0: 40f4 b33e efa4 b33e 5cdb 793b 17f8 073e
00000100: 19ce 873e c092 2e3e b256 253b 938a b83c
00000110: c1ee 930b d923 6c0b eaf9 6407 7de3 9208
00000120: bc2f ee31 daec ef31 c3bf bf2d 51fd b12f
00000130: c665 b040 3ee5 ae40 343b 673e de02 603f
00000140: f401 0000 f401 0000 f401 0000 f401 0000
00000150: 35c4 0242 4a08 0d41 a6a2 ae3d 6a2d 333f
00000160: f4da c23e 097c 573e 8cda cd3c 2add 053f
00000170: 4ec7 9643 d825 2943 8046 2541 d144 3042
00000180: a3b4 d040 24c4 d140 9395 693e 8bcd 853f
00000190: dd73 1942 8336 c142 6a9a 2d40 ab7c 1941
000001a0: 657d 1441 f39a 2240 97a0 ed3c 7ebd 7f3e
000001b0: acf1 7142 6897 1b42 4fce 263e b2f0 8a3f
000001c0: d30e 7540 a011 ce3f e399 333d a73d 0840
000001d0: fef8 1d3b 5c2c 1d3d 4cb8 0b3a 7abb 013b
000001e0: 8786 5b3f f2bb 3e3e 4483 223d a834 313f
000001f0: f401 0000 f401 0000 f401 0000 f401 0000
00000200: 44b9 a241 f183 a541 1b58 473f 1ae9 9340
00000210: f401 0000 f401 0000 f401 0000 f401 0000
00000220: 3bc8 e63f c43d d840 9cde 9d3d 7a1c f641
00000230: e3c2 0242 a775 0a42 d9f7 963f 37e2 b040
00000240: 189b 7f41 4577 8a41 4178 2a3f fb6f 2540
00000250: 099b 3240 b82b 4140 ed94 d93d b8a3 003f
00000260: f401 0000 f401 0000 f401 0000 f401 0000
00000270: 2fc4 a942 5a09 b442 5b93 4540 c19a 6741
00000280: f401 0000 f401 0000 f401 0000 f401 0000
00000290: 9a8d a142 eddb d941 4a31 db3f c96b cf40
000002a0: 62b3 de3e f32a 563e c746 b83b b417 443e
000002b0: 6aa0 b12f b2ea d22e eb0c fb2b 755a 342c
000002c0: f401 0000 f401 0000 f401 0000 f401 0000
000002d0: b739 863f bc91 8f3f a5c6 863b f6c5 ab3e
000002e0: 046f 7544 8fc4 1745 384f 8a42 0015 8243
000002f0: 7ddd f83f 500d 1f3f b0ed 133c a2ff 313d
00000300: f401 0000 f401 0000 f401 0000 f401 0000
00000310: ecdb 2341 5190 3441 850c c23e 5652 e73f
00000320: b496 2b40 a2cc 5540 b3e7 f43d 1102 3f3f
00000330: 76cf 8a39 bbe7 d639 a278 1438 48e2 9c39
00000340: eafd 8a38 2781 2139 d095 2035 21e9 f436
00000350: f1a7 4f42 d126 5d42 78e5 f13f 9018 0d41
00000360: 0000 0000 0000 0000 0000 0000 0000 0000
00000370: 97fc 4038 f7fb a838 98a3 9434 8808 0138
00000380: e867 8d3e 2764 c23e 9e6d 4d3c b718 593d
00000390: f401 0000 f401 0000 f401 0000 f401 0000
000003a0: dcc2 412c 00a7 202c d139 f228 a5f6 5529
000003b0: 0063 aa41 85cc aa41 0889 433f 2a4a 5e40
000003c0: f401 0000 f401 0000 f401 0000 f401 0000
000003d0: f401 0000 f401 0000 f401 0000 f401 0000
000003e0: aef6 4b41 5a8a 4b41 be01 023f 4dc5 6640
000003f0: e12a 3f1f 3054 ce1c 4da8 401a 759b 171e
19.25845 20.086079 0.68648875 3.1821127 0.85809577 0.52388173 0.008020528 0.19012073
1.178974 6.8008747 0.6319641 39.239056 12.674114 16.634804 0.5902432 2.0993862
7e-43 7e-43 7e-43 7e-43 2.1595578 1.7663808 0.09268865 1.0330567
1.24739125e-11 1.0342501e-11 1.2182853e-13 2.152257e-13 49.47107 53.646133 1.8342519 8.562705
4.1304216 4.2954326 0.14744358 0.6925079 7e-43 7e-43 7e-43 7e-43
0.09808051 0.1239963 0.00025413133 0.0023039773 968.785 1158.3236 44.649204 167.35263
0.07476897 0.09085881 0.00020681758 0.0014389483 0.3087968 0.10808774 0.004628938 0.14353675
7e-43 7e-43 7e-43 7e-43 0.35147285 0.35086772 0.0038125133 0.13278233
0.26524428 0.17048168 0.0025228676 0.022527015 5.698158e-32 4.5478915e-32 1.7226257e-34 8.840538e-34
6.9321384e-09 6.9827424e-09 2.1799345e-11 3.2376105e-10 5.5124235 5.4654837 0.22581178 0.87504375
7e-43 7e-43 7e-43 7e-43 32.69161 8.814524 0.085271165 0.6999117
0.38057673 0.2104341 0.025128625 0.52290595 301.55707 169.14783 10.329712 44.067204
6.5220504 6.555193 0.22810964 1.0453352 38.363148 96.60647 2.7125497 9.5929365
9.280614 2.5407073 0.02900724 0.2497463 60.486008 38.897858 0.16289638 1.0854704
3.8290298 1.6099129 0.04384793 2.128763 0.002410471 0.038372383 0.00053298916 0.0019795583
0.8575215 0.18626383 0.039675966 0.6922097 7e-43 7e-43 7e-43 7e-43
20.340462 20.689425 0.77868813 4.622205 7e-43 7e-43 7e-43 7e-43
1.8029855 6.7575397 0.07708475 30.763905 32.69032 34.614895 1.1794387 5.527614
15.975365 17.308237 0.6658974 2.5849597 2.7907126 3.0182934 0.106241085 0.50249815
7e-43 7e-43 7e-43 7e-43 84.88317 90.018265 3.0871189 14.475282
7e-43 7e-43 7e-43 7e-43 80.776566 27.232386 1.7124417 6.4819074
0.43496233 0.20914821 0.0056236717 0.19149667 3.2310093e-10 9.5913846e-11 1.7838208e-12 2.5629752e-12
7e-43 7e-43 7e-43 7e-43 1.0486363 1.121635 0.0041130357 0.3354947
981.7346 2428.285 69.154724 260.16406 1.9442593 0.6212969 0.009028837 0.04345668
7e-43 7e-43 7e-43 7e-43 10.241192 11.2852335 0.37900177 1.8072002
2.6810732 3.3406148 0.119582556 0.7461253 0.00026475982 0.00040989913 3.5398298e-05 0.0002992323
6.627648e-05 0.0001540227 5.982265e-07 7.2989064e-06 51.914005 55.287907 1.8898153 8.818497
0.0 0.0 0.0 0.0 4.601161e-05 8.0577964e-05 2.7686178e-07 3.0763942e-05
0.27618337 0.37967035 0.012538342 0.053002086 7e-43 7e-43 7e-43 7e-43
2.7535118e-12 2.2830071e-12 2.6892471e-14 4.750943e-14 21.29834 21.349863 0.7638097 3.4732766
7e-43 7e-43 7e-43 7e-43 7e-43 7e-43 7e-43 7e-43
12.747725 12.721277 0.5078391 3.6057923 4.0481292e-20 1.3653698e-21 3.9840622e-23 8.026021e-21

exp_avg f4 [64]
00000000: c5a8 0d40 b248 ed3c 3d6b 98bf 050f 1140
00000010: 0400 0000 bb7c 2e3f 0400 0000 537e 6b40
00000020: eb29 873f 0400 0000 0400 0080 589c c3c1
00000030: 0400 0080 35bf aa3e 0400 0000 83af 123e
00000040: 66c2 193d 0400 0000 0400 0000 4c74 f2bf
00000050: 0400 0000 8bc2 df3e f16e 4d3d 5825 8ec1
00000060: fc5f b73f d7fe 0cc0 cf1f 8d3e b4d6 cbbf
00000070: 2058 073e 9676 8033 e38b 063d 0400 0000
00000080: 5c9d 1140 0400 0000 cfe7 193f cfb8 3e40
00000090: 4a80 16c0 4270 6e3f 0400 0000 a406 9940
000000a0: 0400 0000 04dc 9cc0 d122 ef3e 0400 0000
000000b0: 0400 0000 da01 5fbd 35d5 34c1 a0e5 033e
000000c0: 0400 0000 038e c73f 2982 31bf 0400 0000
000000d0: 0400 0080 94ec 7240 0000 0000 8119 6cb8
000000e0: 3423 7b3e 0400 0000 0400 0000 7aea 0d40
000000f0: 0400 0000 0400 0000 f62e ec3f 0400 0000
2.2134259 0.028965328 -1.1907727 2.2665417 6e-45 0.68159074 6e-45 3.6795852
1.0559667 6e-45 -6e-45 -24.45134 -6e-45 0.33349004 6e-45 0.14324765
0.03753891 6e-45 6e-45 -1.8941741 6e-45 0.43703112 0.05015463 -17.768234
1.4326167 -2.2030542 0.2756333 -1.5924897 0.13217211 5.982035e-08 0.03284825 6e-45
2.2752295 6e-45 0.60119337 2.9800298 -2.3515801 0.9314004 6e-45 4.7820606
6e-45 -4.9018574 0.4670625 6e-45 6e-45 -0.054445125 -11.3020525 0.12880564
6e-45 1.5590214 -0.69339234 6e-45 -6e-45 3.7956896 0.0 -5.6290537e-05
0.24525148 6e-45 6e-45 2.2174363 6e-45 6e-45 1.8451831 6e-45
