CartPole/Experiment_1/23-09-26_22-10-39-937242_DQN/checkpoints/agent_18500.pt (torch, 82571 bytes, 24 tensors)

net.0.weight f4 [64, 4]
0	0xbd269c88	-0.040676624
1	0x3ddbdb4b	0.10735186
2	0x3d8eec87	0.06978708
3	0xbcc3394f	-0.023831038
4	0x3dc9504a	0.09829767
5	0xbda6184a	-0.081101015
6	0x3e917935	0.28412786
7	0xbcd9dc78	-0.026594386
8	0xbdc5bc9c	-0.09655115
9	0x3d82ef6b	0.063933216
10	0x3fe73435	1.8062807
11	0x3e35fbe2	0.17771867
12	0xbe70ac13	-0.23503141
13	0x3e185c06	0.14878854
14	0x3f97b8cd	1.1853272
15	0x3d9dc883	0.0770426
16	0xbdabbce6	-0.08385639
17	0xbca87ed7	-0.020568294
18	0x3d46d10c	0.048539206
19	0x3b36b272	0.0027877358
20	0x3e5aa2ce	0.21351168
21	0xbe83e847	-0.2576315
22	0xbf7ed88f	-0.9954919
23	0xbe260564	-0.16212994
24	0xbd93e1a2	-0.072207704
25	0x3dca328a	0.09872921
26	0xbf102b0e	-0.56315696
27	0x3dc1825f	0.094486944
28	0xbddfbdf0	-0.109248996
29	0x3bbc5277	0.0057471353
30	0x3b6ec0c2	0.003643081
31	0x3c8ae0c2	0.016952876
32	0x3aef4d27	0.0018257246
33	0xbd978eed	-0.07400308
34	0x3d205fee	0.039153986
35	0xbd1c309c	-0.038132295
36	0xbe68df0c	-0.22741336
37	0x3af1e842	0.0018456059
38	0xbc2d10e4	-0.010563109
39	0x3dc84783	0.09779265
40	0xbe139e2b	-0.14415805
41	0xbd6cc3f9	-0.05780408
42	0xbfa2e05f	-1.2724723
43	0xbd8b7f6b	-0.068114124
44	0x3db75c2b	0.089531265
45	0x3c08a116	0.008339187
46	0xbf931b70	-1.1492748
47	0x3ea90b44	0.33016407
48	0xbe8a53fa	-0.27017194
49	0xbd3e6f02	-0.046492584
50	0x3f522655	0.8208974
51	0x3b8d5891	0.0043135365
52	0xbdfa2b6b	-0.122153126
53	0x3e3a087d	0.181673
54	0x3f761498	0.96125174
55	0xbe96eae5	-0.29476085
56	0x3cdbbc6f	0.02682325
57	0xbc0dfd9e	-0.008666424
58	0xbe3e6afc	-0.18595499
59	0xbcb08688	-0.021548524
60	0x3cd4829d	0.025941188
61	0xbc7cd636	-0.015431931
62	0x3ec1c45d	0.37845126
63	0x3d71bb99	0.059016798
64	0xbe538d80	-0.20659447
65	0xbd562b34	-0.052287295
66	0xbf85d9f4	-1.0457139
67	0x3e8085ef	0.25102183
68	0x3e919ed1	0.2844148
69	0xbd0100bc	-0.03149484
70	0xbf06f32e	-0.5271481
71	0xbd29f9bf	-0.041497942
72	0x3d456eee	0.048201494
73	0xbd2e0546	-0.042485498
74	0xbdc4e5d7	-0.09614151
75	0xbd03ed90	-0.03220898
76	0xbe532aca	-0.20621791
77	0xbe2a6e7e	-0.16643712
78	0xbeb0e4c3	-0.3454953
79	0xbe08e13a	-0.13367167
80	0x3db4d7cf	0.08830225
81	0x3e2719d6	0.1631845
82	0xbeee74d1	-0.465735
83	0xbdb9f44f	-0.09079801
84	0x3eabbdbe	0.335432
85	0x3db24f30	0.0870651
86	0xbe2beb4d	-0.16788979
87	0x3d0321a2	0.032014497
88	0x3dd811fe	0.10550307
89	0xbe85a508	-0.2610247
90	0xbf57c415	-0.8428357
91	0xbe4c33d2	-0.19941643
92	0x3e87747d	0.2645606
93	0x3d36e82b	0.044655006
94	0xbf78fb8e	-0.9725884
95	0xbb3c2712	-0.002870981
96	0xbda06917	-0.07832544
97	0x3ded1fa4	0.115783006
98	0x3fa3c114	1.2793298
99	0x3ddd5697	0.10807531
100	0xbe36f48d	-0.17866726
101	0xbd8b4c24	-0.06801632
102	0xbe6a903d	-0.22906585
103	0x3e6326ce	0.22182772
104	0x3deec0f1	0.116578944
105	0x3df2563e	0.11832856
106	0x3f637076	0.88843477
107	0x3dbfc13d	0.09363029
108	0x3ef787c1	0.4834576
109	0xbd14eb12	-0.036356993
110	0x3e9bfddd	0.3046712
111	0xbd651ade	-0.055933826
112	0x3e9e5d32	0.30930477
113	0xbe87c0be	-0.26514238
114	0x3f7e1980	0.9925766
115	0x3dc0df79	0.09417624
116	0x3cbd01ab	0.023072084
117	0xbe0dcea4	-0.13848358
118	0xbdf1f58d	-0.11814413
119	0xbeacc985	-0.33747497
120	0xbe6f4ecb	-0.23369901
121	0x3e4dbfef	0.20092748
122	0x3f3b223b	0.73099107
123	0xbe048e87	-0.12944995
124	0xbce9cdfb	-0.028540602
125	0xbca8e962	-0.020619098
126	0x3cee4ba6	0.029088806
127	0xbd910174	-0.07080355
128	0x3ce7508e	0.028236654
129	0x3b30c2c6	0.0026971563
130	0xbf804fa8	-1.0024309
131	0xbdf2584a	-0.11833246
132	0xbb608fed	-0.0034265474
133	0x3d68824d	0.05676489
134	0xbc98911a	-0.018623877
135	0x3d4d5eb8	0.05013916
136	0xbda99484	-0.0828028
137	0xbc92d09c	-0.017921738
138	0x3f3e1fa7	0.7426705
139	0x3ea330b9	0.3187311
140	0x3dddada7	0.10824137
141	0xbc827eab	-0.01592954
142	0xbdcc0996	-0.09962766
143	0x3c5fe18c	0.013664614
144	0x3cf769bd	0.030201787
145	0xbd930c06	-0.07180028
146	0xbfd826ea	-1.6886876
147	0xbea57984	-0.32319272
148	0xbda6a018	-0.08136004
149	0x3d8ee022	0.06976344
150	0x3f82dc5e	1.0223501
151	0xbcdacd88	-0.026709333
152	0xbd470740	-0.0485909
153	0x3d862842	0.06550647
154	0xbe555a81	-0.20835306
155	0x3e2470f0	0.16058707
156	0x3dca16be	0.09867619
157	0xbdbb7ca1	-0.091546305
158	0xbd4f747e	-0.050648205
159	0xbc44ae04	-0.012004379
160	0xbe31b2ab	-0.17353313
161	0xbda26a1f	-0.07930397
162	0xbe668b17	-0.22513996
163	0xbdb84cb6	-0.089990065
164	0x3e8bc1fc	0.27296436
165	0xbe2dd7d0	-0.16976857
166	0xbfea1ee8	-1.8290682
167	0xbe65aaa0	-0.2242837
168	0xbe17bbba	-0.14817706
169	0x3e346c46	0.17619428
170	0x3f920929	1.1409045
171	0x3cb34bb9	0.021886693
172	0xbe1fcf99	-0.15606536
173	0x3e9c81f0	0.30567884
174	0x3ed83b66	0.42232817
175	0xba454e27	-0.0007526599
176	0x3c267340	0.010159314
177	0xbd728ab3	-0.059214305
178	0xbde790a0	-0.11306882
179	0xbd30f91f	-0.04320633
180	0x3d17cc67	0.037060168
181	0x3e109809	0.14120497
182	0x3f9aee04	1.2103887
183	0x3e6b9090	0.23004365
184	0x3dfd8d2e	0.123804435
185	0xbe03bf57	-0.12865959
186	0xbff4cb42	-1.9124529
187	0xbe9c9aec	-0.30586946
188	0x3e55014f	0.2080128
189	0xbe442ba2	-0.1915727
190	0xbe67de80	-0.22643471
191	0x3d5515be	0.052022688
192	0xbc300a8e	-0.010744704
193	0x3d350771	0.04419655
194	0xbaca703c	-0.0015444825
195	0x3d1f4f19	0.038893793
196	0xbdd7a971	-0.10530365
197	0x3d1097c2	0.035300978
198	0xbe791028	-0.2432257
199	0xbc34aacc	-0.011027049
200	0x3dbd1c5b	0.09233924
201	0xbd93a3e1	-0.07208992
202	0xbf251d77	-0.64498085
203	0xbde1016d	-0.109866
204	0xbf1c4938	-0.6104922
205	0xbd93fa9c	-0.07225534
206	0x3f8811c7	1.0630425
207	0x3de8671b	0.11347791
208	0xbd244185	-0.040101547
209	0x3e0b64bb	0.13612644
210	0x3f8751f2	1.0571883
211	0x3e716abe	0.23575875
212	0xbd198c0b	-0.03748707
213	0xbd5fbfd9	-0.05462632
214	0x3e71e3a0	0.23621988
215	0xbc747445	-0.014920299
216	0x3d17a547	0.037022855
217	0x3c7d8a22	0.015474828
218	0xbd539612	-0.05165679
219	0x3c93c053	0.018036043
220	0xbe114c24	-0.14189202
221	0x3e866f30	0.26256704
222	0x3f52477b	0.8214032
223	0xbdfb1139	-0.12259144
224	0x3e58a415	0.21156342
225	0xbe3cd324	-0.18439919
226	0xbf5fbff7	-0.8740229
227	0x3e99752e	0.29972214
228	0x3d0d8876	0.034553967
229	0xbdf84d94	-0.12124172
230	0xbee25728	-0.4420712
231	0x3d4ea952	0.050454445
232	0xbcee554a	-0.029093403
233	0x3da8a5d7	0.082347564
234	0xbd94153d	-0.072306134
235	0x3d3b9a91	0.045801703
236	0x3defc5b9	0.117076345
237	0xbd866d56	-0.06563823
238	0xbf203b86	-0.62590826
239	0xbe406eaa	-0.18792215
240	0x3df02873	0.11726465
241	0xbc4c498a	-0.012468705
242	0x3f82efe2	1.0229456
243	0x3c97d8b0	0.018535942
244	0xbcc5b03c	-0.024131887
245	0x3c82b4d1	0.01595536
246	0xbd696f4f	-0.056990918
247	0xbcef8bae	-0.02924141
248	0x3e1d5523	0.15364508
249	0xbe2141f1	-0.15747811
250	0xbf9e6918	-1.2375822
251	0xbe213679	-0.15743436
252	0x3e2fa994	0.17154533
253	0xbe001e69	-0.125116
254	0x3ed6eeb7	0.41979
255	0xbbd00c5d	-0.00634913

net.0.bias f4 [64]
0	0x3eb9d083	0.36291894
1	0x3e7f84b9	0.24952973
2	0xbe92a6f7	-0.2864301
3	0xbd2e29a1	-0.04252017
4	0xbe97ed58	-0.29673266
5	0x3e8742a9	0.26418045
6	0xbe2351de	-0.15949199
7	0x3ef031d2	0.4691301
8	0x3ea7c089	0.3276408
9	0xbebd5586	-0.36979312
10	0xbebbc816	-0.3667609
11	0xbd05538f	-0.03255039
12	0xbf0eaa4e	-0.55728614
13	0xbe8e29ab	-0.27766165
14	0xbe160f2c	-0.14654225
15	0x3e5854c6	0.21126089
16	0xbe493053	-0.1964734
17	0xbe6b0e78	-0.22954738
18	0xbdb7eabb	-0.08980318
19	0xbe9332f8	-0.28749824
20	0xbea59813	-0.32342586
21	0xbf38118e	-0.71901786
22	0x3dbb7260	0.09152675
23	0xbf0ef70d	-0.5584572
24	0x3e4df5a7	0.2011324
25	0xbf0bc012	-0.5458995
26	0xbf0f6f35	-0.56029063
27	0xbf291b01	-0.6605683
28	0xbdbfa1af	-0.093570106
29	0xbe22ad29	-0.15886368
30	0x3d073244	0.03300692
31	0xbe865453	-0.2623621
32	0x3e995dac	0.29954278
33	0xbe0bf7f1	-0.13668801
34	0xbeb92831	-0.36163476
35	0x3ed503e0	0.4160452
36	0x3db02b08	0.086019576
37	0x3d1241c6	0.035707258
38	0xbe995e25	-0.2995464
39	0x3f0cb5fc	0.54965186
40	0xbf069d6c	-0.52583957
41	0xbebdecaa	-0.37094623
42	0x3d95fe0a	0.07323845
43	0xbe929668	-0.28630376
44	0xbdf5285b	-0.11970588
45	0x3e9c750f	0.3055806
46	0xbec5bf3f	-0.38622472
47	0xbebe344c	-0.37149274
48	0xbdfd13ab	-0.12357267
49	0x3eabed4a	0.33579475
50	0x3e2c74e4	0.16841465
51	0xbec8a534	-0.3918854
52	0xbe5c7360	-0.21528387
53	0x3eee9037	0.46594402
54	0xbe9390b7	-0.28821346
55	0xbe6fe7c1	-0.23428251
56	0x3cf93c6c	0.03042432
57	0xbeca057d	-0.39457312
58	0xbe0f9147	-0.14020263
59	0x3ec5ddaf	0.38645694
60	0xbf05a6cb	-0.5220763
61	0xbe4071bf	-0.1879339
62	0x3e918ca4	0.28427613
63	0xbeb4f382	-0.35342032

net.2.weight f4 [64, 64]
0	0xbe403f78	-0.18774211
1	0xbe306cf4	-0.17229062
2	0x3ed5c341	0.4175053
3	0x3df69c76	0.12041561
4	0x3cd3da65	0.025860975
5	0xbe227151	-0.1586354
6	0xbefbb88b	-0.49164233
7	0xbe8e559e	-0.27799696
8	0xbdd64ca5	-0.104638375
9	0x3d2a85a3	0.041631352
10	0xbd3af644	-0.045645013
11	0xbe83890d	-0.256905
12	0xbe91b578	-0.28458762
13	0xbd715769	-0.05892125
14	0xbe2d6344	-0.16932398
15	0xbdd477a2	-0.10374381
16	0xbd8d1e2c	-0.068905205
17	0xbf129a4e	-0.572667
18	0xbe1a759d	-0.15083928
19	0xbe6525b5	-0.22377665
20	0x3ad174b9	0.0015980221
21	0x3d921e4b	0.07134684
22	0xbf26769a	-0.6502472
23	0xbf53d4b2	-0.8274642
24	0x3e6ca967	0.23111497
25	0xbef5834c	-0.47951734
26	0x3f1f7753	0.6229145
27	0x3e766b76	0.2406443
28	0xbeeb3908	-0.4594195
29	0xbaa24551	-0.0012380277
30	0x3db6e267	0.089299016
31	0x3e06d3bb	0.13166706
32	0xbf2719ff	-0.6527404
33	0x3d92c224	0.07165936
34	0xbea08740	-0.31353188
35	0x3d5b5503	0.05354787
36	0xbdf0a620	-0.11750436
37	0xbda4d84c	-0.08049068
38	0xbe67846b	-0.22609107
39	0xbe512d10	-0.20427346
40	0x3d9dfcbb	0.0771422
41	0xbe83d683	-0.25749597
42	0x3c62ecab	0.013850371
43	0xbe12431c	-0.14283413
44	0x3d058a4d	0.032602597
45	0x3f0219dc	0.5082071
46	0x3d94f8fe	0.07274054
47	0x3d94cd1d	0.07265685
48	0xbd5dc53f	-0.054143187
49	0xbe289aa2	-0.16465238
50	0xbdda6ad7	-0.10664909
51	0xbefc9a78	-0.493366
52	0xbdca5b5c	-0.09880707
53	0xbe0cb257	-0.13739906
54	0x3dde4d07	0.108545355
55	0x3dfd5d58	0.123713195
56	0xbd3808bf	-0.044930216
57	0xbedf09df	-0.4356222
58	0xbb9e0a33	-0.004822993
59	0xbf02822e	-0.5097989
60	0x3fc47ea1	1.5351144
61	0xbc21964c	-0.009862494
62	0xbe6a62f0	-0.22889304
63	0x3ee54d9e	0.4478578
64	0x3dbfd13e	0.09366082
65	0x3ded9b3d	0.11601875
66	0xbe4d6e4e	-0.20061609
67	0x3e4ae171	0.19812562
68	0x3c540665	0.012940978
69	0x3d6f03a7	0.058353093
70	0xbb7eafe7	-0.003886217
71	0xbe1d225f	-0.15345143
72	0xbe179d43	-0.14806084
73	0xbc3e464d	-0.011613441
74	0xbdb35124	-0.08755711
75	0xbdbc7b37	-0.09203189
76	0x3deb5ca1	0.11492277
77	0xbdb6d7e5	-0.08927897
78	0x3d35ad9a	0.044355012
79	0xbdfe0d8a	-0.12404926
80	0x3d487d6e	0.048947744
81	0x3d164014	0.036682203
82	0xbd47053b	-0.048588973
83	0xbe0eb995	-0.13937981
84	0xbd8a6b35	-0.06758729
85	0xbd12d5ee	-0.03584855
86	0xbbc20b4d	-0.0059217573
87	0xbe178692	-0.14797428
88	0xbd97d56e	-0.07413755
89	0x3d567fb9	0.0523679
90	0x3e27259e	0.16322944
91	0xbe27645b	-0.16346876
92	0xbdb72f15	-0.08944527
93	0xbdab4d55	-0.08364359
94	0xbd714004	-0.05889894
95	0xbd518ac0	-0.051157713
96	0xbe35e69f	-0.17763756
97	0x3cbeb1b7	0.0232781
98	0xbd70bc3c	-0.058773264
99	0xbd183b7b	-0.0371661
100	0xbe5b6c0a	-0.21427932
101	0x3e2c70f7	0.16839968
102	0x3e7e67c5	0.24844272
103	0xbe606da7	-0.21916829
104	0xbc21b3ed	-0.009869558
105	0xbd6b906b	-0.057510775
106	0xbd931678	-0.0718202
107	0x3cbb1238	0.022835836
108	0x3dbdef73	0.09274187
109	0xbb278748	-0.0025562812
110	0xbe3085e5	-0.17238577
111	0xbe3909e6	-0.18070182
112	0x3e464404	0.19361883
113	0xbe284df3	-0.16435985
114	0xbe07ab2a	-0.13248888
115	0xbd579669	-0.052633677
116	0xbd0cbbd7	-0.034358826
117	0xbc6eced0	-0.014575675
118	0x3e1143eb	0.14186065
119	0xbd9a7b49	-0.07543046
120	0xbe4e07eb	-0.20120208
121	0xbd7c7e56	-0.06164392
122	0x3e44c939	0.19217385
123	0x3ddb490f	0.10707294
124	0x3e1696cd	0.14705963
125	0xbdd47d6f	-0.10375487
126	0xbe51a182	-0.20471767
127	0x3dc3f694	0.095685154
128	0xbe43bcc7	-0.19114982
129	0xbf32539f	-0.69658846
130	0xbeb4aa8a	-0.3528636
131	0xbf6d572e	-0.9271115
132	0xbdbc5780	-0.09196377
133	0xbf180b7e	-0.59392536
134	0x3d7ae970	0.06125778
135	0xbe23d1cb	-0.15997998
136	0xbe2c9e4f	-0.16857265
137	0x3f39daee	0.72599685
138	0x40221030	2.532238
139	0xbede6c80	-0.43442154
140	0x3fac1c91	1.3446218
141	0xbf4401a1	-0.76564986
142	0x3de72cc8	0.11287838
143	0xbeb7d8aa	-0.3590749
144	0xbe8bc0be	-0.27295488
145	0xbd41a940	-0.04728055
146	0x3c813acb	0.015775105
147	0xbee3ea3d	-0.44514647
148	0xbed3eeba	-0.4139307
149	0xbdb6deb7	-0.08929198
150	0xbe8befad	-0.27331296
151	0x3f26c7ec	0.65148807
152	0xbec25394	-0.3795439
153	0x3d246758	0.04013762
154	0x3f090d36	0.53535783
155	0xbe271f3f	-0.16320513
156	0x3c2f8337	0.010712436
157	0x3df23554	0.11826578
158	0xbf309441	-0.6897622
159	0x3d72f472	0.059315152
160	0xbe97f6f4	-0.29680598
161	0x3e18a2f0	0.14905906
162	0x3e07b519	0.13252677
163	0xbef37bd5	-0.47555414
164	0x3f21f85b	0.63269585
165	0xbe4dce9c	-0.20098346
166	0x3ea68726	0.32524985
167	0xbe1dc03e	-0.15405366
168	0x3fa40b0d	1.2815872
169	0x3f6efe84	0.9335711
170	0xbd9e9fd4	-0.077453285
171	0xbd847268	-0.06467134
172	0x3d9a3359	0.07529325
173	0xbea474bb	-0.32120308
174	0x3e9612e1	0.29311278
175	0xbe6537c1	-0.2238455
176	0xbdd3bf02	-0.10339166
177	0x3d3bdb06	0.045863174
178	0xbf4b8061	-0.79492766
179	0x3f5b0b28	0.855639
180	0x3e277300	0.16352463
181	0xbe0c9928	-0.137303
182	0xbd0db1e3	-0.034593474
183	0xbef833b1	-0.48476937
184	0xbf87e72e	-1.0617425
185	0xbe92851c	-0.2861718
186	0xbd929497	-0.071572475
187	0xbf62a515	-0.88533145
188	0x3f2ff9fc	0.6874082
189	0xbd763240	-0.060106516
190	0xbf57be21	-0.8427449
191	0x3ead8522	0.33890635
192	0xbcd7e058	-0.026352093
193	0x3d763617	0.060110178
194	0xbd526e77	-0.05137488
195	0x3d5bfe70	0.053709447
196	0xbdbd22ac	-0.09235129
197	0xbd153e99	-0.03643665
198	0x3cf23e41	0.0295707
199	0xbdd88f27	-0.10574179
200	0xbdb7d5c9	-0.08976323
201	0xbd81c470	-0.063362956
202	0xbc6dd583	-0.014516237
203	0xbc4982b3	-0.0122992275
204	0x3dd6ec3f	0.10494279
205	0xbdb8efc2	-0.09030105
206	0xbde15db8	-0.110042036
207	0x3c1d83e1	0.009613962
208	0x3cd30911	0.02576116
209	0xbdbd8008	-0.09252936
210	0x3df47dbb	0.11938044
211	0xbe3660b4	-0.17810327
212	0xbd0ee2a1	-0.0348841
213	0xbd5b36ea	-0.053519167
214	0x3cc8b884	0.024502046
215	0xbdad3947	-0.084581904
216	0xbe5431df	-0.2072215
217	0x3d2eb346	0.042651437
218	0xbd359ef7	-0.044341054
219	0x3d8a17ac	0.06742796
220	0x3e1e50f8	0.15460575
221	0x3c919e72	0.017775748
222	0x3cf43e9f	0.029815016
223	0xbdfe9c1a	-0.12432118
224	0xbcfa60cf	-0.03056374
225	0x3e81424c	0.25245893
226	0x3c0333e9	0.008007982
227	0xbe572c04	-0.21012884
228	0xbd53269f	-0.051550504
229	0xbdf536d2	-0.11973347
230	0xbd281723	-0.04103769
231	0xbe34319a	-0.17597046
232	0xbce39ffd	-0.02778625
233	0x3d55c6b8	0.052191466
234	0xbc23120e	-0.009953035
235	0xbd99ca83	-0.07509329
236	0x3b64ac22	0.0034892638
237	0xbd3850d8	-0.044998974
238	0xbd6d9760	-0.05800569
239	0x3d906826	0.07051115
240	0x3e64ec15	0.22355683
241	0xbd3f3207	-0.04667857
242	0xbdbeb091	-0.09311021
243	0xbe0c933c	-0.1372804
244	0xbd783c14	-0.06060417
245	0x3d14ce67	0.036329653
246	0xbcecf56a	-0.028925616
247	0xbb728eb0	-0.0037011318
248	0xbb2c21bb	-0.0026265222
249	0xbd82cc5f	-0.06386637
250	0xbd6ade5d	-0.05734097
251	0xbe19e2fd	-0.15027995
252	0xbd313eec	-0.043272898
253	0x3b53aff7	0.0032300928
254	0x3de0f563	0.10984304
255	0x3da968fe	0.08271979

net.2.bias f4 [64]
0	0xbe0d5550	-0.13802075
1	0x3d82d0c8	0.06387478
2	0xbe7b51dc	-0.24542946
3	0xbdcd505d	-0.10025094
4	0x3f0318af	0.5120954
5	0x3ec9d97c	0.3942374
6	0xbe2e250f	-0.17006324
7	0x3e9b2b39	0.30306414
8	0xbe0bf1d8	-0.13666475
9	0x3f297667	0.6619629
10	0x3e70ef3d	0.23528762
11	0x3edc9070	0.43078947
12	0x3eeea612	0.46611077
13	0x3eaafa27	0.33393976
14	0xbe9dca4d	-0.30818406
15	0x3d9b7b5e	0.0759189
16	0xbdfc6c27	-0.12325316
17	0x3ec7bd41	0.39011577
18	0xbb561867	-0.0032668354
19	0x3ee84d7a	0.4537161
20	0x3c1f4a34	0.009722281
21	0xbd5f9c1a	-0.05459223
22	0x3efdca3b	0.49568352
23	0x3ebfa3e0	0.37429714
24	0x3ee7f68a	0.45305282
25	0x3d30a615	0.04312714
26	0x3e8bbf29	0.2729428
27	0x3e21a60e	0.15786001
28	0xbd34d7d1	-0.04415113
29	0x3eb53f0a	0.35399657
30	0xbde9b8d8	-0.11412209
31	0x3eff108f	0.4981732
32	0xbdd1e15f	-0.10248064
33	0x3ec72e70	0.38902617
34	0xbdbafafd	-0.091299035
35	0xbd6505a9	-0.0559136
36	0x3ef75805	0.4830934
37	0xbd9c1e4c	-0.07622966
38	0x3ecbfc33	0.3984085
39	0x3ef26f12	0.47350365
40	0xbe99dc15	-0.30050722
41	0x3ec2d2bb	0.380514
42	0xbd937e3c	-0.07201812
43	0xbe04f11a	-0.12982598
44	0x3ef9f670	0.4882083
45	0x3ed51ec9	0.4162505
46	0xbdeee0a2	-0.11663939
47	0x3ef6a794	0.48174727
48	0xbd86752e	-0.06565319
49	0xbda37431	-0.07981146
50	0x3f14a30b	0.58061284
51	0x3f07bd9c	0.53023696
52	0xbdf5ffd3	-0.12011685
53	0xbcf2eed5	-0.0296549
54	0xbddeb0cf	-0.10873567
55	0x3eeda2e4	0.46413338
56	0xbd3ebf00	-0.04656887
57	0x3f0c2d6c	0.5475681
58	0xbe0d32a0	-0.13788843
59	0xbdd53735	-0.104109205
60	0x3f06d2ed	0.526656
61	0xbe23cf96	-0.15997157
62	0x3ed0db8b	0.40792498
63	0x3ea511eb	0.32240233

net.4.weight f4 [2, 64]
0	0xbf1857d9	-0.59509045
1	0xbdd6e9b1	-0.10493792
2	0xc016f252	-2.35854
3	0x3e251baa	0.16123834
4	0x3f453c97	0.7704558
5	0x3f6944b9	0.9112049
6	0xc054ef30	-3.3270988
7	0x3f440492	0.76569474
8	0x3e7f79b1	0.24948765
9	0x3f7c4811	0.98547465
10	0xc01ee64d	-2.4828064
11	0x3f677249	0.9040876
12	0x3eed9ea1	0.46410087
13	0x3f87736f	1.0582103
14	0xbfe731a8	-1.8062029
15	0x3c8cfe93	0.017211234
16	0x3d87dbf1	0.06633747
17	0x3f38a709	0.72129875
18	0x3d983e3e	0.07433747
19	0x3f96ada3	1.177174
20	0xbd214bd1	-0.039378945
21	0xbdf946b9	-0.121716924
22	0x3f15f857	0.5858206
23	0x3f8d4336	1.1036136
24	0x3fa4a047	1.2861413
25	0xbcb7d69d	-0.022441203
26	0x3f609578	0.8772807
27	0xbdb40edf	-0.08791899
28	0x3d995331	0.074865706
29	0x3f90a1e7	1.1299409
30	0xc031c3fc	-2.777587
31	0x3f791d79	0.97310597
32	0xc0755d84	-3.8338327
33	0x3edbdede	0.42943472
34	0xbf9da93b	-1.231727
35	0xc02fbbb9	-2.7458327
36	0x3f52898b	0.82241124
37	0x3e5813d2	0.21101311
38	0x3f525170	0.82155514
39	0x3f42b38e	0.7605523
40	0xbe8fcdb3	-0.28086624
41	0x3f48e7ba	0.78478587
42	0x3ea58c06	0.32333392
43	0xbd1becfc	-0.038067803
44	0xbbaccd02	-0.0052734623
45	0x3f4d1f0f	0.80125517
46	0x3d2ef978	0.04271838
47	0x3f4c3a4d	0.7977646
48	0xbc56b21e	-0.01310399
49	0xbce54262	-0.027985755
50	0x3f7935fb	0.9734799
51	0x3f6b1569	0.91829544
52	0xbd890f9a	-0.06692429
53	0xbffc3a91	-1.9705373
54	0xbccebc78	-0.025236353
55	0x3f40f0bb	0.75367326
56	0x3c1da785	0.009622459
57	0x3f7acded	0.9797047
58	0xbb9edbb9	-0.0048479703
59	0xbd9d6e5d	-0.07687066
60	0x3f36f21b	0.71463174
61	0xbad85967	-0.0016506136
62	0x3eba8da0	0.36436176
63	0x3f611e03	0.8793642
64	0x3f4e9848	0.8070111
65	0x3cac0b45	0.021001467
66	0xbfcad02a	-1.5844777
67	0xbe0c0973	-0.1367548
68	0x3f77eeaf	0.9684858
69	0x3f6d26ac	0.92637134
70	0xc0727a10	-3.7887
71	0x3ef6cc00	0.48202515
72	0xbe8024bc	-0.25028026
73	0x3f7ffd0e	0.99995506
74	0xc0102bbc	-2.2526693
75	0x3ed0f46d	0.40811482
76	0x3f7dd22c	0.9914882
77	0x3ec1591d	0.377633
78	0xc0424709	-3.0355856
79	0xbe0c2ebf	-0.13689707
80	0x3e28257f	0.16420554
81	0x3f86d103	1.0532535
82	0xbda657ad	-0.081221916
83	0x3f5e865b	0.8692376
84	0x3ca7dc8f	0.020490913
85	0xbe124660	-0.14284658
86	0x3f863c44	1.0487142
87	0x3f9948a0	1.1975288
88	0x3f054a5d	0.52066594
89	0xbe1568c0	-0.1459074
90	0x3f379ae9	0.7172075
91	0x3bff917a	0.0077993246
92	0xbb919f53	-0.0044440418
93	0x3f01fa87	0.507729
94	0xc020b89f	-2.5112684
95	0x3fb6b2b1	1.4273282
96	0xc08b2e89	-4.3494306
97	0x3f7f8bc4	0.9982264
98	0xbf9dbf9f	-1.2324103
99	0xbfbe09e6	-1.4846771
100	0x3f67123e	0.9026221
101	0x3d764223	0.060121667
102	0x3f582eae	0.8444623
103	0x3f15c676	0.5850595
104	0xc03598be	-2.8374476
105	0x3f20c04e	0.62793434
106	0xbe53aa29	-0.2067038
107	0x3da9ab79	0.08284659
108	0x3f914ed3	1.135218
109	0x3e52fc7f	0.20604132
110	0x3ccfef1b	0.025382569
111	0x3f4d21e3	0.8012983
112	0xbc05dff1	-0.008171068
113	0x3d04ffa4	0.03247036
114	0x3f7aecd3	0.98017615
115	0x3fa0d902	1.2566226
116	0xbe1b7a32	-0.15183333
117	0xc029d942	-2.6538854
118	0x3da18450	0.07886565
119	0x3f38cec5	0.72190505
120	0x3d273903	0.040825855
121	0x3e65937f	0.22419547
122	0x3d4b0f11	0.049574915
123	0x3b82422d	0.003975174
124	0x3f5af12a	0.8552424
125	0x3df158fb	0.1178455
126	0x3f85d793	1.0456413
127	0x3f12b33b	0.57304734

net.4.bias f4 [2]
0	0x3ecdd4b4	0.40201342
1	0x3e2862c7	0.1644393

net.0.weight f4 [64, 4]
0	0xbd286712	-0.04111392
1	0x3dd9d7cd	0.10636864
2	0x3d963ba2	0.07335593
3	0xbcb0bd0f	-0.021574525
4	0x3dce7f34	0.10082856
5	0xbda9c3fe	-0.08289336
6	0x3e923747	0.28557798
7	0xbc61eb6d	-0.01378904
8	0xbdbddee3	-0.09271028
9	0x3d7bf99a	0.061517335
10	0x3fe5af80	1.7944183
11	0x3e38d9dc	0.18051857
12	0xbe77e48b	-0.24208276
13	0x3e17818c	0.14795512
14	0x3f974ade	1.1819723
15	0x3d39b0bf	0.045334574
16	0xbdabbd46	-0.083857104
17	0xbca87f96	-0.02056865
18	0x3d46d066	0.048538588
19	0x3b36b43d	0.0027878426
20	0x3e5da6db	0.21645682
21	0xbe80482c	-0.25055063
22	0xbf7bf4f5	-0.9842065
23	0xbe24a51a	-0.16078606
24	0xbd905438	-0.070473135
25	0x3dcdc2da	0.100469306
26	0xbf0fba54	-0.5614369
27	0x3dc5086c	0.09620747
28	0xbddc1497	-0.10746115
29	0x3c16bb94	0.009199996
30	0x3bce304d	0.006292379
31	0x3c2843bd	0.010270056
32	0x3b9ff90a	0.0048819827
33	0xbd8fae1e	-0.07015632
34	0x3d353be9	0.044246588
35	0xbd32855f	-0.043584224
36	0xbe68d3f7	-0.22737108
37	0x3af70bd8	0.0018848134
38	0xbc222a6d	-0.00989781
39	0x3dc94154	0.098269135
40	0xbe13970f	-0.14413093
41	0xbd6c6d93	-0.057721686
42	0xbfa2d760	-1.2721977
43	0xbd8b66df	-0.068067305
44	0x3daf481c	0.08558676
45	0x3c115b24	0.008871827
46	0xbf925b46	-1.1434104
47	0x3ea63156	0.32459515
48	0xbe8a5b17	-0.2702262
49	0xbd3e4ad0	-0.046458066
50	0x3f5251e7	0.82156223
51	0x3b92cb4d	0.0044798017
52	0xbdec8de5	-0.11550502
53	0x3e3f612d	0.18689413
54	0x3f778bdb	0.9669778
55	0xbe95b088	-0.29236245
56	0x3cdbbcc9	0.026823418
57	0xbc0dfda5	-0.008666431
58	0xbe3e6a88	-0.18595326
59	0xbcb08648	-0.021548405
60	0x3ce92d9e	0.028464135
61	0xbc99c2c2	-0.018769626
62	0x3ec0c47a	0.376499
63	0x3d865f22	0.06561114
64	0xbe53a2b6	-0.20667538
65	0xbd501a10	-0.050806105
66	0xbf85cfb4	-1.0454011
67	0x3e7d51f8	0.247383
68	0x3e905d14	0.28196013
69	0xbd18f26c	-0.037340567
70	0xbf081693	-0.53159446
71	0xbd3cba9b	-0.0460764
72	0x3d456ea1	0.048201207
73	0xbd2e05a6	-0.042485856
74	0xbdc4e5e8	-0.09614164
75	0xbd03ed15	-0.03220852
76	0xbe535559	-0.20638026
77	0xbe2a9de3	-0.16661792
78	0xbeb156a3	-0.3463641
79	0xbe095b06	-0.13413629
80	0x3db89eba	0.0901465
81	0x3e1e76dd	0.1547503
82	0xbee6687b	-0.45001587
83	0xbdbec7e7	-0.09315472
84	0x3ea9e8d7	0.33185455
85	0x3da00032	0.07812537
86	0xbe2ed733	-0.1707428
87	0x3ced0fd5	0.028938213
88	0x3dd9face	0.1064354
89	0xbe6cd008	-0.23126233
90	0xbf4b8eb9	-0.7951465
91	0xbe433447	-0.19062911
92	0x3e88e4a4	0.2673694
93	0x3d45bd64	0.04827632
94	0xbf780e9e	-0.96897304
95	0xbc078613	-0.008271712
96	0xbda761d2	-0.081729546
97	0x3dd6827a	0.10474105
98	0x3fa16d04	1.2611394
99	0x3de25a5e	0.110523924
100	0xbe36fe3b	-0.17870419
101	0xbd8b53d8	-0.06803101
102	0xbe6a6359	-0.2288946
103	0x3e63064e	0.22170374
104	0x3deea8ae	0.11653267
105	0x3ddd2208	0.107975066
106	0x3f620103	0.88282794
107	0x3de692bf	0.11258458
108	0x3ef5afd8	0.4798572
109	0xbd223dcc	-0.039609715
110	0x3e9a7348	0.30166078
111	0xbdac07ed	-0.08399949
112	0x3e9c1124	0.30481827
113	0xbe8e8105	-0.2783281
114	0x3f7b2c69	0.9811464
115	0x3ddad0c9	0.10684354
116	0x3cbefd40	0.023314118
117	0xbe0f6810	-0.1400454
118	0xbdf097b5	-0.11747686
119	0xbea907a2	-0.33013636
120	0xbe769e92	-0.24083927
121	0x3e46da36	0.19419178
122	0x3f3a3213	0.7273266
123	0xbe0c9fb4	-0.13732797
124	0xbce9ce5a	-0.028540779
125	0xbca8e9d6	-0.020619314
126	0x3cee4b93	0.029088771
127	0xbd9100be	-0.0708022
128	0x3cee9bb8	0.029126987
129	0x3bc9f8d0	0.006163694
130	0xbf7e0707	-0.9922947
131	0xbded8729	-0.115980454
132	0xbb608ff3	-0.0034265488
133	0x3d688253	0.05676491
134	0xbc98911a	-0.018623877
135	0x3d4d5eb8	0.05013916
136	0xbd6c4142	-0.057679422
137	0x3bdf4754	0.006813923
138	0x3f447194	0.76735806
139	0x3eafe2f8	0.3435285
140	0x3de1781c	0.11009237
141	0xbc5f63bd	-0.013634619
142	0xbdbf8c3c	-0.093529195
143	0x3c8c6c4c	0.017141484
144	0x3c6ab16e	0.014324529
145	0xbd494efc	-0.04914759
146	0xbfd24ff1	-1.6430646
147	0xbeab7d1b	-0.33493885
148	0xbdac5985	-0.08415512
149	0x3d8c401e	0.06848167
150	0x3f8022e4	1.0010648
151	0xbd5561df	-0.05209529
152	0xbd470800	-0.048591614
153	0x3d86282d	0.06550632
154	0xbe555a6a	-0.20835271
155	0x3e24714e	0.16058847
156	0x3dcc5ec8	0.099790156
157	0xbdb8656b	-0.09003719
158	0xbd3af160	-0.04564035
159	0xbc31df83	-0.010856512
160	0xbe31b5b2	-0.17354468
161	0xbda278f4	-0.07933226
162	0xbe6550b5	-0.22394069
163	0xbdb74273	-0.08948221
164	0x3e8bc14c	0.2729591
165	0xbe2dd705	-0.16976555
166	0xbfea1d12	-1.8290122
167	0xbe65ae69	-0.22429813
168	0xbe1814d8	-0.14851701
169	0x3e30fcf5	0.17283995
170	0x3f904733	1.1271728
171	0x3c34162c	0.010991614
172	0xbe201ff3	-0.15637188
173	0x3e9b7d28	0.30368924
174	0x3ed4ec2b	0.41586432
175	0x3c03c440	0.008042395
176	0x3c267340	0.010159314
177	0xbd728ab3	-0.059214305
178	0xbde790a0	-0.11306882
179	0xbd30f920	-0.043206334
180	0x3ced1274	0.028939463
181	0x3dffc62e	0.12488972
182	0x3f96b0f2	1.177275
183	0x3e6443ae	0.22291443
184	0x3dfd3764	0.123640805
185	0xbe03dcfd	-0.12877269
186	0xbff4cc21	-1.9124795
187	0xbe9c9e35	-0.30589452
188	0x3e56ed73	0.20989017
189	0xbe424a02	-0.18973544
190	0xbe664433	-0.22486953
191	0x3d586b31	0.0528366
192	0xbc32a458	-0.01090344
193	0x3d346155	0.044038136
194	0xbadf3c34	-0.0017031492
195	0x3d1ea86f	0.03873485
196	0xbdd6a3f4	-0.1048049
197	0x3d1c1521	0.038106088
198	0xbe743fb2	-0.23852423
199	0xbc997c9b	-0.018736174
200	0x3dc72e6e	0.09725653
201	0xbd8313eb	-0.064002834
202	0xbf227201	-0.63455206
203	0xbdd5b546	-0.10434966
204	0xbf1c4fbe	-0.61059177
205	0xbd9425d2	-0.07233776
206	0x3f880a17	1.0628079
207	0x3de93bad	0.113883354
208	0xbd0797b3	-0.033103656
209	0x3e10d579	0.14143933
210	0x3f87c9bc	1.060844
211	0x3e68d944	0.2273913
212	0xbd170a34	-0.036874965
213	0xbd5a70c2	-0.05333019
214	0x3e750322	0.23926976
215	0xbc943aed	-0.018094504
216	0x3d17a547	0.037022855
217	0x3c7d8a22	0.015474828
218	0xbd539612	-0.05165679
219	0x3c93c053	0.018036043
220	0xbe1aba2a	-0.15110078
221	0x3e852561	0.2600508
222	0x3f4ec8f2	0.8077537
223	0xbe14a1c5	-0.14514835
224	0x3e5df2d3	0.21674661
225	0xbe327fe9	-0.17431606
226	0xbf5e3d8a	-0.8681265
227	0x3e985199	0.29749754
228	0x3d0d87fa	0.034553505
229	0xbdf84e13	-0.121242665
230	0xbee2576a	-0.44207317
231	0x3d4ea921	0.050454263
232	0xbcee54f3	-0.029093241
233	0x3da8a6a6	0.08234911
234	0xbd941506	-0.072305724
235	0x3d3b9aff	0.045802113
236	0x3df0164f	0.11723005
237	0xbd80f5c0	-0.06296873
238	0xbf1d7ba6	-0.615168
239	0xbe3c7793	-0.18404989
240	0x3df1cd29	0.11806709
241	0xbc3f2449	-0.011666366
242	0x3f8309df	1.0237387
243	0x3c9e6b74	0.019338347
244	0xbcc5b041	-0.024131896
245	0x3c82b55c	0.01595562
246	0xbd696f0b	-0.056990664
247	0xbcef8be2	-0.029241506
248	0x3e1f101a	0.15533486
249	0xbe1bcf5e	-0.15215823
250	0xbf9ce6a7	-1.225789
251	0xbe1d8c81	-0.15385629
252	0x3e2fa92f	0.17154382
253	0xbe001eaa	-0.12511697
254	0x3ed6ef19	0.41979292
255	0xbbd00bd2	-0.0063490653

net.0.bias f4 [64]
0	0x3eb99ec0	0.3625393
1	0x3e8276ce	0.25481266
2	0xbe8f5c57	-0.28000137
3	0xbd165adb	-0.03670774
4	0xbe97ec9e	-0.29672712
5	0x3e84797e	0.2587394
6	0xbe218335	-0.15772708
7	0x3eeeceb4	0.46642077
8	0x3ea7611f	0.32691285
9	0xbebd2122	-0.3693934
10	0xbebbc59a	-0.36674196
11	0xbd25bb51	-0.040461842
12	0xbf0ea1ec	-0.55715823
13	0xbe896f62	-0.2684279
14	0xbe160e7e	-0.14653966
15	0x3e605ffe	0.21911618
16	0xbe4a6597	-0.19765316
17	0xbe66790b	-0.22507112
18	0xbdb7ea78	-0.08980268
19	0xbe93281c	-0.2874154
20	0xbe8be0cd	-0.27319947
21	0xbf358420	-0.7090473
22	0x3d93f03f	0.07223558
23	0xbf0da462	-0.55328953
24	0x3e5c2be5	0.2150112
25	0xbf0bb96c	-0.54579806
26	0xbf0a2c33	-0.5397369
27	0xbf26f9dc	-0.65225005
28	0xbd9fc73a	-0.07801671
29	0xbe251e66	-0.16124877
30	0x3d0471fa	0.03233526
31	0xbe8653ed	-0.26235905
32	0x3e96e89f	0.2947435
33	0xbe0bf7f1	-0.13668801
34	0xbeac674a	-0.33672553
35	0x3ed41e68	0.41429448
36	0x3d84a1f2	0.06476201
37	0x3d3c27ef	0.04593652
38	0xbe995e26	-0.29954642
39	0x3f0c03ee	0.54693496
40	0xbf06885d	-0.52551824
41	0xbebded8f	-0.37095305
42	0x3dabcae0	0.08388305
43	0xbe9180b5	-0.28418508
44	0xbdf5285b	-0.11970588
45	0x3e9efd6a	0.31052715
46	0xbec5b36a	-0.38613445
47	0xbebd5c31	-0.369844
48	0xbdfcc054	-0.12341371
49	0x3ea9fe67	0.33201906
50	0x3e2fce1f	0.17168473
51	0xbec89d94	-0.39182723
52	0xbe4bf28c	-0.19916743
53	0x3eed3019	0.46325758
54	0xbe9390b7	-0.28821346
55	0xbe551f41	-0.20812704
56	0x3cdf99bd	0.027294988
57	0xbeca04d9	-0.39456823
58	0xbe0f90c5	-0.14020069
59	0x3ec2c3f2	0.3804012
60	0xbf057247	-0.521275
61	0xbe407149	-0.18793215
62	0x3e8f0d1a	0.27939683
63	0xbeb4f318	-0.35341716

net.2.weight f4 [64, 64]
0	0xbe403f49	-0.18774141
1	0xbe306c80	-0.1722889
2	0x3ed5c31a	0.41750413
3	0x3df69d43	0.12041714
4	0x3cd3da65	0.025860975
5	0xbe2270cf	-0.15863346
6	0xbefbb84c	-0.49164045
7	0xbe8e5525	-0.27799335
8	0xbdd64c9a	-0.10463829
9	0x3d2a858f	0.041631278
10	0xbd3af6ef	-0.04564565
11	0xbe838915	-0.25690523
12	0xbe91b536	-0.28458565
13	0xbd71580b	-0.058921855
14	0xbe2d6327	-0.16932355
15	0xbdd47712	-0.10374273
16	0xbd8d1d6e	-0.06890379
17	0xbf129a1e	-0.57266414
18	0xbe1a759d	-0.15083928
19	0xbe65262a	-0.2237784
20	0x3ad17589	0.0015980463
21	0x3d921ead	0.07134757
22	0xbf26767f	-0.6502456
23	0xbf53d492	-0.8274623
24	0x3e6ca99a	0.23111573
25	0xbef5833c	-0.47951686
26	0x3f1f77dd	0.6229227
27	0x3e766c0b	0.24064653
28	0xbeeb38db	-0.45941815
29	0xbaa24551	-0.0012380277
30	0x3db6e32f	0.089300506
31	0x3e06d3bb	0.13166706
32	0xbf2719c7	-0.6527371
33	0x3d92c224	0.07165936
34	0xbea086f7	-0.3135297
35	0x3d5b55a9	0.05354849
36	0xbdf0a5ec	-0.11750397
37	0xbda4d7a7	-0.08048945
38	0xbe67846b	-0.22609107
39	0xbe512ce2	-0.20427278
40	0x3d9dfc2e	0.07714115
41	0xbe83d66d	-0.2574953
42	0x3c62ed6a	0.013850549
43	0xbe124365	-0.14283521
44	0x3d058a4d	0.032602597
45	0x3f021aac	0.5082195
46	0x3d94f925	0.07274083
47	0x3d94cd65	0.072657384
48	0xbd5dc53f	-0.054143187
49	0xbe289a27	-0.16465054
50	0xbdda6a82	-0.10664846
51	0xbefc9a14	-0.49336302
52	0xbdca5ac9	-0.09880597
53	0xbe0cb19d	-0.13739629
54	0x3dde4d0a	0.10854538
55	0x3dfd5e2b	0.12371477
56	0xbd380828	-0.044929653
57	0xbedf0952	-0.43561798
58	0xbb9e0a33	-0.004822993
59	0xbf0281cd	-0.5097931
60	0x3fc47ec8	1.535119
61	0xbc21964c	-0.009862494
62	0xbe6a62cb	-0.22889249
63	0x3ee54e02	0.44786078
64	0x3dbfd1e7	0.093662076
65	0x3ded9bca	0.1160198
66	0xbe4d6e49	-0.20061602
67	0x3e4ae1f0	0.19812751
68	0x3c540665	0.012940978
69	0x3d6f032b	0.05835263
70	0xbb7eafac	-0.0038862033
71	0xbe1d2236	-0.15345082
72	0xbe179cee	-0.14805958
73	0xbc3e45d0	-0.011613324
74	0xbdb35120	-0.08755708
75	0xbdbc7b38	-0.092031896
76	0x3deb5c03	0.11492159
77	0xbdb6d778	-0.08927816
78	0x3d35ad9a	0.044355012
79	0xbdfe0d2c	-0.12404856
80	0x3d487e38	0.048948497
81	0x3d16407d	0.036682595
82	0xbd47053b	-0.048588973
83	0xbe0eb925	-0.13937815
84	0xbd8a6acd	-0.06758652
85	0xbd12d645	-0.035848875
86	0xbbc20b70	-0.0059217736
87	0xbe178646	-0.14797315
88	0xbd97d52e	-0.07413708
89	0x3d568029	0.052368317
90	0x3e27257f	0.16322897
91	0xbe2763ff	-0.16346739
92	0xbdb72fbf	-0.08944654
93	0xbdab4d55	-0.08364359
94	0xbd713fd4	-0.058898762
95	0xbd518ac0	-0.051157713
96	0xbe35e610	-0.17763543
97	0x3cbeb1b7	0.0232781
98	0xbd70bbcc	-0.058772847
99	0xbd183abe	-0.037165396
100	0xbe5b6b8a	-0.21427742
101	0x3e2c71be	0.16840264
102	0x3e7e67cc	0.24844283
103	0xbe606d93	-0.21916799
104	0xbc21b486	-0.0098697
105	0xbd6b905b	-0.057510715
106	0xbd931656	-0.071819946
107	0x3cbb1180	0.022835493
108	0x3dbdef73	0.09274187
109	0xbb278727	-0.0025562735
110	0xbe308580	-0.17238426
111	0xbe390930	-0.18069911
112	0x3e464404	0.19361883
113	0xbe284d97	-0.16435848
114	0xbe07aae5	-0.13248785
115	0xbd579711	-0.052634303
116	0xbd0cbc8c	-0.0343595
117	0xbc6eced3	-0.014575678
118	0x3e1143ee	0.1418607
119	0xbd9a7b4e	-0.0754305
120	0xbe4e0769	-0.20120014
121	0xbd7c7ebb	-0.061644297
122	0x3e44c9c8	0.19217598
123	0x3ddb4929	0.107073136
124	0x3e16966e	0.14705822
125	0xbdd47d6f	-0.10375487
126	0xbe51a14a	-0.20471683
127	0x3dc3f611	0.09568418
128	0xbe43bc03	-0.1911469
129	0xbf325338	-0.6965823
130	0xbeb4a938	-0.35285354
131	0xbf6d57d2	-0.9271213
132	0xbdbc5748	-0.09196335
133	0xbf180b16	-0.59391916
134	0x3d7aea0b	0.061258357
135	0xbe23d0b9	-0.1599759
136	0xbe2c9dd4	-0.16857082
137	0x3f39db57	0.7260031
138	0x40220fef	2.5322225
139	0xbede6d11	-0.43442586
140	0x3fac1d5e	1.3446462
141	0xbf440207	-0.76565593
142	0x3de72cea	0.112878636
143	0xbeb7d880	-0.35907364
144	0xbe8bc035	-0.2729508
145	0xbd41a9c8	-0.047281057
146	0x3c813acb	0.015775105
147	0xbee3e9c3	-0.44514284
148	0xbed3ee5a	-0.41392785
149	0xbdb6de80	-0.08929157
150	0xbe8beee4	-0.27330697
151	0x3f26c7bf	0.6514854
152	0xbec2532a	-0.37954074
153	0x3d246b01	0.04014111
154	0x3f090ccd	0.5353516
155	0xbe271f3f	-0.16320513
156	0x3c2fa564	0.010720585
157	0x3df23960	0.1182735
158	0xbf309390	-0.6897516
159	0x3d72f48b	0.059315246
160	0xbe97f6c6	-0.2968046
161	0x3e18a2f0	0.14905906
162	0x3e07b5d4	0.13252956
163	0xbef37b9c	-0.47555244
164	0x3f21f87e	0.63269794
165	0xbe4dccf4	-0.20097715
166	0x3ea686e7	0.32524797
167	0xbe1dbf71	-0.1540506
168	0x3fa40bbe	1.2816083
169	0x3f6eff42	0.9335824
170	0xbd9e9c87	-0.07744699
171	0xbd8471e5	-0.06467036
172	0x3d9a3359	0.07529325
173	0xbea47450	-0.3211999
174	0x3e961266	0.29310912
175	0xbe653822	-0.22384694
176	0xbdd3bf02	-0.10339166
177	0x3d3bde4a	0.04586629
178	0xbf4b7fc1	-0.7949181
179	0x3f5b0b71	0.85564333
180	0x3e27739e	0.16352698
181	0xbe0c9822	-0.13729909
182	0xbd0db1e3	-0.034593474
183	0xbef834c9	-0.48477772
184	0xbf87e700	-1.0617371
185	0xbe9285cd	-0.28617707
186	0xbd9293de	-0.0715711
187	0xbf62a4c3	-0.88532656
188	0x3f2ff9a7	0.68740314
189	0xbd763240	-0.060106516
190	0xbf57be22	-0.84274495
191	0x3ead84bf	0.3389034
192	0xbcd7d8e8	-0.026348546
193	0x3d763a22	0.060114034
194	0xbd526ac2	-0.051371343
195	0x3d5bfe70	0.053709447
196	0xbdbd22ac	-0.09235129
197	0xbd153aaf	-0.03643292
198	0x3cf23e83	0.029570824
199	0xbdd88d4d	-0.10573826
200	0xbdb7d3f3	-0.08975973
201	0xbd81c470	-0.063362956
202	0xbc6dd583	-0.014516237
203	0xbc49745f	-0.012295811
204	0x3dd6ecc1	0.10494376
205	0xbdb8efc2	-0.09030105
206	0xbde15db8	-0.110042036
207	0x3c1d92a8	0.009617485
208	0x3cd31043	0.02576459
209	0xbdbd7f60	-0.092528105
210	0x3df47dbb	0.11938044
211	0xbe3660b8	-0.17810333
212	0xbd0edf55	-0.034880955
213	0xbd5b36ea	-0.053519167
214	0x3cc8bfa2	0.02450544
215	0xbdad3947	-0.084581904
216	0xbe5430fa	-0.20721808
217	0x3d2eb715	0.04265507
218	0xbd359ef8	-0.044341058
219	0x3d8a17ac	0.06742796
220	0x3e1e51e5	0.15460928
221	0x3c919e72	0.017775748
222	0x3cf43e9f	0.029815016
223	0xbdfe9c24	-0.12432125
224	0xbcfa59ba	-0.030560363
225	0x3e81424c	0.25245893
226	0x3c0342b7	0.0080115115
227	0xbe572b7a	-0.21012679
228	0xbd53269f	-0.051550504
229	0xbdf536ac	-0.119733185
230	0xbd281723	-0.04103769
231	0xbe3430c8	-0.17596734
232	0xbce39ffd	-0.02778625
233	0x3d55c6b8	0.052191466
234	0xbc2311bf	-0.0099529615
235	0xbd99ca83	-0.07509329
236	0x3b64ac22	0.0034892638
237	0xbd384d98	-0.044995874
238	0xbd6d9760	-0.05800569
239	0x3d9069d1	0.07051433
240	0x3e64ec15	0.22355683
241	0xbd3f2e88	-0.046675235
242	0xbdbeaea3	-0.09310653
243	0xbe0c9295	-0.13727792
244	0xbd7838e5	-0.060601134
245	0x3d14d22d	0.03633325
246	0xbcecf56a	-0.028925616
247	0xbb728eb0	-0.0037011318
248	0xbb2be80c	-0.002623084
249	0xbd82cccc	-0.06386718
250	0xbd6ade5d	-0.05734097
251	0xbe19e266	-0.1502777
252	0xbd313eec	-0.043272898
253	0x3b53aff7	0.0032300928
254	0x3de0f6ee	0.10984598
255	0x3da968fe	0.08271979

net.2.bias f4 [64]
0	0xbe0d54e5	-0.13801916
1	0x3d82d17c	0.06387612
2	0xbe7b50a5	-0.24542482
3	0xbdcd4e64	-0.100247175
4	0x3f0204de	0.50788677
5	0x3ec71f2c	0.3889097
6	0xbe2df768	-0.16988909
7	0x3e98100f	0.29699752
8	0xbe0bf033	-0.13665847
9	0x3f283ebc	0.65720725
10	0x3e720509	0.23634733
11	0x3ed90100	0.42383575
12	0x3eed172d	0.46306744
13	0x3ea71ff4	0.32641566
14	0xbe980d87	-0.2969782
15	0x3d9b7b8d	0.07591925
16	0xbdfc6bfc	-0.12325284
17	0x3ec5a44b	0.38601908
18	0xbb561842	-0.0032668267
19	0x3ee58779	0.4482992
20	0x3c1f4a8d	0.009722364
21	0xbd5f9b6a	-0.054591574
22	0x3efbbbd2	0.49166733
23	0x3ebd77c8	0.37005448
24	0x3ee42797	0.44561455
25	0x3d30a9e6	0.043130778
26	0x3e887d5b	0.2665814
27	0x3e21a676	0.15786156
28	0xbd34d7c0	-0.044151068
29	0x3eb1aee1	0.34703735
30	0xbddf0995	-0.108904995
31	0x3efcd833	0.49383697
32	0xbdd0e1ad	-0.10199294
33	0x3ec5c1e6	0.38624495
34	0xbdbafad8	-0.09129876
35	0xbd6503dd	-0.055911887
36	0x3ef4c551	0.4780679
37	0xbd9c1e0e	-0.0762292
38	0x3ec9691e	0.3933801
39	0x3eef9400	0.46792603
40	0xbe99c6ca	-0.30034477
41	0x3ebffe9d	0.37498942
42	0xbd937e3e	-0.07201813
43	0xbe04f075	-0.12982352
44	0x3efa28dd	0.488593
45	0x3ed131ab	0.40858206
46	0xbdeee0a2	-0.11663939
47	0x3ef41135	0.47669378
48	0xbd8674bd	-0.06565235
49	0xbda37431	-0.07981146
50	0x3f1368d8	0.57581854
51	0x3f06a863	0.5260069
52	0xbdf5ff74	-0.120116144
53	0xbca864ae	-0.02055582
54	0xbddeb042	-0.10873462
55	0x3eead4c5	0.45865455
56	0xbd3ebee8	-0.04656878
57	0x3f0a1f2f	0.5395383
58	0xbe0d3285	-0.13788803
59	0xbdd5367a	-0.10410781
60	0x3f05a8c2	0.5221063
61	0xbe23cf97	-0.15997158
62	0x3ecfa47f	0.40555188
63	0x3ea2318d	0.3167843

net.4.weight f4 [2, 64]
0	0xbf1857a6	-0.5950874
1	0xbdd6ea69	-0.10493929
2	0xc016f29d	-2.358558
3	0x3e251baa	0.16123834
4	0x3f41a20e	0.756379
5	0x3f6806e9	0.90635544
6	0xc05489ce	-3.320911
7	0x3f423112	0.75856125
8	0x3e7f793c	0.24948591
9	0x3f7900a7	0.9726662
10	0xc018879f	-2.3832777
11	0x3f64eb7b	0.89421815
12	0x3ee849b1	0.45368722
13	0x3f866228	1.0498705
14	0xbff2b2b2	-1.8960783
15	0x3c8cfe2d	0.017211044
16	0x3d87dc1c	0.066337794
17	0x3f360627	0.7110314
18	0x3d983dde	0.07433675
19	0x3f94e4b3	1.1632293
20	0xbd214bd7	-0.039378967
21	0xbdf9474b	-0.12171801
22	0x3f12e9b3	0.57387847
23	0x3f8b92d6	1.0904186
24	0x3fa2e283	1.2725376
25	0xbcb7ce9d	-0.022437388
26	0x3f5d6732	0.8648559
27	0xbdb40ef7	-0.08791917
28	0x3d9953fd	0.074867226
29	0x3f8eb07c	1.1147609
30	0xc02e2510	-2.721012
31	0x3f761813	0.96130484
32	0xc0755c7d	-3.83377
33	0x3ed72b34	0.4202515
34	0xbf9da95d	-1.231731
35	0xc02fbb27	-2.7457979
36	0x3f4f71aa	0.8103281
37	0x3e581411	0.21101405
38	0x3f4f9659	0.8108879
39	0x3f405b45	0.75139266
40	0xbe8fc998	-0.2808349
41	0x3f4635d2	0.77425873
42	0x3ea58c1e	0.32333463
43	0xbd1bed9d	-0.038068403
44	0xbc3deff7	-0.011592857
45	0x3f4a9d53	0.7914631
46	0x3d2ef978	0.04271838
47	0x3f49d6de	0.78843486
48	0xbc56b2f1	-0.013104186
49	0xbce54262	-0.027985755
50	0x3f768eb0	0.96311474
51	0x3f68154e	0.9065751
52	0xbd890fec	-0.0669249
53	0xbff2f558	-1.8981123
54	0xbccebca8	-0.025236443
55	0x3f3e793f	0.74403757
56	0x3c1da706	0.009622341
57	0x3f781041	0.968998
58	0xbb9edbb9	-0.0048479703
59	0xbd9d6e5d	-0.07687066
60	0x3f340310	0.70317173
61	0xbad85967	-0.0016506136
62	0x3eb5e370	0.35525084
63	0x3f5eb124	0.86989045
64	0x3f4e98b8	0.8070178
65	0x3cac0a9f	0.021001158
66	0xbfcacfc6	-1.5844657
67	0xbe0c0a34	-0.13675767
68	0x3f745f78	0.95458174
69	0x3f64f2c8	0.89432955
70	0xc0726521	-3.7874224
71	0x3eee1e33	0.46507415
72	0xbe8025c3	-0.2502881
73	0x3f7bc46a	0.9834658
74	0xc00e87c7	-2.2270372
75	0x3ec97032	0.3934341
76	0x3f7b35ff	0.98129267
77	0x3ebae37c	0.36501682
78	0xc02b1c03	-2.6735847
79	0xbe0c2f24	-0.13689858
80	0x3e28257f	0.16420554
81	0x3f851ed9	1.0400039
82	0xbda65806	-0.08122258
83	0x3f5aca05	0.8546451
84	0x3ca7dc4f	0.020490794
85	0xbe124685	-0.14284714
86	0x3f84b2c2	1.0367053
87	0x3f9743ac	1.1817527
88	0x3f02a70d	0.5103615
89	0xbe1568dd	-0.14590783
90	0x3f32f5b0	0.6990614
91	0x3bff9174	0.007799322
92	0xbb919f56	-0.004444043
93	0x3efdcd0e	0.49570507
94	0xc01879f3	-2.3824432
95	0x3fb50a12	1.4143698
96	0xc08b2cdd	-4.3492265
97	0x3f7ca09d	0.98682576
98	0xbf9dbf3e	-1.2323987
99	0xbfbe09a8	-1.4846697
100	0x3f62f5d4	0.88656354
101	0x3d764223	0.060121667
102	0x3f53f695	0.8279813
103	0x3f127ad6	0.5721868
104	0xc03598b8	-2.8374462
105	0x3f1d0314	0.6133282
106	0xbe53aa61	-0.20670463
107	0x3da9aacf	0.08284532
108	0x3f906948	1.1282129
109	0x3e48f630	0.19625163
110	0x3ccfef1b	0.025382569
111	0x3f494113	0.7861492
112	0xbc05e04c	-0.008171152
113	0x3d04ffa4	0.03247036
114	0x3f75ab0c	0.9596412
115	0x3f9eaa4a	1.2395718
116	0xbe1b7ac5	-0.15183552
117	0xc0270047	-2.609392
118	0x3da184de	0.078866705
119	0x3f349420	0.7053852
120	0x3d273907	0.04082587
121	0x3e5d691c	0.21622127
122	0x3d4b0f40	0.04957509
123	0x3b8241bd	0.003975122
124	0x3f57214b	0.84035176
125	0x3df158fb	0.1178455
126	0x3f843a12	1.0330222
127	0x3f0d9336	0.5530275

net.4.bias f4 [2]
0	0x3ec877ca	0.39153892
1	0x3e27d6ba	0.16390505

exp_avg f4 [64, 4]
0	0xbaa5986e	-0.0012633929
1	0x3b35d65d	0.0027746179
2	0x39a17967	0.00030798765
3	0xba55b430	-0.0008152155
4	0x3b842cb1	0.004033648
5	0x3b98428c	0.004646605
6	0x3a019679	0.00049433816
7	0x3978f5a7	0.00023742636
8	0x3c189261	0.009312243
9	0x3b8bbd88	0.0042645372
10	0x3a3391e3	0.0006850047
11	0x3b7342a0	0.003711857
12	0xb8ca0594	-9.6331496e-05
13	0xb914928a	-0.0001416897
14	0xb7e3c8e4	-2.7154056e-05
15	0xb8d88046	-0.000103235754
16	0x80000004	-6e-45
17	0x80000004	-6e-45
18	0x80000004	-6e-45
19	0x00000004	6e-45
20	0xbb78cf7e	-0.0037965472
21	0xbaf8e0ed	-0.0018987932
22	0xb8eeec85	-0.000113927796
23	0xba2174be	-0.00061590585
24	0x00000004	6e-45
25	0x00000004	6e-45
26	0x00000004	6e-45
27	0x00000004	6e-45
28	0xbca15374	-0.019693114
29	0xbbe1699a	-0.0068790438
30	0xba35e62f	-0.0006938902
31	0xbb6c2839	-0.0036034717
32	0xbbb89b0a	-0.0056337165
33	0xb8f7a489	-0.00011808525
34	0x3831a4b9	4.23535e-05
35	0xbae0bc26	-0.0017145916
36	0x80000004	-6e-45
37	0x80000004	-6e-45
38	0x00000004	6e-45
39	0x80000004	-6e-45
40	0x80000004	-6e-45
41	0x80000004	-6e-45
42	0x80000004	-6e-45
43	0x80000004	-6e-45
44	0x3b4ca9a8	0.0031229053
45	0x3ac0e31a	0.0014716119
46	0x39b2ddc7	0.00034116043
47	0x3ab5791c	0.0013845298
48	0x80000004	-6e-45
49	0x80000004	-6e-45
50	0x80000004	-6e-45
51	0x80000004	-6e-45
52	0xb99d5e1c	-0.0003001549
53	0xba25e1e0	-0.00063279085
54	0xb72b5c10	-1.0213829e-05
55	0x39ede378	0.0004537364
56	0x00000004	6e-45
57	0x00000004	6e-45
58	0x00000004	6e-45
59	0x00000004	6e-45
60	0x3aa3c398	0.0012494205
61	0x3b1bf21b	0.002379543
62	0x39840d3d	0.00025186865
63	0xb9482af7	-0.00019089492
64	0xb501b9d3	-4.8326655e-07
65	0xb7321cbe	-1.0616319e-05
66	0x3595e4d1	1.1167959e-06
67	0x37c84113	2.387216e-05
68	0x3d0104de	0.031498782
69	0x3cbc9a1d	0.023022706
70	0x3aae27f4	0.0013287053
71	0xbb98ea31	-0.0046665897
72	0x80000004	-6e-45
73	0x80000004	-6e-45
74	0x80000004	-6e-45
75	0x00000004	6e-45
76	0x80000004	-6e-45
77	0x80000004	-6e-45
78	0x00000004	6e-45
79	0x80000004	-6e-45
80	0x3cc5f625	0.024165222
81	0x3c7cfd4c	0.01544125
82	0x3adaa75b	0.0016681956
83	0x3b8d35a0	0.004309371
84	0x3cf2e17a	0.029648531
85	0x3d2c7f84	0.042113796
86	0x3bb2b4d3	0.005453685
87	0x3b9395f3	0.0045039593
88	0xbb5e7dc8	-0.0033949483
89	0xbb7a4556	-0.00381883
90	0xb8f30a6c	-0.00011589084
91	0x3a94818b	0.0011330111
92	0x00000004	6e-45
93	0x00000004	6e-45
94	0x00000004	6e-45
95	0x00000004	6e-45
96	0x393109e5	0.00016883721
97	0x3aa09f8a	0.0012254578
98	0x38831f45	6.252391e-05
99	0x398ac446	0.00026467646
100	0x80000004	-6e-45
101	0x80000004	-6e-45
102	0x80000004	-6e-45
103	0x00000004	6e-45
104	0x3dd1f550	0.10251868
105	0x3d917d87	0.071040206
106	0x3bf10a60	0.007355973
107	0x3c2d6919	0.010584139
108	0x3d964eb5	0.07339231
109	0x3d53b41e	0.051685445
110	0x3b6a70f7	0.0035772899
111	0xbb9a0430	-0.004700206
112	0x3c6f0846	0.014589375
113	0x3c1c307f	0.009533047
114	0x3a4bed94	0.00077792373
115	0x3abe1c29	0.0014504242
116	0xb716b084	-8.981795e-06
117	0x389d6e99	7.506944e-05
118	0x3698bc31	4.5518614e-06
119	0xb8d10e39	-9.968546e-05
120	0x3a46c41e	0.00075823243
121	0x3aa5628e	0.0012617873
122	0x386f981c	5.7123703e-05
123	0xba51b907	-0.00080002885
124	0x80000004	-6e-45
125	0x80000004	-6e-45
126	0x80000004	-6e-45
127	0x00000004	6e-45
128	0xbb8301b8	-0.0039980076
129	0x3a4efd1b	0.0007895992
130	0x3934c5ea	0.00017239866
131	0xbab625c0	-0.0013896748
132	0x00000000	0.0
133	0x00000000	0.0
134	0x00000000	0.0
135	0x00000000	0.0
136	0x17056ee4	4.311458e-25
137	0x16746c1b	1.9744275e-25
138	0x151d0b59	3.171485e-26
139	0x1654becd	1.718543e-25
140	0xbb457247	-0.003012793
141	0x3b20b45e	0.002452157
142	0x39961fef	0.00028634022
143	0xba86498a	-0.0010245305
144	0xbb6fe19f	-0.0036602987
145	0xbb9b82cf	-0.004745818
146	0xb9174355	-0.00014425565
147	0x3b020d54	0.001984437
148	0xbc8820d5	-0.016617218
149	0xbc2ea43e	-0.010659276
150	0xbaa1c85a	-0.0012343035
151	0xbaadbd5a	-0.0013255284
152	0x80000004	-6e-45
153	0x80000004	-6e-45
154	0x00000004	6e-45
155	0x00000004	6e-45
156	0xbbec04b6	-0.00720271
157	0x3b0d845e	0.002159379
158	0x39921080	0.00027859583
159	0xbb078b5d	-0.0020682432
160	0x80000004	-6e-45
161	0x80000004	-6e-45
162	0x80000004	-6e-45
163	0x80000004	-6e-45
164	0x80000004	-6e-45
165	0x80000004	-6e-45
166	0x80000004	-6e-45
167	0x80000004	-6e-45
168	0xbbc801d4	-0.0061037336
169	0xbb43dc84	-0.0029886076
170	0xb9c7a702	-0.00038080668
171	0xba52ce62	-0.00080416177
172	0x00000004	6e-45
173	0x00000004	6e-45
174	0x00000004	6e-45
175	0x80000004	-6e-45
176	0x00000000	0.0
177	0x00000000	0.0
178	0x00000000	0.0
179	0x00000000	0.0
180	0xbbc83fa2	-0.0061111012
181	0xbad4ba74	-0.0016229884
182	0xb98ac8d3	-0.00026471037
183	0xba2986e2	-0.00064669375
184	0x80000004	-6e-45
185	0x80000004	-6e-45
186	0x80000004	-6e-45
187	0x80000004	-6e-45
188	0x00000004	6e-45
189	0x00000004	6e-45
190	0x00000004	6e-45
191	0x00000004	6e-45
192	0x80000004	-6e-45
193	0x80000004	-6e-45
194	0x80000004	-6e-45
195	0x80000004	-6e-45
196	0xbc540447	-0.012940473
197	0xbb838689	-0.0040138406
198	0xb9ba6503	-0.00035551944
199	0xbb3e27bc	-0.0029015383
200	0xbacdd64a	-0.0015704122
201	0xb9eec67f	-0.0004554279
202	0xb829bb69	-4.046728e-05
203	0xb778a32d	-1.4819944e-05
204	0x80000004	-6e-45
205	0x80000004	-6e-45
206	0x00000004	6e-45
207	0x80000004	-6e-45
208	0xbbde07c4	-0.006775828
209	0x3b0765f8	0.0020660143
210	0x3999b3c1	0.0002931636
211	0xbb41e3c6	-0.0029585226
212	0xbc3fa58d	-0.011697185
213	0xbad3e3b8	-0.0016165888
214	0xb90283a3	-0.00012446805
215	0xbb2e11ba	-0.0026560859
216	0x00000000	0.0
217	0x00000000	0.0
218	0x00000000	0.0
219	0x00000000	0.0
220	0xba4826e1	-0.0007635188
221	0x39d5eb4e	0.00040801842
222	0xb8843c7a	-6.305515e-05
223	0xba86aaf3	-0.0010274336
224	0xbc5c1cb2	-0.013434576
225	0xbc0e8a6e	-0.008699996
226	0xba83a753	-0.0010044373
227	0xbac10888	-0.0014727274
228	0x80000004	-6e-45
229	0x80000004	-6e-45
230	0x80000004	-6e-45
231	0x00000004	6e-45
232	0x00000004	6e-45
233	0x00000004	6e-45
234	0x00000004	6e-45
235	0x80000004	-6e-45
236	0xbb016db1	-0.001974922
237	0x3b1f7195	0.0024329175
238	0x39c14220	0.00036861096
239	0xbab6319c	-0.0013900283
240	0x00000004	6e-45
241	0x00000004	6e-45
242	0x00000004	6e-45
243	0x00000004	6e-45
244	0x00000004	6e-45
245	0x00000004	6e-45
246	0x80000004	-6e-45
247	0x80000004	-6e-45
248	0xbb86f7ef	-0.0041189115
249	0xba92c043	-0.0011196214
250	0xb810f09d	-3.4556364e-05
251	0xba72da02	-0.0009264053
252	0x80000004	-6e-45
253	0x80000004	-6e-45
254	0x00000004	6e-45
255	0x00000004	6e-45
