CartPole/Experiment_1/23-09-26_22-10-39-937242_DQN/checkpoints/agent_19000.pt (torch, 82571 bytes, 24 tensors)

net.0.weight f4 [64, 4]
000000 4a c8 28 bd 29 1b db 3d d3 36 8c 3d 58 51 bd bc
       -0.041206636 0.1069854 0.068463944 -0.023110077
000010 c4 bf c6 3d c1 ec a7 bd a4 4c 90 3e 55 62 e9 bc
       0.09704545 -0.08199454 0.28183472 -0.028489271
000020 af 43 c7 bd 19 e1 81 3d de 21 e7 3f 09 54 34 3e
       -0.097297065 0.06341762 1.805721 0.17610182
000030 16 84 6e be 97 31 16 3e 16 f3 96 3f 66 e9 a2 3d
       -0.23292574 0.14667355 1.1792934 0.079546735
000040 e6 bc ab bd d7 7e a8 bc 0c d1 46 3d 72 b2 36 3b
       -0.08385639 -0.020568294 0.048539206 0.0027877358
000050 28 fb 58 3e ad 84 84 be 4f 2b 7f bf 76 3f 25 be
       0.21189559 -0.25882474 -0.9967546 -0.1613749
000060 a2 e1 93 bd 8a 32 ca 3d 0e 2b 10 bf 5f 82 c1 3d
       -0.072207704 0.09872921 -0.56315696 0.094486944
000070 39 5d e0 bd 4a 4d b5 3b 74 7d 37 3b 3d 08 a1 3c
       -0.10955281 0.005532895 0.002799836 0.019657249
000080 6f 24 d6 3a 9f 07 98 bd 2c bc 1a 3d 39 62 0f bd
       0.0016337762 -0.074233286 0.03777711 -0.03500578
000090 0c df 68 be 42 e8 f1 3a e4 10 2d bc 83 47 c8 3d
       -0.22741336 0.0018456059 -0.010563109 0.09779265
0000a0 2b 9e 13 be f9 c3 6c bd 5f e0 a2 bf 6b 7f 8b bd
       -0.14415805 -0.05780408 -1.2724723 -0.068114124
0000b0 24 8b b6 3d 3a b9 07 3c a1 30 93 bf 38 6d a8 3e
       0.08913258 0.008283908 -1.1499215 0.32895827
0000c0 fa 53 8a be 02 6f 3e bd 55 26 52 3f 91 58 8d 3b
       -0.27017194 -0.046492584 0.8208974 0.0043135365
0000d0 30 22 f4 bd 7e b2 3a 3e e8 bd 75 3f 3a 2f 92 be
       -0.11920583 0.18232152 0.959929 -0.28551656
0000e0 6f bc db 3c 9e fd 0d bc fc 6a 3e be 88 86 b0 bc
       0.02682325 -0.008666424 -0.18595499 -0.021548524
0000f0 a1 2d d2 3c a9 36 81 bc aa d7 c0 3e 45 e8 70 3d
       0.025656523 -0.015773134 0.3766454 0.05881526
000100 ba 7f 53 be 0f 96 55 bd 16 20 86 bf f8 60 7f 3e
       -0.20654193 -0.05214506 -1.0478542 0.24939334
000110 51 cf 91 3e de aa fc bc a7 77 06 bf dd 3f 22 bd
       0.28478482 -0.030843195 -0.52526325 -0.039611686
000120 ee 6e 45 3d 46 05 2e bd d7 e5 c4 bd 90 ed 03 bd
       0.048201494 -0.042485498 -0.09614151 -0.03220898
000130 ca 2a 53 be 7e 6e 2a be c3 e4 b0 be 3a e1 08 be
       -0.20621791 -0.16643712 -0.3454953 -0.13367167
000140 fd c1 ab 3d a4 93 22 3e e9 5b f0 be 0d 1d de bd
       0.0838661 0.15876633 -0.46945122 -0.10845385
000150 b8 b6 ac 3e 7f 0d b4 3d 02 13 2b be f7 cf 0a 3d
       0.33733153 0.08791637 -0.1670647 0.033889737
000160 48 ce d4 3d f9 e7 88 be 40 d9 5c bf 00 ac 2a be
       0.103909075 -0.2673948 -0.86269 -0.16667175
000170 7d 74 87 3e 2b e8 36 3d 8e fb 78 bf 12 27 3c bb
       0.2645606 0.044655006 -0.9725884 -0.002870981
000180 88 f1 9f bd 76 f7 ed 3d ae df a3 3f 19 65 d7 3d
       -0.0780974 0.11619465 1.2802637 0.1051733
000190 8d f4 36 be 24 4c 8b bd 3d 90 6a be ce 26 63 3e
       -0.17866726 -0.06801632 -0.22906585 0.22182772
0001a0 7c 98 f3 3d 77 fd f5 3d e3 c4 63 3f 1a 05 b9 3d
       0.118943185 0.12011235 0.889723 0.09034176
0001b0 6d 24 f8 3e 28 df 13 bd 08 f7 9c 3e 85 77 43 bd
       0.4846529 -0.03610149 0.3065722 -0.047721405
0001c0 cc c7 9e 3e 85 54 87 be cf 69 7e 3f 9f 1d b7 3d
       0.31011808 -0.2643167 0.993802 0.08941197
0001d0 72 fd bd 3c b7 53 13 be fb d8 f5 bd ad 20 a5 be
       0.023192141 -0.14387403 -0.12004276 -0.32251492
0001e0 11 d1 6f be c0 32 4c 3e 53 cc 3a 3f 1a eb f7 bd
       -0.23419596 0.19941235 0.72968024 -0.12105389
0001f0 fb cd e9 bc 62 e9 a8 bc a6 4b ee 3c 74 01 91 bd
       -0.028540602 -0.020619098 0.029088806 -0.07080355
000200 23 10 e1 3c 8d e0 09 3b 2b 76 80 bf f8 b3 ef bd
       0.027473515 0.0021038384 -1.0036062 -0.11704248
000210 ed 8f 60 bb 4d 82 68 3d 1a 91 98 bc b8 5e 4d 3d
       -0.0034265474 0.05676489 -0.018623877 0.05013916
000220 84 94 a9 bd 9c d0 92 bc a7 1f 3e 3f b9 30 a3 3e
       -0.0828028 -0.017921738 0.7426705 0.3187311
000230 26 16 dc 3d 71 4d 86 bc 9c 9c ce bd e3 aa 6a 3c
       0.10746412 -0.016394349 -0.100884646 0.014322969
000240 ce 5e 12 3d 96 ca 8f bd 91 91 d8 bf 11 0c a1 be
       0.035734944 -0.07021062 -1.6919423 -0.31454518
000250 65 fb a5 bd e9 89 8f 3d e8 29 83 3f 7e d1 d6 bc
       -0.0810459 0.07008726 1.0247164 -0.02622294
000260 40 07 47 bd 42 28 86 3d 81 5a 55 be f0 70 24 3e
       -0.0485909 0.06550647 -0.20835306 0.16058707
000270 4c 0f c9 3d 10 09 bc bd 9f 1a 54 bd 3d ba 2f bc
       0.09817371 -0.09181416 -0.0517832 -0.010725555
000280 ab b2 31 be 1f 6a a2 bd 17 8b 66 be b6 4c b8 bd
       -0.17353313 -0.07930397 -0.22513996 -0.089990065
000290 fc c1 8b 3e d0 d7 2d be e8 1e ea bf a0 aa 65 be
       0.27296436 -0.16976857 -1.8290682 -0.2242837
0002a0 b9 5d 16 be d3 f9 34 3e e7 29 92 3f 18 86 c8 3c
       -0.1468419 0.17673425 1.1419038 0.024478003
0002b0 99 cf 1f be f0 81 9c 3e 66 3b d8 3e 27 4e 45 ba
       -0.15606536 0.30567884 0.42232817 -0.0007526599
0002c0 40 73 26 3c b3 8a 72 bd a0 90 e7 bd 1f f9 30 bd
       0.010159314 -0.059214305 -0.11306882 -0.04320633
0002d0 c2 5e 19 3d a3 35 11 3e 95 14 9b 3f 56 f2 6a 3e
       0.037443884 0.14180617 1.2115656 0.22944006
0002e0 2e 8d fd 3d 57 bf 03 be 42 cb f4 bf ec 9a 9c be
       0.123804435 -0.12865959 -1.9124529 -0.30586946
0002f0 4f 01 55 3e a2 2b 44 be 80 de 67 be be 15 55 3d
       0.2080128 -0.1915727 -0.22643471 0.052022688
000300 8e 0a 30 bc 71 07 35 3d 3c 70 ca ba 19 4f 1f 3d
       -0.010744704 0.04419655 -0.0015444825 0.038893793
000310 d0 c8 d7 bd 2d fb 0f 3d 72 1c 7a be 7d f7 f0 bb
       -0.10536349 0.03515165 -0.24424914 -0.0073537217
000320 38 3d b9 3d be 6c 96 bd f1 6f 25 bf 57 1d e1 bd
       0.0904488 -0.0734496 -0.64623934 -0.10991924
000330 38 49 1c bf 9c fa 93 bd c7 11 88 3f 1b 67 e8 3d
       -0.6104922 -0.07225534 1.0630425 0.11347791
000340 0c 24 28 bd ba 45 09 3e a3 29 87 3f 5c 37 72 3e
       -0.041050002 0.13405505 1.0559582 0.2365393
000350 f9 c6 1a bd de 8d 60 bd 13 d1 70 3e 1f 2c 51 bc
       -0.03778741 -0.054822795 0.23517255 -0.012766867
000360 47 a5 17 3d 22 8a 7d 3c 12 96 53 bd 53 c0 93 3c
       0.037022855 0.015474828 -0.05165679 0.018036043
000370 c9 0a 15 be 1a f8 83 3e 4a 34 52 3f c8 47 e5 bd
       -0.14554895 0.25775224 0.82111037 -0.11195332
000380 83 4b 57 3e 94 2a 3e be 41 9b 5f bf cd fc 9a 3e
       0.21024899 -0.1857093 -0.87346274 0.30270997
000390 76 88 0d 3d 94 4d f8 bd 28 57 e2 be 52 a9 4e 3d
       0.034553967 -0.12124172 -0.4420712 0.050454445
0003a0 4a 55 ee bc d7 a5 a8 3d 3d 15 94 bd 91 9a 3b 3d
       -0.029093403 0.082347564 -0.072306134 0.045801703
0003b0 c6 86 ee 3d 25 6d 87 bd ed 7b 20 bf e1 64 3f be
       0.116468 -0.066126145 -0.62689096 -0.18690826
0003c0 73 28 f0 3d 8a 49 4c bc e2 ef 82 3f b0 d8 97 3c
       0.11726465 -0.012468705 1.0229456 0.018535942
0003d0 3c b0 c5 bc d1 b4 82 3c 4f 6f 69 bd ae 8b ef bc
       -0.024131887 0.01595536 -0.056990918 -0.02924141
0003e0 6f 39 1c 3e 67 15 22 be f3 89 9e bf 0f 4a 20 be
       0.15256284 -0.15828477 -1.2385849 -0.15653251
0003f0 94 a9 2f 3e 69 1e 00 be b7 ee d6 3e 5d 0c d0 bb
       0.17154533 -0.125116 0.41979 -0.00634913

net.0.bias f4 [64]
000000 bb 1c ba 3e d4 84 7f 3e 01 fb 92 be 0e 5a 56 bd
       0.36350045 0.24953014 -0.28707126 -0.052331977
000010 58 ed 97 be 8b e6 86 3e de 51 23 be 60 c0 f0 3e
       -0.29673266 0.26347765 -0.15949199 0.4702177
000020 d5 14 a8 3e 86 55 bd be 16 c8 bb be be e9 05 bd
       0.32828394 -0.36979312 -0.3667609 -0.032693617
000030 4e aa 0e bf 62 ba 90 be 2c 0f 16 be a7 63 58 3e
       -0.55728614 -0.282672 -0.14654225 0.21131764
000040 93 d4 48 be c9 be 6a be bb ea b7 bd f8 32 93 be
       -0.1961234 -0.22924341 -0.08980318 -0.28749824
000050 3f 14 a9 be 16 ac 37 bf 1e a3 da 3d 0d f7 0e bf
       -0.3302326 -0.7174696 0.106756434 -0.5584572
000060 d0 bc 4e 3e 12 c0 0b bf 59 7f 0f bf 93 01 29 bf
       0.20189214 -0.5458995 -0.5605369 -0.6601803
000070 95 67 c4 bd 79 31 2b be 72 67 05 3d 53 54 86 be
       -0.09590069 -0.16718091 0.032569356 -0.2623621
000080 c2 79 99 3e f1 f7 0b be 31 28 b9 be ef 5b d5 3e
       0.29975706 -0.13668801 -0.36163476 0.41671702
000090 f9 9e c2 3d da e7 15 3d 25 5e 99 be b4 ee 0c 3f
       0.09502978 0.036598064 -0.2995464 0.5505173
0000a0 6c 9d 06 bf aa ec bd be 0b d3 99 3d 68 96 92 be
       -0.52583957 -0.37094623 0.075109564 -0.28630376
0000b0 5b 28 f5 bd 7f 3a 9d 3e 3f bf c5 be 4c 34 be be
       -0.11970588 0.3070869 -0.38622472 -0.37149274
0000c0 ab 13 fd bd 29 5f ac 3e 57 dc 2b 3e 34 a5 c8 be
       -0.12357267 0.3366635 0.16783272 -0.3918854
0000d0 7a 7e 5e be cf 0b ef 3e b7 90 93 be bb fa 75 be
       -0.21727934 0.46688697 -0.28821346 -0.24021427
0000e0 95 f6 ff 3c 7d 05 ca be 47 91 0f be cb f0 c5 3e
       0.03124551 -0.39457312 -0.14020263 0.38660273
0000f0 cb a6 05 bf bf 71 40 be c8 6c 91 3e 82 f3 b4 be
       -0.5220763 -0.1879339 0.28403306 -0.35342032

net.2.weight f4 [64, 64]
000000 78 3f 40 be f4 6c 30 be 41 c3 d5 3e 76 9c f6 3d
       -0.18774211 -0.17229062 0.4175053 0.12041561
000010 65 da d3 3c 51 71 22 be 8b b8 fb be 9e 55 8e be
       0.025860975 -0.1586354 -0.49164233 -0.27799696
000020 a5 4c d6 bd a3 85 2a 3d 44 f6 3a bd 0d 89 83 be
       -0.104638375 0.041631352 -0.045645013 -0.256905
000030 78 b5 91 be 69 57 71 bd 44 63 2d be a2 77 d4 bd
       -0.28458762 -0.05892125 -0.16932398 -0.10374381
000040 2c 1e 8d bd 4e 9a 12 bf 9d 75 1a be b5 25 65 be
       -0.068905205 -0.572667 -0.15083928 -0.22377665
000050 b9 74 d1 3a 4b 1e 92 3d 9a 76 26 bf b2 d4 53 bf
       0.0015980221 0.07134684 -0.6502472 -0.8274642
000060 67 a9 6c 3e 4c 83 f5 be 53 77 1f 3f 76 6b 76 3e
       0.23111497 -0.47951734 0.6229145 0.2406443
000070 08 39 eb be 51 45 a2 ba 67 e2 b6 3d bb d3 06 3e
       -0.4594195 -0.0012380277 0.089299016 0.13166706
000080 ff 19 27 bf 24 c2 92 3d 40 87 a0 be 03 55 5b 3d
       -0.6527404 0.07165936 -0.31353188 0.05354787
000090 20 a6 f0 bd 4c d8 a4 bd 6b 84 67 be 10 2d 51 be
       -0.11750436 -0.08049068 -0.22609107 -0.20427346
0000a0 bb fc 9d 3d 83 d6 83 be ab ec 62 3c 1c 43 12 be
       0.0771422 -0.25749597 0.013850371 -0.14283413
0000b0 4d 8a 05 3d dc 19 02 3f fe f8 94 3d 1d cd 94 3d
       0.032602597 0.5082071 0.07274054 0.07265685
0000c0 3f c5 5d bd a2 9a 28 be d7 6a da bd 78 9a fc be
       -0.054143187 -0.16465238 -0.10664909 -0.493366
0000d0 5c 5b ca bd 57 b2 0c be 07 4d de 3d 58 5d fd 3d
       -0.09880707 -0.13739906 0.108545355 0.123713195
0000e0 bf 08 38 bd df 09 df be 33 0a 9e bb 2e 82 02 bf
       -0.044930216 -0.4356222 -0.004822993 -0.5097989
0000f0 a1 7e c4 3f 4c 96 21 bc f0 62 6a be 9e 4d e5 3e
       1.5351144 -0.009862494 -0.22889304 0.4478578
000100 3e d1 bf 3d 3d 9b ed 3d 4e 6e 4d be 71 e1 4a 3e
       0.09366082 0.11601875 -0.20061609 0.19812562
000110 65 06 54 3c a7 03 6f 3d e7 af 7e bb 5f 22 1d be
       0.012940978 0.058353093 -0.003886217 -0.15345143
000120 43 9d 17 be 4d 46 3e bc 24 51 b3 bd 37 7b bc bd
       -0.14806084 -0.011613441 -0.08755711 -0.09203189
000130 a1 5c eb 3d e5 d7 b6 bd 9a ad 35 3d 8a 0d fe bd
       0.11492277 -0.08927897 0.044355012 -0.12404926
000140 6e 7d 48 3d 14 40 16 3d 3b 05 47 bd 95 b9 0e be
       0.048947744 0.036682203 -0.048588973 -0.13937981
000150 35 6b 8a bd ee d5 12 bd 4d 0b c2 bb 92 86 17 be
       -0.06758729 -0.03584855 -0.0059217573 -0.14797428
000160 6e d5 97 bd b9 7f 56 3d 9e 25 27 3e 5b 64 27 be
       -0.07413755 0.0523679 0.16322944 -0.16346876
000170 15 2f b7 bd 55 4d ab bd 04 40 71 bd c0 8a 51 bd
       -0.08944527 -0.08364359 -0.05889894 -0.051157713
000180 9f e6 35 be b7 b1 be 3c 3c bc 70 bd 7b 3b 18 bd
       -0.17763756 0.0232781 -0.058773264 -0.0371661
000190 0a 6c 5b be f7 70 2c 3e c5 67 7e 3e a7 6d 60 be
       -0.21427932 0.16839968 0.24844272 -0.21916829
0001a0 ed b3 21 bc 6b 90 6b bd 78 16 93 bd 38 12 bb 3c
       -0.009869558 -0.057510775 -0.0718202 0.022835836
0001b0 73 ef bd 3d 48 87 27 bb e5 85 30 be e6 09 39 be
       0.09274187 -0.0025562812 -0.17238577 -0.18070182
0001c0 04 44 46 3e f3 4d 28 be 2a ab 07 be 69 96 57 bd
       0.19361883 -0.16435985 -0.13248888 -0.052633677
0001d0 d7 bb 0c bd d0 ce 6e bc eb 43 11 3e 49 7b 9a bd
       -0.034358826 -0.014575675 0.14186065 -0.07543046
0001e0 eb 07 4e be 56 7e 7c bd 39 c9 44 3e 0f 49 db 3d
       -0.20120208 -0.06164392 0.19217385 0.10707294
0001f0 cd 96 16 3e 6f 7d d4 bd 82 a1 51 be 94 f6 c3 3d
       0.14705963 -0.10375487 -0.20471767 0.095685154
000200 c7 bc 43 be 9f 53 32 bf 8a aa b4 be 2e 57 6d bf
       -0.19114982 -0.69658846 -0.3528636 -0.9271115
000210 80 57 bc bd 7e 0b 18 bf 70 e9 7a 3d cb d1 23 be
       -0.09196377 -0.59392536 0.06125778 -0.15997998
000220 4f 9e 2c be ee da 39 3f 30 10 22 40 80 6c de be
       -0.16857265 0.72599685 2.532238 -0.43442154
000230 91 1c ac 3f a1 01 44 bf c8 2c e7 3d aa d8 b7 be
       1.3446218 -0.76564986 0.11287838 -0.3590749
000240 be c0 8b be 40 a9 41 bd cb 3a 81 3c 3d ea e3 be
       -0.27295488 -0.04728055 0.015775105 -0.44514647
000250 ba ee d3 be b7 de b6 bd ad ef 8b be ec c7 26 3f
       -0.4139307 -0.08929198 -0.27331296 0.65148807
000260 94 53 c2 be 58 67 24 3d 36 0d 09 3f 3f 1f 27 be
       -0.3795439 0.04013762 0.53535783 -0.16320513
000270 37 83 2f 3c 54 35 f2 3d 41 94 30 bf 72 f4 72 3d
       0.010712436 0.11826578 -0.6897622 0.059315152
000280 f4 f6 97 be f0 a2 18 3e 19 b5 07 3e d5 7b f3 be
       -0.29680598 0.14905906 0.13252677 -0.47555414
000290 5b f8 21 3f 9c ce 4d be 26 87 a6 3e 3e c0 1d be
       0.63269585 -0.20098346 0.32524985 -0.15405366
0002a0 0d 0b a4 3f 84 fe 6e 3f d4 9f 9e bd 68 72 84 bd
       1.2815872 0.9335711 -0.077453285 -0.06467134
0002b0 59 33 9a 3d bb 74 a4 be e1 12 96 3e c1 37 65 be
       0.07529325 -0.32120308 0.29311278 -0.2238455
0002c0 02 bf d3 bd 06 db 3b 3d 61 80 4b bf 28 0b 5b 3f
       -0.10339166 0.045863174 -0.79492766 0.855639
0002d0 00 73 27 3e 28 99 0c be e3 b1 0d bd b1 33 f8 be
       0.16352463 -0.137303 -0.034593474 -0.48476937
0002e0 2e e7 87 bf 1c 85 92 be 97 94 92 bd 15 a5 62 bf
       -1.0617425 -0.2861718 -0.071572475 -0.88533145
0002f0 fc f9 2f 3f 40 32 76 bd 21 be 57 bf 22 85 ad 3e
       0.6874082 -0.060106516 -0.8427449 0.33890635
000300 58 e0 d7 bc 17 36 76 3d 77 6e 52 bd 70 fe 5b 3d
       -0.026352093 0.060110178 -0.05137488 0.053709447
000310 ac 22 bd bd 99 3e 15 bd 41 3e f2 3c 27 8f d8 bd
       -0.09235129 -0.03643665 0.0295707 -0.10574179
000320 c9 d5 b7 bd 70 c4 81 bd 83 d5 6d bc b3 82 49 bc
       -0.08976323 -0.063362956 -0.014516237 -0.0122992275
000330 3f ec d6 3d c2 ef b8 bd b8 5d e1 bd e1 83 1d 3c
       0.10494279 -0.09030105 -0.110042036 0.009613962
000340 11 09 d3 3c 08 80 bd bd bb 7d f4 3d b4 60 36 be
       0.02576116 -0.09252936 0.11938044 -0.17810327
000350 a1 e2 0e bd ea 36 5b bd 84 b8 c8 3c 47 39 ad bd
       -0.0348841 -0.053519167 0.024502046 -0.084581904
000360 df 31 54 be 46 b3 2e 3d f7 9e 35 bd ac 17 8a 3d
       -0.2072215 0.042651437 -0.044341054 0.06742796
000370 f8 50 1e 3e 72 9e 91 3c 9f 3e f4 3c 1a 9c fe bd
       0.15460575 0.017775748 0.029815016 -0.12432118
000380 cf 60 fa bc 4c 42 81 3e e9 33 03 3c 04 2c 57 be
       -0.03056374 0.25245893 0.008007982 -0.21012884
000390 9f 26 53 bd d2 36 f5 bd 23 17 28 bd 9a 31 34 be
       -0.051550504 -0.11973347 -0.04103769 -0.17597046
0003a0 fd 9f e3 bc b8 c6 55 3d 0e 12 23 bc 83 ca 99 bd
       -0.02778625 0.052191466 -0.009953035 -0.07509329
0003b0 22 ac 64 3b d8 50 38 bd 60 97 6d bd 26 68 90 3d
       0.0034892638 -0.044998974 -0.05800569 0.07051115
0003c0 15 ec 64 3e 07 32 3f bd 91 b0 be bd 3c 93 0c be
       0.22355683 -0.04667857 -0.09311021 -0.1372804
0003d0 14 3c 78 bd 67 ce 14 3d 6a f5 ec bc b0 8e 72 bb
       -0.06060417 0.036329653 -0.028925616 -0.0037011318
0003e0 bb 21 2c bb 5f cc 82 bd 5d de 6a bd fd e2 19 be
       -0.0026265222 -0.06386637 -0.05734097 -0.15027995
0003f0 ec 3e 31 bd f7 af 53 3b 63 f5 e0 3d fe 68 a9 3d
       -0.043272898 0.0032300928 0.10984304 0.08271979

net.2.bias f4 [64]
000000 50 55 0d be c8 d0 82 3d dc 51 7b be 5d 50 cd bd
       -0.13802075 0.06387478 -0.24542946 -0.10025094
000010 5d 5e 03 3f d2 f3 ca 3e 0f 25 2e be 75 68 9b 3e
       0.5131586 0.39639145 -0.17006324 0.30353132
000020 d8 f1 0b be 61 a7 29 3f 3d ef 70 3e 8a a2 dc 3e
       -0.13666475 0.66271025 0.23528762 0.43092757
000030 57 80 ef 3e a7 f1 aa 3e 83 f1 9f be 5e 7b 9b 3d
       0.46777603 0.3338749 -0.31238946 0.0759189
000040 27 6c fc bd 66 6f c8 3e 67 18 56 bb 54 7c e8 3e
       -0.12325316 0.3914749 -0.0032668354 0.45407355
000050 34 4a 1f 3c 1a 9c 5f bd 11 93 fe 3e 74 20 c0 3e
       0.009722281 -0.05459223 0.49721578 0.3752476
000060 23 ff e7 3e 15 a6 30 3d 64 7a 8c 3e 0e a6 21 3e
       0.4531184 0.04312714 0.27437127 0.15786001
000070 d1 d7 34 bd f1 3a b5 3e b7 40 e9 bd 8c c5 ff 3e
       -0.04415113 0.3539653 -0.113892965 0.49955404
000080 5f e1 d1 bd ba 10 c8 3e fd fa ba bd a9 05 65 bd
       -0.10248064 0.3907526 -0.091299035 -0.0559136
000090 7e bc f7 3e 4c 1e 9c bd 6b 80 cc 3e 15 c9 f2 3e
       0.48385996 -0.07622966 0.39941725 0.47419038
0000a0 15 dc 99 be dc 32 c3 3e 3c 7e 93 bd 1a f1 04 be
       -0.30050722 0.3812474 -0.07201812 -0.12982598
0000b0 33 4a fb 3e 8b ee d4 3e a2 e0 ee bd 81 28 f7 3e
       0.49080047 0.41588244 -0.11663939 0.4827309
0000c0 2e 75 86 bd 31 74 a3 bd ec 2c 15 3f 17 fe 07 3f
       -0.06565319 -0.07981146 0.5827167 0.53122085
0000d0 d3 ff f5 bd d5 ee f2 bc cf b0 de bd 33 1c ee 3e
       -0.12011685 -0.0296549 -0.10873567 0.4650589
0000e0 00 bf 3e bd 63 11 0c 3f a0 32 0d be 35 37 d5 bd
       -0.04656887 0.5471403 -0.13788843 -0.104109205
0000f0 d2 1e 07 3f 96 cf 23 be a7 d0 d1 3e c2 18 a5 3e
       0.52781403 -0.15997157 0.40979502 0.3224545

net.4.weight f4 [2, 64]
000000 d9 57 18 bf b1 e9 d6 bd 52 f2 16 c0 aa 1b 25 3e
       -0.59509045 -0.10493792 -2.35854 0.16123834
000010 5c 50 46 3f de 71 6a 3f 30 ef 54 c0 1c 89 44 3f
       0.7746637 0.9158 -3.3270988 0.7677171
000020 b1 79 7f 3e 17 38 7d 3f 4d e6 1e c0 8f df 67 3f
       0.24948765 0.9891371 -2.4828064 0.905755
000030 7f 61 ef 3e e3 a1 87 3f e9 ef ea bf 93 fe 8c 3c
       0.4675407 1.0596279 -1.8354465 0.017211234
000040 f1 db 87 3d 68 78 39 3f 3e 3e 98 3d b8 16 97 3f
       0.06633747 0.7244935 0.07433747 1.1803808
000050 d1 4b 21 bd b9 46 f9 bd be e1 16 3f 09 b7 8d 3f
       -0.039378945 -0.121716924 0.58938205 1.1071483
000060 b6 f1 a4 3f 9d d6 b7 bc f1 aa 61 3f df 0e b4 bd
       1.2886264 -0.022441203 0.8815146 -0.08791899
000070 31 53 99 3d fc 06 91 3f b9 64 32 c0 43 0e 7a 3f
       0.074865706 1.1330256 -2.7873976 0.9767801
000080 84 5d 75 c0 35 95 dd 3e 3b a9 9d bf b9 bb 2f c0
       -3.8338327 0.43277898 -1.231727 -2.7458327
000090 d1 7c 53 3f d2 13 58 3e 0d 3f 53 3f ff 4f 43 3f
       0.8261233 0.21101311 0.8251808 0.7629394
0000a0 b3 cd 8f be 5f 94 49 3f 06 8c a5 3e fc ec 1b bd
       -0.28086624 0.7874202 0.32333392 -0.038067803
0000b0 0a c5 56 bb 69 3b 4d 3f 78 f9 2e 3d 29 fe 4c 3f
       -0.0032771253 0.8016878 0.04271838 0.8007532
0000c0 1e b2 56 bc 62 42 e5 bc 20 12 7a 3f 4a 17 6c 3f
       -0.01310399 -0.027985755 0.97683907 0.92223036
0000d0 9a 0f 89 bd 91 3a fc bf 78 bc ce bc 9f d9 41 3f
       -0.06692429 -1.9705373 -0.025236353 0.7572269
0000e0 85 a7 1d 3c 2d fa 7a 3f b9 db 9e bb 5d 6e 9d bd
       0.009622459 0.9803799 -0.0048479703 -0.07687066
0000f0 22 c8 37 3f 67 59 d8 ba a4 e2 bb 3e 6d f5 61 3f
       0.71789753 -0.0016506136 0.3669635 0.88265115
000100 48 98 4e 3f 45 0b ac 3c 2a d0 ca bf 73 09 0c be
       0.8070111 0.021001467 -1.5844777 -0.1367548
000110 59 7c 77 3f a3 89 6c 3f 10 7a 72 c0 80 b1 f6 3e
       0.96674114 0.92397517 -3.7887 0.48182297
000120 bc 24 80 be b4 a6 7f 3f bc 2b 10 c0 41 14 d1 3e
       -0.25028026 0.99863744 -2.2526693 0.40835765
000130 a5 70 7d 3f 8a 93 c1 3e b5 04 44 c0 bf 2e 0c be
       0.99000007 0.37807876 -3.0627873 -0.13689707
000140 7f 25 28 3e 47 ad 86 3f ad 57 a6 bd 4b 57 5e 3f
       0.16420554 1.052163 -0.081221916 0.8685195
000150 8f dc a7 3c 60 46 12 be c4 0c 86 3f 57 23 99 3f
       0.020490913 -0.14284658 1.0472646 1.196391
000160 41 46 05 3f c0 68 15 be 46 25 37 3f 7a 91 ff 3b
       0.52060324 -0.1459074 0.7154125 0.0077993246
000170 53 9f 91 bb 1c d2 01 3f 27 3d 21 c0 c8 87 b6 3f
       -0.0044440418 0.50711226 -2.5193574 1.4260187
000180 89 2e 8b c0 ba 22 7f 3f 9f bf 9d bf e6 09 be bf
       -4.3494306 0.99662364 -1.2324103 -1.4846771
000190 1c b1 66 3f 23 42 76 3d f6 c9 57 3f 3b a3 15 3f
       0.90114 0.060121667 0.8429254 0.58452195
0001a0 be 98 35 c0 41 a4 20 3f 29 aa 53 be 79 ab a9 3d
       -2.8374476 0.6275063 -0.2067038 0.08284659
0001b0 24 4c 91 3f 6e 4b 54 3e 1b ef cf 3c cd e8 4c 3f
       1.1351361 0.20731899 0.025382569 0.80042726
0001c0 f1 df 05 bc a4 ff 04 3d cc a3 7a 3f 2c a2 a0 3f
       -0.008171068 0.03247036 0.97906184 1.2549491
0001d0 32 7a 1b be 42 d9 29 c0 50 84 a1 3d 95 76 38 3f
       -0.15183333 -2.6538854 0.07886565 0.7205594
0001e0 03 39 27 3d 24 83 66 3e 11 0f 4b 3d 2d 42 82 3b
       0.040825855 0.22510964 0.049574915 0.003975174
0001f0 b6 aa 5a 3f fb 58 f1 3d a9 ba 85 3f 36 6b 12 3f
       0.85416734 0.1178455 1.0447589 0.5719484

net.4.bias f4 [2]
000000 e9 44 cd 3e c2 1c 2b 3e
       0.40091637 0.16710189

net.0.weight f4 [64, 4]
000000 02 22 28 bd 80 55 da 3d 12 79 94 3d d5 86 b4 bc
       -0.041048057 0.10660839 0.07249655 -0.02203695
000010 85 fa cc 3d ea 23 a9 bd 1a ed 91 3e fb df 8b bc
       0.1000872 -0.08258803 0.28501207 -0.017074576
000020 7a b7 bf bd 02 07 7e 3d 76 04 e6 3f cc 1a 38 3e
       -0.09361167 0.062018402 1.7970111 0.17978972
000030 35 08 76 be cd 58 17 3e cf 43 97 3f f0 71 57 3d
       -0.24026568 0.14779969 1.1817569 0.052598894
000040 46 bd ab bd 96 7f a8 bc 89 d0 46 3d d9 b3 36 3b
       -0.083857104 -0.02056865 0.04853872 0.0027878194
000050 43 c3 5c 3e 21 2d 81 be 7e a2 7c bf 74 b9 24 be
       0.21558861 -0.25229743 -0.98685443 -0.1608637
000060 e2 1d 91 bd 99 f8 cc 3d 53 d3 0f bf 70 40 c4 3d
       -0.07085778 0.10008354 -0.5618183 0.09582603
000070 b3 c7 dc bd 68 92 0b 3c 96 a9 bc 3b 2e 46 48 3c
       -0.10780277 0.008518793 0.005757521 0.012223763
000080 1f e5 8b 3b cc 3f 91 bd f3 89 30 3d c9 dc 2b bd
       0.0042692567 -0.070922464 0.04310031 -0.041958604
000090 64 d6 68 be 2d e8 f5 3a 01 95 24 bc 09 0a c9 3d
       -0.22738034 0.001876121 -0.010045291 0.09816367
0000a0 92 98 13 be ae 80 6c bd 50 d9 a2 bf 64 6c 8b bd
       -0.1441367 -0.057739906 -1.2722569 -0.06807783
0000b0 80 09 b1 3d 93 f4 0f 3c 02 87 92 bf 4e c4 a6 3e
       0.0864439 0.008786338 -1.1447451 0.32571644
0000c0 78 59 8a be cb 52 3e bd 46 48 52 3f 11 96 91 3b
       -0.27021384 -0.046465676 0.8214153 0.004442938
0000d0 19 ed ee bd 84 3c 3e 3e 7e 2e 77 3f ce 49 95 be
       -0.116663165 0.18577772 0.96555316 -0.2915787
0000e0 c9 bc db 3c a5 fd 0d bc 88 6a 3e be 48 86 b0 bc
       0.026823418 -0.008666431 -0.18595326 -0.021548405
0000f0 56 95 e4 3c e5 47 93 bc 3c ee c0 3e 75 b6 82 3d
       0.02790324 -0.017978618 0.37681758 0.06382457
000100 b7 9c 53 be 14 11 51 bd 74 da 85 bf e6 ca 7d 3e
       -0.2066525 -0.051041678 -1.0457292 0.24784431
000110 4b a6 90 3e b5 9b 13 bd 70 cd 07 bf 97 ab 37 bd
       0.2825187 -0.036037166 -0.5304785 -0.044841375
000120 a1 6e 45 3d a6 05 2e bd e8 e5 c4 bd 15 ed 03 bd
       0.048201207 -0.042485856 -0.09614164 -0.03220852
000130 e1 4b 53 be 63 93 2a be 51 3d b1 be 10 40 09 be
       -0.20634414 -0.16657786 -0.34617093 -0.13403344
000140 20 a3 b5 3d ab 58 1f 3e 0c b9 e8 be c1 8c c3 bd
       0.08869004 0.15561168 -0.4545368 -0.09548331
000150 fd 68 aa 3e 48 27 a4 3d b7 34 2e be b1 a6 f2 3c
       0.33283225 0.08015305 -0.17012297 0.0296205
000160 9b 5c da 3d 58 b6 73 be fa a8 4e bf 1f 2f 42 be
       0.10662194 -0.23800027 -0.8072659 -0.18963288
000170 0f 93 88 3e 9d 73 42 3d 3a 43 78 bf a6 d0 e7 bb
       0.26674697 0.04747354 -0.9697758 -0.0070744334
000180 55 be a5 bd c4 c5 db 3d a8 f6 a1 3f 87 43 e0 3d
       -0.080929436 0.1073108 1.2653399 0.1095038
000190 20 fc 36 be 25 52 8b bd 5a 6d 6a be 84 0d 63 3e
       -0.17869616 -0.06802777 -0.22893277 0.22173125
0001a0 9a 44 ef 3d 31 5e e2 3d 5f 59 62 3f 1b 18 dc 3d
       0.116830066 0.11053122 0.8841762 0.10746785
0001b0 20 2b f6 3e cb 4e 1f bd 13 db 9a 3e 7b 7b 9d bd
       0.48079777 -0.038893502 0.30245265 -0.07689568
0001c0 a2 97 9c 3e 41 fb 8c be 15 d6 7b 3f 50 58 d3 3d
       0.30584437 -0.27535442 0.9837354 0.10319579
0001d0 5e bb be 3c 7b 1e 10 be 93 a4 f1 bd 73 62 a8 be
       0.023282703 -0.14074127 -0.11798968 -0.3288761
0001e0 15 f4 74 be fb 55 48 3e e4 61 3a 3f d5 26 0a be
       -0.23921235 0.19564049 0.7280562 -0.13491376
0001f0 5a ce e9 bc d6 e9 a8 bc 93 4b ee 3c be 00 91 bd
       -0.028540779 -0.020619314 0.029088771 -0.0708022
000200 6f 78 ec 3c cf b3 af 3b cf 9f 7e bf bf 2e ee bd
       0.028866021 0.005362011 -0.994626 -0.1163001
000210 f3 8f 60 bb 53 82 68 3d 1a 91 98 bc b8 5e 4d 3d
       -0.0034265488 0.05676491 -0.018623877 0.05013916
000220 ae 88 81 bd d8 5e ae 3a f7 0a 43 3f 63 12 ad 3e
       -0.06324898 0.0013303412 0.76188606 0.3380309
000230 6a 7a e0 3d 04 f4 67 bc 2a 79 c2 bd 98 f6 86 3c
       0.10960849 -0.014157299 -0.094957665 0.016475007
000240 4b 2e 97 3c 06 1f 5d bd fc a4 d3 bf 4f b0 a9 be
       0.018454691 -0.053984664 -1.6534724 -0.33142325
000250 68 86 aa bd 57 62 8d 3d 46 ce 80 3f ae 63 3c bd
       -0.08326417 0.069035225 1.006295 -0.0459935
000260 00 08 47 bd 2d 28 86 3d 6a 5a 55 be 4e 71 24 3e
       -0.048591614 0.06550632 -0.20835271 0.16058847
000270 4d d3 cb 3d aa 03 b9 bd cc a4 3f bd 6b f4 32 bc
       0.09952412 -0.09033902 -0.046788022 -0.010922532
000280 09 b5 31 be ad 75 a2 bd 55 96 65 be 6e 7d b7 bd
       -0.17354216 -0.07932601 -0.22420628 -0.08959471
000290 7e c1 8b 3e 37 d7 2d be 87 1d ea bf 91 ad 65 be
       0.2729606 -0.16976629 -1.8290261 -0.22429492
0002a0 66 ad 17 be fb 01 32 3e 53 b3 90 3f 24 0f 61 3c
       -0.1481224 0.17383568 1.1304725 0.01373652
0002b0 2b 0e 20 be e8 b6 9b 3e 05 a8 d5 3e bc a4 c7 3b
       -0.15630405 0.30412984 0.4172975 0.006092636
0002c0 40 73 26 3c b3 8a 72 bd a0 90 e7 bd 20 f9 30 bd
       0.010159314 -0.059214305 -0.11306882 -0.043206334
0002d0 b9 a3 fc 3c 75 c5 03 3e be aa 97 3f a4 c9 65 3e
       0.030839788 0.12868293 1.1848981 0.22440201
0002e0 77 4a fd 3d 6c d6 03 be ef cb f4 bf 6b 9d 9c be
       0.12367719 -0.12874764 -1.9124736 -0.3058885
0002f0 71 80 56 3e c1 b4 42 be 31 9f 66 be 0f ae 57 3d
       0.20947434 -0.19014265 -0.22521664 0.05265623
000300 b6 10 32 bc 40 86 34 3d f0 9f da ba 5a cd 1e 3d
       -0.010868242 0.044073343 -0.0016679745 0.038770057
000310 06 a9 d6 bd c4 fb 19 3d 5b 47 75 be 2c ef 86 bc
       -0.104814574 0.037593618 -0.23953001 -0.016471468
000320 a2 6e c4 3d 33 23 87 bd 35 12 23 bf 8a f4 d7 bd
       0.09591414 -0.065985106 -0.63699657 -0.10544689
000330 56 4e 1c bf 4a 1c 94 bd c4 0b 88 3f 9c 0c e9 3d
       -0.6105703 -0.07231958 1.062859 0.11379358
000340 f3 2c 0e bd 4d 6e 0f 3e 16 aa 87 3f 28 b2 6a 3e
       -0.034710836 0.1400692 1.0598781 0.22919524
000350 f1 6b 17 bd d9 4a 5b bd d7 55 74 3e 75 bb 8b bc
       -0.036968175 -0.053538177 0.2386087 -0.01705716
000360 47 a5 17 3d 22 8a 7d 3c 12 96 53 bd 53 c0 93 3c
       0.037022855 0.015474828 -0.05165679 0.018036043
000370 fa 56 19 be 2b 02 85 3e 27 7b 4f 3f c6 b4 0e be
       -0.14974585 0.25978217 0.8104729 -0.13936147
000380 54 c3 5c 3e a4 cf 34 be ff 83 5e bf 5d f0 98 3e
       0.21558887 -0.17657334 -0.8692016 0.29870883
000390 2c 88 0d 3d 13 4e f8 bd 6a 57 e2 be 21 a9 4e 3d
       0.03455369 -0.121242665 -0.44207317 0.050454263
0003a0 f3 54 ee bc a6 a6 a8 3d 06 15 94 bd ff 9a 3b 3d
       -0.029093241 0.08234911 -0.072305724 0.045802113
0003b0 79 eb ef 3d ba 38 82 bd 88 1c 1e bf 6d 33 3d be
       0.11714835 -0.06358476 -0.61762285 -0.18476649
0003c0 e9 6f f1 3d 5c 0e 42 bc 09 04 83 3f 6a f6 9c 3c
       0.11788923 -0.011844244 1.0235606 0.019160468
0003d0 41 b0 c5 bc 5c b5 82 3c 0b 6f 69 bd e2 8b ef bc
       -0.024131896 0.01595562 -0.056990664 -0.029241506
0003e0 d9 8b 1e 3e b3 1e 1d be 85 3f 9d bf 71 2a 1e be
       0.15483035 -0.15343742 -1.228501 -0.15445878
0003f0 2f a9 2f 3e aa 1e 00 be 19 ef d6 3e d2 0b d0 bb
       0.17154382 -0.12511697 0.41979292 -0.0063490653

net.0.bias f4 [64]
000000 bc b4 b9 3e b8 db 81 3e bf 1c 90 be 01 c1 21 bd
       0.36270702 0.25362945 -0.28146932 -0.039490703
000010 9e ec 97 be 66 06 85 3e d8 e9 21 be 4b 34 ef 3e
       -0.29672712 0.25981444 -0.1581186 0.46719584
000020 46 86 a7 3e c2 2c bd be 1e c6 bb be df 85 1e bd
       0.3271963 -0.3694821 -0.3667459 -0.03870189
000030 de a3 0e bf c4 c8 8a be 7e 0e 16 be ba a0 5e 3e
       -0.5571879 -0.27106297 -0.14653966 0.21741
000040 41 23 4a be 5c 77 67 be 78 ea b7 bd 7d 2a 93 be
       -0.19740011 -0.22604126 -0.08980268 -0.28743353
000050 03 42 92 be 7c 08 36 bf 47 18 a1 3d 7f ef 0d bf
       -0.28565988 -0.71106696 0.07865959 -0.5544357
000060 1c 26 59 3e d8 ba 0b bf 08 54 0b bf e8 6a 27 bf
       0.21205944 -0.54581976 -0.54425097 -0.653975
000070 12 75 a7 bd cb 38 26 be 25 a3 04 3d ed 53 86 be
       -0.08176626 -0.16232602 0.03238215 -0.26235905
000080 44 78 97 3e f1 f7 0b be 0e 3b af be ce 5b d4 3e
       0.29583943 -0.13668801 -0.34224743 0.4147629
000090 68 7d 90 3d 60 29 34 3d 26 5e 99 be fd 32 0c 3f
       0.07055169 0.04398477 -0.29954642 0.547653
0000a0 1c 8d 06 bf 59 ed bd be 06 b5 a7 3d 50 be 91 be
       -0.52559066 -0.37095144 0.08188824 -0.2846551
0000b0 5b 28 f5 bd 9d 89 9e 3e 15 b6 c5 be 16 8c bd be
       -0.11970588 0.30964366 -0.3861548 -0.3702094
0000c0 c6 d2 fc bd 7f 81 aa 3e 87 f4 2e 3e 33 9f c8 be
       -0.12344889 0.33301923 0.17085467 -0.3918396
0000d0 89 bb 4f be b2 91 ed 3e b7 90 93 be e9 00 5c be
       -0.20286383 0.4640022 -0.28821346 -0.21484722
0000e0 79 c6 e6 3c d9 04 ca be c5 90 0f be 04 77 c3 3e
       0.028170811 -0.39456823 -0.14020069 0.3817674
0000f0 f0 7d 05 bf 49 71 40 be 6d 94 8f 3e 18 f3 b4 be
       -0.5214529 -0.18793215 0.28042927 -0.35341716

net.2.weight f4 [64, 64]
000000 49 3f 40 be 80 6c 30 be 1a c3 d5 3e 43 9d f6 3d
       -0.18774141 -0.1722889 0.41750413 0.12041714
000010 65 da d3 3c cf 70 22 be 4c b8 fb be 25 55 8e be
       0.025860975 -0.15863346 -0.49164045 -0.27799335
000020 9a 4c d6 bd 8f 85 2a 3d ef f6 3a bd 15 89 83 be
       -0.10463829 0.041631278 -0.04564565 -0.25690523
000030 36 b5 91 be 0b 58 71 bd 27 63 2d be 12 77 d4 bd
       -0.28458565 -0.058921855 -0.16932355 -0.10374273
000040 6e 1d 8d bd 1e 9a 12 bf 9d 75 1a be 2a 26 65 be
       -0.06890379 -0.57266414 -0.15083928 -0.2237784
000050 89 75 d1 3a ad 1e 92 3d 7f 76 26 bf 92 d4 53 bf
       0.0015980463 0.07134757 -0.6502456 -0.8274623
000060 9a a9 6c 3e 3c 83 f5 be dd 77 1f 3f 0b 6c 76 3e
       0.23111573 -0.47951686 0.6229227 0.24064653
000070 db 38 eb be 51 45 a2 ba 2f e3 b6 3d bb d3 06 3e
       -0.45941815 -0.0012380277 0.089300506 0.13166706
000080 c7 19 27 bf 24 c2 92 3d f7 86 a0 be a9 55 5b 3d
       -0.6527371 0.07165936 -0.3135297 0.05354849
000090 ec a5 f0 bd a7 d7 a4 bd 6b 84 67 be e2 2c 51 be
       -0.11750397 -0.08048945 -0.22609107 -0.20427278
0000a0 2e fc 9d 3d 6d d6 83 be 6a ed 62 3c 65 43 12 be
       0.07714115 -0.2574953 0.013850549 -0.14283521
0000b0 4d 8a 05 3d ac 1a 02 3f 25 f9 94 3d 65 cd 94 3d
       0.032602597 0.5082195 0.07274083 0.072657384
0000c0 3f c5 5d bd 27 9a 28 be 82 6a da bd 14 9a fc be
       -0.054143187 -0.16465054 -0.10664846 -0.49336302
0000d0 c9 5a ca bd 9d b1 0c be 0a 4d de 3d 2b 5e fd 3d
       -0.09880597 -0.13739629 0.10854538 0.12371477
0000e0 28 08 38 bd 52 09 df be 33 0a 9e bb cd 81 02 bf
       -0.044929653 -0.43561798 -0.004822993 -0.5097931
0000f0 c8 7e c4 3f 4c 96 21 bc cb 62 6a be 02 4e e5 3e
       1.535119 -0.009862494 -0.22889249 0.44786078
000100 e7 d1 bf 3d ca 9b ed 3d 49 6e 4d be f0 e1 4a 3e
       0.093662076 0.1160198 -0.20061602 0.19812751
000110 65 06 54 3c 2b 03 6f 3d ac af 7e bb 36 22 1d be
       0.012940978 0.05835263 -0.0038862033 -0.15345082
000120 ee 9c 17 be d0 45 3e bc 20 51 b3 bd 38 7b bc bd
       -0.14805958 -0.011613324 -0.08755708 -0.092031896
000130 03 5c eb 3d 78 d7 b6 bd 9a ad 35 3d 2c 0d fe bd
       0.11492159 -0.08927816 0.044355012 -0.12404856
000140 38 7e 48 3d 7d 40 16 3d 3b 05 47 bd 25 b9 0e be
       0.048948497 0.036682595 -0.048588973 -0.13937815
000150 cd 6a 8a bd 45 d6 12 bd 70 0b c2 bb 46 86 17 be
       -0.06758652 -0.035848875 -0.0059217736 -0.14797315
000160 2e d5 97 bd 29 80 56 3d 7f 25 27 3e ff 63 27 be
       -0.07413708 0.052368317 0.16322897 -0.16346739
000170 bf 2f b7 bd 55 4d ab bd d4 3f 71 bd c0 8a 51 bd
       -0.08944654 -0.08364359 -0.058898762 -0.051157713
000180 10 e6 35 be b7 b1 be 3c cc bb 70 bd be 3a 18 bd
       -0.17763543 0.0232781 -0.058772847 -0.037165396
000190 8a 6b 5b be be 71 2c 3e cc 67 7e 3e 93 6d 60 be
       -0.21427742 0.16840264 0.24844283 -0.21916799
0001a0 86 b4 21 bc 5b 90 6b bd 56 16 93 bd 80 11 bb 3c
       -0.0098697 -0.057510715 -0.071819946 0.022835493
0001b0 73 ef bd 3d 27 87 27 bb 80 85 30 be 30 09 39 be
       0.09274187 -0.0025562735 -0.17238426 -0.18069911
0001c0 04 44 46 3e 97 4d 28 be e5 aa 07 be 11 97 57 bd
       0.19361883 -0.16435848 -0.13248785 -0.052634303
0001d0 8c bc 0c bd d3 ce 6e bc ee 43 11 3e 4e 7b 9a bd
       -0.0343595 -0.014575678 0.1418607 -0.0754305
0001e0 69 07 4e be bb 7e 7c bd c8 c9 44 3e 29 49 db 3d
       -0.20120014 -0.061644297 0.19217598 0.107073136
0001f0 6e 96 16 3e 6f 7d d4 bd 4a a1 51 be 11 f6 c3 3d
       0.14705822 -0.10375487 -0.20471683 0.09568418
000200 35 bc 43 be 38 53 32 bf 9c a9 b4 be d2 57 6d bf
       -0.19114764 -0.6965823 -0.35285652 -0.9271213
000210 48 57 bc bd 16 0b 18 bf 0b ea 7a 3d eb d0 23 be
       -0.09196335 -0.59391916 0.061258357 -0.15997665
000220 06 9e 2c be 57 db 39 3f ef 0f 22 40 11 6d de be
       -0.16857156 0.7260031 2.5322225 -0.43442586
000230 5e 1d ac 3f d5 01 44 bf ea 2c e7 3d 80 d8 b7 be
       1.3446462 -0.76565295 0.112878636 -0.35907364
000240 35 c0 8b be c8 a9 41 bd cb 3a 81 3c c3 e9 e3 be
       -0.2729508 -0.047281057 0.015775105 -0.44514284
000250 5a ee d3 be 80 de b6 bd 15 ef 8b be bf c7 26 3f
       -0.41392785 -0.08929157 -0.27330843 0.6514854
000260 51 53 c2 be 3c 6a 24 3d cd 0c 09 3f 3f 1f 27 be
       -0.3795419 0.040140375 0.5353516 -0.16320513
000270 d5 9d 2f 3c 87 38 f2 3d 90 93 30 bf 8b f4 72 3d
       0.010718782 0.11827188 -0.6897516 0.059315246
000280 c6 f6 97 be f0 a2 18 3e d4 b5 07 3e b4 7b f3 be
       -0.2968046 0.14905906 0.13252956 -0.47555315
000290 7e f8 21 3f 58 cd 4d be e7 86 a6 3e a3 bf 1d be
       0.63269794 -0.20097864 0.32524797 -0.15405135
0002a0 be 0b a4 3f 42 ff 6e 3f 43 9d 9e bd e5 71 84 bd
       1.2816083 0.9335824 -0.07744839 -0.06467036
0002b0 59 33 9a 3d 6f 74 a4 be 66 12 96 3e 22 38 65 be
       0.07529325 -0.32120082 0.29310912 -0.22384694
0002c0 02 bf d3 bd ad dd 3b 3d c1 7f 4b bf 71 0b 5b 3f
       -0.10339166 0.045865703 -0.7949181 0.85564333
0002d0 9e 73 27 3e 54 98 0c be e3 b1 0d bd 97 34 f8 be
       0.16352698 -0.13729984 -0.034593474 -0.48477623
0002e0 0d e7 87 bf cd 85 92 be de 93 92 bd c3 a4 62 bf
       -1.0617386 -0.28617707 -0.0715711 -0.88532656
0002f0 a7 f9 2f 3f 40 32 76 bd 22 be 57 bf bf 84 ad 3e
       0.68740314 -0.060106516 -0.84274495 0.3389034
000300 81 da d7 bc 55 39 76 3d 8f 6b 52 bd 70 fe 5b 3d
       -0.026349308 0.06011327 -0.051372107 0.053709447
000310 ac 22 bd bd 7c 3b 15 bd 83 3e f2 3c b1 8d d8 bd
       -0.09235129 -0.03643368 0.029570824 -0.105739005
000320 57 d4 b7 bd 70 c4 81 bd 83 d5 6d bc 90 77 49 bc
       -0.089760475 -0.063362956 -0.014516237 -0.012296572
000330 c1 ec d6 3d c2 ef b8 bd b8 5d e1 bd 77 8f 1d 3c
       0.10494376 -0.09030105 -0.110042036 0.009616724
000340 aa 0e d3 3c 60 7f bd bd bb 7d f4 3d b8 60 36 be
       0.025763828 -0.092528105 0.11938044 -0.17810333
000350 22 e0 0e bd ea 36 5b bd 09 be c8 3c 47 39 ad bd
       -0.03488172 -0.053519167 0.024504678 -0.084581904
000360 2c 31 54 be 48 b6 2e 3d f8 9e 35 bd ac 17 8a 3d
       -0.20721883 0.042654306 -0.044341058 0.06742796
000370 b3 51 1e 3e 72 9e 91 3c 9f 3e f4 3c 24 9c fe bd
       0.15460853 0.017775748 0.029815016 -0.12432125
000380 53 5b fa bc 4c 42 81 3e 86 3f 03 3c ac 2b 57 be
       -0.030561125 0.25245893 0.008010751 -0.21012753
000390 9f 26 53 bd ac 36 f5 bd 23 17 28 bd fa 30 34 be
       -0.051550504 -0.119733185 -0.04103769 -0.17596808
0003a0 fd 9f e3 bc b8 c6 55 3d bf 11 23 bc 83 ca 99 bd
       -0.02778625 0.052191466 -0.0099529615 -0.07509329
0003b0 22 ac 64 3b 65 4e 38 bd 60 97 6d bd 6d 69 90 3d
       0.0034892638 -0.044996638 -0.05800569 0.07051358
0003c0 15 ec 64 3e 55 2f 3f bd 07 af be bd c7 92 0c be
       0.22355683 -0.046676 -0.093107276 -0.13727866
0003d0 b2 39 78 bd 60 d1 14 3d 6a f5 ec bc b0 8e 72 bb
       -0.060601898 0.036332488 -0.028925616 -0.0037011318
0003e0 d1 f4 2b bb cc cc 82 bd 5d de 6a bd 98 e2 19 be
       -0.0026238451 -0.06386718 -0.05734097 -0.15027845
0003f0 ec 3e 31 bd f7 af 53 3b 8a f6 e0 3d fe 68 a9 3d
       -0.043272898 0.0032300928 0.109845236 0.08271979

net.2.bias f4 [64]
000000 e5 54 0d be 7c d1 82 3d d7 50 7b be c8 4e cd bd
       -0.13801916 0.06387612 -0.24542557 -0.10024792
000010 7f 4e 02 3f 91 e0 c7 3e 95 01 2e be c8 c6 98 3e
       0.50901026 0.39038518 -0.16992791 0.29839158
000020 97 f0 0b be 4c 8a 28 3f 65 c7 71 3e 7c cc d9 3e
       -0.13665996 0.65836024 0.23611219 0.42538822
000030 35 88 ed 3e ea f8 a7 3e 03 be 99 be 8d 7b 9b 3d
       0.4639298 0.32807094 -0.3002778 0.07591925
000040 fc 6b fc bd 3f 2f c6 3e 42 18 56 bb c0 2a e6 3e
       -0.12325284 0.3870792 -0.0032668267 0.4495449
000050 8d 4a 1f 3c 6a 9b 5f bd 18 47 fc 3e 1c 07 be 3e
       0.009722364 -0.054591574 0.4927299 0.371148
000060 02 00 e5 3e 06 a9 30 3d 2b 51 89 3e 76 a6 21 3e
       0.44726568 0.043129943 0.2681974 0.15786156
000070 c0 d7 34 bd 08 79 b2 3e 9a 2c e1 bd 6a 6a fd 3e
       -0.044151068 0.34857965 -0.10994835 0.4949525
000080 72 1a d1 bd 44 2c c6 3e d8 fa ba bd 41 04 65 bd
       -0.10210122 0.38705647 -0.09129876 -0.05591226
000090 61 6b f5 3e 0e 1e 9c bd df 09 ca 3e d7 3f f0 3e
       0.47933486 -0.0762292 0.39460656 0.46923706
0000a0 90 cb 99 be 9e a9 c0 3e 3e 7e 93 bd 75 f0 04 be
       -0.30038118 0.37629408 -0.07201813 -0.12982352
0000b0 5e 44 fa 3e 4a 0a d2 3e a2 e0 ee bd 49 b2 f4 3e
       0.48880285 0.41023475 -0.11663939 0.4779227
0000c0 bd 74 86 bd 31 74 a3 bd 05 c0 13 3f f1 ed 06 3f
       -0.06565235 -0.07981146 0.57714874 0.5270682
0000d0 74 ff f5 bd eb ea b8 bc 42 b0 de bd 5f 81 eb 3e
       -0.120116144 -0.022572955 -0.10873462 0.4599714
0000e0 e8 be 3e bd 46 90 0a 3f 85 32 0d be 7a 36 d5 bd
       -0.04656878 0.54126394 -0.13788803 -0.10410781
0000f0 54 f3 05 3f 97 cf 23 be 2e 05 d0 3e 80 e1 a2 3e
       0.52324414 -0.15997158 0.40628952 0.31812668

net.4.weight f4 [2, 64]
000000 a6 57 18 bf 69 ea d6 bd 9d f2 16 c0 aa 1b 25 3e
       -0.5950874 -0.10493929 -2.358558 0.16123834
000010 43 8f 42 3f d5 70 68 3f 3d a0 54 c0 4a a9 42 3f
       0.7599985 0.9079717 -3.3222802 0.76039565
000020 3c 79 7f 3e 80 d7 79 3f 17 f1 19 c0 c0 88 65 3f
       0.24948591 0.9759445 -2.40534 0.8966179
000030 b0 ab e9 3e ca a4 86 3f 8e 85 f0 bf 2d fe 8c 3c
       0.456388 1.051904 -1.8790758 0.017211044
000040 1c dc 87 3d 88 b3 36 3f de 3d 98 3d b6 56 95 3f
       0.066337794 0.7136769 0.07433675 1.1667087
000050 d7 4b 21 bd 4b 47 f9 bd 8e b2 13 3f 8c 00 8c 3f
       -0.039378967 -0.12171801 0.5769433 1.0937667
000060 4c 4f a3 3f 5f d0 b7 bc 55 3d 5e 3f f7 0e b4 bd
       1.2758574 -0.022438226 0.86812335 -0.08791917
000070 fd 53 99 3d 0a 2b 8f 3f 6f 03 2f c0 19 df 76 3f
       0.074867226 1.118501 -2.7345846 0.9643417
000080 af 5c 75 c0 24 69 d8 3e 5d a9 9d bf 27 bb 2f c0
       -3.833782 0.42267716 -1.231731 -2.7457979
000090 13 3e 50 3f 11 14 58 3e 76 4d 50 3f 4f f3 40 3f
       0.8134472 0.21101405 0.81368196 0.7537126
0000a0 9a ca 8f be 7f e3 46 3f 1e 8c a5 3e 9d ed 1b bd
       -0.2808426 0.7769088 0.32333463 -0.038068403
0000b0 ff bb 23 bc 5b 30 4b 3f 78 f9 2e 3d 7a 75 4a 3f
       -0.009993552 0.7937066 0.04271838 0.79085505
0000c0 f1 b2 56 bc 62 42 e5 bc cf 3f 77 3f 80 de 68 3f
       -0.013104186 -0.027985755 0.9658174 0.9096451
0000d0 ec 0f 89 bd 69 03 f5 bf a8 bc ce bc 64 20 3f 3f
       -0.0669249 -1.9141666 -0.025236443 0.746588
0000e0 06 a7 1d 3c 5a b2 78 3f b9 db 9e bb 5d 6e 9d bd
       0.009622341 0.9714714 -0.0048479703 -0.07687066
0000f0 e7 c2 34 3f 67 59 d8 ba 34 14 b7 3e b2 54 5f 3f
       0.706099 -0.0016506136 0.357576 0.8723861
000100 b8 98 4e 3f 9f 0a ac 3c f8 cf ca bf 02 0a 0c be
       0.8070178 0.021001158 -1.5844717 -0.13675693
000110 7c 14 75 3f 0a a5 66 3f d0 69 72 c0 b6 f8 ef 3e
       0.9573438 0.9009558 -3.7877083 0.4686944
000120 91 25 80 be c9 a1 7c 3f e7 e4 0e c0 05 10 cb 3e
       -0.2502866 0.98684365 -2.232721 0.3966066
000130 78 ba 7b 3f 64 4b bc 3e fd 65 30 c0 24 2f 0c be
       0.98331404 0.36776268 -2.7562249 -0.13689858
000140 7f 25 28 3e 74 78 85 3f 06 58 a6 bd 95 90 5b 3f
       0.16420554 1.0427384 -0.08122258 0.8576749
000150 4f dc a7 3c 85 46 12 be 6c 01 85 3f 0d ae 97 3f
       0.020490794 -0.14284714 1.0391059 1.1849991
000160 14 35 03 3f dd 68 15 be 01 e6 33 3f 74 91 ff 3b
       0.51252866 -0.14590783 0.70272833 0.007799322
000170 56 9f 91 bb 94 10 ff 3e 1e 52 1a c0 d9 60 b5 3f
       -0.004444043 0.49817336 -2.411262 1.417018
000180 41 2d 8b c0 05 35 7d 3f 3e bf 9d bf a8 09 be bf
       -4.349274 0.98909026 -1.2323987 -1.4846697
000190 e6 cc 63 3f 23 42 76 3d 2a d3 54 3f 7a 2b 13 3f
       0.88984525 0.060121667 0.8313471 0.57488215
0001a0 b8 98 35 c0 0e cd 1d 3f 61 aa 53 be cf aa a9 3d
       -2.8374462 0.61641014 -0.20670463 0.08284532
0001b0 b5 9b 90 3f 56 3a 4b 3e 1b ef cf 3c 8e 10 4a 3f
       1.1297518 0.19846472 0.025382569 0.7893151
0001c0 4c e0 05 bc a4 ff 04 3d 9b c4 76 3f 08 1c 9f 3f
       -0.008171152 0.03247036 0.96393746 1.243043
0001d0 c5 7a 1b be e4 a1 27 c0 de 84 a1 3d e7 72 35 3f
       -0.15183552 -2.619256 0.078866705 0.7087845
0001e0 07 39 27 3d 94 39 5f 3e 40 0f 4b 3d bd 41 82 3b
       0.04082587 0.21799308 0.04957509 0.003975122
0001f0 03 eb 57 3f fb 58 f1 3d d9 8f 84 3f dc a4 0e 3f
       0.84342974 0.1178455 1.0356399 0.55720305

net.4.bias f4 [2]
000000 93 96 c9 3e c9 44 28 3e
       0.39372692 0.1643249

exp_avg f4 [64, 4]
000000 49 2e fd 3d 1c 9b ae 3d b0 f0 14 3c ad 8e 1f bb
       0.12362344 0.085256785 0.0090905875 -0.0024346516
000010 e2 fb 7a 3d 65 fb 2c 3d 30 77 94 3b c0 6c d1 ba
       0.06127537 0.042231936 0.00453081 -0.0015977845
000020 b1 6b 41 3b 63 27 b1 3a b0 a5 63 39 e5 31 9a 3a
       0.0029513652 0.0013515766 0.0002171013 0.0011764137
000030 cf 0a c0 b7 c6 f0 38 38 40 3d ec 37 b7 53 c3 38
       -2.2893217e-05 4.4093256e-05 2.8161914e-05 9.313918e-05
000040 04 00 00 80 04 00 00 80 04 00 00 80 04 00 00 00
       -6e-45 -6e-45 -6e-45 6e-45
000050 cb 2b 2e 3e e2 be f0 3d f0 a6 46 3c 33 25 8b b9
       0.17008893 0.11755158 0.012124762 -0.00026539862
000060 04 00 00 00 04 00 00 00 04 00 00 00 04 00 00 00
       6e-45 6e-45 6e-45 6e-45
000070 66 81 87 3e fa 1c 3b 3e bb 92 9e 3c 62 e1 5f bb
       0.2646591 0.18272772 0.019357076 -0.0034161438
000080 82 f6 14 3e b0 54 cd 3d 3c 52 2d 3c bd 9c e8 ba
       0.1454716 0.100259185 0.010578688 -0.0017746907
000090 04 00 00 80 04 00 00 80 04 00 00 00 04 00 00 80
       -6e-45 -6e-45 6e-45 -6e-45
0000a0 04 00 00 80 04 00 00 80 04 00 00 80 04 00 00 80
       -6e-45 -6e-45 -6e-45 -6e-45
0000b0 d7 6b be 3d 83 92 83 3d 68 3a d6 3b a5 9c d4 39
       0.092979126 0.06424429 0.0065377243 0.000405525
0000c0 04 00 00 80 04 00 00 80 04 00 00 80 04 00 00 80
       -6e-45 -6e-45 -6e-45 -6e-45
0000d0 0e 93 82 b9 2e 29 8e b9 c0 42 b6 b6 8c 1f 01 39
       -0.00024905097 -0.00027115032 -5.4317934e-06 0.00012314151
0000e0 04 00 00 00 04 00 00 00 04 00 00 00 04 00 00 00
       6e-45 6e-45 6e-45 6e-45
0000f0 71 70 06 3d c4 fb b8 3c e7 4e 20 3b 51 1a 8a ba
       0.032822076 0.022580989 0.0024461092 -0.0010536407
000100 46 99 34 b6 f6 77 22 37 50 21 2c 35 dd 4c 5f b7
       -2.6911307e-06 9.683883e-06 6.412347e-07 -1.3309732e-05
000110 0f da d5 be 89 fa 96 be 77 c5 fe bc 93 5d f1 39
       -0.41767928 -0.29488018 -0.031100018 0.0004603682
000120 04 00 00 80 04 00 00 80 04 00 00 80 04 00 00 00
       -6e-45 -6e-45 -6e-45 6e-45
000130 04 00 00 80 04 00 00 80 04 00 00 00 04 00 00 80
       -6e-45 -6e-45 6e-45 -6e-45
000140 4d 96 0a be 45 26 c0 bd a5 12 1f bc 98 57 f4 39
       -0.13533898 -0.09382299 -0.009709035 0.0004660457
000150 96 a3 44 c0 fa f8 05 c0 9e f3 56 be c7 ec 0c bd
       -3.0724845 -2.0933213 -0.2099137 -0.034405496
000160 4b 6c b5 39 08 55 82 3a e0 8b c5 38 70 31 86 ba
       0.00034603695 0.0009943554 9.419746e-05 -0.0010238122
000170 04 00 00 00 04 00 00 00 04 00 00 00 04 00 00 00
       6e-45 6e-45 6e-45 6e-45
000180 07 f7 68 bc 04 87 1f bc 16 df 58 ba d0 14 aa ba
       -0.014219052 -0.00973678 -0.00082729885 -0.0012976173
000190 04 00 00 80 04 00 00 80 04 00 00 80 04 00 00 00
       -6e-45 -6e-45 -6e-45 6e-45
0001a0 50 e6 97 bf 7f ad 52 bf 5d cc ad bd c5 51 d7 ba
       -1.1867161 -0.82295984 -0.08486245 -0.0016427567
0001b0 c4 36 28 bf 13 c8 e9 be 7a 42 42 bd 93 40 a4 bb
       -0.65708566 -0.45660457 -0.04742668 -0.0050125807
0001c0 9a e4 27 be fe fa e8 bd bf 93 40 bc 83 b5 03 39
       -0.16395798 -0.11375998 -0.011753975 0.00012560752
0001d0 a3 c5 dd 98 9b 19 9e 1a 38 7f 92 18 c3 12 d3 9a
       -5.7326723e-24 6.5388636e-23 3.7868574e-24 -8.7297866e-23
0001e0 67 c8 ce b9 75 5d 00 ba 19 25 9b b7 5f 02 c0 b7
       -0.00039440693 -0.00048967387 -1.8494715e-05 -2.2889288e-05
0001f0 04 00 00 80 04 00 00 80 04 00 00 80 04 00 00 00
       -6e-45 -6e-45 -6e-45 6e-45
000200 78 16 4c 3e 95 d5 0c 3e dc e8 6b 3c 60 e6 fc ba
       0.19930446 0.1375335 0.01439878 -0.0019294731
000210 00 00 00 00 00 00 00 00 00 00 00 00 00 00 00 00
       0.0 0.0 0.0 0.0
000220 04 00 00 00 04 00 00 00 04 00 00 00 04 00 00 00
       6e-45 6e-45 6e-45 6e-45
000230 8d 3b 47 3e cf 7a 09 3e 3b 3c 69 3c 4e bf 49 bb
       0.1945631 0.13425754 0.0142355515 -0.0030784192
000240 11 53 1b 3a d5 9a ed 3a e4 f8 10 39 32 86 24 ba
       0.00059251586 0.0018127809 0.00013825629 -0.00062761
000250 96 f8 06 bc d2 56 a3 bb 5c 4a cc b9 b1 87 58 ba
       -0.008237978 -0.004984715 -0.00038965314 -0.00082599657
000260 04 00 00 80 04 00 00 80 04 00 00 00 04 00 00 00
       -6e-45 -6e-45 6e-45 6e-45
000270 f8 fb 92 3e ea d9 4a 3e ce 25 ac 3c 31 5b 96 bb
       0.28707862 0.1980969 0.02101412 -0.0045885076
000280 04 00 00 80 04 00 00 80 04 00 00 80 04 00 00 80
       -6e-45 -6e-45 -6e-45 -6e-45
000290 04 00 00 80 04 00 00 80 04 00 00 80 04 00 00 80
       -6e-45 -6e-45 -6e-45 -6e-45
0002a0 bf 1f 85 bc 5d 49 34 bc 00 95 84 ba d3 02 6e ba
       -0.01625049 -0.011003819 -0.0010115206 -0.00090794003
0002b0 04 00 00 00 04 00 00 00 04 00 00 00 04 00 00 80
       6e-45 6e-45 6e-45 -6e-45
0002c0 00 00 00 00 00 00 00 00 00 00 00 00 00 00 00 00
       0.0 0.0 0.0 0.0
0002d0 65 4c bf 3c 53 06 86 3c 2f 73 02 3b 64 e1 1c bb
       0.023351857 0.016360437 0.001990508 -0.0023938054
0002e0 04 00 00 80 04 00 00 80 04 00 00 80 04 00 00 80
       -6e-45 -6e-45 -6e-45 -6e-45
0002f0 04 00 00 00 04 00 00 00 04 00 00 00 04 00 00 00
       6e-45 6e-45 6e-45 6e-45
000300 04 00 00 80 04 00 00 80 04 00 00 80 04 00 00 80
       -6e-45 -6e-45 -6e-45 -6e-45
000310 b5 cd 48 3e 78 7e 0a 3e f4 6e 69 3c 87 01 07 bb
       0.19609721 0.13524806 0.014247645 -0.0020600276
000320 3f ee 96 3d 8c 39 51 3d a2 06 af 3b 2a 19 4d ba
       0.073696606 0.05108027 0.005341367 -0.0007823879
000330 04 00 00 80 04 00 00 80 04 00 00 00 04 00 00 80
       -6e-45 -6e-45 6e-45 -6e-45
000340 eb 09 28 bf aa 5f e5 be a0 3b 3b bd cf bf 02 bc
       -0.65640134 -0.44799548 -0.04571116 -0.007980301
000350 3c a1 79 3e b9 36 2c 3e 3d 2e 92 3c 48 6b 68 bb
       0.24377912 0.1681775 0.017844314 -0.0035464335
000360 00 00 00 00 00 00 00 00 00 00 00 00 00 00 00 00
       0.0 0.0 0.0 0.0
000370 56 03 47 3b 9f 1d 20 3b bb bd 3b 39 92 b5 e3 b9
       0.0030366979 0.0024431718 0.0001790439 -0.00043432094
000380 0b b5 cb 3c f0 63 90 3c db 6b f9 3a 7c 39 e2 b9
       0.024866601 0.017625779 0.0019029336 -0.00043148908
000390 04 00 00 80 04 00 00 80 04 00 00 80 04 00 00 00
       -6e-45 -6e-45 -6e-45 6e-45
0003a0 04 00 00 00 04 00 00 00 04 00 00 00 04 00 00 80
       6e-45 6e-45 6e-45 -6e-45
0003b0 74 55 5a 3e 3e 86 16 3e c9 e1 7b 3c dc df f3 ba
       0.2132166 0.14699647 0.015373656 -0.0018606144
0003c0 04 00 00 00 04 00 00 00 04 00 00 00 04 00 00 00
       6e-45 6e-45 6e-45 6e-45
0003d0 04 00 00 00 04 00 00 00 04 00 00 80 04 00 00 80
       6e-45 6e-45 -6e-45 -6e-45
0003e0 77 a3 37 3e fb bf fd 3d e4 9d 52 3c 97 fc 68 ba
       0.1793345 0.12390133 0.012855027 -0.00088877365
0003f0 04 00 00 80 04 00 00 80 04 00 00 00 04 00 00 00
       -6e-45 -6e-45 6e-45 6e-45
