CartPole/Experiment_1/23-09-26_22-10-39-937242_DQN/checkpoints/agent_4000.pt (torch, 82539 bytes, 24 tensors)

net.0.weight f4 [64, 4]
000000 0f 39 26 bd 62 11 c9 3d 02 7d 90 3d fd 00 f4 bc
       -0.04058176 0.09817769 0.07055093 -0.029785627
000010 62 93 f3 3d e3 14 ae bd b4 ef 63 3e 31 6d 2c bd
       0.118933454 -0.085000776 0.22259408 -0.04209632
000020 f6 19 96 bd 48 f5 38 3d 59 63 da 3f 1a ac 54 3e
       -0.073291704 0.045155793 1.7061568 0.20768777
000030 0c 6d 8b be 95 d3 05 3e dd 3b 83 3f 94 6b 59 be
       -0.27231634 0.13068993 1.0252644 -0.21232444
000040 e6 bc ab bd d7 7e a8 bc 0c d1 46 3d 72 b2 36 3b
       -0.08385639 -0.020568294 0.048539206 0.0027877358
000050 26 70 70 3e b8 ac 7a be 7b 41 63 bf e6 9d f9 bd
       0.23480281 -0.2447995 -0.8877179 -0.1218832
000060 dd 3a 92 bd ae 7b e3 3d 09 76 0b bf 79 d7 03 3e
       -0.071401335 0.111075744 -0.5447698 0.12875165
000070 de a7 d1 bd 62 62 08 3c 35 50 f1 3c 94 6a 77 3c
       -0.10237096 0.008324238 0.029457191 0.015101094
000080 1e 19 65 3c b0 4c a2 bd 0a ad 03 3d 12 53 69 bd
       0.013983039 -0.07924783 0.032147445 -0.056963988
000090 e2 45 47 be d1 31 54 3d 9c 27 c4 bb 90 2f 37 3d
       -0.19460252 0.05180532 -0.005986167 0.044723094
0000a0 f6 28 0a be 7f a2 35 bd e1 c7 a3 bf eb 66 a3 bd
       -0.13492188 -0.04434442 -1.2795373 -0.079786144
0000b0 9e f2 c3 3d 54 12 b9 3c 0a d8 8e bf 41 64 83 3e
       0.0956776 0.022591747 -1.115968 0.25662425
0000c0 a4 99 8a be f6 a5 0a bd fa 4c 83 3f aa 7d 08 3d
       -0.27070343 -0.03384968 1.0257866 0.033322968
0000d0 90 0a 48 bd ba fb 23 3e 9c eb 82 3f cb cb 9e be
       -0.0488382 0.16013995 1.0228152 -0.31014857
0000e0 6f bc db 3c 9e fd 0d bc fc 6a 3e be 88 86 b0 bc
       0.02682325 -0.008666424 -0.18595499 -0.021548524
0000f0 d2 cd 81 3d fb 3a 0d bc 39 6f 86 3e ea 98 12 bc
       0.06338085 -0.008620019 0.2625673 -0.00894759
000100 11 24 45 be a2 b2 7c bd 11 0b 84 bf e2 ff 95 3e
       -0.1925204 -0.061693795 -1.0315877 0.29296786
000110 d6 73 86 3e cb 59 c3 bd 4d 1a 27 bf 92 a5 d6 bd
       0.2626025 -0.09538611 -0.65274507 -0.10480799
000120 ee 6e 45 3d 46 05 2e bd d7 e5 c4 bd 90 ed 03 bd
       0.048201494 -0.042485498 -0.09614151 -0.03220898
000130 d4 29 53 be 03 86 40 be c8 a5 d8 be 18 f9 f9 bd
       -0.20621425 -0.18801121 -0.4231398 -0.12205714
000140 a6 89 3e 3e 4e 33 87 3d 40 9d 01 bf 7e 77 fa 3d
       0.18607196 0.066015825 -0.5063057 0.122298226
000150 19 87 a3 3e 31 f9 45 3d 73 b7 73 be d6 a9 3e 3c
       0.3193901 0.04833335 -0.23800449 0.011637172
000160 ad 64 25 3e c6 e4 37 be c0 18 30 bf ff 13 e7 bc
       0.16151686 -0.17958364 -0.68787766 -0.028207777
000170 e2 08 8a 3e 72 e1 80 3d b7 7a 76 bf 4c e3 5b bd
       0.26959902 0.06293 -0.96281 -0.053683564
000180 06 77 f5 bd ec 25 a9 3d 9b 71 89 3f 1b e3 0d 3d
       -0.119855925 0.08259186 1.0737795 0.034640413
000190 12 46 36 be 28 41 99 bd 1e 7b de bd f6 9c 53 3e
       -0.17800167 -0.07483131 -0.108633265 0.20665345
0001a0 9f ce e0 3d 00 10 87 3d d8 35 46 3f 59 24 f8 3d
       0.1097691 0.06594849 0.7742591 0.12116308
0001b0 2b 0d f0 3e 5e d6 aa bd 20 ef 46 3e 17 8b cc bd
       0.46885046 -0.083416685 0.19427156 -0.09987467
0001c0 3e 6a 99 3e 7c 24 ae be e4 e1 69 3f b4 8b 2f 3e
       0.2996387 -0.3401221 0.91360307 0.17143136
0001d0 ed c2 a9 3d 60 2f 23 be 8d 65 05 bd 34 ba 84 be
       0.08289132 -0.15936041 -0.03256755 -0.25923312
0001e0 cc 59 85 be b9 9c 2a 3e 7e 63 1b 3f 9a 62 93 be
       -0.26045072 0.16661347 0.6069869 -0.28786165
0001f0 fb cd e9 bc 62 e9 a8 bc a6 4b ee 3c 74 01 91 bd
       -0.028540602 -0.020619098 0.029088806 -0.07080355
000200 fc a3 1a 3d a0 62 01 3c 3d 27 65 bf 45 4e 88 bd
       0.037754044 0.007897049 -0.89513 -0.06655554
000210 ed 8f 60 bb 4d 82 68 3d 1a 91 98 bc b8 5e 4d 3d
       -0.0034265474 0.05676489 -0.018623877 0.05013916
000220 9a c7 4e bd 64 44 1a 3c bc 4d 46 3f c8 3f b6 3e
       -0.050483324 0.00941572 0.77462363 0.35595536
000230 d3 ae f7 3d f3 33 36 bc 2e 9f 92 bd e3 a3 f6 3c
       0.12093892 -0.011120784 -0.07159267 0.030107444
000240 90 2f 13 bd 58 6c fe bc 5e 97 ba bf fd 6c a5 be
       -0.03593403 -0.031057522 -1.4577444 -0.32309714
000250 b7 16 f7 bd bb d1 9c 3d 08 af 6b 3f f7 24 83 bd
       -0.120648794 0.076571904 0.9206395 -0.06403535
000260 40 07 47 bd 42 28 86 3d 81 5a 55 be f0 70 24 3e
       -0.0485909 0.06550647 -0.20835306 0.16058707
000270 90 76 e2 3d 70 07 b8 bd 25 d7 9c bc a0 34 c7 3b
       0.1105777 -0.089857936 -0.019145558 0.0060792714
000280 01 b5 28 be 02 90 9a bd 7c ba 08 3d c3 63 27 bd
       -0.16475298 -0.075469986 0.03338097 -0.040866625
000290 fc c1 8b 3e d0 d7 2d be e8 1e ea bf a0 aa 65 be
       0.27296436 -0.16976857 -1.8290682 -0.2242837
0002a0 8a 3f 55 be 62 3d 1e 3e b7 08 74 3f b4 83 a8 bd
       -0.2082502 0.15453103 0.953258 -0.082282454
0002b0 0d 30 46 be 46 df 67 3e c4 21 71 3e b5 fe cb 3d
       -0.19354267 0.22643766 0.23548037 0.09960691
0002c0 40 73 26 3c b3 8a 72 bd a0 90 e7 bd 1f f9 30 bd
       0.010159314 -0.059214305 -0.11306882 -0.04320633
0002d0 ff 62 f1 bb c8 f9 ae 3d 9b aa 6c 3f 4a 66 71 3d
       -0.0073665376 0.08543736 0.92447823 0.05893544
0002e0 3f 2d ea 3d 93 8d 13 be 29 08 f6 bf 2f f7 99 be
       0.11434411 -0.14409475 -1.922124 -0.300714
0002f0 be e4 95 3e bf a9 de bd df ed 1f be a5 b5 b4 3d
       0.2927608 -0.1087222 -0.15618084 0.088237084
000300 34 1e 2e bd d2 b8 4b 3c 7c 58 08 bd 1f e0 e9 3b
       -0.042509273 0.012434201 -0.03328751 0.007137313
000310 29 62 d2 bd 46 d6 07 3d 69 da 57 be 25 eb b5 bc
       -0.10272629 0.03316333 -0.2107941 -0.022206852
000320 9e de f0 3d c2 4b 20 bd a6 8f 0d bf 7d 9b 21 bd
       0.11761211 -0.03913475 -0.55297315 -0.039454926
000330 f8 54 21 bf 1f c7 bd bd 0a e9 85 3f 0d 8d 0f 3e
       -0.6302028 -0.09266495 1.0461743 0.1401865
000340 e4 6f 03 3c 62 ea 2a 3e c8 49 83 3f f2 6c 56 3e
       0.008022282 0.16690972 1.0256891 0.20939997
000350 a5 90 0c bd 50 53 7d bd 30 76 81 3e 9c ce 4b bc
       -0.03431763 -0.06184703 0.25285482 -0.012439396
000360 47 a5 17 3d 22 8a 7d 3c 12 96 53 bd 53 c0 93 3c
       0.037022855 0.015474828 -0.05165679 0.018036043
000370 0d fb 32 be 20 ce 1d 3e 41 e9 2b 3f a6 8d a5 bb
       -0.17478581 0.15410662 0.6715279 -0.005052286
000380 88 df 4e 3e 4d d9 31 be ab cc 48 bf 3e 0f ca 3e
       0.20202458 -0.1736805 -0.784373 0.39464754
000390 76 88 0d 3d 94 4d f8 bd 28 57 e2 be 52 a9 4e 3d
       0.034553967 -0.12124172 -0.4420712 0.050454445
0003a0 4a 55 ee bc d7 a5 a8 3d 3d 15 94 bd 91 9a 3b 3d
       -0.029093403 0.082347564 -0.072306134 0.045801703
0003b0 f3 ce 05 3e e5 3d 61 bd 48 ef 0c bf e9 16 27 be
       0.13067226 -0.054990668 -0.55052614 -0.16317333
0003c0 6f 9b 18 3e f4 14 9e 3c c1 00 87 3f 26 09 4e 3d
       0.14903043 0.0192971 1.0547105 0.050301693
0003d0 3c b0 c5 bc d1 b4 82 3c 4f 6f 69 bd ae 8b ef bc
       -0.024131887 0.01595536 -0.056990918 -0.02924141
0003e0 f1 dd 2b 3e 4b fe 10 be da db 8d bf e6 c8 c7 bd
       0.16783883 -0.14159505 -1.1082718 -0.09755115
0003f0 94 a9 2f 3e 69 1e 00 be b7 ee d6 3e 5d 0c d0 bb
       0.17154533 -0.125116 0.41979 -0.00634913

net.0.bias f4 [64]
000000 1b 8d b2 3e eb 87 85 3e f2 51 71 be 75 2e 69 bd
       0.3487328 0.2608026 -0.23566416 -0.05692907
000010 58 ed 97 be f5 5f 67 3e 9d eb ee bd ef 7a e1 3e
       -0.29673266 0.22595198 -0.116660334 0.44039103
000020 85 e9 a1 3e 93 b2 94 be 18 38 bc be 1a 7d 5a 3d
       0.31623474 -0.2904249 -0.36761546 0.053341962
000030 64 6b 07 bf e3 03 47 be 2c 0f 16 be f2 eb 73 3e
       -0.5289824 -0.19435076 -0.14654225 0.23820475
000040 46 53 61 be 28 aa 35 be bb ea b7 bd 91 a0 9d be
       -0.22004423 -0.1774069 -0.08980318 -0.30786565
000050 bb 09 98 3d ca 83 2a bf fa 73 11 3e 8e 28 03 bf
       0.07423731 -0.66607344 0.14204398 -0.51233757
000060 79 45 87 3e 2a 97 04 bf c2 56 f8 be 0f 15 1e bf
       0.2642019 -0.5179316 -0.4850369 -0.6175088
000070 03 f7 88 3c 67 85 fb bd 5f 29 27 3d 53 54 86 be
       0.016719347 -0.12281304 0.04081094 -0.2623621
000080 b7 59 8c 3e f1 f7 0b be 3d 43 a5 be c8 90 c8 3e
       0.27412197 -0.13668801 -0.3227786 0.3917296
000090 6b ae 07 bb 58 79 2b 3e 25 5e 99 be 5b 91 04 3f
       -0.0020703326 0.16745508 -0.2995464 0.51784295
0000a0 7c 39 ef be aa ec bd be 68 59 26 3e 4e f2 80 be
       -0.46723545 -0.37094623 0.16245043 -0.25184864
0000b0 5b 28 f5 bd 24 b1 a0 3e 88 71 c1 be 54 48 98 be
       -0.11970588 0.31385148 -0.3778193 -0.29742682
0000c0 ca 06 bc bd 57 1f 9e 3e 21 e7 40 3e 1b 80 be be
       -0.091809824 0.30883285 0.18838169 -0.37207112
0000d0 a6 87 23 be fb 96 df 3e b7 90 93 be 69 ea e3 bd
       -0.15969715 0.43669876 -0.28821346 -0.111286946
0000e0 ed df b9 3c 7d 05 ca be 47 91 0f be ae b7 b3 3e
       0.022689784 -0.39457312 -0.14020263 0.35101074
0000f0 05 0a fb be bf 71 40 be 53 92 8d 3e 82 f3 b4 be
       -0.49031082 -0.1879339 0.276507 -0.35342032

net.2.weight f4 [64, 64]
000000 78 3f 40 be f4 6c 30 be 41 c3 d5 3e 76 9c f6 3d
       -0.18774211 -0.17229062 0.4175053 0.12041561
000010 65 da d3 3c 51 71 22 be 8b b8 fb be 9e 55 8e be
       0.025860975 -0.1586354 -0.49164233 -0.27799696
000020 a5 4c d6 bd a3 85 2a 3d 44 f6 3a bd 0d 89 83 be
       -0.104638375 0.041631352 -0.045645013 -0.256905
000030 78 b5 91 be 69 57 71 bd 44 63 2d be a2 77 d4 bd
       -0.28458762 -0.05892125 -0.16932398 -0.10374381
000040 2c 1e 8d bd 4e 9a 12 bf 9d 75 1a be b5 25 65 be
       -0.068905205 -0.572667 -0.15083928 -0.22377665
000050 b9 74 d1 3a 4b 1e 92 3d 9a 76 26 bf b2 d4 53 bf
       0.0015980221 0.07134684 -0.6502472 -0.8274642
000060 67 a9 6c 3e 4c 83 f5 be 53 77 1f 3f 76 6b 76 3e
       0.23111497 -0.47951734 0.6229145 0.2406443
000070 08 39 eb be 51 45 a2 ba 67 e2 b6 3d bb d3 06 3e
       -0.4594195 -0.0012380277 0.089299016 0.13166706
000080 ff 19 27 bf 24 c2 92 3d 40 87 a0 be 03 55 5b 3d
       -0.6527404 0.07165936 -0.31353188 0.05354787
000090 20 a6 f0 bd 4c d8 a4 bd 6b 84 67 be 10 2d 51 be
       -0.11750436 -0.08049068 -0.22609107 -0.20427346
0000a0 bb fc 9d 3d 83 d6 83 be ab ec 62 3c 1c 43 12 be
       0.0771422 -0.25749597 0.013850371 -0.14283413
0000b0 4d 8a 05 3d dc 19 02 3f fe f8 94 3d 1d cd 94 3d
       0.032602597 0.5082071 0.07274054 0.07265685
0000c0 3f c5 5d bd a2 9a 28 be d7 6a da bd 78 9a fc be
       -0.054143187 -0.16465238 -0.10664909 -0.493366
0000d0 5c 5b ca bd 57 b2 0c be 07 4d de 3d 58 5d fd 3d
       -0.09880707 -0.13739906 0.108545355 0.123713195
0000e0 bf 08 38 bd df 09 df be 33 0a 9e bb 2e 82 02 bf
       -0.044930216 -0.4356222 -0.004822993 -0.5097989
0000f0 a1 7e c4 3f 4c 96 21 bc f0 62 6a be 9e 4d e5 3e
       1.5351144 -0.009862494 -0.22889304 0.4478578
000100 3e d1 bf 3d 3d 9b ed 3d 4e 6e 4d be 71 e1 4a 3e
       0.09366082 0.11601875 -0.20061609 0.19812562
000110 65 06 54 3c a7 03 6f 3d e7 af 7e bb 5f 22 1d be
       0.012940978 0.058353093 -0.003886217 -0.15345143
000120 43 9d 17 be 4d 46 3e bc 24 51 b3 bd 37 7b bc bd
       -0.14806084 -0.011613441 -0.08755711 -0.09203189
000130 a1 5c eb 3d e5 d7 b6 bd 9a ad 35 3d 8a 0d fe bd
       0.11492277 -0.08927897 0.044355012 -0.12404926
000140 6e 7d 48 3d 14 40 16 3d 3b 05 47 bd 95 b9 0e be
       0.048947744 0.036682203 -0.048588973 -0.13937981
000150 35 6b 8a bd ee d5 12 bd 4d 0b c2 bb 92 86 17 be
       -0.06758729 -0.03584855 -0.0059217573 -0.14797428
000160 6e d5 97 bd b9 7f 56 3d 9e 25 27 3e 5b 64 27 be
       -0.07413755 0.0523679 0.16322944 -0.16346876
000170 15 2f b7 bd 55 4d ab bd 04 40 71 bd c0 8a 51 bd
       -0.08944527 -0.08364359 -0.05889894 -0.051157713
000180 9f e6 35 be b7 b1 be 3c 3c bc 70 bd 7b 3b 18 bd
       -0.17763756 0.0232781 -0.058773264 -0.0371661
000190 0a 6c 5b be f7 70 2c 3e c5 67 7e 3e a7 6d 60 be
       -0.21427932 0.16839968 0.24844272 -0.21916829
0001a0 ed b3 21 bc 6b 90 6b bd 78 16 93 bd 38 12 bb 3c
       -0.009869558 -0.057510775 -0.0718202 0.022835836
0001b0 73 ef bd 3d 48 87 27 bb e5 85 30 be e6 09 39 be
       0.09274187 -0.0025562812 -0.17238577 -0.18070182
0001c0 04 44 46 3e f3 4d 28 be 2a ab 07 be 69 96 57 bd
       0.19361883 -0.16435985 -0.13248888 -0.052633677
0001d0 d7 bb 0c bd d0 ce 6e bc eb 43 11 3e 49 7b 9a bd
       -0.034358826 -0.014575675 0.14186065 -0.07543046
0001e0 eb 07 4e be 56 7e 7c bd 39 c9 44 3e 0f 49 db 3d
       -0.20120208 -0.06164392 0.19217385 0.10707294
0001f0 cd 96 16 3e 6f 7d d4 bd 82 a1 51 be 94 f6 c3 3d
       0.14705963 -0.10375487 -0.20471767 0.095685154
000200 c7 bc 43 be 9f 53 32 bf 8a aa b4 be 2e 57 6d bf
       -0.19114982 -0.69658846 -0.3528636 -0.9271115
000210 80 57 bc bd 7e 0b 18 bf 70 e9 7a 3d cb d1 23 be
       -0.09196377 -0.59392536 0.06125778 -0.15997998
000220 4f 9e 2c be ee da 39 3f 30 10 22 40 80 6c de be
       -0.16857265 0.72599685 2.532238 -0.43442154
000230 91 1c ac 3f a1 01 44 bf c8 2c e7 3d aa d8 b7 be
       1.3446218 -0.76564986 0.11287838 -0.3590749
000240 be c0 8b be 40 a9 41 bd cb 3a 81 3c 3d ea e3 be
       -0.27295488 -0.04728055 0.015775105 -0.44514647
000250 ba ee d3 be b7 de b6 bd ad ef 8b be ec c7 26 3f
       -0.4139307 -0.08929198 -0.27331296 0.65148807
000260 94 53 c2 be 58 67 24 3d 36 0d 09 3f 3f 1f 27 be
       -0.3795439 0.04013762 0.53535783 -0.16320513
000270 37 83 2f 3c 54 35 f2 3d 41 94 30 bf 72 f4 72 3d
       0.010712436 0.11826578 -0.6897622 0.059315152
000280 f4 f6 97 be f0 a2 18 3e 19 b5 07 3e d5 7b f3 be
       -0.29680598 0.14905906 0.13252677 -0.47555414
000290 5b f8 21 3f 9c ce 4d be 26 87 a6 3e 3e c0 1d be
       0.63269585 -0.20098346 0.32524985 -0.15405366
0002a0 0d 0b a4 3f 84 fe 6e 3f d4 9f 9e bd 68 72 84 bd
       1.2815872 0.9335711 -0.077453285 -0.06467134
0002b0 59 33 9a 3d bb 74 a4 be e1 12 96 3e c1 37 65 be
       0.07529325 -0.32120308 0.29311278 -0.2238455
0002c0 02 bf d3 bd 06 db 3b 3d 61 80 4b bf 28 0b 5b 3f
       -0.10339166 0.045863174 -0.79492766 0.855639
0002d0 00 73 27 3e 28 99 0c be e3 b1 0d bd b1 33 f8 be
       0.16352463 -0.137303 -0.034593474 -0.48476937
0002e0 2e e7 87 bf 1c 85 92 be 97 94 92 bd 15 a5 62 bf
       -1.0617425 -0.2861718 -0.071572475 -0.88533145
0002f0 fc f9 2f 3f 40 32 76 bd 21 be 57 bf 22 85 ad 3e
       0.6874082 -0.060106516 -0.8427449 0.33890635
000300 58 e0 d7 bc 17 36 76 3d 77 6e 52 bd 70 fe 5b 3d
       -0.026352093 0.060110178 -0.05137488 0.053709447
000310 ac 22 bd bd 99 3e 15 bd 41 3e f2 3c 27 8f d8 bd
       -0.09235129 -0.03643665 0.0295707 -0.10574179
000320 c9 d5 b7 bd 70 c4 81 bd 83 d5 6d bc b3 82 49 bc
       -0.08976323 -0.063362956 -0.014516237 -0.0122992275
000330 3f ec d6 3d c2 ef b8 bd b8 5d e1 bd e1 83 1d 3c
       0.10494279 -0.09030105 -0.110042036 0.009613962
000340 11 09 d3 3c 08 80 bd bd bb 7d f4 3d b4 60 36 be
       0.02576116 -0.09252936 0.11938044 -0.17810327
000350 a1 e2 0e bd ea 36 5b bd 84 b8 c8 3c 47 39 ad bd
       -0.0348841 -0.053519167 0.024502046 -0.084581904
000360 df 31 54 be 46 b3 2e 3d f7 9e 35 bd ac 17 8a 3d
       -0.2072215 0.042651437 -0.044341054 0.06742796
000370 f8 50 1e 3e 72 9e 91 3c 9f 3e f4 3c 1a 9c fe bd
       0.15460575 0.017775748 0.029815016 -0.12432118
000380 cf 60 fa bc 4c 42 81 3e e9 33 03 3c 04 2c 57 be
       -0.03056374 0.25245893 0.008007982 -0.21012884
000390 9f 26 53 bd d2 36 f5 bd 23 17 28 bd 9a 31 34 be
       -0.051550504 -0.11973347 -0.04103769 -0.17597046
0003a0 fd 9f e3 bc b8 c6 55 3d 0e 12 23 bc 83 ca 99 bd
       -0.02778625 0.052191466 -0.009953035 -0.07509329
0003b0 22 ac 64 3b d8 50 38 bd 60 97 6d bd 26 68 90 3d
       0.0034892638 -0.044998974 -0.05800569 0.07051115
0003c0 15 ec 64 3e 07 32 3f bd 91 b0 be bd 3c 93 0c be
       0.22355683 -0.04667857 -0.09311021 -0.1372804
0003d0 14 3c 78 bd 67 ce 14 3d 6a f5 ec bc b0 8e 72 bb
       -0.06060417 0.036329653 -0.028925616 -0.0037011318
0003e0 bb 21 2c bb 5f cc 82 bd 5d de 6a bd fd e2 19 be
       -0.0026265222 -0.06386637 -0.05734097 -0.15027995
0003f0 ec 3e 31 bd f7 af 53 3b 63 f5 e0 3d fe 68 a9 3d
       -0.043272898 0.0032300928 0.10984304 0.08271979

net.2.bias f4 [64]
000000 50 55 0d be c8 d0 82 3d dc 51 7b be 5d 50 cd bd
       -0.13802075 0.06387478 -0.24542946 -0.10025094
000010 c0 46 e8 3e ff bc b7 3e a6 0a 42 be b8 ed 83 3e
       0.45366478 0.3588638 -0.18949375 0.25767303
000020 d8 f1 0b be 7c 31 1b 3f 0e 7c 65 3e f4 61 c1 3e
       -0.13666475 0.6062238 0.22410604 0.37770045
000030 08 64 d8 3e ae 83 8e 3e 46 1a 85 be 5e 7b 9b 3d
       0.42263818 0.2783484 -0.25996608 0.0759189
000040 27 6c fc bd e5 39 ab 3e 67 18 56 bb 0b b2 cd 3e
       -0.12325316 0.33442608 -0.0032668354 0.40174899
000050 34 4a 1f 3c 1a 9c 5f bd 99 08 e1 3e c8 d0 a4 3e
       0.009722281 -0.05459223 0.43951872 0.32190537
000060 66 48 c8 3e 15 a6 30 3d a3 f7 62 3e 0e a6 21 3e
       0.39117736 0.04312714 0.22164778 0.15786001
000070 d1 d7 34 bd 4c fa 97 3e af 19 b8 bd 80 8f e6 3e
       -0.04415113 0.2968315 -0.08989274 0.45031357
000080 ce 42 a8 bd 34 91 af 3e fd fa ba bd a9 05 65 bd
       -0.08215867 0.3429047 -0.091299035 -0.0559136
000090 c2 a2 d3 3e 4c 1e 9c bd d4 54 af 3e 0f fd da 3e
       0.41335112 -0.07622966 0.34244406 0.42771193
0000a0 ee 31 89 be 8b 1f ab 3e 3c 7e 93 bd 1a f1 04 be
       -0.26795906 0.33422503 -0.07201812 -0.12982598
0000b0 d2 77 ec 3e d9 00 ba 3e a2 e0 ee bd 15 39 de 3e
       0.46185166 0.36328772 -0.11663939 0.43402925
0000c0 2e 75 86 bd 31 74 a3 bd 6f 2a 06 3f 9c 58 f3 3e
       -0.06565319 -0.07981146 0.524085 0.4752854
0000d0 d3 ff f5 bd c4 2c 5e ba cf b0 de bd 4c 17 d2 3e
       -0.12011685 -0.00084752985 -0.10873567 0.410334
0000e0 00 bf 3e bd 70 32 fc 3e a0 32 0d be 35 37 d5 bd
       -0.04656887 0.4925723 -0.13788843 -0.104109205
0000f0 6f d3 f5 3e 96 cf 23 be 58 c9 bc 3e c4 a7 8d 3e
       0.48012874 -0.15997157 0.36872363 0.27667058

net.4.weight f4 [2, 64]
000000 d9 57 18 bf b1 e9 d6 bd 52 f2 16 c0 aa 1b 25 3e
       -0.59509045 -0.10493792 -2.35854 0.16123834
000010 61 5c 3c 3f d5 d8 8e 3f 45 4a 24 c0 b3 6e 3c 3f
       0.7357846 1.1159922 -2.567033 0.73606414
000020 b1 79 7f 3e c0 8e 6e 3f 00 83 ee bf 98 15 57 3f
       0.24948765 0.9318657 -1.8633728 0.84017324
000030 8d 29 de 3e f4 20 81 3f 4e 67 14 c0 93 fe 8c 3c
       0.43391076 1.0088181 -2.3188052 0.017211234
000040 f1 db 87 3d 6e e4 2f 3f 3e 3e 98 3d f8 89 8e 3f
       0.06633747 0.6870793 0.07433747 1.1135855
000050 d1 4b 21 bd b9 46 f9 bd 6e 4d 0c 3f d6 ac 86 3f
       -0.039378945 -0.121716924 0.5480565 1.0521495
000060 c4 4e 9d 3f 9d d6 b7 bc 22 b3 59 3f df 0e b4 bd
       1.2289662 -0.022441203 0.8503896 -0.08791899
000070 31 53 99 3d e2 f8 88 3f 9b a8 1e c0 f9 37 6e 3f
       0.074865706 1.0700953 -2.4790409 0.9305416
000080 95 72 75 c0 cc 4f d4 3e 3b a9 9d bf b9 bb 2f c0
       -3.8351185 0.4146713 -1.231727 -2.7458327
000090 26 24 47 3f d2 13 58 3e c2 61 48 3f d1 60 38 3f
       0.77789533 0.21101311 0.78274167 0.7202273
0000a0 b7 cf 84 be ae bf 3e 3f 06 8c a5 3e fc ec 1b bd
       -0.25939724 0.7451123 0.32333392 -0.038067803
0000b0 2b 38 52 bc ad 67 40 3f 78 f9 2e 3d 4a ed 42 3f
       -0.012830774 0.75158197 0.04271838 0.76143324
0000c0 1e b2 56 bc 62 42 e5 bc c3 45 6c 3f aa 81 61 3f
       -0.01310399 -0.027985755 0.9229395 0.88088477
0000d0 9a 0f 89 bd a9 17 d9 bf 78 bc ce bc 54 5f 3a 3f
       -0.06692429 -1.6960346 -0.025236353 0.7280171
0000e0 85 a7 1d 3c 8e 54 6d 3f b9 db 9e bb 5d 6e 9d bd
       0.009622459 0.92707145 -0.0048479703 -0.07687066
0000f0 97 11 2b 3f 67 59 d8 ba 99 87 b0 3e b8 fc 55 3f
       0.66823715 -0.0016506136 0.34478453 0.83588743
000100 48 98 4e 3f 45 0b ac 3c 2a d0 ca bf 73 09 0c be
       0.8070111 0.021001467 -1.5844777 -0.1367548
000110 6d 7f 6a 3f 16 65 33 3f 6d b3 53 c0 e3 71 ea 3e
       0.91600686 0.7007612 -3.3078263 0.45790014
000120 bc 24 80 be c3 93 74 3f 8c 83 02 c0 d0 23 d1 3e
       -0.25028026 0.95537966 -2.039279 0.40847635
000130 ab 0a 71 3f b5 ab c7 3e ce cf 01 c0 bf 2e 0c be
       0.94156903 0.3899819 -2.0283084 -0.13689707
000140 7f 25 28 3e 1a 29 81 3f ad 57 a6 bd f5 44 5b 3f
       0.16420554 1.0090668 -0.081221916 0.85652095
000150 8f dc a7 3c 60 46 12 be c5 d2 7f 3f d6 48 93 3f
       0.020490913 -0.14284658 0.99930984 1.1506603
000160 f4 61 06 3f c0 68 15 be d8 d6 2c 3f 7a 91 ff 3b
       0.52493215 -0.1459074 0.67515326 0.0077993246
000170 53 9f 91 bb 56 f0 ff 3e dc 90 09 c0 2a dd b0 3f
       -0.0044440418 0.4998805 -2.1494665 1.3817494
000180 89 2e 8b c0 d6 e5 6f 3f 9f bf 9d bf e6 09 be bf
       -4.3494306 0.93710077 -1.2324103 -1.4846771
000190 d7 f0 5f 3f 23 42 76 3d 91 49 4e 3f 3e 03 0c 3f
       0.8747687 0.060121667 0.80581003 0.5469245
0001a0 39 9d 35 c0 dc 75 15 3f 29 aa 53 be 79 ab a9 3d
       -2.837721 0.58382964 -0.2067038 0.08284659
0001b0 af 8f 87 3f d1 80 46 3e 1b ef cf 3c 4a 62 43 3f
       1.0590724 0.19385077 0.025382569 0.7632185
0001c0 f1 df 05 bc a4 ff 04 3d 3f d3 6d 3f 9b a4 9a 3f
       -0.008171068 0.03247036 0.9290046 1.2081484
0001d0 32 7a 1b be 65 4d 10 c0 50 84 a1 3d 6e 3b 2a 3f
       -0.15183333 -2.2547238 0.07886565 0.6649693
0001e0 03 39 27 3d b7 a5 5f 3e 11 0f 4b 3d 2d 42 82 3b
       0.040825855 0.21840559 0.049574915 0.003975174
0001f0 4c f7 4f 3f fb 58 f1 3d cb f2 72 3f 9e dc 09 3f
       0.8123672 0.1178455 0.9490172 0.5385226

net.4.bias f4 [2]
000000 57 b8 ab 3e ba 07 06 3e
       0.33539078 0.13088885

net.0.weight f4 [64, 4]
000000 10 dc 3f bd 7c 18 c9 3d c9 89 9d 3d 09 e5 01 bd
       -0.046840727 0.09819123 0.07692296 -0.031712566
000010 32 d6 f4 3d c9 ab a1 bd 74 e5 61 3e 1d 79 43 bd
       0.11954917 -0.078940935 0.22060186 -0.047722925
000020 d6 be 5a bd 07 38 24 3d af 09 cf 3f e0 bb 48 3e
       -0.05340465 0.040092494 1.617483 0.19602919
000030 7d a0 5b be d0 b1 0e 3e f0 ac 78 3f 1b dd 42 be
       -0.2144794 0.13935018 0.9713888 -0.19029658
000040 d1 df ab bd 87 85 a9 bc 93 e5 43 3d 04 38 41 3b
       -0.08392299 -0.020693554 0.04782636 0.002948285
000050 9f 65 63 3e db fc 81 be aa 42 51 bf c8 10 e8 bd
       0.22206734 -0.25388226 -0.81742346 -0.11331326
000060 9d e9 90 bd c2 d0 e0 3d 2d aa 0c bf 38 93 04 3e
       -0.07075808 0.109773174 -0.5494717 0.12946784
000070 5a cd d9 bd c6 c6 58 3c 1d 6b 84 3c 65 8d 7b 3c
       -0.10634871 0.013230985 0.016164357 0.015353535
000080 76 e2 15 3b f3 71 9a bd 01 12 5f 3c e1 b8 80 bd
       0.0022870577 -0.07541265 0.013615132 -0.06285263
000090 dd 92 4b be 55 1a 3e 3d 56 fc 0f be 6d c3 9d 3a
       -0.19880243 0.04641183 -0.14061102 0.0012036391
0000a0 03 34 19 be 3d d1 03 bd ef 1e 9d bf a5 dd 96 bd
       -0.14961247 -0.032181967 -1.2275065 -0.07366494
0000b0 be 5b 75 3d 78 f8 29 3d bd d7 87 bf 8c c2 47 3e
       0.059901945 0.041496724 -1.0612713 0.19507807
0000c0 2a 46 86 be e4 3d 04 bd 14 c7 90 3f d9 1f 0b 3d
       -0.26225406 -0.032285586 1.1310754 0.03396592
0000d0 a9 93 da bd c7 84 00 3e 0a 76 7c 3f 74 1c 96 be
       -0.10672695 0.1255065 0.98617613 -0.29318583
0000e0 c9 bc db 3c a5 fd 0d bc 88 6a 3e be 48 86 b0 bc
       0.026823418 -0.008666431 -0.18595326 -0.021548405
0000f0 9c 96 8a 3d 58 49 8a ba 52 48 85 3e ee b9 91 bc
       0.06767008 -0.0010550423 0.2603174 -0.017788853
000100 bb 88 39 be 7e d8 59 bd 44 31 85 bf 55 6a 5d 3e
       -0.18118565 -0.05318498 -1.040566 0.21622594
000110 64 8a 75 3e 44 e4 d2 bd 74 00 19 bf 8d 62 e1 bd
       0.23978573 -0.102974445 -0.59766316 -0.11005125
000120 a1 6e 45 3d a6 05 2e bd e8 e5 c4 bd 15 ed 03 bd
       0.048201207 -0.042485856 -0.09614164 -0.03220852
000130 06 b1 53 be 94 64 20 be 33 f6 df be a8 e9 37 be
       -0.20672998 -0.15663368 -0.43742523 -0.17960227
000140 51 0f 16 3e 7b 16 64 3d 42 92 d8 be c7 96 c5 3d
       0.1465428 0.0556855 -0.42299086 0.09647899
000150 ef 86 a3 3e a4 f8 45 3d db b7 73 be b2 a8 3e 3c
       0.31938884 0.048332825 -0.23800604 0.0116369
000160 79 e6 11 3e db 72 39 be 72 e0 2e bf 6c 24 6a bc
       0.14248075 -0.1811022 -0.68311226 -0.01429091
000170 5d 08 8a 3e 49 e1 80 3d e3 7a 76 bf 46 e2 5b bd
       0.26959506 0.0629297 -0.9628126 -0.053682588
000180 17 86 c8 bd c4 d9 d7 3d 95 6a 7c 3f 6b f5 4b 3d
       -0.097912006 0.10539582 0.9860013 0.049794596
000190 39 b1 5d be fe 5f c8 bd bf 5c 18 be 56 16 44 3e
       -0.21649636 -0.09783934 -0.1487913 0.19149145
0001a0 97 5d e3 3d a4 47 86 3d f7 89 46 3f 44 c1 fa 3d
       0.11101835 0.06556633 0.7755427 0.12243894
0001b0 cc 0c f0 3e ce d6 aa bd c8 ef 46 3e e8 8b cc bd
       0.46884763 -0.08341752 0.19427407 -0.099876225
0001c0 da f2 85 3e c1 85 b2 be 8d 34 56 3f 58 b4 27 3e
       0.26161844 -0.3486767 0.83673936 0.1637739
0001d0 ef bd fe 3c e1 4d 02 be f7 85 c2 b8 ef 5a 7d be
       0.031096427 -0.12725021 -9.275594e-05 -0.2474172
0001e0 44 26 5b be e4 ad 54 3e 85 98 12 3f 67 a4 88 be
       -0.21401316 0.20769459 0.57263976 -0.2668793
0001f0 f4 cf e9 bc 6a eb a8 bc af 49 ee 3c be 00 91 bd
       -0.028541543 -0.020620067 0.02908787 -0.0708022
000200 b9 9e e8 3c 94 a8 39 3b f4 92 54 bf 1e 11 70 bd
       0.028395997 0.002832924 -0.8303673 -0.058610074
000210 f3 8f 60 bb 53 82 68 3d 1a 91 98 bc b8 5e 4d 3d
       -0.0034265488 0.05676491 -0.018623877 0.05013916
000220 8f 12 0c bd 8e 71 94 bb f4 d6 26 3f 24 82 b7 3e
       -0.034197386 -0.0045301383 0.6517174 0.35841477
000230 9c 66 f2 3d 6d e6 20 bc 3c 61 79 bd 32 24 0c 3d
       0.118359774 -0.009820563 -0.060883746 0.034214206
000240 8c cf 9d bc fb dd 0e bd 63 a3 b2 bf 5b d2 a9 be
       -0.019264005 -0.034879666 -1.3956112 -0.331683
000250 7c 53 eb bd e7 ae a3 3d fe 3b 52 3f 2e 51 2a bd
       -0.11490533 0.07992344 0.8212279 -0.041581325
000260 00 08 47 bd 2d 28 86 3d 6a 5a 55 be 4e 71 24 3e
       -0.048591614 0.06550632 -0.20835271 0.16058847
000270 90 7e da 3d 89 04 b3 bd fb 43 89 bc c8 5a f4 3b
       0.10668671 -0.087410994 -0.016756048 0.007457111
000280 17 1d 1c be 32 b5 9c bd 9a 90 6c 3d f8 ba 2e bd
       -0.15245472 -0.07651748 0.05775509 -0.042658776
000290 a8 44 87 3e 37 f3 28 be 14 2f de bf 36 03 7b be
       0.26419568 -0.16499029 -1.7358117 -0.24512944
0002a0 50 79 47 be 0f 49 28 3e 18 52 5c 3f 9d a0 84 bd
       -0.19479871 0.1643412 0.86062765 -0.06475947
0002b0 99 2f 46 be d2 df 67 3e 23 22 71 3e 51 fe cb 3d
       -0.19354095 0.22643974 0.23548178 0.099606164
0002c0 40 73 26 3c b3 8a 72 bd a0 90 e7 bd 20 f9 30 bd
       0.010159314 -0.059214305 -0.11306882 -0.043206334
0002d0 fd 23 b0 bb 35 51 ba 3d 8e 08 60 3f 48 0c 98 3d
       -0.005375384 0.0909752 0.87513053 0.074242175
0002e0 9a 98 c1 3d e6 69 16 be 67 33 ea bf c1 b1 9d be
       0.094529346 -0.14688835 -1.8296937 -0.30799678
0002f0 64 7c 91 3e 70 dd e9 bd b3 c6 1c be cd 92 b8 3d
       0.28415215 -0.11419189 -0.15310173 0.09012375
000300 df 1d 2e bd 90 b9 4b 3c 55 58 08 bd 52 e0 e9 3b
       -0.042508956 0.012434378 -0.033287365 0.007137337
000310 b8 61 e2 bd 3c a3 11 3d e0 04 5c be 02 70 b9 bc
       -0.110537946 0.035556063 -0.21486235 -0.022636417
000320 17 2d ef 3d f1 f8 40 bd 7e e0 ec be 30 b7 c3 bc
       0.11678522 -0.04711241 -0.46265024 -0.023891062
000330 f0 41 21 bf 6e 1e ac bd 31 5b 7a 3f a2 82 f4 3d
       -0.6299124 -0.084042415 0.977954 0.11938979
000340 c1 c2 bf 3c f3 59 0f 3e 74 38 6d 3f 45 e1 56 3e
       0.023408296 0.13999157 0.92664266 0.20984371
000350 49 fc 25 bd 92 d9 6b bd ae b6 72 3e 9c 35 50 bc
       -0.0405238 -0.057580538 0.237025 -0.012708094
000360 47 a5 17 3d 22 8a 7d 3c 12 96 53 bd 53 c0 93 3c
       0.037022855 0.015474828 -0.05165679 0.018036043
000370 a2 ea 31 be 92 3d 0a 3e 85 db 18 3f fa d2 92 bc
       -0.17374662 0.1350005 0.5970996 -0.017922867
000380 4f 71 62 3e b6 32 19 be a0 f0 3e bf 9a cf b7 3e
       0.22113536 -0.14960751 -0.74585915 0.35900575
000390 18 01 09 3d 61 84 f9 bd ad c2 e3 be 2b 17 4d 3d
       0.03344831 -0.121834524 -0.44484463 0.050070923
0003a0 f3 54 ee bc a6 a6 a8 3d 06 15 94 bd ff 9a 3b 3d
       -0.029093241 0.08234911 -0.072305724 0.045802113
0003b0 8b b8 fa 3d e0 c5 5d bd ac 72 fa be 2a e4 20 be
       0.1224223 -0.054143786 -0.48915613 -0.15712038
0003c0 9d 9b 18 3e 2d 15 9e 3c 5c 01 87 3f c0 09 4e 3d
       0.14903112 0.019297207 1.054729 0.050302267
0003d0 41 b0 c5 bc 5c b5 82 3c 0b 6f 69 bd e2 8b ef bc
       -0.024131896 0.01595562 -0.056990664 -0.029241506
0003e0 66 8e 26 3e 93 5c 18 be 8c 1c 83 bf 70 b5 bb bd
       0.16265258 -0.14879064 -1.0243087 -0.09165466
0003f0 2f a9 2f 3e aa 1e 00 be 19 ef d6 3e a0 06 d0 bb
       0.17154382 -0.12511697 0.41979292 -0.006348446

net.0.bias f4 [64]
000000 ec e6 b2 3e 5f f4 86 3e 9f f1 6c be 90 11 c0 bd
       0.34941804 0.26358315 -0.23139046 -0.0937835
000010 47 db 97 be dd 9e 5e 3e 62 f6 dc bd b1 3d e0 3e
       -0.29659483 0.21740289 -0.10789181 0.43797067
000020 f2 c7 a3 3e 32 4d 86 be e9 04 c0 be e9 9e 76 3d
       0.31988484 -0.2623077 -0.37503746 0.060210142
000030 21 85 01 bf f0 a2 4c be 7e 0e 16 be 09 b7 7a 3e
       -0.50593764 -0.1998403 -0.14653966 0.24483885
000040 6c 81 5c be 9b 4f 25 be 78 ea b7 bd 88 0f 8e be
       -0.21533746 -0.16143648 -0.08980268 -0.27746224
000050 07 d1 ad 3d 37 83 2a bf f6 70 10 3e 35 28 03 bf
       0.084871344 -0.6660647 0.14105591 -0.51233226
000060 57 56 82 3e 70 11 ee be e5 af f7 be 66 14 1e bf
       0.25456497 -0.4649768 -0.48376384 -0.61749876
000070 6b 68 9a bc cb a7 c9 bd b4 7d 1b 3d ed 53 86 be
       -0.018848618 -0.09846457 0.037961677 -0.26235905
000080 4f 3a 8c 3e f1 f7 0b be b2 a6 a4 be f8 eb c7 3e
       0.27388236 -0.13668801 -0.32158428 0.39047217
000090 97 b1 80 bc 68 2e 20 3e 26 5e 99 be 7c 00 04 3f
       -0.015709681 0.15642703 -0.29954642 0.5156324
0000a0 49 87 e4 be 79 bc c4 be 70 68 25 3e cd f1 80 be
       -0.44634464 -0.38425043 0.16153121 -0.2518448
0000b0 5b 28 f5 bd 15 e2 9a 3e 33 17 c2 be 47 3f 98 be
       -0.11970588 0.30250612 -0.37908325 -0.29735777
0000c0 d0 06 bc bd b5 ac 9e 3e f3 db 46 3e 7a c4 bb be
       -0.09180987 0.3099114 0.19419841 -0.36673337
0000d0 0b 90 27 be 4c cd de 3e b7 90 93 be 4c 32 ec bd
       -0.16363542 0.43516004 -0.28821346 -0.11533031
0000e0 4c 7e c1 3b a5 86 c9 be c5 90 0f be ba 4b b2 3e
       0.0059049483 -0.39360538 -0.14020069 0.348234
0000f0 4c 09 fb be 49 71 40 be fc 71 85 3e 18 f3 b4 be
       -0.4903053 -0.18793215 0.26063526 -0.35341716

net.2.weight f4 [64, 64]
000000 49 3f 40 be 80 6c 30 be 1a c3 d5 3e 43 9d f6 3d
       -0.18774141 -0.1722889 0.41750413 0.12041714
000010 65 da d3 3c cf 70 22 be 4c b8 fb be 25 55 8e be
       0.025860975 -0.15863346 -0.49164045 -0.27799335
000020 9a 4c d6 bd 8f 85 2a 3d ef f6 3a bd 15 89 83 be
       -0.10463829 0.041631278 -0.04564565 -0.25690523
000030 36 b5 91 be 0b 58 71 bd 27 63 2d be 12 77 d4 bd
       -0.28458565 -0.058921855 -0.16932355 -0.10374273
000040 6e 1d 8d bd 1e 9a 12 bf 9d 75 1a be 2a 26 65 be
       -0.06890379 -0.57266414 -0.15083928 -0.2237784
000050 89 75 d1 3a ad 1e 92 3d 7f 76 26 bf 92 d4 53 bf
       0.0015980463 0.07134757 -0.6502456 -0.8274623
000060 9a a9 6c 3e 3c 83 f5 be dd 77 1f 3f 0b 6c 76 3e
       0.23111573 -0.47951686 0.6229227 0.24064653
000070 db 38 eb be 51 45 a2 ba 2f e3 b6 3d bb d3 06 3e
       -0.45941815 -0.0012380277 0.089300506 0.13166706
000080 c7 19 27 bf 24 c2 92 3d f7 86 a0 be a9 55 5b 3d
       -0.6527371 0.07165936 -0.3135297 0.05354849
000090 ec a5 f0 bd a7 d7 a4 bd 6b 84 67 be e2 2c 51 be
       -0.11750397 -0.08048945 -0.22609107 -0.20427278
0000a0 2e fc 9d 3d 6d d6 83 be 6a ed 62 3c 65 43 12 be
       0.07714115 -0.2574953 0.013850549 -0.14283521
0000b0 4d 8a 05 3d ac 1a 02 3f 25 f9 94 3d 65 cd 94 3d
       0.032602597 0.5082195 0.07274083 0.072657384
0000c0 3f c5 5d bd 27 9a 28 be 82 6a da bd 14 9a fc be
       -0.054143187 -0.16465054 -0.10664846 -0.49336302
0000d0 c9 5a ca bd 9d b1 0c be 0a 4d de 3d 2b 5e fd 3d
       -0.09880597 -0.13739629 0.10854538 0.12371477
0000e0 28 08 38 bd 52 09 df be 33 0a 9e bb cd 81 02 bf
       -0.044929653 -0.43561798 -0.004822993 -0.5097931
0000f0 c8 7e c4 3f 4c 96 21 bc cb 62 6a be 02 4e e5 3e
       1.535119 -0.009862494 -0.22889249 0.44786078
000100 e7 d1 bf 3d ca 9b ed 3d 49 6e 4d be f0 e1 4a 3e
       0.093662076 0.1160198 -0.20061602 0.19812751
000110 65 06 54 3c 2b 03 6f 3d ac af 7e bb 36 22 1d be
       0.012940978 0.05835263 -0.0038862033 -0.15345082
000120 ee 9c 17 be d0 45 3e bc 20 51 b3 bd 38 7b bc bd
       -0.14805958 -0.011613324 -0.08755708 -0.092031896
000130 03 5c eb 3d 78 d7 b6 bd 9a ad 35 3d 2c 0d fe bd
       0.11492159 -0.08927816 0.044355012 -0.12404856
000140 38 7e 48 3d 7d 40 16 3d 3b 05 47 bd 25 b9 0e be
       0.048948497 0.036682595 -0.048588973 -0.13937815
000150 cd 6a 8a bd 45 d6 12 bd 70 0b c2 bb 46 86 17 be
       -0.06758652 -0.035848875 -0.0059217736 -0.14797315
000160 2e d5 97 bd 29 80 56 3d 7f 25 27 3e ff 63 27 be
       -0.07413708 0.052368317 0.16322897 -0.16346739
000170 bf 2f b7 bd 55 4d ab bd d4 3f 71 bd c0 8a 51 bd
       -0.08944654 -0.08364359 -0.058898762 -0.051157713
000180 10 e6 35 be b7 b1 be 3c cc bb 70 bd be 3a 18 bd
       -0.17763543 0.0232781 -0.058772847 -0.037165396
000190 8a 6b 5b be be 71 2c 3e cc 67 7e 3e 93 6d 60 be
       -0.21427742 0.16840264 0.24844283 -0.21916799
0001a0 86 b4 21 bc 5b 90 6b bd 56 16 93 bd 80 11 bb 3c
       -0.0098697 -0.057510715 -0.071819946 0.022835493
0001b0 73 ef bd 3d 27 87 27 bb 80 85 30 be 30 09 39 be
       0.09274187 -0.0025562735 -0.17238426 -0.18069911
0001c0 04 44 46 3e 97 4d 28 be e5 aa 07 be 11 97 57 bd
       0.19361883 -0.16435848 -0.13248785 -0.052634303
0001d0 8c bc 0c bd d3 ce 6e bc ee 43 11 3e 4e 7b 9a bd
       -0.0343595 -0.014575678 0.1418607 -0.0754305
0001e0 69 07 4e be bb 7e 7c bd c8 c9 44 3e 29 49 db 3d
       -0.20120014 -0.061644297 0.19217598 0.107073136
0001f0 6e 96 16 3e 6f 7d d4 bd 4a a1 51 be 11 f6 c3 3d
       0.14705822 -0.10375487 -0.20471683 0.09568418
000200 68 65 40 be e3 2a 31 bf 07 d6 ab be 99 f4 6e bf
       -0.18788683 -0.69206065 -0.33561727 -0.93341976
000210 9d 18 bc bd 2c 91 16 bf 73 eb 7a 3d a0 91 1f be
       -0.09184382 -0.58815265 0.061259698 -0.15582895
000220 43 41 28 be 83 b8 3a 3f 0f d2 21 40 86 4c df be
       -0.16431145 0.7293779 2.528446 -0.4361307
000230 2b 84 ac 3f e6 5b 47 bf ea 2c e7 3d df a4 b6 be
       1.3477834 -0.778746 0.112878636 -0.35672662
000240 85 cf 8a be eb ad 41 bd cb 3a 81 3c 00 f2 e2 be
       -0.2711145 -0.047285 0.015775105 -0.44325256
000250 46 e8 d3 be 80 de b6 bd 11 ce 88 be bf c7 26 3f
       -0.41388148 -0.08929157 -0.26719716 0.6514854
000260 94 57 bf be b4 d9 37 3d cd 0c 09 3f 3f 1f 27 be
       -0.37371504 0.044885352 0.5353516 -0.16320513
000270 a8 44 b7 3c 7c db 03 3e 37 6b 30 bf 02 f5 72 3d
       0.022371605 0.12876695 -0.68913597 0.05931569
000280 42 60 96 be f0 a2 18 3e 09 e0 07 3e e9 b9 f0 be
       -0.29370314 0.14905906 0.13269056 -0.47016838
000290 08 ad 22 3f 6d b8 43 be e7 86 a6 3e 7a 96 18 be
       0.63545275 -0.19113322 0.32524797 -0.14901152
0002a0 15 8b a4 3f 42 ff 6e 3f 0c 13 8c bd e5 71 84 bd
       1.2854944 0.9335824 -0.068395704 -0.06467036
0002b0 59 33 9a 3d 1b 98 a1 be 40 67 95 3e 22 38 65 be
       0.07529325 -0.3156136 0.29180336 -0.22384694
0002c0 02 bf d3 bd be bd 4b 3d 3f 22 4b bf eb 19 5c 3f
       -0.10339166 0.0497415 -0.7934913 0.8597705
0002d0 9e 73 27 3e fa 0d 08 be e3 b1 0d bd fa cd fc be
       0.16352698 -0.13286582 -0.034593474 -0.49375898
0002e0 cd 4a 85 bf ee 91 93 be de 93 92 bd 12 8a 61 bf
       -1.0413452 -0.28822273 -0.0715711 -0.88101304
0002f0 a7 f9 2f 3f 40 32 76 bd eb 80 56 bf bf 84 ad 3e
       0.68740314 -0.060106516 -0.83790463 0.3389034
000300 b2 88 af bc 0c 31 85 3d 97 41 3e bd 70 fe 5b 3d
       -0.021427486 0.065034956 -0.04644927 0.053709447
000310 ac 22 bd bd c0 12 01 bd 83 3e f2 3c ed 78 ce bd
       -0.09235129 -0.031512022 0.029570824 -0.100816585
000320 a4 bf ad bd 70 c4 81 bd 83 d5 6d bc a1 aa f1 bb
       -0.08483818 -0.063362956 -0.014516237 -0.007375077
000330 c1 ec d6 3d c2 ef b8 bd b8 5d e1 bd f0 33 6e 3c
       0.10494376 -0.09030105 -0.110042036 0.01453875
000340 f2 5e fb 3c 60 7f bd bd bb 7d f4 3d b8 60 36 be
       0.030684922 -0.092528105 0.11938044 -0.17810333
000350 e7 6d f5 bc ea 36 5b bd f8 0f f1 3c 47 39 ad bd
       -0.029959632 -0.053519167 0.02942656 -0.084581904
000360 a2 28 4f be 70 de 42 3d f8 9e 35 bd ac 17 8a 3d
       -0.20230344 0.047575414 -0.044341058 0.06742796
000370 02 5c 23 3e 72 9e 91 3c 9f 3e f4 3c 24 9c fe bd
       0.15953067 0.017775748 0.029815016 -0.12432125
000380 b7 09 d2 bc 4c 42 81 3e d1 e4 53 3c 5d 21 52 be
       -0.025639398 0.25245893 0.012932972 -0.2052054
000390 9f 26 53 bd ac 36 f5 bd 23 17 28 bd ab 26 2f be
       -0.051550504 -0.119733185 -0.04103769 -0.17104594
0003a0 fd 9f e3 bc b8 c6 55 3d ae 0d 23 bc 83 ca 99 bd
       -0.02778625 0.052191466 -0.009951992 -0.07509329
0003b0 22 ac 64 3b dd 24 24 bd 60 97 6d bd c7 7d 9a 3d
       0.0034892638 -0.040074218 -0.05800569 0.075435214
0003c0 15 ec 64 3e 08 06 2b bd 6d 9a b4 bd 6f 88 07 be
       0.22355683 -0.0417538 -0.08818517 -0.13235639
0003d0 07 11 64 bd 02 fb 28 3d 6a f5 ec bc b0 8e 72 bb
       -0.0556803 0.041255005 -0.028925616 -0.0037011318
0003e0 9c a1 16 3b 7b cd 82 bd 5d de 6a bd ad d8 14 be
       0.002298451 -0.063868485 -0.05734097 -0.1453578
0003f0 ec 3e 31 bd f7 af 53 3b 05 0b eb 3d fe 68 a9 3d
       -0.043272898 0.0032300928 0.11476711 0.08271979

net.2.bias f4 [64]
000000 e5 54 0d be 7c d1 82 3d af 80 76 be e6 39 c3 bd
       -0.13801916 0.06387612 -0.24072526 -0.095325276
000010 16 81 e3 3e 4a d7 b5 3e c1 31 3a be d9 59 85 3e
       0.44434422 0.35515815 -0.18183042 0.2604511
000020 e6 10 03 be f1 21 19 3f 91 be 62 3e dd 69 c2 3e
       -0.12799415 0.59817415 0.22143008 0.37971392
000030 39 21 d0 3e 5b 23 8f 3e dd 19 85 be 8d 7b 9b 3d
       0.40650347 0.27956662 -0.25996295 0.07591925
000040 fc 6b fc bd 1b d1 a4 3e 42 18 56 bb f8 76 ca 3e
       -0.12325284 0.32190785 -0.0032668267 0.3954389
000050 8d 4a 1f 3c 6a 9b 5f bd ed 37 da 3e b6 0a a1 3e
       0.009722364 -0.054591574 0.42620793 0.31453484
000060 f7 eb c8 3e 3c df 46 3d 60 41 64 3e 76 a6 21 3e
       0.39242527 0.048552737 0.22290564 0.15786156
000070 c0 d7 34 bd a2 1c 98 3e d0 0d ca bd 33 ab e0 3e
       -0.044151068 0.29709345 -0.09865916 0.43880615
000080 a3 e3 a5 bd ec 40 a8 3e 8e fa ba bd 42 7d 5a bd
       -0.08100059 0.3286203 -0.09129821 -0.05334211
000090 72 74 d2 3e 0e 1e 9c bd 1b cf ab 3e 0d a4 dc 3e
       0.41104466 -0.0762292 0.33556446 0.4309391
0000a0 8e da 82 be d6 3b ac 3e 3e 7e 93 bd 75 f0 04 be
       -0.2555737 0.336394 -0.07201813 -0.12982352
0000b0 5b d7 df 3e 18 ec bb 3e a2 e0 ee bd 91 90 dc 3e
       0.4371899 0.36703563 -0.11663939 0.43079045
0000c0 bd 74 86 bd 31 74 a3 bd 6f 60 04 3f c7 4c ef 3e
       -0.06565235 -0.07981146 0.51709646 0.46738264
0000d0 74 ff f5 bd b7 0d ee 3a 12 af de bd 20 c4 d1 3e
       -0.120116144 0.0018162046 -0.10873236 0.40969944
0000e0 e8 be 3e bd 2c 7a fd 3e 85 32 0d be 7a 36 d5 bd
       -0.04656878 0.49507272 -0.13788803 -0.10410781
0000f0 e6 ae f4 3e 97 cf 23 be ac aa b1 3e 7a 89 8e 3e
       0.47789687 -0.15997158 0.34700525 0.2783926

net.4.weight f4 [2, 64]
000000 a6 57 18 bf 69 ea d6 bd fb 22 18 c0 aa 1b 25 3e
       -0.5950874 -0.10493929 -2.377135 0.16123834
000010 63 05 32 3f 11 73 89 3f 42 8b 25 c0 44 2b 31 3f
       0.6953947 1.073824 -2.5866246 0.69206643
000020 5f 75 7f 3e 3a e8 5e 3f 9c fa e4 bf db 4d 4c 3f
       0.24947117 0.870731 -1.788898 0.798063
000030 23 ca cf 3e 8c e3 77 3f 0e 67 14 c0 2d fe 8c 3c
       0.40583906 0.96831584 -2.31879 0.017211044
000040 1c dc 87 3d d4 e1 26 3f de 3d 98 3d 75 01 88 3f
       0.066337794 0.65188336 0.07433675 1.0625445
000050 d7 4b 21 bd 4b 47 f9 bd c6 c5 03 3f c2 c8 7f 3f
       -0.039378967 -0.12171801 0.51473653 0.9991571
000060 2b 9f 98 3f 1f 6f 8b bc 62 8c 4e 3f f7 0e b4 bd
       1.1923574 -0.01702076 0.8068296 -0.08791917
000070 fd 53 99 3d 81 4a 84 3f 79 94 1b c0 10 28 64 3f
       0.074867226 1.0335237 -2.430937 0.8912363
000080 95 f1 6d c0 49 fa c7 3e 5d a9 9d bf cf a1 2f c0
       -3.71787 0.3905814 -1.231731 -2.744251
000090 f0 97 3a 3f 11 14 58 3e a1 2f 3c 3f 87 aa 2d 3f
       0.7288809 0.21101405 0.73510176 0.6783833
0000a0 2a d3 70 be 9d e2 34 3f 1e 8c a5 3e 07 ee 1b bd
       -0.23518053 0.70658284 0.32333463 -0.038068797
0000b0 3c c1 33 bb 3a 73 39 3f 78 f9 2e 3d 38 25 38 3f
       -0.002742841 0.72441447 0.04271838 0.7193179
0000c0 f1 b2 56 bc 62 42 e5 bc da 6f 5e 3f 26 d4 56 3f
       -0.013104186 -0.027985755 0.8688942 0.8391746
0000d0 ec 0f 89 bd d4 43 cd bf 6f c5 ce bc d3 99 2e 3f
       -0.0669249 -1.6036325 -0.025240628 0.6820347
0000e0 06 a7 1d 3c 25 69 65 3f b9 db 9e bb 5d 6e 9d bd
       0.009622341 0.8961356 -0.0048479703 -0.07687066
0000f0 88 bd 21 3f 67 59 d8 ba 84 24 aa 3e d5 3c 48 3f
       0.63179827 -0.0016506136 0.33230984 0.7821782
000100 b8 98 4e 3f 9f 0a ac 3c 48 a7 c7 bf 56 12 11 be
       0.8070178 0.021001158 -1.5597925 -0.14167151
000110 bf 4b 61 3f ca 79 22 3f 2b 15 52 c0 c3 24 f2 3e
       0.88006204 0.63467085 -3.282542 0.47293672
000120 80 8c 84 be 2f e8 6e 3f 80 5e f4 bf d8 fc d7 3e
       -0.25888443 0.93323034 -1.9091339 0.42185092
000130 8c 82 65 3f 3f 33 d5 3e ad cf 01 c0 24 2f 0c be
       0.89652324 0.4164066 -2.0283005 -0.13689858
000140 7f 25 28 3e a6 f1 76 3f 06 58 a6 bd e1 39 57 3f
       0.16420554 0.96462476 -0.08122258 0.8407269
000150 4f dc a7 3c 85 46 12 be 3c ea 73 3f b3 45 8e 3f
       0.020490794 -0.14284714 0.9527929 1.111502
000160 2b 12 0c 3f dd 68 15 be 9f 97 2e 3f 74 91 ff 3b
       0.5471522 -0.14590783 0.68200105 0.007799322
000170 56 9f 91 bb e0 86 04 3f 26 23 f4 bf a1 96 ab 3f
       -0.004444043 0.517683 -1.9073226 1.3405343
000180 1e 2c 82 c0 b3 18 61 3f 3e bf 9d bf 75 bc bd bf
       -4.0678854 0.87928313 -1.2323987 -1.4823138
000190 bb dc 57 3f 23 42 76 3d 65 cf 46 3f f4 19 0d 3f
       0.8432118 0.060121667 0.7766021 0.55117726
0001a0 68 6f 35 c0 e5 69 16 3f 61 aa 53 be cf aa a9 3d
       -2.8349247 0.5875533 -0.20670463 0.08284532
0001b0 a1 e8 80 3f e6 c0 5a 3e 1b ef cf 3c f8 b4 41 3f
       1.0070993 0.21362647 0.025382569 0.7566676
0001c0 4c e0 05 bc a4 ff 04 3d 5e 0b 64 3f 70 bd 93 3f
       -0.008171152 0.03247036 0.89079845 1.1542187
0001d0 c5 7a 1b be 26 d4 07 c0 e1 85 a1 3d a3 76 29 3f
       -0.15183552 -2.1223235 0.078868635 0.6619665
0001e0 07 39 27 3d 71 9c 79 3e 40 0f 4b 3d bd 41 82 3b
       0.04082587 0.24376084 0.04957509 0.003975122
0001f0 54 6c 4a 3f fb 58 f1 3d 77 b7 5d 3f a3 70 0b 3f
       0.79071546 0.1178455 0.8660807 0.54468745

net.4.bias f4 [2]
000000 7f 0e ac 3e 20 cb 06 3e
       0.3360481 0.13163424

exp_avg f4 [64, 4]
000000 96 6b 3f 3e 43 18 01 3e 18 45 a4 3b 62 10 a2 3b
       0.18693385 0.12606911 0.0050131194 0.0049458006
000010 b0 d5 21 3e 2f 66 da 3d 6b a4 84 3b fa e9 86 3b
       0.15804172 0.10664021 0.0040479205 0.0041172476
000020 e0 09 92 ba 22 1b 2d bb 81 c1 a6 39 f6 92 26 3b
       -0.0011141859 -0.0026413877 0.0003180616 0.0025417185
000030 d5 f0 30 3d 93 2d ca 3c 22 3c 24 3a e2 af e0 3b
       0.043198425 0.024679935 0.0006265064 0.0068569044
000040 04 00 00 80 04 00 00 80 04 00 00 80 04 00 00 00
       -6e-45 -6e-45 -6e-45 6e-45
000050 8a 59 70 3e fc c8 25 3e 46 89 9a 3b 68 38 16 3b
       0.23471656 0.1618995 0.0047160713 0.0022921804
000060 04 00 00 80 04 00 00 80 04 00 00 80 04 00 00 00
       -6e-45 -6e-45 -6e-45 6e-45
000070 dd cf b3 3e c3 3c 75 3e 9c 36 19 3c 74 fd e1 3b
       0.35119525 0.2394896 0.009351399 0.006896669
000080 f0 c3 38 3e 7f bf f3 3d d3 7b 91 3b 20 8f ea 3b
       0.18043494 0.11901759 0.00443981 0.007158175
000090 84 b4 a2 bc 48 f2 32 bc e2 7c 64 ba 79 ea de bb
       -0.019861467 -0.010922022 -0.0008716119 -0.0068028537
0000a0 cd 47 8f c0 bf 37 4b c0 c4 6e 09 be f1 1e 36 3c
       -4.4775147 -3.1752775 -0.1342116 0.011115775
0000b0 b9 bd 41 3c 2e 49 66 3c 5d 4f 13 3a 0f 3e c3 bb
       0.011825019 0.014055533 0.0005619431 -0.0059583257
0000c0 af ce b6 c0 bf 8c 7a c0 d0 2c 03 be 7b d2 3d be
       -5.71273 -3.9148405 -0.12810063 -0.18537323
0000d0 5f 0c 19 b9 0d 0e 6f b8 4f bb bd b5 14 e7 7d b8
       -0.00014595826 -5.6995126e-05 -1.4136111e-06 -6.053511e-05
0000e0 04 00 00 00 04 00 00 00 04 00 00 00 04 00 00 00
       6e-45 6e-45 6e-45 6e-45
0000f0 fe 61 b6 3d 56 54 76 3d 1d 6c 20 3b 50 c4 0d 3b
       0.08905409 0.060139023 0.0024478503 0.0021631904
000100 23 37 17 3e 1c 54 d2 3d a9 25 62 3b d2 53 18 3b
       0.14767127 0.10269949 0.003450731 0.002324332
000110 04 00 00 00 04 00 00 00 04 00 00 80 04 00 00 80
       6e-45 6e-45 -6e-45 -6e-45
000120 04 00 00 80 04 00 00 80 04 00 00 80 04 00 00 00
       -6e-45 -6e-45 -6e-45 6e-45
000130 87 e6 02 be d4 9a ca bd 92 c9 71 bb 13 2b 7b 3c
       -0.12783252 -0.09892812 -0.0036893827 0.015330094
000140 25 d3 42 ba e3 15 fe ba 62 3a 10 b9 ab ca 89 3a
       -0.00074319757 -0.0019385185 -0.0001375466 0.001051267
000150 04 00 00 80 04 00 00 80 04 00 00 80 04 00 00 00
       -6e-45 -6e-45 -6e-45 6e-45
000160 50 fa f0 3d 1d 19 af 3d bf 35 1d 3b 3f ad 4a bb
       0.11766493 0.08549712 0.0023988334 -0.0030926017
000170 04 00 00 80 04 00 00 80 04 00 00 80 04 00 00 00
       -6e-45 -6e-45 -6e-45 6e-45
000180 67 48 c4 bb 7a 41 fc ba a7 d2 41 3a b7 4f 0a bb
       -0.0059900763 -0.0019245588 0.00073937554 -0.0021104643
000190 b0 25 8f bd 81 1b 6b bd 16 59 01 bb 28 54 18 3c
       -0.0698961 -0.057399277 -0.0019736937 0.009297408
0001a0 04 00 00 00 04 00 00 80 04 00 00 00 04 00 00 00
       6e-45 -6e-45 6e-45 6e-45
0001b0 04 00 00 80 04 00 00 80 04 00 00 80 04 00 00 00
       -6e-45 -6e-45 -6e-45 6e-45
0001c0 cd f4 2f bc 99 da 0f bc ba 61 86 39 ee 20 88 3b
       -0.010739517 -0.008780145 0.00025631284 0.004154316
0001d0 a4 bd aa 3c 1d 76 2b 3c f7 c1 9e 39 68 a1 c3 3b
       0.02084238 0.010465172 0.00030280623 0.005970169
0001e0 4c 56 b0 3d de e0 69 3d 48 c9 06 3b 80 19 81 3b
       0.0861021 0.057099216 0.002056675 0.0039398074
0001f0 04 00 00 80 04 00 00 80 04 00 00 80 04 00 00 00
       -6e-45 -6e-45 -6e-45 6e-45
000200 70 9a 82 3e 0b e0 30 3e 29 7a c2 3b b8 dc bd 3b
       0.2550845 0.17272966 0.005934973 0.005794134
000210 00 00 00 00 00 00 00 00 00 00 00 00 00 00 00 00
       0.0 0.0 0.0 0.0
000220 2f 13 d7 bb 61 69 e7 bb 5b a5 45 b9 22 71 6d 3b
       -0.006563566 -0.0070621227 -0.00018848984 0.0036230762
000230 33 4b a4 3e 23 84 60 3e 45 a0 05 3c 22 ca b6 3b
       0.32088622 0.21925406 0.008155887 0.0055782953
000240 95 2f 43 be 42 d6 02 be 9f 33 a9 bb 58 56 e0 bb
       -0.1906112 -0.12777045 -0.0051636244 -0.0068462305
000250 b9 59 39 bd c9 62 e5 bc a8 66 d6 b9 f3 38 6e bb
       -0.04525158 -0.028001206 -0.00040893746 -0.0036349862
000260 04 00 00 80 04 00 00 80 04 00 00 00 04 00 00 00
       -6e-45 -6e-45 6e-45 6e-45
000270 3d 37 e2 3e 35 95 99 3e 7d 71 3a 3c 47 87 1e 3c
       0.44182768 0.29996648 0.011379597 0.009675807
000280 a3 55 f1 bf 14 a7 af bf 49 7f 17 bd 65 12 35 ba
       -1.8854259 -1.3722863 -0.036986623 -0.0006907343
000290 aa 81 bc b4 82 85 94 b4 0c 0d 03 b4 73 fe 0d b5
       -3.5112072e-07 -2.7664288e-07 -1.2205072e-07 -5.2896866e-07
0002a0 1e 09 95 bd 7e 96 4b bd e1 e0 9a ba 9b ef b1 ba
       -0.072771296 -0.049704067 -0.0011816287 -0.0013575436
0002b0 04 00 00 80 04 00 00 00 04 00 00 00 04 00 00 80
       -6e-45 6e-45 6e-45 -6e-45
0002c0 00 00 00 00 00 00 00 00 00 00 00 00 00 00 00 00
       0.0 0.0 0.0 0.0
0002d0 2a 83 94 3d 4c 73 59 3d 4d cd 48 3b 4e dd fe ba
       0.0725158 0.05308847 0.0030639947 -0.0019444616
0002e0 0f 10 86 39 d9 0a e3 3a ea 14 9c b9 7c 91 4d bb
       0.00025570436 0.0017321958 -0.0002977022 -0.0031367233
0002f0 04 00 00 80 04 00 00 80 04 00 00 00 04 00 00 00
       -6e-45 -6e-45 6e-45 6e-45
000300 04 00 00 00 04 00 00 00 04 00 00 00 04 00 00 00
       6e-45 6e-45 6e-45 6e-45
000310 a5 53 65 3e 5b 7b 18 3e 95 1c ba 3b 3f fb 04 3c
       0.22395189 0.14890806 0.005679677 0.008116542
000320 fd 8e 1b 3e d0 c6 d7 3d 28 ab 69 3b 5b 51 8a 3a
       0.15191264 0.10535967 0.0035654996 0.001055281
000330 50 0e 76 be 7f 8d 2b be 81 d6 b2 bb 26 0e 82 ba
       -0.24028897 -0.16753195 -0.0054576998 -0.000992243
000340 26 be 38 ba d4 e9 da ba 20 75 53 39 e3 cf d2 3a
       -0.00070473773 -0.0016701766 0.0002016616 0.0016083684
000350 f0 69 ab 3e 6f 39 67 3e f6 73 0f 3c f5 1d 10 3c
       0.3347926 0.22580503 0.008755675 0.008796205
000360 00 00 00 00 00 00 00 00 00 00 00 00 00 00 00 00
       0.0 0.0 0.0 0.0
000370 dc 8a e0 3c cf 75 86 3c 63 a9 05 3a e8 2a f2 3a
       0.027409963 0.016413597 0.0005098788 0.0018475922
000380 1b 42 4c 3d 88 9a 18 3d 43 96 d1 3a 54 cd 77 bb
       0.04986773 0.037256747 0.0015990216 -0.0037811594
000390 04 00 00 80 04 00 00 80 04 00 00 80 04 00 00 00
       -6e-45 -6e-45 -6e-45 6e-45
0003a0 04 00 00 00 04 00 00 00 04 00 00 00 04 00 00 80
       6e-45 6e-45 6e-45 -6e-45
0003b0 10 1b 8f 3e 0d 83 40 3e f2 b4 c8 3b b2 ad f0 3b
       0.27950335 0.18799992 0.006125086 0.007344925
0003c0 04 00 00 00 04 00 00 00 04 00 00 00 04 00 00 80
       6e-45 6e-45 6e-45 -6e-45
0003d0 04 00 00 00 04 00 00 00 04 00 00 80 04 00 00 80
       6e-45 6e-45 -6e-45 -6e-45
0003e0 08 3a 56 3e 4b 84 13 3e 9b 98 90 3b a7 16 0f 3b
       0.20920575 0.14405935 0.0044127232 0.002183357
0003f0 04 00 00 80 04 00 00 80 04 00 00 00 04 00 00 00
       -6e-45 -6e-45 6e-45 6e-45
