CartPole/Experiment_1/23-09-26_22-10-39-937242_DQN/checkpoints/agent_158500.pt (torch, 82603 bytes, 24 tensors)

net.0.weight f4 [64, 4]
0	0xbcde3160	-0.027123153
1	0x3dc09896	0.094041035
2	0x3e8ab6a9	0.27092484
3	0x3cd9efa0	0.02660352
4	0x3e4febc2	0.20304778
5	0xbe3ef2cb	-0.18647306
6	0x3f4b3b7b	0.79387635
7	0xbe707a62	-0.23484185
8	0x3c2ecb28	0.010668553
9	0xbd884758	-0.06654233
10	0x401ec1e2	2.4805837
11	0x3e3fca4b	0.18729512
12	0xbd894457	-0.06702488
13	0xbf24fc17	-0.6444716
14	0xbf93a76d	-1.1535469
15	0xbf04b170	-0.5183325
16	0xbdabbce6	-0.08385639
17	0xbca87ed7	-0.020568294
18	0x3d46d10c	0.048539206
19	0x3b36b272	0.0027877358
20	0x3e725dbe	0.23668572
21	0xbdafffe1	-0.08593727
22	0xbfce6ee7	-1.6127595
23	0xbe1a75fd	-0.15084071
24	0xbd93e1a2	-0.072207704
25	0x3dca328a	0.09872921
26	0xbf102b0e	-0.56315696
27	0x3dc1825f	0.094486944
28	0xbde0acac	-0.109704345
29	0x3cf6967f	0.030101059
30	0x3e18a96c	0.1490838
31	0x3df8cda4	0.12148598
32	0xbd028cc2	-0.03187252
33	0xbd9e94ce	-0.07743226
34	0x3e5326e0	0.20620298
35	0xbd90a0ff	-0.070619576
36	0xbe136baa	-0.1439654
37	0x3d5e6d61	0.05430353
38	0xbbcd87ee	-0.0062723076
39	0x3e29ee0e	0.16594717
40	0xbe7cdc04	-0.24693304
41	0xbdbaefa7	-0.09127741
42	0xbf59f274	-0.8513558
43	0xbdb10bce	-0.0864483
44	0xbdab74b2	-0.08371867
45	0xbe0aec7c	-0.13566774
46	0xc00ae197	-2.170019
47	0xbed1d80f	-0.40985152
48	0xbea5b84c	-0.3236717
49	0xbe34bf57	-0.17651115
50	0x3de85132	0.11343612
51	0xbdd90231	-0.10596121
52	0x3e93302b	0.28747687
53	0x3de38f87	0.1111136
54	0x3fa8e09f	1.3193549
55	0x3ef5fa11	0.48042348
56	0x3cdbbc6f	0.02682325
57	0xbc0dfd9e	-0.008666424
58	0xbe3e6afc	-0.18595499
59	0xbcb08688	-0.021548524
60	0x3e677c54	0.22606021
61	0x3d9ef256	0.07761066
62	0x3fe093d0	1.7545109
63	0x3eb3ce61	0.35118392
64	0x3e18ee74	0.14934713
65	0x3eecf0fd	0.4627761
66	0xbf19c046	-0.6005901
67	0x3e063fd9	0.13110293
68	0x3e5e4365	0.21705396
69	0xbd6e3333	-0.058154296
70	0xbe686286	-0.22693834
71	0xbc875585	-0.016520271
72	0x3a930259	0.001121591
73	0xbd94945f	-0.07254862
74	0xbdc42879	-0.09578032
75	0xbd7987cb	-0.060920518
76	0xbd9ae6a5	-0.07563523
77	0xbe5b18b9	-0.2139615
78	0xbfed27d9	-1.8527786
79	0xbf14348b	-0.57892674
80	0x3c02e3f6	0.00798892
81	0x3d541153	0.051774334
82	0xbf154c4d	-0.5831955
83	0x3cb50ade	0.022099908
84	0x3ee55882	0.4479409
85	0x3e149d18	0.14513052
86	0x3f122965	0.57094413
87	0x3dbef597	0.09324186
88	0x3cea142f	0.028574077
89	0xbe84d9da	-0.25947458
90	0xbeef9142	-0.4679051
91	0x3daa1735	0.08305208
92	0x3ee2f6ea	0.44329005
93	0xbe3f79ed	-0.18698855
94	0xbf4f31e5	-0.8093551
95	0xbe7bb09d	-0.24579091
96	0x3bf14595	0.007363031
97	0x3d56a923	0.052407395
98	0x4009795d	2.1480324
99	0xbd09d345	-0.033648748
100	0x3eb89a58	0.36055255
101	0xbf18f008	-0.5974126
102	0xbddbb9f8	-0.1072883
103	0x3c5b7349	0.013394185
104	0x3e8fca17	0.2808387
105	0x3e7aca97	0.24491344
106	0x3fbda366	1.481549
107	0x3e86403c	0.26220882
108	0x3f200903	0.6251375
109	0x3eb8b3ec	0.3607477
110	0x3f7629a5	0.96157295
111	0x3e9a4f4d	0.30138627
112	0x3ef89990	0.4855466
113	0xbd724556	-0.059148155
114	0x3fef610a	1.8701489
115	0x3c392002	0.011299135
116	0xbe30de63	-0.17272334
117	0xbe9e099d	-0.3086671
118	0xbf84c0df	-1.037136
119	0xbea390bb	-0.31946358
120	0xbd84dbd6	-0.06487243
121	0x3f074989	0.5284658
122	0x3fc01e09	1.5009166
123	0x3cf41fb2	0.02980027
124	0xbce9cdfb	-0.028540602
125	0xbca8e962	-0.020619098
126	0x3cee4ba6	0.029088806
127	0xbd910174	-0.07080355
128	0x3c2215ee	0.009892924
129	0x3e5b3d2e	0.21410057
130	0xbfb24238	-1.3926458
131	0xbe71b23f	-0.23603152
132	0xbd1025d2	-0.03519232
133	0x3ccccaf5	0.024999121
134	0xbd4e6508	-0.05038932
135	0x3c9683cc	0.018373393
136	0xbdd17593	-0.10227504
137	0x3e2e4c1a	0.17021218
138	0x3fa8415f	1.314495
139	0x3ead4881	0.3384438
140	0x3e110dc3	0.14165406
141	0xbccc8d1c	-0.02496963
142	0xbbc434be	-0.0059877327
143	0x3dc12a08	0.09431845
144	0x3cad8be2	0.021184865
145	0xbd1ecaa9	-0.03876749
146	0xc0321276	-2.7823768
147	0xbe8e98ce	-0.27850956
148	0x3e396ddb	0.18108313
149	0xbee530c4	-0.44763768
150	0x3f81546a	1.0103886
151	0xbe8e9251	-0.27846006
152	0xbd470740	-0.0485909
153	0x3d862842	0.06550647
154	0xbe555a81	-0.20835306
155	0x3e2470f0	0.16058707
156	0x3e09a25b	0.1344084
157	0xbda6451e	-0.08118652
158	0x3d5c4f6d	0.053786684
159	0x3d970cea	0.0737551
160	0xbe112b7c	-0.14176744
161	0xbd42b771	-0.047538225
162	0xbe4603e8	-0.19337428
163	0xbd6e7d8c	-0.0582252
164	0x3f1577c8	0.58385897
165	0x3e5ac779	0.21365155
166	0xbf85fe96	-1.0468318
167	0x3d519a33	0.051172446
168	0x3d9c4bb0	0.07631624
169	0x3e0d0aae	0.13773605
170	0x40074d36	2.1140876
171	0x3e68e7d6	0.22744688
172	0xbe503921	-0.20334293
173	0x3e5cc2ed	0.21558733
174	0x3eab35ce	0.33439487
175	0x3dc834b0	0.09775674
176	0x3d2bb6a4	0.041922227
177	0xbce0e1f7	-0.027451498
178	0xbda6a099	-0.081361
179	0xbc3cefdd	-0.011531797
180	0xbe617f68	-0.22021258
181	0x3e6926f0	0.2276876
182	0x40098dc2	2.1492772
183	0x3dc94186	0.09826951
184	0xbd82a045	-0.06378225
185	0xbe38db95	-0.18052514
186	0xc016c3b8	-2.3556957
187	0xbf04315b	-0.5163781
188	0x3ed3829c	0.41310585
189	0x3df1a34c	0.117987245
190	0xbf8dbdc2	-1.1073534
191	0xbcfa22a1	-0.03053409
192	0xbc300a8e	-0.010744704
193	0x3d350771	0.04419655
194	0xbaca703c	-0.0015444825
195	0x3d1f4f19	0.038893793
196	0xbe0c8261	-0.1372161
197	0x3dab9179	0.08377356
198	0xbea8634a	-0.32888252
199	0x3d81e336	0.06342165
200	0xbf00d37c	-0.503227
201	0xbe1801b2	-0.14844397
202	0xbfd3baaf	-1.6541346
203	0xbe625691	-0.22103335
204	0xbf24636b	-0.642142
205	0xbe5f4a75	-0.21805747
206	0x3f366ea1	0.71262556
207	0x3e134fde	0.14385936
208	0xbde87bfd	-0.11351774
209	0x3e4e2c85	0.2013417
210	0x3f9ee52c	1.2413688
211	0x3e3863c0	0.18006802
212	0xbd27cc4a	-0.04096631
213	0xbd644562	-0.05573023
214	0x3ef1208b	0.4709514
215	0x3dced702	0.10099603
216	0x3d17a547	0.037022855
217	0x3c7d8a22	0.015474828
218	0xbd539612	-0.05165679
219	0x3c93c053	0.018036043
220	0xbe50c821	-0.20388843
221	0x3e1f9a97	0.15586315
222	0x3f45a284	0.77201104
223	0x3d5f498b	0.054513495
224	0x3e8def13	0.27721462
225	0xbcab5e38	-0.02091895
226	0xbf8727c9	-1.0559016
227	0xbceb4f7d	-0.028724426
228	0x3d8d8df1	0.06911839
229	0xbdafbf5f	-0.08581423
230	0xbeecfcf7	-0.46286747
231	0x3c7c8e7e	0.015414832
232	0xbcee554a	-0.029093403
233	0x3da8a5d7	0.082347564
234	0xbd94153d	-0.072306134
235	0x3d3b9a91	0.045801703
236	0x3db93b2a	0.09044488
237	0x3d04ed01	0.032452587
238	0xbf8c6d20	-1.0970802
239	0xbeb4cc46	-0.35312098
240	0x3df02873	0.11726465
241	0xbc4c498a	-0.012468705
242	0x3f82efe2	1.0229456
243	0x3c97d8b0	0.018535942
244	0xbcc5b03c	-0.024131887
245	0x3c82b4d1	0.01595536
246	0xbd696f4f	-0.056990918
247	0xbcef8bae	-0.02924141
248	0x3e0b6fe8	0.13616908
249	0xbd9e1442	-0.077187076
250	0xc0019eaf	-2.0253103
251	0xbda135d0	-0.07871592
252	0x3de9cac8	0.114156306
253	0xbdfd4073	-0.12365808
254	0x3ebbb151	0.3665872
255	0xbd5e1973	-0.05422349

net.0.bias f4 [64]
0	0x3ee75523	0.45182142
1	0xbe6322c9	-0.22181238
2	0xbf12733d	-0.5720709
3	0xbe8efae5	-0.27925792
4	0xbe97ed58	-0.29673266
5	0x3ec2ad50	0.38022852
6	0xbe2351de	-0.15949199
7	0x3f17bb1b	0.59269875
8	0x3e9e3635	0.30900732
9	0xbee427c0	-0.44561577
10	0xbeca5567	-0.39518282
11	0xbf13374e	-0.57506263
12	0xbf08657b	-0.53279847
13	0x3d4c666c	0.049902365
14	0xbe160f2c	-0.14654225
15	0x3e4c3a18	0.19944036
16	0xbe9075c7	-0.28214857
17	0xbf02748e	-0.509591
18	0xbe0fe54c	-0.14052314
19	0xbe1dde56	-0.15416846
20	0xbee6b2d2	-0.45058304
21	0xbf4e896a	-0.8067843
22	0x3e040158	0.12891138
23	0xbf4b850c	-0.7949989
24	0x3ee4e9b7	0.4470956
25	0xbf62fab4	-0.8866379
26	0xbf08c6cd	-0.53428346
27	0xbf1c76ff	-0.61119074
28	0xbe456fcb	-0.19280927
29	0xbeeb93fe	-0.46011347
30	0xbe60ad81	-0.21941186
31	0xbe865453	-0.2623621
32	0x3f097dcb	0.5370757
33	0xbe2c7f21	-0.16845371
34	0xbefee368	-0.49782872
35	0x3f04e462	0.51910985
36	0x3e9c5aca	0.30538017
37	0x3efeb5e8	0.49748158
38	0xbe995e25	-0.2995464
39	0x3f34f280	0.70682526
40	0xbf0ebf31	-0.55760485
41	0xbea372ae	-0.3192343
42	0x3edabb51	0.42721036
43	0xbeca7ec2	-0.39549834
44	0xbe1b19b5	-0.15146525
45	0x3eef2433	0.46707305
46	0xbf2b3ce3	-0.6688978
47	0xbf57e5a4	-0.8433478
48	0xbdfd13ab	-0.12357267
49	0x3ec82020	0.3908701
50	0x3f152c6b	0.582709
51	0xbeb874b2	-0.3602653
52	0xbef5eff9	-0.48034647
53	0x3f124420	0.571352
54	0xbe9390b7	-0.28821346
55	0xbecb0acd	-0.39656678
56	0xbd44f5a2	-0.048085816
57	0xbedc3621	-0.43010047
58	0xbe0f9147	-0.14020263
59	0x3f0436e9	0.51646286
60	0xbf05a6cb	-0.5220763
61	0xbe4071bf	-0.1879339
62	0x3ee8b699	0.4545181
63	0xbed269d4	-0.41096365

net.2.weight f4 [64, 64]
0	0xbe403f78	-0.18774211
1	0xbe306cf4	-0.17229062
2	0x3ed5c341	0.4175053
3	0x3df69c76	0.12041561
4	0x3cd3da65	0.025860975
5	0xbe227151	-0.1586354
6	0xbefbb88b	-0.49164233
7	0xbe8e559e	-0.27799696
8	0xbdd64ca5	-0.104638375
9	0x3d2a85a3	0.041631352
10	0xbd3af644	-0.045645013
11	0xbe83890d	-0.256905
12	0xbe91b578	-0.28458762
13	0xbd715769	-0.05892125
14	0xbe2d6344	-0.16932398
15	0xbdd477a2	-0.10374381
16	0xbd8d1e2c	-0.068905205
17	0xbf129a4e	-0.572667
18	0xbe1a759d	-0.15083928
19	0xbe6525b5	-0.22377665
20	0x3ad174b9	0.0015980221
21	0x3d921e4b	0.07134684
22	0xbf26769a	-0.6502472
23	0xbf53d4b2	-0.8274642
24	0x3e6ca967	0.23111497
25	0xbef5834c	-0.47951734
26	0x3f1f7753	0.6229145
27	0x3e766b76	0.2406443
28	0xbeeb3908	-0.4594195
29	0xbaa24551	-0.0012380277
30	0x3db6e267	0.089299016
31	0x3e06d3bb	0.13166706
32	0xbf2719ff	-0.6527404
33	0x3d92c224	0.07165936
34	0xbea08740	-0.31353188
35	0x3d5b5503	0.05354787
36	0xbdf0a620	-0.11750436
37	0xbda4d84c	-0.08049068
38	0xbe67846b	-0.22609107
39	0xbe512d10	-0.20427346
40	0x3d9dfcbb	0.0771422
41	0xbe83d683	-0.25749597
42	0x3c62ecab	0.013850371
43	0xbe12431c	-0.14283413
44	0x3d058a4d	0.032602597
45	0x3f0219dc	0.5082071
46	0x3d94f8fe	0.07274054
47	0x3d94cd1d	0.07265685
48	0xbd5dc53f	-0.054143187
49	0xbe289aa2	-0.16465238
50	0xbdda6ad7	-0.10664909
51	0xbefc9a78	-0.493366
52	0xbdca5b5c	-0.09880707
53	0xbe0cb257	-0.13739906
54	0x3dde4d07	0.108545355
55	0x3dfd5d58	0.123713195
56	0xbd3808bf	-0.044930216
57	0xbedf09df	-0.4356222
58	0xbb9e0a33	-0.004822993
59	0xbf02822e	-0.5097989
60	0x3fc47ea1	1.5351144
61	0xbc21964c	-0.009862494
62	0xbe6a62f0	-0.22889304
63	0x3ee54d9e	0.4478578
64	0x3dbfd13e	0.09366082
65	0x3ded9b3d	0.11601875
66	0xbe4d6e4e	-0.20061609
67	0x3e4ae171	0.19812562
68	0x3c540665	0.012940978
69	0x3d6f03a7	0.058353093
70	0xbb7eafe7	-0.003886217
71	0xbe1d225f	-0.15345143
72	0xbe179d43	-0.14806084
73	0xbc3e464d	-0.011613441
74	0xbdb35124	-0.08755711
75	0xbdbc7b37	-0.09203189
76	0x3deb5ca1	0.11492277
77	0xbdb6d7e5	-0.08927897
78	0x3d35ad9a	0.044355012
79	0xbdfe0d8a	-0.12404926
80	0x3d487d6e	0.048947744
81	0x3d164014	0.036682203
82	0xbd47053b	-0.048588973
83	0xbe0eb995	-0.13937981
84	0xbd8a6b35	-0.06758729
85	0xbd12d5ee	-0.03584855
86	0xbbc20b4d	-0.0059217573
87	0xbe178692	-0.14797428
88	0xbd97d56e	-0.07413755
89	0x3d567fb9	0.0523679
90	0x3e27259e	0.16322944
91	0xbe27645b	-0.16346876
92	0xbdb72f15	-0.08944527
93	0xbdab4d55	-0.08364359
94	0xbd714004	-0.05889894
95	0xbd518ac0	-0.051157713
96	0xbe35e69f	-0.17763756
97	0x3cbeb1b7	0.0232781
98	0xbd70bc3c	-0.058773264
99	0xbd183b7b	-0.0371661
100	0xbe5b6c0a	-0.21427932
101	0x3e2c70f7	0.16839968
102	0x3e7e67c5	0.24844272
103	0xbe606da7	-0.21916829
104	0xbc21b3ed	-0.009869558
105	0xbd6b906b	-0.057510775
106	0xbd931678	-0.0718202
107	0x3cbb1238	0.022835836
108	0x3dbdef73	0.09274187
109	0xbb278748	-0.0025562812
110	0xbe3085e5	-0.17238577
111	0xbe3909e6	-0.18070182
112	0x3e464404	0.19361883
113	0xbe284df3	-0.16435985
114	0xbe07ab2a	-0.13248888
115	0xbd579669	-0.052633677
116	0xbd0cbbd7	-0.034358826
117	0xbc6eced0	-0.014575675
118	0x3e1143eb	0.14186065
119	0xbd9a7b49	-0.07543046
120	0xbe4e07eb	-0.20120208
121	0xbd7c7e56	-0.06164392
122	0x3e44c939	0.19217385
123	0x3ddb490f	0.10707294
124	0x3e1696cd	0.14705963
125	0xbdd47d6f	-0.10375487
126	0xbe51a182	-0.20471767
127	0x3dc3f694	0.095685154
128	0xbe43bcc7	-0.19114982
129	0xbf32539f	-0.69658846
130	0xbeb4aa8a	-0.3528636
131	0xbf6d572e	-0.9271115
132	0xbdbc5780	-0.09196377
133	0xbf180b7e	-0.59392536
134	0x3d7ae970	0.06125778
135	0xbe23d1cb	-0.15997998
136	0xbe2c9e4f	-0.16857265
137	0x3f39daee	0.72599685
138	0x40221030	2.532238
139	0xbede6c80	-0.43442154
140	0x3fac1c91	1.3446218
141	0xbf4401a1	-0.76564986
142	0x3de72cc8	0.11287838
143	0xbeb7d8aa	-0.3590749
144	0xbe8bc0be	-0.27295488
145	0xbd41a940	-0.04728055
146	0x3c813acb	0.015775105
147	0xbee3ea3d	-0.44514647
148	0xbed3eeba	-0.4139307
149	0xbdb6deb7	-0.08929198
150	0xbe8befad	-0.27331296
151	0x3f26c7ec	0.65148807
152	0xbec25394	-0.3795439
153	0x3d246758	0.04013762
154	0x3f090d36	0.53535783
155	0xbe271f3f	-0.16320513
156	0x3c2f8337	0.010712436
157	0x3df23554	0.11826578
158	0xbf309441	-0.6897622
159	0x3d72f472	0.059315152
160	0xbe97f6f4	-0.29680598
161	0x3e18a2f0	0.14905906
162	0x3e07b519	0.13252677
163	0xbef37bd5	-0.47555414
164	0x3f21f85b	0.63269585
165	0xbe4dce9c	-0.20098346
166	0x3ea68726	0.32524985
167	0xbe1dc03e	-0.15405366
168	0x3fa40b0d	1.2815872
169	0x3f6efe84	0.9335711
170	0xbd9e9fd4	-0.077453285
171	0xbd847268	-0.06467134
172	0x3d9a3359	0.07529325
173	0xbea474bb	-0.32120308
174	0x3e9612e1	0.29311278
175	0xbe6537c1	-0.2238455
176	0xbdd3bf02	-0.10339166
177	0x3d3bdb06	0.045863174
178	0xbf4b8061	-0.79492766
179	0x3f5b0b28	0.855639
180	0x3e277300	0.16352463
181	0xbe0c9928	-0.137303
182	0xbd0db1e3	-0.034593474
183	0xbef833b1	-0.48476937
184	0xbf87e72e	-1.0617425
185	0xbe92851c	-0.2861718
186	0xbd929497	-0.071572475
187	0xbf62a515	-0.88533145
188	0x3f2ff9fc	0.6874082
189	0xbd763240	-0.060106516
190	0xbf57be21	-0.8427449
191	0x3ead8522	0.33890635
192	0xbcd7e058	-0.026352093
193	0x3d763617	0.060110178
194	0xbd526e77	-0.05137488
195	0x3d5bfe70	0.053709447
196	0xbdbd22ac	-0.09235129
197	0xbd153e99	-0.03643665
198	0x3cf23e41	0.0295707
199	0xbdd88f27	-0.10574179
200	0xbdb7d5c9	-0.08976323
201	0xbd81c470	-0.063362956
202	0xbc6dd583	-0.014516237
203	0xbc4982b3	-0.0122992275
204	0x3dd6ec3f	0.10494279
205	0xbdb8efc2	-0.09030105
206	0xbde15db8	-0.110042036
207	0x3c1d83e1	0.009613962
208	0x3cd30911	0.02576116
209	0xbdbd8008	-0.09252936
210	0x3df47dbb	0.11938044
211	0xbe3660b4	-0.17810327
212	0xbd0ee2a1	-0.0348841
213	0xbd5b36ea	-0.053519167
214	0x3cc8b884	0.024502046
215	0xbdad3947	-0.084581904
216	0xbe5431df	-0.2072215
217	0x3d2eb346	0.042651437
218	0xbd359ef7	-0.044341054
219	0x3d8a17ac	0.06742796
220	0x3e1e50f8	0.15460575
221	0x3c919e72	0.017775748
222	0x3cf43e9f	0.029815016
223	0xbdfe9c1a	-0.12432118
224	0xbcfa60cf	-0.03056374
225	0x3e81424c	0.25245893
226	0x3c0333e9	0.008007982
227	0xbe572c04	-0.21012884
228	0xbd53269f	-0.051550504
229	0xbdf536d2	-0.11973347
230	0xbd281723	-0.04103769
231	0xbe34319a	-0.17597046
232	0xbce39ffd	-0.02778625
233	0x3d55c6b8	0.052191466
234	0xbc23120e	-0.009953035
235	0xbd99ca83	-0.07509329
236	0x3b64ac22	0.0034892638
237	0xbd3850d8	-0.044998974
238	0xbd6d9760	-0.05800569
239	0x3d906826	0.07051115
240	0x3e64ec15	0.22355683
241	0xbd3f3207	-0.04667857
242	0xbdbeb091	-0.09311021
243	0xbe0c933c	-0.1372804
244	0xbd783c14	-0.06060417
245	0x3d14ce67	0.036329653
246	0xbcecf56a	-0.028925616
247	0xbb728eb0	-0.0037011318
248	0xbb2c21bb	-0.0026265222
249	0xbd82cc5f	-0.06386637
250	0xbd6ade5d	-0.05734097
251	0xbe19e2fd	-0.15027995
252	0xbd313eec	-0.043272898
253	0x3b53aff7	0.0032300928
254	0x3de0f563	0.10984304
255	0x3da968fe	0.08271979

net.2.bias f4 [64]
0	0xbe0d5550	-0.13802075
1	0x3d82d0c8	0.06387478
2	0xbe7b51dc	-0.24542946
3	0xbdcd505d	-0.10025094
4	0x3f1ecd42	0.6203195
5	0x3f2500cd	0.64454347
6	0xbe810d01	-0.25205234
7	0x3f29d708	0.66343737
8	0xbe0bf1d8	-0.13666475
9	0x3f499e1f	0.787569
10	0x3e2e3473	0.17012195
11	0x3f1cfdc3	0.6132471
12	0x3f24a62f	0.64316076
13	0x3f2315f3	0.63705367
14	0xbed50353	-0.416041
15	0x3d9b7b5e	0.0759189
16	0xbe1eadb5	-0.15495951
17	0x3f1595e3	0.58431834
18	0xbb561867	-0.0032668354
19	0x3f3aabc2	0.7291833
20	0x3c1f4a34	0.009722281
21	0xbd5f9c1a	-0.05459223
22	0x3f1406ed	0.5782307
23	0x3f252dae	0.64522827
24	0x3f4dee0d	0.8044136
25	0x3d30a615	0.04312714
26	0x3ee87013	0.45398006
27	0x3e21a60e	0.15786001
28	0xbd34d7d1	-0.04415113
29	0x3f16c894	0.5889981
30	0xbe41a83b	-0.18911831
31	0x3f1a9cd1	0.6039553
32	0xbe5a3ff9	-0.21313466
33	0x3f0e1a6b	0.5550906
34	0xbdbc5c89	-0.09197337
35	0xbd6505a9	-0.0559136
36	0x3f202857	0.62561554
37	0xbd9c1e4c	-0.07622966
38	0x3f1e7c9a	0.61908877
39	0x3f43e6fe	0.7652434
40	0xbe99dc15	-0.30050722
41	0x3f0a4234	0.5400727
42	0xbd937e3c	-0.07201812
43	0xbe92f8a6	-0.2870533
44	0x3f61f246	0.88260305
45	0x3f40d7c5	0.7532924
46	0xbe17ef0c	-0.14837283
47	0x3f40b1ed	0.75271493
48	0xbd86752e	-0.06565319
49	0x3e460e94	0.19341499
50	0x3f4cf8f3	0.80067366
51	0x3f35019a	0.7070557
52	0xbe1b85ed	-0.15187807
53	0xbd838985	-0.06422714
54	0xbddeb0cf	-0.10873567
55	0x3f15014b	0.582051
56	0x3e619f30	0.22033381
57	0x3f5d8313	0.8652813
58	0xbe23c30e	-0.15992376
59	0xbdd97ef6	-0.10619919
60	0x3f34bb98	0.70598745
61	0xbe48ad02	-0.19597247
62	0x3f5abd90	0.854455
63	0x3f1a2a07	0.6022038

net.4.weight f4 [2, 64]
0	0xbf1857d9	-0.59509045
1	0xbdd6e9b1	-0.10493792
2	0xc016f252	-2.35854
3	0x3e251baa	0.16123834
4	0x3fb2bae5	1.3963286
5	0x3fb09342	1.379494
6	0xc04ad765	-3.1693966
7	0x3f8858fe	1.0652158
8	0x3e7f79b1	0.24948765
9	0x3fccee0b	1.6010145
10	0xc08ab360	-4.3343964
11	0x3f97e40f	1.1866473
12	0x3f5bedb6	0.85909593
13	0x3fa3b84e	1.279062
14	0xc028e42f	-2.6389272
15	0x3c8cfe93	0.017211234
16	0x3d45e04d	0.048309613
17	0x3fa55e4b	1.2919401
18	0x3d983e3e	0.07433747
19	0x3fb7af03	1.4350284
20	0xbd214bd1	-0.039378945
21	0xbdf946b9	-0.121716924
22	0x3f9ccdf8	1.2250357
23	0x3fb3071a	1.3986542
24	0x3fdd6df9	1.7299186
25	0xbcb7d69d	-0.022441203
26	0x3fe71a19	1.8054839
27	0xbdb40edf	-0.08791899
28	0x3d995331	0.074865706
29	0x3faaae45	1.3334433
30	0xc0df8390	-6.98481
31	0x3fb82499	1.4386169
32	0xc0959054	-4.673868
33	0x3f7f13b2	0.9963943
34	0xbfe08902	-1.7541811
35	0xc02fbbb9	-2.7458327
36	0x3f9001f7	1.12506
37	0x3e5813d2	0.21101311
38	0x3fe00f44	1.7504659
39	0x3f9b0659	1.2111312
40	0xbe8fcdb3	-0.28086624
41	0x3f538137	0.8261904
42	0x3ea58c06	0.32333392
43	0xbe210879	-0.15725888
44	0x3d880ebb	0.066434346
45	0x3f90a6df	1.1300925
46	0x3c343877	0.01099979
47	0x3f98ca72	1.1936781
48	0xbc56b21e	-0.01310399
49	0x3f2a27c0	0.66466904
50	0x3f88cf05	1.0688177
51	0x3fb29b4d	1.3953644
52	0xbd890f9a	-0.06692429
53	0xc0a3e438	-5.1216087
54	0xbccebc78	-0.025236353
55	0x3fa3f9ff	1.2810668
56	0xbe9be69c	-0.30449378
57	0x3faed842	1.3659747
58	0xbd33b455	-0.04387315
59	0xbf6d3e5f	-0.92673296
60	0x3f3818f6	0.7191309
61	0x3d125cb1	0.03573293
62	0x3f53111c	0.8244798
63	0x3f9a176d	1.2038399
64	0x3f4e9848	0.8070111
65	0x3cac0b45	0.021001467
66	0xbfcad02a	-1.5844777
67	0xbe0c0973	-0.1367548
68	0x3fa781df	1.3086509
69	0x3fdce29a	1.7256653
70	0xc08ed97d	-4.464049
71	0x3f892d44	1.0716939
72	0xbe8024bc	-0.25028026
73	0x3fab7cbb	1.339744
74	0xc041d8e2	-3.0288625
75	0x3faa06f8	1.3283377
76	0x3fa3eedc	1.2807269
77	0x3f7a7456	0.97833765
78	0xc0769c65	-3.8532956
79	0xbe0c2ebf	-0.13689707
80	0x3e28257f	0.16420554
81	0x3f7e7a32	0.99405205
82	0xbda657ad	-0.081221916
83	0x3fc7f422	1.5621378
84	0x3ca7dc8f	0.020490913
85	0xbe124660	-0.14284658
86	0x3fa94136	1.3223026
87	0x3fdd2e35	1.7279726
88	0x3f357e29	0.7089563
89	0xbe1568c0	-0.1459074
90	0x3f14fb46	0.5819591
91	0x3bff917a	0.0077993246
92	0xbb919f53	-0.0044440418
93	0x3fb8995e	1.4421804
94	0xc05084f6	-3.2581153
95	0x3fb63a1c	1.4236484
96	0xc0bedf67	-5.964771
97	0x3f91ac3d	1.1380688
98	0xc03d0a2e	-2.9537463
99	0xbfbe09e6	-1.4846771
100	0x3fce51e2	1.6118739
101	0x3d764223	0.060121667
102	0x3f24db63	0.6439726
103	0x3f7aa476	0.979072
104	0xc03598be	-2.8374476
105	0x3fa17013	1.2612327
106	0xbe53aa29	-0.2067038
107	0x3e37f625	0.1796499
108	0x3fc0f29b	1.5074037
109	0x3f469870	0.7757635
110	0x3ccfef1b	0.025382569
111	0x3f8dfd02	1.1092837
112	0xbc05dff1	-0.008171068
113	0xbecfa014	-0.40551817
114	0x3fe3aa1b	1.7786287
115	0x3feb6043	1.8388752
116	0xbdf6c6a4	-0.120496064
117	0xc092bf01	-4.585816
118	0x3da18450	0.07886565
119	0x3f9b5dd2	1.2138007
120	0x3f2df3ce	0.6795014
121	0x3f29ec5c	0.6637628
122	0x3c929943	0.017895347
123	0x3efd4d04	0.4947282
124	0x3fce360c	1.6110244
125	0x3dcbb2fd	0.09946249
126	0x3fbaf202	1.4605105
127	0x3facde00	1.3505249

net.4.bias f4 [2]
0	0x3f4b92ff	0.79521173
1	0x3ee5a0c2	0.4484921

net.0.weight f4 [64, 4]
0	0xbcd30612	-0.02575973
1	0x3dbf1b8d	0.09331427
2	0x3e7a2884	0.24429518
3	0x3ccd9eb4	0.02510009
4	0x3e482bff	0.19548033
5	0xbe55369f	-0.20821618
6	0x3f25d806	0.6478275
7	0xbe8f4453	-0.27981815
8	0x3c88dfe6	0.016708326
9	0xbd60793f	-0.05480313
10	0x4020c8e5	2.5122616
11	0x3e3918de	0.18075892
12	0xbdcd9d15	-0.10039727
13	0xbf213daa	-0.62984717
14	0xbf8665f5	-1.0499865
15	0xbf029973	-0.51015395
16	0xbdabbd46	-0.083857104
17	0xbca87f96	-0.02056865
18	0x3d46d089	0.04853872
19	0x3b36b2bf	0.0027877537
20	0x3e7363a3	0.23768477
21	0xbdf9c845	-0.121964015
22	0xbfcda73e	-1.6066663
23	0xbdbb94ad	-0.09159217
24	0xbd93e176	-0.07220738
25	0x3dca32f0	0.09872997
26	0xbf102aae	-0.56315124
27	0x3dc182b8	0.09448761
28	0xbddfc8c5	-0.109269656
29	0x3d150846	0.036384843
30	0x3e005750	0.12533307
31	0x3dd3bb92	0.103385106
32	0xbcf6a2ac	-0.030106865
33	0xbd9fac51	-0.077965386
34	0x3e2c2f2c	0.1681487
35	0xbd9b4435	-0.07581369
36	0xbe136c45	-0.1439677
37	0x3d5e6d12	0.054303236
38	0xbbcd8749	-0.0062722308
39	0x3e29edff	0.16594695
40	0xbe7cdbb4	-0.24693185
41	0xbdbaefe7	-0.09127789
42	0xbf59f232	-0.85135186
43	0xbdb10b18	-0.08644694
44	0xbd90098d	-0.07033072
45	0xbdfdb6a6	-0.12388353
46	0xc00bd12a	-2.1846414
47	0xbed91bbd	-0.42403975
48	0xbea5b7df	-0.32366845
49	0xbe34bec0	-0.1765089
50	0x3de851e2	0.11343743
51	0xbdd90192	-0.10596003
52	0x3e7bf92e	0.24606773
53	0x3e07b16b	0.13251273
54	0x3fa23aba	1.2674172
55	0x3edf73c8	0.43643022
56	0x3cdbbcc9	0.026823418
57	0xbc0dfda5	-0.008666431
58	0xbe3e6a88	-0.18595326
59	0xbcb08648	-0.021548405
60	0x3e20d3fb	0.15705864
61	0x3d5cc791	0.05390126
62	0x3fda360e	1.7047746
63	0x3eacd054	0.33752692
64	0x3e2f7299	0.1713356
65	0x3ef246e5	0.47319713
66	0xbf3b84a1	-0.7324925
67	0x3dee8954	0.11647287
68	0x3e5e43a9	0.21705498
69	0xbd6e3293	-0.0581537
70	0xbe68624b	-0.22693746
71	0xbc8755bc	-0.016520374
72	0x3aa08fa9	0.0012249845
73	0xbd945a0d	-0.07243738
74	0xbdc3f25f	-0.09567713
75	0xbd7a00ae	-0.061035804
76	0xbdc92e62	-0.098233
77	0xbe8382b0	-0.25685644
78	0xbfd79242	-1.6841509
79	0xbf1fa2c6	-0.6235775
80	0x3c02e43c	0.007988986
81	0x3d541181	0.051774506
82	0xbf154cbd	-0.5832022
83	0x3cb50a88	0.022099748
84	0x3ee3ce3e	0.44493288
85	0x3e120f38	0.14263618
86	0x3f10e6f2	0.56602395
87	0x3db81f8e	0.089903936
88	0xbc4143aa	-0.0117959175
89	0xbe5169cc	-0.20450515
90	0xbef47aa0	-0.47749805
91	0x3dea529e	0.11441539
92	0x3ede0dd2	0.4336992
93	0xbdc91353	-0.09818139
94	0xbf3b7b01	-0.73234564
95	0xbe069939	-0.13144387
96	0xbd2645bb	-0.040593844
97	0x3dc0e3bf	0.09418439
98	0x400623ef	2.0959432
99	0x3c4f9711	0.012670294
100	0x3e9de411	0.30838063
101	0xbf097d3e	-0.5370673
102	0x3df4b854	0.1194922
103	0x3de0b1bc	0.109714
104	0x3e842215	0.25807253
105	0x3e7ee587	0.24892245
106	0x3fb7ed87	1.4369363
107	0x3e83c03b	0.25732598
108	0x3f2491ca	0.64284956
109	0x3eb0edf2	0.34556538
110	0x3f6d8a56	0.9278921
111	0x3e8a6691	0.27031377
112	0x3ef7245f	0.48269936
113	0xbdc28d20	-0.09499574
114	0x3fe41259	1.7818099
115	0x3d16bb99	0.0368
116	0xbe30de8f	-0.172724
117	0xbe9e0976	-0.30866593
118	0xbf84c0cd	-1.0371338
119	0xbea3904f	-0.31946036
120	0xbd11bb37	-0.035578933
121	0x3f04d52d	0.5188778
122	0x3fbfbf76	1.4980304
123	0x3db0de24	0.0863612
124	0xbce9ce5a	-0.028540779
125	0xbca8e9d6	-0.020619314
126	0x3cee4b93	0.029088771
127	0xbd9100be	-0.0708022
128	0x3bef96f1	0.007311695
129	0x3e48a546	0.19594297
130	0xbfb25b12	-1.3934042
131	0xbe67cb01	-0.22636034
132	0xbd102536	-0.035191737
133	0x3ccccbc8	0.024999514
134	0xbd4e6461	-0.050388698
135	0x3c968475	0.018373707
136	0xbdaa16d0	-0.083051324
137	0x3e387ce1	0.18016388
138	0x3faa8b22	1.332371
139	0x3eb52a4f	0.3538384
140	0x3e12b23f	0.14325808
141	0xbcc8d7ef	-0.024517028
142	0xbcd10749	-0.02551617
143	0x3db8732b	0.090063415
144	0x3cea8768	0.02862902
145	0xbd753c75	-0.05987211
146	0xc02b2c32	-2.6745725
147	0xbe92f43e	-0.28701967
148	0x3e20b1c5	0.15692814
149	0xbef14c42	-0.47128493
150	0x3f71dd65	0.94478446
151	0xbe8e8d03	-0.27841958
152	0xbd470800	-0.048591614
153	0x3d86282d	0.06550632
154	0xbe555a6a	-0.20835271
155	0x3e24714e	0.16058847
156	0x3e092fde	0.13397166
157	0xbda8cfcd	-0.0824276
158	0x3d102195	0.035188276
159	0x3d8b89b9	0.06813378
160	0xbe112bb5	-0.14176829
161	0xbd42b818	-0.047538847
162	0xbe4604a0	-0.19337702
163	0xbd6e7e5a	-0.058225967
164	0x3f15920d	0.5842598
165	0x3e41c95a	0.18924466
166	0xbf7d56c5	-0.98960525
167	0x3d632eaa	0.055464424
168	0xbde7ef9f	-0.11325001
169	0x3e307a84	0.17234236
170	0x3ff11ea4	1.8837476
171	0x3e828cdc	0.25498092
172	0xbe5039e9	-0.20334591
173	0x3e5cc349	0.2155887
174	0x3eab361e	0.33439726
175	0x3dc83401	0.09775544
176	0x3d2bb63f	0.04192185
177	0xbce0e2c2	-0.027451877
178	0xbda6a0ae	-0.08136116
179	0xbc3cf067	-0.011531926
180	0xbe4cb85e	-0.19992206
181	0x3e5869bb	0.21134083
182	0x40087ae0	2.1324997
183	0x3e250ff8	0.16119373
184	0xbd55d88c	-0.05220847
185	0xbe2fcc9b	-0.17167895
186	0xc0179972	-2.3687406
187	0xbf06dc95	-0.5268033
188	0x3ec6daf9	0.38838938
189	0x3def97c2	0.116988674
190	0xbf7e3f91	-0.99315745
191	0xbd71c3b5	-0.05902453
192	0xbc300ad7	-0.010744772
193	0x3d350768	0.044196516
194	0xbaca70a8	-0.0015444951
195	0x3d1f4e76	0.038893186
196	0xbe0c33b8	-0.13691604
197	0x3db5a65c	0.08869621
198	0xbeb13047	-0.34607145
199	0x3d353dc7	0.04424837
200	0xbf08e0d0	-0.53468037
201	0xbe218406	-0.15773019
202	0xbfc5b565	-1.5445982
203	0xbe74e287	-0.23914538
204	0xbf2d7dd4	-0.67770123
205	0xbe5ac99e	-0.21365973
206	0x3f311d98	0.6918578
207	0x3e00e0b7	0.12585722
208	0xbde87b4b	-0.11351641
209	0x3e4e2ce8	0.20134318
210	0x3f9ee4fe	1.2413633
211	0x3e386390	0.1800673
212	0xbd25ac21	-0.040447358
213	0xbd4c50ac	-0.049881622
214	0x3edfe357	0.43728134
215	0x3db444f5	0.08802215
216	0x3d17a547	0.037022855
217	0x3c7d8a22	0.015474828
218	0xbd539612	-0.05165679
219	0x3c93c053	0.018036043
220	0xbe50c81a	-0.20388833
221	0x3e1f9b05	0.15586479
222	0x3f45a2f8	0.77201796
223	0x3d5f4962	0.054513343
224	0x3e901f00	0.2814865
225	0xb9cf7d22	-0.00039575348
226	0xbf9b5f2c	-1.2138419
227	0xbd403446	-0.04692485
228	0x3d8d8ded	0.06911836
229	0xbdafbfd6	-0.08581512
230	0xbeecfc6b	-0.4628633
231	0x3c7c8f23	0.015414986
232	0xbcee54f3	-0.029093241
233	0x3da8a6a6	0.08234911
234	0xbd941506	-0.072305724
235	0x3d3b9aff	0.045802113
236	0x3db635ce	0.08896981
237	0x3c9bf666	0.01903839
238	0xbf8ea928	-1.1145372
239	0xbeb06e27	-0.3445904
240	0x3df028eb	0.117265545
241	0xbc4c4951	-0.012468652
242	0x3f82eff4	1.0229478
243	0x3c97d915	0.01853613
244	0xbcc5b041	-0.024131896
245	0x3c82b55c	0.01595562
246	0xbd696f0b	-0.056990664
247	0xbcef8be2	-0.029241506
248	0x3e0adb73	0.13560276
249	0xbdce5db3	-0.100764655
250	0xc00000dd	-2.0000527
251	0xbd521592	-0.051290102
252	0x3de9df1a	0.11419506
253	0xbdfd5521	-0.12369753
254	0x3ebbb654	0.36662543
255	0xbd5df151	-0.054185215

net.0.bias f4 [64]
0	0x3ee68462	0.45022875
1	0xbe8103f2	-0.25198323
2	0xbf0b8926	-0.54506147
3	0xbe8b82d4	-0.2724825
4	0xbe97ec9e	-0.29672712
5	0x3ec13fad	0.37743893
6	0xbe2351cf	-0.15949176
7	0x3f16d388	0.5891652
8	0x3e9f00c1	0.31055263
9	0xbee4277b	-0.4456137
10	0xbeca5551	-0.39518216
11	0xbf0f6401	-0.5601197
12	0xbf0864d5	-0.5327886
13	0x3cd0b684	0.025477655
14	0xbe160e7e	-0.14653966
15	0x3e28d4c4	0.16487414
16	0xbe80984f	-0.25116202
17	0xbf027485	-0.50959045
18	0xbe0fcbe9	-0.1404263
19	0xbe242c54	-0.16032535
20	0xbee6b243	-0.45057878
21	0xbf4fad1c	-0.8112352
22	0x3e06229b	0.13099138
23	0xbf4f8b1e	-0.8107165
24	0x3ed5125e	0.41615576
25	0xbf6d2e2e	-0.9264859
26	0xbf086345	-0.53276473
27	0xbf1ce1a8	-0.61281824
28	0xbe457921	-0.19284488
29	0xbeeb937b	-0.46010956
30	0xbe69a6a9	-0.22817482
31	0xbe8653ed	-0.26235905
32	0x3f070ab8	0.5275073
33	0xbe2c7f07	-0.16845332
34	0xbef57cd1	-0.4794679
35	0x3f03fa25	0.51553565
36	0x3ea2e6f3	0.31816825
37	0x3efadcbb	0.4899653
38	0xbe995e26	-0.29954642
39	0x3f338640	0.70126724
40	0xbf0ebe9d	-0.557596
41	0xbea5bd9b	-0.3237122
42	0x3ebd2d04	0.36948407
43	0xbeca7eb9	-0.39549807
44	0xbe1b191e	-0.151463
45	0x3eea1628	0.4572003
46	0xbf280337	-0.65629905
47	0xbf5d70b1	-0.8650008
48	0xbdfd132c	-0.12357172
49	0x3ec7bd1d	0.3901147
50	0x3f134c63	0.5753843
51	0xbeb1a2b0	-0.34694433
52	0xbef5efd4	-0.48034537
53	0x3f11871f	0.56846803
54	0xbe9390b7	-0.28821346
55	0xbecb0a91	-0.396565
56	0xbd0ffe97	-0.035154905
57	0xbedc35e2	-0.4300986
58	0xbe0f90c5	-0.14020069
59	0x3f01c996	0.5069822
60	0xbf05a67d	-0.52207166
61	0xbe407149	-0.18793215
62	0x3ee52382	0.44753653
63	0xbed2649d	-0.41092387

net.2.weight f4 [64, 64]
0	0xbe403f49	-0.18774141
1	0xbe306c80	-0.1722889
2	0x3ed5c31a	0.41750413
3	0x3df69d43	0.12041714
4	0x3cd3da65	0.025860975
5	0xbe2270cf	-0.15863346
6	0xbefbb84c	-0.49164045
7	0xbe8e5525	-0.27799335
8	0xbdd64c9a	-0.10463829
9	0x3d2a858f	0.041631278
10	0xbd3af6ef	-0.04564565
11	0xbe838915	-0.25690523
12	0xbe91b536	-0.28458565
13	0xbd71580b	-0.058921855
14	0xbe2d6327	-0.16932355
15	0xbdd47712	-0.10374273
16	0xbd8d1d6e	-0.06890379
17	0xbf129a1e	-0.57266414
18	0xbe1a759d	-0.15083928
19	0xbe65262a	-0.2237784
20	0x3ad17589	0.0015980463
21	0x3d921ead	0.07134757
22	0xbf26767f	-0.6502456
23	0xbf53d492	-0.8274623
24	0x3e6ca99a	0.23111573
25	0xbef5833c	-0.47951686
26	0x3f1f77dd	0.6229227
27	0x3e766c0b	0.24064653
28	0xbeeb38db	-0.45941815
29	0xbaa24551	-0.0012380277
30	0x3db6e32f	0.089300506
31	0x3e06d3bb	0.13166706
32	0xbf2719c7	-0.6527371
33	0x3d92c224	0.07165936
34	0xbea086f7	-0.3135297
35	0x3d5b55a9	0.05354849
36	0xbdf0a5ec	-0.11750397
37	0xbda4d7a7	-0.08048945
38	0xbe67846b	-0.22609107
39	0xbe512ce2	-0.20427278
40	0x3d9dfc2e	0.07714115
41	0xbe83d66d	-0.2574953
42	0x3c62ed6a	0.013850549
43	0xbe124365	-0.14283521
44	0x3d058a4d	0.032602597
45	0x3f021aac	0.5082195
46	0x3d94f925	0.07274083
47	0x3d94cd65	0.072657384
48	0xbd5dc53f	-0.054143187
49	0xbe289a27	-0.16465054
50	0xbdda6a82	-0.10664846
51	0xbefc9a14	-0.49336302
52	0xbdca5ac9	-0.09880597
53	0xbe0cb19d	-0.13739629
54	0x3dde4d0a	0.10854538
55	0x3dfd5e2b	0.12371477
56	0xbd380828	-0.044929653
57	0xbedf0952	-0.43561798
58	0xbb9e0a33	-0.004822993
59	0xbf0281cd	-0.5097931
60	0x3fc47ec8	1.535119
61	0xbc21964c	-0.009862494
62	0xbe6a62cb	-0.22889249
63	0x3ee54e02	0.44786078
64	0x3dbfd1e7	0.093662076
65	0x3ded9bca	0.1160198
66	0xbe4d6e49	-0.20061602
67	0x3e4ae1f0	0.19812751
68	0x3c540665	0.012940978
69	0x3d6f032b	0.05835263
70	0xbb7eafac	-0.0038862033
71	0xbe1d2236	-0.15345082
72	0xbe179cee	-0.14805958
73	0xbc3e45d0	-0.011613324
74	0xbdb35120	-0.08755708
75	0xbdbc7b38	-0.092031896
76	0x3deb5c03	0.11492159
77	0xbdb6d778	-0.08927816
78	0x3d35ad9a	0.044355012
79	0xbdfe0d2c	-0.12404856
80	0x3d487e38	0.048948497
81	0x3d16407d	0.036682595
82	0xbd47053b	-0.048588973
83	0xbe0eb925	-0.13937815
84	0xbd8a6acd	-0.06758652
85	0xbd12d645	-0.035848875
86	0xbbc20b70	-0.0059217736
87	0xbe178646	-0.14797315
88	0xbd97d52e	-0.07413708
89	0x3d568029	0.052368317
90	0x3e27257f	0.16322897
91	0xbe2763ff	-0.16346739
92	0xbdb72fbf	-0.08944654
93	0xbdab4d55	-0.08364359
94	0xbd713fd4	-0.058898762
95	0xbd518ac0	-0.051157713
96	0xbe35e610	-0.17763543
97	0x3cbeb1b7	0.0232781
98	0xbd70bbcc	-0.058772847
99	0xbd183abe	-0.037165396
100	0xbe5b6b8a	-0.21427742
101	0x3e2c71be	0.16840264
102	0x3e7e67cc	0.24844283
103	0xbe606d93	-0.21916799
104	0xbc21b486	-0.0098697
105	0xbd6b905b	-0.057510715
106	0xbd931656	-0.071819946
107	0x3cbb1180	0.022835493
108	0x3dbdef73	0.09274187
109	0xbb278727	-0.0025562735
110	0xbe308580	-0.17238426
111	0xbe390930	-0.18069911
112	0x3e464404	0.19361883
113	0xbe284d97	-0.16435848
114	0xbe07aae5	-0.13248785
115	0xbd579711	-0.052634303
116	0xbd0cbc8c	-0.0343595
117	0xbc6eced3	-0.014575678
118	0x3e1143ee	0.1418607
119	0xbd9a7b4e	-0.0754305
120	0xbe4e0769	-0.20120014
121	0xbd7c7ebb	-0.061644297
122	0x3e44c9c8	0.19217598
123	0x3ddb4929	0.107073136
124	0x3e16966e	0.14705822
125	0xbdd47d6f	-0.10375487
126	0xbe51a14a	-0.20471683
127	0x3dc3f611	0.09568418
128	0xbe43bc41	-0.19114782
129	0xbf325338	-0.6965823
130	0xbeb4aa70	-0.35286283
131	0xbf6d57d2	-0.9271213
132	0xbdbc5748	-0.09196335
133	0xbf180b16	-0.59391916
134	0x3d7aea0b	0.061258357
135	0xbe23d127	-0.15997754
136	0xbe2c9e47	-0.16857253
137	0x3f39db57	0.7260031
138	0x40220fef	2.5322225
139	0xbede6d11	-0.43442586
140	0x3fac1d5e	1.3446462
141	0xbf4401c8	-0.7656522
142	0x3de72cea	0.112878636
143	0xbeb7d880	-0.35907364
144	0xbe8bc035	-0.2729508
145	0xbd41a9c8	-0.047281057
146	0x3c813acb	0.015775105
147	0xbee3e9c3	-0.44514284
148	0xbed3ee5a	-0.41392785
149	0xbdb6de80	-0.08929157
150	0xbe8bef15	-0.27330843
151	0x3f26c7bf	0.6514854
152	0xbec25351	-0.3795419
153	0x3d2467ee	0.040138178
154	0x3f090ccd	0.5353516
155	0xbe271f3f	-0.16320513
156	0x3c2f83ae	0.010712547
157	0x3df235eb	0.1182669
158	0xbf309390	-0.6897516
159	0x3d72f48b	0.059315246
160	0xbe97f6c6	-0.2968046
161	0x3e18a2f0	0.14905906
162	0x3e07b5d4	0.13252956
163	0xbef37bb4	-0.47555315
164	0x3f21f87e	0.63269794
165	0xbe4dce61	-0.20098259
166	0x3ea686e7	0.32524797
167	0xbe1dc006	-0.15405282
168	0x3fa40bbe	1.2816083
169	0x3f6eff42	0.9335824
170	0xbd9e9f76	-0.077452585
171	0xbd8471e5	-0.06467036
172	0x3d9a3359	0.07529325
173	0xbea4746f	-0.32120082
174	0x3e961266	0.29310912
175	0xbe653822	-0.22384694
176	0xbdd3bf02	-0.10339166
177	0x3d3bdbd7	0.045863952
178	0xbf4b7fc1	-0.7949181
179	0x3f5b0b71	0.85564333
180	0x3e27739e	0.16352698
181	0xbe0c989d	-0.13730092
182	0xbd0db1e3	-0.034593474
183	0xbef8344b	-0.48477396
184	0xbf87e70d	-1.0617386
185	0xbe9285cd	-0.28617707
186	0xbd9293de	-0.0715711
187	0xbf62a4c3	-0.88532656
188	0x3f2ff9a7	0.68740314
189	0xbd763240	-0.060106516
190	0xbf57be22	-0.84274495
191	0x3ead84bf	0.3389034
192	0xbcd7dfba	-0.026351798
193	0x3d7636eb	0.060110968
194	0xbd526dfa	-0.051374413
195	0x3d5bfe70	0.053709447
196	0xbdbd22ac	-0.09235129
197	0xbd153de6	-0.036435984
198	0x3cf23e83	0.029570824
199	0xbdd88eba	-0.10574098
200	0xbdb7d560	-0.08976245
201	0xbd81c470	-0.063362956
202	0xbc6dd583	-0.014516237
203	0xbc498261	-0.012299151
204	0x3dd6ecc1	0.10494376
205	0xbdb8efc2	-0.09030105
206	0xbde15db8	-0.110042036
207	0x3c1d84a5	0.009614144
208	0x3cd30971	0.025761338
209	0xbdbd7f60	-0.092528105
210	0x3df47dbb	0.11938044
211	0xbe3660b8	-0.17810333
212	0xbd0ee28d	-0.034884024
213	0xbd5b36ea	-0.053519167
214	0x3cc8b8d0	0.024502188
215	0xbdad3947	-0.084581904
216	0xbe54318a	-0.20722023
217	0x3d2eb3de	0.042652003
218	0xbd359ef8	-0.044341058
219	0x3d8a17ac	0.06742796
220	0x3e1e5155	0.15460713
221	0x3c919e72	0.017775748
222	0x3cf43e9f	0.029815016
223	0xbdfe9c24	-0.12432125
224	0xbcfa608c	-0.030563615
225	0x3e81424c	0.25245893
226	0x3c0334b4	0.008008171
227	0xbe572c0a	-0.21012893
228	0xbd53269f	-0.051550504
229	0xbdf536ac	-0.119733185
230	0xbd281723	-0.04103769
231	0xbe343158	-0.17596948
232	0xbce39ffd	-0.02778625
233	0x3d55c6b8	0.052191466
234	0xbc2311bf	-0.0099529615
235	0xbd99ca83	-0.07509329
236	0x3b64ac22	0.0034892638
237	0xbd3850d0	-0.044998944
238	0xbd6d9760	-0.05800569
239	0x3d906865	0.07051162
240	0x3e64ec15	0.22355683
241	0xbd3f31c0	-0.046678305
242	0xbdbeb010	-0.09310925
243	0xbe0c9325	-0.13728006
244	0xbd783c1c	-0.0606042
245	0x3d14cef5	0.036330182
246	0xbcecf56a	-0.028925616
247	0xbb728eb0	-0.0037011318
248	0xbb2c2147	-0.0026264952
249	0xbd82cccc	-0.06386718
250	0xbd6ade5d	-0.05734097
251	0xbe19e2f6	-0.15027985
252	0xbd313eec	-0.043272898
253	0x3b53aff7	0.0032300928
254	0x3de0f582	0.10984327
255	0x3da968fe	0.08271979

net.2.bias f4 [64]
0	0xbe0d54e5	-0.13801916
1	0x3d82d17c	0.06387612
2	0xbe7b512c	-0.24542683
3	0xbdcd4fd1	-0.100249894
4	0x3f1fa6c1	0.6236382
5	0x3f23dc6b	0.64008206
6	0xbe810c5d	-0.25204745
7	0x3f27b001	0.65502936
8	0xbe0bf16d	-0.13666315
9	0x3f48a185	0.7837146
10	0x3e2e7434	0.17036515
11	0x3f1aa546	0.6040844
12	0x3f210488	0.6289754
13	0x3f21204f	0.62939924
14	0xbed546a3	-0.41655454
15	0x3d9b7b8d	0.07591925
16	0xbe1ead86	-0.15495881
17	0x3f13fe43	0.5780985
18	0xbb561842	-0.0032668267
19	0x3f38a5cb	0.7212798
20	0x3c1f4a8d	0.009722364
21	0xbd5f9b6a	-0.054591574
22	0x3f14b431	0.5808745
23	0x3f225c1f	0.63421816
24	0x3f4bea5c	0.7965448
25	0x3d30a64f	0.043127354
26	0x3ee3100d	0.44348183
27	0x3e21a676	0.15786156
28	0xbd34d7c0	-0.044151068
29	0x3f14a128	0.58058405
30	0xbe03199b	-0.12802736
31	0x3f1a017b	0.6015851
32	0xbe60858b	-0.21925943
33	0x3f0b0878	0.543098
34	0xbdf25700	-0.11833
35	0xbd65055b	-0.05591331
36	0x3f1d23f7	0.61383003
37	0xbd9c1e0e	-0.0762292
38	0x3f1c0ba3	0.60955256
39	0x3f41f261	0.75760466
40	0xbe99dbee	-0.30050606
41	0x3f07109e	0.5275973
42	0xbd937e3e	-0.07201813
43	0xbe903890	-0.28168154
44	0x3f5fefa5	0.87475044
45	0x3f3eb9cd	0.7450226
46	0xbe17eef6	-0.1483725
47	0x3f3ed467	0.7454285
48	0xbd8674bd	-0.06565235
49	0x3e452d30	0.19255519
50	0x3f49ada9	0.7878061
51	0x3f32b0c7	0.6980099
52	0xbe1b85b6	-0.15187725
53	0xbc827e4b	-0.015929362
54	0xbddeb042	-0.10873462
55	0x3f11ce09	0.5695501
56	0x3e5ad49f	0.21370171
57	0x3f5bf3f7	0.85919136
58	0xbe21c222	-0.15796712
59	0xbd876509	-0.06611068
60	0x3f32359e	0.69613063
61	0xbe48ac51	-0.19596983
62	0x3f58552b	0.84504956
63	0x3f18193a	0.5941349

net.4.weight f4 [2, 64]
0	0xbf1857a6	-0.5950874
1	0xbdd6ea69	-0.10493929
2	0xc016f29d	-2.358558
3	0x3e251baa	0.16123834
4	0x3faf0a3a	1.3674996
5	0x3fad5cc4	1.3543935
6	0xc04ad7c8	-3.1694202
7	0x3f88af67	1.0678529
8	0x3e7f793c	0.24948591
9	0x3fcd2367	1.6026429
10	0xc08ab4fc	-4.334593
11	0x3f964063	1.1738399
12	0x3f58757c	0.84554267
13	0x3fa348f5	1.275664
14	0xc02c8c50	-2.696064
15	0x3c8cfe2d	0.017211044
16	0x3d45e0b0	0.04830998
17	0x3fa57c63	1.2928585
18	0x3d983dde	0.07433675
19	0x3fb768df	1.4328879
20	0xbd214bd7	-0.039378967
21	0xbdf9474b	-0.12171801
22	0x3f99b14f	1.2007235
23	0x3fb2e771	1.397688
24	0x3fddf55f	1.7340506
25	0xbcb7d628	-0.022440985
26	0x3fe7d738	1.8112555
27	0xbdb40ef7	-0.08791917
28	0x3d9953fd	0.074867226
29	0x3fa94b39	1.3226081
30	0xc0df6969	-6.9816175
31	0x3fb3791f	1.4021338
32	0xc087ddb9	-4.2458158
33	0x3f76d904	0.9642489
34	0xbfab2a00	-1.3372192
35	0xc02fbb27	-2.7457979
36	0x3f8fe8a1	1.1242868
37	0x3e581411	0.21101405
38	0x3fe36f44	1.776833
39	0x3f9aee0f	1.21039
40	0xbe8fcdb5	-0.2808663
41	0x3f50c6bc	0.81553245
42	0x3ea58c1e	0.32333463
43	0xbe2e75b6	-0.1703709
44	0x3d8043ec	0.06262955
45	0x3f90ab7e	1.1302335
46	0x3c343927	0.010999954
47	0x3f97fef6	1.1874683
48	0xbc56b2f1	-0.013104186
49	0x3f2d45f0	0.6768484
50	0x3f87705e	1.0581167
51	0x3fb30833	1.3986877
52	0xbd890fec	-0.0669249
53	0xc0a3ca44	-5.1184406
54	0xbccebca8	-0.025236443
55	0x3fa50c5d	1.2894398
56	0xbea6d085	-0.32580963
57	0x3faf054f	1.3673495
58	0xbd2590f2	-0.040421434
59	0xbf477823	-0.7791769
60	0x3f381b29	0.71916443
61	0x3d125c66	0.03573265
62	0x3f517e6c	0.8183353
63	0x3f9991bb	1.1997598
64	0x3f4e98b8	0.8070178
65	0x3cac0a9f	0.021001158
66	0xbfcacff9	-1.5844718
67	0xbe0c09a4	-0.13675553
68	0x3fa7f565	1.3121763
69	0x3fe10712	1.7580283
70	0xc08ed9f4	-4.4641056
71	0x3f88c406	1.0684822
72	0xbe80254e	-0.2502846
73	0x3fadf7d9	1.3591262
74	0xc041d4e0	-3.0286179
75	0x3fabf73c	1.3434825
76	0x3fa69320	1.3013649
77	0x3f7ad274	0.97977376
78	0xc0752b13	-3.830754
79	0xbe0c2f24	-0.13689858
80	0x3e28257f	0.16420554
81	0x3f817b79	1.0115806
82	0xbda65806	-0.08122258
83	0x3fc82af6	1.5638111
84	0x3ca7dc4f	0.020490794
85	0xbe124685	-0.14284714
86	0x3facc7bc	1.3498454
87	0x3fdd97b8	1.7311926
88	0x3f34ad3b	0.7057683
89	0xbe1568dd	-0.14590783
90	0x3f17e447	0.593327
91	0x3bff9174	0.007799322
92	0xbb919f56	-0.004444043
93	0x3fba08c0	1.453392
94	0xc0521819	-3.2827208
95	0x3fb914be	1.4459455
96	0xc0ce17ca	-6.440404
97	0x3f93acd0	1.1537113
98	0xc0553f70	-3.331997
99	0xbfbe09a8	-1.4846697
100	0x3fd09d77	1.6298054
101	0x3d764223	0.060121667
102	0x3f244ee0	0.64182854
103	0x3f7ad2e1	0.97978026
104	0xc03598b8	-2.8374462
105	0x3fa3aa5d	1.2786366
106	0xbe53aa61	-0.20670463
107	0x3e4028e0	0.18765593
108	0x3fc10504	1.5079656
109	0x3f46098b	0.7735831
110	0x3ccfef1b	0.025382569
111	0x3f8e2e4e	1.1107881
112	0xbc05e04c	-0.008171152
113	0xbed4c6b6	-0.41557854
114	0x3fe4c7f3	1.787352
115	0x3fec164e	1.8444307
116	0xbdf6c773	-0.12049761
117	0xc093b195	-4.6154275
118	0x3da184de	0.078866705
119	0x3f9e5ae5	1.2371489
120	0x3f3212ad	0.69559747
121	0x3f29151b	0.6604783
122	0x3ca9947d	0.020700688
123	0x3e7c8941	0.24661733
124	0x3fcf4a98	1.6194639
125	0x3dcbb350	0.099463105
126	0x3fbaeff6	1.460448
127	0x3fad6932	1.3547728

net.4.bias f4 [2]
0	0x3f49be35	0.7880586
1	0x3ee08e72	0.43858677

exp_avg f4 [64, 4]
0	0x3f17021a	0.5898758
1	0x3ec7313f	0.3890476
2	0xbd71eb76	-0.059062444
3	0xbebae566	-0.36503142
4	0xbd5a9b82	-0.05337096
5	0xbcc67815	-0.024227181
6	0xbbee11a3	-0.007265286
7	0x3cbcb749	0.023036616
8	0x80000004	-6e-45
9	0x80000004	-6e-45
10	0x00000004	6e-45
11	0x00000004	6e-45
12	0xbe526741	-0.205472
13	0xbddbb975	-0.107287325
14	0x3d032530	0.032017887
15	0x3df6eef4	0.120572954
16	0x80000004	-6e-45
17	0x80000004	-6e-45
18	0x80000004	-6e-45
19	0x00000004	6e-45
20	0x3f1e57ae	0.6185254
21	0x3ead52cf	0.3385224
22	0xbd55432e	-0.05206602
23	0xbe72c14c	-0.2370655
24	0x00000004	6e-45
25	0x00000004	6e-45
26	0x00000004	6e-45
27	0x00000004	6e-45
28	0x3f659dcd	0.8969391
29	0x3eedd0ca	0.46448356
30	0xbdcf9906	-0.10136609
31	0xbf050c9d	-0.5197237
32	0x3e772092	0.24133518
33	0x3e89ec2c	0.26937997
34	0xbc4537f5	-0.012037267
35	0xbe50e647	-0.20400344
36	0x80000004	-6e-45
37	0x80000004	-6e-45
38	0x80000004	-6e-45
39	0x00000004	6e-45
40	0x00000004	6e-45
41	0x80000004	-6e-45
42	0x00000004	6e-45
43	0x00000004	6e-45
44	0x00000004	6e-45
45	0x00000004	6e-45
46	0x80000004	-6e-45
47	0x80000004	-6e-45
48	0x80000004	-6e-45
49	0x00000004	6e-45
50	0x80000004	-6e-45
51	0x80000004	-6e-45
52	0xc0010d44	-2.0164347
53	0xbf0b27fd	-0.5435789
54	0x3e923522	0.28556162
55	0x3f03776f	0.51354116
56	0x00000004	6e-45
57	0x00000004	6e-45
58	0x00000004	6e-45
59	0x00000004	6e-45
60	0xbfd1c458	-1.6388044
61	0xbe64fc21	-0.22361805
62	0x3e845b4e	0.2585091
63	0x3ec92abd	0.3929042
64	0xbf6a2fb3	-0.91479033
65	0x3e9d4651	0.3071771
66	0x3e1c8db0	0.15288424
67	0xbd358f72	-0.044326253
68	0x00000004	6e-45
69	0x00000004	6e-45
70	0x00000004	6e-45
71	0x80000004	-6e-45
72	0x00000004	6e-45
73	0x00000004	6e-45
74	0x00000004	6e-45
75	0x80000004	-6e-45
76	0x3f020c3e	0.5079993
77	0xbf10cc5c	-0.5656183
78	0xbddfd4d4	-0.109292656
79	0x3e2c0aaf	0.1680095
80	0x00000004	6e-45
81	0x00000004	6e-45
82	0x80000004	-6e-45
83	0x80000004	-6e-45
84	0xbdd110be	-0.102082714
85	0xbdc1b3bb	-0.09458109
86	0xba88066e	-0.0010377893
87	0x3c851856	0.016246956
88	0xbe2ee0bf	-0.17077921
89	0xbb942755	-0.0045212903
90	0x3a900306	0.0010987229
91	0xbcf7dae5	-0.030255744
92	0x405c39e0	3.4410324
93	0x3d50f65b	0.051016193
94	0xbed578a6	-0.4169361
95	0xbed8a438	-0.4231279
96	0xc010cf97	-2.2626703
97	0x3e5abe6f	0.21361707
98	0x3ead9945	0.33905998
99	0x3dca5f16	0.098814175
100	0xbdea26ff	-0.11433219
101	0x3e08c599	0.13356628
102	0x3c1a8acb	0.009432505
103	0xbd64d265	-0.05586471
104	0x3f05de67	0.52292484
105	0x3f16fadd	0.58976537
106	0x3dc26e13	0.09493651
107	0x3cd901c5	0.026490102
108	0xc06a6ee5	-3.6630185
109	0xc012af66	-2.2919555
110	0x3d9f6325	0.07782582
111	0x3fb0f51b	1.38248
112	0xbf676b1a	-0.903978
113	0x3b28a967	0.0025735737
114	0x3d98dd24	0.07464054
115	0x3d9fb64f	0.077984445
116	0x00000004	6e-45
117	0x00000004	6e-45
118	0x00000004	6e-45
119	0x00000004	6e-45
120	0x3e997fb0	0.2998023
121	0x3ed7063b	0.4199694
122	0xbcd87b93	-0.026426112
123	0xbe920140	-0.2851658
124	0x80000004	-6e-45
125	0x80000004	-6e-45
126	0x80000004	-6e-45
127	0x00000004	6e-45
128	0x3f8cafa0	1.0991096
129	0x3f1a99cb	0.6039092
130	0xbdc934a8	-0.098244965
131	0xbeeee47f	-0.46658704
132	0x00000004	6e-45
133	0x00000004	6e-45
134	0x00000004	6e-45
135	0x00000004	6e-45
136	0x00000004	6e-45
137	0x00000004	6e-45
138	0x00000004	6e-45
139	0x00000004	6e-45
140	0x3f607265	0.8767455
141	0x3ed75d6f	0.42063472
142	0xbdd877a6	-0.10569696
143	0xbef37731	-0.47551873
144	0x3edcf6f6	0.43157166
145	0xbf4617b7	-0.77379936
146	0xbe3c8b8b	-0.18412606
147	0x3e800781	0.25005725
148	0xbfc56e62	-1.5424311
149	0x3eb30118	0.34961772
150	0x3e81ad00	0.253273
151	0xbd4ab83d	-0.04949211
152	0x80000004	-6e-45
153	0x80000004	-6e-45
154	0x00000004	6e-45
155	0x00000004	6e-45
156	0x3faedad9	1.3660537
157	0x3f3466fe	0.70469654
158	0xbe197f48	-0.1498996
159	0xbf3c467b	-0.73545045
160	0x80000004	-6e-45
161	0x80000004	-6e-45
162	0x80000004	-6e-45
163	0x80000004	-6e-45
164	0x3efe97f8	0.49725318
165	0xbf990331	-1.1954099
166	0xbe8049a8	-0.25056195
167	0x3ed7a6fd	0.4211959
168	0xc035ebfd	-2.8425286
169	0xbecea17a	-0.40357572
170	0x3eb369aa	0.35041553
171	0x3ed94466	0.42434996
172	0x80000004	-6e-45
173	0x00000004	6e-45
174	0x00000004	6e-45
175	0x80000004	-6e-45
176	0x80000004	-6e-45
177	0x80000004	-6e-45
178	0x80000004	-6e-45
179	0x80000004	-6e-45
180	0x3f9e15cb	1.2350401
181	0x3fa475c8	1.2848444
182	0xbdf956a5	-0.12174729
183	0xbf94defb	-1.1630548
184	0x00000004	6e-45
185	0x00000004	6e-45
186	0x80000004	-6e-45
187	0x80000004	-6e-45
188	0x3cd7b457	0.02633111
189	0xbf5136ee	-0.8172444
190	0xbd2d1439	-0.042255614
191	0x3eabb70d	0.33538094
192	0x80000004	-6e-45
193	0x80000004	-6e-45
194	0x80000004	-6e-45
195	0x80000004	-6e-45
196	0x3f17b80b	0.592652
197	0x3ea3f46c	0.32022417
198	0xbd72c16e	-0.0592665
199	0xbe9be6ed	-0.3044962
200	0x3eaad86b	0.3336824
201	0x3d256124	0.040375844
202	0xbc38b345	-0.01127321
203	0x3d72ab89	0.05924562
204	0xbc63843b	-0.013886507
205	0xbc31d0d0	-0.010853007
206	0x3b4c4600	0.0031169653
207	0x3bc01150	0.005861439
208	0x00000004	6e-45
209	0x00000004	6e-45
210	0x00000004	6e-45
211	0x00000004	6e-45
212	0x3f4bd01b	0.7961442
213	0x3f03825a	0.51370776
214	0xbdb588fc	-0.08864018
215	0xbf0dd177	-0.55397743
216	0x00000000	0.0
217	0x00000000	0.0
218	0x00000000	0.0
219	0x00000000	0.0
220	0x00000004	6e-45
221	0x00000004	6e-45
222	0x00000004	6e-45
223	0x80000004	-6e-45
224	0xbfa5fe5f	-1.2968253
225	0x3ecc6126	0.39917868
226	0x3e5af122	0.21381047
227	0xbd999758	-0.0749957
228	0x80000004	-6e-45
229	0x80000004	-6e-45
230	0x00000004	6e-45
231	0x00000004	6e-45
232	0x00000004	6e-45
233	0x00000004	6e-45
234	0x00000004	6e-45
235	0x80000004	-6e-45
236	0x3f8321a5	1.0244642
237	0x3f2544a5	0.6455787
238	0xbdaa51ad	-0.0831636
239	0xbefa5779	-0.4889486
240	0x00000004	6e-45
241	0x00000004	6e-45
242	0x00000004	6e-45
243	0x00000004	6e-45
244	0x00000004	6e-45
245	0x00000004	6e-45
246	0x80000004	-6e-45
247	0x80000004	-6e-45
248	0x3f849dcd	1.0360657
249	0x3eddfe99	0.43358305
250	0xbdd30a27	-0.10304671
251	0xbebccaf4	-0.3687359
252	0x00000004	6e-45
253	0x80000004	-6e-45
254	0x00000004	6e-45
255	0x00000004	6e-45
