CartPole/Experiment_1/23-09-26_22-10-39-937242_DQN/checkpoints/agent_163500.pt (torch, 82603 bytes, 24 tensors)

net.0.weight f4 [64, 4]
000000 7a 78 08 bd ee d0 aa 3d 01 b1 9d 3e 3c 31 00 3c
       -0.03331802 0.083406314 0.30799106 0.007824238
000010 60 2d df 3d 5e 42 dd bd d7 1a 90 3f 85 66 91 be
       0.108973265 -0.10803674 1.1258191 -0.2839853
000020 0f 5d 38 3d 44 d8 5e bd 69 73 24 40 6d b6 4f 3e
       0.045010623 -0.054405466 2.569544 0.20284434
000030 d1 47 c2 bd 27 4e 21 bf 0d f5 88 bf 10 5d f2 be
       -0.09486354 -0.63009876 -1.0699784 -0.47336626
000040 e6 bc ab bd d7 7e a8 bc 0c d1 46 3d 72 b2 36 3b
       -0.08385639 -0.020568294 0.048539206 0.0027877358
000050 72 75 3f 3e b1 4a 3b be 19 bb db bf 72 78 52 bd
       0.18697146 -0.18290211 -1.7166473 -0.051384397
000060 88 a6 25 bd 2d 24 89 3d c2 4c 18 bf 2c 48 01 3e
       -0.04044202 0.06696353 -0.59492123 0.12625188
000070 39 79 e5 bd 7b 56 24 3d 33 2b 1b 3e 5d ef c3 3d
       -0.11204762 0.040121537 0.15153198 0.09567139
000080 98 44 0c bd 82 4b b1 bd 61 3d 7d 3e 0d 9e d5 bd
       -0.034245104 -0.0865698 0.24730445 -0.104305364
000090 aa 6b 13 be 61 6d 5e 3d ee 87 cd bb 0e ee 29 3e
       -0.1439654 0.05430353 -0.0062723076 0.16594717
0000a0 c1 e9 87 be 86 bb e2 bd 04 7e 72 bf d5 b1 b9 bd
       -0.26545528 -0.110709235 -0.94723535 -0.09067122
0000b0 a7 52 72 bd 9e 2e fe bd 2e 5b 0a c0 54 49 ce be
       -0.059160855 -0.12411235 -2.1618152 -0.4029032
0000c0 6d cd ad be 34 0d 4b be 9a f6 db 3b 08 00 09 be
       -0.3394579 -0.19829255 0.006712747 -0.13378918
0000d0 cf 96 93 3e ac ac be 3d 54 f8 ad 3f 17 d5 fb 3e
       0.28825995 0.09310278 1.3591409 0.49186012
0000e0 6f bc db 3c 9e fd 0d bc fc 6a 3e be 88 86 b0 bc
       0.02682325 -0.008666424 -0.18595499 -0.021548524
0000f0 e8 f5 7e 3e e8 9c fc 3d a2 92 e5 3f ba 56 5f 3e
       0.24898493 0.12334615 1.7935374 0.21810427
000100 66 0b 00 3e a2 0c dc 3e b3 78 0d bf e2 c5 30 3e
       0.12504348 0.42978388 -0.552623 0.17262986
000110 65 43 5e 3e 33 33 6e bd 86 62 68 be 85 55 87 bc
       0.21705396 -0.058154296 -0.22693834 -0.016520271
000120 59 02 93 3a 5f 94 94 bd 79 28 c4 bd cb 87 79 bd
       0.001121591 -0.07254862 -0.09578032 -0.060920518
000130 01 d6 53 bd 18 7a 33 be 83 04 f1 bf ee 1d 04 bf
       -0.051717762 -0.17527044 -1.8829502 -0.5160817
000140 f6 e3 02 3c 53 11 54 3d 4d 4c 15 bf de 0a b5 3c
       0.00798892 0.051774334 -0.5831955 0.022099908
000150 2f 91 e5 3e 54 72 13 3e 76 14 13 3f 96 a7 c6 3d
       0.4483733 0.14399081 0.57453096 0.09699933
000160 f9 14 8d 3d 8e 7e 81 be dc 3d 1d bf df 65 10 3d
       0.06888766 -0.25291866 -0.61422515 0.0352534
000170 cc b3 d8 3e 63 01 32 be 7d 94 4c bf b8 52 82 be
       0.42324674 -0.17383341 -0.79914075 -0.25453734
000180 c8 a3 cc 3b d5 22 7b 3d 92 85 10 40 59 92 d6 bd
       0.00624511 0.061312515 2.2581525 -0.10477132
000190 4a e6 fa 3d 12 d1 30 bf 39 3b 1e 3e 9d 57 7c 3d
       0.122509554 -0.69069016 0.15452279 0.061606992
0001a0 a7 f9 8d 3e 30 40 69 3e f6 d1 bb 3f 58 d6 86 3e
       0.27729532 0.22778392 1.467345 0.26335406
0001b0 c5 83 2b 3f 79 28 c9 3e dc 9a 5f 3f ec 0d a3 3e
       0.6699794 0.3928869 0.8734567 0.3184656
0001c0 7c 53 c7 3e 2d a7 95 bd 45 49 02 40 6e 1c 8e 3d
       0.3893088 -0.07307277 2.035722 0.06939016
0001d0 fb 88 4d be 70 13 6d be fd 7f 43 bf 8c d1 11 bf
       -0.20071785 -0.23151946 -0.7636717 -0.5696037
0001e0 a7 6f 05 be 26 bb 1c 3f 41 fa c1 3f 8e 5b 90 bc
       -0.13030873 0.61223066 1.5154496 -0.017621782
0001f0 fb cd e9 bc 62 e9 a8 bc a6 4b ee 3c 74 01 91 bd
       -0.028540602 -0.020619098 0.029088806 -0.07080355
000200 7a 7b 3e 3c cc b4 3b 3e bc 25 bd bf f5 b5 f6 bd
       0.011626119 0.18330687 -1.4777141 -0.12046424
000210 d2 25 10 bd f5 ca cc 3c 08 65 4e bd cc 83 96 3c
       -0.03519232 0.024999121 -0.05038932 0.018373393
000220 92 b1 e7 bd ef f1 29 3e 1f 09 c2 3f 6f a5 bd 3e
       -0.11313166 0.16596197 1.5159034 0.37040278
000230 7b 04 08 3e 6e 9c af bc 2e 7c 1d bc a6 bf 8a 3d
       0.13282959 -0.021436896 -0.009612126 0.06774835
000240 53 b2 f4 3c 85 af dd bc ff 5b 38 c0 35 86 7f be
       0.029870188 -0.027061233 -2.880615 -0.2495354
000250 75 35 4b 3e 32 8f ca be 97 5a 8c 3f 29 dc ac be
       0.19844611 -0.39562374 1.0965146 -0.3376172
000260 40 07 47 bd 42 28 86 3d 81 5a 55 be f0 70 24 3e
       -0.0485909 0.06550647 -0.20835306 0.16058707
000270 8d ce 04 3e 84 18 a2 bd 15 34 7b 3d 8a 6b 5c 3d
       0.12969418 -0.07914832 0.061328966 0.053813495
000280 7c 2b 11 be 71 b7 42 bd e8 03 46 be 8c 7d 6e bd
       -0.14176744 -0.047538225 -0.19337428 -0.0582252
000290 ac 77 19 3f cd 88 61 3e 00 ba 8e bf 5c 2a d7 3d
       0.5994823 0.22024842 -1.1150513 0.10506126
0002a0 d1 bf bb 3d f6 0b 3c 3e 90 6a 0d 40 e2 76 34 3e
       0.091674455 0.18363938 2.209629 0.17623475
0002b0 a8 b5 d1 bd c1 54 14 3e c7 eb 62 3e 3c 3b 1e 3e
       -0.10239726 0.14485456 0.22160254 0.15452284
0002c0 a4 b6 2b 3d f7 e1 e0 bc 99 a0 a6 bd dd ef 3c bc
       0.041922227 -0.027451498 -0.081361 -0.011531797
0002d0 30 fa 50 be 3b 3c 72 3e 3b 31 13 40 b9 d6 8d 3d
       -0.20407939 0.23655789 2.2998798 0.06925721
0002e0 45 a0 82 bd 95 db 38 be b8 c3 16 c0 5b 31 04 bf
       -0.06378225 -0.18052514 -2.3556957 -0.5163781
0002f0 7f c5 02 3f 3a fa 4a 3e 45 26 a7 bf 38 bf 60 bc
       0.51082605 0.19822016 -1.3058554 -0.013717465
000300 8e 0a 30 bc 71 07 35 3d 3c 70 ca ba 19 4f 1f 3d
       -0.010744704 0.04419655 -0.0015444825 0.038893793
000310 24 99 10 be 78 5c b5 3d 99 d6 c2 be 0d d8 4c 3d
       -0.14120919 0.08855528 -0.3805435 0.05001073
000320 f6 70 fb be 71 02 32 be 1b b7 e8 bf b8 1f 13 be
       -0.4910962 -0.17383744 -1.8180879 -0.14367568
000330 a3 9e 1b bf 03 33 38 be 90 a2 38 3f 06 eb f9 bd
       -0.60788935 -0.1798821 0.7212305 -0.1220303
000340 84 ef ea bd 4e b0 3c 3e 54 97 a3 3f 76 63 c1 3d
       -0.11471465 0.1842663 1.2780557 0.09442799
000350 89 24 3c bd 09 80 61 bd 5f 57 fb 3e 7b 93 aa 3d
       -0.04593328 -0.055053744 0.49090096 0.08328911
000360 47 a5 17 3d 22 8a 7d 3c 12 96 53 bd 53 c0 93 3c
       0.037022855 0.015474828 -0.05165679 0.018036043
000370 dc d1 86 be 68 a4 2e 3e 19 25 1e 3f 7b e9 22 be
       -0.26331985 0.17054904 0.61775357 -0.15909378
000380 0f 9e 8b 3e 9c 35 cf bd 54 95 81 bf 12 56 21 bc
       0.27269027 -0.10117647 -1.0123696 -0.009847181
000390 f1 8d 8d 3d 5f bf af bd f7 fc ec be 7e 8e 7c 3c
       0.06911839 -0.08581423 -0.46286747 0.015414832
0003a0 8d 1f 2f 3b 20 2f 4f 3d 53 22 d5 bd b2 da 9e 3d
       0.0026721687 0.05058205 -0.104069375 0.077565566
0003b0 6d e7 35 3c 9e fe 03 3d c2 18 93 bf 66 45 be be
       0.0111025395 0.032225244 -1.149193 -0.37162322
0003c0 73 28 f0 3d 8a 49 4c bc e2 ef 82 3f b0 d8 97 3c
       0.11726465 -0.012468705 1.0229456 0.018535942
0003d0 3c b0 c5 bc d1 b4 82 3c 4f 6f 69 bd ae 8b ef bc
       -0.024131887 0.01595536 -0.056990918 -0.02924141
0003e0 aa b6 2e 3e b4 6b e3 bd d9 18 06 c0 db 9b 53 3b
       0.17061868 -0.11104527 -2.0952666 0.0032288942
0003f0 c8 ca e9 3d 73 40 fd bd 51 b1 bb 3e 73 19 5e bd
       0.114156306 -0.12365808 0.3665872 -0.05422349

net.0.bias f4 [64]
000000 6d 22 e6 3e 4a 8a 92 ba b8 cd 12 bf a8 b7 91 be
       0.4494814 -0.0011180129 -0.5734515 -0.2846043
000010 58 ed 97 be 99 1f c1 3e 08 d9 43 be 03 62 17 3f
       -0.29673266 0.3771942 -0.1912576 0.5913393
000020 b4 8f 98 3e c0 27 e4 be 12 56 dd be ed b2 17 bf
       0.29797137 -0.44561577 -0.4322973 -0.59257394
000030 69 e2 0e bf 16 f6 99 3d 2c 0f 16 be 56 49 74 3e
       -0.55814224 0.0751764 -0.14654225 0.238561
000040 8b 11 9e be 8e 74 02 bf 4c e5 0f be c6 4c 5f be
       -0.3087276 -0.509591 -0.14052314 -0.2180663
000050 d2 b2 e6 be 06 58 4e bf e8 1b ba 3d 1e eb 4f bf
       -0.45058304 -0.80603063 0.09087354 -0.81218135
000060 53 10 f3 3e a5 57 58 bf ac f1 0b bf 7a 03 18 bf
       0.47473392 -0.84508735 -0.54665637 -0.59380305
000070 f1 b9 0a be 87 3f 0a bf 0f 64 77 be 53 54 86 be
       -0.13547494 -0.54003185 -0.24159263 -0.2623621
000080 af 8d fb 3e 21 7f 2c be 1b 49 cf be c9 13 03 3f
       0.49131534 -0.16845371 -0.40485463 0.51202065
000090 1d ef 8d 3e 16 dc 0b 3f 25 5e 99 be 9b ba 34 3f
       0.2772149 0.546327 -0.2995464 0.7059724
0000a0 31 bf 0e bf cc f0 b1 be 9c fa ed 3e ed 98 00 bf
       -0.55760485 -0.34754026 0.46480262 -0.50233346
0000b0 b5 19 1b be 08 7a 01 3f e3 3c 2b bf c7 6c 49 bf
       -0.15146525 0.5057683 -0.6688978 -0.78681606
0000c0 ab 13 fd bd 6c ec bc 3e 10 b5 0b 3f 4b 36 44 be
       -0.12357267 0.36899126 0.54573154 -0.19161336
0000d0 7e 65 03 bf 38 46 12 3f b7 90 93 be 90 c8 c3 be
       -0.5132674 0.57138395 -0.28821346 -0.38238955
0000e0 5f 07 47 bd 21 36 dc be 61 18 30 be 4f 2a f3 3e
       -0.048591014 -0.43010047 -0.171968 0.47493216
0000f0 cb a6 05 bf bf 71 40 be 07 76 ee 3e d4 69 d2 be
       -0.5220763 -0.1879339 0.46574423 -0.41096365

net.2.weight f4 [64, 64]
000000 78 3f 40 be f4 6c 30 be 41 c3 d5 3e 76 9c f6 3d
       -0.18774211 -0.17229062 0.4175053 0.12041561
000010 65 da d3 3c 51 71 22 be 8b b8 fb be 9e 55 8e be
       0.025860975 -0.1586354 -0.49164233 -0.27799696
000020 a5 4c d6 bd a3 85 2a 3d 44 f6 3a bd 0d 89 83 be
       -0.104638375 0.041631352 -0.045645013 -0.256905
000030 78 b5 91 be 69 57 71 bd 44 63 2d be a2 77 d4 bd
       -0.28458762 -0.05892125 -0.16932398 -0.10374381
000040 2c 1e 8d bd 4e 9a 12 bf 9d 75 1a be b5 25 65 be
       -0.068905205 -0.572667 -0.15083928 -0.22377665
000050 b9 74 d1 3a 4b 1e 92 3d 9a 76 26 bf b2 d4 53 bf
       0.0015980221 0.07134684 -0.6502472 -0.8274642
000060 67 a9 6c 3e 4c 83 f5 be 53 77 1f 3f 76 6b 76 3e
       0.23111497 -0.47951734 0.6229145 0.2406443
000070 08 39 eb be 51 45 a2 ba 67 e2 b6 3d bb d3 06 3e
       -0.4594195 -0.0012380277 0.089299016 0.13166706
000080 ff 19 27 bf 24 c2 92 3d 40 87 a0 be 03 55 5b 3d
       -0.6527404 0.07165936 -0.31353188 0.05354787
000090 20 a6 f0 bd 4c d8 a4 bd 6b 84 67 be 10 2d 51 be
       -0.11750436 -0.08049068 -0.22609107 -0.20427346
0000a0 bb fc 9d 3d 83 d6 83 be ab ec 62 3c 1c 43 12 be
       0.0771422 -0.25749597 0.013850371 -0.14283413
0000b0 4d 8a 05 3d dc 19 02 3f fe f8 94 3d 1d cd 94 3d
       0.032602597 0.5082071 0.07274054 0.07265685
0000c0 3f c5 5d bd a2 9a 28 be d7 6a da bd 78 9a fc be
       -0.054143187 -0.16465238 -0.10664909 -0.493366
0000d0 5c 5b ca bd 57 b2 0c be 07 4d de 3d 58 5d fd 3d
       -0.09880707 -0.13739906 0.108545355 0.123713195
0000e0 bf 08 38 bd df 09 df be 33 0a 9e bb 2e 82 02 bf
       -0.044930216 -0.4356222 -0.004822993 -0.5097989
0000f0 a1 7e c4 3f 4c 96 21 bc f0 62 6a be 9e 4d e5 3e
       1.5351144 -0.009862494 -0.22889304 0.4478578
000100 3e d1 bf 3d 3d 9b ed 3d 4e 6e 4d be 71 e1 4a 3e
       0.09366082 0.11601875 -0.20061609 0.19812562
000110 65 06 54 3c a7 03 6f 3d e7 af 7e bb 5f 22 1d be
       0.012940978 0.058353093 -0.003886217 -0.15345143
000120 43 9d 17 be 4d 46 3e bc 24 51 b3 bd 37 7b bc bd
       -0.14806084 -0.011613441 -0.08755711 -0.09203189
000130 a1 5c eb 3d e5 d7 b6 bd 9a ad 35 3d 8a 0d fe bd
       0.11492277 -0.08927897 0.044355012 -0.12404926
000140 6e 7d 48 3d 14 40 16 3d 3b 05 47 bd 95 b9 0e be
       0.048947744 0.036682203 -0.048588973 -0.13937981
000150 35 6b 8a bd ee d5 12 bd 4d 0b c2 bb 92 86 17 be
       -0.06758729 -0.03584855 -0.0059217573 -0.14797428
000160 6e d5 97 bd b9 7f 56 3d 9e 25 27 3e 5b 64 27 be
       -0.07413755 0.0523679 0.16322944 -0.16346876
000170 15 2f b7 bd 55 4d ab bd 04 40 71 bd c0 8a 51 bd
       -0.08944527 -0.08364359 -0.05889894 -0.051157713
000180 9f e6 35 be b7 b1 be 3c 3c bc 70 bd 7b 3b 18 bd
       -0.17763756 0.0232781 -0.058773264 -0.0371661
000190 0a 6c 5b be f7 70 2c 3e c5 67 7e 3e a7 6d 60 be
       -0.21427932 0.16839968 0.24844272 -0.21916829
0001a0 ed b3 21 bc 6b 90 6b bd 78 16 93 bd 38 12 bb 3c
       -0.009869558 -0.057510775 -0.0718202 0.022835836
0001b0 73 ef bd 3d 48 87 27 bb e5 85 30 be e6 09 39 be
       0.09274187 -0.0025562812 -0.17238577 -0.18070182
0001c0 04 44 46 3e f3 4d 28 be 2a ab 07 be 69 96 57 bd
       0.19361883 -0.16435985 -0.13248888 -0.052633677
0001d0 d7 bb 0c bd d0 ce 6e bc eb 43 11 3e 49 7b 9a bd
       -0.034358826 -0.014575675 0.14186065 -0.07543046
0001e0 eb 07 4e be 56 7e 7c bd 39 c9 44 3e 0f 49 db 3d
       -0.20120208 -0.06164392 0.19217385 0.10707294
0001f0 cd 96 16 3e 6f 7d d4 bd 82 a1 51 be 94 f6 c3 3d
       0.14705963 -0.10375487 -0.20471767 0.095685154
000200 c7 bc 43 be 9f 53 32 bf 8a aa b4 be 2e 57 6d bf
       -0.19114982 -0.69658846 -0.3528636 -0.9271115
000210 80 57 bc bd 7e 0b 18 bf 70 e9 7a 3d cb d1 23 be
       -0.09196377 -0.59392536 0.06125778 -0.15997998
000220 4f 9e 2c be ee da 39 3f 30 10 22 40 80 6c de be
       -0.16857265 0.72599685 2.532238 -0.43442154
000230 91 1c ac 3f a1 01 44 bf c8 2c e7 3d aa d8 b7 be
       1.3446218 -0.76564986 0.11287838 -0.3590749
000240 be c0 8b be 40 a9 41 bd cb 3a 81 3c 3d ea e3 be
       -0.27295488 -0.04728055 0.015775105 -0.44514647
000250 ba ee d3 be b7 de b6 bd ad ef 8b be ec c7 26 3f
       -0.4139307 -0.08929198 -0.27331296 0.65148807
000260 94 53 c2 be 58 67 24 3d 36 0d 09 3f 3f 1f 27 be
       -0.3795439 0.04013762 0.53535783 -0.16320513
000270 37 83 2f 3c 54 35 f2 3d 41 94 30 bf 72 f4 72 3d
       0.010712436 0.11826578 -0.6897622 0.059315152
000280 f4 f6 97 be f0 a2 18 3e 19 b5 07 3e d5 7b f3 be
       -0.29680598 0.14905906 0.13252677 -0.47555414
000290 5b f8 21 3f 9c ce 4d be 26 87 a6 3e 3e c0 1d be
       0.63269585 -0.20098346 0.32524985 -0.15405366
0002a0 0d 0b a4 3f 84 fe 6e 3f d4 9f 9e bd 68 72 84 bd
       1.2815872 0.9335711 -0.077453285 -0.06467134
0002b0 59 33 9a 3d bb 74 a4 be e1 12 96 3e c1 37 65 be
       0.07529325 -0.32120308 0.29311278 -0.2238455
0002c0 02 bf d3 bd 06 db 3b 3d 61 80 4b bf 28 0b 5b 3f
       -0.10339166 0.045863174 -0.79492766 0.855639
0002d0 00 73 27 3e 28 99 0c be e3 b1 0d bd b1 33 f8 be
       0.16352463 -0.137303 -0.034593474 -0.48476937
0002e0 2e e7 87 bf 1c 85 92 be 97 94 92 bd 15 a5 62 bf
       -1.0617425 -0.2861718 -0.071572475 -0.88533145
0002f0 fc f9 2f 3f 40 32 76 bd 21 be 57 bf 22 85 ad 3e
       0.6874082 -0.060106516 -0.8427449 0.33890635
000300 58 e0 d7 bc 17 36 76 3d 77 6e 52 bd 70 fe 5b 3d
       -0.026352093 0.060110178 -0.05137488 0.053709447
000310 ac 22 bd bd 99 3e 15 bd 41 3e f2 3c 27 8f d8 bd
       -0.09235129 -0.03643665 0.0295707 -0.10574179
000320 c9 d5 b7 bd 70 c4 81 bd 83 d5 6d bc b3 82 49 bc
       -0.08976323 -0.063362956 -0.014516237 -0.0122992275
000330 3f ec d6 3d c2 ef b8 bd b8 5d e1 bd e1 83 1d 3c
       0.10494279 -0.09030105 -0.110042036 0.009613962
000340 11 09 d3 3c 08 80 bd bd bb 7d f4 3d b4 60 36 be
       0.02576116 -0.09252936 0.11938044 -0.17810327
000350 a1 e2 0e bd ea 36 5b bd 84 b8 c8 3c 47 39 ad bd
       -0.0348841 -0.053519167 0.024502046 -0.084581904
000360 df 31 54 be 46 b3 2e 3d f7 9e 35 bd ac 17 8a 3d
       -0.2072215 0.042651437 -0.044341054 0.06742796
000370 f8 50 1e 3e 72 9e 91 3c 9f 3e f4 3c 1a 9c fe bd
       0.15460575 0.017775748 0.029815016 -0.12432118
000380 cf 60 fa bc 4c 42 81 3e e9 33 03 3c 04 2c 57 be
       -0.03056374 0.25245893 0.008007982 -0.21012884
000390 9f 26 53 bd d2 36 f5 bd 23 17 28 bd 9a 31 34 be
       -0.051550504 -0.11973347 -0.04103769 -0.17597046
0003a0 fd 9f e3 bc b8 c6 55 3d 0e 12 23 bc 83 ca 99 bd
       -0.02778625 0.052191466 -0.009953035 -0.07509329
0003b0 22 ac 64 3b d8 50 38 bd 60 97 6d bd 26 68 90 3d
       0.0034892638 -0.044998974 -0.05800569 0.07051115
0003c0 15 ec 64 3e 07 32 3f bd 91 b0 be bd 3c 93 0c be
       0.22355683 -0.04667857 -0.09311021 -0.1372804
0003d0 14 3c 78 bd 67 ce 14 3d 6a f5 ec bc b0 8e 72 bb
       -0.06060417 0.036329653 -0.028925616 -0.0037011318
0003e0 bb 21 2c bb 5f cc 82 bd 5d de 6a bd fd e2 19 be
       -0.0026265222 -0.06386637 -0.05734097 -0.15027995
0003f0 ec 3e 31 bd f7 af 53 3b 63 f5 e0 3d fe 68 a9 3d
       -0.043272898 0.0032300928 0.10984304 0.08271979

net.2.bias f4 [64]
000000 50 55 0d be c8 d0 82 3d dc 51 7b be 5d 50 cd bd
       -0.13802075 0.06387478 -0.24542946 -0.10025094
000010 2c 18 20 3f df 23 29 3f 01 0d 81 be d3 9b 29 3f
       0.62536883 0.6607036 -0.25205234 0.66253394
000020 d8 f1 0b be d1 83 4c 3f d2 17 5d 3e 04 ab 1d 3f
       -0.13666475 0.79888636 0.21591118 0.61589074
000030 9c b2 2b 3f ff 82 25 3f a2 17 d7 be 5e 7b 9b 3d
       0.6706941 0.6465301 -0.42010218 0.0759189
000040 b5 ad 1e be f9 97 26 3f 67 18 56 bb 9e b0 3c 3f
       -0.15495951 0.6507564 -0.0032668354 0.73706996
000050 1a 6d b4 bc 1a 9c 5f bd 8d 51 14 3f 50 97 24 3f
       -0.02202468 -0.05459223 0.57936937 0.64293385
000060 8c 2e 50 3f 15 a6 30 3d f7 87 e0 3e 0e a6 21 3e
       0.81321025 0.04312714 0.43853733 0.15786001
000070 d1 d7 34 bd 36 1f 0d 3f 5f e5 ab bd de 85 18 3f
       -0.04415113 0.5512575 -0.083933584 0.59579265
000080 1e ca 5d be 93 c0 13 3f 4f f6 bb bd a9 05 65 bd
       -0.21659133 0.5771572 -0.09177839 -0.0559136
000090 41 62 1f 3f 6e 75 9b bd ce a0 20 3f 51 13 46 3f
       0.622593 -0.07590757 0.6274537 0.77373224
0000a0 15 dc 99 be 7c 5c 08 3f 3c 7e 93 bd a6 f8 92 be
       -0.30050722 0.5326612 -0.07201812 -0.2870533
0000b0 6a ff 5b 3f 9e d6 41 3f 0c ef 17 be a9 c7 40 3f
       0.85936606 0.75718105 -0.14837283 0.7530466
0000c0 2e 75 86 bd d4 f6 62 3e a3 d1 4f 3f 5e 8e 38 3f
       -0.06565319 0.2216447 0.81179255 0.72092235
0000d0 ed 85 1b be d8 7b 35 bd cf b0 de bd 0d a0 11 3f
       -0.15187807 -0.04430756 -0.10873567 0.56884843
0000e0 4f 83 62 3e e7 54 5f 3f 0e c3 23 be 66 98 11 be
       0.22120403 0.87238926 -0.15992376 -0.14218292
0000f0 d3 0d 3d 3f 02 ad 48 be d4 f6 58 3f 6b d5 1b 3f
       0.7384922 -0.19597247 0.8475163 0.60872525

net.4.weight f4 [2, 64]
000000 d9 57 18 bf b1 e9 d6 bd 52 f2 16 c0 aa 1b 25 3e
       -0.59509045 -0.10493792 -2.35854 0.16123834
000010 bf df ae 3f 9f 15 c0 3f 65 d7 4a c0 76 25 8b 3f
       1.3662032 1.5006598 -3.1693966 1.0870807
000020 b1 79 7f 3e 4f 04 d1 3f b3 e5 97 c0 98 f1 97 3f
       0.24948765 1.632944 -4.7467895 1.1870604
000030 e7 7a 79 3f c0 9e a7 3f 8f 2d 2a c0 93 fe 8c 3c
       0.9745316 1.3095322 -2.6590307 0.017211234
000040 4d e0 45 3d 68 6d b0 3f 3e 3e 98 3d c1 c1 b9 3f
       0.048309613 1.3783388 0.07433747 1.4512254
000050 d1 4b 21 bd b9 46 f9 bd 55 8a a1 3f 49 1b b7 3f
       -0.039378945 -0.121716924 1.262034 1.4305202
000060 15 24 dd 3f 9d d6 b7 bc 5a ef e1 3f df 0e b4 bd
       1.7276636 -0.022441203 1.7651169 -0.08791899
000070 31 53 99 3d 75 b9 a6 3f 92 91 ed c0 f0 dd be 3f
       0.074865706 1.3025347 -7.42402 1.491148
000080 f8 79 96 c0 b2 a8 8b 3f 88 e0 e4 bf b9 bb 2f c0
       -4.702389 1.0910857 -1.7881021 -2.7458327
000090 d6 d0 8f 3f ac 14 cf 3e 23 08 e5 3f c3 0a 9f 3f
       1.1235607 0.4044546 1.7893108 1.2425159
0000a0 b3 cd 8f be c9 aa 55 3f 06 8c a5 3e 79 08 21 be
       -0.28086624 0.8346372 0.32333392 -0.15725888
0000b0 1d bd 08 3e e3 45 90 3f 77 38 34 3c f1 1f 9f 3f
       0.13353391 1.1271328 0.01099979 1.2431623
0000c0 1e b2 56 bc 05 e5 2b 3f 3d 2c 8d 3f 18 db b4 3f
       -0.01310399 0.6714633 1.1029125 1.4129362
0000d0 9a 0f 89 bd 88 34 b0 c0 78 bc ce bc 58 5d a6 3f
       -0.06692429 -5.5064125 -0.025236353 1.2997236
0000e0 a3 5d d8 be 8f 0f b0 3f 55 b4 33 bd 99 48 6d bf
       -0.4225894 1.3754748 -0.04387315 -0.926889
0000f0 dc 99 3d 3f b1 5c 12 3d 22 55 58 3f 9d 29 9d 3f
       0.74062896 0.03573293 0.845049 1.2278324
000100 48 98 4e 3f 45 0b ac 3c 2a d0 ca bf 73 09 0c be
       0.8070111 0.021001467 -1.5844777 -0.1367548
000110 ab ba af 3f 40 b3 db 3f 7d d9 8e c0 64 d1 8f 3f
       1.3728842 1.7164078 -4.464049 1.1235776
000120 bc 24 80 be 59 af b1 3f b5 e3 5a c0 ea c2 af 3f
       -0.25028026 1.3881637 -3.4201481 1.3731358
000130 5d a9 a6 3f ac 51 84 3f 33 5b 6f c0 bf 2e 0c be
       1.3020436 1.0337424 -3.7399414 -0.13689707
000140 7f 25 28 3e 26 71 83 3f ad 57 a6 bd 8b 6d d0 3f
       0.16420554 1.0268905 -0.081221916 1.628343
000150 4e ac 36 bc 60 46 12 be bf 25 b1 3f 75 b7 e3 3f
       -0.011149479 -0.14284658 1.3839644 1.7790362
000160 54 ff 46 3f c0 68 15 be 3b 7c 1e 3f 7a 91 ff 3b
       0.7773335 -0.1459074 0.6190831 0.0077993246
000170 53 9f 91 bb 41 11 be 3f 21 91 64 c0 da fe bd 3f
       -0.0044440418 1.4849015 -3.571358 1.48434
000180 69 f5 be c0 71 9b 93 3f 5e 0b 3e c0 e6 09 be bf
       -5.9674573 1.1531812 -2.9694438 -1.4846771
000190 c5 88 d5 3f 06 4f 24 be 5e 13 38 3f b7 06 85 3f
       1.6682364 -0.1604577 0.7190455 1.0392674
0001a0 be 98 35 c0 d3 cb a6 3f 29 aa 53 be 25 f6 37 3e
       -2.8374476 1.3030952 -0.2067038 0.1796499
0001b0 03 6e bd 3f 35 36 55 3f 1b ef cf 3c 49 46 93 3f
       1.4799198 0.8328584 0.025382569 1.1505824
0001c0 f1 df 05 bc da 4a e4 be fe 5c ee 3f cc a7 f6 3f
       -0.008171068 -0.44588357 1.8622129 1.9269958
0001d0 a4 c6 f6 bd 18 7b a0 c0 50 84 a1 3d 89 df 9e 3f
       -0.120496064 -5.015026 0.07886565 1.2411968
0001e0 d0 33 64 3f d6 49 3a 3f 43 99 92 3c 2d c7 ea 3e
       0.8914156 0.72768915 0.017895347 0.45855084
0001f0 dd ee d5 3f fd b2 cb 3d ca 7d ba 3f a8 59 b4 3f
       1.671352 0.09946249 1.4569638 1.4089861

net.4.bias f4 [2]
000000 5f 55 50 3f ab da d9 3e
       0.81380266 0.42549643

net.0.weight f4 [64, 4]
000000 0b a2 e0 bc 01 4e bc 3d cd 92 92 3e c9 00 7e 3c
       -0.027421018 0.091945656 0.28627625 0.015503117
000010 18 b6 2c 3e e6 bf 1a be ae 24 7b 3f bc 60 7a be
       0.16866338 -0.15112266 0.98102844 -0.24450964
000020 bd c7 d4 3c ec 84 80 bd 72 28 21 40 cd 59 47 3e
       0.025974149 -0.06275353 2.5180936 0.1946785
000030 ff 65 9f bd cb 98 22 bf bf a4 8f bf ec f7 f5 be
       -0.07783126 -0.63514394 -1.1222152 -0.48040712
000040 46 bd ab bd 96 7f a8 bc 89 d0 46 3d bf b2 36 3b
       -0.083857104 -0.02056865 0.04853872 0.0027877537
000050 79 31 4e 3e 5e 91 0a be 43 4e d3 bf 7b e1 c4 bd
       0.2013606 -0.13532016 -1.6508259 -0.096133195
000060 69 f3 5b bd bd 4a a4 3d 01 e8 14 bf 06 6a e7 3d
       -0.05369893 0.08022068 -0.5816651 0.11299519
000070 21 6d da bd 93 e0 15 3d 90 a7 1a 3e 54 dd d8 3d
       -0.10665346 0.036591124 0.15102983 0.1058909
000080 d0 ac f5 bc a0 7a a2 bd 35 6d 60 3e 63 69 ac bd
       -0.02998963 -0.07933545 0.21916659 -0.084185384
000090 45 6c 13 be 12 6d 5e 3d 49 87 cd bb ff ed 29 3e
       -0.1439677 0.054303236 -0.0062722308 0.16594695
0000a0 ec 82 85 be d1 d8 dc bd 64 fc 61 bf b2 a1 b4 bd
       -0.26076448 -0.10783542 -0.8827574 -0.088199034
0000b0 77 7c 7e bd 53 10 00 be 4b 85 0a c0 be 77 cf be
       -0.062130418 -0.12506227 -2.1643856 -0.40521044
0000c0 7b 86 ab be 90 84 43 be 48 df ae 3d 3d 07 f5 bd
       -0.33501038 -0.19093537 0.08538681 -0.11964271
0000d0 58 65 90 3e 38 35 e0 3d aa a5 aa 3f d9 b1 f2 3e
       0.2820232 0.10947651 1.3331807 0.47401312
0000e0 c9 bc db 3c a5 fd 0d bc 88 6a 3e be 48 86 b0 bc
       0.026823418 -0.008666431 -0.18595326 -0.021548405
0000f0 92 f0 72 3e 3b ad d2 3d 26 72 e1 3f 20 79 92 3e
       0.23724583 0.10286947 1.761296 0.28608036
000100 14 94 11 3e 58 d0 e7 3e f1 b3 16 bf 62 03 0a 3e
       0.14216644 0.4527614 -0.5886832 0.13477853
000110 a9 43 5e 3e 93 32 6e bd 4b 62 68 be bc 55 87 bc
       0.21705498 -0.0581537 -0.22693746 -0.016520374
000120 6a 1d 94 3a f6 8f 94 bd 0c 24 c4 bd 9e 91 79 bd
       0.001130027 -0.07254021 -0.09577188 -0.060929887
000130 28 c7 62 bd 9a ce 45 be 87 4e ed bf 06 c3 09 bf
       -0.05536571 -0.19317093 -1.853959 -0.5381321
000140 3c e4 02 3c 81 11 54 3d bd 4c 15 bf 88 0a b5 3c
       0.007988986 0.051774506 -0.5832022 0.022099748
000150 0e 69 e5 3e e8 55 13 3e bd e2 12 3f 04 5d c5 3d
       0.44806713 0.1438824 0.57377225 0.09636882
000160 b9 cc 8d 3d d3 cb 5c be 41 4c 0a bf d3 e1 ca 3c
       0.069238134 -0.21562128 -0.54022604 0.024765885
000170 4d 62 d9 3e 9c d6 2b be 85 4a 4b bf 86 93 7a be
       0.4245781 -0.16781086 -0.7941058 -0.24470338
000180 e4 6c 93 3b bd 33 76 3d 65 c9 0b 40 29 95 73 bd
       0.0044990648 0.060107935 2.1841671 -0.059468422
000190 b3 5f 9a 3e fe 65 20 bf 64 aa 44 bd 26 67 14 3c
       0.30151138 -0.6265563 -0.04801406 0.009057796
0001a0 d2 fe 8c 3e c3 47 6f 3e 93 d9 bb 3f e7 89 86 3e
       0.27538162 0.23367219 1.4675773 0.26277086
0001b0 a1 5f 22 3f b0 31 c0 3e 83 4a 73 3f 92 54 96 3e
       0.6342717 0.3753791 0.9503557 0.29361397
0001c0 8f 63 e4 3e cf 93 84 bd 1d 05 f7 3f b1 de 83 3d
       0.44607207 -0.06473505 1.9298435 0.064389594
0001d0 fd eb 3a be 22 a3 86 be 1a fc 5e bf 72 36 fe be
       -0.18254085 -0.26296335 -0.87103426 -0.49650913
0001e0 65 db cf bd ad 95 0a 3f d0 78 c0 3f c0 a0 fd 3c
       -0.10149268 0.5413464 1.5036869 0.03096044
0001f0 5a ce e9 bc d6 e9 a8 bc 93 4b ee 3c be 00 91 bd
       -0.028540779 -0.020619314 0.029088771 -0.0708022
000200 da e2 18 3c 1b 52 49 3e 35 1e b5 bf ff 7b 32 be
       0.009331429 0.19660227 -1.4149843 -0.17430113
000210 36 25 10 bd c8 cb cc 3c 61 64 4e bd 75 84 96 3c
       -0.035191737 0.024999514 -0.050388698 0.018373707
000220 c0 a9 e1 bd 91 ea 26 3e 9f 10 b6 3f 2f 8c b9 3e
       -0.11018705 0.16300417 1.4223822 0.36239764
000230 60 99 10 3e 9f 84 b1 bc 52 86 c7 bb 59 7d 9f 3d
       0.14121008 -0.021669684 -0.0060890103 0.0778758
000240 dd 5b e3 3c 19 05 29 bd 1b 9a 33 c0 d2 e1 83 be
       0.027753765 -0.041264627 -2.8062809 -0.25758225
000250 fb e2 3c 3e 3b e8 da be bf fb 84 3f ca 51 9e be
       0.18445961 -0.42755303 1.0389327 -0.30921775
000260 00 08 47 bd 2d 28 86 3d 6a 5a 55 be 4e 71 24 3e
       -0.048591614 0.06550632 -0.20835271 0.16058847
000270 57 ca 0b 3e cb d5 9f bd fd 6e 6d 3d 2f 59 7d 3d
       0.13651405 -0.0780445 0.057967175 0.06185263
000280 b5 2b 11 be 18 b8 42 bd a0 04 46 be 5a 7e 6e bd
       -0.14176829 -0.047538847 -0.19337702 -0.058225967
000290 9b 26 15 3f 28 42 5d 3e c1 54 87 bf 09 ee a6 3d
       0.5826203 0.21607268 -1.057274 0.0815087
0002a0 a3 f8 92 3d 83 70 25 3e 53 7e 08 40 f5 9a 46 3e
       0.0717633 0.16156201 2.1327102 0.19395049
0002b0 f2 ef 11 be 32 16 34 3e 26 88 88 3e e2 b5 07 3e
       -0.14251688 0.17586592 0.26666373 0.13252977
0002c0 3f b6 2b 3d c2 e2 e0 bc ae a0 a6 bd 67 f0 3c bc
       0.04192185 -0.027451877 -0.08136116 -0.011531926
0002d0 aa d7 50 be d2 f8 6e 3e 12 52 0c 40 0d 17 c1 3d
       -0.2039477 0.23337105 2.1925092 0.09428225
0002e0 56 b1 80 bd 53 1e 38 be 89 d5 16 c0 2c 69 04 bf
       -0.06283824 -0.17980318 -2.3567832 -0.5172298
0002f0 5b a7 e6 3e 0f 92 2a 3e 8b 9c 97 bf ac 40 a4 bc
       0.45049557 0.1665728 -1.1844648 -0.02005037
000300 d7 0a 30 bc 68 07 35 3d a8 70 ca ba 76 4e 1f 3d
       -0.010744772 0.044196516 -0.0015444951 0.038893186
000310 5e f9 0c be ee 26 b3 3d 83 68 b2 be 46 7d 60 3d
       -0.13767001 0.087476596 -0.3484536 0.05480697
000320 fa 05 01 bf a0 7c 1f be 99 37 dc bf c3 8a 3b be
       -0.50399745 -0.15574884 -1.7204467 -0.18314652
000330 45 5b 19 bf 23 ab 32 be 44 a4 29 3f 8c 06 5a bd
       -0.5990489 -0.17448096 0.66266274 -0.0532289
000340 84 4e e8 bd 34 fc 40 3e 75 5b a0 3f 5c 1f f5 3d
       -0.11343101 0.18846208 1.252791 0.11968872
000350 85 f0 23 bd 71 b7 59 bd 67 d6 f5 3e 7a 31 b4 3d
       -0.0400243 -0.05315346 0.48015139 0.087984994
000360 47 a5 17 3d 22 8a 7d 3c 12 96 53 bd 53 c0 93 3c
       0.037022855 0.015474828 -0.05165679 0.018036043
000370 ab 9a 6e be 66 de 14 3e 87 e7 29 3f 53 d4 4a bd
       -0.23301189 0.14537963 0.6636891 -0.049518894
000380 78 6f 8d 3e 73 2b 4e bd 03 30 86 bf 2e c4 c3 bc
       0.27624106 -0.050334405 -1.0483402 -0.023897257
000390 ed 8d 8d 3d d6 bf af bd 6b fc ec be 23 8f 7c 3c
       0.06911836 -0.08581512 -0.4628633 0.015414986
0003a0 4e 6c 2d bc 71 be 82 3d 51 fc b9 bd a3 b4 83 3d
       -0.010584904 0.0638398 -0.09081329 0.06430938
0003b0 b2 8c 73 3d a9 6d 11 3d 19 cb 8f bf 34 0b bd be
       0.05946035 0.03550497 -1.1233855 -0.3692261
0003c0 eb 28 f0 3d 51 49 4c bc f4 ef 82 3f 15 d9 97 3c
       0.117265545 -0.012468652 1.0229478 0.01853613
0003d0 41 b0 c5 bc 5c b5 82 3c 0b 6f 69 bd e2 8b ef bc
       -0.024131896 0.01595562 -0.056990664 -0.029241506
0003e0 0c a8 1a 3e 4f f5 bb bd bf 2e 03 c0 92 f8 07 bd
       0.15103167 -0.09177648 -2.0497282 -0.03319604
0003f0 85 cc e9 3d 8d 42 fd bd a7 b1 bb 3e 8b 16 5e bd
       0.11415962 -0.12366209 0.36658975 -0.054220717

net.0.bias f4 [64]
000000 69 eb e7 3e 55 f9 ce bd f0 f0 12 bf 5b f9 8d be
       0.4529679 -0.1010615 -0.5739889 -0.27729306
000010 9e ec 97 be bd 90 c6 3e 93 45 36 be 98 c4 17 3f
       -0.29672712 0.38782302 -0.17799978 0.59284353
000020 f9 22 9d 3e 7b 27 e4 be 0f 05 d6 be 77 a5 16 bf
       0.30690745 -0.4456137 -0.41800734 -0.5884623
000030 4f e3 0c bf 1b d0 64 3d 7e 0e 16 be 8a 69 5a 3e
       -0.55034345 0.055862527 -0.14653966 0.21329322
000040 77 f7 92 be 85 74 02 bf 70 e3 0f be be 91 45 be
       -0.28704426 -0.50959045 -0.14051604 -0.19293877
000050 43 b2 e6 be 46 76 4e bf 6d ee f3 3d 06 c4 4f bf
       -0.45057878 -0.8064922 0.119107105 -0.81158483
000060 13 43 ea 3e 97 81 5d bf bb 08 0b bf 50 58 1a bf
       0.457543 -0.86525863 -0.54310197 -0.60291004
000070 e2 44 28 be e8 68 04 bf ee f7 72 be ed 53 86 be
       -0.16432527 -0.51722574 -0.2372739 -0.26235905
000080 f9 99 05 3f 07 7f 2c be 3a 9a e1 be f8 73 04 3f
       0.5218807 -0.16845332 -0.44062978 0.51739454
000090 74 ed 96 3e ee 3a 04 3f 26 5e 99 be 75 09 35 3f
       0.29478037 0.5165242 -0.29954642 0.70717555
0000a0 9d be 0e bf 11 c0 a9 be 22 b6 e1 3e c6 5f eb be
       -0.557596 -0.33154348 0.4408427 -0.45971507
0000b0 1e 19 1b be 58 8d f9 3e 6a f9 2a bf cd 0b 4f bf
       -0.151463 0.4874065 -0.66786826 -0.8087738
0000c0 2c 13 fd bd 3e 8c c4 3e 1d 05 11 3f 7a 83 82 be
       -0.12357172 0.38388246 0.5664843 -0.25490934
0000d0 f9 11 ff be be 7c 12 3f b7 90 93 be e8 95 c8 be
       -0.498184 0.5722159 -0.28821346 -0.3917687
0000e0 5f d0 22 bd e2 35 dc be fb 84 22 be 8a 9e fb 3e
       -0.0397495 -0.4300986 -0.1587104 0.49144393
0000f0 7d a6 05 bf 49 71 40 be b5 b8 eb 3e 4a 69 d2 be
       -0.52207166 -0.18793215 0.46039358 -0.41095954

net.2.weight f4 [64, 64]
000000 49 3f 40 be 80 6c 30 be 1a c3 d5 3e 43 9d f6 3d
       -0.18774141 -0.1722889 0.41750413 0.12041714
000010 65 da d3 3c cf 70 22 be 4c b8 fb be 25 55 8e be
       0.025860975 -0.15863346 -0.49164045 -0.27799335
000020 9a 4c d6 bd 8f 85 2a 3d ef f6 3a bd 15 89 83 be
       -0.10463829 0.041631278 -0.04564565 -0.25690523
000030 36 b5 91 be 0b 58 71 bd 27 63 2d be 12 77 d4 bd
       -0.28458565 -0.058921855 -0.16932355 -0.10374273
000040 6e 1d 8d bd 1e 9a 12 bf 9d 75 1a be 2a 26 65 be
       -0.06890379 -0.57266414 -0.15083928 -0.2237784
000050 89 75 d1 3a ad 1e 92 3d 7f 76 26 bf 92 d4 53 bf
       0.0015980463 0.07134757 -0.6502456 -0.8274623
000060 9a a9 6c 3e 3c 83 f5 be dd 77 1f 3f 0b 6c 76 3e
       0.23111573 -0.47951686 0.6229227 0.24064653
000070 db 38 eb be 51 45 a2 ba 2f e3 b6 3d bb d3 06 3e
       -0.45941815 -0.0012380277 0.089300506 0.13166706
000080 c7 19 27 bf 24 c2 92 3d f7 86 a0 be a9 55 5b 3d
       -0.6527371 0.07165936 -0.3135297 0.05354849
000090 ec a5 f0 bd a7 d7 a4 bd 6b 84 67 be e2 2c 51 be
       -0.11750397 -0.08048945 -0.22609107 -0.20427278
0000a0 2e fc 9d 3d 6d d6 83 be 6a ed 62 3c 65 43 12 be
       0.07714115 -0.2574953 0.013850549 -0.14283521
0000b0 4d 8a 05 3d ac 1a 02 3f 25 f9 94 3d 65 cd 94 3d
       0.032602597 0.5082195 0.07274083 0.072657384
0000c0 3f c5 5d bd 27 9a 28 be 82 6a da bd 14 9a fc be
       -0.054143187 -0.16465054 -0.10664846 -0.49336302
0000d0 c9 5a ca bd 9d b1 0c be 0a 4d de 3d 2b 5e fd 3d
       -0.09880597 -0.13739629 0.10854538 0.12371477
0000e0 28 08 38 bd 52 09 df be 33 0a 9e bb cd 81 02 bf
       -0.044929653 -0.43561798 -0.004822993 -0.5097931
0000f0 c8 7e c4 3f 4c 96 21 bc cb 62 6a be 02 4e e5 3e
       1.535119 -0.009862494 -0.22889249 0.44786078
000100 e7 d1 bf 3d ca 9b ed 3d 49 6e 4d be f0 e1 4a 3e
       0.093662076 0.1160198 -0.20061602 0.19812751
000110 65 06 54 3c 2b 03 6f 3d ac af 7e bb 36 22 1d be
       0.012940978 0.05835263 -0.0038862033 -0.15345082
000120 ee 9c 17 be d0 45 3e bc 20 51 b3 bd 38 7b bc bd
       -0.14805958 -0.011613324 -0.08755708 -0.092031896
000130 03 5c eb 3d 78 d7 b6 bd 9a ad 35 3d 2c 0d fe bd
       0.11492159 -0.08927816 0.044355012 -0.12404856
000140 38 7e 48 3d 7d 40 16 3d 3b 05 47 bd 25 b9 0e be
       0.048948497 0.036682595 -0.048588973 -0.13937815
000150 cd 6a 8a bd 45 d6 12 bd 70 0b c2 bb 46 86 17 be
       -0.06758652 -0.035848875 -0.0059217736 -0.14797315
000160 2e d5 97 bd 29 80 56 3d 7f 25 27 3e ff 63 27 be
       -0.07413708 0.052368317 0.16322897 -0.16346739
000170 bf 2f b7 bd 55 4d ab bd d4 3f 71 bd c0 8a 51 bd
       -0.08944654 -0.08364359 -0.058898762 -0.051157713
000180 10 e6 35 be b7 b1 be 3c cc bb 70 bd be 3a 18 bd
       -0.17763543 0.0232781 -0.058772847 -0.037165396
000190 8a 6b 5b be be 71 2c 3e cc 67 7e 3e 93 6d 60 be
       -0.21427742 0.16840264 0.24844283 -0.21916799
0001a0 86 b4 21 bc 5b 90 6b bd 56 16 93 bd 80 11 bb 3c
       -0.0098697 -0.057510715 -0.071819946 0.022835493
0001b0 73 ef bd 3d 27 87 27 bb 80 85 30 be 30 09 39 be
       0.09274187 -0.0025562735 -0.17238426 -0.18069911
0001c0 04 44 46 3e 97 4d 28 be e5 aa 07 be 11 97 57 bd
       0.19361883 -0.16435848 -0.13248785 -0.052634303
0001d0 8c bc 0c bd d3 ce 6e bc ee 43 11 3e 4e 7b 9a bd
       -0.0343595 -0.014575678 0.1418607 -0.0754305
0001e0 69 07 4e be bb 7e 7c bd c8 c9 44 3e 29 49 db 3d
       -0.20120014 -0.061644297 0.19217598 0.107073136
0001f0 6e 96 16 3e 6f 7d d4 bd 4a a1 51 be 11 f6 c3 3d
       0.14705822 -0.10375487 -0.20471683 0.09568418
000200 41 bc 43 be 38 53 32 bf 70 aa b4 be d2 57 6d bf
       -0.19114782 -0.6965823 -0.35286283 -0.9271213
000210 48 57 bc bd 16 0b 18 bf 0b ea 7a 3d 27 d1 23 be
       -0.09196335 -0.59391916 0.061258357 -0.15997754
000220 47 9e 2c be 57 db 39 3f ef 0f 22 40 11 6d de be
       -0.16857253 0.7260031 2.5322225 -0.43442586
000230 5e 1d ac 3f c8 01 44 bf ea 2c e7 3d 80 d8 b7 be
       1.3446462 -0.7656522 0.112878636 -0.35907364
000240 35 c0 8b be c8 a9 41 bd cb 3a 81 3c c3 e9 e3 be
       -0.2729508 -0.047281057 0.015775105 -0.44514284
000250 5a ee d3 be 80 de b6 bd 15 ef 8b be bf c7 26 3f
       -0.41392785 -0.08929157 -0.27330843 0.6514854
000260 51 53 c2 be ee 67 24 3d cd 0c 09 3f 3f 1f 27 be
       -0.3795419 0.040138178 0.5353516 -0.16320513
000270 ae 83 2f 3c eb 35 f2 3d 90 93 30 bf 8b f4 72 3d
       0.010712547 0.1182669 -0.6897516 0.059315246
000280 c6 f6 97 be f0 a2 18 3e d4 b5 07 3e b4 7b f3 be
       -0.2968046 0.14905906 0.13252956 -0.47555315
000290 7e f8 21 3f 61 ce 4d be e7 86 a6 3e 06 c0 1d be
       0.63269794 -0.20098259 0.32524797 -0.15405282
0002a0 be 0b a4 3f 42 ff 6e 3f 76 9f 9e bd e5 71 84 bd
       1.2816083 0.9335824 -0.077452585 -0.06467036
0002b0 59 33 9a 3d 6f 74 a4 be 66 12 96 3e 22 38 65 be
       0.07529325 -0.32120082 0.29310912 -0.22384694
0002c0 02 bf d3 bd d7 db 3b 3d c1 7f 4b bf 71 0b 5b 3f
       -0.10339166 0.045863952 -0.7949181 0.85564333
0002d0 9e 73 27 3e 9d 98 0c be e3 b1 0d bd 4b 34 f8 be
       0.16352698 -0.13730092 -0.034593474 -0.48477396
0002e0 0d e7 87 bf cd 85 92 be de 93 92 bd c3 a4 62 bf
       -1.0617386 -0.28617707 -0.0715711 -0.88532656
0002f0 a7 f9 2f 3f 40 32 76 bd 22 be 57 bf bf 84 ad 3e
       0.68740314 -0.060106516 -0.84274495 0.3389034
000300 ba df d7 bc eb 36 76 3d fa 6d 52 bd 70 fe 5b 3d
       -0.026351798 0.060110968 -0.051374413 0.053709447
000310 ac 22 bd bd e6 3d 15 bd 83 3e f2 3c ba 8e d8 bd
       -0.09235129 -0.036435984 0.029570824 -0.10574098
000320 60 d5 b7 bd 70 c4 81 bd 83 d5 6d bc 61 82 49 bc
       -0.08976245 -0.063362956 -0.014516237 -0.012299151
000330 c1 ec d6 3d c2 ef b8 bd b8 5d e1 bd a5 84 1d 3c
       0.10494376 -0.09030105 -0.110042036 0.009614144
000340 71 09 d3 3c 60 7f bd bd bb 7d f4 3d b8 60 36 be
       0.025761338 -0.092528105 0.11938044 -0.17810333
000350 8d e2 0e bd ea 36 5b bd d0 b8 c8 3c 47 39 ad bd
       -0.034884024 -0.053519167 0.024502188 -0.084581904
000360 8a 31 54 be de b3 2e 3d f8 9e 35 bd ac 17 8a 3d
       -0.20722023 0.042652003 -0.044341058 0.06742796
000370 55 51 1e 3e 72 9e 91 3c 9f 3e f4 3c 24 9c fe bd
       0.15460713 0.017775748 0.029815016 -0.12432125
000380 8c 60 fa bc 4c 42 81 3e b4 34 03 3c 0a 2c 57 be
       -0.030563615 0.25245893 0.008008171 -0.21012893
000390 9f 26 53 bd ac 36 f5 bd 23 17 28 bd 58 31 34 be
       -0.051550504 -0.119733185 -0.04103769 -0.17596948
0003a0 fd 9f e3 bc b8 c6 55 3d bf 11 23 bc 83 ca 99 bd
       -0.02778625 0.052191466 -0.0099529615 -0.07509329
0003b0 22 ac 64 3b d0 50 38 bd 60 97 6d bd 65 68 90 3d
       0.0034892638 -0.044998944 -0.05800569 0.07051162
0003c0 15 ec 64 3e c0 31 3f bd 10 b0 be bd 25 93 0c be
       0.22355683 -0.046678305 -0.09310925 -0.13728006
0003d0 1c 3c 78 bd f5 ce 14 3d 6a f5 ec bc b0 8e 72 bb
       -0.0606042 0.036330182 -0.028925616 -0.0037011318
0003e0 47 21 2c bb cc cc 82 bd 5d de 6a bd f6 e2 19 be
       -0.0026264952 -0.06386718 -0.05734097 -0.15027985
0003f0 ec 3e 31 bd f7 af 53 3b 82 f5 e0 3d fe 68 a9 3d
       -0.043272898 0.0032300928 0.10984327 0.08271979

net.2.bias f4 [64]
000000 e5 54 0d be 7c d1 82 3d 2c 51 7b be d1 4f cd bd
       -0.13801916 0.06387612 -0.24542683 -0.100249894
000010 b2 7a 1e 3f 4c 33 27 3f 5d 0c 81 be 03 e8 29 3f
       0.6190597 0.6531265 -0.25204745 0.66369647
000020 6d f1 0b be cb 6f 48 3f de c0 42 3e b8 82 1b 3f
       -0.13666315 0.7829558 0.19018885 0.60746336
000030 06 13 28 3f a0 56 25 3f 5b dd d6 be 8d 7b 9b 3d
       0.6565403 0.64585304 -0.41965756 0.07591925
000040 86 ad 1e be 0e a9 1f 3f 42 18 56 bb 7b 7b 3c 3f
       -0.15495881 0.6236733 -0.0032668267 0.73625916
000050 11 95 7a bc 6a 9b 5f bd 24 ca 13 3f 84 e6 24 3f
       -0.015294329 -0.054591574 0.5773032 0.6441424
000060 4c f5 4f 3f 4f a6 30 3d f8 97 e2 3e 76 a6 21 3e
       0.8123367 0.043127354 0.44256568 0.15786156
000070 c0 d7 34 bd f5 f0 11 3f f0 82 0e be 21 d2 18 3f
       -0.044151068 0.57008296 -0.13917136 0.5969563
000080 19 d9 5d be e0 b7 10 3f dd e4 bf bd 5b 05 65 bd
       -0.21664847 0.5653057 -0.09369824 -0.05591331
000090 a3 1f 1e 3f 10 eb 9f bd 2e 62 20 3f 16 ca 45 3f
       0.61767024 -0.078085065 0.6264981 0.77261484
0000a0 ee db 99 be 4d a1 08 3f 3e 7e 93 bd 93 bf 92 be
       -0.30050606 0.53371125 -0.07201813 -0.28661785
0000b0 a1 b5 5d 3f 27 e6 41 3f f6 ee 17 be 34 0b 41 3f
       0.8660527 0.7574181 -0.1483725 0.7540772
0000c0 bd 74 86 bd d5 16 5d 3e c0 29 4f 3f 07 f9 37 3f
       -0.06565235 0.21590741 0.8092308 0.7186436
0000d0 b6 85 1b be ab 98 8b bd 42 b0 de bd 53 52 10 3f
       -0.15187725 -0.068162285 -0.10873462 0.56375617
0000e0 81 ca 51 3e fd 41 5f 3f 9a 99 23 be 55 44 0a be
       0.20487405 0.87210065 -0.15976563 -0.13502629
0000f0 a5 f8 3a 3f 51 ac 48 be 5c 99 59 3f 7e a4 1b 3f
       0.7303565 -0.19596983 0.8499963 0.6079787

net.4.weight f4 [2, 64]
000000 a6 57 18 bf 69 ea d6 bd 9d f2 16 c0 aa 1b 25 3e
       -0.5950874 -0.10493929 -2.358558 0.16123834
000010 c6 be ac 3f f1 4d b7 3f c8 d7 4a c0 35 5c 89 3f
       1.349572 1.4320661 -3.1694202 1.0731264
000020 3c 79 7f 3e 63 ca cb 3f 4e e4 90 c0 a6 46 96 3f
       0.24948591 1.5921139 -4.527869 1.174031
000030 0e 43 68 3f 8a ea a4 3f 55 56 2a c0 2d fe 8c 3c
       0.9072732 1.2884076 -2.6615193 0.017211044
000040 b0 e0 45 3d e2 5d a9 3f de 3d 98 3d b5 e8 b7 3f
       0.04830998 1.3231776 0.07433675 1.4367892
000050 d7 4b 21 bd 4b 47 f9 bd d2 70 a0 3f 08 26 b4 3f
       -0.039378967 -0.12171801 1.253443 1.4074106
000060 05 18 dd 3f 28 d6 b7 bc 9f 7e e4 3f f7 0e b4 bd
       1.7272955 -0.022440985 1.7851142 -0.08791917
000070 fd 53 99 3d 6e 47 a7 3f 22 f2 e5 c0 2a 2f bc 3f
       0.074867226 1.3068674 -7.185807 1.4701893
000080 45 47 95 c0 04 4e 84 3f 19 24 e0 bf 27 bb 2f c0
       -4.66495 1.0336308 -1.7511016 -2.7457979
000090 5a bf 8c 3f 73 1c 71 3e e3 5e e1 3f 39 21 9c 3f
       1.0995896 0.23546009 1.7607082 1.2197639
0000a0 b5 cd 8f be 3d 15 4d 3f 1e 8c a5 3e a8 20 22 be
       -0.2808663 0.8011053 0.32333463 -0.1583277
0000b0 c9 91 c9 3d a2 91 90 3f 27 39 34 3c 6b db 9a 3f
       0.098422594 1.1294444 0.010999954 1.2098211
0000c0 f1 b2 56 bc 55 31 2d 3f bc 39 89 3f f6 30 b2 3f
       -0.013104186 0.676534 1.0720744 1.3921192
0000d0 ec 0f 89 bd 60 78 a9 c0 a8 bc ce bc 9b 6b a3 3f
       -0.0669249 -5.295944 -0.025236443 1.2767214
0000e0 c3 5b af be ca 02 af 3f 76 8d 32 bd 13 42 6a bf
       -0.34249696 1.3672726 -0.04359194 -0.9150707
0000f0 e5 6c 38 3f 66 5c 12 3d c5 f2 55 3f 23 32 9b 3f
       0.7204116 0.03573265 0.8357356 1.2124676
000100 b8 98 4e 3f 9f 0a ac 3c f9 cf ca bf a4 09 0c be
       0.8070178 0.021001158 -1.5844718 -0.13675553
000110 9e a5 aa 3f e9 fb db 3f f4 d9 8e c0 79 da 8c 3f
       1.3331792 1.7186252 -4.4641056 1.1004173
000120 4e 25 80 be e1 e1 ad 3f 8b da 4a c0 4f 34 ab 3f
       -0.2502846 1.3584558 -3.1695888 1.3375338
000130 d9 3c a6 3f 83 39 81 3f c9 fc 6f c0 24 2f 0c be
       1.2987319 1.0095676 -3.7498038 -0.13689858
000140 7f 25 28 3e e3 6d 82 3f 06 58 a6 bd 0d a9 cc 3f
       0.16420554 1.0189785 -0.08122258 1.598909
000150 3b 8c 91 bb 85 46 12 be ab 90 ac 3f 4f 03 e1 3f
       -0.0044417656 -0.14284714 1.3481649 1.7579135
000160 13 f6 3e 3f dd 68 15 be ef 49 18 3f 74 91 ff 3b
       0.7459423 -0.14590783 0.59487814 0.007799322
000170 56 9f 91 bb 6b 65 ba 3f ec 08 58 c0 1b 98 b9 3f
       -0.004444043 1.45622 -3.3755445 1.4499544
000180 f2 30 c0 c0 28 98 93 3f 3e ee 3f c0 a8 09 be bf
       -6.005975 1.1530809 -2.9989161 -1.4846697
000190 11 e6 d2 3f 1c b3 8b bc 9a a2 30 3f fb e4 81 3f
       1.6476461 -0.01705318 0.6899811 1.0148004
0001a0 b8 98 35 c0 ba e5 a2 3f 61 aa 53 be be a1 38 3e
       -2.8374462 1.2726357 -0.20670463 0.1803045
0001b0 f9 c8 be 3f 9a f0 4d 3f 1b ef cf 3c 13 f6 90 3f
       1.4905082 0.80445254 0.025382569 1.1325096
0001c0 4c e0 05 bc 46 88 df be 7a c7 e9 3f 1a 87 f2 3f
       -0.008171152 -0.43658656 1.8264 1.894748
0001d0 73 c7 f6 bd 5f c0 97 c0 de 84 a1 3d 11 68 9c 3f
       -0.12049761 -4.742233 0.078866705 1.2219259
0001e0 eb 18 42 3f 56 09 33 3f e1 78 94 3c 1b 16 e2 3e
       0.7581927 0.6993612 0.018124046 0.4415749
0001f0 9c 7a d3 3f 50 b3 cb 3d 5a 40 ba 3f e4 ca b0 3f
       1.6521792 0.099463105 1.4550889 1.3811917

net.4.bias f4 [2]
000000 ee 70 4f 3f 17 e5 dc 3e
       0.8103169 0.43143532

exp_avg f4 [64, 4]
000000 69 7f c2 3f 3f fa 54 3f c3 cf f7 3d 98 9a 32 be
       1.5195132 0.83194345 0.12100174 -0.17441785
000010 53 c5 a6 3e 19 ca ad 3e f0 70 06 bf 9f 1f cb be
       0.3257242 0.3394325 -0.5251608 -0.39672562
000020 84 64 57 c0 34 aa a2 40 03 ae 14 bf d1 a3 25 c1
       -3.36551 5.0832767 -0.5807802 -10.352494
000030 99 19 61 3e a9 1a c6 3e 3e b5 c3 3c 41 f8 e5 bc
       0.21982421 0.38692215 0.023890134 -0.028072478
000040 04 00 00 80 04 00 00 80 04 00 00 80 04 00 00 00
       -6e-45 -6e-45 -6e-45 6e-45
000050 95 eb 00 bf 0b 3a a5 3d ac 9c a8 3f b5 2d 1c 3e
       -0.5035947 0.080677114 1.3172812 0.15251811
000060 04 00 00 80 04 00 00 00 04 00 00 00 04 00 00 80
       -6e-45 6e-45 6e-45 -6e-45
000070 35 f9 24 40 e0 22 97 3f 80 84 96 3e b5 e4 44 be
       2.5777104 1.1807518 0.29397964 -0.1922787
000080 f5 dc 33 3f dd 51 ea 3e eb 3f 21 3d a2 df 9d bd
       0.7025903 0.45765582 0.039367598 -0.0770867
000090 04 00 00 80 04 00 00 80 04 00 00 80 04 00 00 00
       -6e-45 -6e-45 -6e-45 6e-45
0000a0 99 69 19 be 51 2d e7 3c 6c d4 b0 3d 22 81 f9 3e
       -0.14981689 0.02821985 0.08634266 0.48731333
0000b0 04 00 00 80 04 00 00 80 04 00 00 80 04 00 00 80
       -6e-45 -6e-45 -6e-45 -6e-45
0000c0 0a c1 c7 3e 99 f3 82 3e 60 42 b7 3d 50 2b c8 3e
       0.39014465 0.25576475 0.08948207 0.39095545
0000d0 6a d6 d6 3c 19 4b 2d bd 03 f2 3e bd 0e 2a 91 3d
       0.026225287 -0.042307947 -0.04661752 0.070880994
0000e0 04 00 00 00 04 00 00 00 04 00 00 00 04 00 00 00
       6e-45 6e-45 6e-45 6e-45
0000f0 29 d4 1a bd 35 72 5f 3e 50 d6 58 be 8d 86 72 bd
       -0.037799988 0.2182091 -0.21175504 -0.05921035
000100 e5 bb 33 bd 1a 94 8c 3d 5f 60 8c 3b 09 b8 a9 3a
       -0.043880362 0.06864186 0.0042839493 0.0012948524
000110 04 00 00 00 04 00 00 00 04 00 00 00 04 00 00 80
       6e-45 6e-45 6e-45 -6e-45
000120 04 00 00 00 04 00 00 00 04 00 00 00 04 00 00 80
       6e-45 6e-45 6e-45 -6e-45
000130 03 c7 39 bd 50 39 22 bd 2e bf c8 ba 63 1b 31 bc
       -0.045355808 -0.03960544 -0.0015315765 -0.010809752
000140 04 00 00 00 04 00 00 00 04 00 00 80 04 00 00 80
       6e-45 6e-45 -6e-45 -6e-45
000150 04 00 00 00 04 00 00 00 04 00 00 00 04 00 00 00
       6e-45 6e-45 6e-45 6e-45
000160 9b 3e 45 be 8d af 9a 3e 9f 33 36 3f a9 c6 03 be
       -0.19262163 0.3021206 0.7117252 -0.12868752
000170 04 00 00 80 04 00 00 00 04 00 00 00 04 00 00 00
       -6e-45 6e-45 6e-45 6e-45
000180 3b 61 52 3f 4d 6c 1a 3f cd 20 9b be 27 81 49 be
       0.8217961 0.60321504 -0.30298463 -0.19678174
000190 cc 65 51 bb a7 ad 0e 3e 4a bf 08 3c c4 92 3e be
       -0.0031951545 0.1393343 0.008346388 -0.18610674
0001a0 04 00 00 80 04 00 00 00 04 00 00 00 04 00 00 80
       -6e-45 6e-45 6e-45 -6e-45
0001b0 88 57 41 bf 6f 87 86 c0 cb bb 9b 3e b1 72 cc 3f
       -0.7552419 -4.2040324 0.30416712 1.5972501
0001c0 ac 6f 16 3f 27 13 54 3f cf ce 46 bf da 4e 5e bf
       0.5876415 0.82841724 -0.77659315 -0.8683907
0001d0 d3 15 2e 3b c6 1c 62 3c fb da 29 b8 01 bb 22 bc
       0.0026563301 0.013800805 -4.049668e-05 -0.0099322805
0001e0 ec a4 9f bb 34 b0 12 be b3 f5 88 3d fc 2f e5 bd
       -0.004871955 -0.14325029 0.066874884 -0.11190793
0001f0 04 00 00 80 04 00 00 80 04 00 00 80 04 00 00 00
       -6e-45 -6e-45 -6e-45 6e-45
000200 d3 ff 19 3a 5d d4 ea 3e 7c 7a ce 3f 74 d2 9c 3d
       0.00058746076 0.45865145 1.6131129 0.07657328
000210 04 00 00 00 04 00 00 00 04 00 00 00 04 00 00 00
       6e-45 6e-45 6e-45 6e-45
000220 ce d1 3f c0 a1 87 d3 3f 9d 3b 3f bc f0 56 0d c0
       -2.9971805 1.6525766 -0.011671928 -2.2084312
000230 cd b6 07 40 06 04 80 3f a5 95 8d 3e d1 bd 3d be
       2.1205323 1.0001228 0.27653232 -0.1852944
000240 6a 7e 3d bf 07 bb dc bf e4 69 4c 3d c6 91 38 3f
       -0.7402102 -1.7244576 0.049905673 0.7209743
000250 51 a3 0f 3f 1f a0 04 3e 85 cb 4a be 13 c3 89 bc
       0.56108576 0.12951706 -0.19804199 -0.016816651
000260 04 00 00 80 04 00 00 80 04 00 00 00 04 00 00 00
       -6e-45 -6e-45 6e-45 6e-45
000270 29 d5 4f 40 a5 fd ca 3f c1 49 c7 3e bf 64 6f be
       3.2473853 1.5858656 0.38923457 -0.23378275
000280 04 00 00 80 04 00 00 80 04 00 00 80 04 00 00 80
       -6e-45 -6e-45 -6e-45 -6e-45
000290 0d 73 b5 be dd 09 19 c0 71 62 1a 3e 2a 2c 6b 3f
       -0.3543934 -2.391227 0.15076615 0.91864264
0002a0 09 82 bf 3e 9c 38 bf bd 66 23 a5 be 3e 3c 4e be
       0.37403896 -0.09336969 -0.3225357 -0.20140168
0002b0 04 00 00 80 04 00 00 00 04 00 00 00 04 00 00 80
       -6e-45 6e-45 6e-45 -6e-45
0002c0 04 00 00 80 04 00 00 80 04 00 00 80 04 00 00 80
       -6e-45 -6e-45 -6e-45 -6e-45
0002d0 16 5d c2 3f 9a 55 3f 3f b1 fd 07 be 3a c0 69 be
       1.5184658 0.7473999 -0.1328037 -0.22827235
0002e0 04 00 00 00 04 00 00 00 04 00 00 80 04 00 00 80
       6e-45 6e-45 -6e-45 -6e-45
0002f0 00 1e 10 bf 2b bb 4f c0 2c 4b 6c 3e 6f aa 9a 3f
       -0.56295776 -3.2457988 0.23075551 1.2083262
000300 04 00 00 80 04 00 00 80 04 00 00 80 04 00 00 80
       -6e-45 -6e-45 -6e-45 -6e-45
000310 56 05 8e 3f 23 7c 20 3f 05 99 92 3e ed 9b ce bd
       1.1095378 0.6268942 0.2863237 -0.10088334
000320 7b 02 bb bf 52 ee 76 be 74 30 4a 3f fd 11 23 3e
       -1.4610132 -0.2411435 0.78980184 0.1592483
000330 5f 76 85 be 89 0b a7 3e 28 e4 fc be c3 e8 ef bc
       -0.26066872 0.32625988 -0.4939282 -0.029285794
000340 03 aa 64 bf 7d 46 6e 3f 6c 7c b6 3d e2 9c 3c 3d
       -0.8932192 0.93076307 0.0891045 0.046048053
000350 20 d3 2a 40 69 e2 9c 3f e0 74 8c 3e 87 eb 5f be
       2.669136 1.2256595 0.2743292 -0.2186719
000360 00 00 00 00 00 00 00 00 00 00 00 00 00 00 00 00
       0.0 0.0 0.0 0.0
000370 29 e9 24 be 47 c6 1d 3f 40 be f0 bc 69 0a 56 be
       -0.16104569 0.6163067 -0.029387593 -0.20902409
000380 20 77 6c 3d 4b d7 c7 3e f0 b3 e1 bc 98 40 0b be
       0.057730794 0.39031443 -0.027551621 -0.1359886
000390 04 00 00 80 04 00 00 80 04 00 00 00 04 00 00 00
       -6e-45 -6e-45 6e-45 6e-45
0003a0 04 00 00 80 04 00 00 00 04 00 00 00 04 00 00 80
       -6e-45 6e-45 6e-45 -6e-45
0003b0 5b bc b6 3e 17 be d1 3e c5 f4 ae 3f 46 d0 bb 3e
       0.3569058 0.4096534 1.3668448 0.36682338
0003c0 04 00 00 00 04 00 00 00 04 00 00 00 04 00 00 00
       6e-45 6e-45 6e-45 6e-45
0003d0 04 00 00 00 04 00 00 00 04 00 00 80 04 00 00 80
       6e-45 6e-45 -6e-45 -6e-45
0003e0 d0 9f b9 be 5a 64 87 3e 5d 1a e8 3f df 10 53 3e
       -0.3625474 0.2644375 1.8133045 0.20611905
0003f0 04 00 00 00 04 00 00 80 04 00 00 00 04 00 00 00
       6e-45 -6e-45 6e-45 6e-45
