CartPole/Experiment_1/23-09-26_22-10-39-937242_DQN/checkpoints/agent_10500.pt (torch, 82571 bytes, 24 tensors)

net.0.weight f4 [64, 4]
00000000: 8f96 15bd 6e8f cf3d aeaa df3d a83e 01bc
00000010: b606 f23d a47b adbd cc1a 923e 4365 0fbc
00000020: 1f10 96bd b906 393d 1263 da3f c4a8 543e
00000030: c927 73be affe 373e 2ad1 943f 0e39 a9bd
00000040: e6bc abbd d77e a8bc 0cd1 463d 72b2 363b
00000050: f808 523e 5f41 73be 6889 66bf c491 2abe
00000060: 14d5 25bd 2f89 053e 9629 08bf 327c 003e
00000070: 640b d7bd 2f28 d13b a57f 273d 647f 523c
00000080: 9596 8f3c 8727 8bbd 056d 9b3d 87bd f8bc
00000090: 3564 6bbe 8021 78b9 7a8f 5d3b 562e f13d
000000a0: d0b0 13be 5603 6ebd 6475 a2bf 0a0a 73bd
000000b0: 71d5 da3d 4bae 113d 9b79 8cbf f92b 8b3e
000000c0: 2a47 8bbe 86b7 3bbd c133 523f dd7e 163b
000000d0: d658 fcbd 6a25 353e 4976 743f f2e9 b5be
000000e0: 6fbc db3c 9efd 0dbc fc6a 3ebe 8886 b0bc
000000f0: 75c8 853d fb40 f5bb 0ff0 b63e 83a7 793d
00000100: 616b 54be ab42 58bd a2da 85bf d49c 793e
00000110: d673 863e cb59 c3bd 4d1a 27bf 92a5 d6bd
00000120: ee6e 453d 4605 2ebd d7e5 c4bd 90ed 03bd
00000130: 4fb1 57be 1653 2dbe d8da bcbe 63e4 1bbe
00000140: 9937 433e 281b d13d 2a96 01bf 2263 d63d
00000150: 1987 a33e 31f9 453d 73b7 73be d6a9 3e3c
00000160: e344 0e3e ed8b 33be a83a 2dbf e17e 6cbd
00000170: e208 8a3e 72e1 803d b77a 76bf 4ce3 5bbd
00000180: d83b b2bd a071 823d 6808 923f cb0a 3a3d
00000190: 8df4 36be 244c 8bbd 3d90 6abe ce26 633e
000001a0: 9fce e03d 0010 873d d835 463f 5924 f83d
000001b0: 2b0d f03e 5ed6 aabd 20ef 463e 178b ccbd
000001c0: 6d18 a93e b2aa a1be 8574 5e3f f7bc fb3d
000001d0: 87ac d43c 45ef 12be 65a5 d9bd ad8f 96be
000001e0: 14de 72be 956f 493e e3c5 353f 161f 37be
000001f0: fbcd e9bc 62e9 a8bc a64b ee3c 7401 91bd
00000200: c007 163d eec1 a43c 329d 67bf 47d1 9fbd
00000210: ed8f 60bb 4d82 683d 1a91 98bc b85e 4d3d
00000220: 0938 2ebd 1b50 533c 0c89 463f cca0 b53e
00000230: f987 f33d f604 28bc 1d02 32bd 32d7 1c3d
00000240: 2e4a abbc 6cab 02bd f5e1 bfbf 2d7e a5be
00000250: 0bc5 9bbd a551 503d 6940 6d3f c7cb bbbd
00000260: 4007 47bd 4228 863d 815a 55be f070 243e
00000270: 49aa d83d 6d79 bbbd 53fa bcba 94ce 033c
00000280: 9e6f 34be 3631 a7bd e993 5bbe 9fde 97bd
00000290: fcc1 8b3e d0d7 2dbe e81e eabf a0aa 65be
000002a0: 3f1b 11be 1c18 233e 3348 853f 2dd8 47bd
000002b0: 9b28 25be 7d7c 8c3e 05d7 ad3e 9f9e b13d
000002c0: 4073 263c b38a 72bd a090 e7bd 1ff9 30bd
000002d0: cbb4 263c 8cf1 943d 8ca8 823f 6136 e03d
000002e0: 2e8d fd3d 57bf 03be 42cb f4bf ec9a 9cbe
000002f0: bee4 953e bfa9 debd dfed 1fbe a5b5 b43d
00000300: 8e0a 30bc 7107 353d 3c70 caba 194f 1f3d
00000310: 7512 d2bd 390a 203d fc06 45be c26b 41bc
00000320: 358c db3d f5c5 2bbd fb10 0bbf 5870 8bbd
00000330: f852 1cbf efa6 91bd 29dd 873f 4708 f93d
00000340: 3fc1 033c e6ee 2a3e 8149 833f 8769 563e
00000350: 8def 13bd e144 7abd 15ba 8a3e 2068 03bc
00000360: 47a5 173d 228a 7d3c 1296 53bd 53c0 933c
00000370: f5d6 3ebe 5211 5e3e 69ce 393f ee61 8bbd
00000380: 54c7 7b3e fa4d 0cbe b85b 45bf 5cd1 b43e
00000390: 7688 0d3d 944d f8bd 2857 e2be 52a9 4e3d
000003a0: 4a55 eebc d7a5 a83d 3d15 94bd 919a 3b3d
000003b0: 324c 043e d9dc 2ebd 9129 06bf f396 16be
000003c0: 6f9b 183e f414 9e3c c100 873f 2609 4e3d
000003d0: 3cb0 c5bc d1b4 823c 4f6f 69bd ae8b efbc
000003e0: 8223 2b3e cc0d fcbd fb64 8fbf c200 e9bd
000003f0: 94a9 2f3e 691e 00be b7ee d63e 5d0c d0bb
-0.036520537 0.10134779 0.109212264 -0.007888474 0.11817686 -0.08470848 0.2853607 -0.00875217
-0.073272936 0.045172427 1.7061484 0.20767504 -0.23745646 0.17968248 1.1626332 -0.082628354
-0.08385639 -0.020568294 0.048539206 0.0027877358 0.20511234 -0.23755406 -0.90053415 -0.16657168
-0.04048641 0.13040613 -0.53188455 0.12547377 -0.105002195 0.006382964 0.040893216 0.012847755
0.017527858 -0.067946486 0.07589153 -0.030363811 -0.22987445 -0.00023663603 0.0033807443 0.11776416
-0.14422917 -0.05810865 -1.2692075 -0.059335746 0.10685242 0.03556661 -1.0974611 0.27181986
-0.2720273 -0.04582932 0.8211022 0.00229638 -0.123216316 0.17690054 0.9549299 -0.3553005
0.02682325 -0.008666424 -0.18595499 -0.021548524 0.06532375 -0.007484553 0.35730025 0.060950767
-0.20744087 -0.052797955 -1.0457346 0.24376231 0.2626025 -0.09538611 -0.65274507 -0.10480799
0.048201494 -0.042485498 -0.09614151 -0.03220898 -0.21063732 -0.16926226 -0.36885715 -0.15223841
0.19064178 0.10210258 -0.5061976 0.10468127 0.3193901 0.04833335 -0.23800449 0.011637172
0.13893466 -0.17533846 -0.6766763 -0.05773819 0.26959902 0.06293 -0.96281 -0.053683564
-0.087028205 0.063693285 1.1408815 0.04542045 -0.17866726 -0.06801632 -0.22906585 0.22182772
0.1097691 0.06594849 0.7742591 0.12116308 0.46885046 -0.083416685 0.19427156 -0.09987467
0.33026448 -0.31575543 0.86896545 0.122919016 0.025961174 -0.14349087 -0.1062725 -0.2940649
-0.23717529 0.19671471 0.71005076 -0.17882952 -0.028540602 -0.020619098 0.029088806 -0.07080355
0.036628485 0.020112004 -0.90474236 -0.07803588 -0.0034265474 0.05676489 -0.018623877 0.05013916
-0.042533908 0.012897517 0.77552867 0.3547424 0.11891169 -0.010255089 -0.043459047 0.038291164
-0.020909395 -0.031901762 -1.4990832 -0.32322827 -0.07605942 0.050859112 0.9267641 -0.09169727
-0.0485909 0.06550647 -0.20835306 0.16058707 0.10579354 -0.091540195 -0.0014417864 0.0080448575
-0.17620704 -0.08163683 -0.21443142 -0.074155085 0.27296436 -0.16976857 -1.8290682 -0.2242837
-0.1417055 0.15927166 1.0412658 -0.048790146 -0.16128771 0.27438727 0.3395311 0.08672833
0.010159314 -0.059214305 -0.11306882 -0.04320633 0.01017494 0.07272634 1.0207686 0.10947872
0.123804435 -0.12865959 -1.9124529 -0.30586946 0.2927608 -0.1087222 -0.15618084 0.088237084
-0.010744704 0.04419655 -0.0015444825 0.038893793 -0.10257427 0.03907225 -0.19240946 -0.011805477
0.10720102 -0.041936833 -0.54322785 -0.06808537 -0.610641 -0.07111918 1.0614368 0.12159782
0.008041679 0.16692695 1.0256807 0.20938693 -0.036117125 -0.061100844 0.27095094 -0.008020431
0.037022855 0.015474828 -0.05165679 0.018036043 -0.18636687 0.21686295 0.7258058 -0.06805788
0.24587756 -0.1370162 -0.77093077 0.3531598 0.034553967 -0.12124172 -0.4420712 0.050454445
-0.029093403 0.082347564 -0.072306134 0.045801703 0.12919691 -0.042691085 -0.52407175 -0.1470602
0.14903043 0.0192971 1.0547105 0.050301693 -0.024131887 0.01595536 -0.056990918 -0.02924141
0.16712764 -0.12307319 -1.1202692 -0.11377098 0.17154533 -0.125116 0.41979 -0.00634913

net.0.bias f4 [64]
00000000: 759c b83e f679 8a3e 2755 71be 3977 69bd
00000010: 58ed 97be faca 6e3e cff6 02be bf57 ea3e
00000020: 8e10 a63e 2142 babe c45b bbbe 1f51 aabc
00000030: 042f 0ebf 5067 70be 2c0f 16be 325c 7c3e
00000040: d64c 4cbe 28aa 35be bbea b7bd b2f9 91be
00000050: 42f3 9abb ca83 2abf 8102 013e 8e28 03bf
00000060: e0bb 8a3e 12c0 0bbf c256 f8be 0f15 1ebf
00000070: 7fae 5b3c 3c70 2cbe cf91 293d 5354 86be
00000080: 8701 8e3e f1f7 0bbe c006 a6be 1dd9 cf3e
00000090: a7d0 37bd 2c4e 1c3e 255e 99be f818 093f
000000a0: fb57 05bf aaec bdbe 08de 0f3e 026f 8dbe
000000b0: 5b28 f5bd c32c aa3e 3fbf c5be 5448 98be
000000c0: ab13 fdbd 720b a43e 6b86 413e 1f9d cabe
000000d0: e88a 23be 5fab e73e b790 93be 80b2 cabd
000000e0: c72b bc3c 7d05 cabe 4791 0fbe ab90 b63e
000000f0: 050a fbbe bf71 40be 7d65 883e 82f3 b4be
0.36056867 0.27046174 -0.2356764 -0.056998465 -0.29673266 0.23319617 -0.12789463 0.4577007
0.32434505 -0.36378577 -0.3659345 -0.020790635 -0.5554049 -0.2347691 -0.14654225 0.24644545
-0.19951186 -0.1774069 -0.08980318 -0.28510815 -0.0047287056 -0.66607344 0.12598611 -0.51233757
0.27096462 -0.5458995 -0.4850369 -0.6175088 0.013408302 -0.16839689 0.04139882 -0.2623621
0.2773554 -0.13668801 -0.32427025 0.40595332 -0.04487672 0.15264195 -0.2995464 0.53553724
-0.5208737 -0.37094623 0.14049542 -0.27623755 -0.11970588 0.33237275 -0.38622472 -0.29742682
-0.12357267 0.32039982 0.18898933 -0.39573 -0.15970957 0.45247933 -0.28821346 -0.098973274
0.022970093 -0.39457312 -0.14020263 0.35657248 -0.49031082 -0.1879339 0.2663993 -0.35342032

net.2.weight f4 [64, 64]
00000000: 783f 40be f46c 30be 41c3 d53e 769c f63d
00000010: 65da d33c 5171 22be 8bb8 fbbe 9e55 8ebe
00000020: a54c d6bd a385 2a3d 44f6 3abd 0d89 83be
00000030: 78b5 91be 6957 71bd 4463 2dbe a277 d4bd
00000040: 2c1e 8dbd 4e9a 12bf 9d75 1abe b525 65be
00000050: b974 d13a 4b1e 923d 9a76 26bf b2d4 53bf
00000060: 67a9 6c3e 4c83 f5be 5377 1f3f 766b 763e
00000070: 0839 ebbe 5145 a2ba 67e2 b63d bbd3 063e
00000080: ff19 27bf 24c2 923d 4087 a0be 0355 5b3d
00000090: 20a6 f0bd 4cd8 a4bd 6b84 67be 102d 51be
000000a0: bbfc 9d3d 83d6 83be abec 623c 1c43 12be
000000b0: 4d8a 053d dc19 023f fef8 943d 1dcd 943d
000000c0: 3fc5 5dbd a29a 28be d76a dabd 789a fcbe
000000d0: 5c5b cabd 57b2 0cbe 074d de3d 585d fd3d
000000e0: bf08 38bd df09 dfbe 330a 9ebb 2e82 02bf
000000f0: a17e c43f 4c96 21bc f062 6abe 9e4d e53e
00000100: 3ed1 bf3d 3d9b ed3d 4e6e 4dbe 71e1 4a3e
00000110: 6506 543c a703 6f3d e7af 7ebb 5f22 1dbe
00000120: 439d 17be 4d46 3ebc 2451 b3bd 377b bcbd
00000130: a15c eb3d e5d7 b6bd 9aad 353d 8a0d febd
00000140: 6e7d 483d 1440 163d 3b05 47bd 95b9 0ebe
00000150: 356b 8abd eed5 12bd 4d0b c2bb 9286 17be
00000160: 6ed5 97bd b97f 563d 9e25 273e 5b64 27be
00000170: 152f b7bd 554d abbd 0440 71bd c08a 51bd
00000180: 9fe6 35be b7b1 be3c 3cbc 70bd 7b3b 18bd
00000190: 0a6c 5bbe f770 2c3e c567 7e3e a76d 60be
000001a0: edb3 21bc 6b90 6bbd 7816 93bd 3812 bb3c
000001b0: 73ef bd3d 4887 27bb e585 30be e609 39be
000001c0: 0444 463e f34d 28be 2aab 07be 6996 57bd
000001d0: d7bb 0cbd d0ce 6ebc eb43 113e 497b 9abd
000001e0: eb07 4ebe 567e 7cbd 39c9 443e 0f49 db3d
000001f0: cd96 163e 6f7d d4bd 82a1 51be 94f6 c33d
00000200: c7bc 43be 9f53 32bf 8aaa b4be 2e57 6dbf
00000210: 8057 bcbd 7e0b 18bf 70e9 7a3d cbd1 23be
00000220: 4f9e 2cbe eeda 393f 3010 2240 806c debe
00000230: 911c ac3f a101 44bf c82c e73d aad8 b7be
00000240: bec0 8bbe 40a9 41bd cb3a 813c 3dea e3be
00000250: baee d3be b7de b6bd adef 8bbe ecc7 263f
00000260: 9453 c2be 5867 243d 360d 093f 3f1f 27be
00000270: 3783 2f3c 5435 f23d 4194 30bf 72f4 723d
00000280: f4f6 97be f0a2 183e 19b5 073e d57b f3be
00000290: 5bf8 213f 9cce 4dbe 2687 a63e 3ec0 1dbe
000002a0: 0d0b a43f 84fe 6e3f d49f 9ebd 6872 84bd
000002b0: 5933 9a3d bb74 a4be e112 963e c137 65be
000002c0: 02bf d3bd 06db 3b3d 6180 4bbf 280b 5b3f
000002d0: 0073 273e 2899 0cbe e3b1 0dbd b133 f8be
000002e0: 2ee7 87bf 1c85 92be 9794 92bd 15a5 62bf
000002f0: fcf9 2f3f 4032 76bd 21be 57bf 2285 ad3e
00000300: 58e0 d7bc 1736 763d 776e 52bd 70fe 5b3d
00000310: ac22 bdbd 993e 15bd 413e f23c 278f d8bd
00000320: c9d5 b7bd 70c4 81bd 83d5 6dbc b382 49bc
00000330: 3fec d63d c2ef b8bd b85d e1bd e183 1d3c
00000340: 1109 d33c 0880 bdbd bb7d f43d b460 36be
00000350: a1e2 0ebd ea36 5bbd 84b8 c83c 4739 adbd
00000360: df31 54be 46b3 2e3d f79e 35bd ac17 8a3d
00000370: f850 1e3e 729e 913c 9f3e f43c 1a9c febd
00000380: cf60 fabc 4c42 813e e933 033c 042c 57be
00000390: 9f26 53bd d236 f5bd 2317 28bd 9a31 34be
000003a0: fd9f e3bc b8c6 553d 0e12 23bc 83ca 99bd
000003b0: 22ac 643b d850 38bd 6097 6dbd 2668 903d
000003c0: 15ec 643e 0732 3fbd 91b0 bebd 3c93 0cbe
000003d0: 143c 78bd 67ce 143d 6af5 ecbc b08e 72bb
000003e0: bb21 2cbb 5fcc 82bd 5dde 6abd fde2 19be
000003f0: ec3e 31bd f7af 533b 63f5 e03d fe68 a93d
-0.18774211 -0.17229062 0.4175053 0.12041561 0.025860975 -0.1586354 -0.49164233 -0.27799696
-0.104638375 0.041631352 -0.045645013 -0.256905 -0.28458762 -0.05892125 -0.16932398 -0.10374381
-0.068905205 -0.572667 -0.15083928 -0.22377665 0.0015980221 0.07134684 -0.6502472 -0.8274642
0.23111497 -0.47951734 0.6229145 0.2406443 -0.4594195 -0.0012380277 0.089299016 0.13166706
-0.6527404 0.07165936 -0.31353188 0.05354787 -0.11750436 -0.08049068 -0.22609107 -0.20427346
0.0771422 -0.25749597 0.013850371 -0.14283413 0.032602597 0.5082071 0.07274054 0.07265685
-0.054143187 -0.16465238 -0.10664909 -0.493366 -0.09880707 -0.13739906 0.108545355 0.123713195
-0.044930216 -0.4356222 -0.004822993 -0.5097989 1.5351144 -0.009862494 -0.22889304 0.4478578
0.09366082 0.11601875 -0.20061609 0.19812562 0.012940978 0.058353093 -0.003886217 -0.15345143
-0.14806084 -0.011613441 -0.08755711 -0.09203189 0.11492277 -0.08927897 0.044355012 -0.12404926
0.048947744 0.036682203 -0.048588973 -0.13937981 -0.06758729 -0.03584855 -0.0059217573 -0.14797428
-0.07413755 0.0523679 0.16322944 -0.16346876 -0.08944527 -0.08364359 -0.05889894 -0.051157713
-0.17763756 0.0232781 -0.058773264 -0.0371661 -0.21427932 0.16839968 0.24844272 -0.21916829
-0.009869558 -0.057510775 -0.0718202 0.022835836 0.09274187 -0.0025562812 -0.17238577 -0.18070182
0.19361883 -0.16435985 -0.13248888 -0.052633677 -0.034358826 -0.014575675 0.14186065 -0.07543046
-0.20120208 -0.06164392 0.19217385 0.10707294 0.14705963 -0.10375487 -0.20471767 0.095685154
-0.19114982 -0.69658846 -0.3528636 -0.9271115 -0.09196377 -0.59392536 0.06125778 -0.15997998
-0.16857265 0.72599685 2.532238 -0.43442154 1.3446218 -0.76564986 0.11287838 -0.3590749
-0.27295488 -0.04728055 0.015775105 -0.44514647 -0.4139307 -0.08929198 -0.27331296 0.65148807
-0.3795439 0.04013762 0.53535783 -0.16320513 0.010712436 0.11826578 -0.6897622 0.059315152
-0.29680598 0.14905906 0.13252677 -0.47555414 0.63269585 -0.20098346 0.32524985 -0.15405366
1.2815872 0.9335711 -0.077453285 -0.06467134 0.07529325 -0.32120308 0.29311278 -0.2238455
-0.10339166 0.045863174 -0.79492766 0.855639 0.16352463 -0.137303 -0.034593474 -0.48476937
-1.0617425 -0.2861718 -0.071572475 -0.88533145 0.6874082 -0.060106516 -0.8427449 0.33890635
-0.026352093 0.060110178 -0.05137488 0.053709447 -0.09235129 -0.03643665 0.0295707 -0.10574179
-0.08976323 -0.063362956 -0.014516237 -0.0122992275 0.10494279 -0.09030105 -0.110042036 0.009613962
0.02576116 -0.09252936 0.11938044 -0.17810327 -0.0348841 -0.053519167 0.024502046 -0.084581904
-0.2072215 0.042651437 -0.044341054 0.06742796 0.15460575 0.017775748 0.029815016 -0.12432118
-0.03056374 0.25245893 0.008007982 -0.21012884 -0.051550504 -0.11973347 -0.04103769 -0.17597046
-0.02778625 0.052191466 -0.009953035 -0.07509329 0.0034892638 -0.044998974 -0.05800569 0.07051115
0.22355683 -0.04667857 -0.09311021 -0.1372804 -0.06060417 0.036329653 -0.028925616 -0.0037011318
-0.0026265222 -0.06386637 -0.05734097 -0.15027995 -0.043272898 0.0032300928 0.10984304 0.08271979

net.2.bias f4 [64]
00000000: 5055 0dbe c8d0 823d dc51 7bbe 5d50 cdbd
00000010: 05e9 f83e 7cd7 b33e fc37 2abe 15ac 893e
00000020: d8f1 0bbe 0575 223f aa8b 4f3e 70a0 c83e
00000030: be42 e93e 97fc 943e 461a 85be 5e7b 9b3d
00000040: 276c fcbd 6cd4 be3e 6718 56bb 707e d83e
00000050: 344a 1f3c 1a9c 5fbd d6a8 f13e 5c6e b43e
00000060: 84cb d23e 15a6 303d da61 773e 0ea6 213e
00000070: d1d7 34bd 7d58 a13e e174 b0bd 79f7 f43e
00000080: c859 b1bd 5716 c33e fdfa babd a905 65bd
00000090: 5b04 e33e 4c1e 9cbd f85b bf3e 2160 e33e
000000a0: 15dc 99be cd17 b43e 3c7e 93bd 1af1 04be
000000b0: 731f 013f b069 be3e a2e0 eebd 1ee2 e93e
000000c0: 2e75 86bd 3174 a3bd 2cfc 0d3f 6da2 013f
000000d0: d3ff f5bd 5a36 61ba cfb0 debd 5be9 db3e
000000e0: 00bf 3ebd 1552 003f a032 0dbe 3537 d5bd
000000f0: 9369 013f 96cf 23be 2c08 ce3e 2812 943e
-0.13802075 0.06387478 -0.24542946 -0.10025094 0.4861528 0.3512534 -0.16622919 0.268891
-0.13666475 0.6345981 0.20268121 0.39184904 0.45558733 0.2909896 -0.25996608 0.0759189
-0.12325316 0.3727144 -0.0032668354 0.42283964 0.009722281 -0.05459223 0.47199124 0.35240448
0.41170895 0.04312714 0.24158421 0.15786001 -0.04415113 0.31512824 -0.08616043 0.47845057
-0.086597025 0.3810298 -0.091299035 -0.0559136 0.4433926 -0.07622966 0.37374854 0.44409278
-0.30050722 0.3517441 -0.07201812 -0.12982598 0.5043861 0.37190008 -0.11663939 0.45680326
-0.06565319 -0.07981146 0.5546291 0.5063847 -0.12011685 -0.0008591168 -0.10873567 0.42951474
-0.04656887 0.5012525 -0.13788843 -0.104109205 0.5055172 -0.15997157 0.4024061 0.28920102

net.4.weight f4 [2, 64]
00000000: d957 18bf b1e9 d6bd 52f2 16c0 aa1b 253e
00000010: 49ec 3c3f 51c0 743f dd66 4ec0 f85c 3d3f
00000020: b179 7f3e b3fa 723f 0083 eebf dac9 5c3f
00000030: bc88 e53e 10cf 823f 4e67 14c0 93fe 8c3c
00000040: f1db 873d e6d7 323f 3e3e 983d 1cae 903f
00000050: d14b 21bd b946 f9bd f77a 0f3f 27fb 873f
00000060: 8dcb 9e3f 9dd6 b7bc fe48 5a3f df0e b4bd
00000070: 3153 993d 87ec 893f 3963 26c0 0a46 733f
00000080: 8f70 75c0 ddca d43e 3ba9 9dbf b9bb 2fc0
00000090: 5fec 4c3f d213 583e 2554 4b3f 67ef 3a3f
000000a0: b3cd 8fbe 2b9a 403f 068c a53e fcec 1bbd
000000b0: 8054 babb 1b52 3f3f 78f9 2e3d 514b 463f
000000c0: 1eb2 56bc 6242 e5bc a3a3 703f 707a 643f
000000d0: 9a0f 89bd a917 d9bf 78bc cebc baca 3d3f
000000e0: 85a7 1d3c 3305 6d3f b9db 9ebb 5d6e 9dbd
000000f0: 3dda 2e3f 6759 d8ba b769 b13e 7eca 593f
00000100: 4898 4e3f 450b ac3c 2ad0 cabf 7309 0cbe
00000110: abb5 653f 81f1 433f 01d5 73c0 52f5 d43e
00000120: bc24 80be d609 6d3f f95c 02c0 8be1 b53e
00000130: c4af 6f3f 895d aa3e cecf 01c0 bf2e 0cbe
00000140: 7f25 283e 4867 7d3f ad57 a6bd 9d25 4f3f
00000150: 8fdc a73c 6046 12be 39aa 7c3f aa5d 903f
00000160: 8ddb f33e c068 15be cfe3 203f 7a91 ff3b
00000170: 539f 91bb 8623 e73e ee07 efbf 4cbf ad3f
00000180: 892e 8bc0 f34a 703f 9fbf 9dbf e609 bebf
00000190: 2a83 533f 2342 763d bcd9 443f e01f 073f
000001a0: be98 35c0 206c 103f 29aa 53be 79ab a93d
000001b0: 5dc5 8c3f a89c 343e 1bef cf3c 002a 3c3f
000001c0: f1df 05bc a4ff 043d 0cf7 643f fb5c 963f
000001d0: 327a 1bbe 4d4d 10c0 5084 a13d d8db 223f
000001e0: 0339 273d 154b 4c3e 110f 4b3d 2d42 823b
000001f0: a520 493f fb58 f13d 50da 7a3f b899 f93e
-0.59509045 -0.10493792 -2.35854 0.16123834 0.7379804 0.9560595 -3.2250283 0.73969984
0.24948765 0.94913787 -1.8633728 0.862455 0.44830883 1.021944 -2.3188052 0.017211234
0.06633747 0.69860685 0.07433747 1.1303134 -0.039378945 -0.121716924 0.56047004 1.0623521
1.2405869 -0.022441203 0.8526763 -0.08791899 0.074865706 1.0775307 -2.599806 0.95028746
-3.834995 0.41561022 -1.231727 -2.7458327 0.80048174 0.21101311 0.7942527 0.7302155
-0.28086624 0.7523524 0.32333392 -0.038067803 -0.0056863427 0.7473466 0.04271838 0.77458674
-0.01310399 -0.027985755 0.9399969 0.89249325 -0.06692429 -1.6960346 -0.025236353 0.7413746
0.009622459 0.9258606 -0.0048479703 -0.07687066 0.68301755 -0.0016506136 0.34650967 0.85074604
0.8070111 0.021001467 -1.5844777 -0.1367548 0.8973033 0.7654038 -3.8098757 0.41593415
-0.25028026 0.92593133 -2.0369246 0.35523638 0.9362757 0.33274487 -2.0283084 -0.13689707
0.16420554 0.9898572 -0.081221916 0.8091677 0.020490913 -0.14284658 0.9869724 1.1278584
0.4762844 -0.1459074 0.6284761 0.0077993246 -0.0044440418 0.4514429 -1.8674295 1.3574004
-4.3494306 0.93864363 -1.2324103 -1.4846771 0.82622015 0.060121667 0.76894736 0.5278301
-2.8374476 0.56414986 -0.2067038 0.08284659 1.099773 0.17637885 0.025382569 0.73501587
-0.008171068 0.03247036 0.89439464 1.1747125 -0.15183333 -2.254718 0.07886565 0.63616705
0.040825855 0.19950517 0.049574915 0.003975174 0.78565437 0.1178455 0.9798937 0.4875009

net.4.bias f4 [2]
00000000: 56fe ad3e 27fe 333e
0.33983105 0.1757742

net.0.weight f4 [64, 4]
00000000: b5be 14bd 27c1 cd3d 4639 c43d f366 53bc
00000010: b785 f53d 3eb0 adbd 0b7e 863e b253 85bc
00000020: ca7f 94bd 9e39 383d 57f3 d93f 4433 543e
00000030: 44f2 7bbe c177 2a3e 1b5b 8f3f 6343 f7bd
00000040: 3ebe abbd 4989 a8bc 2cb4 463d f419 373b
00000050: 5727 5f3e 94ec 72be 01b9 64bf 5d85 19be
00000060: 9c16 2bbd b0a5 043e 6959 08bf cda7 003e
00000070: 9dc4 d3bd 07f8 e43b c626 0d3d fde2 533c
00000080: 6285 873c 8194 91bd 6af3 6e3d 68e0 27bd
00000090: c87e 65be d1f3 a23b 8b42 bf3c 6ad2 f23d
000000a0: 86e3 11be ca27 58bd 3506 a1bf 18bd 8bbd
000000b0: f22c d63d 96e0 0b3d bd17 8dbf c8e1 863e
000000c0: 8b7b 8bbe d389 35bd cd98 5b3f aa5a 663c
000000d0: 8c64 febd 77bc 223e 14c8 773f 8ceb b2be
000000e0: c9bc db3c a5fd 0dbc 886a 3ebe 4886 b0bc
000000f0: fd50 893d eb86 fdbb 1d5b a63e 3f80 323d
00000100: f876 56be f7af 6abd 085a 85bf f7b8 763e
00000110: 9200 863e 32f3 c3bd 558f 26bf 040f d7bd
00000120: a16e 453d a605 2ebd e8e5 c4bd 15ed 03bd
00000130: 2c8d 59be 9788 31be 1457 c6be 7bff 24be
00000140: 0ac5 493e 2d47 c63d f706 01bf 8d5c d33d
00000150: ef86 a33e e9f8 453d dbb7 73be d0a9 3e3c
00000160: 1547 123e 9ce1 33be 3618 2cbf d3c9 3dbd
00000170: 5d08 8a3e 65e1 803d e37a 76bf 12e3 5bbd
00000180: 1966 b7bd 9adb 8b3d f570 8e3f 7f52 5a3d
00000190: ebfe 38be b8f1 8cbd 9dd6 60be 0525 5c3e
000001a0: 04e8 e03d 1e08 873d 7839 463f 053e f83d
000001b0: cc0c f03e ced6 aabd c8ef 463e b88b ccbd
000001c0: 9109 a53e f968 a4be 3414 623f 6664 163e
000001d0: 0df4 f03c 7cd9 13be 04bb a6bd 2dbf 9bbe
000001e0: aabd 76be 7e01 413e 1863 2d3f cc13 51be
000001f0: 5ace e9bc d6e9 a8bc 934b ee3c be00 91bd
00000200: 7740 183d 569a 893c e776 66bf cd1c 9fbd
00000210: f38f 60bb 5382 683d 1a91 98bc b85e 4d3d
00000220: 4bf4 2cbd 1b3f 483c e750 453f acb3 b53e
00000230: b987 f63d 5fa0 39bc 7913 59bd 710c 193d
00000240: d070 eebc 3d92 0bbd 2b44 bdbf 1bb4 a4be
00000250: 60e6 a4bd 85ae 7a3d c741 6b3f 2c13 8dbd
00000260: 0008 47bd 2d28 863d 6a5a 55be 4e71 243e
00000270: 46d4 db3d f70c bcbd 7e34 1ebc 63db d33b
00000280: 31b8 30be 2610 a1bd b366 24be 08e2 8abd
00000290: f095 8b3e c4a7 2dbe aba9 e9bf c67c 66be
000002a0: b39c 1fbe 9579 233e 4e1c 803f 7a7b 5fbd
000002b0: f94e 31be 1682 833e 486f 9a3e 2dd4 ba3d
000002c0: 4073 263c b38a 72bd a090 e7bd 20f9 30bd
000002d0: 69b9 e83b 2c9c 963d 0e7d 7c3f dc58 ce3d
000002e0: f103 eb3d 981f 0abe 8bf8 f4bf 375e 9dbe
000002f0: 4db9 953e e517 dfbd 2dcf 1fbe d1db b43d
00000300: 24bf 9fbc 4a2b 113d d6a8 28bc 25e9 f63c
00000310: b84b d2bd 4226 1a3d 36fb 4ebe 1ee7 99bc
00000320: 7a65 e73d e3b6 24bd ce82 09bf 8a3b 65bd
00000330: 54c4 1dbf ea0c 9dbd 6c6e 863f adc5 053e
00000340: c36f 0d3c 12df 293e 98cc 823f 7e6e 563e
00000350: 7bf0 0fbd 1056 7bbd a7d8 853e 5a92 31bc
00000360: 47a5 173d 228a 7d3c 1296 53bd 53c0 933c
00000370: b587 38be 37e6 5b3e 736d 3a3f 411e a2bd
00000380: 66b6 813e b07b 0fbe cca2 45bf 959a b93e
00000390: 3e5c 0d3d a259 f8bd 0165 e2be 0c9a 4e3d
000003a0: f354 eebc a6a6 a83d 0615 94bd ff9a 3b3d
000003b0: 3477 043e 4517 40bd 2b13 08bf 3054 1ebe
000003c0: 9d9b 183e 2d15 9e3c 5c01 873f c009 4e3d
000003d0: 41b0 c5bc 5cb5 823c 0b6f 69bd e28b efbc
000003e0: 7bbe 2c3e 2868 03be 940f 8ebf f737 dfbd
000003f0: 2fa9 2f3e aa1e 00be 19ef d63e d20b d0bb
-0.036314685 0.100466065 0.095812365 -0.012902963 0.11988395 -0.08480881 0.26268038 -0.01627526
-0.07250936 0.044976823 1.7027386 0.20722681 -0.24604136 0.16647245 1.1199678 -0.120734
-0.08385895 -0.020573275 0.04851167 0.0027939053 0.2179235 -0.2372306 -0.89344794 -0.1499228
-0.04176961 0.1295383 -0.5326143 0.12564011 -0.103402354 0.006987575 0.034460805 0.012932536
0.016543094 -0.07108403 0.058337606 -0.040985495 -0.22411644 0.004972913 0.02334716 0.118565395
-0.1424695 -0.05277232 -1.2580019 -0.06823176 0.104577914 0.03414973 -1.1022869 0.26344132
-0.27242693 -0.044320893 0.8578003 0.014059702 -0.124215215 0.15892206 0.9678967 -0.34945333
0.026823418 -0.008666431 -0.18595326 -0.021548405 0.067049004 -0.0077370307 0.3249139 0.043579336
-0.2094382 -0.05729672 -1.04181 0.24093996 0.2617231 -0.0956787 -0.6506246 -0.10500911
0.048201207 -0.042485856 -0.09614164 -0.03220852 -0.21245259 -0.17337261 -0.3873831 -0.16113083
0.1970407 0.096815445 -0.5040125 0.10320387 0.31938884 0.048333082 -0.23800604 0.011637166
0.14284928 -0.17566532 -0.6722444 -0.046335053 0.26959506 0.062929906 -0.9628126 -0.053683348
-0.089550205 0.06828995 1.1128222 0.05330133 -0.18065993 -0.06882042 -0.21956868 0.21498497
0.109817535 0.06593345 0.7743144 0.12121204 0.46884763 -0.08341752 0.19427407 -0.09987587
0.3223386 -0.32111338 0.8831208 0.14686736 0.029413247 -0.14438432 -0.08141139 -0.30419293
-0.24095789 0.18848225 0.6772933 -0.20417708 -0.028540779 -0.020619314 0.029088771 -0.0708022
0.037170853 0.016797226 -0.9002518 -0.07769165 -0.0034265488 0.05676491 -0.018623877 0.05013916
-0.042225163 0.012222077 0.7707657 0.3548864 0.12037606 -0.011329739 -0.052997086 0.03736538
-0.029106528 -0.03407501 -1.4786428 -0.3216866 -0.08051753 0.06120159 0.91897243 -0.06888422
-0.048591614 0.06550632 -0.20835271 0.16058847 0.10733847 -0.0918216 -0.00965607 0.006465362
-0.17257763 -0.07864408 -0.16054802 -0.06781393 0.2726283 -0.16958529 -1.8254904 -0.22508535
-0.1558712 0.15964349 1.0008638 -0.054561116 -0.17315282 0.25685185 0.30163026 0.091225006
0.010159314 -0.059214305 -0.11306882 -0.043206334 0.0071021807 0.07354006 0.9862832 0.10075542
0.11475361 -0.13488615 -1.9138349 -0.30735943 0.29242936 -0.108932294 -0.15606375 0.08830989
-0.019500323 0.035441674 -0.01029416 0.030140469 -0.102683485 0.03763414 -0.20213017 -0.018786963
0.11298652 -0.040213477 -0.5371522 -0.055964984 -0.616277 -0.07668479 1.0502448 0.13063689
0.008632603 0.16589001 1.0218687 0.20940587 -0.03514145 -0.061361372 0.26141855 -0.010838116
0.037022855 0.015474828 -0.05165679 0.018036043 -0.18020518 0.21474539 0.72823256 -0.07915927
0.2533447 -0.14012027 -0.77201533 0.3625075 0.034511797 -0.12126471 -0.44217685 0.05043988
-0.029093241 0.08234911 -0.072305724 0.045802113 0.12936097 -0.04689719 -0.5315425 -0.15461802
0.14903112 0.019297207 1.054729 0.050302267 -0.024131896 0.01595562 -0.056990664 -0.029241506
0.16869538 -0.12832701 -1.1098504 -0.10899346 0.17154382 -0.12511697 0.41979292 -0.0063490653

net.0.bias f4 [64]
00000000: 00bc b63e 4ce4 883e 1a2a 71be 0dbf 79bd
00000010: 45ec 97be 9167 673e ba21 02be d7c6 e73e
00000020: 97c3 a43e 4d01 b3be 7077 bbbe 30cf 0c3b
00000030: 5cfd 0cbf ac35 5fbe 7e0e 16be d111 793e
00000040: 37b4 4cbe 4609 35be 78ea b7bd 3780 92be
00000050: e5b7 b33c 3783 2abf 0e87 083e 3528 03bf
00000060: 1d92 893e fb5f 0abf a350 f8be 6614 1ebf
00000070: 1a54 9d3c 98ef 1ebe 92ec 2a3d ed53 86be
00000080: 3a49 8d3e f1f7 0bbe 54f9 a5be 28c5 cd3e
00000090: b475 03bd 8d0c 203e 265e 99be dae0 073f
000000a0: f790 02bf 732f bebe 3fb2 143e 0ad2 88be
000000b0: 5b28 f5bd c6f2 a73e 4c25 c3be 0648 98be
000000c0: 5e25 ebbd b943 a23e d1bb 403e 4d21 c6be
000000d0: ccb2 23be 175e e53e b790 93be 1b79 bdbd
000000e0: e4c3 753c 5c00 cabe c590 0fbe 796c b53e
000000f0: 4c09 fbbe 4971 40be dce3 883e 18f3 b4be
0.35690308 0.26736677 -0.23551217 -0.060973216 -0.29672447 0.22598101 -0.12708178 0.4526889
0.32180473 -0.3496193 -0.3661456 0.0021485798 -0.55074096 -0.21797818 -0.14653966 0.24323203
-0.19990622 -0.17679319 -0.08980268 -0.28613445 0.021938274 -0.6660647 0.1333277 -0.51233226
0.26869288 -0.54052705 -0.4849902 -0.61749876 0.019205142 -0.15521085 0.041729517 -0.26235905
0.2759493 -0.13668801 -0.32416785 0.4018948 -0.032094672 0.15629788 -0.29954642 0.5307747
-0.5100245 -0.37145576 0.1452112 -0.26722747 -0.11970588 0.3280241 -0.38114393 -0.2974245
-0.114817366 0.31692293 0.18821646 -0.3869728 -0.15986174 0.44798347 -0.28821346 -0.09251615
0.015000317 -0.394534 -0.14020069 0.3543432 -0.4903053 -0.18793215 0.26736343 -0.35341716

net.2.weight f4 [64, 64]
00000000: 493f 40be 806c 30be 1ac3 d53e 439d f63d
00000010: 65da d33c cf70 22be 4cb8 fbbe 2555 8ebe
00000020: 9a4c d6bd 8f85 2a3d eff6 3abd 1589 83be
00000030: 36b5 91be 0b58 71bd 2763 2dbe 1277 d4bd
00000040: 6e1d 8dbd 1e9a 12bf 9d75 1abe 2a26 65be
00000050: 8975 d13a ad1e 923d 7f76 26bf 92d4 53bf
00000060: 9aa9 6c3e 3c83 f5be dd77 1f3f 0b6c 763e
00000070: db38 ebbe 5145 a2ba 2fe3 b63d bbd3 063e
00000080: c719 27bf 24c2 923d f786 a0be a955 5b3d
00000090: eca5 f0bd a7d7 a4bd 6b84 67be e22c 51be
000000a0: 2efc 9d3d 6dd6 83be 6aed 623c 6543 12be
000000b0: 4d8a 053d ac1a 023f 25f9 943d 65cd 943d
000000c0: 3fc5 5dbd 279a 28be 826a dabd 149a fcbe
000000d0: c95a cabd 9db1 0cbe 0a4d de3d 2b5e fd3d
000000e0: 2808 38bd 5209 dfbe 330a 9ebb cd81 02bf
000000f0: c87e c43f 4c96 21bc cb62 6abe 024e e53e
00000100: e7d1 bf3d ca9b ed3d 496e 4dbe f0e1 4a3e
00000110: 6506 543c 2b03 6f3d acaf 7ebb 3622 1dbe
00000120: ee9c 17be d045 3ebc 2051 b3bd 387b bcbd
00000130: 035c eb3d 78d7 b6bd 9aad 353d 2c0d febd
00000140: 387e 483d 7d40 163d 3b05 47bd 25b9 0ebe
00000150: cd6a 8abd 45d6 12bd 700b c2bb 4686 17be
00000160: 2ed5 97bd 2980 563d 7f25 273e ff63 27be
00000170: bf2f b7bd 554d abbd d43f 71bd c08a 51bd
00000180: 10e6 35be b7b1 be3c ccbb 70bd be3a 18bd
00000190: 8a6b 5bbe be71 2c3e cc67 7e3e 936d 60be
000001a0: 86b4 21bc 5b90 6bbd 5616 93bd 8011 bb3c
000001b0: 73ef bd3d 2787 27bb 8085 30be 3009 39be
000001c0: 0444 463e 974d 28be e5aa 07be 1197 57bd
000001d0: 8cbc 0cbd d3ce 6ebc ee43 113e 4e7b 9abd
000001e0: 6907 4ebe bb7e 7cbd c8c9 443e 2949 db3d
000001f0: 6e96 163e 6f7d d4bd 4aa1 51be 11f6 c33d
00000200: be9b 43be 3048 32bf e053 b4be 5567 6dbf
00000210: 3955 bcbd edfc 17bf 0bea 7a3d afa7 23be
00000220: b373 2cbe 79e3 393f e90d 2240 4975 debe
00000230: f520 ac3f 6922 44bf ea2c e73d 0ccd b7be
00000240: 54b7 8bbe c8a9 41bd cb3a 813c 9be0 e3be
00000250: 5aee d3be 80de b6bd a3d0 8bbe bfc7 263f
00000260: 5336 c2be fd26 253d cd0c 093f 3f1f 27be
00000270: 0edc 363c 3e09 f33d 5a92 30bf 8bf4 723d
00000280: 80e7 97be f0a2 183e 1bb7 073e ec60 f3be
00000290: 11ff 213f 776b 4dbe e786 a63e 938d 1dbe
000002a0: 4610 a43f 42ff 6e3f 34e9 9dbd e571 84bd
000002b0: 5933 9a3d a458 a4be 330c 963e 2238 65be
000002c0: 02bf d3bd d977 3c3d 897c 4bbf 7815 5b3f
000002d0: 9e73 273e 486c 0cbe e3b1 0dbd 3561 f8be
000002e0: b8cd 87bf bf8f 92be de93 92bd 449a 62bf
000002f0: a7f9 2f3f 4032 76bd 51b2 57bf bf84 ad3e
00000300: ed52 d6bc 19fd 763d b9a7 51bd 70fe 5b3d
00000310: ac22 bdbd b177 14bd 833e f23c d42b d8bd
00000320: 7a72 b7bd 70c4 81bd 83d5 6dbc 7268 46bc
00000330: c1ec d63d c2ef b8bd b85d e1bd a99e 203c
00000340: 3396 d43c 607f bdbd bb7d f43d b860 36be
00000350: 501c 0ebd ea36 5bbd 9f45 ca3c 4739 adbd
00000360: 5900 54be 0d7a 2f3d f89e 35bd ac17 8a3d
00000370: 9a82 1e3e 729e 913c 9f3e f43c 249c febd
00000380: c1d3 f8bc 4c42 813e bd4e 063c c5fa 56be
00000390: 9f26 53bd ac36 f5bd 2317 28bd 1300 34be
000003a0: fd9f e3bc b8c6 553d bf11 23bc 83ca 99bd
000003b0: 22ac 643b 938a 37bd 6097 6dbd 47cb 903d
000003c0: 15ec 643e 846b 3ebd 2b4d bebd e061 0cbe
000003d0: e975 77bd 3495 153d 6af5 ecbc b08e 72bb
000003e0: deb7 1fbb cccc 82bd 5dde 6abd b3b1 19be
000003f0: ec3e 31bd f7af 533b 6458 e13d fe68 a93d
-0.18774141 -0.1722889 0.41750413 0.12041714 0.025860975 -0.15863346 -0.49164045 -0.27799335
-0.10463829 0.041631278 -0.04564565 -0.25690523 -0.28458565 -0.058921855 -0.16932355 -0.10374273
-0.06890379 -0.57266414 -0.15083928 -0.2237784 0.0015980463 0.07134757 -0.6502456 -0.8274623
0.23111573 -0.47951686 0.6229227 0.24064653 -0.45941815 -0.0012380277 0.089300506 0.13166706
-0.6527371 0.07165936 -0.3135297 0.05354849 -0.11750397 -0.08048945 -0.22609107 -0.20427278
0.07714115 -0.2574953 0.013850549 -0.14283521 0.032602597 0.5082195 0.07274083 0.072657384
-0.054143187 -0.16465054 -0.10664846 -0.49336302 -0.09880597 -0.13739629 0.10854538 0.12371477
-0.044929653 -0.43561798 -0.004822993 -0.5097931 1.535119 -0.009862494 -0.22889249 0.44786078
0.093662076 0.1160198 -0.20061602 0.19812751 0.012940978 0.05835263 -0.0038862033 -0.15345082
-0.14805958 -0.011613324 -0.08755708 -0.092031896 0.11492159 -0.08927816 0.044355012 -0.12404856
0.048948497 0.036682595 -0.048588973 -0.13937815 -0.06758652 -0.035848875 -0.0059217736 -0.14797315
-0.07413708 0.052368317 0.16322897 -0.16346739 -0.08944654 -0.08364359 -0.058898762 -0.051157713
-0.17763543 0.0232781 -0.058772847 -0.037165396 -0.21427742 0.16840264 0.24844283 -0.21916799
-0.0098697 -0.057510715 -0.071819946 0.022835493 0.09274187 -0.0025562735 -0.17238426 -0.18069911
0.19361883 -0.16435848 -0.13248785 -0.052634303 -0.0343595 -0.014575678 0.1418607 -0.0754305
-0.20120014 -0.061644297 0.19217598 0.107073136 0.14705822 -0.10375487 -0.20471683 0.09568418
-0.1910238 -0.696414 -0.35220242 -0.927358 -0.091959424 -0.5937031 0.061258357 -0.15981935
-0.16841011 0.7261272 2.532099 -0.43448856 1.3447558 -0.76615006 0.112878636 -0.35898626
-0.27288306 -0.047281057 0.015775105 -0.44507298 -0.41392785 -0.08929157 -0.27307615 0.6514854
-0.3793207 0.040320385 0.5353516 -0.16320513 0.011160864 0.11866997 -0.68973315 0.059315246
-0.29668808 0.14905906 0.13253443 -0.47534883 0.63279825 -0.20060526 0.32524797 -0.15386038
1.2817466 0.9335824 -0.077104956 -0.06467036 0.07529325 -0.32098877 0.29306182 -0.22384694
-0.10339166 0.046012733 -0.794869 0.85579634 0.16352698 -0.13713181 -0.034593474 -0.48511663
-1.0609655 -0.28625295 -0.0715711 -0.8851664 0.68740314 -0.060106516 -0.84256464 0.3389034
-0.026162589 0.060299966 -0.051185343 0.053709447 -0.09235129 -0.03624696 0.029570824 -0.105552346
-0.089573815 -0.063362956 -0.014516237 -0.012109863 0.10494376 -0.09030105 -0.110042036 0.0098034525
0.025950527 -0.092528105 0.11938044 -0.17810333 -0.03469497 -0.053519167 0.024691401 -0.084581904
-0.20703258 0.042841006 -0.044341058 0.06742796 0.15479508 0.017775748 0.029815016 -0.12432125
-0.03037441 0.25245893 0.008197484 -0.20994098 -0.051550504 -0.119733185 -0.04103769 -0.17578153
-0.02778625 0.052191466 -0.0099529615 -0.07509329 0.0034892638 -0.04480989 -0.05800569 0.07070022
0.22355683 -0.046489254 -0.09292062 -0.13709211 -0.060415182 0.036519244 -0.028925616 -0.0037011318
-0.0024371068 -0.06386718 -0.05734097 -0.15009193 -0.043272898 0.0032300928 0.11003187 0.08271979

net.2.bias f4 [64]
00000000: e554 0dbe 7cd1 823d 2222 7bbe e8ec ccbd
00000010: 53e1 f43e 68d4 b43e c764 25be a0a3 883e
00000020: 609a 0bbe fdb3 203f 6133 573e a09a c53e
00000030: c53a e43e 5b02 923e dd19 85be 8d7b 9b3d
00000040: fc6b fcbd fdf3 b93e 4218 56bb a15c d63e
00000050: 8d4a 1f3c 6a9b 5fbd 27b6 ec3e 2b4d b03e
00000060: bf5c cf3e bd80 313d 4005 733e 76a6 213e
00000070: c0d7 34bd fd06 9e3e 7aaf b2bd 5399 f03e
00000080: a519 aabd c0b2 bd3e d8fa babd 089e 64bd
00000090: 2eeb de3e 0e1e 9cbd 9577 bb3e a76b e13e
000000a0: 5738 95be f5ef b13e 3e7e 93bd 75f0 04be
000000b0: 07c4 fc3e addc bb3e a2e0 eebd 3c1c e63e
000000c0: bd74 86bd 3174 a3bd cc28 0c3f a860 ff3e
000000d0: 74ff f5bd 843d 46ba 42b0 debd dc85 d93e
000000e0: e8be 3ebd f004 fe3e 8532 0dbe 7a36 d5bd
000000f0: 03c9 fe3e 97cf 23be f20d c93e 05a5 923e
-0.13801916 0.06387612 -0.2452474 -0.10006124 0.4782816 0.35318303 -0.16151725 0.26687336
-0.13633108 0.6277464 0.21015693 0.38594532 0.44576088 0.28517422 -0.25996295 0.07591925
-0.12325284 0.3631896 -0.0032668267 0.41867545 0.009722364 -0.054591574 0.4623272 0.34433874
0.40500447 0.043335665 0.23732471 0.15786156 -0.044151068 0.30864707 -0.08724876 0.46991977
-0.083056726 0.37050438 -0.09129876 -0.055814773 0.43538803 -0.0762292 0.3661467 0.44027445
-0.29144546 0.34753385 -0.07201813 -0.12982352 0.49368307 0.366918 -0.11663939 0.44943416
-0.06565235 -0.07981146 0.5474975 0.4987843 -0.120116144 -0.0007562267 -0.10873462 0.4248494
-0.04656878 0.49613142 -0.13788803 -0.10410781 0.49762735 -0.15997158 0.39268452 0.28641525

net.4.weight f4 [2, 64]
00000000: a657 18bf 69ea d6bd f2fd 16c0 aa1b 253e
00000010: 2f7d 3b3f 9bfc 7d3f aee1 40c0 1294 3c3f
00000020: 3c79 7f3e cacb 703f 8f25 eebf 1155 5b3f
00000030: 8a50 e03e 8a58 823f 0e67 14c0 2dfe 8c3c
00000040: 1cdc 873d b682 303f de3d 983d d9c9 8f3f
00000050: d74b 21bd 4b47 f9bd d225 0d3f f50b 873f
00000060: 81a3 9e3f 5821 b6bc 97af 593f f70e b4bd
00000070: fd53 993d 01a7 893f 47a7 25c0 38b7 703f
00000080: 3d28 75c0 32b0 d03e 5da9 9dbf 84ba 2fc0
00000090: dce6 4a3f 1114 583e 3970 493f 5f73 393f
000000a0: bdd5 8ebe 4d30 3f3f 1e8c a53e 9ded 1bbd
000000b0: c4ad 88bc a799 3f3f 78f9 2e3d 1483 443f
000000c0: f1b2 56bc 6242 e5bc c5a1 6e3f 9472 623f
000000d0: ec0f 89bd 61a3 d8bf a8bc cebc 7228 3c3f
000000e0: 06a7 1d3c 5234 6d3f b9db 9ebb 5d6e 9dbd
000000f0: e2e2 2c3f 6759 d8ba b796 ad3e 0b10 583f
00000100: b898 4e3f 9f0a ac3c 3bb1 cabf d53a 0cbe
00000110: 3414 663f 540f 433f 4c3e 6dc0 b275 d83e
00000120: 3950 80be ddbc 6d3f 5216 02c0 a032 ba3e
00000130: b3b2 6f3f 99e0 af3e adcf 01c0 242f 0cbe
00000140: 7f25 283e cb1c 7e3f 0658 a6bd 6bf4 503f
00000150: 4fdc a73c 8546 12be a5c6 7c3f 9489 903f
00000160: 1c47 f73e dd68 15be 20e5 223f 7491 ff3b
00000170: 569f 91bb 4437 eb3e 1680 f6bf 0d17 ae3f
00000180: ced5 8ac0 2915 703f 3ebf 9dbf 0d07 bebf
00000190: 17f6 543f 2342 763d ab1d 463f 4cc4 073f
000001a0: b898 35c0 1339 113f 61aa 53be cfaa a93d
000001b0: abfa 8b3f c0cd 353e 1bef cf3c f04e 3d3f
000001c0: 4ce0 05bc a4ff 043d 99ce 653f 92df 963f
000001d0: c57a 1bbe 02fa 0fc0 de84 a13d d1d0 233f
000001e0: 0739 273d 9291 4d3e 400f 4b3d bd41 823b
000001f0: cfff 493f fb58 f13d e8d0 783f cd50 fe3e
-0.5950874 -0.10493929 -2.3592496 0.16123834 0.7323789 0.9921357 -3.0137744 0.7366344
0.24948591 0.9406096 -1.8605212 0.85676676 0.43811446 1.018327 -2.31879 0.017211044
0.066337794 0.6894945 0.07433675 1.1233474 -0.039378967 -0.12171801 0.55135834 1.0550524
1.2393647 -0.022232696 0.85033554 -0.08791917 0.074867226 1.075409 -2.5883348 0.9402957
-3.830581 0.40759426 -1.231731 -2.745759 0.79258513 0.21101405 0.78686863 0.7244167
-0.27897444 0.74683076 0.32333463 -0.038068403 -0.01668442 0.7484383 0.04271838 0.7676251
-0.013104186 -0.027985755 0.9321559 0.8845608 -0.0669249 -1.6924859 -0.025236443 0.73499215
0.009622341 0.9265796 -0.0048479703 -0.07687066 0.67533696 -0.0016506136 0.3390405 0.8439948
0.8070178 0.021001158 -1.5835336 -0.13694318 0.8987458 0.76195264 -3.7069273 0.42277294
-0.25061205 0.9286631 -2.0326123 0.3636675 0.9363205 0.34351042 -2.0283005 -0.13689858
0.16420554 0.99262685 -0.08122258 0.8162295 0.020490794 -0.14284714 0.9874061 1.1291986
0.4829644 -0.14590783 0.63630867 0.007799322 -0.004444043 0.45940602 -1.9257839 1.3600785
-4.338599 0.9378229 -1.2323987 -1.4845902 0.83188003 0.060121667 0.7738902 0.530339
-2.8374462 0.56727713 -0.20670463 0.08284532 1.0935873 0.17754269 0.025382569 0.73948574
-0.008171152 0.03247036 0.8976837 1.1786978 -0.15183552 -2.2496343 0.078866705 0.63990504
0.04082587 0.20075062 0.04957509 0.003975122 0.7890596 0.1178455 0.97193766 0.4967102

net.4.bias f4 [2]
00000000: 178a ab3e 1a41 293e
0.33503792 0.1652874

exp_avg f4 [64, 4]
00000000: e213 b53d 3179 b23c f77a 8d3b 1385 7b3c
00000010: d24e ac3d fde3 ba3c b542 863b 8924 453c
00000020: 0400 0080 0400 0080 0400 0000 0400 0000
00000030: f45e 173d f673 383c 9c3d fe3a 0ee9 473b
00000040: 0400 0080 0400 0080 0400 0080 0400 0000
00000050: 931c 563d 00fd 563c 917c 583b 1e42 433c
00000060: 0400 0080 0400 0080 0400 0080 0400 0000
00000070: 5e41 0e3e e302 073d 74d0 de3b e92d d73c
00000080: 1148 a03d 2932 9b3c 5cb8 7c3b 3044 613c
00000090: 65e9 a3bd 56b3 bcbc 1425 5ebb 8196 2cbc
000000a0: c443 ebbf 29bf 0ebf c521 aebd d479 7abe
000000b0: 141d e039 3ce3 0b3b bff7 ba36 4f89 27bb
000000c0: 38c2 edbf ddc5 13bf 83c3 a4bd 84d7 62be
000000d0: 4c5e 22bd 0f0e 2bbc 056d ebba 44e2 19bc
000000e0: 0400 0000 0400 0000 0400 0000 0400 0000
000000f0: 4731 883d a37f 9e3c 397b 533b 2502 f33b
00000100: 4460 223d 767a 293c 1f83 033b bc2c f03b
00000110: 0400 0000 0400 0000 0400 0080 0400 0080
00000120: 0400 0080 0400 0080 0400 0080 0400 0000
00000130: 59c4 4cbd f94c 83bc e144 17bb 40ff b4bb
00000140: f601 4838 a796 83b8 363a 8035 9abd 0b39
00000150: 0400 0080 0400 0080 0400 0080 0400 0000
00000160: 56d6 463d bf7c 7e3c 1fcf 293b dfc9 d03b
00000170: 0400 0080 0400 0080 0400 0080 0400 0000
00000180: 1111 113d b205 253c 04a4 d83a 40d8 873b
00000190: 0400 0080 0400 0080 0400 0080 0400 0000
000001a0: 0400 0000 0400 0080 0400 0000 0400 0000
000001b0: 0400 0080 0400 0080 0400 0080 0400 0000
000001c0: a613 493a 9fd0 b93a d711 1638 f47f 8aba
000001d0: a754 a7bb 1091 a7ba ef1c 52b9 bbc0 87ba
000001e0: f49e 743d 416b 973c b960 423b 5e16 b63b
000001f0: 0400 0080 0400 0080 0400 0080 0400 0000
00000200: ada1 a33d 1be8 933c 7140 823b 893d 893c
00000210: 0000 0000 0000 0000 0000 0000 0000 0000
00000220: 0400 0080 0400 0080 0400 0080 0400 0000
00000230: 0dde 113e 3321 143d 7cad e43b 9580 c53c
00000240: 29ee a1bd f092 c4bc 7da3 79bb 61de 03bc
00000250: ba47 523c 1a86 673b 54ee 103a 24a1 e43a
00000260: 0400 0080 0400 0080 0400 0000 0400 0000
00000270: 2a0a 373e 80a6 303d fba3 0f3c 2570 063d
00000280: 11e1 41bf 5e49 49be e0e1 0dbd 4ed7 18be
00000290: 0400 0080 0400 0080 0400 0080 0400 0080
000002a0: 200e e23b fb21 043b 7ee3 9339 ddf5 d438
000002b0: 0400 0080 0400 0080 0400 0080 0400 0080
000002c0: 0000 0000 0000 0000 0000 0000 0000 0000
000002d0: a557 c33d 8c90 e53c 04e4 943b 37fc 2b3c
000002e0: 7ca6 c885 5609 d884 9c79 0284 f66d f384
000002f0: 0400 0080 0400 0080 0400 0000 0400 0000
00000300: 0400 0080 0400 0080 0400 0080 0400 0080
00000310: 050a ab3d a618 9c3c 93ed 863b e911 863c
00000320: 750f 5e3d 6cc6 683c d8b0 2d3b 21bc 1a3c
00000330: cb75 a8bd 6e65 bdbc c4d7 85bb d84a 4dbc
00000340: 0400 0080 0400 0080 0400 0000 0400 0000
00000350: d9db 083e 0e54 003d 5eb0 d63b e2ba cf3c
00000360: 0000 0000 0000 0000 0000 0000 0000 0000
00000370: 5a76 0d3d aa90 3a3c 49c1 083b f44b 523b
00000380: 6137 edb9 0880 4dbb 09a3 64b8 0da6 5b3b
00000390: 0400 0080 0400 0080 0400 0080 0400 0000
000003a0: 0400 0000 0400 0000 0400 0000 0400 0080
000003b0: d040 e03d 1e4f e13c be7e b23b 93d4 9b3c
000003c0: 0400 0000 0400 0000 0400 0000 0400 0080
000003d0: 0400 0000 0400 0000 0400 0080 0400 0080
000003e0: 487c 8c3d 822e 8c3c f44c 603b 61cc 563c
000003f0: 0400 0080 0400 0080 0400 0000 0400 0000
0.08841683 0.021786304 0.004317637 0.015351552 0.08413471 0.022813791 0.0040973076 0.012032636
-6e-45 -6e-45 6e-45 6e-45 0.03695579 0.011258116 0.0019397023 0.0030503902
-6e-45 -6e-45 -6e-45 6e-45 0.052273344 0.013121843 0.0033033232 0.011917619
-6e-45 -6e-45 -6e-45 6e-45 0.13892123 0.032961737 0.006799752 0.026267009
0.078262456 0.018944817 0.0038562035 0.013749167 -0.08003501 -0.023034733 -0.0033896612 -0.01053393
-1.8380055 -0.5576044 -0.08502535 -0.24460536 0.00042746274 0.002134516 5.5720734e-06 -0.002556402
-1.8574896 -0.5772379 -0.080451034 -0.22152525 -0.03964071 -0.010440364 -0.0017961568 -0.009392325
6e-45 6e-45 6e-45 6e-45 0.06650024 0.019347971 0.0032269491 0.007416027
0.039642587 0.010344138 0.0020067168 0.0073295515 6e-45 6e-45 -6e-45 -6e-45
-6e-45 -6e-45 -6e-45 6e-45 -0.04999194 -0.016027914 -0.0023081827 -0.0055235922
4.7685542e-05 -6.274628e-05 9.553685e-07 0.00013326705 -6e-45 -6e-45 -6e-45 6e-45
0.04854425 0.0155326715 0.0025910807 0.006371721 -6e-45 -6e-45 -6e-45 6e-45
0.035416666 0.010072159 0.0016528373 0.004145652 -6e-45 -6e-45 -6e-45 6e-45
6e-45 -6e-45 6e-45 6e-45 -6e-45 -6e-45 -6e-45 6e-45
0.00076704693 0.0014176554 3.57794e-05 -0.0010566697 -0.005106527 -0.0012784321 -0.00020037939 -0.0010357121
0.059721902 0.01848376 0.0029659702 0.0055568656 -6e-45 -6e-45 -6e-45 6e-45
0.079898216 0.018055012 0.003974967 0.016752975 0.0 0.0 0.0 0.0
-6e-45 -6e-45 -6e-45 6e-45 0.14244862 0.036164474 0.0069786888 0.024109164
-0.079067536 -0.023995847 -0.0038091831 -0.008048625 0.012834484 0.0035327733 0.0005528678 0.0017443043
-6e-45 -6e-45 6e-45 6e-45 0.17874971 0.043127537 0.008767123 0.032821793
-0.7573405 -0.19656894 -0.03463924 -0.14925882 -6e-45 -6e-45 -6e-45 -6e-45
0.0068986565 0.0020161856 0.0002820752 0.00010154743 -6e-45 -6e-45 -6e-45 -6e-45
0.0 0.0 0.0 0.0 0.09538201 0.028023027 0.004543783 0.010497144
-1.8869066e-35 -5.078993e-36 -1.5337267e-36 -5.723001e-36 -6e-45 -6e-45 6e-45 6e-45
-6e-45 -6e-45 -6e-45 -6e-45 0.083515204 0.019054722 0.0041176765 0.016365962
0.05421396 0.014207464 0.0026503112 0.0094442675 -0.08225592 -0.023119655 -0.004084559 -0.012530051
-6e-45 -6e-45 6e-45 6e-45 0.13365115 0.03133016 0.0065517863 0.025357667
0.0 0.0 0.0 0.0 0.034536697 0.01138703 0.002086716 0.0032088729
-0.00045245423 -0.003135683 -5.4511274e-05 0.0033515722 -6e-45 -6e-45 -6e-45 6e-45
6e-45 6e-45 6e-45 -6e-45 0.10949862 0.027503546 0.0054472378 0.019022262
6e-45 6e-45 6e-45 -6e-45 6e-45 6e-45 -6e-45 -6e-45
0.06859642 0.01711202 0.0034225555 0.013110251 -6e-45 -6e-45 6e-45 6e-45

exp_avg_sq f4 [64, 4]
00000000: d48b b23e e25a 853d 33a5 4c3a 17a8 003c
00000010: eea7 8b3e 4dbb 463d df48 3c3a 3cb3 c83b
00000020: 09e9 e139 af37 4a3b b3d0 2839 bc04 9f3b
00000030: 75a4 123e 24e5 a93c 857a 0d3a 5849 a73b
00000040: 10ef fd2d c4ea c42d 000d 0327 b606 342b
00000050: 5d7c 5c3e 0c4d f03c 2a40 d339 a49c ec3b
00000060: caea b732 e6e0 0633 1ddd 6430 1807 2833
00000070: 789b 673f fe9e 2b3e 3aa3 e43a 1178 a33c
00000080: 744c 9f3e d3be 623d d8f5 363a 2cdf fe3b
00000090: 2f30 a23e 52bc 263d d78b 913a 1234 403c
000000a0: ba15 d042 d436 6d41 6b30 a13e 76fc 4840
000000b0: 92ce 2839 4e24 113a a810 6b37 5cd6 c639
000000c0: 3a1d e942 e6b8 8441 028a a83e 9e12 6940
000000d0: 8cc2 753d 80fa ca3b a4f1 3039 5b68 493b
000000e0: 390e b910 2f4e 8e0f b468 4a0d f41a 160e
000000f0: a7d1 2c3e 5c06 f23c 7659 103a 2367 843b
00000100: 35c4 bc3d 2e7e 4f3c 1203 2f39 517d 2c3b
00000110: 487b 0238 28cc 8739 f055 0b38 e357 4f3a
00000120: 4526 5802 2339 4205 afab a301 56be 9e05
00000130: 0a1e ac3d 5b97 823c 7452 c438 f58a 573a
00000140: 6992 5a35 6ad4 2d37 1e3d 1035 e5b4 9137
00000150: d897 522e 31bc f42d a27a e729 0593 e12a
00000160: f9a5 963d ef07 433c b09e 7639 c082 2a3b
00000170: b71a c22d 6854 622d 7ee6 5129 79d0 5d2a
00000180: 433e 3d3d a136 2b3c 05b4 3839 6ece 9a3a
00000190: 2eed e63a cee4 313a 4658 c836 353c c137
000001a0: c224 b52e f03b 232c 88ad 912c 4a1e ca2f
000001b0: ac6a a12c b903 3b2c e28d 3828 02be 4b29
000001c0: 5bc3 8639 04de 2e3a ba6f 3d37 32df b839
000001d0: 45ae 263d 19cc ea3b 88ed 2639 110e 6e3a
000001e0: 4be4 3d3e 51fd e13c 1f68 223a e529 bf3b
000001f0: e02f 2a25 3770 f524 09a1 bf1f 6d79 0922
00000200: c5a8 ba3e 9d51 723d 4f26 193a 22c6 163c
00000210: 0000 0000 0000 0000 0000 0000 0000 0000
00000220: 88e5 7b38 9a09 bb39 07ff 4f37 0a79 073a
00000230: 4074 5e3f dcb9 193e bd84 fb3a e0c7 a73c
00000240: c152 903e 929d 373d fcea 583a fc57 153c
00000250: 0827 173c c574 1a3b c1e9 1f38 5f2c 1e3a
00000260: 5958 2619 c76e 391c 08e1 2d18 3f9d b01c
00000270: cd7a be3f c0d1 883e b148 443b f4be 0b3d
00000280: 37e3 4242 de95 d640 e781 3c3e e17f f33f
00000290: 81d2 8f3b de3d 893c 0d6d dc3a 0636 fe3c
000002a0: 5255 543c 5f2c 283b 92bc 4938 2f5f 353a
000002b0: 995d d037 ca4e cf35 1116 b732 4de6 3435
000002c0: 0000 0000 0000 0000 0000 0000 0000 0000
000002d0: 6d5e a73e b450 7f3d 94c6 963a 58d5 f03b
000002e0: a291 c13b b50a 393b a53e 8539 1bb6 993b
000002f0: a1a5 1d33 eb38 6835 71a7 8432 802c b135
00000300: f295 aa31 82ee 3030 14de 812d dd6f c22e
00000310: 2f77 c23e 428a 8e3d 7e95 3c3a 293b 133c
00000320: 490b ef3d bc2e 993c ae2e 7839 c274 3b3b
00000330: 426e 9b3e 7cd6 2e3d cb58 123a 022b 083c
00000340: 0ca5 2939 e7fc 953a fdc0 8338 25d7 f33a
00000350: 189e 5e3f 5651 263e bbe5 e13a 74c3 a13c
00000360: 0000 0000 0000 0000 0000 0000 0000 0000
00000370: 1a05 dc3d 75ff 4e3c f3fd c139 30a2 923b
00000380: 6c11 063a ab5e a63a 83ac 9737 fdcd ea39
00000390: d549 5c2e 1ff2 9e2e fb7f b128 03ad 232d
000003a0: e3d2 af0b 8cf4 f50d fb0f 9a09 4b2f f80d
000003b0: d9a8 1b3f d08b c03d f4ba aa3a e8d2 903c
000003c0: cc86 312d 4019 d72c 3aeb aa28 d017 be29
000003d0: 4049 3005 7914 4509 cf7e 1805 02b1 a809
000003e0: 26cd 783e b3ee 0b3d 47fe db39 8f16 e63b
000003f0: 010b 8c21 9dcf e223 1a0f d520 4594 0124
0.34872305 0.06511475 0.0007806599 0.007852576 0.27276558 0.048518468 0.00071824895 0.006124882
0.0004308897 0.0030855944 0.00016099475 0.0048528593 0.14320548 0.020739146 0.000539698 0.005105179
2.8868935e-11 2.2386877e-11 1.818695e-15 6.395816e-13 0.21531816 0.029333614 0.00040292862 0.0072208215
2.1410774e-08 3.140385e-08 8.326014e-10 3.9122e-08 0.904716 0.1675987 0.0017443665 0.019954713
0.31113017 0.055357765 0.00069793826 0.007778069 0.31677386 0.04070694 0.0011104298 0.0117311645
104.042435 14.825886 0.31482252 3.140409 0.00016098682 0.0005536721 1.401097e-05 0.00037925213
116.55708 16.590282 0.32917792 3.6417613 0.059999987 0.0061944127 0.00016874686 0.0030732367
7.299155e-29 1.4032396e-29 6.2372088e-31 1.8501905e-30 0.16876851 0.029544048 0.0005506495 0.004040615
0.09217111 0.012664361 0.00016690444 0.0026319812 3.110923e-05 0.00025901315 3.3220218e-05 0.00079095195
1.5880157e-37 9.1323305e-36 6.01231e-38 1.4928167e-35 0.08404167 0.015941313 9.3613664e-05 0.00082223053
8.1424383e-07 1.036106e-05 5.373312e-07 1.7369583e-05 4.7883336e-11 2.7823162e-11 1.0279734e-13 4.0070044e-13
0.073558755 0.011903747 0.00023519504 0.0026017874 2.206711e-11 1.2865355e-11 4.6607243e-14 1.9701072e-13
0.046201956 0.010450036 0.0001761467 0.0011810788 0.0017618292 0.0006786109 5.970741e-06 2.3035429e-05
8.2374566e-11 2.3196965e-12 4.1404137e-12 3.6765108e-10 4.587738e-12 2.6576365e-12 1.0244818e-14 4.523986e-14
0.00025704023 0.0006670656 1.1291291e-05 0.00035261508 0.04069354 0.0071654436 0.00015919481 0.00090810756
0.18544118 0.027586611 0.0006195325 0.0058338516 1.476137e-16 1.0644191e-16 8.115806e-20 1.8631244e-18
0.36456886 0.059159864 0.0005842195 0.009202512 0.0 0.0 0.0 0.0
6.005683e-05 0.00035674573 1.239754e-05 0.00051678775 0.86896133 0.15012306 0.0019189339 0.02048105
0.28188136 0.044828005 0.00082747615 0.009115215 0.009225614 0.0023568135 3.8126254e-05 0.00060338335
8.5998405e-24 6.135454e-22 2.2473338e-24 1.168735e-21 1.4881226 0.26722527 0.0029950554 0.034117654
48.72189 6.7057943 0.18408929 1.90234 0.0043891077 0.016753133 0.0016817168 0.03103162
0.012959795 0.0025661213 4.8097754e-05 0.00069187855 2.4839117e-05 1.5445632e-06 2.1314039e-08 6.7390357e-07
0.0 0.0 0.0 0.0 0.3268923 0.062332824 0.0011503273 0.0073496513
0.0059072534 0.0028235142 0.0002541441 0.004690898 3.670505e-08 8.650956e-07 1.5442966e-08 1.3200479e-06
4.964698e-09 6.4367367e-10 1.4764225e-11 8.8419695e-11 0.37981555 0.06959964 0.0007193907 0.008986273
0.11672074 0.018699042 0.00023668513 0.0028603529 0.30357558 0.042685017 0.0005582689 0.008311035
0.0001617858 0.0011443169 6.282514e-05 0.0018603547 0.8695998 0.16241965 0.0017234603 0.01974652
0.0 0.0 0.0 0.0 0.107431605 0.012634148 0.00037001036 0.0044749007
0.00051142904 0.0012693008 1.8080935e-05 0.0004478543 5.0087785e-11 7.2280175e-11 1.970645e-14 9.303894e-12
6.7724855e-32 1.5158163e-30 3.708918e-33 1.5295565e-30 0.60804516 0.09401667 0.0013025687 0.017678693
1.0091216e-11 6.113471e-12 1.8975805e-14 8.441826e-14 8.288934e-36 2.3722639e-33 7.170297e-36 4.0610986e-33
0.24297008 0.03416319 0.00041960386 0.007021732 9.489682e-19 2.4590897e-17 3.6093597e-19 2.8098005e-17
