CartPole/Experiment_1/23-09-26_22-10-39-937242_DQN/checkpoints/agent_87000.pt (torch, 82571 bytes, 24 tensors)

net.0.weight f4 [64, 4]
0	0xbd04b58a	-0.03239969
1	0x3dfa48da	0.122209266
2	0x3dd628de	0.104570135
3	0x3d34e80f	0.04416662
4	0x3e948eb6	0.2901513
5	0xbb675de7	-0.0035303773
6	0x3f0fd330	0.5618162
7	0x3cc53130	0.024071306
8	0xbde3ff32	-0.11132659
9	0x3e34e91d	0.1766705
10	0x4010ae07	2.2606218
11	0x3e724c48	0.23661911
12	0xbe81c92c	-0.25348794
13	0xbf18b933	-0.5965759
14	0x3e374a8b	0.1789953
15	0xbeb09758	-0.34490466
16	0xbdabbce6	-0.08385639
17	0xbca87ed7	-0.020568294
18	0x3d46d10c	0.048539206
19	0x3b36b272	0.0027877358
20	0x3e9c0d5c	0.30478942
21	0xbe506639	-0.20351495
22	0xbf964f39	-1.1742927
23	0xbe39b32b	-0.18134753
24	0xbd93e1a2	-0.072207704
25	0x3dca328a	0.09872921
26	0xbf102b0e	-0.56315696
27	0x3dc1825f	0.094486944
28	0xbdefe48f	-0.11713516
29	0x3d0c9dce	0.03433018
30	0xbbac0c64	-0.0052505005
31	0x3d87bac2	0.06627418
32	0xbc9c0988	-0.019047514
33	0xbd580193	-0.052735876
34	0x3dbdea00	0.092731476
35	0xbc17de11	-0.009269253
36	0xbe136baa	-0.1439654
37	0x3d5e6d61	0.05430353
38	0xbbcd87ee	-0.0062723076
39	0x3e29ee0e	0.16594717
40	0xbe7b2a3a	-0.24527827
41	0xbdbaa68c	-0.091137975
42	0xbf5227b9	-0.8209186
43	0xbd8ad0b9	-0.06778092
44	0x3e6aee10	0.22942376
45	0xbe0f5c8f	-0.14000152
46	0xc00c8f59	-2.1962492
47	0xbe9ac9e3	-0.30232152
48	0xbea48303	-0.32131204
49	0xbe2b3da1	-0.16722728
50	0x3e1a806c	0.15088052
51	0xbdd93b31	-0.10606993
52	0x3e12837d	0.14307971
53	0x3f046799	0.5172058
54	0x3f1ea4f4	0.6197045
55	0x3dff76bc	0.12473819
56	0x3cdbbc6f	0.02682325
57	0xbc0dfd9e	-0.008666424
58	0xbe3e6afc	-0.18595499
59	0xbcb08688	-0.021548524
60	0xbc2c4636	-0.0105147865
61	0x3e0929ab	0.13394801
62	0x3f2a35b1	0.66488177
63	0xbde3ec0c	-0.11129007
64	0x3e5f4616	0.2180408
65	0x3ec501b8	0.38477874
66	0xbf824b01	-1.0179139
67	0x3e4a5143	0.19757561
68	0x3e9d9fb9	0.3078592
69	0x3d233f53	0.039855313
70	0xbe1030ea	-0.14081159
71	0xbcc869c7	-0.024464501
72	0x3d456eee	0.048201494
73	0xbd2e0546	-0.042485498
74	0xbdc4e5d7	-0.09614151
75	0xbd03ed90	-0.03220898
76	0xbe76d3ba	-0.24104205
77	0xbeb5924d	-0.3546318
78	0xbf3d11a9	-0.7385507
79	0xbe848763	-0.25884542
80	0x3c02e3f6	0.00798892
81	0x3d541153	0.051774334
82	0xbf154c4d	-0.5831955
83	0x3cb50ade	0.022099908
84	0x3ec15a8c	0.37764394
85	0x3ccb4db8	0.024817333
86	0x3ea0cd76	0.31406754
87	0xbc4a0179	-0.012329453
88	0xb9f8493e	-0.00047356816
89	0xbe8b2c8b	-0.2718242
90	0xbf1e92d0	-0.6194277
91	0x3d8a25e9	0.06745512
92	0x3edc3ede	0.43016714
93	0xbdbb53cc	-0.09146842
94	0xbe8836f9	-0.2660444
95	0xbd26a6a6	-0.040686272
96	0xbe00541d	-0.12532087
97	0x3e87144f	0.26382682
98	0x3fc5662d	1.5421807
99	0xbd967775	-0.07347003
100	0xbea795da	-0.32731515
101	0xbe4fecf8	-0.2030524
102	0x3f998647	1.1994103
103	0x3ef9279e	0.48663038
104	0x3e123a26	0.14279994
105	0x3e91814c	0.28418958
106	0x3fb1350c	1.3844314
107	0x3e7fe776	0.24990639
108	0x3f0c7f31	0.5488158
109	0x3dd6b295	0.104832806
110	0x3ef9fee1	0.4882727
111	0x3d6c6211	0.05771071
112	0x3ecee53e	0.40409273
113	0xbd930dc9	-0.07180364
114	0x3fb99919	1.4499847
115	0x3e9fda98	0.3122146
116	0xbe3f6be6	-0.18693504
117	0xbe9ae7d4	-0.30254996
118	0xbf742d4d	-0.95381624
119	0xbe89e3a6	-0.26931494
120	0x3d88a002	0.06671144
121	0x3ed65ef3	0.41869316
122	0x3f8e0494	1.1095147
123	0xbdfa5615	-0.1222345
124	0xbce9cdfb	-0.028540602
125	0xbca8e962	-0.020619098
126	0x3cee4ba6	0.029088806
127	0xbd910174	-0.07080355
128	0xbd378327	-0.04480281
129	0xbd23441c	-0.039859876
130	0xbf936b9d	-1.1517216
131	0xbe4b2186	-0.19837007
132	0xbd1025d2	-0.03519232
133	0x3ccccaf5	0.024999121
134	0xbd4e6508	-0.05038932
135	0x3c9683cc	0.018373393
136	0xbdf028d1	-0.11726535
137	0x3e715565	0.23567732
138	0x3f958099	1.167987
139	0x3e9f7640	0.31144905
140	0x3e1f9c05	0.1558686
141	0xbc7a7e1b	-0.015288855
142	0xbdf4d81f	-0.11955284
143	0x3d47c37a	0.048770405
144	0x3e381bd0	0.1797936
145	0xbe0e6aa3	-0.13907866
146	0xc0187d7b	-2.3826587
147	0xbe95f84f	-0.29291007
148	0xbd463a76	-0.048395596
149	0xbf383bcd	-0.7196625
150	0x3f50df9a	0.8159119
151	0xbde785eb	-0.1130484
152	0xbd470740	-0.0485909
153	0x3d862842	0.06550647
154	0xbe555a81	-0.20835306
155	0x3e2470f0	0.16058707
156	0x3e01d868	0.12680209
157	0xbda49ff0	-0.08038318
158	0xbd745eb6	-0.059660636
159	0x3d156952	0.036477394
160	0xbe112b7c	-0.14176744
161	0xbd42b771	-0.047538225
162	0xbe4603e8	-0.19337428
163	0xbd6e7d8c	-0.0582252
164	0x3f17067e	0.5899428
165	0xbd6a0679	-0.05713508
166	0xbfcb5c82	-1.5887606
167	0xbe045938	-0.12924659
168	0xbe83fc1d	-0.25778285
169	0x3e797a9d	0.2436318
170	0x3fb99fff	1.4501952
171	0x3e7a5fa3	0.24450545
172	0xbe503921	-0.20334293
173	0x3e5cc2ed	0.21558733
174	0x3eab35ce	0.33439487
175	0x3dc834b0	0.09775674
176	0x3d2bb6a4	0.041922227
177	0xbce0e1f7	-0.027451498
178	0xbda6a099	-0.081361
179	0xbc3cefdd	-0.011531797
180	0xbe44f7ac	-0.19235104
181	0x3e3a0eb0	0.18169665
182	0x3fc48229	1.5352222
183	0x3e14855b	0.14503996
184	0x3ed922e9	0.42409447
185	0xbe62ce54	-0.2214902
186	0xc0200790	-2.5004616
187	0xbe9dc97e	-0.3081779
188	0x3f01429e	0.50492275
189	0xbe2241e0	-0.15845442
190	0xbf0616d8	-0.52378607
191	0xbee52bba	-0.44759923
192	0xbc300a8e	-0.010744704
193	0x3d350771	0.04419655
194	0xbaca703c	-0.0015444825
195	0x3d1f4f19	0.038893793
196	0xbe085e93	-0.13317327
197	0x3d2fa7e4	0.042884722
198	0xbe9976a6	-0.29973334
199	0x3da79ce5	0.08184222
200	0xbe96818b	-0.29395708
201	0xbe030968	-0.12796557
202	0xbf87cb74	-1.0608964
203	0xbe8387b1	-0.25689462
204	0xbf5a24c9	-0.8521238
205	0xbe43b3a7	-0.191115
206	0x3f302de7	0.6882004
207	0x3d803970	0.06260955
208	0xbda1e164	-0.07904318
209	0x3e71bdb6	0.23607525
210	0x3fa1ffa2	1.2656138
211	0x3e49287a	0.19644347
212	0xbd37a7b3	-0.044837665
213	0xbd0f0c94	-0.034924105
214	0x3e91885b	0.28424343
215	0x3d598aaa	0.053110756
216	0x3d17a547	0.037022855
217	0x3c7d8a22	0.015474828
218	0xbd539612	-0.05165679
219	0x3c93c053	0.018036043
220	0xbe50c821	-0.20388843
221	0x3e1f9a97	0.15586315
222	0x3f45a284	0.77201104
223	0x3d5f498b	0.054513495
224	0x3e311105	0.17291649
225	0xbe82473d	-0.25444975
226	0xbf79b603	-0.9754335
227	0x3dcf4e51	0.101223595
228	0x3d8d8df1	0.06911839
229	0xbdafbf5f	-0.08581423
230	0xbeecfcf7	-0.46286747
231	0x3c7c8e7e	0.015414832
232	0xbcee554a	-0.029093403
233	0x3da8a5d7	0.082347564
234	0xbd94153d	-0.072306134
235	0x3d3b9a91	0.045801703
236	0x3de1746c	0.11008534
237	0xbe159f0c	-0.14611453
238	0xbf64bc44	-0.8934977
239	0xbe799561	-0.2437339
240	0x3df02873	0.11726465
241	0xbc4c498a	-0.012468705
242	0x3f82efe2	1.0229456
243	0x3c97d8b0	0.018535942
244	0xbcc5b03c	-0.024131887
245	0x3c82b4d1	0.01595536
246	0xbd696f4f	-0.056990918
247	0xbcef8bae	-0.02924141
248	0x3e5e5ff5	0.21716292
249	0xbe2be162	-0.16785195
250	0xbfce6c31	-1.6126767
251	0xbe04e8f0	-0.12979484
252	0x3e156c7a	0.14592162
253	0xbe1f26ba	-0.15542117
254	0x3ecbf2c9	0.39833668
255	0xbcb7fb99	-0.022458838

net.0.bias f4 [64]
0	0x3ed3c67a	0.41362363
1	0x3e35482a	0.1770331
2	0xbee2c1bc	-0.44288433
3	0xbe6a76ff	-0.22896956
4	0xbe97ed58	-0.29673266
5	0x3ebb33c8	0.36562943
6	0xbe2351de	-0.15949199
7	0x3f08879a	0.5333191
8	0x3ea7eb02	0.32796484
9	0xbee427c0	-0.44561577
10	0xbec8735a	-0.39150506
11	0xbee7ceab	-0.45274863
12	0xbf06e5cd	-0.526944
13	0xbe937bf8	-0.28805518
14	0xbe160f2c	-0.14654225
15	0x3e204991	0.15653063
16	0xbd20f9e3	-0.03930081
17	0xbec3bb72	-0.38228947
18	0xbdb7eabb	-0.08980318
19	0xbe385b40	-0.18003559
20	0xbee6b2d2	-0.45058304
21	0xbf50e9f2	-0.8160697
22	0x3e425aff	0.18980025
23	0xbf361546	-0.7112621
24	0x3ec0aa78	0.37630057
25	0xbf05b31a	-0.5222641
26	0xbf01f989	-0.50771385
27	0xbf29988d	-0.662484
28	0xbdf16c30	-0.11788213
29	0xbee0e685	-0.43925872
30	0xbe9f503a	-0.31115896
31	0xbe865453	-0.2623621
32	0x3ee3e718	0.44512248
33	0xbe2c7f21	-0.16845371
34	0xbefe0767	-0.49615023
35	0x3ef35218	0.4752357
36	0x3ebf1ca0	0.37326527
37	0x3d4a750a	0.049428023
38	0xbe995e25	-0.2995464
39	0x3f2278d8	0.6346564
40	0xbf0ebf31	-0.55760485
41	0xbec9f4f2	-0.3944469
42	0x3ee79c53	0.45236453
43	0xbeca7ec2	-0.39549834
44	0xbe1b19b5	-0.15146525
45	0x3ed58e4a	0.4171012
46	0xbf0abced	-0.5419453
47	0xbf02cc73	-0.51093215
48	0xbdfd13ab	-0.12357267
49	0x3eb9b610	0.36271715
50	0x3ee0aa6c	0.43880022
51	0xbea6a679	-0.32548884
52	0xbee4f5f6	-0.44718903
53	0x3f044fa9	0.5168405
54	0xbe9390b7	-0.28821346
55	0xbecb0acd	-0.39656678
56	0x3dd3bc4e	0.10338651
57	0xbedc3621	-0.43010047
58	0xbe0f9147	-0.14020263
59	0x3edd0e46	0.43174952
60	0xbf05a6cb	-0.5220763
61	0xbe4071bf	-0.1879339
62	0x3ee00f0d	0.43761483
63	0xbec2265b	-0.37919888

net.2.weight f4 [64, 64]
0	0xbe403f78	-0.18774211
1	0xbe306cf4	-0.17229062
2	0x3ed5c341	0.4175053
3	0x3df69c76	0.12041561
4	0x3cd3da65	0.025860975
5	0xbe227151	-0.1586354
6	0xbefbb88b	-0.49164233
7	0xbe8e559e	-0.27799696
8	0xbdd64ca5	-0.104638375
9	0x3d2a85a3	0.041631352
10	0xbd3af644	-0.045645013
11	0xbe83890d	-0.256905
12	0xbe91b578	-0.28458762
13	0xbd715769	-0.05892125
14	0xbe2d6344	-0.16932398
15	0xbdd477a2	-0.10374381
16	0xbd8d1e2c	-0.068905205
17	0xbf129a4e	-0.572667
18	0xbe1a759d	-0.15083928
19	0xbe6525b5	-0.22377665
20	0x3ad174b9	0.0015980221
21	0x3d921e4b	0.07134684
22	0xbf26769a	-0.6502472
23	0xbf53d4b2	-0.8274642
24	0x3e6ca967	0.23111497
25	0xbef5834c	-0.47951734
26	0x3f1f7753	0.6229145
27	0x3e766b76	0.2406443
28	0xbeeb3908	-0.4594195
29	0xbaa24551	-0.0012380277
30	0x3db6e267	0.089299016
31	0x3e06d3bb	0.13166706
32	0xbf2719ff	-0.6527404
33	0x3d92c224	0.07165936
34	0xbea08740	-0.31353188
35	0x3d5b5503	0.05354787
36	0xbdf0a620	-0.11750436
37	0xbda4d84c	-0.08049068
38	0xbe67846b	-0.22609107
39	0xbe512d10	-0.20427346
40	0x3d9dfcbb	0.0771422
41	0xbe83d683	-0.25749597
42	0x3c62ecab	0.013850371
43	0xbe12431c	-0.14283413
44	0x3d058a4d	0.032602597
45	0x3f0219dc	0.5082071
46	0x3d94f8fe	0.07274054
47	0x3d94cd1d	0.07265685
48	0xbd5dc53f	-0.054143187
49	0xbe289aa2	-0.16465238
50	0xbdda6ad7	-0.10664909
51	0xbefc9a78	-0.493366
52	0xbdca5b5c	-0.09880707
53	0xbe0cb257	-0.13739906
54	0x3dde4d07	0.108545355
55	0x3dfd5d58	0.123713195
56	0xbd3808bf	-0.044930216
57	0xbedf09df	-0.4356222
58	0xbb9e0a33	-0.004822993
59	0xbf02822e	-0.5097989
60	0x3fc47ea1	1.5351144
61	0xbc21964c	-0.009862494
62	0xbe6a62f0	-0.22889304
63	0x3ee54d9e	0.4478578
64	0x3dbfd13e	0.09366082
65	0x3ded9b3d	0.11601875
66	0xbe4d6e4e	-0.20061609
67	0x3e4ae171	0.19812562
68	0x3c540665	0.012940978
69	0x3d6f03a7	0.058353093
70	0xbb7eafe7	-0.003886217
71	0xbe1d225f	-0.15345143
72	0xbe179d43	-0.14806084
73	0xbc3e464d	-0.011613441
74	0xbdb35124	-0.08755711
75	0xbdbc7b37	-0.09203189
76	0x3deb5ca1	0.11492277
77	0xbdb6d7e5	-0.08927897
78	0x3d35ad9a	0.044355012
79	0xbdfe0d8a	-0.12404926
80	0x3d487d6e	0.048947744
81	0x3d164014	0.036682203
82	0xbd47053b	-0.048588973
83	0xbe0eb995	-0.13937981
84	0xbd8a6b35	-0.06758729
85	0xbd12d5ee	-0.03584855
86	0xbbc20b4d	-0.0059217573
87	0xbe178692	-0.14797428
88	0xbd97d56e	-0.07413755
89	0x3d567fb9	0.0523679
90	0x3e27259e	0.16322944
91	0xbe27645b	-0.16346876
92	0xbdb72f15	-0.08944527
93	0xbdab4d55	-0.08364359
94	0xbd714004	-0.05889894
95	0xbd518ac0	-0.051157713
96	0xbe35e69f	-0.17763756
97	0x3cbeb1b7	0.0232781
98	0xbd70bc3c	-0.058773264
99	0xbd183b7b	-0.0371661
100	0xbe5b6c0a	-0.21427932
101	0x3e2c70f7	0.16839968
102	0x3e7e67c5	0.24844272
103	0xbe606da7	-0.21916829
104	0xbc21b3ed	-0.009869558
105	0xbd6b906b	-0.057510775
106	0xbd931678	-0.0718202
107	0x3cbb1238	0.022835836
108	0x3dbdef73	0.09274187
109	0xbb278748	-0.0025562812
110	0xbe3085e5	-0.17238577
111	0xbe3909e6	-0.18070182
112	0x3e464404	0.19361883
113	0xbe284df3	-0.16435985
114	0xbe07ab2a	-0.13248888
115	0xbd579669	-0.052633677
116	0xbd0cbbd7	-0.034358826
117	0xbc6eced0	-0.014575675
118	0x3e1143eb	0.14186065
119	0xbd9a7b49	-0.07543046
120	0xbe4e07eb	-0.20120208
121	0xbd7c7e56	-0.06164392
122	0x3e44c939	0.19217385
123	0x3ddb490f	0.10707294
124	0x3e1696cd	0.14705963
125	0xbdd47d6f	-0.10375487
126	0xbe51a182	-0.20471767
127	0x3dc3f694	0.095685154
128	0xbe43bcc7	-0.19114982
129	0xbf32539f	-0.69658846
130	0xbeb4aa8a	-0.3528636
131	0xbf6d572e	-0.9271115
132	0xbdbc5780	-0.09196377
133	0xbf180b7e	-0.59392536
134	0x3d7ae970	0.06125778
135	0xbe23d1cb	-0.15997998
136	0xbe2c9e4f	-0.16857265
137	0x3f39daee	0.72599685
138	0x40221030	2.532238
139	0xbede6c80	-0.43442154
140	0x3fac1c91	1.3446218
141	0xbf4401a1	-0.76564986
142	0x3de72cc8	0.11287838
143	0xbeb7d8aa	-0.3590749
144	0xbe8bc0be	-0.27295488
145	0xbd41a940	-0.04728055
146	0x3c813acb	0.015775105
147	0xbee3ea3d	-0.44514647
148	0xbed3eeba	-0.4139307
149	0xbdb6deb7	-0.08929198
150	0xbe8befad	-0.27331296
151	0x3f26c7ec	0.65148807
152	0xbec25394	-0.3795439
153	0x3d246758	0.04013762
154	0x3f090d36	0.53535783
155	0xbe271f3f	-0.16320513
156	0x3c2f8337	0.010712436
157	0x3df23554	0.11826578
158	0xbf309441	-0.6897622
159	0x3d72f472	0.059315152
160	0xbe97f6f4	-0.29680598
161	0x3e18a2f0	0.14905906
162	0x3e07b519	0.13252677
163	0xbef37bd5	-0.47555414
164	0x3f21f85b	0.63269585
165	0xbe4dce9c	-0.20098346
166	0x3ea68726	0.32524985
167	0xbe1dc03e	-0.15405366
168	0x3fa40b0d	1.2815872
169	0x3f6efe84	0.9335711
170	0xbd9e9fd4	-0.077453285
171	0xbd847268	-0.06467134
172	0x3d9a3359	0.07529325
173	0xbea474bb	-0.32120308
174	0x3e9612e1	0.29311278
175	0xbe6537c1	-0.2238455
176	0xbdd3bf02	-0.10339166
177	0x3d3bdb06	0.045863174
178	0xbf4b8061	-0.79492766
179	0x3f5b0b28	0.855639
180	0x3e277300	0.16352463
181	0xbe0c9928	-0.137303
182	0xbd0db1e3	-0.034593474
183	0xbef833b1	-0.48476937
184	0xbf87e72e	-1.0617425
185	0xbe92851c	-0.2861718
186	0xbd929497	-0.071572475
187	0xbf62a515	-0.88533145
188	0x3f2ff9fc	0.6874082
189	0xbd763240	-0.060106516
190	0xbf57be21	-0.8427449
191	0x3ead8522	0.33890635
192	0xbcd7e058	-0.026352093
193	0x3d763617	0.060110178
194	0xbd526e77	-0.05137488
195	0x3d5bfe70	0.053709447
196	0xbdbd22ac	-0.09235129
197	0xbd153e99	-0.03643665
198	0x3cf23e41	0.0295707
199	0xbdd88f27	-0.10574179
200	0xbdb7d5c9	-0.08976323
201	0xbd81c470	-0.063362956
202	0xbc6dd583	-0.014516237
203	0xbc4982b3	-0.0122992275
204	0x3dd6ec3f	0.10494279
205	0xbdb8efc2	-0.09030105
206	0xbde15db8	-0.110042036
207	0x3c1d83e1	0.009613962
208	0x3cd30911	0.02576116
209	0xbdbd8008	-0.09252936
210	0x3df47dbb	0.11938044
211	0xbe3660b4	-0.17810327
212	0xbd0ee2a1	-0.0348841
213	0xbd5b36ea	-0.053519167
214	0x3cc8b884	0.024502046
215	0xbdad3947	-0.084581904
216	0xbe5431df	-0.2072215
217	0x3d2eb346	0.042651437
218	0xbd359ef7	-0.044341054
219	0x3d8a17ac	0.06742796
220	0x3e1e50f8	0.15460575
221	0x3c919e72	0.017775748
222	0x3cf43e9f	0.029815016
223	0xbdfe9c1a	-0.12432118
224	0xbcfa60cf	-0.03056374
225	0x3e81424c	0.25245893
226	0x3c0333e9	0.008007982
227	0xbe572c04	-0.21012884
228	0xbd53269f	-0.051550504
229	0xbdf536d2	-0.11973347
230	0xbd281723	-0.04103769
231	0xbe34319a	-0.17597046
232	0xbce39ffd	-0.02778625
233	0x3d55c6b8	0.052191466
234	0xbc23120e	-0.009953035
235	0xbd99ca83	-0.07509329
236	0x3b64ac22	0.0034892638
237	0xbd3850d8	-0.044998974
238	0xbd6d9760	-0.05800569
239	0x3d906826	0.07051115
240	0x3e64ec15	0.22355683
241	0xbd3f3207	-0.04667857
242	0xbdbeb091	-0.09311021
243	0xbe0c933c	-0.1372804
244	0xbd783c14	-0.06060417
245	0x3d14ce67	0.036329653
246	0xbcecf56a	-0.028925616
247	0xbb728eb0	-0.0037011318
248	0xbb2c21bb	-0.0026265222
249	0xbd82cc5f	-0.06386637
250	0xbd6ade5d	-0.05734097
251	0xbe19e2fd	-0.15027995
252	0xbd313eec	-0.043272898
253	0x3b53aff7	0.0032300928
254	0x3de0f563	0.10984304
255	0x3da968fe	0.08271979

net.2.bias f4 [64]
0	0xbe0d5550	-0.13802075
1	0x3d82d0c8	0.06387478
2	0xbe7b51dc	-0.24542946
3	0xbdcd505d	-0.10025094
4	0x3f117cb2	0.56830895
5	0x3f1c7323	0.61113185
6	0xbe810d01	-0.25205234
7	0x3f064ccf	0.5246095
8	0xbe0bf1d8	-0.13666475
9	0x3f3bf49e	0.7342013
10	0x3e4f1c50	0.20225644
11	0x3ef85551	0.4850259
12	0x3f116a41	0.56802756
13	0x3f068bcb	0.5255706
14	0xbeb9a735	-0.3626038
15	0x3d9b7b5e	0.0759189
16	0xbe1eadb5	-0.15495951
17	0x3f00d87b	0.50330323
18	0xbb561867	-0.0032668354
19	0x3f170e14	0.59005857
20	0x3c1f4a34	0.009722281
21	0xbd5f9c1a	-0.05459223
22	0x3f175f8c	0.5913017
23	0x3efaa331	0.4895263
24	0x3f2bf58f	0.6717157
25	0x3d30a615	0.04312714
26	0x3ead305f	0.33825967
27	0x3e21a60e	0.15786001
28	0xbd34d7d1	-0.04415113
29	0x3ee142c8	0.43996263
30	0xbdab74bc	-0.08371875
31	0x3f1b0731	0.6055785
32	0xbde5ca91	-0.11220277
33	0x3f035773	0.5130531
34	0x3cdbecdb	0.02684634
35	0xbd6505a9	-0.0559136
36	0x3f0cbba3	0.5497381
37	0xbd9c1e4c	-0.07622966
38	0x3f0354bc	0.5130117
39	0x3f278c3d	0.6544836
40	0xbe99dc15	-0.30050722
41	0x3ee509eb	0.4473413
42	0xbd937e3c	-0.07201812
43	0xbe752e53	-0.23943453
44	0x3f454eec	0.7707355
45	0x3f1d0e78	0.613502
46	0xbe17ef0c	-0.14837283
47	0x3f1793a0	0.5920963
48	0xbd86752e	-0.06565319
49	0x3d4c5185	0.04988243
50	0x3f2ce294	0.6753323
51	0x3f18f954	0.59755445
52	0xbe1b85ed	-0.15187807
53	0xbb36fe00	-0.0027922392
54	0xbddeb0cf	-0.10873567
55	0x3f096673	0.5367195
56	0x3dbd7d89	0.092524596
57	0x3f40fed8	0.7538886
58	0xbe0d32a0	-0.13788843
59	0xbdd53735	-0.104109205
60	0x3f16f7ce	0.5897187
61	0xbe48ad02	-0.19597247
62	0x3f3251c3	0.6965601
63	0x3ef48b7a	0.47762662

net.4.weight f4 [2, 64]
0	0xbf1857d9	-0.59509045
1	0xbdd6e9b1	-0.10493792
2	0xc016f252	-2.35854
3	0x3e251baa	0.16123834
4	0x3f9ce353	1.2256874
5	0x3fbf4e5a	1.4945786
6	0xc04ad765	-3.1693966
7	0x3f84edd8	1.0385084
8	0x3e7f79b1	0.24948765
9	0x3fb78af5	1.4339281
10	0xc0545286	-3.3175368
11	0x3fa7e8bc	1.31179
12	0x3f47f3eb	0.78106564
13	0x3f9ffa89	1.2498332
14	0xc020ab81	-2.5104678
15	0x3c8cfe93	0.017211234
16	0x3d45e04d	0.048309613
17	0x3f892247	1.0713586
18	0x3d983e3e	0.07433747
19	0x3fc5b896	1.5446956
20	0xbd214bd1	-0.039378945
21	0xbdf946b9	-0.121716924
22	0x3f882d0f	1.0638751
23	0x3fcb6c25	1.5892378
24	0x3fc842b3	1.5645355
25	0xbcb7d69d	-0.022441203
26	0x3fa6708f	1.30031
27	0xbdb40edf	-0.08791899
28	0x3d995331	0.074865706
29	0x3fc14121	1.5098001
30	0xc0632491	-3.5491068
31	0x3fa9e83a	1.3273995
32	0xc090dbff	-4.526855
33	0x3f6d550f	0.92707914
34	0xc0317f22	-2.7733846
35	0xc02fbbb9	-2.7458327
36	0x3f98170f	1.1882037
37	0x3e5813d2	0.21101311
38	0x3fb0d3fe	1.3814695
39	0x3f8faf22	1.1225321
40	0xbe8fcdb3	-0.28086624
41	0x3f860ef9	1.0473319
42	0x3ea58c06	0.32333392
43	0xbea933a7	-0.3304722
44	0x3e8bfe71	0.2734256
45	0x3f828bf1	1.0198957
46	0x3c343877	0.01099979
47	0x3f94a30d	1.1612259
48	0xbc56b21e	-0.01310399
49	0x3e916155	0.2839457
50	0x3fb80030	1.4375057
51	0x3fae0f9a	1.3598511
52	0xbd890f9a	-0.06692429
53	0xc02a227f	-2.6583555
54	0xbccebc78	-0.025236353
55	0x3f8e65a8	1.1124773
56	0xbea3fd95	-0.32029405
57	0x3f9a3971	1.204878
58	0xbb9edbb9	-0.0048479703
59	0xbd9d6e5d	-0.07687066
60	0x3f78e2fe	0.9722136
61	0x3d125cb1	0.03573293
62	0x3f555e2e	0.8334683
63	0x3fa4da0d	1.2879044
64	0x3f4e9848	0.8070111
65	0x3cac0b45	0.021001467
66	0xbfcad02a	-1.5844777
67	0xbe0c0973	-0.1367548
68	0x3fb9bb84	1.451035
69	0x3fb2deba	1.3974221
70	0xc08ed97d	-4.464049
71	0x3f663f14	0.8994
72	0xbe8024bc	-0.25028026
73	0x3fc37f4b	1.5273222
74	0xc04bf407	-3.1867692
75	0x3f7951ec	0.9739063
76	0x3fadee35	1.358832
77	0x3f5952de	0.8489207
78	0xc0860b9b	-4.1889167
79	0xbe0c2ebf	-0.13689707
80	0x3e28257f	0.16420554
81	0x3fa2c0f3	1.2715133
82	0xbda657ad	-0.081221916
83	0x3faae07f	1.3349761
84	0x3ca7dc8f	0.020490913
85	0xbe124660	-0.14284658
86	0x3fbbf86c	1.4685187
87	0x3fb9df93	1.4521354
88	0x3f2cdd27	0.6752495
89	0xbe1568c0	-0.1459074
90	0x3f8b15a8	1.0865984
91	0x3bff917a	0.0077993246
92	0xbb919f53	-0.0044440418
93	0x3f893811	1.0720235
94	0xc063812f	-3.5547597
95	0x3fca244c	1.5792327
96	0xc0be95d1	-5.955788
97	0x3f9a7f72	1.2070143
98	0xc00fdda9	-2.247904
99	0xbfbe09e6	-1.4846771
100	0x3fbacf59	1.4594527
101	0x3d764223	0.060121667
102	0x3f89840d	1.0743424
103	0x3f59dddf	0.85104173
104	0xc03598be	-2.8374476
105	0x3f7126a5	0.9419959
106	0xbe53aa29	-0.2067038
107	0x3e6e1a83	0.23252301
108	0x3f9ba80a	1.2160656
109	0x3f29297c	0.66078925
110	0x3ccfef1b	0.025382569
111	0x3f738ead	0.9513958
112	0xbc05dff1	-0.008171068
113	0xbe419679	-0.18905057
114	0x3fb1d7aa	1.389394
115	0x3feb3cf0	1.8377972
116	0xbdf6c6a4	-0.120496064
117	0xc0733cc3	-3.8005836
118	0x3da18450	0.07886565
119	0x3fa1e592	1.2648184
120	0x3ec80909	0.39069393
121	0x3f14b19e	0.5808352
122	0x3d4b0f11	0.049574915
123	0x3b82422d	0.003975174
124	0x3fb7b12e	1.4350946
125	0x3dcbb2fd	0.09946249
126	0x3fa92fa4	1.3217664
127	0x3f8b87f5	1.0900866

net.4.bias f4 [2]
0	0x3f228d33	0.634967
1	0x3eb55994	0.35419905

net.0.weight f4 [64, 4]
0	0xbd08f461	-0.033436183
1	0x3df7700b	0.120819174
2	0x3dd159e2	0.10222222
3	0x3d3d6865	0.046242137
4	0x3e8d1b2a	0.27559787
5	0xbc0fb294	-0.008770604
6	0x3f0b6a9d	0.54459554
7	0x3cce0012	0.025146518
8	0xbdf26d3e	-0.118372425
9	0x3e2ff7cb	0.1718437
10	0x400f2f84	2.2372751
11	0x3e6ec599	0.23317565
12	0xbe7f163f	-0.2491083
13	0xbf1a76a6	-0.60337293
14	0x3e39f830	0.18161082
15	0xbea33bd2	-0.31881577
16	0xbdabbd46	-0.083857104
17	0xbca87f96	-0.02056865
18	0x3d46d089	0.04853872
19	0x3b36b2bf	0.0027877537
20	0x3e979d6b	0.29612288
21	0xbe58d86b	-0.21176307
22	0xbf93f035	-1.155768
23	0xbe35c9e2	-0.17752793
24	0xbd93e176	-0.07220738
25	0x3dca32f0	0.09872997
26	0xbf102aae	-0.56315124
27	0x3dc182b8	0.09448761
28	0xbdeeb9a2	-0.116565004
29	0x3cfca7d5	0.030841747
30	0xbbb493e3	-0.0055107935
31	0x3d8f6a1c	0.07002661
32	0xbc9237c7	-0.017848862
33	0xbd579e0c	-0.05264096
34	0x3db7ee28	0.089809716
35	0xbbeaf210	-0.0071699694
36	0xbe136c45	-0.1439677
37	0x3d5e6d12	0.054303236
38	0xbbcd8749	-0.0062722308
39	0x3e29edff	0.16594695
40	0xbe784b7a	-0.24247542
41	0xbdb3bc1f	-0.087761156
42	0xbf5537e4	-0.8328841
43	0xbd911831	-0.07084692
44	0x3e5cc949	0.21561159
45	0xbe2424c1	-0.16029646
46	0xc00c4819	-2.1919005
47	0xbe96e894	-0.29474318
48	0xbea3c502	-0.31986243
49	0xbe247dd5	-0.16063626
50	0x3e114a3e	0.14188477
51	0xbdce9375	-0.10086719
52	0x3e02d153	0.12775163
53	0x3f021774	0.50817037
54	0x3f1ba9df	0.6080608
55	0x3df4260e	0.11921321
56	0x3cdbbcc9	0.026823418
57	0xbc0dfda5	-0.008666431
58	0xbe3e6a88	-0.18595326
59	0xbcb08648	-0.021548405
60	0xbd09e000	-0.03366089
61	0x3e15049f	0.14552544
62	0x3f263337	0.649219
63	0xbdf3aa45	-0.11897711
64	0x3e6afcea	0.22948042
65	0x3ed10fee	0.40832466
66	0xbf832a2d	-1.0247246
67	0x3e41fd50	0.18944287
68	0x3e9a6897	0.3015792
69	0x3d1e1a22	0.03859914
70	0xbe1797bd	-0.14803977
71	0xbd252f3f	-0.04032826
72	0x3d456ea1	0.048201207
73	0xbd2e05a6	-0.042485856
74	0xbdc4e5e8	-0.09614164
75	0xbd03ed15	-0.03220852
76	0xbe71a8ab	-0.23599498
77	0xbeb7c0c7	-0.35889265
78	0xbf3d2236	-0.73880327
79	0xbe73895c	-0.23782867
80	0x3c05f731	0.008176611
81	0x3d54c222	0.051942952
82	0xbf15516a	-0.58327353
83	0x3cb42ac4	0.021993048
84	0x3ec0338f	0.37539336
85	0x3cd470bf	0.025932668
86	0x3ea3a0bb	0.31958565
87	0xbc7b9c4c	-0.015357088
88	0x3bfea1e7	0.007770765
89	0xbe8a753b	-0.27042565
90	0xbf1971d6	-0.59939325
91	0x3d75cd98	0.060010523
92	0x3edaf886	0.42767733
93	0xbdbab7d6	-0.09117095
94	0xbe86e4e7	-0.26346514
95	0xbd2c3320	-0.042040944
96	0xbe01a3ee	-0.1266019
97	0x3e8dd494	0.27701247
98	0x3fc368dd	1.5266377
99	0xbd9fbec2	-0.07800056
100	0xbeab1c4e	-0.33420032
101	0xbe5ed69e	-0.21761557
102	0x3f94c818	1.1623564
103	0x3efe6d34	0.4969269
104	0x3e136435	0.14393695
105	0x3e92632c	0.28591287
106	0x3faddd8a	1.3583233
107	0x3e7bec6f	0.24601911
108	0x3f0c3f53	0.54784125
109	0x3dd3827c	0.10327622
110	0x3efeb019	0.49743727
111	0x3d8e3aa0	0.069447756
112	0x3ecde103	0.40210733
113	0xbd9870e9	-0.07443411
114	0x3fb64783	1.4240574
115	0x3e9e223f	0.30885503
116	0xbe3f2397	-0.1866592
117	0xbe8c9e2f	-0.27464435
118	0xbf6e75f1	-0.93148714
119	0xbe93889b	-0.2881516
120	0x3d5f2b14	0.054484442
121	0x3ecc7178	0.3993032
122	0x3f8d3b8a	1.1033795
123	0xbdeebdf5	-0.11657325
124	0xbce9ce5a	-0.028540779
125	0xbca8e9d6	-0.020619314
126	0x3cee4b93	0.029088771
127	0xbd9100be	-0.0708022
128	0xbd250c80	-0.040295124
129	0xbd31fab1	-0.04345197
130	0xbf93129a	-1.1490052
131	0xbe4e8375	-0.20167334
132	0xbd102536	-0.035191737
133	0x3ccccbc8	0.024999514
134	0xbd4e6461	-0.050388698
135	0x3c968475	0.018373707
136	0xbdf01b83	-0.117239974
137	0x3e714cac	0.23564404
138	0x3f957ec0	1.1679306
139	0x3e9f77c7	0.3114607
140	0x3e1d8893	0.1538413
141	0xbc9c2a52	-0.019063149
142	0xbdf41c61	-0.11919475
143	0x3d4e4955	0.050362904
144	0x3e373d7f	0.17894553
145	0xbe1c9056	-0.15289435
146	0xc017d411	-2.3723185
147	0xbe9220e6	-0.28540725
148	0xbd543d46	-0.051816247
149	0xbf27f4d8	-0.65607977
150	0x3f5e0b3a	0.8673588
151	0xbdf441e0	-0.11926627
152	0xbd470800	-0.048591614
153	0x3d86282d	0.06550632
154	0xbe555a6a	-0.20835271
155	0x3e24714e	0.16058847
156	0x3e016124	0.12634712
157	0xbdaacd52	-0.08339943
158	0xbd739843	-0.05947138
159	0x3d1f34b5	0.038868625
160	0xbe112bb5	-0.14176829
161	0xbd42b818	-0.047538847
162	0xbe4604a0	-0.19337702
163	0xbd6e7e5a	-0.058225967
164	0x3f16ea3f	0.5895118
165	0xbd7f2d69	-0.062299166
166	0xbfca5355	-1.5806681
167	0xbe061f97	-0.13097988
168	0xbe7dff58	-0.24804437
169	0x3e895b93	0.26827678
170	0x3fb96326	1.4483383
171	0x3e77d5b7	0.2420262
172	0xbe5039e9	-0.20334591
173	0x3e5cc349	0.2155887
174	0x3eab361e	0.33439726
175	0x3dc83401	0.09775544
176	0x3d2bb63f	0.04192185
177	0xbce0e2c2	-0.027451877
178	0xbda6a0ae	-0.08136116
179	0xbc3cf067	-0.011531926
180	0xbe3a82b5	-0.18213923
181	0x3e4fe56c	0.20302361
182	0x3fc405b7	1.5314244
183	0x3e105fd7	0.1409906
184	0x3ed379ee	0.41303962
185	0xbe7096a5	-0.23494966
186	0xc01f7c7a	-2.4919724
187	0xbe9b6a29	-0.3035443
188	0x3efce413	0.49392757
189	0xbe1f7af2	-0.15574244
190	0xbef624b4	-0.48074877
191	0xbee6d8f4	-0.45087397
192	0xbc300ad7	-0.010744772
193	0x3d350768	0.044196516
194	0xbaca70a8	-0.0015444951
195	0x3d1f4e76	0.038893186
196	0xbe0806cf	-0.13283847
197	0x3d283c0c	0.04107289
198	0xbe980c76	-0.29697007
199	0x3dab8c4e	0.0837637
200	0xbe89571b	-0.2682427
201	0xbe0a4e4f	-0.13506435
202	0xbf86829d	-1.050861
203	0xbe857bf8	-0.26071143
204	0xbf5a3016	-0.85229623
205	0xbe40cbd1	-0.1882775
206	0x3f2eedd5	0.6833165
207	0x3d91d129	0.07119972
208	0xbda1d999	-0.079028316
209	0x3e71b4e0	0.23604155
210	0x3fa1fe03	1.2655643
211	0x3e492cdb	0.19646017
212	0xbd31edef	-0.0434398
213	0xbd110008	-0.03540042
214	0x3e90bf05	0.28270736
215	0x3d6320ef	0.05545133
216	0x3d17a547	0.037022855
217	0x3c7d8a22	0.015474828
218	0xbd539612	-0.05165679
219	0x3c93c053	0.018036043
220	0xbe50c81a	-0.20388833
221	0x3e1f9b05	0.15586479
222	0x3f45a2f8	0.77201796
223	0x3d5f4962	0.054513343
224	0x3e25f350	0.16206098
225	0xbe78926b	-0.24274604
226	0xbf79a2c7	-0.97514004
227	0x3dc090ce	0.09402619
228	0x3d8d8ded	0.06911836
229	0xbdafbfd6	-0.08581512
230	0xbeecfc6b	-0.4628633
231	0x3c7c8f23	0.015414986
232	0xbcee54f3	-0.029093241
233	0x3da8a6a6	0.08234911
234	0xbd941506	-0.072305724
235	0x3d3b9aff	0.045802113
236	0x3de8667c	0.11347672
237	0xbe11bd76	-0.1423243
238	0xbf60f87b	-0.8787915
239	0xbe7b3088	-0.24530232
240	0x3df028eb	0.117265545
241	0xbc4c4951	-0.012468652
242	0x3f82eff4	1.0229478
243	0x3c97d915	0.01853613
244	0xbcc5b041	-0.024131896
245	0x3c82b55c	0.01595562
246	0xbd696f0b	-0.056990664
247	0xbcef8be2	-0.029241506
248	0x3e6309bb	0.2217168
249	0xbe26f2aa	-0.16303506
250	0xbfcc255c	-1.5948901
251	0xbe0b4435	-0.13600238
252	0x3e156cc5	0.14592274
253	0xbe1f269e	-0.15542075
254	0x3ecbf360	0.39834118
255	0xbcb7fae0	-0.022458494

net.0.bias f4 [64]
0	0x3ed40fa9	0.41418198
1	0x3e388099	0.18017806
2	0xbee47aee	-0.44625038
3	0xbe622c9f	-0.22087334
4	0xbe97ec9e	-0.29672712
5	0x3ebd500d	0.36975136
6	0xbe2351cf	-0.15949176
7	0x3f0891e4	0.5334761
8	0x3ea8cd1c	0.32968986
9	0xbee4277b	-0.4456137
10	0xbec727b4	-0.3889748
11	0xbee2445b	-0.44192776
12	0xbf065a15	-0.52481204
13	0xbe9748e3	-0.29547796
14	0xbe160e7e	-0.14653966
15	0x3e1a7d7b	0.1508693
16	0xbd2ff579	-0.04295871
17	0xbec49a51	-0.38398984
18	0xbdb7ea78	-0.08980268
19	0xbe35041a	-0.17677346
20	0xbee6984c	-0.45038068
21	0xbf50c228	-0.8154626
22	0x3e392243	0.18079476
23	0xbf360888	-0.7110677
24	0x3ebf2fef	0.37341258
25	0xbf07803f	-0.52930063
26	0xbf040c6f	-0.5158147
27	0xbf2af8b2	-0.6678573
28	0xbdf99136	-0.121859
29	0xbee63d9f	-0.44968888
30	0xbea29bfd	-0.31759635
31	0xbe8653ed	-0.26235905
32	0x3edf9907	0.43671438
33	0xbe2c7f07	-0.16845332
34	0xbefe0349	-0.4961188
35	0x3ef3a8b5	0.4758965
36	0x3ebfbc55	0.37448373
37	0x3b6caaaa	0.0036112466
38	0xbe995e26	-0.29954642
39	0x3f22732a	0.63456976
40	0xbf0ebe9d	-0.557596
41	0xbec84412	-0.39114434
42	0x3ede16f1	0.43376878
43	0xbeca7eb9	-0.39549807
44	0xbe1b191e	-0.151463
45	0x3ed0b578	0.4076345
46	0xbf09c389	-0.5381399
47	0xbf023d10	-0.50874424
48	0xbdfd132c	-0.12357172
49	0x3eb9e887	0.36310217
50	0x3edd3e08	0.4321139
51	0xbea3a4df	-0.31961724
52	0xbee4f2c5	-0.44716468
53	0x3f044908	0.51673937
54	0xbe9390b7	-0.28821346
55	0xbecb0a91	-0.396565
56	0x3de106af	0.10987603
57	0xbedc35e2	-0.4300986
58	0xbe0f90c5	-0.14020069
59	0x3eddb4fa	0.43302137
60	0xbf05a67d	-0.52207166
61	0xbe407149	-0.18793215
62	0x3edf6f23	0.43639478
63	0xbec22601	-0.3791962

net.2.weight f4 [64, 64]
0	0xbe403f49	-0.18774141
1	0xbe306c80	-0.1722889
2	0x3ed5c31a	0.41750413
3	0x3df69d43	0.12041714
4	0x3cd3da65	0.025860975
5	0xbe2270cf	-0.15863346
6	0xbefbb84c	-0.49164045
7	0xbe8e5525	-0.27799335
8	0xbdd64c9a	-0.10463829
9	0x3d2a858f	0.041631278
10	0xbd3af6ef	-0.04564565
11	0xbe838915	-0.25690523
12	0xbe91b536	-0.28458565
13	0xbd71580b	-0.058921855
14	0xbe2d6327	-0.16932355
15	0xbdd47712	-0.10374273
16	0xbd8d1d6e	-0.06890379
17	0xbf129a1e	-0.57266414
18	0xbe1a759d	-0.15083928
19	0xbe65262a	-0.2237784
20	0x3ad17589	0.0015980463
21	0x3d921ead	0.07134757
22	0xbf26767f	-0.6502456
23	0xbf53d492	-0.8274623
24	0x3e6ca99a	0.23111573
25	0xbef5833c	-0.47951686
26	0x3f1f77dd	0.6229227
27	0x3e766c0b	0.24064653
28	0xbeeb38db	-0.45941815
29	0xbaa24551	-0.0012380277
30	0x3db6e32f	0.089300506
31	0x3e06d3bb	0.13166706
32	0xbf2719c7	-0.6527371
33	0x3d92c224	0.07165936
34	0xbea086f7	-0.3135297
35	0x3d5b55a9	0.05354849
36	0xbdf0a5ec	-0.11750397
37	0xbda4d7a7	-0.08048945
38	0xbe67846b	-0.22609107
39	0xbe512ce2	-0.20427278
40	0x3d9dfc2e	0.07714115
41	0xbe83d66d	-0.2574953
42	0x3c62ed6a	0.013850549
43	0xbe124365	-0.14283521
44	0x3d058a4d	0.032602597
45	0x3f021aac	0.5082195
46	0x3d94f925	0.07274083
47	0x3d94cd65	0.072657384
48	0xbd5dc53f	-0.054143187
49	0xbe289a27	-0.16465054
50	0xbdda6a82	-0.10664846
51	0xbefc9a14	-0.49336302
52	0xbdca5ac9	-0.09880597
53	0xbe0cb19d	-0.13739629
54	0x3dde4d0a	0.10854538
55	0x3dfd5e2b	0.12371477
56	0xbd380828	-0.044929653
57	0xbedf0952	-0.43561798
58	0xbb9e0a33	-0.004822993
59	0xbf0281cd	-0.5097931
60	0x3fc47ec8	1.535119
61	0xbc21964c	-0.009862494
62	0xbe6a62cb	-0.22889249
63	0x3ee54e02	0.44786078
64	0x3dbfd1e7	0.093662076
65	0x3ded9bca	0.1160198
66	0xbe4d6e49	-0.20061602
67	0x3e4ae1f0	0.19812751
68	0x3c540665	0.012940978
69	0x3d6f032b	0.05835263
70	0xbb7eafac	-0.0038862033
71	0xbe1d2236	-0.15345082
72	0xbe179cee	-0.14805958
73	0xbc3e45d0	-0.011613324
74	0xbdb35120	-0.08755708
75	0xbdbc7b38	-0.092031896
76	0x3deb5c03	0.11492159
77	0xbdb6d778	-0.08927816
78	0x3d35ad9a	0.044355012
79	0xbdfe0d2c	-0.12404856
80	0x3d487e38	0.048948497
81	0x3d16407d	0.036682595
82	0xbd47053b	-0.048588973
83	0xbe0eb925	-0.13937815
84	0xbd8a6acd	-0.06758652
85	0xbd12d645	-0.035848875
86	0xbbc20b70	-0.0059217736
87	0xbe178646	-0.14797315
88	0xbd97d52e	-0.07413708
89	0x3d568029	0.052368317
90	0x3e27257f	0.16322897
91	0xbe2763ff	-0.16346739
92	0xbdb72fbf	-0.08944654
93	0xbdab4d55	-0.08364359
94	0xbd713fd4	-0.058898762
95	0xbd518ac0	-0.051157713
96	0xbe35e610	-0.17763543
97	0x3cbeb1b7	0.0232781
98	0xbd70bbcc	-0.058772847
99	0xbd183abe	-0.037165396
100	0xbe5b6b8a	-0.21427742
101	0x3e2c71be	0.16840264
102	0x3e7e67cc	0.24844283
103	0xbe606d93	-0.21916799
104	0xbc21b486	-0.0098697
105	0xbd6b905b	-0.057510715
106	0xbd931656	-0.071819946
107	0x3cbb1180	0.022835493
108	0x3dbdef73	0.09274187
109	0xbb278727	-0.0025562735
110	0xbe308580	-0.17238426
111	0xbe390930	-0.18069911
112	0x3e464404	0.19361883
113	0xbe284d97	-0.16435848
114	0xbe07aae5	-0.13248785
115	0xbd579711	-0.052634303
116	0xbd0cbc8c	-0.0343595
117	0xbc6eced3	-0.014575678
118	0x3e1143ee	0.1418607
119	0xbd9a7b4e	-0.0754305
120	0xbe4e0769	-0.20120014
121	0xbd7c7ebb	-0.061644297
122	0x3e44c9c8	0.19217598
123	0x3ddb4929	0.107073136
124	0x3e16966e	0.14705822
125	0xbdd47d6f	-0.10375487
126	0xbe51a14a	-0.20471683
127	0x3dc3f611	0.09568418
128	0xbe43bc41	-0.19114782
129	0xbf325338	-0.6965823
130	0xbeb4aa70	-0.35286283
131	0xbf6d57d2	-0.9271213
132	0xbdbc5748	-0.09196335
133	0xbf180b16	-0.59391916
134	0x3d7aea0b	0.061258357
135	0xbe23d127	-0.15997754
136	0xbe2c9e47	-0.16857253
137	0x3f39db57	0.7260031
138	0x40220fef	2.5322225
139	0xbede6d11	-0.43442586
140	0x3fac1d5e	1.3446462
141	0xbf4401c8	-0.7656522
142	0x3de72cea	0.112878636
143	0xbeb7d880	-0.35907364
144	0xbe8bc035	-0.2729508
145	0xbd41a9c8	-0.047281057
146	0x3c813acb	0.015775105
147	0xbee3e9c3	-0.44514284
148	0xbed3ee5a	-0.41392785
149	0xbdb6de80	-0.08929157
150	0xbe8bef15	-0.27330843
151	0x3f26c7bf	0.6514854
152	0xbec25351	-0.3795419
153	0x3d2467ee	0.040138178
154	0x3f090ccd	0.5353516
155	0xbe271f3f	-0.16320513
156	0x3c2f83ae	0.010712547
157	0x3df235eb	0.1182669
158	0xbf309390	-0.6897516
159	0x3d72f48b	0.059315246
160	0xbe97f6c6	-0.2968046
161	0x3e18a2f0	0.14905906
162	0x3e07b5d4	0.13252956
163	0xbef37bb4	-0.47555315
164	0x3f21f87e	0.63269794
165	0xbe4dce61	-0.20098259
166	0x3ea686e7	0.32524797
167	0xbe1dc006	-0.15405282
168	0x3fa40bbe	1.2816083
169	0x3f6eff42	0.9335824
170	0xbd9e9f76	-0.077452585
171	0xbd8471e5	-0.06467036
172	0x3d9a3359	0.07529325
173	0xbea4746f	-0.32120082
174	0x3e961266	0.29310912
175	0xbe653822	-0.22384694
176	0xbdd3bf02	-0.10339166
177	0x3d3bdbd7	0.045863952
178	0xbf4b7fc1	-0.7949181
179	0x3f5b0b71	0.85564333
180	0x3e27739e	0.16352698
181	0xbe0c989d	-0.13730092
182	0xbd0db1e3	-0.034593474
183	0xbef8344b	-0.48477396
184	0xbf87e70d	-1.0617386
185	0xbe9285cd	-0.28617707
186	0xbd9293de	-0.0715711
187	0xbf62a4c3	-0.88532656
188	0x3f2ff9a7	0.68740314
189	0xbd763240	-0.060106516
190	0xbf57be22	-0.84274495
191	0x3ead84bf	0.3389034
192	0xbcd7dfba	-0.026351798
193	0x3d7636eb	0.060110968
194	0xbd526dfa	-0.051374413
195	0x3d5bfe70	0.053709447
196	0xbdbd22ac	-0.09235129
197	0xbd153de6	-0.036435984
198	0x3cf23e83	0.029570824
199	0xbdd88eba	-0.10574098
200	0xbdb7d560	-0.08976245
201	0xbd81c470	-0.063362956
202	0xbc6dd583	-0.014516237
203	0xbc498261	-0.012299151
204	0x3dd6ecc1	0.10494376
205	0xbdb8efc2	-0.09030105
206	0xbde15db8	-0.110042036
207	0x3c1d84a5	0.009614144
208	0x3cd30971	0.025761338
209	0xbdbd7f60	-0.092528105
210	0x3df47dbb	0.11938044
211	0xbe3660b8	-0.17810333
212	0xbd0ee28d	-0.034884024
213	0xbd5b36ea	-0.053519167
214	0x3cc8b8d0	0.024502188
215	0xbdad3947	-0.084581904
216	0xbe54318a	-0.20722023
217	0x3d2eb3de	0.042652003
218	0xbd359ef8	-0.044341058
219	0x3d8a17ac	0.06742796
220	0x3e1e5155	0.15460713
221	0x3c919e72	0.017775748
222	0x3cf43e9f	0.029815016
223	0xbdfe9c24	-0.12432125
224	0xbcfa608c	-0.030563615
225	0x3e81424c	0.25245893
226	0x3c0334b4	0.008008171
227	0xbe572c0a	-0.21012893
228	0xbd53269f	-0.051550504
229	0xbdf536ac	-0.119733185
230	0xbd281723	-0.04103769
231	0xbe343158	-0.17596948
232	0xbce39ffd	-0.02778625
233	0x3d55c6b8	0.052191466
234	0xbc2311bf	-0.0099529615
235	0xbd99ca83	-0.07509329
236	0x3b64ac22	0.0034892638
237	0xbd3850d0	-0.044998944
238	0xbd6d9760	-0.05800569
239	0x3d906865	0.07051162
240	0x3e64ec15	0.22355683
241	0xbd3f31c0	-0.046678305
242	0xbdbeb010	-0.09310925
243	0xbe0c9325	-0.13728006
244	0xbd783c1c	-0.0606042
245	0x3d14cef5	0.036330182
246	0xbcecf56a	-0.028925616
247	0xbb728eb0	-0.0037011318
248	0xbb2c2147	-0.0026264952
249	0xbd82cccc	-0.06386718
250	0xbd6ade5d	-0.05734097
251	0xbe19e2f6	-0.15027985
252	0xbd313eec	-0.043272898
253	0x3b53aff7	0.0032300928
254	0x3de0f582	0.10984327
255	0x3da968fe	0.08271979

net.2.bias f4 [64]
0	0xbe0d54e5	-0.13801916
1	0x3d82d17c	0.06387612
2	0xbe7b512c	-0.24542683
3	0xbdcd4fd1	-0.100249894
4	0x3f1119f8	0.5668025
5	0x3f1cea22	0.6129476
6	0xbe7b282f	-0.24527048
7	0x3f05f1d1	0.5232211
8	0xbe0bf16d	-0.13666315
9	0x3f3b3aad	0.7313641
10	0x3e4b5112	0.19855145
11	0x3ef8b0e7	0.48572466
12	0x3f10b84a	0.565312
13	0x3f05f0bd	0.5232046
14	0xbeb860d4	-0.36011374
15	0x3d9b7b8d	0.07591925
16	0xbe1ead86	-0.15495881
17	0x3f0049b0	0.5011244
18	0xbb561842	-0.0032668267
19	0x3f174efd	0.591049
20	0x3c1f4a8d	0.009722364
21	0xbd5f9b6a	-0.054591574
22	0x3f17289b	0.59046334
23	0x3efa4cdf	0.48886773
24	0x3f2b8a1b	0.6700761
25	0x3d30a64f	0.043127354
26	0x3eab9848	0.3351462
27	0x3e21a676	0.15786156
28	0xbd34d7c0	-0.044151068
29	0x3ee158b8	0.44013
30	0xbda619c9	-0.08110387
31	0x3f1a8cb4	0.60370946
32	0xbdea2cb4	-0.11434308
33	0x3f02c214	0.5107739
34	0x3d10f9fa	0.035394646
35	0xbd65055b	-0.05591331
36	0x3f0c0e8e	0.5470971
37	0xbd9c1e0e	-0.0762292
38	0x3f02de18	0.5112014
39	0x3f27c9fd	0.65542585
40	0xbe99dbee	-0.30050606
41	0x3ee5b719	0.44866255
42	0xbd937e3e	-0.07201813
43	0xbe752e14	-0.23943359
44	0x3f44ddd9	0.7690101
45	0x3f1ce068	0.61279917
46	0xbe17eef6	-0.1483725
47	0x3f17a4c5	0.59235793
48	0xbd8674bd	-0.06565235
49	0x3d481204	0.048845306
50	0x3f2d3ab1	0.6766768
51	0x3f1898be	0.59608066
52	0xbe1aa885	-0.15103348
53	0xbb8b5897	-0.004252504
54	0xbddeb042	-0.10873462
55	0x3f090b9a	0.5353333
56	0x3dca65c3	0.09882691
57	0x3f409fbf	0.75243753
58	0xbe0d3285	-0.13788803
59	0xbdd5367a	-0.10410781
60	0x3f164855	0.5870412
61	0xbe4765ee	-0.19472477
62	0x3f32173b	0.69566697
63	0x3ef46910	0.47736406

net.4.weight f4 [2, 64]
0	0xbf1857a6	-0.5950874
1	0xbdd6ea69	-0.10493929
2	0xc016f29d	-2.358558
3	0x3e251baa	0.16123834
4	0x3f9c561c	1.2213778
5	0x3fbe81d9	1.4883376
6	0xc04aeb06	-3.1705947
7	0x3f84086e	1.0315073
8	0x3e7f793c	0.24948591
9	0x3fb6dcc5	1.4286124
10	0xc05174b6	-3.2727485
11	0x3fa47e9b	1.2851137
12	0x3f40afaf	0.7526807
13	0x3f9f1b7e	1.2430265
14	0xc020a215	-2.5098927
15	0x3c8cfe2d	0.017211044
16	0x3d45e0b0	0.04830998
17	0x3f8665e5	1.0499846
18	0x3d983dde	0.07433675
19	0x3fc5348a	1.5406659
20	0xbd214bd7	-0.039378967
21	0xbdf9474b	-0.12171801
22	0x3f8592f0	1.0435467
23	0x3fc8f0a6	1.569844
24	0x3fc7225b	1.555736
25	0xbcb7d628	-0.022440985
26	0x3fa52d74	1.2904496
27	0xbdb40ef7	-0.08791917
28	0x3d9953fd	0.074867226
29	0x3fc02e37	1.5014104
30	0xc0554223	-3.3321617
31	0x3fa73301	1.306244
32	0xc08f1fbd	-4.4726243
33	0x3f66a05f	0.90088457
34	0xc02e5b5a	-2.7243257
35	0xc02fbb27	-2.7457979
36	0x3f9768e3	1.1828884
37	0x3e581411	0.21101405
38	0x3fae46d6	1.3615367
39	0x3f8e8e2c	1.1137137
40	0xbe8fcdb5	-0.2808663
41	0x3f863ba2	1.0486948
42	0x3ea58c1e	0.32333463
43	0xbea9340e	-0.33047527
44	0x3e86d5ea	0.26335078
45	0x3f81ee0f	1.0150775
46	0x3c343927	0.010999954
47	0x3f92290a	1.1418774
48	0xbc56b2f1	-0.013104186
49	0x3e9ea024	0.30981553
50	0x3fb65cca	1.4247067
51	0x3fad22c1	1.3526231
52	0xbd890fec	-0.0669249
53	0xc0276d0e	-2.6160312
54	0xbccebca8	-0.025236443
55	0x3f8d4c84	1.1038976
56	0xbeb076f4	-0.34465754
57	0x3f999732	1.1999266
58	0xbb9edbb9	-0.0048479703
59	0xbd9d6e5d	-0.07687066
60	0x3f7a9117	0.9787764
61	0x3cfe202b	0.031021198
62	0x3f52caa5	0.8234046
63	0x3fa3a7bd	1.2785565
64	0x3f4e98b8	0.8070178
65	0x3cac0a9f	0.021001158
66	0xbfcacff9	-1.5844718
67	0xbe0c09a4	-0.13675553
68	0x3fb525a3	1.4152111
69	0x3fb20f8a	1.3910992
70	0xc08efb15	-4.4681497
71	0x3f6434f6	0.8914331
72	0xbe80254e	-0.2502846
73	0x3fbe9b88	1.4891214
74	0xc04825f8	-3.1273174
75	0x3f7a85fc	0.97860694
76	0x3facd6e8	1.3503084
77	0x3f58b2d3	0.84647864
78	0xc0855fd2	-4.167947
79	0xbe0c2f24	-0.13689858
80	0x3e28257f	0.16420554
81	0x3fa1d628	1.264348
82	0xbda65806	-0.08122258
83	0x3fa91ff4	1.3212876
84	0x3ca7dc4f	0.020490794
85	0xbe124685	-0.14284714
86	0x3fba7fde	1.4570272
87	0x3fb9901d	1.4497105
88	0x3f2cc6ed	0.67491037
89	0xbe1568dd	-0.14590783
90	0x3f87bbe9	1.0604221
91	0x3bff9174	0.007799322
92	0xbb919f56	-0.004444043
93	0x3f884ea4	1.0648999
94	0xc063dcdd	-3.5603554
95	0x3fc93462	1.5719111
96	0xc0bc38df	-5.8819423
97	0x3f99f434	1.202765
98	0xc00b51be	-2.1768641
99	0xbfbe09a8	-1.4846697
100	0x3fb610dd	1.4223896
101	0x3d764223	0.060121667
102	0x3f88b9e5	1.068173
103	0x3f5aa791	0.85411936
104	0xc03598b8	-2.8374462
105	0x3f69c546	0.9131664
106	0xbe53aa61	-0.20670463
107	0x3e6e1b22	0.23252538
108	0x3f9baea8	1.2162676
109	0x3f277ddf	0.6542644
110	0x3ccfef1b	0.025382569
111	0x3f7279e4	0.9471724
112	0xbc05e04c	-0.008171152
113	0xbe38d754	-0.18050891
114	0x3faffbe1	1.3748742
115	0x3fe7117b	1.805221
116	0xbdf87c4f	-0.12133085
117	0xc06f8aa7	-3.7428377
118	0x3da184de	0.078866705
119	0x3f9eb769	1.2399722
120	0x3ecdc317	0.40187904
121	0x3f13f704	0.5779879
122	0x3d4b0f40	0.04957509
123	0x3b8241bd	0.003975122
124	0x3fb17f27	1.3866929
125	0x3dce7965	0.10081748
126	0x3fa8818e	1.3164537
127	0x3f8a4f60	1.0805473

net.4.bias f4 [2]
0	0x3f22745f	0.6345882
1	0x3eb5327e	0.35390085

exp_avg f4 [64, 4]
0	0xbbdebd7d	-0.006797491
1	0xbc8bc3be	-0.01706111
2	0xbb8d1ed7	-0.004306655
3	0x3b20bc46	0.0024526282
4	0xbb768500	-0.0037615895
5	0xb94a5e3a	-0.00019299323
6	0xba068b7a	-0.0005132478
7	0xbb8192ea	-0.003954281
8	0x80000004	-6e-45
9	0x80000004	-6e-45
10	0x80000004	-6e-45
11	0x80000004	-6e-45
12	0x3ba5e4f3	0.0050626933
13	0xbd02e2ff	-0.03195476
14	0xbb120e5d	-0.0022286393
15	0x3d08fa7d	0.03344201
16	0x80000004	-6e-45
17	0x80000004	-6e-45
18	0x80000004	-6e-45
19	0x00000004	6e-45
20	0xbca65eec	-0.020308934
21	0xbcd109a3	-0.02551729
22	0xbb2ddb11	-0.0026528279
23	0x3c3419c5	0.010992472
24	0x00000004	6e-45
25	0x00000004	6e-45
26	0x00000004	6e-45
27	0x00000004	6e-45
28	0xbc3ddf78	-0.011588924
29	0xbcd98cc8	-0.026556388
30	0xbbf38870	-0.007432036
31	0x3972e828	0.00023165403
32	0xbbb96ecd	-0.0056589604
33	0xbc25bbeb	-0.010115604
34	0xbb48d692	-0.0030645472
35	0xba7e4f8f	-0.0009701186
36	0x80000004	-6e-45
37	0x80000004	-6e-45
38	0x80000004	-6e-45
39	0x00000004	6e-45
40	0xbf0acfee	-0.54223526
41	0xbe34ceef	-0.17657064
42	0xba0fef7c	-0.0005490703
43	0xbd02cc8c	-0.031933352
44	0x3ac846c1	0.0015279875
45	0xbdaa95fc	-0.083293885
46	0xbb03e259	-0.0020123927
47	0x3dd00472	0.10157098
48	0xbec7afef	-0.39001414
49	0xbe13ce86	-0.14434251
50	0xbae18809	-0.0017206679
51	0xbc3bb4c5	-0.011456673
52	0x3366bac4	5.372091e-08
53	0xb854ee3b	-5.076661e-05
54	0x36b1c917	5.298421e-06
55	0x38a33cb2	7.783751e-05
56	0x00000004	6e-45
57	0x00000004	6e-45
58	0x00000004	6e-45
59	0x00000004	6e-45
60	0x3bbb6c31	0.0057196845
61	0x3c27c904	0.010240797
62	0xba383214	-0.0007026505
63	0xbc5caaf1	-0.01346849
64	0xbb3afe6d	-0.0028532997
65	0x3d04be92	0.032408305
66	0xba92d86a	-0.0011203412
67	0xbd3b2dd3	-0.045698
68	0x00000004	6e-45
69	0x00000004	6e-45
70	0x80000004	-6e-45
71	0x00000004	6e-45
72	0x80000004	-6e-45
73	0x80000004	-6e-45
74	0x80000004	-6e-45
75	0x00000004	6e-45
76	0x3c10436c	0.008805137
77	0x3da2e508	0.079538405
78	0x3be30ab4	0.006928766
79	0xbd772e9e	-0.060347192
80	0x00000004	6e-45
81	0x00000004	6e-45
82	0x80000004	-6e-45
83	0x80000004	-6e-45
84	0x80000004	-6e-45
85	0x80000004	-6e-45
86	0x80000004	-6e-45
87	0x00000004	6e-45
88	0xbc68cdf2	-0.014209257
89	0x3c97af8a	0.01851632
90	0x3b23dd25	0.0025003639
91	0xbcb0df82	-0.021590952
92	0x80000004	-6e-45
93	0x80000004	-6e-45
94	0x80000004	-6e-45
95	0x80000004	-6e-45
96	0x3b9b5e52	0.0047414685
97	0x3d126b59	0.035746906
98	0xbac1de2c	-0.0014790944
99	0xbd40898f	-0.047006186
100	0x3c2e4a08	0.010637768
101	0x3abe77d2	0.0014531559
102	0xb9380e46	-0.00017552925
103	0x3ab64f81	0.0013909192
104	0x80000004	-6e-45
105	0x80000004	-6e-45
106	0x80000004	-6e-45
107	0x80000004	-6e-45
108	0x80000004	-6e-45
109	0x80000004	-6e-45
110	0x80000004	-6e-45
111	0x80000004	-6e-45
112	0x399a31c6	0.00029410253
113	0x3b5f4739	0.0034069552
114	0x399495b3	0.00028340294
115	0xbb48e6dd	-0.0030655183
116	0x3cf2d6d4	0.029643454
117	0x3bd6d7d9	0.0065564928
118	0x3a3f13d0	0.0007289024
119	0xba590343	-0.0008278379
120	0xba8c5a72	-0.0010708107
121	0x3b6907f0	0.003555771
122	0x388ec61d	6.807989e-05
123	0xbbc3a52f	-0.005970619
124	0x80000004	-6e-45
125	0x80000004	-6e-45
126	0x80000004	-6e-45
127	0x00000004	6e-45
128	0xbd176ad1	-0.036967102
129	0xbcb24675	-0.021762112
130	0xbba3d934	-0.005000258
131	0xbc0196c1	-0.007909478
132	0x00000004	6e-45
133	0x00000004	6e-45
134	0x00000004	6e-45
135	0x00000004	6e-45
136	0x00000004	6e-45
137	0x00000004	6e-45
138	0x00000004	6e-45
139	0x00000004	6e-45
140	0xbc535dcc	-0.012900781
141	0xbcc42efe	-0.023948189
142	0xbbc7fdeb	-0.0061032674
143	0x3ae0011b	0.0017090173
144	0x3ce9d1f1	0.02854249
145	0x3a3083b0	0.000673349
146	0x3b7956b4	0.0038046064
147	0x3d037d2c	0.032101795
148	0x3c4d9eb1	0.012550042
149	0x3b722011	0.0036945383
150	0x3c14aef5	0.009074916
151	0x3c76f392	0.01507272
152	0x80000004	-6e-45
153	0x80000004	-6e-45
154	0x00000004	6e-45
155	0x00000004	6e-45
156	0xbc93a6b3	-0.018023824
157	0xbd1108e6	-0.035408877
158	0xbc175ebf	-0.009238898
159	0x3b0ef96d	0.002181615
160	0x80000004	-6e-45
161	0x80000004	-6e-45
162	0x80000004	-6e-45
163	0x80000004	-6e-45
164	0x80000004	-6e-45
165	0x80000004	-6e-45
166	0x80000004	-6e-45
167	0x80000004	-6e-45
168	0x3c9bc6d2	0.019015703
169	0x3d1bbf5e	0.0380243
170	0x3b962759	0.0045823273
171	0xbcca1c36	-0.024671655
172	0x80000004	-6e-45
173	0x00000004	6e-45
174	0x00000004	6e-45
175	0x80000004	-6e-45
176	0x80000004	-6e-45
177	0x80000004	-6e-45
178	0x80000004	-6e-45
179	0x80000004	-6e-45
180	0x3ba3af63	0.004995273
181	0x3cbe226b	0.023209771
182	0xbb087f99	-0.0020828007
183	0xbd1c81b0	-0.038209617
184	0xbb35ee1f	-0.002776034
185	0xbda6dc48	-0.08147484
186	0xbc5e7cfa	-0.013579601
187	0x3da16c31	0.07881964
188	0xb83d8fb3	-4.519494e-05
189	0x3bbaf1a2	0.0057050744
190	0xb9b63fc3	-0.0003476125
191	0xbc0bb798	-0.008527659
192	0x80000004	-6e-45
193	0x80000004	-6e-45
194	0x80000004	-6e-45
195	0x80000004	-6e-45
196	0xbc124daf	-0.008929654
197	0xbc84753b	-0.016169181
198	0xbb8de1ff	-0.0043299193
199	0xb912e99c	-0.00014010671
200	0xbc8172d4	-0.015801825
201	0x3ac2a3b4	0.0014849813
202	0x3a3c7507	0.00071890693
203	0xbbcfe1b5	-0.006344045
204	0x3cdb05d4	0.026736178
205	0x3c9d52cd	0.019204522
206	0x3ae0bd01	0.0017146171
207	0xbb77e1a1	-0.0037823694
208	0x80000004	-6e-45
209	0x80000004	-6e-45
210	0x80000004	-6e-45
211	0x00000004	6e-45
212	0xbc225fb4	-0.009910513
213	0xbcc78b56	-0.024358433
214	0xbbee0f8a	-0.007265036
215	0xba7bd703	-0.00096069294
216	0x00000000	0.0
217	0x00000000	0.0
218	0x00000000	0.0
219	0x00000000	0.0
220	0x00000004	6e-45
221	0x00000004	6e-45
222	0x00000004	6e-45
223	0x80000004	-6e-45
224	0x3c0f2490	0.0087367445
225	0x3cabe9d4	0.020985521
226	0x3b5729ce	0.0032831314
227	0xbc969560	-0.018381774
228	0x80000004	-6e-45
229	0x80000004	-6e-45
230	0x00000004	6e-45
231	0x00000004	6e-45
232	0x00000004	6e-45
233	0x00000004	6e-45
234	0x00000004	6e-45
235	0x80000004	-6e-45
236	0xbcba8c8e	-0.0227721
237	0xbca66995	-0.020314017
238	0xbba5abc1	-0.005055875
239	0xbb725258	-0.003697535
240	0x00000004	6e-45
241	0x00000004	6e-45
242	0x00000004	6e-45
243	0x00000004	6e-45
244	0x00000004	6e-45
245	0x00000004	6e-45
246	0x80000004	-6e-45
247	0x80000004	-6e-45
248	0xbd289efa	-0.041167237
249	0xbc8d3553	-0.017237341
250	0xbb7eb987	-0.0038867907
251	0xbc3c3a71	-0.011488543
252	0x00000004	6e-45
253	0x00000004	6e-45
254	0x00000004	6e-45
255	0x00000004	6e-45
