CartPole/Experiment_1/23-09-26_22-10-39-937242_DQN/checkpoints/agent_179000.pt (torch, 82603 bytes, 24 tensors)

net.0.weight f4 [64, 4]
000000 68 0c 29 bd fc 75 b3 3d c0 51 c3 3e 8b 21 27 3d
       -0.041271597 0.08762738 0.38148308 0.040803473
000010 e5 cc 37 3e 51 1a 1f bd 0e 0f a8 3f 59 be d6 bc
       0.17949255 -0.038843457 1.3129594 -0.026213812
000020 9d 86 fa bc 9c ab 92 bd 22 16 23 40 69 1c 78 3e
       -0.030581767 -0.07161638 2.5482259 0.24229588
000030 44 37 2d 3b db e8 10 bf cd 92 9a bf 48 19 db be
       0.0026430646 -0.5660531 -1.207605 -0.42792726
000040 e6 bc ab bd d7 7e a8 bc 0c d1 46 3d 72 b2 36 3b
       -0.08385639 -0.020568294 0.048539206 0.0027877358
000050 e7 d8 2f 3e ef 05 62 be 68 b2 d8 bf 3e 28 99 bc
       0.17172585 -0.22072576 -1.6929445 -0.018695947
000060 88 a6 25 bd 2d 24 89 3d c2 4c 18 bf 2c 48 01 3e
       -0.04044202 0.06696353 -0.59492123 0.12625188
000070 e5 9a df bd 08 ee 51 3d 55 ce 68 3e 7d b8 be 3d
       -0.10918216 0.051252395 0.2273496 0.09312532
000080 25 15 5b bd 2b 1e 31 bd 69 ed a4 3e b2 7d 99 bd
       -0.053486962 -0.04324166 0.3221238 -0.074946776
000090 0e e3 08 bf 92 dd 54 3d 85 73 5e 3e 6e 5d 10 3e
       -0.5347146 0.05196912 0.21723755 0.1409814
0000a0 72 62 84 be c5 0b 0a be ea 13 63 bf a2 b4 c4 bd
       -0.25856358 -0.13481052 -0.8870226 -0.096047655
0000b0 e2 d3 ac bc e6 d9 3d be cd 17 13 c0 43 04 a1 be
       -0.021097127 -0.18540153 -2.2983277 -0.31448564
0000c0 3d fd b1 be e9 27 6f be a7 38 8e 3c b8 22 41 be
       -0.34763518 -0.23355068 0.017360998 -0.188609
0000d0 13 17 a1 3e 95 77 e3 3b b5 b7 bf 3f 9e a0 c4 3e
       0.31462917 0.0069417455 1.4977938 0.3840379
0000e0 6f bc db 3c 9e fd 0d bc fc 6a 3e be 88 86 b0 bc
       0.02682325 -0.008666424 -0.18595499 -0.021548524
0000f0 d7 c4 8b 3e 38 b3 35 3e ac d4 00 40 2a 82 f1 3e
       0.27298614 0.17744148 2.0129805 0.4716962
000100 6c 7d 5e 3e b1 88 d7 3e 74 4a ed be b4 4a 1f 3e
       0.21727532 0.42096475 -0.46345866 0.1555584
000110 65 43 5e 3e 33 33 6e bd 86 62 68 be 85 55 87 bc
       0.21705396 -0.058154296 -0.22693834 -0.016520271
000120 c8 b4 06 3d 05 0c 27 bd 70 1b 83 bd 4b d7 ee bc
       0.03288725 -0.040782947 -0.06401718 -0.029155394
000130 e5 f6 bc bd 05 33 46 be 79 59 00 c0 1f 57 eb be
       -0.09226779 -0.193554 -2.005461 -0.45964906
000140 f6 e3 02 3c 53 11 54 3d 4d 4c 15 bf de 0a b5 3c
       0.00798892 0.051774334 -0.5831955 0.022099908
000150 33 30 ea 3e 22 81 59 3e 78 f1 25 3f e7 df 19 3e
       0.45739898 0.21240667 0.6482158 0.15026818
000160 05 58 61 3e ba 79 a0 be e7 66 0c bf b1 55 61 3d
       0.22006233 -0.3134287 -0.54844517 0.055013362
000170 73 01 cc 3e d2 b0 71 be 48 17 66 bf 07 db 8a be
       0.39844856 -0.23602608 -0.89879274 -0.2712023
000180 f7 54 81 3c ec 26 18 bc 34 e8 10 40 5f 4b ec bd
       0.015787585 -0.009286623 2.2641726 -0.115378134
000190 76 9d 71 3d 2a 45 44 bf 87 6d aa 3d 98 58 6a be
       0.058988057 -0.76668036 0.08321672 -0.22885358
0001a0 1e ed 7e 3e 0c a1 73 3e fa 79 b6 3f 3e ff 4b 3e
       0.2489514 0.23791903 1.4255974 0.19921586
0001b0 31 2e 26 3f 3e 37 df 3e 22 bd a5 3f 8e 06 a5 3e
       0.6491423 0.43596834 1.2948344 0.32231563
0001c0 f1 fc ca 3e 3c dd 49 be b5 34 08 40 f5 e1 0f bd
       0.39646104 -0.197133 2.128217 -0.0351276
0001d0 33 34 c3 bd 86 51 04 be 48 11 2e bf ad 66 ef be
       -0.095314406 -0.12921724 -0.6799512 -0.46758023
0001e0 f4 b5 81 bd dc 00 f4 3e ec 55 ba 3f e6 ee 7b 3e
       -0.06333533 0.47656906 1.4557471 0.24602851
0001f0 fb cd e9 bc 62 e9 a8 bc a6 4b ee 3c 74 01 91 bd
       -0.028540602 -0.020619098 0.029088806 -0.07080355
000200 85 bb 2d 3d 56 c4 27 3e ca 7e bb bf 0c bf e2 bd
       0.04241516 0.1638349 -1.4648068 -0.110715955
000210 d2 25 10 bd f5 ca cc 3c 08 65 4e bd cc 83 96 3c
       -0.03519232 0.024999121 -0.05038932 0.018373393
000220 8d 27 0b bc 7e b3 07 3e d3 15 b9 3f 41 c1 d9 3e
       -0.008493316 0.13252065 1.4459785 0.42530254
000230 fc eb f5 3d ff 2f 20 bc 87 26 83 3d e2 06 87 3d
       0.12007901 -0.009777068 0.06403833 0.0659311
000240 74 56 15 be 32 bb a4 3c 2f 5f 31 c0 f2 38 85 be
       -0.1458376 0.020108793 -2.7714345 -0.26020008
000250 60 fd 70 3e a0 8c aa be da 4c 91 3f ff 93 a4 be
       0.23534155 -0.33310413 1.1351578 -0.32144162
000260 40 07 47 bd 42 28 86 3d 81 5a 55 be f0 70 24 3e
       -0.0485909 0.06550647 -0.20835306 0.16058707
000270 01 84 02 3e 36 5e 78 bd 91 14 0a 3e 0f f4 46 3d
       0.12745668 -0.06063672 0.13484408 0.048572596
000280 7c 2b 11 be 71 b7 42 bd e8 03 46 be 8c 7d 6e bd
       -0.14176744 -0.047538225 -0.19337428 -0.0582252
000290 90 99 16 3f fc 37 b2 3e fc 61 69 bf 49 c8 44 3e
       0.5882807 0.34808338 -0.9116514 0.19217028
0002a0 3b a4 8d 3c ef 90 88 3d d2 43 26 40 15 9d 5a 3e
       0.017290225 0.06668269 2.5978894 0.21348985
0002b0 a8 b5 d1 bd c1 54 14 3e c7 eb 62 3e 3c 3b 1e 3e
       -0.10239726 0.14485456 0.22160254 0.15452284
0002c0 a4 b6 2b 3d f7 e1 e0 bc 99 a0 a6 bd dd ef 3c bc
       0.041922227 -0.027451498 -0.081361 -0.011531797
0002d0 cc cf 7b be 2e 8f 24 3e b5 98 0a 40 b0 00 08 3e
       -0.24590987 0.16070244 2.1655705 0.13281512
0002e0 bc ee 7e bd 41 fa 2b be 86 54 18 c0 9f 34 ea be
       -0.062239394 -0.16794683 -2.380159 -0.45743272
0002f0 fd b8 ca 3e e8 e2 18 3e 40 1c b2 bf f9 c4 9f bc
       0.3959426 0.14930308 -1.3914871 -0.019503104
000300 8e 0a 30 bc 71 07 35 3d 3c 70 ca ba 19 4f 1f 3d
       -0.010744704 0.04419655 -0.0015444825 0.038893793
000310 05 fc 0a be 88 db c0 3d dc 49 98 be 91 fb 8f 3d
       -0.135727 0.09416872 -0.2974385 0.07030404
000320 91 86 1e bf 31 d2 73 bd 07 f0 f4 bf e9 10 45 be
       -0.6192408 -0.059526626 -1.913575 -0.19244732
000330 84 4f 12 bf 7e a4 9d be 38 93 19 3f f4 69 96 be
       -0.5715258 -0.3078956 0.59990263 -0.2937771
000340 53 61 f0 bd 7a 3d 41 3e 41 25 a4 3f 2c 81 a8 3d
       -0.11737313 0.18871108 1.2823869 0.082277626
000350 77 e1 44 bd 3f 10 3e bd b8 4b 10 3f 29 06 c2 3d
       -0.048066583 -0.046402212 0.5636554 0.09473831
000360 47 a5 17 3d 22 8a 7d 3c 12 96 53 bd 53 c0 93 3c
       0.037022855 0.015474828 -0.05165679 0.018036043
000370 59 12 5b be 3e f4 28 3e 5a e9 12 3f 9a 73 34 be
       -0.21393718 0.16499421 0.57387316 -0.17622223
000380 4d 0f 4a 3e a2 06 8c be 30 f5 89 bf a1 0f 35 be
       0.197324 -0.2734881 -1.077795 -0.17681743
000390 f1 8d 8d 3d 5f bf af bd f7 fc ec be 7e 8e 7c 3c
       0.06911839 -0.08581423 -0.46286747 0.015414832
0003a0 8d 1f 2f 3b 20 2f 4f 3d 53 22 d5 bd b2 da 9e 3d
       0.0026721687 0.05058205 -0.104069375 0.077565566
0003b0 ed e7 38 3d 7e cb 1e 3d 16 cf 91 bf 6b e7 7a be
       0.045143057 0.038768284 -1.1391323 -0.24502341
0003c0 73 28 f0 3d 8a 49 4c bc e2 ef 82 3f b0 d8 97 3c
       0.11726465 -0.012468705 1.0229456 0.018535942
0003d0 3c b0 c5 bc d1 b4 82 3c 4f 6f 69 bd ae 8b ef bc
       -0.024131887 0.01595536 -0.056990918 -0.02924141
0003e0 0d 32 38 3e 49 c3 06 be 61 2c 03 c0 3c 18 8e 3c
       0.17987843 -0.13160433 -2.0495837 0.01734554
0003f0 c8 ca e9 3d 73 40 fd bd 51 b1 bb 3e 73 19 5e bd
       0.114156306 -0.12365808 0.3665872 -0.05422349

net.0.bias f4 [64]
000000 06 e6 ea 3e 7e f2 8f 3c c2 0f 13 bf fd c6 8a be
       0.4587862 0.017571684 -0.5744592 -0.2710494
000010 58 ed 97 be b5 6b c7 3e 08 d9 43 be 00 10 1b 3f
       -0.29673266 0.3894936 -0.1912576 0.6057129
000020 2f fa 94 3e 76 f4 9e be 88 fe d4 be ec 13 1c bf
       0.29097125 -0.31045884 -0.41600442 -0.609679
000030 0d 43 06 bf 36 93 44 3e 2c 0f 16 be b5 be 8c 3e
       -0.5244606 0.19196782 -0.14654225 0.27489248
000040 97 57 75 be 8e 74 02 bf 75 6c 30 be 40 d4 bd be
       -0.23959194 -0.509591 -0.17228873 -0.37075996
000050 d2 b2 e6 be 26 61 47 bf ce 1f 11 3e fd 95 56 bf
       -0.45058304 -0.7788261 0.14172289 -0.83822614
000060 08 9c e2 3e d8 6c 56 bf da 53 11 bf bf fb 0e bf
       0.44259667 -0.8375983 -0.5676857 -0.55852884
000070 23 c5 b0 bd 84 fd 2a bf 51 2c 2d be 53 54 86 be
       -0.08631351 -0.66793084 -0.16911437 -0.2623621
000080 a9 c3 fd 3e 21 7f 2c be 37 04 00 bf 80 4a 07 3f
       0.4956334 -0.16845371 -0.5000643 0.5284805
000090 04 13 6f 3e 05 eb 0b 3f 25 5e 99 be 7b a9 39 3f
       0.23347098 0.54655486 -0.2995464 0.7252423
0000a0 31 bf 0e bf 8d db b2 be a4 ee 05 3f ed 98 00 bf
       -0.55760485 -0.3493313 0.5231726 -0.50233346
0000b0 b5 19 1b be d2 f2 f1 3e 11 c0 41 bf 5b 47 4f bf
       -0.15146525 0.4725557 -0.75683695 -0.80968255
0000c0 ab 13 fd bd 62 61 bf 3e ca e2 0d 3f 96 9a 36 be
       -0.12357267 0.37378985 0.5542418 -0.17832407
0000d0 9e 21 02 bf 94 6a 16 3f b7 90 93 be d5 28 e4 be
       -0.50832546 0.58756375 -0.28821346 -0.44562402
0000e0 c5 fd 5c be 21 36 dc be 61 18 30 be 36 8b f6 3e
       -0.2158118 -0.43010047 -0.171968 0.48153085
0000f0 cb a6 05 bf bf 71 40 be 39 23 fa 3e d4 69 d2 be
       -0.5220763 -0.1879339 0.48854998 -0.41096365

net.2.weight f4 [64, 64]
000000 78 3f 40 be f4 6c 30 be 41 c3 d5 3e 76 9c f6 3d
       -0.18774211 -0.17229062 0.4175053 0.12041561
000010 65 da d3 3c 51 71 22 be 8b b8 fb be 9e 55 8e be
       0.025860975 -0.1586354 -0.49164233 -0.27799696
000020 a5 4c d6 bd a3 85 2a 3d 44 f6 3a bd 0d 89 83 be
       -0.104638375 0.041631352 -0.045645013 -0.256905
000030 78 b5 91 be 69 57 71 bd 44 63 2d be a2 77 d4 bd
       -0.28458762 -0.05892125 -0.16932398 -0.10374381
000040 2c 1e 8d bd 4e 9a 12 bf 9d 75 1a be b5 25 65 be
       -0.068905205 -0.572667 -0.15083928 -0.22377665
000050 b9 74 d1 3a 4b 1e 92 3d 9a 76 26 bf b2 d4 53 bf
       0.0015980221 0.07134684 -0.6502472 -0.8274642
000060 67 a9 6c 3e 4c 83 f5 be 53 77 1f 3f 76 6b 76 3e
       0.23111497 -0.47951734 0.6229145 0.2406443
000070 08 39 eb be 51 45 a2 ba 67 e2 b6 3d bb d3 06 3e
       -0.4594195 -0.0012380277 0.089299016 0.13166706
000080 ff 19 27 bf 24 c2 92 3d 40 87 a0 be 03 55 5b 3d
       -0.6527404 0.07165936 -0.31353188 0.05354787
000090 20 a6 f0 bd 4c d8 a4 bd 6b 84 67 be 10 2d 51 be
       -0.11750436 -0.08049068 -0.22609107 -0.20427346
0000a0 bb fc 9d 3d 83 d6 83 be ab ec 62 3c 1c 43 12 be
       0.0771422 -0.25749597 0.013850371 -0.14283413
0000b0 4d 8a 05 3d dc 19 02 3f fe f8 94 3d 1d cd 94 3d
       0.032602597 0.5082071 0.07274054 0.07265685
0000c0 3f c5 5d bd a2 9a 28 be d7 6a da bd 78 9a fc be
       -0.054143187 -0.16465238 -0.10664909 -0.493366
0000d0 5c 5b ca bd 57 b2 0c be 07 4d de 3d 58 5d fd 3d
       -0.09880707 -0.13739906 0.108545355 0.123713195
0000e0 bf 08 38 bd df 09 df be 33 0a 9e bb 2e 82 02 bf
       -0.044930216 -0.4356222 -0.004822993 -0.5097989
0000f0 a1 7e c4 3f 4c 96 21 bc f0 62 6a be 9e 4d e5 3e
       1.5351144 -0.009862494 -0.22889304 0.4478578
000100 3e d1 bf 3d 3d 9b ed 3d 4e 6e 4d be 71 e1 4a 3e
       0.09366082 0.11601875 -0.20061609 0.19812562
000110 65 06 54 3c a7 03 6f 3d e7 af 7e bb 5f 22 1d be
       0.012940978 0.058353093 -0.003886217 -0.15345143
000120 43 9d 17 be 4d 46 3e bc 24 51 b3 bd 37 7b bc bd
       -0.14806084 -0.011613441 -0.08755711 -0.09203189
000130 a1 5c eb 3d e5 d7 b6 bd 9a ad 35 3d 8a 0d fe bd
       0.11492277 -0.08927897 0.044355012 -0.12404926
000140 6e 7d 48 3d 14 40 16 3d 3b 05 47 bd 95 b9 0e be
       0.048947744 0.036682203 -0.048588973 -0.13937981
000150 35 6b 8a bd ee d5 12 bd 4d 0b c2 bb 92 86 17 be
       -0.06758729 -0.03584855 -0.0059217573 -0.14797428
000160 6e d5 97 bd b9 7f 56 3d 9e 25 27 3e 5b 64 27 be
       -0.07413755 0.0523679 0.16322944 -0.16346876
000170 15 2f b7 bd 55 4d ab bd 04 40 71 bd c0 8a 51 bd
       -0.08944527 -0.08364359 -0.05889894 -0.051157713
000180 9f e6 35 be b7 b1 be 3c 3c bc 70 bd 7b 3b 18 bd
       -0.17763756 0.0232781 -0.058773264 -0.0371661
000190 0a 6c 5b be f7 70 2c 3e c5 67 7e 3e a7 6d 60 be
       -0.21427932 0.16839968 0.24844272 -0.21916829
0001a0 ed b3 21 bc 6b 90 6b bd 78 16 93 bd 38 12 bb 3c
       -0.009869558 -0.057510775 -0.0718202 0.022835836
0001b0 73 ef bd 3d 48 87 27 bb e5 85 30 be e6 09 39 be
       0.09274187 -0.0025562812 -0.17238577 -0.18070182
0001c0 04 44 46 3e f3 4d 28 be 2a ab 07 be 69 96 57 bd
       0.19361883 -0.16435985 -0.13248888 -0.052633677
0001d0 d7 bb 0c bd d0 ce 6e bc eb 43 11 3e 49 7b 9a bd
       -0.034358826 -0.014575675 0.14186065 -0.07543046
0001e0 eb 07 4e be 56 7e 7c bd 39 c9 44 3e 0f 49 db 3d
       -0.20120208 -0.06164392 0.19217385 0.10707294
0001f0 cd 96 16 3e 6f 7d d4 bd 82 a1 51 be 94 f6 c3 3d
       0.14705963 -0.10375487 -0.20471767 0.095685154
000200 f7 43 64 be 9f 53 32 bf 8a aa b4 be f6 78 75 bf
       -0.22291552 -0.69658846 -0.3528636 -0.95887697
000210 80 57 bc bd 43 2d 20 bf 70 e9 7a 3d 02 59 44 be
       -0.09196377 -0.62569064 0.06125778 -0.19174579
000220 7f 25 4d be 26 b9 31 3f bc 07 20 40 80 6c de be
       -0.20033835 0.6942314 2.500472 -0.43442154
000230 b1 0b a8 3f a1 01 44 bf c8 2c e7 3d aa d8 b7 be
       1.3128568 -0.76564986 0.11287838 -0.3590749
000240 be c0 8b be 40 a9 41 bd cb 3a 81 3c c9 2d f4 be
       -0.27295488 -0.04728055 0.015775105 -0.4769118
000250 ba ee d3 be b7 de b6 bd 39 33 9c be ec c7 26 3f
       -0.4139307 -0.08929198 -0.3050783 0.65148807
000260 2b 97 d2 be 24 2a 09 3c 36 0d 09 3f 3f 1f 27 be
       -0.41130957 0.0083718635 0.53535783 -0.16320513
000270 37 83 2f 3c 54 35 f2 3d 41 94 30 bf 72 f4 72 3d
       0.010712436 0.11826578 -0.6897622 0.059315152
000280 f4 f6 97 be f0 a2 18 3e 19 b5 07 3e af df 01 bf
       -0.29680598 0.14905906 0.13252677 -0.5073194
000290 95 d6 19 3f d3 55 6e be 26 87 a6 3e 6e 47 3e be
       0.6009305 -0.23274927 0.32524985 -0.18581936
0002a0 0d 0b a4 3f 84 fe 6e 3f 36 ae df bd 68 72 84 bd
       1.2815872 0.9335711 -0.109219 -0.06467134
0002b0 59 33 9a 3d 52 b8 b4 be e1 12 96 3e c1 37 65 be
       0.07529325 -0.35296875 0.29311278 -0.2238455
0002c0 02 bf d3 bd f7 f8 66 3c 2a a2 53 bf 5f e9 52 3f
       -0.10339166 0.014097444 -0.8266932 0.82387346
0002d0 00 73 27 3e 5f 20 2d be e3 b1 0d bd b1 33 f8 be
       0.16352463 -0.1690688 -0.034593474 -0.48476937
0002e0 2e e7 87 bf 1c 85 92 be 97 94 92 bd da c6 6a bf
       -1.0617425 -0.2861718 -0.071572475 -0.91709673
0002f0 fc f9 2f 3f 40 32 76 bd e1 df 5f bf 22 85 ad 3e
       0.6874082 -0.060106516 -0.8745099 0.33890635
000300 58 e0 d7 bc 17 36 76 3d 77 6e 52 bd 70 fe 5b 3d
       -0.026352093 0.060110178 -0.05137488 0.053709447
000310 ac 22 bd bd 99 3e 15 bd 41 3e f2 3c 27 8f d8 bd
       -0.09235129 -0.03643665 0.0295707 -0.10574179
000320 c9 d5 b7 bd 70 c4 81 bd 83 d5 6d bc b3 82 49 bc
       -0.08976323 -0.063362956 -0.014516237 -0.0122992275
000330 3f ec d6 3d c2 ef b8 bd b8 5d e1 bd e1 83 1d 3c
       0.10494279 -0.09030105 -0.110042036 0.009613962
000340 11 09 d3 3c 08 80 bd bd bb 7d f4 3d b4 60 36 be
       0.02576116 -0.09252936 0.11938044 -0.17810327
000350 a1 e2 0e bd ea 36 5b bd 84 b8 c8 3c 47 39 ad bd
       -0.0348841 -0.053519167 0.024502046 -0.084581904
000360 df 31 54 be 46 b3 2e 3d f7 9e 35 bd ac 17 8a 3d
       -0.2072215 0.042651437 -0.044341054 0.06742796
000370 f8 50 1e 3e 72 9e 91 3c 9f 3e f4 3c 1a 9c fe bd
       0.15460575 0.017775748 0.029815016 -0.12432118
000380 cf 60 fa bc 4c 42 81 3e e9 33 03 3c 04 2c 57 be
       -0.03056374 0.25245893 0.008007982 -0.21012884
000390 9f 26 53 bd d2 36 f5 bd 23 17 28 bd 9a 31 34 be
       -0.051550504 -0.11973347 -0.04103769 -0.17597046
0003a0 fd 9f e3 bc b8 c6 55 3d 0e 12 23 bc 83 ca 99 bd
       -0.02778625 0.052191466 -0.009953035 -0.07509329
0003b0 22 ac 64 3b d8 50 38 bd 60 97 6d bd 26 68 90 3d
       0.0034892638 -0.044998974 -0.05800569 0.07051115
0003c0 15 ec 64 3e 07 32 3f bd 91 b0 be bd 3c 93 0c be
       0.22355683 -0.04667857 -0.09311021 -0.1372804
0003d0 14 3c 78 bd 67 ce 14 3d 6a f5 ec bc b0 8e 72 bb
       -0.06060417 0.036329653 -0.028925616 -0.0037011318
0003e0 bb 21 2c bb 5f cc 82 bd 5d de 6a bd fd e2 19 be
       -0.0026265222 -0.06386637 -0.05734097 -0.15027995
0003f0 ec 3e 31 bd f7 af 53 3b 63 f5 e0 3d fe 68 a9 3d
       -0.043272898 0.0032300928 0.10984304 0.08271979

net.2.bias f4 [64]
000000 50 55 0d be c8 d0 82 3d 86 ec 8d be 5d 50 cd bd
       -0.13802075 0.06387478 -0.27719516 -0.10025094
000010 16 43 28 3f 87 df 3b 3f 73 8f 61 be 9b 48 31 3f
       0.65727365 0.7338795 -0.22027378 0.6925141
000020 d8 f1 0b be 66 15 50 3f 7a cf d2 3d a3 56 2a 3f
       -0.13666475 0.8128265 0.10293479 0.6653845
000030 07 e2 34 3f 00 9c 2a 3f 5e e3 bb be 5e 7b 9b 3d
       0.7065739 0.6664429 -0.36696905 0.0759189
000040 b5 ad 1e be f7 a7 2d 3f 67 18 56 bb cc 16 40 3f
       -0.15495951 0.6783442 -0.0032668354 0.75034785
000050 1a 6d b4 bc 1a 9c 5f bd bf e0 19 3f 86 33 2d 3f
       -0.02202468 -0.05459223 0.6010856 0.67656744
000060 57 81 54 3f 15 a6 30 3d 5a a5 e3 3e 0e a6 21 3e
       0.83009857 0.04312714 0.4446209 0.15786001
000070 d1 d7 34 bd de ff 11 3f 6d 8d a7 bc 62 2e 1f 3f
       -0.04415113 0.5703105 -0.02045318 0.6218015
000080 14 97 83 be fc 92 1e 3f 03 2e f0 bd e2 44 bf bd
       -0.257012 0.6194303 -0.11727526 -0.0933931
000090 85 95 28 3f 9a 02 4b 3d f3 8f 31 3f c2 60 46 3f
       0.6585315 0.049563028 0.69360274 0.7749139
0000a0 15 dc 99 be de b5 14 3f 3c 7e 93 bd a6 f8 92 be
       -0.30050722 0.5809001 -0.07201812 -0.2870533
0000b0 89 b4 60 3f ca 31 46 3f 0c ef 17 be f7 a2 44 3f
       0.87775475 0.7741972 -0.14837283 0.76811165
0000c0 2e 75 86 bd 44 1b 85 3e 54 2c 57 3f 62 39 3a 3f
       -0.06565319 0.25997365 0.84052014 0.7274381
0000d0 ed 85 1b be 68 4b 83 bd cf b0 de bd 87 2f 17 3f
       -0.15187807 -0.06410867 -0.10873567 0.59056896
0000e0 af 5f 20 be fa bd 63 3f 0e c3 23 be 05 83 5f be
       -0.156615 0.88961756 -0.15992376 -0.21827324
0000f0 38 4b 47 3f 02 ad 48 be a5 d6 61 3f b1 b9 1d 3f
       0.7784915 -0.19597247 0.88218147 0.6161147

net.4.weight f4 [2, 64]
000000 d9 57 18 bf b1 e9 d6 bd 52 f2 16 c0 aa 1b 25 3e
       -0.59509045 -0.10493792 -2.35854 0.16123834
000010 85 67 bd 3f a8 df d9 3f 2d 48 4e c0 f8 a0 86 3f
       1.4797217 1.702138 -3.2231553 1.0517874
000020 b1 79 7f 3e 96 7b dd 3f 1f d1 97 c0 29 1c b6 3f
       0.24948765 1.730334 -4.7442775 1.4227344
000030 b7 e1 8b 3f 1b 1b a6 3f 2a 74 2a c0 93 fe 8c 3c
       1.0928258 1.2977022 -2.66334 0.017211234
000040 4d e0 45 3d 65 c0 be 3f 3e 3e 98 3d 1e 36 ba 3f
       0.048309613 1.4902464 0.07433747 1.4547765
000050 d1 4b 21 bd b9 46 f9 bd ad 5d e6 3f 78 ed c3 3f
       -0.039378945 -0.121716924 1.7997338 1.5306845
000060 55 c6 d8 3f 9d d6 b7 bc ed db e6 3f df 0e b4 bd
       1.6935526 -0.022441203 1.8035866 -0.08791899
000070 31 53 99 3d 45 dd a4 3f 3d dc f2 c0 cd 01 fc 3f
       0.074865706 1.2880026 -7.5893846 1.968805
000080 bc d1 93 c0 a9 31 9f 3f 09 e3 d5 bf 17 7d 2b c0
       -4.6193523 1.243703 -1.6709911 -2.6795099
000090 50 04 a4 3f 4d 7e 5b 3f 72 f0 ef 3f 73 2c a2 3f
       1.2813816 0.85739595 1.8745253 1.2669815
0000a0 b3 cd 8f be c2 d0 81 3f 06 8c a5 3e 79 08 21 be
       -0.28086624 1.0141833 0.32333392 -0.15725888
0000b0 6d e9 a2 3e 6a 9e 8c 3f 77 38 34 3c a4 cf a5 3f
       0.31818715 1.0985844 0.01099979 1.2953992
0000c0 1e b2 56 bc c9 e7 3c 3f 0c 02 95 3f d8 c7 c2 3f
       -0.01310399 0.73791176 1.164125 1.5217237
0000d0 9a 0f 89 bd c0 0e b5 c0 78 bc ce bc f3 e4 b5 3f
       -0.06692429 -5.6580505 -0.025236353 1.4210495
0000e0 19 21 b6 be 0c 27 a9 3f 55 b4 33 bd f5 51 69 bf
       -0.35572127 1.3215041 -0.04387315 -0.9114068
0000f0 e6 5a 38 3f b1 5c 12 3d 84 72 7f 3f d0 fe 9d 3f
       0.720137 0.03573293 0.9978411 1.2343388
000100 48 98 4e 3f 45 0b ac 3c 4e bf c6 bf 73 09 0c be
       0.8070111 0.021001467 -1.5527132 -0.1367548
000110 55 e8 bf 3f 50 7b f6 3f 1c da 88 c0 78 a0 9c 3f
       1.4992777 1.9256382 -4.2766247 1.2236471
000120 bc 24 80 be ab 39 c9 3f 88 e7 58 c0 3d 0b b9 3f
       -0.25028026 1.5720724 -3.3891315 1.4456555
000130 ea 11 b5 3f 10 cd 90 3f 09 2e 42 c0 bf 2e 0c be
       1.4146092 1.131258 -3.0340598 -0.13689707
000140 7f 25 28 3e 15 cb 66 3f ad 57 a6 bd 2f 8d d9 3f
       0.16420554 0.9015363 -0.081221916 1.6996211
000150 4e ac 36 bc 60 46 12 be 34 f4 cd 3f c7 34 e2 3f
       -0.011149479 -0.14284658 1.609015 1.7672356
000160 a8 f5 4c 3f c0 68 15 be cb 59 1c 3f 7a 91 ff 3b
       0.8006234 -0.1459074 0.61074513 0.0077993246
000170 53 9f 91 bb b7 ec ce 3f 90 ee 67 c0 92 ce b5 3f
       -0.0044440418 1.616599 -3.6239357 1.4203665
000180 d5 3b cc c0 94 b1 95 3f b9 5c 51 c0 96 d4 b9 bf
       -6.3823037 1.1694818 -3.2712843 -1.4518001
000190 b4 e9 fa 3f c2 7a 8a bf d2 83 13 3f 76 95 92 3f
       1.960257 -1.0818713 0.57623017 1.1451862
0001a0 be 98 35 c0 64 c5 b6 3f 29 aa 53 be 25 f6 37 3e
       -2.8374476 1.4278989 -0.2067038 0.1796499
0001b0 f3 8e c7 3f 76 f8 62 3f 1b ef cf 3c 1d cd 9a 3f
       1.55905 0.8866037 0.025382569 1.2093846
0001c0 f1 df 05 bc 93 c5 12 bf 23 0b f7 3f 46 34 08 40
       -0.008171068 -0.57332724 1.9300274 2.1281905
0001d0 a4 c6 f6 bd 63 8e 99 c0 50 84 a1 3d 3c 75 be 3f
       -0.120496064 -4.798631 0.07886565 1.4879527
0001e0 95 8d 25 3f 4a 5e 46 3f 43 99 92 3c c4 a6 e2 3e
       0.6466916 0.77487624 0.017895347 0.44267857
0001f0 a5 b2 ee 3f fd b2 cb 3d d1 8b bb 3f 41 bc c5 3f
       1.8648268 0.09946249 1.4652044 1.5448076

net.4.bias f4 [2]
000000 1e 40 5e 3f 39 85 dd 3e
       0.86816585 0.43265703

net.0.weight f4 [64, 4]
000000 73 17 22 bd 3a 64 ae 3d f2 a3 bf 3e 12 73 29 3d
       -0.039573144 0.085152104 0.37429768 0.041369505
000010 ec cb 31 3e e5 8f 07 bd 77 65 a5 3f de a3 34 bd
       0.17362946 -0.033096213 1.292159 -0.04410159
000020 f5 d0 0c bd 78 90 a2 bd d5 98 23 40 45 fc 78 3e
       -0.034378964 -0.079377115 2.5562031 0.24314983
000030 ee 11 16 bc b5 95 0f bf 74 22 9b bf 19 68 e2 be
       -0.009159548 -0.5608781 -1.2119889 -0.44220045
000040 46 bd ab bd 96 7f a8 bc 89 d0 46 3d bf b2 36 3b
       -0.083857104 -0.02056865 0.04853872 0.0027877537
000050 ab 75 25 3e df 87 45 be ad 7c d6 bf a8 4f fb bb
       0.16158168 -0.19290112 -1.6756798 -0.007669408
000060 27 ac 25 bd cb 26 89 3d b6 4c 18 bf a2 46 01 3e
       -0.04044738 0.06696852 -0.5949205 0.126246
000070 3d 0b e0 bd 67 63 4d 3d ea 8a 61 3e 60 a4 c3 3d
       -0.109396435 0.050143626 0.22025648 0.095528364
000080 0a e3 4c bd 7f 82 48 bd 6b 29 a1 3e 0b 5b 9a bd
       -0.05002121 -0.048952576 0.31476912 -0.07536896
000090 a1 ab cd be 8f c9 20 3d 4b 41 fb 3d 5e 57 1d 3e
       -0.40170005 0.03925472 0.12268313 0.15365359
0000a0 5f ac 87 be 4b a1 08 be de 6f 64 bf f5 5d b0 bd
       -0.26498696 -0.13342778 -0.89233196 -0.08611671
0000b0 c1 c3 50 bc 5d 2c 36 be b3 0e 12 c0 d1 7b ae be
       -0.012741984 -0.17790361 -2.2821472 -0.3407884
0000c0 12 fa b2 be e0 10 6b be d3 8b 1a 3c d7 12 40 be
       -0.34956414 -0.22955656 0.009432751 -0.18757187
0000d0 40 ef a6 3e c6 9e b1 3c 1f 06 be 3f 9a fd c3 3e
       0.32604408 0.021682154 1.4845618 0.3827942
0000e0 c9 bc db 3c a5 fd 0d bc 88 6a 3e be 48 86 b0 bc
       0.026823418 -0.008666431 -0.18595326 -0.021548405
0000f0 fa 08 86 3e f0 1f 40 3e 1c 72 00 40 b0 cc d4 3e
       0.26178724 0.18762183 2.0069647 0.41562414
000100 fe ff 4f 3e c5 08 e0 3e c7 bb e3 be 3d 4d 64 3e
       0.20312497 0.4375669 -0.444792 0.22295089
000110 a9 43 5e 3e 93 32 6e bd 4b 62 68 be bc 55 87 bc
       0.21705498 -0.0581537 -0.22693746 -0.016520374
000120 91 06 06 3d b0 ba 27 bd 99 72 83 bd 3c 34 f0 bc
       0.032721106 -0.040949523 -0.06418342 -0.029321782
000130 3e b5 88 bd b5 5c 2e be 19 32 fe bf 3d 15 e3 be
       -0.06675194 -0.17027552 -1.9859039 -0.4435214
000140 3c e4 02 3c 81 11 54 3d bd 4c 15 bf 88 0a b5 3c
       0.007988986 0.051774506 -0.5832022 0.022099748
000150 80 87 e9 3e b8 1d 54 3e 30 ca 20 3f e3 e3 1a 3e
       0.4561119 0.20714462 0.62808514 0.15125994
000160 79 09 3d 3e 96 0f 9a be 95 8a 0b bf a7 2b b8 3d
       0.18460645 -0.30090016 -0.54508334 0.08992701
000170 18 d4 cf 3e fd c2 69 be 0d 14 63 bf 18 ec 93 be
       0.40591502 -0.22828288 -0.8870247 -0.28891063
000180 2f 21 9b 3c 8c e9 1b bc 5e 98 10 40 86 dd e6 bd
       0.018936722 -0.009516131 2.2592998 -0.11272721
000190 68 9a 68 3d 90 6f 45 bf 66 93 be 3d 47 d8 3d be
       0.05678788 -0.77123356 0.09305458 -0.18539535
0001a0 ba 54 81 3e 40 b0 62 3e 04 3c b4 3f 9d 17 50 3e
       0.25259954 0.22137547 1.4080815 0.20321508
0001b0 dd 00 27 3f c7 e7 da 3e 1b 8b 9a 3f 89 75 a6 3e
       0.6523569 0.42754957 1.2073702 0.32511547
0001c0 fb 5f cb 3e e6 0e 3b be 3a 6e 07 40 c8 bb f7 3c
       0.39721665 -0.18267402 2.1161027 0.030240908
0001d0 7d 32 e2 bd 2d fc 0f be 42 26 30 bf 70 4f f5 be
       -0.11044786 -0.14061041 -0.68808377 -0.47912169
0001e0 62 91 a2 bd 0e 1b 05 3f ca 13 be 3f a8 d3 86 3e
       -0.07937886 0.5199441 1.4849789 0.26333356
0001f0 5a ce e9 bc d6 e9 a8 bc 93 4b ee 3c be 00 91 bd
       -0.028540779 -0.020619314 0.029088771 -0.0708022
000200 a2 84 03 3d 8d 70 37 3e 03 68 ba bf 7d 7a c6 bd
       0.03210891 0.17914028 -1.4562992 -0.096913315
000210 36 25 10 bd c8 cb cc 3c 61 64 4e bd 75 84 96 3c
       -0.035191737 0.024999514 -0.050388698 0.018373707
000220 d6 ae 06 3c 35 44 e5 3d a1 53 b7 3f a8 e5 d6 3e
       0.008220395 0.1119465 1.4322397 0.4197209
000230 cc 9f f9 3d bb 74 3f bc ff a4 63 3d 67 cc 84 3d
       0.12188682 -0.011685546 0.055577274 0.06484299
000240 d3 7b 0b be 32 cd cb 3b c4 7b 32 c0 a0 b4 8d be
       -0.13621454 0.0062195295 -2.788804 -0.27676868
000250 94 84 73 3e 95 b0 af be 74 1c 90 3f 3d 66 a2 be
       0.23781043 -0.3431441 1.1258683 -0.31718627
000260 00 08 47 bd 2d 28 86 3d 6a 5a 55 be 4e 71 24 3e
       -0.048591614 0.06550632 -0.20835271 0.16058847
000270 67 97 02 3e 49 bc 81 bd ec 6b 02 3e 95 7f 48 3d
       0.12753068 -0.06334741 0.12736481 0.048949797
000280 b5 2b 11 be 18 b8 42 bd a0 04 46 be 5a 7e 6e bd
       -0.14176829 -0.047538847 -0.19337702 -0.058225967
000290 48 b3 16 3f 41 88 ab 3e 35 aa 6d bf 29 79 2a 3e
       0.5886731 0.3350239 -0.9283784 0.16647781
0002a0 3e d4 ed 3c 1e f4 54 3d 79 79 20 40 aa 9e 83 3e
       0.029031869 0.05199062 2.507414 0.2570699
0002b0 e1 be d1 bd 20 58 14 3e 75 f0 62 3e 9d 38 1e 3e
       -0.102414854 0.14486742 0.2216204 0.15451284
0002c0 3f b6 2b 3d c2 e2 e0 bc ae a0 a6 bd 67 f0 3c bc
       0.04192185 -0.027451877 -0.08136116 -0.011531926
0002d0 b7 3b 80 be 76 13 22 3e 01 81 0b 40 d3 ed fd 3d
       -0.2504556 0.15827736 2.1797488 0.12398877
0002e0 76 87 8d bd 62 ca 30 be 9f fc 17 c0 35 3a f0 be
       -0.06910603 -0.17264703 -2.3747938 -0.46919408
0002f0 47 70 d5 3e 40 cc 64 3e f4 8d a4 bf 45 52 ab 3c
       0.41687223 0.2234354 -1.2855821 0.020913253
000300 d7 0a 30 bc 68 07 35 3d a8 70 ca ba 76 4e 1f 3d
       -0.010744772 0.044196516 -0.0015444951 0.038893186
000310 20 79 0d be 26 7d c5 3d e9 66 99 be 1c 66 a9 3d
       -0.13815737 0.09643011 -0.29961327 0.08271429
000320 d1 09 1d bf 7d a7 b0 bd 75 25 f3 bf a1 2b 2a be
       -0.61343104 -0.08625696 -1.8995806 -0.16618206
000330 60 0c 14 bf cd c9 98 be d0 dc 1f 3f da 21 6f be
       -0.5783138 -0.29841462 0.6244631 -0.23352757
000340 aa 60 f0 bd 31 3d 41 3e bf 24 a4 3f 02 8a a8 3d
       -0.11737187 0.18870999 1.2823714 0.08229448
000350 34 65 42 bd 6b ec 4c bd b1 f9 0d 3f 50 46 bf 3d
       -0.047459796 -0.050030153 0.55459124 0.09339583
000360 47 a5 17 3d 22 8a 7d 3c 12 96 53 bd 53 c0 93 3c
       0.037022855 0.015474828 -0.05165679 0.018036043
000370 f6 33 5b be 92 d2 2a 3e d6 94 13 3f c1 f3 36 be
       -0.2140654 0.16681889 0.5764898 -0.17866422
000380 df 69 2c 3e 9e b8 7b be d1 5e 81 bf 20 5f ec bd
       0.16837262 -0.24582145 -1.0107061 -0.11541581
000390 ed 8d 8d 3d d6 bf af bd 6b fc ec be 23 8f 7c 3c
       0.06911836 -0.08581512 -0.4628633 0.015414986
0003a0 5b c1 2e 3b f9 34 4f 3d 9b 1f d5 bd 7f d7 9e 3d
       0.0026665542 0.050587628 -0.10406419 0.07755946
0003b0 7d 3e 18 3d a0 23 36 3d 28 38 91 bf 0d 3c 78 be
       0.03716897 0.04446757 -1.1345263 -0.24241658
0003c0 eb 28 f0 3d 51 49 4c bc f4 ef 82 3f 15 d9 97 3c
       0.117265545 -0.012468652 1.0229478 0.01853613
0003d0 41 b0 c5 bc 5c b5 82 3c 0b 6f 69 bd e2 8b ef bc
       -0.024131896 0.01595562 -0.056990664 -0.029241506
0003e0 75 05 2e 3e a8 7b e8 bd d9 9d 02 c0 9f 48 ea 3c
       0.16994269 -0.113517106 -2.0408843 0.028599082
0003f0 3a cb e9 3d 43 41 fd bd a7 b1 bb 3e 7a 19 5e bd
       0.114157155 -0.12365963 0.36658975 -0.054223515

net.0.bias f4 [64]
000000 0a 10 ea 3e b9 9c 49 3c 3b 7b 11 bf 8a f8 8d be
       0.45715362 0.012305432 -0.5682866 -0.27728683
000010 9e ec 97 be 99 14 c6 3e 45 d7 43 be 47 b3 1a 3f
       -0.29672712 0.3868759 -0.19125088 0.60429806
000020 f5 58 95 3e 28 d6 ad be d8 85 d6 be b8 aa 1a bf
       0.2916943 -0.3395245 -0.4189899 -0.60416746
000030 0a 77 08 bf 34 ef 1f 3e 7e 0e 16 be 6d 04 84 3e
       -0.5330664 0.15618593 -0.14653966 0.25784627
000040 92 01 82 be 85 74 02 bf 3f 41 30 be 28 24 b9 be
       -0.25391823 -0.50959045 -0.1721239 -0.36160398
000050 43 b2 e6 be f7 ad 47 bf 37 83 e5 3d 00 7f 54 bf
       -0.45057878 -0.77999824 0.11206668 -0.83006287
000060 ea f7 e0 3e 81 7b 57 bf a7 3e 11 bf aa 7d 0f bf
       0.43939143 -0.84172827 -0.56736225 -0.56051123
000070 13 93 ef bd 29 ec 27 bf 86 df 3d be ed 53 86 be
       -0.11697974 -0.65594727 -0.18542299 -0.26235905
000080 3c 07 fc 3e 07 7f 2c be 97 db f8 be 76 f1 06 3f
       0.4922427 -0.16845332 -0.48605034 0.5271219
000090 54 be 62 3e eb 9a 0b 3f 26 5e 99 be 8b 0e 39 3f
       0.22142917 0.5453326 -0.29954642 0.72287816
0000a0 9d be 0e bf ae 4d b4 be 42 93 03 3f c5 97 00 bf
       -0.557596 -0.35215515 0.5139657 -0.5023158
0000b0 1e 19 1b be db 4e ec 3e 40 e3 3e bf 9c f4 4e bf
       -0.151463 0.46153912 -0.74565506 -0.80841994
0000c0 2c 13 fd bd 13 0c bf 3e ba d6 0b 3f 59 40 37 be
       -0.12357172 0.373139 0.5462452 -0.1789564
0000d0 ed 20 02 bf 5f 1b 16 3f b7 90 93 be 66 d0 e2 be
       -0.5083149 0.58635515 -0.28821346 -0.4429962
0000e0 df bc 52 be e2 35 dc be 04 17 30 be 31 1e f5 3e
       -0.20579861 -0.4300986 -0.1719628 0.47874597
0000f0 7d a6 05 bf 49 71 40 be df a1 f8 3e 4a 69 d2 be
       -0.52207166 -0.18793215 0.48560998 -0.41095954

net.2.weight f4 [64, 64]
000000 49 3f 40 be 80 6c 30 be 1a c3 d5 3e 43 9d f6 3d
       -0.18774141 -0.1722889 0.41750413 0.12041714
000010 65 da d3 3c cf 70 22 be 4c b8 fb be 25 55 8e be
       0.025860975 -0.15863346 -0.49164045 -0.27799335
000020 9a 4c d6 bd 8f 85 2a 3d ef f6 3a bd 15 89 83 be
       -0.10463829 0.041631278 -0.04564565 -0.25690523
000030 36 b5 91 be 0b 58 71 bd 27 63 2d be 12 77 d4 bd
       -0.28458565 -0.058921855 -0.16932355 -0.10374273
000040 6e 1d 8d bd 1e 9a 12 bf 9d 75 1a be 2a 26 65 be
       -0.06890379 -0.57266414 -0.15083928 -0.2237784
000050 89 75 d1 3a ad 1e 92 3d 7f 76 26 bf 92 d4 53 bf
       0.0015980463 0.07134757 -0.6502456 -0.8274623
000060 9a a9 6c 3e 3c 83 f5 be dd 77 1f 3f 0b 6c 76 3e
       0.23111573 -0.47951686 0.6229227 0.24064653
000070 db 38 eb be 51 45 a2 ba 2f e3 b6 3d bb d3 06 3e
       -0.45941815 -0.0012380277 0.089300506 0.13166706
000080 c7 19 27 bf 24 c2 92 3d f7 86 a0 be a9 55 5b 3d
       -0.6527371 0.07165936 -0.3135297 0.05354849
000090 ec a5 f0 bd a7 d7 a4 bd 6b 84 67 be e2 2c 51 be
       -0.11750397 -0.08048945 -0.22609107 -0.20427278
0000a0 2e fc 9d 3d 6d d6 83 be 6a ed 62 3c 65 43 12 be
       0.07714115 -0.2574953 0.013850549 -0.14283521
0000b0 4d 8a 05 3d ac 1a 02 3f 25 f9 94 3d 65 cd 94 3d
       0.032602597 0.5082195 0.07274083 0.072657384
0000c0 3f c5 5d bd 27 9a 28 be 82 6a da bd 14 9a fc be
       -0.054143187 -0.16465054 -0.10664846 -0.49336302
0000d0 c9 5a ca bd 9d b1 0c be 0a 4d de 3d 2b 5e fd 3d
       -0.09880597 -0.13739629 0.10854538 0.12371477
0000e0 28 08 38 bd 52 09 df be 33 0a 9e bb cd 81 02 bf
       -0.044929653 -0.43561798 -0.004822993 -0.5097931
0000f0 c8 7e c4 3f 4c 96 21 bc cb 62 6a be 02 4e e5 3e
       1.535119 -0.009862494 -0.22889249 0.44786078
000100 e7 d1 bf 3d ca 9b ed 3d 49 6e 4d be f0 e1 4a 3e
       0.093662076 0.1160198 -0.20061602 0.19812751
000110 65 06 54 3c 2b 03 6f 3d ac af 7e bb 36 22 1d be
       0.012940978 0.05835263 -0.0038862033 -0.15345082
000120 ee 9c 17 be d0 45 3e bc 20 51 b3 bd 38 7b bc bd
       -0.14805958 -0.011613324 -0.08755708 -0.092031896
000130 03 5c eb 3d 78 d7 b6 bd 9a ad 35 3d 2c 0d fe bd
       0.11492159 -0.08927816 0.044355012 -0.12404856
000140 38 7e 48 3d 7d 40 16 3d 3b 05 47 bd 25 b9 0e be
       0.048948497 0.036682595 -0.048588973 -0.13937815
000150 cd 6a 8a bd 45 d6 12 bd 70 0b c2 bb 46 86 17 be
       -0.06758652 -0.035848875 -0.0059217736 -0.14797315
000160 2e d5 97 bd 29 80 56 3d 7f 25 27 3e ff 63 27 be
       -0.07413708 0.052368317 0.16322897 -0.16346739
000170 bf 2f b7 bd 55 4d ab bd d4 3f 71 bd c0 8a 51 bd
       -0.08944654 -0.08364359 -0.058898762 -0.051157713
000180 10 e6 35 be b7 b1 be 3c cc bb 70 bd be 3a 18 bd
       -0.17763543 0.0232781 -0.058772847 -0.037165396
000190 8a 6b 5b be be 71 2c 3e cc 67 7e 3e 93 6d 60 be
       -0.21427742 0.16840264 0.24844283 -0.21916799
0001a0 86 b4 21 bc 5b 90 6b bd 56 16 93 bd 80 11 bb 3c
       -0.0098697 -0.057510715 -0.071819946 0.022835493
0001b0 73 ef bd 3d 27 87 27 bb 80 85 30 be 30 09 39 be
       0.09274187 -0.0025562735 -0.17238426 -0.18069911
0001c0 04 44 46 3e 97 4d 28 be e5 aa 07 be 11 97 57 bd
       0.19361883 -0.16435848 -0.13248785 -0.052634303
0001d0 8c bc 0c bd d3 ce 6e bc ee 43 11 3e 4e 7b 9a bd
       -0.0343595 -0.014575678 0.1418607 -0.0754305
0001e0 69 07 4e be bb 7e 7c bd c8 c9 44 3e 29 49 db 3d
       -0.20120014 -0.061644297 0.19217598 0.107073136
0001f0 6e 96 16 3e 6f 7d d4 bd 4a a1 51 be 11 f6 c3 3d
       0.14705822 -0.10375487 -0.20471683 0.09568418
000200 f5 17 53 be 38 53 32 bf 70 aa b4 be 42 2e 71 bf
       -0.20614608 -0.6965823 -0.35286283 -0.9421121
000210 48 57 bc bd 3e e2 1b bf 0b ea 7a 3d dc 2c 33 be
       -0.09196335 -0.60892093 0.061258357 -0.17497581
000220 a5 f9 3b be 2f 04 36 3f 77 1a 21 40 11 6d de be
       -0.1835695 0.71100134 2.5172403 -0.43442586
000230 82 31 aa 3f c8 01 44 bf ea 2c e7 3d 80 d8 b7 be
       1.3296359 -0.7656522 0.112878636 -0.35907364
000240 35 c0 8b be c8 a9 41 bd cb 3a 81 3c e1 97 eb be
       -0.2729508 -0.047281057 0.015775105 -0.46014312
000250 5a ee d3 be 80 de b6 bd 35 9d 93 be bf c7 26 3f
       -0.41392785 -0.08929157 -0.28830877 0.6514854
000260 18 01 ca be cc f3 cd 3c cd 0c 09 3f 3f 1f 27 be
       -0.3945396 0.025140665 0.5353516 -0.16320513
000270 ae 83 2f 3c eb 35 f2 3d 90 93 30 bf 8b f4 72 3d
       0.010712547 0.1182669 -0.6897516 0.059315246
000280 c6 f6 97 be f0 a2 18 3e d4 b5 07 3e 7b 29 fb be
       -0.2968046 0.14905906 0.13252956 -0.49055085
000290 b1 21 1e 3f 15 2a 5d be e7 86 a6 3e b9 1b 2d be
       0.6177016 -0.21598084 0.32524797 -0.16905107
0002a0 be 0b a4 3f 42 ff 6e 3f b0 56 bd bd e5 71 84 bd
       1.2816083 0.9335824 -0.0924505 -0.06467036
0002b0 59 33 9a 3d 36 22 ac be 66 12 96 3e 22 38 65 be
       0.07529325 -0.3361985 0.29310912 -0.22384694
0002c0 02 bf d3 bd 21 db fc 3c e9 56 4f bf a4 34 57 3f
       -0.10339166 0.030866208 -0.8099199 0.840647
0002d0 9e 73 27 3e 52 f4 1b be e3 b1 0d bd 4b 34 f8 be
       0.16352698 -0.1522992 -0.034593474 -0.48477396
0002e0 0d e7 87 bf cd 85 92 be de 93 92 bd eb 7b 66 bf
       -1.0617386 -0.28617707 -0.0715711 -0.90032834
0002f0 a7 f9 2f 3f 40 32 76 bd ee 94 5b bf bf 84 ad 3e
       0.68740314 -0.060106516 -0.85774124 0.3389034
000300 ba df d7 bc eb 36 76 3d fa 6d 52 bd 70 fe 5b 3d
       -0.026351798 0.060110968 -0.051374413 0.053709447
000310 ac 22 bd bd e6 3d 15 bd 83 3e f2 3c ba 8e d8 bd
       -0.09235129 -0.036435984 0.029570824 -0.10574098
000320 60 d5 b7 bd 70 c4 81 bd 83 d5 6d bc 61 82 49 bc
       -0.08976245 -0.063362956 -0.014516237 -0.012299151
000330 c1 ec d6 3d c2 ef b8 bd b8 5d e1 bd a5 84 1d 3c
       0.10494376 -0.09030105 -0.110042036 0.009614144
000340 71 09 d3 3c 60 7f bd bd bb 7d f4 3d b8 60 36 be
       0.025761338 -0.092528105 0.11938044 -0.17810333
000350 8d e2 0e bd ea 36 5b bd d0 b8 c8 3c 47 39 ad bd
       -0.034884024 -0.053519167 0.024502188 -0.084581904
000360 8a 31 54 be de b3 2e 3d f8 9e 35 bd ac 17 8a 3d
       -0.20722023 0.042652003 -0.044341058 0.06742796
000370 55 51 1e 3e 72 9e 91 3c 9f 3e f4 3c 24 9c fe bd
       0.15460713 0.017775748 0.029815016 -0.12432125
000380 8c 60 fa bc 4c 42 81 3e b4 34 03 3c 0a 2c 57 be
       -0.030563615 0.25245893 0.008008171 -0.21012893
000390 9f 26 53 bd ac 36 f5 bd 23 17 28 bd 58 31 34 be
       -0.051550504 -0.119733185 -0.04103769 -0.17596948
0003a0 fd 9f e3 bc b8 c6 55 3d bf 11 23 bc 83 ca 99 bd
       -0.02778625 0.052191466 -0.0099529615 -0.07509329
0003b0 22 ac 64 3b d0 50 38 bd 60 97 6d bd 65 68 90 3d
       0.0034892638 -0.044998944 -0.05800569 0.07051162
0003c0 15 ec 64 3e c0 31 3f bd 10 b0 be bd 25 93 0c be
       0.22355683 -0.046678305 -0.09310925 -0.13728006
0003d0 1c 3c 78 bd f5 ce 14 3d 6a f5 ec bc b0 8e 72 bb
       -0.0606042 0.036330182 -0.028925616 -0.0037011318
0003e0 47 21 2c bb cc cc 82 bd 5d de 6a bd f6 e2 19 be
       -0.0026264952 -0.06386718 -0.05734097 -0.15027985
0003f0 ec 3e 31 bd f7 af 53 3b 82 f5 e0 3d fe 68 a9 3d
       -0.043272898 0.0032300928 0.10984327 0.08271979

net.2.bias f4 [64]
000000 e5 54 0d be 7c d1 82 3d 93 56 85 be d1 4f cd bd
       -0.13801916 0.06387612 -0.26042613 -0.100249894
000010 4e 68 27 3f d3 20 3a 3f 1b c9 5b be 1e 9c 30 3f
       0.6539353 0.72706336 -0.21463434 0.68988216
000020 6d f1 0b be 19 a5 4f 3f ba f3 dc 3d 64 83 28 3f
       -0.13666315 0.81111294 0.10788675 0.65825486
000030 09 f5 34 3f f7 8c 2a 3f 7f 16 be be 8d 7b 9b 3d
       0.70686394 0.66621345 -0.37126538 0.07591925
000040 86 ad 1e be 93 f9 2b 3f 42 18 56 bb 94 c6 3f 3f
       -0.15495881 0.67177695 -0.0032668267 0.7491238
000050 27 67 b4 bc 6a 9b 5f bd 5f 3b 1a 3f 97 c0 2b 3f
       -0.022021843 -0.054591574 0.60246843 0.67090744
000060 86 9e 54 3f 4f a6 30 3d 17 d4 e1 3e 76 a6 21 3e
       0.8305439 0.043127354 0.44107124 0.15786156
000070 c0 d7 34 bd 42 c9 11 3f be ab c7 bc 3d b4 1e 3f
       -0.044151068 0.5694772 -0.024373885 0.6199377
000080 a7 88 83 be 73 69 1d 3f b5 08 f0 bd 84 4f 95 bd
       -0.25690195 0.6148903 -0.11720411 -0.07290557
000090 9a 2e 27 3f a3 9d 4c 3d f7 75 2e 3f 09 a2 46 3f
       0.65305483 0.04995502 0.6814875 0.77590996
0000a0 ee db 99 be a2 d2 13 3f 3e 7e 93 bd a6 f8 92 be
       -0.30050606 0.57743275 -0.07201813 -0.2870533
0000b0 41 a7 60 3f cc e4 45 3f f6 ee 17 be 4d c0 43 3f
       0.8775521 0.7730224 -0.1483725 0.764653
0000c0 bd 74 86 bd 6b aa 7f 3e 4b eb 57 3f a2 85 3a 3f
       -0.06565235 0.24967353 0.84343404 0.7286016
0000d0 b6 85 1b be b4 1e 82 bd 42 b0 de bd c1 e3 17 3f
       -0.15187725 -0.063535124 -0.10873462 0.593319
0000e0 6d c9 0c be f4 aa 62 3f 17 c3 23 be 0a f8 5d be
       -0.13748713 0.88542104 -0.1599239 -0.2167665
0000f0 af 7d 48 3f 51 ac 48 be 87 35 60 3f 49 a7 1d 3f
       0.7831678 -0.19596983 0.87581676 0.6158338

net.4.weight f4 [2, 64]
000000 a6 57 18 bf 69 ea d6 bd 9d f2 16 c0 aa 1b 25 3e
       -0.5950874 -0.10493929 -2.358558 0.16123834
000010 e6 07 bb 3f b5 de d8 3f 32 98 4a c0 cc ff 86 3f
       1.4611785 1.6942965 -3.1655393 1.0546813
000020 3c 79 7f 3e e1 34 db 3f b0 d3 97 c0 1e 51 b5 3f
       0.24948591 1.7125512 -4.7445908 1.416538
000030 86 db 89 3f 1d 76 a6 3f af f6 24 c0 2d fe 8c 3c
       1.0770118 1.3004795 -2.5775564 0.017211044
000040 b0 e0 45 3d 1c 24 bc 3f de 3d 98 3d 40 f9 b9 3f
       0.04830998 1.469852 0.07433675 1.452919
000050 d7 4b 21 bd 4b 47 f9 bd 90 cb e8 3f ab cc c1 3f
       -0.039378967 -0.12171801 1.8187122 1.5140585
000060 7a 1e d9 3f 28 d6 b7 bc b8 10 e5 3f f7 0e b4 bd
       1.6962426 -0.022440985 1.7895727 -0.08791917
000070 fd 53 99 3d 1d 27 a5 3f 2c 4c f2 c0 03 75 fa 3f
       0.074867226 1.2902561 -7.5717983 1.9566959
000080 b5 d3 93 c0 f4 9d 9c 3f d4 ee d5 bf 4e 14 2d c0
       -4.619593 1.2235703 -1.671351 -2.7043643
000090 29 9c a1 3f c2 92 53 3f c8 00 ed 3f aa 52 a2 3f
       1.2625781 0.8264581 1.8515863 1.2681477
0000a0 b5 cd 8f be 2d 6d 80 3f 1e 8c a5 3e a6 08 21 be
       -0.2808663 1.0033318 0.32333463 -0.15725955
0000b0 b6 ca 9c 3e b1 17 8d 3f 27 39 34 3c f2 93 a5 3f
       0.30623406 1.1022855 0.010999954 1.2935774
0000c0 f1 b2 56 bc 7e 80 3a 3f 94 5c 94 3f f7 ee c1 3f
       -0.013104186 0.72852314 1.1590753 1.5151051
0000d0 ec 0f 89 bd 6f b1 b4 c0 a8 bc ce bc be 5f b2 3f
       -0.0669249 -5.6466594 -0.025236443 1.3935468
0000e0 0a da b6 be 78 d5 a9 3f 58 b4 33 bd 3e 67 69 bf
       -0.35713226 1.326827 -0.04387316 -0.9117316
0000f0 25 79 38 3f 66 5c 12 3d 41 4b 7c 3f 29 66 9e 3f
       0.7205985 0.03573265 0.9855233 1.2374927
000100 b8 98 4e 3f 9f 0a ac 3c d7 e4 c8 bf a4 09 0c be
       0.8070178 0.021001158 -1.5694836 -0.13675553
000110 d0 c9 bc 3f a2 93 f2 3f 68 97 8a c0 a3 0a 9b 3f
       1.4749088 1.8951304 -4.330982 1.2112621
000120 4e 25 80 be 70 4c c6 3f 25 29 59 c0 d8 ad b4 3f
       -0.2502846 1.5492077 -3.3931363 1.4115553
000130 83 80 b4 3f 23 2a 8e 3f f2 4f 48 c0 24 2f 0c be
       1.4101719 1.1106609 -3.1298795 -0.13689858
000140 7f 25 28 3e 55 2e 70 3f 06 58 a6 bd 4c 7d d8 3f
       0.16420554 0.938207 -0.08122258 1.6913238
000150 38 a0 36 bc 85 46 12 be ac 57 bb 3f 0a 2f e4 3f
       -0.011146598 -0.14284714 1.463613 1.7826855
000160 14 3a 4c 3f dd 68 15 be d4 8e 22 3f 74 91 ff 3b
       0.7977612 -0.14590783 0.6349919 0.007799322
000170 56 9f 91 bb 8e 39 cb 3f 1c 2d 5e c0 a1 5c af 3f
       -0.004444043 1.5876939 -3.4715033 1.3700143
000180 30 32 cc c0 a4 0e 97 3f fa 4d 51 c0 75 81 bb bf
       -6.3811264 1.1801343 -3.2703843 -1.4648882
000190 7b b4 f4 3f 3e 21 80 bf ec f4 21 3f 15 7b 90 3f
       1.9117578 -1.0010145 0.63264346 1.1287562
0001a0 b8 98 35 c0 66 30 b2 3f 61 aa 53 be f7 f6 37 3e
       -2.8374462 1.392102 -0.20670463 0.17965303
0001b0 37 6b c5 3f 20 c8 60 3f 1b ef cf 3c 41 40 99 3f
       1.5423344 0.87805367 0.025382569 1.1972734
0001c0 4c e0 05 bc e3 a5 0e bf cd 3b f5 3f 47 76 05 40
       -0.008171152 -0.55721873 1.9158875 2.085344
0001d0 73 c7 f6 bd 12 23 9a c0 de 84 a1 3d 7e 50 bb 3f
       -0.12049761 -4.816781 0.078866705 1.4633939
0001e0 4d 6d 26 3f 6a 72 45 3f 55 99 92 3c 2f a9 e2 3e
       0.6501053 0.77127707 0.01789538 0.44269702
0001f0 bc 18 eb 3f 50 b3 cb 3d 2a b1 ba 3f cd 65 c2 3f
       1.8366923 0.099463105 1.4585316 1.5187317

net.4.bias f4 [2]
000000 d3 78 5b 3f 13 37 e0 3e
       0.8573124 0.43792018

exp_avg f4 [64, 4]
000000 84 40 24 3e 76 a2 f4 3d ac 5f ce 3b 6f 3f da 3c
       0.16040236 0.119450495 0.006298026 0.026641576
000010 be 4e 62 bd 15 78 83 bd e4 95 83 bb 11 7b 59 bb
       -0.055250876 -0.06419388 -0.004015671 -0.0033184926
000020 37 93 02 80 7f f6 02 80 5d 17 00 00 80 89 00 00
       -2.36482e-40 -2.72097e-40 8.381e-42 4.9326e-41
000030 1d 83 3f 3c f2 22 3f 3c 72 30 48 b9 12 18 7d ba
       0.011688975 0.011666046 -0.00019091534 -0.0009654771
000040 04 00 00 80 04 00 00 80 04 00 00 80 04 00 00 00
       -6e-45 -6e-45 -6e-45 6e-45
000050 bc 07 0b bd 85 b5 d8 3b fb df b9 bb 39 0e 0c bd
       -0.033942923 0.0066134357 -0.0056724525 -0.03419325
000060 04 00 00 80 04 00 00 00 04 00 00 00 04 00 00 80
       -6e-45 6e-45 6e-45 -6e-45
000070 2d b8 74 3e 71 5a 41 3e a9 ef 25 3c 4d b1 0c 3d
       0.23898382 0.18882157 0.01012794 0.034348775
000080 1c 20 8f 3d b8 67 3e 3d 75 15 04 3b 51 ac 3d 3c
       0.06988546 0.046485633 0.002015439 0.011576728
000090 aa 4f 0f 3b 19 a7 51 3a 0b 34 02 b9 0c 31 79 3a
       0.0021867552 0.0007997617 -0.00012417154 0.0009505905
0000a0 21 d0 cb bd 3e 3c 53 be f8 49 35 bb fe d8 74 bd
       -0.09951807 -0.2062845 -0.0027662497 -0.059777252
0000b0 d5 d1 02 bc 48 6c a8 be 43 83 85 bc 6a db 72 bd
       -0.007984598 -0.32895112 -0.016297942 -0.05929128
0000c0 9a dc 9a bd 22 fd 38 be 3d 15 78 bb 70 7a 6b bd
       -0.07561608 -0.18065313 -0.0037854456 -0.057489812
0000d0 ef 05 86 3d 2a 80 1d 3d 1e 8f 75 3b df 56 5d 3c
       0.065441005 0.038452305 0.0037469338 0.013509481
0000e0 04 00 00 00 04 00 00 00 04 00 00 00 04 00 00 00
       6e-45 6e-45 6e-45 6e-45
0000f0 d3 61 f4 3c 42 44 06 3b 13 37 81 3a 34 ec 3f bb
       0.029831802 0.0020487462 0.0009858332 -0.0029285075
000100 cd ce f6 3b 3a 65 90 3c 8f aa 44 ba df a7 72 bc
       0.007531977 0.017626394 -0.0007502222 -0.014810531
000110 04 00 00 00 04 00 00 00 04 00 00 00 04 00 00 80
       6e-45 6e-45 6e-45 -6e-45
000120 04 00 00 80 04 00 00 80 04 00 00 80 04 00 00 80
       -6e-45 -6e-45 -6e-45 -6e-45
000130 64 ef 14 bc bd 61 85 bd f9 8e e4 ba ed b1 e7 3b
       -0.009090278 -0.06512783 -0.0017437629 0.007070771
000140 04 00 00 00 04 00 00 00 04 00 00 80 04 00 00 80
       6e-45 6e-45 -6e-45 -6e-45
000150 1e 86 01 be a8 db 1f be 93 1b da bc f8 34 8d 3c
       -0.12648818 -0.15611136 -0.026624477 0.017237172
000160 f1 56 e7 bd 3b 86 12 bd 68 2b d9 bb 87 c3 0f bd
       -0.1129588 -0.035772543 -0.006627489 -0.03509858
000170 c1 e1 d7 bc 61 b5 37 3b 4a 91 d4 3a 13 be f2 3b
       -0.026352765 0.0028031694 0.0016217616 0.0074079125
000180 9b 9b 09 3e 55 83 c3 3d 25 80 bf 3b 4f 92 d9 3c
       0.13438265 0.09546534 0.0058441334 0.026559023
000190 5e 7f 9f bc 26 df 50 3b 6a 8d 9d 3a aa 88 6d bb
       -0.019469913 0.0031871288 0.0012020294 -0.0036244788
0001a0 18 d5 e4 bd 87 e6 06 be b7 db 61 bc 98 a1 ae 3c
       -0.11173457 -0.13173877 -0.013785294 0.021317288
0001b0 b7 76 fb be 3e 7c bf be f1 60 2d bc 17 08 75 39
       -0.4911401 -0.37399477 -0.010582195 0.00023368034
0001c0 d3 46 9c bd a7 8e 75 bd bd 15 26 3b d8 56 7d 3c
       -0.07630696 -0.059950497 0.0025342547 0.0154626
0001d0 04 00 00 80 04 00 00 80 04 00 00 80 04 00 00 80
       -6e-45 -6e-45 -6e-45 -6e-45
0001e0 f9 f0 18 bd ad 4e 94 3c 3f 8c 47 bb b8 e6 16 bd
       -0.037339184 0.018103922 -0.0030448583 -0.036841124
0001f0 04 00 00 80 04 00 00 80 04 00 00 80 04 00 00 00
       -6e-45 -6e-45 -6e-45 6e-45
000200 3a 4a 8c 3d 8b c6 8d 3d 4c 65 14 bb b7 c2 c9 bc
       0.06850095 0.06922635 -0.0022643385 -0.02462898
000210 04 00 00 00 04 00 00 00 04 00 00 00 04 00 00 00
       6e-45 6e-45 6e-45 6e-45
000220 ac 35 9d 3d 4c 61 6b 3c 69 df c9 3b 8d fb 2b 3d
       0.07676253 0.014366459 0.006160666 0.041987944
000230 7c e9 25 3e 4a a3 0b 3e 17 f9 aa 3b d3 7c e0 3c
       0.16202348 0.13636509 0.005217682 0.02740327
000240 43 59 73 bd bf 3d 44 3c 2a 39 b6 3a 7a 79 64 bc
       -0.0594113 0.011977612 0.0013902534 -0.013944978
000250 ce 92 de 3d c2 5b 72 3d 40 fb b7 3b 6f 1a 9e 3c
       0.108678445 0.05916954 0.005614668 0.019299714
000260 04 00 00 80 04 00 00 80 04 00 00 00 04 00 00 00
       -6e-45 -6e-45 6e-45 6e-45
000270 31 61 8a 3e 6c 0a 53 3e 33 fd 06 3c 57 3b 40 3d
       0.27027276 0.20609444 0.008239078 0.04693159
000280 04 00 00 80 04 00 00 80 04 00 00 80 04 00 00 80
       -6e-45 -6e-45 -6e-45 -6e-45
000290 57 f1 8c be 16 ae 36 be 2d dd 0d bc 1e 29 36 bd
       -0.27527878 -0.17839846 -0.008658689 -0.044472806
0002a0 e6 da 11 bb 0f ab 36 3d 8f 29 e3 3b 51 8a 2d bb
       -0.0022255718 0.044596728 0.0069324444 -0.0026480148
0002b0 04 00 00 80 04 00 00 00 04 00 00 00 04 00 00 80
       -6e-45 6e-45 6e-45 -6e-45
0002c0 04 00 00 80 04 00 00 80 04 00 00 80 04 00 00 80
       -6e-45 -6e-45 -6e-45 -6e-45
0002d0 33 ce c3 3d 53 1f aa 3d bc 01 e6 3b a1 fa d6 3c
       0.09560814 0.08306756 0.0070192497 0.026242556
0002e0 04 00 00 00 04 00 00 00 04 00 00 00 04 00 00 00
       6e-45 6e-45 6e-45 6e-45
0002f0 fc 7f b7 bd a3 ed 93 3c 3c 95 12 3c df 02 c6 b9
       -0.08959958 0.01805765 0.008946713 -0.00037767642
000300 04 00 00 80 04 00 00 80 04 00 00 80 04 00 00 80
       -6e-45 -6e-45 -6e-45 -6e-45
000310 75 9d 01 3e 2d 16 c4 3d 7f 30 cd 3b c4 1b 39 3c
       0.12657721 0.09574542 0.0062618847 0.011298124
000320 07 27 ef bc eb af a6 bd 3b 9f a1 bb 56 ed 32 bc
       -0.029193414 -0.081390224 -0.004932312 -0.010920843
000330 f0 dd 66 3b 0f 87 5a 3c 7d 33 9a 38 63 fd b3 ba
       0.00352275 0.013337865 7.352883e-05 -0.0013732131
000340 04 00 00 00 04 00 00 80 04 00 00 80 04 00 00 00
       6e-45 -6e-45 -6e-45 6e-45
000350 97 78 6a 3e 4a 21 3a 3e 40 4d 13 3c ee 43 22 3d
       0.22897564 0.18176761 0.008990586 0.039615564
000360 00 00 00 00 00 00 00 00 00 00 00 00 00 00 00 00
       0.0 0.0 0.0 0.0
000370 04 00 00 00 04 00 00 80 04 00 00 80 04 00 00 00
       6e-45 -6e-45 -6e-45 6e-45
000380 fd c3 02 3b f4 66 c8 bc eb c2 62 ba f9 78 80 3a
       0.0019953244 -0.024463154 -0.0008650261 0.0009801678
000390 04 00 00 80 04 00 00 80 04 00 00 00 04 00 00 00
       -6e-45 -6e-45 6e-45 6e-45
0003a0 04 00 00 80 04 00 00 00 04 00 00 00 04 00 00 80
       -6e-45 6e-45 6e-45 -6e-45
0003b0 c9 c5 c8 3d 8f f1 9d 3d 51 a5 16 ba e5 eb bf bb
       0.098033495 0.07712089 -0.000574668 -0.0058569782
0003c0 04 00 00 00 04 00 00 00 04 00 00 00 04 00 00 00
       6e-45 6e-45 6e-45 6e-45
0003d0 04 00 00 00 04 00 00 00 04 00 00 80 04 00 00 80
       6e-45 6e-45 -6e-45 -6e-45
0003e0 20 40 97 3c 3c 65 5b 3d d0 3c 96 bb 6a f7 0c bd
       0.018463194 0.05356334 -0.004584886 -0.03441564
0003f0 04 00 00 00 04 00 00 80 04 00 00 00 04 00 00 00
       6e-45 -6e-45 6e-45 6e-45
