CartPole/Experiment_1/23-09-26_22-10-39-937242_DQN/checkpoints/agent_169500.pt (torch, 82603 bytes, 24 tensors)

net.0.weight f4 [64, 4]
00000000: 0b84 25bd 9f04 b23d 6f3c a53e 5236 2f3b
00000010: 563d 0d3e 0663 1bbd a637 903f 06be 5dbe
00000020: 3db2 853c 4625 b6bd 617d 2440 9c95 713e
00000030: 8323 5dbd a580 1fbf da04 a7bf 797b f1be
00000040: e6bc abbd d77e a8bc 0cd1 463d 72b2 363b
00000050: a864 323e b603 45be ce3e d9bf 115b 0fbd
00000060: 88a6 25bd 2d24 893d c24c 18bf 2c48 013e
00000070: 4dd1 eabd a59f 223d d199 263e 442b c53d
00000080: fe6c 11bd dc30 a3bd 4595 803e c4a8 dabd
00000090: aa6b 13be 616d 5e3d ee87 cdbb 0eee 293e
000000a0: fa56 8abe ecee fabd cf6a 6abf 1c58 cbbd
000000b0: 546c e0bc 4c20 bdbd c052 08c0 eb05 bebe
000000c0: 5af5 acbe 9b0b 68be 600a dfbc f2f2 14be
000000d0: bb0b 8b3e e4d4 873d 7263 b23f 3a9f e93e
000000e0: 6fbc db3c 9efd 0dbc fc6a 3ebe 8886 b0bc
000000f0: cb0c 9a3e 131f 073e 3467 df3f a475 7a3e
00000100: 1000 413e 9895 db3e 66b6 0abf 885f 8f3e
00000110: 6543 5e3e 3333 6ebd 8662 68be 8555 87bc
00000120: c8b4 063d 050c 27bd 701b 83bd 4bd7 eebc
00000130: 94a9 1c3d a086 f8bd 7277 f8bf 3912 f3be
00000140: f6e3 023c 5311 543d 4d4c 15bf de0a b53c
00000150: 3450 eb3e 81b9 343e 0484 173f 42dc e53d
00000160: 47aa 003e c876 93be cff9 1abf 5382 6c3d
00000170: ccb3 d83e 6301 32be 7d94 4cbf b852 82be
00000180: 3ba5 2bbb 67ff 213d 59de 1140 4dbc a9bd
00000190: de3b ac3d 6358 39bf 314f 413e 8117 c63d
000001a0: 16cd 833e 5711 513e c632 b73f ed79 5a3e
000001b0: c8d1 2a3f ac5e d23e df3e 5d3f 954c 953e
000001c0: 8cb0 cb3e dc4c b3bd b3fb ff3f 11f9 853d
000001d0: d17f 41be 596d 5dbe e636 45bf 39cf 0bbf
000001e0: 5c86 63bd 375d 313f eaf9 c23f af22 d53d
000001f0: fbcd e9bc 62e9 a8bc a64b ee3c 7401 91bd
00000200: 6470 a33c db13 3c3e 6b3f bebf 3bce ebbd
00000210: d225 10bd f5ca cc3c 0865 4ebd cc83 963c
00000220: 3076 3dbd 4e69 173e bb73 c23f 92ae bd3e
00000230: 53be fc3d d856 d6bc 67e1 11bb ae04 873d
00000240: 0cd3 38bd 2873 23bd 3c0c 38c0 dfe5 99be
00000250: 9c2e 7b3e 08ab c9be 715e 843f d5b2 a4be
00000260: 4007 47bd 4228 863d 815a 55be f070 243e
00000270: 406d 003e fafa 9fbd 25a0 963d 8ca5 4f3d
00000280: 7c2b 11be 71b7 42bd e803 46be 8c7d 6ebd
00000290: d8b6 143f 28a0 7e3e 39ef 87bf 0778 0b3e
000002a0: cdb7 a93d e7e5 0b3e 1ab4 0a40 587d 3d3e
000002b0: a8b5 d1bd c154 143e c7eb 623e 3c3b 1e3e
000002c0: a4b6 2b3d f7e1 e0bc 99a0 a6bd ddef 3cbc
000002d0: 33ae 5bbe ae6a 5d3e cc01 1540 d0f6 023e
000002e0: d8e7 e1bc 2eaa 12be 277b 14c0 1a2f ffbe
000002f0: c6fa ea3e 98ad 5b3e 5b7b aabf c601 563c
00000300: 8e0a 30bc 7107 353d 3c70 caba 194f 1f3d
00000310: 356e 12be a9b4 ba3d f52b b7be 41cf 693d
00000320: cd28 08bf 339f 1abe 4b54 e8bf b75f 12be
00000330: c8f5 1dbf 9c77 5abe 47c1 353f 140c b2bd
00000340: 5361 f0bd 7a3d 413e 4125 a43f 2c81 a83d
00000350: 5a95 4fbd b271 73bd 8570 fe3e 94e0 ad3d
00000360: 47a5 173d 228a 7d3c 1296 53bd 53c0 933c
00000370: e723 5fbe 5dab 413e 938b 1d3f b58d 57be
00000380: a9ee 853e 4d6f 33be 747c 87bf a6d3 aa3d
00000390: f18d 8d3d 5fbf afbd f7fc ecbe 7e8e 7c3c
000003a0: 8d1f 2f3b 202f 4f3d 5322 d5bd b2da 9e3d
000003b0: 7eb0 ab3c d4f9 4f3d 8cfb 92bf 1872 c2be
000003c0: 7328 f03d 8a49 4cbc e2ef 823f b0d8 973c
000003d0: 3cb0 c5bc d1b4 823c 4f6f 69bd ae8b efbc
000003e0: c243 203e d4b8 f0bd 90eb 04c0 f344 8e3c
000003f0: c8ca e93d 7340 fdbd 51b1 bb3e 7319 5ebd
-0.04040913 0.08692288 0.3227267 0.0026735258 0.13792929 -0.037936233 1.1266983 -0.2165452
0.016320342 -0.08893828 2.5701525 0.23592228 -0.053988945 -0.6230567 -1.3048356 -0.47164515
-0.08385639 -0.020568294 0.048539206 0.0027877358 0.1742121 -0.19239697 -1.6972291 -0.034998957
-0.04044202 0.06696353 -0.59492123 0.12625188 -0.11465702 0.03970303 0.16269614 0.09627393
-0.035504334 -0.079683036 0.25113884 -0.10676721 -0.1439654 0.05430353 -0.0062723076 0.16594717
-0.27019483 -0.12252602 -0.91569227 -0.09928915 -0.027395405 -0.09234676 -2.1300507 -0.3711389
-0.33780938 -0.22660677 -0.027226627 -0.14545801 0.27157387 0.066324025 1.3936598 0.45629293
0.02682325 -0.008666424 -0.18595499 -0.021548524 0.30087885 0.13195448 1.745337 0.24458939
0.1884768 0.42887568 -0.5418457 0.28002572 0.21705396 -0.058154296 -0.22693834 -0.016520271
0.03288725 -0.040782947 -0.06401718 -0.029155394 0.03824766 -0.12135053 -1.9411452 -0.4747484
0.00798892 0.051774334 -0.5831955 0.022099908 0.45959628 0.17648889 0.59185815 0.112236515
0.12564956 -0.2880156 -0.6053743 0.057741474 0.42324674 -0.17383341 -0.79914075 -0.25453734
-0.0026191014 0.03955021 2.279196 -0.08287869 0.08409856 -0.7240049 0.18877865 0.09672452
0.25742406 0.20416771 1.431237 0.21335573 0.6672635 0.41087854 0.8642406 0.2915999
0.39783132 -0.08754894 1.9998688 0.06541646 -0.18896414 -0.21623744 -0.77036893 -0.5461307
-0.055548057 0.6928286 1.5232518 0.10407006 -0.028540602 -0.020619098 0.029088806 -0.07080355
0.019951053 0.1836695 -1.4863104 -0.11513945 -0.03519232 0.024999121 -0.05038932 0.018373393
-0.04625529 0.14786264 1.5191568 0.3704725 0.12340989 -0.026164457 -0.0022259594 0.065926895
-0.045123145 -0.039904743 -2.8757467 -0.3005819 0.24529499 -0.393883 1.0341321 -0.32167688
-0.0485909 0.06550647 -0.20835306 0.16058707 0.12541676 -0.07811542 0.07354764 0.050694987
-0.14176744 -0.047538225 -0.19337428 -0.0582252 0.580915 0.24865782 -1.061988 0.13620006
0.0828701 0.1366192 2.1672425 0.18504846 -0.10239726 0.14485456 0.22160254 0.15452284
0.041922227 -0.027451498 -0.081361 -0.011531797 -0.2145317 0.21622726 2.3282347 0.12789464
-0.027576372 -0.14322731 -2.3200166 -0.49840623 0.4589445 0.2145294 -1.3318895 0.013061946
-0.010744704 0.04419655 -0.0015444825 0.038893793 -0.14299853 0.091164894 -0.35775724 0.05708242
-0.5318726 -0.15099792 -1.8150724 -0.14294325 -0.6170316 -0.2133469 0.7099804 -0.0869371
-0.11737313 0.18871108 1.2823869 0.082277626 -0.050679542 -0.0594346 0.4969522 0.084901005
0.037022855 0.015474828 -0.05165679 0.018036043 -0.2179104 0.18913026 0.615411 -0.2105015
0.26158646 -0.17522927 -1.0584855 0.0834115 0.06911839 -0.08581423 -0.46286747 0.015414832
0.0026721687 0.05058205 -0.104069375 0.077565566 0.020958181 0.050775364 -1.1483016 -0.37977672
0.11726465 -0.012468705 1.0229456 0.018535942 -0.024131887 0.01595536 -0.056990918 -0.02924141
0.15650848 -0.11754003 -2.0768776 0.017366862 0.114156306 -0.12365808 0.3665872 -0.05422349

net.0.bias f4 [64]
00000000: 8456 e63e 1642 bf3a f897 10bf ad72 8cbe
00000010: 58ed 97be 4cbb ce3e 08d9 43be 25a8 183f
00000020: c539 9b3e c027 e4be d676 dabe add4 1fbf
00000030: 5172 0cbf a9c6 ac3b 2c0f 16be f3e8 903e
00000040: 5183 84be 8e74 02bf 756c 30be 6855 90be
00000050: d2b2 e6be d6a8 49bf f9c3 9e3d 1eeb 4fbf
00000060: feb5 d23e f6db 5bbf ddae 10bf 5e36 14bf
00000070: 7334 15be 7dc8 13bf 8be4 3cbe 5354 86be
00000080: ed81 fd3e 217f 2cbe 3184 d6be ae04 053f
00000090: cec2 583e 10d7 0e3f 255e 99be 736e 363f
000000a0: 31bf 0ebf 8075 aabe 6375 e73e ed98 00bf
000000b0: b519 1bbe 1c29 ec3e 7601 34bf fb62 4dbf
000000c0: ab13 fdbd f506 c03e e3a9 0f3f 77f1 50be
000000d0: 9e21 02bf 559e 133f b790 93be c332 d1be
000000e0: ae62 7cbd 2136 dcbe 6118 30be 267d f53e
000000f0: cba6 05bf bf71 40be f31b fa3e d469 d2be
0.4498788 0.0014591839 -0.56481886 -0.2743124 -0.29673266 0.4037727 -0.1912576 0.5963157
0.30317512 -0.44561577 -0.4266879 -0.6243389 -0.54861933 0.0052727056 -0.14654225 0.28302726
-0.25881436 -0.509591 -0.17228873 -0.2819016 -0.45058304 -0.7877325 0.077522226 -0.81218135
0.41154474 -0.8588251 -0.5651682 -0.5789546 -0.14570789 -0.57727796 -0.18446557 -0.2623621
0.49513188 -0.16845371 -0.4189773 0.51960266 0.21168062 0.5579691 -0.2995464 0.7126228
-0.55760485 -0.3329277 0.45206746 -0.50233346 -0.15146525 0.46125114 -0.7031473 -0.8022916
-0.12357267 0.37505308 0.561186 -0.20404612 -0.50832546 0.5766347 -0.28821346 -0.4085904
-0.061617546 -0.43010047 -0.171968 0.47947043 -0.5220763 -0.1879339 0.4884945 -0.41096365

net.2.weight f4 [64, 64]
00000000: 783f 40be f46c 30be 41c3 d53e 769c f63d
00000010: 65da d33c 5171 22be 8bb8 fbbe 9e55 8ebe
00000020: a54c d6bd a385 2a3d 44f6 3abd 0d89 83be
00000030: 78b5 91be 6957 71bd 4463 2dbe a277 d4bd
00000040: 2c1e 8dbd 4e9a 12bf 9d75 1abe b525 65be
00000050: b974 d13a 4b1e 923d 9a76 26bf b2d4 53bf
00000060: 67a9 6c3e 4c83 f5be 5377 1f3f 766b 763e
00000070: 0839 ebbe 5145 a2ba 67e2 b63d bbd3 063e
00000080: ff19 27bf 24c2 923d 4087 a0be 0355 5b3d
00000090: 20a6 f0bd 4cd8 a4bd 6b84 67be 102d 51be
000000a0: bbfc 9d3d 83d6 83be abec 623c 1c43 12be
000000b0: 4d8a 053d dc19 023f fef8 943d 1dcd 943d
000000c0: 3fc5 5dbd a29a 28be d76a dabd 789a fcbe
000000d0: 5c5b cabd 57b2 0cbe 074d de3d 585d fd3d
000000e0: bf08 38bd df09 dfbe 330a 9ebb 2e82 02bf
000000f0: a17e c43f 4c96 21bc f062 6abe 9e4d e53e
00000100: 3ed1 bf3d 3d9b ed3d 4e6e 4dbe 71e1 4a3e
00000110: 6506 543c a703 6f3d e7af 7ebb 5f22 1dbe
00000120: 439d 17be 4d46 3ebc 2451 b3bd 377b bcbd
00000130: a15c eb3d e5d7 b6bd 9aad 353d 8a0d febd
00000140: 6e7d 483d 1440 163d 3b05 47bd 95b9 0ebe
00000150: 356b 8abd eed5 12bd 4d0b c2bb 9286 17be
00000160: 6ed5 97bd b97f 563d 9e25 273e 5b64 27be
00000170: 152f b7bd 554d abbd 0440 71bd c08a 51bd
00000180: 9fe6 35be b7b1 be3c 3cbc 70bd 7b3b 18bd
00000190: 0a6c 5bbe f770 2c3e c567 7e3e a76d 60be
000001a0: edb3 21bc 6b90 6bbd 7816 93bd 3812 bb3c
000001b0: 73ef bd3d 4887 27bb e585 30be e609 39be
000001c0: 0444 463e f34d 28be 2aab 07be 6996 57bd
000001d0: d7bb 0cbd d0ce 6ebc eb43 113e 497b 9abd
000001e0: eb07 4ebe 567e 7cbd 39c9 443e 0f49 db3d
000001f0: cd96 163e 6f7d d4bd 82a1 51be 94f6 c33d
00000200: c7bc 43be 9f53 32bf 8aaa b4be 2e57 6dbf
00000210: 8057 bcbd 7e0b 18bf 70e9 7a3d cbd1 23be
00000220: 4f9e 2cbe eeda 393f 3010 2240 806c debe
00000230: 911c ac3f a101 44bf c82c e73d aad8 b7be
00000240: bec0 8bbe 40a9 41bd cb3a 813c 3dea e3be
00000250: baee d3be b7de b6bd adef 8bbe ecc7 263f
00000260: 9453 c2be 5867 243d 360d 093f 3f1f 27be
00000270: 3783 2f3c 5435 f23d 4194 30bf 72f4 723d
00000280: f4f6 97be f0a2 183e 19b5 073e d57b f3be
00000290: 5bf8 213f 9cce 4dbe 2687 a63e 3ec0 1dbe
000002a0: 0d0b a43f 84fe 6e3f d49f 9ebd 6872 84bd
000002b0: 5933 9a3d bb74 a4be e112 963e c137 65be
000002c0: 02bf d3bd 06db 3b3d 6180 4bbf 280b 5b3f
000002d0: 0073 273e 2899 0cbe e3b1 0dbd b133 f8be
000002e0: 2ee7 87bf 1c85 92be 9794 92bd 15a5 62bf
000002f0: fcf9 2f3f 4032 76bd 21be 57bf 2285 ad3e
00000300: 58e0 d7bc 1736 763d 776e 52bd 70fe 5b3d
00000310: ac22 bdbd 993e 15bd 413e f23c 278f d8bd
00000320: c9d5 b7bd 70c4 81bd 83d5 6dbc b382 49bc
00000330: 3fec d63d c2ef b8bd b85d e1bd e183 1d3c
00000340: 1109 d33c 0880 bdbd bb7d f43d b460 36be
00000350: a1e2 0ebd ea36 5bbd 84b8 c83c 4739 adbd
00000360: df31 54be 46b3 2e3d f79e 35bd ac17 8a3d
00000370: f850 1e3e 729e 913c 9f3e f43c 1a9c febd
00000380: cf60 fabc 4c42 813e e933 033c 042c 57be
00000390: 9f26 53bd d236 f5bd 2317 28bd 9a31 34be
000003a0: fd9f e3bc b8c6 553d 0e12 23bc 83ca 99bd
000003b0: 22ac 643b d850 38bd 6097 6dbd 2668 903d
000003c0: 15ec 643e 0732 3fbd 91b0 bebd 3c93 0cbe
000003d0: 143c 78bd 67ce 143d 6af5 ecbc b08e 72bb
000003e0: bb21 2cbb 5fcc 82bd 5dde 6abd fde2 19be
000003f0: ec3e 31bd f7af 533b 63f5 e03d fe68 a93d
-0.18774211 -0.17229062 0.4175053 0.12041561 0.025860975 -0.1586354 -0.49164233 -0.27799696
-0.104638375 0.041631352 -0.045645013 -0.256905 -0.28458762 -0.05892125 -0.16932398 -0.10374381
-0.068905205 -0.572667 -0.15083928 -0.22377665 0.0015980221 0.07134684 -0.6502472 -0.8274642
0.23111497 -0.47951734 0.6229145 0.2406443 -0.4594195 -0.0012380277 0.089299016 0.13166706
-0.6527404 0.07165936 -0.31353188 0.05354787 -0.11750436 -0.08049068 -0.22609107 -0.20427346
0.0771422 -0.25749597 0.013850371 -0.14283413 0.032602597 0.5082071 0.07274054 0.07265685
-0.054143187 -0.16465238 -0.10664909 -0.493366 -0.09880707 -0.13739906 0.108545355 0.123713195
-0.044930216 -0.4356222 -0.004822993 -0.5097989 1.5351144 -0.009862494 -0.22889304 0.4478578
0.09366082 0.11601875 -0.20061609 0.19812562 0.012940978 0.058353093 -0.003886217 -0.15345143
-0.14806084 -0.011613441 -0.08755711 -0.09203189 0.11492277 -0.08927897 0.044355012 -0.12404926
0.048947744 0.036682203 -0.048588973 -0.13937981 -0.06758729 -0.03584855 -0.0059217573 -0.14797428
-0.07413755 0.0523679 0.16322944 -0.16346876 -0.08944527 -0.08364359 -0.05889894 -0.051157713
-0.17763756 0.0232781 -0.058773264 -0.0371661 -0.21427932 0.16839968 0.24844272 -0.21916829
-0.009869558 -0.057510775 -0.0718202 0.022835836 0.09274187 -0.0025562812 -0.17238577 -0.18070182
0.19361883 -0.16435985 -0.13248888 -0.052633677 -0.034358826 -0.014575675 0.14186065 -0.07543046
-0.20120208 -0.06164392 0.19217385 0.10707294 0.14705963 -0.10375487 -0.20471767 0.095685154
-0.19114982 -0.69658846 -0.3528636 -0.9271115 -0.09196377 -0.59392536 0.06125778 -0.15997998
-0.16857265 0.72599685 2.532238 -0.43442154 1.3446218 -0.76564986 0.11287838 -0.3590749
-0.27295488 -0.04728055 0.015775105 -0.44514647 -0.4139307 -0.08929198 -0.27331296 0.65148807
-0.3795439 0.04013762 0.53535783 -0.16320513 0.010712436 0.11826578 -0.6897622 0.059315152
-0.29680598 0.14905906 0.13252677 -0.47555414 0.63269585 -0.20098346 0.32524985 -0.15405366
1.2815872 0.9335711 -0.077453285 -0.06467134 0.07529325 -0.32120308 0.29311278 -0.2238455
-0.10339166 0.045863174 -0.79492766 0.855639 0.16352463 -0.137303 -0.034593474 -0.48476937
-1.0617425 -0.2861718 -0.071572475 -0.88533145 0.6874082 -0.060106516 -0.8427449 0.33890635
-0.026352093 0.060110178 -0.05137488 0.053709447 -0.09235129 -0.03643665 0.0295707 -0.10574179
-0.08976323 -0.063362956 -0.014516237 -0.0122992275 0.10494279 -0.09030105 -0.110042036 0.009613962
0.02576116 -0.09252936 0.11938044 -0.17810327 -0.0348841 -0.053519167 0.024502046 -0.084581904
-0.2072215 0.042651437 -0.044341054 0.06742796 0.15460575 0.017775748 0.029815016 -0.12432118
-0.03056374 0.25245893 0.008007982 -0.21012884 -0.051550504 -0.11973347 -0.04103769 -0.17597046
-0.02778625 0.052191466 -0.009953035 -0.07509329 0.0034892638 -0.044998974 -0.05800569 0.07051115
0.22355683 -0.04667857 -0.09311021 -0.1372804 -0.06060417 0.036329653 -0.028925616 -0.0037011318
-0.0026265222 -0.06386637 -0.05734097 -0.15027995 -0.043272898 0.0032300928 0.10984304 0.08271979

net.2.bias f4 [64]
00000000: 5055 0dbe c8d0 823d dc51 7bbe 5d50 cdbd
00000010: 2b89 253f aaec 2b3f 010d 81be 917c 2c3f
00000020: d8f1 0bbe f1e7 4b3f 76d5 333e 15a6 1d3f
00000030: 270c 2f3f d90c 283f db17 d0be 5e7b 9b3d
00000040: b5ad 1ebe 3eb2 293f 6718 56bb b98c 3d3f
00000050: 1a6d b4bc 1a9c 5fbd d26c 123f bae5 263f
00000060: e913 523f 15a6 303d 1fee db3e 0ea6 213e
00000070: d1d7 34bd 33e4 0d3f de17 bbbd 609b 163f
00000080: 1497 83be 0af9 183f 032e f0bd a905 65bd
00000090: def2 1d3f ead4 c9bb 7f78 283f 42ca 473f
000000a0: 15dc 99be f66a 0d3f 3c7e 93bd a6f8 92be
000000b0: c8a2 5b3f 3e2a 423f 0cef 17be b1a1 413f
000000c0: 2e75 86bd 2c51 713e 2cfd 533f 0cdb 383f
000000d0: ed85 1bbe 2895 72bd cfb0 debd 9085 123f
000000e0: ab02 fabc 7986 623f 0ec3 23be 9b63 42be
000000f0: 22ac 403f 02ad 48be 7924 5a3f 71f7 1c3f
-0.13802075 0.06387478 -0.24542946 -0.10025094 0.64662427 0.67157996 -0.25205234 0.67377573
-0.13666475 0.7965079 0.17561898 0.61581546 0.6837792 0.65644604 -0.406432 0.0759189
-0.15495951 0.662876 -0.0032668354 0.7404285 -0.02202468 -0.05459223 0.57197297 0.65194285
0.8206163 0.04312714 0.4295511 0.15786001 -0.04415113 0.5542633 -0.09135412 0.58830833
-0.257012 0.59755003 -0.11727526 -0.0559136 0.6169871 -0.0061594145 0.6580886 0.78042996
-0.30050722 0.55241334 -0.07201812 -0.2870533 0.8579526 0.75845706 -0.14837283 0.75637347
-0.06565319 0.23566121 0.82808185 0.7220924 -0.15187807 -0.059224278 -0.10873567 0.5723505
-0.03051885 0.8848644 -0.15992376 -0.18983309 0.75262654 -0.19597247 0.852119 0.61315066

net.4.weight f4 [2, 64]
00000000: d957 18bf b1e9 d6bd 52f2 16c0 aa1b 253e
00000010: 8182 a73f 5488 bd3f 65d7 4ac0 7a78 883f
00000020: b179 7f3e ade4 c53f f71a 98c0 a6ee 9d3f
00000030: f732 7f3f 4676 a63f 24be 2ac0 93fe 8c3c
00000040: 4de0 453d d506 b43f 3e3e 983d a402 b73f
00000050: d14b 21bd b946 f9bd c7d2 b43f 3628 b63f
00000060: f283 db3f 9dd6 b7bc 1975 dc3f df0e b4bd
00000070: 3153 993d 008b 9b3f 08cc edc0 e950 d33f
00000080: bcd1 93c0 0bbe 8d3f 09e3 d5bf b9bb 2fc0
00000090: d321 853f 7ce5 0e3f c495 e53f ba44 9d3f
000000a0: b3cd 8fbe 58ae 543f 068c a53e 7908 21be
000000b0: b3bb 213e 6573 8e3f 7738 343c 7a6e 9f3f
000000c0: 1eb2 56bc 3614 363f 3054 8a3f 84d5 b13f
000000d0: 9a0f 89bd ea70 b0c0 78bc cebc f779 9a3f
000000e0: 1f0c babe d995 ad3f 55b4 33bd 4cf2 6abf
000000f0: 94fb 323f b15c 123d cede 5d3f 0661 993f
00000100: 4898 4e3f 450b ac3c 2ad0 cabf 7309 0cbe
00000110: 1771 b33f c76c dd3f 7dd9 8ec0 e10d 923f
00000120: bc24 80be e71c ba3f 539f 5cc0 cc6e ad3f
00000130: 70b8 a53f 6179 853f 1a82 58c0 bf2e 0cbe
00000140: 7f25 283e 28ba 803f ad57 a6bd 936b d23f
00000150: 4eac 36bc 6046 12be 11dd a23f 400f e43f
00000160: f07a 483f c068 15be d021 2a3f 7a91 ff3b
00000170: 539f 91bb 2439 c53f 9e8e 65c0 b837 af3f
00000180: d53b ccc0 bc5a 933f b95c 51c0 e609 bebf
00000190: 2296 de3f c363 5fbf c298 363f 500c 873f
000001a0: be98 35c0 76ff a63f 29aa 53be 25f6 373e
000001b0: 72a6 bc3f f8c4 553f 1bef cf3c 7474 933f
000001c0: f1df 05bc b6c9 f5be d5c3 ef3f dde7 f83f
000001d0: a4c6 f6bd 5300 a1c0 5084 a13d 0a50 ad3f
000001e0: 1310 2a3f 5365 3e3f 4399 923c c4a6 e23e
000001f0: c857 db3f fdb2 cb3d f59b b83f 2a78 b73f
-0.59509045 -0.10493792 -2.35854 0.16123834 1.3086702 1.4807229 -3.1693966 1.0661767
0.24948765 1.5460411 -4.7532916 1.2338455 0.9968714 1.3004844 -2.6678553 0.017211234
0.048309613 1.4064585 0.07433747 1.4297681 -0.039378945 -0.121716924 1.4126824 1.4231021
1.7149642 -0.022441203 1.7223235 -0.08791899 0.074865706 1.2151794 -7.431156 1.6509067
-4.6193523 1.1073622 -1.6709911 -2.7458327 1.0400947 0.55818915 1.793633 1.2286599
-0.28086624 0.8307853 0.32333392 -0.15725888 0.15794258 1.1128966 0.01099979 1.245559
-0.01310399 0.7112459 1.0806942 1.3893285 -0.06692429 -5.5137835 -0.025236353 1.2068471
-0.36337373 1.3561355 -0.04387315 -0.91775966 0.6991513 0.03573293 0.866681 1.1982734
0.8070111 0.021001467 -1.5844777 -0.1367548 1.4018887 1.7298821 -4.464049 1.1410486
-0.25028026 1.454007 -3.4472244 1.3549438 1.2946911 1.0427667 -3.3829408 -0.13689707
0.16420554 1.005681 -0.081221916 1.6439079 -0.011149479 -0.14284658 1.2723714 1.7817154
0.7831259 -0.1459074 0.66457844 0.0077993246 -0.0044440418 1.5408063 -3.5868297 1.3688879
-6.3823037 1.1512065 -3.2712843 -1.4846771 1.7389567 -0.872616 0.7132684 1.0550632
-2.8374476 1.304671 -0.2067038 0.1796499 1.4738295 0.83503675 0.025382569 1.1519914
-0.008171068 -0.48005456 1.8731638 1.9445759 -0.120496064 -5.0312896 0.07886565 1.3540051
0.6643078 0.7437336 0.017895347 0.44267857 1.7136164 0.09946249 1.4422594 1.4333546

net.4.bias f4 [2]
00000000: f034 553f b1b0 d83e
0.832839 0.42322305

net.0.weight f4 [64, 4]
00000000: b369 18bd 580c ae3d d375 a13e edf7 7c3b
00000010: f9a7 f13d f5b0 92bd 6c7d 8f3f 7a85 86be
00000020: cd19 c83c 1240 aebd e464 2440 ef33 6f3e
00000030: cbbf 85bd 1ee2 21bf c6e0 9ebf 9f62 f1be
00000040: 46bd abbd 967f a8bc 89d0 463d bfb2 363b
00000050: 2734 343e b586 44be 1e16 d9bf 36a0 1bbd
00000060: 3255 28bd 547b 8a3d 2922 18bf 7f9c 003e
00000070: aed7 e7bd 28e3 1e3d bd3e 223e a908 c53d
00000080: 4f98 0bbd 32e2 a2bd da90 7d3e a6ad e1bd
00000090: 456c 13be 126d 5e3d 4987 cdbb ffed 293e
000000a0: 7f2f 89be 3b62 f1bd 9840 6bbf 0fbc d1bd
000000b0: 2394 40bd 0a1b e5bd 0294 09c0 6e0d c8be
000000c0: fb40 acbe e358 5cbe f22f 84bc 7323 12be
000000d0: fd70 923e ddfc b13d 9013 af3f 6677 f43e
000000e0: c9bc db3c a5fd 0dbc 886a 3ebe 4886 b0bc
000000f0: bb1d 923e 3b87 0a3e 8527 e03f d3d9 6b3e
00000100: d9c4 193e adad de3e 2c8a 0abf 3332 633e
00000110: a943 5e3e 9332 6ebd 4b62 68be bc55 87bc
00000120: fec2 5b3c 84d0 76bd 92fc aabd 5d30 47bd
00000130: fc0b 723c 1773 1abe db58 f5bf 9d55 01bf
00000140: 3ce4 023c 8111 543d bd4c 15bf 880a b53c
00000150: e451 ec3e a263 293e a546 153f 2a90 bd3d
00000160: 2bcd e13d d145 91be 4804 19bf 3b88 743d
00000170: 77bc d83e 8db3 31be 6484 4cbf e412 82be
00000180: d841 45bb 1953 4d3d 8819 1140 6f5b c7bd
00000190: 5df1 cc3d 0b4c 37bf deed 2e3e 2b31 c23d
000001a0: 564e 833e 5f3c 543e f70e ba3f 8bb2 7f3e
000001b0: d3fe 2b3f 6774 cc3e 8f37 613f 92ae 9d3e
000001c0: 9c00 cb3e 8408 acbd 39d6 0040 c34a 9e3d
000001d0: 37ee 44be 981f 6cbe f54c 49bf 3b52 02bf
000001e0: 1aaa e7bd bca7 253f af54 c33f d989 3d3d
000001f0: 5ace e9bc d6e9 a8bc 934b ee3c be00 91bd
00000200: e4fa da3c 843a 443e 9af5 bdbf d64a fbbd
00000210: 3625 10bd c8cb cc3c 6164 4ebd 7584 963c
00000220: 2d27 76bd e6d2 123e 719e c23f 128f c23e
00000230: 5fee 023e 1db7 bdbc 338a 30bb 21ac 863d
00000240: 3ca7 44bc f329 fabc 8fc9 36c0 16d0 98be
00000250: 294e 663e 4257 d0be 3d08 863f 7c05 a2be
00000260: 0008 47bd 2d28 863d 6a5a 55be 4e71 243e
00000270: 6ae3 023e 6f56 9ebd 4627 8e3d 0230 4e3d
00000280: b52b 11be 18b8 42bd a004 46be 5a7e 6ebd
00000290: 1e72 163f 7891 703e e80b 8bbf 52a0 d13d
000002a0: 7793 af3d e60f 133e 435a 0b40 c355 4c3e
000002b0: 57c5 d5bd 62e6 153e 3433 653e 2e1e 1d3e
000002c0: 3fb6 2b3d c2e2 e0bc aea0 a6bd 67f0 3cbc
000002d0: 39fb 59be 4fe1 5e3e af4d 1440 8515 e23d
000002e0: 2434 52bd 53b3 2bbe c5fb 15c0 e484 02bf
000002f0: b1ff f53e 50b8 4c3e a4bb a7bf 2675 24bc
00000300: d70a 30bc 6807 353d a870 caba 764e 1f3d
00000310: 43b3 11be 7018 b13d 35f5 babe b77a 673d
00000320: 97d1 02bf 2e69 2ebe 0e64 e7bf c573 11be
00000330: dc99 1dbf 928d 4fbe 6a45 353f 8041 bebd
00000340: 3dff efbd f32d 413e 76f4 a33f a560 ac3d
00000350: 19f3 45bd c2a1 6cbd c544 fd3e 7707 ac3d
00000360: 47a5 173d 228a 7d3c 1296 53bd 53c0 933c
00000370: 4b4f 63be aaab 3b3e 1aa0 1e3f 67bf 49be
00000380: 86eb 903e 263d e9bd 9d19 88bf abfa 553d
00000390: ed8d 8d3d d6bf afbd 6bfc ecbe 238f 7c3c
000003a0: 1c31 043b 0dde 513d 1dcb d3bd 0383 9d3d
000003b0: b9d2 a83c 61ae 513d c322 93bf 47fa c6be
000003c0: eb28 f03d 5149 4cbc f4ef 823f 15d9 973c
000003d0: 41b0 c5bc 5cb5 823c 0b6f 69bd e28b efbc
000003e0: 2442 223e 1385 efbd 9df4 04c0 edb4 633c
000003f0: 3acb e93d 4341 fdbd a7b1 bb3e 7a19 5ebd
-0.037210178 0.08498448 0.31535205 0.0038599924 0.11799616 -0.07162658 1.1210151 -0.2627371
0.024426365 -0.08508314 2.5686579 0.23359655 -0.06530722 -0.6323565 -1.2412345 -0.47145554
-0.083857104 -0.02056865 0.04853872 0.0027877537 0.1759802 -0.19192012 -1.6959875 -0.037994586
-0.041096874 0.06761804 -0.59427124 0.12559699 -0.113204345 0.03879085 0.15844245 0.096207924
-0.0340808 -0.079532996 0.24762288 -0.11019449 -0.1439677 0.054303236 -0.0062722308 0.16594695
-0.2679405 -0.11786314 -0.9189544 -0.102409475 -0.047016274 -0.11186798 -2.1496587 -0.39072746
-0.33643326 -0.21518283 -0.016136143 -0.14271335 0.28601828 0.08690808 1.3677845 0.47747344
0.026823418 -0.008666431 -0.18595326 -0.021548405 0.28538308 0.13528149 1.751206 0.23032312
0.15016498 0.4349188 -0.54117084 0.22187118 0.21705498 -0.0581537 -0.22693746 -0.016520374
0.013413189 -0.06025745 -0.08348955 -0.048630107 0.014773365 -0.15082966 -1.9167742 -0.5052126
0.007988986 0.051774506 -0.5832022 0.022099748 0.46156228 0.16541913 0.5831092 0.09256013
0.11025461 -0.28373578 -0.5977216 0.059700232 0.42331287 -0.1735365 -0.7988951 -0.25405037
-0.003009906 0.050128076 2.2671833 -0.097342364 0.10006974 -0.7160041 0.17082927 0.09482034
0.25645703 0.20726155 1.4535817 0.24970452 0.67185706 0.39932558 0.879754 0.3079725
0.39648902 -0.08400062 2.013075 0.077291034 -0.19231497 -0.23058927 -0.7863305 -0.50906724
-0.11311741 0.6470907 1.5260218 0.04627404 -0.028540779 -0.020619314 0.029088771 -0.0708022
0.026730962 0.19162947 -1.4840577 -0.12270133 -0.035191737 0.024999514 -0.050388698 0.018373707
-0.060095955 0.14338264 1.5204602 0.3799978 0.12786244 -0.023158604 -0.0026937842 0.065758
-0.012002762 -0.030537581 -2.8560522 -0.29846257 0.22490753 -0.40691572 1.0471264 -0.3164481
-0.048591614 0.06550632 -0.20835271 0.16058847 0.12782064 -0.0773133 0.069410846 0.050338753
-0.14176829 -0.047538847 -0.19337702 -0.058225967 0.5876788 0.23492992 -1.0863008 0.10235657
0.085730486 0.14361534 2.1773841 0.1995459 -0.1043803 0.14638665 0.22382814 0.15343544
0.04192185 -0.027451877 -0.08136116 -0.011531926 -0.2128724 0.21765636 2.3172414 0.11039261
-0.051319256 -0.16767626 -2.3434918 -0.50984025 0.4804664 0.19992185 -1.3104138 -0.010037696
-0.010744772 0.044196516 -0.0015444951 0.038893186 -0.14228539 0.08647239 -0.36515203 0.056513514
-0.5110106 -0.1703231 -1.8077409 -0.14204319 -0.61562896 -0.20268849 0.7080904 -0.09289837
-0.11718605 0.18865184 1.2808979 0.08416871 -0.04832754 -0.05777145 0.4946653 0.08399861
0.037022855 0.015474828 -0.05165679 0.018036043 -0.22198217 0.18327203 0.61963046 -0.1970192
0.2830469 -0.11388616 -1.0632817 0.05224101 0.06911836 -0.08581512 -0.4628633 0.015414986
0.0020170873 0.051237155 -0.10341475 0.07691004 0.020608293 0.05119169 -1.1494983 -0.3886282
0.117265545 -0.012468652 1.0229478 0.01853613 -0.024131896 0.01595562 -0.056990664 -0.029241506
0.15845543 -0.11695304 -2.07743 0.013898117 0.114157155 -0.12365963 0.36658975 -0.054223515

net.0.bias f4 [64]
00000000: caa4 e63e b5f0 2ebc 038f 10bf db9c 8bbe
00000010: 9eec 97be 3a4c cd3e 092d 43be 1d4c 183f
00000020: 21df 9a3e 7b27 e4be 71a1 dbbe 2ccb 1abf
00000030: 5aa6 0dbf e822 043d 7e0e 16be 197a 893e
00000040: b234 92be 8574 02bf 667b 1cbe 98b5 7cbe
00000050: 43b2 e6be e460 4abf 82e1 ba3d 75e9 4fbf
00000060: 60ac d83e 8a05 5dbf 0c35 10bf 1d97 15bf
00000070: 5bbb 15be 1e9b 0ebf 6595 5abe ed53 86be
00000080: 68ed fc3e 077f 2cbe 4ca8 d1be 0d80 043f
00000090: 5f22 7b3e 686b 0c3f 265e 99be 80e9 353f
000000a0: 9dbe 0ebf 4938 aebe 83ed e73e 150f 00bf
000000b0: 1e19 1bbe f7ed ee3e 9342 2ebf 3b93 4dbf
000000c0: 2c13 fdbd 2355 c03e b188 0f3f c8e8 53be
000000d0: b402 02bf bd32 133f b790 93be becf d1be
000000e0: e493 32bd e235 dcbe c06c 2fbe 82d9 f43e
000000f0: 7da6 05bf 4971 40be bf99 f83e 4a69 d2be
0.450476 -0.010677506 -0.5646822 -0.2726811 -0.29672712 0.4009722 -0.19060148 0.5949114
0.3024836 -0.4456137 -0.42896608 -0.60466266 -0.5533196 0.03225985 -0.14653966 0.26850966
-0.28555828 -0.50959045 -0.15281448 -0.24678648 -0.45057878 -0.79054093 0.091250435 -0.812156
0.42319012 -0.86336577 -0.56330943 -0.58433706 -0.14622252 -0.5570544 -0.21346052 -0.26235905
0.49399877 -0.16845332 -0.40948713 0.5175789 0.2452483 0.5485139 -0.29954642 0.7105942
-0.557596 -0.34027317 0.45298395 -0.50023013 -0.151463 0.46665928 -0.68070334 -0.8030278
-0.12357172 0.37564954 0.5606795 -0.20694268 -0.50785375 0.57499295 -0.28821346 -0.40978807
-0.04359807 -0.4300986 -0.17131329 0.47822195 -0.52207166 -0.18793215 0.485548 -0.41095954

net.2.weight f4 [64, 64]
00000000: 493f 40be 806c 30be 1ac3 d53e 439d f63d
00000010: 65da d33c cf70 22be 4cb8 fbbe 2555 8ebe
00000020: 9a4c d6bd 8f85 2a3d eff6 3abd 1589 83be
00000030: 36b5 91be 0b58 71bd 2763 2dbe 1277 d4bd
00000040: 6e1d 8dbd 1e9a 12bf 9d75 1abe 2a26 65be
00000050: 8975 d13a ad1e 923d 7f76 26bf 92d4 53bf
00000060: 9aa9 6c3e 3c83 f5be dd77 1f3f 0b6c 763e
00000070: db38 ebbe 5145 a2ba 2fe3 b63d bbd3 063e
00000080: c719 27bf 24c2 923d f786 a0be a955 5b3d
00000090: eca5 f0bd a7d7 a4bd 6b84 67be e22c 51be
000000a0: 2efc 9d3d 6dd6 83be 6aed 623c 6543 12be
000000b0: 4d8a 053d ac1a 023f 25f9 943d 65cd 943d
000000c0: 3fc5 5dbd 279a 28be 826a dabd 149a fcbe
000000d0: c95a cabd 9db1 0cbe 0a4d de3d 2b5e fd3d
000000e0: 2808 38bd 5209 dfbe 330a 9ebb cd81 02bf
000000f0: c87e c43f 4c96 21bc cb62 6abe 024e e53e
00000100: e7d1 bf3d ca9b ed3d 496e 4dbe f0e1 4a3e
00000110: 6506 543c 2b03 6f3d acaf 7ebb 3622 1dbe
00000120: ee9c 17be d045 3ebc 2051 b3bd 387b bcbd
00000130: 035c eb3d 78d7 b6bd 9aad 353d 2c0d febd
00000140: 387e 483d 7d40 163d 3b05 47bd 25b9 0ebe
00000150: cd6a 8abd 45d6 12bd 700b c2bb 4686 17be
00000160: 2ed5 97bd 2980 563d 7f25 273e ff63 27be
00000170: bf2f b7bd 554d abbd d43f 71bd c08a 51bd
00000180: 10e6 35be b7b1 be3c ccbb 70bd be3a 18bd
00000190: 8a6b 5bbe be71 2c3e cc67 7e3e 936d 60be
000001a0: 86b4 21bc 5b90 6bbd 5616 93bd 8011 bb3c
000001b0: 73ef bd3d 2787 27bb 8085 30be 3009 39be
000001c0: 0444 463e 974d 28be e5aa 07be 1197 57bd
000001d0: 8cbc 0cbd d3ce 6ebc ee43 113e 4e7b 9abd
000001e0: 6907 4ebe bb7e 7cbd c8c9 443e 2949 db3d
000001f0: 6e96 163e 6f7d d4bd 4aa1 51be 11f6 c33d
00000200: 41bc 43be 3853 32bf 70aa b4be d257 6dbf
00000210: 4857 bcbd 160b 18bf 0bea 7a3d 27d1 23be
00000220: 479e 2cbe 57db 393f ef0f 2240 116d debe
00000230: 5e1d ac3f c801 44bf ea2c e73d 80d8 b7be
00000240: 35c0 8bbe c8a9 41bd cb3a 813c c3e9 e3be
00000250: 5aee d3be 80de b6bd 15ef 8bbe bfc7 263f
00000260: 5153 c2be ee67 243d cd0c 093f 3f1f 27be
00000270: ae83 2f3c eb35 f23d 9093 30bf 8bf4 723d
00000280: c6f6 97be f0a2 183e d4b5 073e b47b f3be
00000290: 7ef8 213f 61ce 4dbe e786 a63e 06c0 1dbe
000002a0: be0b a43f 42ff 6e3f 769f 9ebd e571 84bd
000002b0: 5933 9a3d 6f74 a4be 6612 963e 2238 65be
000002c0: 02bf d3bd d7db 3b3d c17f 4bbf 710b 5b3f
000002d0: 9e73 273e 9d98 0cbe e3b1 0dbd 4b34 f8be
000002e0: 0de7 87bf cd85 92be de93 92bd c3a4 62bf
000002f0: a7f9 2f3f 4032 76bd 22be 57bf bf84 ad3e
00000300: badf d7bc eb36 763d fa6d 52bd 70fe 5b3d
00000310: ac22 bdbd e63d 15bd 833e f23c ba8e d8bd
00000320: 60d5 b7bd 70c4 81bd 83d5 6dbc 6182 49bc
00000330: c1ec d63d c2ef b8bd b85d e1bd a584 1d3c
00000340: 7109 d33c 607f bdbd bb7d f43d b860 36be
00000350: 8de2 0ebd ea36 5bbd d0b8 c83c 4739 adbd
00000360: 8a31 54be deb3 2e3d f89e 35bd ac17 8a3d
00000370: 5551 1e3e 729e 913c 9f3e f43c 249c febd
00000380: 8c60 fabc 4c42 813e b434 033c 0a2c 57be
00000390: 9f26 53bd ac36 f5bd 2317 28bd 5831 34be
000003a0: fd9f e3bc b8c6 553d bf11 23bc 83ca 99bd
000003b0: 22ac 643b d050 38bd 6097 6dbd 6568 903d
000003c0: 15ec 643e c031 3fbd 10b0 bebd 2593 0cbe
000003d0: 1c3c 78bd f5ce 143d 6af5 ecbc b08e 72bb
000003e0: 4721 2cbb cccc 82bd 5dde 6abd f6e2 19be
000003f0: ec3e 31bd f7af 533b 82f5 e03d fe68 a93d
-0.18774141 -0.1722889 0.41750413 0.12041714 0.025860975 -0.15863346 -0.49164045 -0.27799335
-0.10463829 0.041631278 -0.04564565 -0.25690523 -0.28458565 -0.058921855 -0.16932355 -0.10374273
-0.06890379 -0.57266414 -0.15083928 -0.2237784 0.0015980463 0.07134757 -0.6502456 -0.8274623
0.23111573 -0.47951686 0.6229227 0.24064653 -0.45941815 -0.0012380277 0.089300506 0.13166706
-0.6527371 0.07165936 -0.3135297 0.05354849 -0.11750397 -0.08048945 -0.22609107 -0.20427278
0.07714115 -0.2574953 0.013850549 -0.14283521 0.032602597 0.5082195 0.07274083 0.072657384
-0.054143187 -0.16465054 -0.10664846 -0.49336302 -0.09880597 -0.13739629 0.10854538 0.12371477
-0.044929653 -0.43561798 -0.004822993 -0.5097931 1.535119 -0.009862494 -0.22889249 0.44786078
0.093662076 0.1160198 -0.20061602 0.19812751 0.012940978 0.05835263 -0.0038862033 -0.15345082
-0.14805958 -0.011613324 -0.08755708 -0.092031896 0.11492159 -0.08927816 0.044355012 -0.12404856
0.048948497 0.036682595 -0.048588973 -0.13937815 -0.06758652 -0.035848875 -0.0059217736 -0.14797315
-0.07413708 0.052368317 0.16322897 -0.16346739 -0.08944654 -0.08364359 -0.058898762 -0.051157713
-0.17763543 0.0232781 -0.058772847 -0.037165396 -0.21427742 0.16840264 0.24844283 -0.21916799
-0.0098697 -0.057510715 -0.071819946 0.022835493 0.09274187 -0.0025562735 -0.17238426 -0.18069911
0.19361883 -0.16435848 -0.13248785 -0.052634303 -0.0343595 -0.014575678 0.1418607 -0.0754305
-0.20120014 -0.061644297 0.19217598 0.107073136 0.14705822 -0.10375487 -0.20471683 0.09568418
-0.19114782 -0.6965823 -0.35286283 -0.9271213 -0.09196335 -0.59391916 0.061258357 -0.15997754
-0.16857253 0.7260031 2.5322225 -0.43442586 1.3446462 -0.7656522 0.112878636 -0.35907364
-0.2729508 -0.047281057 0.015775105 -0.44514284 -0.41392785 -0.08929157 -0.27330843 0.6514854
-0.3795419 0.040138178 0.5353516 -0.16320513 0.010712547 0.1182669 -0.6897516 0.059315246
-0.2968046 0.14905906 0.13252956 -0.47555315 0.63269794 -0.20098259 0.32524797 -0.15405282
1.2816083 0.9335824 -0.077452585 -0.06467036 0.07529325 -0.32120082 0.29310912 -0.22384694
-0.10339166 0.045863952 -0.7949181 0.85564333 0.16352698 -0.13730092 -0.034593474 -0.48477396
-1.0617386 -0.28617707 -0.0715711 -0.88532656 0.68740314 -0.060106516 -0.84274495 0.3389034
-0.026351798 0.060110968 -0.051374413 0.053709447 -0.09235129 -0.036435984 0.029570824 -0.10574098
-0.08976245 -0.063362956 -0.014516237 -0.012299151 0.10494376 -0.09030105 -0.110042036 0.009614144
0.025761338 -0.092528105 0.11938044 -0.17810333 -0.034884024 -0.053519167 0.024502188 -0.084581904
-0.20722023 0.042652003 -0.044341058 0.06742796 0.15460713 0.017775748 0.029815016 -0.12432125
-0.030563615 0.25245893 0.008008171 -0.21012893 -0.051550504 -0.119733185 -0.04103769 -0.17596948
-0.02778625 0.052191466 -0.0099529615 -0.07509329 0.0034892638 -0.044998944 -0.05800569 0.07051162
0.22355683 -0.046678305 -0.09310925 -0.13728006 -0.0606042 0.036330182 -0.028925616 -0.0037011318
-0.0026264952 -0.06386718 -0.05734097 -0.15027985 -0.043272898 0.0032300928 0.10984327 0.08271979

net.2.bias f4 [64]
00000000: e554 0dbe 7cd1 823d 2c51 7bbe d14f cdbd
00000010: 531c 233f 2905 2a3f 5d0c 81be 9092 2b3f
00000020: 6df1 0bbe 97bb 4b3f 16df 353e fdd3 1d3f
00000030: 87d9 2d3f 4e66 273f 9ff9 d3be 8d7b 9b3d
00000040: 86ad 1ebe a3f9 283f 4218 56bb 23a5 3d3f
00000050: a8b3 b1bc 6a9b 5fbd d234 133f 4e8a 263f
00000060: 381f 523f 4fa6 303d d7dc dd3e 76a6 213e
00000070: c0d7 34bd 5b7c 0d3f 4df9 bcbd 699a 163f
00000080: 8e4b 7abe a809 173f 1826 dfbd 5b05 65bd
00000090: 74df 1e3f c13f f8bc a61b 233f 15be 473f
000000a0: eedb 99be d38e 0a3f 3e7e 93bd 33f6 92be
000000b0: 5e30 5c3f d016 433f f6ee 17be 571d 423f
000000c0: bd74 86bd 9846 683e 9023 523f c800 393f
000000d0: b685 1bbe bc43 73bd 42b0 debd bbb1 123f
000000e0: f403 6c3d ba1e 613f 68c1 23be 31a0 38be
000000f0: d9cc 3e3f 51ac 48be 9ff1 593f 97cf 1c3f
-0.13801916 0.06387612 -0.24542683 -0.100249894 0.63715094 0.66414124 -0.25204745 0.6702051
-0.13666315 0.79583114 0.17760882 0.61651593 0.67910045 0.6539048 -0.41401383 0.07591925
-0.15495881 0.66005915 -0.0032668267 0.74080104 -0.021692112 -0.054591574 0.5750247 0.65054786
0.82078886 0.043127354 0.4333255 0.15786156 -0.044151068 0.55267876 -0.09227238 0.5882936
-0.24442884 0.5899911 -0.10895938 -0.05591331 0.6205971 -0.030303838 0.63714063 0.7802442
-0.30050606 0.5412418 -0.07201813 -0.2870346 0.860113 0.76206684 -0.1483725 0.7582602
-0.06565235 0.2268318 0.82085514 0.7226682 -0.15187725 -0.05939077 -0.10873462 0.57302445
0.057620957 0.8793751 -0.15991747 -0.18029858 0.7453132 -0.19596983 0.8513431 0.61254257

net.4.weight f4 [2, 64]
00000000: a657 18bf 69ea d6bd 9df2 16c0 aa1b 253e
00000010: b3f7 aa3f 51c1 be3f c8d7 4ac0 d81e 8a3f
00000020: 3c79 7f3e 8c9a c93f cdbf 97c0 8d52 9d3f
00000030: 8637 803f d8b5 a73f a17f 2ac0 2dfe 8c3c
00000040: b0e0 453d fb24 b33f de3d 983d 4d41 b83f
00000050: d74b 21bd 4b47 f9bd efc0 aa3f debc b53f
00000060: 3d30 dd3f 28d6 b7bc 6d9d df3f f70e b4bd
00000070: fd53 993d e54d 9e3f 8468 edc0 d717 c83f
00000080: 22d8 94c0 d69a 8e3f cb69 dbbf 27bb 2fc0
00000090: 25a7 893f 4638 023f 21df e63f 3d1e 9f3f
000000a0: b5cd 8fbe 98df 523f 1e8c a53e 1d16 21be
000000b0: 7ba0 183e 70bb 8f3f 2739 343c 5bcf 9f3f
000000c0: f1b2 56bc 08f0 333f 6da6 8a3f 6702 b43f
000000d0: ec0f 89bd 9518 b0c0 a8bc cebc 8b11 a13f
000000e0: 42e5 c5be 2af6 af3f 22a6 33bd 823d 6bbf
000000f0: bd10 3a3f 665c 123d 4c3f 5b3f 7087 9b3f
00000100: b898 4e3f 9f0a ac3c f9cf cabf a409 0cbe
00000110: 98b9 b23f a185 dc3f f4d9 8ec0 d1db 903f
00000120: 4e25 80be 2c42 b83f e4c7 5bc0 ac0a ae3f
00000130: a156 a53f 7fc7 843f 2f5a 62c0 242f 0cbe
00000140: 7f25 283e e8ee 813f 0658 a6bd 2995 d13f
00000150: ec3d 31bc 8546 12be 2901 ab3f a764 e43f
00000160: b61d 473f dd68 15be 317d 263f 7491 ff3b
00000170: 569f 91bb d3e1 c33f 5af7 64c0 ab23 b83f
00000180: 69e9 c7c0 e8e4 923f 5688 4ac0 a809 bebf
00000190: 1e3b db3f 3080 02bf 5370 363f 00c6 853f
000001a0: b898 35c0 5914 a83f 61aa 53be 0bff 373e
000001b0: 841a bd3f 7e4b 553f 1bef cf3c 3338 933f
000001c0: 4ce0 05bc 7e86 ecbe 2980 ef3f 2b6d f73f
000001d0: 73c7 f6bd e293 a0c0 de84 a13d ec99 a73f
000001e0: 615b 3f3f cb48 3b3f a9b0 923c 0cc6 e33e
000001f0: a326 d83f 50b3 cb3d dcab b93f a7ea b53f
-0.5950874 -0.10493929 -2.358558 0.16123834 1.3356842 1.4902745 -3.1694202 1.0790663
0.24948591 1.5750289 -4.742163 1.2290817 1.0016944 1.3102369 -2.6640399 0.017211044
0.04830998 1.399566 0.07433675 1.4394928 -0.039378967 -0.12171801 1.3340129 1.4198263
1.7280346 -0.022440985 1.7469918 -0.08791917 0.074867226 1.2367522 -7.4190083 1.5632275
-4.6513834 1.1141002 -1.714166 -2.7457979 1.0754133 0.50867116 1.8036844 1.2431103
-0.2808663 0.82372427 0.32333463 -0.15731092 0.14904968 1.1229076 0.010999954 1.2485155
-0.013104186 0.70288134 1.0832039 1.4063233 -0.0669249 -5.5030007 -0.025236443 1.2583479
-0.38651472 1.3746998 -0.04385961 -0.9189073 0.7268179 0.03573265 0.8564346 1.2150707
0.8070178 0.021001158 -1.5844718 -0.13675553 1.3962889 1.722828 -4.4641056 1.1317083
-0.2502846 1.4395194 -3.4340754 1.3597007 1.2917062 1.0373381 -3.5367544 -0.13689858
0.16420554 1.0151033 -0.08122258 1.6373645 -0.010817986 -0.14284714 1.3359729 1.7843217
0.7777971 -0.14590783 0.65034777 0.007799322 -0.004444043 1.5303291 -3.5775971 1.4385885
-6.2472425 1.1476107 -3.1645713 -1.4846697 1.7127416 -0.5097685 0.71265143 1.045105
-2.8374462 1.313121 -0.20670463 0.17968385 1.4773717 0.83318317 0.025382569 1.1501526
-0.008171152 -0.4619636 1.8710986 1.933019 -0.12049761 -5.018052 0.078866705 1.3093848
0.7474881 0.7315795 0.017906504 0.44487035 1.6886791 0.099463105 1.4505572 1.4212235

net.4.bias f4 [2]
00000000: 662b 533f 4202 da3e
0.82488096 0.42579848

exp_avg f4 [64, 4]
00000000: 5c92 db3d c957 0f3e bd65 e43b c6d4 a93b
00000010: 8caa 7bbc 7d37 a2bc f082 e9ba c56a 0ebc
00000020: 16c2 2521 8946 b220 abbe 5b1f 7979 1920
00000030: 193f a33d 6ae5 5c3e 45b0 1f3c e033 843a
00000040: 0400 0080 0400 0080 0400 0080 0400 0000
00000050: 928b 203d 6685 343d f6c4 203b 1fa0 2a3b
00000060: 0400 0080 0400 0000 0400 0000 0400 0080
00000070: 19f7 223e da8f 703e ffce 2c3c 2f27 c63b
00000080: f930 653d 0267 953d fd19 703b 36ec 233b
00000090: 0400 0080 0400 0080 0400 0080 0400 0000
000000a0: 2070 24bf 2613 24bf 1cc5 00bd fc88 14bd
000000b0: 0400 0080 0400 0080 0400 0080 0400 0080
000000c0: e012 0cbf c7e5 0abf 4343 d9bc 12b6 04bd
000000d0: c38b 463d 4675 d13c 769a ef3a 7043 333a
000000e0: 0400 0000 0400 0000 0400 0000 0400 0000
000000f0: ed15 803c 7e75 98ba 5c58 033b be29 b23a
00000100: 6725 9f3c acb0 a03c 64cc 033b 13a5 8ebb
00000110: 0400 0000 0400 0000 0400 0000 0400 0080
00000120: 0400 0080 0400 0080 0400 0080 0400 0080
00000130: 1722 e33c 793f a03c 98a7 ad3a 4e94 c839
00000140: 0400 0000 0400 0000 0400 0080 0400 0080
00000150: 2378 15bf 989a 68be 935b d2bc 9bf3 d8bb
00000160: c0ed 7fbc d3d2 5dbc c9a5 adba 9b96 1f3b
00000170: 0400 0080 0400 0000 0400 0000 0400 0000
00000180: 17a2 7e3d 9b46 8f3d b54f 803b 5557 2b3b
00000190: ce26 8dbd 245b 8fbd 6ff7 72bb 8fdf 86bb
000001a0: 0886 6ebe 3386 0ebe 2a69 62bc 051f c83c
000001b0: f753 e9bd e63f 9abd 351e 1abc a91b 1dbd
000001c0: 31da ca3c 6cff 9abd 06c8 2ebb fa62 413c
000001d0: 7e59 95bd d50b 93bd ccee 62bb 99ae d4bb
000001e0: 4454 81bb aa69 b2ba 1e08 843a d837 62ba
000001f0: 0400 0080 0400 0080 0400 0080 0400 0000
00000200: cc07 c73d 83cf 003e df8c e43b 65e6 b13b
00000210: 0400 0000 0400 0000 0400 0000 0400 0000
00000220: 9798 eabb 5025 92bc 1282 dc3b 15d9 533d
00000230: 47bf 023e f43d 3f3e 20d2 063c 57bc a43b
00000240: c396 e33b 2ba9 5abd eb62 63bb 432e b7bb
00000250: 2565 873d 14cb 9e3d 5700 893b 7d3b 213b
00000260: 0400 0080 0400 0080 0400 0000 0400 0000
00000270: 36dd 4b3e 5236 973e b847 553c c9a9 103c
00000280: 0400 0080 0400 0080 0400 0080 0400 0080
00000290: 25f4 bfbd 4f88 9dbd 3111 24bc 8af5 17bd
000002a0: 1c67 0d3c 4de7 f1ba c372 0eba 6944 18ba
000002b0: 0400 0080 0400 0000 0400 0000 0400 0080
000002c0: 0400 0080 0400 0080 0400 0080 0400 0080
000002d0: 48d4 c53d 4d70 013e 8e57 aa3b c3c3 923b
000002e0: dc95 7a92 e264 7b92 d97c 5f90 0b6a 4b91
000002f0: 0b88 27be ab02 3cbd dae2 d73b 744a adbc
00000300: 0400 0080 0400 0080 0400 0080 0400 0080
00000310: 8cba bc3d 1511 013e cc8c ca3b 5b70 633b
00000320: f3b3 d03b 9773 23bd 01c1 91ba be39 bb3b
00000330: 3e2e 5abc 1a27 bcbc 659a 94ba 7a97 e939
00000340: 0400 0000 0400 0080 0400 0080 0400 0000
00000350: 90a1 1a3e b833 683e 575a 203c 964c b53b
00000360: 0000 0000 0000 0000 0000 0000 0000 0000
00000370: 9a05 6282 28ad a402 db76 8380 854e a182
00000380: f0f3 093d 518d 143d 16bf 383b 6cb0 56ba
00000390: 0400 0080 0400 0080 0400 0000 0400 0000
000003a0: 0400 0080 0400 0000 0400 0000 0400 0080
000003b0: 46cb cc3d 67d8 053e 21f2 e33b dc24 ba3b
000003c0: 0400 0000 0400 0000 0400 0000 0400 0000
000003d0: 0400 0000 0400 0000 0400 0080 0400 0080
000003e0: 449f 9d3d 85d8 d83d b83e ae3b b713 843b
000003f0: 0400 0000 0400 0080 0400 0000 0400 0000
0.10721275 0.13998331 0.006970136 0.0051828353 -0.015360486 -0.01980185 -0.0017815512 -0.008692448
5.6161045e-19 3.020105e-19 4.653277e-20 1.2999796e-19 0.07971019 0.2157189 0.009746616 0.0010086261
-6e-45 -6e-45 -6e-45 6e-45 0.039195605 0.04407253 0.002453146 0.002603538
-6e-45 6e-45 6e-45 -6e-45 0.15914573 0.23492375 0.010547399 0.0060471515
0.055954907 0.07295038 0.0036636584 0.002501262 -6e-45 -6e-45 -6e-45 6e-45
-0.6423359 -0.6409172 -0.03143798 -0.03626345 -6e-45 -6e-45 -6e-45 -6e-45
-0.547163 -0.5425686 -0.02652133 -0.0324002 0.04847313 0.025568616 0.0018280286 0.0006838357
6e-45 6e-45 6e-45 6e-45 0.015635455 -0.0011631695 0.002004168 0.0013592762
0.019427015 0.019615494 0.002011084 -0.0043531745 6e-45 6e-45 6e-45 -6e-45
-6e-45 -6e-45 -6e-45 -6e-45 0.027726216 0.019561516 0.0013248799 0.00038257468
6e-45 6e-45 -6e-45 -6e-45 -0.5838644 -0.22715223 -0.025678432 -0.006620837
-0.015620649 -0.013539034 -0.001324826 0.0024351242 -6e-45 6e-45 6e-45 6e-45
0.0621663 0.06995889 0.003915752 0.0026144583 -0.06892167 -0.069998056 -0.0037073751 -0.0041160057
-0.23293316 -0.1391838 -0.013819018 0.024428854 -0.11392968 -0.07531719 -0.009406616 -0.038356457
0.024762245 -0.07568249 -0.0026669516 0.011803383 -0.0729246 -0.07179991 -0.0034627197 -0.00649054
-0.003946813 -0.0013611813 0.001007322 -0.0008629537 -6e-45 -6e-45 -6e-45 6e-45
0.09718284 0.1257916 0.006974801 0.0054290765 6e-45 6e-45 6e-45 6e-45
-0.0071593034 -0.017840058 0.006729373 0.051720697 0.12768279 0.18675977 0.008228809 0.0050273347
0.0069454624 -0.053383987 -0.003469641 -0.0055902316 0.06611089 0.07753578 0.0041809487 0.0024602108
-6e-45 -6e-45 6e-45 6e-45 0.19908604 0.2953363 0.013017587 0.008829542
-6e-45 -6e-45 -6e-45 -6e-45 -0.09372739 -0.076920144 -0.010013864 -0.0370994
0.00863054 -0.0018455774 -0.0005433971 -0.0005808534 -6e-45 6e-45 6e-45 -6e-45
-6e-45 -6e-45 -6e-45 -6e-45 0.0965963 0.12640496 0.0051984256 0.004478903
-7.9070806e-28 -7.9325983e-28 -4.4075175e-29 -1.6046553e-28 -0.1636049 -0.045900982 0.006588322 -0.021153666
-6e-45 -6e-45 -6e-45 -6e-45 0.092152685 0.12604173 0.006181335 0.003470442
0.006369108 -0.039905157 -0.0011120142 0.0057136705 -0.013316689 -0.022967864 -0.0011337517 0.00044554082
6e-45 -6e-45 -6e-45 6e-45 0.15100694 0.22675979 0.009787164 0.0055328114
0.0 0.0 0.0 0.0 -1.6605465e-37 2.419702e-37 -1.2073087e-38 -2.3701892e-37
0.033679903 0.036267582 0.0028190068 -0.0008189741 -6e-45 -6e-45 6e-45 6e-45
-6e-45 6e-45 6e-45 -6e-45 0.09999709 0.13070832 0.0069563542 0.0056806635
6e-45 6e-45 6e-45 6e-45 6e-45 6e-45 -6e-45 -6e-45
0.07696393 0.10588173 0.0053175353 0.0040306705 6e-45 -6e-45 6e-45 6e-45

exp_avg_sq f4 [64, 4]
00000000: bda7 103f 8eb5 6f3e 2a67 103b 8075 303d
00000010: 0a85 ec3d ec30 3f3d 2a96 af3b 21cf e83c
00000020: c7ed a93f fed4 0841 5c75 0b3f 56c8 3041
00000030: fe04 5e3e 114f 973e 21ff 1e3a 2db4 933b
00000040: f401 0000 f401 0000 f401 0000 f401 0000
00000050: d7d3 243e 39a3 ba3e c761 233d a376 d03e
00000060: 1c50 5231 8260 2e31 b975 032e b13d 682e
00000070: 0955 bf3f fba7 213f bd21 eb3b acfc ff3d
00000080: 74a0 173e 9375 813d 091b 083a 66ed 303c
00000090: f401 0000 f401 0000 f401 0000 f401 0000
000000a0: 26d3 1f41 4378 1141 5b17 cd3c e32d 103e
000000b0: 48e1 013c a0d3 023c c51f d137 b71f c239
000000c0: fffc 0c41 9aaf e240 01ae ae3c f483 d43d
000000d0: 6ed9 483d 2f10 1f3c 0607 c739 0505 873b
000000e0: f401 0000 f401 0000 f401 0000 f401 0000
000000f0: 0b18 1e3d 3f57 a23c ee5b c23a 493c 733c
00000100: c034 9d3c 1f1d 3b3c 133f 4c39 5de1 f33a
00000110: 1ac7 8d0f 8b50 620f 2473 5b0b efc6 8c0c
00000120: bf46 e435 54f1 e535 51c5 b731 8d95 aa33
00000130: 3f2c 8b3c 6ac2 9f3c 5b77 9039 dea3 2d3b
00000140: f401 0000 f401 0000 f401 0000 f401 0000
00000150: f71b 4f40 d087 083f c67d 2d3c 10fd 623d
00000160: 03d8 c23d f003 703e d2a0 c03c 1201 8b3e
00000170: e71d 4a3c 3aab a439 dd4c 7439 5e57 023a
00000180: 7c16 f73d 7e18 953d 8a68 4c3b 1b6e d23c
00000190: ec7b 163d f51f 8c3d ba26 b939 dfd2 d23c
000001a0: 495d 7f3f 336e 2e3e 8089 733b 433d b13c
000001b0: e6b8 fa40 0038 1340 f9a8 9b3c ac67 b63e
000001c0: a8e5 f13e 4646 303e f1ed 6e3c 8c90 203e
000001d0: a99b 313e 6e6e 663e 484c e039 393b 5c3b
000001e0: 12e8 c83c fc6f 7d3c 9639 923b 5cfd 463b
000001f0: f401 0000 f401 0000 f401 0000 f401 0000
00000200: 9ffd 283f 889e e83e c335 643d e658 943e
00000210: f401 0000 f401 0000 f401 0000 f401 0000
00000220: 773b b53e affb 353f 75dd 343d d30d 6c3f
00000230: 6997 823f a4d1 da3e 7574 b33b 5bdc be3d
00000240: e997 503e 7b8d 293e d6ec b13a a522 ec3c
00000250: 8e67 0c3e 8184 9d3d d72c 1c3b f605 8b3c
00000260: f401 0000 f401 0000 f401 0000 f401 0000
00000270: 248a 2140 c5cb 863f 769d 433c 455e 5c3e
00000280: f401 0000 f401 0000 f401 0000 f401 0000
00000290: 924b 0b40 d053 173f f493 f63b c10a d03d
000002a0: 463d a03d a989 4b3d b39b 683b 0174 d83c
000002b0: 783c aa33 3d24 ca32 ce9a f02f 6ad9 2c30
000002c0: f401 0000 f401 0000 f401 0000 f401 0000
000002d0: b982 ad3e 2893 333e 7dff c53a acf6 d13c
000002e0: 1790 7c3d f35d 7f3d ad4e 4839 8d6d 183b
000002f0: e7e3 3a3f f50d 403f cd03 ce3b 80d0 df3d
00000300: f401 0000 f401 0000 f401 0000 f401 0000
00000310: b0d0 e23e 6534 503e 5a79 833b 2ba8 573d
00000320: e9a7 a83d d42d 263e 3f3d 873c bf3e 2b3e
00000330: fbbb 643d af3c a13d 064c 0d3c ab57 943d
00000340: 8435 853c e7c8 1a3d 6be7 1939 a2b8 ea3a
00000350: 2f45 c53f ae32 203f ce49 e43b 62ca 003e
00000360: 0000 0000 0000 0000 0000 0000 0000 0000
00000370: 0751 303c 2fd9 333c 83b6 6b38 d694 e33a
00000380: 2b91 693d cbc9 843c cfe2 3a3a 6a9c 883b
00000390: f401 0000 f401 0000 f401 0000 f401 0000
000003a0: f8b2 3930 d7f7 1930 d525 e82c 980f 4d2d
000003b0: e801 3a3f f8c4 bb3e 155e 083d 2344 0c3e
000003c0: f401 0000 f401 0000 f401 0000 f401 0000
000003d0: f401 0000 f401 0000 f401 0000 f401 0000
000003e0: 74a2 063f 89fd 513f c39c aa3d 5229 573f
000003f0: bc36 3723 93be c520 45a4 381e 994c 1122
0.5650595 0.23409101 0.0022034147 0.043080807 0.11548813 0.046677515 0.005358477 0.02841908
1.3275689 8.552 0.5447595 11.04891 0.21681592 0.2955251 0.0006065239 0.0045075626
7e-43 7e-43 7e-43 7e-43 0.16096435 0.36452654 0.03988817 0.40715513
3.0604559e-09 2.537519e-09 2.989051e-11 5.2805486e-11 1.4947826 0.6314694 0.007175653 0.12499365
0.14807302 0.06321254 0.0005192017 0.010798788 7e-43 7e-43 7e-43 7e-43
9.98905 9.091861 0.02503555 0.14080004 0.007927246 0.007985026 2.4929535e-05 0.00037026193
8.811767 7.0839357 0.021323206 0.103767306 0.049035482 0.009708448 0.0003796147 0.0041204714
7e-43 7e-43 7e-43 7e-43 0.038597148 0.019816993 0.0014828423 0.014845916
0.019190192 0.011420517 0.00019478453 0.0018606592 1.3980365e-29 1.1158172e-29 4.2264488e-32 2.1690144e-31
1.7007914e-06 1.7132065e-06 5.3484333e-09 7.943445e-08 0.016988872 0.019501884 0.00027554747 0.0026495378
7e-43 7e-43 7e-43 7e-43 3.2360818 0.53332233 0.010589069 0.05541712
0.09513857 0.23439002 0.023514185 0.27149254 0.012336231 0.0003140809 0.00023298287 0.0004972125
0.120648354 0.07280062 0.003119024 0.025687268 0.036739275 0.06842033 0.00035314803 0.025735317
0.99751717 0.17034225 0.0037160814 0.021635657 7.8350706 2.300293 0.01900147 0.3562597
0.47245526 0.17214307 0.014583097 0.1568014 0.17344536 0.22503063 0.00042781443 0.0033604635
0.024524722 0.015468594 0.004462431 0.0030363416 7e-43 7e-43 7e-43 7e-43
0.66011995 0.4543345 0.055715334 0.28974074 7e-43 7e-43 7e-43 7e-43
0.3539693 0.71087164 0.04415651 0.92208594 1.0202457 0.42738068 0.0054765292 0.09319373
0.20370449 0.16557877 0.0013574611 0.028825114 0.13711378 0.07691289 0.0023830438 0.016970616
7e-43 7e-43 7e-43 7e-43 2.5240564 1.0530936 0.011939397 0.21520336
7e-43 7e-43 7e-43 7e-43 2.1764874 0.5911226 0.0075249616 0.10158301
0.07824187 0.04969183 0.0035493195 0.026422502 7.927241e-08 2.3532374e-08 4.376574e-10 6.28822e-10
7e-43 7e-43 7e-43 7e-43 0.33888796 0.17536604 0.0015106049 0.025630318
0.061660852 0.062345456 0.00019102795 0.0023258657 0.73004 0.75021297 0.006287074 0.1092844
7e-43 7e-43 7e-43 7e-43 0.4429984 0.20332487 0.004012269 0.05265061
0.08235151 0.1622842 0.016508697 0.16723154 0.055843335 0.078729026 0.008624082 0.07243284
0.01626087 0.03778925 0.00014677427 0.0017907808 1.5411738 0.6257733 0.006966806 0.12577203
0.0 0.0 0.0 0.0 0.010761506 0.010977074 5.6198343e-05 0.0017363082
0.05702321 0.016209504 0.0007129134 0.0041690366 7e-43 7e-43 7e-43 7e-43
6.755694e-10 5.601328e-10 6.598037e-12 1.1656363e-11 0.7265916 0.36673713 0.03329285 0.13697867
7e-43 7e-43 7e-43 7e-43 7e-43 7e-43 7e-43 7e-43
0.52591634 0.8202749 0.08330681 0.84047425 9.93204e-18 3.349921e-19 9.774849e-21 1.9691715e-18
