CartPole/Experiment_1/23-09-26_22-10-39-937242_DQN/checkpoints/agent_132500.pt (torch, 82603 bytes, 24 tensors)

net.0.weight f4 [64, 4]
00000000: 8241 6ebc 62cf 103e 0d18 6b3e 1d4b 6a3a
00000010: 7258 763d 8ba0 cdbd a617 573f a5ea 80be
00000020: a63a adbc 5c4e d23c b494 2140 b7b7 073e
00000030: 188d 28be fbd2 2fbf 1a8b c4be c4ed c8be
00000040: e6bc abbd d77e a8bc 0cd1 463d 72b2 363b
00000050: 2a87 9f3e cd90 1fbe 4161 cebf b454 13be
00000060: a2e1 93bd 8a32 ca3d 0e2b 10bf 5f82 c13d
00000070: c0a6 d3bd 7476 863d aa94 a03d 9523 973d
00000080: fee9 5bbc 8974 b9bc 9964 383e b159 91bd
00000090: aa6b 13be 616d 5e3d ee87 cdbb 0eee 293e
000000a0: 04dc 7cbe a7ef babd 74f2 59bf ce0b b1bd
000000b0: d62a f43d 2572 5dbe a184 13c0 5a5e d1be
000000c0: 4cb8 a5be 57bf 34be 3251 e83d 3102 d9bd
000000d0: d7f5 5a3e 2e9a a83e 8616 933f 2ec2 cf3e
000000e0: 6fbc db3c 9efd 0dbc fc6a 3ebe 8886 b0bc
000000f0: 5753 c93c 7e2d 543e 252c 953f b177 83be
00000100: e29f 473e 3c1a 053f 7a78 78bf d80e 743e
00000110: 6543 5e3e 3333 6ebd 8662 68be 8555 87bc
00000120: ee6e 453d 4605 2ebd d7e5 c4bd 90ed 03bd
00000130: 5ce6 80be 3ee0 bfbe 1cd5 58bf e072 98be
00000140: f6e3 023c 5311 543d 4d4c 15bf de0a b53c
00000150: 048e dc3e 6233 253d 8b32 d13e 05b7 d93c
00000160: 1e13 443c c232 4ebe 1d40 17bf 27f9 893e
00000170: a558 cf3e e495 9dbd 353b bcbe 81e5 5dbd
00000180: 5b33 b4bd 2d36 763e ec38 0340 5a8e 633d
00000190: 3587 383d 3c7c 03bf 6d34 ca3f c2e8 fd3e
000001a0: e370 6c3e 13c4 9c3e f39b b13f 51fa 873e
000001b0: 0950 263f 877b 553e 4631 2d3f 89e3 263e
000001c0: 6f0f e23e e648 81bd f9bc d13f c3d4 213e
000001d0: 63de 30be 9d09 9ebe dfc0 84bf bb90 a3be
000001e0: bc16 6bbd 0ed7 d53e 39eb c03f 3e3f 233e
000001f0: fbcd e9bc 62e9 a8bc a64b ee3c 7401 91bd
00000200: 7450 b7bc 835a af3d 0d40 aebf 2a8f 40be
00000210: d225 10bd f5ca cc3c 0865 4ebd cc83 963c
00000220: 944e 06be 537d 8c3e e15a ac3f 21db 973e
00000230: b8b0 223e 2029 2a3b 5987 4bbd d6f4 3a3d
00000240: e64c e73d ad96 a3bd a404 2cc0 16ce fcbe
00000250: 9664 f93d 7236 02bf 93e4 733f 2e8a acbe
00000260: 4007 47bd 4228 863d 815a 55be f070 243e
00000270: d39a 0d3e 7c14 75bd b18d aa3c a1ad 283d
00000280: 7c2b 11be 71b7 42bd e803 46be 8c7d 6ebd
00000290: 83ac 143f 47a0 94bc 0573 c1bf e806 0ebe
000002a0: 5ab5 86be ccb3 8d3e 5971 d43f 7401 a13e
000002b0: 2139 50be edc2 5c3e ce35 ab3e b034 c83d
000002c0: a4b6 2b3d f7e1 e0bc 99a0 a6bd ddef 3cbc
000002d0: f646 81be d403 583e 6585 f73f 1cc3 713e
000002e0: 4f40 323e 24f9 73be 4353 22c0 8b42 07bf
000002f0: dde2 d93e dde6 10be 9cf6 88bf c1d2 f4be
00000300: 8e0a 30bc 7107 353d 3c70 caba 194f 1f3d
00000310: dbe9 0cbe f9fe bc3d f8e0 b6be b33d 393d
00000320: fe86 00bf c5f4 3fbd 7426 c2bf ae5c cdbe
00000330: a4e6 46bf 6885 f0bd 6057 da3e 5e79 653d
00000340: fd7b e8bd 852c 4e3e 2ce5 9e3f c063 383e
00000350: ae8a 0abd 7052 34bc f812 cd3e 8c44 503d
00000360: 47a5 173d 228a 7d3c 1296 53bd 53c0 933c
00000370: 21c8 50be 979a 1f3e 84a2 453f 8b49 5f3d
00000380: 0f02 9b3e 9037 cd3c 111d a2bf 22b4 a23c
00000390: f18d 8d3d 5fbf afbd f7fc ecbe 7e8e 7c3c
000003a0: 4a55 eebc d7a5 a83d 3d15 94bd 919a 3b3d
000003b0: b390 b53d e229 80bd f5b5 8ebf 8fae 9abe
000003c0: 7328 f03d 8a49 4cbc e2ef 823f b0d8 973c
000003d0: 3cb0 c5bc d1b4 823c 4f6f 69bd ae8b efbc
000003e0: dd70 393e 8366 febd a0e0 05c0 18da ecbd
000003f0: 7a6c 153e ba26 1fbe c9f2 cb3e 99fb b7bc
-0.0145419855 0.1414161 0.22958393 0.00089375844 0.06014294 -0.10040387 0.8402046 -0.2517902
-0.02114613 0.02567213 2.524701 0.13253675 -0.16460073 -0.68681306 -0.38387376 -0.392439
-0.08385639 -0.020568294 0.048539206 0.0027877358 0.3115781 -0.15582581 -1.612343 -0.1438778
-0.072207704 0.09872921 -0.56315696 0.094486944 -0.103345394 0.06565562 0.078408554 0.073798336
-0.013422487 -0.022638576 0.18007125 -0.070971854 -0.1439654 0.05430353 -0.0062723076 0.16594717
-0.24693304 -0.09127741 -0.8513558 -0.0864483 0.11922233 -0.21625574 -2.30497 -0.40892297
-0.3236717 -0.17651115 0.11343612 -0.10596121 0.21382843 0.3293013 1.1491249 0.40577835
0.02682325 -0.008666424 -0.18595499 -0.021548524 0.024575872 0.20720479 1.1654097 -0.25677255
0.19494584 0.51993155 -0.9705883 0.23833787 0.21705396 -0.058154296 -0.22693834 -0.016520271
0.048201494 -0.042485498 -0.09614151 -0.03220898 -0.2517575 -0.3747577 -0.8470018 -0.29775143
0.00798892 0.051774334 -0.5831955 0.022099908 0.430771 0.040332206 0.40858874 0.026576528
0.0119674485 -0.2013655 -0.59082204 0.269479 0.40497318 -0.07694605 -0.3676392 -0.05417395
-0.08798858 0.24044104 2.0503492 0.05555568 0.04505082 -0.5136144 1.5797249 0.49591643
0.23089938 0.30618343 1.3875717 0.26558164 0.64965874 0.20847903 0.6765331 0.16297735
0.441524 -0.063127324 1.6385795 0.15803818 -0.17272334 -0.3086671 -1.037136 -0.31946358
-0.057394728 0.41765636 1.5071784 0.15942094 -0.028540602 -0.020619098 0.029088806 -0.07080355
-0.02237723 0.085621856 -1.3613297 -0.18804613 -0.03519232 0.024999121 -0.05038932 0.018373393
-0.13115913 0.27439365 1.3465234 0.2965937 0.15887725 0.0025964454 -0.049689624 0.04564365
0.11293964 -0.079877235 -2.6877832 -0.4937598 0.12177388 -0.50864327 0.9527065 -0.33699173
-0.0485909 0.06550647 -0.20835306 0.16058707 0.13828592 -0.05983399 0.020819517 0.04118121
-0.14176744 -0.047538225 -0.19337428 -0.0582252 0.5807573 -0.018142832 -1.5113226 -0.13869822
-0.26310235 0.27676237 1.6597091 0.3144642 -0.20334293 0.21558733 0.33439487 0.09775674
0.041922227 -0.027451498 -0.081361 -0.011531797 -0.2524945 0.2109521 1.9337584 0.23609585
0.17407344 -0.23825508 -2.536332 -0.5283591 0.42555895 -0.14150567 -1.0700259 -0.47817042
-0.010744704 0.04419655 -0.0015444825 0.038893793 -0.13761084 0.0922832 -0.35718513 0.045224857
-0.5020598 -0.04686429 -1.5167985 -0.4010977 -0.7769568 -0.11744195 0.42644787 0.056023948
-0.11351774 0.2013417 1.2413688 0.18006802 -0.03382366 -0.011005983 0.40053535 0.05084662
0.037022855 0.015474828 -0.05165679 0.018036043 -0.20388843 0.15586315 0.77201104 0.054513495
0.30275008 0.025050908 -1.266512 0.019861285 0.06911839 -0.08581423 -0.46286747 0.015414832
-0.029093403 0.082347564 -0.072306134 0.045801703 0.0886549 -0.062579885 -1.1149279 -0.30211303
0.11726465 -0.012468705 1.0229456 0.018535942 -0.024131887 0.01595536 -0.056990918 -0.02924141
0.1810946 -0.12421896 -2.091835 -0.115650356 0.14592162 -0.15542117 0.39833668 -0.022458838

net.0.bias f4 [64]
00000000: 963f dc3e 9456 acbd bd35 02bf 6f4b 6abe
00000010: 58ed 97be 12ac 963e de51 23be 46a7 0f3f
00000020: 00e5 9e3e c027 e4be 6755 cabe aa4a fdbe
00000030: 7b65 08bf c8b0 c0bd 2c0f 16be 527b 8cbd
00000040: c820 6fbe 8e74 02bf bbea b7bd bc63 14be
00000050: d2b2 e6be 358b 4fbf 7cdb 513e 8e22 45bf
00000060: 7474 c03e 663c 1abf ceec f8be b878 20bf
00000070: bb8c 50be fe93 ebbe 6fbb 19be 5354 86be
00000080: b902 f23e 217f 2cbe 54aa 01bf 13c5 fc3e
00000090: a1f7 c13e 0e42 cd3e 255e 99be 9945 2b3f
000000a0: 31bf 0ebf e365 b1be a056 c03e c27e cabe
000000b0: b519 1bbe 8721 dd3e 3ddd 0fbf 5163 30bf
000000c0: ab13 fdbd cbe0 ba3e 103c 193f be52 b0be
000000d0: f9ef f5be 3455 0b3f b790 93be cd0a cbbe
000000e0: 8d97 40bc 2136 dcbe 4791 0fbe 0745 d83e
000000f0: cba6 05bf bf71 40be 6fd9 b03e 5b26 c2be
0.43017262 -0.08414951 -0.5086325 -0.22880338 -0.29673266 0.29428154 -0.15949199 0.56114614
0.31034088 -0.44561577 -0.39518282 -0.49471027 -0.53279847 -0.09408718 -0.14654225 -0.06859459
-0.23352349 -0.509591 -0.08980318 -0.1449117 -0.45058304 -0.8107179 0.20493883 -0.7700585
0.37588847 -0.6024841 -0.48618168 -0.626842 -0.20366184 -0.46011347 -0.15012906 -0.2623621
0.47267702 -0.16845371 -0.50650525 0.49369106 0.37884238 0.40089458 -0.2995464 0.6690307
-0.55760485 -0.34648046 0.3756609 -0.39549834 -0.15146525 0.43189642 -0.5619696 -0.68901545
-0.12357267 0.36499628 0.59857273 -0.34438127 -0.48034647 0.54426885 -0.28821346 -0.39656678
-0.0117548825 -0.43010047 -0.14020263 0.42240164 -0.5220763 -0.1879339 0.3454089 -0.37919888

net.2.weight f4 [64, 64]
00000000: 783f 40be f46c 30be 41c3 d53e 769c f63d
00000010: 65da d33c 5171 22be 8bb8 fbbe 9e55 8ebe
00000020: a54c d6bd a385 2a3d 44f6 3abd 0d89 83be
00000030: 78b5 91be 6957 71bd 4463 2dbe a277 d4bd
00000040: 2c1e 8dbd 4e9a 12bf 9d75 1abe b525 65be
00000050: b974 d13a 4b1e 923d 9a76 26bf b2d4 53bf
00000060: 67a9 6c3e 4c83 f5be 5377 1f3f 766b 763e
00000070: 0839 ebbe 5145 a2ba 67e2 b63d bbd3 063e
00000080: ff19 27bf 24c2 923d 4087 a0be 0355 5b3d
00000090: 20a6 f0bd 4cd8 a4bd 6b84 67be 102d 51be
000000a0: bbfc 9d3d 83d6 83be abec 623c 1c43 12be
000000b0: 4d8a 053d dc19 023f fef8 943d 1dcd 943d
000000c0: 3fc5 5dbd a29a 28be d76a dabd 789a fcbe
000000d0: 5c5b cabd 57b2 0cbe 074d de3d 585d fd3d
000000e0: bf08 38bd df09 dfbe 330a 9ebb 2e82 02bf
000000f0: a17e c43f 4c96 21bc f062 6abe 9e4d e53e
00000100: 3ed1 bf3d 3d9b ed3d 4e6e 4dbe 71e1 4a3e
00000110: 6506 543c a703 6f3d e7af 7ebb 5f22 1dbe
00000120: 439d 17be 4d46 3ebc 2451 b3bd 377b bcbd
00000130: a15c eb3d e5d7 b6bd 9aad 353d 8a0d febd
00000140: 6e7d 483d 1440 163d 3b05 47bd 95b9 0ebe
00000150: 356b 8abd eed5 12bd 4d0b c2bb 9286 17be
00000160: 6ed5 97bd b97f 563d 9e25 273e 5b64 27be
00000170: 152f b7bd 554d abbd 0440 71bd c08a 51bd
00000180: 9fe6 35be b7b1 be3c 3cbc 70bd 7b3b 18bd
00000190: 0a6c 5bbe f770 2c3e c567 7e3e a76d 60be
000001a0: edb3 21bc 6b90 6bbd 7816 93bd 3812 bb3c
000001b0: 73ef bd3d 4887 27bb e585 30be e609 39be
000001c0: 0444 463e f34d 28be 2aab 07be 6996 57bd
000001d0: d7bb 0cbd d0ce 6ebc eb43 113e 497b 9abd
000001e0: eb07 4ebe 567e 7cbd 39c9 443e 0f49 db3d
000001f0: cd96 163e 6f7d d4bd 82a1 51be 94f6 c33d
00000200: c7bc 43be 9f53 32bf 8aaa b4be 2e57 6dbf
00000210: 8057 bcbd 7e0b 18bf 70e9 7a3d cbd1 23be
00000220: 4f9e 2cbe eeda 393f 3010 2240 806c debe
00000230: 911c ac3f a101 44bf c82c e73d aad8 b7be
00000240: bec0 8bbe 40a9 41bd cb3a 813c 3dea e3be
00000250: baee d3be b7de b6bd adef 8bbe ecc7 263f
00000260: 9453 c2be 5867 243d 360d 093f 3f1f 27be
00000270: 3783 2f3c 5435 f23d 4194 30bf 72f4 723d
00000280: f4f6 97be f0a2 183e 19b5 073e d57b f3be
00000290: 5bf8 213f 9cce 4dbe 2687 a63e 3ec0 1dbe
000002a0: 0d0b a43f 84fe 6e3f d49f 9ebd 6872 84bd
000002b0: 5933 9a3d bb74 a4be e112 963e c137 65be
000002c0: 02bf d3bd 06db 3b3d 6180 4bbf 280b 5b3f
000002d0: 0073 273e 2899 0cbe e3b1 0dbd b133 f8be
000002e0: 2ee7 87bf 1c85 92be 9794 92bd 15a5 62bf
000002f0: fcf9 2f3f 4032 76bd 21be 57bf 2285 ad3e
00000300: 58e0 d7bc 1736 763d 776e 52bd 70fe 5b3d
00000310: ac22 bdbd 993e 15bd 413e f23c 278f d8bd
00000320: c9d5 b7bd 70c4 81bd 83d5 6dbc b382 49bc
00000330: 3fec d63d c2ef b8bd b85d e1bd e183 1d3c
00000340: 1109 d33c 0880 bdbd bb7d f43d b460 36be
00000350: a1e2 0ebd ea36 5bbd 84b8 c83c 4739 adbd
00000360: df31 54be 46b3 2e3d f79e 35bd ac17 8a3d
00000370: f850 1e3e 729e 913c 9f3e f43c 1a9c febd
00000380: cf60 fabc 4c42 813e e933 033c 042c 57be
00000390: 9f26 53bd d236 f5bd 2317 28bd 9a31 34be
000003a0: fd9f e3bc b8c6 553d 0e12 23bc 83ca 99bd
000003b0: 22ac 643b d850 38bd 6097 6dbd 2668 903d
000003c0: 15ec 643e 0732 3fbd 91b0 bebd 3c93 0cbe
000003d0: 143c 78bd 67ce 143d 6af5 ecbc b08e 72bb
000003e0: bb21 2cbb 5fcc 82bd 5dde 6abd fde2 19be
000003f0: ec3e 31bd f7af 533b 63f5 e03d fe68 a93d
-0.18774211 -0.17229062 0.4175053 0.12041561 0.025860975 -0.1586354 -0.49164233 -0.27799696
-0.104638375 0.041631352 -0.045645013 -0.256905 -0.28458762 -0.05892125 -0.16932398 -0.10374381
-0.068905205 -0.572667 -0.15083928 -0.22377665 0.0015980221 0.07134684 -0.6502472 -0.8274642
0.23111497 -0.47951734 0.6229145 0.2406443 -0.4594195 -0.0012380277 0.089299016 0.13166706
-0.6527404 0.07165936 -0.31353188 0.05354787 -0.11750436 -0.08049068 -0.22609107 -0.20427346
0.0771422 -0.25749597 0.013850371 -0.14283413 0.032602597 0.5082071 0.07274054 0.07265685
-0.054143187 -0.16465238 -0.10664909 -0.493366 -0.09880707 -0.13739906 0.108545355 0.123713195
-0.044930216 -0.4356222 -0.004822993 -0.5097989 1.5351144 -0.009862494 -0.22889304 0.4478578
0.09366082 0.11601875 -0.20061609 0.19812562 0.012940978 0.058353093 -0.003886217 -0.15345143
-0.14806084 -0.011613441 -0.08755711 -0.09203189 0.11492277 -0.08927897 0.044355012 -0.12404926
0.048947744 0.036682203 -0.048588973 -0.13937981 -0.06758729 -0.03584855 -0.0059217573 -0.14797428
-0.07413755 0.0523679 0.16322944 -0.16346876 -0.08944527 -0.08364359 -0.05889894 -0.051157713
-0.17763756 0.0232781 -0.058773264 -0.0371661 -0.21427932 0.16839968 0.24844272 -0.21916829
-0.009869558 -0.057510775 -0.0718202 0.022835836 0.09274187 -0.0025562812 -0.17238577 -0.18070182
0.19361883 -0.16435985 -0.13248888 -0.052633677 -0.034358826 -0.014575675 0.14186065 -0.07543046
-0.20120208 -0.06164392 0.19217385 0.10707294 0.14705963 -0.10375487 -0.20471767 0.095685154
-0.19114982 -0.69658846 -0.3528636 -0.9271115 -0.09196377 -0.59392536 0.06125778 -0.15997998
-0.16857265 0.72599685 2.532238 -0.43442154 1.3446218 -0.76564986 0.11287838 -0.3590749
-0.27295488 -0.04728055 0.015775105 -0.44514647 -0.4139307 -0.08929198 -0.27331296 0.65148807
-0.3795439 0.04013762 0.53535783 -0.16320513 0.010712436 0.11826578 -0.6897622 0.059315152
-0.29680598 0.14905906 0.13252677 -0.47555414 0.63269585 -0.20098346 0.32524985 -0.15405366
1.2815872 0.9335711 -0.077453285 -0.06467134 0.07529325 -0.32120308 0.29311278 -0.2238455
-0.10339166 0.045863174 -0.79492766 0.855639 0.16352463 -0.137303 -0.034593474 -0.48476937
-1.0617425 -0.2861718 -0.071572475 -0.88533145 0.6874082 -0.060106516 -0.8427449 0.33890635
-0.026352093 0.060110178 -0.05137488 0.053709447 -0.09235129 -0.03643665 0.0295707 -0.10574179
-0.08976323 -0.063362956 -0.014516237 -0.0122992275 0.10494279 -0.09030105 -0.110042036 0.009613962
0.02576116 -0.09252936 0.11938044 -0.17810327 -0.0348841 -0.053519167 0.024502046 -0.084581904
-0.2072215 0.042651437 -0.044341054 0.06742796 0.15460575 0.017775748 0.029815016 -0.12432118
-0.03056374 0.25245893 0.008007982 -0.21012884 -0.051550504 -0.11973347 -0.04103769 -0.17597046
-0.02778625 0.052191466 -0.009953035 -0.07509329 0.0034892638 -0.044998974 -0.05800569 0.07051115
0.22355683 -0.04667857 -0.09311021 -0.1372804 -0.06060417 0.036329653 -0.028925616 -0.0037011318
-0.0026265222 -0.06386637 -0.05734097 -0.15027995 -0.043272898 0.0032300928 0.10984304 0.08271979

net.2.bias f4 [64]
00000000: 5055 0dbe c8d0 823d dc51 7bbe 5d50 cdbd
00000010: 91a2 1a3f 7699 283f 010d 81be f3ab 153f
00000020: d8f1 0bbe 63e8 423f 118e 4a3e b666 0a3f
00000030: 4104 223f f846 153f d584 b6be 5e7b 9b3d
00000040: b5ad 1ebe d985 0e3f 6718 56bb fd19 283f
00000050: 344a 1f3c 1a9c 5fbd 3522 203f 176f 1a3f
00000060: e873 3e3f 15a6 303d 0cfc ba3e 0ea6 213e
00000070: d1d7 34bd 1f37 013f 2843 32bd 8baf 1f3f
00000080: d8ac ddbd 643d 0c3f 9cb9 48ba a905 65bd
00000090: c7c9 173f 4c1e 9cbd 4be2 113f 31b0 353f
000000a0: 15dc 99be c69d ff3e 3c7e 93bd ff4b 7fbe
000000b0: 42be 523f e0b2 2f3f 0cef 17be db69 2d3f
000000c0: 2e75 86bd 2617 3e3e f634 403f d941 243f
000000d0: ed85 1bbe 2523 4a3d cfb0 debd 9e42 0e3f
000000e0: 5c85 1c3e f7af 4f3f a032 0dbe 648d 853b
000000f0: a6ee 253f 02ad 48be 2207 493f 780a 073f
-0.13802075 0.06387478 -0.24542946 -0.10025094 0.60404307 0.6585916 -0.25205234 0.584655
-0.13666475 0.76135844 0.19780757 0.54062974 0.6328774 0.58311415 -0.35648218 0.0759189
-0.15495951 0.55672985 -0.0032668354 0.65664655 0.009722281 -0.05459223 0.62552196 0.6032576
0.7439561 0.04312714 0.36520422 0.15786001 -0.04415113 0.50474733 -0.043521076 0.6237723
-0.10823983 0.54781175 -0.00076570525 -0.0559136 0.5929226 -0.07622966 0.5698592 0.7097197
-0.30050722 0.4992506 -0.07201812 -0.24931334 0.8232156 0.68632317 -0.14837283 0.6773965
-0.06565319 0.18563518 0.7508081 0.64162976 -0.15187807 0.049349923 -0.10873567 0.555704
0.15285248 0.81127876 -0.13788843 0.004075693 0.64817274 -0.19597247 0.7852651 0.5275035

net.4.weight f4 [2, 64]
00000000: d957 18bf b1e9 d6bd 52f2 16c0 aa1b 253e
00000010: 38e2 c73f d456 ad3f 65d7 4ac0 c1c1 873f
00000020: b179 7f3e 742c e73f d8b1 8cc0 3f09 a63f
00000030: dc44 6b3f 003c a13f 212e 3cc0 93fe 8c3c
00000040: 4de0 453d 3c26 a33f 3e3e 983d d680 b93f
00000050: d14b 21bd b946 f9bd d378 a43f a331 b43f
00000060: f236 d63f 9dd6 b7bc 01bb dd3f df0e b4bd
00000070: 3153 993d 7c43 ab3f e1c5 cdc0 25fa bc3f
00000080: 73c7 7ec0 8257 863f ba24 0fc0 b9bb 2fc0
00000090: 516d ab3f d213 583e cd0f e83f 6f72 983f
000000a0: b3cd 8fbe edba 5f3f 068c a53e 6ef2 95be
000000b0: 6087 2a3e 1e99 8b3f 7738 343c 0c3c 9a3f
000000c0: 1eb2 56bc a495 303f 729c 943f 136c d03f
000000d0: 9a0f 89bd ce3a 93c0 78bc cebc 1b17 ba3f
000000e0: f7f2 94be 09cb a53f b9db 9ebb e254 34bf
000000f0: c789 5b3f b15c 123d 86e4 603f 4144 9c3f
00000100: 4898 4e3f 450b ac3c 2ad0 cabf 7309 0cbe
00000110: 198b a13f e56e da3f 7dd9 8ec0 ab7d 853f
00000120: bc24 80be 089c 9f3f 3cb4 3ac0 83c2 9c3f
00000130: 0741 af3f db73 6e3f 2524 5ec0 bf2e 0cbe
00000140: 7f25 283e f0f2 943f ad57 a6bd 794d c53f
00000150: 8fdc a73c 6046 12be 3cce b33f 5c71 e03f
00000160: 783d 333f c068 15be 8292 353f 7a91 ff3b
00000170: 539f 91bb 95c2 b43f fa8b 4ec0 134e c43f
00000180: 7858 ddc0 a115 9b3f 949c 4bc0 e609 bebf
00000190: b987 ba3f 2342 763d 42d0 323f aac9 6d3f
000001a0: be98 35c0 3934 a23f 29aa 53be c6b2 7c3e
000001b0: 90ed b43f 6b45 3e3f 1bef cf3c a6ab 863f
000001c0: f1df 05bc 00fc d6be 27c5 e43f b10c dc3f
000001d0: a4c6 f6bd 63bb 8ec0 5084 a13d b982 913f
000001e0: b11b 133f 5c13 243f 110f 4b3d b7be 813e
000001f0: d3db c83f fdb2 cb3d 9358 b23f 55a4 a63f
-0.59509045 -0.10493792 -2.35854 0.16123834 1.5615911 1.3542123 -3.1693966 1.0606004
0.24948765 1.8060441 -4.3967094 1.2971572 0.91901946 1.2596436 -2.9403155 0.017211234
0.048309613 1.2746043 0.07433747 1.4492443 -0.039378945 -0.121716924 1.2849373 1.4077648
1.6735518 -0.022441203 1.7322694 -0.08791899 0.074865706 1.337997 -6.430405 1.4763838
-3.9809234 1.0495455 -2.2366166 -2.7458327 1.3392736 0.21101311 1.8129822 1.1909922
-0.28086624 0.873946 0.32333392 -0.29286522 0.16653204 1.0906103 0.01099979 1.2049575
-0.01310399 0.68978333 1.1610243 1.6282982 -0.06692429 -4.6009283 -0.025236353 1.4538301
-0.29091617 1.2952586 -0.0048479703 -0.7044202 0.85757107 0.03573293 0.878487 1.220833
0.8070111 0.021001467 -1.5844777 -0.1367548 1.2620574 1.7065092 -4.464049 1.0428976
-0.25028026 1.2469492 -2.9172506 1.224686 1.369172 0.9314553 -3.470956 -0.13689707
0.16420554 1.1636639 -0.081221916 1.5414268 0.020490913 -0.14284658 1.4047313 1.7534595
0.7001567 -0.1459074 0.7092668 0.0077993246 -0.0044440418 1.4121882 -3.2272935 1.5336326
-6.9170494 1.2115976 -3.1814318 -1.4846771 1.4572669 0.060121667 0.69849026 0.9288584
-2.8374476 1.2672187 -0.2067038 0.24677572 1.4134998 0.74324673 0.025382569 1.0521133
-0.008171068 -0.41989136 1.7872666 1.7191373 -0.120496064 -4.4603744 0.07886565 1.1368018
0.5746413 0.6409204 0.049574915 0.25340816 1.5692085 0.09946249 1.3933281 1.30189

net.4.bias f4 [2]
00000000: 8d96 3b3f fb9e c33e
0.732766 0.3820723

net.0.weight f4 [64, 4]
00000000: edb5 7fbc 6310 143e 9f97 5f3e 0a39 bd3b
00000010: 8ff0 863d b87e 8ebd 9ba8 4f3f 780c 5dbe
00000020: 80f7 00bd 6ba5 1f3d 5f79 1f40 75d4 273e
00000030: a68d 28be 5ed3 2fbf 818a c4be 29ed c8be
00000040: 46bd abbd 967f a8bc 89d0 463d bfb2 363b
00000050: 36fb a43e dfe8 26be 7248 c8bf fd72 25be
00000060: 76e1 93bd f032 ca3d ae2a 10bf b882 c13d
00000070: 6060 d4bd dd89 843d 76ed a73d 4749 9d3d
00000080: f177 40bc bb31 6fbc 5096 333e e47d 82bd
00000090: 456c 13be 126d 5e3d 4987 cdbb ffed 293e
000000a0: b4db 7cbe e7ef babd 32f2 59bf 180b b1bd
000000b0: ee6b 0c3e 61a5 4cbe 6d80 13c0 2c8e d9be
000000c0: dfb7 a5be c0be 34be e251 e83d 9201 d9bd
000000d0: 3cfb 543e 7177 b83e 5d47 8d3f 0c62 d83e
000000e0: c9bc db3c a5fd 0dbc 886a 3ebe 4886 b0bc
000000f0: e863 603b 3fb5 923e 4104 8b3f 824e 95be
00000100: 23bf 493e 87fb 013f 687d 70bf 848b 643e
00000110: 3761 5e3e c7af 6dbd fa4a 68be 65b1 87bc
00000120: a16e 453d a605 2ebd e8e5 c4bd 15ed 03bd
00000130: 15e6 80be bfe0 bfbe d1d5 58bf fd72 98be
00000140: 3ce4 023c 8111 543d bd4c 15bf 880a b53c
00000150: c8cd db3e f6a7 1c3d eb98 c63e 1e4a ae3c
00000160: f5a5 053c 8e1b 62be 3fcf 11bf 87bc 873e
00000170: 55e5 cb3e 85a5 e0bd 01e7 79be 65bf a4bd
00000180: 4b4f c2bd b78c 903e b2aa ff3f 8fba ce3c
00000190: 2986 cb3d 2f02 ecbe ac25 d13f 724c 053f
000001a0: 8e25 673e dad9 9f3e e4a7 b13f a9ef 863e
000001b0: f76b 263f d042 4b3e d465 253f c25a 1d3e
000001c0: a1b2 dc3e c5e3 29bd 3d0e cb3f 3cd5 223e
000001d0: 8fde 30be 7609 9ebe cdc0 84bf 4f90 a3be
000001e0: 35c6 4dbd c45f c73e df73 c63f 12e2 1f3e
000001f0: 5ace e9bc d6e9 a8bc 934b ee3c be00 91bd
00000200: 2119 b0bc 3969 803d 5266 aabf 8ec8 48be
00000210: 3625 10bd c8cb cc3c 6164 4ebd 7584 963c
00000220: 771d 05be b526 8d3e 8e2d ac3f 167c 973e
00000230: 4b8f 253e 4007 a33b 553e 45bd 9d79 3d3d
00000240: 07a6 073e ea55 aabd 4cfc 28c0 168a 03bf
00000250: 4204 d43d 912f fcbe 1d0a 693f 30a2 a2be
00000260: 0008 47bd 2d28 863d 6a5a 55be 4e71 243e
00000270: 9234 0e3e 0cb4 6cbd 1d3d a13c 834b 2c3d
00000280: b52b 11be 18b8 42bd a004 46be 5a7e 6ebd
00000290: b7ac 153f 1dfb 19bd 1c0b c1bf 289d 07be
000002a0: 4376 8abe d086 963e 5152 cf3f 15ac 993e
000002b0: e939 50be 49c3 5c3e 1e36 ab3e 0134 c83d
000002c0: 3fb6 2b3d c2e2 e0bc aea0 a6bd 67f0 3cbc
000002d0: 29f1 84be a04d 643e a8fb ee3f de9e 5d3e
000002e0: 8fc9 403e bddb 7dbe 5452 26c0 fb2d 00bf
000002f0: 0d97 e53e f1e7 1dbe 4603 99bf db35 f1be
00000300: d70a 30bc 6807 353d a870 caba 764e 1f3d
00000310: 974e 0cbe b0b9 a53d 0c4b adbe 9dc9 563d
00000320: 19ac f4be 62e4 81bd b463 cbbf 4e38 b0be
00000330: 30e7 46bf e385 f0bd c157 da3e c279 653d
00000340: 4b7b e8bd e82c 4e3e fee4 9e3f 9063 383e
00000350: d101 0dbd 4568 0fbc 9246 cc3e 32e3 5d3d
00000360: 47a5 173d 228a 7d3c 1296 53bd 53c0 933c
00000370: 1ac8 50be 059b 1f3e f8a2 453f 6249 5f3d
00000380: 0881 9e3e 883b 293c 3aa6 9cbf 51d6 cf3b
00000390: ed8d 8d3d d6bf afbd 6bfc ecbe 238f 7c3c
000003a0: f354 eebc a6a6 a83d 0615 94bd ff9a 3b3d
000003b0: 69fd c03d e39e a3bd aeb8 8abf 098d 97be
000003c0: eb28 f03d 5149 4cbc f4ef 823f 15d9 973c
000003d0: 41b0 c5bc 5cb5 823c 0b6f 69bd e28b efbc
000003e0: 8ad9 423e f96e 08be eef1 02c0 96b3 08be
000003f0: c56c 153e 9e26 1fbe 60f3 cb3e e0fa b7bc
-0.015607339 0.14459376 0.21835183 0.005774622 0.06588852 -0.069577634 0.81116647 -0.21586788
-0.031486034 0.038976114 2.491783 0.1638964 -0.16460285 -0.68681896 -0.3838692 -0.3924344
-0.083857104 -0.02056865 0.04853872 0.0027877537 0.3222291 -0.16299771 -1.5647109 -0.16157146
-0.07220738 0.09872997 -0.56315124 0.09448761 -0.103699446 0.06471608 0.08199589 0.07679992
-0.011747346 -0.014599259 0.17537808 -0.06371668 -0.1439677 0.054303236 -0.0062722308 0.16594695
-0.24693185 -0.09127789 -0.85135186 -0.08644694 0.13713047 -0.19984962 -2.3047135 -0.4249128
-0.32366845 -0.1765089 0.11343743 -0.10596003 0.20798963 0.36028627 1.1037403 0.42262304
0.026823418 -0.008666431 -0.18595326 -0.021548405 0.0034239236 0.28653905 1.0860673 -0.2916146
0.19701819 0.50774425 -0.93941355 0.22318846 0.21716772 -0.058028962 -0.22684851 -0.01656408
0.048201207 -0.042485856 -0.09614164 -0.03220852 -0.2517554 -0.37476155 -0.8470126 -0.2977523
0.007988986 0.051774506 -0.5832022 0.022099748 0.42930436 0.038246118 0.38788542 0.021275576
0.008157243 -0.22080824 -0.5695686 0.26511022 0.39823404 -0.1096907 -0.24404527 -0.08044318
-0.0948778 0.28232357 1.9973967 0.025235442 0.099376984 -0.46095416 1.6339622 0.5206977
0.2257292 0.31220895 1.3879361 0.2635472 0.6500849 0.19849706 0.646085 0.15366653
0.43105033 -0.041476984 1.586372 0.15901655 -0.172724 -0.30866593 -1.0371338 -0.31946036
-0.050237853 0.3894025 1.5504111 0.15613583 -0.028540779 -0.020619314 0.029088771 -0.0708022
-0.021496357 0.0627007 -1.3312476 -0.19607756 -0.035191737 0.024999514 -0.050388698 0.018373707
-0.12999521 0.27568594 1.3451402 0.29586858 0.16167943 0.0049752295 -0.048155148 0.046258558
0.13246928 -0.08317168 -2.640399 -0.5138258 0.103523746 -0.4925504 0.91031057 -0.31764364
-0.048591614 0.06550632 -0.20835271 0.16058847 0.13887241 -0.057788894 0.019682461 0.0420642
-0.14176829 -0.047538847 -0.19337702 -0.058225967 0.58466667 -0.037592996 -1.5081515 -0.13243544
-0.27043352 0.2939973 1.6196996 0.300141 -0.20334591 0.2155887 0.33439726 0.09775544
0.04192185 -0.027451877 -0.08136116 -0.011531926 -0.2596524 0.22295237 1.8670549 0.21642634
0.18826889 -0.24790855 -2.598775 -0.5007016 0.44841805 -0.1542051 -1.1954124 -0.471114
-0.010744772 0.044196516 -0.0015444951 0.038893186 -0.13701855 0.08092058 -0.3384632 0.052438367
-0.4778755 -0.06342389 -1.5889802 -0.34417957 -0.77696514 -0.11744287 0.42645076 0.05602432
-0.11351641 0.20134318 1.2413633 0.1800673 -0.03442556 -0.008752887 0.3989759 0.05417175
0.037022855 0.015474828 -0.05165679 0.018036043 -0.20388833 0.15586479 0.77201796 0.054513343
0.30957818 0.010329135 -1.2238228 0.006342687 0.06911836 -0.08581512 -0.4628633 0.015414986
-0.029093241 0.08234911 -0.072305724 0.045802113 0.09423334 -0.079892896 -1.083761 -0.2959979
0.117265545 -0.012468652 1.0229478 0.01853613 -0.024131896 0.01595562 -0.056990664 -0.029241506
0.19028297 -0.13323583 -2.0460162 -0.13349757 0.14592274 -0.15542075 0.39834118 -0.022458494

net.0.bias f4 [64]
00000000: d2e8 da3e ecf0 a0bd 5cb0 01bf 5b4b 6abe
00000010: 9eec 97be 0954 9f3e cf51 23be 6328 0f3f
00000020: aed3 9e3e 7b27 e4be 5155 cabe 80f5 f4be
00000030: d564 08bf 89d4 d8bd 7e0e 16be e8ab 39bd
00000040: 33a3 6abe a16d 02bf 78ea b7bd ed63 14be
00000050: 43b2 e6be e91c 50bf e6a6 4e3e 8a5a 40bf
00000060: 80b7 b93e e496 0dbf 0966 f8be a35e 21bf
00000070: 4c39 5cbe 7b93 ebbe df35 0fbe ed53 86be
00000080: d64c f43e 077f 2cbe 057c 01bf e25d fc3e
00000090: a35e c53e 7d8b c43e 265e 99be ff9c 2a3f
000000a0: 9dbe 0ebf a03f b0be 8ea9 bb3e b97e cabe
000000b0: 1e19 1bbe b9b5 d73e f4f9 0cbf 68bc 21bf
000000c0: 2c13 fdbd 844d bc3e e31f 183f b852 b0be
000000d0: d4ef f5be 899b 0a3f b790 93be 910a cbbe
000000e0: ace1 8b3a e235 dcbe c590 0fbe 806f dc3e
000000f0: 7da6 05bf 4971 40be 2388 b83e 0126 c2be
0.42755753 -0.07858452 -0.5065973 -0.22880308 -0.29672712 0.311188 -0.15949176 0.55921
0.31020874 -0.4456137 -0.39518216 -0.47843552 -0.5327886 -0.10587413 -0.14653966 -0.04532996
-0.22913818 -0.5094853 -0.08980268 -0.14491244 -0.45057878 -0.81294113 0.20180854 -0.7513815
0.36272812 -0.55308366 -0.48515347 -0.6303503 -0.21506232 -0.46010956 -0.13985394 -0.26235905
0.4771487 -0.16845332 -0.50579864 0.49290377 0.38548765 0.3838767 -0.29954642 0.6664581
-0.557596 -0.34423542 0.36652797 -0.39549807 -0.151463 0.4213083 -0.550689 -0.6317811
-0.12357172 0.3677789 0.59423655 -0.3443811 -0.48034537 0.5414358 -0.28821346 -0.396565
0.0010672114 -0.4300986 -0.14020069 0.43053818 -0.52207166 -0.18793215 0.36041364 -0.3791962

net.2.weight f4 [64, 64]
00000000: 493f 40be 806c 30be 1ac3 d53e 439d f63d
00000010: 65da d33c cf70 22be 4cb8 fbbe 2555 8ebe
00000020: 9a4c d6bd 8f85 2a3d eff6 3abd 1589 83be
00000030: 36b5 91be 0b58 71bd 2763 2dbe 1277 d4bd
00000040: 6e1d 8dbd 1e9a 12bf 9d75 1abe 2a26 65be
00000050: 8975 d13a ad1e 923d 7f76 26bf 92d4 53bf
00000060: 9aa9 6c3e 3c83 f5be dd77 1f3f 0b6c 763e
00000070: db38 ebbe 5145 a2ba 2fe3 b63d bbd3 063e
00000080: c719 27bf 24c2 923d f786 a0be a955 5b3d
00000090: eca5 f0bd a7d7 a4bd 6b84 67be e22c 51be
000000a0: 2efc 9d3d 6dd6 83be 6aed 623c 6543 12be
000000b0: 4d8a 053d ac1a 023f 25f9 943d 65cd 943d
000000c0: 3fc5 5dbd 279a 28be 826a dabd 149a fcbe
000000d0: c95a cabd 9db1 0cbe 0a4d de3d 2b5e fd3d
000000e0: 2808 38bd 5209 dfbe 330a 9ebb cd81 02bf
000000f0: c87e c43f 4c96 21bc cb62 6abe 024e e53e
00000100: e7d1 bf3d ca9b ed3d 496e 4dbe f0e1 4a3e
00000110: 6506 543c 2b03 6f3d acaf 7ebb 3622 1dbe
00000120: ee9c 17be d045 3ebc 2051 b3bd 387b bcbd
00000130: 035c eb3d 78d7 b6bd 9aad 353d 2c0d febd
00000140: 387e 483d 7d40 163d 3b05 47bd 25b9 0ebe
00000150: cd6a 8abd 45d6 12bd 700b c2bb 4686 17be
00000160: 2ed5 97bd 2980 563d 7f25 273e ff63 27be
00000170: bf2f b7bd 554d abbd d43f 71bd c08a 51bd
00000180: 10e6 35be b7b1 be3c ccbb 70bd be3a 18bd
00000190: 8a6b 5bbe be71 2c3e cc67 7e3e 936d 60be
000001a0: 86b4 21bc 5b90 6bbd 5616 93bd 8011 bb3c
000001b0: 73ef bd3d 2787 27bb 8085 30be 3009 39be
000001c0: 0444 463e 974d 28be e5aa 07be 1197 57bd
000001d0: 8cbc 0cbd d3ce 6ebc ee43 113e 4e7b 9abd
000001e0: 6907 4ebe bb7e 7cbd c8c9 443e 2949 db3d
000001f0: 6e96 163e 6f7d d4bd 4aa1 51be 11f6 c33d
00000200: 41bc 43be 3853 32bf 70aa b4be d257 6dbf
00000210: 4857 bcbd 160b 18bf 0bea 7a3d 27d1 23be
00000220: 479e 2cbe 57db 393f ef0f 2240 116d debe
00000230: 5e1d ac3f c801 44bf ea2c e73d 80d8 b7be
00000240: 35c0 8bbe c8a9 41bd cb3a 813c c3e9 e3be
00000250: 5aee d3be 80de b6bd 15ef 8bbe bfc7 263f
00000260: 5153 c2be ee67 243d cd0c 093f 3f1f 27be
00000270: ae83 2f3c eb35 f23d 9093 30bf 8bf4 723d
00000280: c6f6 97be f0a2 183e d4b5 073e b47b f3be
00000290: 7ef8 213f 61ce 4dbe e786 a63e 06c0 1dbe
000002a0: be0b a43f 42ff 6e3f 769f 9ebd e571 84bd
000002b0: 5933 9a3d 6f74 a4be 6612 963e 2238 65be
000002c0: 02bf d3bd d7db 3b3d c17f 4bbf 710b 5b3f
000002d0: 9e73 273e 9d98 0cbe e3b1 0dbd 4b34 f8be
000002e0: 0de7 87bf cd85 92be de93 92bd c3a4 62bf
000002f0: a7f9 2f3f 4032 76bd 22be 57bf bf84 ad3e
00000300: badf d7bc eb36 763d fa6d 52bd 70fe 5b3d
00000310: ac22 bdbd e63d 15bd 833e f23c ba8e d8bd
00000320: 60d5 b7bd 70c4 81bd 83d5 6dbc 6182 49bc
00000330: c1ec d63d c2ef b8bd b85d e1bd a584 1d3c
00000340: 7109 d33c 607f bdbd bb7d f43d b860 36be
00000350: 8de2 0ebd ea36 5bbd d0b8 c83c 4739 adbd
00000360: 8a31 54be deb3 2e3d f89e 35bd ac17 8a3d
00000370: 5551 1e3e 729e 913c 9f3e f43c 249c febd
00000380: 8c60 fabc 4c42 813e b434 033c 0a2c 57be
00000390: 9f26 53bd ac36 f5bd 2317 28bd 5831 34be
000003a0: fd9f e3bc b8c6 553d bf11 23bc 83ca 99bd
000003b0: 22ac 643b d050 38bd 6097 6dbd 6568 903d
000003c0: 15ec 643e c031 3fbd 10b0 bebd 2593 0cbe
000003d0: 1c3c 78bd f5ce 143d 6af5 ecbc b08e 72bb
000003e0: 4721 2cbb cccc 82bd 5dde 6abd f6e2 19be
000003f0: ec3e 31bd f7af 533b 82f5 e03d fe68 a93d
-0.18774141 -0.1722889 0.41750413 0.12041714 0.025860975 -0.15863346 -0.49164045 -0.27799335
-0.10463829 0.041631278 -0.04564565 -0.25690523 -0.28458565 -0.058921855 -0.16932355 -0.10374273
-0.06890379 -0.57266414 -0.15083928 -0.2237784 0.0015980463 0.07134757 -0.6502456 -0.8274623
0.23111573 -0.47951686 0.6229227 0.24064653 -0.45941815 -0.0012380277 0.089300506 0.13166706
-0.6527371 0.07165936 -0.3135297 0.05354849 -0.11750397 -0.08048945 -0.22609107 -0.20427278
0.07714115 -0.2574953 0.013850549 -0.14283521 0.032602597 0.5082195 0.07274083 0.072657384
-0.054143187 -0.16465054 -0.10664846 -0.49336302 -0.09880597 -0.13739629 0.10854538 0.12371477
-0.044929653 -0.43561798 -0.004822993 -0.5097931 1.535119 -0.009862494 -0.22889249 0.44786078
0.093662076 0.1160198 -0.20061602 0.19812751 0.012940978 0.05835263 -0.0038862033 -0.15345082
-0.14805958 -0.011613324 -0.08755708 -0.092031896 0.11492159 -0.08927816 0.044355012 -0.12404856
0.048948497 0.036682595 -0.048588973 -0.13937815 -0.06758652 -0.035848875 -0.0059217736 -0.14797315
-0.07413708 0.052368317 0.16322897 -0.16346739 -0.08944654 -0.08364359 -0.058898762 -0.051157713
-0.17763543 0.0232781 -0.058772847 -0.037165396 -0.21427742 0.16840264 0.24844283 -0.21916799
-0.0098697 -0.057510715 -0.071819946 0.022835493 0.09274187 -0.0025562735 -0.17238426 -0.18069911
0.19361883 -0.16435848 -0.13248785 -0.052634303 -0.0343595 -0.014575678 0.1418607 -0.0754305
-0.20120014 -0.061644297 0.19217598 0.107073136 0.14705822 -0.10375487 -0.20471683 0.09568418
-0.19114782 -0.6965823 -0.35286283 -0.9271213 -0.09196335 -0.59391916 0.061258357 -0.15997754
-0.16857253 0.7260031 2.5322225 -0.43442586 1.3446462 -0.7656522 0.112878636 -0.35907364
-0.2729508 -0.047281057 0.015775105 -0.44514284 -0.41392785 -0.08929157 -0.27330843 0.6514854
-0.3795419 0.040138178 0.5353516 -0.16320513 0.010712547 0.1182669 -0.6897516 0.059315246
-0.2968046 0.14905906 0.13252956 -0.47555315 0.63269794 -0.20098259 0.32524797 -0.15405282
1.2816083 0.9335824 -0.077452585 -0.06467036 0.07529325 -0.32120082 0.29310912 -0.22384694
-0.10339166 0.045863952 -0.7949181 0.85564333 0.16352698 -0.13730092 -0.034593474 -0.48477396
-1.0617386 -0.28617707 -0.0715711 -0.88532656 0.68740314 -0.060106516 -0.84274495 0.3389034
-0.026351798 0.060110968 -0.051374413 0.053709447 -0.09235129 -0.036435984 0.029570824 -0.10574098
-0.08976245 -0.063362956 -0.014516237 -0.012299151 0.10494376 -0.09030105 -0.110042036 0.009614144
0.025761338 -0.092528105 0.11938044 -0.17810333 -0.034884024 -0.053519167 0.024502188 -0.084581904
-0.20722023 0.042652003 -0.044341058 0.06742796 0.15460713 0.017775748 0.029815016 -0.12432125
-0.030563615 0.25245893 0.008008171 -0.21012893 -0.051550504 -0.119733185 -0.04103769 -0.17596948
-0.02778625 0.052191466 -0.0099529615 -0.07509329 0.0034892638 -0.044998944 -0.05800569 0.07051162
0.22355683 -0.046678305 -0.09310925 -0.13728006 -0.0606042 0.036330182 -0.028925616 -0.0037011318
-0.0026264952 -0.06386718 -0.05734097 -0.15027985 -0.043272898 0.0032300928 0.10984327 0.08271979

net.2.bias f4 [64]
00000000: e554 0dbe 7cd1 823d 2c51 7bbe d14f cdbd
00000010: 32a7 193f 0631 293f 5d0c 81be 1f38 133f
00000020: 6df1 0bbe 4bdf 423f e631 313e 0644 093f
00000030: 4874 213f 9417 143f 8f17 b7be 8d7b 9b3d
00000040: 86ad 1ebe 5c2e 0e3f 4218 56bb 5bf2 253f
00000050: 8d4a 1f3c 6a9b 5fbd 4cc8 1f3f dc1f 193f
00000060: c626 3d3f 4fa6 303d 3270 b93e 76a6 213e
00000070: c0d7 34bd a48e ff3e b201 70bd bf95 1f3f
00000080: effe d1bd 3249 0b3f 32c8 5d3c 5b05 65bd
00000090: 5794 153f 0e1e 9cbd 8cfa 0e3f 5183 343f
000000a0: eedb 99be b390 ff3e 3e7e 93bd ec4b 7fbe
000000b0: 621b 523f ae84 2e3f f6ee 17be 9045 2c3f
000000c0: bd74 86bd 7cbd 353e fbc6 3e3f cf5b 233f
000000d0: b685 1bbe 6ba1 123d 42b0 debd 71e2 0c3f
000000e0: 4178 233e 8947 4e3f 8532 0dbe 94e3 ee3b
000000f0: 3a4e 243f 51ac 48be a90c 483f 2968 053f
-0.13801916 0.06387612 -0.24542683 -0.100249894 0.60020745 0.6609043 -0.25204745 0.5750751
-0.13666315 0.7612197 0.17304191 0.5361942 0.63068056 0.5784848 -0.3576016 0.07591925
-0.15495881 0.5553949 -0.0032668267 0.6482293 0.009722364 -0.054591574 0.62415004 0.5981424
0.7388729 0.043127354 0.3621841 0.15786156 -0.044151068 0.49913514 -0.058595367 0.6233787
-0.10253703 0.5440856 0.0135365 -0.05591331 0.58429474 -0.0762292 0.55851054 0.7051287
-0.30050606 0.49915084 -0.07201813 -0.24931306 0.8207303 0.68171203 -0.1483725 0.67293644
-0.06565235 0.17748064 0.7452237 0.63811964 -0.15187725 0.03579847 -0.10873462 0.5503302
0.15963842 0.80577904 -0.13788803 0.007290313 0.64181864 -0.19596983 0.7814432 0.5211206

net.4.weight f4 [2, 64]
00000000: a657 18bf 69ea d6bd 9df2 16c0 aa1b 253e
00000010: 2e69 c63f fb6c ad3f c8d7 4ac0 f670 873f
00000020: 3c79 7f3e 5b91 e33f 9db1 8cc0 796b a53f
00000030: b32d 6a3f 62a7 a03f d0f7 33c0 2dfe 8c3c
00000040: b0e0 453d b395 a23f de3d 983d b3c7 b93f
00000050: d74b 21bd 4b47 f9bd 6cc8 a33f 595d b53f
00000060: 6b59 d53f 28d6 b7bc 73b8 d83f f70e b4bd
00000070: fd53 993d edbd aa3f 2b79 c6c0 c600 bc3f
00000080: d220 84c0 daaa 863f 0b6d 22c0 27bb 2fc0
00000090: 5663 aa3f 1114 583e 29f5 e33f e947 973f
000000a0: b5cd 8fbe 13f4 623f 1e8c a53e 68f3 95be
000000b0: b83c 283e 51b0 8a3f 2739 343c e1f9 993f
000000c0: f1b2 56bc 4435 323f 8bb2 963f 7c11 cf3f
000000d0: ec0f 89bd 3eb8 8cc0 a8bc cebc 172e b73f
000000e0: d69a 93be 2f5b a43f b9db 9ebb 7c40 36bf
000000f0: d89b 5d3f 665c 123d 5c57 613f a9c1 9b3f
00000100: b898 4e3f 9f0a ac3c f9cf cabf a409 0cbe
00000110: 0a0d a43f f4f4 d63f f4d9 8ec0 41de 833f
00000120: 4e25 80be 26b9 a63f 15bd 38c0 8f0b 9b3f
00000130: 2e0c b03f ba24 6c3f 623a 67c0 242f 0cbe
00000140: 7f25 283e 1266 963f 0658 a6bd f74d c33f
00000150: 4fdc a73c 8546 12be 5b13 b53f f766 dd3f
00000160: df38 323f dd68 15be b704 4a3f 7491 ff3b
00000170: 569f 91bb 57d1 b23f a963 48c0 6c4e c63f
00000180: 3f91 dbc0 2a73 9b3f eb65 46c0 a809 bebf
00000190: b49e bb3f 2342 763d 0158 413f fc4c 6d3f
000001a0: b898 35c0 fc03 9e3f 61aa 53be 43b2 7c3e
000001b0: 93b4 b43f 22d7 3c3f 1bef cf3c 756a 853f
000001c0: 4ce0 05bc ccd4 e1be fb8d e03f 6173 de3f
000001d0: 73c7 f6bd ca22 87c0 de84 a13d 0f47 953f
000001e0: b6d3 113f 25fb 233f 400f 4b3d 60c4 8c3e
000001f0: f4e2 c73f 50b3 cb3d 0469 b13f 68b8 a43f
-0.5950874 -0.10493929 -2.358558 0.16123834 1.5500848 1.3548883 -3.1694202 1.0581348
0.24948591 1.7778734 -4.3966813 1.2923423 0.9147598 1.2551081 -2.8120003 0.017211044
0.04830998 1.2701935 0.07433675 1.4514068 -0.039378967 -0.12171801 1.2795539 1.4169112
1.6667913 -0.022440985 1.693129 -0.08791917 0.074867226 1.3339211 -6.202291 1.4687736
-4.1290064 1.052089 -2.5379055 -2.7457979 1.3311565 0.21101405 1.7809192 1.181882
-0.2808663 0.8865368 0.32333463 -0.29287267 0.16429412 1.0835057 0.010999954 1.2029382
-0.013104186 0.69612527 1.1773237 1.6177211 -0.0669249 -4.3974905 -0.025236443 1.431094
-0.28829068 1.2840327 -0.0048479703 -0.71192145 0.86565924 0.03573265 0.88023925 1.2168475
0.8070178 0.021001158 -1.5844718 -0.13675553 1.2816479 1.6793504 -4.4641056 1.0302202
-0.2502846 1.3025253 -2.8865407 1.2112902 1.3753717 0.9224354 -3.6129384 -0.13689858
0.16420554 1.1749899 -0.08122258 1.5258168 0.020490794 -0.14284714 1.4146532 1.7297047
0.6961803 -0.14590783 0.78913444 0.007799322 -0.004444043 1.3970135 -3.1310828 1.5492682
-6.86148 1.214452 -3.0999706 -1.4846697 1.4657807 0.060121667 0.7552491 0.92695594
-2.8374462 1.2344966 -0.20670463 0.24677376 1.4117607 0.73765767 0.025382569 1.0423113
-0.008171152 -0.44107664 1.7543329 1.7378961 -0.12049761 -4.2229967 0.078866705 1.166231
0.5696367 0.6405509 0.04957509 0.27493572 1.5616136 0.099463105 1.3860173 1.2868776

net.4.bias f4 [2]
00000000: f617 3a3f 6748 c23e
0.7269281 0.37945864

exp_avg f4 [64, 4]
00000000: 7e8e a4be 2905 36be 3371 d93c d7d7 403d
00000010: 60c9 56be cef2 3fbd 5d90 d0bc 721c 63bc
00000020: 44ba 33c0 74a5 36bf 0a17 b4be 6af5 43be
00000030: 0400 0000 0400 0000 0400 0080 0400 0080
00000040: 0400 0080 0400 0080 0400 0080 0400 0000
00000050: f86d 1f3f 6b18 d03d a6e4 db3d d342 fb3d
00000060: 0400 0000 0400 0000 0400 0000 0400 0000
00000070: 1f6d 93be 0eaf 70be ae40 553d 7430 ac3d
00000080: d7f4 32be a1a5 b9bd 39df 643c cd82 cc3c
00000090: 0400 0080 0400 0080 0400 0080 0400 0000
000000a0: 0400 0000 0400 0080 0400 0000 0400 0000
000000b0: 0400 0000 0400 0000 0400 0000 0400 0080
000000c0: 0400 0080 0400 0000 0400 0080 0400 0080
000000d0: 408e 99be 843e 82bd bf30 673b b236 47bb
000000e0: 0400 0000 0400 0000 0400 0000 0400 0000
000000f0: 1336 a4bd 77c4 9f3c 14e5 17bc bc17 c0bc
00000100: c9ae de3e f253 d53d f6c4 973d 8d05 963d
00000110: 0400 0000 0400 0000 0400 0000 0400 0080
00000120: 0400 0080 0400 0080 0400 0080 0400 0000
00000130: 0400 0080 0400 0000 0400 0000 0400 0080
00000140: 0400 0000 0400 0000 0400 0080 0400 0080
00000150: 8511 7ebf dc64 22bf a958 78be 1e4a 10be
00000160: 2cec 5c3f 5d75 033e b255 c83d 396b 0f3e
00000170: 8e7e 3abb 2561 fabd 070f 033c 93a3 e83d
00000180: 05a4 e2be 19f8 08be e165 7abc 7619 64bc
00000190: 938e 1636 84b6 eeb9 da86 76b8 40e0 2a3a
000001a0: f6fe b13f da0c 393f 88ab 6fbe 468a 3cbd
000001b0: 73d4 833f 2c65 3c3f 3744 adbd 6bbf 25be
000001c0: 0f88 fbbe bda5 b2bd 3f1d 3ebd 5dca 6fbd
000001d0: 0400 0000 0400 0000 0400 0000 0400 0000
000001e0: f2ba 3e3f 1dc5 be3d 3207 ce3d 9da8 c13d
000001f0: 0400 0080 0400 0080 0400 0080 0400 0000
00000200: ee0f 483f 500f 903d 74d5 223e 5f84 3e3e
00000210: 0400 0000 0400 0000 0400 0000 0400 0000
00000220: 0400 0000 0400 0000 0400 0000 0400 0000
00000230: 648a bdbe e568 72be e5bd 243d d352 953d
00000240: 1454 793e dd50 a23c bd3d 87bc 4def 29bd
00000250: 913f 5ebe 294f 19bd 1282 83bc d0d4 9cbc
00000260: 0400 0080 0400 0080 0400 0000 0400 0000
00000270: 8382 18bf 33b9 bbbe 27a0 6a3d c0e0 e13d
00000280: 0400 0080 0400 0080 0400 0080 0400 0080
00000290: 8977 653f 34dc f03e 04d0 32bd 95bb 53bd
000002a0: caae 81be 8129 a2bd 95b0 d8bc 1ddc 3cbd
000002b0: 0400 0080 0400 0000 0400 0000 0400 0080
000002c0: 0400 0080 0400 0080 0400 0080 0400 0080
000002d0: fc1b efbe 4491 66be 5afc 5239 3fc1 ed3b
000002e0: e649 6abc 927e 55bc 5608 5139 4f42 373c
000002f0: 5514 393d b10d f4bc fe4f 05ba 535b 2e3d
00000300: 0400 0080 0400 0080 0400 0080 0400 0080
00000310: 85c0 903d d47f 9fbd a768 5f3d a6d5 883d
00000320: 4332 543d 8f4c a63d 537e 98b9 ab99 b43c
00000330: 0400 0080 0400 0000 0400 0000 0400 0080
00000340: 0400 0000 0400 0000 0400 0000 0400 0000
00000350: 10ec f1be 062a 95be 6920 373d 863c a83d
00000360: 0000 0000 0000 0000 0000 0000 0000 0000
00000370: 0400 0000 0400 0000 0400 0000 0400 0080
00000380: 3400 173f 0981 2c3e 882a 993d 704c 923d
00000390: 0400 0080 0400 0080 0400 0000 0400 0000
000003a0: 0400 0000 0400 0000 0400 0000 0400 0080
000003b0: d80b 8f3e d056 34bd 543c dd3d 15d8 0d3e
000003c0: 0400 0000 0400 0000 0400 0000 0400 0000
000003d0: 0400 0000 0400 0000 0400 0080 0400 0080
000003e0: f13d 6d3f 7584 f73d aee2 263e d171 3e3e
000003f0: 0400 0000 0400 0000 0400 0000 0400 0000
-0.32139963 -0.17775406 0.026543235 0.04708084 -0.20975256 -0.046862416 -0.025459463 -0.013861762
-2.8082438 -0.7134621 -0.35173827 -0.19136587 6e-45 6e-45 -6e-45 -6e-45
-6e-45 -6e-45 -6e-45 6e-45 0.62277174 0.10160907 0.107369706 0.12268605
6e-45 6e-45 6e-45 6e-45 -0.2879419 -0.23504278 0.052063636 0.08407679
-0.17476211 -0.09064794 0.013969236 0.024964714 -6e-45 -6e-45 -6e-45 6e-45
6e-45 -6e-45 6e-45 6e-45 6e-45 6e-45 6e-45 -6e-45
-6e-45 6e-45 -6e-45 -6e-45 -0.2999134 -0.0635958 0.0035276858 -0.0030397591
6e-45 6e-45 6e-45 6e-45 -0.08018126 0.019502861 -0.009270925 -0.023448817
0.43492725 0.10416402 0.07410614 0.073252775 6e-45 6e-45 6e-45 -6e-45
-6e-45 -6e-45 -6e-45 6e-45 -6e-45 6e-45 6e-45 -6e-45
6e-45 6e-45 -6e-45 -6e-45 -0.9924548 -0.6343515 -0.24252571 -0.14090773
0.8629787 0.1283774 0.0978197 0.14005746 -0.002845678 -0.1222556 0.007999188 0.11359324
-0.44265762 -0.13375892 -0.015283079 -0.013922086 2.243473e-06 -0.00045530882 -5.877656e-05 0.0006518401
1.3905933 0.72285235 -0.23405278 -0.046030305 1.0299209 0.73591876 -0.084602766 -0.16186301
-0.49127242 -0.08723018 -0.04641461 -0.058542598 6e-45 6e-45 6e-45 6e-45
0.74504006 0.0931494 0.10059966 0.094559886 -6e-45 -6e-45 -6e-45 6e-45
0.78149307 0.07034171 0.15901738 0.18605183 6e-45 6e-45 6e-45 6e-45
6e-45 6e-45 6e-45 6e-45 -0.37019646 -0.23672827 0.04022016 0.07291188
0.2434848 0.01981395 -0.016508931 -0.04148798 -0.21703936 -0.03742901 -0.016053233 -0.019144446
-6e-45 -6e-45 6e-45 6e-45 -0.59574145 -0.36664733 0.05728164 0.11029196
-6e-45 -6e-45 -6e-45 -6e-45 0.8963552 0.47043002 -0.04365541 -0.051692564
-0.25328666 -0.079180725 -0.026451388 -0.046108354 -6e-45 6e-45 6e-45 -6e-45
-6e-45 -6e-45 -6e-45 -6e-45 -0.46701038 -0.22516352 0.00020121169 0.0072557027
-0.014299845 -0.013030665 0.00019934899 0.011185243 0.045185406 -0.029791685 -0.0005085467 0.042567562
-6e-45 -6e-45 -6e-45 -6e-45 0.0706797 -0.07788053 0.054543164 0.06681375
0.051805746 0.08120071 -0.00029085818 0.02204593 -6e-45 6e-45 6e-45 -6e-45
6e-45 6e-45 6e-45 6e-45 -0.47250414 -0.29133624 0.044708643 0.08214669
0.0 0.0 0.0 0.0 6e-45 6e-45 6e-45 -6e-45
0.58984685 0.16846098 0.07478815 0.071434855 -6e-45 -6e-45 6e-45 6e-45
6e-45 6e-45 6e-45 -6e-45 0.27938724 -0.044028103 0.10802522 0.1385196
6e-45 6e-45 6e-45 6e-45 6e-45 6e-45 -6e-45 -6e-45
0.9267264 0.12085811 0.16297409 0.18598105 6e-45 6e-45 6e-45 6e-45

exp_avg_sq f4 [64, 4]
00000000: 8462 2940 271a 533f f28d 493c 7abf 2c3e
00000010: ea5f ea3f 0d18 343e 9fe3 a43c 7576 ab3d
00000020: 2a6d f043 36e9 3242 7d46 af40 2411 d241
00000030: f9c6 bf27 4421 8c29 2d1a ac26 2b7d bd29
00000040: f401 0000 f401 0000 f401 0000 f401 0000
00000050: 7f9b ba41 d457 1840 35a4 823e 5e76 913f
00000060: f401 0000 f401 0000 f401 0000 f401 0000
00000070: 6bfb f740 6dbc 0c40 32e1 5f3d c239 ef3e
00000080: 85d3 5c3f 9e31 9a3e b591 833b e95b 603d
00000090: f401 0000 f401 0000 f401 0000 f401 0000
000000a0: ffcf 8b23 7e7d 8e21 5f3d 081e af39 2620
000000b0: 46f2 123a 6efe 163a 2f6b ed34 d5d6 c739
000000c0: d213 8823 f502 b221 3f82 291e bd0e 1520
000000d0: 9d4a bd3f 2e48 523e 9007 563b 6c4f ca3d
000000e0: f401 0000 f401 0000 f401 0000 f401 0000
000000f0: ee14 ac3e b3f1 383d 7377 4c3b 96b4 8c3c
00000100: 396d 2441 6e7e 873f 36a4 df3d 7cda 033f
00000110: 5ad2 3b2a 0de8 152a 5b5c 1126 ef7e 3a27
00000120: f401 0000 f401 0000 f401 0000 f401 0000
00000130: 612a 692b 732a 2629 04cb 0526 fa30 ea29
00000140: 84b0 7a13 2699 e713 bf6b cc0f 07f4 4d13
00000150: 2059 6843 2d92 a441 46bc 0b40 1a16 3a41
00000160: dcbe fe41 0d98 2240 7832 b43e 275e ee3f
00000170: b2c2 ae3f f281 023f 57b9 e13a c96f d23d
00000180: 5138 0040 68d7 c93e 91d6 343c a4c4 da3d
00000190: b908 f93d b2ca de3b 9b5b ad3a 1127 5c3c
000001a0: 966c 4043 526e a941 adf9 c23f f9af 3d41
000001b0: dc68 1142 a941 2f41 2b67 393e 38f4 dc3f
000001c0: be89 b240 28c7 233f 35db 7a3d 58fc 823e
000001d0: e57c aa1f 670d 8e1e 9fc3 371b 1a2b 101c
000001e0: 83e4 c441 ebe4 2040 048f 8b3e 69f6 9a3f
000001f0: f401 0000 f401 0000 f401 0000 f401 0000
00000200: 8b34 4342 f61b b140 ec61 083f 53cb 1a40
00000210: f401 0000 f401 0000 f401 0000 f401 0000
00000220: 4d46 a83d ea0d 363d 407f 963a 4822 e83b
00000230: fec0 9f40 3ba9 ba3f df66 f23c e3ba a63e
00000240: 7d8f 0940 b825 6a3f 7b92 513b 1760 f63d
00000250: b212 8c3f 47bf 3f3e 6202 ff3b 89df a33d
00000260: f401 0000 f401 0000 f401 0000 f401 0000
00000270: cdf5 2841 7e7c 6040 31e9 683d e7f3 303f
00000280: f401 0000 f401 0000 f401 0000 f401 0000
00000290: cc60 9041 7d37 6740 4da3 983d ae9e 893f
000002a0: e016 b83f b5d8 633e 9b1f 763c 68ba a13d
000002b0: 8386 ef06 b8c6 2204 1e9d b401 4e71 4a04
000002c0: f401 0000 f401 0000 f401 0000 f401 0000
000002d0: 159b ca3f b8b9 203f 68b4 843b 5d4c a23d
000002e0: 8f17 bc3f c15e 6a3f 48e2 ae3a 410a 133f
000002f0: a747 253e 42ab a13d 739c 0739 ea5b 193d
00000300: f401 0000 f401 0000 f401 0000 f401 0000
00000310: af60 e340 fc78 963f d55a 8d3d c133 bf3e
00000320: a793 733d 75fd 673d 7677 733a 0f17 fd3c
00000330: 1408 e429 5c11 2329 0855 2e26 acb1 5f29
00000340: d1b1 3030 79ec 1530 4512 c32c 17d7 b52d
00000350: 2b96 d340 f052 0940 a31e 143d 79ad d73e
00000360: 0000 0000 0000 0000 0000 0000 0000 0000
00000370: fc01 c500 a806 d401 c02e 0600 ebec 9200
00000380: c7e8 3041 4cbe 903f 7ccf f73d 1a03 0c3f
00000390: f401 0000 f401 0000 f401 0000 f401 0000
000003a0: f401 0000 f401 0000 f401 0000 f401 0000
000003b0: 9a34 b441 1ef8 3e40 1cb6 6f3e 2395 993f
000003c0: f401 0000 f401 0000 f401 0000 f401 0000
000003d0: f401 0000 f401 0000 f401 0000 f401 0000
000003e0: 484a 5642 9f44 b340 aca9 153f 79bd 2640
000003f0: b4c7 0b00 c89f 0200 1407 0000 1cf7 0200
2.646638 0.8246178 0.012301909 0.16869918 1.8310521 0.175873 0.02012807 0.08372203
480.85284 44.727745 5.4773545 26.25837 5.3228876e-15 6.2230196e-14 1.1941992e-15 8.414999e-14
7e-43 7e-43 7e-43 7e-43 23.325926 2.3803606 0.25515905 1.1364248
7e-43 7e-43 7e-43 7e-43 7.7494407 2.1990006 0.054658122 0.46723753
0.86260253 0.3011598 0.0040151724 0.054775152 7e-43 7e-43 7e-43 7e-43
1.51585e-17 9.655512e-19 7.212471e-21 1.4079833e-19 0.00056055596 0.0005759959 4.4222676e-07 0.000381163
1.4753544e-17 1.2062532e-18 8.97372e-21 1.2625667e-19 1.4788395 0.20535347 0.0032658316 0.0987843
7e-43 7e-43 7e-43 7e-43 0.33609718 0.045152377 0.0031199127 0.017175954
10.276666 1.0585458 0.109199926 0.51505256 1.6681917e-13 1.3314367e-13 5.0432146e-16 2.5881496e-15
7e-43 7e-43 7e-43 7e-43 8.283704e-13 3.6896223e-14 4.641878e-16 1.04001836e-13
3.1641465e-27 5.8463614e-27 2.0157455e-29 2.5994952e-27 232.34814 20.571375 2.1833663 11.630396
31.843193 2.5405304 0.35194755 1.8622483 1.3653166 0.5097953 0.0017221373 0.102752276
2.0034373 0.39422154 0.011037485 0.106820375 0.12159867 0.0067990655 0.0013226153 0.0134370485
192.42416 21.178867 1.5232445 11.855462 36.3524 10.95353 0.18105762 1.726203
5.579314 0.63975763 0.06124421 0.25583148 7.220442e-20 1.5040378e-20 1.5200614e-22 4.770131e-22
24.611578 2.513972 0.2725755 1.2106448 7e-43 7e-43 7e-43 7e-43
48.80131 5.534663 0.53274417 2.41866 7e-43 7e-43 7e-43 7e-43
0.08216534 0.044446863 0.0011482015 0.007084165 4.9923086 1.4582895 0.029590068 0.32564458
2.1493828 0.91463804 0.0031978178 0.120300464 1.0943205 0.1872531 0.0077822665 0.0800162
7e-43 7e-43 7e-43 7e-43 10.56001 3.5075984 0.056863014 0.69122165
7e-43 7e-43 7e-43 7e-43 18.047264 3.6127617 0.07453022 1.075155
1.4381981 0.22250636 0.015022184 0.07896882 9.0099455e-35 1.9134256e-36 6.634701e-38 2.3797013e-36
7e-43 7e-43 7e-43 7e-43 1.5828577 0.62783384 0.0040498264 0.079247214
1.469469 0.91550833 0.0013342584 0.5743752 0.16140614 0.07893993 0.00012932885 0.03744117
7e-43 7e-43 7e-43 7e-43 7.105552 1.1755672 0.069020905 0.37344173
0.059466984 0.0566382 0.00092875154 0.030894784 1.0126635e-13 3.6208327e-14 6.0483616e-16 4.9670053e-14
6.428112e-10 5.454193e-10 5.5442617e-12 2.0672837e-11 6.612081 2.145687 0.03616203 0.42124537
0.0 0.0 0.0 0.0 1.8092305e-38 7.788605e-38 5.67784e-40 1.3492973e-38
11.05683 1.1308074 0.121001214 0.5469223 7e-43 7e-43 7e-43 7e-43
7e-43 7e-43 7e-43 7e-43 22.525684 2.9838939 0.23409313 1.1998638
7e-43 7e-43 7e-43 7e-43 7e-43 7e-43 7e-43 7e-43
53.57254 5.6021266 0.58462024 2.6053145 1.08183e-39 2.4099e-40 2.539e-42 2.72317e-40

exp_avg f4 [64]
00000000: 245f e0bd 8283 f0bd 8fc2 c5bf 0400 0080
00000010: 0400 0000 6199 c13e 0400 0000 205f 35bd
00000020: 205c 44bd 0400 0000 0400 0080 0400 0000
00000030: 0400 0000 1376 3ebe 0400 0000 fbc0 1abd
00000040: 637c 653e 0400 0000 0400 0000 0400 0000
00000050: 0400 0000 0879 fbbe 63d3 ec3e 1e3f 933c
00000060: 0571 5abe 007f 223a 9af6 9e3f 5282 653f
00000070: 437a 87be 0400 0080 61e0 c03e 0400 0000
00000080: cb5f 053f 0400 0000 0400 0000 7b54 edbd
00000090: 1eec 02bc f75e afbd 0400 0000 d623 36be
000000a0: 0400 0000 1229 353f 5dec 49be 0400 0000
000000b0: 0400 0000 dbef 54be 3b42 10bc 063e 163d
000000c0: 0400 0000 f485 c93d 5966 973d 0400 0000
000000d0: 0400 0000 73ce 1abe 0000 0000 0400 0000
000000e0: 4919 ad3e 0400 0000 0400 0000 6e32 7e3e
000000f0: 0400 0000 0400 0000 d85d 133f 0400 0000
-0.10955647 -0.11743833 -1.545 -6e-45 6e-45 0.3781233 6e-45 -0.04428017
-0.04793942 6e-45 -6e-45 6e-45 6e-45 -0.18599729 6e-45 -0.037781697
0.22410731 6e-45 6e-45 6e-45 6e-45 -0.49115777 0.46255025 0.017974433
-0.21332176 0.0006198734 1.2419007 0.8965198 -0.26460466 -6e-45 0.37671188 6e-45
0.52099293 6e-45 6e-45 -0.11588379 -0.007990865 -0.08563035 6e-45 -0.17787108
6e-45 0.70765793 -0.19719072 6e-45 6e-45 -0.20794623 -0.008804853 0.036680244
6e-45 0.09840003 0.07392568 6e-45 6e-45 -0.15117817 0.0 6e-45
0.33808354 6e-45 6e-45 0.24823925 6e-45 6e-45 0.5756507 6e-45
