CartPole/Experiment_1/23-09-26_22-10-39-937242_DQN/checkpoints/agent_29500.pt (torch, 82571 bytes, 24 tensors)

net.0.weight f4 [64, 4]
000000 4c 48 f5 bc 5e b5 08 3e d2 1c ae 3d f8 06 98 bd
       -0.0299417 0.13350436 0.08501591 -0.07423204
000010 c4 43 d2 3d 9e d1 a6 bd d3 2d 89 3e 44 5c 1a bd
       0.102668315 -0.0814545 0.26792774 -0.037685648
000020 5a 7a 04 be 6d b5 66 3d ca 9e ed 3f c7 a1 23 3e
       -0.12937298 0.056325365 1.8564084 0.15979682
000030 51 8f 06 be ae a7 e0 bd 94 8e 85 3f f8 78 ac 3d
       -0.13140608 -0.10969482 1.0434136 0.084215105
000040 e6 bc ab bd d7 7e a8 bc 0c d1 46 3d 72 b2 36 3b
       -0.08385639 -0.020568294 0.048539206 0.0027877358
000050 b5 43 7d 3e bc a9 86 be 68 e0 89 bf 55 8e 1b be
       0.2473286 -0.26301372 -1.0771608 -0.15191014
000060 a2 e1 93 bd 8a 32 ca 3d 0e 2b 10 bf 5f 82 c1 3d
       -0.072207704 0.09872921 -0.56315696 0.094486944
000070 d5 07 be bd 3a 17 14 3c d5 64 34 3c be a9 28 3d
       -0.092788376 0.009038741 0.011010368 0.041177504
000080 c9 b7 7d 3c 74 f4 93 bd 74 2b f9 3c ac 78 44 bd
       0.015485712 -0.0722436 0.030416228 -0.047966644
000090 c5 20 42 be 2a d9 ba 3c 63 b7 bd bc 62 31 18 3e
       -0.18957813 0.02280863 -0.023158735 0.14862588
0000a0 ee 47 17 be 5d 85 59 bd 6b cc ab bf 0e 95 a8 bd
       -0.14773533 -0.0531057 -1.3421758 -0.08231555
0000b0 01 2b 50 3d d2 1a 47 bd 01 c3 b7 bf 2d 8f 8e 3e
       0.05082226 -0.048609562 -1.4356385 0.2784361
0000c0 c6 de a2 be 20 7e 59 bd 7f 32 78 3f 20 15 8c bc
       -0.31810588 -0.053098798 0.9695205 -0.017099917
0000d0 e0 1b 8d bd ce ed 6d 3e d3 45 7b 3f f7 b6 8c be
       -0.06890082 0.23235247 0.9815342 -0.2748334
0000e0 6f bc db 3c 9e fd 0d bc fc 6a 3e be 88 86 b0 bc
       0.02682325 -0.008666424 -0.18595499 -0.021548524
0000f0 cf 76 2c 3d 62 73 ed bb e8 bb be 3e 1f 38 75 3d
       0.042105492 -0.0072464207 0.37252736 0.059867974
000100 8d 19 48 bd ca e3 e8 3c ab 8e 90 bf c5 80 bd 3e
       -0.048852492 0.02842893 -1.1293539 0.37012306
000110 fb 05 95 3e df e0 28 3b 46 06 ee be 42 fe c4 bb
       0.29106125 0.00257688 -0.4648916 -0.006011755
000120 ee 6e 45 3d 46 05 2e bd d7 e5 c4 bd 90 ed 03 bd
       0.048201494 -0.042485498 -0.09614151 -0.03220898
000130 7e 75 92 be 8f c6 75 be 1d 4b bb be 56 0f 21 be
       -0.28605264 -0.24001525 -0.36580744 -0.15728506
000140 3a 0e 59 3d 0a 8d f2 3d 29 92 02 bf a7 5a 3a bd
       0.052992083 0.11843307 -0.5100427 -0.04549661
000150 d4 94 ab 3e 49 27 e8 3d b8 de 29 be 7f 1a 8d 3d
       0.33511984 0.11335618 -0.16588867 0.06889819
000160 75 a2 c3 3d 21 af 4b be 41 2d 44 bf f7 df 84 bd
       0.095524706 -0.19891025 -0.7663155 -0.064880304
000170 46 3e 89 3e 8f 7e 60 3d 1d 23 81 bf 4d 58 99 3c
       0.26805323 0.054808196 -1.0088841 0.018718863
000180 5b ea c6 bd 46 39 b7 3d 49 44 94 3f 8a 94 15 3e
       -0.097126685 0.08946471 1.1583339 0.14607444
000190 23 cc 5a be 61 22 75 bd f1 32 bd bd 69 50 3e 3e
       -0.21366934 -0.05984724 -0.09238232 0.18585362
0001a0 c8 2d 01 3e da a6 09 3e 63 26 5a 3f 9b 37 f2 3d
       0.1261512 0.13442555 0.85214823 0.11827012
0001b0 73 b5 fb 3e 2e 09 fa 3a 04 f8 aa 3e 0a b8 15 3c
       0.49161872 0.0019076222 0.33392346 0.009138117
0001c0 a2 9d 8e 3e 95 10 89 be 83 41 75 3f e8 cb 1e 3c
       0.2785464 -0.26770464 0.9580309 0.00969217
0001d0 bd 64 5b bd 7a 10 8b be b8 8c 8c be 7e d1 9d be
       -0.05356287 -0.27161008 -0.2745111 -0.30823892
0001e0 d5 aa 94 be e5 37 57 3e d3 f5 68 3f b2 a5 67 3d
       -0.29036584 0.21017416 0.910001 0.056554504
0001f0 fb cd e9 bc 62 e9 a8 bc a6 4b ee 3c 74 01 91 bd
       -0.028540602 -0.020619098 0.029088806 -0.07080355
000200 1b 89 ec 3c c7 fc 95 bc 5a 49 7d bf c9 5a 95 bd
       0.02887397 -0.01830901 -0.9894005 -0.072927065
000210 ed 8f 60 bb 4d 82 68 3d 1a 91 98 bc b8 5e 4d 3d
       -0.0034265474 0.05676489 -0.018623877 0.05013916
000220 9a bd 38 be 63 13 09 bd 0f 59 64 3f a6 87 96 3e
       -0.18041077 -0.033465754 0.8919839 0.29400367
000230 68 22 ec 3d 67 37 90 bc 4b 36 d0 bd 21 37 9a 3c
       0.1153 -0.017604543 -0.101666056 0.018825116
000240 b6 30 b9 ba f6 53 fb 3b 9f 37 c0 bf 62 db 90 be
       -0.0014128897 0.007669921 -1.5016974 -0.28292376
000250 41 28 cb bd 28 55 a6 bc b0 ef 2d 3f 91 21 9a 3d
       -0.09919787 -0.020304278 0.6794386 0.075259335
000260 40 07 47 bd 42 28 86 3d 81 5a 55 be f0 70 24 3e
       -0.0485909 0.06550647 -0.20835306 0.16058707
000270 78 ea df 3d 70 15 b7 bd 84 cd 59 bd 14 68 12 bc
       0.10933393 -0.08939636 -0.05317451 -0.008935947
000280 ab b2 31 be 1f 6a a2 bd 17 8b 66 be b6 4c b8 bd
       -0.17353313 -0.07930397 -0.22513996 -0.089990065
000290 fe 5f 8f 3e ac 2e f5 bd 54 38 e9 bf f0 bb 62 be
       0.28002924 -0.119717926 -1.8220315 -0.22142005
0002a0 60 c0 10 be 90 44 06 3e e0 b0 73 3f 02 66 aa 3d
       -0.14135885 0.13112092 0.95191765 0.08320238
0002b0 c7 f7 40 be a8 33 83 3e 09 c7 c0 3e 95 95 8d 3d
       -0.1884452 0.25625348 0.37651852 0.06913296
0002c0 40 73 26 3c b3 8a 72 bd a0 90 e7 bd 1f f9 30 bd
       0.010159314 -0.059214305 -0.11306882 -0.04320633
0002d0 ed e6 25 bd fe 45 01 3e c0 30 90 3f 34 39 40 3e
       -0.04050343 0.12624356 1.1264877 0.18771821
0002e0 63 83 83 3e fb 8e ef bd 6b a9 03 c0 ce 28 9f be
       0.25686178 -0.11697193 -2.0572155 -0.3108582
0002f0 8f 58 81 3e ec 34 13 be 4f a4 74 be 14 5b 70 3b
       0.25262877 -0.14375657 -0.23890804 0.003667538
000300 8e 0a 30 bc 71 07 35 3d 3c 70 ca ba 19 4f 1f 3d
       -0.010744704 0.04419655 -0.0015444825 0.038893793
000310 75 d0 a9 bd 6f 8a 21 3d d0 d3 71 be 37 ae 0c 3c
       -0.08291713 0.03943866 -0.23615956 0.008586458
000320 23 2a 9e 3d c1 a2 c9 bd e5 04 25 bf 56 9e af bd
       0.07722881 -0.09845496 -0.64460593 -0.08575122
000330 db d3 30 bf 46 e0 b3 bd 88 00 91 3f ab 07 8a 3d
       -0.69073266 -0.08783011 1.1328287 0.06739744
000340 21 be a3 bd df 1c d7 3d 8b eb 85 3f f6 a7 54 3e
       -0.079952486 0.105035536 1.0462507 0.20767197
000350 d5 ba db bc ab 3e 5a bd 11 b1 6d 3e 4d 2b 33 bc
       -0.026822487 -0.05328242 0.23212077 -0.010935617
000360 47 a5 17 3d 22 8a 7d 3c 12 96 53 bd 53 c0 93 3c
       0.037022855 0.015474828 -0.05165679 0.018036043
000370 1b e0 27 be bd 0f 49 3e 9d 37 4f 3f 53 37 83 3c
       -0.16394083 0.1963491 0.80944234 0.016017592
000380 0c 0d 67 3e 56 28 27 be 0d cf 6e bf 71 c0 85 3e
       0.2256357 -0.1632398 -0.93284684 0.26123384
000390 f1 8d 8d 3d 5f bf af bd f7 fc ec be 7e 8e 7c 3c
       0.06911839 -0.08581423 -0.46286747 0.015414832
0003a0 4a 55 ee bc d7 a5 a8 3d 3d 15 94 bd 91 9a 3b 3d
       -0.029093403 0.082347564 -0.072306134 0.045801703
0003b0 f7 b0 03 3e 74 e6 97 bd 93 3b 1d bf e3 6d 3e be
       0.12860475 -0.07417002 -0.6141903 -0.18596606
0003c0 73 28 f0 3d 8a 49 4c bc e2 ef 82 3f b0 d8 97 3c
       0.11726465 -0.012468705 1.0229456 0.018535942
0003d0 3c b0 c5 bc d1 b4 82 3c 4f 6f 69 bd ae 8b ef bc
       -0.024131887 0.01595536 -0.056990918 -0.02924141
0003e0 a4 51 2e 3e 16 3d 28 be 9b 91 a8 bf 33 1a 28 be
       0.17023331 -0.16429552 -1.3169435 -0.16416244
0003f0 94 a9 2f 3e 69 1e 00 be b7 ee d6 3e 5d 0c d0 bb
       0.17154533 -0.125116 0.41979 -0.00634913

net.0.bias f4 [64]
000000 38 9d c2 3e 73 9c 85 3e 3d 8a 9e be 9e 96 66 be
       0.38010573 0.26095924 -0.30964842 -0.22518393
000010 58 ed 97 be e8 d4 4e 3e de 51 23 be a0 9a fb 3e
       -0.29673266 0.20198405 -0.15949199 0.49141407
000020 4c e5 af 3e 85 92 ce be 3f 07 bf be 40 4e 45 be
       0.34354627 -0.4034616 -0.37310216 -0.19268131
000030 9b d8 08 bf 05 8f 9a be 2c 0f 16 be 45 b6 4f 3e
       -0.53455514 -0.3018724 -0.14654225 0.20284374
000040 2c f1 47 be b5 77 6b be bb ea b7 bd 76 49 40 be
       -0.19525594 -0.22994883 -0.08980318 -0.18778023
000050 0c 72 c7 be 0a 7f 32 bf 04 d4 47 3e 19 2d 07 bf
       -0.38954198 -0.69725096 0.19514471 -0.5280319
000060 b8 a6 6c 3e 19 b7 07 bf 83 24 0d bf 0b 9b 26 bf
       0.23110473 -0.5301376 -0.5513384 -0.65080327
000070 04 27 d7 bd 22 77 03 be db e3 2e 3b 53 54 86 be
       -0.105054885 -0.12838414 0.0026686105 -0.2623621
000080 23 57 a9 3e f1 f7 0b be 5c 3c a1 be f7 53 e1 3e
       0.33074293 -0.13668801 -0.31491363 0.44009373
000090 ee 89 4b 3e ae 1e cd 3d 25 5e 99 be d7 ad 13 3f
       0.19876835 0.10015617 -0.2995464 0.57687134
0000a0 6c 9d 06 bf f4 41 b6 be 63 13 f4 3d 64 f0 b2 be
       -0.52583957 -0.35597193 0.1191776 -0.34949028
0000b0 5b 28 f5 bd 0f 83 b5 3e a1 2e 94 be 11 67 d6 be
       -0.11970588 0.35451552 -0.28941825 -0.41875508
0000c0 ab 13 fd bd 89 78 b5 3e b7 60 34 3e 2a 99 a6 be
       -0.12357267 0.35443524 0.17615019 -0.3253873
0000d0 a3 aa 81 be a8 d6 fa 3e b7 90 93 be 5f e5 b6 be
       -0.25325498 0.48991895 -0.28821346 -0.3572187
0000e0 b6 93 23 bd 21 36 dc be 47 91 0f be 8b 11 d4 3e
       -0.03993579 -0.43010047 -0.14020263 0.41419634
0000f0 cb a6 05 bf bf 71 40 be 8c 94 80 3e 82 f3 b4 be
       -0.5220763 -0.1879339 0.25113332 -0.35342032

net.2.weight f4 [64, 64]
000000 78 3f 40 be f4 6c 30 be 41 c3 d5 3e 76 9c f6 3d
       -0.18774211 -0.17229062 0.4175053 0.12041561
000010 65 da d3 3c 51 71 22 be 8b b8 fb be 9e 55 8e be
       0.025860975 -0.1586354 -0.49164233 -0.27799696
000020 a5 4c d6 bd a3 85 2a 3d 44 f6 3a bd 0d 89 83 be
       -0.104638375 0.041631352 -0.045645013 -0.256905
000030 78 b5 91 be 69 57 71 bd 44 63 2d be a2 77 d4 bd
       -0.28458762 -0.05892125 -0.16932398 -0.10374381
000040 2c 1e 8d bd 4e 9a 12 bf 9d 75 1a be b5 25 65 be
       -0.068905205 -0.572667 -0.15083928 -0.22377665
000050 b9 74 d1 3a 4b 1e 92 3d 9a 76 26 bf b2 d4 53 bf
       0.0015980221 0.07134684 -0.6502472 -0.8274642
000060 67 a9 6c 3e 4c 83 f5 be 53 77 1f 3f 76 6b 76 3e
       0.23111497 -0.47951734 0.6229145 0.2406443
000070 08 39 eb be 51 45 a2 ba 67 e2 b6 3d bb d3 06 3e
       -0.4594195 -0.0012380277 0.089299016 0.13166706
000080 ff 19 27 bf 24 c2 92 3d 40 87 a0 be 03 55 5b 3d
       -0.6527404 0.07165936 -0.31353188 0.05354787
000090 20 a6 f0 bd 4c d8 a4 bd 6b 84 67 be 10 2d 51 be
       -0.11750436 -0.08049068 -0.22609107 -0.20427346
0000a0 bb fc 9d 3d 83 d6 83 be ab ec 62 3c 1c 43 12 be
       0.0771422 -0.25749597 0.013850371 -0.14283413
0000b0 4d 8a 05 3d dc 19 02 3f fe f8 94 3d 1d cd 94 3d
       0.032602597 0.5082071 0.07274054 0.07265685
0000c0 3f c5 5d bd a2 9a 28 be d7 6a da bd 78 9a fc be
       -0.054143187 -0.16465238 -0.10664909 -0.493366
0000d0 5c 5b ca bd 57 b2 0c be 07 4d de 3d 58 5d fd 3d
       -0.09880707 -0.13739906 0.108545355 0.123713195
0000e0 bf 08 38 bd df 09 df be 33 0a 9e bb 2e 82 02 bf
       -0.044930216 -0.4356222 -0.004822993 -0.5097989
0000f0 a1 7e c4 3f 4c 96 21 bc f0 62 6a be 9e 4d e5 3e
       1.5351144 -0.009862494 -0.22889304 0.4478578
000100 3e d1 bf 3d 3d 9b ed 3d 4e 6e 4d be 71 e1 4a 3e
       0.09366082 0.11601875 -0.20061609 0.19812562
000110 65 06 54 3c a7 03 6f 3d e7 af 7e bb 5f 22 1d be
       0.012940978 0.058353093 -0.003886217 -0.15345143
000120 43 9d 17 be 4d 46 3e bc 24 51 b3 bd 37 7b bc bd
       -0.14806084 -0.011613441 -0.08755711 -0.09203189
000130 a1 5c eb 3d e5 d7 b6 bd 9a ad 35 3d 8a 0d fe bd
       0.11492277 -0.08927897 0.044355012 -0.12404926
000140 6e 7d 48 3d 14 40 16 3d 3b 05 47 bd 95 b9 0e be
       0.048947744 0.036682203 -0.048588973 -0.13937981
000150 35 6b 8a bd ee d5 12 bd 4d 0b c2 bb 92 86 17 be
       -0.06758729 -0.03584855 -0.0059217573 -0.14797428
000160 6e d5 97 bd b9 7f 56 3d 9e 25 27 3e 5b 64 27 be
       -0.07413755 0.0523679 0.16322944 -0.16346876
000170 15 2f b7 bd 55 4d ab bd 04 40 71 bd c0 8a 51 bd
       -0.08944527 -0.08364359 -0.05889894 -0.051157713
000180 9f e6 35 be b7 b1 be 3c 3c bc 70 bd 7b 3b 18 bd
       -0.17763756 0.0232781 -0.058773264 -0.0371661
000190 0a 6c 5b be f7 70 2c 3e c5 67 7e 3e a7 6d 60 be
       -0.21427932 0.16839968 0.24844272 -0.21916829
0001a0 ed b3 21 bc 6b 90 6b bd 78 16 93 bd 38 12 bb 3c
       -0.009869558 -0.057510775 -0.0718202 0.022835836
0001b0 73 ef bd 3d 48 87 27 bb e5 85 30 be e6 09 39 be
       0.09274187 -0.0025562812 -0.17238577 -0.18070182
0001c0 04 44 46 3e f3 4d 28 be 2a ab 07 be 69 96 57 bd
       0.19361883 -0.16435985 -0.13248888 -0.052633677
0001d0 d7 bb 0c bd d0 ce 6e bc eb 43 11 3e 49 7b 9a bd
       -0.034358826 -0.014575675 0.14186065 -0.07543046
0001e0 eb 07 4e be 56 7e 7c bd 39 c9 44 3e 0f 49 db 3d
       -0.20120208 -0.06164392 0.19217385 0.10707294
0001f0 cd 96 16 3e 6f 7d d4 bd 82 a1 51 be 94 f6 c3 3d
       0.14705963 -0.10375487 -0.20471767 0.095685154
000200 c7 bc 43 be 9f 53 32 bf 8a aa b4 be 2e 57 6d bf
       -0.19114982 -0.69658846 -0.3528636 -0.9271115
000210 80 57 bc bd 7e 0b 18 bf 70 e9 7a 3d cb d1 23 be
       -0.09196377 -0.59392536 0.06125778 -0.15997998
000220 4f 9e 2c be ee da 39 3f 30 10 22 40 80 6c de be
       -0.16857265 0.72599685 2.532238 -0.43442154
000230 91 1c ac 3f a1 01 44 bf c8 2c e7 3d aa d8 b7 be
       1.3446218 -0.76564986 0.11287838 -0.3590749
000240 be c0 8b be 40 a9 41 bd cb 3a 81 3c 3d ea e3 be
       -0.27295488 -0.04728055 0.015775105 -0.44514647
000250 ba ee d3 be b7 de b6 bd ad ef 8b be ec c7 26 3f
       -0.4139307 -0.08929198 -0.27331296 0.65148807
000260 94 53 c2 be 58 67 24 3d 36 0d 09 3f 3f 1f 27 be
       -0.3795439 0.04013762 0.53535783 -0.16320513
000270 37 83 2f 3c 54 35 f2 3d 41 94 30 bf 72 f4 72 3d
       0.010712436 0.11826578 -0.6897622 0.059315152
000280 f4 f6 97 be f0 a2 18 3e 19 b5 07 3e d5 7b f3 be
       -0.29680598 0.14905906 0.13252677 -0.47555414
000290 5b f8 21 3f 9c ce 4d be 26 87 a6 3e 3e c0 1d be
       0.63269585 -0.20098346 0.32524985 -0.15405366
0002a0 0d 0b a4 3f 84 fe 6e 3f d4 9f 9e bd 68 72 84 bd
       1.2815872 0.9335711 -0.077453285 -0.06467134
0002b0 59 33 9a 3d bb 74 a4 be e1 12 96 3e c1 37 65 be
       0.07529325 -0.32120308 0.29311278 -0.2238455
0002c0 02 bf d3 bd 06 db 3b 3d 61 80 4b bf 28 0b 5b 3f
       -0.10339166 0.045863174 -0.79492766 0.855639
0002d0 00 73 27 3e 28 99 0c be e3 b1 0d bd b1 33 f8 be
       0.16352463 -0.137303 -0.034593474 -0.48476937
0002e0 2e e7 87 bf 1c 85 92 be 97 94 92 bd 15 a5 62 bf
       -1.0617425 -0.2861718 -0.071572475 -0.88533145
0002f0 fc f9 2f 3f 40 32 76 bd 21 be 57 bf 22 85 ad 3e
       0.6874082 -0.060106516 -0.8427449 0.33890635
000300 58 e0 d7 bc 17 36 76 3d 77 6e 52 bd 70 fe 5b 3d
       -0.026352093 0.060110178 -0.05137488 0.053709447
000310 ac 22 bd bd 99 3e 15 bd 41 3e f2 3c 27 8f d8 bd
       -0.09235129 -0.03643665 0.0295707 -0.10574179
000320 c9 d5 b7 bd 70 c4 81 bd 83 d5 6d bc b3 82 49 bc
       -0.08976323 -0.063362956 -0.014516237 -0.0122992275
000330 3f ec d6 3d c2 ef b8 bd b8 5d e1 bd e1 83 1d 3c
       0.10494279 -0.09030105 -0.110042036 0.009613962
000340 11 09 d3 3c 08 80 bd bd bb 7d f4 3d b4 60 36 be
       0.02576116 -0.09252936 0.11938044 -0.17810327
000350 a1 e2 0e bd ea 36 5b bd 84 b8 c8 3c 47 39 ad bd
       -0.0348841 -0.053519167 0.024502046 -0.084581904
000360 df 31 54 be 46 b3 2e 3d f7 9e 35 bd ac 17 8a 3d
       -0.2072215 0.042651437 -0.044341054 0.06742796
000370 f8 50 1e 3e 72 9e 91 3c 9f 3e f4 3c 1a 9c fe bd
       0.15460575 0.017775748 0.029815016 -0.12432118
000380 cf 60 fa bc 4c 42 81 3e e9 33 03 3c 04 2c 57 be
       -0.03056374 0.25245893 0.008007982 -0.21012884
000390 9f 26 53 bd d2 36 f5 bd 23 17 28 bd 9a 31 34 be
       -0.051550504 -0.11973347 -0.04103769 -0.17597046
0003a0 fd 9f e3 bc b8 c6 55 3d 0e 12 23 bc 83 ca 99 bd
       -0.02778625 0.052191466 -0.009953035 -0.07509329
0003b0 22 ac 64 3b d8 50 38 bd 60 97 6d bd 26 68 90 3d
       0.0034892638 -0.044998974 -0.05800569 0.07051115
0003c0 15 ec 64 3e 07 32 3f bd 91 b0 be bd 3c 93 0c be
       0.22355683 -0.04667857 -0.09311021 -0.1372804
0003d0 14 3c 78 bd 67 ce 14 3d 6a f5 ec bc b0 8e 72 bb
       -0.06060417 0.036329653 -0.028925616 -0.0037011318
0003e0 bb 21 2c bb 5f cc 82 bd 5d de 6a bd fd e2 19 be
       -0.0026265222 -0.06386637 -0.05734097 -0.15027995
0003f0 ec 3e 31 bd f7 af 53 3b 63 f5 e0 3d fe 68 a9 3d
       -0.043272898 0.0032300928 0.10984304 0.08271979

net.2.bias f4 [64]
000000 50 55 0d be c8 d0 82 3d dc 51 7b be 5d 50 cd bd
       -0.13802075 0.06387478 -0.24542946 -0.10025094
000010 dd 9a 0a 3f bb d4 f6 3e 2d ba 25 be 32 2b ad 3e
       0.5414255 0.48209175 -0.16184302 0.33822018
000020 d8 f1 0b be 91 70 32 3f 4c 56 21 3e 03 66 f1 3e
       -0.13666475 0.6970301 0.15755576 0.4714814
000030 7e a2 00 3f 86 3c be 3e c5 fe 8d be 5e 7b 9b 3d
       0.50247943 0.3715555 -0.27733436 0.0759189
000040 27 6c fc bd 8d b2 d9 3e 67 18 56 bb 40 9e f5 3e
       -0.12325316 0.42519036 -0.0032668354 0.47972298
000050 34 4a 1f 3c 1a 9c 5f bd 89 14 05 3f db d8 ce 3e
       0.009722281 -0.05459223 0.5198446 0.40399823
000060 72 5e fb 3e 15 a6 30 3d 39 3c 9f 3e 0e a6 21 3e
       0.49095494 0.04312714 0.31100634 0.15786001
000070 d1 d7 34 bd c3 94 ca 3e b1 19 ef bd 86 af 08 3f
       -0.04415113 0.3956662 -0.11674822 0.5339283
000080 c0 70 28 be a4 fd d9 3e fd fa ba bd a9 05 65 bd
       -0.1644926 0.42576325 -0.091299035 -0.0559136
000090 52 42 06 3f 4c 1e 9c bd 64 54 d8 3e 39 13 01 3f
       0.52444947 -0.07622966 0.42251885 0.50419956
0000a0 15 dc 99 be 61 b8 d2 3e 3c 7e 93 bd 1a f1 04 be
       -0.30050722 0.41156295 -0.07201812 -0.12982598
0000b0 e4 94 07 3f 9f f0 e7 3e a2 e0 ee bd 27 b6 03 3f
       0.52961564 0.45300767 -0.11663939 0.5144982
0000c0 2e 75 86 bd 31 74 a3 bd 50 71 1d 3f 7a 82 0d 3f
       -0.06565319 -0.07981146 0.61501026 0.55277216
0000d0 d3 ff f5 bd e4 d0 a7 bd cf b0 de bd 2c 54 f9 3e
       -0.12011685 -0.081941396 -0.10873567 0.4869703
0000e0 00 bf 3e bd bd be 13 3f a0 32 0d be 35 37 d5 bd
       -0.04656887 0.5771292 -0.13788843 -0.104109205
0000f0 ee 42 0f 3f 96 cf 23 be c9 0c e4 3e 14 d8 b6 3e
       0.559615 -0.15997157 0.44541004 0.3571173

net.4.weight f4 [2, 64]
000000 d9 57 18 bf b1 e9 d6 bd 52 f2 16 c0 aa 1b 25 3e
       -0.59509045 -0.10493792 -2.35854 0.16123834
000010 73 7d 51 3f 60 fc 8a 3f f3 56 50 c0 63 63 3e 3f
       0.81832045 1.0858269 -3.255307 0.743704
000020 b1 79 7f 3e d5 29 84 3f 4d e6 1e c0 e1 27 65 3f
       0.24948765 1.0325266 -2.4828064 0.89513975
000030 2b 5b dc 3e 82 43 87 3f b7 9d df bf 93 fe 8c 3c
       0.43038306 1.0567477 -1.7470006 0.017211234
000040 f1 db 87 3d 34 e8 2e 3f 3e 3e 98 3d 34 02 9c 3f
       0.06633747 0.68323064 0.07433747 1.2188172
000050 d1 4b 21 bd b9 46 f9 bd 38 05 1b 3f 1c 31 91 3f
       -0.039378945 -0.121716924 0.6055484 1.1343112
000060 d5 3a a6 3f 9d d6 b7 bc c6 f7 72 3f df 0e b4 bd
       1.2986704 -0.022441203 0.9490932 -0.08791899
000070 31 53 99 3d f0 7f 9a 3f 1c 97 18 c0 85 d2 6d 3f
       0.074865706 1.2070293 -2.384223 0.9289935
000080 b1 88 6a c0 2d 0a cc 3e 3b a9 9d bf b9 bb 2f c0
       -3.664593 0.39851514 -1.231727 -2.7458327
000090 59 10 5f 3f d2 13 58 3e 90 b3 5b 3f c7 e4 40 3f
       0.8713432 0.21101311 0.85820866 0.75349087
0000a0 b3 cd 8f be f7 6e 44 3f 06 8c a5 3e fc ec 1b bd
       -0.28086624 0.7673182 0.32333392 -0.038067803
0000b0 99 58 13 bd 92 b6 4d 3f 78 f9 2e 3d 1f f7 45 3f
       -0.035973165 0.80356705 0.04271838 0.773302
0000c0 1e b2 56 bc 62 42 e5 bc 18 f9 81 3f 61 5f 76 3f
       -0.01310399 -0.027985755 1.0154142 0.96239287
0000d0 9a 0f 89 bd 91 3a fc bf 78 bc ce bc 81 10 4f 3f
       -0.06692429 -1.9705373 -0.025236353 0.8088456
0000e0 85 a7 1d 3c c9 96 7b 3f b9 db 9e bb 5d 6e 9d bd
       0.009622459 0.98276955 -0.0048479703 -0.07687066
0000f0 bf 7d 2d 3f 67 59 d8 ba 20 11 a3 3e 62 9a 6e 3f
       0.6777 -0.0016506136 0.31849003 0.9320432
000100 48 98 4e 3f 45 0b ac 3c 2a d0 ca bf 73 09 0c be
       0.8070111 0.021001467 -1.5844777 -0.1367548
000110 a7 5d 7d 3f e3 de 5b 3f ae 62 77 c0 6c cb f1 3e
       0.9897103 0.85886973 -3.865398 0.4722551
000120 bc 24 80 be b9 5c 83 3f 52 77 0d c0 54 42 cd 3e
       -0.25028026 1.0262672 -2.2104077 0.40089667
000130 da 51 76 3f 66 40 bf 3e 50 f2 1c c0 bf 2e 0c be
       0.96218646 0.3735382 -2.4522896 -0.13689707
000140 7f 25 28 3e bc 11 85 3f ad 57 a6 bd 87 b9 6b 3f
       0.16420554 1.0396037 -0.081221916 0.9207997
000150 8f dc a7 3c 60 46 12 be 82 60 89 3f 81 ee 9d 3f
       0.020490913 -0.14284658 1.0732577 1.2338411
000160 46 87 00 3f c0 68 15 be 01 88 3b 3f 7a 91 ff 3b
       0.5020641 -0.1459074 0.732544 0.0077993246
000170 53 9f 91 bb 7e a5 0a 3f 18 15 13 c0 11 c7 b5 3f
       -0.0044440418 0.5415877 -2.2981625 1.4201375
000180 e6 de 8c c0 88 0a 75 3f 9f bf 9d bf e6 09 be bf
       -4.4022093 0.95719194 -1.2324103 -1.4846771
000190 df cd 6d 3f 23 42 76 3d 80 1b 5e 3f 98 b7 0f 3f
       0.9289226 0.060121667 0.8676071 0.56139517
0001a0 be 98 35 c0 dc e7 1b 3f 29 aa 53 be 79 ab a9 3d
       -2.8374476 0.60900664 -0.2067038 0.08284659
0001b0 90 62 8f 3f 56 1b 5a 3e 1b ef cf 3c 2b e4 47 3f
       1.1201954 0.2129949 0.025382569 0.7808253
0001c0 f1 df 05 bc a4 ff 04 3d 6f 9a 81 3f b6 ea a2 3f
       -0.008171068 0.03247036 1.0125254 1.2727878
0001d0 32 7a 1b be 50 bc 27 c0 50 84 a1 3d 75 34 3d 3f
       -0.15183333 -2.6208687 0.07886565 0.7390817
0001e0 03 39 27 3d 85 99 6a 3e 11 0f 4b 3d 2d 42 82 3b
       0.040825855 0.22910126 0.049574915 0.003975174
0001f0 67 32 57 3f fb 58 f1 3d 20 38 82 3f 05 60 1a 3f
       0.8406128 0.1178455 1.0173378 0.60302764

net.4.bias f4 [2]
000000 84 27 d8 3e 86 47 56 3e
       0.42217648 0.20925722

net.0.weight f4 [64, 4]
000000 cf 16 ff bc 2a fe 05 3e 2d 3d 84 3d cc e3 8b bd
       -0.031138806 0.13085237 0.06456981 -0.06830558
000010 e3 80 c9 3d 5e 53 a6 bd 7e f3 7f 3e dc 01 37 bd
       0.09839036 -0.0812137 0.24995229 -0.044679508
000020 06 ee fd bd 51 4d 6d 3d 9f b3 ec 3f 35 2a 24 3e
       -0.12398915 0.057935063 1.8492316 0.16031726
000030 1d b4 3d be 52 18 cc bd d3 bc 88 3f a3 ab ba 3d
       -0.18525739 -0.09965576 1.0682625 0.09114768
000040 46 bd ab bd 96 7f a8 bc 89 d0 46 3d bf b2 36 3b
       -0.083857104 -0.02056865 0.04853872 0.0027877537
000050 40 09 70 3e 90 21 88 be e7 33 89 bf d9 d6 1c be
       0.23441029 -0.26588106 -1.0718964 -0.15316333
000060 2f de 93 bd 3c 36 ca 3d a6 2a 10 bf f9 85 c1 3d
       -0.072201125 0.09873626 -0.56315076 0.094493814
000070 b8 ff c8 bd 4b c2 f5 3b 0c e7 fe bb 81 72 1b 3d
       -0.098143995 0.007499968 -0.007779008 0.037950996
000080 4b 7a 3b 3c 74 a5 96 bd 94 ff 81 3c ef c9 46 bd
       0.011442731 -0.073557764 0.01586894 -0.048532423
000090 2e 02 51 be ff 4d 57 3c 54 d3 06 bd ea 9f be 3d
       -0.20410988 0.013141154 -0.032916382 0.09307845
0000a0 2a 4a 14 be e0 f2 61 bd 07 60 a3 bf be a4 8b bd
       -0.14481416 -0.055163264 -1.276368 -0.068185315
0000b0 c0 5a a2 3d f5 d6 17 bd ca 66 b0 bf 59 6a 9a 3e
       0.079274654 -0.037070233 -1.3781369 0.30159262
0000c0 1e 82 a5 be b1 77 4f bd cf 8f 71 3f 53 29 b2 bc
       -0.32325834 -0.050651256 0.9436006 -0.02174822
0000d0 52 74 a9 bd 4c 80 5b 3e dd 27 74 3f 74 62 89 be
       -0.082741395 0.2143566 0.95373327 -0.26832926
0000e0 c9 bc db 3c a5 fd 0d bc 88 6a 3e be 48 86 b0 bc
       0.026823418 -0.008666431 -0.18595326 -0.021548405
0000f0 af 39 e5 3c da 51 48 bc 1d ea ae 3e 89 0d 39 3d
       0.027981607 -0.012226546 0.3416299 0.045178924
000100 93 fb db bd f6 6e 5f 3c 3e de 8f bf 4a f4 b4 3e
       -0.10741343 0.013637295 -1.1239698 0.35342628
000110 fb 6a 93 3e a3 2d 00 bb a4 36 f3 be 3f cf ac bc
       0.28792557 -0.0019558452 -0.47502625 -0.021094916
000120 a1 6e 45 3d a6 05 2e bd e8 e5 c4 bd 15 ed 03 bd
       0.048201207 -0.042485856 -0.09614164 -0.03220852
000130 6c dc 9b be a3 da 6b be 07 45 a8 be 75 fa 12 be
       -0.30441606 -0.23032622 -0.32865164 -0.14353354
000140 7b c2 60 3d 82 af f6 3d ad 18 02 bf 7f 50 36 bd
       0.05487297 0.12045194 -0.508189 -0.04451036
000150 74 0c ac 3e c5 67 e3 3d 5e 1a 26 be 9a c0 8b 3d
       0.3360325 0.11103777 -0.16220996 0.06823845
000160 c8 d8 91 3d 54 29 59 be 42 a1 4e bf 1b fe ea bd
       0.07121426 -0.21207172 -0.8071481 -0.11474248
000170 19 a5 89 3e bd 88 5a 3d 6b 35 7d bf 90 28 4d 3c
       0.26883772 0.05335306 -0.98909634 0.012521878
000180 76 c6 df bd 6a 93 b4 3d ed 54 92 3f d0 4a f3 3d
       -0.10926525 0.088171795 1.1432167 0.11879504
000190 c3 8c 5f be f3 10 83 bd 62 b2 f2 bd 69 53 46 3e
       -0.2183104 -0.06399717 -0.1185043 0.19367756
0001a0 ce 78 01 3e 82 7a 08 3e 8d a7 5c 3f bb 14 e4 3d
       0.1264374 0.13327983 0.8619316 0.111367665
0001b0 d1 23 fb 3e da 52 6a ba bf a6 a9 3e c1 ff 88 bb
       0.49050763 -0.00089387374 0.3313503 -0.004180879
0001c0 a8 55 95 3e db 8f 84 be 9b ed 7a 3f 72 0e 83 3c
       0.29166913 -0.25891003 0.9801881 0.015998099
0001d0 61 00 91 bd 37 ba 81 be 05 0a 36 be b2 60 8d be
       -0.070801504 -0.25337383 -0.1777726 -0.27612835
0001e0 bf 2e 96 be a5 81 56 3e 4a 84 59 3f d3 0d 93 3c
       -0.2933254 0.20947893 0.8496748 0.017950928
0001f0 5a ce e9 bc d6 e9 a8 bc 93 4b ee 3c be 00 91 bd
       -0.028540779 -0.020619314 0.029088771 -0.0708022
000200 30 63 f8 3c 24 8e 7f bc b5 83 7f bf a2 ca 96 bd
       0.030320734 -0.015597854 -0.99810344 -0.07362868
000210 f3 8f 60 bb 53 82 68 3d 1a 91 98 bc b8 5e 4d 3d
       -0.0034265488 0.05676491 -0.018623877 0.05013916
000220 73 06 12 be 7d c1 cd bc eb df 5e 3f 82 29 98 3e
       -0.14260273 -0.025116676 0.8706042 0.29719168
000230 d9 b5 e6 3d 36 5d 8f bc e7 b8 ef bd a2 bf 89 3c
       0.112651534 -0.017500501 -0.11705189 0.01681501
000240 ec d9 6f 3b 00 05 8e b9 7c 67 c2 bf 40 f4 8b be
       0.0036598397 -0.00027088076 -1.5187831 -0.27334785
000250 ba cd 09 be 09 25 d0 bc ec c9 2e 3f fe d3 1c 3c
       -0.13457385 -0.025408285 0.6827686 0.009572027
000260 00 08 47 bd 2d 28 86 3d 6a 5a 55 be 4e 71 24 3e
       -0.048591614 0.06550632 -0.20835271 0.16058847
000270 12 af db 3d e8 55 b7 bd 0f 43 89 bd 1d 83 18 bc
       0.107267514 -0.08951932 -0.067022435 -0.009308604
000280 0f b3 31 be 8e 6a a2 bd 8b 89 66 be 6d 4b b8 bd
       -0.17353462 -0.0793048 -0.22513406 -0.08998761
000290 9d e8 8e 3e 36 39 03 be 30 54 e9 bf 82 38 62 be
       0.27911845 -0.12814793 -1.8228817 -0.22091869
0002a0 30 45 2d be 5d 45 00 3e 1d 11 70 3f 30 1b 3a 3d
       -0.16920924 0.1252646 0.9377611 0.045436084
0002b0 7a 56 3f be 71 de 84 3e 8f 66 c2 3e 1d 10 86 3d
       -0.18685332 0.2595096 0.3796887 0.06546042
0002c0 40 73 26 3c b3 8a 72 bd a0 90 e7 bd 20 f9 30 bd
       0.010159314 -0.059214305 -0.11306882 -0.043206334
0002d0 9a 07 d1 3c db 9a 16 3e cc 0f 98 3f e9 f6 7e 3e
       0.02551632 0.1470751 1.1879821 0.24898876
0002e0 8f 0a 7f 3e 9e 87 e4 bd d6 0b 02 c0 3e 98 a5 be
       0.24906372 -0.111586794 -2.0319724 -0.32342714
0002f0 cd e2 7c 3e df 6e 19 be c2 f4 72 be e1 12 21 3c
       0.24695893 -0.149837 -0.2372618 0.009831161
000300 22 0d 30 bc 13 07 35 3d bc 85 ca ba 21 4e 1f 3d
       -0.010745319 0.0441962 -0.0015451233 0.03889287
000310 52 61 b6 bd a9 d2 18 3d 4e ec 81 be 24 6c d6 3b
       -0.08905281 0.037310276 -0.253756 0.006543653
000320 f1 bb a4 3d 8e 5e c2 bd b8 8c 26 bf 58 c7 ae bd
       0.080436595 -0.09490691 -0.6505847 -0.085341156
000330 be 8d 29 bf da de 9b bd fa 02 94 3f 5f cb ab 3d
       -0.66231906 -0.07610865 1.1563408 0.08388399
000340 96 6d 91 bd fc ff e7 3d 2c b7 86 3f d7 6b 4e 3e
       -0.0710098 0.11328122 1.052465 0.20158325
000350 61 4b f5 bc dc c7 5c bd 38 0b 5e 3e 2f ce 4c bc
       -0.02994317 -0.05390154 0.21683967 -0.01250033
000360 47 a5 17 3d 22 8a 7d 3c 12 96 53 bd 53 c0 93 3c
       0.037022855 0.015474828 -0.05165679 0.018036043
000370 17 65 55 be 78 ac 45 3e c8 2c 47 3f f5 10 11 bd
       -0.20839344 0.19304073 0.77802706 -0.035416562
000380 88 96 66 3e 7b d1 25 be c7 45 6e bf 2d 59 8e 3e
       0.2251836 -0.16193192 -0.9307522 0.2780241
000390 f3 68 84 3d e6 24 b9 bd 68 a1 eb be f6 7f a3 3c
       0.0646533 -0.09040241 -0.4602158 0.019958477
0003a0 f3 54 ee bc a6 a6 a8 3d 06 15 94 bd ff 9a 3b 3d
       -0.029093241 0.08234911 -0.072305724 0.045802113
0003b0 1a 18 01 3e 9f 9d 96 bd f2 92 20 bf 58 b7 3d be
       0.1260685 -0.073542826 -0.6272422 -0.18526971
0003c0 3f 2a f0 3d 25 3c 4c bc f4 ef 82 3f 7b df 97 3c
       0.11726808 -0.012465511 1.0229478 0.018539181
0003d0 41 b0 c5 bc 5c b5 82 3c 0b 6f 69 bd e2 8b ef bc
       -0.024131896 0.01595562 -0.056990664 -0.029241506
0003e0 b8 c2 2b 3e 1b 27 29 be cb 73 a7 bf 77 e4 1d be
       0.16773498 -0.16518824 -1.3082212 -0.15419184
0003f0 2f a9 2f 3e aa 1e 00 be 19 ef d6 3e d2 0b d0 bb
       0.17154382 -0.12511697 0.41979292 -0.0063490653

net.0.bias f4 [64]
000000 3e 4e c1 3e e2 c8 86 3e 33 d4 9c be ec c8 1b be
       0.37755007 0.26325136 -0.30630645 -0.15213364
000010 9e ec 97 be 87 9c 5f 3e 54 50 23 be d9 d1 fa 3e
       -0.29672712 0.21837054 -0.15948611 0.48988226
000020 c2 08 af 3e d2 48 c7 be 6f be bb be 4b db 10 be
       0.3418637 -0.38922745 -0.36668727 -0.14146154
000030 d3 a0 06 bf 15 fb a1 be 7e 0e 16 be 81 df 59 3e
       -0.5258915 -0.31636873 -0.14653966 0.21276666
000040 65 a7 30 be 81 fc 6f be 78 ea b7 bd 93 80 34 be
       -0.17251356 -0.23436166 -0.08980268 -0.17627172
000050 ef 1d c6 be 03 f2 33 bf fe 46 5d 3e 93 3f 09 bf
       -0.38694713 -0.70291156 0.21609113 -0.5361263
000060 28 5c 78 3e 23 bd 06 bf 9c 61 0e bf 41 c2 27 bf
       0.24253905 -0.5263235 -0.5561769 -0.6553078
000070 dc 1e ce bd d7 93 75 bd 7a aa cf 3c ed 53 86 be
       -0.1006448 -0.059955444 0.025349844 -0.26235905
000080 c3 00 a6 3e f1 f7 0b be 6d 97 a9 be 98 2e e0 3e
       0.32422456 -0.13668801 -0.3312334 0.43785548
000090 b2 bf 39 3e ae c0 0c 3e 26 5e 99 be 30 c3 12 3f
       0.18139532 0.13745376 -0.29954642 0.5732908
0000a0 5d 9d 06 bf 76 92 b7 be 49 1f 06 3e eb dc b0 be
       -0.5258387 -0.35853928 0.13097872 -0.34543547
0000b0 5b 28 f5 bd 0d 9d a6 3e 66 24 98 be 12 52 d3 be
       -0.11970588 0.32541695 -0.2971527 -0.41273552
0000c0 2c 13 fd bd f6 92 b4 3e 86 b8 35 3e 09 65 b9 be
       -0.12357172 0.35268372 0.17746171 -0.36209896
0000d0 cd 3b 7b be 83 69 f9 3e b7 90 93 be 4c 85 9d be
       -0.24534531 0.48713312 -0.28821346 -0.3076576
0000e0 7a 79 2c bc d5 db d9 be c5 90 0f be da d3 d1 3e
       -0.010527009 -0.4255053 -0.14020069 0.40981942
0000f0 7d a6 05 bf 49 71 40 be 54 7f 83 3e 18 f3 b4 be
       -0.52207166 -0.18793215 0.2568308 -0.35341716

net.2.weight f4 [64, 64]
000000 49 3f 40 be 80 6c 30 be 1a c3 d5 3e 43 9d f6 3d
       -0.18774141 -0.1722889 0.41750413 0.12041714
000010 65 da d3 3c cf 70 22 be 4c b8 fb be 25 55 8e be
       0.025860975 -0.15863346 -0.49164045 -0.27799335
000020 9a 4c d6 bd 8f 85 2a 3d ef f6 3a bd 15 89 83 be
       -0.10463829 0.041631278 -0.04564565 -0.25690523
000030 36 b5 91 be 0b 58 71 bd 27 63 2d be 12 77 d4 bd
       -0.28458565 -0.058921855 -0.16932355 -0.10374273
000040 6e 1d 8d bd 1e 9a 12 bf 9d 75 1a be 2a 26 65 be
       -0.06890379 -0.57266414 -0.15083928 -0.2237784
000050 89 75 d1 3a ad 1e 92 3d 7f 76 26 bf 92 d4 53 bf
       0.0015980463 0.07134757 -0.6502456 -0.8274623
000060 9a a9 6c 3e 3c 83 f5 be dd 77 1f 3f 0b 6c 76 3e
       0.23111573 -0.47951686 0.6229227 0.24064653
000070 db 38 eb be 51 45 a2 ba 2f e3 b6 3d bb d3 06 3e
       -0.45941815 -0.0012380277 0.089300506 0.13166706
000080 c7 19 27 bf 24 c2 92 3d f7 86 a0 be a9 55 5b 3d
       -0.6527371 0.07165936 -0.3135297 0.05354849
000090 ec a5 f0 bd a7 d7 a4 bd 6b 84 67 be e2 2c 51 be
       -0.11750397 -0.08048945 -0.22609107 -0.20427278
0000a0 2e fc 9d 3d 6d d6 83 be 6a ed 62 3c 65 43 12 be
       0.07714115 -0.2574953 0.013850549 -0.14283521
0000b0 4d 8a 05 3d ac 1a 02 3f 25 f9 94 3d 65 cd 94 3d
       0.032602597 0.5082195 0.07274083 0.072657384
0000c0 3f c5 5d bd 27 9a 28 be 82 6a da bd 14 9a fc be
       -0.054143187 -0.16465054 -0.10664846 -0.49336302
0000d0 c9 5a ca bd 9d b1 0c be 0a 4d de 3d 2b 5e fd 3d
       -0.09880597 -0.13739629 0.10854538 0.12371477
0000e0 28 08 38 bd 52 09 df be 33 0a 9e bb cd 81 02 bf
       -0.044929653 -0.43561798 -0.004822993 -0.5097931
0000f0 c8 7e c4 3f 4c 96 21 bc cb 62 6a be 02 4e e5 3e
       1.535119 -0.009862494 -0.22889249 0.44786078
000100 e7 d1 bf 3d ca 9b ed 3d 49 6e 4d be f0 e1 4a 3e
       0.093662076 0.1160198 -0.20061602 0.19812751
000110 65 06 54 3c 2b 03 6f 3d ac af 7e bb 36 22 1d be
       0.012940978 0.05835263 -0.0038862033 -0.15345082
000120 ee 9c 17 be d0 45 3e bc 20 51 b3 bd 38 7b bc bd
       -0.14805958 -0.011613324 -0.08755708 -0.092031896
000130 03 5c eb 3d 78 d7 b6 bd 9a ad 35 3d 2c 0d fe bd
       0.11492159 -0.08927816 0.044355012 -0.12404856
000140 38 7e 48 3d 7d 40 16 3d 3b 05 47 bd 25 b9 0e be
       0.048948497 0.036682595 -0.048588973 -0.13937815
000150 cd 6a 8a bd 45 d6 12 bd 70 0b c2 bb 46 86 17 be
       -0.06758652 -0.035848875 -0.0059217736 -0.14797315
000160 2e d5 97 bd 29 80 56 3d 7f 25 27 3e ff 63 27 be
       -0.07413708 0.052368317 0.16322897 -0.16346739
000170 bf 2f b7 bd 55 4d ab bd d4 3f 71 bd c0 8a 51 bd
       -0.08944654 -0.08364359 -0.058898762 -0.051157713
000180 10 e6 35 be b7 b1 be 3c cc bb 70 bd be 3a 18 bd
       -0.17763543 0.0232781 -0.058772847 -0.037165396
000190 8a 6b 5b be be 71 2c 3e cc 67 7e 3e 93 6d 60 be
       -0.21427742 0.16840264 0.24844283 -0.21916799
0001a0 86 b4 21 bc 5b 90 6b bd 56 16 93 bd 80 11 bb 3c
       -0.0098697 -0.057510715 -0.071819946 0.022835493
0001b0 73 ef bd 3d 27 87 27 bb 80 85 30 be 30 09 39 be
       0.09274187 -0.0025562735 -0.17238426 -0.18069911
0001c0 04 44 46 3e 97 4d 28 be e5 aa 07 be 11 97 57 bd
       0.19361883 -0.16435848 -0.13248785 -0.052634303
0001d0 8c bc 0c bd d3 ce 6e bc ee 43 11 3e 4e 7b 9a bd
       -0.0343595 -0.014575678 0.1418607 -0.0754305
0001e0 69 07 4e be bb 7e 7c bd c8 c9 44 3e 29 49 db 3d
       -0.20120014 -0.061644297 0.19217598 0.107073136
0001f0 6e 96 16 3e 6f 7d d4 bd 4a a1 51 be 11 f6 c3 3d
       0.14705822 -0.10375487 -0.20471683 0.09568418
000200 41 bc 43 be 38 53 32 bf 70 aa b4 be d2 57 6d bf
       -0.19114782 -0.6965823 -0.35286283 -0.9271213
000210 48 57 bc bd 16 0b 18 bf 0b ea 7a 3d 27 d1 23 be
       -0.09196335 -0.59391916 0.061258357 -0.15997754
000220 47 9e 2c be 57 db 39 3f ef 0f 22 40 11 6d de be
       -0.16857253 0.7260031 2.5322225 -0.43442586
000230 5e 1d ac 3f c8 01 44 bf ea 2c e7 3d 80 d8 b7 be
       1.3446462 -0.7656522 0.112878636 -0.35907364
000240 35 c0 8b be c8 a9 41 bd cb 3a 81 3c c3 e9 e3 be
       -0.2729508 -0.047281057 0.015775105 -0.44514284
000250 5a ee d3 be 80 de b6 bd 15 ef 8b be bf c7 26 3f
       -0.41392785 -0.08929157 -0.27330843 0.6514854
000260 51 53 c2 be ee 67 24 3d cd 0c 09 3f 3f 1f 27 be
       -0.3795419 0.040138178 0.5353516 -0.16320513
000270 ae 83 2f 3c eb 35 f2 3d 90 93 30 bf 8b f4 72 3d
       0.010712547 0.1182669 -0.6897516 0.059315246
000280 c6 f6 97 be f0 a2 18 3e d4 b5 07 3e b4 7b f3 be
       -0.2968046 0.14905906 0.13252956 -0.47555315
000290 7e f8 21 3f 61 ce 4d be e7 86 a6 3e 06 c0 1d be
       0.63269794 -0.20098259 0.32524797 -0.15405282
0002a0 be 0b a4 3f 42 ff 6e 3f 76 9f 9e bd e5 71 84 bd
       1.2816083 0.9335824 -0.077452585 -0.06467036
0002b0 59 33 9a 3d 6f 74 a4 be 66 12 96 3e 22 38 65 be
       0.07529325 -0.32120082 0.29310912 -0.22384694
0002c0 02 bf d3 bd d7 db 3b 3d c1 7f 4b bf 71 0b 5b 3f
       -0.10339166 0.045863952 -0.7949181 0.85564333
0002d0 9e 73 27 3e 9d 98 0c be e3 b1 0d bd 4b 34 f8 be
       0.16352698 -0.13730092 -0.034593474 -0.48477396
0002e0 0d e7 87 bf cd 85 92 be de 93 92 bd c3 a4 62 bf
       -1.0617386 -0.28617707 -0.0715711 -0.88532656
0002f0 a7 f9 2f 3f 40 32 76 bd 22 be 57 bf bf 84 ad 3e
       0.68740314 -0.060106516 -0.84274495 0.3389034
000300 ba df d7 bc eb 36 76 3d fa 6d 52 bd 70 fe 5b 3d
       -0.026351798 0.060110968 -0.051374413 0.053709447
000310 ac 22 bd bd e6 3d 15 bd 83 3e f2 3c ba 8e d8 bd
       -0.09235129 -0.036435984 0.029570824 -0.10574098
000320 60 d5 b7 bd 70 c4 81 bd 83 d5 6d bc 61 82 49 bc
       -0.08976245 -0.063362956 -0.014516237 -0.012299151
000330 c1 ec d6 3d c2 ef b8 bd b8 5d e1 bd a5 84 1d 3c
       0.10494376 -0.09030105 -0.110042036 0.009614144
000340 71 09 d3 3c 60 7f bd bd bb 7d f4 3d b8 60 36 be
       0.025761338 -0.092528105 0.11938044 -0.17810333
000350 8d e2 0e bd ea 36 5b bd d0 b8 c8 3c 47 39 ad bd
       -0.034884024 -0.053519167 0.024502188 -0.084581904
000360 8a 31 54 be de b3 2e 3d f8 9e 35 bd ac 17 8a 3d
       -0.20722023 0.042652003 -0.044341058 0.06742796
000370 55 51 1e 3e 72 9e 91 3c 9f 3e f4 3c 24 9c fe bd
       0.15460713 0.017775748 0.029815016 -0.12432125
000380 8c 60 fa bc 4c 42 81 3e b4 34 03 3c 0a 2c 57 be
       -0.030563615 0.25245893 0.008008171 -0.21012893
000390 9f 26 53 bd ac 36 f5 bd 23 17 28 bd 58 31 34 be
       -0.051550504 -0.119733185 -0.04103769 -0.17596948
0003a0 fd 9f e3 bc b8 c6 55 3d bf 11 23 bc 83 ca 99 bd
       -0.02778625 0.052191466 -0.0099529615 -0.07509329
0003b0 22 ac 64 3b d0 50 38 bd 60 97 6d bd 65 68 90 3d
       0.0034892638 -0.044998944 -0.05800569 0.07051162
0003c0 15 ec 64 3e c0 31 3f bd 10 b0 be bd 25 93 0c be
       0.22355683 -0.046678305 -0.09310925 -0.13728006
0003d0 1c 3c 78 bd f5 ce 14 3d 6a f5 ec bc b0 8e 72 bb
       -0.0606042 0.036330182 -0.028925616 -0.0037011318
0003e0 47 21 2c bb cc cc 82 bd 5d de 6a bd f6 e2 19 be
       -0.0026264952 -0.06386718 -0.05734097 -0.15027985
0003f0 ec 3e 31 bd f7 af 53 3b 82 f5 e0 3d fe 68 a9 3d
       -0.043272898 0.0032300928 0.10984327 0.08271979

net.2.bias f4 [64]
000000 e5 54 0d be 7c d1 82 3d 2c 51 7b be d1 4f cd bd
       -0.13801916 0.06387612 -0.24542683 -0.100249894
000010 e9 be 09 3f a7 74 e5 3e 6d 0a 31 be 42 72 a9 3e
       0.5380693 0.4481556 -0.17289133 0.33094984
000020 6d f1 0b be a7 c0 30 3f 20 aa 2e 3e f9 76 ec 3e
       -0.13666315 0.69043964 0.17057085 0.4618452
000030 4e 12 00 3f 37 34 b9 3e f5 44 93 be 8d 7b 9b 3d
       0.5002793 0.3617265 -0.28763548 0.07591925
000040 fc 6b fc bd a8 f7 d7 3e 42 18 56 bb 4a 37 f1 3e
       -0.12325284 0.42181134 -0.0032668267 0.47112495
000050 8d 4a 1f 3c 6a 9b 5f bd 31 8d 04 3f fa 02 cc 3e
       0.009722364 -0.054591574 0.5177794 0.3984602
000060 f6 7a f6 3e 4f a6 30 3d 9d 59 9b 3e 76 a6 21 3e
       0.48140687 0.043127354 0.30341807 0.15786156
000070 c0 d7 34 bd 31 0f c3 3e b0 42 fe bd 1b cb 07 3f
       -0.044151068 0.38097528 -0.124150634 0.5304429
000080 b1 73 41 be 1b f7 d8 3e d8 fa ba bd 5b 05 65 bd
       -0.18891789 0.42376027 -0.09129876 -0.05591331
000090 7d 9f 04 3f 0e 1e 9c bd ea f6 d5 3e 1d 62 ff 3e
       0.5180586 -0.0762292 0.41789943 0.49879542
0000a0 ee db 99 be c7 06 d0 3e 3e 7e 93 bd 75 f0 04 be
       -0.30050606 0.4063017 -0.07201813 -0.12982352
0000b0 11 ed 07 3f e0 85 e2 3e a2 e0 ee bd 3e 8a 02 3f
       0.5309611 0.44242764 -0.11663939 0.5099219
0000c0 bd 74 86 bd 31 74 a3 bd c7 ac 1b 3f 53 c6 0c 3f
       -0.06565235 -0.07981146 0.6081051 0.5499012
0000d0 74 ff f5 bd 71 8e 99 bd 42 b0 de bd 08 72 f6 3e
       -0.120116144 -0.07497872 -0.10873462 0.48133874
0000e0 e8 be 3e bd 0e 47 11 3f 85 32 0d be 7a 36 d5 bd
       -0.04656878 0.56749046 -0.13788803 -0.10410781
0000f0 3b 42 0e 3f 97 cf 23 be de 5a e3 3e 5e 6c b2 3e
       0.5556981 -0.15997158 0.44405264 0.34848303

net.4.weight f4 [2, 64]
000000 a6 57 18 bf 69 ea d6 bd 9d f2 16 c0 aa 1b 25 3e
       -0.5950874 -0.10493929 -2.358558 0.16123834
000010 a1 5d 50 3f 96 82 87 3f f6 b3 54 c0 0f 9a 42 3f
       0.81392866 1.0586727 -3.323484 0.76016325
000020 3c 79 7f 3e db a4 83 3f 96 df 1e c0 71 29 68 3f
       0.24948591 1.0284685 -2.4823966 0.90688235
000030 41 8f e3 3e c5 5d 88 3f 1d 1f ea bf 2d fe 8c 3c
       0.44445232 1.0653616 -1.8290745 0.017211044
000040 1c dc 87 3d 23 8e 33 3f de 3d 98 3d d9 90 9b 3f
       0.066337794 0.7013876 0.07433675 1.2153579
000050 d7 4b 21 bd 4b 47 f9 bd 46 23 1b 3f 51 18 91 3f
       -0.039378967 -0.12171801 0.606007 1.1335546
000060 3f ee a6 3f 28 d6 b7 bc b3 c7 70 3f f7 0e b4 bd
       1.3041457 -0.022440985 0.94054717 -0.08791917
000070 fd 53 99 3d b7 fd 98 3f 0d b3 21 c0 af c1 72 3f
       0.074867226 1.1952428 -2.5265534 0.9482679
000080 1e 3a 6d c0 57 4f d3 3e 5d a9 9d bf 27 bb 2f c0
       -3.7066722 0.4127147 -1.231731 -2.7457979
000090 ad ad 5d 3f 11 14 58 3e 87 51 5b 3f 2b 51 43 3f
       0.86593133 0.21101405 0.85671276 0.7629573
0000a0 b5 cd 8f be 1d 30 48 3f 1e 8c a5 3e 9d ed 1b bd
       -0.2808663 0.78198415 0.32333463 -0.038068403
0000b0 1c be 01 bd 9e e7 4e 3f 78 f9 2e 3d 58 ff 49 3f
       -0.031675443 0.8082217 0.04271838 0.7890525
0000c0 f1 b2 56 bc 62 42 e5 bc 5d 95 81 3f 14 78 75 3f
       -0.013104186 -0.027985755 1.0123707 0.9588635
0000d0 ec 0f 89 bd cf 30 fc bf a8 bc ce bc 2d 3e 4d 3f
       -0.0669249 -1.9702395 -0.025236443 0.80173
0000e0 06 a7 1d 3c 7f f1 7c 3f b9 db 9e bb 5d 6e 9d bd
       0.009622341 0.98805994 -0.0048479703 -0.07687066
0000f0 67 60 32 3f 67 59 d8 ba e3 11 aa 3e 5a a9 6d 3f
       0.6967835 -0.0016506136 0.3321677 0.92836535
000100 b8 98 4e 3f 9f 0a ac 3c f9 cf ca bf a4 09 0c be
       0.8070178 0.021001158 -1.5844718 -0.13675553
000110 07 f3 78 3f 7d e1 5d 3f bc 84 72 c0 4f 27 ee 3e
       0.9724583 0.8667219 -3.7893515 0.46514365
000120 4e 25 80 be 25 bd 80 3f 97 bc 0d c0 e4 55 ca 3e
       -0.2502846 1.0057722 -2.2146356 0.39518654
000130 f3 2e 76 3f ab d2 bd 3e 37 ec 26 c0 24 2f 0c be
       0.9616539 0.3707479 -2.6081674 -0.13689858
000140 7f 25 28 3e c8 46 84 3f 06 58 a6 bd 4d c9 65 3f
       0.16420554 1.0334101 -0.08122258 0.89760286
000150 4f dc a7 3c 85 46 12 be 0b 8b 86 3f 7a f2 9a 3f
       0.020490794 -0.14284714 1.0511183 1.2105248
000160 f2 75 01 3f dd 68 15 be 58 85 37 3f 74 91 ff 3b
       0.50570595 -0.14590783 0.7168784 0.007799322
000170 56 9f 91 bb ad a3 06 3f fc 34 15 c0 16 e0 b4 3f
       -0.004444043 0.525935 -2.331359 1.4130886
000180 e9 7b 8a c0 ab be 75 3f 3e bf 9d bf a8 09 be bf
       -4.3276258 0.9599406 -1.2323987 -1.4846697
000190 2d 22 69 3f 23 42 76 3d 84 e5 58 3f 29 5e 0f 3f
       0.91067773 0.060121667 0.84725213 0.5600305
0001a0 b8 98 35 c0 ed f8 1a 3f 61 aa 53 be cf aa a9 3d
       -2.8374462 0.6053608 -0.20670463 0.08284532
0001b0 64 90 90 3f a9 47 5b 3e 1b ef cf 3c 23 d6 46 3f
       1.1294065 0.21414055 0.025382569 0.77670497
0001c0 4c e0 05 bc a4 ff 04 3d a5 aa 7d 3f 9b b6 a0 3f
       -0.008171152 0.03247036 0.9908851 1.2555727
0001d0 c5 7a 1b be 18 00 28 c0 de 84 a1 3d 79 a4 38 3f
       -0.15183552 -2.6250057 0.078866705 0.72125965
0001e0 07 39 27 3d 6d 5a 69 3e 40 0f 4b 3d bd 41 82 3b
       0.04082587 0.22788401 0.04957509 0.003975122
0001f0 b8 88 55 3f fb 58 f1 3d 02 db 82 3f 8f 1a 14 3f
       0.8341174 0.1178455 1.0223086 0.57853025

net.4.bias f4 [2]
000000 90 ca d2 3e e1 b9 56 3e
       0.41170168 0.20969345

exp_avg f4 [64, 4]
000000 a5 f7 fc bb cd bc be bc 85 9e 10 3b 7c 3f a0 3d
       -0.007719951 -0.023283387 0.0022067141 0.07824609
000010 61 5d d3 3a d0 ed 56 bc 83 fd a2 39 d4 e5 42 3d
       0.0016125852 -0.013118222 0.0003108793 0.047582462
000020 04 00 00 80 04 00 00 80 04 00 00 80 04 00 00 00
       -6e-45 -6e-45 -6e-45 6e-45
000030 67 d3 2b 3d 3a 7d 9c 3c cd 38 d7 3a 34 af dd b7
       0.041949656 0.019102681 0.0016420126 -2.6426838e-05
000040 04 00 00 80 04 00 00 80 04 00 00 80 04 00 00 00
       -6e-45 -6e-45 -6e-45 6e-45
000050 04 27 7e 3c 57 a9 69 3c 4e 05 b7 3a 9f af 1a 3c
       0.015512232 0.014261565 0.0013963373 0.009441285
000060 04 00 00 00 04 00 00 00 04 00 00 00 04 00 00 00
       6e-45 6e-45 6e-45 6e-45
000070 1e c5 96 bc 47 c2 30 bd a8 0a 31 3b de e6 f5 3d
       -0.01840454 -0.043154027 0.0027014408 0.12006925
000080 9e 54 13 bc 38 ad 91 bc a7 54 f4 3a ba 2a 81 3d
       -0.008992342 -0.017782792 0.0018640951 0.063069776
000090 44 4d e0 bc 72 26 5e bc 51 41 dd ba 42 5f 84 ba
       -0.027380593 -0.013558971 -0.0016880428 -0.001009919
0000a0 16 79 e4 be 69 bd 53 3e a7 8a 06 3d f3 38 04 bf
       -0.4462363 0.20677723 0.032847073 -0.516494
0000b0 63 cd 26 bb 63 18 17 bb a1 9b 3d b9 ab 73 de 3a
       -0.002545201 -0.0023055307 -0.00018082421 0.0016971728
0000c0 d1 be e3 3f fa a5 37 3f 23 89 0f 3d 23 45 01 be
       1.7792608 0.71737635 0.035042893 -0.1262403
0000d0 02 35 aa bb 42 93 90 bb 24 6e ce b9 c5 0d 60 b9
       -0.0051943073 -0.0044120857 -0.00039373443 -0.00021367434
0000e0 04 00 00 00 04 00 00 00 04 00 00 00 04 00 00 00
       6e-45 6e-45 6e-45 6e-45
0000f0 eb e3 c7 3b 1c c4 34 bc 34 e4 72 ba b9 c9 00 3d
       0.006100168 -0.011033084 -0.00092655723 0.031442378
000100 38 2d 46 3b 31 7f 85 3b 93 77 11 38 a4 27 61 bb
       0.0030239355 0.0040740003 3.4682056e-05 -0.0034355903
000110 a4 42 a1 bd 0f c1 b3 bd 84 c0 b6 bb d0 75 60 3c
       -0.07874039 -0.087770574 -0.005577149 0.013699964
000120 04 00 00 80 04 00 00 80 04 00 00 80 04 00 00 00
       -6e-45 -6e-45 -6e-45 6e-45
000130 28 9f f4 3c 4b 5f 24 3d ce c4 11 3b a8 cb 31 bd
       0.029861048 0.04012994 0.002224255 -0.043407112
000140 04 00 00 00 04 00 00 00 04 00 00 00 04 00 00 80
       6e-45 6e-45 6e-45 -6e-45
000150 42 ff 0d bf 7a 3e 1e bf 2b 6b 26 bd 38 48 d0 3d
       -0.5546762 -0.6181408 -0.040629547 0.10170025
000160 2d 5b 5c 3d 90 44 af 3c 1d 5b 06 bb 39 92 37 3a
       0.05379789 0.021394998 -0.0020501085 0.0007002685
000170 45 e8 8d bd 5d 6d ce bd b3 41 6e bb 15 ab 38 3d
       -0.069290675 -0.10079453 -0.0036355078 0.04508503
000180 9e 2b 37 3d c2 20 8f bc 1c ae b1 ba 90 16 7c 3d
       0.04471933 -0.017471675 -0.0013555917 0.061544955
000190 81 de 0c 3b 53 62 90 3a a8 a7 10 39 5a f1 4a b8
       0.0021494927 0.0011015631 0.00013795367 -4.838533e-05
0001a0 b9 ce 6b be 24 c6 7e be 7a ec 74 bc 2c 41 19 3d
       -0.23028077 -0.24880272 -0.0149489585 0.03741567
0001b0 61 7f f6 bd c9 0f 0c be 02 b3 10 bc b7 e9 c6 3c
       -0.12036014 -0.13677897 -0.008831741 0.024281366
0001c0 fc a6 36 bc 33 1e 63 bc cb a3 00 ba e8 34 8c 3b
       -0.011148211 -0.0138621805 -0.00049072196 0.004278768
0001d0 35 32 ed bc b4 74 03 3c 17 86 55 3b 1c 5e ba bc
       -0.028954605 0.00802343 0.0032581144 -0.022749953
0001e0 e6 b0 40 bd 52 00 04 bd bd 16 bd ba d2 82 23 3d
       -0.047043703 -0.032226868 -0.0014426332 0.03991968
0001f0 04 00 00 80 04 00 00 80 04 00 00 80 04 00 00 00
       -6e-45 -6e-45 -6e-45 6e-45
000200 5e e1 33 bd 07 40 8e bc d1 f9 55 3b 43 28 4e 3d
       -0.0439161 -0.017364515 0.0032650123 0.050331365
000210 00 00 00 00 00 00 00 00 00 00 00 00 00 00 00 00
       0.0 0.0 0.0 0.0
000220 b8 d6 08 3e 40 ee 73 3d f6 0b 8f 3b ae 4d f8 bb
       0.13363159 0.059553385 0.0043654395 -0.0075776195
000230 7d f1 88 bc 8b 65 fd bc f8 96 0d 3b 53 77 c7 3d
       -0.016716713 -0.030932209 0.0021604877 0.09739556
000240 c2 8e 4b 38 31 eb 18 3c 6f 33 b5 3a 4f 0d d5 bc
       4.8531925e-05 0.009333418 0.0013824533 -0.026007323
000250 c5 da 83 3d 9d 5e 30 3b cc 36 88 ba 0b 97 25 3d
       0.06438211 0.0026911863 -0.0010392307 0.04042725
000260 04 00 00 80 04 00 00 80 04 00 00 00 04 00 00 00
       -6e-45 -6e-45 6e-45 6e-45
000270 fd da b7 bc 3e fc 32 bd f2 c8 89 3b f4 39 11 3e
       -0.022443289 -0.04369759 0.0042048628 0.14182264
000280 04 00 00 80 04 00 00 80 04 00 00 80 04 00 00 80
       -6e-45 -6e-45 -6e-45 -6e-45
000290 04 00 00 00 04 00 00 00 04 00 00 00 04 00 00 00
       6e-45 6e-45 6e-45 6e-45
0002a0 a7 11 03 3d 2e bf 36 bc 6c e6 81 ba f3 a5 19 3d
       0.031999256 -0.011153979 -0.000991059 0.037511777
0002b0 04 00 00 00 04 00 00 00 04 00 00 00 04 00 00 80
       6e-45 6e-45 6e-45 -6e-45
0002c0 00 00 00 00 00 00 00 00 00 00 00 00 00 00 00 00
       0.0 0.0 0.0 0.0
0002d0 32 95 0f 3e 34 15 1f 3a 36 43 13 3c 37 21 f9 3d
       0.14021757 0.0006068528 0.008988192 0.12164538
0002e0 b4 e2 a6 39 4a aa 49 3b e7 da 09 ba ef 07 c0 bb
       0.00031830894 0.0030771666 -0.0005258754 -0.0058603208
0002f0 04 00 00 80 04 00 00 80 04 00 00 00 04 00 00 00
       -6e-45 -6e-45 6e-45 6e-45
000300 04 00 00 80 04 00 00 80 04 00 00 80 04 00 00 80
       -6e-45 -6e-45 -6e-45 -6e-45
000310 9d 8f b2 bc 6d d3 cf bc e9 36 15 3b b8 64 91 3d
       -0.021796996 -0.02536937 0.0022768325 0.07099289
000320 66 1d 7d bc d9 96 85 bb 18 b9 35 3a 69 2a 6f 3c
       -0.015448904 -0.0040768203 0.0006932183 0.014597514
000330 da f1 78 3d c1 79 18 3d 52 9c 2c 3b 1e 20 af bc
       0.060777523 0.03722549 0.0026338291 -0.02137762
000340 18 df da 3c 27 aa 9a 3c bb e8 ee 3a 7b 18 d9 3b
       0.026717708 0.018879963 0.0018227318 0.0066252328
000350 bb 51 01 bc 7d 1a 17 bd ae a1 60 3b d7 01 fd 3d
       -0.007893021 -0.036890496 0.0034276056 0.123538665
000360 00 00 00 00 00 00 00 00 00 00 00 00 00 00 00 00
       0.0 0.0 0.0 0.0
000370 3a 5d fe a7 63 b9 8d a4 ec 67 f3 a5 fa 34 ad a7
       -7.060024e-15 -6.146306e-17 -4.22242e-16 -4.8074583e-15
000380 58 7d 8d bc f3 be 69 bc 7b 42 77 ba 41 e5 9b ba
       -0.017271683 -0.014266717 -0.00094322086 -0.0011893885
000390 04 00 00 80 04 00 00 80 04 00 00 00 04 00 00 00
       -6e-45 -6e-45 6e-45 6e-45
0003a0 04 00 00 00 04 00 00 00 04 00 00 00 04 00 00 80
       6e-45 6e-45 6e-45 -6e-45
0003b0 2b 7b 37 bd f3 40 a2 bc 34 cd 1c 3b 70 c0 66 3d
       -0.044795197 -0.01980636 0.0023926022 0.056335866
0003c0 04 00 00 00 04 00 00 00 04 00 00 00 04 00 00 00
       6e-45 6e-45 6e-45 6e-45
0003d0 04 00 00 00 04 00 00 00 04 00 00 80 04 00 00 80
       6e-45 6e-45 -6e-45 -6e-45
0003e0 74 35 63 bd b4 df 6c bc 72 5c ff 3a 83 db df 3c
       -0.0554709 -0.014457632 0.0019482507 0.027326351
0003f0 04 00 00 80 04 00 00 80 04 00 00 00 04 00 00 00
       -6e-45 -6e-45 6e-45 6e-45
