CartPole/Experiment_1/23-09-26_22-10-39-937242_DQN/checkpoints/agent_194000.pt (torch, 82603 bytes, 24 tensors)

net.0.weight f4 [64, 4]
-0.009716638 0.0641662 0.33512858 0.029966332 0.2849343 -0.1129154 1.200571 0.10843651
-0.04415698 0.025080735 2.6948388 0.189613 -0.12667759 -0.65831566 -1.1149416 -0.4369574
-0.08385639 -0.020568294 0.048539206 0.0027877358 0.08798315 -0.35013148 -1.5032946 -0.3878187
-0.04945524 0.060171127 -0.5385977 0.11428123 -0.073365666 0.040277027 0.17267078 0.12321071
-0.022900227 -0.03055804 0.30614948 -0.113876045 -0.37199372 0.1602647 0.39801732 -0.0055576707
-0.28114176 0.037897673 -0.9829597 -0.18494406 -0.060880292 -0.13665652 -2.254153 -0.28990746
-0.36860293 -0.24727648 -0.12812912 -0.16241103 0.24499801 0.07898393 1.6169313 0.5231161
0.02682325 -0.008666424 -0.18595499 -0.021548524 0.34211805 0.073252104 2.0999107 0.4934987
0.18782929 0.5022641 -0.32197204 0.34650317 0.20029782 -0.07632817 -0.15478416 0.09882981
0.03288725 -0.040782947 -0.06401718 -0.029155394 -0.19944893 -0.26833957 -2.023799 -0.2878749
0.00798892 0.051774334 -0.5831955 0.022099908 0.47159767 0.24852778 0.6111604 0.18123034
0.062400494 -0.4463701 -0.435484 0.20154561 0.3799135 -0.17709194 -0.8880743 -0.26
0.02389153 0.075977504 2.282572 -0.039023843 -0.05440898 -0.85262537 0.15846542 -0.4877775
0.25688773 0.28528368 1.5172995 0.24495474 0.64269984 0.5007434 1.5217712 0.3574479
0.45875964 -0.26151225 1.9234009 0.09581617 -0.095314406 -0.12921724 -0.6799512 -0.46758023
0.042880967 0.40525785 1.2397504 0.27915782 -0.028540602 -0.020619098 0.029088806 -0.07080355
0.01040758 0.07509954 -1.4407629 -0.19441225 -0.03519232 0.024999121 -0.05038932 0.018373393
-0.033394087 0.22935632 1.4444034 0.40113568 0.14634998 -0.05545457 0.04161563 0.040570553
0.002894821 -0.10763729 -2.8002725 -0.4348975 0.25511086 -0.18270412 1.1629053 -0.040069383
-0.0485909 0.06550647 -0.20835306 0.16058707 0.15384994 -0.07478276 0.09680333 0.047360245
-0.14176744 -0.047538225 -0.19337428 -0.0582252 0.5894675 0.42927903 -0.6927282 0.2193198
0.17866115 0.09878761 2.4547143 0.49031645 -0.10239726 0.14485456 0.22160254 0.15452284
0.041922227 -0.027451498 -0.081361 -0.011531797 -0.12620328 0.35438952 2.0993376 0.08094382
-0.062239394 -0.16794683 -2.380159 -0.45743272 0.46201664 -0.0909274 -1.4857825 -0.22701178
-0.010744704 0.04419655 -0.0015444825 0.038893793 -0.11367401 0.09779817 -0.37702855 0.09558056
-0.6791295 0.12994707 -1.909638 -0.15644267 -0.33296207 -0.31186935 0.16257323 -0.13194689
-0.09010794 0.26478064 1.3820869 0.20153293 -0.025034387 -0.05069935 0.5193868 0.13028662
0.037022855 0.015474828 -0.05165679 0.018036043 -0.15101385 0.1309555 0.22688754 -0.21151336
0.16544767 -0.4988462 -0.95952064 -0.1479854 0.06911839 -0.08581423 -0.46286747 0.015414832
0.0026721687 0.05058205 -0.104069375 0.077565566 0.021019211 0.015437145 -1.1059743 -0.33744538
0.11726465 -0.012468705 1.0229456 0.018535942 -0.024131887 0.01595536 -0.056990918 -0.02924141
0.14413428 -0.14853379 -1.9483316 -0.104613364 0.114156306 -0.12365808 0.3665872 -0.05422349
00000000: 8932 1fbc 9269 833d f995 ab3e f47b f53c
00000010: e9e2 913e 3040 e7bd 4fac 993f f613 de3d
00000020: f3dd 34bd 1d76 cd3c 3d78 2c40 e929 423e
00000030: c5b7 01be 6087 28bf 68b6 8ebf e1b8 dfbe
00000040: e6bc abbd d77e a8bc 0cd1 463d 72b2 363b
00000050: 8230 b43d 6f44 b3be f56b c0bf 2c90 c6be
00000060: 9491 4abd 0076 763d 8ae1 09bf 470c ea3d
00000070: bd40 96bd 86f9 243d 9cd0 303e e655 fc3d
00000080: 4299 bbbc db54 fabc a0bf 9c3e d837 e9bd
00000090: f675 bebe 6e1c 243e edc8 cb3e 1f1d b6bb
000000a0: d0f1 8fbe 973a 1b3d 3fa3 7bbf fa61 3dbe
000000b0: 9d5d 79bd b0ef 0bbe 0b44 10c0 c06e 94be
000000c0: 86b9 bcbe 0c36 7dbe 4834 03be 144f 26be
000000d0: c2e0 7a3e 54c2 a13d 9bf7 ce3f f0ea 053f
000000e0: 6fbc db3c 9efd 0dbc fc6a 3ebe 8886 b0bc
000000f0: 192a af3e 3305 963d f064 0640 ddab fc3e
00000100: 5256 403e 6194 003f 85d9 a4be dd68 b13e
00000110: df1a 4d3e f251 9cbd bd7f 1ebe 4967 ca3d
00000120: c8b4 063d 050c 27bd 701b 83bd 4bd7 eebc
00000130: 573c 4cbe ce63 89be ec85 01c0 5764 93be
00000140: f6e3 023c 5311 543d 4d4c 15bf de0a b53c
00000150: 4075 f13e 117e 7e3e 0275 1c3f 7294 393e
00000160: a997 7f3d 9f8a e4be c2f7 debe f961 4e3e
00000170: 0684 c23e 9757 35be d658 63bf b81e 85be
00000180: 2cb8 c33c 189a 9b3d a915 1240 77d7 1fbd
00000190: f3db 5ebd a845 5abf c244 223e f9bd f9be
000001a0: ca86 833e b410 923e df36 c23f 6ad5 7a3e
000001b0: fa87 243f b830 003f 66c9 c23f 6903 b73e
000001c0: 8be2 ea3e efe4 85be 0032 f63f 453b c43d
000001d0: 3334 c3bd 8651 04be 4811 2ebf ad66 efbe
000001e0: f4a3 2f3d f57d cf3e 24b0 9e3f c6ed 8e3e
000001f0: fbcd e9bc 62e9 a8bc a64b ee3c 7401 91bd
00000200: 8e84 2a3c cacd 993d eb6a b8bf 0114 47be
00000210: d225 10bd f5ca cc3c 0865 4ebd cc83 963c
00000220: 3dc8 08bd 62dc 6a3e 36e2 b83f a861 cd3e
00000230: c5dc 153e 5524 63bd 2775 2a3d 4f2d 263d
00000240: 0ab7 3d3b f170 dcbd aa37 33c0 e3aa debe
00000250: e49d 823e ca16 3bbe 15da 943f cb1f 24bd
00000260: 4007 47bd 4228 863d 815a 55be f070 243e
00000270: d78a 1d3e b427 99bd d340 c63d d1fc 413d
00000280: 7c2b 11be 71b7 42bd e803 46be 8c7d 6ebd
00000290: 58e7 163f 76ca db3e a356 31bf 5f95 603e
000002a0: f3f2 363e 2951 ca3d 0a1a 1d40 c20a fb3e
000002b0: a8b5 d1bd c154 143e c7eb 623e 3c3b 1e3e
000002c0: a4b6 2b3d f7e1 e0bc 99a0 a6bd ddef 3cbc
000002d0: 6f3b 01be 8b72 b53e 8c5b 0640 e0c5 a53d
000002e0: bcee 7ebd 41fa 2bbe 8654 18c0 9f34 eabe
000002f0: 728d ec3e 2538 babd 1f2e bebf c775 68be
00000300: 8e0a 30bc 7107 353d 3c70 caba 194f 1f3d
00000310: ebcd e8bd 684a c83d e309 c1be bebf c33d
00000320: 6edb 2dbf d810 053e 056f f4bf 8232 20be
00000330: 017a aabe 57ad 9fbe 9979 263e 161d 07be
00000340: 838a b8bd 5491 873e 39e8 b03f a65e 4e3e
00000350: ea14 cdbc 1faa 4fbd 89f6 043f db69 053e
00000360: 47a5 173d 228a 7d3c 1296 53bd 53c0 933c
00000370: 60a3 1abe 3319 063e 3555 683e f596 58be
00000380: 1d6b 293e c568 ffbe 25a3 75bf 7c89 17be
00000390: f18d 8d3d 5fbf afbd f7fc ecbe 7e8e 7c3c
000003a0: 8d1f 2f3b 202f 4f3d 5322 d5bd b2da 9e3d
000003b0: 7b30 ac3c 14ec 7c3c 9190 8dbf a4c5 acbe
000003c0: 7328 f03d 8a49 4cbc e2ef 823f b0d8 973c
000003d0: 3cb0 c5bc d1b4 823c 4f6f 69bd ae8b efbc
000003e0: f097 133e 3e19 18be ee62 f9bf 883f d6bd
000003f0: c8ca e93d 7340 fdbd 51b1 bb3e 7319 5ebd

net.0.bias f4 [64]
0.46068618 0.07263215 -0.5842652 -0.2570482 -0.29673266 0.522974 -0.19996728 0.6144114
0.26209253 -0.4586852 -0.3993463 -0.6566634 -0.45487505 0.209258 -0.14654225 0.27087462
-0.2907813 -0.5360456 -0.17228873 -0.3911072 -0.45058304 -0.8011522 0.0633329 -0.84093773
0.40224183 -0.65878564 -0.5381965 -0.49658763 -0.06748316 -0.66793084 0.017505782 -0.2623621
0.5704622 -0.16845371 -0.5292534 0.53902966 0.26043895 0.47333914 -0.2995464 0.74127257
-0.55760485 -0.319784 0.50192016 -0.50233346 -0.15146525 0.46742842 -0.75683695 -0.76923084
-0.12357267 0.37357122 0.5726963 -0.3264897 -0.53077275 0.59408385 -0.28821346 -0.54695076
-0.2915272 -0.43010047 -0.171968 0.5369383 -0.5220763 -0.1879339 0.55906975 -0.41096365
00000000: 0fdf eb3e 2ac0 943d 6792 15bf d29b 83be
00000010: 58ed 97be a0e1 053f 39c4 4cbe 114a 1d3f
00000020: fe30 863e c9d8 eabe 1e77 ccbe 181b 28bf
00000030: 62e5 e8be bb47 563e 2c0f 16be 14b0 8a3e
00000040: 49e1 94be 493a 09bf 756c 30be 343f c8be
00000050: d2b2 e6be 5018 4dbf aeb4 813d b247 57bf
00000060: a4f2 cd3e 2da6 28bf 3fc7 09bf bc40 febe
00000070: 9c34 8abd 84fd 2abf 4968 8f3c 5354 86be
00000080: d009 123f 217f 2cbe 277d 07bf d9fd 093f
00000090: 4158 853e 8259 f23e 255e 99be 0ac4 3d3f
000000a0: 31bf 0ebf baba a3be d77d 003f ed98 00bf
000000b0: b519 1bbe c752 ef3e 11c0 41bf 50ec 44bf
000000c0: ab13 fdbd ba44 bf3e 3a9c 123f a829 a7be
000000d0: b9e0 07bf e115 183f b790 93be f704 0cbf
000000e0: 0e43 95be 2136 dcbe 6118 30be ca74 093f
000000f0: cba6 05bf bf71 40be 321f 0f3f d469 d2be

net.2.weight f4 [64, 64]
-0.18774211 -0.17229062 0.4175053 0.12041561 0.025860975 -0.1586354 -0.49164233 -0.27799696
-0.104638375 0.041631352 -0.045645013 -0.256905 -0.28458762 -0.05892125 -0.16932398 -0.10374381
-0.068905205 -0.572667 -0.15083928 -0.22377665 0.0015980221 0.07134684 -0.6502472 -0.8274642
0.23111497 -0.47951734 0.6229145 0.2406443 -0.4594195 -0.0012380277 0.089299016 0.13166706
-0.6527404 0.07165936 -0.31353188 0.05354787 -0.11750436 -0.08049068 -0.22609107 -0.20427346
0.0771422 -0.25749597 0.013850371 -0.14283413 0.032602597 0.5082071 0.07274054 0.07265685
-0.054143187 -0.16465238 -0.10664909 -0.493366 -0.09880707 -0.13739906 0.108545355 0.123713195
-0.044930216 -0.4356222 -0.004822993 -0.5097989 1.5351144 -0.009862494 -0.22889304 0.4478578
0.09366082 0.11601875 -0.20061609 0.19812562 0.012940978 0.058353093 -0.003886217 -0.15345143
-0.14806084 -0.011613441 -0.08755711 -0.09203189 0.11492277 -0.08927897 0.044355012 -0.12404926
0.048947744 0.036682203 -0.048588973 -0.13937981 -0.06758729 -0.03584855 -0.0059217573 -0.14797428
-0.07413755 0.0523679 0.16322944 -0.16346876 -0.08944527 -0.08364359 -0.05889894 -0.051157713
-0.17763756 0.0232781 -0.058773264 -0.0371661 -0.21427932 0.16839968 0.24844272 -0.21916829
-0.009869558 -0.057510775 -0.0718202 0.022835836 0.09274187 -0.0025562812 -0.17238577 -0.18070182
0.19361883 -0.16435985 -0.13248888 -0.052633677 -0.034358826 -0.014575675 0.14186065 -0.07543046
-0.20120208 -0.06164392 0.19217385 0.10707294 0.14705963 -0.10375487 -0.20471767 0.095685154
-0.22291552 -0.69658846 -0.3528636 -0.95887697 -0.09196377 -0.62569064 0.06125778 -0.19174579
-0.20033835 0.6942314 2.500472 -0.43442154 1.3128568 -0.76564986 0.11287838 -0.3590749
-0.27295488 -0.04728055 0.015775105 -0.4769118 -0.4139307 -0.08929198 -0.3050783 0.65148807
-0.41130957 0.0083718635 0.53535783 -0.16320513 0.010712436 0.11826578 -0.6897622 0.059315152
-0.29680598 0.14905906 0.13252677 -0.5073194 0.6009305 -0.23274927 0.32524985 -0.18581936
1.2815872 0.9335711 -0.109219 -0.06467134 0.07529325 -0.35296875 0.29311278 -0.2238455
-0.10339166 0.014097444 -0.8266932 0.82387346 0.16352463 -0.1690688 -0.034593474 -0.48476937
-1.0617425 -0.2861718 -0.071572475 -0.91709673 0.6874082 -0.060106516 -0.8745099 0.33890635
-0.026352093 0.060110178 -0.05137488 0.053709447 -0.09235129 -0.03643665 0.0295707 -0.10574179
-0.08976323 -0.063362956 -0.014516237 -0.0122992275 0.10494279 -0.09030105 -0.110042036 0.009613962
0.02576116 -0.09252936 0.11938044 -0.17810327 -0.0348841 -0.053519167 0.024502046 -0.084581904
-0.2072215 0.042651437 -0.044341054 0.06742796 0.15460575 0.017775748 0.029815016 -0.12432118
-0.03056374 0.25245893 0.008007982 -0.21012884 -0.051550504 -0.11973347 -0.04103769 -0.17597046
-0.02778625 0.052191466 -0.009953035 -0.07509329 0.0034892638 -0.044998974 -0.05800569 0.07051115
0.22355683 -0.04667857 -0.09311021 -0.1372804 -0.06060417 0.036329653 -0.028925616 -0.0037011318
-0.0026265222 -0.06386637 -0.05734097 -0.15027995 -0.043272898 0.0032300928 0.10984304 0.08271979
00000000: 783f 40be f46c 30be 41c3 d53e 769c f63d
00000010: 65da d33c 5171 22be 8bb8 fbbe 9e55 8ebe
00000020: a54c d6bd a385 2a3d 44f6 3abd 0d89 83be
00000030: 78b5 91be 6957 71bd 4463 2dbe a277 d4bd
00000040: 2c1e 8dbd 4e9a 12bf 9d75 1abe b525 65be
00000050: b974 d13a 4b1e 923d 9a76 26bf b2d4 53bf
00000060: 67a9 6c3e 4c83 f5be 5377 1f3f 766b 763e
00000070: 0839 ebbe 5145 a2ba 67e2 b63d bbd3 063e
00000080: ff19 27bf 24c2 923d 4087 a0be 0355 5b3d
00000090: 20a6 f0bd 4cd8 a4bd 6b84 67be 102d 51be
000000a0: bbfc 9d3d 83d6 83be abec 623c 1c43 12be
000000b0: 4d8a 053d dc19 023f fef8 943d 1dcd 943d
000000c0: 3fc5 5dbd a29a 28be d76a dabd 789a fcbe
000000d0: 5c5b cabd 57b2 0cbe 074d de3d 585d fd3d
000000e0: bf08 38bd df09 dfbe 330a 9ebb 2e82 02bf
000000f0: a17e c43f 4c96 21bc f062 6abe 9e4d e53e
00000100: 3ed1 bf3d 3d9b ed3d 4e6e 4dbe 71e1 4a3e
00000110: 6506 543c a703 6f3d e7af 7ebb 5f22 1dbe
00000120: 439d 17be 4d46 3ebc 2451 b3bd 377b bcbd
00000130: a15c eb3d e5d7 b6bd 9aad 353d 8a0d febd
00000140: 6e7d 483d 1440 163d 3b05 47bd 95b9 0ebe
00000150: 356b 8abd eed5 12bd 4d0b c2bb 9286 17be
00000160: 6ed5 97bd b97f 563d 9e25 273e 5b64 27be
00000170: 152f b7bd 554d abbd 0440 71bd c08a 51bd
00000180: 9fe6 35be b7b1 be3c 3cbc 70bd 7b3b 18bd
00000190: 0a6c 5bbe f770 2c3e c567 7e3e a76d 60be
000001a0: edb3 21bc 6b90 6bbd 7816 93bd 3812 bb3c
000001b0: 73ef bd3d 4887 27bb e585 30be e609 39be
000001c0: 0444 463e f34d 28be 2aab 07be 6996 57bd
000001d0: d7bb 0cbd d0ce 6ebc eb43 113e 497b 9abd
000001e0: eb07 4ebe 567e 7cbd 39c9 443e 0f49 db3d
000001f0: cd96 163e 6f7d d4bd 82a1 51be 94f6 c33d
00000200: f743 64be 9f53 32bf 8aaa b4be f678 75bf
00000210: 8057 bcbd 432d 20bf 70e9 7a3d 0259 44be
00000220: 7f25 4dbe 26b9 313f bc07 2040 806c debe
00000230: b10b a83f a101 44bf c82c e73d aad8 b7be
00000240: bec0 8bbe 40a9 41bd cb3a 813c c92d f4be
00000250: baee d3be b7de b6bd 3933 9cbe ecc7 263f
00000260: 2b97 d2be 242a 093c 360d 093f 3f1f 27be
00000270: 3783 2f3c 5435 f23d 4194 30bf 72f4 723d
00000280: f4f6 97be f0a2 183e 19b5 073e afdf 01bf
00000290: 95d6 193f d355 6ebe 2687 a63e 6e47 3ebe
000002a0: 0d0b a43f 84fe 6e3f 36ae dfbd 6872 84bd
000002b0: 5933 9a3d 52b8 b4be e112 963e c137 65be
000002c0: 02bf d3bd f7f8 663c 2aa2 53bf 5fe9 523f
000002d0: 0073 273e 5f20 2dbe e3b1 0dbd b133 f8be
000002e0: 2ee7 87bf 1c85 92be 9794 92bd dac6 6abf
000002f0: fcf9 2f3f 4032 76bd e1df 5fbf 2285 ad3e
00000300: 58e0 d7bc 1736 763d 776e 52bd 70fe 5b3d
00000310: ac22 bdbd 993e 15bd 413e f23c 278f d8bd
00000320: c9d5 b7bd 70c4 81bd 83d5 6dbc b382 49bc
00000330: 3fec d63d c2ef b8bd b85d e1bd e183 1d3c
00000340: 1109 d33c 0880 bdbd bb7d f43d b460 36be
00000350: a1e2 0ebd ea36 5bbd 84b8 c83c 4739 adbd
00000360: df31 54be 46b3 2e3d f79e 35bd ac17 8a3d
00000370: f850 1e3e 729e 913c 9f3e f43c 1a9c febd
00000380: cf60 fabc 4c42 813e e933 033c 042c 57be
00000390: 9f26 53bd d236 f5bd 2317 28bd 9a31 34be
000003a0: fd9f e3bc b8c6 553d 0e12 23bc 83ca 99bd
000003b0: 22ac 643b d850 38bd 6097 6dbd 2668 903d
000003c0: 15ec 643e 0732 3fbd 91b0 bebd 3c93 0cbe
000003d0: 143c 78bd 67ce 143d 6af5 ecbc b08e 72bb
000003e0: bb21 2cbb 5fcc 82bd 5dde 6abd fde2 19be
000003f0: ec3e 31bd f7af 533b 63f5 e03d fe68 a93d

net.2.bias f4 [64]
-0.13802075 0.06387478 -0.27719516 -0.10025094 0.7031313 0.77086216 -0.2141899 0.7093922
-0.13666475 0.8545377 0.10293479 0.70604306 0.6966198 0.71220624 -0.388239 0.04415328
-0.15495951 0.6916114 -0.0032668354 0.76524466 -0.02202468 -0.05459223 0.63256353 0.67889535
0.87625366 0.04312714 0.55184025 0.15786001 -0.04415113 0.60349953 -0.11929845 0.6355298
-0.22809295 0.63198555 -0.10208375 -0.0963069 0.6870705 -0.078612775 0.71911037 0.79349107
-0.30050722 0.6020234 -0.07201812 -0.31881782 0.8863752 0.81177616 -0.14837283 0.76784194
-0.06565319 0.30117998 0.86193097 0.73603916 -0.15187807 -0.12287492 -0.10873567 0.6206533
-0.18821535 0.94941896 -0.15992376 -0.21827324 0.8408739 -0.19597247 0.88210046 0.63633436
00000000: 5055 0dbe c8d0 823d 86ec 8dbe 5d50 cdbd
00000010: 6a00 343f 3957 453f 9954 5bbe ba9a 353f
00000020: d8f1 0bbe fcc2 5a3f 7acf d23d 3dbf 343f
00000030: ad55 323f 2653 363f 43c7 c6be 12da 343d
00000040: b5ad 1ebe 720d 313f 6718 56bb 13e7 433f
00000050: 1a6d b4bc 1a9c 5fbd afef 213f 16cc 2d3f
00000060: 2952 603f 15a6 303d 6745 0d3f 0ea6 213e
00000070: d1d7 34bd f27e 1a3f bf52 f4bd 15b2 223f
00000080: 3391 69be cec9 213f 4911 d1bd 8d3c c5bd
00000090: dae3 2f3f bcff a0bd 9e17 383f 3b22 4b3f
000000a0: 15dc 99be 351e 1a3f 3c7e 93bd 173c a3be
000000b0: 7ce9 623f 90d0 4f3f 0cef 17be 4a91 443f
000000c0: 2e75 86bd 4334 9a3e 82a7 5c3f 106d 3c3f
000000d0: ed85 1bbe d9a5 fbbd cfb0 debd 22e3 1e3f
000000e0: 86bb 40be 1f0d 733f 0ec3 23be 0583 5fbe
000000f0: 8343 573f 02ad 48be 56d1 613f cfe6 223f

net.4.weight f4 [2, 64]
-0.59509045 -0.10493792 -2.35854 0.16123834 1.4482753 1.8141333 -3.1760995 1.0315207
0.24948765 1.6545964 -4.7442775 1.4494201 0.98273736 1.3003193 -2.3277266 0.017211234
0.048309613 1.4042943 0.07433747 1.4342347 -0.039378945 -0.121716924 1.5130236 1.4880483
1.6590506 -0.022441203 1.8835628 -0.08791899 0.074865706 1.2962412 -7.607826 1.6714067
-4.9510016 1.2015626 -2.0897512 -2.4057047 1.2007606 0.973084 1.845432 1.2640278
-0.28086624 1.0074399 0.32333392 -0.12554954 0.30120376 1.0907915 0.01099979 1.2035486
-0.01310399 0.7436904 1.0905386 1.3541924 -0.06692429 -5.6580505 -0.025236353 1.3535846
-0.33723322 1.2873833 -0.04387315 -0.9114068 0.68500835 0.03573293 0.97111166 1.2183006
0.8070111 0.021001467 -1.5527132 -0.1367548 1.6116594 1.9209318 -4.2781763 1.2326347
-0.25028026 1.5511005 -3.3891315 1.380665 1.4647905 1.121056 -3.3988662 -0.10514343
0.16420554 0.98209053 -0.081221916 1.707783 -0.011149479 -0.14284658 1.964633 1.775088
0.84915483 -0.1459074 0.43470368 0.0077993246 -0.0044440418 1.488631 -3.3918283 1.7532587
-5.9053106 1.1892273 -2.6803315 -2.0505636 1.952288 0.2152264 0.6129942 1.0939965
-2.8374476 1.4165179 -0.2067038 0.1796499 1.501452 0.91745365 0.025382569 1.2408725
-0.008171068 -0.6454527 1.9991592 2.2126637 -0.120496064 -4.7200427 0.07886565 1.3984392
0.6466916 0.8335457 0.017895347 0.44267857 1.9088198 0.09946249 1.4677597 1.5155646
00000000: d957 18bf b1e9 d6bd 52f2 16c0 aa1b 253e
00000010: 1661 b93f 8535 e83f 3745 4bc0 df08 843f
00000020: b179 7f3e d1c9 d33f 1fd1 97c0 9986 b93f
00000030: ad94 7b3f dd70 a63f 79f9 14c0 93fe 8c3c
00000040: 4de0 453d eabf b33f 3e3e 983d 0195 b73f
00000050: d14b 21bd b946 f9bd c2aa c13f 5e78 be3f
00000060: c55b d43f 9dd6 b7bc 9618 f13f df0e b4bd
00000070: 3153 993d 3beb a53f 5073 f3c0 a8f0 d53f
00000080: 9b6e 9ec0 cecc 993f 7cbe 05c0 11f7 19c0
00000090: 86b2 993f 081c 793f 1e37 ec3f aacb a13f
000000a0: b3cd 8fbe caf3 803f 068c a53e 0f90 00be
000000b0: 6137 9a3e 0e9f 8b3f 7738 343c e10d 9a3f
000000c0: 1eb2 56bc 7e62 3e3f c596 8b3f 2d56 ad3f
000000d0: 9a0f 89bd c00e b5c0 78bc cebc 4342 ad3f
000000e0: d5a9 acbe fac8 a43f 55b4 33bd f551 69bf
000000f0: b55c 2f3f b15c 123d c69a 783f 46f1 9b3f
00000100: 4898 4e3f 450b ac3c 4ebf c6bf 7309 0cbe
00000110: db4a ce3f 18e1 f53f d2e6 88c0 f9c6 9d3f
00000120: bc24 80be 768a c63f 88e7 58c0 a1b9 b03f
00000130: 417e bb3f c37e 8f3f 0687 59c0 7055 d7bd
00000140: 7f25 283e 496a 7b3f ad57 a6bd a298 da3f
00000150: 4eac 36bc 6046 12be 1879 fb3f 1536 e33f
00000160: 3662 593f c068 15be 7b91 de3e 7a91 ff3b
00000170: 539f 91bb 768b be3f b713 59c0 c86a e03f
00000180: 4ef8 bcc0 9a38 983f 8d8a 2bc0 6f3c 03c0
00000190: 93e4 f93f 4f64 5c3e 30ed 1c3f 1408 8c3f
000001a0: be98 35c0 7550 b53f 29aa 53be 25f6 373e
000001b0: 942f c03f 3ede 6a3f 1bef cf3c e9d4 9e3f
000001c0: f1df 05bc 633c 25bf 73e4 ff3f 489c 0d40
000001d0: a4c6 f6bd 970a 97c0 5084 a13d 0e00 b33f
000001e0: 958d 253f 4063 553f 4399 923c c4a6 e23e
000001f0: 3554 f43f fdb2 cb3d 8ddf bb3f 05fe c13f

net.4.bias f4 [2]
0.8841863 0.4504589
00000000: 095a 623f 8da2 e63e

net.0.weight f4 [64, 4]
-0.024074066 0.072917335 0.3451209 0.034130573 0.26022252 -0.051785383 1.2884816 0.019828444
-0.013111075 -0.009873724 2.649054 0.26294896 -0.105743885 -0.6179586 -1.1504561 -0.43936524
-0.083857104 -0.02056865 0.04853872 0.0027877537 0.10648647 -0.36253962 -1.5323043 -0.35333815
-0.049433887 0.06018738 -0.53873134 0.11431014 -0.09008341 0.05007032 0.18162309 0.121330656
-0.037817787 -0.03046558 0.32283345 -0.11051892 -0.3634162 0.03845438 0.39574632 0.06621822
-0.27882245 -0.021295322 -0.9796291 -0.11500566 -0.057092488 -0.14043254 -2.2578704 -0.29198986
-0.3569863 -0.24864414 -0.106072724 -0.16025671 0.2578742 0.10144645 1.617291 0.5096007
0.026823418 -0.008666431 -0.18595326 -0.021548405 0.32383266 0.14555469 2.1635013 0.45663252
0.19830686 0.5242147 -0.33435133 0.30774128 0.201215 -0.075575955 -0.15840617 0.09339323
0.03288727 -0.040783398 -0.06401768 -0.029155452 -0.1994555 -0.26655003 -1.9573869 -0.26773012
0.007988986 0.051774506 -0.5832022 0.022099748 0.4706483 0.24471177 0.5991392 0.18105698
0.03482056 -0.4215643 -0.40628922 0.16650993 0.3805294 -0.18036424 -0.88848704 -0.25432858
0.018693 0.08881695 2.2783694 -0.08446624 0.0010286842 -0.8312576 0.15025541 -0.42493358
0.25309852 0.2803336 1.4934435 0.24942508 0.64535886 0.49397257 1.4354734 0.35750166
0.44553992 -0.21011584 1.963917 0.10304622 -0.095322065 -0.12922333 -0.6799525 -0.4675877
0.071743 0.39767528 1.3113779 0.37924957 -0.028540779 -0.020619314 0.029088771 -0.0708022
0.01671681 0.0724299 -1.4471495 -0.16135283 -0.035191737 0.024999514 -0.050388698 0.018373707
-0.030716496 0.22935443 1.4449329 0.4078492 0.13126503 -0.04125363 0.048619043 0.033460755
-0.021443136 -0.0735251 -2.8115296 -0.44385186 0.23594457 -0.16158515 1.1795758 -0.050526537
-0.048591614 0.06550632 -0.20835271 0.16058847 0.13870455 -0.066256635 0.104790986 0.045066714
-0.14176829 -0.047538847 -0.19337702 -0.058225967 0.5945901 0.40863478 -0.74865884 0.2037958
0.12636064 0.14873813 2.492416 0.41561157 -0.10239864 0.14485581 0.22160283 0.15452072
0.04192185 -0.027451877 -0.08136116 -0.011531926 -0.11161327 0.4036822 2.0786347 -0.0051106424
-0.062242966 -0.16795091 -2.380159 -0.45743713 0.45584655 -0.09498997 -1.4415082 -0.21851966
-0.010744772 0.044196516 -0.0015444951 0.038893186 -0.11963128 0.10621224 -0.37134126 0.11181818
-0.65292054 0.10857406 -1.9092709 -0.18030302 -0.44633695 -0.30659163 0.31022006 -0.20648403
-0.09041736 0.2641338 1.3811439 0.20092371 -0.040532764 -0.039425295 0.5272085 0.1278419
0.037022855 0.015474828 -0.05165679 0.018036043 -0.15134867 0.1312064 0.22779885 -0.21152218
0.11845224 -0.47394246 -0.7654965 -0.21861061 0.06911836 -0.08581512 -0.4628633 0.015414986
0.00267213 0.05058241 -0.10406907 0.077564344 0.03120707 0.012952939 -1.1133093 -0.313524
0.117265545 -0.012468652 1.0229478 0.01853613 -0.024131896 0.01595562 -0.056990664 -0.029241506
0.19956319 -0.13814181 -2.0412233 -0.09477614 0.114157155 -0.12365963 0.36658975 -0.054223515
00000000: fa36 c5bc af55 953d b0b3 b03e 80cc 0b3d
00000010: e33b 853e e91c 54bd f7ec a43f 436f a23c
00000020: d6cf 56bc 66c5 21bc 1a8a 2940 3fa1 863e
00000030: 4090 d8bd 8932 1ebf 2542 93bf 7bf4 e0be
00000040: 46bd abbd 967f a8bc 89d0 463d bfb2 363b
00000050: 9415 da3d cb9e b9be 8c22 c4bf bde8 b4be
00000060: 307b 4abd 0b87 763d 4cea 09bf 6f1b ea3d
00000070: a77d b8bd 8916 4d3d 67fb 393e 357c f83d
00000080: d3e6 1abd f492 f9bc 6d4a a53e be57 e2bd
00000090: b011 babe 5782 1d3d 439f ca3e 6b9d 873d
000000a0: d1c1 8ebe 8773 aebc f9c8 7abf 1688 ebbd
000000b0: d0d9 69bd 8ccd 0fbe f380 10c0 b27f 95be
000000c0: e9c6 b6be 929c 7ebe a83c d9bd 561a 24be
000000d0: 1608 843e 28c3 cf3d 6403 cf3f 3175 023f
000000e0: c9bc db3c a5fd 0dbc 886a 3ebe 4886 b0bc
000000f0: 65cd a53e 4a0c 153e ce76 0a40 bdcb e93e
00000100: f410 4b3e ef32 063f 1930 abbe 4490 9d3e
00000110: 4e0b 4e3e 91c7 9abd 3a35 22be f344 bf3d
00000120: cdb4 063d 7e0c 27bd b41b 83bd 6ad7 eebc
00000130: 103e 4cbe 3f79 88be a78b fabf ec13 89be
00000140: 3ce4 023c 8111 543d bd4c 15bf 880a b53c
00000150: d0f8 f03e b995 7a3e 3061 193f 0067 393e
00000160: 01a0 0e3d 47d7 d7be 2405 d0be 9481 2a3e
00000170: c0d4 c23e 67b1 38be e373 63bf 5b37 82be
00000180: 1022 993c a9e5 b53d ced0 1140 a3fc acbd
00000190: ead4 863a 4ccd 54bf 8edc 193e e590 d9be
000001a0: 2196 813e e387 8f3e 2829 bf3f 4a69 7f3e
000001b0: 3d36 253f f9e9 fc3e 98bd b73f 750a b73e
000001c0: cf1d e43e 9b28 57be a261 fb3f e609 d33d
000001d0: 3738 c3bd 1f53 04be 5e11 2ebf a867 efbe
000001e0: feed 923d 189c cb3e 3bdb a73f 002d c23e
000001f0: 5ace e9bc d6e9 a8bc 934b ee3c be00 91bd
00000200: b1f1 883c 2156 943d 323c b9bf ad39 25be
00000210: 3625 10bd c8cb cc3c 6164 4ebd 7584 963c
00000220: 29a1 fbbc e3db 6a3e 90f3 b83f 9cd1 d03e
00000230: 576a 063e 91f9 28bd c324 473d 250e 093d
00000240: 84a9 afbc 5494 96bd 1af0 33c0 8d40 e3be
00000250: 749b 713e 9476 25be 57fc 963f eaf4 4ebd
00000260: 0008 47bd 2d28 863d 6a5a 55be 4e71 243e
00000270: 9108 0e3e 8fb1 87bd a89c d63d e097 383d
00000280: b52b 11be 18b8 42bd a004 46be 5a7e 6ebd
00000290: 0f37 183f 9438 d13e 1ba8 3fbf d9af 503e
000002a0: af64 013e cf4e 183e be83 1f40 0acb d43e
000002b0: 61b6 d1bd 1555 143e daeb 623e ae3a 1e3e
000002c0: 3fb6 2b3d c2e2 e0bc aea0 a6bd 67f0 3cbc
000002d0: 8095 e4bd 6faf ce3e 5a08 0540 2d77 a7bb
000002e0: 7bf2 7ebd 53fb 2bbe 8654 18c0 3335 eabe
000002f0: b864 e93e 1a8a c2bd 5783 b8bf 9ec3 5fbe
00000300: d70a 30bc 6807 353d a870 caba 764e 1f3d
00000310: 3f01 f5bd ce85 d93d 7120 bebe ee00 e53d
00000320: cd25 27bf 145c de3d fd62 f4bf 5ba1 38be
00000330: 4786 e4be 94f9 9cbe 2ad5 9e3e 8d70 53be
00000340: bd2c b9bd 8c3c 873e 53c9 b03f f2be 4d3e
00000350: af05 26bd 6b7c 21bd 23f7 063f fde8 023e
00000360: 47a5 173d 228a 7d3c 1296 53bd 53c0 933c
00000370: 25fb 1abe f85a 063e 1a44 693e 4599 58be
00000380: 1797 f23d 96a8 f2be 94f7 43bf 76db 5fbe
00000390: ed8d 8d3d d6bf afbd 6bfc ecbe 238f 7c3c
000003a0: e71e 2f3b 802f 4f3d 2a22 d5bd 0eda 9e3d
000003b0: f8a5 ff3c 9038 543c eb80 8ebf 3886 a0be
000003c0: eb28 f03d 5149 4cbc f4ef 823f 15d9 973c
000003d0: 41b0 c5bc 5cb5 823c 0b6f 69bd e28b efbc
000003e0: 4b5a 4c3e 0c75 0dbe 67a3 02c0 fe19 c2bd
000003f0: 3acb e93d 4341 fdbd a7b1 bb3e 7a19 5ebd

net.0.bias f4 [64]
0.45958534 0.06619089 -0.59894955 -0.27386287 -0.29672712 0.5159219 -0.19994687 0.61344004
0.2671694 -0.416956 -0.39417556 -0.6529142 -0.47750643 0.19256905 -0.14653966 0.2391965
-0.284423 -0.5346584 -0.1722889 -0.38842967 -0.45057878 -0.7984591 0.120083354 -0.8411105
0.41462523 -0.7132521 -0.5408741 -0.50390023 -0.11529775 -0.66792434 -0.03224154 -0.26235905
0.55940956 -0.16845332 -0.52583104 0.53895 0.2588492 0.4682499 -0.29954642 0.74033105
-0.557596 -0.31763977 0.5241124 -0.5023276 -0.151463 0.5166137 -0.75683075 -0.7907733
-0.12357172 0.36732516 0.5626114 -0.2808436 -0.5303395 0.59235454 -0.28821346 -0.54654324
-0.3040681 -0.4300986 -0.17196703 0.5243374 -0.52207166 -0.18793215 0.52789646 -0.41095954
00000000: c54e eb3e 178f 873d c254 19bf c137 8cbe
00000010: 9eec 97be 7513 043f dfbe 4cbe 680a 1d3f
00000020: 6dca 883e 427b d5be 61d1 c9be 6325 27bf
00000030: b97b f4be d230 453e 7e0e 16be edef 743e
00000040: e49f 91be 5fdf 08bf 806c 30be 41e0 c6be
00000050: 43b2 e6be d167 4cbf 43ee f53d 0553 57bf
00000060: c249 d43e b197 36bf ba76 0abf 9bff 00bf
00000070: 3a21 ecbd 17fd 2abf b40f 04bd ed53 86be
00000080: 7735 0f3f 077f 2cbe dd9c 06bf a1f8 093f
00000090: e287 843e 73be ef3e 265e 99be 5686 3d3f
000000a0: 9dbe 0ebf aea1 a2be 3b2c 063f 8b98 00bf
000000b0: 1e19 1bbe cc40 043f a9bf 41bf 1e70 4abf
000000c0: 2c13 fdbd 0b12 bc3e 4d07 103f bbca 8fbe
000000d0: 54c4 07bf 8ca4 173f b790 93be 42ea 0bbf
000000e0: d0ae 9bbe e235 dcbe 2018 30be fa3a 063f
000000f0: 7da6 05bf 4971 40be 3924 073f 4a69 d2be

net.2.weight f4 [64, 64]
-0.18774141 -0.1722889 0.41750413 0.12041714 0.025860975 -0.15863346 -0.49164045 -0.27799335
-0.10463829 0.041631278 -0.04564565 -0.25690523 -0.28458565 -0.058921855 -0.16932355 -0.10374273
-0.06890379 -0.57266414 -0.15083928 -0.2237784 0.0015980463 0.07134757 -0.6502456 -0.8274623
0.23111573 -0.47951686 0.6229227 0.24064653 -0.45941815 -0.0012380277 0.089300506 0.13166706
-0.6527371 0.07165936 -0.3135297 0.05354849 -0.11750397 -0.08048945 -0.22609107 -0.20427278
0.07714115 -0.2574953 0.013850549 -0.14283521 0.032602597 0.5082195 0.07274083 0.072657384
-0.054143187 -0.16465054 -0.10664846 -0.49336302 -0.09880597 -0.13739629 0.10854538 0.12371477
-0.044929653 -0.43561798 -0.004822993 -0.5097931 1.535119 -0.009862494 -0.22889249 0.44786078
0.093662076 0.1160198 -0.20061602 0.19812751 0.012940978 0.05835263 -0.0038862033 -0.15345082
-0.14805958 -0.011613324 -0.08755708 -0.092031896 0.11492159 -0.08927816 0.044355012 -0.12404856
0.048948497 0.036682595 -0.048588973 -0.13937815 -0.06758652 -0.035848875 -0.0059217736 -0.14797315
-0.07413708 0.052368317 0.16322897 -0.16346739 -0.08944654 -0.08364359 -0.058898762 -0.051157713
-0.17763543 0.0232781 -0.058772847 -0.037165396 -0.21427742 0.16840264 0.24844283 -0.21916799
-0.0098697 -0.057510715 -0.071819946 0.022835493 0.09274187 -0.0025562735 -0.17238426 -0.18069911
0.19361883 -0.16435848 -0.13248785 -0.052634303 -0.0343595 -0.014575678 0.1418607 -0.0754305
-0.20120014 -0.061644297 0.19217598 0.107073136 0.14705822 -0.10375487 -0.20471683 0.09568418
-0.22290646 -0.6965823 -0.35286283 -0.95886314 -0.09196335 -0.6256848 0.061258357 -0.19173618
-0.20032819 0.69423753 2.5005126 -0.43442586 1.312865 -0.7656522 0.112878636 -0.35907364
-0.2729508 -0.047281057 0.015775105 -0.47690618 -0.41392785 -0.08929157 -0.30507177 0.6514854
-0.4112993 0.008380954 0.5353516 -0.16320513 0.010712547 0.1182669 -0.6897516 0.059315246
-0.2968046 0.14905906 0.13252956 -0.50730985 0.6009442 -0.23274122 0.32524797 -0.18581146
1.2816083 0.9335824 -0.10921053 -0.06467036 0.07529325 -0.3529582 0.29310912 -0.22384694
-0.10339166 0.0141065465 -0.82668376 0.8238897 0.16352698 -0.16905956 -0.034593474 -0.48477396
-1.0617386 -0.28617707 -0.0715711 -0.91709214 0.68740314 -0.060106516 -0.8744986 0.3389034
-0.026351798 0.060110968 -0.051374413 0.053709447 -0.09235129 -0.036435984 0.029570824 -0.10574098
-0.08976245 -0.063362956 -0.014516237 -0.012299151 0.10494376 -0.09030105 -0.110042036 0.009614144
0.025761338 -0.092528105 0.11938044 -0.17810333 -0.034884024 -0.053519167 0.024502188 -0.084581904
-0.20722023 0.042652003 -0.044341058 0.06742796 0.15460713 0.017775748 0.029815016 -0.12432125
-0.030563615 0.25245893 0.008008171 -0.21012893 -0.051550504 -0.119733185 -0.04103769 -0.17596948
-0.02778625 0.052191466 -0.0099529615 -0.07509329 0.0034892638 -0.044998944 -0.05800569 0.07051162
0.22355683 -0.046678305 -0.09310925 -0.13728006 -0.0606042 0.036330182 -0.028925616 -0.0037011318
-0.0026264952 -0.06386718 -0.05734097 -0.15027985 -0.043272898 0.0032300928 0.10984327 0.08271979
00000000: 493f 40be 806c 30be 1ac3 d53e 439d f63d
00000010: 65da d33c cf70 22be 4cb8 fbbe 2555 8ebe
00000020: 9a4c d6bd 8f85 2a3d eff6 3abd 1589 83be
00000030: 36b5 91be 0b58 71bd 2763 2dbe 1277 d4bd
00000040: 6e1d 8dbd 1e9a 12bf 9d75 1abe 2a26 65be
00000050: 8975 d13a ad1e 923d 7f76 26bf 92d4 53bf
00000060: 9aa9 6c3e 3c83 f5be dd77 1f3f 0b6c 763e
00000070: db38 ebbe 5145 a2ba 2fe3 b63d bbd3 063e
00000080: c719 27bf 24c2 923d f786 a0be a955 5b3d
00000090: eca5 f0bd a7d7 a4bd 6b84 67be e22c 51be
000000a0: 2efc 9d3d 6dd6 83be 6aed 623c 6543 12be
000000b0: 4d8a 053d ac1a 023f 25f9 943d 65cd 943d
000000c0: 3fc5 5dbd 279a 28be 826a dabd 149a fcbe
000000d0: c95a cabd 9db1 0cbe 0a4d de3d 2b5e fd3d
000000e0: 2808 38bd 5209 dfbe 330a 9ebb cd81 02bf
000000f0: c87e c43f 4c96 21bc cb62 6abe 024e e53e
00000100: e7d1 bf3d ca9b ed3d 496e 4dbe f0e1 4a3e
00000110: 6506 543c 2b03 6f3d acaf 7ebb 3622 1dbe
00000120: ee9c 17be d045 3ebc 2051 b3bd 387b bcbd
00000130: 035c eb3d 78d7 b6bd 9aad 353d 2c0d febd
00000140: 387e 483d 7d40 163d 3b05 47bd 25b9 0ebe
00000150: cd6a 8abd 45d6 12bd 700b c2bb 4686 17be
00000160: 2ed5 97bd 2980 563d 7f25 273e ff63 27be
00000170: bf2f b7bd 554d abbd d43f 71bd c08a 51bd
00000180: 10e6 35be b7b1 be3c ccbb 70bd be3a 18bd
00000190: 8a6b 5bbe be71 2c3e cc67 7e3e 936d 60be
000001a0: 86b4 21bc 5b90 6bbd 5616 93bd 8011 bb3c
000001b0: 73ef bd3d 2787 27bb 8085 30be 3009 39be
000001c0: 0444 463e 974d 28be e5aa 07be 1197 57bd
000001d0: 8cbc 0cbd d3ce 6ebc ee43 113e 4e7b 9abd
000001e0: 6907 4ebe bb7e 7cbd c8c9 443e 2949 db3d
000001f0: 6e96 163e 6f7d d4bd 4aa1 51be 11f6 c33d
00000200: 9741 64be 3853 32bf 70aa b4be 0e78 75bf
00000210: 4857 bcbd e12c 20bf 0bea 7a3d 7d56 44be
00000220: d522 4dbe 8db9 313f 6608 2040 116d debe
00000230: f60b a83f c801 44bf ea2c e73d 80d8 b7be
00000240: 35c0 8bbe c8a9 41bd cb3a 813c 0c2d f4be
00000250: 5aee d3be 80de b6bd 5e32 9cbe bfc7 263f
00000260: d295 d2be 4550 093c cd0c 093f 3f1f 27be
00000270: ae83 2f3c eb35 f23d 9093 30bf 8bf4 723d
00000280: c6f6 97be f0a2 183e d4b5 073e 0fdf 01bf
00000290: 7bd7 193f b753 6ebe e786 a63e 5c45 3ebe
000002a0: be0b a43f 42ff 6e3f c5a9 dfbd e571 84bd
000002b0: 5933 9a3d f0b6 b4be 6612 963e 2238 65be
000002c0: 02bf d3bd 251f 673c 8ca1 53bf 6fea 523f
000002d0: 9e73 273e f31d 2dbe e3b1 0dbd 4b34 f8be
000002e0: 0de7 87bf cd85 92be de93 92bd 8dc6 6abf
000002f0: a7f9 2f3f 4032 76bd 24df 5fbf bf84 ad3e
00000300: badf d7bc eb36 763d fa6d 52bd 70fe 5b3d
00000310: ac22 bdbd e63d 15bd 833e f23c ba8e d8bd
00000320: 60d5 b7bd 70c4 81bd 83d5 6dbc 6182 49bc
00000330: c1ec d63d c2ef b8bd b85d e1bd a584 1d3c
00000340: 7109 d33c 607f bdbd bb7d f43d b860 36be
00000350: 8de2 0ebd ea36 5bbd d0b8 c83c 4739 adbd
00000360: 8a31 54be deb3 2e3d f89e 35bd ac17 8a3d
00000370: 5551 1e3e 729e 913c 9f3e f43c 249c febd
00000380: 8c60 fabc 4c42 813e b434 033c 0a2c 57be
00000390: 9f26 53bd ac36 f5bd 2317 28bd 5831 34be
000003a0: fd9f e3bc b8c6 553d bf11 23bc 83ca 99bd
000003b0: 22ac 643b d050 38bd 6097 6dbd 6568 903d
000003c0: 15ec 643e c031 3fbd 10b0 bebd 2593 0cbe
000003d0: 1c3c 78bd f5ce 143d 6af5 ecbc b08e 72bb
000003e0: 4721 2cbb cccc 82bd 5dde 6abd f6e2 19be
000003f0: ec3e 31bd f7af 533b 82f5 e03d fe68 a93d

net.2.bias f4 [64]
-0.13801916 0.06387612 -0.2771887 -0.100249894 0.69127995 0.7795948 -0.21095107 0.7084384
-0.13666315 0.8483217 0.10293707 0.70322335 0.70953715 0.70196635 -0.3842677 0.044411723
-0.15495881 0.69481623 -0.0032668267 0.7599293 -0.022024497 -0.054591574 0.63514584 0.6897856
0.87118214 0.043127354 0.53833324 0.15786156 -0.044151068 0.5972689 -0.114274874 0.6422034
-0.22648503 0.63913983 -0.04250539 -0.08954516 0.6729071 -0.08210017 0.71298665 0.7925554
-0.30050606 0.5942533 -0.07201813 -0.3187933 0.9082779 0.79126537 -0.1483725 0.75118184
-0.06565235 0.25944653 0.8402077 0.7314311 -0.15187725 -0.1227701 -0.10873462 0.61816627
-0.18779352 0.9348158 -0.1599239 -0.21827093 0.80194104 -0.19596983 0.89638233 0.61943185
00000000: e554 0dbe 7cd1 823d adeb 8dbe d14f cdbd
00000010: b9f7 303f 8693 473f 8f03 58be 385c 353f
00000020: 6df1 0bbe 9c2b 593f acd0 d23d 7206 343f
00000030: 3aa4 353f 11b4 333f bcbe c4be 11e9 353d
00000040: 86ad 1ebe 7adf 313f 4218 56bb ba8a 423f
00000050: b86c b4bc 6a9b 5fbd eb98 223f ca95 303f
00000060: cb05 5f3f 4fa6 303d 35d0 093f 76a6 213e
00000070: c0d7 34bd 9de6 183f f208 eabd 7167 243f
00000080: b1eb 67be ab9e 233f 221a 2ebd 7463 b7bd
00000090: a443 2c3f 2224 a8bd 4b86 363f e9e4 4a3f
000000a0: eedb 99be fc20 183f 3e7e 93bd e038 a3be
000000b0: e784 683f 5e90 4a3f f6ee 17be 744d 403f
000000c0: bd74 86bd 2dd6 843e da17 573f 123f 3b3f
000000d0: b685 1bbe e46e fbbd 42b0 debd 2540 1e3f
000000e0: f24c 40be 1750 6f3f 17c3 23be 6a82 5fbe
000000f0: 024c 4d3f 51ac 48be 5079 653f 1693 1e3f

net.4.weight f4 [2, 64]
-0.5950874 -0.10493929 -2.358558 0.16123834 1.4391226 1.7773653 -3.1899624 1.0471718
0.24948591 1.6404141 -4.7442956 1.4507675 0.9833591 1.3160323 -2.3115087 0.017211044
0.04830998 1.3955506 0.07433675 1.4559023 -0.039378967 -0.12171801 1.5603256 1.490024
1.6729686 -0.022440985 1.8572692 -0.08791917 0.074867226 1.3133558 -7.607685 1.7135136
-4.985953 1.1992345 -2.1122634 -2.4077194 1.2257569 0.9719126 1.8342378 1.2701182
-0.2808663 1.0261372 0.32333463 -0.12557518 0.29517543 1.0953168 0.010999954 1.2539288
-0.013104186 0.73909914 1.1179159 1.4074748 -0.0669249 -5.6580124 -0.025236443 1.3249028
-0.3374739 1.3010776 -0.04387316 -0.9114095 0.69998056 0.03573265 0.9648331 1.2479953
0.8070178 0.021001158 -1.5527382 -0.13675553 1.571985 1.9181765 -4.300238 1.2122726
-0.2502846 1.5662451 -3.389147 1.3760165 1.4679456 1.1119993 -3.376098 -0.105402164
0.16420554 0.9814224 -0.08122258 1.663912 -0.011149339 -0.14284714 1.9218591 1.7689564
0.8420414 -0.14590783 0.47674805 0.007799322 -0.004444043 1.4825947 -3.4180362 1.7087591
-5.7673297 1.2017025 -2.6939604 -2.0478947 1.9435824 0.18066421 0.61834407 1.0959611
-2.8374462 1.3696089 -0.20670463 0.17965303 1.5247267 0.9117498 0.025382569 1.1932077
-0.008171152 -0.6136493 1.9417589 2.1575663 -0.12049761 -4.720221 0.078866705 1.4276693
0.6466931 0.8213877 0.01789538 0.44268113 1.8826743 0.099463105 1.4791 1.4807047
00000000: a657 18bf 69ea d6bd 9df2 16c0 aa1b 253e
00000010: 2b35 b83f b580 e33f 5828 4cc0 ba09 863f
00000020: 3c79 7f3e 17f9 d13f 45d1 97c0 c0b2 b93f
00000030: 6cbd 7b3f bf73 a83f c2ef 13c0 2dfe 8c3c
00000040: b0e0 453d 67a1 b23f de3d 983d 025b ba3f
00000050: d74b 21bd 4b47 f9bd c0b8 c73f 1bb9 be3f
00000060: d623 d63f 28d6 b7bc ffba ed3f f70e b4bd
00000070: fd53 993d 0b1c a83f 2872 f3c0 6a54 db3f
00000080: ed8c 9fc0 8480 993f 532f 07c0 1318 1ac0
00000090: 9ae5 9c3f 44cf 783f 4ec8 ea3f 3c93 a23f
000000a0: b5cd 8fbe 7758 833f 1e8c a53e c896 00be
000000b0: 3c21 973e 5733 8c3f 2739 343c bd80 a03f
000000c0: f1b2 56bc 9a35 3d3f de17 8f3f 2228 b43f
000000d0: ec0f 89bd 700e b5c0 a8bc cebc 6a96 a93f
000000e0: 61c9 acbe b689 a63f 58b4 33bd 2252 69bf
000000f0: ed31 333f 665c 123d 4dff 763f 4fbe 9f3f
00000100: b898 4e3f 9f0a ac3c 20c0 c6bf a409 0cbe
00000110: ce36 c93f cf86 f53f 8d9b 89c0 c02b 9b3f
00000120: 4e25 80be b87a c83f c9e7 58c0 4f21 b03f
00000130: a4e5 bb3f fe55 8e3f fd11 58c0 17dd d7bd
00000140: 7f25 283e 803e 7b3f 0658 a6bd 12fb d43f
00000150: b8ab 36bc 8546 12be 7bff f53f 2a6d e23f
00000160: 0690 573f dd68 15be 5218 f43e 7491 ff3b
00000170: 569f 91bb aac5 bd3f 1bc1 5ac0 9eb8 da3f
00000180: f78d b8c0 63d1 993f d969 2cc0 b510 03c0
00000190: 4fc7 f83f 0a00 393e cc4b 1e3f 7448 8c3f
000001a0: b898 35c0 584f af3f 61aa 53be f7f6 373e
000001b0: 3f2a c33f 6f68 693f 1bef cf3c 08bb 983f
000001c0: 4ce0 05bc 1f18 1dbf 8e8b f83f 9115 0a40
000001d0: 73c7 f6bd 0d0c 97c0 de84 a13d debd b63f
000001e0: ae8d 253f 7746 523f 5599 923c 1aa7 e23e
000001f0: 79fb f03f 50b3 cb3d 2653 bd3f bb87 bd3f

net.4.bias f4 [2]
0.85589534 0.475417
00000000: f51b 5b3f db69 f33e

exp_avg f4 [64, 4]
-0.4425803 -0.3236588 0.065406814 0.06336805 0.42026067 0.38616744 -0.046286676 -0.09157888
-5.3354044 -5.6253386 0.4556905 2.5651658 -0.62528163 -0.7434936 0.061819874 0.052500326
-6e-45 -6e-45 -6e-45 6e-45 -0.031339936 -0.04806936 0.0057042157 0.00019989765
6e-45 6e-45 -6e-45 6e-45 -0.8167822 -0.6256295 0.11675725 0.099933684
-0.13632654 -0.08537766 0.022102786 0.02444369 -0.27134886 -0.23060806 0.022989029 0.07287045
-0.46391785 -0.22310582 0.040798627 -0.028412566 6e-45 -6e-45 -6e-45 -6e-45
1.7108808 7.016611 -0.014681805 -0.5673862 -0.2618953 -0.071932025 0.027973719 0.028490897
6e-45 6e-45 6e-45 6e-45 -0.3133053 -0.06372371 0.043226995 0.061380837
0.0072400523 0.0028039475 -0.0011069127 -0.0076806927 6e-45 -6e-45 -6e-45 6e-45
-6e-45 -6e-45 -6e-45 -6e-45 1.134846 1.7020718 -0.09733365 -0.35146973
6e-45 6e-45 -6e-45 -6e-45 1.4744828e-32 -1.2844393e-33 -2.9298207e-34 2.4028098e-33
-0.1714253 -0.3836282 0.0121164825 0.013238387 6e-45 6e-45 -6e-45 -6e-45
-0.45018226 -0.42867905 0.059058603 0.13999614 0.4097796 0.42257473 -0.042144097 -0.09388836
-2.31e-43 -8e-44 -1.5e-44 -6e-45 0.0061185616 -0.16672798 -0.036727812 -0.01964424
0.9047433 0.99419606 -0.09118203 -0.21313149 -6e-45 -6e-45 -6e-45 -6e-45
0.016050935 0.028666042 0.0014504532 2.9398738e-05 -6e-45 -6e-45 -6e-45 6e-45
-0.3076947 -0.18705942 0.051233426 0.03814712 6e-45 6e-45 6e-45 6e-45
6.6e-44 1.4e-44 6e-45 1.8e-44 -0.62548935 -0.52516013 0.08983123 0.07235546
0.42634988 0.13304059 -0.06815053 -0.08596272 -0.5183851 -0.3725929 0.07038849 0.12261925
-6e-45 -6e-45 6e-45 6e-45 -1.0211546 -0.8064954 0.14769319 0.12011383
-6e-45 -6e-45 -6e-45 -6e-45 0.5725597 -0.23412284 -0.11144679 -0.12651446
-0.16816819 -0.013442201 0.020602705 0.10017274 -6e-45 6e-45 6e-45 -6e-45
-6e-45 -6e-45 -6e-45 -6e-45 -0.13794115 -0.046234503 0.01885518 0.0652012
6e-45 6e-45 6e-45 6e-45 0.3309415 -0.089069344 -0.051220823 -0.070006944
-6e-45 -6e-45 -6e-45 -6e-45 -0.27756822 -0.19043277 0.042704977 0.04044213
0.2030404 0.113289475 -0.028449226 -0.02535339 0.043917216 0.120173305 -0.0004613073 -0.012135389
-6e-45 -6e-45 -6e-45 -6e-45 -0.83194375 -0.63662356 0.11940636 0.10674443
0.0 0.0 0.0 0.0 -6e-45 6e-45 6e-45 -6e-45
0.3201262 0.5779818 -0.015728407 -0.08366902 -6e-45 -6e-45 6e-45 6e-45
-6e-45 6e-45 6e-45 -6e-45 -0.33443192 -0.16238539 0.056828942 0.045418825
6e-45 6e-45 6e-45 6e-45 6e-45 6e-45 -6e-45 -6e-45
-0.175955 -0.17007074 0.026297629 0.017662631 6e-45 -6e-45 6e-45 6e-45
00000000: e399 e2be 9bb6 a5be 02f4 853d 1cc7 813d
00000010: 682c d73e bdb7 c53e 1997 3dbd b58d bbbd
00000020: a2bb aac0 c602 b4c0 4450 e93e ad2b 2440
00000030: 7512 20bf 9955 3ebf d636 7d3d 950a 573d
00000040: 0400 0080 0400 0080 0400 0080 0400 0000
00000050: 4e5e 00bd 61e4 44bd 6eea ba3b 9e9b 5139
00000060: 0400 0000 0400 0000 0400 0080 0400 0000
00000070: a318 51bf 4129 20bf 6d1e ef3d 08aa cc3d
00000080: 2f99 0bbe 7cda aebd e710 b53c 223e c83c
00000090: 3dee 8abe 8524 6cbe 7d53 bc3c 1a3d 953d
000000a0: a486 edbe da75 64be 761c 273d 78c1 e8bc
000000b0: 0400 0000 0400 0080 0400 0080 0400 0080
000000c0: 24fe da3f 1488 e040 f48b 70bc 3940 11bf
000000d0: 2417 86be 1951 93bd 2429 e53c be65 e93c
000000e0: 0400 0000 0400 0000 0400 0000 0400 0000
000000f0: 8d69 a0be 9481 82bd ca0e 313d 796a 7b3d
00000100: f63d ed3b 6fc2 373b d415 91ba 52ae fbbb
00000110: 0400 0000 0400 0080 0400 0080 0400 0000
00000120: 0400 0080 0400 0080 0400 0080 0400 0080
00000130: a242 913f 7ddd d93f dd56 c7bd d7f3 b3be
00000140: 0400 0000 0400 0000 0400 0080 0400 0080
00000150: 7a1e 990a 016a d588 51b8 c287 1d9e 4709
00000160: 1d8a 2fbe ea6a c4be 3684 463c d2e5 583c
00000170: 0400 0000 0400 0000 0400 0080 0400 0080
00000180: 4a7e e6be d27b dbbe 6fe7 713d 265b 0f3e
00000190: a2ce d13e b75b d83e 4a9f 2cbd 8a48 c0bd
000001a0: a500 0080 3900 0080 0b00 0080 0400 0080
000001b0: 377e c83b bdba 2abe e76f 16bd f5ec a0bc
000001c0: 429d 673f a283 7e3f a5bd babd 243f 5abe
000001d0: 0400 0080 0400 0080 0400 0080 0400 0080
000001e0: 407d 833c 0cd5 ea3c 221d be3a 4f9d f637
000001f0: 0400 0080 0400 0080 0400 0080 0400 0000
00000200: 298a 9dbe 818c 3fbe 24da 513d 2840 1c3d
00000210: 0400 0000 0400 0000 0400 0000 0400 0000
00000220: 2f00 0000 0a00 0000 0400 0000 0d00 0000
00000230: 1220 20bf e570 06bf 70f9 b73d 192f 943d
00000240: 884a da3e cb3b 083e 8192 8bbd 390d b0bd
00000250: e3b4 04bf 7fc4 bebe d727 903d cd1f fb3d
00000260: 0400 0080 0400 0080 0400 0000 0400 0000
00000270: 32b5 82bf 7c76 4ebf e23c 173e 3dfe f53d
00000280: 0400 0080 0400 0080 0400 0080 0400 0080
00000290: 4693 123f e6bd 6fbe 373e e4bd 028d 01be
000002a0: 4834 2cbe ad3c 5cbc 01c7 a83c 5e27 cd3d
000002b0: 0400 0080 0400 0000 0400 0000 0400 0080
000002c0: 0400 0080 0400 0080 0400 0080 0400 0080
000002d0: 7240 0dbe 6460 3dbd 2e76 9a3c 3588 853d
000002e0: 0400 0000 0400 0000 0400 0000 0400 0000
000002f0: 2a71 a93e fd69 b6bd edcc 51bd cd5f 8fbd
00000300: 0400 0080 0400 0080 0400 0080 0400 0080
00000310: 6c1d 8ebe cf00 43be 6aeb 2e3d a6a6 253d
00000320: d3e9 4f3e 5004 e83d 5a0e e9bc eab1 cfbc
00000330: 8ae2 333d 6c1d f63d 9edb f1b9 83d3 46bc
00000340: 0400 0080 0400 0080 0400 0080 0400 0080
00000350: 44fa 54bf c3f9 22bf 528b f43d d39c da3d
00000360: 0000 0000 0000 0000 0000 0000 0000 0000
00000370: 0400 0080 0400 0000 0400 0000 0400 0080
00000380: 95e7 a33e 9ef6 133f dcd8 80bc aa5a abbd
00000390: 0400 0080 0400 0080 0400 0000 0400 0000
000003a0: 0400 0080 0400 0000 0400 0000 0400 0080
000003b0: a93a abbe 5b48 26be 77c5 683d 1709 3a3d
000003c0: 0400 0000 0400 0000 0400 0000 0400 0000
000003d0: 0400 0000 0400 0000 0400 0080 0400 0080
000003e0: 8c2d 34be 0627 2ebe 206e d73c 39b1 903c
000003f0: 0400 0000 0400 0080 0400 0000 0400 0000

exp_avg_sq f4 [64, 4]
12.197322 5.9702168 0.10228387 0.255897 0.62122524 1.0224068 0.006661446 0.051977254
3237.5925 1124.5327 30.376919 56.81739 23.518225 13.00157 0.22101925 0.483943
7e-43 7e-43 7e-43 7e-43 0.39209336 0.15991811 0.0026197133 0.0066789472
1.4015968e-10 2.390928e-10 2.0476025e-14 1.1825904e-10 39.272205 20.466753 0.3447905 0.8701746
1.3897839 0.5662913 0.010891909 0.024717525 4.105152 1.6180902 0.037571725 0.063191496
427.92984 37.213367 2.82754 2.323539 0.00028043578 0.00046634366 1.0974124e-05 7.970136e-06
1005.3175 486.89804 8.549003 19.007019 2.0718074 1.080134 0.025208348 0.08884515
7e-43 7e-43 7e-43 7e-43 1.2144576 0.68170476 0.01450761 0.055111967
0.17030397 0.017425047 0.0022332326 0.0042858776 4.8358226e-05 5.406114e-06 9.801976e-08 6.164464e-07
3.8481312e-17 3.8762233e-17 1.2101107e-19 1.7972465e-18 11.077378 12.586027 0.100214645 0.37053722
7e-43 7e-43 7e-43 7e-43 23.214857 1.7491583 0.013990871 0.12575947
5.5815663 2.4781618 0.048557002 0.10074633 0.04308823 0.007294359 0.000136671 0.000705872
6.0310693 2.3567412 0.054602683 0.19163953 8.24513 8.125204 0.08841274 0.21635658
1.3224021 0.12856476 0.0015572257 0.012113415 17.126 4.3946238 0.039534114 0.2721553
1.6768049 4.2602644 0.021515436 0.14214854 6.164691e-11 2.5620556e-10 3.0910613e-12 1.3390486e-11
0.01693979 0.0100090075 7.8758734e-05 0.00094432506 7e-43 7e-43 7e-43 7e-43
5.1497536 3.0215003 0.040757425 0.11331988 7e-43 7e-43 7e-43 7e-43
0.080338664 0.010455386 0.0007815789 0.004695348 29.023474 14.456 0.25245115 0.61750203
1.2461134 1.1163583 0.01429392 0.06678153 4.508403 2.1978366 0.045895256 0.1394648
7e-43 7e-43 7e-43 7e-43 62.9202 32.63505 0.5474923 1.3693173
7e-43 7e-43 7e-43 7e-43 8.214551 1.5363418 0.0610164 0.2572522
1.7772996 0.6542511 0.021699633 0.07821773 1.7935869e-18 5.324328e-19 9.902256e-21 1.4227466e-20
7e-43 7e-43 7e-43 7e-43 1.9410598 0.24919409 0.02458313 0.124963865
2.2283233e-05 0.000106375715 2.1880785e-06 6.555093e-06 4.1693153 0.36408648 0.041093502 0.10493132
7e-43 7e-43 7e-43 7e-43 4.572365 2.452011 0.03883428 0.10177464
5.337853 2.4581192 0.049927745 0.13194038 0.34046447 0.7764927 0.0041210367 0.020818328
0.077638626 0.010163905 0.00075717724 0.0042063105 41.892345 21.508114 0.36763346 0.9277228
0.0 0.0 0.0 0.0 1.5335882e-08 1.7060547e-08 1.4825279e-10 3.6297698e-09
0.4368591 0.76241684 0.0056039053 0.042067472 7e-43 7e-43 7e-43 7e-43
1.5285155e-20 1.26733085e-20 1.4928432e-22 2.6373183e-22 5.872102 3.3070357 0.045356378 0.13009138
7e-43 7e-43 7e-43 7e-43 7e-43 7e-43 7e-43 7e-43
1.2849147 1.0690486 0.010325606 0.037042532 2.2471794e-28 7.579379e-30 2.2116174e-31 4.455365e-29
00000000: 3b28 4341 040c bf40 357a d13d ee04 833e
00000010: 9e08 1f3f 3ade 823f 4248 da3b 1ae6 543d
00000020: 7b59 4a45 0c91 8c44 ee03 f341 0245 6342
00000030: 5325 bc41 6e06 5041 df52 623e 60c7 f73e
00000040: f401 0000 f401 0000 f401 0000 f401 0000
00000050: 76c0 c83e 93c1 233e 7faf 2b3b 12db da3b
00000060: 711b 1a2f 5271 832f 806e b828 f606 022f
00000070: bd16 1d42 e9bb a341 6188 b03e c3c3 5e3f
00000080: 70e4 b13f 77f8 103f fa73 323c 687c ca3c
00000090: 685d 8340 941d cf3f cfe4 193d 8b6a 813d
000000a0: 05f7 d543 7dda 1442 6af6 3440 ddb4 1440
000000b0: 7407 9339 967f f439 811d 3837 79b7 0537
000000c0: 5254 7b44 f372 f343 b7c8 0841 600e 9841
000000d0: 7e98 0440 d541 8a3f bd81 ce3c 72f4 b53d
000000e0: f401 0000 f401 0000 f401 0000 f401 0000
000000f0: 5973 9b3f 3484 2e3f 54b1 6d3c 16bd 613d
00000100: 2a64 2e3e f9be 8e3c 6d5b 123b 8c70 8c3b
00000110: 40d4 4a38 2a66 b536 ef7e d233 e079 2535
00000120: b776 3124 5ec2 3224 5add 0e20 079d 0422
00000130: f13c 3141 5e60 4941 563d cd3d 0eb7 bd3e
00000140: f401 0000 f401 0000 f401 0000 f401 0000
00000150: 07b8 b941 6be4 df3f f739 653c 17c7 003e
00000160: 319c b240 349a 1e40 b5e3 463d 1854 ce3d
00000170: 497d 303d 8505 ef3b 584f 0f39 450a 393a
00000180: 85fe c040 d9d4 1640 10a7 5f3d 273d 443e
00000190: 0dec 0341 d600 0241 bd11 b53d 948c 5d3e
000001a0: 7944 a93f 7ba6 033e d31b cc3a 5877 463c
000001b0: 0c02 8941 c2a0 8c40 86ee 213d f157 8b3e
000001c0: 8ba1 d63f 1654 8840 2441 b03c 638f 113e
000001d0: 2090 872e bad9 8c2f 9c83 592c 6391 6b2d
000001e0: 51c5 8a3c d2fc 233c 462b a538 958c 773a
000001f0: f401 0000 f401 0000 f401 0000 f401 0000
00000200: c8ca a440 4360 4140 42f1 263d 4114 e83d
00000210: f401 0000 f401 0000 f401 0000 f401 0000
00000220: 9988 a43d 114d 2b3c dfe2 4c3a 6fdb 993b
00000230: 1330 e841 c74b 6741 4741 813e 9d14 1e3f
00000240: a580 9f3f d4e4 8e3f 0c31 6a3c c1c4 883d
00000250: d644 9040 5ba9 0c40 aafc 3b3d dccf 0e3e
00000260: f401 0000 f401 0000 f401 0000 f401 0000
00000270: 49ae 7b42 4b8a 0242 7528 0c3f ca45 af3f
00000280: f401 0000 f401 0000 f401 0000 f401 0000
00000290: cd6e 0341 d9a6 c43f 55ec 793d 8fb6 833e
000002a0: 8e7e e33f 007d 273f 6ec3 b13c 9e30 a03d
000002b0: e657 0422 7c25 1d21 5f0c 3b1e e75f 861e
000002c0: f401 0000 f401 0000 f401 0000 f401 0000
000002d0: a674 f83f bc2c 7f3e 8f62 c93c 0eed ff3d
000002e0: e1ec ba37 0716 df38 e7d6 1236 d2f3 db36
000002f0: 086b 8540 8b69 ba3e a951 283d 3be6 d63d
00000300: f401 0000 f401 0000 f401 0000 f401 0000
00000310: d050 9240 c0ed 1c40 b210 1f3d 396f d03d
00000320: b1cf aa40 d351 1d40 0981 4c3d 611b 073e
00000330: 5c51 ae3e 3ac8 463f c309 873b 338b aa3c
00000340: 0001 9f3d 8286 263c 4e7d 463a 17d5 893b
00000350: c391 2742 9e10 ac41 743a bc3e 3e7f 6d3f
00000360: 0000 0000 0000 0000 0000 0000 0000 0000
00000370: f6bb 8332 8a8c 9232 7301 232f 966f 7931
00000380: ffab df3e c02d 433f f7a0 b73b f14e 2c3d
00000390: f401 0000 f401 0000 f401 0000 f401 0000
000003a0: 3d5d 901e 5c64 6f1e 4279 341b 866a 9f1b
000003b0: 42e8 bb40 79a6 5340 9cc7 393d ad36 053e
000003c0: f401 0000 f401 0000 f401 0000 f401 0000
000003d0: f401 0000 f401 0000 f401 0000 f401 0000
000003e0: 1678 a43f 96d6 883f bb2c 293c e9b9 173d
000003f0: 926e 8e11 63ba 190f cc8a 8f0c f2e9 6110

exp_avg f4 [64]
0.1361496 -0.22863443 2.916094 0.11736787 6e-45 0.04424259 6e-45 0.25417566
0.023147315 0.1443764 0.19615094 6e-45 -2.7165673 0.037227795 6e-45 -0.04994209
-0.0028148666 6e-45 6e-45 -0.68328625 6e-45 8.552928e-33 0.11088376 6e-45
0.017226133 -0.034464072 -1e-43 -0.17257349 -0.3324911 6e-45 0.048979934 6e-45
0.13066167 6e-45 2.8e-44 0.2204714 0.014411094 -0.042890232 6e-45 0.35183308
6e-45 0.29156467 -0.3244516 6e-45 6e-45 -0.09921655 -6e-45 0.29932708
6e-45 0.07985605 0.042512484 -0.054762833 -6e-45 0.2352582 0.0 6e-45
-0.3494325 6e-45 6e-45 0.10905692 6e-45 6e-45 0.12276872 6e-45
00000000: cd6a 0b3e 251f 6abe 49a1 3a40 915e f03d
00000010: 0400 0000 b837 353d 0400 0000 5023 823e
00000020: 709f bd3c 68d7 133e cbdb 483e 0400 0000
00000030: 3ddc 2dc0 2c7c 183d 0400 0000 1490 4cbd
00000040: a079 38bb 0400 0000 0400 0000 d9eb 2ebf
00000050: 0400 0000 2aa3 310a 0617 e33d 0400 0000
00000060: d21d 8d3c 332a 0dbd 4700 0080 1bb7 30be
00000070: 463c aabe 0400 0000 2f9f 483d 0400 0000
00000080: 2ccc 053e 0400 0000 1400 0000 41c3 613e
00000090: 821c 6c3c abad 2fbd 0400 0000 7723 b43e
000000a0: 0400 0000 f747 953e 851e a6be 0400 0000
000000b0: 0400 0000 0c32 cbbd 0400 0080 6641 993e
000000c0: 0400 0000 928b a33d 9221 2e3d fe4e 60bd
000000d0: 0400 0080 87e7 703e 0000 0000 0400 0000
000000e0: d1e8 b2be 0400 0000 0400 0000 3c59 df3d
000000f0: 0400 0000 0400 0000 2b6e fb3d 0400 0000
