CartPole/Experiment_1/23-09-26_22-10-39-937242_DQN/checkpoints/agent_163000.pt (torch, 82603 bytes, 24 tensors)

net.0.weight f4 [64, 4]
00000000: d7f2 debc 6844 b73d fd65 9d3e 0d38 e53b
00000010: dd81 0a3e 79f0 eabd b6f2 8b3f c41b 89be
00000020: a596 eb3c 1695 4bbd 7b04 2440 2653 403e
00000030: 9fc2 b5bd 9e0d 23bf bfb7 8bbf 4702 f2be
00000040: e6bc abbd d77e a8bc 0cd1 463d 72b2 363b
00000050: 23ef 3f3e 0423 32be e642 d8bf 5b35 5fbd
00000060: 88a6 25bd 2d24 893d c24c 18bf 2c48 013e
00000070: a974 dabd ca56 1d3d db52 253e ffa9 c93d
00000080: 1149 e7bc e1e0 a6bd 39a2 753e efe5 c6bd
00000090: aa6b 13be 616d 5e3d ee87 cdbb 0eee 293e
000000a0: 112a 88be 93c0 e4bd 3f72 6cbf 8404 b1bd
000000b0: a752 72bd 9e2e febd 2e5b 0ac0 5449 cebe
000000c0: 8432 aebe da17 47be a21a 173d b3a4 ecbd
000000d0: a457 943e 9442 ed3d 45b4 ab3f ea43 ea3e
000000e0: 6fbc db3c 9efd 0dbc fc6a 3ebe 8886 b0bc
000000f0: 5047 823e 35b8 063e 3c6d e23f 531a 6f3e
00000100: 4beb 053e cdf5 e33e b0d0 0fbf 828d 153e
00000110: 6543 5e3e 3333 6ebd 8662 68be 8555 87bc
00000120: 5902 933a 5f94 94bd 7928 c4bd cb87 79bd
00000130: 760a 65bd 18d5 3cbe adbd eebf 6a79 03bf
00000140: f6e3 023c 5311 543d 4d4c 15bf de0a b53c
00000150: 2f91 e53e 5472 133e 7614 133f 96a7 c63d
00000160: 2b97 953d deca 78be baa0 16bf 07ee f13c
00000170: ccb3 d83e 6301 32be 7d94 4cbf b852 82be
00000180: 64a1 353c 0a79 873d c043 0e40 2166 c4bd
00000190: e7d2 503e 402f 2abf 20dc d439 c00d e53c
000001a0: a7f9 8d3e 3040 693e f6d1 bb3f 58d6 863e
000001b0: 6acc 213f d6ff c73e b465 6d3f 19fe 9e3e
000001c0: d113 d03e aa30 77bd c55a 0040 b35f 743d
000001d0: 5f2c 48be 51e8 71be 8850 4abf 4a37 12bf
000001e0: 9d8e 12be 18ae 0f3f b84c c13f 1b73 b13c
000001f0: fbcd e9bc 62e9 a8bc a64b ee3c 7401 91bd
00000200: 690e 383c 97d4 433e ac00 babf 1bbf 10be
00000210: d225 10bd f5ca cc3c 0865 4ebd cc83 963c
00000220: 9fa1 f1bd 0dde 203e a1f1 c13f a603 be3e
00000230: da0b 0f3e 099e acbc 9919 343a 6068 903d
00000240: 3f8a fa3c cc51 23bd c309 36c0 0b0a 75be
00000250: 949a 483e 4b06 cabe c9d2 883f 60f0 b1be
00000260: 4007 47bd 4228 863d 815a 55be f070 243e
00000270: b485 0b3e 9647 a0bd bd14 8e3d 025e 633d
00000280: 7c2b 11be 71b7 42bd e803 46be 8c7d 6ebd
00000290: aadc 143f bc91 633e a1ae 89bf aef6 c03d
000002a0: 3792 c33d b177 3b3e 29c6 0b40 1fee 2d3e
000002b0: a8b5 d1bd c154 143e c7eb 623e 3c3b 1e3e
000002c0: a4b6 2b3d f7e1 e0bc 99a0 a6bd ddef 3cbc
000002d0: 0df6 4bbe bd1e 783e fb11 1040 8b93 863d
000002e0: 45a0 82bd 95db 38be b8c3 16c0 5b31 04bf
000002f0: 994b eb3e 4f7b 453e ed9f 9fbf df6a a9bc
00000300: 8e0a 30bc 7107 353d 3c70 caba 194f 1f3d
00000310: 25c9 0ebe 64a0 af3d bc88 b9be 9522 5b3d
00000320: d6ce 00bf 3a83 34be 7aff e4bf 99c7 10be
00000330: fb52 16bf 7079 2bbe 7c3a 323f 89aa e5bd
00000340: d3a8 e6bd 0588 373e 069c a13f 3564 a03d
00000350: 5693 22bd d9ee 58bd 8a87 fe3e 24c5 a73d
00000360: 47a5 173d 228a 7d3c 1296 53bd 53c0 933c
00000370: ef20 82be 03d9 1c3e d157 143f e924 05be
00000380: 97ab 8b3e 1122 c9bd 13f7 81bf 5091 2f3c
00000390: f18d 8d3d 5fbf afbd f7fc ecbe 7e8e 7c3c
000003a0: 8d1f 2f3b 202f 4f3d 5322 d5bd b2da 9e3d
000003b0: 45e2 903c 2fc4 1d3d d200 93bf d5bc ccbe
000003c0: 7328 f03d 8a49 4cbc e2ef 823f b0d8 973c
000003d0: 3cb0 c5bc d1b4 823c 4f6f 69bd ae8b efbc
000003e0: e3b6 253e 9e2d eabd 84d0 04c0 bb63 553b
000003f0: c8ca e93d 7340 fdbd 51b1 bb3e 7319 5ebd
-0.027215404 0.08948594 0.30741873 0.006995207 0.13526101 -0.11471648 1.0933444 -0.26778996
0.028758356 -0.049702726 2.5627735 0.18781719 -0.08875012 -0.63692653 -1.091545 -0.47267362
-0.08385639 -0.020568294 0.048539206 0.0027877358 0.18743567 -0.1739617 -1.6895416 -0.054494243
-0.04044202 0.06696353 -0.59492123 0.12625188 -0.106667824 0.038412847 0.16144888 0.09846877
-0.028233083 -0.08148361 0.23987664 -0.09711825 -0.1439654 0.05430353 -0.0062723076 0.16594717
-0.26594594 -0.11169543 -0.92361826 -0.086434394 -0.059160855 -0.12411235 -2.1618152 -0.4029032
-0.34022915 -0.19442692 0.036890633 -0.115548514 0.28973114 0.115849644 1.3414389 0.4575494
0.02682325 -0.008666424 -0.18595499 -0.021548524 0.25445032 0.13156207 1.7689586 0.23349886
0.13078038 0.4452347 -0.56177807 0.14604762 0.21705396 -0.058154296 -0.22693834 -0.016520271
0.001121591 -0.07254862 -0.09578032 -0.060920518 -0.05591818 -0.18440664 -1.8651634 -0.5135714
0.00798892 0.051774334 -0.5831955 0.022099908 0.4483733 0.14399081 0.57453096 0.09699933
0.073042236 -0.24296138 -0.58839 0.029532446 0.42324674 -0.17383341 -0.79914075 -0.25453734
0.011085842 0.06614883 2.2228851 -0.09589792 0.20392953 -0.6647835 0.00040599797 0.027960658
0.27729532 0.22778392 1.467345 0.26335406 0.63202536 0.39062375 0.9273331 0.31053236
0.4064012 -0.060349144 2.0055401 0.05966158 -0.19548176 -0.23623778 -0.7902913 -0.57115614
-0.14312215 0.5612502 1.5101538 0.021661332 -0.028540602 -0.020619098 0.029088806 -0.07080355
0.011233904 0.19124065 -1.4531455 -0.14135401 -0.03519232 0.024999121 -0.05038932 0.018373393
-0.11798405 0.15709706 1.5151864 0.3711216 0.13969365 -0.02107145 0.00068702694 0.07051158
0.030583499 -0.03987293 -2.8443458 -0.23929612 0.19590217 -0.39457926 1.0689327 -0.34753704
-0.0485909 0.06550647 -0.20835306 0.16058707 0.13625222 -0.07826154 0.06937549 0.055509575
-0.14176744 -0.047538225 -0.19337428 -0.0582252 0.58149207 0.22223562 -1.0756418 0.094220504
0.09549373 0.18307377 2.1839697 0.16985367 -0.10239726 0.14485456 0.22160254 0.15452284
0.041922227 -0.027451498 -0.081361 -0.011531797 -0.1991808 0.24230476 2.2510974 0.0657111
-0.06378225 -0.18052514 -2.3556957 -0.5163781 0.45956114 0.1928532 -1.247068 -0.020680843
-0.010744704 0.04419655 -0.0015444825 0.038893793 -0.13943918 0.08575514 -0.36237133 0.053499777
-0.50315607 -0.17628184 -1.7890465 -0.1413864 -0.5872037 -0.16745543 0.6962049 -0.112141676
-0.112626694 0.17922981 1.262574 0.07831613 -0.03969129 -0.052962158 0.49712783 0.081918985
0.037022855 0.015474828 -0.05165679 0.018036043 -0.2541575 0.15317158 0.579465 -0.13002361
0.2727935 -0.09820951 -1.0153526 0.010715798 0.06911839 -0.08581423 -0.46286747 0.015414832
0.0026721687 0.05058205 -0.104069375 0.077565566 0.017686019 0.038517173 -1.1484625 -0.39987817
0.11726465 -0.012468705 1.0229456 0.018535942 -0.024131887 0.01595536 -0.056990918 -0.02924141
0.16183047 -0.11434482 -2.0752268 0.0032560665 0.114156306 -0.12365808 0.3665872 -0.05422349

net.0.bias f4 [64]
00000000: 61e9 e73e 94d0 9ebc f746 12bf cf38 8dbe
00000010: 58ed 97be 2ada c83e 08d9 43be 9bf7 173f
00000020: f52a 9b3e c027 e4be fb6c dbbe edb2 17bf
00000030: f788 0ebf 4e26 803d 2c0f 16be 0926 663e
00000040: abfe 97be 8e74 02bf 4ce5 0fbe 6db3 63be
00000050: d2b2 e6be 0658 4ebf 512c d43d 1eeb 4fbf
00000060: e986 ed3e 578b 5abf acf1 0bbf 1c43 1abf
00000070: c71c 19be c2db 09bf 2d2d 7cbe 5354 86be
00000080: 717f 003f 217f 2cbe 0c55 cabe 6056 043f
00000090: 7520 903e c698 063f 255e 99be 2f76 353f
000000a0: 31bf 0ebf d32e adbe 8782 e63e ed98 00bf
000000b0: b519 1bbe 1062 fc3e e33c 2bbf 4ae0 4cbf
000000c0: ab13 fdbd e1c9 c13e c1ef 0f3f e494 47be
000000d0: ca28 03bf f4bb 123f b790 93be 5e67 c4be
000000e0: 49d1 36bd 2136 dcbe 6118 30be 4aae f03e
000000f0: cba6 05bf bf71 40be 8a2e f23e d469 d2be
0.4529524 -0.019386567 -0.57139534 -0.27582404 -0.29673266 0.39228946 -0.1912576 0.5936219
0.3030621 -0.44561577 -0.42856583 -0.59257394 -0.5567774 0.06257306 -0.14654225 0.22475447
-0.29686484 -0.509591 -0.14052314 -0.22236414 -0.45058304 -0.80603063 0.10360015 -0.81218135
0.4639199 -0.85368866 -0.54665637 -0.6025865 -0.14952384 -0.5385095 -0.24626608 -0.2623621
0.5019446 -0.16845371 -0.3951801 0.516943 0.28149763 0.52576864 -0.2995464 0.7088346
-0.55760485 -0.33824787 0.4502146 -0.50233346 -0.15146525 0.49293566 -0.6688978 -0.8002974
-0.12357267 0.37849334 0.5622521 -0.19490391 -0.51234114 0.57318044 -0.28821346 -0.38360113
-0.044633184 -0.43010047 -0.171968 0.47007972 -0.5220763 -0.1879339 0.4730113 -0.41096365

net.2.weight f4 [64, 64]
00000000: 783f 40be f46c 30be 41c3 d53e 769c f63d
00000010: 65da d33c 5171 22be 8bb8 fbbe 9e55 8ebe
00000020: a54c d6bd a385 2a3d 44f6 3abd 0d89 83be
00000030: 78b5 91be 6957 71bd 4463 2dbe a277 d4bd
00000040: 2c1e 8dbd 4e9a 12bf 9d75 1abe b525 65be
00000050: b974 d13a 4b1e 923d 9a76 26bf b2d4 53bf
00000060: 67a9 6c3e 4c83 f5be 5377 1f3f 766b 763e
00000070: 0839 ebbe 5145 a2ba 67e2 b63d bbd3 063e
00000080: ff19 27bf 24c2 923d 4087 a0be 0355 5b3d
00000090: 20a6 f0bd 4cd8 a4bd 6b84 67be 102d 51be
000000a0: bbfc 9d3d 83d6 83be abec 623c 1c43 12be
000000b0: 4d8a 053d dc19 023f fef8 943d 1dcd 943d
000000c0: 3fc5 5dbd a29a 28be d76a dabd 789a fcbe
000000d0: 5c5b cabd 57b2 0cbe 074d de3d 585d fd3d
000000e0: bf08 38bd df09 dfbe 330a 9ebb 2e82 02bf
000000f0: a17e c43f 4c96 21bc f062 6abe 9e4d e53e
00000100: 3ed1 bf3d 3d9b ed3d 4e6e 4dbe 71e1 4a3e
00000110: 6506 543c a703 6f3d e7af 7ebb 5f22 1dbe
00000120: 439d 17be 4d46 3ebc 2451 b3bd 377b bcbd
00000130: a15c eb3d e5d7 b6bd 9aad 353d 8a0d febd
00000140: 6e7d 483d 1440 163d 3b05 47bd 95b9 0ebe
00000150: 356b 8abd eed5 12bd 4d0b c2bb 9286 17be
00000160: 6ed5 97bd b97f 563d 9e25 273e 5b64 27be
00000170: 152f b7bd 554d abbd 0440 71bd c08a 51bd
00000180: 9fe6 35be b7b1 be3c 3cbc 70bd 7b3b 18bd
00000190: 0a6c 5bbe f770 2c3e c567 7e3e a76d 60be
000001a0: edb3 21bc 6b90 6bbd 7816 93bd 3812 bb3c
000001b0: 73ef bd3d 4887 27bb e585 30be e609 39be
000001c0: 0444 463e f34d 28be 2aab 07be 6996 57bd
000001d0: d7bb 0cbd d0ce 6ebc eb43 113e 497b 9abd
000001e0: eb07 4ebe 567e 7cbd 39c9 443e 0f49 db3d
000001f0: cd96 163e 6f7d d4bd 82a1 51be 94f6 c33d
00000200: c7bc 43be 9f53 32bf 8aaa b4be 2e57 6dbf
00000210: 8057 bcbd 7e0b 18bf 70e9 7a3d cbd1 23be
00000220: 4f9e 2cbe eeda 393f 3010 2240 806c debe
00000230: 911c ac3f a101 44bf c82c e73d aad8 b7be
00000240: bec0 8bbe 40a9 41bd cb3a 813c 3dea e3be
00000250: baee d3be b7de b6bd adef 8bbe ecc7 263f
00000260: 9453 c2be 5867 243d 360d 093f 3f1f 27be
00000270: 3783 2f3c 5435 f23d 4194 30bf 72f4 723d
00000280: f4f6 97be f0a2 183e 19b5 073e d57b f3be
00000290: 5bf8 213f 9cce 4dbe 2687 a63e 3ec0 1dbe
000002a0: 0d0b a43f 84fe 6e3f d49f 9ebd 6872 84bd
000002b0: 5933 9a3d bb74 a4be e112 963e c137 65be
000002c0: 02bf d3bd 06db 3b3d 6180 4bbf 280b 5b3f
000002d0: 0073 273e 2899 0cbe e3b1 0dbd b133 f8be
000002e0: 2ee7 87bf 1c85 92be 9794 92bd 15a5 62bf
000002f0: fcf9 2f3f 4032 76bd 21be 57bf 2285 ad3e
00000300: 58e0 d7bc 1736 763d 776e 52bd 70fe 5b3d
00000310: ac22 bdbd 993e 15bd 413e f23c 278f d8bd
00000320: c9d5 b7bd 70c4 81bd 83d5 6dbc b382 49bc
00000330: 3fec d63d c2ef b8bd b85d e1bd e183 1d3c
00000340: 1109 d33c 0880 bdbd bb7d f43d b460 36be
00000350: a1e2 0ebd ea36 5bbd 84b8 c83c 4739 adbd
00000360: df31 54be 46b3 2e3d f79e 35bd ac17 8a3d
00000370: f850 1e3e 729e 913c 9f3e f43c 1a9c febd
00000380: cf60 fabc 4c42 813e e933 033c 042c 57be
00000390: 9f26 53bd d236 f5bd 2317 28bd 9a31 34be
000003a0: fd9f e3bc b8c6 553d 0e12 23bc 83ca 99bd
000003b0: 22ac 643b d850 38bd 6097 6dbd 2668 903d
000003c0: 15ec 643e 0732 3fbd 91b0 bebd 3c93 0cbe
000003d0: 143c 78bd 67ce 143d 6af5 ecbc b08e 72bb
000003e0: bb21 2cbb 5fcc 82bd 5dde 6abd fde2 19be
000003f0: ec3e 31bd f7af 533b 63f5 e03d fe68 a93d
-0.18774211 -0.17229062 0.4175053 0.12041561 0.025860975 -0.1586354 -0.49164233 -0.27799696
-0.104638375 0.041631352 -0.045645013 -0.256905 -0.28458762 -0.05892125 -0.16932398 -0.10374381
-0.068905205 -0.572667 -0.15083928 -0.22377665 0.0015980221 0.07134684 -0.6502472 -0.8274642
0.23111497 -0.47951734 0.6229145 0.2406443 -0.4594195 -0.0012380277 0.089299016 0.13166706
-0.6527404 0.07165936 -0.31353188 0.05354787 -0.11750436 -0.08049068 -0.22609107 -0.20427346
0.0771422 -0.25749597 0.013850371 -0.14283413 0.032602597 0.5082071 0.07274054 0.07265685
-0.054143187 -0.16465238 -0.10664909 -0.493366 -0.09880707 -0.13739906 0.108545355 0.123713195
-0.044930216 -0.4356222 -0.004822993 -0.5097989 1.5351144 -0.009862494 -0.22889304 0.4478578
0.09366082 0.11601875 -0.20061609 0.19812562 0.012940978 0.058353093 -0.003886217 -0.15345143
-0.14806084 -0.011613441 -0.08755711 -0.09203189 0.11492277 -0.08927897 0.044355012 -0.12404926
0.048947744 0.036682203 -0.048588973 -0.13937981 -0.06758729 -0.03584855 -0.0059217573 -0.14797428
-0.07413755 0.0523679 0.16322944 -0.16346876 -0.08944527 -0.08364359 -0.05889894 -0.051157713
-0.17763756 0.0232781 -0.058773264 -0.0371661 -0.21427932 0.16839968 0.24844272 -0.21916829
-0.009869558 -0.057510775 -0.0718202 0.022835836 0.09274187 -0.0025562812 -0.17238577 -0.18070182
0.19361883 -0.16435985 -0.13248888 -0.052633677 -0.034358826 -0.014575675 0.14186065 -0.07543046
-0.20120208 -0.06164392 0.19217385 0.10707294 0.14705963 -0.10375487 -0.20471767 0.095685154
-0.19114982 -0.69658846 -0.3528636 -0.9271115 -0.09196377 -0.59392536 0.06125778 -0.15997998
-0.16857265 0.72599685 2.532238 -0.43442154 1.3446218 -0.76564986 0.11287838 -0.3590749
-0.27295488 -0.04728055 0.015775105 -0.44514647 -0.4139307 -0.08929198 -0.27331296 0.65148807
-0.3795439 0.04013762 0.53535783 -0.16320513 0.010712436 0.11826578 -0.6897622 0.059315152
-0.29680598 0.14905906 0.13252677 -0.47555414 0.63269585 -0.20098346 0.32524985 -0.15405366
1.2815872 0.9335711 -0.077453285 -0.06467134 0.07529325 -0.32120308 0.29311278 -0.2238455
-0.10339166 0.045863174 -0.79492766 0.855639 0.16352463 -0.137303 -0.034593474 -0.48476937
-1.0617425 -0.2861718 -0.071572475 -0.88533145 0.6874082 -0.060106516 -0.8427449 0.33890635
-0.026352093 0.060110178 -0.05137488 0.053709447 -0.09235129 -0.03643665 0.0295707 -0.10574179
-0.08976323 -0.063362956 -0.014516237 -0.0122992275 0.10494279 -0.09030105 -0.110042036 0.009613962
0.02576116 -0.09252936 0.11938044 -0.17810327 -0.0348841 -0.053519167 0.024502046 -0.084581904
-0.2072215 0.042651437 -0.044341054 0.06742796 0.15460575 0.017775748 0.029815016 -0.12432118
-0.03056374 0.25245893 0.008007982 -0.21012884 -0.051550504 -0.11973347 -0.04103769 -0.17597046
-0.02778625 0.052191466 -0.009953035 -0.07509329 0.0034892638 -0.044998974 -0.05800569 0.07051115
0.22355683 -0.04667857 -0.09311021 -0.1372804 -0.06060417 0.036329653 -0.028925616 -0.0037011318
-0.0026265222 -0.06386637 -0.05734097 -0.15027995 -0.043272898 0.0032300928 0.10984304 0.08271979

net.2.bias f4 [64]
00000000: 5055 0dbe c8d0 823d dc51 7bbe 5d50 cdbd
00000010: dd3b 1e3f 8211 293f 010d 81be b9a4 2a3f
00000020: d8f1 0bbe 3f01 4a3f 5e6a 543e 8041 1c3f
00000030: eab8 2a3f 48a6 263f a217 d7be 5e7b 9b3d
00000040: b5ad 1ebe d887 233f 6718 56bb 50ac 3d3f
00000050: 1a6d b4bc 1a9c 5fbd b1d4 133f 0088 253f
00000060: 227d 513f 15a6 303d 942b e23e 0ea6 213e
00000070: d1d7 34bd 3fe0 0f3f 873e d7bd b31b 183f
00000080: 1eca 5dbe d676 133f 4ff6 bbbd a905 65bd
00000090: 2e3f 1e3f 033d b4bd aff6 213f e230 473f
000000a0: 15dc 99be d4e5 093f 3c7e 93bd a6f8 92be
000000b0: 0377 5c3f 5803 433f 0cef 17be 80da 413f
000000c0: 2e75 86bd 91e5 663e a0a5 503f 5575 393f
000000d0: ed85 1bbe ee73 75bd cfb0 debd 7e2e 0e3f
000000e0: 4754 443e 979b 603f 0ec3 23be 6698 11be
000000f0: cdca 3d3f 02ad 48be 73cb 593f 5ad1 1c3f
-0.13802075 0.06387478 -0.24542946 -0.10025094 0.61810094 0.6604234 -0.25205234 0.66657597
-0.13666475 0.7890815 0.20743701 0.61037445 0.66688406 0.65097475 -0.42010218 0.0759189
-0.15495951 0.63879156 -0.0032668354 0.74091053 -0.02202468 -0.05459223 0.57746416 0.64660645
0.8183156 0.04312714 0.44173872 0.15786001 -0.04415113 0.5620155 -0.10509973 0.59417266
-0.21659133 0.57603204 -0.09177839 -0.0559136 0.61815155 -0.088006996 0.63267034 0.77808964
-0.30050722 0.53866315 -0.07201812 -0.2870533 0.861191 0.7617698 -0.14837283 0.7572403
-0.06565319 0.2254851 0.81502724 0.7244466 -0.15187807 -0.059925012 -0.10873567 0.5553969
0.19172774 0.8773741 -0.15992376 -0.14218292 0.74137574 -0.19597247 0.85076064 0.61256945

net.4.weight f4 [2, 64]
00000000: d957 18bf b1e9 d6bd 52f2 16c0 aa1b 253e
00000010: 5aee aa3f 801a be3f 65d7 4ac0 8729 8a3f
00000020: b179 7f3e cc86 cc3f 1340 96c0 bf94 953f
00000030: 1769 713f 96f4 a53f 8f2d 2ac0 93fe 8c3c
00000040: 4de0 453d 84a5 ac3f 3e3e 983d 534a b83f
00000050: d14b 21bd b946 f9bd 02e9 a03f 725b b53f
00000060: d9c5 dc3f 9dd6 b7bc 23a0 e23f df0e b4bd
00000070: 3153 993d 0224 a53f 54b7 ebc0 a7c6 bc3f
00000080: f879 96c0 384e 883f 88e0 e4bf b9bb 2fc0
00000090: 67e4 8b3f a6d9 813e e84f e23f c846 9d3f
000000a0: b3cd 8fbe 4038 4c3f 068c a53e 7908 21be
000000b0: fb82 f53d 0976 903f 7738 343c cca3 9c3f
000000c0: 1eb2 56bc 6459 2d3f 8fa4 8a3f a4fe b23f
000000d0: 9a0f 89bd 6f4f aec0 78bc cebc 82b8 a33f
000000e0: e674 bbbe 0739 af3f 55b4 33bd 9948 6dbf
000000f0: 23e1 3a3f b15c 123d 72ce 573f 2234 9c3f
00000100: 4898 4e3f 450b ac3c 2ad0 cabf 7309 0cbe
00000110: 2ad2 ac3f e6a6 da3f 7dd9 8ec0 b94e 8f3f
00000120: bc24 80be bb3b af3f 4107 55c0 059d ad3f
00000130: a001 a73f 9207 843f 335b 6fc0 bf2e 0cbe
00000140: 7f25 283e 27aa 833f ad57 a6bd c0c4 cf3f
00000150: 4eac 36bc 6046 12be 542d b03f 234f e33f
00000160: 7561 453f c068 15be d30b 1b3f 7a91 ff3b
00000170: 539f 91bb 955c bc3f c1b8 5fc0 4175 bd3f
00000180: 69f5 bec0 10d4 933f 5e0b 3ec0 e609 bebf
00000190: 07c2 d43f c44b f2bd 0604 373f 3ebf 843f
000001a0: be98 35c0 047a a43f 29aa 53be 25f6 373e
000001b0: 3c1b be3f 405b 533f 1bef cf3c de20 933f
000001c0: f1df 05bc b281 e4be 4d53 ed3f d02f f63f
000001d0: a4c6 f6bd 9767 9dc0 5084 a13d 1d32 9d3f
000001e0: a25c 4c3f 80d1 383f 4399 923c 2dc7 ea3e
000001f0: 2409 d63f fdb2 cb3d af93 ba3f d08f b33f
-0.59509045 -0.10493792 -2.35854 0.16123834 1.3353989 1.4851837 -3.1693966 1.0793923
0.24948765 1.5978637 -4.6953216 1.1686019 0.9430098 1.2965267 -2.6590307 0.017211234
0.048309613 1.3488011 0.07433747 1.4397682 -0.039378945 -0.121716924 1.2571108 1.4168532
1.7247878 -0.022441203 1.770512 -0.08791899 0.074865706 1.2901614 -7.366129 1.4748124
-4.702389 1.064887 -1.7881021 -2.7458327 1.0929078 0.25361365 1.7680635 1.2287226
-0.28086624 0.7977333 0.32333392 -0.15725888 0.11987873 1.1286021 0.01099979 1.2237487
-0.01310399 0.67714524 1.0831469 1.398396 -0.06692429 -5.4471965 -0.025236353 1.2790682
-0.36612624 1.3689278 -0.04387315 -0.926889 0.7299978 0.03573293 0.84299386 1.220341
0.8070111 0.021001467 -1.5844777 -0.1367548 1.3501637 1.7082183 -4.464049 1.1195899
-0.25028026 1.3690103 -3.3285677 1.3563544 1.3047371 1.031481 -3.7399414 -0.13689707
0.16420554 1.0286301 -0.081221916 1.6231918 -0.011149479 -0.14284658 1.3763833 1.7758526
0.7710183 -0.1459074 0.6056492 0.0077993246 -0.0044440418 1.4715754 -3.4956515 1.4801408
-5.9674573 1.1549091 -2.9694438 -1.4846771 1.6621712 -0.118308574 0.71490514 1.0370862
-2.8374476 1.2849736 -0.2067038 0.1796499 1.4852061 0.8256111 0.025382569 1.1494405
-0.008171068 -0.446302 1.8541046 1.9233341 -0.120496064 -4.9188952 0.07886565 1.2280918
0.79828846 0.7219467 0.017895347 0.45855084 1.672154 0.09946249 1.457632 1.4028263

net.4.bias f4 [2]
00000000: 6ab8 513f ac84 da3e
0.8192202 0.42679346

net.0.weight f4 [64, 4]
00000000: aa92 d9bc fd53 c03d f279 8f3e 1e25 8f3c
00000010: b709 3b3e 80d2 25be c3bd 713f 120c 71be
00000020: ab97 bf3c 4636 84bd 9647 2040 b958 463e
00000030: 8ec5 99bd 67b6 22bf e6cc 90bf c2c0 f7be
00000040: 46bd abbd 967f a8bc 89d0 463d bfb2 363b
00000050: bbb7 513e 823a fdbd ad5c d1bf bc43 ddbd
00000060: e36a 6bbd 9006 ac3d 78f0 13bf 63ae df3d
00000070: ecef d8bd 4b91 123d 946c 193e b8fa dd3d
00000080: 86e5 f1bc 5896 9ebd 2d1e 593e 38af a3bd
00000090: 456c 13be 126d 5e3d 4987 cdbb ffed 293e
000000a0: 8bb4 84be 1482 d9bd 140c 5ebf e820 b3bd
000000b0: b3f9 80bd 3757 00be 2e91 0ac0 ddcd cfbe
000000c0: 2baa aabe 4d78 41be a500 d43d e6bb f1bd
000000d0: 506e 8f3e 184e e33d ffff a93f 137c f23e
000000e0: c9bc db3c a5fd 0dbc 886a 3ebe 4886 b0bc
000000f0: bbaf 6f3e 253e c73d ac9a e03f 4509 9b3e
00000100: aeb7 153e d954 ea3e b901 19bf cbd2 023e
00000110: a943 5e3e 9332 6ebd 4b62 68be bc55 87bc
00000120: 066e 943a 998e 94bd ca22 c4bd 6e94 79bd
00000130: 2ec0 64bd a8c6 4abe 7178 ecbf 6e30 0bbf
00000140: 3ce4 023c 8111 543d bd4c 15bf 880a b53c
00000150: 835d e53e df4d 133e 9bd4 123f e0fe c43d
00000160: a5ea 8a3d 909b 54be 30db 05bf d087 bd3c
00000170: fe93 d93e df14 2abe 78ec 4abf 22b5 77be
00000180: 94e8 7f3b cee1 763d 13b9 0a40 c34e 47bd
00000190: 3d32 b03e 9648 1cbf f69b b2bd 16f7 1cbb
000001a0: 77b7 8c3e 52ff 703e b5db bb3f 3c74 863e
000001b0: bef1 203f 4ba5 bd3e b549 773f 8767 933e
000001c0: 12e9 eb3e f0de 80bd 7da5 f33f 0480 823d
000001d0: 2fac 35be bdc4 8abe e871 66bf c10c f3be
000001e0: 0ac8 bbbd da93 073f 1524 c03f 7acc 1c3d
000001f0: 5ace e9bc d6e9 a8bc 934b ee3c be00 91bd
00000200: 6286 013c 4c82 4c3e 6e52 b3bf d254 40be
00000210: 3625 10bd c8cb cc3c 6164 4ebd 7584 963c
00000220: 71d4 debd 76a0 283e ddb8 b23f d017 b83e
00000230: 9b02 123e cbd1 b1bc 13b8 ccbb f177 a43d
00000240: 6cf5 dd3c 48ec 35bd df82 32c0 6d54 85be
00000250: 7dc2 393e ae33 dfbe dc5a 833f 5fca 99be
00000260: 0008 47bd 2d28 863d 6a5a 55be 4e71 243e
00000270: b1d6 0c3e 4730 9fbd cfbf 653d 41a5 823d
00000280: b52b 11be 18b8 42bd a004 46be 5a7e 6ebd
00000290: 2a77 143f 6d50 5b3e ecce 85bf 0202 9d3d
000002a0: 42d1 873d e35f 1f3e ec51 0740 b26d 4c3e
000002b0: 80a3 1dbe b821 3d3e 5f1a 8f3e c34b 013e
000002c0: 3fb6 2b3d c2e2 e0bc aea0 a6bd 67f0 3cbc
000002d0: 6a0d 51be 7fdf 6d3e 45ca 0a40 e84d cf3d
000002e0: 4f24 80bd 73e8 37be 80da 16c0 0c79 04bf
000002f0: 29de e03e 3f1a 213e 6b06 94bf 0161 a4bc
00000300: d70a 30bc 6807 353d a870 caba 764e 1f3d
00000310: b37a 0cbe 50c5 b23d 00dd aebe 80b3 643d
00000320: 07fd 01bf 5741 1bbe 6a17 d9bf 436b 46be
00000330: 3926 19bf 16db 30be 16da 253f 5ea7 18bd
00000340: 428f e7bd 3081 423e b7b6 9f3f 2ddc 043e
00000350: 0b8d 20bd 9e01 58bd d5f2 f33e de00 b73d
00000360: 47a5 173d 228a 7d3c 1296 53bd 53c0 933c
00000370: 9a09 67be a7c6 0f3e 139c 2e3f ca91 afbc
00000380: 6eea 8d3e e1e4 15bd 547f 87bf 5401 fabc
00000390: ed8d 8d3d d6bf afbd 6bfc ecbe 238f 7c3c
000003a0: 124a 6bbc 437a 8a3d ae40 b2bd 21f2 773d
000003b0: c3b5 913d 9651 0f3d 20bd 8ebf 172a babe
000003c0: eb28 f03d 5149 4cbc f4ef 823f 15d9 973c
000003d0: 41b0 c5bc 5cb5 823c 0b6f 69bd e28b efbc
000003e0: f0f3 143e 6aaf b1bd 8b80 02c0 7778 30bd
000003f0: f9cc e93d 0143 fdbd ceb1 bb3e 9d15 5ebd
-0.026559193 0.093910195 0.28022724 0.017473754 0.18265425 -0.1619358 0.9443018 -0.2353976
0.02338775 -0.06455664 2.5043693 0.19369783 -0.07508384 -0.63559574 -1.131253 -0.4838925
-0.083857104 -0.02056865 0.04853872 0.0027877537 0.20480244 -0.12364675 -1.6356407 -0.10803935
-0.057474982 0.08399689 -0.577888 0.109219335 -0.105926365 0.035783093 0.14982826 0.108388364
-0.02952839 -0.077435195 0.21202917 -0.07992405 -0.1439677 0.054303236 -0.0062722308 0.16594695
-0.25918993 -0.106205136 -0.8673718 -0.08746511 -0.06297626 -0.1253327 -2.165111 -0.4058675
-0.33332953 -0.18893547 0.103516854 -0.11803417 0.2801385 0.110988796 1.3281249 0.47360286
0.026823418 -0.008666431 -0.18595326 -0.021548405 0.2340688 0.0972865 1.7547202 0.3028051
0.1462085 0.4576786 -0.59768254 0.12775724 0.21705498 -0.0581537 -0.22693746 -0.016520374
0.0011324293 -0.07253761 -0.09576948 -0.06093257 -0.05584734 -0.19802344 -1.8474256 -0.5437077
0.007988986 0.051774506 -0.5832022 0.022099748 0.44797906 0.14385174 0.5735566 0.09618926
0.06783036 -0.20762467 -0.5228758 0.02313605 0.42495722 -0.16609524 -0.7926707 -0.2419019
0.003904854 0.060273938 2.167546 -0.048659097 0.3441333 -0.6104826 -0.087211534 -0.0023950986
0.27483723 0.23534897 1.4676424 0.26260555 0.6286887 0.3704017 0.96596843 0.28789923
0.46076256 -0.06292522 1.9034878 0.06372073 -0.17741464 -0.27103224 -0.9001756 -0.47470668
-0.09169014 0.5295998 1.5011011 0.03828094 -0.028540779 -0.020619314 0.029088771 -0.0708022
0.0079055745 0.1997158 -1.400953 -0.18782356 -0.035191737 0.024999514 -0.050388698 0.018373707
-0.10880364 0.16467461 1.3962666 0.35955667 0.14258806 -0.021706482 -0.0062475293 0.080306895
0.027094565 -0.04441479 -2.7892377 -0.26040974 0.18140598 -0.43594116 1.0262103 -0.3003721
-0.048591614 0.06550632 -0.20835271 0.16058847 0.13753773 -0.0777288 0.056091126 0.06379176
-0.14176829 -0.047538847 -0.19337702 -0.058225967 0.5799433 0.21417399 -1.0453773 0.076663986
0.0663171 0.15563922 2.114375 0.1996372 -0.15394402 0.18469894 0.27949807 0.12626557
0.04192185 -0.027451877 -0.08136116 -0.011531926 -0.20415273 0.23229788 2.1685956 0.10122281
-0.06256925 -0.17959766 -2.3570862 -0.517472 0.43919495 0.15732668 -1.1564459 -0.020065786
-0.010744772 0.044196516 -0.0015444951 0.038893186 -0.13718681 0.087290406 -0.34152985 0.055835247
-0.50776714 -0.15161644 -1.696027 -0.19376855 -0.5982395 -0.17271075 0.647859 -0.03726899
-0.11306621 0.18994594 1.2477635 0.12974615 -0.03919701 -0.052735917 0.47646204 0.08935712
0.037022855 0.015474828 -0.05165679 0.018036043 -0.22562256 0.14040624 0.682069 -0.021431822
0.27717918 -0.03659523 -1.0585732 -0.030518211 0.06911836 -0.08581512 -0.4628633 0.015414986
-0.014360921 0.06761601 -0.08703743 0.060533646 0.071147464 0.034989916 -1.1151466 -0.36360237
0.117265545 -0.012468652 1.0229478 0.01853613 -0.024131896 0.01595562 -0.056990664 -0.029241506
0.1454618 -0.08676036 -2.0390956 -0.043083634 0.114160486 -0.123662956 0.36659092 -0.05421983

net.0.bias f4 [64]
00000000: 4744 e83e a43e 02be c814 13bf f195 8dbe
00000010: 9eec 97be 2536 c73e ba67 32be 5acf 173f
00000020: e532 9e3e 7b27 e4be f44b d4be a558 16bf
00000030: 9c6a 0cbf 8adb 533d 7e0e 16be 27e0 543e
00000040: 149b 90be 8574 02bf dae2 0fbe c74e 3ebe
00000050: 43b2 e6be d27e 4ebf 2945 003e cfb8 4fbf
00000060: d855 e83e 7922 5fbf 58c6 0abf 04c8 1abf
00000070: 1b2f 2fbe 4ce4 02bf a6b0 70be ed53 86be
00000080: 0e61 073f 077f 2cbe e752 e7be 1fb5 043f
00000090: 8afd 983e 7aa8 023f 265e 99be 050c 353f
000000a0: 9dbe 0ebf b34b a8be 79ff de3e 9428 e5be
000000b0: 1e19 1bbe 879a f73e 3be6 2abf 5a6f 50bf
000000c0: 2c13 fdbd 8d2c c63e 232c 123f 765c 8cbe
000000d0: 3015 fdbe 6281 123f b790 93be 49cd c9be
000000e0: 7434 17bd e235 dcbe 0da7 1ebe d9f8 fe3e
000000f0: 7da6 05bf 4971 40be 93b2 ea3e 2369 d2be
0.4536459 -0.12719208 -0.57453585 -0.2765346 -0.29672712 0.38908496 -0.17422381 0.5930077
0.30898204 -0.4456137 -0.41464198 -0.5872901 -0.54850173 0.05172304 -0.14653966 0.20788632
-0.28243315 -0.50959045 -0.14051381 -0.18584739 -0.45057878 -0.8066226 0.12526383 -0.8114137
0.45377994 -0.87161976 -0.542089 -0.6046145 -0.17107813 -0.51129603 -0.23504886 -0.26235905
0.5288247 -0.16845332 -0.45180437 0.5183887 0.29880935 0.51038325 -0.29954642 0.70721465
-0.557596 -0.32870254 0.43554285 -0.4475752 -0.151463 0.48360083 -0.66757554 -0.8141991
-0.12357172 0.38705865 0.570986 -0.27414292 -0.49430227 0.5722867 -0.28821346 -0.39414433
-0.036915258 -0.4300986 -0.15493412 0.4979923 -0.52207166 -0.18793215 0.45839366 -0.41095838

net.2.weight f4 [64, 64]
00000000: 493f 40be 806c 30be 1ac3 d53e 439d f63d
00000010: 65da d33c cf70 22be 4cb8 fbbe 2555 8ebe
00000020: 9a4c d6bd 8f85 2a3d eff6 3abd 1589 83be
00000030: 36b5 91be 0b58 71bd 2763 2dbe 1277 d4bd
00000040: 6e1d 8dbd 1e9a 12bf 9d75 1abe 2a26 65be
00000050: 8975 d13a ad1e 923d 7f76 26bf 92d4 53bf
00000060: 9aa9 6c3e 3c83 f5be dd77 1f3f 0b6c 763e
00000070: db38 ebbe 5145 a2ba 2fe3 b63d bbd3 063e
00000080: c719 27bf 24c2 923d f786 a0be a955 5b3d
00000090: eca5 f0bd a7d7 a4bd 6b84 67be e22c 51be
000000a0: 2efc 9d3d 6dd6 83be 6aed 623c 6543 12be
000000b0: 4d8a 053d ac1a 023f 25f9 943d 65cd 943d
000000c0: 3fc5 5dbd 279a 28be 826a dabd 149a fcbe
000000d0: c95a cabd 9db1 0cbe 0a4d de3d 2b5e fd3d
000000e0: 2808 38bd 5209 dfbe 330a 9ebb cd81 02bf
000000f0: c87e c43f 4c96 21bc cb62 6abe 024e e53e
00000100: e7d1 bf3d ca9b ed3d 496e 4dbe f0e1 4a3e
00000110: 6506 543c 2b03 6f3d acaf 7ebb 3622 1dbe
00000120: ee9c 17be d045 3ebc 2051 b3bd 387b bcbd
00000130: 035c eb3d 78d7 b6bd 9aad 353d 2c0d febd
00000140: 387e 483d 7d40 163d 3b05 47bd 25b9 0ebe
00000150: cd6a 8abd 45d6 12bd 700b c2bb 4686 17be
00000160: 2ed5 97bd 2980 563d 7f25 273e ff63 27be
00000170: bf2f b7bd 554d abbd d43f 71bd c08a 51bd
00000180: 10e6 35be b7b1 be3c ccbb 70bd be3a 18bd
00000190: 8a6b 5bbe be71 2c3e cc67 7e3e 936d 60be
000001a0: 86b4 21bc 5b90 6bbd 5616 93bd 8011 bb3c
000001b0: 73ef bd3d 2787 27bb 8085 30be 3009 39be
000001c0: 0444 463e 974d 28be e5aa 07be 1197 57bd
000001d0: 8cbc 0cbd d3ce 6ebc ee43 113e 4e7b 9abd
000001e0: 6907 4ebe bb7e 7cbd c8c9 443e 2949 db3d
000001f0: 6e96 163e 6f7d d4bd 4aa1 51be 11f6 c33d
00000200: 41bc 43be 3853 32bf 70aa b4be d257 6dbf
00000210: 4857 bcbd 160b 18bf 0bea 7a3d 27d1 23be
00000220: 479e 2cbe 57db 393f ef0f 2240 116d debe
00000230: 5e1d ac3f c801 44bf ea2c e73d 80d8 b7be
00000240: 35c0 8bbe c8a9 41bd cb3a 813c c3e9 e3be
00000250: 5aee d3be 80de b6bd 15ef 8bbe bfc7 263f
00000260: 5153 c2be ee67 243d cd0c 093f 3f1f 27be
00000270: ae83 2f3c eb35 f23d 9093 30bf 8bf4 723d
00000280: c6f6 97be f0a2 183e d4b5 073e b47b f3be
00000290: 7ef8 213f 61ce 4dbe e786 a63e 06c0 1dbe
000002a0: be0b a43f 42ff 6e3f 769f 9ebd e571 84bd
000002b0: 5933 9a3d 6f74 a4be 6612 963e 2238 65be
000002c0: 02bf d3bd d7db 3b3d c17f 4bbf 710b 5b3f
000002d0: 9e73 273e 9d98 0cbe e3b1 0dbd 4b34 f8be
000002e0: 0de7 87bf cd85 92be de93 92bd c3a4 62bf
000002f0: a7f9 2f3f 4032 76bd 22be 57bf bf84 ad3e
00000300: badf d7bc eb36 763d fa6d 52bd 70fe 5b3d
00000310: ac22 bdbd e63d 15bd 833e f23c ba8e d8bd
00000320: 60d5 b7bd 70c4 81bd 83d5 6dbc 6182 49bc
00000330: c1ec d63d c2ef b8bd b85d e1bd a584 1d3c
00000340: 7109 d33c 607f bdbd bb7d f43d b860 36be
00000350: 8de2 0ebd ea36 5bbd d0b8 c83c 4739 adbd
00000360: 8a31 54be deb3 2e3d f89e 35bd ac17 8a3d
00000370: 5551 1e3e 729e 913c 9f3e f43c 249c febd
00000380: 8c60 fabc 4c42 813e b434 033c 0a2c 57be
00000390: 9f26 53bd ac36 f5bd 2317 28bd 5831 34be
000003a0: fd9f e3bc b8c6 553d bf11 23bc 83ca 99bd
000003b0: 22ac 643b d050 38bd 6097 6dbd 6568 903d
000003c0: 15ec 643e c031 3fbd 10b0 bebd 2593 0cbe
000003d0: 1c3c 78bd f5ce 143d 6af5 ecbc b08e 72bb
000003e0: 4721 2cbb cccc 82bd 5dde 6abd f6e2 19be
000003f0: ec3e 31bd f7af 533b 82f5 e03d fe68 a93d
-0.18774141 -0.1722889 0.41750413 0.12041714 0.025860975 -0.15863346 -0.49164045 -0.27799335
-0.10463829 0.041631278 -0.04564565 -0.25690523 -0.28458565 -0.058921855 -0.16932355 -0.10374273
-0.06890379 -0.57266414 -0.15083928 -0.2237784 0.0015980463 0.07134757 -0.6502456 -0.8274623
0.23111573 -0.47951686 0.6229227 0.24064653 -0.45941815 -0.0012380277 0.089300506 0.13166706
-0.6527371 0.07165936 -0.3135297 0.05354849 -0.11750397 -0.08048945 -0.22609107 -0.20427278
0.07714115 -0.2574953 0.013850549 -0.14283521 0.032602597 0.5082195 0.07274083 0.072657384
-0.054143187 -0.16465054 -0.10664846 -0.49336302 -0.09880597 -0.13739629 0.10854538 0.12371477
-0.044929653 -0.43561798 -0.004822993 -0.5097931 1.535119 -0.009862494 -0.22889249 0.44786078
0.093662076 0.1160198 -0.20061602 0.19812751 0.012940978 0.05835263 -0.0038862033 -0.15345082
-0.14805958 -0.011613324 -0.08755708 -0.092031896 0.11492159 -0.08927816 0.044355012 -0.12404856
0.048948497 0.036682595 -0.048588973 -0.13937815 -0.06758652 -0.035848875 -0.0059217736 -0.14797315
-0.07413708 0.052368317 0.16322897 -0.16346739 -0.08944654 -0.08364359 -0.058898762 -0.051157713
-0.17763543 0.0232781 -0.058772847 -0.037165396 -0.21427742 0.16840264 0.24844283 -0.21916799
-0.0098697 -0.057510715 -0.071819946 0.022835493 0.09274187 -0.0025562735 -0.17238426 -0.18069911
0.19361883 -0.16435848 -0.13248785 -0.052634303 -0.0343595 -0.014575678 0.1418607 -0.0754305
-0.20120014 -0.061644297 0.19217598 0.107073136 0.14705822 -0.10375487 -0.20471683 0.09568418
-0.19114782 -0.6965823 -0.35286283 -0.9271213 -0.09196335 -0.59391916 0.061258357 -0.15997754
-0.16857253 0.7260031 2.5322225 -0.43442586 1.3446462 -0.7656522 0.112878636 -0.35907364
-0.2729508 -0.047281057 0.015775105 -0.44514284 -0.41392785 -0.08929157 -0.27330843 0.6514854
-0.3795419 0.040138178 0.5353516 -0.16320513 0.010712547 0.1182669 -0.6897516 0.059315246
-0.2968046 0.14905906 0.13252956 -0.47555315 0.63269794 -0.20098259 0.32524797 -0.15405282
1.2816083 0.9335824 -0.077452585 -0.06467036 0.07529325 -0.32120082 0.29310912 -0.22384694
-0.10339166 0.045863952 -0.7949181 0.85564333 0.16352698 -0.13730092 -0.034593474 -0.48477396
-1.0617386 -0.28617707 -0.0715711 -0.88532656 0.68740314 -0.060106516 -0.84274495 0.3389034
-0.026351798 0.060110968 -0.051374413 0.053709447 -0.09235129 -0.036435984 0.029570824 -0.10574098
-0.08976245 -0.063362956 -0.014516237 -0.012299151 0.10494376 -0.09030105 -0.110042036 0.009614144
0.025761338 -0.092528105 0.11938044 -0.17810333 -0.034884024 -0.053519167 0.024502188 -0.084581904
-0.20722023 0.042652003 -0.044341058 0.06742796 0.15460713 0.017775748 0.029815016 -0.12432125
-0.030563615 0.25245893 0.008008171 -0.21012893 -0.051550504 -0.119733185 -0.04103769 -0.17596948
-0.02778625 0.052191466 -0.0099529615 -0.07509329 0.0034892638 -0.044998944 -0.05800569 0.07051162
0.22355683 -0.046678305 -0.09310925 -0.13728006 -0.0606042 0.036330182 -0.028925616 -0.0037011318
-0.0026264952 -0.06386718 -0.05734097 -0.15027985 -0.043272898 0.0032300928 0.10984327 0.08271979

net.2.bias f4 [64]
00000000: e554 0dbe 7cd1 823d 2c51 7bbe d14f cdbd
00000010: 4717 1e3f 68ab 263f 5d0c 81be 77e7 293f
00000020: 6df1 0bbe 9280 473f 77cc 3b3e 6207 1b3f
00000030: 7623 273f 8e32 253f d8cc d6be 8d7b 9b3d
00000040: 86ad 1ebe 68f6 1d3f 4218 56bb 2957 3c3f
00000050: 8a2c 5bbc 6a9b 5fbd cfb4 133f 77e8 243f
00000060: 33cc 4f3f 4fa6 303d 7fd6 e23e 76a6 213e
00000070: c0d7 34bd 25eb 123f 1c14 1cbe 17f4 183f
00000080: 58dd 5dbe ece1 0f3f a503 c1bd 5b05 65bd
00000090: daf6 1d3f 2a39 9ebd 5437 203f 099e 453f
000000a0: eedb 99be 4185 083f 3e7e 93bd 33af 92be
000000b0: e323 5e3f 8cd2 413f f6ee 17be bc07 413f
000000c0: bd74 86bd 0835 5b3e b5e6 4e3f 74ba 373f
000000d0: b685 1bbe 29f5 95bd 42b0 debd 9577 103f
000000e0: cc28 4f3e c123 5f3f ab8d 23be e22d 08be
000000f0: a94e 3a3f 51ac 48be 30b4 593f 2d81 1b3f
-0.13801916 0.06387612 -0.24542683 -0.100249894 0.6175427 0.65105295 -0.25204745 0.6636881
-0.13666315 0.7793056 0.18339716 0.6055814 0.65288484 0.64530265 -0.41953158 0.07591925
-0.15495881 0.6170411 -0.0032668267 0.73570496 -0.013377318 -0.054591574 0.57697767 0.64417213
0.8117096 0.043127354 0.44304273 0.15786156 -0.044151068 0.5739005 -0.15242046 0.5974745
-0.21666467 0.56204104 -0.09424523 -0.05591331 0.6170479 -0.07725747 0.62584424 0.7719427
-0.30050606 0.5332833 -0.07201813 -0.2864929 0.8677351 0.75711894 -0.1483725 0.75402427
-0.06565235 0.21406949 0.8082078 0.7176888 -0.15187725 -0.07322151 -0.10873462 0.5643247
0.20230407 0.8716393 -0.15972011 -0.13298753 0.72776276 -0.19596983 0.8504057 0.6074398

net.4.weight f4 [2, 64]
00000000: a657 18bf 69ea d6bd 9df2 16c0 aa1b 253e
00000010: de99 ac3f f5fb b43f c8d7 4ac0 bcf5 883f
00000020: 3c79 7f3e 62ee ca3f d933 8fc0 702d 963f
00000030: 5340 643f ec53 a43f ec61 2ac0 2dfe 8c3c
00000040: b0e0 453d 12c7 a73f de3d 983d bf88 b73f
00000050: d74b 21bd 4b47 f9bd 6216 a03f 9878 b33f
00000060: ff22 dd3f 28d6 b7bc 0336 e53f f70e b4bd
00000070: fd53 993d 62ad a73f 8b1f e4c0 f68f bb3f
00000080: f1ef 94c0 bc98 823f d8ca debf 27bb 2fc0
00000090: 2e5d 8c3f b828 533e 93a3 e03f e87c 9b3f
000000a0: b5cd 8fbe 2bb4 4b3f 1e8c a53e 8770 22be
000000b0: 786e b83d 7ea5 903f 2739 343c 4fe8 993f
000000c0: f1b2 56bc d984 2d3f 5c58 883f d19d b13f
000000d0: ec0f 89bd fae7 a7c0 a8bc cebc 160e a33f
000000e0: 94ea a6be 0ad5 ae3f 5d39 32bd 7b65 69bf
000000f0: 9b32 373f 665c 123d 8a5e 553f 90b9 9a3f
00000100: b898 4e3f 9f0a ac3c f9cf cabf a409 0cbe
00000110: 9092 a93f c334 dc3f f4d9 8ec0 f915 8c3f
00000120: 4e25 80be 0414 ad3f 381a 47c0 ab1f aa3f
00000130: 5115 a63f d066 803f d82a 70c0 242f 0cbe
00000140: 7f25 283e 451e 823f 0658 a6bd 11b0 cb3f
00000150: 75e2 25bb 8546 12be 2471 ab3f f650 e03f
00000160: 67e3 3c3f dd68 15be 72e2 163f 7491 ff3b
00000170: 569f 91bb 7c8d b93f 691e 55c0 4575 b83f
00000180: de8a c0c0 9590 933f b677 40c0 a809 bebf
00000190: 273c d23f 26fa 563c 15ac 2e3f 7d0e 813f
000001a0: b898 35c0 f419 a23f 61aa 53be 80d2 383e
000001b0: dd17 bf3f cc1d 4c3f 1bef cf3c 0558 903f
000001c0: 4ce0 05bc 4631 debe 92a0 e83f 956f f13f
000001d0: 73c7 f6bd 1bb0 95c0 de84 a13d 29dd 9b3f
000001e0: 8b7c 3b3f 3227 313f 9301 953c 589c df3e
000001f0: f8ca d23f 50b3 cb3d 0f2e ba3f 40e6 af3f
-0.5950874 -0.10493929 -2.358558 0.16123834 1.3484457 1.4139391 -3.1694202 1.0699992
0.24948591 1.5853999 -4.475079 1.1732616 0.8916065 1.2838111 -2.6622267 0.017211044
0.04830998 1.3107626 0.07433675 1.4338607 -0.039378967 -0.12171801 1.2506831 1.4021177
1.7276305 -0.022440985 1.7907108 -0.08791917 0.074867226 1.3099787 -7.1288505 1.4653308
-4.6542897 1.0202861 -1.7405653 -2.7457979 1.0965936 0.20621002 1.7549919 1.2147493
-0.2808663 0.7957179 0.32333463 -0.15863238 0.09005445 1.1300504 0.010999954 1.202402
-0.013104186 0.67780834 1.0651965 1.3876287 -0.0669249 -5.2470675 -0.025236443 1.2738674
-0.32600844 1.3658764 -0.043511737 -0.9117047 0.7156159 0.03573265 0.8334738 1.2087879
0.8070178 0.021001158 -1.5844718 -0.13675553 1.3247852 1.7203602 -4.4641056 1.0944206
-0.2502846 1.3521733 -3.1109753 1.3290914 1.2975255 1.0031376 -3.752615 -0.13689858
0.16420554 1.0165488 -0.08122258 1.5913106 -0.002531198 -0.14284714 1.3393903 1.7524707
0.7378449 -0.14590783 0.5893928 0.007799322 -0.004444043 1.4496303 -3.329981 1.4410788
-6.0169516 1.1528498 -3.0073066 -1.4846697 1.6424607 0.0131211635 0.68231326 1.0082546
-2.8374462 1.266417 -0.20670463 0.1804905 1.4929157 0.79732966 0.025382569 1.1276861
-0.008171152 -0.43396968 1.8174002 1.8862177 -0.12049761 -4.6777472 0.078866705 1.2176868
0.7323691 0.6920043 0.018189227 0.43673968 1.6468191 0.099463105 1.4545306 1.3742142

net.4.bias f4 [2]
00000000: 5c1a 4f3f 70ac dd3e
0.80899596 0.43295622

exp_avg f4 [64, 4]
00000000: dc5a 69bd 8f7f 45bf cae6 e9bd fd80 113f
00000010: 46b5 9bbe 926a 49bf 3d80 983e 2ec9 5b3f
00000020: 44b8 3ac0 9391 9d3f e3ee ba3f 526c 80c0
00000030: ff58 8d3f 763b 923d 35c5 7abd 8590 59be
00000040: 0400 0080 0400 0080 0400 0080 0400 0000
00000050: 43da 4e3f 722a cb3f 63c5 58bf 80b8 edbf
00000060: 0400 0080 0400 0000 0400 0000 0400 0080
00000070: 7a21 81be 52fc 95bf 010e 6ebe 1337 583f
00000080: 8ace 29bb c5fd e2be b927 48bd 2cf6 933e
00000090: 0400 0080 0400 0080 0400 0080 0400 0000
000000a0: b94a 38c1 217d 82c0 4ba0 aa3e f89f d83e
000000b0: 0400 0080 0400 0080 0400 0080 0400 0080
000000c0: 30e5 1ec1 df41 6ac0 159f 9f3e 397f 463f
000000d0: a9f0 4ebd acad 0bbe 5675 343d b2bd 6a3e
000000e0: 0400 0000 0400 0000 0400 0000 0400 0000
000000f0: 19f2 45be 2808 34be 985e 013e cf21 a13c
00000100: ddfb b63c 57c3 a3bd b4a6 c3ba ca05 fc3c
00000110: 0400 0000 0400 0000 0400 0000 0400 0080
00000120: 0400 0000 0400 0000 0400 0000 0400 0080
00000130: 8169 733d 8d19 473e 9ac2 523b 46f5 8fbc
00000140: 0400 0000 0400 0000 0400 0080 0400 0080
00000150: 0400 0000 0400 0000 0400 0000 0400 0000
00000160: 7d22 6c3f 6089 e83f 04e9 02bf 7781 c9bf
00000170: 0400 0080 0400 0000 0400 0000 0400 0000
00000180: fc7e 47be c162 66bf c391 373e ddf4 4e3f
00000190: d4dd 123d 3629 9f3e c27c d4bb d601 bfbe
000001a0: 0400 0080 0400 0000 0400 0000 0400 0080
000001b0: 366e 413e 0821 3740 b4a2 95bd 18dd b4bf
000001c0: c310 13bf 9e1e f6be da52 e23e ca8a 833e
000001d0: ec1a 0dbf 4a39 6bbe a8f4 8f3b f40c 803d
000001e0: eb26 6dbd ca8d 31be 1537 43be c511 f1bc
000001f0: 0400 0080 0400 0080 0400 0080 0400 0000
00000200: cd3c b43e cb3b 703f e74c 62bf c29f dbbf
00000210: 0400 0000 0400 0000 0400 0000 0400 0000
00000220: 18a4 1cbe a759 c83f a59b db3e a5a6 27c0
00000230: 77e1 9cbd eeb4 69bf 484d 62be c7c7 2a3f
00000240: c907 583f fcc1 8d3f 4f27 fa3b a377 b7bd
00000250: 297c 04be d757 f5be f193 fa3d 8e45 023f
00000260: 0400 0080 0400 0080 0400 0000 0400 0000
00000270: 3d53 b0be 74f4 c8bf 9276 9dbe e215 883f
00000280: 0400 0080 0400 0080 0400 0080 0400 0080
00000290: 15fb b63d 3bd7 b43f 3bcc 12bd fe4b 37bf
000002a0: 75e5 013e ece9 06be 5947 563e f936 123f
000002b0: 0400 0080 0400 0000 0400 0000 0400 0080
000002c0: 0400 0080 0400 0080 0400 0080 0400 0080
000002d0: a20f 42be ab57 78bf f238 7e3d 3393 633f
000002e0: 0400 0000 0400 0000 0400 0080 0400 0080
000002f0: 4228 f43d debc 2140 eddf 4cbd 30eb 91bf
00000300: 0400 0080 0400 0080 0400 0080 0400 0080
00000310: d4a3 a13c 3769 bcbe 9bc6 5fbe c5e2 113e
00000320: 053d 4a3f d0bf c63f 70eb 0bbf 60f4 e2bf
00000330: cc9a bf3e 8c70 23bf 43db bc3e 14e9 563f
00000340: ede4 44bf b424 55bf 0e0c 093d 5600 4e3e
00000350: 4013 71be 04ba 9fbf cd1b 62be eb83 6d3f
00000360: 0000 0000 0000 0000 0000 0000 0000 0000
00000370: 688f c2bd c091 9cbe 033e 193c 6dd4 963d
00000380: 8f1e febc 9344 773e 0bd8 02bc 0b92 99be
00000390: 0400 0080 0400 0080 0400 0000 0400 0000
000003a0: 0400 0080 0400 0000 0400 0000 0400 0080
000003b0: 333b 023c 5530 83be 7bb0 ebbe a338 c2be
000003c0: 0400 0000 0400 0000 0400 0000 0400 0000
000003d0: 0400 0000 0400 0000 0400 0080 0400 0080
000003e0: 321e 833f 91be 0140 e437 9bbf c2a4 1dc0
000003f0: 0400 0000 0400 0080 0400 0000 0400 0000
-0.056971416 -0.77147764 -0.11420973 0.56837445 -0.30411738 -0.7867824 0.29785338 0.8585385
-2.9174967 1.2310051 1.4604152 -4.0132227 1.1042784 0.071402475 -0.061223228 -0.21246536
-6e-45 -6e-45 -6e-45 6e-45 0.8080179 1.5872328 -0.8467619 -1.857193
-6e-45 6e-45 6e-45 -6e-45 -0.25220853 -1.1717627 -0.2324753 0.84459037
-0.002591046 -0.44334236 -0.048866007 0.28898752 -6e-45 -6e-45 -6e-45 6e-45
-11.518243 -4.0777745 0.3332542 0.42309546 -6e-45 -6e-45 -6e-45 -6e-45
-9.930954 -3.6602705 0.31176057 0.77537876 -0.05052248 -0.1364047 0.044057213 0.22923926
6e-45 6e-45 6e-45 6e-45 -0.19330634 -0.17581236 0.12633741 0.019669442
0.022336895 -0.079962425 -0.0014927001 0.03076448 6e-45 6e-45 6e-45 -6e-45
6e-45 6e-45 6e-45 -6e-45 0.05942679 0.1944334 0.0032159449 -0.01757301
6e-45 6e-45 -6e-45 -6e-45 6e-45 6e-45 6e-45 6e-45
0.92240125 1.8166924 -0.51136804 -1.5742635 -6e-45 6e-45 6e-45 6e-45
-0.19482034 -0.89994437 0.17926697 0.8084238 0.035856083 0.3108613 -0.006484599 -0.37306088
-6e-45 6e-45 6e-45 -6e-45 0.18889698 2.861391 -0.07306424 -1.4129972
-0.5744745 -0.48070234 0.44203836 0.25691825 -0.55119205 -0.22971073 0.004393179 0.062524706
-0.057898443 -0.17339244 -0.19063981 -0.029427418 -6e-45 -6e-45 -6e-45 6e-45
0.35202637 0.93841237 -0.88398594 -1.7158129 6e-45 6e-45 6e-45 6e-45
-0.15296972 1.565236 0.42892185 -2.6195462 -0.076601915 -0.912917 -0.22099793 0.66711086
0.8438688 1.1074824 0.0076340805 -0.08958366 -0.12937988 -0.4791858 0.12235249 0.5088738
-6e-45 -6e-45 6e-45 6e-45 -0.34438506 -1.5699601 -0.30754524 1.0631678
-6e-45 -6e-45 -6e-45 -6e-45 0.08934609 1.4128183 -0.0358393 -0.7160033
0.12685187 -0.13175172 0.20925654 0.5711513 -6e-45 6e-45 6e-45 -6e-45
-6e-45 -6e-45 -6e-45 -6e-45 -0.18951276 -0.9700877 0.062066026 0.88896483
6e-45 6e-45 -6e-45 -6e-45 0.11921741 2.5271525 -0.05001824 -1.1399899
-6e-45 -6e-45 -6e-45 -6e-45 0.01973144 -0.36799023 -0.21853106 0.14246662
0.7899936 1.5527287 -0.54656124 -1.7730827 0.37422788 -0.6384361 0.36886033 0.839494
-0.76911813 -0.8325913 0.033458762 0.20117316 -0.235425 -1.2478642 -0.22080918 0.92779416
0.0 0.0 0.0 0.0 -0.09500009 -0.30579948 0.009353164 0.07364736
-0.03102043 0.24147253 -0.007986079 -0.29994234 -6e-45 -6e-45 6e-45 6e-45
-6e-45 6e-45 6e-45 -6e-45 0.0079486845 -0.25622812 -0.4603308 -0.37933835
6e-45 6e-45 6e-45 6e-45 6e-45 6e-45 -6e-45 -6e-45
1.024359 2.0272563 -1.2126431 -2.463181 6e-45 -6e-45 6e-45 6e-45

exp_avg_sq f4 [64, 4]
00000000: 58f1 8441 de59 7141 4cd7 853e 4675 8840
00000010: e3b4 cf3f c59a 8740 4a54 573f be81 9540
00000020: 5066 6f43 6ec2 8c44 e657 d442 db9a ad44
00000030: 4e2d 9341 2a46 8340 9591 353c 5b45 c73d
00000040: f401 0000 f401 0000 f401 0000 f401 0000
00000050: dfa8 6e41 481b 4142 4803 f040 72fa 4c42
00000060: f40a 0936 9840 e335 6b52 ab32 f054 1733
00000070: 8e40 1d42 b843 0642 ee6f 683f b26e 4541
00000080: 248b 8940 4fe6 8e40 05a5 6e3d b80e 893f
00000090: f401 0000 f401 0000 f401 0000 f401 0000
000000a0: 4836 9844 e7e6 de42 4ff8 933f e0e6 0441
000000b0: 269a fe38 524b 9838 f30c 8b35 25b4 bc37
000000c0: 6275 8c44 ae79 cf42 0c3f 833f ff45 da40
000000d0: 9840 b440 edbc 973f ea9e 023e 1dea e43e
000000e0: f401 0000 f401 0000 f401 0000 f401 0000
000000f0: 7071 e43f bb64 f13f 063f 783e b41f f13f
00000100: 18eb c13f 17c3 513f 66a4 ff3c 9b9a 363e
00000110: b4c4 3814 4878 1314 29ff 0e10 d776 3711
00000120: df90 a427 2cef bb26 09c3 e822 4d4d b726
00000130: 02de 1440 5366 1940 25f2 233d bd45 d03e
00000140: 35ed 0100 578f 0300 5c03 0000 3a95 0100
00000150: cc9d 243e 8020 643e a251 fa3a d12f 913d
00000160: 67b4 0441 4361 dd41 9b92 8140 fa8c 0242
00000170: 9fb3 0341 cc99 563e 8230 1f3e 5add a93e
00000180: ef9c 1a41 8175 c940 ecec ef3e 3053 4240
00000190: 583e 503b d0ab 123e 6a2e ac38 ec88 413e
000001a0: eb58 b93d d8d0 cd3d 4d6e 183a 1fbe 9a3c
000001b0: f434 6d41 db2b 4d43 3c88 7a3f dfc0 f741
000001c0: 46fe a440 effd 7d41 1ce6 2240 4198 9541
000001d0: f813 3641 9bc9 a83f eef8 193b be7a 953c
000001e0: 2384 ca3f 24cf ae3f d83b 283f 879d a83e
000001f0: f401 0000 f401 0000 f401 0000 f401 0000
00000200: 8963 ff41 0c93 8a42 95f6 2d41 5c02 7342
00000210: f401 0000 f401 0000 f401 0000 f401 0000
00000220: 6aa9 ae42 8a85 c342 5696 0b41 d8af ee42
00000230: 6328 e841 b9fc d341 b749 493f 53ec 1e41
00000240: a272 ef40 7127 a141 65a4 1d3e 8be6 5040
00000250: fc89 fb40 4034 2840 3763 8b3e f02d cc3f
00000260: f401 0000 f401 0000 f401 0000 f401 0000
00000270: a7df 7e42 c7d8 7c42 1418 cb3f 5e9b ae41
00000280: f401 0000 f401 0000 f401 0000 f401 0000
00000290: 6a0f 5641 8022 5342 1b16 dc3e f746 0541
000002a0: c1cd 9140 7193 ba40 e546 003f c9f7 6740
000002b0: 2edb 5d38 c8b7 8337 0fc8 9c34 2b43 e134
000002c0: f401 0000 f401 0000 f401 0000 f401 0000
000002d0: dda8 4741 7e6a 0341 e666 c13d 9b00 0040
000002e0: 1dbf 8338 25f8 d538 97db 9535 22de 3238
000002f0: 7e5f 5d40 d575 ab42 6255 c33e f02a 4841
00000300: f401 0000 f401 0000 f401 0000 f401 0000
00000310: d55b 3041 80bc 4a41 28d6 1d3f f6d2 bf40
00000320: 457f f940 ade2 9341 6879 3f40 4566 a141
00000330: 6ce7 7b40 0fa3 0741 755e b13f b01c e940
00000340: b4e6 b240 7d87 0541 d87c 3c3d 998f af3e
00000350: 5a48 2542 1230 0f42 9f7e 5e3f 87a2 4641
00000360: 0000 0000 0000 0000 0000 0000 0000 0000
00000370: 81f7 8640 0b6f dd3e 5254 e23b 7bc5 8f3d
00000380: b0ca 2c40 0478 f33f bd2f 703d 6cf6 cc3e
00000390: f401 0000 f401 0000 f401 0000 f401 0000
000003a0: 0602 f234 d8a7 c834 5e45 9731 cb9e 0532
000003b0: df7f a441 7d72 2a42 e623 c040 39e0 bf41
000003c0: f401 0000 f401 0000 f401 0000 f401 0000
000003d0: f401 0000 f401 0000 f401 0000 f401 0000
000003e0: 0bab 0542 c0f9 cf42 47e3 7041 677a d942
000003f0: 2bc5 ee27 52da 8025 43a1 f022 a15b bd26
16.617844 15.08444 0.2614082 4.2643156 1.6227077 4.237643 0.8411299 4.6720877
239.39966 1126.0759 106.17168 1388.8392 18.397121 4.102315 0.011082073 0.097300254
7e-43 7e-43 7e-43 7e-43 14.916228 48.27664 7.5004005 51.244576
2.0420966e-06 1.6931617e-06 1.99445e-08 3.5234677e-08 39.31304 33.56613 0.9079579 12.339525
4.298235 4.465614 0.058262844 1.0707617 7e-43 7e-43 7e-43 7e-43
1217.6963 111.45098 1.1560153 8.306366 0.00012140376 7.261954e-05 1.0360076e-06 2.2495233e-05
1123.6682 103.737656 1.0253615 6.8210444 5.632885 1.185453 0.12755933 0.44709864
7e-43 7e-43 7e-43 7e-43 1.7847118 1.8858865 0.24242792 1.88378
1.514987 0.8193831 0.031206321 0.17832415 9.328419e-27 7.445325e-27 2.820113e-29 1.4472775e-28
4.5676214e-15 1.3040559e-15 6.3090228e-18 1.2719128e-15 2.3260503 2.3968704 0.04002585 0.40678206
1.7693e-40 3.26927e-40 1.205e-42 1.45368e-40 0.1607582 0.22278023 0.0019097815 0.070891984
8.294044 27.672491 4.049146 32.637672 8.231353 0.20957106 0.15545848 0.3317669
9.663314 6.2955937 0.46860445 3.0363274 0.003177544 0.14323354 8.2102444e-05 0.18899888
0.09050163 0.100495994 0.0005814776 0.018889485 14.825428 205.17131 0.9786413 30.969175
5.156039 15.8744955 2.5452948 18.699343 11.379875 1.3186525 0.002349432 0.018247005
1.5821575 1.3656964 0.65716314 0.32932684 7e-43 7e-43 7e-43 7e-43
31.923601 69.2872 10.872701 60.752304 7e-43 7e-43 7e-43 7e-43
87.33089 97.76082 8.724203 119.343445 29.01972 26.4984 0.78628105 9.932696
7.4827433 20.144258 0.15394743 3.2640712 7.860594 2.628189 0.27224132 1.5951519
7e-43 7e-43 7e-43 7e-43 63.71841 63.211697 1.5866723 21.825863
7e-43 7e-43 7e-43 7e-43 13.378763 52.78369 0.42985615 8.329825
4.5563664 5.830498 0.50108176 3.6244986 5.2894633e-05 1.5701997e-05 2.9202826e-07 4.1958387e-07
7e-43 7e-43 7e-43 7e-43 12.478726 8.213499 0.094434544 2.000037
6.2821644e-05 0.00010202852 1.1165274e-06 4.2645384e-05 3.4589534 85.73014 0.3815108 12.510483
7e-43 7e-43 7e-43 7e-43 11.02242 12.6710205 0.616549 5.994502
7.796786 18.485682 2.991785 20.174936 3.9359999 8.477309 1.3856951 7.284752
5.590662 8.345578 0.046017498 0.34289244 41.320656 35.796944 0.8691196 12.41468
0.0 0.0 0.0 0.0 4.217713 0.43248782 0.0069070244 0.07020088
2.699871 1.9021001 0.058639277 0.40031755 7e-43 7e-43 7e-43 7e-43
4.5077485e-07 3.7375025e-07 4.4025645e-09 7.777724e-09 20.562437 42.611805 6.004382 23.984484
7e-43 7e-43 7e-43 7e-43 7e-43 7e-43 7e-43 7e-43
33.417034 103.98779 15.055488 108.73907 6.627204e-15 2.23524e-16 6.5222873e-18 1.3139346e-15

exp_avg f4 [64]
00000000: c194 a03f 9c71 b63f 5b12 8540 2ab2 563e
00000010: 0400 0000 291c 74c0 0400 0000 a3a5 0640
00000020: 1be5 243f 0400 0000 a807 bb40 0400 0000
00000030: b5b0 9840 ce66 b33e 0400 0000 5c98 fd3d
00000040: ff47 62bd 0400 0000 0400 0000 3d7b 01be
00000050: 0400 0000 0400 0000 4f79 40c0 0400 0080
00000060: ba96 c73f 0258 45be 0400 0000 66e6 473f
00000070: eaf2 fe3f 1380 643e 04ba 6ebf 0400 0000
00000080: c903 49c0 0400 0000 63c8 743e df0f c03f
00000090: 0e47 a1bf 16cb b53f 0400 0000 a037 2940
000000a0: 0400 0000 87bf b03e ec10 3d3f 0400 0000
000000b0: 0400 0000 67e0 ef3f 0400 0000 8a2b 383f
000000c0: 0400 0000 04f8 e23e 2819 77c0 5c97 913f
000000d0: 035c 843d eb40 0d40 0000 0000 effd 07bd
000000e0: 50cc 80be 0400 0000 0400 0000 b7df 41bf
000000f0: 0400 0000 0400 0000 a81b 9ec0 0400 0000
1.2545396 1.4253421 4.1584907 0.20966402 6e-45 -3.8142188 6e-45 2.1038597
0.6441209 6e-45 5.8446846 6e-45 4.7715707 0.3503937 6e-45 0.12382576
-0.055244442 6e-45 6e-45 -0.12644668 6e-45 6e-45 -3.007404 -6e-45
1.5592873 -0.19271854 6e-45 0.78085935 1.9917881 0.22314481 -0.9325259 6e-45
-3.140856 6e-45 0.23904566 1.5004843 -1.2599809 1.4202602 6e-45 2.64402
6e-45 0.34521124 0.73853946 6e-45 6e-45 1.8740357 6e-45 0.71941435
6e-45 0.44329846 -3.8609104 1.1374316 0.06462862 2.2070873 0.0 -0.033201154
-0.25155878 6e-45 6e-45 -0.75731987 6e-45 6e-45 -4.940876 6e-45
