CartPole/Experiment_1/23-09-26_22-10-39-937242_DQN/checkpoints/agent_178000.pt (torch, 82603 bytes, 24 tensors)

net.0.weight f4 [64, 4]
0	0xbd21786d	-0.039421488
1	0x3dabf762	0.08396794
2	0x3ec2f380	0.380764
3	0x3d334f5e	0.043776862
4	0x3e3b8303	0.18311696
5	0xbd3e3496	-0.04643687
6	0x3fa77cf2	1.3085005
7	0xbd12858b	-0.035771888
8	0xbd05994e	-0.032616906
9	0xbd9d39c9	-0.07677037
10	0x402360d7	2.5527856
11	0x3e7b19e1	0.24521591
12	0xbc0bf397	-0.008541963
13	0xbf107af0	-0.5643759
14	0xbf99cb29	-1.2015125
15	0xbedc11b5	-0.4298226
16	0xbdabbce6	-0.08385639
17	0xbca87ed7	-0.020568294
18	0x3d46d10c	0.048539206
19	0x3b36b272	0.0027877358
20	0x3e22c04f	0.15893672
21	0xbe5292a5	-0.20563753
22	0xbfd6d991	-1.6785146
23	0xbc805151	-0.015663775
24	0xbd25a688	-0.04044202
25	0x3d89242d	0.06696353
26	0xbf184cc2	-0.59492123
27	0x3e01482c	0.12625188
28	0xbddf97a8	-0.10917598
29	0x3d4ba5c7	0.049718644
30	0x3e692f01	0.22771837
31	0x3dc2f006	0.09518437
32	0xbd4e5eb4	-0.050383285
33	0xbd3de04c	-0.046356484
34	0x3ea4fb59	0.32223013
35	0xbd953a24	-0.0728648
36	0xbf04c26e	-0.51859176
37	0x3d2f8666	0.04285278
38	0x3e415b48	0.18882477
39	0x3e3f327f	0.18671606
40	0xbe85dfde	-0.2614736
41	0xbe0ac0e6	-0.13550147
42	0xbf64e29d	-0.89408284
43	0xbdcbde35	-0.09954492
44	0xbcb22205	-0.021744737
45	0xbe3ab64a	-0.182336
46	0xc01314fc	-2.2981558
47	0xbea42b38	-0.32064223
48	0xbeb3d55a	-0.35123712
49	0xbe6b2721	-0.22964145
50	0x3c6298e5	0.013830398
51	0xbe504198	-0.20337522
52	0x3ea7fbba	0.3280924
53	0x391903eb	0.00014592677
54	0x3fbf0c42	1.4925616
55	0x3ecf2583	0.40458307
56	0x3cdbbc6f	0.02682325
57	0xbc0dfd9e	-0.008666424
58	0xbe3e6afc	-0.18595499
59	0xbcb08688	-0.021548524
60	0x3e8fd816	0.28094548
61	0x3e280cdc	0.16411155
62	0x40010bbe	2.0163417
63	0x3ee7312c	0.45154703
64	0x3e561d10	0.20909524
65	0x3eda66d0	0.42656565
66	0xbee75ece	-0.45189518
67	0x3e374bb5	0.17899974
68	0x3e5e4365	0.21705396
69	0xbd6e3333	-0.058154296
70	0xbe686286	-0.22693834
71	0xbc875585	-0.016520271
72	0x3d06b4c8	0.03288725
73	0xbd270c05	-0.040782947
74	0xbd831b70	-0.06401718
75	0xbceed74b	-0.029155394
76	0xbd9a097c	-0.0752134
77	0xbe4c2c08	-0.19938672
78	0xc000d311	-2.0128825
79	0xbee35f21	-0.44408515
80	0x3c02e3f6	0.00798892
81	0x3d541153	0.051774334
82	0xbf154c4d	-0.5831955
83	0x3cb50ade	0.022099908
84	0x3ee7eb3d	0.4529666
85	0x3e5de0ab	0.21667735
86	0x3f2527c7	0.6451382
87	0x3e1d9372	0.15388277
88	0x3e4d8b3a	0.20072642
89	0xbe9906bc	-0.2988795
90	0xbf058874	-0.52161336
91	0x3d91c416	0.071174785
92	0x3ece2151	0.40259793
93	0xbe70d0dc	-0.23517174
94	0xbf66d36d	-0.9016636
95	0xbe9076a3	-0.28215513
96	0x3c9e11bf	0.019295571
97	0xbc6bac0f	-0.014384284
98	0x4010c2bb	2.2618854
99	0xbde83213	-0.11337676
100	0x3d53e404	0.051731125
101	0xbf436ab0	-0.7633467
102	0x3dadb961	0.08482624
103	0xbe68dd90	-0.2274077
104	0x3e7e28ef	0.24820302
105	0x3e6933d6	0.2277368
106	0x3fb57136	1.4175174
107	0x3e61d61e	0.22054335
108	0x3f26a6a4	0.65098023
109	0x3edadea8	0.42747998
110	0x3fa1e4d2	1.2647955
111	0x3ea81cb9	0.32834414
112	0x3ecb34c7	0.39688703
113	0xbe437608	-0.19087994
114	0x4008ed23	2.1394737
115	0xbbea5264	-0.007150935
116	0xbdc33433	-0.095314406
117	0xbe045186	-0.12921724
118	0xbf2e1148	-0.6799512
119	0xbeef66ad	-0.46758023
120	0xbda1472b	-0.07874902
121	0x3efc4f2e	0.4927916
122	0x3fbc94c7	1.4732903
123	0x3e820238	0.25392318
124	0xbce9cdfb	-0.028540602
125	0xbca8e962	-0.020619098
126	0x3cee4ba6	0.029088806
127	0xbd910174	-0.07080355
128	0x3d12adf1	0.035810415
129	0x3e2fe128	0.17175734
130	0xbfba98be	-1.4577863
131	0xbdd6fbdf	-0.10497259
132	0xbd1025d2	-0.03519232
133	0x3ccccaf5	0.024999121
134	0xbd4e6508	-0.05038932
135	0x3c9683cc	0.018373393
136	0x3b871fd6	0.004123668
137	0x3de31247	0.110874705
138	0x3fb68ee1	1.4262353
139	0x3edaccb1	0.42734292
140	0x3df7c5db	0.12098285
141	0xbc2fc0f8	-0.01072716
142	0x3d83775e	0.06419252
143	0x3d8825eb	0.06647857
144	0xbe171e49	-0.14757647
145	0x3ca2dd8d	0.019881034
146	0xc031d832	-2.7788205
147	0xbe8a8a72	-0.2705875
148	0x3e748704	0.2387963
149	0xbeafb301	-0.34316257
150	0x3f90f71d	1.1325413
151	0xbea399e3	-0.31953344
152	0xbd470740	-0.0485909
153	0x3d862842	0.06550647
154	0xbe555a81	-0.20835306
155	0x3e2470f0	0.16058707
156	0x3e02667b	0.12734406
157	0xbd8179e2	-0.063220754
158	0x3e09eab7	0.13468443
159	0x3d4be934	0.049782947
160	0xbe112b7c	-0.14176744
161	0xbd42b771	-0.047538225
162	0xbe4603e8	-0.19337428
163	0xbd6e7d8c	-0.0582252
164	0x3f16a0b1	0.58838946
165	0x3eaf9ffb	0.34301743
166	0xbf6b2ad3	-0.9186222
167	0x3e36481e	0.17800948
168	0x3c7adfde	0.015312163
169	0x3d874e61	0.066067465
170	0x4026214c	2.5957823
171	0x3e74c6b3	0.23903923
172	0xbdd1b5a8	-0.10239726
173	0x3e1454c1	0.14485456
174	0x3e62ebc7	0.22160254
175	0x3e1e3b3c	0.15452284
176	0x3d2bb6a4	0.041922227
177	0xbce0e1f7	-0.027451498
178	0xbda6a099	-0.081361
179	0xbc3cefdd	-0.011531797
180	0xbe7c54e9	-0.24641766
181	0x3e1d93b9	0.15388383
182	0x400a4499	2.1604369
183	0x3e192702	0.14956287
184	0xbd7eee02	-0.0622387
185	0xbe2bfa20	-0.16794634
186	0xc0185486	-2.380159
187	0xbeea3498	-0.4574325
188	0x3ed71c77	0.42013904
189	0x3e557370	0.20844817
190	0xbfa74028	-1.3066454
191	0x3d8623ef	0.065498225
192	0xbc300a8e	-0.010744704
193	0x3d350771	0.04419655
194	0xbaca703c	-0.0015444825
195	0x3d1f4f19	0.038893793
196	0xbe0c6b6c	-0.13712853
197	0x3dbf8768	0.093519986
198	0xbe96a6d8	-0.29424167
199	0x3da125fd	0.07868574
200	0xbf204397	-0.62603134
201	0xbda1d75d	-0.079024054
202	0xbff513b6	-1.914664
203	0xbe3f73c7	-0.1869651
204	0xbf13b436	-0.57696855
205	0xbe9f30a0	-0.31091785
206	0x3f194b57	0.59880584
207	0xbe964e64	-0.29356682
208	0xbdf06153	-0.11737313
209	0x3e413d7a	0.18871108
210	0x3fa42541	1.2823869
211	0x3da8812c	0.082277626
212	0xbd4196c6	-0.04726293
213	0xbd488aa3	-0.04896034
214	0x3f102314	0.56303525
215	0x3dc3eac0	0.095662594
216	0x3d17a547	0.037022855
217	0x3c7d8a22	0.015474828
218	0xbd539612	-0.05165679
219	0x3c93c053	0.018036043
220	0xbe5b1259	-0.21393718
221	0x3e28f43e	0.16499421
222	0x3f12e95a	0.57387316
223	0xbe34739a	-0.17622223
224	0x3e45ff46	0.1933566
225	0xbe821bba	-0.2541178
226	0xbf87b911	-1.0603353
227	0xbe27f880	-0.16403389
228	0x3d8d8df1	0.06911839
229	0xbdafbf5f	-0.08581423
230	0xbeecfcf7	-0.46286747
231	0x3c7c8e7e	0.015414832
232	0x3b2f1f8d	0.0026721687
233	0x3d4f2f20	0.05058205
234	0xbdd52253	-0.104069375
235	0x3d9edab2	0.077565566
236	0x3d24d5f8	0.04024312
237	0x3d25cbcc	0.04047756
238	0xbf9134aa	-1.1344197
239	0xbe754a8e	-0.23954222
240	0x3df02873	0.11726465
241	0xbc4c498a	-0.012468705
242	0x3f82efe2	1.0229456
243	0x3c97d8b0	0.018535942
244	0xbcc5b03c	-0.024131887
245	0x3c82b4d1	0.01595536
246	0xbd696f4f	-0.056990918
247	0xbcef8bae	-0.02924141
248	0x3e2e9933	0.17050628
249	0xbdf8331c	-0.12119123
250	0xc0028772	-2.039517
251	0x3cacfa10	0.021115333
252	0x3de9cac8	0.114156306
253	0xbdfd4073	-0.12365808
254	0x3ebbb151	0.3665872
255	0xbd5e1973	-0.05422349

net.0.bias f4 [64]
0	0x3eea9ff7	0.45825168
1	0x3c94befc	0.018157475
2	0xbf11b621	-0.5691853
3	0xbe8d5b1b	-0.2760857
4	0xbe97ed58	-0.29673266
5	0x3ec67b93	0.38766155
6	0xbe43d908	-0.1912576
7	0x3f1af703	0.6053316
8	0x3e94d03d	0.29065123
9	0xbe9d5a7f	-0.30733106
10	0xbed52ad9	-0.41634253
11	0xbf1c6208	-0.61087084
12	0xbf073016	-0.5280775
13	0x3e387862	0.18014672
14	0xbe160f2c	-0.14654225
15	0x3e8d4bfa	0.27597028
16	0xbe7ce0dc	-0.24695152
17	0xbf02748e	-0.509591
18	0xbe306c75	-0.17228873
19	0xbeba76da	-0.36418802
20	0xbee6b2d2	-0.45058304
21	0xbf47f50f	-0.78108305
22	0x3e042733	0.12905578
23	0xbf560238	-0.83597136
24	0x3ee2078e	0.4414639
25	0xbf576239	-0.8413425
26	0xbf11e85e	-0.5699519
27	0xbf0e45d5	-0.55575305
28	0xbdc9f24a	-0.09860666
29	0xbf2afd84	-0.66793084
30	0xbe311da7	-0.17296468
31	0xbe865453	-0.2623621
32	0x3efc954f	0.49332663
33	0xbe2c7f21	-0.16845371
34	0xbefe21e6	-0.49635237
35	0x3f0717d4	0.52770734
36	0x3e63f082	0.22259715
37	0x3f0c22e7	0.54740757
38	0xbe995e25	-0.2995464
39	0x3f396b53	0.7242939
40	0xbf0ebf31	-0.55760485
41	0xbeb44a86	-0.35213107
42	0x3f0641eb	0.5244433
43	0xbf0098ed	-0.50233346
44	0xbe1b19b5	-0.15146525
45	0x3eee2299	0.4651077
46	0xbf41c013	-0.75683707
47	0xbf4c608b	-0.7983481
48	0xbdfd13ab	-0.12357267
49	0x3ebf6047	0.3737814
50	0x3f0c8a7d	0.54898816
51	0xbe34878a	-0.17629829
52	0xbf02219e	-0.50832546
53	0x3f1644c8	0.586987
54	0xbe9390b7	-0.28821346
55	0xbee428d5	-0.44562402
56	0xbe678404	-0.22608954
57	0xbedc3621	-0.43010047
58	0xbe301861	-0.171968
59	0x3ef5c73b	0.48003563
60	0xbf05a6cb	-0.5220763
61	0xbe4071bf	-0.1879339
62	0x3ef94ddd	0.48692217
63	0xbed269d4	-0.41096365

net.2.weight f4 [64, 64]
0	0xbe403f78	-0.18774211
1	0xbe306cf4	-0.17229062
2	0x3ed5c341	0.4175053
3	0x3df69c76	0.12041561
4	0x3cd3da65	0.025860975
5	0xbe227151	-0.1586354
6	0xbefbb88b	-0.49164233
7	0xbe8e559e	-0.27799696
8	0xbdd64ca5	-0.104638375
9	0x3d2a85a3	0.041631352
10	0xbd3af644	-0.045645013
11	0xbe83890d	-0.256905
12	0xbe91b578	-0.28458762
13	0xbd715769	-0.05892125
14	0xbe2d6344	-0.16932398
15	0xbdd477a2	-0.10374381
16	0xbd8d1e2c	-0.068905205
17	0xbf129a4e	-0.572667
18	0xbe1a759d	-0.15083928
19	0xbe6525b5	-0.22377665
20	0x3ad174b9	0.0015980221
21	0x3d921e4b	0.07134684
22	0xbf26769a	-0.6502472
23	0xbf53d4b2	-0.8274642
24	0x3e6ca967	0.23111497
25	0xbef5834c	-0.47951734
26	0x3f1f7753	0.6229145
27	0x3e766b76	0.2406443
28	0xbeeb3908	-0.4594195
29	0xbaa24551	-0.0012380277
30	0x3db6e267	0.089299016
31	0x3e06d3bb	0.13166706
32	0xbf2719ff	-0.6527404
33	0x3d92c224	0.07165936
34	0xbea08740	-0.31353188
35	0x3d5b5503	0.05354787
36	0xbdf0a620	-0.11750436
37	0xbda4d84c	-0.08049068
38	0xbe67846b	-0.22609107
39	0xbe512d10	-0.20427346
40	0x3d9dfcbb	0.0771422
41	0xbe83d683	-0.25749597
42	0x3c62ecab	0.013850371
43	0xbe12431c	-0.14283413
44	0x3d058a4d	0.032602597
45	0x3f0219dc	0.5082071
46	0x3d94f8fe	0.07274054
47	0x3d94cd1d	0.07265685
48	0xbd5dc53f	-0.054143187
49	0xbe289aa2	-0.16465238
50	0xbdda6ad7	-0.10664909
51	0xbefc9a78	-0.493366
52	0xbdca5b5c	-0.09880707
53	0xbe0cb257	-0.13739906
54	0x3dde4d07	0.108545355
55	0x3dfd5d58	0.123713195
56	0xbd3808bf	-0.044930216
57	0xbedf09df	-0.4356222
58	0xbb9e0a33	-0.004822993
59	0xbf02822e	-0.5097989
60	0x3fc47ea1	1.5351144
61	0xbc21964c	-0.009862494
62	0xbe6a62f0	-0.22889304
63	0x3ee54d9e	0.4478578
64	0x3dbfd13e	0.09366082
65	0x3ded9b3d	0.11601875
66	0xbe4d6e4e	-0.20061609
67	0x3e4ae171	0.19812562
68	0x3c540665	0.012940978
69	0x3d6f03a7	0.058353093
70	0xbb7eafe7	-0.003886217
71	0xbe1d225f	-0.15345143
72	0xbe179d43	-0.14806084
73	0xbc3e464d	-0.011613441
74	0xbdb35124	-0.08755711
75	0xbdbc7b37	-0.09203189
76	0x3deb5ca1	0.11492277
77	0xbdb6d7e5	-0.08927897
78	0x3d35ad9a	0.044355012
79	0xbdfe0d8a	-0.12404926
80	0x3d487d6e	0.048947744
81	0x3d164014	0.036682203
82	0xbd47053b	-0.048588973
83	0xbe0eb995	-0.13937981
84	0xbd8a6b35	-0.06758729
85	0xbd12d5ee	-0.03584855
86	0xbbc20b4d	-0.0059217573
87	0xbe178692	-0.14797428
88	0xbd97d56e	-0.07413755
89	0x3d567fb9	0.0523679
90	0x3e27259e	0.16322944
91	0xbe27645b	-0.16346876
92	0xbdb72f15	-0.08944527
93	0xbdab4d55	-0.08364359
94	0xbd714004	-0.05889894
95	0xbd518ac0	-0.051157713
96	0xbe35e69f	-0.17763756
97	0x3cbeb1b7	0.0232781
98	0xbd70bc3c	-0.058773264
99	0xbd183b7b	-0.0371661
100	0xbe5b6c0a	-0.21427932
101	0x3e2c70f7	0.16839968
102	0x3e7e67c5	0.24844272
103	0xbe606da7	-0.21916829
104	0xbc21b3ed	-0.009869558
105	0xbd6b906b	-0.057510775
106	0xbd931678	-0.0718202
107	0x3cbb1238	0.022835836
108	0x3dbdef73	0.09274187
109	0xbb278748	-0.0025562812
110	0xbe3085e5	-0.17238577
111	0xbe3909e6	-0.18070182
112	0x3e464404	0.19361883
113	0xbe284df3	-0.16435985
114	0xbe07ab2a	-0.13248888
115	0xbd579669	-0.052633677
116	0xbd0cbbd7	-0.034358826
117	0xbc6eced0	-0.014575675
118	0x3e1143eb	0.14186065
119	0xbd9a7b49	-0.07543046
120	0xbe4e07eb	-0.20120208
121	0xbd7c7e56	-0.06164392
122	0x3e44c939	0.19217385
123	0x3ddb490f	0.10707294
124	0x3e1696cd	0.14705963
125	0xbdd47d6f	-0.10375487
126	0xbe51a182	-0.20471767
127	0x3dc3f694	0.095685154
128	0xbe6443f7	-0.22291552
129	0xbf32539f	-0.69658846
130	0xbeb4aa8a	-0.3528636
131	0xbf7578f6	-0.95887697
132	0xbdbc5780	-0.09196377
133	0xbf202d43	-0.62569064
134	0x3d7ae970	0.06125778
135	0xbe445902	-0.19174579
136	0xbe4d257f	-0.20033835
137	0x3f31b926	0.6942314
138	0x402007bc	2.500472
139	0xbede6c80	-0.43442154
140	0x3fa80bb1	1.3128568
141	0xbf4401a1	-0.76564986
142	0x3de72cc8	0.11287838
143	0xbeb7d8aa	-0.3590749
144	0xbe8bc0be	-0.27295488
145	0xbd41a940	-0.04728055
146	0x3c813acb	0.015775105
147	0xbef42dc9	-0.4769118
148	0xbed3eeba	-0.4139307
149	0xbdb6deb7	-0.08929198
150	0xbe9c3339	-0.3050783
151	0x3f26c7ec	0.65148807
152	0xbed2972b	-0.41130957
153	0x3c092a24	0.0083718635
154	0x3f090d36	0.53535783
155	0xbe271f3f	-0.16320513
156	0x3c2f8337	0.010712436
157	0x3df23554	0.11826578
158	0xbf309441	-0.6897622
159	0x3d72f472	0.059315152
160	0xbe97f6f4	-0.29680598
161	0x3e18a2f0	0.14905906
162	0x3e07b519	0.13252677
163	0xbf01dfaf	-0.5073194
164	0x3f19d695	0.6009305
165	0xbe6e55d3	-0.23274927
166	0x3ea68726	0.32524985
167	0xbe3e476e	-0.18581936
168	0x3fa40b0d	1.2815872
169	0x3f6efe84	0.9335711
170	0xbddfae36	-0.109219
171	0xbd847268	-0.06467134
172	0x3d9a3359	0.07529325
173	0xbeb4b852	-0.35296875
174	0x3e9612e1	0.29311278
175	0xbe6537c1	-0.2238455
176	0xbdd3bf02	-0.10339166
177	0x3c66f8f7	0.014097444
178	0xbf53a22a	-0.8266932
179	0x3f52e95f	0.82387346
180	0x3e277300	0.16352463
181	0xbe2d205f	-0.1690688
182	0xbd0db1e3	-0.034593474
183	0xbef833b1	-0.48476937
184	0xbf87e72e	-1.0617425
185	0xbe92851c	-0.2861718
186	0xbd929497	-0.071572475
187	0xbf6ac6da	-0.91709673
188	0x3f2ff9fc	0.6874082
189	0xbd763240	-0.060106516
190	0xbf5fdfe1	-0.8745099
191	0x3ead8522	0.33890635
192	0xbcd7e058	-0.026352093
193	0x3d763617	0.060110178
194	0xbd526e77	-0.05137488
195	0x3d5bfe70	0.053709447
196	0xbdbd22ac	-0.09235129
197	0xbd153e99	-0.03643665
198	0x3cf23e41	0.0295707
199	0xbdd88f27	-0.10574179
200	0xbdb7d5c9	-0.08976323
201	0xbd81c470	-0.063362956
202	0xbc6dd583	-0.014516237
203	0xbc4982b3	-0.0122992275
204	0x3dd6ec3f	0.10494279
205	0xbdb8efc2	-0.09030105
206	0xbde15db8	-0.110042036
207	0x3c1d83e1	0.009613962
208	0x3cd30911	0.02576116
209	0xbdbd8008	-0.09252936
210	0x3df47dbb	0.11938044
211	0xbe3660b4	-0.17810327
212	0xbd0ee2a1	-0.0348841
213	0xbd5b36ea	-0.053519167
214	0x3cc8b884	0.024502046
215	0xbdad3947	-0.084581904
216	0xbe5431df	-0.2072215
217	0x3d2eb346	0.042651437
218	0xbd359ef7	-0.044341054
219	0x3d8a17ac	0.06742796
220	0x3e1e50f8	0.15460575
221	0x3c919e72	0.017775748
222	0x3cf43e9f	0.029815016
223	0xbdfe9c1a	-0.12432118
224	0xbcfa60cf	-0.03056374
225	0x3e81424c	0.25245893
226	0x3c0333e9	0.008007982
227	0xbe572c04	-0.21012884
228	0xbd53269f	-0.051550504
229	0xbdf536d2	-0.11973347
230	0xbd281723	-0.04103769
231	0xbe34319a	-0.17597046
232	0xbce39ffd	-0.02778625
233	0x3d55c6b8	0.052191466
234	0xbc23120e	-0.009953035
235	0xbd99ca83	-0.07509329
236	0x3b64ac22	0.0034892638
237	0xbd3850d8	-0.044998974
238	0xbd6d9760	-0.05800569
239	0x3d906826	0.07051115
240	0x3e64ec15	0.22355683
241	0xbd3f3207	-0.04667857
242	0xbdbeb091	-0.09311021
243	0xbe0c933c	-0.1372804
244	0xbd783c14	-0.06060417
245	0x3d14ce67	0.036329653
246	0xbcecf56a	-0.028925616
247	0xbb728eb0	-0.0037011318
248	0xbb2c21bb	-0.0026265222
249	0xbd82cc5f	-0.06386637
250	0xbd6ade5d	-0.05734097
251	0xbe19e2fd	-0.15027995
252	0xbd313eec	-0.043272898
253	0x3b53aff7	0.0032300928
254	0x3de0f563	0.10984304
255	0x3da968fe	0.08271979

net.2.bias f4 [64]
0	0xbe0d5550	-0.13802075
1	0x3d82d0c8	0.06387478
2	0xbe8dec86	-0.27719516
3	0xbdcd505d	-0.10025094
4	0x3f275a78	0.6537242
5	0x3f3b9597	0.7327513
6	0xbe58828c	-0.2114355
7	0x3f30efab	0.69115704
8	0xbe0bf1d8	-0.13666475
9	0x3f5030be	0.81324375
10	0x3dd2cf7a	0.10293479
11	0x3f2a8277	0.66605324
12	0x3f35587b	0.70838135
13	0x3f2a5de1	0.665495
14	0xbebd3f1e	-0.36962217
15	0x3d9b7b5e	0.0759189
16	0xbe1eadb5	-0.15495951
17	0x3f2d8f51	0.6779681
18	0xbb561867	-0.0032668354
19	0x3f3fb9fd	0.7489317
20	0xbcb46d1a	-0.02202468
21	0xbd5f9c1a	-0.05459223
22	0x3f19ce46	0.60080373
23	0x3f2cedc8	0.67550325
24	0x3f54ebdc	0.8317239
25	0x3d30a615	0.04312714
26	0x3ee1cfcc	0.4410385
27	0x3e21a60e	0.15786001
28	0xbd34d7d1	-0.04415113
29	0x3f11fca8	0.5702615
30	0xbca4e8a2	-0.02013046
31	0x3f20384e	0.62585914
32	0xbe839714	-0.257012
33	0x3f1e9a37	0.61954063
34	0xbdf02e03	-0.11727526
35	0xbdb2fac7	-0.08739238
36	0x3f292b1d	0.6608141
37	0x3d520808	0.05127719
38	0x3f306723	0.68907374
39	0x3f46c9f6	0.7765192
40	0xbe99dc15	-0.30050722
41	0x3f14316e	0.57887924
42	0xbd937e3c	-0.07201812
43	0xbe92f8a6	-0.2870533
44	0x3f5fc79b	0.8741395
45	0x3f46667d	0.77500135
46	0xbe17ef0c	-0.14837283
47	0x3f44611c	0.7671068
48	0xbd86752e	-0.06565319
49	0x3e862ae9	0.26204613
50	0x3f56dfd0	0.8393526
51	0x3f39fd03	0.7265169
52	0xbe1b85ed	-0.15187807
53	0xbd834b68	-0.06410867
54	0xbddeb0cf	-0.10873567
55	0x3f181a24	0.5941489
56	0xbe205faf	-0.156615
57	0x3f62594d	0.8841751
58	0xbe23c30e	-0.15992376
59	0xbe5f8305	-0.21827324
60	0x3f474a9a	0.7784821
61	0xbe48ad02	-0.19597247
62	0x3f61401d	0.87988454
63	0x3f1cef1e	0.61302364

net.4.weight f4 [2, 64]
0	0xbf1857d9	-0.59509045
1	0xbdd6e9b1	-0.10493792
2	0xc016f252	-2.35854
3	0x3e251baa	0.16123834
4	0x3fbde27a	1.483474
5	0x3fd94ff8	1.697753
6	0xc04a3a3b	-3.159804
7	0x3f86efd8	1.0541945
8	0x3e7f79b1	0.24948765
9	0x3fdda096	1.7314632
10	0xc097d11f	-4.7442775
11	0x3fb888c2	1.4416735
12	0x3f8b9241	1.0904008
13	0x3fa6678d	1.3000351
14	0xc024ebdd	-2.576896
15	0x3c8cfe93	0.017211234
16	0x3d45e04d	0.048309613
17	0x3fbe7b02	1.4881289
18	0x3d983e3e	0.07433747
19	0x3fba3e3c	1.4550242
20	0xbd214bd1	-0.039378945
21	0xbdf946b9	-0.121716924
22	0x3fec8048	1.8476648
23	0x3fc33a05	1.5252081
24	0x3fd8ac5d	1.6927601
25	0xbcb7d69d	-0.022441203
26	0x3fe63a36	1.7986515
27	0xbdb40edf	-0.08791899
28	0x3d995331	0.074865706
29	0x3fa6356e	1.2985055
30	0xc0f262f0	-7.5745773
31	0x40000bf9	2.0007308
32	0xc093d1bc	-4.6193523
33	0x3f9f1675	1.2428728
34	0xbfd5e309	-1.6709911
35	0xc02b7d17	-2.6795099
36	0x3fa475a1	1.2848397
37	0x3f5b9af9	0.85783345
38	0x3feeb98a	1.8650372
39	0x3fa2221e	1.2666662
40	0xbe8fcdb3	-0.28086624
41	0x3f82390c	1.0173659
42	0x3ea58c06	0.32333392
43	0xbe210879	-0.15725888
44	0x3ea38f1b	0.31945118
45	0x3f8cd815	1.1003443
46	0x3c343877	0.01099979
47	0x3fa6284c	1.2981048
48	0xbc56b21e	-0.01310399
49	0x3f3cc47d	0.7373732
50	0x3f955384	1.1666112
51	0x3fc32c31	1.5247861
52	0xbd890f9a	-0.06692429
53	0xc0b50ec0	-5.6580505
54	0xbccebc78	-0.025236353
55	0x3fb60250	1.4219456
56	0xbeb62119	-0.35572127
57	0x3fa95c76	1.3231342
58	0xbd33b455	-0.04387315
59	0xbf6951f5	-0.9114068
60	0x3f38b229	0.7214685
61	0x3d125cb1	0.03573293
62	0x3f7fc567	0.9991059
63	0x3f9e9067	1.2387818
64	0x3f4e9848	0.8070111
65	0x3cac0b45	0.021001467
66	0xbfc6bf4e	-1.5527132
67	0xbe0c0973	-0.1367548
68	0x3fbfbc07	1.4979256
69	0x3ff74945	1.9319235
70	0xc088f579	-4.279965
71	0x3f9c0b9f	1.2191046
72	0xbe8024bc	-0.25028026
73	0x3fc8ddad	1.569265
74	0xc058e788	-3.3891315
75	0x3fb6e995	1.4290034
76	0x3fb57cd1	1.4178716
77	0x3f8ff520	1.1246681
78	0xc0461a71	-3.0953639
79	0xbe0c2ebf	-0.13689707
80	0x3e28257f	0.16420554
81	0x3f6748ce	0.90345466
82	0xbda657ad	-0.081221916
83	0x3fd9934e	1.6998079
84	0xbc36ac4e	-0.011149479
85	0xbe124660	-0.14284658
86	0x3fc534d3	1.5406746
87	0x3fe39d21	1.7782327
88	0x3f4c91d4	0.79910016
89	0xbe1568c0	-0.1459074
90	0x3f2159b7	0.6302752
91	0x3bff917a	0.0077993246
92	0xbb919f53	-0.0044440418
93	0x3fcd246d	1.6026741
94	0xc05fce43	-3.4969642
95	0x3faeef6b	1.3666815
96	0xc0cc3bd5	-6.3823037
97	0x3f95fc14	1.1717553
98	0xc0515cb9	-3.2712843
99	0xbfb9d858	-1.4519148
100	0x3ffac009	1.9589854
101	0xbf8a7ac2	-1.0818713
102	0x3f18af88	0.5964284
103	0x3f92da4d	1.147287
104	0xc03598be	-2.8374476
105	0x3fb695f7	1.4264516
106	0xbe53aa29	-0.2067038
107	0x3e37f625	0.1796499
108	0x3fc82a3f	1.5637892
109	0x3f6212dc	0.8831003
110	0x3ccfef1b	0.025382569
111	0x3f9a8468	1.2071657
112	0xbc05dff1	-0.008171068
113	0xbf1500eb	-0.58204526
114	0x3ff6d17d	1.9282681
115	0x4007ee10	2.1239052
116	0xbdf6c6a4	-0.120496064
117	0xc0998e63	-4.798631
118	0x3da18450	0.07886565
119	0x3fbe26c9	1.4855586
120	0x3f258d95	0.6466916
121	0x3f45c2da	0.77250445
122	0x3c929943	0.017895347
123	0x3ee2a6c4	0.44267857
124	0x3fee582f	1.8620661
125	0x3dcbb2fd	0.09946249
126	0x3fbb7d1a	1.4647553
127	0x3fc54e21	1.5414468

net.4.bias f4 [2]
0	0x3f5e488f	0.86829466
1	0x3edb66fc	0.42852008

net.0.weight f4 [64, 4]
0	0xbd1fd7a7	-0.03902402
1	0x3dad087c	0.08448884
2	0x3ebd5116	0.36975926
3	0x3d261a1c	0.040552244
4	0x3e2bd9a5	0.16782244
5	0xbce0ba96	-0.027432721
6	0x3fa3f71b	1.2809786
7	0xbd5a3aa5	-0.053278584
8	0xbd159af9	-0.036524747
9	0xbdac3d17	-0.084100895
10	0x4023eba1	2.5612566
11	0x3e7974e0	0.2436099
12	0xbc5fe42f	-0.013665243
13	0xbf0eb1ca	-0.55740035
14	0xbf9bb2ef	-1.2163981
15	0xbee6ab9f	-0.45052812
16	0xbdabbd46	-0.083857104
17	0xbca87f96	-0.02056865
18	0x3d46d089	0.04853872
19	0x3b36b2bf	0.0027877537
20	0x3e228fc8	0.1587516
21	0xbe37020d	-0.17871876
22	0xbfd5a058	-1.6689558
23	0xbabbe9d2	-0.0014336652
24	0xbd25affb	-0.04045103
25	0x3d8928b3	0.06697216
26	0xbf184c75	-0.59491664
27	0x3e0145b0	0.1262424
28	0xbde01148	-0.10940796
29	0x3d4cb08a	0.04997305
30	0x3e5ca48e	0.21547148
31	0x3dc56bf5	0.09639732
32	0xbd48b846	-0.04900386
33	0xbd550d63	-0.05201472
34	0x3e9eb55e	0.30997747
35	0xbd9c88a6	-0.07643251
36	0xbea45f79	-0.3210409
37	0x3d051396	0.03248938
38	0x3d8f458a	0.069956854
39	0x3e142417	0.14466892
40	0xbe8960c5	-0.26831642
41	0xbe071431	-0.13191296
42	0xbf64ba9f	-0.8934726
43	0xbda2cc39	-0.07949109
44	0xbbe87d13	-0.007094988
45	0xbe31aab2	-0.17350271
46	0xc01160d2	-2.2715344
47	0xbeb632c8	-0.35585618
48	0xbeb3234a	-0.3498786
49	0xbe697175	-0.22797187
50	0x3bb46cc0	0.005506128
51	0xbe3ab606	-0.18233499
52	0x3ea90e59	0.3301876
53	0x3d030dfe	0.031995766
54	0x3fbd1499	1.4771911
55	0x3ebfbad9	0.3744724
56	0x3cdbbcc9	0.026823418
57	0xbc0dfda5	-0.008666431
58	0xbe3e6a88	-0.18595326
59	0xbcb08648	-0.021548405
60	0x3e80f2eb	0.25185332
61	0x3e49d76a	0.1971108
62	0x40004b49	2.004595
63	0x3ec55b20	0.38546085
64	0x3e4a322a	0.19745699
65	0x3ee532e5	0.44765392
66	0xbedf377e	-0.43597025
67	0x3e85020e	0.2597813
68	0x3e5e43a9	0.21705498
69	0xbd6e3293	-0.0581537
70	0xbe68624b	-0.22693746
71	0xbc8755bc	-0.016520374
72	0x3d0594ee	0.032612734
73	0xbd282c4d	-0.041057874
74	0xbd83ab66	-0.06429176
75	0xbcf1177e	-0.029430147
76	0xbd5cffd6	-0.05395492
77	0xbe1cc71f	-0.15310334
78	0xbffc5615	-1.971377
79	0xbedfec6f	-0.43735072
80	0x3c02e43c	0.007988986
81	0x3d541181	0.051774506
82	0xbf154cbd	-0.5832022
83	0x3cb50a88	0.022099748
84	0x3ee98fa0	0.4561739
85	0x3e4f833f	0.2026491
86	0x3f1d7664	0.61508775
87	0x3e195d16	0.14976916
88	0x3e2ae6ca	0.16689602
89	0xbe979efc	-0.29613483
90	0xbf0d2667	-0.5513672
91	0x3ddf5ff9	0.10906977
92	0x3ed17109	0.4090655
93	0xbe6540c9	-0.22387995
94	0xbf60e1e3	-0.87844676
95	0xbe986a45	-0.29768577
96	0x3ca42f64	0.020042129
97	0xbc061920	-0.008184701
98	0x4010711b	2.2569034
99	0xbde4d590	-0.11173546
100	0x3d6d7105	0.057969112
101	0xbf468731	-0.77550036
102	0x3dca4228	0.098758996
103	0xbe2171bd	-0.15766044
104	0x3e824cab	0.25449118
105	0x3e5b4cb4	0.21415979
106	0x3fb3346f	1.4000376
107	0x3e4d246f	0.2003343
108	0x3f275cac	0.6537578
109	0x3ed9876f	0.4248614
110	0x3f946f59	1.1596481
111	0x3ea6438a	0.32473403
112	0x3ecbba01	0.39790347
113	0xbe32d5fd	-0.17464443
114	0x4006b1f4	2.1046114
115	0x3d875709	0.066083975
116	0xbdf65e39	-0.1202969
117	0xbe1793e2	-0.14802507
118	0xbf31814a	-0.69337904
119	0xbef927e0	-0.48663235
120	0xbdaeca60	-0.08534694
121	0x3f0b4309	0.5439916
122	0x3fbfce49	1.4984828
123	0x3e8b9a60	0.27266216
124	0xbce9ce5a	-0.028540779
125	0xbca8e9d6	-0.020619314
126	0x3cee4b93	0.029088771
127	0xbd9100be	-0.0708022
128	0x3ce27519	0.027643727
129	0x3e3fd794	0.1873458
130	0xbfb9f86a	-1.4528935
131	0xbdb79807	-0.08964544
132	0xbd102536	-0.035191737
133	0x3ccccbc8	0.024999514
134	0xbd4e6461	-0.050388698
135	0x3c968475	0.018373707
136	0x3c79af10	0.015239492
137	0x3dd3fb14	0.10350624
138	0x3fb6ed1d	1.4291111
139	0x3ed4ffca	0.41601402
140	0x3dfb9ddc	0.12285969
141	0xbc50a16c	-0.0127337985
142	0x3d4c7448	0.049915582
143	0x3d82ae3c	0.06380889
144	0xbe04cb67	-0.12968217
145	0xbb7faeac	-0.0039014025
146	0xc033173a	-2.7982926
147	0xbe91c455	-0.28470102
148	0x3e745ab3	0.23862724
149	0xbeb10f09	-0.34581783
150	0x3f8f8a67	1.1214112
151	0xbea1161f	-0.3146219
152	0xbd470800	-0.048591614
153	0x3d86282d	0.06550632
154	0xbe555a6a	-0.20835271
155	0x3e24714e	0.16058847
156	0x3e02bc0a	0.12767044
157	0xbd83c38d	-0.06433783
158	0x3dfaf57f	0.12253856
159	0x3d479026	0.048721455
160	0xbe112bb5	-0.14176829
161	0xbd42b818	-0.047538847
162	0xbe4604a0	-0.19337702
163	0xbd6e7e5a	-0.058225967
164	0x3f16b416	0.5886854
165	0x3ea82c70	0.32846403
166	0xbf6fef89	-0.93724877
167	0x3e1d82f9	0.15381993
168	0x3d1bd6b6	0.03804656
169	0x3d275c62	0.040859587
170	0x401c9014	2.4462938
171	0x3e8df8c2	0.2772885
172	0xbdd1c4ab	-0.102425896
173	0x3e145a5c	0.14487594
174	0x3e62f3b5	0.2216328
175	0x3e1e3709	0.15450682
176	0x3d2bb63f	0.04192185
177	0xbce0e2c2	-0.027451877
178	0xbda6a0ae	-0.08136116
179	0xbc3cf067	-0.011531926
180	0xbe81f743	-0.25383958
181	0x3e21de43	0.15807442
182	0x400c2f75	2.1903965
183	0x3de8ed6f	0.11373412
184	0xbd96ae67	-0.07357483
185	0xbe33ec06	-0.17570505
186	0xc017c32a	-2.3712869
187	0xbef425ad	-0.47684994
188	0x3ed96102	0.42456824
189	0x3e802167	0.25025484
190	0xbf9f4d1e	-1.2445409
191	0x3ccbadaa	0.024863083
192	0xbc300ad7	-0.010744772
193	0x3d350768	0.044196516
194	0xbaca70a8	-0.0015444951
195	0x3d1f4e76	0.038893186
196	0xbe0e6d9b	-0.13908999
197	0x3dc9aa1c	0.09846899
198	0xbe9aa59a	-0.3020447
199	0x3db4d2ed	0.088292934
200	0xbf1bece5	-0.6090835
201	0xbdc7515b	-0.09732314
202	0xbff1d305	-1.8892523
203	0xbe199837	-0.14999472
204	0xbf152954	-0.58266187
205	0xbe94f7c6	-0.29095286
206	0x3f2425e7	0.64120334
207	0xbe45e8be	-0.19327065
208	0xbdf06027	-0.117370896
209	0x3e413d31	0.18870999
210	0x3fa42465	1.2823607
211	0x3da88f85	0.08230499
212	0xbd4147b8	-0.047187537
213	0xbd538662	-0.05164183
214	0x3f0c7d59	0.54878765
215	0x3dbc8cf4	0.09206572
216	0x3d17a547	0.037022855
217	0x3c7d8a22	0.015474828
218	0xbd539612	-0.05165679
219	0x3c93c053	0.018036043
220	0xbe5b4a01	-0.21414949
221	0x3e2c09c1	0.16800596
222	0x3f140466	0.5781921
223	0xbe38948a	-0.18025413
224	0x3e1a6f62	0.15081552
225	0xbe6d106e	-0.23150799
226	0xbf78b0c5	-0.9714473
227	0xbda2c544	-0.07947782
228	0x3d8d8ded	0.06911836
229	0xbdafbfd6	-0.08581512
230	0xbeecfc6b	-0.4628633
231	0x3c7c8f23	0.015414986
232	0x3b2e8436	0.0026629097
233	0x3d4f38cd	0.05059128
234	0xbdd51db3	-0.10406055
235	0x3d9ed597	0.07755583
236	0x3d097956	0.03356298
237	0x3d440237	0.047853675
238	0xbf910697	-1.1330136
239	0xbe78534d	-0.24250527
240	0x3df028eb	0.117265545
241	0xbc4c4951	-0.012468652
242	0x3f82eff4	1.0229478
243	0x3c97d915	0.01853613
244	0xbcc5b041	-0.024131896
245	0x3c82b55c	0.01595562
246	0xbd696f0b	-0.056990664
247	0xbcef8be2	-0.029241506
248	0x3e2a5455	0.16633733
249	0xbdd5aa17	-0.10432833
250	0xc002750a	-2.0383935
251	0x3d0e9a12	0.0348149
252	0x3de9cb3a	0.114157155
253	0xbdfd4143	-0.12365963
254	0x3ebbb1a7	0.36658975
255	0xbd5e197a	-0.054223515

net.0.bias f4 [64]
0	0x3ee99e1a	0.45628434
1	0x3c0ff998	0.008787535
2	0xbf1080a1	-0.5644627
3	0xbe8f855c	-0.28031433
4	0xbe97ec9e	-0.29672712
5	0x3ec5365a	0.3851803
6	0xbe43d653	-0.19124727
7	0x3f1a7e5e	0.6034907
8	0x3e95ab05	0.2923204
9	0xbeb75820	-0.35809422
10	0xbed7b436	-0.42129678
11	0xbf19ba54	-0.6004994
12	0xbf09b138	-0.5378604
13	0x3e0bb65b	0.13643782
14	0xbe160e7e	-0.14653966
15	0x3e7d44b2	0.24733236
16	0xbe85fbc0	-0.26168633
17	0xbf027485	-0.50959045
18	0xbe3024d7	-0.17201553
19	0xbeb70cee	-0.35752052
20	0xbee6b243	-0.45057878
21	0xbf47a034	-0.77978826
22	0x3dc38106	0.09546094
23	0xbf53545e	-0.8255061
24	0x3ee01e02	0.43772894
25	0xbf57ce03	-0.84298724
26	0xbf10e87a	-0.5660473
27	0xbf100c88	-0.5626912
28	0xbe0ad4ad	-0.13557692
29	0xbf25ed17	-0.64814895
30	0xbe485ece	-0.19567415
31	0xbe8653ed	-0.26235905
32	0x3efb1dcb	0.49046168
33	0xbe2c7f07	-0.16845332
34	0xbef48bfb	-0.47763047
35	0x3f06c78e	0.52648246
36	0x3e5e14a8	0.21687567
37	0x3f0b661b	0.54452676
38	0xbe995e26	-0.29954642
39	0x3f38bdea	0.72164786
40	0xbf0ebe9d	-0.557596
41	0xbeb4b329	-0.35292938
42	0x3f022135	0.5083192
43	0xbf0096ff	-0.502304
44	0xbe1b191e	-0.151463
45	0x3ee9fd01	0.4570084
46	0xbf3d065d	-0.73837835
47	0xbf4f2cf4	-0.8092797
48	0xbdfd132c	-0.12357172
49	0x3ebec65e	0.37260717
50	0x3f0a98e4	0.5413954
51	0xbe38c717	-0.18044697
52	0xbf0220ed	-0.5083149
53	0x3f15f4d7	0.5857672
54	0xbe9390b7	-0.28821346
55	0xbee1f061	-0.44128707
56	0xbe49ea91	-0.19718386
57	0xbedc35e2	-0.4300986
58	0xbe301611	-0.17195918
59	0x3ef450ee	0.47717994
60	0xbf05a67d	-0.52207166
61	0xbe407149	-0.18793215
62	0x3ef7ba64	0.48384392
63	0xbed2694a	-0.41095954

net.2.weight f4 [64, 64]
0	0xbe403f49	-0.18774141
1	0xbe306c80	-0.1722889
2	0x3ed5c31a	0.41750413
3	0x3df69d43	0.12041714
4	0x3cd3da65	0.025860975
5	0xbe2270cf	-0.15863346
6	0xbefbb84c	-0.49164045
7	0xbe8e5525	-0.27799335
8	0xbdd64c9a	-0.10463829
9	0x3d2a858f	0.041631278
10	0xbd3af6ef	-0.04564565
11	0xbe838915	-0.25690523
12	0xbe91b536	-0.28458565
13	0xbd71580b	-0.058921855
14	0xbe2d6327	-0.16932355
15	0xbdd47712	-0.10374273
16	0xbd8d1d6e	-0.06890379
17	0xbf129a1e	-0.57266414
18	0xbe1a759d	-0.15083928
19	0xbe65262a	-0.2237784
20	0x3ad17589	0.0015980463
21	0x3d921ead	0.07134757
22	0xbf26767f	-0.6502456
23	0xbf53d492	-0.8274623
24	0x3e6ca99a	0.23111573
25	0xbef5833c	-0.47951686
26	0x3f1f77dd	0.6229227
27	0x3e766c0b	0.24064653
28	0xbeeb38db	-0.45941815
29	0xbaa24551	-0.0012380277
30	0x3db6e32f	0.089300506
31	0x3e06d3bb	0.13166706
32	0xbf2719c7	-0.6527371
33	0x3d92c224	0.07165936
34	0xbea086f7	-0.3135297
35	0x3d5b55a9	0.05354849
36	0xbdf0a5ec	-0.11750397
37	0xbda4d7a7	-0.08048945
38	0xbe67846b	-0.22609107
39	0xbe512ce2	-0.20427278
40	0x3d9dfc2e	0.07714115
41	0xbe83d66d	-0.2574953
42	0x3c62ed6a	0.013850549
43	0xbe124365	-0.14283521
44	0x3d058a4d	0.032602597
45	0x3f021aac	0.5082195
46	0x3d94f925	0.07274083
47	0x3d94cd65	0.072657384
48	0xbd5dc53f	-0.054143187
49	0xbe289a27	-0.16465054
50	0xbdda6a82	-0.10664846
51	0xbefc9a14	-0.49336302
52	0xbdca5ac9	-0.09880597
53	0xbe0cb19d	-0.13739629
54	0x3dde4d0a	0.10854538
55	0x3dfd5e2b	0.12371477
56	0xbd380828	-0.044929653
57	0xbedf0952	-0.43561798
58	0xbb9e0a33	-0.004822993
59	0xbf0281cd	-0.5097931
60	0x3fc47ec8	1.535119
61	0xbc21964c	-0.009862494
62	0xbe6a62cb	-0.22889249
63	0x3ee54e02	0.44786078
64	0x3dbfd1e7	0.093662076
65	0x3ded9bca	0.1160198
66	0xbe4d6e49	-0.20061602
67	0x3e4ae1f0	0.19812751
68	0x3c540665	0.012940978
69	0x3d6f032b	0.05835263
70	0xbb7eafac	-0.0038862033
71	0xbe1d2236	-0.15345082
72	0xbe179cee	-0.14805958
73	0xbc3e45d0	-0.011613324
74	0xbdb35120	-0.08755708
75	0xbdbc7b38	-0.092031896
76	0x3deb5c03	0.11492159
77	0xbdb6d778	-0.08927816
78	0x3d35ad9a	0.044355012
79	0xbdfe0d2c	-0.12404856
80	0x3d487e38	0.048948497
81	0x3d16407d	0.036682595
82	0xbd47053b	-0.048588973
83	0xbe0eb925	-0.13937815
84	0xbd8a6acd	-0.06758652
85	0xbd12d645	-0.035848875
86	0xbbc20b70	-0.0059217736
87	0xbe178646	-0.14797315
88	0xbd97d52e	-0.07413708
89	0x3d568029	0.052368317
90	0x3e27257f	0.16322897
91	0xbe2763ff	-0.16346739
92	0xbdb72fbf	-0.08944654
93	0xbdab4d55	-0.08364359
94	0xbd713fd4	-0.058898762
95	0xbd518ac0	-0.051157713
96	0xbe35e610	-0.17763543
97	0x3cbeb1b7	0.0232781
98	0xbd70bbcc	-0.058772847
99	0xbd183abe	-0.037165396
100	0xbe5b6b8a	-0.21427742
101	0x3e2c71be	0.16840264
102	0x3e7e67cc	0.24844283
103	0xbe606d93	-0.21916799
104	0xbc21b486	-0.0098697
105	0xbd6b905b	-0.057510715
106	0xbd931656	-0.071819946
107	0x3cbb1180	0.022835493
108	0x3dbdef73	0.09274187
109	0xbb278727	-0.0025562735
110	0xbe308580	-0.17238426
111	0xbe390930	-0.18069911
112	0x3e464404	0.19361883
113	0xbe284d97	-0.16435848
114	0xbe07aae5	-0.13248785
115	0xbd579711	-0.052634303
116	0xbd0cbc8c	-0.0343595
117	0xbc6eced3	-0.014575678
118	0x3e1143ee	0.1418607
119	0xbd9a7b4e	-0.0754305
120	0xbe4e0769	-0.20120014
121	0xbd7c7ebb	-0.061644297
122	0x3e44c9c8	0.19217598
123	0x3ddb4929	0.107073136
124	0x3e16966e	0.14705822
125	0xbdd47d6f	-0.10375487
126	0xbe51a14a	-0.20471683
127	0x3dc3f611	0.09568418
128	0xbe47eb13	-0.19523267
129	0xbf325338	-0.6965823
130	0xbeb4aa70	-0.35286283
131	0xbf6e6369	-0.9312044
132	0xbdbc5748	-0.09196335
133	0xbf1916dd	-0.5980051
134	0x3d7aea0b	0.061258357
135	0xbe27fffa	-0.16406241
136	0xbe30cd05	-0.17265709
137	0x3f38cf92	0.7219173
138	0x4021cd0f	2.5281408
139	0xbede6d11	-0.43442586
140	0x3fab9765	1.3405577
141	0xbf4401c8	-0.7656522
142	0x3de72cea	0.112878636
143	0xbeb7d880	-0.35907364
144	0xbe8bc035	-0.2729508
145	0xbd41a9c8	-0.047281057
146	0x3c813acb	0.015775105
147	0xbee60139	-0.44922808
148	0xbed3ee5a	-0.41392785
149	0xbdb6de80	-0.08929157
150	0xbe8e068e	-0.27739376
151	0x3f26c7bf	0.6514854
152	0xbec46ab7	-0.38362667
153	0x3d13ace0	0.03605354
154	0x3f090ccd	0.5353516
155	0xbe271f3f	-0.16320513
156	0x3c2f83ae	0.010712547
157	0x3df235eb	0.1182669
158	0xbf309390	-0.6897516
159	0x3d72f48b	0.059315246
160	0xbe97f6c6	-0.2968046
161	0x3e18a2f0	0.14905906
162	0x3e07b5d4	0.13252956
163	0xbef5931a	-0.47963792
164	0x3f20ecce	0.62861335
165	0xbe51fd31	-0.20506741
166	0x3ea686e7	0.32524797
167	0xbe21eed5	-0.15813763
168	0x3fa40bbe	1.2816083
169	0x3f6eff42	0.9335824
170	0xbda6fd08	-0.08153731
171	0xbd8471e5	-0.06467036
172	0x3d9a3359	0.07529325
173	0xbea68bd5	-0.32528558
174	0x3e961266	0.29310912
175	0xbe653822	-0.22384694
176	0xbdd3bf02	-0.10339166
177	0x3d2b20b8	0.04177925
178	0xbf4c8b88	-0.7990041
179	0x3f59ffc0	0.8515587
180	0x3e27739e	0.16352698
181	0xbe10c76f	-0.14138578
182	0xbd0db1e3	-0.034593474
183	0xbef8344b	-0.48477396
184	0xbf87e70d	-1.0617386
185	0xbe9285cd	-0.28617707
186	0xbd9293de	-0.0715711
187	0xbf63b088	-0.8894124
188	0x3f2ff9a7	0.68740314
189	0xbd763240	-0.060106516
190	0xbf58c9d0	-0.8468294
191	0x3ead84bf	0.3389034
192	0xbcd7dfba	-0.026351798
193	0x3d7636eb	0.060110968
194	0xbd526dfa	-0.051374413
195	0x3d5bfe70	0.053709447
196	0xbdbd22ac	-0.09235129
197	0xbd153de6	-0.036435984
198	0x3cf23e83	0.029570824
199	0xbdd88eba	-0.10574098
200	0xbdb7d560	-0.08976245
201	0xbd81c470	-0.063362956
202	0xbc6dd583	-0.014516237
203	0xbc498261	-0.012299151
204	0x3dd6ecc1	0.10494376
205	0xbdb8efc2	-0.09030105
206	0xbde15db8	-0.110042036
207	0x3c1d84a5	0.009614144
208	0x3cd30971	0.025761338
209	0xbdbd7f60	-0.092528105
210	0x3df47dbb	0.11938044
211	0xbe3660b8	-0.17810333
212	0xbd0ee28d	-0.034884024
213	0xbd5b36ea	-0.053519167
214	0x3cc8b8d0	0.024502188
215	0xbdad3947	-0.084581904
216	0xbe54318a	-0.20722023
217	0x3d2eb3de	0.042652003
218	0xbd359ef8	-0.044341058
219	0x3d8a17ac	0.06742796
220	0x3e1e5155	0.15460713
221	0x3c919e72	0.017775748
222	0x3cf43e9f	0.029815016
223	0xbdfe9c24	-0.12432125
224	0xbcfa608c	-0.030563615
225	0x3e81424c	0.25245893
226	0x3c0334b4	0.008008171
227	0xbe572c0a	-0.21012893
228	0xbd53269f	-0.051550504
229	0xbdf536ac	-0.119733185
230	0xbd281723	-0.04103769
231	0xbe343158	-0.17596948
232	0xbce39ffd	-0.02778625
233	0x3d55c6b8	0.052191466
234	0xbc2311bf	-0.0099529615
235	0xbd99ca83	-0.07509329
236	0x3b64ac22	0.0034892638
237	0xbd3850d0	-0.044998944
238	0xbd6d9760	-0.05800569
239	0x3d906865	0.07051162
240	0x3e64ec15	0.22355683
241	0xbd3f31c0	-0.046678305
242	0xbdbeb010	-0.09310925
243	0xbe0c9325	-0.13728006
244	0xbd783c1c	-0.0606042
245	0x3d14cef5	0.036330182
246	0xbcecf56a	-0.028925616
247	0xbb728eb0	-0.0037011318
248	0xbb2c2147	-0.0026264952
249	0xbd82cccc	-0.06386718
250	0xbd6ade5d	-0.05734097
251	0xbe19e2f6	-0.15027985
252	0xbd313eec	-0.043272898
253	0x3b53aff7	0.0032300928
254	0x3de0f582	0.10984327
255	0x3da968fe	0.08271979

net.2.bias f4 [64]
0	0xbe0d54e5	-0.13801916
1	0x3d82d17c	0.06387612
2	0xbe7f8000	-0.24951172
3	0xbdcd4fd1	-0.100249894
4	0x3f27116f	0.65260977
5	0x3f391c26	0.72308576
6	0xbe5a45a4	-0.21315628
7	0x3f304a00	0.68862915
8	0xbe0bf16d	-0.13666315
9	0x3f4f4aa2	0.80973256
10	0x3de38d7f	0.111109726
11	0x3f27550d	0.6536415
12	0x3f34ef76	0.7067789
13	0x3f2aae59	0.66672283
14	0xbebf5c9e	-0.3737535
15	0x3d9b7b8d	0.07591925
16	0xbe1ead86	-0.15495881
17	0x3f2ad995	0.66738254
18	0xbb561842	-0.0032668267
19	0x3f3f9dee	0.74850357
20	0xbcb46345	-0.022019992
21	0xbd5f9b6a	-0.054591574
22	0x3f1a7be3	0.60345286
23	0x3f2af74e	0.66783607
24	0x3f548393	0.83013266
25	0x3d30a64f	0.043127354
26	0x3ee14acb	0.44002375
27	0x3e21a676	0.15786156
28	0xbd34d7c0	-0.044151068
29	0x3f11a9e4	0.5689986
30	0xbcd91a8c	-0.026501916
31	0x3f1e05dc	0.6172769
32	0xbe837f79	-0.2568319
33	0x3f1ca7cc	0.6119354
34	0xbdeff075	-0.117157854
35	0xbd76b68b	-0.06023268
36	0x3f261021	0.6486836
37	0x3d4beffe	0.04978942
38	0x3f2cd140	0.6750679
39	0x3f46b264	0.7761595
40	0xbe99dbee	-0.30050606
41	0x3f1358c0	0.57557297
42	0xbd937e3e	-0.07201813
43	0xbe92f8a6	-0.2870533
44	0x3f611322	0.8791982
45	0x3f456630	0.7710905
46	0xbe17eef6	-0.1483725
47	0x3f4340f2	0.76270974
48	0xbd8674bd	-0.06565235
49	0x3e77a803	0.24185185
50	0x3f58817c	0.8457258
51	0x3f3aba39	0.72940403
52	0xbe1b85b6	-0.15187725
53	0xbd815acb	-0.063161455
54	0xbddeb042	-0.10873462
55	0x3f182b63	0.594412
56	0xbe000a54	-0.1250394
57	0x3f62752f	0.8846006
58	0xbe23c317	-0.1599239
59	0xbe5cf725	-0.21578653
60	0x3f492279	0.78568226
61	0xbe48ac51	-0.19596983
62	0x3f5f6cc4	0.8727534
63	0x3f1dd3fa	0.61651576

net.4.weight f4 [2, 64]
0	0xbf1857a6	-0.5950874
1	0xbdd6ea69	-0.10493929
2	0xc016f29d	-2.358558
3	0x3e251baa	0.16123834
4	0x3fb95572	1.4479201
5	0x3fd870ae	1.6909387
6	0xc049096e	-3.1412005
7	0x3f8717f7	1.0554188
8	0x3e7f793c	0.24948591
9	0x3fd9b16f	1.7007273
10	0xc097d586	-4.744815
11	0x3fb3f36f	1.4058665
12	0x3f889945	1.0671774
13	0x3fa6913f	1.3013076
14	0xc021d619	-2.5286925
15	0x3c8cfe2d	0.017211044
16	0x3d45e0b0	0.04830998
17	0x3fba74db	1.4566911
18	0x3d983dde	0.07433675
19	0x3fb9c17e	1.4512174
20	0xbd214bd7	-0.039378967
21	0xbdf9474b	-0.12171801
22	0x3fe8ab1f	1.8177222
23	0x3fc09686	1.5045936
24	0x3fd95396	1.6978633
25	0xbcb7d628	-0.022440985
26	0x3fe418b4	1.7820039
27	0xbdb40ef7	-0.08791917
28	0x3d9953fd	0.074867226
29	0x3fa4f200	1.2886353
30	0xc0f1fe6a	-7.5623064
31	0x3ff83a3e	1.9392774
32	0xc093d528	-4.61977
33	0x3f9af125	1.2104841
34	0xbfd5f6b3	-1.6715912
35	0xc02e1d7b	-2.7205493
36	0x3f9fed2e	1.2494256
37	0x3f4e6469	0.80621964
38	0x3feb652b	1.8390249
39	0x3fa278eb	1.2693151
40	0xbe8fcdb5	-0.2808663
41	0x3f7eab90	0.99480534
42	0x3ea58c1e	0.32333463
43	0xbe2108a6	-0.15725955
44	0x3e989ca1	0.29806998
45	0x3f8d4b99	1.1038696
46	0x3c343927	0.010999954
47	0x3fa54246	1.291085
48	0xbc56b2f1	-0.013104186
49	0x3f38e179	0.72219044
50	0x3f93c2dd	1.1543843
51	0x3fc14ad2	1.5100958
52	0xbd890fec	-0.0669249
53	0xc0b474a7	-5.63924
54	0xbccebca8	-0.025236443
55	0x3fb00829	1.375249
56	0xbeb7526c	-0.3580507
57	0x3faa31cc	1.3296447
58	0xbd33b458	-0.04387316
59	0xbf69753c	-0.9119451
60	0x3f38560d	0.72006303
61	0x3d125c66	0.03573265
62	0x3f7a2627	0.97714466
63	0x3f9e7aed	1.2381264
64	0x3f4e98b8	0.8070178
65	0x3cac0a9f	0.021001158
66	0xbfca4a32	-1.5803893
67	0xbe0c09a4	-0.13675553
68	0x3fbaec90	1.4603443
69	0x3fefb318	1.872653
70	0xc08b91d1	-4.36155
71	0x3f9a44c5	1.2052237
72	0xbe80254e	-0.2502846
73	0x3fc484e0	1.535305
74	0xc05953eb	-3.395747
75	0x3fb29eb2	1.395468
76	0x3fb41c75	1.4071184
77	0x3f8cbf4f	1.0995883
78	0xc04b3b1f	-3.1754835
79	0xbe0c2f24	-0.13689858
80	0x3e28257f	0.16420554
81	0x3f76761a	0.9627396
82	0xbda65806	-0.08122258
83	0x3fd7df3a	1.6864998
84	0xbc36987a	-0.011144752
85	0xbe124685	-0.14284714
86	0x3fb1b886	1.3884437
87	0x3fe51b38	1.7898932
88	0x3f4c07db	0.79699486
89	0xbe1568dd	-0.14590783
90	0x3f2526bb	0.64512223
91	0x3bff9174	0.007799322
92	0xbb919f56	-0.004444043
93	0x3fc9527b	1.5728296
94	0xc05a7692	-3.413487
95	0x3fad2a05	1.3528448
96	0xc0cc2c09	-6.3803754
97	0x3f97f4f2	1.1871626
98	0xc0514441	-3.269791
99	0xbfbc9813	-1.4733909
100	0x3ff0be98	1.8808165
101	0xbf72c9e1	-0.9483929
102	0x3f2a19cb	0.66445607
103	0x3f8ef6f7	1.1169118
104	0xc03598b8	-2.8374462
105	0x3faf52b7	1.3697118
106	0xbe53aa61	-0.20670463
107	0x3e37f6f7	0.17965303
108	0x3fc3d982	1.5300753
109	0x3f5faabc	0.87369895
110	0x3ccfef1b	0.025382569
111	0x3f986929	1.1907092
112	0xbc05e04c	-0.008171152
113	0xbf0af992	-0.54287064
114	0x3ff43c30	1.9080868
115	0x4003c3d9	2.0588286
116	0xbdf6c773	-0.12049761
117	0xc09a83f1	-4.828606
118	0x3da184de	0.078866705
119	0x3fb9763d	1.4489208
120	0x3f26ff11	0.6523295
121	0x3f453843	0.77038974
122	0x3c929955	0.01789538
123	0x3ee2aac5	0.44270912
124	0x3fe8f2b4	1.8199067
125	0x3dcbb350	0.099463105
126	0x3fba30c8	1.4546137
127	0x3fc05d66	1.5028503

net.4.bias f4 [2]
0	0x3f599f66	0.8500885
1	0x3ee306fc	0.44341266

exp_avg f4 [64, 4]
0	0xbd937259	-0.071995445
1	0xbd6b3bda	-0.057430126
2	0x3adbdb25	0.0016773684
3	0x3af6845b	0.0018807756
4	0xbcd752c6	-0.026284587
5	0xbc393d25	-0.011306082
6	0xbbaec5fd	-0.0053336606
7	0xbc6f6048	-0.014610358
8	0xbd15a443	-0.036533605
9	0xbd2597b9	-0.040427897
10	0x3abe91f4	0.0014539347
11	0x3bc6dfd3	0.0060691624
12	0xbd3cdf60	-0.046111465
13	0xbd8ba46b	-0.068184696
14	0x3aa8af23	0.0012869578
15	0x3c8a5a8a	0.016888876
16	0x80000004	-6e-45
17	0x80000004	-6e-45
18	0x80000004	-6e-45
19	0x00000004	6e-45
20	0x3cb8c98e	0.022557046
21	0x3cfce349	0.030870097
22	0x3c4b19e1	0.012396307
23	0x3d3b76c6	0.045767568
24	0x80000004	-6e-45
25	0x00000004	6e-45
26	0x00000004	6e-45
27	0x80000004	-6e-45
28	0xbd848e8f	-0.064725034
29	0xbd6f311d	-0.058396447
30	0x3bdd67eb	0.0067567728
31	0x3ca38672	0.01996157
32	0xbd21d4d5	-0.039509613
33	0xbcf2b222	-0.029625956
34	0x3a00b4f3	0.0004909776
35	0xba9755bf	-0.001154594
36	0x3cfdd444	0.030985005
37	0x3c9dbc16	0.019254725
38	0xbabce508	-0.0014411518
39	0xba36081a	-0.0006943956
40	0x3eb206a5	0.34770694
41	0x3f020a9b	0.5079743
42	0xbc29b6a5	-0.010358487
43	0xbdb3f373	-0.08786669
44	0xbdcdbf36	-0.10046236
45	0x3e186dc3	0.14885621
46	0x3c4a3c45	0.012343471
47	0x3c876614	0.016528167
48	0x3e805fda	0.2507313
49	0x3ece3ea7	0.40282175
50	0xbbbbb396	-0.0057281954
51	0xbd889ad5	-0.06670157
52	0xbd8d3711	-0.06895269
53	0xbd052168	-0.03250256
54	0xbb8d7e6d	-0.0043180496
55	0xbc8b8cd3	-0.017034924
56	0x00000004	6e-45
57	0x00000004	6e-45
58	0x00000004	6e-45
59	0x00000004	6e-45
60	0xbd31167d	-0.043234337
61	0xbd581c77	-0.05276152
62	0xbba93666	-0.0051639555
63	0xbbc64d63	-0.0060517057
64	0x3c2b4702	0.010453941
65	0xbbb02156	-0.0053750677
66	0x3b38178d	0.002809021
67	0x3ce8eabb	0.02843224
68	0x00000004	6e-45
69	0x00000004	6e-45
70	0x00000004	6e-45
71	0x80000004	-6e-45
72	0x80000004	-6e-45
73	0x80000004	-6e-45
74	0x80000004	-6e-45
75	0x80000004	-6e-45
76	0x3d82c8c0	0.06385946
77	0x3d0776c8	0.033072263
78	0xbb80e9ad	-0.0039341063
79	0xbc1641a2	-0.0091709215
80	0x00000004	6e-45
81	0x00000004	6e-45
82	0x80000004	-6e-45
83	0x80000004	-6e-45
84	0x3f40df49	0.75340706
85	0x3ecee3ab	0.40408072
86	0xbc66da6b	-0.014090161
87	0xbd49e444	-0.049289957
88	0x3d67db30	0.056605518
89	0x3bf425ad	0.0074507804
90	0x3c59eceb	0.013301115
91	0x3d8120fe	0.06305121
92	0xbcd48a49	-0.025944846
93	0xbeabd772	-0.3356281
94	0xbc8d0d7a	-0.01721834
95	0xbdebd5e2	-0.11515404
96	0xbd97e545	-0.074167766
97	0xbd875b23	-0.0660918
98	0xba1850b4	-0.00058103655
99	0xbba6630b	-0.005077725
100	0x3d2f9dad	0.04287498
101	0x3db887ce	0.09010278
102	0x38491e79	4.7950514e-05
103	0xbbddcfb4	-0.006769145
104	0x3b8417fd	0.00403118
105	0x3b6ce6fc	0.003614842
106	0xbb8387d1	-0.0040139933
107	0x3bc3f623	0.0059802695
108	0xbe32c3bb	-0.17457478
109	0xbe24cc20	-0.16093493
110	0xbc057ea4	-0.008147869
111	0x3bf014b7	0.007326688
112	0xbdd3f233	-0.1034893
113	0xbde5d532	-0.112223044
114	0xbbedbb3a	-0.007254985
115	0xbbd33b4d	-0.006446278
116	0x80000004	-6e-45
117	0x80000004	-6e-45
118	0x80000004	-6e-45
119	0x80000004	-6e-45
120	0x3da542e1	0.08069397
121	0x3da93bc6	0.08263354
122	0x3c698b06	0.014254337
123	0x3d5f0e1e	0.054456823
124	0x80000004	-6e-45
125	0x80000004	-6e-45
126	0x80000004	-6e-45
127	0x00000004	6e-45
128	0x3d386cde	0.0450257
129	0x3d8d89c6	0.06911044
130	0x3c6d60f8	0.014488451
131	0x3d658ef8	0.05604455
132	0x00000004	6e-45
133	0x00000004	6e-45
134	0x00000004	6e-45
135	0x00000004	6e-45
136	0xbdfe940d	-0.12430582
137	0xbdd1a816	-0.10237138
138	0xbc94b619	-0.018153237
139	0xbd45c6e9	-0.0482854
140	0xbd9be8d2	-0.07612766
141	0xbd913f4f	-0.07092153
142	0x3b8e1049	0.0043354374
143	0x3c135651	0.008992747
144	0xbd0d6654	-0.034521416
145	0xbd835758	-0.06413144
146	0xbb904528	-0.0044027753
147	0xbb018ef6	-0.001976905
148	0xbd631b9e	-0.05544626
149	0xbd3e76a7	-0.046499874
150	0xba099f64	-0.00052498863
151	0xbb7ed55d	-0.0038884499
152	0x80000004	-6e-45
153	0x80000004	-6e-45
154	0x00000004	6e-45
155	0x00000004	6e-45
156	0xbde99b6f	-0.114066
157	0xbdc8b794	-0.0980064
158	0x3bcdd393	0.006281325
159	0x3c2fe086	0.010734683
160	0x80000004	-6e-45
161	0x80000004	-6e-45
162	0x80000004	-6e-45
163	0x80000004	-6e-45
164	0x3e05411f	0.13013123
165	0xbca4673a	-0.020068754
166	0xbbacb107	-0.0052701267
167	0x3c2c5188	0.010517485
168	0x3d644425	0.05572905
169	0x3c3a2dfb	0.011363502
170	0x3af573c7	0.0018726521
171	0x3c8fd37b	0.017556896
172	0x80000004	-6e-45
173	0x00000004	6e-45
174	0x00000004	6e-45
175	0x80000004	-6e-45
176	0x80000004	-6e-45
177	0x80000004	-6e-45
178	0x80000004	-6e-45
179	0x80000004	-6e-45
180	0xbd25c585	-0.040471572
181	0xbd32d72c	-0.043662235
182	0x3956d525	0.00020488033
183	0xbaa61a6c	-0.0012672669
184	0x3a90418d	0.0011005864
185	0x3af08fe0	0.0018353425
186	0x38d8bbcc	0.000103346625
187	0x3986357d	0.00025598324
188	0x3e11f397	0.14253078
189	0x3ceaea6d	0.028676236
190	0xbb985e95	-0.004649947
191	0x3c08434d	0.008316827
192	0x80000004	-6e-45
193	0x80000004	-6e-45
194	0x80000004	-6e-45
195	0x80000004	-6e-45
196	0xbc191860	-0.00934419
197	0xbb909392	-0.004412123
198	0x3ba634af	0.0050721983
199	0x3ca32f7b	0.019920101
200	0xbd25da13	-0.040491175
201	0xbcd383c2	-0.025819663
202	0x3acc30e5	0.0015578537
203	0x3b31698a	0.0027070963
204	0xbd16c232	-0.036806293
205	0xbb1c055a	-0.00238069
206	0x3b54093a	0.0032354132
207	0x3be9dc01	0.007136822
208	0x00000004	6e-45
209	0x80000004	-6e-45
210	0x80000004	-6e-45
211	0x00000004	6e-45
212	0xbda18ae3	-0.07887819
213	0xbd8dc15a	-0.069216445
214	0x3b9e012b	0.0048219166
215	0x3c08c2da	0.0083472375
216	0x00000000	0.0
217	0x00000000	0.0
218	0x00000000	0.0
219	0x00000000	0.0
220	0x00000004	6e-45
221	0x80000004	-6e-45
222	0x80000004	-6e-45
223	0x00000004	6e-45
224	0x3c8667a8	0.016406849
225	0x3d53fbde	0.05175387
226	0x3a9a2589	0.0011760454
227	0xbc34ab54	-0.011027176
228	0x80000004	-6e-45
229	0x80000004	-6e-45
230	0x00000004	6e-45
231	0x00000004	6e-45
232	0x80000004	-6e-45
233	0x00000004	6e-45
234	0x00000004	6e-45
235	0x80000004	-6e-45
236	0xbce48dda	-0.027899671
237	0x3b7e39d7	0.00387918
238	0x3c147611	0.009061352
239	0x3cfa0fbb	0.030525079
240	0x00000004	6e-45
241	0x00000004	6e-45
242	0x00000004	6e-45
243	0x00000004	6e-45
244	0x00000004	6e-45
245	0x00000004	6e-45
246	0x80000004	-6e-45
247	0x80000004	-6e-45
248	0x3ce3a354	0.027787842
249	0x3d0ca633	0.034338187
250	0x3c907059	0.017631697
251	0x3d87639f	0.06610798
252	0x00000004	6e-45
253	0x80000004	-6e-45
254	0x00000004	6e-45
255	0x00000004	6e-45
