CartPole/Experiment_1/23-09-26_22-10-39-937242_DQN/checkpoints/agent_114000.pt (torch, 82603 bytes, 24 tensors)

net.0.weight f4 [64, 4]
-0.020338373 0.13686734 0.19138052 0.04790537 0.066318065 -0.073177285 0.6368075 -0.059658285
-0.12762418 0.06453437 2.2396212 0.2480766 -0.16460073 -0.68681306 -0.38387376 -0.392439
-0.08385639 -0.020568294 0.048539206 0.0027877358 0.354987 -0.1514249 -1.3828981 -0.23508751
-0.072207704 0.09872921 -0.56315696 0.094486944 -0.1056227 0.053729255 0.07597169 0.088204436
-0.0069197807 -0.01037368 0.15232454 -0.035243545 -0.1439654 0.05430353 -0.0062723076 0.16594717
-0.24693304 -0.09127741 -0.8513558 -0.0864483 0.2164786 -0.19221441 -2.4020467 -0.40846437
-0.3236717 -0.17651115 0.11343612 -0.10596121 0.18380636 0.39136127 1.059368 0.55880904
0.02682325 -0.008666424 -0.18595499 -0.021548524 -0.018621797 0.34324753 0.85693055 -0.22402108
0.2198839 0.49248198 -0.8441158 0.21820322 0.24157271 -0.031307615 -0.20753969 -0.025959723
0.048201494 -0.042485498 -0.09614151 -0.03220898 -0.2517575 -0.3747577 -0.8470018 -0.29775143
0.00798892 0.051774334 -0.5831955 0.022099908 0.40224707 0.04619694 0.32228974 0.058161516
0.0032163088 -0.15684402 -0.5415097 0.018684583 0.39650217 -0.120493956 -0.22179157 -0.07984347
-0.13326146 0.34491637 1.767956 -0.031264924 0.13584174 -0.22522886 1.5584023 0.53946
0.19430782 0.30535424 1.3313359 0.2394626 0.6221124 0.14612283 0.48468038 0.09308279
0.3494628 -0.097610794 1.4578053 0.3969262 -0.17272334 -0.3086671 -1.037136 -0.31946358
-0.014702401 0.38463104 1.7513402 0.05896635 -0.028540602 -0.020619098 0.029088806 -0.07080355
-0.030417798 0.019220244 -1.2460738 -0.23857166 -0.03519232 0.024999121 -0.05038932 0.018373393
-0.11666533 0.2505579 1.1944941 0.29869676 0.1624046 -0.0024603482 -0.047747724 0.06042729
0.2031948 -0.12977614 -2.5435493 -0.3962727 0.10959395 -0.56956935 0.8028181 -0.11242037
-0.0485909 0.06550647 -0.20835306 0.16058707 0.13078997 -0.06587598 0.004956628 0.045699093
-0.14176744 -0.047538225 -0.19337428 -0.0582252 0.5914665 -0.09543302 -1.6381637 -0.11483546
-0.2548223 0.38683134 1.6197865 0.32998222 -0.20334293 0.21558733 0.33439487 0.09775674
0.041922227 -0.027451498 -0.081361 -0.011531797 -0.25731373 0.26382953 1.7219851 0.22095113
0.2932914 -0.23585348 -2.742259 -0.47280255 0.62012154 -0.054320615 -0.7117381 -0.4280913
-0.010744704 0.04419655 -0.0015444825 0.038893793 -0.11074059 0.07619949 -0.2699266 0.08730745
-0.3298052 0.008228456 -1.0652728 -0.21167083 -0.7769568 -0.11744195 0.42644787 0.056023948
-0.10439358 0.21168445 1.2467668 0.17447309 -0.032665808 -0.006641929 0.38327757 0.06924752
0.037022855 0.015474828 -0.05165679 0.018036043 -0.20388843 0.15586315 0.77201104 0.054513495
0.37609434 0.032766484 -1.0128615 0.0795232 0.06911839 -0.08581423 -0.46286747 0.015414832
-0.029093403 0.082347564 -0.072306134 0.045801703 0.11469298 -0.1014374 -0.9880817 -0.2986705
0.11726465 -0.012468705 1.0229456 0.018535942 -0.024131887 0.01595536 -0.056990918 -0.02924141
0.22600253 -0.12424802 -1.8657541 -0.18844344 0.14592162 -0.15542117 0.39833668 -0.022458838
00000000: a99c a6bc f426 0c3e 41f9 433e 6c38 443d
00000010: c4d1 873d f9dd 95bd d105 233f 3f5c 74bd
00000020: eaaf 02be 992a 843d f455 0f40 cb07 7e3e
00000030: 188d 28be fbd2 2fbf 1a8b c4be c4ed c8be
00000040: e6bc abbd d77e a8bc 0cd1 463d 72b2 363b
00000050: dbc0 b53e 210f 1bbe ce02 b1bf c8ba 70be
00000060: a2e1 93bd 8a32 ca3d 0e2b 10bf 5f82 c13d
00000070: b750 d8bd 3513 5c3d 0c97 9b3d 87a4 b43d
00000080: 54bf e2bb 5ef6 29bc f7fa 1b3e 895b 10bd
00000090: aa6b 13be 616d 5e3d ee87 cdbb 0eee 293e
000000a0: 04dc 7cbe a7ef babd 74f2 59bf ce0b b1bd
000000b0: 91ac 5d3e dbd3 44be 22bb 19c0 3e22 d1be
000000c0: 4cb8 a5be 57bf 34be 3251 e83d 3102 d9bd
000000d0: bc37 3c3e 8160 c83e 5f99 873f 1c0e 0f3f
000000e0: 6fbc db3c 9efd 0dbc fc6a 3ebe 8886 b0bc
000000f0: bd8c 98bc 24be af3e cd5f 5b3f c865 65be
00000100: 3f29 613e 9926 fc3e f917 58bf aa70 5f3e
00000110: d65e 773e 6a3c 00bd 4985 54be 7ca9 d4bc
00000120: ee6e 453d 4605 2ebd d7e5 c4bd 90ed 03bd
00000130: 5ce6 80be 3ee0 bfbe 1cd5 58bf e072 98be
00000140: f6e3 023c 5311 543d 4d4c 15bf de0a b53c
00000150: 54f3 cd3e 0139 3d3d 2903 a53e c53a 6e3d
00000160: b5c8 523b b89b 20be 61a0 0abf 6910 993c
00000170: 5502 cb3e 89c5 f6bd 541d 63be f984 a3bd
00000180: b175 08be e198 b03e 624c e23f a60f 00bd
00000190: 191a 0b3e 65a2 66be ba79 c73f 0d1a 0a3f
000001a0: a1f8 463e 6457 9c3e 3769 aa3f af35 753e
000001b0: c242 1f3f 39a1 153e 0728 f83e 31a2 be3d
000001c0: caec b23e 2be8 c7bd 5d99 ba3f e939 cb3e
000001d0: 63de 30be 9d09 9ebe dfc0 84bf bb90 a3be
000001e0: 57e2 70bc 5cee c43e ea2b e03f b386 713d
000001f0: fbcd e9bc 62e9 a8bc a64b ee3c 7401 91bd
00000200: bf2e f9bc c673 9d3c 597f 9fbf 214c 74be
00000210: d225 10bd f5ca cc3c 0865 4ebd cc83 963c
00000220: 3cee eebd 2049 803e 2fe5 983f c8ee 983e
00000230: 644d 263e cb3d 21bb 1e93 43bd 9b82 773d
00000240: 4c12 503e 09e4 04be 83c9 22c0 41e4 cabe
00000250: cb72 e03d 4ccf 11bf 7d85 4d3f a73c e6bd
00000260: 4007 47bd 4228 863d 815a 55be f070 243e
00000270: ceed 053e fce9 86bd 366b a23b f92e 3b3d
00000280: 7c2b 11be 71b7 42bd e803 46be 8c7d 6ebd
00000290: 596a 173f 6372 c3bd 59af d1bf db2e ebbd
000002a0: 1278 82be c20e c63e 2a55 cf3f 6ef3 a83e
000002b0: 2139 50be edc2 5c3e ce35 ab3e b034 c83d
000002c0: a4b6 2b3d f7e1 e0bc 99a0 a6bd ddef 3cbc
000002d0: a0be 83be aa14 873e 026a dc3f 0341 623e
000002e0: 4a2a 963e 9383 71be 2c81 2fc0 2d13 f2be
000002f0: 49c0 1e3f 4b7f 5ebd 7834 36bf c82e dbbe
00000300: 8e0a 30bc 7107 353d 3c70 caba 194f 1f3d
00000310: f6cb e2bd 7a0e 9c3d d233 8abe 40ce b23d
00000320: 3adc a8be a5d0 063c dc5a 88bf 3dc0 58be
00000330: a4e6 46bf 6885 f0bd 6057 da3e 5e79 653d
00000340: 4dcc d5bd cfc3 583e 0e96 9f3f 13a9 323e
00000350: 95cc 05bd 8aa4 d9bb f53c c43e a5d1 8d3d
00000360: 47a5 173d 228a 7d3c 1296 53bd 53c0 933c
00000370: 21c8 50be 979a 1f3e 84a2 453f 8b49 5f3d
00000380: 708f c03e 2636 063d 72a5 81bf 0fdd a23d
00000390: f18d 8d3d 5fbf afbd f7fc ecbe 7e8e 7c3c
000003a0: 4a55 eebc d7a5 a83d 3d15 94bd 919a 3b3d
000003b0: 27e4 ea3d 69be cfbd ecf2 7cbf 57eb 98be
000003c0: 7328 f03d 8a49 4cbc e2ef 823f b0d8 973c
000003d0: 3cb0 c5bc d1b4 823c 4f6f 69bd ae8b efbc
000003e0: 356d 673e bf75 febd 08d1 eebf 51f7 40be
000003f0: 7a6c 153e ba26 1fbe c9f2 cb3e 99fb b7bc

net.0.bias f4 [64]
0.42339638 0.02437882 -0.5375157 -0.22880338 -0.29673266 0.3323952 -0.15949199 0.54806894
0.32231298 -0.44561577 -0.39518282 -0.4284084 -0.53279847 -0.06811801 -0.14654225 0.083834864
-0.22280295 -0.4857451 -0.08980318 -0.1449117 -0.45058304 -0.82697755 0.06712878 -0.74702036
0.37069175 -0.26246503 -0.49753755 -0.6581128 -0.22667834 -0.46011347 -0.13095133 -0.2623621
0.4491211 -0.16845371 -0.50605655 0.48081914 0.304634 0.38338277 -0.2995464 0.64849377
-0.55760485 -0.3517538 0.39183122 -0.39549834 -0.15146525 0.41705656 -0.48262665 -0.44365266
-0.12357267 0.3791475 0.5625064 -0.34438127 -0.4722501 0.53046423 -0.28821346 -0.39656678
0.09011506 -0.43010047 -0.14020263 0.42604828 -0.5220763 -0.1879339 0.37762794 -0.37919888
00000000: 69c7 d83e 17b6 c73c a19a 09bf 6f4b 6abe
00000010: 58ed 97be b42f aa3e de51 23be 3f4e 0c3f
00000020: 3506 a53e c027 e4be 6755 cabe 5958 dbbe
00000030: 7b65 08bf 7581 8bbd 2c0f 16be 9db1 ab3d
00000040: 7526 64be 95b3 f8be bbea b7bd bc63 14be
00000050: d2b2 e6be cdb4 53bf d07a 893d ba3c 3fbf
00000060: 4fcb bd3e d161 86be 3ebd febe 157a 28bf
00000070: 5e1e 68be fe93 ebbe 1b18 06be 5354 86be
00000080: 33f3 e53e 217f 2cbe ec8c 01bf ed2d f63e
00000090: fdf8 9b3e bf4a c43e 255e 99be b003 263f
000000a0: 31bf 0ebf 1319 b4be 1a9e c83e c27e cabe
000000b0: b519 1bbe 7088 d53e d71a f7be 7126 e3be
000000c0: ab13 fdbd 9f1f c23e 6b00 103f be52 b0be
000000d0: c4ca f1be 81cc 073f b790 93be cd0a cbbe
000000e0: 3f8e b83d 2136 dcbe 4791 0fbe 0023 da3e
000000f0: cba6 05bf bf71 40be 7358 c13e 5b26 c2be

net.2.weight f4 [64, 64]
-0.18774211 -0.17229062 0.4175053 0.12041561 0.025860975 -0.1586354 -0.49164233 -0.27799696
-0.104638375 0.041631352 -0.045645013 -0.256905 -0.28458762 -0.05892125 -0.16932398 -0.10374381
-0.068905205 -0.572667 -0.15083928 -0.22377665 0.0015980221 0.07134684 -0.6502472 -0.8274642
0.23111497 -0.47951734 0.6229145 0.2406443 -0.4594195 -0.0012380277 0.089299016 0.13166706
-0.6527404 0.07165936 -0.31353188 0.05354787 -0.11750436 -0.08049068 -0.22609107 -0.20427346
0.0771422 -0.25749597 0.013850371 -0.14283413 0.032602597 0.5082071 0.07274054 0.07265685
-0.054143187 -0.16465238 -0.10664909 -0.493366 -0.09880707 -0.13739906 0.108545355 0.123713195
-0.044930216 -0.4356222 -0.004822993 -0.5097989 1.5351144 -0.009862494 -0.22889304 0.4478578
0.09366082 0.11601875 -0.20061609 0.19812562 0.012940978 0.058353093 -0.003886217 -0.15345143
-0.14806084 -0.011613441 -0.08755711 -0.09203189 0.11492277 -0.08927897 0.044355012 -0.12404926
0.048947744 0.036682203 -0.048588973 -0.13937981 -0.06758729 -0.03584855 -0.0059217573 -0.14797428
-0.07413755 0.0523679 0.16322944 -0.16346876 -0.08944527 -0.08364359 -0.05889894 -0.051157713
-0.17763756 0.0232781 -0.058773264 -0.0371661 -0.21427932 0.16839968 0.24844272 -0.21916829
-0.009869558 -0.057510775 -0.0718202 0.022835836 0.09274187 -0.0025562812 -0.17238577 -0.18070182
0.19361883 -0.16435985 -0.13248888 -0.052633677 -0.034358826 -0.014575675 0.14186065 -0.07543046
-0.20120208 -0.06164392 0.19217385 0.10707294 0.14705963 -0.10375487 -0.20471767 0.095685154
-0.19114982 -0.69658846 -0.3528636 -0.9271115 -0.09196377 -0.59392536 0.06125778 -0.15997998
-0.16857265 0.72599685 2.532238 -0.43442154 1.3446218 -0.76564986 0.11287838 -0.3590749
-0.27295488 -0.04728055 0.015775105 -0.44514647 -0.4139307 -0.08929198 -0.27331296 0.65148807
-0.3795439 0.04013762 0.53535783 -0.16320513 0.010712436 0.11826578 -0.6897622 0.059315152
-0.29680598 0.14905906 0.13252677 -0.47555414 0.63269585 -0.20098346 0.32524985 -0.15405366
1.2815872 0.9335711 -0.077453285 -0.06467134 0.07529325 -0.32120308 0.29311278 -0.2238455
-0.10339166 0.045863174 -0.79492766 0.855639 0.16352463 -0.137303 -0.034593474 -0.48476937
-1.0617425 -0.2861718 -0.071572475 -0.88533145 0.6874082 -0.060106516 -0.8427449 0.33890635
-0.026352093 0.060110178 -0.05137488 0.053709447 -0.09235129 -0.03643665 0.0295707 -0.10574179
-0.08976323 -0.063362956 -0.014516237 -0.0122992275 0.10494279 -0.09030105 -0.110042036 0.009613962
0.02576116 -0.09252936 0.11938044 -0.17810327 -0.0348841 -0.053519167 0.024502046 -0.084581904
-0.2072215 0.042651437 -0.044341054 0.06742796 0.15460575 0.017775748 0.029815016 -0.12432118
-0.03056374 0.25245893 0.008007982 -0.21012884 -0.051550504 -0.11973347 -0.04103769 -0.17597046
-0.02778625 0.052191466 -0.009953035 -0.07509329 0.0034892638 -0.044998974 -0.05800569 0.07051115
0.22355683 -0.04667857 -0.09311021 -0.1372804 -0.06060417 0.036329653 -0.028925616 -0.0037011318
-0.0026265222 -0.06386637 -0.05734097 -0.15027995 -0.043272898 0.0032300928 0.10984304 0.08271979
00000000: 783f 40be f46c 30be 41c3 d53e 769c f63d
00000010: 65da d33c 5171 22be 8bb8 fbbe 9e55 8ebe
00000020: a54c d6bd a385 2a3d 44f6 3abd 0d89 83be
00000030: 78b5 91be 6957 71bd 4463 2dbe a277 d4bd
00000040: 2c1e 8dbd 4e9a 12bf 9d75 1abe b525 65be
00000050: b974 d13a 4b1e 923d 9a76 26bf b2d4 53bf
00000060: 67a9 6c3e 4c83 f5be 5377 1f3f 766b 763e
00000070: 0839 ebbe 5145 a2ba 67e2 b63d bbd3 063e
00000080: ff19 27bf 24c2 923d 4087 a0be 0355 5b3d
00000090: 20a6 f0bd 4cd8 a4bd 6b84 67be 102d 51be
000000a0: bbfc 9d3d 83d6 83be abec 623c 1c43 12be
000000b0: 4d8a 053d dc19 023f fef8 943d 1dcd 943d
000000c0: 3fc5 5dbd a29a 28be d76a dabd 789a fcbe
000000d0: 5c5b cabd 57b2 0cbe 074d de3d 585d fd3d
000000e0: bf08 38bd df09 dfbe 330a 9ebb 2e82 02bf
000000f0: a17e c43f 4c96 21bc f062 6abe 9e4d e53e
00000100: 3ed1 bf3d 3d9b ed3d 4e6e 4dbe 71e1 4a3e
00000110: 6506 543c a703 6f3d e7af 7ebb 5f22 1dbe
00000120: 439d 17be 4d46 3ebc 2451 b3bd 377b bcbd
00000130: a15c eb3d e5d7 b6bd 9aad 353d 8a0d febd
00000140: 6e7d 483d 1440 163d 3b05 47bd 95b9 0ebe
00000150: 356b 8abd eed5 12bd 4d0b c2bb 9286 17be
00000160: 6ed5 97bd b97f 563d 9e25 273e 5b64 27be
00000170: 152f b7bd 554d abbd 0440 71bd c08a 51bd
00000180: 9fe6 35be b7b1 be3c 3cbc 70bd 7b3b 18bd
00000190: 0a6c 5bbe f770 2c3e c567 7e3e a76d 60be
000001a0: edb3 21bc 6b90 6bbd 7816 93bd 3812 bb3c
000001b0: 73ef bd3d 4887 27bb e585 30be e609 39be
000001c0: 0444 463e f34d 28be 2aab 07be 6996 57bd
000001d0: d7bb 0cbd d0ce 6ebc eb43 113e 497b 9abd
000001e0: eb07 4ebe 567e 7cbd 39c9 443e 0f49 db3d
000001f0: cd96 163e 6f7d d4bd 82a1 51be 94f6 c33d
00000200: c7bc 43be 9f53 32bf 8aaa b4be 2e57 6dbf
00000210: 8057 bcbd 7e0b 18bf 70e9 7a3d cbd1 23be
00000220: 4f9e 2cbe eeda 393f 3010 2240 806c debe
00000230: 911c ac3f a101 44bf c82c e73d aad8 b7be
00000240: bec0 8bbe 40a9 41bd cb3a 813c 3dea e3be
00000250: baee d3be b7de b6bd adef 8bbe ecc7 263f
00000260: 9453 c2be 5867 243d 360d 093f 3f1f 27be
00000270: 3783 2f3c 5435 f23d 4194 30bf 72f4 723d
00000280: f4f6 97be f0a2 183e 19b5 073e d57b f3be
00000290: 5bf8 213f 9cce 4dbe 2687 a63e 3ec0 1dbe
000002a0: 0d0b a43f 84fe 6e3f d49f 9ebd 6872 84bd
000002b0: 5933 9a3d bb74 a4be e112 963e c137 65be
000002c0: 02bf d3bd 06db 3b3d 6180 4bbf 280b 5b3f
000002d0: 0073 273e 2899 0cbe e3b1 0dbd b133 f8be
000002e0: 2ee7 87bf 1c85 92be 9794 92bd 15a5 62bf
000002f0: fcf9 2f3f 4032 76bd 21be 57bf 2285 ad3e
00000300: 58e0 d7bc 1736 763d 776e 52bd 70fe 5b3d
00000310: ac22 bdbd 993e 15bd 413e f23c 278f d8bd
00000320: c9d5 b7bd 70c4 81bd 83d5 6dbc b382 49bc
00000330: 3fec d63d c2ef b8bd b85d e1bd e183 1d3c
00000340: 1109 d33c 0880 bdbd bb7d f43d b460 36be
00000350: a1e2 0ebd ea36 5bbd 84b8 c83c 4739 adbd
00000360: df31 54be 46b3 2e3d f79e 35bd ac17 8a3d
00000370: f850 1e3e 729e 913c 9f3e f43c 1a9c febd
00000380: cf60 fabc 4c42 813e e933 033c 042c 57be
00000390: 9f26 53bd d236 f5bd 2317 28bd 9a31 34be
000003a0: fd9f e3bc b8c6 553d 0e12 23bc 83ca 99bd
000003b0: 22ac 643b d850 38bd 6097 6dbd 2668 903d
000003c0: 15ec 643e 0732 3fbd 91b0 bebd 3c93 0cbe
000003d0: 143c 78bd 67ce 143d 6af5 ecbc b08e 72bb
000003e0: bb21 2cbb 5fcc 82bd 5dde 6abd fde2 19be
000003f0: ec3e 31bd f7af 533b 63f5 e03d fe68 a93d

net.2.bias f4 [64]
-0.13802075 0.06387478 -0.24542946 -0.10025094 0.5913509 0.62716824 -0.25205234 0.55083746
-0.13666475 0.75626063 0.20480607 0.5084345 0.6335046 0.5527214 -0.36386073 0.0759189
-0.15495951 0.538998 -0.0032668354 0.61896783 0.009722281 -0.05459223 0.6258499 0.49564812
0.7238279 0.04312714 0.35848367 0.15786001 -0.04415113 0.48197198 -0.04558623 0.62451905
-0.124966115 0.5403953 0.028297365 -0.0559136 0.5778213 -0.07622966 0.5279563 0.6674824
-0.30050722 0.47419024 -0.07201812 -0.23943453 0.7690811 0.6593115 -0.14837283 0.64365274
-0.06565319 0.18358162 0.6916338 0.63019186 -0.15187807 -0.029479813 -0.10873567 0.5483637
0.19514215 0.79589516 -0.13788843 -0.104109205 0.6241754 -0.19597247 0.7420899 0.50416934
00000000: 5055 0dbe c8d0 823d dc51 7bbe 5d50 cdbd
00000010: c662 173f 198e 203f 010d 81be af03 0d3f
00000020: d8f1 0bbe 4c9a 413f afb8 513e c328 023f
00000030: 5c2d 223f 267f 0d3f f44b babe 5e7b 9b3d
00000040: b5ad 1ebe c6fb 093f 6718 56bb ad74 1e3f
00000050: 344a 1f3c 1a9c 5fbd b337 203f 97c5 fd3e
00000060: c94c 393f 15a6 303d 2c8b b73e 0ea6 213e
00000070: d1d7 34bd 08c5 f63e a0b8 3abd 7be0 1f3f
00000080: 3cee ffbd 5957 0a3f e0cf e73c a905 65bd
00000090: 19ec 133f 4c1e 9cbd 2528 073f 20e0 2a3f
000000a0: 15dc 99be 10c9 f23e 3c7e 93bd 532e 75be
000000b0: 80e2 443f a3c8 283f 0cef 17be 6dc6 243f
000000c0: 2e75 86bd d2fc 3b3e ea0e 313f 4154 213f
000000d0: ed85 1bbe a67f f1bc cfb0 debd 9061 0c3f
000000e0: 58d3 473e c9bf 4b3f a032 0dbe 3537 d5bd
000000f0: f6c9 1f3f 02ad 48be 9bf9 3d3f 3e11 013f

net.4.weight f4 [2, 64]
-0.59509045 -0.10493792 -2.35854 0.16123834 1.2745264 1.4997233 -3.1693966 1.0849005
0.24948765 1.515976 -4.323442 1.2852397 0.79666066 1.2603828 -2.9987729 0.017211234
0.048309613 1.0969657 0.07433747 1.5187773 -0.039378945 -0.121716924 1.122911 1.5079895
1.6635886 -0.022441203 1.3782486 -0.08791899 0.074865706 1.420357 -5.2079186 1.3152645
-4.7971787 0.95942867 -3.293785 -2.7458327 1.2043716 0.21101311 1.4709371 1.180177
-0.28086624 0.97594863 0.32333392 -0.3304722 0.2079782 1.0958866 0.01099979 1.2003431
-0.01310399 0.62640905 1.2938977 1.400566 -0.06692429 -3.6455941 -0.025236353 1.1880206
-0.37804422 1.2880249 -0.0048479703 -0.07687066 0.9033609 0.03573293 0.8735165 1.2621098
0.8070111 0.021001467 -1.5844777 -0.1367548 1.5713979 1.4363924 -4.464049 0.93226296
-0.25028026 1.6063564 -2.9075825 1.1417474 1.5049858 0.85961443 -3.7772675 -0.13689707
0.16420554 1.3728529 -0.081221916 1.4068867 0.020490913 -0.14284658 1.5763338 1.6036187
0.6195794 -0.1459074 1.1504297 0.0077993246 -0.0044440418 1.2420932 -2.7466674 1.7237048
-6.43515 1.3398883 -2.7109597 -1.4846771 1.6031785 0.060121667 1.1213708 0.8541229
-2.8374476 1.0967329 -0.2067038 0.23252301 1.3797781 0.6427623 0.025382569 1.014492
-0.008171068 -0.505173 1.6006615 1.9722965 -0.120496064 -3.6187682 0.07886565 1.3786786
0.54830223 0.5463074 0.049574915 0.003975174 1.6258692 0.09946249 1.3628237 1.1772134
00000000: d957 18bf b1e9 d6bd 52f2 16c0 aa1b 253e
00000010: ae23 a33f eff6 bf3f 65d7 4ac0 05de 8a3f
00000020: b179 7f3e 800b c23f a359 8ac0 bc82 a43f
00000030: f4f1 4b3f 3954 a13f e5eb 3fc0 93fe 8c3c
00000040: 4de0 453d 5f69 8c3f 3e3e 983d 4b67 c23f
00000050: d14b 21bd b946 f9bd 8cbb 8f3f cd05 c13f
00000060: 79f0 d43f 9dd6 b7bc 736a b03f df0e b4bd
00000070: 3153 993d 42ce b53f 45a7 a6c0 965a a83f
00000080: 7d82 99c0 1e9d 753f 60cd 52c0 b9bb 2fc0
00000090: d928 9a3f d213 583e ab47 bc3f 0a10 973f
000000a0: b3cd 8fbe c5d7 793f 068c a53e a733 a9be
000000b0: 3df8 543e 0346 8c3f 7738 343c d8a4 993f
000000c0: 1eb2 56bc 585c 203f 719e a53f bf45 b33f
000000d0: 9a0f 89bd 6a51 69c0 78bc cebc 0f11 983f
000000e0: 038f c1be 00de a43f b9db 9ebb 5d6e 9dbd
000000f0: a942 673f b15c 123d c79e 5f3f d08c a13f
00000100: 4898 4e3f 450b ac3c 2ad0 cabf 7309 0cbe
00000110: 9123 c93f b5db b73f 7dd9 8ec0 c9a8 6e3f
00000120: bc24 80be 169d cd3f d515 3ac0 c724 923f
00000130: 60a3 c03f b10f 5c3f c0be 71c0 bf2e 0cbe
00000140: 7f25 283e a5b9 af3f ad57 a6bd dd14 b43f
00000150: 8fdc a73c 6046 12be 4ec5 c93f 6143 cd3f
00000160: c19c 1e3f c068 15be 4841 933f 7a91 ff3b
00000170: 539f 91bb e9fc 9e3f 66c9 2fc0 5ca2 dc3f
00000180: c0ec cdc0 7681 ab3f 5d80 2dc0 e609 bebf
00000190: f434 cd3f 2342 763d 1489 8f3f cca7 5a3f
000001a0: be98 35c0 be61 8c3f 29aa 53be 831a 6e3e
000001b0: 929c b03f 128c 243f 1bef cf3c e0da 813f
000001c0: f1df 05bc 0553 01bf 7ae2 cc3f 3674 fc3f
000001d0: a4c6 f6bd e699 67c0 5084 a13d 8a78 b03f
000001e0: 895d 0c3f cdda 0b3f 110f 4b3d 2d42 823b
000001f0: 7b1c d03f fdb2 cb3d 0271 ae3f eeae 963f

net.4.bias f4 [2]
0.7290898 0.31997225
00000000: a1a5 3a3f 67d3 a33e

net.0.weight f4 [64, 4]
-0.02293149 0.13474701 0.1851763 0.048061796 0.10406376 -0.06286902 0.6227784 -0.027717933
-0.14406592 0.092318706 2.2702036 0.24317792 -0.16580671 -0.6871313 -0.38255978 -0.39229038
-0.083857104 -0.02056865 0.04853872 0.0027877537 0.34024614 -0.14874607 -1.3238631 -0.23437168
-0.07220738 0.09872997 -0.56315124 0.09448761 -0.11004812 0.052363895 0.07076225 0.08434869
-0.008257197 -0.013544362 0.15262167 -0.028981386 -0.1439677 0.054303236 -0.0062722308 0.16594695
-0.24693185 -0.09127789 -0.85135186 -0.08644694 0.19139946 -0.19658801 -2.320941 -0.40456554
-0.32366845 -0.1765089 0.11343743 -0.10596003 0.19081631 0.40513238 1.0252093 0.46216628
0.026823418 -0.008666431 -0.18595326 -0.021548405 -0.006208424 0.33507112 0.84191847 -0.19185406
0.22488402 0.49118847 -0.86235505 0.23484357 0.24275844 -0.030012345 -0.20631026 -0.025410088
0.048201207 -0.042485856 -0.09614164 -0.03220852 -0.25068292 -0.37547112 -0.85092956 -0.29800168
0.007988986 0.051774506 -0.5832022 0.022099748 0.3980545 0.04334054 0.31952986 0.046226356
-0.08045341 -0.18436298 -0.5326415 0.041854084 0.39650536 -0.120493144 -0.22179356 -0.07984274
-0.11816657 0.3455129 1.7461605 -0.023882708 0.11172996 -0.19059512 1.3995758 0.48887667
0.18856475 0.30255044 1.3361303 0.23855542 0.61785495 0.1427709 0.47282544 0.08362095
0.35991332 -0.09169496 1.4044435 0.38537294 -0.172724 -0.30866593 -1.0371338 -0.31946036
0.007731118 0.40201196 1.6383673 0.004544822 -0.028540779 -0.020619314 0.029088771 -0.0708022
-0.03990953 0.0072502424 -1.2399765 -0.22816953 -0.035191737 0.024999514 -0.050388698 0.018373707
-0.11893048 0.24663201 1.1828827 0.27938938 0.16084719 -0.0020217255 -0.05472135 0.05662453
0.17786825 -0.14878641 -2.5482132 -0.38167378 0.117584445 -0.58213514 0.8310255 -0.14308387
-0.048591614 0.06550632 -0.20835271 0.16058847 0.12759838 -0.066887535 0.001074984 0.043404836
-0.14176829 -0.047538847 -0.19337702 -0.058225967 0.59012675 -0.09634514 -1.6408142 -0.12293604
-0.24212883 0.39812306 1.5964146 0.3167719 -0.20334591 0.2155887 0.33439726 0.09775544
0.04192185 -0.027451877 -0.08136116 -0.011531926 -0.25296348 0.26517484 1.6996876 0.21654521
0.2594024 -0.25023228 -2.6516669 -0.4582978 0.60827094 -0.08331245 -0.6278841 -0.41048974
-0.010744772 0.044196516 -0.0015444951 0.038893186 -0.116310164 0.071391106 -0.270064 0.08969728
-0.33486366 0.01615826 -1.0087414 -0.22596672 -0.77737176 -0.11828502 0.4313828 0.056244306
-0.11046623 0.2046865 1.2342861 0.16585527 -0.035855677 -0.007048039 0.37463582 0.06507199
0.037022855 0.015474828 -0.05165679 0.018036043 -0.20388833 0.15586479 0.77201796 0.054513343
0.3690465 0.027063446 -1.0044671 0.08535673 0.06911836 -0.08581512 -0.4628633 0.015414986
-0.029093241 0.08234911 -0.072305724 0.045802113 0.1081233 -0.109796025 -0.9862389 -0.2916281
0.117265545 -0.012468652 1.0229478 0.01853613 -0.024131896 0.01595562 -0.056990664 -0.029241506
0.20760205 -0.1317987 -1.7971721 -0.17712238 0.14592274 -0.15542075 0.39834118 -0.022458494
00000000: d2da bbbc 1ffb 093e db9e 3d3e 72dc 443d
00000010: 611f d53d 79c1 80bd 686e 1f3f b810 e3bc
00000020: 0486 13be 9711 bd3d 044b 1140 a203 793e
00000030: 3cc9 29be d6e7 2fbf e0de c3be 49da c8be
00000040: 46bd abbd 967f a8bc 89d0 463d bfb2 363b
00000050: be34 ae3e e450 18be 5974 a9bf 21ff 6fbe
00000060: 76e1 93bd f032 ca3d ae2a 10bf b882 c13d
00000070: e960 e1bd 867b 563d cceb 903d 02bf ac3d
00000080: 3249 07bc 2ce9 5dbc db48 1c3e 5f6a edbc
00000090: 456c 13be 126d 5e3d 4987 cdbb ffed 293e
000000a0: b4db 7cbe e7ef babd 32f2 59bf 180b b1bd
000000b0: 38fe 433e 5e4e 49be 4c8a 14c0 3723 cfbe
000000c0: dfb7 a5be c0be 34be e251 e83d 9201 d9bd
000000d0: 5a65 433e 836d cf3e 0f3a 833f 0fa1 ec3e
000000e0: c9bc db3c a5fd 0dbc 886a 3ebe 4886 b0bc
000000f0: 0970 cbbb 718e ab3e f887 573f 6475 44be
00000100: ff47 663e 0e7d fb3e 4dc3 5cbf d57a 703e
00000110: ab95 783e 73dc f5bc ff42 53be d128 d0bc
00000120: a16e 453d a605 2ebd e8e5 c4bd 15ed 03bd
00000130: 8359 80be c03d c0be 85d6 59bf ad93 98be
00000140: 3ce4 023c 8111 543d bd4c 15bf 880a b53c
00000150: cdcd cb3e da85 313d 6b99 a33e d957 3d3d
00000160: c2c4 a4bd a6c9 3cbe 315b 08bf 306f 2b3d
00000170: c002 cb3e 1cc5 f6bd da1d 63be 9784 a3bd
00000180: 5101 f2bd 11e7 b03e 3082 df3f aba5 c3bc
00000190: add2 e43d 5e2b 43be 4d25 b33f 0b4e fa3e
000001a0: 1e17 413e e4e7 9a3e 5106 ab3f df47 743e
000001b0: be2b 1e3f 8932 123e 2d16 f23e 7641 ab3d
000001c0: 8f46 b83e 91ca bbbd cec4 b33f 9a4f c53e
000001d0: 8fde 30be 7609 9ebe cdc0 84bf 4f90 a3be
000001e0: 5155 fd3b 83d4 cd3e 05b6 d13f bbec 943b
000001f0: 5ace e9bc d6e9 a8bc 934b ee3c be00 91bd
00000200: 2d78 23bd 7193 ed3b 8db7 9ebf 46a5 69be
00000210: 3625 10bd c8cb cc3c 6164 4ebd 7584 963c
00000220: d391 f3bd 1a8d 7c3e b368 973f 200c 8f3e
00000230: 20b5 243e ed7e 04bb 7f23 60bd 20ef 673d
00000240: 1823 363e 775b 18be ed15 23c0 bf6a c3be
00000250: 1dd0 f03d cf06 15bf 16be 543f 9484 12be
00000260: 0008 47bd 2d28 863d 6a5a 55be 4e71 243e
00000270: 26a9 023e 55fc 88bd 7ae6 8c3a 45c9 313d
00000280: b52b 11be 18b8 42bd a004 46be 5a7e 6ebd
00000290: 8c12 173f 9a50 c5bd 3306 d2bf e4c5 fbbd
000002a0: 9ff0 77be c9d6 cb3e 5057 cc3f ed2f a23e
000002b0: e939 50be 49c3 5c3e 1e36 ab3e 0134 c83d
000002c0: 3fb6 2b3d c2e2 e0bc aea0 a6bd 67f0 3cbc
000002d0: 6e84 81be ffc4 873e 5d8f d93f 07be 5d3e
000002e0: 64d0 843e 721e 80be e9b4 29c0 02a6 eabe
000002f0: a5b7 1b3f b89f aabd 03bd 20bf b62b d2be
00000300: d70a 30bc 6807 353d a870 caba 764e 1f3d
00000310: 0634 eebd 8035 923d d445 8abe 35b3 b73d
00000320: 4073 abbe 545e 843c 701e 81bf d263 67be
00000330: d601 47bf 6b3f f2bd 35de dc3e 6e60 663d
00000340: 1e3c e2bd 5699 513e 16fd 9d3f f7d5 293e
00000350: 67dd 12bd 3df3 e6bb 44d0 bf3e 7744 853d
00000360: 47a5 173d 228a 7d3c 1296 53bd 53c0 933c
00000370: 1ac8 50be 059b 1f3e f8a2 453f 6249 5f3d
00000380: aaf3 bc3e 29b4 dd3c 6192 80bf 82cf ae3d
00000390: ed8d 8d3d d6bf afbd 6bfc ecbe 238f 7c3c
000003a0: f354 eebc a6a6 a83d 0615 94bd ff9a 3b3d
000003b0: c06f dd3d bddc e0bd 277a 7cbf 4750 95be
000003c0: eb28 f03d 5149 4cbc f4ef 823f 15d9 973c
000003d0: 41b0 c5bc 5cb5 823c 0b6f 69bd e28b efbc
000003e0: a295 543e 3df6 06be bc09 e6bf 925f 35be
000003f0: c56c 153e 9e26 1fbe 60f3 cb3e e0fa b7bc

net.0.bias f4 [64]
0.4234103 0.051323686 -0.5152966 -0.22806685 -0.29672712 0.34711134 -0.15949176 0.5482494
0.32391074 -0.4456137 -0.39518216 -0.43970892 -0.5327886 -0.09013603 -0.14653966 0.09891381
-0.19738464 -0.48456883 -0.08980268 -0.14524202 -0.45057878 -0.8279152 0.10093882 -0.74701977
0.3856073 -0.3164897 -0.49961248 -0.6616163 -0.2402293 -0.46010956 -0.19269376 -0.26235905
0.44357783 -0.16845332 -0.5063494 0.48153076 0.31683692 0.31853163 -0.29954642 0.64804035
-0.557596 -0.35100242 0.41010544 -0.39549807 -0.151463 0.42544854 -0.50425345 -0.48202527
-0.12357172 0.37840724 0.54032356 -0.3438801 -0.47860852 0.5306488 -0.28821346 -0.396565
0.08810047 -0.4300986 -0.14020069 0.41832033 -0.52207166 -0.18793215 0.39767686 -0.3791962
00000000: 3cc9 d83e c938 523d 7aea 03bf 5b8a 69be
00000010: 9eec 97be 94b8 b13e cf51 23be 135a 0c3f
00000020: a1d7 a53e 7b27 e4be 5155 cabe 8721 e1be
00000030: d564 08bf 3d99 b8bd 7e0e 16be 5393 ca3d
00000040: 331f 4abe 6819 f8be 78ea b7bd 53ba 14be
00000050: 43b2 e6be 40f2 53bf 03b9 ce3d b03c 3fbf
00000060: 526e c53e f00a a2be 35cd ffbe b05f 29bf
00000070: abfe 75be 7b93 ebbe 8351 45be ed53 86be
00000080: a21c e33e 077f 2cbe 1da0 01bf 338b f63e
00000090: 7338 a23e 9416 a33e 265e 99be f9e5 253f
000000a0: 9dbe 0ebf 97b6 b3be 57f9 d13e b97e cabe
000000b0: 1e19 1bbe 64d4 d93e c116 01bf 04cc f6be
000000c0: 2c13 fdbd 98be c13e a552 0a3f 0d11 b0be
000000d0: 2d0c f5be 9ad8 073f b790 93be 910a cbbe
000000e0: 056e b43d e235 dcbe c590 0fbe 152e d63e
000000f0: 7da6 05bf 4971 40be 4d9c cb3e 0126 c2be

net.2.weight f4 [64, 64]
-0.18774141 -0.1722889 0.41750413 0.12041714 0.025860975 -0.15863346 -0.49164045 -0.27799335
-0.10463829 0.041631278 -0.04564565 -0.25690523 -0.28458565 -0.058921855 -0.16932355 -0.10374273
-0.06890379 -0.57266414 -0.15083928 -0.2237784 0.0015980463 0.07134757 -0.6502456 -0.8274623
0.23111573 -0.47951686 0.6229227 0.24064653 -0.45941815 -0.0012380277 0.089300506 0.13166706
-0.6527371 0.07165936 -0.3135297 0.05354849 -0.11750397 -0.08048945 -0.22609107 -0.20427278
0.07714115 -0.2574953 0.013850549 -0.14283521 0.032602597 0.5082195 0.07274083 0.072657384
-0.054143187 -0.16465054 -0.10664846 -0.49336302 -0.09880597 -0.13739629 0.10854538 0.12371477
-0.044929653 -0.43561798 -0.004822993 -0.5097931 1.535119 -0.009862494 -0.22889249 0.44786078
0.093662076 0.1160198 -0.20061602 0.19812751 0.012940978 0.05835263 -0.0038862033 -0.15345082
-0.14805958 -0.011613324 -0.08755708 -0.092031896 0.11492159 -0.08927816 0.044355012 -0.12404856
0.048948497 0.036682595 -0.048588973 -0.13937815 -0.06758652 -0.035848875 -0.0059217736 -0.14797315
-0.07413708 0.052368317 0.16322897 -0.16346739 -0.08944654 -0.08364359 -0.058898762 -0.051157713
-0.17763543 0.0232781 -0.058772847 -0.037165396 -0.21427742 0.16840264 0.24844283 -0.21916799
-0.0098697 -0.057510715 -0.071819946 0.022835493 0.09274187 -0.0025562735 -0.17238426 -0.18069911
0.19361883 -0.16435848 -0.13248785 -0.052634303 -0.0343595 -0.014575678 0.1418607 -0.0754305
-0.20120014 -0.061644297 0.19217598 0.107073136 0.14705822 -0.10375487 -0.20471683 0.09568418
-0.19114782 -0.6965823 -0.35286283 -0.9271213 -0.09196335 -0.59391916 0.061258357 -0.15997754
-0.16857253 0.7260031 2.5322225 -0.43442586 1.3446462 -0.7656522 0.112878636 -0.35907364
-0.2729508 -0.047281057 0.015775105 -0.44514284 -0.41392785 -0.08929157 -0.27330843 0.6514854
-0.3795419 0.040138178 0.5353516 -0.16320513 0.010712547 0.1182669 -0.6897516 0.059315246
-0.2968046 0.14905906 0.13252956 -0.47555315 0.63269794 -0.20098259 0.32524797 -0.15405282
1.2816083 0.9335824 -0.077452585 -0.06467036 0.07529325 -0.32120082 0.29310912 -0.22384694
-0.10339166 0.045863952 -0.7949181 0.85564333 0.16352698 -0.13730092 -0.034593474 -0.48477396
-1.0617386 -0.28617707 -0.0715711 -0.88532656 0.68740314 -0.060106516 -0.84274495 0.3389034
-0.026351798 0.060110968 -0.051374413 0.053709447 -0.09235129 -0.036435984 0.029570824 -0.10574098
-0.08976245 -0.063362956 -0.014516237 -0.012299151 0.10494376 -0.09030105 -0.110042036 0.009614144
0.025761338 -0.092528105 0.11938044 -0.17810333 -0.034884024 -0.053519167 0.024502188 -0.084581904
-0.20722023 0.042652003 -0.044341058 0.06742796 0.15460713 0.017775748 0.029815016 -0.12432125
-0.030563615 0.25245893 0.008008171 -0.21012893 -0.051550504 -0.119733185 -0.04103769 -0.17596948
-0.02778625 0.052191466 -0.0099529615 -0.07509329 0.0034892638 -0.044998944 -0.05800569 0.07051162
0.22355683 -0.046678305 -0.09310925 -0.13728006 -0.0606042 0.036330182 -0.028925616 -0.0037011318
-0.0026264952 -0.06386718 -0.05734097 -0.15027985 -0.043272898 0.0032300928 0.10984327 0.08271979
00000000: 493f 40be 806c 30be 1ac3 d53e 439d f63d
00000010: 65da d33c cf70 22be 4cb8 fbbe 2555 8ebe
00000020: 9a4c d6bd 8f85 2a3d eff6 3abd 1589 83be
00000030: 36b5 91be 0b58 71bd 2763 2dbe 1277 d4bd
00000040: 6e1d 8dbd 1e9a 12bf 9d75 1abe 2a26 65be
00000050: 8975 d13a ad1e 923d 7f76 26bf 92d4 53bf
00000060: 9aa9 6c3e 3c83 f5be dd77 1f3f 0b6c 763e
00000070: db38 ebbe 5145 a2ba 2fe3 b63d bbd3 063e
00000080: c719 27bf 24c2 923d f786 a0be a955 5b3d
00000090: eca5 f0bd a7d7 a4bd 6b84 67be e22c 51be
000000a0: 2efc 9d3d 6dd6 83be 6aed 623c 6543 12be
000000b0: 4d8a 053d ac1a 023f 25f9 943d 65cd 943d
000000c0: 3fc5 5dbd 279a 28be 826a dabd 149a fcbe
000000d0: c95a cabd 9db1 0cbe 0a4d de3d 2b5e fd3d
000000e0: 2808 38bd 5209 dfbe 330a 9ebb cd81 02bf
000000f0: c87e c43f 4c96 21bc cb62 6abe 024e e53e
00000100: e7d1 bf3d ca9b ed3d 496e 4dbe f0e1 4a3e
00000110: 6506 543c 2b03 6f3d acaf 7ebb 3622 1dbe
00000120: ee9c 17be d045 3ebc 2051 b3bd 387b bcbd
00000130: 035c eb3d 78d7 b6bd 9aad 353d 2c0d febd
00000140: 387e 483d 7d40 163d 3b05 47bd 25b9 0ebe
00000150: cd6a 8abd 45d6 12bd 700b c2bb 4686 17be
00000160: 2ed5 97bd 2980 563d 7f25 273e ff63 27be
00000170: bf2f b7bd 554d abbd d43f 71bd c08a 51bd
00000180: 10e6 35be b7b1 be3c ccbb 70bd be3a 18bd
00000190: 8a6b 5bbe be71 2c3e cc67 7e3e 936d 60be
000001a0: 86b4 21bc 5b90 6bbd 5616 93bd 8011 bb3c
000001b0: 73ef bd3d 2787 27bb 8085 30be 3009 39be
000001c0: 0444 463e 974d 28be e5aa 07be 1197 57bd
000001d0: 8cbc 0cbd d3ce 6ebc ee43 113e 4e7b 9abd
000001e0: 6907 4ebe bb7e 7cbd c8c9 443e 2949 db3d
000001f0: 6e96 163e 6f7d d4bd 4aa1 51be 11f6 c33d
00000200: 41bc 43be 3853 32bf 70aa b4be d257 6dbf
00000210: 4857 bcbd 160b 18bf 0bea 7a3d 27d1 23be
00000220: 479e 2cbe 57db 393f ef0f 2240 116d debe
00000230: 5e1d ac3f c801 44bf ea2c e73d 80d8 b7be
00000240: 35c0 8bbe c8a9 41bd cb3a 813c c3e9 e3be
00000250: 5aee d3be 80de b6bd 15ef 8bbe bfc7 263f
00000260: 5153 c2be ee67 243d cd0c 093f 3f1f 27be
00000270: ae83 2f3c eb35 f23d 9093 30bf 8bf4 723d
00000280: c6f6 97be f0a2 183e d4b5 073e b47b f3be
00000290: 7ef8 213f 61ce 4dbe e786 a63e 06c0 1dbe
000002a0: be0b a43f 42ff 6e3f 769f 9ebd e571 84bd
000002b0: 5933 9a3d 6f74 a4be 6612 963e 2238 65be
000002c0: 02bf d3bd d7db 3b3d c17f 4bbf 710b 5b3f
000002d0: 9e73 273e 9d98 0cbe e3b1 0dbd 4b34 f8be
000002e0: 0de7 87bf cd85 92be de93 92bd c3a4 62bf
000002f0: a7f9 2f3f 4032 76bd 22be 57bf bf84 ad3e
00000300: badf d7bc eb36 763d fa6d 52bd 70fe 5b3d
00000310: ac22 bdbd e63d 15bd 833e f23c ba8e d8bd
00000320: 60d5 b7bd 70c4 81bd 83d5 6dbc 6182 49bc
00000330: c1ec d63d c2ef b8bd b85d e1bd a584 1d3c
00000340: 7109 d33c 607f bdbd bb7d f43d b860 36be
00000350: 8de2 0ebd ea36 5bbd d0b8 c83c 4739 adbd
00000360: 8a31 54be deb3 2e3d f89e 35bd ac17 8a3d
00000370: 5551 1e3e 729e 913c 9f3e f43c 249c febd
00000380: 8c60 fabc 4c42 813e b434 033c 0a2c 57be
00000390: 9f26 53bd ac36 f5bd 2317 28bd 5831 34be
000003a0: fd9f e3bc b8c6 553d bf11 23bc 83ca 99bd
000003b0: 22ac 643b d050 38bd 6097 6dbd 6568 903d
000003c0: 15ec 643e c031 3fbd 10b0 bebd 2593 0cbe
000003d0: 1c3c 78bd f5ce 143d 6af5 ecbc b08e 72bb
000003e0: 4721 2cbb cccc 82bd 5dde 6abd f6e2 19be
000003f0: ec3e 31bd f7af 533b 82f5 e03d fe68 a93d

net.2.bias f4 [64]
-0.13801916 0.06387612 -0.24542683 -0.100249894 0.58990645 0.6276047 -0.25204745 0.5483225
-0.13666315 0.75379354 0.21973664 0.50309783 0.631693 0.5480926 -0.363654 0.07591925
-0.15495881 0.5369732 -0.0032668267 0.61682886 0.009722364 -0.054591574 0.62415135 0.49577382
0.71699464 0.043127354 0.35062134 0.15786156 -0.044151068 0.47833908 -0.06671484 0.6241266
-0.13013092 0.53952795 0.01575959 -0.05591331 0.5765227 -0.0762292 0.52459276 0.6658691
-0.30050606 0.47371092 -0.07201813 -0.23943359 0.77207214 0.6542761 -0.1483725 0.63934153
-0.06565235 0.1676017 0.690525 0.62996674 -0.15187725 0.00047721603 -0.10873462 0.54578334
0.19988473 0.7896453 -0.13788803 -0.10410781 0.623522 -0.19596983 0.74106824 0.50156146
00000000: e554 0dbe 7cd1 823d 2c51 7bbe d14f cdbd
00000010: 1c04 173f b4aa 203f 5d0c 81be dd5e 0c3f
00000020: 6df1 0bbe 9df8 403f a402 613e 05cb 003f
00000030: a2b6 213f cc4f 0c3f db30 babe 8d7b 9b3d
00000040: 86ad 1ebe 1377 093f 4218 56bb 7fe8 1d3f
00000050: 8d4a 1f3c 6a9b 5fbd 62c8 1f3f 11d6 fd3e
00000060: f68c 373f 4fa6 303d a484 b33e 76a6 213e
00000070: c0d7 34bd dce8 f43e caa1 88bd c3c6 1f3f
00000080: 0a41 05be 811e 0a3f 411a 813c 5b05 65bd
00000090: fe96 133f 0e1e 9cbd b64b 063f 6676 2a3f
000000a0: eedb 99be 3d8a f23e 3e7e 93bd 142e 75be
000000b0: 85a6 453f a37e 273f f6ee 17be e3ab 233f
000000c0: bd74 86bd c89f 2b3e 3fc6 303f 8045 213f
000000d0: b685 1bbe da32 fa39 42b0 debd 75b8 0b3f
000000e0: 95ae 4c3e 3226 4a3f 8532 0dbe 7a36 d5bd
000000f0: 239f 1f3f 51ac 48be a6b6 3d3f 5566 003f

net.4.weight f4 [2, 64]
-0.5950874 -0.10493929 -2.358558 0.16123834 1.2713004 1.5105286 -3.1694202 1.0811384
0.24948591 1.5100394 -4.0394535 1.2990477 0.8158139 1.2594395 -2.8154018 0.017211044
0.04830998 1.1034831 0.07433675 1.5245861 -0.039378967 -0.12171801 1.1360983 1.5249966
1.6469815 -0.022440985 1.3746408 -0.08791917 0.074867226 1.4288536 -4.8871903 1.3454878
-4.778863 0.97845775 -3.2325428 -2.7457979 1.232081 0.21101405 1.4520057 1.1666213
-0.2808663 0.9995487 0.32333463 -0.33047527 0.22935542 1.085388 0.010999954 1.1986685
-0.013104186 0.57266015 1.3355248 1.398776 -0.0669249 -3.3861456 -0.025236443 1.1688452
-0.42081514 1.2714536 -0.0048479703 -0.07687066 0.9400837 0.03573265 0.87382627 1.2741677
0.8070178 0.021001158 -1.5844718 -0.13675553 1.5533735 1.4240096 -4.4641056 0.93254095
-0.2502846 1.5958054 -2.9993849 1.1338328 1.4799163 0.861626 -3.9551842 -0.13689858
0.16420554 1.3609058 -0.08122258 1.3996747 0.020490794 -0.14284714 1.5524852 1.5838448
0.63707715 -0.14590783 1.1385889 0.007799322 -0.004444043 1.2391862 -2.8720741 1.689865
-6.4350667 1.3113787 -2.710941 -1.4846697 1.5670656 0.060121667 1.1250383 0.86439294
-2.8374462 1.0691772 -0.20670463 0.23252538 1.3556228 0.6533339 0.025382569 1.014577
-0.008171152 -0.46175307 1.5575483 1.9585204 -0.12049761 -3.6881366 0.078866705 1.3677323
0.5558668 0.5636589 0.04957509 0.003975122 1.5856726 0.099463105 1.3568945 1.1653426
00000000: a657 18bf 69ea d6bd 9df2 16c0 aa1b 253e
00000010: f9b9 a23f 0059 c13f c8d7 4ac0 be62 8a3f
00000020: 3c79 7f3e f948 c13f 3443 81c0 3247 a63f
00000030: 2ed9 503f 5035 a13f 8b2f 34c0 2dfe 8c3c
00000040: b0e0 453d ef3e 8d3f de3d 983d a325 c33f
00000050: d74b 21bd 4b47 f9bd ab6b 913f 1733 c33f
00000060: 4ad0 d23f 28d6 b7bc 3bf4 af3f f70e b4bd
00000070: fd53 993d ade4 b63f dd63 9cc0 f238 ac3f
00000080: 72ec 98c0 357c 7a3f fbe1 4ec0 27bb 2fc0
00000090: d5b4 9d3f 1114 583e 53db b93f d953 953f
000000a0: b5cd 8fbe 6ce2 7f3f 1e8c a53e 0e34 a9be
000000b0: 26dc 6a3e feed 8a3f 2739 343c f86d 993f
000000c0: f1b2 56bc db99 123f 7af2 aa3f 180b b33f
000000d0: ec0f 89bd 9cb6 58c0 a8bc cebc b89c 953f
000000e0: 1575 d7be febe a23f b9db 9ebb 5d6e 9dbd
000000f0: 53a9 703f 665c 123d 14b3 5f3f ed17 a33f
00000100: b898 4e3f 9f0a ac3c f9cf cabf a409 0cbe
00000110: f1d4 c63f f245 b63f f4d9 8ec0 01bb 6e3f
00000120: 4e25 80be 5a43 cc3f ecf5 3fc0 6f21 913f
00000130: e66d bd3f 8693 5c3f bd21 7dc0 242f 0cbe
00000140: 7f25 283e 2932 ae3f 0658 a6bd 8a28 b33f
00000150: 4fdc a73c 8546 12be d6b7 c63f 6dbb ca3f
00000160: 7d17 233f dd68 15be 48bd 913f 7491 ff3b
00000170: 569f 91bb a79d 9e3f 10d0 37c0 7f4d d83f
00000180: 11ec cdc0 42db a73f 0f80 2dc0 a809 bebf
00000190: 9b95 c83f 2342 763d 4101 903f db48 5d3f
000001a0: b898 35c0 ccda 883f 61aa 53be 221b 6e3e
000001b0: 0c85 ad3f e440 273f 1bef cf3c a9dd 813f
000001c0: 4ce0 05bc e66a ecbe be5d c73f ccb0 fa3f
000001d0: 73c7 f6bd 6e0a 6cc0 de84 a13d da11 af3f
000001e0: 494d 0e3f f34b 103f 400f 4b3d bd41 823b
000001f0: 52f7 ca3f 50b3 cb3d b8ae ad3f f229 953f

net.4.bias f4 [2]
0.71784145 0.32467994
00000000: 75c4 373f 733c a63e

exp_avg f4 [64, 4]
-0.03697044 -0.04670539 -0.0066212057 0.0052665016 0.0045764386 0.016197313 -0.00119819 -0.019239517
0.008635137 0.08521956 -0.008752291 -0.12820302 6e-45 6e-45 -6e-45 -6e-45
-6e-45 -6e-45 -6e-45 6e-45 -0.03956204 -0.12965553 0.0052927854 0.14577904
6e-45 6e-45 6e-45 6e-45 -0.070821725 -0.092860505 -0.011025885 0.01836868
-0.026902854 -0.03470118 -0.004124622 0.0062171044 -6e-45 -6e-45 -6e-45 6e-45
6e-45 -6e-45 6e-45 6e-45 -1.908177e-20 -1.1749506e-19 5.031473e-21 1.3270332e-19
-6e-45 6e-45 -6e-45 -6e-45 -0.047282152 -0.04573719 -0.0044523114 -0.0046966514
6e-45 6e-45 6e-45 6e-45 -0.030874768 -0.031440485 -0.002998318 0.00035171173
-0.048069842 -0.048809733 -0.006047819 -0.0018451571 6e-45 6e-45 6e-45 6e-45
-6e-45 -6e-45 -6e-45 6e-45 -6e-45 6e-45 6e-45 -6e-45
6e-45 6e-45 -6e-45 -6e-45 0.51411396 0.5306337 0.04407423 -0.008339528
-0.015848558 -0.09148324 0.0089800665 0.12922952 6e-45 6e-45 -6e-45 6e-45
-0.016973617 0.008580392 -0.005507396 -0.04523672 -0.0055509764 0.019385396 -0.005669458 -0.04222359
0.25468642 0.30217862 0.02868413 -0.04690465 -0.016973909 0.016965223 0.005275728 -0.04378936
0.017677957 0.07068794 -0.0041694324 -0.08614444 6e-45 6e-45 6e-45 6e-45
-0.010652626 -0.0072503784 -0.006101027 -0.015906608 -6e-45 -6e-45 -6e-45 6e-45
-0.07650339 -0.18523748 -0.00226993 0.16124353 6e-45 6e-45 6e-45 6e-45
0.08600619 0.08355161 0.005734596 -0.0010717264 -0.030633284 -0.05290337 -0.0067326445 0.021795115
0.09223358 0.071652144 0.014437406 0.047242053 0.018200276 0.033457395 -1.8959998e-05 -0.0289141
-6e-45 -6e-45 6e-45 6e-45 -0.04738395 -0.07879837 -0.010184026 0.02956625
-6e-45 -6e-45 -6e-45 -6e-45 -0.16833179 -0.099638574 0.001762795 -0.11199722
0.013200025 0.058056768 -0.001595075 -0.06827065 -6e-45 6e-45 6e-45 -6e-45
-6e-45 -6e-45 -6e-45 -6e-45 -0.01288374 0.0052418 -0.00696628 -0.038681827
-2.8071072e-20 -1.737794e-19 7.311901e-21 1.9631775e-19 0.008039872 0.017806254 -0.0010041214 -0.014787441
-6e-45 -6e-45 -6e-45 -6e-45 -0.072308496 -0.09487225 -0.007929579 0.026206665
-0.0012234861 -0.06965434 0.00861287 0.11638808 -6e-45 6e-45 6e-45 -6e-45
0.036068447 0.036548223 0.0022483144 -0.002854998 -0.044996012 -0.06303607 -0.009488163 0.0118626
0.0 0.0 0.0 0.0 6e-45 6e-45 6e-45 -6e-45
-0.07072585 -0.19863346 0.020820135 0.2311725 -6e-45 -6e-45 6e-45 6e-45
6e-45 6e-45 6e-45 -6e-45 -0.06393401 -0.14875464 -0.003452051 0.12259817
6e-45 6e-45 6e-45 6e-45 6e-45 6e-45 -6e-45 -6e-45
-0.06663174 -0.19080184 0.0053918487 0.19846278 6e-45 6e-45 6e-45 6e-45
00000000: 516e 17bd 274e 3fbd b3f6 d8bb 9e92 ac3b
00000010: f3f5 953b 3ab0 843c 960c 9dba 319c 9dbc
00000020: 647a 0d3c 9887 ae3d c565 0fbc a747 03be
00000030: 0400 0000 0400 0000 0400 0080 0400 0080
00000040: 0400 0080 0400 0080 0400 0080 0400 0000
00000050: ce0b 22bd 6bc4 04be 1a6f ad3b 1a47 153e
00000060: 0400 0000 0400 0000 0400 0000 0400 0000
00000070: fb0a 91bd a62d bebd eaa5 34bc ea79 963c
00000080: 6063 dcbc d322 0ebd d627 87bb dab8 cb3b
00000090: 0400 0080 0400 0080 0400 0080 0400 0000
000000a0: 0400 0000 0400 0080 0400 0000 0400 0000
000000b0: e438 b49e b4b6 0aa0 6c15 be1d 1eab 1c20
000000c0: 0400 0080 0400 0000 0400 0080 0400 0080
000000d0: eeaa 41bd eb56 3bbd b2e4 91bb 5ee6 99bb
000000e0: 0400 0000 0400 0000 0400 0000 0400 0000
000000f0: 15ed fcbc bdc7 00bd 6e7f 44bb f365 b839
00000100: e2e4 44bd b7ec 47bd c82c c6bb 33d9 f1ba
00000110: 0400 0000 0400 0000 0400 0000 0400 0000
00000120: 0400 0080 0400 0080 0400 0080 0400 0000
00000130: 0400 0080 0400 0000 0400 0000 0400 0080
00000140: 0400 0000 0400 0000 0400 0080 0400 0080
00000150: f99c 033f 9cd7 073f 2e87 343d 84a2 08bc
00000160: d6d4 81bc 915b bbbd 2121 133c be54 043e
00000170: 0400 0000 0400 0000 0400 0080 0400 0000
00000180: 410c 8bbc c694 0c3c 6377 b4bb 244a 39bd
00000190: f7e4 b5bb 1fce 9e3c dcc6 b9bb a5f2 2cbd
000001a0: 4266 823e 28b7 9a3e fbfa ea3c 171f 40bd
000001b0: de0c 8bbc a7fa 8a3c 04e0 ac3b 795c 33bd
000001c0: 5dd1 903c d7c4 903d bc9f 88bb 7f6c b0bd
000001d0: 0400 0000 0400 0000 0400 0000 0400 0000
000001e0: 5a88 2ebc 9594 edbb 20eb c7bb 934e 82bc
000001f0: 0400 0080 0400 0080 0400 0080 0400 0000
00000200: cfad 9cbd e5ae 3dbe 1bc3 14bb 061d 253e
00000210: 0400 0000 0400 0000 0400 0000 0400 0000
00000220: 0324 b03d 1b1d ab3d 47e9 bb3b 2c79 8cba
00000230: a7f2 fabc 34b1 58bd 849d dcbb ab8b b23c
00000240: f6e4 bc3d 5cbe 923d df8a 6c3c e280 413d
00000250: bf18 953c 9f0a 093d 490c 9fb7 43dd ecbc
00000260: 0400 0080 0400 0080 0400 0000 0400 0000
00000270: ac15 42bd 0a61 a1bd e7da 26bc ec34 f23c
00000280: 0400 0080 0400 0080 0400 0080 0400 0080
00000290: 2b5f 2cbe 4f0f ccbd 960d e73a cc5e e5bd
000002a0: eb44 583c efcc 6d3d d611 d1ba 7cd1 8bbd
000002b0: 0400 0080 0400 0000 0400 0000 0400 0080
000002c0: 0400 0080 0400 0080 0400 0080 0400 0080
000002d0: 5216 53bc 68c3 ab3b 6445 e4bb d670 1ebd
000002e0: d88f 049f 9a29 4da0 2f1e 0a1e 66c5 6720
000002f0: abb9 033c 6cde 913c b99c 83ba 0647 72bc
00000300: 0400 0080 0400 0080 0400 0080 0400 0080
00000310: 7a16 94bd 624c c2bd 11eb 01bc 5caf d63c
00000320: 625d a0ba efa6 8ebd ff1c 0d3c e05c ee3d
00000330: 0400 0080 0400 0000 0400 0000 0400 0080
00000340: 82bc 133d 97b3 153d 7558 133b eb1a 3bbb
00000350: bd4d 38bd 0e19 81bd 3d74 1bbc 5a5b 423c
00000360: 0000 0000 0000 0000 0000 0000 0000 0000
00000370: 0400 0000 0400 0000 0400 0000 0400 0080
00000380: b7d8 90bd 9266 4bbe fd8e aa3c 7cb8 6c3e
00000390: 0400 0080 0400 0080 0400 0000 0400 0000
000003a0: 0400 0000 0400 0000 0400 0000 0400 0080
000003b0: d6ef 82bd 2353 18be ce3b 62bb c014 fb3d
000003c0: 0400 0000 0400 0000 0400 0000 0400 0000
000003d0: 0400 0000 0400 0000 0400 0080 0400 0080
000003e0: 3976 88bd 8f61 43be 1bae b03b d439 4b3e
000003f0: 0400 0000 0400 0000 0400 0000 0400 0000

exp_avg_sq f4 [64, 4]
0.3858327 0.7208087 0.004315762 0.41424912 0.001690157 0.0063306754 0.00015055027 0.011034409
0.073380396 1.133687 0.08910879 3.0586677 5.814483e-07 6.7977817e-06 1.3044918e-07 9.192157e-06
7e-43 7e-43 7e-43 7e-43 0.07201425 0.4501121 0.0084825745 0.86141133
7e-43 7e-43 7e-43 7e-43 1.1336381 2.0508053 0.01236831 1.1769565
0.16055526 0.29978365 0.001768345 0.17105225 9.9828764e-36 1.0527875e-35 5.253174e-39 1.1478557e-36
1.6558471e-09 1.0547252e-10 7.8785746e-13 1.538017e-11 0.76993155 34.16793 0.046671048 44.56594
1.611613e-09 1.317659e-10 9.802526e-13 1.3791712e-11 0.11610152 0.11909882 0.0010014827 0.0069064004
7e-43 7e-43 7e-43 7e-43 0.02734092 0.044708498 0.00079263345 0.022904765
0.23273136 0.337788 0.0032164026 0.12610553 7.3636143e-06 4.1530216e-06 3.4459465e-08 2.577067e-07
7e-43 7e-43 7e-43 7e-43 9.048725e-05 4.0303935e-06 5.0705676e-08 1.1360741e-05
3.456367e-19 6.386309e-19 2.20191e-21 2.8395686e-19 8.661926 8.213358 0.05460761 0.049791884
0.004508118 0.19587862 0.0055155894 0.47149318 1.6670425e-12 5.276281e-13 5.4350856e-15 1.5652116e-13
0.07930509 0.22769588 0.005297003 0.2205489 0.0012354869 0.007017058 0.00019697532 0.01564238
18.698944 15.998084 0.13937087 0.46264255 3.746654 2.999782 0.025298554 0.14017934
0.026914125 0.11208998 0.002826916 0.21513201 7.887301e-12 1.642953e-12 1.660453e-14 5.2106784e-14
0.14712702 0.17738189 0.003886754 0.07653024 7e-43 7e-43 7e-43 7e-43
0.48293957 1.4858085 0.023661649 1.9562937 2.6419748e-38 1.444865e-38 2.3231e-40 9.155126e-39
0.15680686 0.12824135 0.0012269106 0.004842395 0.58083653 1.230819 0.007613739 0.8313596
0.40791222 0.90856487 0.005222546 0.5275553 0.004658933 0.019549148 0.0005129097 0.035704747
7e-43 7e-43 7e-43 7e-43 1.3462261 2.8848639 0.017225415 1.9478691
1.0352046e-38 2.870914e-39 4.2974e-41 5.2197e-41 6.3209734 5.683423 0.052815337 0.5063237
0.073718354 0.29728585 0.0059132255 0.36869746 9.842068e-27 2.0901398e-28 7.247421e-30 2.5994775e-28
7e-43 7e-43 7e-43 7e-43 0.28776106 0.66769063 0.009259548 0.4956544
1.6503401 73.98414 0.09133505 96.40955 0.2652699 1.0618606 0.0026464637 1.0747484
7e-43 7e-43 7e-43 7e-43 0.6263359 0.9343373 0.006315073 0.4258199
0.015018745 0.17279221 0.004413942 0.37943015 1.1061917e-05 3.955236e-06 6.606956e-08 5.4257557e-06
0.052319452 0.044324473 0.00044979923 0.0016658806 0.92064774 1.8496569 0.0109677715 1.1765841
0.0 0.0 0.0 0.0 1.976323e-30 8.50793e-30 6.202202e-32 1.4739123e-30
0.0750367 0.28000966 0.005775241 0.43372166 1.481e-42 1.6708e-41 7e-43 8.767e-42
7e-43 7e-43 7e-43 7e-43 0.4564699 1.2787786 0.01702572 1.4576104
7e-43 7e-43 7e-43 7e-43 7e-43 7e-43 7e-43 7e-43
0.27087283 1.1886421 0.018846616 1.9478277 1.1817419e-31 2.6325102e-32 2.731977e-34 2.97478e-32
00000000: dd8b c53e eb86 383f 3c6b 8d3b 7618 d43e
00000010: 4288 dd3a 8e71 cf3b 08dd 1d39 aac9 343c
00000020: 7648 963d a81c 913f ab7e b63d 36c1 4340
00000030: d314 1c35 8018 e436 9911 0c34 0438 1a37
00000040: f401 0000 f401 0000 f401 0000 f401 0000
00000050: 357c 933d 1875 e63e 7ffa 0a3c 7485 5c3f
00000060: f401 0000 f401 0000 f401 0000 f401 0000
00000070: 0e1b 913f 6540 0340 74a4 4a3c 83a6 963f
00000080: 9968 243e 3e7d 993e d0c7 e73a 5228 2f3e
00000090: f34f 5405 34e7 5f05 b633 3900 2b4c c303
000000a0: f193 e330 c0ef e72e 1dc3 5d2b 1049 872d
000000b0: 3c1a 453f f6ab 0842 242a 3f3d 8643 3242
000000c0: 977f dd30 cee0 102f 52f5 892b 59a0 722d
000000d0: a2c6 ed3d 15ea f33d 2f44 833a 164f e23b
000000e0: f401 0000 f401 0000 f401 0000 f401 0000
000000f0: 11fa df3c 4220 373d bbc8 4f3a c6a2 bb3c
00000100: 2151 6e3e 8cf2 ac3e 48ca 523b cf21 013e
00000110: f714 f736 2f5a 8b36 9500 1433 f05a 8a34
00000120: f401 0000 f401 0000 f401 0000 f401 0000
00000130: f9c3 bd38 d13c 8736 7bc7 5933 039a 3e37
00000140: 2407 cc20 967d 3c21 225f 261d 599e a720
00000150: 4097 0a41 ea69 0341 3bac 5f3d 93f2 4b3d
00000160: d6b8 933b 6894 483e 1ebc b43b 8e67 f13e
00000170: 899d ea2b 9d83 142b d1d1 c327 273a 302a
00000180: b56a a23d 1c29 693e 7b92 ad3b 92d7 613e
00000190: 10f0 a13a 59ef e53b 298b 4e39 7324 803c
000001a0: 7097 9541 27f8 7f41 3db7 0e3e 7cdf ec3e
000001b0: 2ec9 6f40 6efc 3f40 ea3e cf3c 2c8b 0f3e
000001c0: 037b dc3c 6e8f e53d c843 393b 914b 5c3e
000001d0: 3fc1 0a2d 9f39 e72b 708f 9528 08ab 6a29
000001e0: 77a8 163e 99a3 353e e9b8 7e3b e3bb 9c3d
000001f0: f401 0000 f401 0000 f401 0000 f401 0000
00000200: db43 f73e f92e be3f 13d6 c13c d567 fa3f
00000210: c1d7 0f01 f554 9d00 9687 0200 c4b0 6300
00000220: fa91 203e b351 033e 4ad0 a03a f4ac 9e3b
00000230: b4b1 143f 7a8b 9d3f ac7c f93b fcd3 543f
00000240: dfd9 d03e b597 683f e421 ab3b dd0d 073f
00000250: f6a9 983b 8925 a03c ca74 063a 243f 123d
00000260: f401 0000 f401 0000 f401 0000 f401 0000
00000270: 2351 ac3f 9ca1 3840 501c 8d3c c653 f93f
00000280: 4bb9 7000 f142 1f00 cb77 0000 8191 0000
00000290: 6a45 ca40 9ade b540 e554 583d 6e9e 013f
000002a0: a6f9 963d da35 983e bbc3 c13b eac5 bc3e
000002b0: 37f1 4214 757a 8411 c3fe 120f efc2 a411
000002c0: f401 0000 f401 0000 f401 0000 f401 0000
000002d0: 6b55 933e c6ed 2a3f 5cb5 173c 6ac6 fd3e
000002e0: 583e d33f e1f7 9342 df0d bb3d b1d1 c042
000002f0: 75d1 873e 0ceb 873f 4b70 2d3b 5b91 893f
00000300: f401 0000 f401 0000 f401 0000 f401 0000
00000310: 8d57 203f bb30 6f3f acee ce3b 1105 da3e
00000320: 2f11 763c 71f0 303e d4a2 903b ab44 c23e
00000330: 9296 3937 38b7 8436 20e2 8d33 e30e b636
00000340: ec4c 563d 948d 353d 08d3 eb39 ad59 da3a
00000350: 92af 6b3f 8fc1 ec3f 2bb2 333c 4f9a 963f
00000360: 0000 0000 0000 0000 0000 0000 0000 0000
00000370: 9f56 200e b38f 2c0f b404 a10b ec27 ef0d
00000380: d7ac 993d 6d5d 8f3e 3c3e bd3b c410 de3e
00000390: 2104 0000 932e 0000 f401 0000 7018 0000
000003a0: f401 0000 f401 0000 f401 0000 f401 0000
000003b0: 6cb6 e93e 04af a33f 8679 8b3c fa92 ba3f
000003c0: f401 0000 f401 0000 f401 0000 f401 0000
000003d0: f401 0000 f401 0000 f401 0000 f401 0000
000003e0: d8af 8a3e 6d25 983f 3864 9a3c 6b52 f93f
000003f0: 1c66 190c 10b0 080b 2e92 b507 9c75 1a0b

exp_avg f4 [64]
-0.038606286 -0.014450496 -0.08550488 -6e-45 6e-45 0.08364252 6e-45 -0.062459424
-0.022411317 6e-45 -6e-45 -8.9240626e-20 6e-45 -0.03300718 6e-45 -0.013839945
-0.0194961 6e-45 6e-45 6e-45 6e-45 0.2588582 0.10476391 6e-45
-0.048165347 -0.045469932 0.0789218 -0.09333958 -0.059073575 -6e-45 -0.039077032 6e-45
0.04935673 6e-45 0.03590975 -0.034773692 0.10396602 -0.017294658 6e-45 -0.053443372
6e-45 -0.2831584 -0.038904347 6e-45 6e-45 -0.058588635 -1.3174582e-19 0.0048961816
6e-45 -0.04037725 0.09702874 6e-45 0.015147545 -0.055542372 0.0 6e-45
0.21451561 6e-45 6e-45 0.028564 6e-45 6e-45 0.10178387 6e-45
00000000: a021 1ebd c6c1 6cbc 2f1d afbd 0400 0080
00000010: 0400 0000 c54c ab3d 0400 0000 74d5 7fbd
00000020: f097 b7bc 0400 0000 0400 0080 a6b6 d29f
00000030: 0400 0000 8932 07bd 0400 0000 f0c0 62bc
00000040: 49b6 9fbc 0400 0000 0400 0000 0400 0000
00000050: 0400 0000 1089 843e 768e d63d 0400 0000
00000060: 0749 45bd ae3e 3abd c1a1 a13d d228 bfbd
00000070: 22f7 71bd 0400 0080 3d0f 20bd 0400 0000
00000080: 482a 4a3d 0400 0000 1a16 133d dc6e 0ebd
00000090: 23ec d43d 87ad 8dbc 0400 0000 70e7 5abd
000000a0: 0400 0000 23fa 90be 2a5a 1fbd 0400 0000
000000b0: 0400 0000 a3fa 6fbd bb89 1ba0 2670 a03b
000000c0: 0400 0000 9e62 25bd 01b7 c63d 0400 0000
000000d0: 692d 783c 6680 63bd 0000 0000 0400 0000
000000e0: fba9 5b3e 0400 0000 0400 0000 0dff e93c
000000f0: 0400 0000 0400 0000 1074 d03d 0400 0000
