CartPole/Experiment_1/23-09-26_22-10-39-937242_DQN/checkpoints/agent_197500.pt (torch, 82603 bytes, 24 tensors)

net.0.weight f4 [64, 4]
0	0xbc0ce626	-0.008599794
1	0x3d7532b5	0.05986281
2	0x3e9e39d8	0.30903506
3	0x3c5e8116	0.013580581
4	0x3e8115d9	0.2521198
5	0xbe159c6b	-0.1461045
6	0x3f99edb4	1.2025666
7	0x3e042b87	0.1290723
8	0xbd78e533	-0.060765456
9	0x3d1e5008	0.038650542
10	0x4030b8c3	2.761277
11	0x3ded3198	0.11581725
12	0xbdf602f0	-0.12012279
13	0xbf2bef30	-0.67161846
14	0xbf946588	-1.1593485
15	0xbee26c85	-0.4422342
16	0xbdabbce6	-0.08385639
17	0xbca87ed7	-0.020568294
18	0x3d46d10c	0.048539206
19	0x3b36b272	0.0027877358
20	0x3d705d56	0.058682762
21	0xbeaf2692	-0.34209114
22	0xbfbe3db6	-1.4862583
23	0xbecb423b	-0.39698967
24	0xbd4a9194	-0.04945524
25	0x3d767600	0.060171127
26	0xbf09e18a	-0.5385977
27	0x3dea0c47	0.11428123
28	0xbd9ea94a	-0.07747133
29	0x3d1234c0	0.035694838
30	0x3e1a4a03	0.15067296
31	0x3de8a045	0.11358694
32	0xbbec259c	-0.007206632
33	0xbc953e12	-0.018218074
34	0x3e875c66	0.26437682
35	0xbe208419	-0.15675391
36	0xbed894aa	-0.42300922
37	0x3e1192bc	0.14216131
38	0x3f032236	0.51224077
39	0x3e5b148b	0.21394555
40	0xbe94d402	-0.29068
41	0x3cfb0ef4	0.030646779
42	0xbf79664e	-0.9742173
43	0x3d3465b1	0.044042293
44	0xbda0d53d	-0.07853172
45	0xbdd6e238	-0.104923666
46	0xc00e3d85	-2.2225049
47	0xbe842bfb	-0.25814804
48	0xbeb2c8d8	-0.34918857
49	0xbe850677	-0.25981495
50	0xbe0c0c22	-0.13676503
51	0xbe1ce1f2	-0.15320566
52	0x3e836920	0.25666142
53	0x3e0a21b9	0.13489427
54	0x3fd2a160	1.6455498
55	0x3ee9e5d1	0.45683149
56	0x3cdbbc6f	0.02682325
57	0xbc0dfd9e	-0.008666424
58	0xbe3e6afc	-0.18595499
59	0xbcb08688	-0.021548524
60	0x3eb80971	0.35944703
61	0x3da00529	0.07813484
62	0x40057fd1	2.0859263
63	0x3f02744f	0.5095872
64	0x3e185c11	0.1487887
65	0x3f0e491b	0.555803
66	0xbe8acc92	-0.271092
67	0x3ec21be9	0.3791192
68	0x3e4d1adf	0.20029782
69	0xbd9c51f2	-0.07632817
70	0xbe1e7fbd	-0.15478416
71	0x3dca6749	0.09882981
72	0x3d06b4c8	0.03288725
73	0xbd270c05	-0.040782947
74	0xbd831b70	-0.06401718
75	0xbceed74b	-0.029155394
76	0xbe49ead5	-0.19718488
77	0xbe981439	-0.2970293
78	0xc00039a9	-2.0035193
79	0xbe74c345	-0.23902614
80	0x3c02e3f6	0.00798892
81	0x3d541153	0.051774334
82	0xbf154c4d	-0.5831955
83	0x3cb50ade	0.022099908
84	0x3ef17540	0.47159767
85	0x3e7e7e11	0.24852778
86	0x3f1c7502	0.6111604
87	0x3e399472	0.18123034
88	0x3d995c97	0.07488363
89	0xbedc4486	-0.4302103
90	0xbeef170c	-0.4669727
91	0x3e1a79fd	0.15085597
92	0x3ec28406	0.3799135
93	0xbe355797	-0.17709194
94	0xbf6358d6	-0.8880743
95	0xbe851eb8	-0.26
96	0x3ccf64fc	0.025316708
97	0x3da5cc55	0.08095614
98	0x40109e10	2.2596474
99	0xbd2af08e	-0.041733317
100	0xbd8aabb4	-0.06771031
101	0xbf59940d	-0.8499153
102	0x3e23ebdc	0.16007942
103	0xbee0f85a	-0.43939477
104	0x3e8386ca	0.25688773
105	0x3e9210b4	0.28528368
106	0x3fc236df	1.5172995
107	0x3e7ad56a	0.24495474
108	0x3f21ccae	0.6320294
109	0x3f02a468	0.51032114
110	0x3fd1dea6	1.6396072
111	0x3eb63818	0.3558967
112	0x3ee42783	0.44561395
113	0xbe8a569e	-0.2701921
114	0x3ff3c5ce	1.904474
115	0xbd66362c	-0.056204006
116	0xbdc33433	-0.095314406
117	0xbe045186	-0.12921724
118	0xbf2e1148	-0.6799512
119	0xbeef66ad	-0.46758023
120	0xbb713225	-0.003680357
121	0x3ebb661a	0.36601335
122	0x3fb93748	1.4469995
123	0x3e76a5ba	0.24086657
124	0xbce9cdfb	-0.028540602
125	0xbca8e962	-0.020619098
126	0x3cee4ba6	0.029088806
127	0xbd910174	-0.07080355
128	0x3cbf58f4	0.023357846
129	0x3d9cda9e	0.076588854
130	0xbfbcfb9b	-1.4764284
131	0xbe5fd9d8	-0.21860445
132	0xbd1025d2	-0.03519232
133	0x3ccccaf5	0.024999121
134	0xbd4e6508	-0.05038932
135	0x3c9683cc	0.018373393
136	0xba79eae2	-0.00095335965
137	0x3e714b3c	0.23563856
138	0x3fb4c055	1.4121195
139	0x3ebcb978	0.3686025
140	0x3e0fb82b	0.14035098
141	0xbd75c760	-0.060004592
142	0x3cb4a342	0.022050504
143	0x3d08332f	0.033251937
144	0x3d2ade01	0.041715626
145	0xbe10d7dc	-0.14144844
146	0xc034306a	-2.815455
147	0xbf053d72	-0.52046883
148	0x3e921d8e	0.28538173
149	0xbe27a161	-0.16370155
150	0x3f8db935	1.1072146
151	0xbdceeeab	-0.10104116
152	0xbd470740	-0.0485909
153	0x3d862842	0.06550647
154	0xbe555a81	-0.20835306
155	0x3e2470f0	0.16058707
156	0x3e1d63af	0.15370058
157	0xbd9c983c	-0.07646224
158	0x3d91ece4	0.071252614
159	0x3d137035	0.03599568
160	0xbe112b7c	-0.14176744
161	0xbd42b771	-0.047538225
162	0xbe4603e8	-0.19337428
163	0xbd6e7d8c	-0.0582252
164	0x3f12f761	0.5740872
165	0x3eeb33d4	0.4593798
166	0xbf10aa31	-0.5650969
167	0x3e88ac88	0.2669413
168	0x3e25479f	0.16140603
169	0x3d24493c	0.040108904
170	0x401d5d7b	2.4588306
171	0x3ef0b636	0.47014016
172	0xbdd1b5a8	-0.10239726
173	0x3e1454c1	0.14485456
174	0x3e62ebc7	0.22160254
175	0x3e1e3b3c	0.15452284
176	0x3d2bb6a4	0.041922227
177	0xbce0e1f7	-0.027451498
178	0xbda6a099	-0.081361
179	0xbc3cefdd	-0.011531797
180	0xbda052d2	-0.07828297
181	0x3ed17469	0.40909126
182	0x4003edc1	2.0613863
183	0x3d814b11	0.06313146
184	0xbdd45718	-0.10368174
185	0xbe02031e	-0.12696502
186	0xc0159c71	-2.3376734
187	0xbed52f52	-0.41637665
188	0x3efab353	0.4896494
189	0xbdd5913e	-0.104280934
190	0xbfc0089e	-1.500263
191	0xbe71fd06	-0.23631677
192	0xbc300a8e	-0.010744704
193	0x3d350771	0.04419655
194	0xbaca703c	-0.0015444825
195	0x3d1f4f19	0.038893793
196	0xbdf12ce2	-0.11776139
197	0x3dbb68dc	0.0915086
198	0xbecd0cdf	-0.40048882
199	0x3da9c852	0.08290161
200	0xbf27f5aa	-0.6560923
201	0x3e1b1815	0.15145905
202	0xbff44247	-1.9082726
203	0xbe3083b0	-0.17237735
204	0xbe9453ea	-0.2897027
205	0xbe9841c1	-0.29737666
206	0x3de9fee6	0.11425571
207	0xbe5f5cf5	-0.21812804
208	0xbd8758db	-0.06608745
209	0x3e83836d	0.25686207
210	0x3fadf5d9	1.3590652
211	0x3e4160da	0.18884602
212	0xbcfdbd9a	-0.030974198
213	0xbd6d1774	-0.057883695
214	0x3effd23e	0.4996509
215	0x3dfd9e81	0.12383748
216	0x3d17a547	0.037022855
217	0x3c7d8a22	0.015474828
218	0xbd539612	-0.05165679
219	0x3c93c053	0.018036043
220	0xbe1aa360	-0.15101385
221	0x3e061933	0.1309555
222	0x3e685535	0.22688754
223	0xbe5896f5	-0.21151336
224	0x3de7733b	0.11301275
225	0xbf0d402d	-0.5517605
226	0xbf685a43	-0.9076273
227	0xbe216915	-0.15762742
228	0x3d8d8df1	0.06911839
229	0xbdafbf5f	-0.08581423
230	0xbeecfcf7	-0.46286747
231	0x3c7c8e7e	0.015414832
232	0x3b2f1f8d	0.0026721687
233	0x3d4f2f20	0.05058205
234	0xbdd52253	-0.104069375
235	0x3d9edab2	0.077565566
236	0x3cbb07ab	0.022830805
237	0x3c63767b	0.013883228
238	0xbf90f202	-1.1323855
239	0xbeb154a2	-0.34634882
240	0x3df02873	0.11726465
241	0xbc4c498a	-0.012468705
242	0x3f82efe2	1.0229456
243	0x3c97d8b0	0.018535942
244	0xbcc5b03c	-0.024131887
245	0x3c82b4d1	0.01595536
246	0xbd696f4f	-0.056990918
247	0xbcef8bae	-0.02924141
248	0x3e0017e4	0.12509114
249	0xbe208814	-0.1567691
250	0xbff98b82	-1.94957
251	0xbdf0267c	-0.1172609
252	0x3de9cac8	0.114156306
253	0xbdfd4073	-0.12365808
254	0x3ebbb151	0.3665872
255	0xbd5e1973	-0.05422349

net.0.bias f4 [64]
0	0x3eeb7ff3	0.45996055
1	0x3de424dc	0.11139843
2	0xbf149b67	-0.58049625
3	0xbe72509b	-0.23663561
4	0xbe97ed58	-0.29673266
5	0x3f071948	0.5277295
6	0xbe4cc439	-0.19996728
7	0x3f1da0e2	0.6157361
8	0x3e816048	0.2526877
9	0xbee11bb8	-0.4396646
10	0xbed3b199	-0.41346434
11	0xbf30390c	-0.68837047
12	0xbee78925	-0.4522182
13	0x3e4d57ca	0.2005302
14	0xbe160f2c	-0.14654225
15	0x3ea335bc	0.31876934
16	0xbe889cfc	-0.2668227
17	0xbf093a49	-0.5360456
18	0xbe306c75	-0.17228873
19	0xbed115a0	-0.4083681
20	0xbee6b2d2	-0.45058304
21	0xbf4d1850	-0.8011522
22	0x3ceb3e62	0.02871627
23	0xbf5747b2	-0.84093773
24	0x3eca2091	0.3947797
25	0xbf1d00a6	-0.61329114
26	0xbf09c73f	-0.5381965
27	0xbefc5c7f	-0.4928932
28	0xbd1c2961	-0.0381254
29	0xbf2afd84	-0.66793084
30	0x3d8eb882	0.06968786
31	0xbe865453	-0.2623621
32	0x3f1174ef	0.5681905
33	0xbe2c7f21	-0.16845371
34	0xbf0fc0ee	-0.5615376
35	0x3f0a690a	0.54066527
36	0x3e8c5a05	0.2741243
37	0x3ee9a585	0.45634094
38	0xbe995e25	-0.2995464
39	0x3f3dc0b0	0.7412214
40	0xbf0ebf31	-0.55760485
41	0xbea1c905	-0.31598678
42	0x3f06e7b3	0.52697295
43	0xbf0098ed	-0.50233346
44	0xbe1b19b5	-0.15146525
45	0x3ed09d3a	0.40744954
46	0xbf4c7011	-0.798585
47	0xbf3db40d	-0.7410286
48	0xbdfd13ab	-0.12357267
49	0x3ec0668a	0.3757823
50	0x3f0970a1	0.53687483
51	0xbea7236f	-0.3264422
52	0xbf0dd387	-0.5540089
53	0x3f18e923	0.5973074
54	0xbe9390b7	-0.28821346
55	0xbf0c04f7	-0.54695076
56	0xbe6070da	-0.2191805
57	0xbedc3621	-0.43010047
58	0xbe301861	-0.171968
59	0x3f0a7e09	0.54098564
60	0xbf05a6cb	-0.5220763
61	0xbe4071bf	-0.1879339
62	0x3f114966	0.5675262
63	0xbed269d4	-0.41096365

net.2.weight f4 [64, 64]
0	0xbe403f78	-0.18774211
1	0xbe306cf4	-0.17229062
2	0x3ed5c341	0.4175053
3	0x3df69c76	0.12041561
4	0x3cd3da65	0.025860975
5	0xbe227151	-0.1586354
6	0xbefbb88b	-0.49164233
7	0xbe8e559e	-0.27799696
8	0xbdd64ca5	-0.104638375
9	0x3d2a85a3	0.041631352
10	0xbd3af644	-0.045645013
11	0xbe83890d	-0.256905
12	0xbe91b578	-0.28458762
13	0xbd715769	-0.05892125
14	0xbe2d6344	-0.16932398
15	0xbdd477a2	-0.10374381
16	0xbd8d1e2c	-0.068905205
17	0xbf129a4e	-0.572667
18	0xbe1a759d	-0.15083928
19	0xbe6525b5	-0.22377665
20	0x3ad174b9	0.0015980221
21	0x3d921e4b	0.07134684
22	0xbf26769a	-0.6502472
23	0xbf53d4b2	-0.8274642
24	0x3e6ca967	0.23111497
25	0xbef5834c	-0.47951734
26	0x3f1f7753	0.6229145
27	0x3e766b76	0.2406443
28	0xbeeb3908	-0.4594195
29	0xbaa24551	-0.0012380277
30	0x3db6e267	0.089299016
31	0x3e06d3bb	0.13166706
32	0xbf2719ff	-0.6527404
33	0x3d92c224	0.07165936
34	0xbea08740	-0.31353188
35	0x3d5b5503	0.05354787
36	0xbdf0a620	-0.11750436
37	0xbda4d84c	-0.08049068
38	0xbe67846b	-0.22609107
39	0xbe512d10	-0.20427346
40	0x3d9dfcbb	0.0771422
41	0xbe83d683	-0.25749597
42	0x3c62ecab	0.013850371
43	0xbe12431c	-0.14283413
44	0x3d058a4d	0.032602597
45	0x3f0219dc	0.5082071
46	0x3d94f8fe	0.07274054
47	0x3d94cd1d	0.07265685
48	0xbd5dc53f	-0.054143187
49	0xbe289aa2	-0.16465238
50	0xbdda6ad7	-0.10664909
51	0xbefc9a78	-0.493366
52	0xbdca5b5c	-0.09880707
53	0xbe0cb257	-0.13739906
54	0x3dde4d07	0.108545355
55	0x3dfd5d58	0.123713195
56	0xbd3808bf	-0.044930216
57	0xbedf09df	-0.4356222
58	0xbb9e0a33	-0.004822993
59	0xbf02822e	-0.5097989
60	0x3fc47ea1	1.5351144
61	0xbc21964c	-0.009862494
62	0xbe6a62f0	-0.22889304
63	0x3ee54d9e	0.4478578
64	0x3dbfd13e	0.09366082
65	0x3ded9b3d	0.11601875
66	0xbe4d6e4e	-0.20061609
67	0x3e4ae171	0.19812562
68	0x3c540665	0.012940978
69	0x3d6f03a7	0.058353093
70	0xbb7eafe7	-0.003886217
71	0xbe1d225f	-0.15345143
72	0xbe179d43	-0.14806084
73	0xbc3e464d	-0.011613441
74	0xbdb35124	-0.08755711
75	0xbdbc7b37	-0.09203189
76	0x3deb5ca1	0.11492277
77	0xbdb6d7e5	-0.08927897
78	0x3d35ad9a	0.044355012
79	0xbdfe0d8a	-0.12404926
80	0x3d487d6e	0.048947744
81	0x3d164014	0.036682203
82	0xbd47053b	-0.048588973
83	0xbe0eb995	-0.13937981
84	0xbd8a6b35	-0.06758729
85	0xbd12d5ee	-0.03584855
86	0xbbc20b4d	-0.0059217573
87	0xbe178692	-0.14797428
88	0xbd97d56e	-0.07413755
89	0x3d567fb9	0.0523679
90	0x3e27259e	0.16322944
91	0xbe27645b	-0.16346876
92	0xbdb72f15	-0.08944527
93	0xbdab4d55	-0.08364359
94	0xbd714004	-0.05889894
95	0xbd518ac0	-0.051157713
96	0xbe35e69f	-0.17763756
97	0x3cbeb1b7	0.0232781
98	0xbd70bc3c	-0.058773264
99	0xbd183b7b	-0.0371661
100	0xbe5b6c0a	-0.21427932
101	0x3e2c70f7	0.16839968
102	0x3e7e67c5	0.24844272
103	0xbe606da7	-0.21916829
104	0xbc21b3ed	-0.009869558
105	0xbd6b906b	-0.057510775
106	0xbd931678	-0.0718202
107	0x3cbb1238	0.022835836
108	0x3dbdef73	0.09274187
109	0xbb278748	-0.0025562812
110	0xbe3085e5	-0.17238577
111	0xbe3909e6	-0.18070182
112	0x3e464404	0.19361883
113	0xbe284df3	-0.16435985
114	0xbe07ab2a	-0.13248888
115	0xbd579669	-0.052633677
116	0xbd0cbbd7	-0.034358826
117	0xbc6eced0	-0.014575675
118	0x3e1143eb	0.14186065
119	0xbd9a7b49	-0.07543046
120	0xbe4e07eb	-0.20120208
121	0xbd7c7e56	-0.06164392
122	0x3e44c939	0.19217385
123	0x3ddb490f	0.10707294
124	0x3e1696cd	0.14705963
125	0xbdd47d6f	-0.10375487
126	0xbe51a182	-0.20471767
127	0x3dc3f694	0.095685154
128	0xbe6443f7	-0.22291552
129	0xbf32539f	-0.69658846
130	0xbeb4aa8a	-0.3528636
131	0xbf7578f6	-0.95887697
132	0xbdbc5780	-0.09196377
133	0xbf202d43	-0.62569064
134	0x3d7ae970	0.06125778
135	0xbe445902	-0.19174579
136	0xbe4d257f	-0.20033835
137	0x3f31b926	0.6942314
138	0x402007bc	2.500472
139	0xbede6c80	-0.43442154
140	0x3fa80bb1	1.3128568
141	0xbf4401a1	-0.76564986
142	0x3de72cc8	0.11287838
143	0xbeb7d8aa	-0.3590749
144	0xbe8bc0be	-0.27295488
145	0xbd41a940	-0.04728055
146	0x3c813acb	0.015775105
147	0xbef42dc9	-0.4769118
148	0xbed3eeba	-0.4139307
149	0xbdb6deb7	-0.08929198
150	0xbe9c3339	-0.3050783
151	0x3f26c7ec	0.65148807
152	0xbed2972b	-0.41130957
153	0x3c092a24	0.0083718635
154	0x3f090d36	0.53535783
155	0xbe271f3f	-0.16320513
156	0x3c2f8337	0.010712436
157	0x3df23554	0.11826578
158	0xbf309441	-0.6897622
159	0x3d72f472	0.059315152
160	0xbe97f6f4	-0.29680598
161	0x3e18a2f0	0.14905906
162	0x3e07b519	0.13252677
163	0xbf01dfaf	-0.5073194
164	0x3f19d695	0.6009305
165	0xbe6e55d3	-0.23274927
166	0x3ea68726	0.32524985
167	0xbe3e476e	-0.18581936
168	0x3fa40b0d	1.2815872
169	0x3f6efe84	0.9335711
170	0xbddfae36	-0.109219
171	0xbd847268	-0.06467134
172	0x3d9a3359	0.07529325
173	0xbeb4b852	-0.35296875
174	0x3e9612e1	0.29311278
175	0xbe6537c1	-0.2238455
176	0xbdd3bf02	-0.10339166
177	0x3c66f8f7	0.014097444
178	0xbf53a22a	-0.8266932
179	0x3f52e95f	0.82387346
180	0x3e277300	0.16352463
181	0xbe2d205f	-0.1690688
182	0xbd0db1e3	-0.034593474
183	0xbef833b1	-0.48476937
184	0xbf87e72e	-1.0617425
185	0xbe92851c	-0.2861718
186	0xbd929497	-0.071572475
187	0xbf6ac6da	-0.91709673
188	0x3f2ff9fc	0.6874082
189	0xbd763240	-0.060106516
190	0xbf5fdfe1	-0.8745099
191	0x3ead8522	0.33890635
192	0xbcd7e058	-0.026352093
193	0x3d763617	0.060110178
194	0xbd526e77	-0.05137488
195	0x3d5bfe70	0.053709447
196	0xbdbd22ac	-0.09235129
197	0xbd153e99	-0.03643665
198	0x3cf23e41	0.0295707
199	0xbdd88f27	-0.10574179
200	0xbdb7d5c9	-0.08976323
201	0xbd81c470	-0.063362956
202	0xbc6dd583	-0.014516237
203	0xbc4982b3	-0.0122992275
204	0x3dd6ec3f	0.10494279
205	0xbdb8efc2	-0.09030105
206	0xbde15db8	-0.110042036
207	0x3c1d83e1	0.009613962
208	0x3cd30911	0.02576116
209	0xbdbd8008	-0.09252936
210	0x3df47dbb	0.11938044
211	0xbe3660b4	-0.17810327
212	0xbd0ee2a1	-0.0348841
213	0xbd5b36ea	-0.053519167
214	0x3cc8b884	0.024502046
215	0xbdad3947	-0.084581904
216	0xbe5431df	-0.2072215
217	0x3d2eb346	0.042651437
218	0xbd359ef7	-0.044341054
219	0x3d8a17ac	0.06742796
220	0x3e1e50f8	0.15460575
221	0x3c919e72	0.017775748
222	0x3cf43e9f	0.029815016
223	0xbdfe9c1a	-0.12432118
224	0xbcfa60cf	-0.03056374
225	0x3e81424c	0.25245893
226	0x3c0333e9	0.008007982
227	0xbe572c04	-0.21012884
228	0xbd53269f	-0.051550504
229	0xbdf536d2	-0.11973347
230	0xbd281723	-0.04103769
231	0xbe34319a	-0.17597046
232	0xbce39ffd	-0.02778625
233	0x3d55c6b8	0.052191466
234	0xbc23120e	-0.009953035
235	0xbd99ca83	-0.07509329
236	0x3b64ac22	0.0034892638
237	0xbd3850d8	-0.044998974
238	0xbd6d9760	-0.05800569
239	0x3d906826	0.07051115
240	0x3e64ec15	0.22355683
241	0xbd3f3207	-0.04667857
242	0xbdbeb091	-0.09311021
243	0xbe0c933c	-0.1372804
244	0xbd783c14	-0.06060417
245	0x3d14ce67	0.036329653
246	0xbcecf56a	-0.028925616
247	0xbb728eb0	-0.0037011318
248	0xbb2c21bb	-0.0026265222
249	0xbd82cc5f	-0.06386637
250	0xbd6ade5d	-0.05734097
251	0xbe19e2fd	-0.15027995
252	0xbd313eec	-0.043272898
253	0x3b53aff7	0.0032300928
254	0x3de0f563	0.10984304
255	0x3da968fe	0.08271979

net.2.bias f4 [64]
0	0xbe0d5550	-0.13802075
1	0x3d82d0c8	0.06387478
2	0xbe8dec86	-0.27719516
3	0xbdcd505d	-0.10025094
4	0x3f389b46	0.7211193
5	0x3f493b35	0.7860597
6	0xbe5b5499	-0.2141899
7	0x3f3ce064	0.7377989
8	0xbe0bf1d8	-0.13666475
9	0x3f5adbb0	0.85491467
10	0x3dd2cf7a	0.10293479
11	0x3f333133	0.6999695
12	0x3f2a7a79	0.6659313
13	0x3f3aea10	0.730134
14	0xbec6c743	-0.388239
15	0x3d34da12	0.04415328
16	0xbe1eadb5	-0.15495951
17	0x3f2924ef	0.6607198
18	0xbb561867	-0.0032668354
19	0x3f4d1884	0.8011553
20	0xbcb46d1a	-0.02202468
21	0xbd5f9c1a	-0.05459223
22	0x3f233d52	0.6376544
23	0x3f265c9e	0.6498507
24	0x3f61b8eb	0.8817279
25	0x3d30a615	0.04312714
26	0x3f05fcd5	0.52338916
27	0x3e21a60e	0.15786001
28	0xbd34d7d1	-0.04415113
29	0x3f19fecb	0.6015441
30	0xbdf452bf	-0.11929845
31	0x3f26add2	0.6510898
32	0xbe81320d	-0.25233498
33	0x3f1c6f6d	0.6110752
34	0xbdfd524c	-0.123692125
35	0xbdc53c8d	-0.0963069
36	0x3f3256d7	0.6966376
37	0xbda31e86	-0.07964806
38	0x3f31e513	0.69490165
39	0x3f4b20ea	0.793471
40	0xbe99dc15	-0.30050722
41	0x3f21aa61	0.631506
42	0xbd937e3c	-0.07201812
43	0xbea33c17	-0.31881782
44	0x3f5ffb6c	0.87493014
45	0x3f53d39d	0.8274477
46	0xbe17ef0c	-0.14837283
47	0x3f4e1ebf	0.80515665
48	0xbd86752e	-0.06565319
49	0x3e7b14d0	0.24519658
50	0x3f639e35	0.8891328
51	0x3f4086a7	0.75205463
52	0xbe1b85ed	-0.15187807
53	0xbdfba5d9	-0.12287492
54	0xbddeb0cf	-0.10873567
55	0x3f1d6dd7	0.6149573
56	0xbe40bb86	-0.18821535
57	0x3f7c2cbd	0.98505765
58	0xbe23c30e	-0.15992376
59	0xbe5f8305	-0.21827324
60	0x3f576115	0.8413251
61	0xbe48ad02	-0.19597247
62	0x3f59b549	0.85042244
63	0x3f27dbbb	0.6556966

net.4.weight f4 [2, 64]
0	0xbf1857d9	-0.59509045
1	0xbdd6e9b1	-0.10493792
2	0xc016f252	-2.35854
3	0x3e251baa	0.16123834
4	0x3fc35657	1.5260724
5	0x3ff314c0	1.8990707
6	0xc04b4537	-3.1760995
7	0x3f885b1e	1.0652807
8	0x3e7f79b1	0.24948765
9	0x3fd97b53	1.699076
10	0xc097d11f	-4.7442775
11	0x3fbf6d63	1.4955257
12	0x3f783587	0.96956676
13	0x3fabb9fd	1.3416134
14	0xc014f979	-2.3277266
15	0x3c8cfe93	0.017211234
16	0x3d45e04d	0.048309613
17	0x3fb841cb	1.4395078
18	0x3d983e3e	0.07433747
19	0x3fc0ea0c	1.5071425
20	0xbd214bd1	-0.039378945
21	0xbdf946b9	-0.121716924
22	0x3fc5c91d	1.5452
23	0x3fc1d2ac	1.5142417
24	0x3fd51a4a	1.6648648
25	0xbcb7d69d	-0.022441203
26	0x3ff81146	1.9380271
27	0xbdb40edf	-0.08791899
28	0x3d995331	0.074865706
29	0x3fab6d72	1.3392775
30	0xc0f37350	-7.607826
31	0x3fdc8459	1.7227889
32	0xc09d14e8	-4.908802
33	0x3f99921a	1.1997712
34	0xc005383d	-2.0815575
35	0xc019f711	-2.4057047
36	0x3f9987e2	1.1994593
37	0x3f5aad1c	0.85420394
38	0x3ff35dd5	1.901301
39	0x3fa47ee3	1.2851223
40	0xbe8fcdb3	-0.28086624
41	0x3f8cc155	1.09965
42	0x3ea58c06	0.32333392
43	0xbe00900f	-0.12554954
44	0x3e4ff092	0.20306614
45	0x3f8f6992	1.1204093
46	0x3c343877	0.01099979
47	0x3fa158a8	1.2605181
48	0xbc56b21e	-0.01310399
49	0x3f37f7e0	0.718626
50	0x3f940016	1.1562526
51	0x3fad9647	1.3561486
52	0xbd890f9a	-0.06692429
53	0xc0b50ec0	-5.6580505
54	0xbccebc78	-0.025236353
55	0x3fb1d306	1.3892524
56	0xbeaca9d5	-0.33723322
57	0x3fa838ef	1.3142375
58	0xbd33b455	-0.04387315
59	0xbf6951f5	-0.9114068
60	0x3f308320	0.6895008
61	0x3d125cb1	0.03573293
62	0x3f71102c	0.941653
63	0x3fa43cd5	1.2831064
64	0x3f4e9848	0.8070111
65	0x3cac0b45	0.021001467
66	0xbfc6bf4e	-1.5527132
67	0xbe0c0973	-0.1367548
68	0x3fd30dcd	1.6488587
69	0x3ff999f2	1.9500105
70	0xc088e6d2	-4.2781763
71	0x3fa07dc6	1.2538383
72	0xbe8024bc	-0.25028026
73	0x3fbc8ae7	1.472989
74	0xc058e788	-3.3891315
75	0x3fa88d46	1.3168113
76	0x3fbd365c	1.4782214
77	0x3f933044	1.1499104
78	0xc0598706	-3.3988662
79	0xbdd75570	-0.10514343
80	0x3e28257f	0.16420554
81	0x3f7df040	0.9919472
82	0xbda657ad	-0.081221916
83	0x3fdeadc5	1.739678
84	0xbc36ac4e	-0.011149479
85	0xbe124660	-0.14284658
86	0x4002085f	2.031761
87	0x3fe5bb64	1.7947812
88	0x3f5c2660	0.85996056
89	0xbe1568c0	-0.1459074
90	0x3ee66e68	0.45006108
91	0x3bff917a	0.0077993246
92	0xbb919f53	-0.0044440418
93	0x3fb5106b	1.4145635
94	0xc05913b7	-3.3918283
95	0x3fe39e8d	1.7782761
96	0xc0c139f9	-6.0383267
97	0x3f9a876c	1.2072577
98	0xc02b8a8d	-2.6803315
99	0xc0033c6f	-2.0505636
100	0x3ff7914b	1.9341215
101	0x3f07b3d6	0.5300878
102	0x3f2130d2	0.6296512
103	0x3f8715fb	1.0553583
104	0xc03598be	-2.8374476
105	0x3fbcf759	1.4762985
106	0xbe53aa29	-0.2067038
107	0x3e37f625	0.1796499
108	0x3fbeb937	1.4900273
109	0x3f6cfea6	0.9257606
110	0x3ccfef1b	0.025382569
111	0x3fa54a49	1.2913295
112	0xbc05dff1	-0.008171068
113	0xbf1e6940	-0.6187935
114	0x4003174d	2.0482972
115	0x40123843	2.284684
116	0xbdf6c6a4	-0.120496064
117	0xc0970a97	-4.7200427
118	0x3da18450	0.07886565
119	0x3fac1e83	1.3446811
120	0x3f258d95	0.6466916
121	0x3f5a3827	0.8524193
122	0x3c929943	0.017895347
123	0x3ee2a6c4	0.44267857
124	0x3ff769c3	1.9329151
125	0x3dcbb2fd	0.09946249
126	0x3fbb79aa	1.4646504
127	0x3fcae508	1.5851145

net.4.bias f4 [2]
0	0x3f4c7a59	0.7987419
1	0x3ee52d3e	0.4476108

net.0.weight f4 [64, 4]
0	0xbc47ae59	-0.012187564
1	0x3d76e022	0.060272343
2	0x3ea4fd8b	0.32224688
3	0x3ccaaa3f	0.024739383
4	0x3e86dbd1	0.26339582
5	0xbe03a782	-0.12856868
6	0x3f9a6bc4	1.2064137
7	0x3dd4502c	0.10366854
8	0xbd50972e	-0.050925426
9	0x3d0fdd62	0.035123236
10	0x402ecfa7	2.731424
11	0x3e13dff4	0.144409
12	0xbdfda204	-0.12384418
13	0xbf2900cf	-0.6601686
14	0xbf92dfc8	-1.1474543
15	0xbee0f2e6	-0.43935317
16	0xbdabbd46	-0.083857104
17	0xbca87f96	-0.02056865
18	0x3d46d089	0.04853872
19	0x3b36b2bf	0.0027877537
20	0x3d94d30a	0.07266815
21	0xbeb510c4	-0.35364354
22	0xbfbfe388	-1.4991312
23	0xbec2ef53	-0.38073215
24	0xbd4a8dec	-0.049451753
25	0x3d7678ce	0.060173802
26	0xbf09e335	-0.53862315
27	0x3dea0f10	0.11428654
28	0xbda1f621	-0.079082735
29	0x3d17a182	0.03701926
30	0x3e259365	0.16169508
31	0x3df73e26	0.12072401
32	0xbc9bf91c	-0.019039683
33	0xbcdb237b	-0.026750317
34	0x3e927d5c	0.28611267
35	0xbe063b35	-0.13108523
36	0xbed19129	-0.4093106
37	0x3e016174	0.12634832
38	0x3ef524f2	0.4787975
39	0x3df74d08	0.120752394
40	0xbe92c70b	-0.28667483
41	0x3d1d953e	0.038472407
42	0xbf796b47	-0.9742932
43	0xbdc0bbb9	-0.09410805
44	0xbd97fa3d	-0.07420776
45	0xbde5baec	-0.11217293
46	0xc00eb3a7	-2.229715
47	0xbe87bc6a	-0.26510936
48	0xbeb65d15	-0.3561789
49	0xbe81358b	-0.25236163
50	0xbdfff2d0	-0.12497485
51	0xbe26c191	-0.16284777
52	0x3e7802a5	0.24219759
53	0x3de5ce95	0.11221043
54	0x3fd28506	1.6446846
55	0x3efb70ca	0.4910949
56	0x3cdbbcc9	0.026823418
57	0xbc0dfda5	-0.008666431
58	0xbe3e6a88	-0.18595326
59	0xbcb08648	-0.021548405
60	0x3eb3d7a0	0.35125446
61	0x3db00142	0.0859399
62	0x400647b3	2.0981262
63	0x3f00f885	0.5037921
64	0x3e26b6a5	0.16280611
65	0x3f0a83fb	0.54107636
66	0xbe938381	-0.28811267
67	0x3eb44dd7	0.35215637
68	0x3e4d44a4	0.20045716
69	0xbd9c0dc7	-0.07619815
70	0xbe1f2414	-0.15541106
71	0x3dc87a71	0.09788979
72	0x3d06b4cd	0.03288727
73	0xbd270c7e	-0.040783398
74	0xbd831bb4	-0.06401768
75	0xbceed76a	-0.029155452
76	0xbe4c087d	-0.19925113
77	0xbe94b445	-0.29043785
78	0xbfffdfbd	-1.9990155
79	0xbe7ae524	-0.24501473
80	0x3c02e43c	0.007988986
81	0x3d541181	0.051774506
82	0xbf154cbd	-0.5832022
83	0x3cb50a88	0.022099748
84	0x3ef15fce	0.47143406
85	0x3e7dd0fc	0.24786752
86	0x3f1becd6	0.6090826
87	0x3e398cbf	0.18120097
88	0x3d8490db	0.064729415
89	0xbedcf4e2	-0.4315558
90	0xbee76787	-0.45196173
91	0x3e2e63da	0.17030278
92	0x3ec2921a	0.38002092
93	0xbe35ebe8	-0.17765772
94	0xbf635d87	-0.88814586
95	0xbe849e49	-0.25902012
96	0x3cae6900	0.021290302
97	0x3da6ab29	0.08138115
98	0x401160ef	2.2715414
99	0xbd413754	-0.047171906
100	0xbd20f49b	-0.039295774
101	0xbf56e3fb	-0.8394162
102	0x3e1fa6fb	0.15591042
103	0xbee60791	-0.44927648
104	0x3e833123	0.25623426
105	0x3e91a0b1	0.2844291
106	0x3fc1af8c	1.5131698
107	0x3e7ba01b	0.24572794
108	0x3f234aeb	0.6378619
109	0x3f014c3d	0.50506955
110	0x3fc7fa92	1.5623343
111	0x3eb6f682	0.35734946
112	0x3ee1b268	0.44081426
113	0xbe89b3cb	-0.26894984
114	0x3ff5e0c9	1.9209224
115	0x3cbd3f55	0.023101488
116	0xbdc334ba	-0.09531541
117	0xbe0451dc	-0.12921852
118	0xbf2e115e	-0.6799525
119	0xbeef672a	-0.46758395
120	0x3d0a47c3	0.033759844
121	0x3ec4834e	0.38381428
122	0x3fb1243f	1.3839186
123	0x3e85dc7a	0.26144773
124	0xbce9ce5a	-0.028540779
125	0xbca8e9d6	-0.020619314
126	0x3cee4b93	0.029088771
127	0xbd9100be	-0.0708022
128	0x3c49a86e	0.012308223
129	0x3d939c0c	0.07207498
130	0xbfba8249	-1.457101
131	0xbe4b3409	-0.19844069
132	0xbd102536	-0.035191737
133	0x3ccccbc8	0.024999514
134	0xbd4e6461	-0.050388698
135	0x3c968475	0.018373707
136	0xbcffb91d	-0.031216199
137	0x3e6b326d	0.22968455
138	0x3fb8ad94	1.4427972
139	0x3ecd1840	0.40057564
140	0x3e0f3732	0.13985899
141	0xbd6f5724	-0.058432713
142	0x3d006b35	0.03135224
143	0x3d1f570f	0.038901385
144	0x3cc8167f	0.02442479
145	0xbe0514c8	-0.12996209
146	0xc0345c0d	-2.8181183
147	0xbef024f1	-0.46903184
148	0x3e8b069c	0.2715348
149	0xbe2d3f6a	-0.16918722
150	0x3f90950f	1.1295489
151	0xbd95772a	-0.07298119
152	0xbd470800	-0.048591614
153	0x3d86282d	0.06550632
154	0xbe555a6a	-0.20835271
155	0x3e24714e	0.16058847
156	0x3e1a4396	0.15064844
157	0xbd9ceb0e	-0.076620206
158	0x3daac60b	0.08338555
159	0x3d32f955	0.043694813
160	0xbe112bb5	-0.14176829
161	0xbd42b818	-0.047538847
162	0xbe4604a0	-0.19337702
163	0xbd6e7e5a	-0.058225967
164	0x3f150b4a	0.5822035
165	0x3ee1a1d0	0.44068766
166	0xbf23a374	-0.63921285
167	0x3e7f3d14	0.24925643
168	0x3e2c6891	0.16836764
169	0x3d8fa6b1	0.07014216
170	0x401d2212	2.4552045
171	0x3eee9b4c	0.46602857
172	0xbdd1b661	-0.10239864
173	0x3e145515	0.14485581
174	0x3e62ebda	0.22160283
175	0x3e1e3aae	0.15452072
176	0x3d2bb63f	0.04192185
177	0xbce0e2c2	-0.027451877
178	0xbda6a0ae	-0.08136116
179	0xbc3cf067	-0.011531926
180	0xbdd1b0a3	-0.10238769
181	0x3ec79c45	0.38986412
182	0x4005155a	2.0794282
183	0x3d6bfb34	0.057612613
184	0xbdc2b72d	-0.09507594
185	0xbe0aba43	-0.13547616
186	0xc0162d50	-2.3465157
187	0xbed98ccc	-0.42490232
188	0x3ef4eb1f	0.47835633
189	0xbdc98c0e	-0.098411664
190	0xbfbe4238	-1.4863958
191	0xbe6a93b1	-0.22907902
192	0xbc300ad7	-0.010744772
193	0x3d350768	0.044196516
194	0xbaca70a8	-0.0015444951
195	0x3d1f4e76	0.038893186
196	0xbdf291e0	-0.1184423
197	0x3dbf79d4	0.09349409
198	0xbec6d1f4	-0.38832057
199	0x3dbed8be	0.09318684
200	0xbf2b05c1	-0.66805655
201	0x3e115e32	0.14196089
202	0xbff39b65	-1.9031798
203	0xbe336e2f	-0.175225
204	0xbea3b8ed	-0.31977025
205	0xbe9b9c89	-0.30392864
206	0x3e1bbd1a	0.15208855
207	0xbe3b3fa5	-0.18285997
208	0xbdb5112b	-0.08841165
209	0x3e873731	0.26409295
210	0x3fb0ac04	1.3802495
211	0x3e4d50af	0.2005031
212	0xbd003dc5	-0.031308908
213	0xbd630f21	-0.05543435
214	0x3f02624f	0.50931257
215	0x3e044840	0.12918186
216	0x3d17a547	0.037022855
217	0x3c7d8a22	0.015474828
218	0xbd539612	-0.05165679
219	0x3c93c053	0.018036043
220	0xbe1ab2b1	-0.15107228
221	0x3e06245c	0.13099808
222	0x3e687eb1	0.22704579
223	0xbe589751	-0.21151473
224	0x3e031713	0.12801771
225	0xbf089b53	-0.53362006
226	0xbf664c9c	-0.89960647
227	0xbe18ef16	-0.14934954
228	0x3d8d8ded	0.06911836
229	0xbdafbfd6	-0.08581512
230	0xbeecfc6b	-0.4628633
231	0x3c7c8f23	0.015414986
232	0x3b2f1ee7	0.00267213
233	0x3d4f2f80	0.05058241
234	0xbdd5222a	-0.10406907
235	0x3d9eda0e	0.077564344
236	0x3ca13009	0.019676225
237	0x3c343bd6	0.011000594
238	0xbf8f3b19	-1.118991
239	0xbeac4dbf	-0.33653066
240	0x3df028eb	0.117265545
241	0xbc4c4951	-0.012468652
242	0x3f82eff4	1.0229478
243	0x3c97d915	0.01853613
244	0xbcc5b041	-0.024131896
245	0x3c82b55c	0.01595562
246	0xbd696f0b	-0.056990664
247	0xbcef8be2	-0.029241506
248	0x3e0c7b3f	0.1371889
249	0xbe1aaecc	-0.15105742
250	0xbffb57aa	-1.9636128
251	0xbdece93d	-0.11567924
252	0x3de9cb3a	0.114157155
253	0xbdfd4143	-0.12365963
254	0x3ebbb1a7	0.36658975
255	0xbd5e197a	-0.054223515

net.0.bias f4 [64]
0	0x3eebc306	0.4604723
1	0x3dbb392a	0.091417626
2	0xbf13f9b1	-0.57802874
3	0xbe7d931b	-0.24763148
4	0xbe97ec9e	-0.29672712
5	0x3f05fe1b	0.5234086
6	0xbe4cc35f	-0.19996403
7	0x3f1d8ed3	0.6154606
8	0x3e847216	0.2586829
9	0xbeda3770	-0.4262042
10	0xbecca70f	-0.39971206
11	0xbf2e5ed5	-0.6811345
12	0xbee7d1d3	-0.4527727
13	0x3e52f3e6	0.20600852
14	0xbe160e7e	-0.14653966
15	0x3e918c1c	0.28427207
16	0xbe8f9c30	-0.2804885
17	0xbf092abd	-0.5358084
18	0xbe306c80	-0.1722889
19	0xbeccc5da	-0.399947
20	0xbee6b243	-0.45057878
21	0xbf4cfa20	-0.8006916
22	0x3d6523e4	0.05594243
23	0xbf5749b5	-0.84096843
24	0x3ecdab9e	0.40169996
25	0xbf27d4ed	-0.65559274
26	0xbf09e583	-0.5386583
27	0xbefe3998	-0.49653316
28	0xbd4b23e5	-0.04959478
29	0xbf2afd17	-0.66792434
30	0x3d31cf8c	0.043410823
31	0xbe8653ed	-0.26235905
32	0x3f11d8e6	0.56971586
33	0xbe2c7f07	-0.16845332
34	0xbf07c626	-0.53036726
35	0x3f0a49c3	0.540188
36	0x3e87a3c6	0.26492137
37	0x3eece94b	0.46271738
38	0xbe995e26	-0.29954642
39	0x3f3dc0c7	0.7412228
40	0xbf0ebe9d	-0.557596
41	0xbea1da80	-0.31612015
42	0x3f05efa9	0.5231882
43	0xbf00988b	-0.5023276
44	0xbe1b191e	-0.151463
45	0x3ee792f3	0.452293
46	0xbf4a37b1	-0.7899123
47	0xbf417956	-0.7557577
48	0xbdfd132c	-0.12357172
49	0x3ebfc3f4	0.37454188
50	0x3f0c103c	0.5471227
51	0xbea4152f	-0.32047412
52	0xbf084a7f	-0.5323867
53	0x3f189126	0.5959648
54	0xbe9390b7	-0.28821346
55	0xbf0c00a8	-0.546885
56	0xbe80ac93	-0.25131664
57	0xbedc35e2	-0.4300986
58	0xbe301820	-0.17196703
59	0x3f09d311	0.53837687
60	0xbf05a67d	-0.52207166
61	0xbe407149	-0.18793215
62	0x3f0f5736	0.5599245
63	0xbed2694a	-0.41095954

net.2.weight f4 [64, 64]
0	0xbe403f49	-0.18774141
1	0xbe306c80	-0.1722889
2	0x3ed5c31a	0.41750413
3	0x3df69d43	0.12041714
4	0x3cd3da65	0.025860975
5	0xbe2270cf	-0.15863346
6	0xbefbb84c	-0.49164045
7	0xbe8e5525	-0.27799335
8	0xbdd64c9a	-0.10463829
9	0x3d2a858f	0.041631278
10	0xbd3af6ef	-0.04564565
11	0xbe838915	-0.25690523
12	0xbe91b536	-0.28458565
13	0xbd71580b	-0.058921855
14	0xbe2d6327	-0.16932355
15	0xbdd47712	-0.10374273
16	0xbd8d1d6e	-0.06890379
17	0xbf129a1e	-0.57266414
18	0xbe1a759d	-0.15083928
19	0xbe65262a	-0.2237784
20	0x3ad17589	0.0015980463
21	0x3d921ead	0.07134757
22	0xbf26767f	-0.6502456
23	0xbf53d492	-0.8274623
24	0x3e6ca99a	0.23111573
25	0xbef5833c	-0.47951686
26	0x3f1f77dd	0.6229227
27	0x3e766c0b	0.24064653
28	0xbeeb38db	-0.45941815
29	0xbaa24551	-0.0012380277
30	0x3db6e32f	0.089300506
31	0x3e06d3bb	0.13166706
32	0xbf2719c7	-0.6527371
33	0x3d92c224	0.07165936
34	0xbea086f7	-0.3135297
35	0x3d5b55a9	0.05354849
36	0xbdf0a5ec	-0.11750397
37	0xbda4d7a7	-0.08048945
38	0xbe67846b	-0.22609107
39	0xbe512ce2	-0.20427278
40	0x3d9dfc2e	0.07714115
41	0xbe83d66d	-0.2574953
42	0x3c62ed6a	0.013850549
43	0xbe124365	-0.14283521
44	0x3d058a4d	0.032602597
45	0x3f021aac	0.5082195
46	0x3d94f925	0.07274083
47	0x3d94cd65	0.072657384
48	0xbd5dc53f	-0.054143187
49	0xbe289a27	-0.16465054
50	0xbdda6a82	-0.10664846
51	0xbefc9a14	-0.49336302
52	0xbdca5ac9	-0.09880597
53	0xbe0cb19d	-0.13739629
54	0x3dde4d0a	0.10854538
55	0x3dfd5e2b	0.12371477
56	0xbd380828	-0.044929653
57	0xbedf0952	-0.43561798
58	0xbb9e0a33	-0.004822993
59	0xbf0281cd	-0.5097931
60	0x3fc47ec8	1.535119
61	0xbc21964c	-0.009862494
62	0xbe6a62cb	-0.22889249
63	0x3ee54e02	0.44786078
64	0x3dbfd1e7	0.093662076
65	0x3ded9bca	0.1160198
66	0xbe4d6e49	-0.20061602
67	0x3e4ae1f0	0.19812751
68	0x3c540665	0.012940978
69	0x3d6f032b	0.05835263
70	0xbb7eafac	-0.0038862033
71	0xbe1d2236	-0.15345082
72	0xbe179cee	-0.14805958
73	0xbc3e45d0	-0.011613324
74	0xbdb35120	-0.08755708
75	0xbdbc7b38	-0.092031896
76	0x3deb5c03	0.11492159
77	0xbdb6d778	-0.08927816
78	0x3d35ad9a	0.044355012
79	0xbdfe0d2c	-0.12404856
80	0x3d487e38	0.048948497
81	0x3d16407d	0.036682595
82	0xbd47053b	-0.048588973
83	0xbe0eb925	-0.13937815
84	0xbd8a6acd	-0.06758652
85	0xbd12d645	-0.035848875
86	0xbbc20b70	-0.0059217736
87	0xbe178646	-0.14797315
88	0xbd97d52e	-0.07413708
89	0x3d568029	0.052368317
90	0x3e27257f	0.16322897
91	0xbe2763ff	-0.16346739
92	0xbdb72fbf	-0.08944654
93	0xbdab4d55	-0.08364359
94	0xbd713fd4	-0.058898762
95	0xbd518ac0	-0.051157713
96	0xbe35e610	-0.17763543
97	0x3cbeb1b7	0.0232781
98	0xbd70bbcc	-0.058772847
99	0xbd183abe	-0.037165396
100	0xbe5b6b8a	-0.21427742
101	0x3e2c71be	0.16840264
102	0x3e7e67cc	0.24844283
103	0xbe606d93	-0.21916799
104	0xbc21b486	-0.0098697
105	0xbd6b905b	-0.057510715
106	0xbd931656	-0.071819946
107	0x3cbb1180	0.022835493
108	0x3dbdef73	0.09274187
109	0xbb278727	-0.0025562735
110	0xbe308580	-0.17238426
111	0xbe390930	-0.18069911
112	0x3e464404	0.19361883
113	0xbe284d97	-0.16435848
114	0xbe07aae5	-0.13248785
115	0xbd579711	-0.052634303
116	0xbd0cbc8c	-0.0343595
117	0xbc6eced3	-0.014575678
118	0x3e1143ee	0.1418607
119	0xbd9a7b4e	-0.0754305
120	0xbe4e0769	-0.20120014
121	0xbd7c7ebb	-0.061644297
122	0x3e44c9c8	0.19217598
123	0x3ddb4929	0.107073136
124	0x3e16966e	0.14705822
125	0xbdd47d6f	-0.10375487
126	0xbe51a14a	-0.20471683
127	0x3dc3f611	0.09568418
128	0xbe64439b	-0.22291414
129	0xbf325338	-0.6965823
130	0xbeb4aa70	-0.35286283
131	0xbf75784c	-0.95886683
132	0xbdbc5748	-0.09196335
133	0xbf202d1f	-0.6256885
134	0x3d7aea0b	0.061258357
135	0xbe445881	-0.19174387
136	0xbe4d24d9	-0.20033588
137	0x3f31b94f	0.69423383
138	0x40200866	2.5005126
139	0xbede6d11	-0.43442586
140	0x3fa80bf6	1.312865
141	0xbf4401c8	-0.7656522
142	0x3de72cea	0.112878636
143	0xbeb7d880	-0.35907364
144	0xbe8bc035	-0.2729508
145	0xbd41a9c8	-0.047281057
146	0x3c813acb	0.015775105
147	0xbef42dd4	-0.47691214
148	0xbed3ee5a	-0.41392785
149	0xbdb6de80	-0.08929157
150	0xbe9c3326	-0.30507773
151	0x3f26c7bf	0.6514854
152	0xbed2969a	-0.41130525
153	0x3c0930b3	0.008373427
154	0x3f090ccd	0.5353516
155	0xbe271f3f	-0.16320513
156	0x3c2f83ae	0.010712547
157	0x3df235eb	0.1182669
158	0xbf309390	-0.6897516
159	0x3d72f48b	0.059315246
160	0xbe97f6c6	-0.2968046
161	0x3e18a2f0	0.14905906
162	0x3e07b5d4	0.13252956
163	0xbf01df4d	-0.50731355
164	0x3f19d73d	0.6009405
165	0xbe6e55bb	-0.23274891
166	0x3ea686e7	0.32524797
167	0xbe3e4760	-0.18581915
168	0x3fa40bbe	1.2816083
169	0x3f6eff42	0.9335824
170	0xbddfadab	-0.109217964
171	0xbd8471e5	-0.06467036
172	0x3d9a3359	0.07529325
173	0xbeb4b7b8	-0.35296416
174	0x3e961266	0.29310912
175	0xbe653822	-0.22384694
176	0xbdd3bf02	-0.10339166
177	0x3c66ff92	0.014099019
178	0xbf53a1ca	-0.82668746
179	0x3f52ea31	0.823886
180	0x3e27739e	0.16352698
181	0xbe2d1ff7	-0.16906725
182	0xbd0db1e3	-0.034593474
183	0xbef8344b	-0.48477396
184	0xbf87e70d	-1.0617386
185	0xbe9285cd	-0.28617707
186	0xbd9293de	-0.0715711
187	0xbf6ac6cb	-0.91709584
188	0x3f2ff9a7	0.68740314
189	0xbd763240	-0.060106516
190	0xbf5fdf62	-0.8745023
191	0x3ead84bf	0.3389034
192	0xbcd7dfba	-0.026351798
193	0x3d7636eb	0.060110968
194	0xbd526dfa	-0.051374413
195	0x3d5bfe70	0.053709447
196	0xbdbd22ac	-0.09235129
197	0xbd153de6	-0.036435984
198	0x3cf23e83	0.029570824
199	0xbdd88eba	-0.10574098
200	0xbdb7d560	-0.08976245
201	0xbd81c470	-0.063362956
202	0xbc6dd583	-0.014516237
203	0xbc498261	-0.012299151
204	0x3dd6ecc1	0.10494376
205	0xbdb8efc2	-0.09030105
206	0xbde15db8	-0.110042036
207	0x3c1d84a5	0.009614144
208	0x3cd30971	0.025761338
209	0xbdbd7f60	-0.092528105
210	0x3df47dbb	0.11938044
211	0xbe3660b8	-0.17810333
212	0xbd0ee28d	-0.034884024
213	0xbd5b36ea	-0.053519167
214	0x3cc8b8d0	0.024502188
215	0xbdad3947	-0.084581904
216	0xbe54318a	-0.20722023
217	0x3d2eb3de	0.042652003
218	0xbd359ef8	-0.044341058
219	0x3d8a17ac	0.06742796
220	0x3e1e5155	0.15460713
221	0x3c919e72	0.017775748
222	0x3cf43e9f	0.029815016
223	0xbdfe9c24	-0.12432125
224	0xbcfa608c	-0.030563615
225	0x3e81424c	0.25245893
226	0x3c0334b4	0.008008171
227	0xbe572c0a	-0.21012893
228	0xbd53269f	-0.051550504
229	0xbdf536ac	-0.119733185
230	0xbd281723	-0.04103769
231	0xbe343158	-0.17596948
232	0xbce39ffd	-0.02778625
233	0x3d55c6b8	0.052191466
234	0xbc2311bf	-0.0099529615
235	0xbd99ca83	-0.07509329
236	0x3b64ac22	0.0034892638
237	0xbd3850d0	-0.044998944
238	0xbd6d9760	-0.05800569
239	0x3d906865	0.07051162
240	0x3e64ec15	0.22355683
241	0xbd3f31c0	-0.046678305
242	0xbdbeb010	-0.09310925
243	0xbe0c9325	-0.13728006
244	0xbd783c1c	-0.0606042
245	0x3d14cef5	0.036330182
246	0xbcecf56a	-0.028925616
247	0xbb728eb0	-0.0037011318
248	0xbb2c2147	-0.0026264952
249	0xbd82cccc	-0.06386718
250	0xbd6ade5d	-0.05734097
251	0xbe19e2f6	-0.15027985
252	0xbd313eec	-0.043272898
253	0x3b53aff7	0.0032300928
254	0x3de0f582	0.10984327
255	0x3da968fe	0.08271979

net.2.bias f4 [64]
0	0xbe0d54e5	-0.13801916
1	0x3d82d17c	0.06387612
2	0xbe8dec75	-0.27719465
3	0xbdcd4fd1	-0.100249894
4	0x3f3671ac	0.712672
5	0x3f46724f	0.7751817
6	0xbe5ac1a4	-0.2136293
7	0x3f3a136a	0.72685874
8	0xbe0bf16d	-0.13666315
9	0x3f5b5254	0.856725
10	0x3dd2cfa1	0.10293508
11	0x3f34728b	0.7048728
12	0x3f2e9dbd	0.6820944
13	0x3f3969da	0.7242714
14	0xbec66d6e	-0.38755363
15	0x3d350949	0.04419831
16	0xbe1ead86	-0.15495881
17	0x3f2c028a	0.67191374
18	0xbb561842	-0.0032668267
19	0x3f4a182c	0.78943133
20	0xbcb46cb8	-0.022024497
21	0xbd5f9b6a	-0.054591574
22	0x3f22dc9a	0.6361786
23	0x3f2986a5	0.66221076
24	0x3f602e72	0.8757087
25	0x3d30a64f	0.043127354
26	0x3f0763bf	0.52886575
27	0x3e21a676	0.15786156
28	0xbd34d7c0	-0.044151068
29	0x3f1a8948	0.60365725
30	0xbdf28b38	-0.1184296
31	0x3f254bcc	0.6456878
32	0xbe7af412	-0.24507168
33	0x3f1d652e	0.6148251
34	0xbddfadfb	-0.10921856
35	0xbdc2d6f4	-0.09513655
36	0x3f2e48f0	0.68080044
37	0xbd6418ef	-0.05568784
38	0x3f331086	0.6994709
39	0x3f48e7f5	0.7847894
40	0xbe99dbee	-0.30050606
41	0x3f1ea060	0.6196346
42	0xbd937e3e	-0.07201813
43	0xbea33bb1	-0.31881478
44	0x3f61ccb9	0.88203007
45	0x3f531041	0.82446676
46	0xbe17eef6	-0.1483725
47	0x3f4a5c74	0.7904732
48	0xbd8674bd	-0.06565235
49	0x3e896445	0.26834312
50	0x3f5fd106	0.8742832
51	0x3f3fd6a3	0.74936885
52	0xbe1b85b6	-0.15187725
53	0xbdfb9c68	-0.122856915
54	0xbddeb042	-0.10873462
55	0x3f1ec736	0.6202272
56	0xbe40a8b4	-0.18814355
57	0x3f7a2475	0.9771188
58	0xbe23c317	-0.1599239
59	0xbe5f826a	-0.21827093
60	0x3f5486dc	0.8301828
61	0xbe48ac51	-0.19596983
62	0x3f5de484	0.8667681
63	0x3f25c2c3	0.6475031

net.4.weight f4 [2, 64]
0	0xbf1857a6	-0.5950874
1	0xbdd6ea69	-0.10493929
2	0xc016f29d	-2.358558
3	0x3e251baa	0.16123834
4	0x3fbf23d5	1.493281
5	0x3fed61d5	1.8545481
6	0xc04b6cc9	-3.1785147
7	0x3f86bfd4	1.0527291
8	0x3e7f793c	0.24948591
9	0x3fd6ba3b	1.6775583
10	0xc097d145	-4.7442956
11	0x3fbc8fad	1.4731346
12	0x3f781d70	0.9691992
13	0x3fa9be4a	1.3261197
14	0xc014cb8d	-2.3249238
15	0x3c8cfe2d	0.017211044
16	0x3d45e0b0	0.04830998
17	0x3fb5666f	1.4171885
18	0x3d983dde	0.07433675
19	0x3fbd5e70	1.4794445
20	0xbd214bd7	-0.039378967
21	0xbdf9474b	-0.12171801
22	0x3fc5bcbe	1.5448225
23	0x3fbfde57	1.4989728
24	0x3fd574e1	1.6676294
25	0xbcb7d628	-0.022440985
26	0x3ff3fce4	1.9061551
27	0xbdb40ef7	-0.08791917
28	0x3d9953fd	0.074867226
29	0x3fa94137	1.3223027
30	0xc0f3731c	-7.6078014
31	0x3fda52ab	1.7056478
32	0xc09d8dc9	-4.9235578
33	0x3f98d3d2	1.1939642
34	0xc0059126	-2.0869842
35	0xc019fca1	-2.4060442
36	0x3f9ae8e0	1.2102318
37	0x3f674b65	0.9034942
38	0x3fef9090	1.8715992
39	0x3fa3b2e8	1.2788973
40	0xbe8fcdb5	-0.2808663
41	0x3f8821c9	1.063531
42	0x3ea58c1e	0.32333463
43	0xbe00911c	-0.12555355
44	0x3e786b10	0.24259591
45	0x3f8e0f0a	1.109834
46	0x3c343927	0.010999954
47	0x3f9f39e1	1.2439538
48	0xbc56b2f1	-0.013104186
49	0x3f3bec89	0.734078
50	0x3f90e2d3	1.1319221
51	0x3faf23b1	1.3682767
52	0xbd890fec	-0.0669249
53	0xc0b50e70	-5.6580124
54	0xbccebca8	-0.025236443
55	0x3faf262d	1.3683525
56	0xbeacaf1b	-0.33727345
57	0x3fa711c5	1.3052298
58	0xbd33b458	-0.04387316
59	0xbf695222	-0.9114095
60	0x3f304dcc	0.6886871
61	0x3d125c66	0.03573265
62	0x3f73965f	0.95151323
63	0x3fa1631e	1.2608373
64	0x3f4e98b8	0.8070178
65	0x3cac0a9f	0.021001158
66	0xbfc6c020	-1.5527382
67	0xbe0c09a4	-0.13675553
68	0x3fcf991f	1.6218604
69	0x3ff85dfe	1.9403684
70	0xc089062b	-4.282003
71	0x3f9e8801	1.2385255
72	0xbe80254e	-0.2502846
73	0x3fc25054	1.5180764
74	0xc058e7c9	-3.389147
75	0x3fad982c	1.3562064
76	0x3fbc6af2	1.4720137
77	0x3f90e36a	1.1319401
78	0xc0594646	-3.3949142
79	0xbdd76d3f	-0.10518884
80	0x3e28257f	0.16420554
81	0x3f7c87d2	0.98644745
82	0xbda65806	-0.08122258
83	0x3fdbf4f1	1.7184125
84	0xbc36abb8	-0.011149339
85	0xbe124685	-0.14284714
86	0x3ffe3738	1.9860601
87	0x3fe4801a	1.7851593
88	0x3f57b836	0.8426546
89	0xbe1568dd	-0.14590783
90	0x3ee73cef	0.45163676
91	0x3bff9174	0.007799322
92	0xbb919f56	-0.004444043
93	0x3fba6c42	1.4564288
94	0xc0595e2c	-3.3963728
95	0x3fe0e424	1.7569623
96	0xc0bfa09d	-5.988356
97	0x3f99ab30	1.2005367
98	0xc02bb176	-2.6827064
99	0xc003349e	-2.0500865
100	0x3ff7c2a8	1.9356279
101	0x3ee85538	0.45377517
102	0x3f1f641c	0.6226213
103	0x3f88989b	1.0671571
104	0xc03598b8	-2.8374462
105	0x3fb9117d	1.4458462
106	0xbe53aa61	-0.20670463
107	0x3e37f6f7	0.17965303
108	0x3fc00cca	1.5003903
109	0x3f6a9daa	0.91646826
110	0x3ccfef1b	0.025382569
111	0x3fa13426	1.259404
112	0xbc05e04c	-0.008171152
113	0xbf213b5c	-0.629812
114	0x40011bdf	2.017326
115	0x400f7ba0	2.2419205
116	0xbdf6c773	-0.12049761
117	0xc0970ad5	-4.7200723
118	0x3da184de	0.078866705
119	0x3fb0d709	1.3815624
120	0x3f258dae	0.6466931
121	0x3f562007	0.8364262
122	0x3c929955	0.01789538
123	0x3ee2a71a	0.44268113
124	0x3ff52605	1.9152228
125	0x3dcbb350	0.099463105
126	0x3fbc1412	1.4693625
127	0x3fc61cb5	1.5477511

net.4.bias f4 [2]
0	0x3f55e453	0.8355152
1	0x3ee6e9f4	0.45100367

exp_avg f4 [64, 4]
0	0xbf53a864	-0.8267882
1	0x3f016232	0.5054046
2	0x3da3194d	0.0796381
3	0x3d93b8ac	0.07212958
4	0x3e2ecf43	0.17071252
5	0xbdb49a51	-0.08818496
6	0xbc9fedca	-0.019522566
7	0x3d851444	0.06498006
8	0x41e101b9	28.125841
9	0xc014e46e	-2.3264422
10	0xc0346b4d	-2.8190491
11	0xc0743fa0	-3.8163834
12	0x3ec775ad	0.38956967
13	0x3f337770	0.7010412
14	0xbcf313c9	-0.02967252
15	0xbe36aebc	-0.17840093
16	0x80000004	-6e-45
17	0x80000004	-6e-45
18	0x80000004	-6e-45
19	0x00000004	6e-45
20	0x3e2481d0	0.16065145
21	0x3deafc09	0.11473853
22	0xbc852b50	-0.016256005
23	0xbd001ae6	-0.031275652
24	0x00000004	6e-45
25	0x00000004	6e-45
26	0x80000004	-6e-45
27	0x00000004	6e-45
28	0xbfcb3ea2	-1.5878489
29	0x3f7a7512	0.97834885
30	0x3e200e80	0.15630531
31	0x3e013d2e	0.12620994
32	0xbe32ee74	-0.17473775
33	0x3dfd8190	0.12378228
34	0x3c7dba6b	0.01548634
35	0x3c9410e3	0.018074458
36	0x3f0b5972	0.5443336
37	0xbeffb473	-0.4994236
38	0xbd649514	-0.055806234
39	0xbdcebf7f	-0.10095119
40	0x4154a2f5	13.289784
41	0xc00d1f4a	-2.2050347
42	0xbfa91b9d	-1.3211552
43	0xbff0f1e5	-1.882382
44	0x00000004	6e-45
45	0x80000004	-6e-45
46	0x80000004	-6e-45
47	0x80000004	-6e-45
48	0x4110e627	9.05619
49	0xc0cc587e	-6.3858023
50	0xbf819835	-1.0124575
51	0xbf69fab6	-0.9139818
52	0x3f65b055	0.89722186
53	0xbe1bc6f9	-0.15212621
54	0xbdb560b7	-0.088563375
55	0xbde42ec0	-0.11141729
56	0x00000004	6e-45
57	0x00000004	6e-45
58	0x00000004	6e-45
59	0x00000004	6e-45
60	0x3f34db52	0.70647156
61	0xbea3460a	-0.31889373
62	0xbd9e9571	-0.077433474
63	0xbd2b2e4a	-0.04179219
64	0x3c3cf0d0	0.011532024
65	0x3c1918be	0.009344278
66	0xba774548	-0.0009432626
67	0xbbb9d2a3	-0.005670862
68	0x00000004	6e-45
69	0x80000004	-6e-45
70	0x80000004	-6e-45
71	0x00000004	6e-45
72	0x80000004	-6e-45
73	0x80000004	-6e-45
74	0x80000004	-6e-45
75	0x80000004	-6e-45
76	0xbe789403	-0.24275212
77	0xbf1e222e	-0.61770904
78	0x3c6ac1d2	0.014328437
79	0x3e20bdf1	0.15697457
80	0x00000004	6e-45
81	0x00000004	6e-45
82	0x80000004	-6e-45
83	0x80000004	-6e-45
84	0x00000004	6e-45
85	0x80000004	-6e-45
86	0x80000004	-6e-45
87	0x00000004	6e-45
88	0x3e23d95d	0.16000886
89	0x3e9c1206	0.304825
90	0xbbefc3fd	-0.007317065
91	0xbd9b5246	-0.07584052
92	0x00000004	6e-45
93	0x00000004	6e-45
94	0x80000004	-6e-45
95	0x80000004	-6e-45
96	0xbf25bbca	-0.6473967
97	0x3ec355eb	0.38151488
98	0x3d8b0f59	0.06790037
99	0x3d75f0a4	0.060043946
100	0xbeb19c54	-0.3468958
101	0xbeaa2f34	-0.33239138
102	0x3d209906	0.039208435
103	0x3dbfdace	0.093679056
104	0x80000004	-6e-45
105	0x80000004	-6e-45
106	0x80000004	-6e-45
107	0x80000004	-6e-45
108	0xbd974383	-0.07385924
109	0x3daf654d	0.085642435
110	0x3c847ee2	0.016173784
111	0x3b437d87	0.0029829459
112	0xbee79688	-0.45232034
113	0xbf107c76	-0.5643991
114	0x3d418aac	0.04725139
115	0x3e0fa9df	0.14029644
116	0x80000004	-6e-45
117	0x80000004	-6e-45
118	0x80000004	-6e-45
119	0x80000004	-6e-45
120	0xbf23cb1b	-0.6398179
121	0x3e30a783	0.172514
122	0x3d837694	0.06419101
123	0x3db3e49c	0.08783838
124	0x80000004	-6e-45
125	0x80000004	-6e-45
126	0x80000004	-6e-45
127	0x00000004	6e-45
128	0xbe93c3db	-0.28860363
129	0x3ebcb675	0.36857954
130	0x3c9f82b1	0.019471498
131	0x3cc851f9	0.02445315
132	0x00000004	6e-45
133	0x00000004	6e-45
134	0x00000004	6e-45
135	0x00000004	6e-45
136	0xb64588ff	-2.943503e-06
137	0xb325a4b8	-3.8566867e-08
138	0x34910e4a	2.701875e-07
139	0x354775da	7.4304774e-07
140	0xbf97478e	-1.1818712
141	0x3f5015de	0.81283367
142	0x3df057bb	0.11735483
143	0x3daf70fe	0.085664734
144	0xbea81a0a	-0.32832366
145	0xbe1a84c8	-0.15089715
146	0x3d3469f2	0.04404635
147	0x3c310e56	0.010806641
148	0xbee21e71	-0.4416385
149	0x3ea70049	0.32617405
150	0x3d364633	0.04450054
151	0x3d1d1ca7	0.038357403
152	0x80000004	-6e-45
153	0x80000004	-6e-45
154	0x00000004	6e-45
155	0x00000004	6e-45
156	0xbfe110cd	-1.7583252
157	0x3f9c41d8	1.2207594
158	0x3e2f140c	0.17097491
159	0x3e06b3b2	0.13154486
160	0x80000004	-6e-45
161	0x80000004	-6e-45
162	0x80000004	-6e-45
163	0x80000004	-6e-45
164	0xbd7b621a	-0.061372854
165	0x3d5cce60	0.053907752
166	0x3c53d106	0.012928253
167	0xb993c785	-0.00028186679
168	0xbeb4406e	-0.35205406
169	0x3d072806	0.032997154
170	0x3d4b8dfd	0.049695957
171	0x3cdc8945	0.026920924
172	0x80000004	-6e-45
173	0x00000004	6e-45
174	0x00000004	6e-45
175	0x80000004	-6e-45
176	0x80000004	-6e-45
177	0x80000004	-6e-45
178	0x80000004	-6e-45
179	0x80000004	-6e-45
180	0xbe008cb4	-0.12553674
181	0xbb95cf57	-0.004571836
182	0x3c4865b6	0.012231281
183	0x3c839861	0.01606387
184	0x00000004	6e-45
185	0x80000004	-6e-45
186	0x80000004	-6e-45
187	0x80000004	-6e-45
188	0xbc0deb9f	-0.0086621335
189	0x3b24a947	0.0025125311
190	0x39aec453	0.0003333414
191	0xbbd8b2c4	-0.0066131074
192	0x80000004	-6e-45
193	0x80000004	-6e-45
194	0x80000004	-6e-45
195	0x80000004	-6e-45
196	0xbf20c23a	-0.62796366
197	0x3eac1a01	0.3361359
198	0x3d7361f9	0.059419606
199	0x3d7c8da2	0.06165851
200	0x3f177084	0.5915606
201	0xbe74a351	-0.23890425
202	0xbd86e14b	-0.0658594
203	0xbcf23337	-0.029565437
204	0x3f49798f	0.7870111
205	0xbe0243a5	-0.12721117
206	0xbd99905c	-0.074982375
207	0xbdc9997c	-0.09843728
208	0xb1e551a2	-6.6740578e-09
209	0x3013dc79	5.37916e-10
210	0x3024e78d	5.9991906e-10
211	0x3020fb89	5.8565114e-10
212	0xbfcf96f0	-1.6217937
213	0x3f821a38	1.0164251
214	0x3e24d736	0.16097721
215	0x3e00ddce	0.12584612
216	0x00000000	0.0
217	0x00000000	0.0
218	0x00000000	0.0
219	0x00000000	0.0
220	0x80000004	-6e-45
221	0x00000004	6e-45
222	0x00000004	6e-45
223	0x80000004	-6e-45
224	0x3e5cd8b1	0.21567036
225	0xbe3e8be1	-0.18608047
226	0xbd0dce2a	-0.03462044
227	0x3da1aa1d	0.07893775
228	0x80000004	-6e-45
229	0x80000004	-6e-45
230	0x00000004	6e-45
231	0x00000004	6e-45
232	0x80000004	-6e-45
233	0x00000004	6e-45
234	0x00000004	6e-45
235	0x80000004	-6e-45
236	0xbebf279b	-0.37334904
237	0x3eb9f576	0.36320084
238	0x3ce08722	0.027408186
239	0x3d09c2a1	0.03363288
240	0x00000004	6e-45
241	0x00000004	6e-45
242	0x00000004	6e-45
243	0x00000004	6e-45
244	0x00000004	6e-45
245	0x00000004	6e-45
246	0x80000004	-6e-45
247	0x80000004	-6e-45
248	0x3e27ec40	0.16398716
249	0x3e54e73f	0.20791338
250	0xbcae6556	-0.021288555
251	0xbd2248bf	-0.039620157
252	0x00000004	6e-45
253	0x80000004	-6e-45
254	0x00000004	6e-45
255	0x00000004	6e-45
