CartPole/Experiment_1/23-09-26_22-10-39-937242_DQN/checkpoints/agent_72000.pt (torch, 82571 bytes, 24 tensors)

net.0.weight f4 [64, 4]
-0.023257839 0.11852205 0.0958422 -0.0015554244 0.2257358 -0.056476194 0.33183688 -0.004533751
-0.1186357 0.121864885 1.9862528 0.2602225 -0.1284632 -0.45616084 0.18376479 -0.3101951
-0.08385639 -0.020568294 0.048539206 0.0027877358 0.24263811 -0.1836678 -0.94554234 -0.14184327
-0.072207704 0.09872921 -0.56315696 0.094486944 -0.105875 -0.014599132 0.045552082 0.11351183
0.00706957 -0.059572123 0.08582812 -0.004107065 -0.1439654 0.05430353 -0.0062723076 0.16594717
-0.1993481 -0.071769334 -1.1098757 -0.09389582 0.026002735 -0.1344949 -1.9545676 -0.22010136
-0.31772512 -0.14958243 0.35482192 -0.06793594 0.11756351 0.5562151 0.40949106 -0.115248114
0.02682325 -0.008666424 -0.18595499 -0.021548524 -0.07647925 0.1565086 0.49438155 -0.02018103
0.33576578 0.4317971 -1.2004243 0.27760133 0.32692936 0.0662484 -0.24120788 -0.03335732
0.048201494 -0.042485498 -0.09614151 -0.03220898 -0.22954427 -0.22968623 -0.5976484 -0.1991482
0.04130242 0.08166534 -0.59668833 0.003357792 0.3756032 0.1436469 0.1205259 0.07073244
0.122243606 -0.17947394 -0.3967345 -0.06277817 0.36892968 -0.049263272 -0.24084428 -0.1051982
-0.13979541 0.22059934 1.3432565 -0.023980012 -0.27524924 -0.14968777 1.3091426 0.5372523
0.19987828 0.26228723 1.0618504 0.25138867 0.5611497 0.06834662 0.56456584 0.15069929
0.3356398 -0.18930593 1.049206 0.31560355 -0.16802008 -0.26185483 -0.97751796 -0.23008676
-0.21362364 0.26575494 0.94077426 -0.20283303 -0.028540602 -0.020619098 0.029088806 -0.07080355
0.033838063 -0.0058513246 -1.0755137 -0.19510554 -0.03519232 0.024999121 -0.05038932 0.018373393
-0.09470797 0.21326847 1.1161373 0.35463616 0.123912744 -0.048589587 -0.09012329 0.02445417
0.23077504 -0.09711689 -2.1447737 -0.23874395 -0.026366822 -0.36375403 0.7575504 -0.35299885
-0.0485909 0.06550647 -0.20835306 0.16058707 0.11698375 -0.10750573 -0.033333104 0.01791245
-0.14176744 -0.047538225 -0.19337428 -0.0582252 0.5484304 -0.06163704 -1.5418926 -0.22726922
-0.15072994 0.27877098 1.2969381 0.2050542 -0.20334293 0.21558733 0.33439487 0.09775674
0.041922227 -0.027451498 -0.081361 -0.011531797 -0.09090666 0.19922185 1.4120235 0.10754927
0.31980646 -0.12370508 -2.202328 -0.34995148 0.38642198 -0.15714486 -0.33841777 -0.4170135
-0.010744704 0.04419655 -0.0015444825 0.038893793 -0.096197575 0.04391049 -0.2318133 0.071002856
-0.06771565 -0.029620307 -0.76114076 -0.13191693 -0.7329199 -0.052893948 0.76620996 -2.7779606e-06
-0.08336717 0.20184796 1.2088687 0.23128258 -0.026403375 -0.05628854 0.29094136 0.043037616
0.037022855 0.015474828 -0.05165679 0.018036043 -0.20388843 0.15586315 0.77201104 0.054513495
0.14224133 -0.21955866 -0.9351354 0.15925623 0.06911839 -0.08581423 -0.46286747 0.015414832
-0.029093403 0.082347564 -0.072306134 0.045801703 0.13645767 -0.08851845 -0.71326536 -0.26525
0.11726465 -0.012468705 1.0229456 0.018535942 -0.024131887 0.01595536 -0.056990918 -0.02924141
0.21452102 -0.08906255 -1.3846695 -0.15740032 0.14592162 -0.15542117 0.39833668 -0.022458838
00000000: 3987 bebc b0bb f23d ea48 c43d 62df cbba
00000010: 4927 673e 9553 67bd 86e6 a93e dc8f 94bb
00000020: 46f7 f2bd 4c94 f93d 883d fe3f e23b 853e
00000030: db8b 03be ea8d e9be d62c 3c3e e4d1 9ebe
00000040: e6bc abbd d77e a8bc 0cd1 463d 72b2 363b
00000050: 2076 783e 6913 3cbe 100f 72bf 5d3f 11be
00000060: a2e1 93bd 8a32 ca3d 0e2b 10bf 5f82 c13d
00000070: fed4 d8bd 3331 6fbc d294 3a3d e478 e83d
00000080: daa7 e73b e601 74bd a7c6 af3d 8f94 86bb
00000090: aa6b 13be 616d 5e3d ee87 cdbb 0eee 293e
000000a0: e921 4cbe cdfb 92bd 6810 8ebf 744c c0bd
000000b0: b003 d53c 08b9 09be 452f fabf 4062 61be
000000c0: deac a2be 232c 19be 38ab b53e 0022 8bbd
000000d0: 23c5 f03d 1d64 0e3f d0a8 d13e 3407 ecbd
000000e0: 6fbc db3c 9efd 0dbc fc6a 3ebe 8886 b0bc
000000f0: 27a1 9cbd ca43 203e 941f fd3e b052 a5bc
00000100: 7ee9 ab3e 8214 dd3e 81a7 99bf c321 8e3e
00000110: 4963 a73e 3ead 873d 33ff 76be afa1 08bd
00000120: ee6e 453d 4605 2ebd d7e5 c4bd 90ed 03bd
00000130: a70d 6bbe de32 6bbe 7cff 18bf 81ed 4bbe
00000140: ba2c 293d 2840 a73d 91c0 18bf 670e 5c3b
00000150: 104f c03e 2c18 133e 48d6 f63d 2bdc 903d
00000160: db5a fa3d 04c8 37be c920 cbbe d791 80bd
00000170: 5ae4 bc3e 49c8 49bd e29f 76be 2772 d7bd
00000180: 8726 0fbe cbe4 613e d4ef ab3f bb71 c4bc
00000190: 78ed 8cbe c047 19be fc91 a73f 5e89 093f
000001a0: e4ac 4c3e 834a 863e b7ea 873f 04b6 803e
000001b0: 82a7 0f3f 50f9 8b3d 6387 103f ea50 1a3e
000001c0: fbd8 ab3e 6ad9 41be 624c 863f ca96 a13e
000001d0: 750d 2cbe d611 86be 9e3e 7abf dd9b 6bbe
000001e0: 28c0 5abe 0811 883e 95d6 703f 76b3 4fbe
000001f0: fbcd e9bc 62e9 a8bc a64b ee3c 7401 91bd
00000200: c899 0a3d 78bc bfbb 6faa 89bf bfc9 47be
00000210: d225 10bd f5ca cc3c 0865 4ebd cc83 963c
00000220: 41f6 c1bd 0d63 5a3e 96dd 8e3f df92 b53e
00000230: f7c5 fd3d e005 47bd 8f92 b8bd 1d54 c83c
00000240: 4b50 6c3e 38e5 c6bd f943 09c0 4b79 74be
00000250: 3cff d7bc f83d babe d3ee 413f 44bc b4be
00000260: 4007 47bd 4228 863d 815a 55be f070 243e
00000270: 2d95 ef3d f72b dcbd 4b88 08bd 21bd 923c
00000280: 7c2b 11be 71b7 42bd e803 46be 8c7d 6ebd
00000290: ef65 0c3f 1f77 7cbd bd5c c5bf 43b9 68be
000002a0: f358 1abe 12bb 8e3e 1102 a63f baf9 513e
000002b0: 2139 50be edc2 5c3e ce35 ab3e b034 c83d
000002c0: a4b6 2b3d f7e1 e0bc 99a0 a6bd ddef 3cbc
000002d0: 452d babd d000 4c3e 30bd b43f cb42 dc3d
000002e0: acbd a33e 1759 fdbd f1f2 0cc0 d72c b3be
000002f0: 1ad9 c53e 95ea 20be 1845 adbe cb82 d5be
00000300: 8e0a 30bc 7107 353d 3c70 caba 194f 1f3d
00000310: 3c03 c5bd 7cdb 333d 7760 6dbe f269 913d
00000320: 81ae 8abd 49a6 f2bc 1fda 42bf 3b15 07be
00000330: a3a0 3bbf 53a7 58bd 5626 443f 006d 3ab6
00000340: 68bc aabd 3bb1 4e3e 36bc 9a3f 57d5 6c3e
00000350: e44b d8bc d08e 66bd 44f6 943e 3648 303d
00000360: 47a5 173d 228a 7d3c 1296 53bd 53c0 933c
00000370: 21c8 50be 979a 1f3e 84a2 453f 8b49 5f3d
00000380: b6a7 113e fcd3 60be 0965 6fbf 1114 233e
00000390: f18d 8d3d 5fbf afbd f7fc ecbe 7e8e 7c3c
000003a0: 4a55 eebc d7a5 a83d 3d15 94bd 919a 3b3d
000003b0: 8fbb 0b3e 2949 b5bd 8f98 36bf d9ce 87be
000003c0: 7328 f03d 8a49 4cbc e2ef 823f b0d8 973c
000003d0: 3cb0 c5bc d1b4 823c 4f6f 69bd ae8b efbc
000003e0: 66ab 5b3e 6d66 b6bd da3c b1bf 8d2d 21be
000003f0: 7a6c 153e ba26 1fbe c9f2 cb3e 99fb b7bc

net.0.bias f4 [64]
0.4310443 0.2379391 -0.48221678 -0.16345301 -0.29673266 0.38033265 -0.15949199 0.5400717
0.35652626 -0.44561577 -0.35545006 -0.42913598 -0.5319474 -0.31240454 -0.14654225 0.11906348
-0.043916818 -0.3279888 -0.08980318 -0.13714664 -0.4148688 -0.687189 0.19918363 -0.63652885
0.3508937 -0.62968296 -0.5606392 -0.6873489 -0.16294385 -0.41561633 -0.35450175 -0.2623621
0.3901784 -0.16845371 -0.47543612 0.4837897 0.26674277 0.01316781 -0.2995464 0.6407987
-0.55760485 -0.40321517 0.40159118 -0.39549834 -0.15146525 0.4176778 -0.571086 -0.50839174
-0.12357267 0.3751432 0.3590208 -0.2928506 -0.438379 0.53108203 -0.28821346 -0.39656678
0.25315472 -0.43010047 -0.14020263 0.44998598 -0.5220763 -0.1879339 0.43299776 -0.37919888
00000000: d7b1 dc3e 4fa6 733e 1ee5 f6be 3a60 27be
00000010: 58ed 97be f6ba c23e de51 23be 2442 0a3f
00000020: 9c8a b63e c027 e4be 8dfd b5be b6b7 dbbe
00000030: b42d 08bf 7df3 9fbe 2c0f 16be 8ed7 f33d
00000040: 1fe2 33bd 26ee a7be bbea b7bd 2b70 0cbe
00000050: af69 d4be 9eeb 2fbf cbf6 4b3e 8ef3 22bf
00000060: 57a8 b33e e732 21bf 0d86 0fbf 19f6 2fbf
00000070: c1da 26be aacb d4be 4181 b5be 5354 86be
00000080: 77c5 c73e 217f 2cbe 5d6c f3be 49b3 f73e
00000090: 8292 883e ccbd 573c 255e 99be 620b 243f
000000a0: 31bf 0ebf 3872 cebe 5c9d cd3e c27e cabe
000000b0: b519 1bbe ddd9 d53e b132 12bf f625 02bf
000000c0: ab13 fdbd c512 c03e 93d1 b73e 84f0 95be
000000d0: 3673 e0be fef4 073f b790 93be cd0a cbbe
000000e0: 7f9d 813e 2136 dcbe 4791 0fbe 9064 e63e
000000f0: cba6 05bf bf71 40be e2b1 dd3e 5b26 c2be

net.2.weight f4 [64, 64]
-0.18774211 -0.17229062 0.4175053 0.12041561 0.025860975 -0.1586354 -0.49164233 -0.27799696
-0.104638375 0.041631352 -0.045645013 -0.256905 -0.28458762 -0.05892125 -0.16932398 -0.10374381
-0.068905205 -0.572667 -0.15083928 -0.22377665 0.0015980221 0.07134684 -0.6502472 -0.8274642
0.23111497 -0.47951734 0.6229145 0.2406443 -0.4594195 -0.0012380277 0.089299016 0.13166706
-0.6527404 0.07165936 -0.31353188 0.05354787 -0.11750436 -0.08049068 -0.22609107 -0.20427346
0.0771422 -0.25749597 0.013850371 -0.14283413 0.032602597 0.5082071 0.07274054 0.07265685
-0.054143187 -0.16465238 -0.10664909 -0.493366 -0.09880707 -0.13739906 0.108545355 0.123713195
-0.044930216 -0.4356222 -0.004822993 -0.5097989 1.5351144 -0.009862494 -0.22889304 0.4478578
0.09366082 0.11601875 -0.20061609 0.19812562 0.012940978 0.058353093 -0.003886217 -0.15345143
-0.14806084 -0.011613441 -0.08755711 -0.09203189 0.11492277 -0.08927897 0.044355012 -0.12404926
0.048947744 0.036682203 -0.048588973 -0.13937981 -0.06758729 -0.03584855 -0.0059217573 -0.14797428
-0.07413755 0.0523679 0.16322944 -0.16346876 -0.08944527 -0.08364359 -0.05889894 -0.051157713
-0.17763756 0.0232781 -0.058773264 -0.0371661 -0.21427932 0.16839968 0.24844272 -0.21916829
-0.009869558 -0.057510775 -0.0718202 0.022835836 0.09274187 -0.0025562812 -0.17238577 -0.18070182
0.19361883 -0.16435985 -0.13248888 -0.052633677 -0.034358826 -0.014575675 0.14186065 -0.07543046
-0.20120208 -0.06164392 0.19217385 0.10707294 0.14705963 -0.10375487 -0.20471767 0.095685154
-0.19114982 -0.69658846 -0.3528636 -0.9271115 -0.09196377 -0.59392536 0.06125778 -0.15997998
-0.16857265 0.72599685 2.532238 -0.43442154 1.3446218 -0.76564986 0.11287838 -0.3590749
-0.27295488 -0.04728055 0.015775105 -0.44514647 -0.4139307 -0.08929198 -0.27331296 0.65148807
-0.3795439 0.04013762 0.53535783 -0.16320513 0.010712436 0.11826578 -0.6897622 0.059315152
-0.29680598 0.14905906 0.13252677 -0.47555414 0.63269585 -0.20098346 0.32524985 -0.15405366
1.2815872 0.9335711 -0.077453285 -0.06467134 0.07529325 -0.32120308 0.29311278 -0.2238455
-0.10339166 0.045863174 -0.79492766 0.855639 0.16352463 -0.137303 -0.034593474 -0.48476937
-1.0617425 -0.2861718 -0.071572475 -0.88533145 0.6874082 -0.060106516 -0.8427449 0.33890635
-0.026352093 0.060110178 -0.05137488 0.053709447 -0.09235129 -0.03643665 0.0295707 -0.10574179
-0.08976323 -0.063362956 -0.014516237 -0.0122992275 0.10494279 -0.09030105 -0.110042036 0.009613962
0.02576116 -0.09252936 0.11938044 -0.17810327 -0.0348841 -0.053519167 0.024502046 -0.084581904
-0.2072215 0.042651437 -0.044341054 0.06742796 0.15460575 0.017775748 0.029815016 -0.12432118
-0.03056374 0.25245893 0.008007982 -0.21012884 -0.051550504 -0.11973347 -0.04103769 -0.17597046
-0.02778625 0.052191466 -0.009953035 -0.07509329 0.0034892638 -0.044998974 -0.05800569 0.07051115
0.22355683 -0.04667857 -0.09311021 -0.1372804 -0.06060417 0.036329653 -0.028925616 -0.0037011318
-0.0026265222 -0.06386637 -0.05734097 -0.15027995 -0.043272898 0.0032300928 0.10984304 0.08271979
00000000: 783f 40be f46c 30be 41c3 d53e 769c f63d
00000010: 65da d33c 5171 22be 8bb8 fbbe 9e55 8ebe
00000020: a54c d6bd a385 2a3d 44f6 3abd 0d89 83be
00000030: 78b5 91be 6957 71bd 4463 2dbe a277 d4bd
00000040: 2c1e 8dbd 4e9a 12bf 9d75 1abe b525 65be
00000050: b974 d13a 4b1e 923d 9a76 26bf b2d4 53bf
00000060: 67a9 6c3e 4c83 f5be 5377 1f3f 766b 763e
00000070: 0839 ebbe 5145 a2ba 67e2 b63d bbd3 063e
00000080: ff19 27bf 24c2 923d 4087 a0be 0355 5b3d
00000090: 20a6 f0bd 4cd8 a4bd 6b84 67be 102d 51be
000000a0: bbfc 9d3d 83d6 83be abec 623c 1c43 12be
000000b0: 4d8a 053d dc19 023f fef8 943d 1dcd 943d
000000c0: 3fc5 5dbd a29a 28be d76a dabd 789a fcbe
000000d0: 5c5b cabd 57b2 0cbe 074d de3d 585d fd3d
000000e0: bf08 38bd df09 dfbe 330a 9ebb 2e82 02bf
000000f0: a17e c43f 4c96 21bc f062 6abe 9e4d e53e
00000100: 3ed1 bf3d 3d9b ed3d 4e6e 4dbe 71e1 4a3e
00000110: 6506 543c a703 6f3d e7af 7ebb 5f22 1dbe
00000120: 439d 17be 4d46 3ebc 2451 b3bd 377b bcbd
00000130: a15c eb3d e5d7 b6bd 9aad 353d 8a0d febd
00000140: 6e7d 483d 1440 163d 3b05 47bd 95b9 0ebe
00000150: 356b 8abd eed5 12bd 4d0b c2bb 9286 17be
00000160: 6ed5 97bd b97f 563d 9e25 273e 5b64 27be
00000170: 152f b7bd 554d abbd 0440 71bd c08a 51bd
00000180: 9fe6 35be b7b1 be3c 3cbc 70bd 7b3b 18bd
00000190: 0a6c 5bbe f770 2c3e c567 7e3e a76d 60be
000001a0: edb3 21bc 6b90 6bbd 7816 93bd 3812 bb3c
000001b0: 73ef bd3d 4887 27bb e585 30be e609 39be
000001c0: 0444 463e f34d 28be 2aab 07be 6996 57bd
000001d0: d7bb 0cbd d0ce 6ebc eb43 113e 497b 9abd
000001e0: eb07 4ebe 567e 7cbd 39c9 443e 0f49 db3d
000001f0: cd96 163e 6f7d d4bd 82a1 51be 94f6 c33d
00000200: c7bc 43be 9f53 32bf 8aaa b4be 2e57 6dbf
00000210: 8057 bcbd 7e0b 18bf 70e9 7a3d cbd1 23be
00000220: 4f9e 2cbe eeda 393f 3010 2240 806c debe
00000230: 911c ac3f a101 44bf c82c e73d aad8 b7be
00000240: bec0 8bbe 40a9 41bd cb3a 813c 3dea e3be
00000250: baee d3be b7de b6bd adef 8bbe ecc7 263f
00000260: 9453 c2be 5867 243d 360d 093f 3f1f 27be
00000270: 3783 2f3c 5435 f23d 4194 30bf 72f4 723d
00000280: f4f6 97be f0a2 183e 19b5 073e d57b f3be
00000290: 5bf8 213f 9cce 4dbe 2687 a63e 3ec0 1dbe
000002a0: 0d0b a43f 84fe 6e3f d49f 9ebd 6872 84bd
000002b0: 5933 9a3d bb74 a4be e112 963e c137 65be
000002c0: 02bf d3bd 06db 3b3d 6180 4bbf 280b 5b3f
000002d0: 0073 273e 2899 0cbe e3b1 0dbd b133 f8be
000002e0: 2ee7 87bf 1c85 92be 9794 92bd 15a5 62bf
000002f0: fcf9 2f3f 4032 76bd 21be 57bf 2285 ad3e
00000300: 58e0 d7bc 1736 763d 776e 52bd 70fe 5b3d
00000310: ac22 bdbd 993e 15bd 413e f23c 278f d8bd
00000320: c9d5 b7bd 70c4 81bd 83d5 6dbc b382 49bc
00000330: 3fec d63d c2ef b8bd b85d e1bd e183 1d3c
00000340: 1109 d33c 0880 bdbd bb7d f43d b460 36be
00000350: a1e2 0ebd ea36 5bbd 84b8 c83c 4739 adbd
00000360: df31 54be 46b3 2e3d f79e 35bd ac17 8a3d
00000370: f850 1e3e 729e 913c 9f3e f43c 1a9c febd
00000380: cf60 fabc 4c42 813e e933 033c 042c 57be
00000390: 9f26 53bd d236 f5bd 2317 28bd 9a31 34be
000003a0: fd9f e3bc b8c6 553d 0e12 23bc 83ca 99bd
000003b0: 22ac 643b d850 38bd 6097 6dbd 2668 903d
000003c0: 15ec 643e 0732 3fbd 91b0 bebd 3c93 0cbe
000003d0: 143c 78bd 67ce 143d 6af5 ecbc b08e 72bb
000003e0: bb21 2cbb 5fcc 82bd 5dde 6abd fde2 19be
000003f0: ec3e 31bd f7af 533b 63f5 e03d fe68 a93d

net.2.bias f4 [64]
-0.13802075 0.06387478 -0.24542946 -0.10025094 0.5679937 0.60438216 -0.18687576 0.53757966
-0.13666475 0.72465676 0.1779525 0.46585837 0.57653785 0.5191656 -0.3485347 0.0759189
-0.15495951 0.5085218 -0.0032668354 0.5432772 0.009722281 -0.05459223 0.60998684 0.4921829
0.64292914 0.04312714 0.34930292 0.15786001 -0.04415113 0.38151047 -0.14040726 0.6169912
-0.13415632 0.4928919 -0.037679303 -0.0559136 0.54819685 -0.07622966 0.52534336 0.60929614
-0.30050722 0.44841018 -0.07201812 -0.23943453 0.7240075 0.6278766 -0.14837283 0.59700954
-0.06565319 0.09280066 0.669766 0.5843128 -0.12011685 -0.13368264 -0.10873567 0.5411352
0.19199973 0.7516886 -0.13788843 -0.104109205 0.5836557 -0.15997157 0.6603395 0.4533601
00000000: 5055 0dbe c8d0 823d dc51 7bbe 5d50 cdbd
00000010: 0968 113f cab8 1a3f 5c5c 3fbe d29e 093f
00000020: d8f1 0bbe 1b83 393f 2e39 363e fd84 ee3e
00000030: fc97 133f 09e8 043f 2473 b2be 5e7b 9b3d
00000040: b5ad 1ebe 7c2e 023f 6718 56bb 3714 0b3f
00000050: 344a 1f3c 1a9c 5fbd 1928 1c3f 66ff fb3e
00000060: 0197 243f 15a6 303d d5d7 b23e 0ea6 213e
00000070: d1d7 34bd 5755 c33e ecc6 0fbe 23f3 1d3f
00000080: 4660 09be 545c fc3e 9d55 1abd a905 65bd
00000090: a156 0c3f 4c1e 9cbd e77c 063f d5fa 1b3f
000000a0: 15dc 99be 0596 e53e 3c7e 93bd 532e 75be
000000b0: 8e58 393f 85bc 203f 0cef 17be 9ed5 183f
000000c0: 2e75 86bd 460e be3d c975 2b3f 8695 153f
000000d0: d3ff f5bd 1ae4 08be cfb0 debd d687 0a3f
000000e0: 949b 443e aa6e 403f a032 0dbe 3537 d5bd
000000f0: 766a 153f 96cf 23be 020c 293f d11e e83e

net.4.weight f4 [2, 64]
-0.59509045 -0.10493792 -2.35854 0.16123834 0.9846522 1.2627132 -3.1833262 0.96685535
0.24948765 1.1599971 -3.08338 0.98398465 0.61773324 1.1873431 -1.7634586 0.017211234
0.048309613 0.89782584 0.07433747 1.4004242 -0.039378945 -0.121716924 0.88840336 1.3786471
1.422454 -0.022441203 1.0461528 -0.08791899 0.074865706 1.2973078 -2.4528513 1.1586471
-4.070205 0.6967784 -1.945938 -2.7458327 0.94269294 0.21101311 1.1777887 0.96262074
-0.28086624 0.84824014 0.32333392 -0.3304722 0.26204005 0.9560568 0.01099979 0.9626898
-0.01310399 0.4208723 1.1981189 1.116538 -0.06692429 -2.6348398 -0.025236353 0.8850481
-0.13199888 1.1484519 -0.0048479703 -0.07687066 0.76504153 -0.0016506136 0.70806533 1.1268961
0.8070111 0.021001467 -1.5844777 -0.1367548 1.286891 1.3212829 -4.4385743 0.67317706
-0.25028026 1.3606455 -2.296782 0.60825485 1.2201728 0.62837285 -3.727146 -0.13689707
0.16420554 1.190804 -0.081221916 1.0898058 0.020490913 -0.14284658 1.3244554 1.4199315
0.5496697 -0.1459074 0.9962862 0.0077993246 -0.0044440418 0.7125026 -2.757181 1.505113
-5.488505 1.1240485 -1.7824383 -1.4846771 1.2666104 0.060121667 1.0033748 0.6816443
-2.8374476 0.8375386 -0.2067038 0.23252301 1.1817338 0.5163521 0.025382569 0.8988282
-0.008171068 -0.32621005 1.3065783 1.6479057 -0.15183333 -2.8373137 0.07886565 1.1223289
0.52987206 0.4547854 0.049574915 0.003975174 1.2194153 0.1178455 1.1504389 0.75662154
00000000: d957 18bf b1e9 d6bd 52f2 16c0 aa1b 253e
00000010: 2b12 7c3f 96a0 a13f 9ebb 4bc0 d583 773f
00000020: b179 7f3e c97a 943f 1956 45c0 6be6 7b3f
00000030: c423 1e3f dcfa 973f 03b9 e1bf 93fe 8c3c
00000040: 4de0 453d ead7 653f 3e3e 983d 1a41 b33f
00000050: d14b 21bd b946 f9bd 676e 633f 8277 b03f
00000060: f912 b63f 9dd6 b7bc 56e8 853f df0e b4bd
00000070: 3153 993d 2f0e a63f 84fb 1cc0 8c4e 943f
00000080: 1f3f 82c0 1260 323f 7f14 f9bf b9bb 2fc0
00000090: 5354 713f d213 583e c8c1 963f 506e 763f
000000a0: b3cd 8fbe 4426 593f 068c a53e a733 a9be
000000b0: 1d2a 863e 23c0 743f 7738 343c d772 763f
000000c0: 1eb2 56bc 937c d73e f65b 993f b8ea 8e3f
000000d0: 9a0f 89bd 37a1 28c0 78bc cebc 8392 623f
000000e0: b72a 07be 7900 933f b9db 9ebb 5d6e 9dbd
000000f0: c3d9 433f 6759 d8ba c543 353f 223e 903f
00000100: 4898 4e3f 450b ac3c 2ad0 cabf 7309 0cbe
00000110: d8b8 a43f cc1f a93f cd08 8ec0 5555 2c3f
00000120: bc24 80be a229 ae3f 7afe 12c0 97b6 1b3f
00000130: 9f2e 9c3f 0bdd 203f 8f89 6ec0 bf2e 0cbe
00000140: 7f25 283e 446c 983f ad57 a6bd c27e 8b3f
00000150: 8fdc a73c 6046 12be c187 a93f 51c0 b53f
00000160: 27b7 0c3f c068 15be 9d0c 7f3f 7a91 ff3b
00000170: 539f 91bb 9266 363f a775 30c0 8ba7 c03f
00000180: d5a1 afc0 d2e0 8f3f f026 e4bf e609 bebf
00000190: 4a20 a23f 2342 763d 966e 803f 3e80 2e3f
000001a0: be98 35c0 ee68 563f 29aa 53be 831a 6e3e
000001b0: 0e43 973f a72f 043f 1bef cf3c 9b19 663f
000001c0: f1df 05bc 0105 a7be f53d a73f 93ee d23f
000001d0: 327a 1bbe 8c96 35c0 5084 a13d 79a8 8f3f
000001e0: b2a5 073f a2d9 e83e 110f 4b3d 2d42 823b
000001f0: cd15 9c3f fb58 f13d 9541 933f f3b1 413f

net.4.bias f4 [2]
0.62272954 0.41929448
00000000: 346b 1f3f c4ad d63e

net.0.weight f4 [64, 4]
-0.034155495 0.12280763 0.109576985 -0.0032631375 0.20613605 -0.042260215 0.35976115 0.001461404
-0.10235405 0.09126612 1.9620361 0.25961712 -0.13453719 -0.40855247 0.1926166 -0.3706267
-0.083857104 -0.02056865 0.04853872 0.0027877537 0.22861706 -0.17195842 -0.92932117 -0.13084465
-0.07220738 0.09872997 -0.56315124 0.09448761 -0.11844847 -0.009165728 0.06075145 0.11574964
-0.009083557 -0.059360206 0.09653015 -0.006145782 -0.1439677 0.054303236 -0.006272204 0.16594695
-0.19622311 -0.07250018 -1.1362417 -0.08749699 0.032059535 -0.14735036 -1.9560508 -0.16717835
-0.31503636 -0.14449145 0.40139422 -0.07620807 0.15688504 0.55244845 0.42870244 -0.09158435
0.026823418 -0.008666431 -0.18595326 -0.021548405 -0.0641309 0.19248936 0.54591846 -0.0268181
0.35576734 0.46548772 -1.1598955 0.3302332 0.3269062 0.066222765 -0.24123286 -0.03336975
0.048201207 -0.042485856 -0.09614164 -0.03220852 -0.24904881 -0.23699497 -0.64709234 -0.1863589
0.04129056 0.08168188 -0.5966133 0.00331156 0.37559006 0.14364526 0.12046263 0.07075234
0.098595574 -0.17306274 -0.40899467 -0.11134618 0.3688881 -0.049233135 -0.24102853 -0.10519574
-0.14969447 0.21198621 1.3572059 -0.035476997 -0.28201747 -0.14080754 1.2073976 0.51761454
0.22276983 0.22067553 1.018161 0.19704168 0.55322266 0.06640521 0.56318 0.11747137
0.3157684 -0.24512917 1.0234097 0.30977172 -0.17250282 -0.26783532 -1.0069607 -0.21704914
-0.19955994 0.25121158 0.89451534 -0.06621377 -0.028540779 -0.020619314 0.029088771 -0.0708022
0.02390802 0.009292387 -1.0603484 -0.18038958 -0.035191737 0.024999514 -0.050388698 0.018373707
-0.08308777 0.18346453 1.089597 0.31217694 0.111243635 -0.04280441 -0.07344945 0.029665198
0.2070308 -0.12784486 -2.133059 -0.21437812 -0.016326208 -0.3793712 0.9228063 -0.29846144
-0.048591614 0.06550632 -0.20835271 0.16058847 0.104161575 -0.10247863 -0.018891532 0.019909991
-0.14176829 -0.047538847 -0.19337702 -0.058225967 0.54931116 -0.06379349 -1.5434289 -0.22572063
-0.1312978 0.28685126 1.3087757 0.18500856 -0.20451477 0.21665086 0.33499384 0.09715655
0.04192185 -0.027451877 -0.08136116 -0.011531926 -0.104078226 0.19625536 1.4316494 0.103364274
0.31691286 -0.12145694 -2.2051616 -0.3560686 0.3854004 -0.1549561 -0.33851358 -0.41879028
-0.010744772 0.044196516 -0.0015444951 0.038893186 -0.107626915 0.051127847 -0.2188917 0.07368186
-0.07843529 -0.048753567 -0.8463816 -0.16838777 -0.7373214 -0.04970866 0.8061835 0.029827518
-0.058017477 0.17861272 1.1977288 0.23314583 -0.041145895 -0.05352892 0.3044401 0.041914742
0.037022855 0.015474828 -0.05165679 0.018036043 -0.20388281 0.15587038 0.77201796 0.054507006
0.14000972 -0.23586415 -0.9871069 0.240183 0.06911836 -0.08581512 -0.4628633 0.015414986
-0.029093241 0.08234911 -0.072305724 0.045802113 0.12911104 -0.071044475 -0.6929444 -0.2452949
0.117265545 -0.012468652 1.0229478 0.01853613 -0.024131896 0.01595562 -0.056990664 -0.029241506
0.21200198 -0.06147838 -1.3552496 -0.12282552 0.14593399 -0.1554072 0.39834902 -0.022450652
00000000: a2e6 0bbd 9182 fb3d e669 e03d 5dda 55bb
00000010: 5415 533e 0c19 2dbd 9d32 b83e 958c bf3a
00000020: 009f d1bd bbe9 ba3d 0024 fb3f 89ec 843e
00000030: 1ec4 09be ca2d d1be 493d 453e c8c2 bdbe
00000040: 46bd abbd 967f a8bc 89d0 463d bfb2 363b
00000050: 971a 6a3e de15 30be fee7 6dbf 24fc 05be
00000060: 76e1 93bd f032 ca3d ae2a 10bf b882 c13d
00000070: 1d95 f2bd da2b 16bc 83d6 783d 260e ed3d
00000080: 33d3 14bc b023 73bd 99b1 c53d 8e62 c9bb
00000090: 456c 13be 126d 5e3d 1087 cdbb ffed 293e
000000a0: b6ee 48be f97a 94bd 5e70 91bf 9f31 b3bd
000000b0: dc50 033d 03e3 16be df5f fabf cd30 2bbe
000000c0: 724c a1be 91f5 13be 8b83 cd3e fa12 9cbd
000000d0: 79a6 203e 436d 0d3f e37e db3e 9390 bbbd
000000e0: c9bc db3c a5fd 0dbc 886a 3ebe 4886 b0bc
000000f0: 1057 83bd ee1b 453e 50c1 0b3f a2b1 dbbc
00000100: 2327 b63e 6854 ee3e 7577 94bf 5314 a93e
00000110: 4060 a73e cd9f 873d bf05 77be b8ae 08bd
00000120: a16e 453d a605 2ebd e8e5 c4bd 15ed 03bd
00000130: a706 7fbe cfae 72be d8a7 25bf ded4 3ebe
00000140: 4a20 293d d448 a73d a6bb 18bf c206 593b
00000150: 574d c03e be17 133e 1db5 f63d 9ae6 903d
00000160: 7aec c93d 5c37 31be c067 d1be 7709 e4bd
00000170: e7de bc3e afa8 49bd 2fd0 76be dd70 d7bd
00000180: 8249 19be ea12 593e ecb8 ad3f 5450 11bd
00000190: 9864 90be da2f 10be 018c 9a3f 6382 043f
000001a0: c61d 643e c4f8 613e 1a53 823f 4bc5 493e
000001b0: 00a0 0d3f 74ff 873d 912c 103f d494 f03d
000001c0: 65ac a13e 2403 7bbe 17ff 823f 669a 9e3e
000001d0: 94a4 30be b621 89be 17e4 80bf 2142 5ebe
000001e0: 7159 4cbe ce9e 803e f5fe 643f 169b 87bd
000001f0: 5ace e9bc d6e9 a8bc 934b ee3c be00 91bd
00000200: c1da c33c 193f 183c 7fb9 87bf 0cb8 38be
00000210: 3625 10bd c8cb cc3c 6164 4ebd 7584 963c
00000220: ec29 aabd 20de 3b3e ea77 8b3f a8d5 9f3e
00000230: b4d3 e33d ad53 2fbd aa6c 96bd 6e04 f33c
00000240: e2ff 533e c3e9 02be 0a84 08c0 f085 5bbe
00000250: 8abe 85bc f13c c2be 093d 6c3f f0cf 98be
00000260: 0008 47bd 2d28 863d 6a5a 55be 4e71 243e
00000270: aa52 d53d 51e0 d1bd 6ac2 9abc 471a a33c
00000280: b52b 11be 18b8 42bd a004 46be 5a7e 6ebd
00000290: a89f 0c3f 29a6 82bd 148f c5bf 4f23 67be
000002a0: ee72 06be 2bde 923e f685 a73f e272 3d3e
000002b0: 526c 51be b9d9 5d3e 5084 ab3e 03fa c63d
000002c0: 3fb6 2b3d c2e2 e0bc aea0 a6bd 67f0 3cbc
000002d0: f726 d5bd 2af7 483e 4a40 b73f a6b0 d33d
000002e0: 6742 a23e 6bbe f8bd 5e21 0dc0 a04e b6be
000002f0: 3453 c53e d0ac 1ebe a751 adbe ae6b d6be
00000300: d70a 30bc 6807 353d a870 caba 764e 1f3d
00000310: 806b dcbd 6f6b 513d 2525 60be 84e6 963d
00000320: aea2 a0bd d2b1 47bd 77ac 58bf d86d 2cbe
00000330: 18c1 3cbf 4f9b 4bbd 0b62 4e3f d758 f43c
00000340: bca3 6dbd 41e6 363e 2d4f 993f c8bd 6e3e
00000350: 9988 28bd 2441 5bbd 93df 9b3e cbae 2b3d
00000360: 47a5 173d 228a 7d3c 1296 53bd 53c0 933c
00000370: a8c6 50be 7c9c 1f3e f8a2 453f bd42 5f3d
00000380: b55e 0f3e 5f86 71be 0ab3 7cbf 88f2 753e
00000390: ed8d 8d3d d6bf afbd 6bfc ecbe 238f 7c3c
000003a0: f354 eebc a6a6 a83d 0615 94bd ff9a 3b3d
000003b0: af35 043e c47f 91bd ce64 31bf 962e 7bbe
000003c0: eb28 f03d 5149 4cbc f4ef 823f 15d9 973c
000003d0: 41b0 c5bc 5cb5 823c 0b6f 69bd e28b efbc
000003e0: 0c17 593e c1d0 7bbd d278 adbf f28b fbbd
000003f0: b86f 153e 1123 1fbe 67f4 cb3e 6eea b7bc

net.0.bias f4 [64]
0.43058196 0.25378966 -0.4525502 -0.15609773 -0.29672712 0.3599848 -0.15949176 0.5379301
0.35497525 -0.4456137 -0.3523916 -0.43204838 -0.5282215 -0.24539927 -0.14653966 0.15517108
-0.05381375 -0.3279521 -0.08980268 -0.1258079 -0.41486958 -0.6872004 0.17203578 -0.63654065
0.3597451 -0.6269913 -0.5546061 -0.67856747 -0.12788622 -0.41636607 -0.3451177 -0.26235905
0.38720953 -0.16845332 -0.4474507 0.48093614 0.24319926 0.055945493 -0.29954642 0.6376478
-0.557596 -0.40126595 0.41783375 -0.39429334 -0.151463 0.42538247 -0.5657713 -0.5064942
-0.12357172 0.3749855 0.26498118 -0.28730997 -0.39577118 0.528763 -0.28821346 -0.3965607
0.18624769 -0.4300986 -0.14020069 0.45158112 -0.52207166 -0.18793215 0.42724353 -0.37918618
00000000: 3d75 dc3e b8f0 813e a9b4 e7be 15d8 1fbe
00000010: 9eec 97be ed4f b83e cf51 23be c9b5 093f
00000020: 51bf b53e 7b27 e4be ac6c b4be 7235 ddbe
00000030: 8639 07bf f249 7bbe 7e0e 16be 2be5 1e3e
00000040: cf6b 5cbd 56e9 a7be 78ea b7bd c9d3 00be
00000050: c969 d4be 5eec 2fbf 262a 303e 54f4 22bf
00000060: 8230 b83e 8082 20bf aafa 0dbf 99b6 2dbf
00000070: 9bf4 02be ef2d d5be 44b3 b0be ed53 86be
00000080: 5440 c63e 077f 2cbe 4218 e5be 433d f63e
00000090: 3a09 793e 1a27 653d 265e 99be e33c 233f
000000a0: 9dbe 0ebf bb72 cdbe 4eee d53e d1e0 c9be
000000b0: 1e19 1bbe bbcb d93e 63d6 10bf 9ba9 01bf
000000c0: 2c13 fdbd 19fe bf3e 9dab 873e 4b1a 93be
000000d0: 85a2 cabe 035d 073f b790 93be 010a cbbe
000000e0: b7b7 3e3e e235 dcbe c590 0fbe a435 e73e
000000f0: 7da6 05bf 4971 40be aabf da3e b124 c2be

net.2.weight f4 [64, 64]
-0.18774141 -0.1722889 0.41750413 0.12041714 0.025860975 -0.15863346 -0.49164045 -0.27799335
-0.10463829 0.041631278 -0.04564565 -0.25690523 -0.28458565 -0.058921855 -0.16932355 -0.10374273
-0.06890379 -0.57266414 -0.15083928 -0.2237784 0.0015980463 0.07134757 -0.6502456 -0.8274623
0.23111573 -0.47951686 0.6229227 0.24064653 -0.45941815 -0.0012380277 0.089300506 0.13166706
-0.6527371 0.07165936 -0.3135297 0.05354849 -0.11750397 -0.08048945 -0.22609107 -0.20427278
0.07714115 -0.2574953 0.013850549 -0.14283521 0.032602597 0.5082195 0.07274083 0.072657384
-0.054143187 -0.16465054 -0.10664846 -0.49336302 -0.09880597 -0.13739629 0.10854538 0.12371477
-0.044929653 -0.43561798 -0.004822993 -0.5097931 1.535119 -0.009862494 -0.22889249 0.44786078
0.093662076 0.1160198 -0.20061602 0.19812751 0.012940978 0.05835263 -0.0038862033 -0.15345082
-0.14805958 -0.011613324 -0.08755708 -0.092031896 0.11492159 -0.08927816 0.044355012 -0.12404856
0.048948497 0.036682595 -0.048588973 -0.13937815 -0.06758652 -0.035848875 -0.0059217736 -0.14797315
-0.07413708 0.052368317 0.16322897 -0.16346739 -0.08944654 -0.08364359 -0.058898762 -0.051157713
-0.17763543 0.0232781 -0.058772847 -0.037165396 -0.21427742 0.16840264 0.24844283 -0.21916799
-0.0098697 -0.057510715 -0.071819946 0.022835493 0.09274187 -0.0025562735 -0.17238426 -0.18069911
0.19361883 -0.16435848 -0.13248785 -0.052634303 -0.0343595 -0.014575678 0.1418607 -0.0754305
-0.20120014 -0.061644297 0.19217598 0.107073136 0.14705822 -0.10375487 -0.20471683 0.09568418
-0.19114782 -0.6965823 -0.35286283 -0.9271213 -0.09196335 -0.59391916 0.061258357 -0.15997754
-0.16857253 0.7260031 2.5322225 -0.43442586 1.3446462 -0.7656522 0.112878636 -0.35907364
-0.2729508 -0.047281057 0.015775105 -0.44514284 -0.41392785 -0.08929157 -0.27330843 0.6514854
-0.3795419 0.040138178 0.5353516 -0.16320513 0.010712547 0.1182669 -0.6897516 0.059315246
-0.2968046 0.14905906 0.13252956 -0.47555315 0.63269794 -0.20098259 0.32524797 -0.15405282
1.2816083 0.9335824 -0.077452585 -0.06467036 0.07529325 -0.32120082 0.29310912 -0.22384694
-0.10339166 0.045863952 -0.7949181 0.85564333 0.16352698 -0.13730092 -0.034593474 -0.48477396
-1.0617386 -0.28617707 -0.0715711 -0.88532656 0.68740314 -0.060106516 -0.84274495 0.3389034
-0.026351798 0.060110968 -0.051374413 0.053709447 -0.09235129 -0.036435984 0.029570824 -0.10574098
-0.08976245 -0.063362956 -0.014516237 -0.012299151 0.10494376 -0.09030105 -0.110042036 0.009614144
0.025761338 -0.092528105 0.11938044 -0.17810333 -0.034884024 -0.053519167 0.024502188 -0.084581904
-0.20722023 0.042652003 -0.044341058 0.06742796 0.15460713 0.017775748 0.029815016 -0.12432125
-0.030563615 0.25245893 0.008008171 -0.21012893 -0.051550504 -0.119733185 -0.04103769 -0.17596948
-0.02778625 0.052191466 -0.0099529615 -0.07509329 0.0034892638 -0.044998944 -0.05800569 0.07051162
0.22355683 -0.046678305 -0.09310925 -0.13728006 -0.0606042 0.036330182 -0.028925616 -0.0037011318
-0.0026264952 -0.06386718 -0.05734097 -0.15027985 -0.043272898 0.0032300928 0.10984327 0.08271979
00000000: 493f 40be 806c 30be 1ac3 d53e 439d f63d
00000010: 65da d33c cf70 22be 4cb8 fbbe 2555 8ebe
00000020: 9a4c d6bd 8f85 2a3d eff6 3abd 1589 83be
00000030: 36b5 91be 0b58 71bd 2763 2dbe 1277 d4bd
00000040: 6e1d 8dbd 1e9a 12bf 9d75 1abe 2a26 65be
00000050: 8975 d13a ad1e 923d 7f76 26bf 92d4 53bf
00000060: 9aa9 6c3e 3c83 f5be dd77 1f3f 0b6c 763e
00000070: db38 ebbe 5145 a2ba 2fe3 b63d bbd3 063e
00000080: c719 27bf 24c2 923d f786 a0be a955 5b3d
00000090: eca5 f0bd a7d7 a4bd 6b84 67be e22c 51be
000000a0: 2efc 9d3d 6dd6 83be 6aed 623c 6543 12be
000000b0: 4d8a 053d ac1a 023f 25f9 943d 65cd 943d
000000c0: 3fc5 5dbd 279a 28be 826a dabd 149a fcbe
000000d0: c95a cabd 9db1 0cbe 0a4d de3d 2b5e fd3d
000000e0: 2808 38bd 5209 dfbe 330a 9ebb cd81 02bf
000000f0: c87e c43f 4c96 21bc cb62 6abe 024e e53e
00000100: e7d1 bf3d ca9b ed3d 496e 4dbe f0e1 4a3e
00000110: 6506 543c 2b03 6f3d acaf 7ebb 3622 1dbe
00000120: ee9c 17be d045 3ebc 2051 b3bd 387b bcbd
00000130: 035c eb3d 78d7 b6bd 9aad 353d 2c0d febd
00000140: 387e 483d 7d40 163d 3b05 47bd 25b9 0ebe
00000150: cd6a 8abd 45d6 12bd 700b c2bb 4686 17be
00000160: 2ed5 97bd 2980 563d 7f25 273e ff63 27be
00000170: bf2f b7bd 554d abbd d43f 71bd c08a 51bd
00000180: 10e6 35be b7b1 be3c ccbb 70bd be3a 18bd
00000190: 8a6b 5bbe be71 2c3e cc67 7e3e 936d 60be
000001a0: 86b4 21bc 5b90 6bbd 5616 93bd 8011 bb3c
000001b0: 73ef bd3d 2787 27bb 8085 30be 3009 39be
000001c0: 0444 463e 974d 28be e5aa 07be 1197 57bd
000001d0: 8cbc 0cbd d3ce 6ebc ee43 113e 4e7b 9abd
000001e0: 6907 4ebe bb7e 7cbd c8c9 443e 2949 db3d
000001f0: 6e96 163e 6f7d d4bd 4aa1 51be 11f6 c33d
00000200: 41bc 43be 3853 32bf 70aa b4be d257 6dbf
00000210: 4857 bcbd 160b 18bf 0bea 7a3d 27d1 23be
00000220: 479e 2cbe 57db 393f ef0f 2240 116d debe
00000230: 5e1d ac3f c801 44bf ea2c e73d 80d8 b7be
00000240: 35c0 8bbe c8a9 41bd cb3a 813c c3e9 e3be
00000250: 5aee d3be 80de b6bd 15ef 8bbe bfc7 263f
00000260: 5153 c2be ee67 243d cd0c 093f 3f1f 27be
00000270: ae83 2f3c eb35 f23d 9093 30bf 8bf4 723d
00000280: c6f6 97be f0a2 183e d4b5 073e b47b f3be
00000290: 7ef8 213f 61ce 4dbe e786 a63e 06c0 1dbe
000002a0: be0b a43f 42ff 6e3f 769f 9ebd e571 84bd
000002b0: 5933 9a3d 6f74 a4be 6612 963e 2238 65be
000002c0: 02bf d3bd d7db 3b3d c17f 4bbf 710b 5b3f
000002d0: 9e73 273e 9d98 0cbe e3b1 0dbd 4b34 f8be
000002e0: 0de7 87bf cd85 92be de93 92bd c3a4 62bf
000002f0: a7f9 2f3f 4032 76bd 22be 57bf bf84 ad3e
00000300: badf d7bc eb36 763d fa6d 52bd 70fe 5b3d
00000310: ac22 bdbd e63d 15bd 833e f23c ba8e d8bd
00000320: 60d5 b7bd 70c4 81bd 83d5 6dbc 6182 49bc
00000330: c1ec d63d c2ef b8bd b85d e1bd a584 1d3c
00000340: 7109 d33c 607f bdbd bb7d f43d b860 36be
00000350: 8de2 0ebd ea36 5bbd d0b8 c83c 4739 adbd
00000360: 8a31 54be deb3 2e3d f89e 35bd ac17 8a3d
00000370: 5551 1e3e 729e 913c 9f3e f43c 249c febd
00000380: 8c60 fabc 4c42 813e b434 033c 0a2c 57be
00000390: 9f26 53bd ac36 f5bd 2317 28bd 5831 34be
000003a0: fd9f e3bc b8c6 553d bf11 23bc 83ca 99bd
000003b0: 22ac 643b d050 38bd 6097 6dbd 6568 903d
000003c0: 15ec 643e c031 3fbd 10b0 bebd 2593 0cbe
000003d0: 1c3c 78bd f5ce 143d 6af5 ecbc b08e 72bb
000003e0: 4721 2cbb cccc 82bd 5dde 6abd f6e2 19be
000003f0: ec3e 31bd f7af 533b 82f5 e03d fe68 a93d

net.2.bias f4 [64]
-0.13801916 0.06387612 -0.24542683 -0.100249894 0.57100594 0.58561885 -0.18305093 0.52953
-0.13666315 0.7255179 0.095316045 0.461062 0.5694526 0.5055402 -0.3485073 0.07591925
-0.15495881 0.5072078 -0.0032668267 0.53724045 0.009722364 -0.054591574 0.6042646 0.486961
0.62636817 0.043127354 0.34606862 0.15786156 -0.044151068 0.3695546 -0.12448634 0.6143686
-0.13332371 0.49537912 -0.037432816 -0.05591331 0.5497666 -0.0762292 0.51598364 0.5999457
-0.30050606 0.4488327 -0.07201813 -0.2394073 0.73088384 0.6164032 -0.1483725 0.5910451
-0.06565235 0.07837159 0.6695971 0.5886479 -0.120116144 -0.1290086 -0.10873462 0.5303799
0.18558131 0.73591757 -0.13788803 -0.10410781 0.5889039 -0.15997158 0.66127115 0.44018573
00000000: e554 0dbe 7cd1 823d 2c51 7bbe d14f cdbd
00000010: 722d 123f 1eeb 153f b471 3bbe 478f 073f
00000020: 6df1 0bbe 8bbb 393f 0f35 c33d 5210 ec3e
00000030: a5c7 113f 156b 013f 8c6f b2be 8d7b 9b3d
00000040: 86ad 1ebe 5fd8 013f 4218 56bb 9788 093f
00000050: 8d4a 1f3c 6a9b 5fbd 16b1 1a3f f452 f93e
00000060: aa59 203f 4fa6 303d e82f b13e 76a6 213e
00000070: c0d7 34bd 4336 bd3e b2f2 febd 4347 1d3f
00000080: 0386 08be 55a2 fd3e 2753 19bd 5b05 65bd
00000090: 81bd 0c3f 0e1e 9cbd 8117 043f 0b96 193f
000000a0: eedb 99be 66cd e53e 3e7e 93bd 3027 75be
000000b0: 341b 3b3f 9acc 1d3f f6ee 17be bb4e 173f
000000c0: bd74 86bd 4981 a03d b76a 2b3f a1b1 163f
000000d0: 74ff f5bd d51a 04be 42b0 debd fac6 073f
000000e0: 0709 3e3e 1865 3c3f 8532 0dbe 7a36 d5bd
000000f0: 68c2 163f 97cf 23be 1149 293f 0660 e13e

net.4.weight f4 [2, 64]
-0.5950874 -0.10493929 -2.358558 0.16123834 0.9676235 1.2567674 -2.9869509 0.9337539
0.24948591 1.1460226 -3.1533747 0.9881616 0.56828266 1.1502727 -1.7635709 0.017211044
0.04830998 0.8538509 0.07433675 1.3819032 -0.039378967 -0.12171801 0.8459742 1.3414944
1.3917999 -0.022440985 1.0336964 -0.08791917 0.074867226 1.3115957 -2.4784143 1.1166043
-4.06928 0.6509771 -1.9440196 -2.7457979 0.92943746 0.21101405 1.1428616 0.9230637
-0.2808663 0.8245626 0.32333463 -0.33047926 0.22968234 0.9266857 0.010999954 0.9260213
-0.013104186 0.42055014 1.1805577 1.1113935 -0.0669249 -2.6348379 -0.025236443 0.876218
-0.105171934 1.1184096 -0.0048479703 -0.07687066 0.74746776 -0.0016506136 0.6788225 1.0957179
0.8070178 0.021001158 -1.5844718 -0.13675553 1.2022586 1.2271639 -4.4065113 0.66734517
-0.2502846 1.2529266 -2.1414285 0.49226496 1.1894497 0.6215328 -3.7270741 -0.13689858
0.16420554 1.1664557 -0.08122258 1.0178856 0.020490794 -0.14284714 1.2721126 1.3697516
0.5158725 -0.14590783 0.8943511 0.007799322 -0.004444043 0.5598883 -2.4965987 1.4885238
-5.484018 1.0975845 -1.7819785 -1.4846697 1.1664758 0.060121667 0.95559794 0.65006477
-2.8374462 0.7719021 -0.20670463 0.23253818 1.2022309 0.49772432 0.025382569 0.8627601
-0.008171152 -0.4279834 1.2289364 1.5387098 -0.15183552 -2.8407052 0.078866705 1.0036374
0.5247994 0.4392246 0.04957509 0.003975122 1.1233168 0.1178455 1.1566678 0.71091324
00000000: a657 18bf 69ea d6bd 9df2 16c0 aa1b 253e
00000010: 2cb6 773f c1dd a03f 342a 3fc0 7f0a 6f3f
00000020: 3c79 7f3e deb0 923f e4d0 49c0 29f8 7c3f
00000030: f97a 113f 233c 933f b1bc e1bf 2dfe 8c3c
00000040: b0e0 453d f995 5a3f de3d 983d 34e2 b03f
00000050: d74b 21bd 4b47 f9bd c491 583f 17b6 ab3f
00000060: 8026 b23f 28d6 b7bc 2a50 843f f70e b4bd
00000070: fd53 993d 5ee2 a73f 579e 1ec0 e4ec 8e3f
00000080: 8b37 82c0 6fa6 263f a2d5 f8bf 27bb 2fc0
00000090: 9def 6d3f 1114 583e 4a49 923f e74d 6c3f
000000a0: b5cd 8fbe 8916 533f 1e8c a53e 9434 a9be
000000b0: d931 6b3e 463b 6d3f 2739 343c bb0f 6d3f
000000c0: f1b2 56bc 5952 d73e 841c 973f 2442 8e3f
000000d0: ec0f 89bd 2fa1 28c0 a8bc cebc d34f 603f
000000e0: 6264 d7bd 0c28 8f3f b9db 9ebb 5d6e 9dbd
000000f0: 0c5a 3f3f 6759 d8ba 50c7 2d3f 7c40 8c3f
00000100: b898 4e3f 9f0a ac3c f9cf cabf a409 0cbe
00000110: 9ce3 993f b513 9d3f 2402 8dc0 22d7 2a3f
00000120: 4e25 80be e65f a03f 2a0d 09c0 270a fc3e
00000130: e33f 983f c61c 1f3f 6288 6ec0 242f 0cbe
00000140: 7f25 283e 6c4e 953f 0658 a6bd 134a 823f
00000150: 4fdc a73c 8546 12be 96d4 a23f 0554 af3f
00000160: 3810 043f dd68 15be 32f4 643f 7491 ff3b
00000170: 569f 91bb d754 0f3f 46c8 1fc0 f387 be3f
00000180: 137d afc0 a67d 8c3f df17 e4bf a809 bebf
00000190: 144f 953f 2342 763d 11a2 743f a56a 263f
000001a0: b898 35c0 609b 453f 61aa 53be 7d1e 6e3e
000001b0: b4e2 993f b9d5 fe3e 1bef cf3c d9dd 5c3f
000001c0: 4ce0 05bc a420 dbbe ca4d 9d3f 71f4 c43f
000001d0: c57a 1bbe 1dce 35c0 de84 a13d 3177 803f
000001e0: 4159 063f 0ce2 e03e 400f 4b3d bd41 823b
000001f0: d8c8 8f3f fb58 f13d b10d 943f 69fe 353f

net.4.bias f4 [2]
0.589302 0.42821908
00000000: 7fdc 163f 883f db3e

exp_avg f4 [64, 4]
0.46321052 0.7894165 0.19033246 0.24663766 0.19343601 0.32050478 0.0723308 0.084501326
-2.1554897 -4.8157406 -1.1449962 -2.7962558 -0.0040756394 -0.013447264 -0.0017300362 -0.0034912801
-6e-45 -6e-45 -6e-45 6e-45 0.543901 1.0030603 0.23371392 0.47544715
6e-45 6e-45 6e-45 6e-45 0.7729279 1.3300115 0.3219398 0.450618
0.39237422 0.6727692 0.16223168 0.22066467 -6e-45 -6e-45 -6e-45 6e-45
1.4002676 0.64484054 -0.022093186 0.1384555 0.012443456 0.004882739 0.00024527812 0.0034476577
1.6834724 1.0317274 -0.003292634 0.1475279 -0.05724648 -0.16462313 -0.046251174 -0.12298248
6e-45 6e-45 6e-45 6e-45 0.06833376 0.06668541 0.017515097 0.032215875
0.3813177 0.78934264 0.17968006 0.37982076 -6e-45 -6e-45 -6e-45 6e-45
-6e-45 -6e-45 -6e-45 6e-45 -0.2713615 -0.1672137 -0.019963585 0.05848344
6e-45 6e-45 -6e-45 -6e-45 6e-45 6e-45 -6e-45 -6e-45
-0.22868368 -0.270175 -0.068548925 -0.056255918 6e-45 6e-45 -6e-45 -6e-45
0.076926105 0.081757456 0.027378948 0.021779392 -0.01833375 -0.03427336 -0.0040632742 0.026259055
-1.5295868 -3.7818599 -0.9078201 -2.097526 0.14807454 0.34790036 0.032610055 -0.18444596
-0.12771975 -0.23390931 -0.058610477 -0.18157993 0.20912182 0.10786155 -0.0083270995 0.0004086756
0.06193996 0.14283083 0.025653752 0.042264093 -6e-45 -6e-45 -6e-45 6e-45
0.77586144 1.3733954 0.32255965 0.5714691 6e-45 6e-45 6e-45 6e-45
-0.8384575 -1.9601411 -0.48349944 -1.2130544 0.6807635 1.1640413 0.28013867 0.39398652
-0.23850672 -0.25510627 -0.0552053 0.0047878297 -0.001226451 0.00023715234 0.0033916929 -0.0024091972
-6e-45 -6e-45 6e-45 6e-45 0.99797934 1.7128246 0.41345578 0.57984835
-6e-45 -6e-45 -6e-45 -6e-45 6e-45 6e-45 -6e-45 -6e-45
-0.48367333 -0.8155506 -0.18814026 -0.30187386 -6e-45 6e-45 6e-45 -6e-45
-6e-45 -6e-45 -6e-45 -6e-45 0.31443033 0.4787721 0.11954306 0.12228013
-6e-45 6e-45 -6e-45 -6e-45 6e-45 6e-45 -6e-45 -6e-45
-6e-45 -6e-45 -6e-45 -6e-45 0.5010946 0.8625662 0.20654097 0.29346204
0.048148874 0.12358308 0.02197005 0.06779041 -0.13130307 -0.055733535 -0.002823428 0.02475708
-0.9804282 -2.3103654 -0.5661321 -1.4061625 0.770463 1.3209457 0.32046446 0.43907538
0.0 0.0 0.0 0.0 6e-45 6e-45 6e-45 -6e-45
-0.062441394 -0.1059708 -0.029255537 0.0073662293 -6e-45 -6e-45 6e-45 6e-45
6e-45 6e-45 6e-45 -6e-45 0.9187615 1.5880747 0.3694917 0.6704555
6e-45 6e-45 6e-45 6e-45 6e-45 6e-45 -6e-45 -6e-45
0.86299014 1.559549 0.36317188 0.7284831 6e-45 6e-45 6e-45 6e-45
00000000: ee29 ed3e 3317 4a3f 83e6 423e 958e 7c3e
00000010: 1714 463e 3419 a43e 2c22 943d 080f ad3d
00000020: 8bf3 09c0 8c1a 9ac0 3c8f 92bf dbf5 32c0
00000030: f18c 85bb ea51 5cbc 62c2 e2ba f6cd 64bb
00000040: 0400 0080 0400 0080 0400 0080 0400 0000
00000050: 193d 0b3f 4864 803f b452 6f3e cf6d f33e
00000060: 0400 0000 0400 0000 0400 0000 0400 0000
00000070: 9ade 453f d13d aa3f 4bd5 a43e 67b7 e63e
00000080: 46e5 c83e 9a3a 2c3f 1020 263e ebf5 613e
00000090: 0400 0080 0400 0080 0400 0080 0400 0000
000000a0: f83b b33f 4514 253f c5fc b4bc 47c7 0d3e
000000b0: a3df 4b3c 62ff 9f3b ac98 8039 19f2 613b
000000c0: 067c d73f a50f 843f 3bc9 57bb 8e11 173e
000000d0: 497b 6abd f792 28be df71 3dbd 3dde fbbd
000000e0: 0400 0000 0400 0000 0400 0000 0400 0000
000000f0: 92f2 8b3d 5c92 883d d27b 8f3c cbf4 033d
00000100: 133c c33e 5c12 4a3f 0dfe 373e de77 c23e
00000110: 0400 0080 0400 0080 0400 0080 0400 0000
00000120: 0400 0080 0400 0080 0400 0080 0400 0000
00000130: e5ef 8abe 113a 2bbe ac8a a3bc 558c 6f3d
00000140: 0400 0000 0400 0000 0400 0080 0400 0080
00000150: 0400 0000 0400 0000 0400 0080 0400 0080
00000160: 0e2c 6abe 6154 8abe 6163 8cbd 9b6c 66bd
00000170: 0400 0000 0400 0000 0400 0080 0400 0080
00000180: 6f8b 9d3d 7470 a73d d149 e03c b26a b23c
00000190: a930 96bc 3962 0cbd 3725 85bb 3b1d d73c
000001a0: 80c9 c3bf fe09 72c0 e666 68bf de3d 06c0
000001b0: daa0 173e ff1f b23e 1f92 053d 67df 3cbe
000001c0: f7c8 02be ec85 6fbe 8a11 70bd 17f0 39be
000001d0: 0824 563e 84e6 dc3d 636e 08bc 8343 d639
000001e0: c1b4 7d3d 3f42 123e d127 d23c 1d1d 2d3d
000001f0: 0400 0080 0400 0080 0400 0080 0400 0000
00000200: db9e 463f 6ccb af3f 8a26 a53e cd4b 123f
00000210: 0400 0000 0400 0000 0400 0000 0400 0000
00000220: 27a5 56bf e7e5 fabf 3d8d f7be 5e45 9bbf
00000230: 8446 2e3f 4eff 943f 566e 8f3e 9ab8 c93e
00000240: 1b3b 74be 4a9d 82be f41e 62bd 3ae3 9c3b
00000250: dec0 a0ba 19ac 7839 2a47 5e3b 9fe3 1dbb
00000260: 0400 0080 0400 0080 0400 0000 0400 0000
00000270: 937b 7f3f d63d db3f 7ab0 d33e f170 143f
00000280: 0400 0080 0400 0080 0400 0080 0400 0080
00000290: 0400 0000 0400 0000 0400 0080 0400 0080
000002a0: 08a4 f7be edc7 50bf d7a7 40be 368f 9abe
000002b0: 0400 0080 0400 0000 0400 0000 0400 0080
000002c0: 0400 0080 0400 0080 0400 0080 0400 0080
000002d0: 03fd a03e 9e21 f53e fed2 f43d 016e fa3d
000002e0: 0400 0080 0400 0000 0400 0080 0400 0080
000002f0: 0400 0000 0400 0000 0400 0080 0400 0080
00000300: 0400 0080 0400 0080 0400 0080 0400 0080
00000310: bc47 003f 23d1 5c3f 7a7f 533e a840 963e
00000320: c137 453d 2019 fd3d 89fa b33c b3d5 8a3d
00000330: 5074 06be d948 64bd 4309 39bb 5ccf ca3c
00000340: 58fd 7abf 07dd 13c0 09ee 10bf 22fd b3bf
00000350: 103d 453f c014 a93f eb13 a43e 7dce e03e
00000360: 0000 0000 0000 0000 0000 0000 0000 0000
00000370: 0400 0000 0400 0000 0400 0000 0400 0080
00000380: 8cc2 7fbd 3807 d9bd 4fa9 efbc 6960 f13b
00000390: 0400 0080 0400 0080 0400 0000 0400 0000
000003a0: 0400 0000 0400 0000 0400 0000 0400 0080
000003b0: f433 6b3f 0846 cb3f 042e bd3e f9a2 2b3f
000003c0: 0400 0000 0400 0000 0400 0000 0400 0000
000003d0: 0400 0000 0400 0000 0400 0080 0400 0080
000003e0: ecec 5c3f 4d9f c73f aaf1 b93e de7d 3a3f
000003f0: 0400 0000 0400 0000 0400 0000 0400 0000

exp_avg_sq f4 [64, 4]
1.9615152 4.3861227 0.1561089 0.52035046 0.25715524 0.8207265 0.029182818 0.09285651
151.29988 617.76776 23.451933 77.70961 0.056060933 0.012501176 7.430749e-05 0.0011454248
5.4739735e-38 4.2448876e-38 3.44e-42 1.212722e-39 3.1548414 8.587421 0.3225655 1.1120887
1.4621229e-32 1.0704929e-32 5.181172e-35 1.5333037e-33 5.7516704 14.260927 0.5147264 1.7103851
1.4511169 3.3738472 0.12091071 0.4023668 1.7722093e-17 1.868954e-17 9.325674e-21 2.0377226e-18
63.04705 9.874918 0.033612873 0.47210994 0.02178101 0.038952705 0.0012984009 0.018940253
81.53071 12.89032 0.028188428 0.37022328 0.75667465 3.093001 0.11721884 0.377177
7e-43 7e-43 7e-43 7e-43 0.062916495 0.030599758 0.0007441168 0.0038085007
0.7878794 3.2109115 0.12166162 0.4076817 3.720975e-07 5.9598585e-07 4.8735758e-09 2.038183e-08
7e-43 7e-43 7e-43 7e-43 1.0078338 0.197068 0.0005453957 0.024168301
1.8369234e-09 2.2049764e-09 1.4018111e-11 2.7017524e-10 3.100974e-05 3.0349538e-05 1.8490233e-07 2.7275069e-06
0.29504684 0.08320974 0.0016707595 0.018316884 7.641185e-06 4.3822897e-06 2.2165766e-08 9.517429e-07
0.20691244 0.2871437 0.0095583 0.03441963 0.034881264 0.011175696 4.5080305e-05 0.0030346194
119.280685 485.97095 18.324203 59.362843 8.314883 16.943327 0.48257518 1.6676675
0.3750545 1.5005838 0.05755556 0.20485581 1.6812683 0.43965766 0.0011341088 0.022197897
0.15321533 0.9612291 0.031793505 0.065814994 7e-43 7e-43 7e-43 7e-43
4.2862372 12.146365 0.4533595 1.5627518 4.690153e-20 2.5649879e-20 4.1240123e-22 1.6252587e-20
23.426207 95.36537 3.6751845 12.669587 4.4620805 11.003105 0.39778066 1.3172473
0.25104827 0.10334693 0.0017373881 0.034382418 0.062374737 0.015772566 4.773667e-05 0.002241901
7e-43 7e-43 7e-43 7e-43 9.219974 22.89012 0.82783794 2.7552128
1.8377402e-20 5.096573e-21 7.628068e-23 9.266111e-23 0.00016446938 0.0011706222 0.00056402304 0.0040562274
1.4388671 3.7709172 0.13843593 0.46626413 1.7472077e-08 3.7105202e-10 1.286599e-11 4.6147147e-10
2.5257803e-25 2.3184915e-25 6.23644e-28 2.5117682e-28 1.1029292 1.9297917 0.06572681 0.22621079
0.00010190262 0.00085932435 0.0003118304 0.0033910626 6.957083e-08 1.9481836e-06 3.248906e-08 4.7256153e-06
9.4137704e-36 1.2204985e-36 2.7995132e-38 1.6765691e-37 2.1599224 5.241709 0.18876147 0.62926626
0.14160387 0.069227815 0.0021860593 0.010214358 0.5512661 0.09084089 0.00029637094 0.006251356
38.450447 156.86606 5.985435 20.0681 5.6117163 13.896574 0.5011761 1.6688184
0.0 0.0 0.0 0.0 3.5084565e-12 1.5103644e-11 1.1010421e-13 2.6165522e-12
0.11165593 0.037144147 0.000610701 0.009377211 2.4388207e-24 2.9639205e-23 1.6498297e-26 1.5541699e-23
7e-43 7e-43 7e-43 7e-43 4.569031 12.81777 0.4817715 1.7178663
2.7336053e-30 8.942402e-31 5.9580214e-33 9.028334e-32 7e-43 7e-43 7e-43 7e-43
6.461318 18.313562 0.6918726 2.4156914 2.097902e-13 4.6733874e-14 4.8499614e-16 5.2809638e-14
00000000: ee12 fb3f 1e5b 8c40 03db 1f3e b035 053f
00000010: daa9 833e 221b 523f ce10 ef3c 8e2b be3d
00000020: c54c 1743 2371 1a44 8f9d bb41 526b 9b42
00000030: 26a0 653d bcd1 4c3c 88d5 9b38 1422 963a
00000040: 0704 9501 191d 6701 9709 0000 9334 0d00
00000050: ece8 4940 1466 0941 4e27 a53e ec58 8e3f
00000060: e5d5 970a 2a55 5e0a 3bbd 8906 87c3 fe08
00000070: af0d b840 c22c 6441 1cc5 033f e6ed da3f
00000080: 33be b93f 1ded 5740 09a0 f73d 0503 ce3e
00000090: 1c75 a323 6e61 ac23 3128 301e 7e5b 1622
000000a0: 2e30 7c42 aaff 1d41 a7ad 093d 65b8 f13e
000000b0: 176e b23c df8c 1f3d 1b2f aa3a 9728 9b3c
000000c0: b90f a342 c03e 4e41 6beb e63c e88d bd3e
000000d0: 6eb5 413f baf3 4540 6e10 f03d 581d c13e
000000e0: f401 0000 f401 0000 f401 0000 f401 0000
000000f0: 5dda 803d 58ac fa3c d510 433a 0a98 793b
00000100: 77b2 493f 937f 4d40 ba29 f93d a8bb d03e
00000110: b1c4 c734 d6fb 1f35 6d74 a731 1e14 af32
00000120: f401 0000 f401 0000 f401 0000 f401 0000
00000130: b300 813f 32cc 493e e3f8 0e3a 9afc c53c
00000140: ff76 fc30 5b86 1731 f69b 762d c987 942f
00000150: 7410 0238 2397 fe37 9189 4634 360a 3736
00000160: 6110 973e de69 aa3d 63fd da3a 4a0d 963c
00000170: a432 0037 950b 9336 0967 be32 467b 7f35
00000180: dbe0 533e 8004 933e 6a9a 1c3c 99fb 0c3d
00000190: a8df 0e3d 441a 373c 9c14 3d38 77e0 463b
000001a0: b68f ee42 48fc f243 f897 9241 8d73 6d42
000001b0: c309 0541 ef8b 8741 1814 f73e 2176 d53f
000001c0: 2507 c03e 2113 c03f 61bf 6b3d b9c5 513e
000001d0: cd33 d73f cf1a e13e 60a6 943a 5dd8 b53c
000001e0: 7be4 1c3e 1c13 763f e839 023d 03ca 863d
000001f0: f401 0000 f401 0000 f401 0000 f401 0000
00000200: db28 8940 8357 4241 bd1e e83e 4008 c83f
00000210: 787c 5d1f 9a41 f21e 0048 f91b 5880 991e
00000220: df68 bb41 12bb be42 3936 6b40 a1b6 4a41
00000230: 5dc9 8e40 b80c 3041 e8a9 cb3e 8f9b a83f
00000240: 6689 803e 8ea7 d33d 12b9 e33a 94d4 0c3d
00000250: a77c 7f3d 7835 813c dc38 4838 dbec 123b
00000260: f401 0000 f401 0000 f401 0000 f401 0000
00000270: 0385 1341 f71e b741 30ed 533f 6855 3040
00000280: d591 ad1e 088b c01d 746f b81a 730a e01a
00000290: 6a75 2c39 906f 993a f2da 133a 1aea 843b
000002a0: cc2c b83f b556 7140 26c2 0d3e 2cba ee3e
000002b0: 8115 9632 eefc cb2f 4557 622d 56b2 fd2f
000002c0: 9656 9c16 f781 8f16 03a4 4512 c533 9f11
000002d0: c92c 8d3f 6a03 f73f c79b 863d cda3 673e
000002e0: 8db4 d538 4844 613a 2b7d a339 973c 5e3b
000002f0: f866 9533 8abd 0236 198a 0b33 ba90 9e36
00000300: 7135 4805 35a8 cf03 856b 1801 e833 6402
00000310: 2b3c 0a40 15bc a740 b04a 413e 9817 213f
00000320: 9b00 113e 50c7 8d3d fd43 0f3b 1f5a 273c
00000330: c61f 0d3f ca0a ba3d 3c62 9b39 2dd8 cc3b
00000340: 42cd 1942 b6dd 1c43 af88 bf40 788b a041
00000350: 2e93 b340 5e58 5e41 144d 003f d79b d53f
00000360: 0000 0000 0000 0000 0000 0000 0000 0000
00000370: bce2 762c 62da 842d c1ee f729 9d1f 382c
00000380: ddab e43d 7624 183d 7317 203a e0a2 193c
00000390: d2b1 3c18 8f53 0f1a 2764 a314 624f 9619
000003a0: f401 0000 f401 0000 f401 0000 f401 0000
000003b0: 8035 9240 9615 4d41 c1aa f63e 0be3 db3f
000003c0: c3c6 5d0e 4919 910d 8d7c f709 9263 ea0b
000003d0: f401 0000 f401 0000 f401 0000 f401 0000
000003e0: 1ec3 ce40 2d82 9241 901e 313f b09a 1a40
000003f0: e933 6c2a 7d78 5229 66ca 0b26 5ed5 6d29

exp_avg f4 [64]
0.45005107 0.14957467 -4.9285235 0.030367432 6e-45 0.81722486 6e-45 0.84159565
0.4047009 6e-45 -0.7543523 -0.0034348234 -1.0454824 -0.21884072 6e-45 0.028983014
0.84634495 -6e-45 6e-45 0.43501553 6e-45 6e-45 0.018399807 6e-45
0.031505276 0.026462711 -3.8060627 0.15937856 -0.25266743 -0.087711245 0.11568248 6e-45
0.9861538 6e-45 -2.0477545 0.72901064 0.41080022 0.003748082 6e-45 1.0717818
6e-45 6e-45 -0.46212325 6e-45 6e-45 0.26239067 6e-45 6e-45
6e-45 0.520597 0.060763877 0.17015769 -2.3878038 0.82804745 0.0 6e-45
-0.0178095 6e-45 6e-45 1.151034 6e-45 6e-45 1.2555698 6e-45
00000000: 186d e63e 1a2a 193e 77b6 9dc0 1fc5 f83c
00000010: 0400 0000 a635 513f 0400 0000 d072 573f
00000020: f534 cf3e 0400 0000 3b1d 41bf c61a 61bb
00000030: 5ed2 85bf c817 60be 0400 0000 c96d ed3c
00000040: 10aa 583f 0400 0080 0400 0000 5bba de3e
00000050: 0400 0000 0400 0000 31bb 963c 0400 0000
00000060: ad0b 013d 54c8 d83c 8896 73c0 2234 233e
00000070: a05d 81be f4a1 b3bd f0ea ec3d 0400 0000
00000080: 9374 7c3f 0400 0000 690e 03c0 71a0 3a3f
00000090: 6854 d23e 62a2 753b 0400 0000 2530 893f
000000a0: 0400 0000 0400 0000 6b9b ecbe 0400 0000
000000b0: 0400 0000 1258 863e 0400 0000 0400 0000
000000c0: 0400 0000 d845 053f 8be3 783d d13d 2e3e
000000d0: c7d1 18c0 ebfa 533f 0000 0000 0400 0000
000000e0: 3be5 91bc 0400 0000 0400 0000 1555 933f
000000f0: 0400 0000 0400 0000 83b6 a03f 0400 0000
