CartPole/Experiment_1/23-09-26_22-10-39-937242_DQN/checkpoints/agent_4500.pt (torch, 82539 bytes, 24 tensors)

net.0.weight f4 [64, 4]
0	0xbd1dd701	-0.03853512
1	0x3dcd5ea7	0.10027819
2	0x3d9b6a36	0.075886175
3	0xbceafcf6	-0.028685074
4	0x3df6505a	0.120270446
5	0xbdac7bd6	-0.08422057
6	0x3e6b11d5	0.22956021
7	0xbd1c00a2	-0.03808654
8	0xbd96101f	-0.073272936
9	0x3d3906b9	0.045172427
10	0x3fda6312	1.7061484
11	0x3e54a8c4	0.20767504
12	0xbe8c6929	-0.2742398
13	0x3e0a393b	0.13498394
14	0x3f83a759	1.0285445
15	0xbe588573	-0.21144657
16	0xbdabbce6	-0.08385639
17	0xbca87ed7	-0.020568294
18	0x3d46d10c	0.048539206
19	0x3b36b272	0.0027877358
20	0x3e6f7742	0.23385337
21	0xbe7e7519	-0.24849357
22	0xbf61d997	-0.8822264
23	0xbde88fa9	-0.11355526
24	0xbd25d514	-0.04048641
25	0x3e05892f	0.13040613
26	0xbf082996	-0.53188455
27	0x3e007c32	0.12547377
28	0xbdce91b8	-0.100863874
29	0x3c154feb	0.009113292
30	0x3d0cb812	0.03435523
31	0x3c8f6e0a	0.017508525
32	0x3c83d9c6	0.016095053
33	0xbd9aada7	-0.07552653
34	0x3d1aae04	0.03776361
35	0xbd665a94	-0.056238726
36	0xbe50c98d	-0.20389386
37	0x3ce5fbe6	0.028074216
38	0x3bf35a77	0.0074265557
39	0x3df2c053	0.11853089
40	0xbe0c3d8d	-0.13695355
41	0xbd34b597	-0.04411849
42	0xbfa3b8bf	-1.2790755
43	0xbdadc1ea	-0.08484252
44	0x3dccea17	0.100055866
45	0x3cbb0116	0.022827666
46	0xbf8ebc55	-1.1151224
47	0x3e843aaf	0.25826022
48	0xbe8b233d	-0.27175322
49	0xbd126392	-0.03573949
50	0x3f7c04b9	0.98444706
51	0x3d3ea249	0.046541486
52	0xbd80d664	-0.06290892
53	0x3e225aa8	0.15854895
54	0x3f82c8c7	1.0217522
55	0xbea05503	-0.3131486
56	0x3cdbbc6f	0.02682325
57	0xbc0dfd9e	-0.008666424
58	0xbe3e6afc	-0.18595499
59	0xbcb08688	-0.021548524
60	0x3d86f705	0.06590084
61	0xbbb3ba88	-0.0054848827
62	0x3e899a09	0.26875332
63	0xbc0c12c2	-0.008549394
64	0xbe50a1d0	-0.20374227
65	0xbd8857fd	-0.066574074
66	0xbf83cb0e	-1.0296342
67	0x3e9250c0	0.28577232
68	0x3e8673d6	0.2626025
69	0xbdc359cb	-0.09538611
70	0xbf271a4d	-0.65274507
71	0xbdd6a592	-0.10480799
72	0x3d456eee	0.048201494
73	0xbd2e0546	-0.042485498
74	0xbdc4e5d7	-0.09614151
75	0xbd03ed90	-0.03220898
76	0xbe578f7c	-0.21050829
77	0xbe391ba8	-0.18076956
78	0xbedce6e5	-0.4314491
79	0xbe230719	-0.15920676
80	0x3e415bd8	0.18882692
81	0x3d8bb0ae	0.06820808
82	0xbf01dc1b	-0.5072648
83	0x3df809bc	0.12111232
84	0x3ea38719	0.3193901
85	0x3d45f931	0.04833335
86	0xbe73b773	-0.23800449
87	0x3c3ea9d6	0.011637172
88	0x3e177ac2	0.14792922
89	0xbe409d27	-0.18809949
90	0xbf2feea7	-0.6872353
91	0xbcdeecdf	-0.027212558
92	0x3e8a08e2	0.26959902
93	0x3d80e172	0.06293
94	0xbf767ab7	-0.96281
95	0xbd5be34c	-0.053683564
96	0xbde4209a	-0.11139031
97	0x3dae3cf9	0.08507723
98	0x3f896de4	1.0736661
99	0x3d06594b	0.0328
100	0xbe3747ed	-0.17898531
101	0xbd908ee2	-0.07058503
102	0xbe026266	-0.12732849
103	0x3e4ee021	0.20202686
104	0x3de0ce9f	0.1097691
105	0x3d871000	0.06594849
106	0x3f4635d8	0.7742591
107	0x3df82459	0.12116308
108	0x3ef00d2b	0.46885046
109	0xbdaad65e	-0.083416685
110	0x3e46ef20	0.19427156
111	0xbdcc8b17	-0.09987467
112	0x3e9e2250	0.30885553
113	0xbeabfd54	-0.33591712
114	0x3f6917ba	0.9105183
115	0x3e2d5ead	0.16930647
116	0x3d912a20	0.07088113
117	0xbe1ba40b	-0.15199296
118	0xbce45923	-0.027874535
119	0xbe8dbac8	-0.27681565
120	0xbe855952	-0.26044708
121	0x3e2b8d95	0.16753228
122	0x3f1c12a5	0.6096595
123	0xbe919b6c	-0.2843889
124	0xbce9cdfb	-0.028540602
125	0xbca8e962	-0.020619098
126	0x3cee4ba6	0.029088806
127	0xbd910174	-0.07080355
128	0x3d1b07ae	0.03784912
129	0x3bfbd2db	0.007685048
130	0xbf63d836	-0.89001787
131	0xbd8039fb	-0.06261059
132	0xbb608fed	-0.0034265474
133	0x3d68824d	0.05676489
134	0xbc98911a	-0.018623877
135	0x3d4d5eb8	0.05013916
136	0xbd2e3809	-0.042533908
137	0x3c53501b	0.012897517
138	0x3f46890c	0.77552867
139	0x3eb5a0cc	0.3547424
140	0x3df93c48	0.12169701
141	0xbc3cba91	-0.01151909
142	0xbd872cde	-0.066003546
143	0x3d0c56c6	0.03426244
144	0xbd1aaba2	-0.037761338
145	0xbd08d11f	-0.03340256
146	0xbfbada69	-1.4597903
147	0xbea54eb0	-0.32286596
148	0xbdeb0aba	-0.11476655
149	0x3d9cfd2d	0.07665477
150	0x3f6b4e31	0.91916186
151	0xbd866894	-0.065629154
152	0xbd470740	-0.0485909
153	0x3d862842	0.06550647
154	0xbe555a81	-0.20835306
155	0x3e2470f0	0.16058707
156	0x3de4f1d3	0.11178937
157	0xbdb6c51b	-0.08924314
158	0xbc5da5f3	-0.013528335
159	0x3c1643c0	0.009171426
160	0xbe27713c	-0.16351789
161	0xbd985a2a	-0.074390724
162	0x3a9604d6	0.0011445533
163	0xbcdd25da	-0.026995588
164	0x3e8bc1fc	0.27296436
165	0xbe2dd7d0	-0.16976857
166	0xbfea1ee8	-1.8290682
167	0xbe65aaa0	-0.2242837
168	0xbe4c1cd4	-0.19932872
169	0x3e25c17d	0.16187091
170	0x3f73bf8a	0.9521414
171	0xbdb25b7b	-0.08708855
172	0xbe46300d	-0.19354267
173	0x3e67df46	0.22643766
174	0x3e7121c4	0.23548037
175	0x3dcbfeb5	0.09960691
176	0x3c267340	0.010159314
177	0xbd728ab3	-0.059214305
178	0xbde790a0	-0.11306882
179	0xbd30f91f	-0.04320633
180	0xbb3a05d1	-0.0028384815
181	0x3db091dc	0.086215705
182	0x3f6cec82	0.9254838
183	0x3d6bf6a1	0.05760825
184	0x3df5cd07	0.120019965
185	0xbe10a733	-0.14126281
186	0xbff5c2ad	-1.9200035
187	0xbe9a02d8	-0.30080295
188	0x3e95e4be	0.2927608
189	0xbddea9bf	-0.1087222
190	0xbe1feddf	-0.15618084
191	0x3db4b5a5	0.088237084
192	0xbd2e1e34	-0.042509273
193	0x3c4bb8d2	0.012434201
194	0xbd08587c	-0.03328751
195	0x3be9e01f	0.007137313
196	0xbdcf4ee3	-0.10122468
197	0x3d11f7e4	0.035636798
198	0xbe52a56e	-0.20570919
199	0xbcacb743	-0.02108348
200	0x3df4b752	0.11949028
201	0xbd2a76d2	-0.041617222
202	0xbf0be687	-0.5464863
203	0xbcf4ef62	-0.029899303
204	0xbf20beb7	-0.6279101
205	0xbdb0991a	-0.08622952
206	0x3f85235c	1.0401416
207	0x3e05a7f9	0.13052358
208	0x3c03c13f	0.008041679
209	0x3e2aeee6	0.16692695
210	0x3f834981	1.0256807
211	0x3e566987	0.20938693
212	0xbd064a22	-0.032785542
213	0xbd76d625	-0.060262818
214	0x3e83d50a	0.25748473
215	0xbc33f2cd	-0.010983181
216	0x3d17a547	0.037022855
217	0x3c7d8a22	0.015474828
218	0xbd539612	-0.05165679
219	0x3c93c053	0.018036043
220	0xbe37ecfa	-0.17961493
221	0x3e1b96ee	0.15194294
222	0x3f2c1f47	0.67235225
223	0xbba6caa0	-0.0050900728
224	0x3e58e435	0.21180804
225	0xbe2cc578	-0.16872203
226	0xbf484891	-0.7823573
227	0x3ec8b01b	0.39196858
228	0x3d0d8876	0.034553967
229	0xbdf84d94	-0.12124172
230	0xbee25728	-0.4420712
231	0x3d4ea952	0.050454445
232	0xbcee554a	-0.029093403
233	0x3da8a5d7	0.082347564
234	0xbd94153d	-0.072306134
235	0x3d3b9a91	0.045801703
236	0x3e060eeb	0.13091628
237	0xbd5f6e50	-0.05454856
238	0xbf0bfbb6	-0.54680955
239	0xbe248661	-0.16066886
240	0x3e189b6f	0.14903043
241	0x3c9e14f4	0.0192971
242	0x3f8700c1	1.0547105
243	0x3d4e0926	0.050301693
244	0xbcc5b03c	-0.024131887
245	0x3c82b4d1	0.01595536
246	0xbd696f4f	-0.056990918
247	0xbcef8bae	-0.02924141
248	0x3e2af273	0.1669405
249	0xbe13d7b2	-0.1443775
250	0xbf8d572c	-1.1042228
251	0xbdbca450	-0.092110276
252	0x3e2fa994	0.17154533
253	0xbe001e69	-0.125116
254	0x3ed6eeb7	0.41979
255	0xbbd00c5d	-0.00634913

net.0.bias f4 [64]
0	0x3eb2d143	0.3492528
1	0x3e859479	0.26089838
2	0xbe715527	-0.2356764
3	0xbd80784d	-0.062729456
4	0xbe97ed58	-0.29673266
5	0x3e65edf9	0.2245406
6	0xbe02f6cf	-0.12789463
7	0x3ee208d1	0.4414735
8	0x3ea1a2cc	0.31569517
9	0xbe9b7817	-0.3036506
10	0xbebbec5c	-0.36703765
11	0x3d45f200	0.048326492
12	0xbf08d81e	-0.5345477
13	0xbe4396de	-0.1910052
14	0xbe160f2c	-0.14654225
15	0x3e72e805	0.23721321
16	0xbe5a8a6a	-0.21341863
17	0xbe35aa28	-0.1774069
18	0xbdb7eabb	-0.08980318
19	0xbe9dcaa8	-0.30818677
20	0x3d8b74e5	0.06809405
21	0xbf2a83ca	-0.66607344
22	0x3e14aa39	0.1451806
23	0xbf03288e	-0.51233757
24	0x3e8738bc	0.26410472
25	0xbf057c27	-0.52142566
26	0xbef856c2	-0.4850369
27	0xbf1e150f	-0.6175088
28	0x3c8c6e5d	0.017142469
29	0xbdf175f5	-0.11790077
30	0x3d29ecf7	0.041485753
31	0xbe865453	-0.2623621
32	0x3e8c7c5e	0.27438635
33	0xbe0bf7f1	-0.13668801
34	0xbea606c0	-0.32427025
35	0x3ec923c1	0.3928509
36	0xbb9ff97a	-0.004882035
37	0x3e2b1c23	0.16709952
38	0xbe995e25	-0.2995464
39	0x3f04d7d3	0.5189182
40	0xbef4856b	-0.4775804
41	0xbebdecaa	-0.37094623
42	0x3e23b432	0.15986708
43	0xbe80f24e	-0.25184864
44	0xbdf5285b	-0.11970588
45	0x3ea1852c	0.31546915
46	0xbec269ec	-0.37971437
47	0xbe984854	-0.29742682
48	0xbdbc06ca	-0.091809824
49	0x3e9e32ed	0.30898228
50	0x3e3fdb3c	0.18735975
51	0xbebe887d	-0.37213507
52	0xbe238ae8	-0.15970957
53	0x3ee00548	0.4375403
54	0xbe9390b7	-0.28821346
55	0xbdd454fd	-0.10367773
56	0x3cacacb6	0.021078449
57	0xbeca057d	-0.39457312
58	0xbe0f9147	-0.14020263
59	0x3eb38efa	0.3507002
60	0xbefb0a05	-0.49031082
61	0xbe4071bf	-0.1879339
62	0x3e8d58db	0.27606854
63	0xbeb4f382	-0.35342032

net.2.weight f4 [64, 64]
0	0xbe403f78	-0.18774211
1	0xbe306cf4	-0.17229062
2	0x3ed5c341	0.4175053
3	0x3df69c76	0.12041561
4	0x3cd3da65	0.025860975
5	0xbe227151	-0.1586354
6	0xbefbb88b	-0.49164233
7	0xbe8e559e	-0.27799696
8	0xbdd64ca5	-0.104638375
9	0x3d2a85a3	0.041631352
10	0xbd3af644	-0.045645013
11	0xbe83890d	-0.256905
12	0xbe91b578	-0.28458762
13	0xbd715769	-0.05892125
14	0xbe2d6344	-0.16932398
15	0xbdd477a2	-0.10374381
16	0xbd8d1e2c	-0.068905205
17	0xbf129a4e	-0.572667
18	0xbe1a759d	-0.15083928
19	0xbe6525b5	-0.22377665
20	0x3ad174b9	0.0015980221
21	0x3d921e4b	0.07134684
22	0xbf26769a	-0.6502472
23	0xbf53d4b2	-0.8274642
24	0x3e6ca967	0.23111497
25	0xbef5834c	-0.47951734
26	0x3f1f7753	0.6229145
27	0x3e766b76	0.2406443
28	0xbeeb3908	-0.4594195
29	0xbaa24551	-0.0012380277
30	0x3db6e267	0.089299016
31	0x3e06d3bb	0.13166706
32	0xbf2719ff	-0.6527404
33	0x3d92c224	0.07165936
34	0xbea08740	-0.31353188
35	0x3d5b5503	0.05354787
36	0xbdf0a620	-0.11750436
37	0xbda4d84c	-0.08049068
38	0xbe67846b	-0.22609107
39	0xbe512d10	-0.20427346
40	0x3d9dfcbb	0.0771422
41	0xbe83d683	-0.25749597
42	0x3c62ecab	0.013850371
43	0xbe12431c	-0.14283413
44	0x3d058a4d	0.032602597
45	0x3f0219dc	0.5082071
46	0x3d94f8fe	0.07274054
47	0x3d94cd1d	0.07265685
48	0xbd5dc53f	-0.054143187
49	0xbe289aa2	-0.16465238
50	0xbdda6ad7	-0.10664909
51	0xbefc9a78	-0.493366
52	0xbdca5b5c	-0.09880707
53	0xbe0cb257	-0.13739906
54	0x3dde4d07	0.108545355
55	0x3dfd5d58	0.123713195
56	0xbd3808bf	-0.044930216
57	0xbedf09df	-0.4356222
58	0xbb9e0a33	-0.004822993
59	0xbf02822e	-0.5097989
60	0x3fc47ea1	1.5351144
61	0xbc21964c	-0.009862494
62	0xbe6a62f0	-0.22889304
63	0x3ee54d9e	0.4478578
64	0x3dbfd13e	0.09366082
65	0x3ded9b3d	0.11601875
66	0xbe4d6e4e	-0.20061609
67	0x3e4ae171	0.19812562
68	0x3c540665	0.012940978
69	0x3d6f03a7	0.058353093
70	0xbb7eafe7	-0.003886217
71	0xbe1d225f	-0.15345143
72	0xbe179d43	-0.14806084
73	0xbc3e464d	-0.011613441
74	0xbdb35124	-0.08755711
75	0xbdbc7b37	-0.09203189
76	0x3deb5ca1	0.11492277
77	0xbdb6d7e5	-0.08927897
78	0x3d35ad9a	0.044355012
79	0xbdfe0d8a	-0.12404926
80	0x3d487d6e	0.048947744
81	0x3d164014	0.036682203
82	0xbd47053b	-0.048588973
83	0xbe0eb995	-0.13937981
84	0xbd8a6b35	-0.06758729
85	0xbd12d5ee	-0.03584855
86	0xbbc20b4d	-0.0059217573
87	0xbe178692	-0.14797428
88	0xbd97d56e	-0.07413755
89	0x3d567fb9	0.0523679
90	0x3e27259e	0.16322944
91	0xbe27645b	-0.16346876
92	0xbdb72f15	-0.08944527
93	0xbdab4d55	-0.08364359
94	0xbd714004	-0.05889894
95	0xbd518ac0	-0.051157713
96	0xbe35e69f	-0.17763756
97	0x3cbeb1b7	0.0232781
98	0xbd70bc3c	-0.058773264
99	0xbd183b7b	-0.0371661
100	0xbe5b6c0a	-0.21427932
101	0x3e2c70f7	0.16839968
102	0x3e7e67c5	0.24844272
103	0xbe606da7	-0.21916829
104	0xbc21b3ed	-0.009869558
105	0xbd6b906b	-0.057510775
106	0xbd931678	-0.0718202
107	0x3cbb1238	0.022835836
108	0x3dbdef73	0.09274187
109	0xbb278748	-0.0025562812
110	0xbe3085e5	-0.17238577
111	0xbe3909e6	-0.18070182
112	0x3e464404	0.19361883
113	0xbe284df3	-0.16435985
114	0xbe07ab2a	-0.13248888
115	0xbd579669	-0.052633677
116	0xbd0cbbd7	-0.034358826
117	0xbc6eced0	-0.014575675
118	0x3e1143eb	0.14186065
119	0xbd9a7b49	-0.07543046
120	0xbe4e07eb	-0.20120208
121	0xbd7c7e56	-0.06164392
122	0x3e44c939	0.19217385
123	0x3ddb490f	0.10707294
124	0x3e1696cd	0.14705963
125	0xbdd47d6f	-0.10375487
126	0xbe51a182	-0.20471767
127	0x3dc3f694	0.095685154
128	0xbe43bcc7	-0.19114982
129	0xbf32539f	-0.69658846
130	0xbeb4aa8a	-0.3528636
131	0xbf6d572e	-0.9271115
132	0xbdbc5780	-0.09196377
133	0xbf180b7e	-0.59392536
134	0x3d7ae970	0.06125778
135	0xbe23d1cb	-0.15997998
136	0xbe2c9e4f	-0.16857265
137	0x3f39daee	0.72599685
138	0x40221030	2.532238
139	0xbede6c80	-0.43442154
140	0x3fac1c91	1.3446218
141	0xbf4401a1	-0.76564986
142	0x3de72cc8	0.11287838
143	0xbeb7d8aa	-0.3590749
144	0xbe8bc0be	-0.27295488
145	0xbd41a940	-0.04728055
146	0x3c813acb	0.015775105
147	0xbee3ea3d	-0.44514647
148	0xbed3eeba	-0.4139307
149	0xbdb6deb7	-0.08929198
150	0xbe8befad	-0.27331296
151	0x3f26c7ec	0.65148807
152	0xbec25394	-0.3795439
153	0x3d246758	0.04013762
154	0x3f090d36	0.53535783
155	0xbe271f3f	-0.16320513
156	0x3c2f8337	0.010712436
157	0x3df23554	0.11826578
158	0xbf309441	-0.6897622
159	0x3d72f472	0.059315152
160	0xbe97f6f4	-0.29680598
161	0x3e18a2f0	0.14905906
162	0x3e07b519	0.13252677
163	0xbef37bd5	-0.47555414
164	0x3f21f85b	0.63269585
165	0xbe4dce9c	-0.20098346
166	0x3ea68726	0.32524985
167	0xbe1dc03e	-0.15405366
168	0x3fa40b0d	1.2815872
169	0x3f6efe84	0.9335711
170	0xbd9e9fd4	-0.077453285
171	0xbd847268	-0.06467134
172	0x3d9a3359	0.07529325
173	0xbea474bb	-0.32120308
174	0x3e9612e1	0.29311278
175	0xbe6537c1	-0.2238455
176	0xbdd3bf02	-0.10339166
177	0x3d3bdb06	0.045863174
178	0xbf4b8061	-0.79492766
179	0x3f5b0b28	0.855639
180	0x3e277300	0.16352463
181	0xbe0c9928	-0.137303
182	0xbd0db1e3	-0.034593474
183	0xbef833b1	-0.48476937
184	0xbf87e72e	-1.0617425
185	0xbe92851c	-0.2861718
186	0xbd929497	-0.071572475
187	0xbf62a515	-0.88533145
188	0x3f2ff9fc	0.6874082
189	0xbd763240	-0.060106516
190	0xbf57be21	-0.8427449
191	0x3ead8522	0.33890635
192	0xbcd7e058	-0.026352093
193	0x3d763617	0.060110178
194	0xbd526e77	-0.05137488
195	0x3d5bfe70	0.053709447
196	0xbdbd22ac	-0.09235129
197	0xbd153e99	-0.03643665
198	0x3cf23e41	0.0295707
199	0xbdd88f27	-0.10574179
200	0xbdb7d5c9	-0.08976323
201	0xbd81c470	-0.063362956
202	0xbc6dd583	-0.014516237
203	0xbc4982b3	-0.0122992275
204	0x3dd6ec3f	0.10494279
205	0xbdb8efc2	-0.09030105
206	0xbde15db8	-0.110042036
207	0x3c1d83e1	0.009613962
208	0x3cd30911	0.02576116
209	0xbdbd8008	-0.09252936
210	0x3df47dbb	0.11938044
211	0xbe3660b4	-0.17810327
212	0xbd0ee2a1	-0.0348841
213	0xbd5b36ea	-0.053519167
214	0x3cc8b884	0.024502046
215	0xbdad3947	-0.084581904
216	0xbe5431df	-0.2072215
217	0x3d2eb346	0.042651437
218	0xbd359ef7	-0.044341054
219	0x3d8a17ac	0.06742796
220	0x3e1e50f8	0.15460575
221	0x3c919e72	0.017775748
222	0x3cf43e9f	0.029815016
223	0xbdfe9c1a	-0.12432118
224	0xbcfa60cf	-0.03056374
225	0x3e81424c	0.25245893
226	0x3c0333e9	0.008007982
227	0xbe572c04	-0.21012884
228	0xbd53269f	-0.051550504
229	0xbdf536d2	-0.11973347
230	0xbd281723	-0.04103769
231	0xbe34319a	-0.17597046
232	0xbce39ffd	-0.02778625
233	0x3d55c6b8	0.052191466
234	0xbc23120e	-0.009953035
235	0xbd99ca83	-0.07509329
236	0x3b64ac22	0.0034892638
237	0xbd3850d8	-0.044998974
238	0xbd6d9760	-0.05800569
239	0x3d906826	0.07051115
240	0x3e64ec15	0.22355683
241	0xbd3f3207	-0.04667857
242	0xbdbeb091	-0.09311021
243	0xbe0c933c	-0.1372804
244	0xbd783c14	-0.06060417
245	0x3d14ce67	0.036329653
246	0xbcecf56a	-0.028925616
247	0xbb728eb0	-0.0037011318
248	0xbb2c21bb	-0.0026265222
249	0xbd82cc5f	-0.06386637
250	0xbd6ade5d	-0.05734097
251	0xbe19e2fd	-0.15027995
252	0xbd313eec	-0.043272898
253	0x3b53aff7	0.0032300928
254	0x3de0f563	0.10984304
255	0x3da968fe	0.08271979

net.2.bias f4 [64]
0	0xbe0d5550	-0.13802075
1	0x3d82d0c8	0.06387478
2	0xbe7b51dc	-0.24542946
3	0xbdcd505d	-0.10025094
4	0x3ee98e26	0.45616263
5	0x3eb8157c	0.3595389
6	0xbe420aa6	-0.18949375
7	0x3e839118	0.25696635
8	0xbe0bf1d8	-0.13666475
9	0x3f1bc1f4	0.60842824
10	0x3e65792f	0.22409509
11	0x3ec08ceb	0.37607512
12	0x3edab61d	0.42717066
13	0x3e8d52c1	0.276022
14	0xbe851a46	-0.25996608
15	0x3d9b7b5e	0.0759189
16	0xbdfc6c27	-0.12325316
17	0x3eaba631	0.3352523
18	0xbb561867	-0.0032668354
19	0x3eced823	0.40399274
20	0x3c1f4a34	0.009722281
21	0xbd5f9c1a	-0.05459223
22	0x3ee30549	0.4433997
23	0x3ea51b76	0.32247514
24	0x3ec88e0b	0.3917087
25	0x3d30a615	0.04312714
26	0x3e646f49	0.22308077
27	0x3e21a60e	0.15786001
28	0xbd34d7d1	-0.04415113
29	0x3e98427c	0.29738224
30	0xbdc000a8	-0.09375125
31	0x3ee827dd	0.45342913
32	0xbda842ce	-0.08215867
33	0x3eb1f7ed	0.34759465
34	0xbdbafafd	-0.091299035
35	0xbd6505a9	-0.0559136
36	0x3ed57943	0.41694078
37	0xbd9c1e4c	-0.07622966
38	0x3eb0278e	0.34405178
39	0x3edb0f55	0.42785135
40	0xbe883811	-0.26605275
41	0x3eab44c0	0.3345089
42	0xbd937e3c	-0.07201812
43	0xbe04f11a	-0.12982598
44	0x3ef12e01	0.4710541
45	0x3eb839df	0.35981652
46	0xbdeee0a2	-0.11663939
47	0x3edeea54	0.43538153
48	0xbd86752e	-0.06565319
49	0xbda37431	-0.07981146
50	0x3f06a76a	0.52599204
51	0x3ef542a9	0.4790242
52	0xbdf5ffd3	-0.12011685
53	0xba61365a	-0.0008591168
54	0xbddeb0cf	-0.10873567
55	0x3ed29160	0.41126537
56	0xbd3ebf00	-0.04656887
57	0x3efa56fc	0.4889449
58	0xbe0d32a0	-0.13788843
59	0xbdd53735	-0.104109205
60	0x3ef6f050	0.4823022
61	0xbe23cf96	-0.15997157
62	0x3ebf8b3b	0.37410912
63	0x3e8d5c93	0.2760969

net.4.weight f4 [2, 64]
0	0xbf1857d9	-0.59509045
1	0xbdd6e9b1	-0.10493792
2	0xc016f252	-2.35854
3	0x3e251baa	0.16123834
4	0x3f3ccbeb	0.73748654
5	0x3f8d9f52	1.1064246
6	0xc0244a45	-2.567033
7	0x3f3d4a16	0.7394117
8	0x3e7f79b1	0.24948765
9	0x3f702a8c	0.9381492
10	0xbfee8300	-1.8633728
11	0x3f589d78	0.8461528
12	0x3edf07d8	0.43560672
13	0x3f81af21	1.013157
14	0xc014674e	-2.3188052
15	0x3c8cfe93	0.017211234
16	0x3d87dbf1	0.06633747
17	0x3f30e82b	0.6910426
18	0x3d983e3e	0.07433747
19	0x3f8f2dde	1.1185873
20	0xbd214bd1	-0.039378945
21	0xbdf946b9	-0.121716924
22	0x3f0d4d8e	0.55196464
23	0x3f87369e	1.0563543
24	0x3f9dc8b5	1.2326876
25	0xbcb7d69d	-0.022441203
26	0x3f5ab953	0.8543903
27	0xbdb40edf	-0.08791899
28	0x3d995331	0.074865706
29	0x3f896534	1.073401
30	0xc0205553	-2.5052078
31	0x3f6f5bcf	0.93499464
32	0xc0757295	-3.8351185
33	0x3ed43fd4	0.41454947
34	0xbf9da93b	-1.231727
35	0xc02fbbb9	-2.7458327
36	0x3f491fc2	0.78564084
37	0x3e5813d2	0.21101311
38	0x3f49dfeb	0.78857297
39	0x3f3900a5	0.7226661
40	0xbe86dd85	-0.2634088
41	0x3f3f40a2	0.74707997
42	0x3ea58c06	0.32333392
43	0xbd1becfc	-0.038067803
44	0xbc9897f9	-0.018627154
45	0x3f4046f7	0.75108284
46	0x3d2ef978	0.04271838
47	0x3f43bc6b	0.7645938
48	0xbc56b21e	-0.01310399
49	0xbce54262	-0.027985755
50	0x3f6ded97	0.9294066
51	0x3f62d1b9	0.8860126
52	0xbd890f9a	-0.06692429
53	0xbfd917a9	-1.6960346
54	0xbccebc78	-0.025236353
55	0x3f3b5966	0.73183286
56	0x3c1da785	0.009622459
57	0x3f6d48dc	0.926893
58	0xbb9edbb9	-0.0048479703
59	0xbd9d6e5d	-0.07687066
60	0x3f2c1680	0.6722183
61	0xbad85967	-0.0016506136
62	0x3eae4904	0.34040082
63	0x3f57ab1f	0.84245485
64	0x3f4e9848	0.8070111
65	0x3cac0b45	0.021001467
66	0xbfcad02a	-1.5844777
67	0xbe0c0973	-0.1367548
68	0x3f699f17	0.91258377
69	0x3f34f44a	0.70685256
70	0xc053b36d	-3.3078263
71	0x3ee69fd2	0.45043808
72	0xbe8024bc	-0.25028026
73	0x3f72b803	0.9481203
74	0xc002836b	-2.039271
75	0x3ecc82de	0.39943594
76	0x3f70e98f	0.9410638
77	0x3ec3476d	0.3814043
78	0xc001cfce	-2.0283084
79	0xbe0c2ebf	-0.13689707
80	0x3e28257f	0.16420554
81	0x3f80c5b4	1.0060334
82	0xbda657ad	-0.081221916
83	0x3f5924e4	0.84821916
84	0x3ca7dc8f	0.020490913
85	0xbe124660	-0.14284658
86	0x3f7f1ddc	0.99654937
87	0x3f92a40d	1.1456314
88	0x3f04408e	0.51661
89	0xbe1568c0	-0.1459074
90	0x3f2ab308	0.6667943
91	0x3bff917a	0.0077993246
92	0xbb919f53	-0.0044440418
93	0x3efbed22	0.49204355
94	0xc007d8b6	-2.122602
95	0x3fb04c16	1.377322
96	0xc08b2e89	-4.3494306
97	0x3f700da0	0.9377079
98	0xbf9dbf9f	-1.2324103
99	0xbfbe09e6	-1.4846771
100	0x3f5d3381	0.86406714
101	0x3d764223	0.060121667
102	0x3f4c514d	0.79811555
103	0x3f0b2992	0.54360306
104	0xc0359d39	-2.837721
105	0x3f14ab3e	0.58073795
106	0xbe53aa29	-0.2067038
107	0x3da9ab79	0.08284659
108	0x3f88b54c	1.0680327
109	0x3e442729	0.19155563
110	0x3ccfef1b	0.025382569
111	0x3f424357	0.75884
112	0xbc05dff1	-0.008171068
113	0x3d04ffa4	0.03247036
114	0x3f6bce81	0.92111975
115	0x3f99c545	1.2013327
116	0xbe1b7a32	-0.15183333
117	0xc0104d4d	-2.254718
118	0x3da18450	0.07886565
119	0x3f28d796	0.6595396
120	0x3d273903	0.040825855
121	0x3e5d0005	0.21582039
122	0x3d4b0f11	0.049574915
123	0x3b82422d	0.003975174
124	0x3f4eb8fa	0.80751
125	0x3df158fb	0.1178455
126	0x3f748aef	0.95524496
127	0x3f078012	0.52929795

net.4.bias f4 [2]
0	0x3ea8ceda	0.32970315
1	0x3e0f56ec	0.13998002

net.0.weight f4 [64, 4]
0	0xbd391d9b	-0.04519425
1	0x3dc9c56b	0.098521076
2	0x3d9bc1f2	0.076053515
3	0xbcffcd64	-0.031225868
4	0x3df4ee2c	0.1195949
5	0xbda3fe20	-0.08007455
6	0x3e631568	0.22176135
7	0xbd3cf5b6	-0.046132766
8	0xbd6cc96b	-0.057809275
9	0x3d28d4c0	0.04121852
10	0x3fd18dc6	1.6371391
11	0x3e4b60ac	0.19861096
12	0xbe699ca5	-0.22813661
13	0x3e0c99f7	0.13730608
14	0x3f7bc948	0.98354006
15	0xbe47ae6b	-0.19500129
16	0xbdabd813	-0.08390822
17	0xbca94b60	-0.020665824
18	0x3d448b42	0.04798437
19	0x3b3ee2e0	0.0029126927
20	0x3e663772	0.22482088
21	0xbe811bff	-0.25216672
22	0xbf55186b	-0.83240384
23	0xbdea24d1	-0.114328034
24	0xbd8818c6	-0.0664535
25	0x3de71a17	0.11284273
26	0xbf0bec6f	-0.54657644
27	0x3e03edfd	0.12883754
28	0xbdd7902c	-0.105255455
29	0x3c4a21b3	0.012337136
30	0x3ca0a46a	0.019609649
31	0x3c7e152c	0.015507977
32	0x3ba70dcf	0.0050980817
33	0xbd9b3d7c	-0.075800866
34	0x3c960d8d	0.018317008
35	0xbd7bd5b9	-0.06148312
36	0xbe4b0918	-0.19827688
37	0x3d3c4d9d	0.045972455
38	0xbdde8bb3	-0.10866489
39	0x3c9847c0	0.0185889
40	0xbe1606ce	-0.14651033
41	0xbd0e4751	-0.03473598
42	0xbf9e8e8a	-1.238725
43	0xbd9b8225	-0.075931825
44	0x3d8cf187	0.06882005
45	0x3d193e4d	0.03741293
46	0xbf896287	-1.0733193
47	0x3e55fa0f	0.20896171
48	0xbe875704	-0.26433575
49	0xbd0751d1	-0.03303701
50	0x3f8d406a	1.1035283
51	0x3d123e08	0.03570369
52	0xbdc1d954	-0.0946528
53	0x3e0851e2	0.13312486
54	0x3f7e866b	0.99423856
55	0xbe982128	-0.29712796
56	0x3cdbbcc9	0.026823418
57	0xbc0dfda5	-0.008666431
58	0xbe3e6a88	-0.18595326
59	0xbcb08648	-0.021548405
60	0x3d893424	0.06699398
61	0xbb191092	-0.0023355824
62	0x3e85da97	0.26143333
63	0xbc8155a6	-0.01578791
64	0xbe3d4826	-0.18484554
65	0xbd63a0b0	-0.055573165
66	0xbf84eb1b	-1.0384248
67	0x3e6e2574	0.23256475
68	0x3e7ab869	0.2448441
69	0xbdcf7262	-0.10129239
70	0xbf1c20ae	-0.60987365
71	0xbddf0110	-0.108888745
72	0x3d456ea1	0.048201207
73	0xbd2e05a6	-0.042485856
74	0xbdc4e5e8	-0.09614164
75	0xbd03ed15	-0.03220852
76	0xbe5452e1	-0.20734741
77	0xbe26ee69	-0.16301884
78	0xbedec01e	-0.4350595
79	0xbe2f4089	-0.17114462
80	0x3e1f72bd	0.15571113
81	0x3d6ede61	0.058317546
82	0xbee20a01	-0.44148257
83	0x3dd103a4	0.102057725
84	0x3ea386ef	0.31938884
85	0x3d45f8d6	0.04833301
86	0xbe73b7db	-0.23800604
87	0x3c3ea90f	0.011636986
88	0x3e152c56	0.14567694
89	0xbe39d2a1	-0.18146755
90	0xbf2f1ec2	-0.6840631
91	0xbc8ca3e4	-0.017167993
92	0x3e8a085d	0.26959506
93	0x3d80e165	0.062929906
94	0xbf767ae3	-0.9628126
95	0xbd5be27a	-0.05368278
96	0xbdd03a4b	-0.101673685
97	0x3dce540a	0.10074623
98	0x3f80b155	1.0054117
99	0x3d3d2f27	0.046187546
100	0xbe556428	-0.20838988
101	0xbdbdd1a7	-0.09268504
102	0xbe11319a	-0.14179078
103	0x3e474a85	0.1946202
104	0x3de2cc71	0.1107415
105	0x3d867403	0.06565096
106	0x3f467768	0.7752595
107	0x3dfa2cf7	0.122156076
108	0x3ef00ccc	0.46884763
109	0xbdaad6ce	-0.08341752
110	0x3e46efc8	0.19427407
111	0xbdcc8bb8	-0.09987587
112	0x3e8a8267	0.27052614
113	0xbeb17cc1	-0.34665492
114	0x3f5a7073	0.85327834
115	0x3e29536e	0.16535732
116	0x3d257216	0.040392004
117	0xbe09c8c0	-0.13455486
118	0xbbe9136a	-0.00711291
119	0xbe80df7b	-0.25170502
120	0xbe65ed76	-0.22453865
121	0x3e4b3340	0.19843769
122	0x3f149758	0.5804343
123	0xbe8ac9f6	-0.2710721
124	0xbce9cf8c	-0.028541349
125	0xbca8eb04	-0.020619877
126	0x3cee4a2f	0.029088108
127	0xbd9100be	-0.0708022
128	0x3cf9a449	0.030473845
129	0x3b82e722	0.0039948383
130	0xbf581cac	-0.8441875
131	0xbd75a3e5	-0.059970755
132	0xbb608ff3	-0.0034265488
133	0x3d688253	0.05676491
134	0xbc98911a	-0.018623877
135	0x3d4d5eb8	0.05013916
136	0xbd14a080	-0.036285877
137	0xba4a4d79	-0.0007717233
138	0x3f2ddbea	0.6791369
139	0x3eb71c2f	0.3576369
140	0x3df3cfff	0.119049065
141	0xbc248c23	-0.010043177
142	0xbd806292	-0.06268801
143	0x3d0a0191	0.0336929
144	0xbcbc4a41	-0.022984626
145	0xbd0be2a9	-0.034151707
146	0xbfb46ba4	-1.4095349
147	0xbea8dcf6	-0.3298108
148	0xbdec1b73	-0.11528673
149	0x3da2836b	0.07935222
150	0x3f57d527	0.8430962
151	0xbd3fa326	-0.04678645
152	0xbd470800	-0.048591614
153	0x3d86282d	0.06550632
154	0xbe555a6a	-0.20835271
155	0x3e24714e	0.16058847
156	0x3ddc9229	0.10770065
157	0xbdb3cc78	-0.08779234
158	0xbc88f0db	-0.016716411
159	0x3bf35cab	0.0074268184
160	0xbe1eceb1	-0.15508534
161	0xbd9c4c7d	-0.076317765
162	0x3d46ee9f	0.04856741
163	0xbd24f771	-0.04027504
164	0x3e88437c	0.26613986
165	0xbe2a08f1	-0.16604973
166	0xbfe0d493	-1.7564873
167	0xbe7647c8	-0.2405082
168	0xbe497085	-0.19671829
169	0x3e26de73	0.16295795
170	0x3f618b5f	0.8810329
171	0xbd8da211	-0.06915677
172	0xbe462f99	-0.19354095
173	0x3e67dfd2	0.22643974
174	0x3e712223	0.23548178
175	0x3dcbfe51	0.099606164
176	0x3c267340	0.010159314
177	0xbd728ab3	-0.059214305
178	0xbde790a0	-0.11306882
179	0xbd30f920	-0.043206334
180	0xbbaa7b91	-0.0052027185
181	0x3db84670	0.0899781
182	0x3f62d678	0.88608503
183	0x3d90a4a7	0.07062655
184	0x3dcbf5cd	0.09958992
185	0xbe158fc3	-0.14605622
186	0xbfeccae7	-1.8499421
187	0xbe9ccdb3	-0.30625686
188	0x3e927686	0.2860605
189	0xbde761ae	-0.11297928
190	0xbe1d79b6	-0.1537846
191	0x3db7b78e	0.08970557
192	0xbd2e1ddf	-0.042508956
193	0x3c4bb990	0.012434378
194	0xbd085855	-0.033287365
195	0x3be9e052	0.007137337
196	0xbdde86d6	-0.10865562
197	0x3d10cc0f	0.035350855
198	0xbe5a9069	-0.2134415
199	0xbcb7eedb	-0.022452762
200	0x3defea0e	0.11714564
201	0xbd3a7e06	-0.04553034
202	0xbef6c98c	-0.48200643
203	0xbcd83681	-0.026393177
204	0xbf21362a	-0.6297327
205	0xbdaecb3f	-0.0853486
206	0x3f7e134b	0.9924819
207	0x3dfbfc4b	0.123039804
208	0x3ca3da75	0.02000163
209	0x3e157734	0.14596254
210	0x3f72d74a	0.94859755
211	0x3e56c6d2	0.20974281
212	0xbd1f9bf1	-0.038967077
213	0xbd6eafee	-0.05827325
214	0x3e76ca05	0.24100502
215	0xbc4d5907	-0.012533433
216	0x3d17a547	0.037022855
217	0x3c7d8a22	0.015474828
218	0xbd539612	-0.05165679
219	0x3c93c053	0.018036043
220	0xbe3300b4	-0.17480737
221	0x3e0dcf82	0.13848689
222	0x3f1d0887	0.61341137
223	0xbc704164	-0.014664028
224	0x3e5eec85	0.21769913
225	0xbe1e2d02	-0.15446857
226	0xbf41172d	-0.7542599
227	0x3ebba803	0.3665162
228	0x3d0a0234	0.033693507
229	0xbdf93f80	-0.12170315
230	0xbee3720d	-0.4442295
231	0x3d4d705d	0.050155986
232	0xbcee54f3	-0.029093241
233	0x3da8a6a6	0.08234911
234	0xbd941506	-0.072305724
235	0x3d3b9aff	0.045802113
236	0x3dfe7ad8	0.12425774
237	0xbd5e317a	-0.054246403
238	0xbf009aeb	-0.50236386
239	0xbe21fe22	-0.158196
240	0x3e189b9d	0.14903112
241	0x3c9e152d	0.019297207
242	0x3f87015c	1.054729
243	0x3d4e09c0	0.050302267
244	0xbcc5b041	-0.024131896
245	0x3c82b55c	0.01595562
246	0xbd696f0b	-0.056990664
247	0xbcef8be2	-0.029241506
248	0x3e27af17	0.16375385
249	0xbe16ed3a	-0.14738932
250	0xbf856fe0	-1.0424767
251	0xbdbd3792	-0.09239115
252	0x3e2fa92f	0.17154382
253	0xbe001eaa	-0.12511697
254	0x3ed6ef19	0.41979292
255	0xbbd007df	-0.0063485946

net.0.bias f4 [64]
0	0x3eb2cc72	0.34921604
1	0x3e869482	0.26285177
2	0xbe6deab6	-0.23234066
3	0xbdb0289f	-0.08601498
4	0xbe97df35	-0.2966248
5	0x3e6040d1	0.21899725
6	0xbde440da	-0.11145182
7	0x3ee08684	0.43852627
8	0x3ea34770	0.3189044
9	0xbe8aad34	-0.27085268
10	0xbebf2ef1	-0.373405
11	0x3d6e1cbc	0.058132872
12	0xbf02f66c	-0.5115726
13	0xbe4b2ee6	-0.19842109
14	0xbe160e7e	-0.14653966
15	0x3e78fc39	0.24314965
16	0xbe5cd969	-0.2156731
17	0xbe28efbf	-0.16497706
18	0xbdb7ea78	-0.08980268
19	0xbe91848b	-0.28421435
20	0x3da7071a	0.081556514
21	0xbf2a8337	-0.6660647
22	0x3e10d343	0.1414309
23	0xbf032835	-0.51233226
24	0x3e83688c	0.256657
25	0xbef41366	-0.4767105
26	0xbef7d4f5	-0.4840466
27	0xbf1e1466	-0.61749876
28	0xbc2e34f0	-0.0106327385
29	0xbdd2e9a8	-0.10298473
30	0x3d1ec6c2	0.03876377
31	0xbe8653ed	-0.26235905
32	0x3e8c36fb	0.27385697
33	0xbe0bf7f1	-0.13668801
34	0xbea4eefb	-0.32213578
35	0x3ec811f4	0.39076197
36	0xbc553284	-0.013012532
37	0x3e22a043	0.15881447
38	0xbe995e26	-0.29954642
39	0x3f0421c1	0.51614004
40	0xbee77cb5	-0.4521233
41	0xbec339d3	-0.38130054
42	0x3e2559dd	0.16147561
43	0xbe80f1cd	-0.2518448
44	0xbdf5285b	-0.11970588
45	0x3e9c3c63	0.3051482
46	0xbec215f3	-0.3790737
47	0xbe98414d	-0.2973732
48	0xbdbc06d0	-0.09180987
49	0x3e9e83b0	0.30959845
50	0x3e455532	0.1927078
51	0xbebc5fc3	-0.3679181
52	0xbe26abf4	-0.16276532
53	0x3edef9c3	0.43549928
54	0xbe9390b7	-0.28821346
55	0xbde8cee7	-0.113675885
56	0x3c1aa4e8	0.009438731
57	0xbec9a2b6	-0.3938195
58	0xbe0f90c5	-0.14020069
59	0x3eb28c53	0.34872684
60	0xbefb094c	-0.4903053
61	0xbe407149	-0.18793215
62	0x3e8727c8	0.26397538
63	0xbeb4f318	-0.35341716

net.2.weight f4 [64, 64]
0	0xbe403f49	-0.18774141
1	0xbe306c80	-0.1722889
2	0x3ed5c31a	0.41750413
3	0x3df69d43	0.12041714
4	0x3cd3da65	0.025860975
5	0xbe2270cf	-0.15863346
6	0xbefbb84c	-0.49164045
7	0xbe8e5525	-0.27799335
8	0xbdd64c9a	-0.10463829
9	0x3d2a858f	0.041631278
10	0xbd3af6ef	-0.04564565
11	0xbe838915	-0.25690523
12	0xbe91b536	-0.28458565
13	0xbd71580b	-0.058921855
14	0xbe2d6327	-0.16932355
15	0xbdd47712	-0.10374273
16	0xbd8d1d6e	-0.06890379
17	0xbf129a1e	-0.57266414
18	0xbe1a759d	-0.15083928
19	0xbe65262a	-0.2237784
20	0x3ad17589	0.0015980463
21	0x3d921ead	0.07134757
22	0xbf26767f	-0.6502456
23	0xbf53d492	-0.8274623
24	0x3e6ca99a	0.23111573
25	0xbef5833c	-0.47951686
26	0x3f1f77dd	0.6229227
27	0x3e766c0b	0.24064653
28	0xbeeb38db	-0.45941815
29	0xbaa24551	-0.0012380277
30	0x3db6e32f	0.089300506
31	0x3e06d3bb	0.13166706
32	0xbf2719c7	-0.6527371
33	0x3d92c224	0.07165936
34	0xbea086f7	-0.3135297
35	0x3d5b55a9	0.05354849
36	0xbdf0a5ec	-0.11750397
37	0xbda4d7a7	-0.08048945
38	0xbe67846b	-0.22609107
39	0xbe512ce2	-0.20427278
40	0x3d9dfc2e	0.07714115
41	0xbe83d66d	-0.2574953
42	0x3c62ed6a	0.013850549
43	0xbe124365	-0.14283521
44	0x3d058a4d	0.032602597
45	0x3f021aac	0.5082195
46	0x3d94f925	0.07274083
47	0x3d94cd65	0.072657384
48	0xbd5dc53f	-0.054143187
49	0xbe289a27	-0.16465054
50	0xbdda6a82	-0.10664846
51	0xbefc9a14	-0.49336302
52	0xbdca5ac9	-0.09880597
53	0xbe0cb19d	-0.13739629
54	0x3dde4d0a	0.10854538
55	0x3dfd5e2b	0.12371477
56	0xbd380828	-0.044929653
57	0xbedf0952	-0.43561798
58	0xbb9e0a33	-0.004822993
59	0xbf0281cd	-0.5097931
60	0x3fc47ec8	1.535119
61	0xbc21964c	-0.009862494
62	0xbe6a62cb	-0.22889249
63	0x3ee54e02	0.44786078
64	0x3dbfd1e7	0.093662076
65	0x3ded9bca	0.1160198
66	0xbe4d6e49	-0.20061602
67	0x3e4ae1f0	0.19812751
68	0x3c540665	0.012940978
69	0x3d6f032b	0.05835263
70	0xbb7eafac	-0.0038862033
71	0xbe1d2236	-0.15345082
72	0xbe179cee	-0.14805958
73	0xbc3e45d0	-0.011613324
74	0xbdb35120	-0.08755708
75	0xbdbc7b38	-0.092031896
76	0x3deb5c03	0.11492159
77	0xbdb6d778	-0.08927816
78	0x3d35ad9a	0.044355012
79	0xbdfe0d2c	-0.12404856
80	0x3d487e38	0.048948497
81	0x3d16407d	0.036682595
82	0xbd47053b	-0.048588973
83	0xbe0eb925	-0.13937815
84	0xbd8a6acd	-0.06758652
85	0xbd12d645	-0.035848875
86	0xbbc20b70	-0.0059217736
87	0xbe178646	-0.14797315
88	0xbd97d52e	-0.07413708
89	0x3d568029	0.052368317
90	0x3e27257f	0.16322897
91	0xbe2763ff	-0.16346739
92	0xbdb72fbf	-0.08944654
93	0xbdab4d55	-0.08364359
94	0xbd713fd4	-0.058898762
95	0xbd518ac0	-0.051157713
96	0xbe35e610	-0.17763543
97	0x3cbeb1b7	0.0232781
98	0xbd70bbcc	-0.058772847
99	0xbd183abe	-0.037165396
100	0xbe5b6b8a	-0.21427742
101	0x3e2c71be	0.16840264
102	0x3e7e67cc	0.24844283
103	0xbe606d93	-0.21916799
104	0xbc21b486	-0.0098697
105	0xbd6b905b	-0.057510715
106	0xbd931656	-0.071819946
107	0x3cbb1180	0.022835493
108	0x3dbdef73	0.09274187
109	0xbb278727	-0.0025562735
110	0xbe308580	-0.17238426
111	0xbe390930	-0.18069911
112	0x3e464404	0.19361883
113	0xbe284d97	-0.16435848
114	0xbe07aae5	-0.13248785
115	0xbd579711	-0.052634303
116	0xbd0cbc8c	-0.0343595
117	0xbc6eced3	-0.014575678
118	0x3e1143ee	0.1418607
119	0xbd9a7b4e	-0.0754305
120	0xbe4e0769	-0.20120014
121	0xbd7c7ebb	-0.061644297
122	0x3e44c9c8	0.19217598
123	0x3ddb4929	0.107073136
124	0x3e16966e	0.14705822
125	0xbdd47d6f	-0.10375487
126	0xbe51a14a	-0.20471683
127	0x3dc3f611	0.09568418
128	0xbe4122ff	-0.18861006
129	0xbf316cac	-0.69306445
130	0xbeadcb37	-0.33944103
131	0xbf6e9900	-0.9320221
132	0xbdbc2696	-0.09187047
133	0xbf16e507	-0.5894322
134	0x3d7aeb0f	0.061259326
135	0xbe2082ce	-0.15674898
136	0xbe2938f8	-0.16525638
137	0x3f3a8766	0.7286285
138	0x4021dfdf	2.529289
139	0xbedf1ae6	-0.4357521
140	0x3fac6d4b	1.3470854
141	0xbf469d97	-0.77584213
142	0x3de72cea	0.112878636
143	0xbeb6e928	-0.3572476
144	0xbe8b04f7	-0.27152225
145	0xbd41ace7	-0.047284033
146	0x3c813acb	0.015775105
147	0xbee32904	-0.4436723
148	0xbed3e9b6	-0.41389245
149	0xbdb6de80	-0.08929157
150	0xbe897fb9	-0.26855257
151	0x3f26c7bf	0.6514854
152	0xbec000f9	-0.37500742
153	0x3d338a1c	0.043832883
154	0x3f090ccd	0.5353516
155	0xbe271f3f	-0.16320513
156	0x3ca21831	0.019786926
157	0x3e017928	0.12643874
158	0xbf30743f	-0.6892738
159	0x3d72f4d0	0.059315503
160	0xbe96ba76	-0.29439133
161	0x3e18a2f0	0.14905906
162	0x3e07d696	0.13265452
163	0xbef15676	-0.47136277
164	0x3f2284f0	0.63484097
165	0xbe45f4e6	-0.19331703
166	0x3ea686e7	0.32524797
167	0xbe19bb8a	-0.15012947
168	0x3fa46ec5	1.2846304
169	0x3f6eff42	0.9335824
170	0xbd902fce	-0.07040368
171	0xbd8471e5	-0.06467036
172	0x3d9a3359	0.07529325
173	0xbea23a8b	-0.3168529
174	0x3e958d4b	0.2920936
175	0xbe653822	-0.22384694
176	0xbdd3bf02	-0.10339166
177	0x3d48384d	0.048881818
178	0xbf4b370d	-0.79380876
179	0x3f5bdde0	0.8588543
180	0x3e27739e	0.16352698
181	0xbe090fcc	-0.13384932
182	0xbd0db1e3	-0.034593474
183	0xbefbc8d2	-0.4917665
184	0xbf85df06	-1.0458686
185	0xbe935666	-0.28776854
186	0xbd9293de	-0.0715711
187	0xbf61c8d4	-0.88197064
188	0x3f2ff9a7	0.68740314
189	0xbd763240	-0.060106516
190	0xbf56c753	-0.83897895
191	0x3ead84bf	0.3389034
192	0xbcb87a26	-0.022519182
193	0x3d82f49f	0.06394314
194	0xbd42ba8c	-0.047541186
195	0x3d5bfe70	0.053709447
196	0xbdbd22ac	-0.09235129
197	0xbd058b72	-0.03260369
198	0x3cf23e83	0.029570824
199	0xbdd0b55b	-0.10190841
200	0xbdaffc0f	-0.08592998
201	0xbd81c470	-0.063362956
202	0xbc6dd583	-0.014516237
203	0xbc0ab7eb	-0.008466701
204	0x3dd6ecc1	0.10494376
205	0xbdb8efc2	-0.09030105
206	0xbde15db8	-0.110042036
207	0x3c5c50d6	0.013447007
208	0x3cf26dd4	0.029593386
209	0xbdbd7f60	-0.092528105
210	0x3df47dbb	0.11938044
211	0xbe3660b8	-0.17810333
212	0xbcfe5f4e	-0.031051304
213	0xbd5b36ea	-0.053519167
214	0x3ce81e7d	0.02833485
215	0xbdad3947	-0.084581904
216	0xbe504673	-0.20339374
217	0x3d3e65e2	0.04648388
218	0xbd359ef8	-0.044341058
219	0x3d8a17ac	0.06742796
220	0x3e223dc7	0.15843879
221	0x3c919e72	0.017775748
222	0x3cf43e9f	0.029815016
223	0xbdfe9c24	-0.12432125
224	0xbcdafb22	-0.026731078
225	0x3e81424c	0.25245893
226	0x3c420188	0.011841185
227	0xbe533f98	-0.20629728
228	0xbd53269f	-0.051550504
229	0xbdf536ac	-0.119733185
230	0xbd281723	-0.04103769
231	0xbe3044e6	-0.17213783
232	0xbce39ffd	-0.02778625
233	0x3d55c6b8	0.052191466
234	0xbc230eac	-0.0099522285
235	0xbd99ca83	-0.07509329
236	0x3b64ac22	0.0034892638
237	0xbd289dbd	-0.041166056
238	0xbd6d9760	-0.05800569
239	0x3d98416e	0.07434355
240	0x3e64ec15	0.22355683
241	0xbd2f7ed7	-0.042845573
242	0xbdb6d6d4	-0.08927694
243	0xbe08a6ab	-0.13344829
244	0xbd6889b5	-0.056771953
245	0x3d24821b	0.04016314
246	0xbcecf56a	-0.028925616
247	0xbb728eb0	-0.0037011318
248	0x3a9e2865	0.0012066482
249	0xbd82cd49	-0.06386811
250	0xbd6ade5d	-0.05734097
251	0xbe15f6ca	-0.14644924
252	0xbd313eec	-0.043272898
253	0x3b53aff7	0.0032300928
254	0x3de8cea6	0.1136754
255	0x3da968fe	0.08271979

net.2.bias f4 [64]
0	0xbe0d54e5	-0.13801916
1	0x3d82d17c	0.06387612
2	0xbe7791fe	-0.24176785
3	0xbdc5765c	-0.09641716
4	0x3ee4a938	0.44660354
5	0x3eb626aa	0.35576373
6	0xbe3bef34	-0.18352968
7	0x3e84f3da	0.25967294
8	0xbe0508c8	-0.12991631
9	0x3f19a297	0.6001372
10	0x3e63597e	0.22202107
11	0x3ec20d13	0.379006
12	0x3ed22c83	0.41049585
13	0x3e8ed3ce	0.2789597
14	0xbe8519dd	-0.25996295
15	0x3d9b7b8d	0.07591925
16	0xbdfc6bfc	-0.12325284
17	0x3ea63a2c	0.32466257
18	0xbb561842	-0.0032668267
19	0x3ecb4876	0.3970372
20	0x3c1f4a8d	0.009722364
21	0xbd5f9b6a	-0.054591574
22	0x3edbe7bd	0.4295024
23	0x3ea1de41	0.3161488
24	0x3ec8bb0b	0.39205202
25	0x3d41f1fb	0.04734991
26	0x3e6415d9	0.22273959
27	0x3e21a676	0.15786156
28	0xbd34d7c0	-0.044151068
29	0x3e981387	0.29702398
30	0xbdc6a75e	-0.096998915
31	0x3ee21bb9	0.44161776
32	0xbda66a48	-0.0812574
33	0x3eaa18a6	0.3322193
34	0xbdbafac0	-0.09129858
35	0xbd5cd30a	-0.0539122
36	0x3ed2e1e1	0.41187957
37	0xbd9c1e0e	-0.0762292
38	0x3eacb050	0.33728266
39	0x3edc3d15	0.43015352
40	0xbe843bce	-0.25826877
41	0x3eabf5b7	0.33585903
42	0xbd937e3e	-0.07201813
43	0xbe04f075	-0.12982352
44	0x3ee31ed2	0.44359452
45	0x3ebb4280	0.36574173
46	0xbdeee0a2	-0.11663939
47	0x3edcf714	0.43157256
48	0xbd8674bd	-0.06565235
49	0xbda37431	-0.07981146
50	0x3f04cf44	0.5187876
51	0x3ef0648b	0.46951708
52	0xbdf5ff74	-0.120116144
53	0x3aa0532b	0.0012231817
54	0xbddeaf76	-0.1087331
55	0x3ed1d8d4	0.4098574
56	0xbd3ebee8	-0.04656878
57	0x3efcf2c6	0.4940397
58	0xbe0d3285	-0.13788803
59	0xbdd5367a	-0.10410781
60	0x3ef50403	0.47854623
61	0xbe23cf97	-0.15997158
62	0x3eb46458	0.35232806
63	0x3e8e4418	0.27786326

net.4.weight f4 [2, 64]
0	0xbf1857a6	-0.5950874
1	0xbdd6ea69	-0.10493929
2	0xc017df6d	-2.3730118
3	0x3e251baa	0.16123834
4	0x3f344dbe	0.70431125
5	0x3f8a769e	1.0817449
6	0xc0254430	-2.5822868
7	0x3f33baa1	0.7020665
8	0x3e7f764d	0.24947472
9	0x3f62855c	0.8848474
10	0xbfe717b4	-1.8054109
11	0x3f4ed468	0.80792856
12	0x3ed2fc92	0.4120832
13	0x3f7a4711	0.9776469
14	0xc014670e	-2.31879
15	0x3c8cfe2d	0.017211044
16	0x3d87dc1c	0.066337794
17	0x3f28f1cd	0.6599396
18	0x3d983dde	0.07433675
19	0x3f898047	1.0742272
20	0xbd214bd7	-0.039378967
21	0xbdf9474b	-0.12171801
22	0x3f05bda1	0.52242476
23	0x3f816fae	1.0112207
24	0x3f99b0e8	1.2007113
25	0xbc954721	-0.018222393
26	0x3f51171f	0.81675905
27	0xbdb40ef7	-0.08791917
28	0x3d9953fd	0.074867226
29	0x3f855a84	1.0418248
30	0xc01c791a	-2.4448915
31	0x3f667b37	0.9003176
32	0xc06f9b67	-3.74386
33	0x3eca999a	0.39570314
34	0xbf9da95d	-1.231731
35	0xc02fa783	-2.744599
36	0x3f3d8d76	0.7404398
37	0x3e581411	0.21101405
38	0x3f3f030c	0.74614024
39	0x3f301339	0.6877933
40	0xbe7639de	-0.24045512
41	0x3f3716a6	0.71518934
42	0x3ea58c1e	0.32333463
43	0xbd1bedd5	-0.03806861
44	0xbbbc2765	-0.005742001
45	0x3f3af10a	0.73024046
46	0x3d2ef978	0.04271838
47	0x3f3a9970	0.7289038
48	0xbc56b2f1	-0.013104186
49	0xbce54262	-0.027985755
50	0x3f61a636	0.8814424
51	0x3f594ad1	0.84879786
52	0xbd890fec	-0.0669249
53	0xbfcfe318	-1.6241179
54	0xbccec368	-0.025239661
55	0x3f314930	0.692523
56	0x3c1da706	0.009622341
57	0x3f67224d	0.90286714
58	0xbb9edbb9	-0.0048479703
59	0xbd9d6e5d	-0.07687066
60	0x3f23e4d4	0.6402104
61	0xbad85967	-0.0016506136
62	0x3eab3aed	0.33443394
63	0x3f4b779e	0.79479396
64	0x3f4e98b8	0.8070178
65	0x3cac0a9f	0.021001158
66	0xbfc85aa4	-1.5652661
67	0xbe0ff490	-0.14058137
68	0x3f633a35	0.8876069
69	0x3f26602f	0.64990515
70	0xc05270fd	-3.2881463
71	0x3eeff9b7	0.46870205
72	0xbe83927d	-0.256977
73	0x3f6fef9a	0.9372498
74	0xbff80fd4	-1.937983
75	0x3ed5eec9	0.4178374
76	0x3f6805e3	0.9063398
77	0x3ed1b41c	0.40957725
78	0xc001cfad	-2.0283005
79	0xbe0c2f24	-0.13689858
80	0x3e28257f	0.16420554
81	0x3f795964	0.97402024
82	0xbda65806	-0.08122258
83	0x3f57dfd8	0.84325933
84	0x3ca7dc4f	0.020490794
85	0xbe124685	-0.14284714
86	0x3f766f71	0.96263796
87	0x3f8f4c53	1.1195167
88	0x3f0a957f	0.5413436
89	0xbe1568dd	-0.14590783
90	0x3f2df4b5	0.6795152
91	0x3bff9174	0.007799322
92	0xbb919f56	-0.004444043
93	0x3f034c82	0.51288617
94	0xbffaa046	-1.9580162
95	0x3facad92	1.349047
96	0xc0842b6b	-4.1303
97	0x3f6460b3	0.8921005
98	0xbf9dbf3e	-1.2323987
99	0xbfbdcda8	-1.4828386
100	0x3f5956b6	0.84897935
101	0x3d764223	0.060121667
102	0x3f48378c	0.7820976
103	0x3f0cbfdb	0.5498025
104	0xc0357984	-2.8355417
105	0x3f161995	0.58632785
106	0xbe53aa61	-0.20670463
107	0x3da9aacf	0.08284532
108	0x3f827f2b	1.0195059
109	0x3e5603d0	0.20899892
110	0x3ccfef1b	0.025382569
111	0x3f41eb62	0.7574979
112	0xbc05e04c	-0.008171152
113	0x3d04ffa4	0.03247036
114	0x3f65f817	0.8983168
115	0x3f952ab2	1.1653655
116	0xbe1b7ac5	-0.15183552
117	0xc009b510	-2.1516762
118	0x3da18591	0.07886804
119	0x3f2973e7	0.6619248
120	0x3d273907	0.04082587
121	0x3e7387be	0.2378225
122	0x3d4b0f40	0.04957509
123	0x3b8241bd	0.003975122
124	0x3f4b79a3	0.7948248
125	0x3df158fb	0.1178455
126	0x3f629290	0.88504887
127	0x3f0ac5a9	0.54207855

net.4.bias f4 [2]
0	0x3eaba0af	0.3352103
1	0x3e079434	0.13240129

exp_avg f4 [64, 4]
0	0x3c546afc	0.01296496
1	0x3cdd295c	0.02699726
2	0x3b1a2155	0.0023518403
3	0xbc62d14c	-0.013843846
4	0x3c816322	0.01579434
5	0x3ccc33df	0.024927078
6	0x3b04c494	0.0020258771
7	0xbc446b40	-0.011988461
8	0x9491e14c	-1.4730122e-26
9	0x952ceb08	-3.492053e-26
10	0x13a69333	4.204944e-27
11	0x152664b2	3.3602868e-26
12	0xbb127d56	-0.0022352538
13	0x3aa101d1	0.0012283867
14	0xb7e04d2a	-2.6738813e-05
15	0xbbd45ccc	-0.006480789
16	0x80000004	-6e-45
17	0x80000004	-6e-45
18	0x80000004	-6e-45
19	0x00000004	6e-45
20	0x3cf083b8	0.029359683
21	0x3d080ace	0.03321343
22	0x3afc918e	0.0019269453
23	0xbc9ae031	-0.01890573
24	0xa3b51f8d	-1.9637422e-17
25	0xa3892890	-1.4870749e-17
26	0xa1ee32d5	-1.6140962e-18
27	0x224face6	2.8145263e-18
28	0x3cec4fb8	0.028846607
29	0x3d54756a	0.051869787
30	0x3b8e4b42	0.0043424675
31	0xbcd7d6d2	-0.026347551
32	0x3c4f1a36	0.0126405265
33	0x3ccd54a7	0.02506478
34	0x3b1170d2	0.002219249
35	0xbc57fa1b	-0.013182188
36	0xbb29d367	-0.002591336
37	0xbb280efb	-0.0025643695
38	0xb979083a	-0.00023749555
39	0x3b009538	0.0019620191
40	0x3ebbe572	0.3669849
41	0x3c904f29	0.017615872
42	0xbc149a1f	-0.009069948
43	0x3eae67b8	0.34063506
44	0xbae118dd	-0.0017173548
45	0xbbd91b2d	-0.006625554
46	0xba8c3e7e	-0.0010699776
47	0x3a4b55e0	0.0007756632
48	0xbfd96118	-1.6982756
49	0xbfb94fc1	-1.4477464
50	0xbd388bd6	-0.045055233
51	0x3ec320ef	0.38111064
52	0x3ac07746	0.0014683984
53	0x3a169c29	0.00057453156
54	0x382bf56f	4.0998155e-05
55	0x3a0212ff	0.0004961937
56	0x00000004	6e-45
57	0x00000004	6e-45
58	0x00000004	6e-45
59	0x00000004	6e-45
60	0x3ba69ae8	0.005084384
61	0x3c41365c	0.011792745
62	0x3a871f86	0.0010309077
63	0xbbcaee20	-0.0061929375
64	0x3c6cceb3	0.014453578
65	0x3c8be3f5	0.017076472
66	0x3a770b01	0.0009423942
67	0xbc476b31	-0.0121715525
68	0x00000004	6e-45
69	0x00000004	6e-45
70	0x80000004	-6e-45
71	0x80000004	-6e-45
72	0x80000004	-6e-45
73	0x80000004	-6e-45
74	0x80000004	-6e-45
75	0x00000004	6e-45
76	0xbc2457e7	-0.010030723
77	0xbc7df8f0	-0.015501246
78	0xba421e3b	-0.00074050174
79	0x3c35963d	0.011083183
80	0x3a4f823f	0.00079158315
81	0x3afd1419	0.0019308358
82	0x39cabc2d	0.00038668644
83	0x395a8ec3	0.00020843283
84	0x80000004	-6e-45
85	0x80000004	-6e-45
86	0x80000004	-6e-45
87	0x00000004	6e-45
88	0x3cb42bed	0.021993602
89	0x3c990824	0.01868064
90	0x3a6a762a	0.00089439994
91	0xbc071f58	-0.008247219
92	0x80000004	-6e-45
93	0x80000004	-6e-45
94	0x80000004	-6e-45
95	0x00000004	6e-45
96	0xba975bdc	-0.0011547762
97	0x3b37dec1	0.0028056356
98	0x3a025fc2	0.00049733755
99	0x3a1e62e1	0.0006041956
100	0xbd57395b	-0.052544933
101	0xbd1f74f6	-0.038929902
102	0xbad5c5c9	-0.0016309555
103	0x3bb5bfb5	0.005546535
104	0x00000004	6e-45
105	0x80000004	-6e-45
106	0x00000004	6e-45
107	0x00000004	6e-45
108	0x80000004	-6e-45
109	0x80000004	-6e-45
110	0x80000004	-6e-45
111	0x00000004	6e-45
112	0xbc85cc4d	-0.01633277
113	0xbca51a11	-0.020154031
114	0xba8f31e6	-0.0010924905
115	0x3bde7298	0.006788563
116	0xbc045678	-0.008077256
117	0xbb85f126	-0.004087585
118	0xba088c81	-0.0005208925
119	0xbb2089f6	-0.0024496294
120	0x3baf3d20	0.005347863
121	0x3c0e45bf	0.008683621
122	0x3a4bf92d	0.00077809655
123	0xbbb6acda	-0.0055748047
124	0x80000004	-6e-45
125	0x80000004	-6e-45
126	0x80000004	-6e-45
127	0x00000004	6e-45
128	0x3cbf9dfc	0.023390763
129	0x3d12fa58	0.035883278
130	0x3b337ac2	0.0027386402
131	0xbc9f242d	-0.01942643
132	0x00000000	0.0
133	0x00000000	0.0
134	0x00000000	0.0
135	0x00000000	0.0
136	0x9f021bfd	-2.7551722e-20
137	0x9f09bb44	-2.916578e-20
138	0x9cdaacdf	-1.4470716e-21
139	0x1e632fe4	1.20271835e-20
140	0x3cfc7c93	0.03082112
141	0x3d4791be	0.048722975
142	0x3b7de1f2	0.003873941
143	0xbcc3fb8f	-0.023923663
144	0xbc3d6b4d	-0.011561227
145	0xbca6aa3f	-0.020344852
146	0xbb126f39	-0.0022344126
147	0x3bf9c213	0.0076220124
148	0xbb92af88	-0.0044764914
149	0xbb498028	-0.0030746553
150	0xb8c68c36	-9.467492e-05
151	0x3b32468f	0.00272027
152	0x80000004	-6e-45
153	0x80000004	-6e-45
154	0x00000004	6e-45
155	0x00000004	6e-45
156	0x3d281d2b	0.04104344
157	0x3d8a749c	0.06760523
158	0x3bb8ba79	0.0056374636
159	0xbd06b153	-0.032883953
160	0xbf90f79c	-1.1325564
161	0xbf50afd8	-0.81518316
162	0xbd1fdda3	-0.03902973
163	0x3d54deb7	0.05197021
164	0x8ebc4d5e	-4.642008e-30
165	0x8e945c47	-3.6573677e-30
166	0x8e02e8ae	-1.6135768e-30
167	0x8f0dd707	-6.9932495e-30
168	0xbc56dcd6	-0.013114175
169	0xbc368485	-0.011139994
170	0xba1a5042	-0.0005886593
171	0x3bbdf591	0.005797096
172	0x80000004	-6e-45
173	0x00000004	6e-45
174	0x00000004	6e-45
175	0x80000004	-6e-45
176	0x00000000	0.0
177	0x00000000	0.0
178	0x00000000	0.0
179	0x00000000	0.0
180	0x3b64de8a	0.0034922683
181	0x3c58ebdc	0.013239827
182	0x3aaf46f0	0.0013372581
183	0xbb98e196	-0.004665564
184	0x3cdf2c8d	0.027242923
185	0x3baf012b	0.0053407154
186	0x3aadb39c	0.001325238
187	0x3c8511e9	0.016243892
188	0x80000004	-6e-45
189	0x80000004	-6e-45
190	0x00000004	6e-45
191	0x00000004	6e-45
192	0x00000004	6e-45
193	0x00000004	6e-45
194	0x00000004	6e-45
195	0x00000004	6e-45
196	0x3c7ae0ac	0.015312355
197	0x3cfe6e96	0.03105859
198	0x3b30cc24	0.0026977146
199	0xbc8caa0e	-0.017170932
200	0x3cbd0387	0.023072971
201	0x3cd28912	0.025700126
202	0x3ae23cf9	0.0017260603
203	0xbc2d6e84	-0.010585431
204	0xbcf780b5	-0.03021274
205	0xbd117b65	-0.03551807
206	0xbaebee4d	-0.0018000096
207	0x3cba44d9	0.022737907
208	0x94388ade	-9.317013e-27
209	0x94daad0f	-2.2080634e-26
210	0x13533a65	2.6660735e-27
211	0x14d2954e	2.1263471e-26
212	0x3cd537ac	0.026027523
213	0x3d4930f4	0.04911895
214	0x3b8b913f	0.004259258
215	0xbccad9fe	-0.02476215
216	0x00000000	0.0
217	0x00000000	0.0
218	0x00000000	0.0
219	0x00000000	0.0
220	0xbbfebd84	-0.007774057
221	0xbb80ab01	-0.0039266353
222	0xb970cc5e	-0.00022964316
223	0xbb1c0793	-0.0023808226
224	0x3bd87058	0.0066051893
225	0x3c4cc758	0.012498699
226	0x3a4ec1a9	0.0007887134
227	0xbb96f623	-0.0046069785
228	0x80000004	-6e-45
229	0x80000004	-6e-45
230	0x80000004	-6e-45
231	0x00000004	6e-45
232	0x00000004	6e-45
233	0x00000004	6e-45
234	0x00000004	6e-45
235	0x80000004	-6e-45
236	0x3cd5fbda	0.026121069
237	0x3d1dc265	0.038515467
238	0x3b3d839f	0.0028917564
239	0xbcada16f	-0.021195142
240	0x00000004	6e-45
241	0x00000004	6e-45
242	0x00000004	6e-45
243	0x80000004	-6e-45
244	0x00000004	6e-45
245	0x00000004	6e-45
246	0x80000004	-6e-45
247	0x80000004	-6e-45
248	0x3cd2563a	0.025675882
249	0x3cfcb144	0.030846246
250	0x3b02708a	0.0019903504
251	0xbc85a1fc	-0.016312592
252	0x80000004	-6e-45
253	0x80000004	-6e-45
254	0x00000004	6e-45
255	0x00000004	6e-45
