CartPole/Experiment_1/23-09-26_22-10-39-937242_DQN/checkpoints/agent_144500.pt (torch, 82603 bytes, 24 tensors)

net.0.weight f4 [64, 4]
-0.01943275 0.12137784 0.23699626 0.002064125 0.09612253 -0.18924126 0.4231849 -0.4063311
-0.02154169 0.022705749 2.546969 0.09264711 -0.1285678 -0.6611231 -0.8399763 -0.48194984
-0.08385639 -0.020568294 0.048539206 0.0027877358 0.29553437 -0.13152766 -1.7084725 -0.07368562
-0.072207704 0.09872921 -0.56315696 0.094486944 -0.10241546 0.06201165 0.10703877 0.051551856
-0.017890928 -0.045980383 0.1719108 -0.10785071 -0.1439654 0.05430353 -0.0062723076 0.16594717
-0.24693304 -0.09127741 -0.8513558 -0.0864483 0.04954108 -0.11624752 -2.292125 -0.44479024
-0.3236717 -0.17651115 0.11343612 -0.10596121 0.17320213 0.2680384 1.2203676 0.33140257
0.02682325 -0.008666424 -0.18595499 -0.021548524 -0.044829156 0.037925523 1.586382 0.071757816
0.20801294 0.46790874 -1.0307935 0.2378132 0.21705396 -0.058154296 -0.22693834 -0.016520271
0.028069032 -0.04294692 -0.06794961 -0.09258495 -0.14134726 -0.38542417 -1.2167889 -0.38923377
0.00798892 0.051774334 -0.5831955 0.022099908 0.43951127 0.07861968 0.5103539 0.05287793
-0.0014841796 -0.229037 -0.45967063 0.22891593 0.42015108 0.01033627 -0.6137509 -0.01707272
-0.08451312 0.16532399 2.0493627 0.06105347 0.06743692 -0.6347834 0.8654717 0.36457413
0.22498547 0.2919605 1.5009718 0.2507648 0.66363436 0.2700221 0.83252645 0.20742063
0.5230496 -0.056552283 1.5909002 0.00019457779 -0.17272334 -0.3086671 -1.037136 -0.31946358
-0.092028774 0.36085927 1.493247 0.22704819 -0.028540602 -0.020619098 0.029088806 -0.07080355
-0.016628955 0.08706822 -1.3929192 -0.16208902 -0.03519232 0.024999121 -0.05038932 0.018373393
-0.13115913 0.27439365 1.3465234 0.2965937 0.15314981 -0.010401155 -0.040740103 0.07680678
0.05306077 -0.096216954 -2.467118 -0.30534396 0.092817366 -0.48277232 0.95674706 -0.37411997
-0.0485909 0.06550647 -0.20835306 0.16058707 0.1360784 -0.07330431 0.022220662 0.056751445
-0.14176744 -0.047538225 -0.19337428 -0.0582252 0.57454306 0.081472486 -1.2351705 -0.028413976
-0.27059826 0.2519655 1.5919389 0.17359102 -0.20334293 0.21558733 0.33439487 0.09775674
0.041922227 -0.027451498 -0.081361 -0.011531797 -0.2265295 0.23166972 2.1349113 0.27813345
0.08900856 -0.16709304 -2.477385 -0.5322892 0.39923847 -0.047292594 -1.1153735 -0.20579219
-0.010744704 0.04419655 -0.0015444825 0.038893793 -0.12982282 0.09674036 -0.33309025 -0.00046879277
-0.50386864 -0.18286376 -1.3532243 -0.1502559 -0.7568002 -0.14309268 0.6245553 0.16648895
-0.11351774 0.2013417 1.2413688 0.18006802 -0.036977444 -0.022876682 0.41525355 0.05773838
0.037022855 0.015474828 -0.05165679 0.018036043 -0.20388843 0.15586315 0.77201104 0.054513495
0.2856991 -0.017042633 -1.7273366 -0.15875676 0.06911839 -0.08581423 -0.46286747 0.015414832
-0.029093403 0.082347564 -0.072306134 0.045801703 0.09085965 -0.07031338 -1.1620396 -0.27892524
0.11726465 -0.012468705 1.0229456 0.018535942 -0.024131887 0.01595536 -0.056990918 -0.02924141
0.18467322 -0.10688286 -2.1318023 -0.09365792 0.14592162 -0.15542117 0.39833668 -0.022458838
00000000: 6e31 9fbc f294 f83d 26af 723e 4546 073b
00000010: e4db c43d 76c8 41be b1ab d83e a10a d0be
00000020: 3378 b0bc 6801 ba3c 8a01 2340 c5bd bd3d
00000030: 47a7 03be 5d3f 29bf b008 57bf 21c2 f6be
00000040: e6bc abbd d77e a8bc 0cd1 463d 72b2 363b
00000050: 4850 973e 30af 06be 3aaf dabf 7de8 96bd
00000060: a2e1 93bd 8a32 ca3d 0e2b 10bf 5f82 c13d
00000070: 32bf d1bd eeff 7d3d 2537 db3d 0a28 533d
00000080: ff8f 92bc ed55 3cbd 6209 303e d5e0 dcbd
00000090: aa6b 13be 616d 5e3d ee87 cdbb 0eee 293e
000000a0: 04dc 7cbe a7ef babd 74f2 59bf ce0b b1bd
000000b0: 96eb 4a3d 2e13 eebd 2db2 12c0 8cbb e3be
000000c0: 4cb8 a5be 57bf 34be 3251 e83d 3102 d9bd
000000d0: e65b 313e 543c 893e 0135 9c3f 99ad a93e
000000e0: 6fbc db3c 9efd 0dbc fc6a 3ebe 8886 b0bc
000000f0: c79e 37bd cb57 1b3d 910e cb3f c3f5 923d
00000100: 5801 553e bc91 ef3e 0bf1 83bf 4e85 733e
00000110: 6543 5e3e 3333 6ebd 8662 68be 8555 87bc
00000120: 07f1 e53c 1ce9 2fbd 2a29 8bbd 2e9d bdbd
00000130: 56bd 10be 5156 c5be bdbf 9bbf a649 c7be
00000140: f6e3 023c 5311 543d 4d4c 15bf de0a b53c
00000150: 9f07 e13e 5b03 a13d 8ea6 023f 8796 583d
00000160: ce88 c2ba ad88 6abe f359 ebbe f068 6a3e
00000170: 0b1e d73e 7559 293c c71e 1dbf 17dc 8bbc
00000180: 3715 adbd b14a 293e c228 0340 3413 7a3d
00000190: 5e1c 8a3d 2a81 22bf 8e8f 5d3f 76a9 ba3e
000001a0: 9762 663e d97b 953e d81f c03f 3e64 803e
000001b0: f1e3 293f 5640 8a3e 7420 553f 1366 543e
000001c0: 94e6 053f 5ea3 67bd 9ea2 cb3f 9407 4c39
000001d0: 63de 30be 9d09 9ebe dfc0 84bf bb90 a3be
000001e0: 9579 bcbd 8cc2 b83e b822 bf3f 527f 683e
000001f0: fbcd e9bc 62e9 a8bc a64b ee3c 7401 91bd
00000200: 7239 88bc d350 b23d 2d4b b2bf aafa 25be
00000210: d225 10bd f5ca cc3c 0865 4ebd cc83 963c
00000220: 944e 06be 537d 8c3e e15a ac3f 21db 973e
00000230: 4ed3 1c3e 9b69 2abc 18df 26bd e04c 9d3d
00000240: 4056 593d 650d c5bd 43e5 1dc0 0b56 9cbe
00000250: 0817 be3d ef2d f7be 60ed 743f a78c bfbe
00000260: 4007 47bd 4228 863d 815a 55be f070 243e
00000270: 2358 0b3e 9220 96bd 1b08 b63c 3474 683d
00000280: 7c2b 11be 71b7 42bd e803 46be 8c7d 6ebd
00000290: 4115 133f 0cdb a63d 111a 9ebf 6dc4 e8bc
000002a0: db8b 8abe 9f01 813e a7c4 cb3f d8c1 313e
000002b0: 2139 50be edc2 5c3e ce35 ab3e b034 c83d
000002c0: a4b6 2b3d f7e1 e0bc 99a0 a6bd ddef 3cbc
000002d0: 59f7 67be d43a 6d3e 63a2 0840 8267 8e3e
000002e0: 1f4a b63d 701a 2bbe 7a8d 1ec0 1b44 08bf
000002f0: fc68 cc3e e1b5 41bd 8fc4 8ebf 30bb 52be
00000300: 8e0a 30bc 7107 353d 3c70 caba 194f 1f3d
00000310: 46f0 04be cf1f c63d ce8a aabe 4dc8 f5b9
00000320: 89fd 00bf a340 3bbe 7436 adbf afdc 19be
00000330: a8bd 41bf e386 12be dbe2 1f3f 147c 2a3e
00000340: fd7b e8bd 852c 4e3e 2ce5 9e3f c063 383e
00000350: a975 17bd e167 bbbc 1d9c d43e 147f 6c3d
00000360: 47a5 173d 228a 7d3c 1296 53bd 53c0 933c
00000370: 21c8 50be 979a 1f3e 84a2 453f 8b49 5f3d
00000380: 2747 923e fe9c 8bbc 5e19 ddbf 2291 22be
00000390: f18d 8d3d 5fbf afbd f7fc ecbe 7e8e 7c3c
000003a0: 4a55 eebc d7a5 a83d 3d15 94bd 919a 3b3d
000003b0: a014 ba3d 7600 90bd b7bd 94bf 4acf 8ebe
000003c0: 7328 f03d 8a49 4cbc e2ef 823f b0d8 973c
000003d0: 3cb0 c5bc d1b4 823c 4f6f 69bd ae8b efbc
000003e0: fa1a 3d3e 67e5 dabd 736f 08c0 b9cf bfbd
000003f0: 7a6c 153e ba26 1fbe c9f2 cb3e 99fb b7bc

net.0.bias f4 [64]
0.44053426 -0.23407716 -0.5024733 -0.24054195 -0.29673266 0.3054376 -0.15949199 0.5746624
0.31848615 -0.44561577 -0.39518282 -0.45970047 -0.53279847 -0.009156872 -0.14654225 0.034266822
-0.24396072 -0.509591 -0.1151757 -0.09777873 -0.45058304 -0.8214336 0.18837477 -0.8324088
0.39752495 -0.7340013 -0.49857005 -0.62164754 -0.24840587 -0.46011347 -0.15720063 -0.2623621
0.48836324 -0.16845371 -0.50650525 0.5014881 0.33004767 0.48044735 -0.2995464 0.68229187
-0.55760485 -0.3399644 0.4294529 -0.39549834 -0.15146525 0.43008828 -0.5672512 -0.7989577
-0.12357267 0.38238385 0.6659589 -0.3586695 -0.48034647 0.55530924 -0.28821346 -0.39656678
0.01962347 -0.43010047 -0.14020263 0.43978083 -0.5220763 -0.1879339 0.3543477 -0.37919888
00000000: b58d e13e ecb1 6fbe 17a2 00bf a150 76be
00000010: 58ed 97be 5162 9c3e de51 23be 131d 133f
00000020: 9e10 a33e c027 e4be 6755 cabe dc5d ebbe
00000030: 7b65 08bf b406 16bc 2c0f 16be 5e5b 0c3d
00000040: d7d0 79be 8e74 02bf 3de1 ebbd 3740 c8bd
00000050: d2b2 e6be 7949 52bf 51e5 403e be18 55bf
00000060: 6488 cb3e 82e7 3bbf 9344 ffbe 4b24 1fbf
00000070: 1c5e 7ebe fe93 ebbe 34f9 20be 5354 86be
00000080: bf0a fa3e 217f 2cbe 54aa 01bf 8661 003f
00000090: 02fc a83e 32fd f53e 255e 99be aeaa 2e3f
000000a0: 31bf 0ebf d00f aebe 40e1 db3e c27e cabe
000000b0: b519 1bbe 8834 dc3e 6037 11bf 7e88 4cbf
000000c0: ab13 fdbd d1c7 c33e 487c 2a3f 87a3 b7be
000000d0: f9ef f5be bf28 0e3f b790 93be cd0a cbbe
000000e0: 66c1 a03c 2136 dcbe 4791 0fbe f42a e13e
000000f0: cba6 05bf bf71 40be 106d b53e 5b26 c2be

net.2.weight f4 [64, 64]
-0.18774211 -0.17229062 0.4175053 0.12041561 0.025860975 -0.1586354 -0.49164233 -0.27799696
-0.104638375 0.041631352 -0.045645013 -0.256905 -0.28458762 -0.05892125 -0.16932398 -0.10374381
-0.068905205 -0.572667 -0.15083928 -0.22377665 0.0015980221 0.07134684 -0.6502472 -0.8274642
0.23111497 -0.47951734 0.6229145 0.2406443 -0.4594195 -0.0012380277 0.089299016 0.13166706
-0.6527404 0.07165936 -0.31353188 0.05354787 -0.11750436 -0.08049068 -0.22609107 -0.20427346
0.0771422 -0.25749597 0.013850371 -0.14283413 0.032602597 0.5082071 0.07274054 0.07265685
-0.054143187 -0.16465238 -0.10664909 -0.493366 -0.09880707 -0.13739906 0.108545355 0.123713195
-0.044930216 -0.4356222 -0.004822993 -0.5097989 1.5351144 -0.009862494 -0.22889304 0.4478578
0.09366082 0.11601875 -0.20061609 0.19812562 0.012940978 0.058353093 -0.003886217 -0.15345143
-0.14806084 -0.011613441 -0.08755711 -0.09203189 0.11492277 -0.08927897 0.044355012 -0.12404926
0.048947744 0.036682203 -0.048588973 -0.13937981 -0.06758729 -0.03584855 -0.0059217573 -0.14797428
-0.07413755 0.0523679 0.16322944 -0.16346876 -0.08944527 -0.08364359 -0.05889894 -0.051157713
-0.17763756 0.0232781 -0.058773264 -0.0371661 -0.21427932 0.16839968 0.24844272 -0.21916829
-0.009869558 -0.057510775 -0.0718202 0.022835836 0.09274187 -0.0025562812 -0.17238577 -0.18070182
0.19361883 -0.16435985 -0.13248888 -0.052633677 -0.034358826 -0.014575675 0.14186065 -0.07543046
-0.20120208 -0.06164392 0.19217385 0.10707294 0.14705963 -0.10375487 -0.20471767 0.095685154
-0.19114982 -0.69658846 -0.3528636 -0.9271115 -0.09196377 -0.59392536 0.06125778 -0.15997998
-0.16857265 0.72599685 2.532238 -0.43442154 1.3446218 -0.76564986 0.11287838 -0.3590749
-0.27295488 -0.04728055 0.015775105 -0.44514647 -0.4139307 -0.08929198 -0.27331296 0.65148807
-0.3795439 0.04013762 0.53535783 -0.16320513 0.010712436 0.11826578 -0.6897622 0.059315152
-0.29680598 0.14905906 0.13252677 -0.47555414 0.63269585 -0.20098346 0.32524985 -0.15405366
1.2815872 0.9335711 -0.077453285 -0.06467134 0.07529325 -0.32120308 0.29311278 -0.2238455
-0.10339166 0.045863174 -0.79492766 0.855639 0.16352463 -0.137303 -0.034593474 -0.48476937
-1.0617425 -0.2861718 -0.071572475 -0.88533145 0.6874082 -0.060106516 -0.8427449 0.33890635
-0.026352093 0.060110178 -0.05137488 0.053709447 -0.09235129 -0.03643665 0.0295707 -0.10574179
-0.08976323 -0.063362956 -0.014516237 -0.0122992275 0.10494279 -0.09030105 -0.110042036 0.009613962
0.02576116 -0.09252936 0.11938044 -0.17810327 -0.0348841 -0.053519167 0.024502046 -0.084581904
-0.2072215 0.042651437 -0.044341054 0.06742796 0.15460575 0.017775748 0.029815016 -0.12432118
-0.03056374 0.25245893 0.008007982 -0.21012884 -0.051550504 -0.11973347 -0.04103769 -0.17597046
-0.02778625 0.052191466 -0.009953035 -0.07509329 0.0034892638 -0.044998974 -0.05800569 0.07051115
0.22355683 -0.04667857 -0.09311021 -0.1372804 -0.06060417 0.036329653 -0.028925616 -0.0037011318
-0.0026265222 -0.06386637 -0.05734097 -0.15027995 -0.043272898 0.0032300928 0.10984304 0.08271979
00000000: 783f 40be f46c 30be 41c3 d53e 769c f63d
00000010: 65da d33c 5171 22be 8bb8 fbbe 9e55 8ebe
00000020: a54c d6bd a385 2a3d 44f6 3abd 0d89 83be
00000030: 78b5 91be 6957 71bd 4463 2dbe a277 d4bd
00000040: 2c1e 8dbd 4e9a 12bf 9d75 1abe b525 65be
00000050: b974 d13a 4b1e 923d 9a76 26bf b2d4 53bf
00000060: 67a9 6c3e 4c83 f5be 5377 1f3f 766b 763e
00000070: 0839 ebbe 5145 a2ba 67e2 b63d bbd3 063e
00000080: ff19 27bf 24c2 923d 4087 a0be 0355 5b3d
00000090: 20a6 f0bd 4cd8 a4bd 6b84 67be 102d 51be
000000a0: bbfc 9d3d 83d6 83be abec 623c 1c43 12be
000000b0: 4d8a 053d dc19 023f fef8 943d 1dcd 943d
000000c0: 3fc5 5dbd a29a 28be d76a dabd 789a fcbe
000000d0: 5c5b cabd 57b2 0cbe 074d de3d 585d fd3d
000000e0: bf08 38bd df09 dfbe 330a 9ebb 2e82 02bf
000000f0: a17e c43f 4c96 21bc f062 6abe 9e4d e53e
00000100: 3ed1 bf3d 3d9b ed3d 4e6e 4dbe 71e1 4a3e
00000110: 6506 543c a703 6f3d e7af 7ebb 5f22 1dbe
00000120: 439d 17be 4d46 3ebc 2451 b3bd 377b bcbd
00000130: a15c eb3d e5d7 b6bd 9aad 353d 8a0d febd
00000140: 6e7d 483d 1440 163d 3b05 47bd 95b9 0ebe
00000150: 356b 8abd eed5 12bd 4d0b c2bb 9286 17be
00000160: 6ed5 97bd b97f 563d 9e25 273e 5b64 27be
00000170: 152f b7bd 554d abbd 0440 71bd c08a 51bd
00000180: 9fe6 35be b7b1 be3c 3cbc 70bd 7b3b 18bd
00000190: 0a6c 5bbe f770 2c3e c567 7e3e a76d 60be
000001a0: edb3 21bc 6b90 6bbd 7816 93bd 3812 bb3c
000001b0: 73ef bd3d 4887 27bb e585 30be e609 39be
000001c0: 0444 463e f34d 28be 2aab 07be 6996 57bd
000001d0: d7bb 0cbd d0ce 6ebc eb43 113e 497b 9abd
000001e0: eb07 4ebe 567e 7cbd 39c9 443e 0f49 db3d
000001f0: cd96 163e 6f7d d4bd 82a1 51be 94f6 c33d
00000200: c7bc 43be 9f53 32bf 8aaa b4be 2e57 6dbf
00000210: 8057 bcbd 7e0b 18bf 70e9 7a3d cbd1 23be
00000220: 4f9e 2cbe eeda 393f 3010 2240 806c debe
00000230: 911c ac3f a101 44bf c82c e73d aad8 b7be
00000240: bec0 8bbe 40a9 41bd cb3a 813c 3dea e3be
00000250: baee d3be b7de b6bd adef 8bbe ecc7 263f
00000260: 9453 c2be 5867 243d 360d 093f 3f1f 27be
00000270: 3783 2f3c 5435 f23d 4194 30bf 72f4 723d
00000280: f4f6 97be f0a2 183e 19b5 073e d57b f3be
00000290: 5bf8 213f 9cce 4dbe 2687 a63e 3ec0 1dbe
000002a0: 0d0b a43f 84fe 6e3f d49f 9ebd 6872 84bd
000002b0: 5933 9a3d bb74 a4be e112 963e c137 65be
000002c0: 02bf d3bd 06db 3b3d 6180 4bbf 280b 5b3f
000002d0: 0073 273e 2899 0cbe e3b1 0dbd b133 f8be
000002e0: 2ee7 87bf 1c85 92be 9794 92bd 15a5 62bf
000002f0: fcf9 2f3f 4032 76bd 21be 57bf 2285 ad3e
00000300: 58e0 d7bc 1736 763d 776e 52bd 70fe 5b3d
00000310: ac22 bdbd 993e 15bd 413e f23c 278f d8bd
00000320: c9d5 b7bd 70c4 81bd 83d5 6dbc b382 49bc
00000330: 3fec d63d c2ef b8bd b85d e1bd e183 1d3c
00000340: 1109 d33c 0880 bdbd bb7d f43d b460 36be
00000350: a1e2 0ebd ea36 5bbd 84b8 c83c 4739 adbd
00000360: df31 54be 46b3 2e3d f79e 35bd ac17 8a3d
00000370: f850 1e3e 729e 913c 9f3e f43c 1a9c febd
00000380: cf60 fabc 4c42 813e e933 033c 042c 57be
00000390: 9f26 53bd d236 f5bd 2317 28bd 9a31 34be
000003a0: fd9f e3bc b8c6 553d 0e12 23bc 83ca 99bd
000003b0: 22ac 643b d850 38bd 6097 6dbd 2668 903d
000003c0: 15ec 643e 0732 3fbd 91b0 bebd 3c93 0cbe
000003d0: 143c 78bd 67ce 143d 6af5 ecbc b08e 72bb
000003e0: bb21 2cbb 5fcc 82bd 5dde 6abd fde2 19be
000003f0: ec3e 31bd f7af 533b 63f5 e03d fe68 a93d

net.2.bias f4 [64]
-0.13802075 0.06387478 -0.24542946 -0.10025094 0.621797 0.64446527 -0.25205234 0.62120897
-0.13666475 0.78441113 0.19780757 0.5629854 0.6151488 0.6105924 -0.40894696 0.0759189
-0.15495951 0.5609538 -0.0032668354 0.6850409 0.009722281 -0.05459223 0.58742386 0.6052971
0.77913225 0.04312714 0.4024031 0.15786001 -0.04415113 0.5425197 -0.046330366 0.59497756
-0.18853211 0.5393341 -0.08122706 -0.0559136 0.5884272 -0.07622966 0.6032314 0.7362186
-0.30050722 0.5038149 -0.07201812 -0.24931334 0.8260336 0.7147304 -0.14837283 0.7074591
-0.06565319 0.22950448 0.7471285 0.6693629 -0.15187807 0.048302747 -0.10873567 0.5465524
0.17295903 0.8438065 -0.13788843 0.0152077675 0.6482518 -0.19597247 0.8020952 0.56256366
00000000: 5055 0dbe c8d0 823d dc51 7bbe 5d50 cdbd
00000010: 172e 1f3f adfb 243f 010d 81be 8d07 1f3f
00000020: d8f1 0bbe 2bcf 483f 118e 4a3e d01f 103f
00000030: 647a 1d3f c94f 1c3f 7f61 d1be 5e7b 9b3d
00000040: b5ad 1ebe ab9a 0f3f 6718 56bb d75e 2f3f
00000050: 344a 1f3c 1a9c 5fbd 6961 163f c0f4 1a3f
00000060: 3675 473f 15a6 303d c707 ce3e 0ea6 213e
00000070: d1d7 34bd 92e2 0a3f e9c4 3dbd 7350 183f
00000080: 900e 41be cd11 0a3f 5f5a a6bd a905 65bd
00000090: 2aa3 163f 4c1e 9cbd 5f6d 1a3f d278 3c3f
000000a0: 15dc 99be 03fa 003f 3c7e 93bd ff4b 7fbe
000000b0: f076 533f 92f8 363f 0cef 17be 0a1c 353f
000000c0: 2e75 86bd 3903 6b3e d043 3f3f 5e5b 2b3f
000000d0: ed85 1bbe 1ad9 453d cfb0 debd dcea 0b3f
000000e0: 2c1c 313e b403 583f a032 0dbe 002a 793c
000000f0: d4f3 253f 02ad 48be 1c56 4d3f 2c04 103f

net.4.weight f4 [2, 64]
-0.59509045 -0.10493792 -2.35854 0.16123834 1.4341835 1.2889287 -3.1693966 1.0633836
0.24948765 1.7445693 -4.3967094 1.1334339 0.84916705 1.271068 -2.9973686 0.017211234
0.048309613 1.2484848 0.07433747 1.4206043 -0.039378945 -0.121716924 1.1683247 1.3797959
1.7250214 -0.022441203 1.8051498 -0.08791899 0.074865706 1.2992468 -6.4904327 1.3697386
-3.906776 0.95426744 -1.7160269 -2.7458327 1.2262553 0.21101311 1.8597201 1.2037917
-0.28086624 0.72533154 0.32333392 -0.29286522 0.09126032 1.1211852 0.01099979 1.1793318
-0.01310399 0.7159441 1.0141708 1.5076901 -0.06692429 -4.6044354 -0.025236353 1.340019
-0.3556361 1.3652208 -0.0048479703 -0.7590881 0.7125846 0.03573293 0.8329559 1.1910787
0.8070111 0.021001467 -1.5844777 -0.1367548 1.2684107 1.7197325 -4.464049 1.0395857
-0.25028026 1.2055311 -2.9172506 1.3131299 1.34271 0.9601822 -3.6288612 -0.13689707
0.16420554 1.09061 -0.081221916 1.5426909 0.020490913 -0.14284658 1.4102638 1.7262857
0.6891605 -0.1459074 0.54605925 0.0077993246 -0.0044440418 1.4556108 -3.276842 1.5135131
-6.9170494 1.1920012 -3.6031404 -1.4846771 1.475616 0.060121667 0.5950138 0.95053357
-2.8374476 1.2555583 -0.2067038 0.24677572 1.4728231 0.75712776 0.025382569 1.0938903
-0.008171068 -0.4520528 1.7984236 1.7456378 -0.120496064 -4.6377697 0.07886565 1.1046437
0.61414945 0.63048035 0.049574915 0.1662969 1.6025903 0.09946249 1.428159 1.3320601
00000000: d957 18bf b1e9 d6bd 52f2 16c0 aa1b 253e
00000010: 5393 b73f 9efb a43f 65d7 4ac0 f41c 883f
00000020: b179 7f3e 0c4e df3f d8b1 8cc0 5d14 913f
00000030: 0363 593f 5bb2 a23f e3d4 3fc0 93fe 8c3c
00000040: 4de0 453d 5ace 9f3f 3e3e 983d 5dd6 b53f
00000050: d14b 21bd b946 f9bd aa8b 953f 279d b03f
00000060: 80cd dc3f 9dd6 b7bc 260f e73f df0e b4bd
00000070: 3153 993d b84d a63f a0b1 cfc0 9853 af3f
00000080: 9e08 7ac0 df4a 743f c5a6 dbbf b9bb 2fc0
00000090: eff5 9c3f d213 583e 4f0b ee3f d915 9a3f
000000a0: b3cd 8fbe 54af 393f 068c a53e 6ef2 95be
000000b0: b1e6 ba3d ff82 8f3f 7738 343c 58f4 963f
000000c0: 1eb2 56bc 1d48 373f 59d0 813f fdfb c03f
000000d0: 9a0f 89bd 8957 93c0 78bc cebc be85 ab3f
000000e0: ef15 b6be 8ebf ae3f b9db 9ebb 9953 42bf
000000f0: f26b 363f b15c 123d 993c 553f 4475 983f
00000100: 4898 4e3f 450b ac3c 2ad0 cabf 7309 0cbe
00000110: 485b a23f 3220 dc3f 7dd9 8ec0 2511 853f
00000120: bc24 80be d84e 9a3f 3cb4 3ac0 a414 a83f
00000130: ecdd ab3f 80ce 753f 433f 68c0 bf2e 0cbe
00000140: 7f25 283e 1c99 8b3f ad57 a6bd e576 c53f
00000150: 8fdc a73c 6046 12be 8683 b43f eef6 dc3f
00000160: d36c 303f c068 15be 8aca 0b3f 7a91 ff3b
00000170: 539f 91bb 7451 ba3f c8b7 51c0 ccba c13f
00000180: 7858 ddc0 7f93 983f da99 66c0 e609 bebf
00000190: fce0 bc3f 2342 763d d352 183f 2b56 733f
000001a0: be98 35c0 22b6 a03f 29aa 53be c6b2 7c3e
000001b0: 7885 bc3f 20d3 413f 1bef cf3c 9904 8c3f
000001c0: f1df 05bc 7773 e7be bf32 e63f 0f71 df3f
000001d0: a4c6 f6bd 9c68 94c0 5084 a13d f764 8d3f
000001e0: e638 1d3f 2967 213f 110f 4b3d bc49 2a3e
000001f0: ae21 cd3f fdb2 cb3d eacd b63f f280 aa3f

net.4.bias f4 [2]
0.781338 0.3833646
00000000: c405 483f 5d48 c43e

net.0.weight f4 [64, 4]
-0.018192958 0.12313905 0.23606887 0.0015515415 0.098701194 -0.17344125 0.48408568 -0.41761014
-0.021549849 0.022740418 2.546819 0.09289815 -0.12946878 -0.6642662 -0.82584995 -0.4770242
-0.083857104 -0.02056865 0.04853872 0.0027877537 0.29964012 -0.13498215 -1.6870811 -0.077851884
-0.07220738 0.09872997 -0.56315124 0.09448761 -0.10299419 0.062204946 0.10008968 0.05384134
-0.016003814 -0.042597096 0.17150167 -0.10621865 -0.1439677 0.054303236 -0.0062722308 0.16594695
-0.24693185 -0.09127789 -0.85135186 -0.08644694 0.06365917 -0.12388553 -2.2931252 -0.44167155
-0.32366845 -0.1765089 0.11343743 -0.10596003 0.18010154 0.27261105 1.2175047 0.37671876
0.026823418 -0.008666431 -0.18595326 -0.021548405 -0.04258383 0.062263805 1.5304645 -0.016880635
0.20561284 0.48877925 -1.0010339 0.24294223 0.21705498 -0.0581537 -0.22693746 -0.016520374
0.02973955 -0.042886894 -0.07027754 -0.087649435 -0.1522479 -0.38745824 -1.1976365 -0.38088495
0.007988986 0.051774506 -0.5832022 0.022099748 0.43686128 0.06848613 0.48590937 0.0513904
0.0059685023 -0.20157051 -0.5023076 0.23896676 0.41865176 -0.003728663 -0.5986307 -0.02785712
-0.08271344 0.17500028 2.0531085 0.050924815 0.06465593 -0.6461202 0.9540301 0.41370723
0.22263257 0.29736263 1.4593401 0.2436312 0.6626535 0.26022983 0.79022276 0.19837558
0.5156381 -0.051581565 1.5483125 0.0004029013 -0.172724 -0.30866593 -1.0371338 -0.31946036
-0.07574528 0.38476852 1.5000869 0.20478669 -0.028540779 -0.020619314 0.029088771 -0.0708022
-0.01572842 0.08861272 -1.3912439 -0.16235016 -0.035191737 0.024999514 -0.050388698 0.018373707
-0.13115709 0.27439916 1.346506 0.29659003 0.15446226 -0.010604549 -0.042846862 0.07963458
0.054836925 -0.08882665 -2.5243587 -0.32776693 0.09454478 -0.48377305 0.9647898 -0.4089681
-0.048591614 0.06550632 -0.20835271 0.16058847 0.13663512 -0.0739654 0.017829549 0.061959695
-0.14176829 -0.047538847 -0.19337702 -0.058225967 0.57723236 0.06726903 -1.288218 -0.021553153
-0.27322158 0.2540969 1.5951477 0.19217739 -0.20334591 0.2155887 0.33439726 0.09775544
0.04192185 -0.027451877 -0.08136116 -0.011531926 -0.234254 0.22556202 2.1224792 0.2680516
0.09919761 -0.17405595 -2.4814322 -0.53145534 0.39193487 -0.09046847 -1.109519 -0.374785
-0.010744772 0.044196516 -0.0015444951 0.038893186 -0.13126516 0.09949103 -0.34186414 -0.001954153
-0.49000683 -0.17765716 -1.3864038 -0.16916022 -0.7600935 -0.13557611 0.5851575 0.14899975
-0.11351641 0.20134318 1.2413633 0.1800673 -0.036789466 -0.023327487 0.41077825 0.061270367
0.037022855 0.015474828 -0.05165679 0.018036043 -0.20388833 0.15586479 0.77201796 0.054513343
0.28820652 -0.0037956743 -1.6524205 -0.21321161 0.06911836 -0.08581512 -0.4628633 0.015414986
-0.029093241 0.08234911 -0.072305724 0.045802113 0.09199232 -0.06965325 -1.1576189 -0.27504292
0.117265545 -0.012468652 1.0229478 0.01853613 -0.024131896 0.01595562 -0.056990664 -0.029241506
0.18672016 -0.10770229 -2.1280582 -0.08931694 0.14592274 -0.15542075 0.39834118 -0.022458494
00000000: 6609 95bc 5430 fc3d 0abc 713e 185d cb3a
00000010: da23 ca3d 959a 31be 14da f73e ffd0 d5be
00000020: 4f89 b0bc 1d4a ba3c 15ff 2240 6341 be3d
00000030: 7793 04be 5a0d 2abf e76a 53bf 843c f4be
00000040: 46bd abbd 967f a8bc 89d0 463d bfb2 363b
00000050: 6e6a 993e c338 0abe 46f2 d7bf cf70 9fbd
00000060: 76e1 93bd f032 ca3d ae2a 10bf b882 c13d
00000070: 9eee d2bd 9dca 7e3d d1fb cc3d bd88 5c3d
00000080: 6e1a 83bc 4b7a 2ebd 229e 2f3e 2a89 d9bd
00000090: 456c 13be 126d 5e3d 4987 cdbb ffed 293e
000000a0: b4db 7cbe e7ef babd 32f2 59bf 180b b1bd
000000b0: bd5f 823d b2b7 fdbd 90c2 12c0 c622 e2be
000000c0: dfb7 a5be c0be 34be e251 e83d 9201 d9bd
000000d0: 8a6c 383e ad93 8b3e 32d7 9b3f 48e1 c03e
000000e0: c9bc db3c a5fd 0dbc 886a 3ebe 4886 b0bc
000000f0: 626c 2ebd 5508 7f3d 43e6 c33f 4249 8abc
00000100: 2c8c 523e 4641 fa3e e121 80bf d9c5 783e
00000110: a943 5e3e 9332 6ebd 4b62 68be bc55 87bc
00000120: 5ba0 f33c 2baa 2fbd aced 8fbd 8c81 b3bd
00000130: e0e6 1bbe ed60 c6be 274c 99bf 5a03 c3be
00000140: 3ce4 023c 8111 543d bd4c 15bf 880a b53c
00000150: 48ac df3e 7542 8c3d 1dc9 f83e bd7e 523d
00000160: 6d93 c33b 8068 4ebe 3b97 00bf b4b3 743e
00000170: 8659 d63e 965c 74bb dd3f 19bf 9d34 e4bc
00000180: aa65 a9bd 4633 333e 2166 0340 8a96 503d
00000190: 546a 843d 2268 25bf 513b 743f 6fd1 d33e
000001a0: cbf9 633e ea3f 983e a8cb ba3f 757a 793e
000001b0: a9a3 293f d83c 853e 0a4c 4a3f f822 4b3e
000001c0: dc00 043f 3147 53bd 1b2f c63f 7f3c d339
000001d0: 8fde 30be 7609 9ebe cdc0 84bf 4f90 a3be
000001e0: 5720 9bbd 6100 c53e d902 c03f 9ab3 513e
000001f0: 5ace e9bc d6e9 a8bc 934b ee3c be00 91bd
00000200: e3d8 80bc 967a b53d 4814 b2bf 1f3f 26be
00000210: 3625 10bd c8cb cc3c 6164 4ebd 7584 963c
00000220: 0b4e 06be 0c7e 8c3e 4f5a ac3f a6da 973e
00000230: 5b2b 1e3e b4be 2dbc 3180 2fbd 7417 a33d
00000240: af9c 603d bfea b5bd 188f 21c0 11d1 a7be
00000250: b2a0 c13d 1ab1 f7be 77fc 763f 4464 d1be
00000260: 0008 47bd 2d28 863d 6a5a 55be 4e71 243e
00000270: 14ea 0b3e 2c7b 97bd 460f 923c 73c9 7d3d
00000280: b52b 11be 18b8 42bd a004 46be 5a7e 6ebd
00000290: 80c5 133f 58c4 893d 54e4 a4bf 3d90 b0bc
000002a0: b3e3 8bbe fd18 823e cd2d cc3f 26ca 443e
000002b0: e939 50be 49c3 5c3e 1e36 ab3e 0134 c83d
000002c0: 3fb6 2b3d c2e2 e0bc aea0 a6bd 67f0 3cbc
000002d0: 48e0 6fbe bbf9 663e b3d6 0740 0f3e 893e
000002e0: 1e28 cb3d b93b 32be c9cf 1ec0 750d 08bf
000002f0: b0ab c83e 8847 b9bd b804 8ebf d2e3 bfbe
00000300: d70a 30bc 6807 353d a870 caba 764e 1f3d
00000310: 606a 06be f4c1 cb3d d108 afbe 3f11 00bb
00000320: 2de2 fabe c2eb 35be ae75 b1bf 5638 2dbe
00000330: 7d95 42bf 77d4 0abe e2cc 153f 6493 183e
00000340: 4b7b e8bd e82c 4e3e fee4 9e3f 9063 383e
00000350: 8db0 16bd 4919 bfbc 8751 d23e a3f6 7a3d
00000360: 47a5 173d 228a 7d3c 1296 53bd 53c0 933c
00000370: 1ac8 50be 059b 1f3e f8a2 453f 6249 5f3d
00000380: ce8f 933e d9c0 78bb 8482 d3bf 2554 5abe
00000390: ed8d 8d3d d6bf afbd 6bfc ecbe 238f 7c3c
000003a0: f354 eebc a6a6 a83d 0615 94bd ff9a 3b3d
000003b0: 7866 bc3d 5da6 8ebd db2c 94bf 6dd2 8cbe
000003c0: eb28 f03d 5149 4cbc f4ef 823f 15d9 973c
000003d0: 41b0 c5bc 5cb5 823c 0b6f 69bd e28b efbc
000003e0: 9233 3f3e 0593 dcbd 1b32 08c0 cdeb b6bd
000003f0: c56c 153e 9e26 1fbe 60f3 cb3e e0fa b7bc

net.0.bias f4 [64]
0.43936118 -0.19903192 -0.5024829 -0.2379372 -0.29672712 0.30395797 -0.15949176 0.5720901
0.31761897 -0.4456137 -0.39518216 -0.4629874 -0.5327886 -0.019390723 -0.14653966 0.0012628031
-0.23980352 -0.50959045 -0.11307616 -0.103229046 -0.45057878 -0.81871045 0.19248451 -0.82512707
0.3971266 -0.689302 -0.49822593 -0.6230977 -0.2443998 -0.46010956 -0.15759917 -0.26235905
0.4854123 -0.16845332 -0.5065029 0.5009483 0.33190235 0.47027534 -0.29954642 0.6808617
-0.557596 -0.33838198 0.42493853 -0.39549807 -0.151463 0.42626846 -0.56760347 -0.7781647
-0.12357172 0.37817147 0.65207577 -0.3541354 -0.48034537 0.5537603 -0.28821346 -0.396565
0.016622353 -0.4300986 -0.14020069 0.43718028 -0.52207166 -0.18793215 0.35216346 -0.3791962
00000000: f3f3 e03e 06cf 4bbe b8a2 00bf cfa5 73be
00000010: 9eec 97be 61a0 9b3e cf51 23be 7f74 123f
00000020: f49e a23e 7b27 e4be 5155 cabe af0c edbe
00000030: d564 08bf 4bd9 9ebc 7e0e 16be a484 a53a
00000040: 0e8f 75be 8574 02bf 7994 e7bd c069 d3bd
00000050: 43b2 e6be 0297 51bf a91a 453e 873b 53bf
00000060: 2d54 cb3e 1976 30bf 7817 ffbe 5583 1fbf
00000070: f143 7abe 7b93 ebbe ad61 21be ed53 86be
00000080: f687 f83e 077f 2cbe 2daa 01bf 263e 003f
00000090: 1bef a93e eec7 f03e 265e 99be f44c 2e3f
000000a0: 9dbe 0ebf 6740 adbe 8b91 d93e b97e cabe
000000b0: 1e19 1bbe dc3f da3e 764e 11bf cd35 47bf
000000c0: 2c13 fdbd b19f c13e 70ee 263f 3c51 b5be
000000d0: d4ef f5be 3cc3 0d3f b790 93be 910a cbbe
000000e0: 9a2b 883c e235 dcbe c590 0fbe 18d6 df3e
000000f0: 7da6 05bf 4971 40be c54e b43e 0126 c2be

net.2.weight f4 [64, 64]
-0.18774141 -0.1722889 0.41750413 0.12041714 0.025860975 -0.15863346 -0.49164045 -0.27799335
-0.10463829 0.041631278 -0.04564565 -0.25690523 -0.28458565 -0.058921855 -0.16932355 -0.10374273
-0.06890379 -0.57266414 -0.15083928 -0.2237784 0.0015980463 0.07134757 -0.6502456 -0.8274623
0.23111573 -0.47951686 0.6229227 0.24064653 -0.45941815 -0.0012380277 0.089300506 0.13166706
-0.6527371 0.07165936 -0.3135297 0.05354849 -0.11750397 -0.08048945 -0.22609107 -0.20427278
0.07714115 -0.2574953 0.013850549 -0.14283521 0.032602597 0.5082195 0.07274083 0.072657384
-0.054143187 -0.16465054 -0.10664846 -0.49336302 -0.09880597 -0.13739629 0.10854538 0.12371477
-0.044929653 -0.43561798 -0.004822993 -0.5097931 1.535119 -0.009862494 -0.22889249 0.44786078
0.093662076 0.1160198 -0.20061602 0.19812751 0.012940978 0.05835263 -0.0038862033 -0.15345082
-0.14805958 -0.011613324 -0.08755708 -0.092031896 0.11492159 -0.08927816 0.044355012 -0.12404856
0.048948497 0.036682595 -0.048588973 -0.13937815 -0.06758652 -0.035848875 -0.0059217736 -0.14797315
-0.07413708 0.052368317 0.16322897 -0.16346739 -0.08944654 -0.08364359 -0.058898762 -0.051157713
-0.17763543 0.0232781 -0.058772847 -0.037165396 -0.21427742 0.16840264 0.24844283 -0.21916799
-0.0098697 -0.057510715 -0.071819946 0.022835493 0.09274187 -0.0025562735 -0.17238426 -0.18069911
0.19361883 -0.16435848 -0.13248785 -0.052634303 -0.0343595 -0.014575678 0.1418607 -0.0754305
-0.20120014 -0.061644297 0.19217598 0.107073136 0.14705822 -0.10375487 -0.20471683 0.09568418
-0.19114782 -0.6965823 -0.35286283 -0.9271213 -0.09196335 -0.59391916 0.061258357 -0.15997754
-0.16857253 0.7260031 2.5322225 -0.43442586 1.3446462 -0.7656522 0.112878636 -0.35907364
-0.2729508 -0.047281057 0.015775105 -0.44514284 -0.41392785 -0.08929157 -0.27330843 0.6514854
-0.3795419 0.040138178 0.5353516 -0.16320513 0.010712547 0.1182669 -0.6897516 0.059315246
-0.2968046 0.14905906 0.13252956 -0.47555315 0.63269794 -0.20098259 0.32524797 -0.15405282
1.2816083 0.9335824 -0.077452585 -0.06467036 0.07529325 -0.32120082 0.29310912 -0.22384694
-0.10339166 0.045863952 -0.7949181 0.85564333 0.16352698 -0.13730092 -0.034593474 -0.48477396
-1.0617386 -0.28617707 -0.0715711 -0.88532656 0.68740314 -0.060106516 -0.84274495 0.3389034
-0.026351798 0.060110968 -0.051374413 0.053709447 -0.09235129 -0.036435984 0.029570824 -0.10574098
-0.08976245 -0.063362956 -0.014516237 -0.012299151 0.10494376 -0.09030105 -0.110042036 0.009614144
0.025761338 -0.092528105 0.11938044 -0.17810333 -0.034884024 -0.053519167 0.024502188 -0.084581904
-0.20722023 0.042652003 -0.044341058 0.06742796 0.15460713 0.017775748 0.029815016 -0.12432125
-0.030563615 0.25245893 0.008008171 -0.21012893 -0.051550504 -0.119733185 -0.04103769 -0.17596948
-0.02778625 0.052191466 -0.0099529615 -0.07509329 0.0034892638 -0.044998944 -0.05800569 0.07051162
0.22355683 -0.046678305 -0.09310925 -0.13728006 -0.0606042 0.036330182 -0.028925616 -0.0037011318
-0.0026264952 -0.06386718 -0.05734097 -0.15027985 -0.043272898 0.0032300928 0.10984327 0.08271979
00000000: 493f 40be 806c 30be 1ac3 d53e 439d f63d
00000010: 65da d33c cf70 22be 4cb8 fbbe 2555 8ebe
00000020: 9a4c d6bd 8f85 2a3d eff6 3abd 1589 83be
00000030: 36b5 91be 0b58 71bd 2763 2dbe 1277 d4bd
00000040: 6e1d 8dbd 1e9a 12bf 9d75 1abe 2a26 65be
00000050: 8975 d13a ad1e 923d 7f76 26bf 92d4 53bf
00000060: 9aa9 6c3e 3c83 f5be dd77 1f3f 0b6c 763e
00000070: db38 ebbe 5145 a2ba 2fe3 b63d bbd3 063e
00000080: c719 27bf 24c2 923d f786 a0be a955 5b3d
00000090: eca5 f0bd a7d7 a4bd 6b84 67be e22c 51be
000000a0: 2efc 9d3d 6dd6 83be 6aed 623c 6543 12be
000000b0: 4d8a 053d ac1a 023f 25f9 943d 65cd 943d
000000c0: 3fc5 5dbd 279a 28be 826a dabd 149a fcbe
000000d0: c95a cabd 9db1 0cbe 0a4d de3d 2b5e fd3d
000000e0: 2808 38bd 5209 dfbe 330a 9ebb cd81 02bf
000000f0: c87e c43f 4c96 21bc cb62 6abe 024e e53e
00000100: e7d1 bf3d ca9b ed3d 496e 4dbe f0e1 4a3e
00000110: 6506 543c 2b03 6f3d acaf 7ebb 3622 1dbe
00000120: ee9c 17be d045 3ebc 2051 b3bd 387b bcbd
00000130: 035c eb3d 78d7 b6bd 9aad 353d 2c0d febd
00000140: 387e 483d 7d40 163d 3b05 47bd 25b9 0ebe
00000150: cd6a 8abd 45d6 12bd 700b c2bb 4686 17be
00000160: 2ed5 97bd 2980 563d 7f25 273e ff63 27be
00000170: bf2f b7bd 554d abbd d43f 71bd c08a 51bd
00000180: 10e6 35be b7b1 be3c ccbb 70bd be3a 18bd
00000190: 8a6b 5bbe be71 2c3e cc67 7e3e 936d 60be
000001a0: 86b4 21bc 5b90 6bbd 5616 93bd 8011 bb3c
000001b0: 73ef bd3d 2787 27bb 8085 30be 3009 39be
000001c0: 0444 463e 974d 28be e5aa 07be 1197 57bd
000001d0: 8cbc 0cbd d3ce 6ebc ee43 113e 4e7b 9abd
000001e0: 6907 4ebe bb7e 7cbd c8c9 443e 2949 db3d
000001f0: 6e96 163e 6f7d d4bd 4aa1 51be 11f6 c33d
00000200: 41bc 43be 3853 32bf 70aa b4be d257 6dbf
00000210: 4857 bcbd 160b 18bf 0bea 7a3d 27d1 23be
00000220: 479e 2cbe 57db 393f ef0f 2240 116d debe
00000230: 5e1d ac3f c801 44bf ea2c e73d 80d8 b7be
00000240: 35c0 8bbe c8a9 41bd cb3a 813c c3e9 e3be
00000250: 5aee d3be 80de b6bd 15ef 8bbe bfc7 263f
00000260: 5153 c2be ee67 243d cd0c 093f 3f1f 27be
00000270: ae83 2f3c eb35 f23d 9093 30bf 8bf4 723d
00000280: c6f6 97be f0a2 183e d4b5 073e b47b f3be
00000290: 7ef8 213f 61ce 4dbe e786 a63e 06c0 1dbe
000002a0: be0b a43f 42ff 6e3f 769f 9ebd e571 84bd
000002b0: 5933 9a3d 6f74 a4be 6612 963e 2238 65be
000002c0: 02bf d3bd d7db 3b3d c17f 4bbf 710b 5b3f
000002d0: 9e73 273e 9d98 0cbe e3b1 0dbd 4b34 f8be
000002e0: 0de7 87bf cd85 92be de93 92bd c3a4 62bf
000002f0: a7f9 2f3f 4032 76bd 22be 57bf bf84 ad3e
00000300: badf d7bc eb36 763d fa6d 52bd 70fe 5b3d
00000310: ac22 bdbd e63d 15bd 833e f23c ba8e d8bd
00000320: 60d5 b7bd 70c4 81bd 83d5 6dbc 6182 49bc
00000330: c1ec d63d c2ef b8bd b85d e1bd a584 1d3c
00000340: 7109 d33c 607f bdbd bb7d f43d b860 36be
00000350: 8de2 0ebd ea36 5bbd d0b8 c83c 4739 adbd
00000360: 8a31 54be deb3 2e3d f89e 35bd ac17 8a3d
00000370: 5551 1e3e 729e 913c 9f3e f43c 249c febd
00000380: 8c60 fabc 4c42 813e b434 033c 0a2c 57be
00000390: 9f26 53bd ac36 f5bd 2317 28bd 5831 34be
000003a0: fd9f e3bc b8c6 553d bf11 23bc 83ca 99bd
000003b0: 22ac 643b d050 38bd 6097 6dbd 6568 903d
000003c0: 15ec 643e c031 3fbd 10b0 bebd 2593 0cbe
000003d0: 1c3c 78bd f5ce 143d 6af5 ecbc b08e 72bb
000003e0: 4721 2cbb cccc 82bd 5dde 6abd f6e2 19be
000003f0: ec3e 31bd f7af 533b 82f5 e03d fe68 a93d

net.2.bias f4 [64]
-0.13801916 0.06387612 -0.24542683 -0.100249894 0.62246364 0.6504374 -0.25204745 0.6125315
-0.13666315 0.7812422 0.19774671 0.55938244 0.6184928 0.606578 -0.39341083 0.07591925
-0.15495881 0.56312436 -0.0032668267 0.6794011 0.009722364 -0.054591574 0.59355545 0.6061689
0.77451587 0.043127354 0.39758354 0.15786156 -0.044151068 0.5388114 -0.046355184 0.6005857
-0.18431291 0.54117066 -0.077346385 -0.05591331 0.5924667 -0.0762292 0.60446966 0.7322653
-0.30050606 0.50230145 -0.07201813 -0.24931306 0.82418036 0.71067464 -0.1483725 0.70319295
-0.06565235 0.22555801 0.7436612 0.6690314 -0.15187725 0.05497369 -0.10873462 0.5466637
0.18302865 0.8393766 -0.13788803 0.016541896 0.64561135 -0.19596983 0.79896414 0.5588949
00000000: e554 0dbe 7cd1 823d 2c51 7bbe d14f cdbd
00000010: c759 1f3f 1183 263f 5d0c 81be ddce 1c3f
00000020: 6df1 0bbe 7dff 473f 1d7e 4a3e b033 0f3f
00000030: 8b55 1e3f b248 1b3f 256d c9be 8d7b 9b3d
00000040: 86ad 1ebe eb28 103f 4218 56bb 3bed 2d3f
00000050: 8d4a 1f3c 6a9b 5fbd 40f3 173f e32d 1b3f
00000060: ac46 463f 4fa6 303d 1290 cb3e 76a6 213e
00000070: c0d7 34bd 8bef 093f efde 3dbd fcbf 193f
00000080: 86bc 3cbe 298a 0a3f c867 9ebd 5b05 65bd
00000090: e6ab 173f 0e1e 9cbd 86be 1a3f bd75 3b3f
000000a0: eedb 99be d496 003f 3e7e 93bd ec4b 7fbe
000000b0: 7cfd 523f c6ee 353f f6ee 17be 7404 343f
000000c0: bd74 86bd aef8 663e 9560 3e3f a445 2b3f
000000d0: b685 1bbe 182c 613d 42b0 debd 27f2 0b3f
000000e0: dd6b 3b3e 63e1 563f 8532 0dbe df82 873c
000000f0: c946 253f 51ac 48be ea88 4c3f bc13 0f3f

net.4.weight f4 [2, 64]
-0.5950874 -0.10493929 -2.358558 0.16123834 1.456027 1.2976432 -3.1694202 1.0596744
0.24948591 1.7614455 -4.3966813 1.146277 0.85444456 1.2683383 -3.0118783 0.017211044
0.04830998 1.2494473 0.07433675 1.419296 -0.039378967 -0.12171801 1.1769246 1.3792644
1.7180158 -0.022440985 1.7944707 -0.08791917 0.074867226 1.2977333 -6.4896116 1.3807997
-3.9098625 0.96157664 -1.7218319 -2.7457979 1.2402678 0.21101405 1.8645715 1.2000728
-0.2808663 0.7388163 0.32333463 -0.29287067 0.100266844 1.115676 0.010999954 1.1826019
-0.013104186 0.7085694 1.0225064 1.5251157 -0.0669249 -4.6039257 -0.025236443 1.3434584
-0.35825524 1.3555408 -0.0048479703 -0.7712487 0.7226075 0.03573265 0.83762705 1.1892022
0.8070178 0.021001158 -1.5844718 -0.13675553 1.2704325 1.7259033 -4.4641056 1.035348
-0.2502846 1.210323 -2.9171705 1.2983137 1.3464589 0.95173746 -3.5424068 -0.13689858
0.16420554 1.100413 -0.08122258 1.5386242 0.020490794 -0.14284714 1.4130869 1.741011
0.687705 -0.14590783 0.5660254 0.007799322 -0.004444043 1.4470934 -3.276358 1.5142913
-6.9169655 1.1960293 -3.599617 -1.4846697 1.4804337 0.060121667 0.6029554 0.94297314
-2.8374462 1.273246 -0.20670463 0.2467739 1.4574978 0.7528912 0.025382569 1.0814862
-0.008171152 -0.44204175 1.8151095 1.7476369 -0.12049761 -4.637419 0.078866705 1.1172699
0.61982965 0.62789184 0.04957509 0.1798528 1.6146222 0.099463105 1.4192512 1.3248913
00000000: a657 18bf 69ea d6bd 9df2 16c0 aa1b 253e
00000010: 185f ba3f 2c19 a63f c8d7 4ac0 69a3 873f
00000020: 3c79 7f3e 0c77 e13f 9db1 8cc0 34b9 923f
00000030: e1bc 5a3f e958 a23f 9dc2 40c0 2dfe 8c3c
00000040: b0e0 453d e4ed 9f3f de3d 983d 7eab b53f
00000050: d74b 21bd 4b47 f9bd 77a5 963f bc8b b03f
00000060: f1e7 db3f 28d6 b7bc 37b1 e53f f70e b4bd
00000070: fd53 993d 201c a63f e6aa cfc0 0bbe b03f
00000080: 303b 7ac0 e329 763f fd64 dcbf 27bb 2fc0
00000090: 18c1 9e3f 1114 583e 47aa ee3f fc9b 993f
000000a0: b5cd 8fbe 1123 3d3f 1e8c a53e 25f3 95be
000000b0: b458 cd3d 79ce 8e3f 2739 343c 805f 973f
000000c0: f1b2 56bc ce64 353f 7de1 823f fe36 c33f
000000d0: ec0f 89bd 5c53 93c0 a8bc cebc 72f6 ab3f
000000e0: 3b6d b7be 5c82 ad3f b9db 9ebb 8e70 45bf
000000f0: cefc 383f 665c 123d ba6e 563f c737 983f
00000100: b898 4e3f 9f0a ac3c f9cf cabf a409 0cbe
00000110: 889d a23f 66ea dc3f f4d9 8ec0 4986 843f
00000120: 4e25 80be ddeb 9a3f ecb2 3ac0 252f a63f
00000130: c458 ac3f 11a5 733f cbb6 62c0 242f 0cbe
00000140: 7f25 283e 55da 8c3f 0658 a6bd a3f1 c43f
00000150: 4fdc a73c 8546 12be 08e0 b43f 73d9 de3f
00000160: 6f0d 303f dd68 15be 0ae7 103f 7491 ff3b
00000170: 569f 91bb 5b3a b93f d9af 51c0 4cd4 c13f
00000180: c857 ddc0 7d17 993f 2060 66c0 a809 bebf
00000190: da7e bd3f 2342 763d 495b 1a3f b066 713f
000001a0: b898 35c0 baf9 a23f 61aa 53be 4cb2 7c3e
000001b0: 4a8f ba3f 7abd 403f 1bef cf3c 246e 8a3f
000001c0: 4ce0 05bc 4c53 e2be 8255 e83f 91b2 df3f
000001d0: 73c7 f6bd bd65 94c0 de84 a13d b302 8f3f
000001e0: 28ad 1e3f 85bd 203f 400f 4b3d 552b 383e
000001f0: f1ab ce3f 50b3 cb3d 06aa b53f 0a96 a93f

net.4.bias f4 [2]
0.77564543 0.38151762
00000000: b390 463f 4756 c33e

exp_avg f4 [64, 4]
0.091978 0.09784248 0.0018481096 0.007948057 0.0027724467 0.0010003253 -2.0587117e-06 -0.0004597136
6e-45 6e-45 6e-45 6e-45 6e-45 6e-45 -6e-45 6e-45
-6e-45 -6e-45 -6e-45 6e-45 -0.019456351 0.025246065 -0.00077809 0.0037027737
6e-45 6e-45 6e-45 6e-45 0.19013964 0.16261028 0.0037454735 0.012641583
0.06738684 0.060172774 0.00087337155 0.004904011 -6e-45 -6e-45 -6e-45 6e-45
6e-45 -6e-45 6e-45 6e-45 2.5988684e-28 1.5943307e-28 -8.129088e-30 -1.1945833e-28
-6e-45 6e-45 -6e-45 -6e-45 0.023815606 0.027970826 -0.00073154713 -1.2836585e-05
6e-45 6e-45 6e-45 6e-45 0.0629392 0.020413421 1.2849261e-05 -0.0012720608
0.06062589 0.03818494 0.0009206481 -0.0003807351 6e-45 6e-45 6e-45 -6e-45
6e-45 6e-45 -6e-45 6e-45 6e-45 6e-45 6e-45 -6e-45
6e-45 6e-45 -6e-45 -6e-45 0.45329612 -0.138099 -0.030767113 -0.034473453
0.04104731 0.016976606 -9.87568e-05 -0.0005519425 -0.0870667 -0.21593115 -0.0229959 0.038679946
0.04184739 0.045035914 0.0011652163 0.002544838 3.6166395e-05 0.00019961502 -3.447511e-05 -0.00028040152
-0.24696124 -0.20369695 -0.011475994 -0.04889532 -0.36358446 -0.31062543 0.0074603604 0.0038187287
-0.044937797 -0.029241676 -0.00033221758 -0.0005075171 6e-45 6e-45 6e-45 6e-45
0.0015940488 0.003431605 -5.392695e-05 -0.000102130565 -6e-45 -6e-45 -6e-45 6e-45
0.110790774 0.11056657 0.0010382901 0.007968001 6e-45 6e-45 6e-45 6e-45
6e-45 6e-45 6e-45 6e-45 0.08411222 0.112922974 0.002178021 0.013584493
0.03757327 -0.021518204 0.0022972277 -0.01247452 0.07812951 0.044071846 0.0011411656 -0.0027182864
-6e-45 -6e-45 6e-45 6e-45 0.1486703 0.1743874 0.0027161348 0.020688694
-6e-45 -6e-45 -6e-45 -6e-45 -0.07028136 -0.15606508 -0.0011720636 0.011183193
0.09592229 0.033678405 0.0029807023 -0.001293439 -6e-45 6e-45 6e-45 -6e-45
-6e-45 -6e-45 -6e-45 -6e-45 0.1785933 0.11174457 0.0010966195 0.008340453
6e-45 6e-45 -6e-45 -6e-45 -0.21014938 -0.08161829 -0.008849275 -0.009905476
-6e-45 -6e-45 -6e-45 -6e-45 0.18003602 0.11869558 0.0026591334 0.0044287913
-0.01819951 -0.024726057 -0.0013136597 -0.0012641493 -7.2140533e-06 0.00028894783 2.6542248e-05 -0.0004042105
6e-45 6e-45 6e-45 6e-45 0.15017486 0.15025578 0.003065841 0.014953722
0.0 0.0 0.0 0.0 6e-45 6e-45 6e-45 -6e-45
0.015783727 0.0048864763 -5.905237e-06 0.00032119863 -6e-45 -6e-45 6e-45 6e-45
6e-45 6e-45 6e-45 -6e-45 0.08040766 0.10315801 0.0005157803 0.009930622
6e-45 6e-45 6e-45 6e-45 6e-45 6e-45 -6e-45 -6e-45
0.037214473 0.06969862 -4.422809e-05 0.007560045 6e-45 6e-45 6e-45 6e-45
00000000: f65e bc3d a361 c83d 453c f23a 9138 023c
00000010: f0b1 353b 591d 833a 6628 0ab6 b705 f1b9
00000020: 0400 0000 0400 0000 0400 0000 0400 0000
00000030: 0400 0000 0400 0000 0400 0080 0400 0000
00000040: 0400 0080 0400 0080 0400 0080 0400 0000
00000050: ed62 9fbc d6d0 ce3c bcf8 4bba 3caa 723b
00000060: 0400 0000 0400 0000 0400 0000 0400 0000
00000070: f7b3 423e 4f83 263e 9e76 753b a41e 4f3c
00000080: 1d02 8a3d ba77 763d f9f2 643a d3b1 a03b
00000090: 0400 0080 0400 0080 0400 0080 0400 0000
000000a0: 0400 0000 0400 0080 0400 0000 0400 0000
000000b0: 0db9 a411 fd1a 4a11 a3e0 248f 726e 1791
000000c0: 0400 0080 0400 0000 0400 0080 0400 0080
000000d0: f218 c33c 1323 e53c 4cc5 3fba b65c 57b7
000000e0: 0400 0000 0400 0000 0400 0000 0400 0000
000000f0: 44e6 803d 0c3a a73c 2893 5737 47bb a6ba
00000100: da52 783d d067 1c3d a657 713a 669d c7b9
00000110: 0400 0000 0400 0000 0400 0000 0400 0080
00000120: 0400 0000 0400 0000 0400 0080 0400 0000
00000130: 0400 0000 0400 0000 0400 0000 0400 0080
00000140: 0400 0000 0400 0000 0400 0080 0400 0080
00000150: 6e16 e83e d369 0dbe 500b fcbc 0934 0dbd
00000160: 3921 283d 8612 8b3c a71b cfb8 3cb0 10ba
00000170: 0750 b2bd 0e1d 5dbe e661 bcbc dd6e 1e3d
00000180: 2b68 2b3d 9477 383d 2cba 983a 4cc7 263b
00000190: 5fb1 1738 c04f 5139 5e99 10b8 db02 93b9
000001a0: 68e3 7cbe ef95 50be cf05 3cbc 7646 48bd
000001b0: be27 babe 4c0a 9fbe 0a76 f43b a343 7a3b
000001c0: b210 38bd 3d8c efbc 7d2d aeb9 e50a 05ba
000001d0: 0400 0000 0400 0000 0400 0000 0400 0000
000001e0: 67ef d03a c7e4 603b 9f2f 62b8 ee2e d6b8
000001f0: 0400 0080 0400 0080 0400 0080 0400 0000
00000200: 46e6 e23d ba70 e23d 3c17 883a 388c 023c
00000210: 0400 0000 0400 0000 0400 0000 0400 0000
00000220: 0400 0000 0400 0000 0400 0000 0400 0000
00000230: 0743 ac3d 2944 e73d 21bd 0e3b 7e91 5e3c
00000240: 6ee6 193d f246 b0bc 168d 163b ee61 4cbc
00000250: 5d02 a03d ae84 343d 2a93 953a 4725 32bb
00000260: 0400 0080 0400 0080 0400 0000 0400 0000
00000270: 073d 183e 9c92 323e 2e01 323b 567b a93c
00000280: 0400 0080 0400 0080 0400 0080 0400 0080
00000290: acef 8fbd 86cf 1fbe ee9f 99ba b639 373c
000002a0: e872 c43d 5ef2 093d e357 433b 9c88 a9ba
000002b0: 0400 0080 0400 0000 0400 0000 0400 0080
000002c0: 0400 0080 0400 0080 0400 0080 0400 0080
000002d0: 29e1 363e 56da e43d 72bc 8f3a 65a6 083c
000002e0: 0400 0000 0400 0000 0400 0080 0400 0080
000002f0: 6631 57be 7d27 a7bd 8dfc 10bc 944a 22bc
00000300: 0400 0080 0400 0080 0400 0080 0400 0080
00000310: 5d5b 383e ab16 f33d db44 2e3b 651f 913b
00000320: 2417 95bc 4d8e cabc 1b2f acba d0b1 a5ba
00000330: 3f10 f2b6 ec7d 9739 0ba7 de37 37ec d3b9
00000340: 0400 0000 0400 0000 0400 0000 0400 0000
00000350: 70c7 193e a7dc 193e 47ec 483b 7500 753c
00000360: 0000 0000 0000 0000 0000 0000 0000 0000
00000370: 0400 0000 0400 0000 0400 0000 0400 0080
00000380: e04c 813c bc1e a03b 9925 c6b6 8d66 a839
00000390: 0400 0080 0400 0080 0400 0000 0400 0000
000003a0: 0400 0000 0400 0000 0400 0000 0400 0080
000003b0: c5ac a43d 8244 d33d 6e35 073a 0cb4 223c
000003c0: 0400 0000 0400 0000 0400 0000 0400 0000
000003d0: 0400 0000 0400 0000 0400 0080 0400 0080
000003e0: 346e 183d 26be 8e3d 8d81 39b8 41ba f73b
000003f0: 0400 0000 0400 0000 0400 0000 0400 0000

exp_avg_sq f4 [64, 4]
1.6415845 0.28154802 0.0009157008 0.017018931 0.0036918127 0.0006747773 2.1441869e-05 0.0008549069
0.009899845 0.0008728512 0.00010751311 0.00027541677 0.0003014256 0.00091020466 0.00028126952 0.0036577135
7e-43 7e-43 7e-43 7e-43 0.39206612 0.0664172 0.00014016706 0.0034660373
7e-43 7e-43 7e-43 7e-43 3.6135788 0.6812242 0.002622924 0.044147506
0.6178595 0.10639215 0.00033422137 0.0061653224 7e-43 7e-43 7e-43 7e-43
9.2594025e-23 5.8979576e-24 4.4056375e-26 8.600485e-25 0.013089681 0.057778087 0.01989277 0.39573446
9.012008e-23 7.368261e-24 5.4814666e-26 7.712248e-25 0.61504596 0.037642032 0.00019451366 0.0018209597
7e-43 7e-43 7e-43 7e-43 0.14153743 0.011523737 9.754886e-05 0.0008840812
0.59207416 0.038358845 0.00018354997 0.0019120058 1.0189943e-18 8.1329266e-19 3.0805775e-21 1.5809425e-20
1.3984193e-07 1.8720526e-08 1.5847695e-10 8.540332e-10 0.0015278165 0.00037698206 8.820977e-05 0.0018892135
1.9327795e-32 3.5711792e-32 1.2312938e-34 1.5878697e-32 95.51643 3.6120405 0.02032846 0.33997047
0.18657537 0.010451755 0.00014169252 0.0008657586 34.325607 1.6869463 0.010837258 0.11790068
0.36308402 0.051862784 0.00019268425 0.0032968675 1.10871715e-05 2.731559e-05 3.7610977e-07 2.912912e-05
26.244968 1.6147075 0.011127831 0.13975912 13.021716 3.7584622 0.004085857 0.112190925
0.058160882 0.05688869 4.6412326e-05 0.0054296693 4.410526e-25 9.187232e-26 9.285119e-28 2.9137814e-27
0.0060323677 0.0030616182 1.811997e-05 0.00022662629 7e-43 7e-43 7e-43 7e-43
2.294665 0.40572965 0.0011582916 0.022657977 7e-43 7e-43 7e-43 7e-43
5.018972e-07 2.71498e-07 7.0136306e-09 4.3272628e-08 2.164641 0.44563857 0.001476042 0.029195076
1.1832801 0.22237232 0.00051157264 0.01777503 0.30764282 0.03942662 0.00022199149 0.0027510813
7e-43 7e-43 7e-43 7e-43 4.7748704 1.081228 0.003452664 0.06919436
7e-43 7e-43 7e-43 7e-43 6.663624 0.8178602 0.0013703718 0.031068467
0.16223805 0.01606238 0.00013410053 0.0018117616 5.50371e-40 1.1691e-41 7e-43 1.4537e-41
7e-43 7e-43 7e-43 7e-43 0.7745021 0.23395024 0.0009203625 0.014806676
0.025020944 0.12828647 0.044814695 0.88421476 0.88219106 0.060985968 0.0003246407 0.0031098556
7e-43 7e-43 7e-43 7e-43 1.8790982 0.2773649 0.0011374424 0.016130958
0.003171595 0.010653817 0.000121517915 0.0015628777 0.0004414976 2.8893166e-05 4.7558802e-07 3.74488e-05
3.92654e-15 3.3316326e-15 3.3866548e-17 1.262773e-16 3.2956164 0.6783544 0.0023415925 0.04355317
0.0 0.0 0.0 0.0 7e-43 7e-43 7e-43 7e-43
0.26189914 0.024064826 0.00017238948 0.0030012324 7e-43 7e-43 7e-43 7e-43
7e-43 7e-43 7e-43 7e-43 2.3235145 0.4273654 0.0010791769 0.02326744
7e-43 7e-43 7e-43 7e-43 7e-43 7e-43 7e-43 7e-43
1.2555228 0.22831959 0.00056124065 0.0126008 7e-43 7e-43 7e-43 7e-43
00000000: 711f d23f 1027 903e a40b 703a 496b 8b3c
00000010: 57f2 713b 8ae3 303a 10de b337 d51b 603a
00000020: f632 223c 0dd0 643a a978 e138 d065 9039
00000030: a908 9e39 cd9a 6e3a 5b77 9339 40b6 6f3b
00000040: f401 0000 f401 0000 f401 0000 f401 0000
00000050: e4bc c83e be05 883d cff9 1239 7526 633b
00000060: f401 0000 f401 0000 f401 0000 f401 0000
00000070: e044 6740 b664 2e3f 5de5 2b3b 04d4 343d
00000080: 0a2c 1e3f 21e4 d93d 6f3a af39 7906 ca3b
00000090: f401 0000 f401 0000 f401 0000 f401 0000
000000a0: ede0 df1a 8b2a e418 1728 5a15 0816 8517
000000b0: 1a76 563c b7a8 6c3d 2af6 a23c b59d ca3e
000000c0: a1e5 d91a dc85 0e19 ecb6 8715 b9ae 6e17
000000d0: a773 1d3f 882e 1a3d 5df6 4b39 45ad ee3a
000000e0: f401 0000 f401 0000 f401 0000 f401 0000
000000f0: 30ef 103e 0ece 3c3c 2593 cc38 afc1 673a
00000100: 2c92 173f 2a1e 1d3d 5277 4039 459c fa3a
00000110: 8460 9621 a80a 7021 09c3 681d d850 951e
00000120: 7527 1634 dfce a032 4c3f 2e2f 3ec1 6a30
00000130: 0441 c83a ada5 c539 42fd b838 7c9f f73a
00000140: 18b6 c80a 1d6d 390b c2aa 2307 d1e4 a40a
00000150: 6a08 bf42 ac2b 6740 df87 a63c 9c10 ae3e
00000160: 9d0d 3f3e d63d 2b3c 4c93 1439 13f4 623a
00000170: 6c4d 0942 dbed d73f c18e 313c e975 f13d
00000180: 26e6 b93e 126e 543d 490b 4a39 4210 583b
00000190: 0a03 3a37 c823 e537 22ec c934 4f5a f437
000001a0: b2f5 d141 bcae ce3f 8251 363c 041d 0f3e
000001b0: f358 5041 a58a 7040 a7e2 853b 5bc4 e53d
000001c0: 1b3a 6e3d 1d04 693d dbaa 4238 5eeb b13b
000001d0: c97f 0817 0077 e315 eb20 9312 82da 6613
000001e0: 2bab c53b 6ea5 483b 5700 9837 88a2 6d39
000001f0: f401 0000 f401 0000 f401 0000 f401 0000
00000200: cbdb 1240 ccbb cf3e d1d1 973a 399d b93c
00000210: f401 0000 f401 0000 f401 0000 f401 0000
00000220: 1dba 0635 67c2 9134 8cfc f031 c2da 3933
00000230: 7a89 0a40 bd2a e43e c077 c13a 832a ef3c
00000240: b975 973f 92b5 633e 0f1b 063a f19c 913c
00000250: 5c83 9d3e cf7d 213d 63c6 6839 7c4b 343b
00000260: f401 0000 f401 0000 f401 0000 f401 0000
00000270: bdcb 9840 ae65 8a3f 1746 623b c6b5 8d3d
00000280: f401 0000 f401 0000 f401 0000 f401 0000
00000290: 683c d540 495f 513f 0c9e b33a 4c83 fe3c
000002a0: bb21 263e 4195 833c 569d 0c39 a278 ed3a
000002b0: 36fe 0500 9720 0000 f401 0000 8628 0000
000002c0: f401 0000 f401 0000 f401 0000 f401 0000
000002d0: c545 463f a790 6f3e 7b44 713a b397 723c
000002e0: b9f8 cc3c 875d 033e 9d8f 373d e65b 623f
000002f0: 46d7 613f 6ccc 793d 8a34 aa39 b8ce 4b3b
00000300: f401 0000 f401 0000 f401 0000 f401 0000
00000310: 4a86 f03f c602 8e3e 3c16 953a 1225 843c
00000320: 89da 4f3b 598d 2e3c 6fd7 fe38 79d9 cc3a
00000330: ce78 e739 9a5f f237 5254 ff34 5812 1d38
00000340: f077 8d27 c611 7027 902e 1c24 7b96 1125
00000350: 61eb 5240 a2a8 2d3f 6775 193b cf64 323d
00000360: 0000 0000 0000 0000 0000 0000 0000 0000
00000370: f401 0000 f401 0000 f401 0000 f401 0000
00000380: a517 863e 9923 c53c 73c3 3439 53b0 443b
00000390: f401 0000 f401 0000 f401 0000 f401 0000
000003a0: f401 0000 f401 0000 f401 0000 f401 0000
000003b0: 76b4 1440 a3cf da3e 2b73 8d3a 5c9b be3c
000003c0: f401 0000 f401 0000 f401 0000 f401 0000
000003d0: f401 0000 f401 0000 f401 0000 f401 0000
000003e0: f9b4 a03f 9ccc 693e 3920 133a 9673 4e3c
000003f0: f401 0000 f401 0000 f401 0000 f401 0000

exp_avg f4 [64]
0.08131725 0.0010455069 6e-45 -6e-45 6e-45 0.0046553346 6e-45 0.14972626
0.051603824 6e-45 -6e-45 1.4394847e-28 6e-45 0.000967938 6e-45 0.017458271
0.020208206 6e-45 6e-45 -6e-45 6e-45 0.34303316 0.019046409 0.061350808
0.034501698 -0.0003516326 -0.087828256 -0.25797874 -0.040574417 -6e-45 0.0013141674 6e-45
0.088132955 6e-45 6e-45 0.097668566 0.0033208649 0.038932286 6e-45 0.1577972
6e-45 -0.061205555 0.042156447 6e-45 6e-45 0.132283 6e-45 -0.06997044
6e-45 0.11174915 -0.029443521 -0.00021221557 6e-45 0.13805385 0.0 6e-45
-0.010959364 6e-45 6e-45 0.076968074 6e-45 6e-45 0.045444485 6e-45
00000000: a989 a63d 6409 893a 0400 0000 0400 0080
00000010: 0400 0000 c78b 983b 0400 0000 d751 193e
00000020: 885e 533d 0400 0000 0400 0080 f379 3611
00000030: 0400 0000 38bd 7d3a 0400 0000 a604 8f3c
00000040: ae8b a53c 0400 0000 0400 0000 0400 0080
00000050: 0400 0000 0ba2 af3e 3707 9c3c fc4a 7b3d
00000060: a751 0d3d 545b b8b9 4ddf b3bd ca15 84be
00000070: 5c31 26bd 0400 0080 2440 ac3a 0400 0000
00000080: 0d7f b43d 0400 0000 0400 0000 7506 c83d
00000090: dea2 593b 7677 1f3d 0400 0000 9795 213e
000000a0: 0400 0000 adb2 7abd 3dac 2c3d 0400 0000
000000b0: 0400 0000 3275 073e 0400 0000 a94c 8fbd
000000c0: 0400 0000 bddc e43d 8a33 f1bc 2f86 5eb9
000000d0: 0400 0000 fd5d 0d3e 0000 0000 0400 0000
000000e0: e78e 33bc 0400 0000 0400 0000 70a1 9d3d
000000f0: 0400 0000 0400 0000 ff23 3a3d 0400 0000
