CartPole/Experiment_1/23-09-26_22-10-39-937242_DQN/checkpoints/agent_25500.pt (torch, 82571 bytes, 24 tensors)

net.0.weight f4 [64, 4]
-0.033568457 0.11973374 0.060224723 -0.026768912 0.0968989 -0.076712154 0.26500368 -0.04467971
-0.10803228 0.063072145 1.8336273 0.16032141 -0.17520377 -0.075036824 1.1076343 0.07645282
-0.08385639 -0.020568294 0.048539206 0.0027877358 0.22199602 -0.2625793 -1.0082948 -0.16157
-0.072207704 0.09872921 -0.56315696 0.094486944 -0.102929726 0.010707679 0.00077855453 0.03949078
0.0057966267 -0.072722495 0.021284426 -0.046600543 -0.2005886 0.015449214 -0.036095276 0.08503183
-0.14415805 -0.05780408 -1.2724723 -0.068114124 0.08064771 -0.034296565 -1.2151064 0.3458229
-0.29587412 -0.056344453 0.8743419 0.005505539 -0.08272085 0.20034678 0.88777614 -0.26685104
0.02682325 -0.008666424 -0.18595499 -0.021548524 0.023338165 -0.011473497 0.3554263 0.057934895
-0.16293283 0.014506536 -1.0833235 0.29291174 0.28543803 -0.007484039 -0.48257837 0.0109635135
0.048201494 -0.042485498 -0.09614151 -0.03220898 -0.27869764 -0.23481748 -0.39470103 -0.117646106
0.057686344 0.12439204 -0.50599974 -0.05366391 0.3357571 0.108949706 -0.15908982 0.061859827
0.04058922 -0.2143021 -0.7805215 -0.16299364 0.2694426 0.05056449 -0.9662379 0.0007600031
-0.099373244 0.10433639 1.2124211 0.13671437 -0.20191948 -0.07404362 -0.17610426 0.21844494
0.12645373 0.13226956 0.87516826 0.09856978 0.4876368 -0.0054025636 0.32793868 0.0005471692
0.30758643 -0.24273618 0.98955643 0.015282605 -0.072263755 -0.25941768 -0.14965677 -0.22991689
-0.31752944 0.164849 0.71284944 -0.01914797 -0.028540602 -0.020619098 0.029088806 -0.07080355
0.027656836 -0.011285062 -0.9973018 -0.07527945 -0.0034265474 0.05676489 -0.018623877 0.05013916
-0.1082285 -0.013885852 0.80449426 0.301414 0.11043265 -0.012856494 -0.10653508 0.015642274
-0.03729312 -0.07254937 -1.5626559 -0.19480103 -0.10720413 0.019809375 0.9021301 0.05615683
-0.0485909 0.06550647 -0.20835306 0.16058707 0.10382049 -0.08589158 -0.057336472 -0.00941578
-0.17353313 -0.07930397 -0.22513996 -0.089990065 0.2773026 -0.15964046 -1.8351173 -0.19562505
-0.17321564 0.14890662 1.0483106 0.0735747 -0.18765359 0.26427168 0.3855504 0.05611463
0.010159314 -0.059214305 -0.11306882 -0.04320633 0.029815963 0.15010524 1.2196385 0.2786191
0.19954845 -0.072314024 -1.9409106 -0.36307392 0.25262555 -0.14376011 -0.23890659 0.0036712484
-0.010744704 0.04419655 -0.0015444825 0.038893793 -0.09596843 0.038752794 -0.25121394 0.0073293145
0.08726421 -0.082194604 -0.6452737 -0.100817725 -0.6256789 -0.06718453 1.108399 0.09908027
-0.06896104 0.12918684 1.0349535 0.17533775 -0.03338992 -0.05060463 0.22695434 -0.0108325165
0.037022855 0.015474828 -0.05165679 0.018036043 -0.22798754 0.16939162 0.77566236 -0.015810044
0.21749446 -0.16054308 -0.8835713 0.28924417 0.06911484 -0.08581809 -0.46286625 0.015418804
-0.029093403 0.082347564 -0.072306134 0.045801703 0.123097196 -0.06880075 -0.631396 -0.19209759
0.11726465 -0.012468705 1.0229456 0.018535942 -0.024131887 0.01595536 -0.056990918 -0.02924141
0.16045283 -0.16319056 -1.250185 -0.15077303 0.17154533 -0.125116 0.41979 -0.00634913
00000000: 147f 09bd f736 f53d 33ae 763d 7a4a dbbc
00000010: ee72 c63d 431b 9dbd 90ae 873e 1202 37bd
00000020: 0740 ddbd f82b 813d 4db4 ea3f 4c2b 243e
00000030: 9e68 33be e8ac 99bd f6c6 8d3f 4c93 9c3d
00000040: e6bc abbd d77e a8bc 0cd1 463d 72b2 363b
00000050: ed52 633e cb70 86be ce0f 81bf 9b72 25be
00000060: a2e1 93bd 8a32 ca3d 0e2b 10bf 5f82 c13d
00000070: d2cc d2bd 436f 2f3c e917 4c3a 16c1 213d
00000080: a1f1 bd3b 88ef 94bd ad5c ae3c 36e0 3ebd
00000090: 1967 4dbe b31e 7d3c a4d8 13bd 2b25 ae3d
000000a0: 2b9e 13be f9c3 6cbd 5fe0 a2bf 6b7f 8bbd
000000b0: a02a a53d 8e7a 0cbd 9b88 9bbf b30f b13e
000000c0: d07c 97be 71c9 66bd dfd4 5f3f cf67 b43b
000000d0: 8d69 a9bd b527 4d3e 4c45 633f b3a0 88be
000000e0: 6fbc db3c 9efd 0dbc fc6a 3ebe 8886 b0bc
000000f0: ae2f bf3c 56fb 3bbc 70fa b53e 244d 6d3d
00000100: ddd7 26be d2ac 6d3c 58aa 8abf 87f8 953e
00000110: ef24 923e ab3c f5bb 8314 f7be 4fa0 333c
00000120: ee6e 453d 4605 2ebd d7e5 c4bd 90ed 03bd
00000130: 75b1 8ebe fe73 70be 4116 cabe 71f0 f0bd
00000140: 8448 6c3d 41c1 fe3d 3389 01bf b0ce 5bbd
00000150: 5be8 ab3e 0621 df3d 71e8 22be bb60 7d3d
00000160: e240 263d 0272 5bbe 42d0 47bf cee7 26be
00000170: 61f4 893e b61c 4f3d 5e5b 77bf f23a 473a
00000180: 3384 cbbd 51ae d53d 9d30 9b3f dafe 0b3e
00000190: fbc3 4ebe 2ea4 97bd ad54 34be 08b0 5f3e
000001a0: 167d 013e ac71 073e 070b 603f f4de c93d
000001b0: 88ab f93e fd07 b1bb 94e7 a73e e76f 0f3a
000001c0: f87b 9d3e d58f 78be 9253 7d3f e463 7a3c
000001d0: 05ff 93bd 65d2 84be a03f 19be 556f 6bbe
000001e0: 3893 a2be 2dce 283e 4d7d 363f 34dc 9cbc
000001f0: fbcd e9bc 62e9 a8bc a64b ee3c 7401 91bd
00000200: 9790 e23c fbe4 38bc 2c4f 7fbf 1d2c 9abd
00000210: ed8f 60bb 4d82 683d 1a91 98bc b85e 4d3d
00000220: e7a6 ddbd 7c81 63bc 56f3 4d3f f052 9a3e
00000230: 832a e23d 0ba4 52bc 102f dabd 3a24 803c
00000240: acc0 18bd c494 94bd 1c05 c8bf ec79 47be
00000250: d78d dbbd 4547 a23c 00f2 663f b404 663d
00000260: 4007 47bd 4228 863d 815a 55be f070 243e
00000270: d69f d43d ede7 afbd a6d9 6abd a544 1abc
00000280: abb2 31be 1f6a a2bd 178b 66be b64c b8bd
00000290: 9bfa 8d3e ca78 23be 20e5 eabf ef51 48be
000002a0: 715f 31be fa7a 183e 0b2f 863f 55ae 963d
000002b0: 4328 40be 9e4e 873e dd66 c53e 74d8 653d
000002c0: 4073 263c b38a 72bd a090 e7bd 1ff9 30bd
000002d0: 9b40 f43c 30b5 193e 1d1d 9c3f 2aa7 8e3e
000002e0: 6e56 4c3e 6019 94bd c26f f8bf d3e4 b9be
000002f0: 2358 813e da35 13be eea3 74be 5499 703b
00000300: 8e0a 30bc 7107 353d 3c70 caba 194f 1f3d
00000310: 198b c4bd 40bb 1e3d 1d9f 80be bf2a f03b
00000320: 94b7 b23d a555 a8bd a830 25bf 8679 cebd
00000330: 7e2c 20bf 0b98 89bd 05e0 8d3f 99ea ca3d
00000340: 723b 8dbd 8e49 043e 5b79 843f bd8b 333e
00000350: dec3 08bd cd46 4fbd b866 683e de7a 31bc
00000360: 47a5 173d 228a 7d3c 1296 53bd 53c0 933c
00000370: 9175 69be ff74 2d3e cf91 463f 1184 81bc
00000380: deb6 5e3e 6865 24be bb31 62bf d017 943e
00000390: 158c 8d3d 65c1 afbd cefc ecbe 279f 7c3c
000003a0: 4a55 eebc d7a5 a83d 3d15 94bd 919a 3b3d
000003b0: 621a fc3d 68e7 8cbd 2ba3 21bf 3bb5 44be
000003c0: 7328 f03d 8a49 4cbc e2ef 823f b0d8 973c
000003d0: 3cb0 c5bc d1b4 823c 4f6f 69bd ae8b efbc
000003e0: bf4d 243e 6d1b 27be 1006 a0bf 3f64 1abe
000003f0: 94a9 2f3e 691e 00be b7ee d63e 5d0c d0bb

net.0.bias f4 [64]
0.37602097 0.2594709 -0.29855952 -0.07984201 -0.29673266 0.2641847 -0.15949199 0.4873515
0.3385852 -0.39205185 -0.3667609 -0.06610755 -0.5387874 -0.35469568 -0.14654225 0.21380754
-0.17830643 -0.23999386 -0.08980318 -0.18869247 -0.3845483 -0.7111989 0.19367796 -0.5475572
0.2425956 -0.5305241 -0.56322175 -0.66319644 -0.118915856 -0.13076396 -0.017038219 -0.2623621
0.3196079 -0.13668801 -0.35538745 0.43345213 0.16330092 0.117558114 -0.2995464 0.5686524
-0.52583957 -0.35569704 0.11845997 -0.33878818 -0.11970588 0.32591105 -0.3443329 -0.41875175
-0.12357267 0.3506099 0.17147091 -0.3852057 -0.24967945 0.48335144 -0.28821346 -0.31177884
0.0070873075 -0.43009683 -0.14020263 0.40420735 -0.5220763 -0.1879339 0.2883127 -0.35342032
00000000: d285 c03e 5fd9 843e cbdc 98be 3584 a3bd
00000010: 58ed 97be 3843 873e de51 23be 2386 f93e
00000020: 0a5b ad3e 05bb c8be 16c8 bbbe 6563 87bd
00000030: f9ed 09bf ac9a b5be 2c0f 16be 5df0 5a3e
00000040: f695 36be f3c0 75be bbea b7bd 9938 41be
00000050: 84e3 c4be 2211 36bf 8453 463e b52c 0cbf
00000060: fb6a 783e 6dd0 07bf 4d2f 10bf 3ec7 29bf
00000070: 288a f3bd fde6 05be bc93 8bbc 5354 86be
00000080: a6a3 a33e f1f7 0bbe 58f5 b5be 70ed dd3e
00000090: 5b38 273e 4fc2 f03d 255e 99be 3493 113f
000000a0: 6c9d 06bf ec1d b6be 249b f23d a575 adbe
000000b0: 5b28 f5bd d0dd a63e 674c b0be a166 d6be
000000c0: ab13 fdbd 2483 b33e 1296 2f3e ae39 c5be
000000d0: f8ab 7fbe d779 f73e b790 93be 7aa1 9fbe
000000e0: a53c e83b a735 dcbe 4791 0fbe 44f4 ce3e
000000f0: cba6 05bf bf71 40be b99d 933e 82f3 b4be

net.2.weight f4 [64, 64]
-0.18774211 -0.17229062 0.4175053 0.12041561 0.025860975 -0.1586354 -0.49164233 -0.27799696
-0.104638375 0.041631352 -0.045645013 -0.256905 -0.28458762 -0.05892125 -0.16932398 -0.10374381
-0.068905205 -0.572667 -0.15083928 -0.22377665 0.0015980221 0.07134684 -0.6502472 -0.8274642
0.23111497 -0.47951734 0.6229145 0.2406443 -0.4594195 -0.0012380277 0.089299016 0.13166706
-0.6527404 0.07165936 -0.31353188 0.05354787 -0.11750436 -0.08049068 -0.22609107 -0.20427346
0.0771422 -0.25749597 0.013850371 -0.14283413 0.032602597 0.5082071 0.07274054 0.07265685
-0.054143187 -0.16465238 -0.10664909 -0.493366 -0.09880707 -0.13739906 0.108545355 0.123713195
-0.044930216 -0.4356222 -0.004822993 -0.5097989 1.5351144 -0.009862494 -0.22889304 0.4478578
0.09366082 0.11601875 -0.20061609 0.19812562 0.012940978 0.058353093 -0.003886217 -0.15345143
-0.14806084 -0.011613441 -0.08755711 -0.09203189 0.11492277 -0.08927897 0.044355012 -0.12404926
0.048947744 0.036682203 -0.048588973 -0.13937981 -0.06758729 -0.03584855 -0.0059217573 -0.14797428
-0.07413755 0.0523679 0.16322944 -0.16346876 -0.08944527 -0.08364359 -0.05889894 -0.051157713
-0.17763756 0.0232781 -0.058773264 -0.0371661 -0.21427932 0.16839968 0.24844272 -0.21916829
-0.009869558 -0.057510775 -0.0718202 0.022835836 0.09274187 -0.0025562812 -0.17238577 -0.18070182
0.19361883 -0.16435985 -0.13248888 -0.052633677 -0.034358826 -0.014575675 0.14186065 -0.07543046
-0.20120208 -0.06164392 0.19217385 0.10707294 0.14705963 -0.10375487 -0.20471767 0.095685154
-0.19114982 -0.69658846 -0.3528636 -0.9271115 -0.09196377 -0.59392536 0.06125778 -0.15997998
-0.16857265 0.72599685 2.532238 -0.43442154 1.3446218 -0.76564986 0.11287838 -0.3590749
-0.27295488 -0.04728055 0.015775105 -0.44514647 -0.4139307 -0.08929198 -0.27331296 0.65148807
-0.3795439 0.04013762 0.53535783 -0.16320513 0.010712436 0.11826578 -0.6897622 0.059315152
-0.29680598 0.14905906 0.13252677 -0.47555414 0.63269585 -0.20098346 0.32524985 -0.15405366
1.2815872 0.9335711 -0.077453285 -0.06467134 0.07529325 -0.32120308 0.29311278 -0.2238455
-0.10339166 0.045863174 -0.79492766 0.855639 0.16352463 -0.137303 -0.034593474 -0.48476937
-1.0617425 -0.2861718 -0.071572475 -0.88533145 0.6874082 -0.060106516 -0.8427449 0.33890635
-0.026352093 0.060110178 -0.05137488 0.053709447 -0.09235129 -0.03643665 0.0295707 -0.10574179
-0.08976323 -0.063362956 -0.014516237 -0.0122992275 0.10494279 -0.09030105 -0.110042036 0.009613962
0.02576116 -0.09252936 0.11938044 -0.17810327 -0.0348841 -0.053519167 0.024502046 -0.084581904
-0.2072215 0.042651437 -0.044341054 0.06742796 0.15460575 0.017775748 0.029815016 -0.12432118
-0.03056374 0.25245893 0.008007982 -0.21012884 -0.051550504 -0.11973347 -0.04103769 -0.17597046
-0.02778625 0.052191466 -0.009953035 -0.07509329 0.0034892638 -0.044998974 -0.05800569 0.07051115
0.22355683 -0.04667857 -0.09311021 -0.1372804 -0.06060417 0.036329653 -0.028925616 -0.0037011318
-0.0026265222 -0.06386637 -0.05734097 -0.15027995 -0.043272898 0.0032300928 0.10984304 0.08271979
00000000: 783f 40be f46c 30be 41c3 d53e 769c f63d
00000010: 65da d33c 5171 22be 8bb8 fbbe 9e55 8ebe
00000020: a54c d6bd a385 2a3d 44f6 3abd 0d89 83be
00000030: 78b5 91be 6957 71bd 4463 2dbe a277 d4bd
00000040: 2c1e 8dbd 4e9a 12bf 9d75 1abe b525 65be
00000050: b974 d13a 4b1e 923d 9a76 26bf b2d4 53bf
00000060: 67a9 6c3e 4c83 f5be 5377 1f3f 766b 763e
00000070: 0839 ebbe 5145 a2ba 67e2 b63d bbd3 063e
00000080: ff19 27bf 24c2 923d 4087 a0be 0355 5b3d
00000090: 20a6 f0bd 4cd8 a4bd 6b84 67be 102d 51be
000000a0: bbfc 9d3d 83d6 83be abec 623c 1c43 12be
000000b0: 4d8a 053d dc19 023f fef8 943d 1dcd 943d
000000c0: 3fc5 5dbd a29a 28be d76a dabd 789a fcbe
000000d0: 5c5b cabd 57b2 0cbe 074d de3d 585d fd3d
000000e0: bf08 38bd df09 dfbe 330a 9ebb 2e82 02bf
000000f0: a17e c43f 4c96 21bc f062 6abe 9e4d e53e
00000100: 3ed1 bf3d 3d9b ed3d 4e6e 4dbe 71e1 4a3e
00000110: 6506 543c a703 6f3d e7af 7ebb 5f22 1dbe
00000120: 439d 17be 4d46 3ebc 2451 b3bd 377b bcbd
00000130: a15c eb3d e5d7 b6bd 9aad 353d 8a0d febd
00000140: 6e7d 483d 1440 163d 3b05 47bd 95b9 0ebe
00000150: 356b 8abd eed5 12bd 4d0b c2bb 9286 17be
00000160: 6ed5 97bd b97f 563d 9e25 273e 5b64 27be
00000170: 152f b7bd 554d abbd 0440 71bd c08a 51bd
00000180: 9fe6 35be b7b1 be3c 3cbc 70bd 7b3b 18bd
00000190: 0a6c 5bbe f770 2c3e c567 7e3e a76d 60be
000001a0: edb3 21bc 6b90 6bbd 7816 93bd 3812 bb3c
000001b0: 73ef bd3d 4887 27bb e585 30be e609 39be
000001c0: 0444 463e f34d 28be 2aab 07be 6996 57bd
000001d0: d7bb 0cbd d0ce 6ebc eb43 113e 497b 9abd
000001e0: eb07 4ebe 567e 7cbd 39c9 443e 0f49 db3d
000001f0: cd96 163e 6f7d d4bd 82a1 51be 94f6 c33d
00000200: c7bc 43be 9f53 32bf 8aaa b4be 2e57 6dbf
00000210: 8057 bcbd 7e0b 18bf 70e9 7a3d cbd1 23be
00000220: 4f9e 2cbe eeda 393f 3010 2240 806c debe
00000230: 911c ac3f a101 44bf c82c e73d aad8 b7be
00000240: bec0 8bbe 40a9 41bd cb3a 813c 3dea e3be
00000250: baee d3be b7de b6bd adef 8bbe ecc7 263f
00000260: 9453 c2be 5867 243d 360d 093f 3f1f 27be
00000270: 3783 2f3c 5435 f23d 4194 30bf 72f4 723d
00000280: f4f6 97be f0a2 183e 19b5 073e d57b f3be
00000290: 5bf8 213f 9cce 4dbe 2687 a63e 3ec0 1dbe
000002a0: 0d0b a43f 84fe 6e3f d49f 9ebd 6872 84bd
000002b0: 5933 9a3d bb74 a4be e112 963e c137 65be
000002c0: 02bf d3bd 06db 3b3d 6180 4bbf 280b 5b3f
000002d0: 0073 273e 2899 0cbe e3b1 0dbd b133 f8be
000002e0: 2ee7 87bf 1c85 92be 9794 92bd 15a5 62bf
000002f0: fcf9 2f3f 4032 76bd 21be 57bf 2285 ad3e
00000300: 58e0 d7bc 1736 763d 776e 52bd 70fe 5b3d
00000310: ac22 bdbd 993e 15bd 413e f23c 278f d8bd
00000320: c9d5 b7bd 70c4 81bd 83d5 6dbc b382 49bc
00000330: 3fec d63d c2ef b8bd b85d e1bd e183 1d3c
00000340: 1109 d33c 0880 bdbd bb7d f43d b460 36be
00000350: a1e2 0ebd ea36 5bbd 84b8 c83c 4739 adbd
00000360: df31 54be 46b3 2e3d f79e 35bd ac17 8a3d
00000370: f850 1e3e 729e 913c 9f3e f43c 1a9c febd
00000380: cf60 fabc 4c42 813e e933 033c 042c 57be
00000390: 9f26 53bd d236 f5bd 2317 28bd 9a31 34be
000003a0: fd9f e3bc b8c6 553d 0e12 23bc 83ca 99bd
000003b0: 22ac 643b d850 38bd 6097 6dbd 2668 903d
000003c0: 15ec 643e 0732 3fbd 91b0 bebd 3c93 0cbe
000003d0: 143c 78bd 67ce 143d 6af5 ecbc b08e 72bb
000003e0: bb21 2cbb 5fcc 82bd 5dde 6abd fde2 19be
000003f0: ec3e 31bd f7af 533b 63f5 e03d fe68 a93d

net.2.bias f4 [64]
-0.13802075 0.06387478 -0.24542946 -0.10025094 0.5329748 0.42352268 -0.17006324 0.32252577
-0.13666475 0.6842094 0.16444266 0.44810927 0.4987298 0.34924558 -0.30973616 0.0759189
-0.12325316 0.419761 -0.0032668354 0.46195623 0.009722281 -0.05459223 0.5148838 0.39443073
0.46898142 0.04312714 0.29314634 0.15786001 -0.04415113 0.36526105 -0.12400683 0.5282811
-0.17397687 0.42227888 -0.091299035 -0.0559136 0.51089805 -0.07622966 0.41222435 0.49606058
-0.30050722 0.40358666 -0.07201812 -0.12982598 0.5307643 0.4276896 -0.11663939 0.5074376
-0.06565319 -0.07981146 0.6018774 0.54725105 -0.12011685 -0.0752929 -0.10873567 0.4756791
-0.04656887 0.5585155 -0.13788843 -0.104109205 0.55343515 -0.15997157 0.44278458 0.34266058
00000000: 5055 0dbe c8d0 823d dc51 7bbe 5d50 cdbd
00000010: 0971 083f f7d7 d83e 0f25 2ebe 1922 a53e
00000020: d8f1 0bbe 5928 2f3f a863 283e 946e e53e
00000030: 8359 ff3e 51d0 b23e bd95 9ebe 5e7b 9b3d
00000040: 276c fcbd eaea d63e 6718 56bb 8785 ec3e
00000050: 344a 1f3c 1a9c 5fbd 6dcf 033f d3f2 c93e
00000060: 551e f03e 15a6 303d 4717 963e 0ea6 213e
00000070: d1d7 34bd 7f03 bb3e 4bf7 fdbd 6e3d 073f
00000080: fe26 32be f034 d83e fdfa babd a905 65bd
00000090: 37ca 023f 4c1e 9cbd 120f d33e a7fb fd3e
000000a0: 15dc 99be e9a2 ce3e 3c7e 93bd 1af1 04be
000000b0: 2be0 073f 22fa da3e a2e0 eebd 6ee7 013f
000000c0: 2e75 86bd 3174 a3bd a314 1a3f a518 0c3f
000000d0: d3ff f5bd 2a33 9abd cfb0 debd 368c f33e
000000e0: 00bf 3ebd dffa 0e3f a032 0dbe 3537 d5bd
000000f0: edad 0d3f 96cf 23be a9b4 e23e 3571 af3e

net.4.weight f4 [2, 64]
-0.59509045 -0.10493792 -2.35854 0.16123834 0.811429 0.9729374 -3.3270988 0.77234566
0.24948765 1.0208637 -2.4828064 0.90693176 0.47579908 1.0610546 -1.9605434 0.017211234
0.06633747 0.7287791 0.07433747 1.2032628 -0.039378945 -0.121716924 0.61190903 1.1331756
1.3004574 -0.022441203 0.92344344 -0.08791899 0.074865706 1.1669012 -2.7629316 0.9814237
-3.6944041 0.4427948 -1.231727 -2.7458327 0.8574555 0.21101311 0.8503527 0.77083397
-0.28086624 0.7939386 0.32333392 -0.038067803 0.011438996 0.8055081 0.04271838 0.80893856
-0.01310399 -0.027985755 1.0041658 0.95093614 -0.06692429 -1.9705373 -0.025236353 0.7895547
0.009622459 0.9883064 -0.0048479703 -0.07687066 0.7233577 -0.0016506136 0.3789839 0.9067483
0.8070111 0.021001467 -1.5844777 -0.1367548 0.9514792 0.8956044 -3.7887 0.4551654
-0.25028026 0.9876875 -2.2015765 0.39092723 0.9623542 0.36495566 -2.8149467 -0.13689707
0.16420554 1.0299226 -0.081221916 0.86784434 0.020490913 -0.14284658 1.0338056 1.1869484
0.4982589 -0.1459074 0.6942193 0.0077993246 -0.0044440418 0.5004813 -2.2418613 1.4059577
-4.3258734 0.9606743 -1.2324103 -1.4846771 0.8882528 0.060121667 0.82920027 0.56138194
-2.8374476 0.6035027 -0.2067038 0.08284659 1.1247245 0.20389211 0.025382569 0.77420866
-0.008171068 0.03247036 0.96892726 1.2405691 -0.15183333 -2.6210876 0.07886565 0.7031223
0.040825855 0.21334669 0.049574915 0.003975174 0.82881683 0.1178455 1.010469 0.56444615
00000000: d957 18bf b1e9 d6bd 52f2 16c0 aa1b 253e
00000010: d0b9 4f3f 6d12 793f 30ef 54c0 72b8 453f
00000020: b179 7f3e a9ab 823f 4de6 1ec0 ae2c 683f
00000030: f09b f33e a3d0 873f 16f3 fabf 93fe 8c3c
00000040: f1db 873d 4491 3a3f 3e3e 983d 8404 9a3f
00000050: d14b 21bd b946 f9bd 12a6 1c3f e60b 913f
00000060: 6375 a63f 9dd6 b7bc ca66 6c3f df0e b4bd
00000070: 3153 993d 055d 953f dfd3 30c0 953e 7b3f
00000080: 1e71 6cc0 00b6 e23e 3ba9 9dbf b9bb 2fc0
00000090: 3482 5b3f d213 583e b7b0 593f 6055 453f
000000a0: b3cd 8fbe 8f3f 4b3f 068c a53e fcec 1bbd
000000b0: a06a 3b3c c735 4e3f 78f9 2e3d 9916 4f3f
000000c0: 1eb2 56bc 6242 e5bc 8188 803f 8d70 733f
000000d0: 9a0f 89bd 913a fcbf 78bc cebc 4220 4a3f
000000e0: 85a7 1d3c a601 7d3f b9db 9ebb 5d6e 9dbd
000000f0: f82d 393f 6759 d8ba 2e0a c23e a820 683f
00000100: 4898 4e3f 450b ac3c 2ad0 cabf 7309 0cbe
00000110: 2494 733f 5446 653f 107a 72c0 700b e93e
00000120: bc24 80be 17d9 7c3f a1e6 0cc0 9d27 c83e
00000130: d85c 763f 78db ba3e 1628 34c0 bf2e 0cbe
00000140: 7f25 283e 81d4 833f ad57 a6bd 0c2b 5e3f
00000150: 8fdc a73c 6046 12be be53 843f eded 973f
00000160: ca1b ff3e c068 15be 5bb8 313f 7a91 ff3b
00000170: 539f 91bb 8b1f 003f a87a 0fc0 6cf6 b33f
00000180: 8e6d 8ac0 c0ee 753f 9fbf 9dbf e609 bebf
00000190: 8964 633f 2342 763d 7846 543f bab6 0f3f
000001a0: be98 35c0 277f 1a3f 29aa 53be 79ab a93d
000001b0: f9f6 8f3f 18c9 503e 1bef cf3c 8a32 463f
000001c0: f1df 05bc a4ff 043d 9e0b 783f f8ca 9e3f
000001d0: 327a 1bbe e6bf 27c0 5084 a13d d3ff 333f
000001e0: 0339 273d 8e77 5a3e 110f 4b3d 2d42 823b
000001f0: 572d 543f fb58 f13d 0c57 813f 8b7f 103f

net.4.bias f4 [2]
0.40681782 0.20891725
00000000: 6d4a d03e 67ee 553e

net.0.weight f4 [64, 4]
-0.038952168 0.10894691 0.05980425 -0.020514835 0.09474136 -0.083618954 0.2665539 -0.033736203
-0.10065462 0.06080568 1.8037503 0.16911414 -0.20593193 -0.04455644 1.1526297 0.13748504
-0.083857104 -0.02056865 0.04853872 0.0027877537 0.21167427 -0.26123697 -0.99274355 -0.1655199
-0.07215619 0.098781325 -0.5631055 0.09453837 -0.10741733 0.0063522267 -0.002319533 0.029530428
0.0004464181 -0.07763108 0.027430555 -0.03965987 -0.22520122 0.002864071 -0.01263548 0.09686616
-0.14415547 -0.057801425 -1.2724532 -0.06811323 0.08362331 -0.0041420576 -1.147099 0.32870165
-0.2712806 -0.047199886 0.82278734 0.004812857 -0.086468205 0.20055057 0.92472184 -0.27500325
0.026823418 -0.008666431 -0.18595326 -0.021548405 0.022786407 -0.019911025 0.35569447 0.0656377
-0.1756755 -0.043779455 -1.0661131 0.28057286 0.2853166 -0.011934174 -0.49453357 -0.03249294
0.048201207 -0.042485856 -0.09614164 -0.03220852 -0.21213523 -0.17295155 -0.35164288 -0.13127163
0.06544382 0.13150154 -0.49760988 -0.03553197 0.33684257 0.10172985 -0.16196887 0.056907378
0.097947344 -0.21845806 -0.8508798 -0.17885642 0.26888663 0.046521463 -0.95645815 0.0016040652
-0.085144594 0.11341482 1.2513349 0.121615164 -0.18002145 -0.06890609 -0.22692718 0.22245474
0.12489767 0.12670231 0.88412184 0.10319847 0.4872368 -0.012711185 0.32197762 -0.023490889
0.3085819 -0.25909483 0.9856448 0.055035334 0.01168902 -0.16780552 -0.12858589 -0.30352125
-0.24742648 0.19579749 0.718456 -0.028657783 -0.028540779 -0.020619314 0.029088771 -0.0708022
0.027477896 -0.00021835692 -1.0066477 -0.1186192 -0.0034265488 0.05676491 -0.018623877 0.05013916
-0.08342854 -0.0071427585 0.7444234 0.30371764 0.10747802 -0.016431194 -0.10805636 0.014332979
0.027836788 -0.07744288 -1.6753443 -0.22424299 -0.08572448 0.054461874 1.0025804 0.0430983
-0.048591614 0.06550632 -0.20835271 0.16058847 0.09953343 -0.090884134 -0.05837913 -0.009399834
-0.17353462 -0.079304814 -0.225103 -0.089974485 0.2729925 -0.1686127 -1.8294715 -0.22208245
-0.14961329 0.16819814 1.1178116 0.073030286 -0.17662293 0.28038403 0.4000079 0.04195158
0.010159314 -0.059214305 -0.11306882 -0.043206334 0.03735242 0.14538112 1.1949539 0.2505654
0.12919673 -0.12250671 -1.9127132 -0.3089618 0.21052447 -0.1889044 -0.22668605 0.04944003
-0.010749433 0.04419214 -0.0015492332 0.03888881 -0.102302074 0.035168137 -0.24898879 0.00026386
0.084234625 -0.08085795 -0.65150577 -0.10662364 -0.611237 -0.07220895 1.064731 0.11319273
-0.056792807 0.12840399 1.0481539 0.19683622 -0.037513833 -0.055425443 0.2270547 -0.011487111
0.037022855 0.015474828 -0.05165679 0.018036043 -0.1744222 0.22431925 0.82204276 -0.0633551
0.21486387 -0.17043537 -0.86843264 0.30912608 0.03595828 -0.119886145 -0.44318292 0.049156927
-0.029093241 0.08234911 -0.072305724 0.045802113 0.11849823 -0.0661504 -0.62866765 -0.19347721
0.1172888 -0.012444727 1.0229617 0.018559972 -0.024131896 0.01595562 -0.056990664 -0.029241506
0.15331012 -0.15980114 -1.2369722 -0.15657777 0.17154382 -0.12511697 0.41979292 -0.0063490653
00000000: 4f8c 1fbd 8f1f df3d 4df5 743d ba0e a8bc
00000010: c207 c23d 6a40 abbd c179 883e f92e 0abd
00000020: 0224 cebd 600f 793d 4ae1 e63f 422c 2d3e
00000030: d2df 52be d080 36bd 5f89 933f e1c8 0c3e
00000040: 46bd abbd 967f a8bc 89d0 463d bfb2 363b
00000050: 24c1 583e dac0 85be 7124 7ebf 0c7e 29be
00000060: a0c6 93bd dd4d ca3d af27 10bf 559d c13d
00000070: 9efd dbbd 5726 d03b 4e03 18bb cce9 f13c
00000080: 390d ea39 0bfd 9ebd 0bb6 e03c 6372 22bd
00000090: 269b 66be 23b3 3b3b 0b05 4fbc c461 c63d
000000a0: 7e9d 13be 30c1 6cbd bfdf a2bf f37e 8bbd
000000b0: b342 ab3d 19ba 87bb 24d4 92bf 954b a83e
000000c0: 4ae5 8abe ab54 41bd 31a2 523f 2cb5 9d3b
000000d0: 3e16 b1bd 215d 4d3e 92ba 6c3f 3acd 8cbe
000000e0: c9bc db3c a5fd 0dbc 886a 3ebe 4886 b0bc
000000f0: 8faa ba3c 721c a3bc 961d b63e 0f6d 863d
00000100: 47e4 33be 1652 33bd 6576 88bf 3fa7 8f3e
00000110: 0415 923e 8e87 43bc 8133 fdbe 5117 05bd
00000120: a16e 453d a605 2ebd e8e5 c4bd 15ed 03bd
00000130: fa39 59be 361a 31be 890a b4be 126c 06be
00000140: 6907 863d 57a8 063e b9c6 febe f989 11bd
00000150: a176 ac3e bd57 d03d 2bdb 25be b617 693d
00000160: 9e98 c83d 78b3 5fbe 42d3 59bf 2326 37be
00000170: 82ab 893e 4a8d 3e3d 71da 74bf 7f3f d23a
00000180: 4a60 aebd 0746 e83d be2b a03f 5f11 f93d
00000190: 8b57 38be a31e 8dbd 995f 68be 2dcb 633e
000001a0: 59ca ff3d 40be 013e cf55 623f b859 d33d
000001b0: 1a77 f93e 9342 50bc 40da a43e f76f c0bc
000001c0: 72fe 9d3e 14a8 84be 3853 7c3f bb6c 613d
000001d0: 4e83 3f3c 36d5 2bbe 05ac 03be 2367 9bbe
000001e0: 5e5d 7dbe 237f 483e bbec 373f bac3 eabc
000001f0: 5ace e9bc d6e9 a8bc 934b ee3c be00 91bd
00000200: 5319 e13c bdf6 64b9 d5d9 80bf a0ee f2bd
00000210: f38f 60bb 5382 683d 1a91 98bc b85e 4d3d
00000220: 95dc aabd cd0d eabb 8892 3e3f e180 9b3e
00000230: 701d dc3d b69a 86bc a74c ddbd dfd4 6a3c
00000240: fa09 e43c 5f9a 9ebd af71 d6bf f49f 65be
00000250: 5190 afbd 6a13 5f3d 8e54 803f d887 303d
00000260: 0008 47bd 2d28 863d 6a5a 55be 4e71 243e
00000270: 2fd8 cb3d 7621 babd f41e 6fbd c301 1abc
00000280: 0fb3 31be 906a a2bd 6781 66be 8b44 b8bd
00000290: acc5 8b3e cfa8 2cbe 1f2c eabf 9569 63be
000002a0: 3a34 19be 223c 2c3e 7314 8f3f e790 953d
000002b0: a4dc 34be 7f8e 8f3e d6cd cc3e 6cd5 2b3d
000002c0: 4073 263c b38a 72bd a090 e7bd 20f9 30bd
000002d0: dafe 183d cade 143e 40f4 983f 1c4a 803e
000002e0: 264c 043e cce4 fabd c9d3 f4bf 3e30 9ebe
000002f0: ba93 573e 2870 41be 6320 68be a181 4a3d
00000300: 641e 30bc d102 353d a40f cbba df49 1f3d
00000310: c083 d1bd 770c 103d ebf6 7ebe b156 8a39
00000320: 3483 ac3d da98 a5bd 15c9 26bf 7f5d dabd
00000330: 077a 1cbf 49e2 93bd 1b49 883f 97d1 e73d
00000340: 939f 68bd 567c 033e e829 863f 6f8f 493e
00000350: 1ba8 19bd ca05 63bd 0781 683e 7034 3cbc
00000360: 47a5 173d 228a 7d3c 1296 53bd 53c0 933c
00000370: bc9b 32be f2b3 653e 6571 523f 52c0 81bd
00000380: 4605 5c3e 9c86 2ebe 9a51 5ebf c645 9e3e
00000390: fd48 133d de86 f5bd dfe8 e2be c658 493d
000003a0: f354 eebc a6a6 a83d 0615 94bd ff9a 3b3d
000003b0: 33af f23d dc79 87bd 5df0 20bf e41e 46be
000003c0: 1c35 f03d f8e4 4bbc 69f0 823f 150b 983c
000003d0: 41b0 c5bc 5cb5 823c 0b6f 69bd e28b efbc
000003e0: 54fd 1c3e e9a2 23be 1b55 9ebf ec55 20be
000003f0: 2fa9 2f3e aa1e 00be 19ef d63e d20b d0bb

net.0.bias f4 [64]
0.3729893 0.2560881 -0.2899686 -0.041432627 -0.29672712 0.2653272 -0.1594404 0.48119277
0.33386177 -0.371579 -0.36675668 -0.03968627 -0.5563633 -0.32499665 -0.14653966 0.21378566
-0.11332555 -0.23616049 -0.08980268 -0.2798276 -0.3718929 -0.71523404 0.19972768 -0.5542027
0.21268694 -0.5447467 -0.56683356 -0.66203624 -0.1149498 -0.17732589 0.010626129 -0.26235905
0.3064145 -0.13668801 -0.37425035 0.42672718 0.17399338 0.048916835 -0.29954642 0.56141144
-0.52583414 -0.36967057 0.08288678 -0.31944183 -0.11970588 0.32077053 -0.38501355 -0.37406695
-0.123567685 0.344831 0.17123844 -0.3915916 -0.22880928 0.4766131 -0.28821346 -0.25919747
0.03208292 -0.39596868 -0.14020069 0.39322114 -0.52205306 -0.18793215 0.28856942 -0.35341716
00000000: 74f8 be3e fb1d 833e c476 94be 42b5 29bd
00000010: 9eec 97be f7d8 873e 5844 23be e65e f63e
00000020: eeef aa3e 9a3f bebe 88c7 bbbe 128e 22bd
00000030: d36d 0ebf f665 a6be 7e0e 16be a1ea 5a3e
00000040: 3a17 e8bd 0ed4 71be 78ea b7bd 9045 8fbe
00000050: bf68 bebe 9419 37bf 6a85 4c3e 3ae0 0dbf
00000060: 9bca 593e 8574 0bbf 011c 11bf 357b 29bf
00000070: cd6a ebbd eb94 35be 3719 2e3c ed53 86be
00000080: 5de2 9c3e f1f7 0bbe be9d bfbe fc7b da3e
00000090: 522b 323e 055d 483d 265e 99be a9b8 0f3f
000000a0: 119d 06bf 7645 bdbe 8bc0 a93d e18d a3be
000000b0: 5b28 f5bd 093c a43e 7f20 c5be b485 bfbe
000000c0: 0e11 fdbd b08d b03e 2159 2f3e b27e c8be
000000d0: fb4c 6abe a206 f43e b790 93be 88b5 84be
000000e0: 6169 033d 68bc cabe c590 0fbe 4854 c93e
000000f0: 45a5 05bf 4971 40be 5fbf 933e 18f3 b4be

net.2.weight f4 [64, 64]
-0.18774141 -0.1722889 0.41750413 0.12041714 0.025860975 -0.15863346 -0.49164045 -0.27799335
-0.10463829 0.041631278 -0.04564565 -0.25690523 -0.28458565 -0.058921855 -0.16932355 -0.10374273
-0.06890379 -0.57266414 -0.15083928 -0.2237784 0.0015980463 0.07134757 -0.6502456 -0.8274623
0.23111573 -0.47951686 0.6229227 0.24064653 -0.45941815 -0.0012380277 0.089300506 0.13166706
-0.6527371 0.07165936 -0.3135297 0.05354849 -0.11750397 -0.08048945 -0.22609107 -0.20427278
0.07714115 -0.2574953 0.013850549 -0.14283521 0.032602597 0.5082195 0.07274083 0.072657384
-0.054143187 -0.16465054 -0.10664846 -0.49336302 -0.09880597 -0.13739629 0.10854538 0.12371477
-0.044929653 -0.43561798 -0.004822993 -0.5097931 1.535119 -0.009862494 -0.22889249 0.44786078
0.093662076 0.1160198 -0.20061602 0.19812751 0.012940978 0.05835263 -0.0038862033 -0.15345082
-0.14805958 -0.011613324 -0.08755708 -0.092031896 0.11492159 -0.08927816 0.044355012 -0.12404856
0.048948497 0.036682595 -0.048588973 -0.13937815 -0.06758652 -0.035848875 -0.0059217736 -0.14797315
-0.07413708 0.052368317 0.16322897 -0.16346739 -0.08944654 -0.08364359 -0.058898762 -0.051157713
-0.17763543 0.0232781 -0.058772847 -0.037165396 -0.21427742 0.16840264 0.24844283 -0.21916799
-0.0098697 -0.057510715 -0.071819946 0.022835493 0.09274187 -0.0025562735 -0.17238426 -0.18069911
0.19361883 -0.16435848 -0.13248785 -0.052634303 -0.0343595 -0.014575678 0.1418607 -0.0754305
-0.20120014 -0.061644297 0.19217598 0.107073136 0.14705822 -0.10375487 -0.20471683 0.09568418
-0.19114782 -0.6965823 -0.35286283 -0.9271213 -0.09196335 -0.59391916 0.061258357 -0.15997754
-0.16857253 0.7260031 2.5322225 -0.43442586 1.3446462 -0.7656522 0.112878636 -0.35907364
-0.2729508 -0.047281057 0.015775105 -0.44514284 -0.41392785 -0.08929157 -0.27330843 0.6514854
-0.3795419 0.040138178 0.5353516 -0.16320513 0.010712705 0.1182669 -0.6897516 0.059315246
-0.2968046 0.14905906 0.13252956 -0.47555315 0.63269794 -0.20098259 0.32524797 -0.15405282
1.2816083 0.9335824 -0.077452585 -0.06467036 0.07529325 -0.32120082 0.29310912 -0.22384694
-0.10339166 0.045863952 -0.7949181 0.85564333 0.16352698 -0.13730092 -0.034593474 -0.48477396
-1.0617386 -0.28617707 -0.0715711 -0.88532656 0.68740314 -0.060106516 -0.84274495 0.3389034
-0.026351798 0.060110968 -0.051374413 0.053709447 -0.09235129 -0.036435984 0.029570824 -0.10574098
-0.08976245 -0.063362956 -0.014516237 -0.012299151 0.10494376 -0.09030105 -0.110042036 0.009614144
0.025761338 -0.092528105 0.11938044 -0.17810333 -0.034884024 -0.053519167 0.024502188 -0.084581904
-0.20722023 0.042652003 -0.044341058 0.06742796 0.15460713 0.017775748 0.029815016 -0.12432125
-0.030563615 0.25245893 0.008008171 -0.21012893 -0.051550504 -0.119733185 -0.04103769 -0.17596948
-0.02778625 0.052191466 -0.0099529615 -0.07509329 0.0034892638 -0.044998944 -0.05800569 0.07051162
0.22355683 -0.046678305 -0.09310925 -0.13728006 -0.0606042 0.036330182 -0.028925616 -0.0037011318
-0.0026264142 -0.06386718 -0.05734097 -0.15027985 -0.043272898 0.0032300928 0.10984327 0.08271979
00000000: 493f 40be 806c 30be 1ac3 d53e 439d f63d
00000010: 65da d33c cf70 22be 4cb8 fbbe 2555 8ebe
00000020: 9a4c d6bd 8f85 2a3d eff6 3abd 1589 83be
00000030: 36b5 91be 0b58 71bd 2763 2dbe 1277 d4bd
00000040: 6e1d 8dbd 1e9a 12bf 9d75 1abe 2a26 65be
00000050: 8975 d13a ad1e 923d 7f76 26bf 92d4 53bf
00000060: 9aa9 6c3e 3c83 f5be dd77 1f3f 0b6c 763e
00000070: db38 ebbe 5145 a2ba 2fe3 b63d bbd3 063e
00000080: c719 27bf 24c2 923d f786 a0be a955 5b3d
00000090: eca5 f0bd a7d7 a4bd 6b84 67be e22c 51be
000000a0: 2efc 9d3d 6dd6 83be 6aed 623c 6543 12be
000000b0: 4d8a 053d ac1a 023f 25f9 943d 65cd 943d
000000c0: 3fc5 5dbd 279a 28be 826a dabd 149a fcbe
000000d0: c95a cabd 9db1 0cbe 0a4d de3d 2b5e fd3d
000000e0: 2808 38bd 5209 dfbe 330a 9ebb cd81 02bf
000000f0: c87e c43f 4c96 21bc cb62 6abe 024e e53e
00000100: e7d1 bf3d ca9b ed3d 496e 4dbe f0e1 4a3e
00000110: 6506 543c 2b03 6f3d acaf 7ebb 3622 1dbe
00000120: ee9c 17be d045 3ebc 2051 b3bd 387b bcbd
00000130: 035c eb3d 78d7 b6bd 9aad 353d 2c0d febd
00000140: 387e 483d 7d40 163d 3b05 47bd 25b9 0ebe
00000150: cd6a 8abd 45d6 12bd 700b c2bb 4686 17be
00000160: 2ed5 97bd 2980 563d 7f25 273e ff63 27be
00000170: bf2f b7bd 554d abbd d43f 71bd c08a 51bd
00000180: 10e6 35be b7b1 be3c ccbb 70bd be3a 18bd
00000190: 8a6b 5bbe be71 2c3e cc67 7e3e 936d 60be
000001a0: 86b4 21bc 5b90 6bbd 5616 93bd 8011 bb3c
000001b0: 73ef bd3d 2787 27bb 8085 30be 3009 39be
000001c0: 0444 463e 974d 28be e5aa 07be 1197 57bd
000001d0: 8cbc 0cbd d3ce 6ebc ee43 113e 4e7b 9abd
000001e0: 6907 4ebe bb7e 7cbd c8c9 443e 2949 db3d
000001f0: 6e96 163e 6f7d d4bd 4aa1 51be 11f6 c33d
00000200: 41bc 43be 3853 32bf 70aa b4be d257 6dbf
00000210: 4857 bcbd 160b 18bf 0bea 7a3d 27d1 23be
00000220: 479e 2cbe 57db 393f ef0f 2240 116d debe
00000230: 5e1d ac3f c801 44bf ea2c e73d 80d8 b7be
00000240: 35c0 8bbe c8a9 41bd cb3a 813c c3e9 e3be
00000250: 5aee d3be 80de b6bd 15ef 8bbe bfc7 263f
00000260: 5153 c2be ee67 243d cd0c 093f 3f1f 27be
00000270: 5784 2f3c eb35 f23d 9093 30bf 8bf4 723d
00000280: c6f6 97be f0a2 183e d4b5 073e b47b f3be
00000290: 7ef8 213f 61ce 4dbe e786 a63e 06c0 1dbe
000002a0: be0b a43f 42ff 6e3f 769f 9ebd e571 84bd
000002b0: 5933 9a3d 6f74 a4be 6612 963e 2238 65be
000002c0: 02bf d3bd d7db 3b3d c17f 4bbf 710b 5b3f
000002d0: 9e73 273e 9d98 0cbe e3b1 0dbd 4b34 f8be
000002e0: 0de7 87bf cd85 92be de93 92bd c3a4 62bf
000002f0: a7f9 2f3f 4032 76bd 22be 57bf bf84 ad3e
00000300: badf d7bc eb36 763d fa6d 52bd 70fe 5b3d
00000310: ac22 bdbd e63d 15bd 833e f23c ba8e d8bd
00000320: 60d5 b7bd 70c4 81bd 83d5 6dbc 6182 49bc
00000330: c1ec d63d c2ef b8bd b85d e1bd a584 1d3c
00000340: 7109 d33c 607f bdbd bb7d f43d b860 36be
00000350: 8de2 0ebd ea36 5bbd d0b8 c83c 4739 adbd
00000360: 8a31 54be deb3 2e3d f89e 35bd ac17 8a3d
00000370: 5551 1e3e 729e 913c 9f3e f43c 249c febd
00000380: 8c60 fabc 4c42 813e b434 033c 0a2c 57be
00000390: 9f26 53bd ac36 f5bd 2317 28bd 5831 34be
000003a0: fd9f e3bc b8c6 553d bf11 23bc 83ca 99bd
000003b0: 22ac 643b d050 38bd 6097 6dbd 6568 903d
000003c0: 15ec 643e c031 3fbd 10b0 bebd 2593 0cbe
000003d0: 1c3c 78bd f5ce 143d 6af5 ecbc b08e 72bb
000003e0: eb1f 2cbb cccc 82bd 5dde 6abd f6e2 19be
000003f0: ec3e 31bd f7af 533b 82f5 e03d fe68 a93d

net.2.bias f4 [64]
-0.13801916 0.06387612 -0.24542683 -0.100249894 0.52518696 0.410263 -0.17005882 0.3145829
-0.13666315 0.6734732 0.23207577 0.4390598 0.49015385 0.34016654 -0.31800005 0.07591925
-0.12325284 0.41092163 -0.0032668267 0.45524046 0.009722364 -0.054591574 0.5085864 0.38487065
0.46053305 0.043127354 0.28451338 0.15786156 -0.044151068 0.35355246 -0.12331962 0.51926583
-0.12899104 0.4137467 -0.09129876 -0.05591331 0.49997118 -0.0762292 0.40459818 0.48727104
-0.30050376 0.39476496 -0.07201813 -0.12982352 0.5229214 0.41965637 -0.11663939 0.4985546
-0.06565235 -0.07981146 0.59304935 0.5395747 -0.120116144 -0.030708862 -0.10873462 0.4687759
-0.04656878 0.55024666 -0.13788803 -0.10410781 0.5447309 -0.15997158 0.4343148 0.33199793
00000000: e554 0dbe 7cd1 823d 2c51 7bbe d14f cdbd
00000010: a772 063f fe0d d23e e623 2ebe 0311 a13e
00000020: 6df1 0bbe bd68 2c3f 45a5 6d3e 72cc e03e
00000030: 72f5 fa3e 4f2a ae3e e7d0 a2be 8d7b 9b3d
00000040: fc6b fcbd 5264 d23e 4218 56bb 4715 e93e
00000050: 8d4a 1f3c 6a9b 5fbd b832 023f c40d c53e
00000060: fdca eb3e 4fa6 303d bdab 913e 76a6 213e
00000070: c0d7 34bd d404 b53e ff8e fcbd 9bee 043f
00000080: 3a16 04be 9cd6 d33e d8fa babd 5b05 65bd
00000090: 39fc ff3e 0e1e 9cbd 7e27 cf3e 977b f93e
000000a0: a1db 99be a21e ca3e 3e7e 93bd 75f0 04be
000000b0: 2dde 053f 33dd d63e a2e0 eebd 8c42 ff3e
000000c0: bd74 86bd 3174 a3bd 15d2 173f 9121 0a3f
000000d0: 74ff f5bd 2791 fbbc 42b0 debd 6503 f03e
000000e0: e8be 3ebd f7dc 0c3f 8532 0dbe 7a36 d5bd
000000f0: 7c73 0b3f 97cf 23be 825e de3e a2fb a93e

net.4.weight f4 [2, 64]
-0.5950874 -0.10493929 -2.358558 0.16123834 0.8067858 0.95694256 -3.3269012 0.7811557
0.24948591 1.0206002 -2.4798188 0.9171412 0.4866576 1.0697086 -1.9934478 0.017211044
0.066337794 0.7437763 0.07433675 1.2078942 -0.039378967 -0.12171801 0.615811 1.1360857
1.3042046 -0.022440985 0.9154043 -0.08791917 0.074867226 1.1591408 -2.8322046 0.9967458
-3.7862253 0.45056626 -1.231731 -2.7457979 0.8562544 0.21101405 0.8542049 0.7777259
-0.2808663 0.8040154 0.32333463 -0.038068403 0.008666398 0.8055168 0.04271838 0.81972975
-0.013104186 -0.027985755 1.0048331 0.9539624 -0.0669249 -1.968364 -0.025236443 0.7849773
0.009622341 0.98478013 -0.0048479703 -0.07687066 0.7371933 -0.0016506136 0.38138974 0.91223145
0.8070178 0.021001158 -1.5844718 -0.13675553 0.95632327 0.908842 -3.788672 0.4722683
-0.2502846 0.991027 -2.2496364 0.40384668 0.97539026 0.37661675 -2.9878223 -0.13689858
0.16420554 1.0389284 -0.08122258 0.86427516 0.020490794 -0.14284714 1.0385709 1.1890631
0.51595503 -0.14590783 0.704215 0.007799322 -0.004444043 0.505019 -2.4033968 1.4128945
-4.333868 0.9809837 -1.2323987 -1.4846697 0.8920661 0.060121667 0.8327556 0.5772892
-2.8374462 0.61833566 -0.20670463 0.08284532 1.1362671 0.21657419 0.025382569 0.78729516
-0.008171152 0.03247036 0.9716599 1.2431053 -0.15183552 -2.6514359 0.078866705 0.7110708
0.04082587 0.23073153 0.04957509 0.003975122 0.8398078 0.1178455 1.0337704 0.56345963
00000000: a657 18bf 69ea d6bd 9df2 16c0 aa1b 253e
00000010: 8489 4e3f 30fa 743f f3eb 54c0 d2f9 473f
00000020: 3c79 7f3e 07a3 823f 5ab5 1ec0 c4c9 6a3f
00000030: 2f2b f93e 36ec 883f 4c29 ffbf 2dfe 8c3c
00000040: 1cdc 873d 2068 3e3f de3d 983d 479c 9a3f
00000050: d74b 21bd 4b47 f9bd caa5 1d3f 426b 913f
00000060: 2df0 a63f 28d6 b7bc f057 6a3f f70e b4bd
00000070: fd53 993d ba5e 943f d742 35c0 bc2a 7f3f
00000080: 8451 72c0 9fb0 e63e 5da9 9dbf 27bb 2fc0
00000090: 7d33 5b3f 1114 583e 2cad 5a3f 0b19 473f
000000a0: b5cd 8fbe f4d3 4d3f 1e8c a53e 9ded 1bbd
000000b0: 82fd 0d3c 5936 4e3f 78f9 2e3d cfd9 513f
000000c0: f1b2 56bc 6242 e5bc 5f9e 803f e136 743f
000000d0: ec0f 89bd 5af3 fbbf a8bc cebc 46f4 483f
000000e0: 06a7 1d3c 8d1a 7c3f b9db 9ebb 5d6e 9dbd
000000f0: b3b8 3c3f 6759 d8ba 8445 c33e 0088 693f
00000100: b898 4e3f 9f0a ac3c f9cf cabf a409 0cbe
00000110: 9ad1 743f dfa9 683f 9a79 72c0 27cd f13e
00000120: 4e25 80be f2b3 7d3f 0bfa 0fc0 fec4 ce3e
00000130: 2db3 793f e9d3 c03e 7b38 3fc0 242f 0cbe
00000140: 7f25 283e 9bfb 843f 0658 a6bd 2341 5d3f
00000150: 4fdc a73c 8546 12be e4ef 843f 3833 983f
00000160: a115 043f dd68 15be 6f47 343f 7491 ff3b
00000170: 569f 91bb ed48 013f 41d1 19c0 bad9 b43f
00000180: 0caf 8ac0 bf21 7b3f 3ebf 9dbf a809 bebf
00000190: 725e 643f 2342 763d 792f 553f 3ac9 133f
000001a0: b898 35c0 3f4b 1e3f 61aa 53be cfaa a93d
000001b0: 3371 913f a0c5 5d3e 1bef cf3c 2d8c 493f
000001c0: 4ce0 05bc a4ff 043d b4be 783f 131e 9f3f
000001d0: c57a 1bbe 20b1 29c0 de84 a13d bc08 363f
000001e0: 0739 273d e344 6c3e 400f 4b3d bd41 823b
000001f0: a5fd 563f fb58 f13d 9752 843f e43e 103f

net.4.bias f4 [2]
0.39754415 0.2002425
00000000: e88a cb3e 5f0c 4d3e

exp_avg f4 [64, 4]
-0.17780104 -0.44653854 -0.010667722 0.19420803 -0.09685342 -0.2523705 -0.0055051832 0.111123666
0.4502459 0.7857096 -0.12585692 -0.410088 0.0027165008 0.011284029 -0.0012705728 -0.013257066
-6e-45 -6e-45 -6e-45 6e-45 -0.08873611 -0.20791647 0.011813484 0.10493975
6e-45 6e-45 6e-45 6e-45 -0.2904767 -0.6997568 -0.014431561 0.29243037
-0.1496262 -0.37637565 -0.009585514 0.16126099 -3.8247353e-11 -1.1115651e-10 4.8051957e-12 7.294083e-11
-6e-45 -6e-45 -6e-45 -6e-45 -0.06302301 -0.09446277 0.010362577 0.047583275
0.9641957 1.4598575 -0.22772759 -0.5056567 -0.0083306935 -0.0060837064 -9.4073905e-05 -0.00013643566
6e-45 6e-45 6e-45 6e-45 -0.06589689 -0.15896635 -0.00544008 0.064663015
-0.017766504 -0.02658677 0.0035882576 0.0051684557 -0.097258784 -0.06070596 -0.004038751 -0.010278146
-6e-45 -6e-45 -6e-45 6e-45 0.056618683 0.11870827 -0.004207838 -0.025932472
0.0021893308 0.0023754495 0.00010315784 -0.0005815156 -1.1219002 -1.0681771 -0.0620319 -0.026938427
-0.0023894054 0.029840715 0.0044731004 -0.035524372 -0.018911352 -0.053954564 -0.00044018787 0.04962257
-0.05531487 -0.13196552 -0.0040329187 0.05838364 0.038237315 0.04843779 -0.009921947 -0.010886501
-0.2231939 -0.22567594 -0.010139911 0.030691005 -0.25988457 -0.2406621 -0.014708225 -0.011355966
0.018753128 0.046425253 -0.009359901 -0.027048359 0.025084008 0.043223813 -0.0033817897 -0.0036102794
-0.07926053 -0.19261488 0.0036830038 0.09614424 -6e-45 -6e-45 -6e-45 6e-45
-0.17279482 -0.43008894 -0.0050589307 0.18936174 0.0 0.0 0.0 0.0
0.10577587 0.21504809 -0.029938612 -0.14026445 -0.22524709 -0.56881607 -0.00977623 0.24812461
0.014054621 0.049201164 -0.0010455726 -0.043746807 -0.014923124 -0.0011325288 0.0015835117 -0.003808304
-6e-45 -6e-45 6e-45 6e-45 -0.3310174 -0.8337457 -0.016531471 0.36070758
-6e-45 -6e-45 -6e-45 -6e-45 0.0035642777 -0.05863006 -0.03269877 0.03569016
-0.02958853 -0.051712167 -0.0042140353 0.016226893 0.00043661948 0.0054227756 0.00038610582 -0.00348426
0.0 0.0 0.0 0.0 -0.1245491 -0.30109662 -0.011150867 0.12044991
0.019960418 0.06988122 0.010016621 0.040065043 -5.5909495e-06 -2.1207863e-05 2.1069015e-07 1.5868922e-05
-6e-45 -6e-45 -6e-45 -6e-45 -0.19967578 -0.47412747 -0.011258419 0.19548374
-0.047560822 -0.13162655 0.0022024969 0.06539063 0.058926784 0.10607652 -0.012184281 -0.04496654
-0.042685688 0.022259302 -0.012894366 -0.1030917 -0.27393335 -0.6869026 -0.015873346 0.29378477
0.0 0.0 0.0 0.0 3.707553e-05 -0.00060241687 -6.049214e-05 0.00046550998
-0.024166519 -0.041217737 0.0042225025 0.022376137 -7.788525e-06 -2.9589015e-05 2.3718854e-07 2.1936175e-05
6e-45 6e-45 6e-45 -6e-45 -0.18082683 -0.45259807 -0.005883259 0.19989257
6e-45 6e-45 6e-45 6e-45 6e-45 6e-45 -6e-45 -6e-45
-0.120547704 -0.28892058 0.006352467 0.13640018 -6e-45 -6e-45 6e-45 6e-45
00000000: 7a11 36be b3a0 e4be abc7 2ebc 78de 463e
00000010: 165b c6bd b536 81be d364 b4bb ce94 e33d
00000020: a186 e63e 4424 493f a3e0 00be 0ef7 d1be
00000030: 5207 323b a6e0 383c 5989 a6ba 2a34 59bc
00000040: 0400 0080 0400 0080 0400 0080 0400 0000
00000050: 47bb b5bd 0ee8 54be 588d 413c a7ea d63d
00000060: 0400 0000 0400 0000 0400 0000 0400 0000
00000070: 5db9 94be 4323 33bf 5b72 6cbc 6fb9 953e
00000080: 9c37 19be 4fb4 c0be 8f0c 1dbc 9a21 253e
00000090: b136 28ae 8d6f f4ae 5b11 a92c 0966 a02e
000000a0: 0400 0080 0400 0080 0400 0080 0400 0080
000000b0: 3512 81bd b275 c1bd ccc7 293c aee6 423d
000000c0: 88d5 763f 9cdc ba3f 6c31 69be b872 01bf
000000d0: 767d 08bc d459 c7bb 8b49 c5b8 2b10 0fb9
000000e0: 0400 0000 0400 0000 0400 0000 0400 0000
000000f0: f3f4 86bd 13c8 22be b342 b2bb 0b6e 843d
00000100: 0f8b 91bc 7fcc d9bc f928 6b3b 265c a93b
00000110: 9d2f c7bd d0a6 78bd 8057 84bb ab65 28bc
00000120: 0400 0080 0400 0080 0400 0080 0400 0000
00000130: fee8 673d 521d f33d e7e1 89bb 5670 d4bc
00000140: e07a 0f3b 6ead 1b3b 7256 d838 da70 18ba
00000150: 6d9a 8fbf 07ba 88bf 2915 7ebd faad dcbc
00000160: 9297 1cbb 8474 f43c 1693 923b 0182 11bd
00000170: fbeb 9abc 76ff 5cbd 04c9 e6b9 0941 4b3d
00000180: d891 62bd f821 07be 9326 84bb af23 6f3d
00000190: bb9e 1c3d b466 463d a98f 22bc 4b5d 32bc
000001a0: f18c 64be 9817 67be df21 26bc b46b fb3c
000001b0: 970f 85be 2070 76be c4fa 70bc 600e 3abc
000001c0: 29a0 993c 6828 3e3d 455a 19bc 8594 ddbc
000001d0: fa7c cd3c 740b 313d 04a1 5dbb 709a 6cbb
000001e0: 5853 a2bd d63c 45be 8d5e 713b 45e7 c43d
000001f0: 0400 0080 0400 0080 0400 0080 0400 0000
00000200: 20f1 30be 9e34 dcbe 63c5 a5bb 0be8 413e
00000210: 0000 0000 0000 0000 0000 0000 0000 0000
00000220: 05a1 d83d 9135 5c3e d241 f5bc 7ca1 0fbe
00000230: 2ca7 66be ee9d 11bf 7b2c 20bc 6114 7e3e
00000240: 5a45 663c 2987 493d 980b 89ba da2f 33bd
00000250: 1e80 74bc 5c71 94ba d68d cf3a bd94 79bb
00000260: 0400 0080 0400 0080 0400 0000 0400 0000
00000270: 1d7b a9be 5c70 55bf 026d 87bc aaae b83e
00000280: 0400 0080 0400 0080 0400 0080 0400 0080
00000290: a896 693b 1326 70bd 25ef 05bd d82f 123d
000002a0: a563 f2bc 23d0 53bd e415 8abb 43ee 843c
000002b0: 13ea e439 8ab1 b13b 3f6e ca39 2f58 64bb
000002c0: 0000 0000 0000 0000 0000 0000 0000 0000
000002d0: 9913 ffbd 5629 9abe 20b2 36bc 71ae f63d
000002e0: 0884 a33c e31d 8f3d c11c 243c 3e1b 243d
000002f0: e499 bbb6 8ae7 b1b7 113a 6234 401e 8537
00000300: 0400 0080 0400 0080 0400 0080 0400 0080
00000310: cf77 4cbe d6c0 f2be 3b75 38bc e42c 483e
00000320: 23cf 42bd 1cc9 06be c457 103b 86eb 853d
00000330: 365d 713d a63e d93d 94a0 47bc d62e 38bd
00000340: 30d7 2ebd 2459 b63c e442 53bc be21 d3bd
00000350: fe40 8cbe d9d8 2fbf d208 82bc f56a 963e
00000360: 0000 0000 0000 0000 0000 0000 0000 0000
00000370: 8c81 1b38 83eb 1dba f1b8 7db8 b10f f439
00000380: ddf8 c5bc eed3 28bd eb5c 8a3b 294e b73c
00000390: 76ab 02b7 ed35 f8b7 e4ad 7e34 9403 b837
000003a0: 0400 0000 0400 0000 0400 0000 0400 0080
000003b0: ab2a 39be efba e7be 5ac8 c0bb a3b0 4c3e
000003c0: 0400 0000 0400 0000 0400 0000 0400 0000
000003d0: 0400 0000 0400 0000 0400 0080 0400 0080
000003e0: b7e1 f6bd 66ed 93be 5b28 d03b 7dac 0b3e
000003f0: 0400 0080 0400 0080 0400 0000 0400 0000

exp_avg_sq f4 [64, 4]
0.16969718 0.3524591 0.0017899619 0.0796915 0.05346503 0.12749222 0.0006532106 0.03189168
1.7591056 12.5149555 0.04372393 5.2087307 0.0019789077 0.00979172 7.7739074e-05 0.003153046
8.7667505e-18 6.7983208e-18 5.5229063e-22 1.9422436e-19 0.15989807 0.3116924 0.0011873909 0.087435365
2.3416625e-12 1.7144493e-12 8.297828e-15 2.455633e-13 0.5663817 1.0840548 0.0051188837 0.24820043
0.15232216 0.29030988 0.0014301104 0.060179938 1.4743858e-05 0.00012347911 2.296037e-07 5.323835e-05
4.560112e-05 6.0673106e-06 1.4157028e-07 1.3931303e-06 0.01728995 0.06112573 0.00022818439 0.021220513
6.976007 49.13169 0.16644073 20.131237 0.0082930885 0.0071045565 1.9228291e-05 7.202583e-05
2.2165655e-35 4.2612782e-36 1.8940795e-37 5.6185526e-37 0.020383516 0.044684157 0.00023714761 0.009351551
0.0021440005 0.012893586 7.298973e-05 0.0043164045 1.1104398 0.9823922 0.003272448 0.0052301544
7e-43 2.83e-42 7e-43 4.56e-42 0.020494308 0.15550853 0.00062795193 0.06381748
0.0048204483 0.0035496063 1.43286825e-05 0.00012300488 26.711798 21.638903 0.067266904 0.13681188
0.008563147 0.058376707 0.00022943478 0.019427467 2.6036875 2.006448 0.005436003 0.022678921
0.014377361 0.032679457 0.00017056165 0.0077026766 0.022716254 0.16953881 0.0005035498 0.07173002
5.251637 4.184254 0.0120028 0.032890014 2.083913 1.7200539 0.0055663334 0.010712189
0.07428603 0.12354013 0.00037859907 0.03244301 0.008041597 0.06142555 0.00020139814 0.025919147
0.0048914016 0.0152970245 8.989534e-05 0.002711739 4.4826475e-23 3.2323453e-23 2.4645599e-26 5.6578317e-25
0.2484438 0.46915954 0.0020778333 0.11095261 0.0 0.0 0.0 0.0
0.086747 0.6484668 0.0020764864 0.27581254 0.33665624 0.7204208 0.0034708302 0.17967871
0.007976095 0.024683964 0.00025621278 0.0047672726 0.0054571307 0.0053673396 2.5968098e-05 0.00080395985
2.6115484e-30 1.8631803e-28 6.824573e-31 3.5491478e-28 0.7035629 1.4760424 0.007175676 0.35455003
2.2308099e-05 2.8944453e-06 8.514062e-08 8.532715e-07 0.050286796 1.0999672 0.04925943 0.111824006
0.0041046566 0.007247479 4.0457337e-05 0.0013145125 2.4886163e-05 3.742087e-05 1.4950773e-07 5.860627e-06
0.0 0.0 0.0 0.0 0.063463256 0.14268978 0.0007610778 0.033697437
0.00305532 0.062199328 0.005332827 0.020843087 0.00023557764 0.00285178 1.6254176e-06 0.0014953892
1.5076478e-15 1.9546703e-16 4.4835166e-18 2.6850799e-17 0.27242383 0.49276432 0.0023074255 0.10354867
0.038158584 0.08190418 0.00034042046 0.02369871 0.024045715 0.17748636 0.0005316863 0.073859625
0.2897054 0.98533386 0.0023016392 0.4075585 0.4820965 0.9722803 0.004785584 0.22092062
0.0 0.0 0.0 0.0 9.742754e-05 0.00024609262 2.418731e-06 2.4523973e-05
0.013215107 0.015928755 0.00012005129 0.0036150517 0.00039058557 0.0047468343 2.6422479e-06 0.0024890762
2.0566283e-38 4.603147e-37 1.126284e-39 4.6448677e-37 0.2786996 0.5569957 0.0025623797 0.13594998
4.377962e-10 1.4321568e-10 9.542003e-13 1.4459191e-11 2.559e-42 7.20392e-40 2.152e-42 1.233252e-39
0.19071014 0.37287268 0.0015146948 0.10019418 2.8817698e-25 7.467622e-24 1.0960689e-25 8.5326375e-24
00000000: 19c5 2d3e 8575 b43e 289d ea3a 4c35 a33d
00000010: 26fe 5a3d 528d 023e 393c 2b3a daa0 023d
00000020: 5f2a e13f 423d 4841 dd17 333d ecad a640
00000030: 90b0 013b 736d 203c d907 a338 55a3 4e3b
00000040: cfb7 2123 53d0 fa22 6beb 261c b64c 6520
00000050: 52bc 233e 2596 9f3e 3aa2 9b3a 5011 b33d
00000060: a4c7 242c 8c49 f12b fa7a 1528 673d 8a2a
00000070: 64fe 103f 4fc2 8a3f 4fbc a73b 4128 7e3e
00000080: 57fa 1b3e 7fa3 943e 8b72 bb3a 3d7f 763d
00000090: 635c 7737 2c7a 0139 fc88 7634 3e4c 5f38
000000a0: d443 3f38 cd95 cb36 8b02 1834 98fb ba35
000000b0: a7a3 8d3c f95e 7a3d c844 6f39 a4d6 ad3c
000000c0: 733b df40 da86 4442 706f 2a3e c60c a141
000000d0: bcdf 073c 57cd e83b 714c a137 930c 9738
000000e0: a7b4 eb05 3641 b504 85e7 8002 7f30 3f03
000000f0: 55fb a63c bc06 373d d4aa 7839 3f37 193c
00000100: 5c82 0c3b 9f3f 533c 1012 9938 a070 8d3b
00000110: e422 8e3f 0e7e 7b3f 9176 563b b761 ab3b
00000120: f401 0000 e407 0000 f401 0000 b60c 0000
00000130: aee3 a73c a13d 1f3e 249d 243a bdb2 823d
00000140: daf4 9d3b 83a0 683b 3965 7037 dffa 0039
00000150: c3b1 d541 791c ad41 3bc3 893d 6a18 0c3e
00000160: 714c 0c3c 6a1c 6f3d 6e94 7039 5a26 9f3c
00000170: d1a2 2640 a569 0040 8020 b23b 25c9 b93c
00000180: 068f 6b3c e5da 053d cbd8 3239 bc66 fc3b
00000190: 7017 ba3c 959b 2d3e a800 043a 30e7 923d
000001a0: 690d a840 69e5 8540 64a7 443c aeb7 063d
000001b0: d55e 0540 ba2a dc3f ca65 b63b 2d82 2f3c
000001c0: 4623 983d 9c02 fd3d b57e c639 f6e2 043d
000001d0: e7c0 033c 5c99 7b3d 672e 5339 6454 d43c
000001e0: 0d48 a03b 5fa0 7a3c 3186 bc38 6eb7 313b
000001f0: 7dc4 581a 7f4e 1c1a 0414 f414 f619 2f17
00000200: 0d68 7e3e ae35 f03e 422c 083b 1f3b e33d
00000210: 0000 0000 0000 0000 0000 0000 0000 0000
00000220: 69a8 b13d ec01 263f a915 083b 4d37 8d3e
00000230: 355e ac3e 7f6d 383f de76 633b b2fd 373e
00000240: 2bae 023c 0636 ca3c 4c54 8639 c836 9c3b
00000250: bbd1 b23b 82e0 af3b 11d6 d937 d5c0 523a
00000260: bddf 530e a82f 6c11 5678 5d0d 37f4 e011
00000270: b31c 343f f5ee bc3f ef21 eb3b 9587 b53e
00000280: 4722 bb37 313e 4236 8dd6 b633 5f0c 6535
00000290: 87f9 4d3d bacb 8c3f 42c4 493d fc03 e53d
000002a0: 5b80 863b 437c ed3b bcb0 2938 b84b ac3a
000002b0: a1c2 d037 5af4 1c38 5f88 2034 67a6 c436
000002c0: 0000 0000 0000 0000 0000 0000 0000 0000
000002d0: 06f9 813d 451d 123e 1183 473a 5306 0a3d
000002e0: c33b 483b b9c4 7e3d ffbe ae3b 1fbf aa3c
000002f0: 6405 7739 eee4 3a3b ec28 da35 ef00 c43a
00000300: 6346 d926 af5b 6125 9e69 a522 a8a7 f723
00000310: 237b 8b3e 9b4b fc3e 2d38 173b 5311 d43d
00000320: 2d4c 1c3d 61bd a73d 767a b239 cc23 c23c
00000330: 85fb c43c fcbe 353e dd60 0b3a b743 973d
00000340: 4454 943e d73e 7c3f 19d7 163b 82ab d03e
00000350: 5ad5 f63e 5de7 783f 63d0 9c3b 0439 623e
00000360: 0000 0000 0000 0000 0000 0000 0000 0000
00000370: 0352 cc38 fe05 8139 7b51 2236 d5b8 cd37
00000380: 2d84 583c 057d 823c 0cc4 fb38 81ea 6c3b
00000390: 82c7 cc39 558b 9b3b 7951 3136 c51f 233b
000003a0: 6ef2 df00 11a3 1c03 9f43 0c00 810e 1e03
000003b0: b7b1 8e3e 4597 0e3f 99ed 273b 7936 0b3e
000003c0: 56ae f02f a177 1d2f b04a 862b 685e 7e2d
000003d0: 2207 0000 29d8 0700 0006 0000 ce6d 0d00
000003e0: 8549 433e 2be9 be3e b988 c63a 9b32 cd3d
000003f0: 775f b216 e071 1019 cfaf 0716 930b 2519
