CartPole/Experiment_1/23-09-26_22-10-39-937242_DQN/checkpoints/agent_82000.pt (torch, 82571 bytes, 24 tensors)

net.0.weight f4 [64, 4]
00000000: 3c76 38bd 0f58 dd3d 2675 b73d f727 393d
00000010: 4c5e 5d3e 5475 4fbd 0735 e43e eb0f 253d
00000020: 5b8d f1bd 7876 173e 605b 0940 c125 7b3e
00000030: e082 4bbe 5f13 0ebf 77f5 7a3e 64c1 b1be
00000040: e6bc abbd d77e a8bc 0cd1 463d 72b2 363b
00000050: 7ec7 8e3e db8a 44be 8521 85bf 3a12 4abe
00000060: a2e1 93bd 8a32 ca3d 0e2b 10bf 5f82 c13d
00000070: 4665 f2bd eafa 3f3c 42dd 31bc d79e a63d
00000080: 7e92 87bc f3af 88bd fd35 9b3d 7a4c c93b
00000090: aa6b 13be 616d 5e3d ee87 cdbb 0eee 293e
000000a0: ad3e 76be 7d81 a9bd 7de3 68bf 94c1 aabd
000000b0: 51a6 2e3e f97e 32be 9884 08c0 ebe6 a4be
000000c0: bc94 a7be bec8 1fbe 810e 113e 851c b7bd
000000d0: 2d30 0a3d 08e4 ed3e 004f 063f 630c b33d
000000e0: 6fbc db3c 9efd 0dbc fc6a 3ebe 8886 b0bc
000000f0: 51c7 bebd 0ea5 493e 341b 213f 650e cfbd
00000100: 07c5 883e f194 eb3e 4c89 86bf 67f7 4f3e
00000110: 9012 993e 2782 3b3d 99ee 13be 77c7 6ebd
00000120: ee6e 453d 4605 2ebd d7e5 c4bd 90ed 03bd
00000130: 0206 67be 97b8 9abe b31f 31bf 8eca 58be
00000140: f6e3 023c 5311 543d 4d4c 15bf de0a b53c
00000150: f2df bb3e 8df3 d63c 2ea9 b03e 4020 a7bc
00000160: f5c5 f93c e568 75be 2f9c 05bf 76ed 153d
00000170: ab62 dc3e 2f87 9fbd bcb5 8fbe 93d9 77bd
00000180: 9b2b e1bd ccfc 953e 81f6 ba3f dede 11bd
00000190: 2ba6 b5be f23f 85be 0b4f 803f 45be 013f
000001a0: 54ad 1e3e 3c1e 953e 308c a03f 6165 7c3e
000001b0: 414a 0e3f 9e68 f73d a41a 0e3f ec13 aa3d
000001c0: e95c cd3e 73ff dabd b0af a83f 643c aa3e
000001d0: 987f 4cbe d506 86be 9f45 66bf 0edd 6fbe
000001e0: 407f 063c 9ece b23e 14f1 873f 7f5a d9bd
000001f0: fbcd e9bc 62e9 a8bc a64b ee3c 7401 91bd
00000200: 5fef 39ba 7457 acbc 21f7 8fbf 9c95 73be
00000210: d225 10bd f5ca cc3c 0865 4ebd cc83 963c
00000220: d128 f0bd 6555 713e 9980 953f 4076 9f3e
00000230: b479 0c3e 40c9 1abd cf1d dabd ad71 573d
00000240: dd3f 243e 8f2e 27be 8d07 14c0 0e0a 97be
00000250: 3c9c fdbd 51dd 09bf ba20 593f 70ef 47be
00000260: 4007 47bd 4228 863d 815a 55be f070 243e
00000270: 03e1 ed3d 61e4 d0bd fed5 58bd d31a 3a3d
00000280: 7c2b 11be 71b7 42bd e803 46be 8c7d 6ebd
00000290: 7005 173f f8bb bfbd cac1 c5bf ebf3 15be
000002a0: 847f 4abe 292f 9c3e 68c6 aa3f d407 963e
000002b0: 2139 50be edc2 5c3e ce35 ab3e b034 c83d
000002c0: a4b6 2b3d f7e1 e0bc 99a0 a6bd ddef 3cbc
000002d0: 1988 05be f3cf 713e bf8b ba3f fdcf 2a3e
000002e0: d18c c83e 4bc2 78be 10c4 19c0 de34 a9be
000002f0: 5937 df3e ce8b 47be ae58 0ebe 53a4 d3be
00000300: 8e0a 30bc 7107 353d 3c70 caba 194f 1f3d
00000310: 6dde 05be c3fc fb3c fe94 90be 5c7b b83d
00000320: 3d00 1bbe 55ea 2ebe 4bb3 76bf c9aa 70be
00000330: 790e 53bf 98ed 41be 7a89 223f 7f6d a83d
00000340: 64e1 a1bd b6bd 713e a2ff a13f 7a28 493e
00000350: e765 29bd 0e99 4cbd 45f4 873e 5e16 853d
00000360: 47a5 173d 228a 7d3c 1296 53bd 53c0 933c
00000370: 21c8 50be 979a 1f3e 84a2 453f 8b49 5f3d
00000380: b56a 113e b89c 89be 8cbf 84bf 1e4d ca3d
00000390: f18d 8d3d 5fbf afbd f7fc ecbe 7e8e 7c3c
000003a0: 4a55 eebc d7a5 a83d 3d15 94bd 919a 3b3d
000003b0: 39b1 ed3d 5927 01be b9b3 4bbf 510a 84be
000003c0: 7328 f03d 8a49 4cbc e2ef 823f b0d8 973c
000003d0: 3cb0 c5bc d1b4 823c 4f6f 69bd ae8b efbc
000003e0: d25b 5e3e 2dad 0ebe 13f3 bdbf 6a99 21be
000003f0: 7a6c 153e ba26 1fbe c9f2 cb3e 99fb b7bc
-0.045034632 0.108078115 0.08957891 0.04520413 0.21618003 -0.050649002 0.44571707 0.040298384
-0.117945395 0.14791286 2.146202 0.2452612 -0.19874144 -0.5549831 0.245077 -0.34717858
-0.08385639 -0.020568294 0.048539206 0.0027877358 0.27886575 -0.19193594 -1.0400854 -0.19733515
-0.072207704 0.09872921 -0.56315696 0.094486944 -0.118357226 0.011717537 -0.010855975 0.08135765
-0.016549345 -0.06674185 0.07578657 0.00614315 -0.1439654 0.05430353 -0.0062723076 0.16594717
-0.24047346 -0.08276651 -0.9097212 -0.08337703 0.17055632 -0.17431249 -2.1330929 -0.32207426
-0.32730663 -0.15603921 0.14165689 -0.089409865 0.03373735 0.46463037 0.52464294 0.08742597
0.02682325 -0.008666424 -0.18595499 -0.021548524 -0.0931536 0.1969187 0.62932134 -0.101101674
0.2671282 0.4601207 -1.051065 0.2030922 0.29896975 0.04577842 -0.14446487 -0.058295693
0.048201494 -0.042485498 -0.09614151 -0.03220898 -0.22560886 -0.30218956 -0.69188994 -0.21171018
0.00798892 0.051774334 -0.5831955 0.022099908 0.36694294 0.026239181 0.34504074 -0.02040112
0.030489901 -0.23965795 -0.5219144 0.036603414 0.43044028 -0.07789456 -0.2806834 -0.06051023
-0.10994645 0.2929443 1.4606477 -0.035612933 -0.3547834 -0.2602535 1.0024122 0.50680953
0.15495807 0.2912463 1.2542782 0.24648048 0.5558205 0.12080501 0.555094 0.08304581
0.40109947 -0.10693254 1.3178616 0.332492 -0.19970548 -0.26177087 -0.89949983 -0.2342417
0.00820905 0.3492326 1.0620446 -0.10612964 -0.028540602 -0.020619098 0.029088806 -0.07080355
-0.0007092859 -0.021037795 -1.1247293 -0.2378754 -0.03519232 0.024999121 -0.05038932 0.018373393
-0.11726535 0.23567732 1.167987 0.31144905 0.13718301 -0.037789583 -0.10650217 0.052598644
0.16039987 -0.16326354 -2.3129609 -0.2949986 -0.12383315 -0.5385333 0.8481556 -0.19524932
-0.0485909 0.06550647 -0.20835306 0.16058707 0.11615183 -0.1019981 -0.052938454 0.045435738
-0.14176744 -0.047538225 -0.19337428 -0.0582252 0.5899267 -0.09362024 -1.5449765 -0.14643829
-0.19775206 0.3050473 1.3341799 0.29302847 -0.20334293 0.21558733 0.33439487 0.09775674
0.041922227 -0.027451498 -0.081361 -0.011531797 -0.13040198 0.23614483 1.4573897 0.16680904
0.39169934 -0.24292867 -2.4025917 -0.33048147 0.43596914 -0.19486925 -0.13901016 -0.41336307
-0.010744704 0.04419655 -0.0015444825 0.038893793 -0.1307313 0.030760175 -0.28238672 0.09007904
-0.1513681 -0.17081578 -0.9636733 -0.2350265 -0.8244396 -0.18938291 0.6349102 0.0822401
-0.07904318 0.23607525 1.2656138 0.19644347 -0.041356947 -0.04995065 0.2655355 0.06498407
0.037022855 0.015474828 -0.05165679 0.018036043 -0.20388843 0.15586315 0.77201104 0.054513495
0.14200862 -0.2687738 -1.0370955 0.0987799 0.06911839 -0.08581423 -0.46286747 0.015414832
-0.029093403 0.082347564 -0.072306134 0.045801703 0.11606068 -0.12612666 -0.7957111 -0.2578912
0.11726465 -0.012468705 1.0229456 0.018535942 -0.024131887 0.01595536 -0.056990918 -0.02924141
0.21714714 -0.13933249 -1.4839805 -0.15781179 0.14592162 -0.15542117 0.39833668 -0.022458838

net.0.bias f4 [64]
00000000: 3add d93e 1242 603e 39f6 dbbe 8ead 3cbe
00000010: 58ed 97be 105f be3e de51 23be 421f 0b3f
00000020: 7ad2 b03e c027 e4be 11d8 c3be 10c5 d9be
00000030: 36b1 06bf 8280 a6be 2c0f 16be 33e1 993d
00000040: d9d4 87bd 4bdb c1be bbea b7bd 62e9 26be
00000050: d2b2 e6be d862 50bf 5eff 163e a9a8 33bf
00000060: 438a b53e 47ca 09bf e0c8 0bbf 2f2a 2dbf
00000070: f021 fabd a78f e9be 0130 97be 5354 86be
00000080: 8f2a c43e 217f 2cbe 6707 febe bfab f83e
00000090: f607 b73e 8538 e33c 255e 99be a191 243f
000000a0: 31bf 0ebf 47b0 b5be 4567 cc3e c27e cabe
000000b0: b519 1bbe f10d ce3e 8c08 0dbf 3cf1 0dbf
000000c0: ab13 fdbd b7ea bd3e 336d c83e dc43 94be
000000d0: f6f5 e4be f41f 073f b790 93be cd0a cbbe
000000e0: 9308 063e 2136 dcbe 4791 0fbe d837 dd3e
000000f0: cba6 05bf bf71 40be fdbb dd3e 5b26 c2be
0.42551595 0.21900204 -0.4296129 -0.18425581 -0.29673266 0.37181902 -0.15949199 0.5434457
0.3453558 -0.44561577 -0.38250783 -0.4253316 -0.5261415 -0.3251992 -0.14654225 0.075136565
-0.06632394 -0.3786262 -0.08980318 -0.16299966 -0.45058304 -0.81400824 0.14745852 -0.7017923
0.35457048 -0.53824276 -0.54603386 -0.6764249 -0.12213504 -0.4561741 -0.29528812 -0.2623621
0.3831372 -0.16845371 -0.49615023 0.48568532 0.3574826 0.027736912 -0.2995464 0.6428471
-0.55760485 -0.3548605 0.39922538 -0.39549834 -0.15146525 0.4024501 -0.55091166 -0.5544622
-0.12357267 0.37093136 0.39145812 -0.28958023 -0.44718903 0.5278313 -0.28821346 -0.39656678
0.13089208 -0.43010047 -0.14020263 0.43206668 -0.5220763 -0.1879339 0.43307486 -0.37919888

net.2.weight f4 [64, 64]
00000000: 783f 40be f46c 30be 41c3 d53e 769c f63d
00000010: 65da d33c 5171 22be 8bb8 fbbe 9e55 8ebe
00000020: a54c d6bd a385 2a3d 44f6 3abd 0d89 83be
00000030: 78b5 91be 6957 71bd 4463 2dbe a277 d4bd
00000040: 2c1e 8dbd 4e9a 12bf 9d75 1abe b525 65be
00000050: b974 d13a 4b1e 923d 9a76 26bf b2d4 53bf
00000060: 67a9 6c3e 4c83 f5be 5377 1f3f 766b 763e
00000070: 0839 ebbe 5145 a2ba 67e2 b63d bbd3 063e
00000080: ff19 27bf 24c2 923d 4087 a0be 0355 5b3d
00000090: 20a6 f0bd 4cd8 a4bd 6b84 67be 102d 51be
000000a0: bbfc 9d3d 83d6 83be abec 623c 1c43 12be
000000b0: 4d8a 053d dc19 023f fef8 943d 1dcd 943d
000000c0: 3fc5 5dbd a29a 28be d76a dabd 789a fcbe
000000d0: 5c5b cabd 57b2 0cbe 074d de3d 585d fd3d
000000e0: bf08 38bd df09 dfbe 330a 9ebb 2e82 02bf
000000f0: a17e c43f 4c96 21bc f062 6abe 9e4d e53e
00000100: 3ed1 bf3d 3d9b ed3d 4e6e 4dbe 71e1 4a3e
00000110: 6506 543c a703 6f3d e7af 7ebb 5f22 1dbe
00000120: 439d 17be 4d46 3ebc 2451 b3bd 377b bcbd
00000130: a15c eb3d e5d7 b6bd 9aad 353d 8a0d febd
00000140: 6e7d 483d 1440 163d 3b05 47bd 95b9 0ebe
00000150: 356b 8abd eed5 12bd 4d0b c2bb 9286 17be
00000160: 6ed5 97bd b97f 563d 9e25 273e 5b64 27be
00000170: 152f b7bd 554d abbd 0440 71bd c08a 51bd
00000180: 9fe6 35be b7b1 be3c 3cbc 70bd 7b3b 18bd
00000190: 0a6c 5bbe f770 2c3e c567 7e3e a76d 60be
000001a0: edb3 21bc 6b90 6bbd 7816 93bd 3812 bb3c
000001b0: 73ef bd3d 4887 27bb e585 30be e609 39be
000001c0: 0444 463e f34d 28be 2aab 07be 6996 57bd
000001d0: d7bb 0cbd d0ce 6ebc eb43 113e 497b 9abd
000001e0: eb07 4ebe 567e 7cbd 39c9 443e 0f49 db3d
000001f0: cd96 163e 6f7d d4bd 82a1 51be 94f6 c33d
00000200: c7bc 43be 9f53 32bf 8aaa b4be 2e57 6dbf
00000210: 8057 bcbd 7e0b 18bf 70e9 7a3d cbd1 23be
00000220: 4f9e 2cbe eeda 393f 3010 2240 806c debe
00000230: 911c ac3f a101 44bf c82c e73d aad8 b7be
00000240: bec0 8bbe 40a9 41bd cb3a 813c 3dea e3be
00000250: baee d3be b7de b6bd adef 8bbe ecc7 263f
00000260: 9453 c2be 5867 243d 360d 093f 3f1f 27be
00000270: 3783 2f3c 5435 f23d 4194 30bf 72f4 723d
00000280: f4f6 97be f0a2 183e 19b5 073e d57b f3be
00000290: 5bf8 213f 9cce 4dbe 2687 a63e 3ec0 1dbe
000002a0: 0d0b a43f 84fe 6e3f d49f 9ebd 6872 84bd
000002b0: 5933 9a3d bb74 a4be e112 963e c137 65be
000002c0: 02bf d3bd 06db 3b3d 6180 4bbf 280b 5b3f
000002d0: 0073 273e 2899 0cbe e3b1 0dbd b133 f8be
000002e0: 2ee7 87bf 1c85 92be 9794 92bd 15a5 62bf
000002f0: fcf9 2f3f 4032 76bd 21be 57bf 2285 ad3e
00000300: 58e0 d7bc 1736 763d 776e 52bd 70fe 5b3d
00000310: ac22 bdbd 993e 15bd 413e f23c 278f d8bd
00000320: c9d5 b7bd 70c4 81bd 83d5 6dbc b382 49bc
00000330: 3fec d63d c2ef b8bd b85d e1bd e183 1d3c
00000340: 1109 d33c 0880 bdbd bb7d f43d b460 36be
00000350: a1e2 0ebd ea36 5bbd 84b8 c83c 4739 adbd
00000360: df31 54be 46b3 2e3d f79e 35bd ac17 8a3d
00000370: f850 1e3e 729e 913c 9f3e f43c 1a9c febd
00000380: cf60 fabc 4c42 813e e933 033c 042c 57be
00000390: 9f26 53bd d236 f5bd 2317 28bd 9a31 34be
000003a0: fd9f e3bc b8c6 553d 0e12 23bc 83ca 99bd
000003b0: 22ac 643b d850 38bd 6097 6dbd 2668 903d
000003c0: 15ec 643e 0732 3fbd 91b0 bebd 3c93 0cbe
000003d0: 143c 78bd 67ce 143d 6af5 ecbc b08e 72bb
000003e0: bb21 2cbb 5fcc 82bd 5dde 6abd fde2 19be
000003f0: ec3e 31bd f7af 533b 63f5 e03d fe68 a93d
-0.18774211 -0.17229062 0.4175053 0.12041561 0.025860975 -0.1586354 -0.49164233 -0.27799696
-0.104638375 0.041631352 -0.045645013 -0.256905 -0.28458762 -0.05892125 -0.16932398 -0.10374381
-0.068905205 -0.572667 -0.15083928 -0.22377665 0.0015980221 0.07134684 -0.6502472 -0.8274642
0.23111497 -0.47951734 0.6229145 0.2406443 -0.4594195 -0.0012380277 0.089299016 0.13166706
-0.6527404 0.07165936 -0.31353188 0.05354787 -0.11750436 -0.08049068 -0.22609107 -0.20427346
0.0771422 -0.25749597 0.013850371 -0.14283413 0.032602597 0.5082071 0.07274054 0.07265685
-0.054143187 -0.16465238 -0.10664909 -0.493366 -0.09880707 -0.13739906 0.108545355 0.123713195
-0.044930216 -0.4356222 -0.004822993 -0.5097989 1.5351144 -0.009862494 -0.22889304 0.4478578
0.09366082 0.11601875 -0.20061609 0.19812562 0.012940978 0.058353093 -0.003886217 -0.15345143
-0.14806084 -0.011613441 -0.08755711 -0.09203189 0.11492277 -0.08927897 0.044355012 -0.12404926
0.048947744 0.036682203 -0.048588973 -0.13937981 -0.06758729 -0.03584855 -0.0059217573 -0.14797428
-0.07413755 0.0523679 0.16322944 -0.16346876 -0.08944527 -0.08364359 -0.05889894 -0.051157713
-0.17763756 0.0232781 -0.058773264 -0.0371661 -0.21427932 0.16839968 0.24844272 -0.21916829
-0.009869558 -0.057510775 -0.0718202 0.022835836 0.09274187 -0.0025562812 -0.17238577 -0.18070182
0.19361883 -0.16435985 -0.13248888 -0.052633677 -0.034358826 -0.014575675 0.14186065 -0.07543046
-0.20120208 -0.06164392 0.19217385 0.10707294 0.14705963 -0.10375487 -0.20471767 0.095685154
-0.19114982 -0.69658846 -0.3528636 -0.9271115 -0.09196377 -0.59392536 0.06125778 -0.15997998
-0.16857265 0.72599685 2.532238 -0.43442154 1.3446218 -0.76564986 0.11287838 -0.3590749
-0.27295488 -0.04728055 0.015775105 -0.44514647 -0.4139307 -0.08929198 -0.27331296 0.65148807
-0.3795439 0.04013762 0.53535783 -0.16320513 0.010712436 0.11826578 -0.6897622 0.059315152
-0.29680598 0.14905906 0.13252677 -0.47555414 0.63269585 -0.20098346 0.32524985 -0.15405366
1.2815872 0.9335711 -0.077453285 -0.06467134 0.07529325 -0.32120308 0.29311278 -0.2238455
-0.10339166 0.045863174 -0.79492766 0.855639 0.16352463 -0.137303 -0.034593474 -0.48476937
-1.0617425 -0.2861718 -0.071572475 -0.88533145 0.6874082 -0.060106516 -0.8427449 0.33890635
-0.026352093 0.060110178 -0.05137488 0.053709447 -0.09235129 -0.03643665 0.0295707 -0.10574179
-0.08976323 -0.063362956 -0.014516237 -0.0122992275 0.10494279 -0.09030105 -0.110042036 0.009613962
0.02576116 -0.09252936 0.11938044 -0.17810327 -0.0348841 -0.053519167 0.024502046 -0.084581904
-0.2072215 0.042651437 -0.044341054 0.06742796 0.15460575 0.017775748 0.029815016 -0.12432118
-0.03056374 0.25245893 0.008007982 -0.21012884 -0.051550504 -0.11973347 -0.04103769 -0.17597046
-0.02778625 0.052191466 -0.009953035 -0.07509329 0.0034892638 -0.044998974 -0.05800569 0.07051115
0.22355683 -0.04667857 -0.09311021 -0.1372804 -0.06060417 0.036329653 -0.028925616 -0.0037011318
-0.0026265222 -0.06386637 -0.05734097 -0.15027995 -0.043272898 0.0032300928 0.10984304 0.08271979

net.2.bias f4 [64]
00000000: 5055 0dbe c8d0 823d dc51 7bbe 5d50 cdbd
00000010: f152 103f 0439 213f 38d7 6bbe 6b50 073f
00000020: d8f1 0bbe b0fc 393f cda3 533e e0bd fc3e
00000030: 0265 0c3f 8a10 083f fcf3 b7be 5e7b 9b3d
00000040: b5ad 1ebe ceee fd3e 6718 56bb 6f96 193f
00000050: 344a 1f3c 1a9c 5fbd 8696 163f 3601 013f
00000060: f44f 2e3f 15a6 303d 2201 ad3e 0ea6 213e
00000070: d1d7 34bd 4bb2 e83e f6e5 dbbd 5ef0 193f
00000080: acd8 12be 7399 003f 7bf3 7b3c a905 65bd
00000090: 4cf5 093f 4c1e 9cbd 93d5 043f be2d 2a3f
000000a0: 15dc 99be 11e4 e13e 3c7e 93bd 532e 75be
000000b0: 1c78 423f 976b 1f3f 0cef 17be c891 1a3f
000000c0: 2e75 86bd 7837 3c3d 12fc 2d3f 69e8 163f
000000d0: ed85 1bbe 09e7 893c cfb0 debd 3be0 073f
000000e0: 20f4 c43d 2265 433f a032 0dbe 3537 d5bd
000000f0: f1d9 133f 02ad 48be 7a55 323f 27b6 f83e
-0.13802075 0.06387478 -0.24542946 -0.10025094 0.5637656 0.62977624 -0.23031318 0.52857083
-0.13666475 0.72651196 0.20667954 0.49363613 0.54841626 0.53150237 -0.35928333 0.0759189
-0.15495951 0.49596256 -0.0032668354 0.5999517 0.009722281 -0.05459223 0.5882343 0.5039247
0.6809075 0.04312714 0.33789927 0.15786001 -0.04415113 0.45448527 -0.10737221 0.60132396
-0.14340466 0.50234145 0.0153778745 -0.0559136 0.5388992 -0.07622966 0.5188839 0.6647605
-0.30050722 0.44119313 -0.07201812 -0.23943453 0.7596452 0.62273544 -0.14837283 0.60378695
-0.06565319 0.045951337 0.67962754 0.5894838 -0.15187807 0.016833799 -0.10873567 0.53076524
0.09616876 0.7632619 -0.13788843 -0.104109205 0.5775443 -0.19597247 0.69661677 0.4857647

net.4.weight f4 [2, 64]
00000000: d957 18bf b1e9 d6bd 52f2 16c0 aa1b 253e
00000010: 82a1 8d3f 666f b93f 51a2 4ac0 ef4a 813f
00000020: b179 7f3e 60ec a53f c77f 3ec0 cdd2 983f
00000030: bca0 1d3f f874 9d3f 4274 1bc0 93fe 8c3c
00000040: 4de0 453d 2eb6 723f 3e3e 983d f7be c03f
00000050: d14b 21bd b946 f9bd 422f 6d3f bc33 be3f
00000060: c1cb c53f 9dd6 b7bc 6135 993f df0e b4bd
00000070: 3153 993d 49e7 ba3f 2d68 3cc0 cca6 993f
00000080: e9d2 84c0 d797 463f c0a3 1bc0 b9bb 2fc0
00000090: e0e6 863f d213 583e dc15 a33f 175e 8b3f
000000a0: b3cd 8fbe 9c8d 763f 068c a53e a733 a9be
000000b0: be8f 6a3e 693d 813f 7738 343c e243 883f
000000c0: 1eb2 56bc b469 983e 2d5e a93f f6be 9c3f
000000d0: 9a0f 89bd b63f 15c0 78bc cebc 1d3e 823f
000000e0: bd84 ebbe 5e27 993f b9db 9ebb 5d6e 9dbd
000000f0: ceee 583f b15c 123d 5d83 473f b4ae 9f3f
00000100: 4898 4e3f 450b ac3c 2ad0 cabf 7309 0cbe
00000110: 6b83 a83f f124 af3f 274b 8fc0 031c 593f
00000120: bc24 80be 1241 b13f 8ffd 34c0 d48d 673f
00000130: 6f1f a43f 4aff 4c3f aa56 86c0 bf2e 0cbe
00000140: 7f25 283e 19a7 993f ad57 a6bd f60f a13f
00000150: 8fdc a73c 6046 12be 1c0f b23f 9110 b33f
00000160: db3e 233f c068 15be 2792 773f 7a91 ff3b
00000170: 539f 91bb 1e97 803f 4fcb 50c0 a827 c23f
00000180: f8e6 b1c0 d5cd 933f 39ef eebf e609 bebf
00000190: 68b4 a73f 2342 763d 7496 7f3f 2b1a 513f
000001a0: be98 35c0 1fd1 533f 29aa 53be 831a 6e3e
000001b0: aaa4 993f febb 1c3f 1bef cf3c 95db 653f
000001c0: f1df 05bc 71b8 b2bd dcf2 a63f 02ff d93f
000001d0: a4c6 f6bd c930 5dc0 5084 a13d c37d 923f
000001e0: cc10 e53e cf92 0a3f 110f 4b3d 2d42 823b
000001f0: f4e9 a33f fdb2 cb3d eee1 a43f f2ef 803f
-0.59509045 -0.10493792 -2.35854 0.16123834 1.1064913 1.4487121 -3.166157 1.0100993
0.24948765 1.2962761 -2.976549 1.1939331 0.61573386 1.2301321 -2.4289708 0.017211234
0.048309613 0.94809234 0.07433747 1.5058278 -0.039378945 -0.121716924 0.92650235 1.4859538
1.5452806 -0.022441203 1.1969415 -0.08791899 0.074865706 1.4601833 -2.9438584 1.2004027
-4.150746 0.7757544 -2.4318695 -2.7458327 1.0539207 0.21101311 1.2741046 1.0888089
-0.28086624 0.9630983 0.32333392 -0.3304722 0.22906396 1.0096866 0.01099979 1.0645716
-0.01310399 0.29768145 1.3231865 1.2245777 -0.06692429 -2.3320136 -0.025236353 1.0175205
-0.4599971 1.1965139 -0.0048479703 -0.07687066 0.8473939 0.03573293 0.7793482 1.247519
0.8070111 0.021001467 -1.5844777 -0.1367548 1.3165106 1.3683149 -4.477924 0.8480837
-0.25028026 1.3847983 -2.827976 0.9045079 1.2822093 0.8007704 -4.198079 -0.13689707
0.16420554 1.2004119 -0.081221916 1.2582996 0.020490913 -0.14284658 1.3910861 1.3989431
0.63767785 -0.1459074 0.96707386 0.0077993246 -0.0044440418 1.0046117 -3.262409 1.5168352
-5.5594444 1.154719 -1.8666755 -1.4846771 1.3101931 0.060121667 0.9983895 0.81680554
-2.8374476 0.8274097 -0.2067038 0.23252301 1.2003376 0.61224353 0.025382569 0.8978818
-0.008171068 -0.08726586 1.3042865 1.7030947 -0.120496064 -3.4561026 0.07886565 1.144463
0.44739377 0.5413026 0.049574915 0.003975174 1.2805772 0.09946249 1.2881448 1.0073225

net.4.bias f4 [2]
00000000: cdc4 273f c6eb aa3e
0.6553467 0.33383006

net.0.weight f4 [64, 4]
00000000: b2ec 39bd a396 df3d e285 a73d 89f6 123d
00000010: bc80 633e d026 29bd b687 bf3e 2cce 6d3c
00000020: 6283 ecbd e9d6 1e3e b779 0340 e70b 5e3e
00000030: 942a 56be 3c83 07bf fe8c 4b3e cbd9 c4be
00000040: 46bd abbd 967f a8bc 89d0 463d bfb2 363b
00000050: 23ac 803e ace4 42be 6c3f 7dbf 7430 2abe
00000060: 76e1 93bd f032 ca3d ae2a 10bf b882 c13d
00000070: 895b edbd f4b3 a93b 1c1d 6bbb 25d4 ad3d
00000080: 7e95 45bc fd32 83bd d4cf 7f3d d2f6 2d3b
00000090: 456c 13be 126d 5e3d 4987 cdbb ffed 293e
000000a0: 6d04 69be 6585 95bd c0f5 77bf b465 d3bd
000000b0: 3237 1a3e 6328 44be 4499 04c0 a509 9bbe
000000c0: f322 a5be edab 1cbe 1d7c 363e d5bc 9fbd
000000d0: f9c8 e93c c3e0 f23e ae79 073f 8478 913d
000000e0: c9bc db3c a5fd 0dbc 886a 3ebe 4886 b0bc
000000f0: 3448 c5bd 147d 553e 89e4 093f d3df 0bbe
00000100: 9890 8b3e 8483 e53e b505 96bf ac24 493e
00000110: 4a5a 973e 4bb8 313d 0ea0 51be b6ff 92bd
00000120: a16e 453d a605 2ebd e8e5 c4bd 15ed 03bd
00000130: 2806 6ebe 424e 90be d812 2ebf 14e0 54be
00000140: ef97 283c 158b 5c3d 948a 15bf e64e aa3c
00000150: bcd0 b73e f837 f53c deea 4c3e 1664 46bc
00000160: 6da1 2a3c ee26 8bbe f435 e5be 75e2 813d
00000170: afe9 d93e e697 98bd 7d33 abbe 10e2 60bd
00000180: b403 ebbd 7ee4 9f3e 99c2 b43f e143 95bd
00000190: 4d9e b8be c8ca 93be b56b 6a3f 70a3 fe3e
000001a0: 1620 243e 73ee 923e b47f 983f 61ce 743e
000001b0: 68db 0f3f 21a0 ea3d b72d 0f3f 7fc8 c53d
000001c0: fb94 d63e 5f1a b5bd 179c 9a3f 66ab 8c3e
000001d0: ecd7 3bbe b124 85be 2971 6dbf 2fee 5bbe
000001e0: 0276 0abc 2b1e b53e 2660 7e3f bbe0 30be
000001f0: 5ace e9bc d6e9 a8bc 934b ee3c be00 91bd
00000200: 890e e83b e8d4 06bd 6663 8dbf b9a9 49be
00000210: 3625 10bd c8cb cc3c 6164 4ebd 7584 963c
00000220: f488 efbd 82eb 703e b268 953f be8c 9f3e
00000230: ebd3 073e b31e 22bd 803e d8bd 3531 3f3d
00000240: ea55 1c3e 4f1f 2fbe 5f22 0fc0 26dd 99be
00000250: 9e97 e5bd 8228 f9be cfb1 443f 96dd 8dbe
00000260: 0008 47bd 2d28 863d 6a5a 55be 4e71 243e
00000270: f850 eb3d 295c d3bd 5abc 58bd 44fd 213d
00000280: b52b 11be 18b8 42bd a004 46be 5a7e 6ebd
00000290: 53cd 143f 658b bdbd 1fa2 c0bf 8c3d 1abe
000002a0: 1f4a 2dbe a038 993e 62e9 a73f 5319 893e
000002b0: 903b 50be c1c4 5c3e 4236 ab3e 4c32 c83d
000002c0: 3fb6 2b3d c2e2 e0bc aea0 a6bd 67f0 3cbc
000002d0: 5fbc e5bd d9cf 713e ebf1 b53f b0e1 103e
000002e0: 0ff0 c23e 2712 4dbe 8bea 15c0 b33e a7be
000002f0: 9c9f e43e 18f4 40be 9e9a 75be d091 bdbe
00000300: d70a 30bc 6807 353d a870 caba 764e 1f3d
00000310: 9bd3 05be dccc d73c fc23 8cbe 2c8f bb3d
00000320: 7733 34be 0be2 0ebe abd1 5fbf 6470 5fbe
00000330: 9640 4fbf ec44 27be 14e8 143f 3d27 1d3d
00000340: 5481 a1bd 234e 713e 81e8 a13f eb61 493e
00000350: e0d7 1ebd b64f 56bd 23ff 853e 51d3 6f3d
00000360: 47a5 173d 228a 7d3c 1296 53bd 53c0 933c
00000370: 1ac8 50be 059b 1f3e f8a2 453f 6249 5f3d
00000380: 6316 b13d 69a2 8ebe aa39 88bf 8485 d33d
00000390: ed8d 8d3d d6bf afbd 6bfc ecbe 238f 7c3c
000003a0: f354 eebc a6a6 a83d 0615 94bd ff9a 3b3d
000003b0: f2df d63d e394 04be acf3 40bf a086 73be
000003c0: eb28 f03d 5149 4cbc f4ef 823f 15d9 973c
000003d0: 41b0 c5bc 5cb5 823c 0b6f 69bd e28b efbc
000003e0: c573 4e3e dbcc fbbd 9728 b8bf 5df1 19be
000003f0: c56c 153e 9e26 1fbe 60f3 cb3e e0fa b7bc
-0.045391746 0.109174035 0.08179833 0.035879645 0.22217077 -0.04129678 0.37408227 0.014514487
-0.11548497 0.15511669 2.054304 0.21684228 -0.2091468 -0.5293462 0.19878003 -0.38447413
-0.083857104 -0.02056865 0.04853872 0.0027877537 0.2513133 -0.19032544 -0.989249 -0.16620046
-0.07220738 0.09872997 -0.56315124 0.09448761 -0.115897246 0.005178923 -0.0035875505 0.08487729
-0.0120595675 -0.064062096 0.06245406 0.0026544821 -0.1439677 0.054303236 -0.0062722308 0.16594695
-0.22755595 -0.073008336 -0.9685936 -0.10322133 0.15060118 -0.19156031 -2.0718546 -0.30280796
-0.32253227 -0.1529996 0.17820783 -0.07799689 0.028538214 0.47437105 0.52920043 0.07103065
0.026823418 -0.008666431 -0.18595326 -0.021548405 -0.09632912 0.20848495 0.5386434 -0.13659601
0.27258754 0.448269 -1.1720492 0.19642895 0.29561073 0.043388646 -0.20471212 -0.07177679
0.048201207 -0.042485856 -0.09614164 -0.03220852 -0.23244536 -0.28184706 -0.67997503 -0.20788604
0.01029013 0.053843576 -0.5841458 0.020789575 0.3590144 0.029933915 0.2001147 -0.012108823
0.0104144635 -0.27178138 -0.44767725 0.063420214 0.425611 -0.07450847 -0.3343772 -0.05490309
-0.11475316 0.31229013 1.4121886 -0.072883375 -0.36058274 -0.28865647 0.915706 0.49734068
0.16027865 0.28697547 1.1913972 0.23906852 0.5619416 0.114563234 0.5592913 0.09657382
0.41910538 -0.088429205 1.2078885 0.27474517 -0.18344086 -0.26004556 -0.92750794 -0.21477579
-0.008450987 0.3537458 0.9936546 -0.17273228 -0.028540779 -0.020619314 0.029088771 -0.0708022
0.007081811 -0.032917887 -1.1045959 -0.1969365 -0.035191737 0.024999514 -0.050388698 0.018373707
-0.116960436 0.23527339 1.1672575 0.31162065 0.13264434 -0.03958006 -0.10558796 0.046677787
0.15267149 -0.17101787 -2.2364728 -0.30051535 -0.11210559 -0.48663718 0.76833814 -0.2770812
-0.048591614 0.06550632 -0.20835271 0.16058847 0.11490053 -0.103203125 -0.052914 0.039548174
-0.14176829 -0.047538847 -0.19337702 -0.058225967 0.581258 -0.09255103 -1.5049475 -0.15062541
-0.16922806 0.29926014 1.3118098 0.26777133 -0.20335221 0.2155943 0.33439833 0.09775218
0.04192185 -0.027451877 -0.08136116 -0.011531926 -0.112175696 0.23614444 1.4214453 0.14148593
0.38073775 -0.20026456 -2.3424404 -0.32665023 0.44653022 -0.18843114 -0.23984763 -0.3702531
-0.010744772 0.044196516 -0.0015444951 0.038893186 -0.13069002 0.026342802 -0.27371204 0.09158167
-0.17597757 -0.13953416 -0.874293 -0.21820217 -0.80957925 -0.16334885 0.58166623 0.0383675
-0.078859955 0.23564963 1.264908 0.19666259 -0.038780093 -0.052322112 0.26171216 0.058551136
0.037022855 0.015474828 -0.05165679 0.018036043 -0.20388833 0.15586479 0.77201796 0.054513343
0.08646848 -0.27858284 -1.0642598 0.103282005 0.06911836 -0.08581512 -0.4628633 0.015414986
-0.029093241 0.08234911 -0.072305724 0.045802113 0.10491933 -0.12947421 -0.75371814 -0.23781824
0.117265545 -0.012468652 1.0229478 0.01853613 -0.024131896 0.01595562 -0.056990664 -0.029241506
0.2016135 -0.122949325 -1.4387387 -0.15033479 0.14592274 -0.15542075 0.39834118 -0.022458494

net.0.bias f4 [64]
00000000: 3915 db3e 81df 623e 6ff4 f5be 2145 17be
00000010: 9eec 97be 5d77 c93e cf51 23be 20c3 0b3f
00000020: f08d b53e 7b27 e4be 0807 c0be b669 d8be
00000030: 60f7 07bf a617 a1be 7e0e 16be 0b4e d03d
00000040: 7c83 35bd fa74 bebe 78ea b7bd b6e0 19be
00000050: 9d6f e5be fa1a 50bf 60b7 513e 4e7e 32bf
00000060: 6d89 a83e f41c 0fbf a037 0fbf 6fdc 2bbf
00000070: 5bda 20be f596 e2be c976 9dbe ed53 86be
00000080: c5b8 cb3e 077f 2cbe 11d6 fdbe 1e06 fa3e
00000090: 7fc2 ad3e de99 67bb 265e 99be 8501 253f
000000a0: 9dbe 0ebf 018b bcbe 7d92 be3e 0a7e cabe
000000b0: 1e19 1bbe 8858 cd3e 6d12 15bf 51c8 0cbf
000000c0: 2c13 fdbd 2b29 c13e ec77 da3e 2772 98be
000000d0: 2ecd e4be b33d 083f b790 93be 910a cbbe
000000e0: dbeb 813e e235 dcbe c590 0fbe 9566 e93e
000000f0: 7da6 05bf 4971 40be ff21 e13e 0126 c2be
0.4278963 0.22155572 -0.4803805 -0.14772464 -0.29672712 0.3934888 -0.15949176 0.5459461
0.35459852 -0.4456137 -0.37505364 -0.4226815 -0.5311184 -0.31463355 -0.14653966 0.101711355
-0.044314846 -0.3719862 -0.08980268 -0.15027127 -0.44811717 -0.8129116 0.20480108 -0.69723976
0.32917348 -0.55903554 -0.5594425 -0.6713323 -0.15708296 -0.44255796 -0.30754688 -0.26235905
0.39789405 -0.16845332 -0.49577382 0.48832792 0.3393745 -0.0035339515 -0.29954642 0.64455444
-0.557596 -0.36824802 0.37221137 -0.39549285 -0.151463 0.40106606 -0.5823124 -0.5499316
-0.12357172 0.3772672 0.42669618 -0.2977459 -0.4468779 0.53219146 -0.28821346 -0.396565
0.25375256 -0.4300986 -0.14020069 0.45586076 -0.52207166 -0.18793215 0.4397125 -0.3791962

net.2.weight f4 [64, 64]
00000000: 493f 40be 806c 30be 1ac3 d53e 439d f63d
00000010: 65da d33c cf70 22be 4cb8 fbbe 2555 8ebe
00000020: 9a4c d6bd 8f85 2a3d eff6 3abd 1589 83be
00000030: 36b5 91be 0b58 71bd 2763 2dbe 1277 d4bd
00000040: 6e1d 8dbd 1e9a 12bf 9d75 1abe 2a26 65be
00000050: 8975 d13a ad1e 923d 7f76 26bf 92d4 53bf
00000060: 9aa9 6c3e 3c83 f5be dd77 1f3f 0b6c 763e
00000070: db38 ebbe 5145 a2ba 2fe3 b63d bbd3 063e
00000080: c719 27bf 24c2 923d f786 a0be a955 5b3d
00000090: eca5 f0bd a7d7 a4bd 6b84 67be e22c 51be
000000a0: 2efc 9d3d 6dd6 83be 6aed 623c 6543 12be
000000b0: 4d8a 053d ac1a 023f 25f9 943d 65cd 943d
000000c0: 3fc5 5dbd 279a 28be 826a dabd 149a fcbe
000000d0: c95a cabd 9db1 0cbe 0a4d de3d 2b5e fd3d
000000e0: 2808 38bd 5209 dfbe 330a 9ebb cd81 02bf
000000f0: c87e c43f 4c96 21bc cb62 6abe 024e e53e
00000100: e7d1 bf3d ca9b ed3d 496e 4dbe f0e1 4a3e
00000110: 6506 543c 2b03 6f3d acaf 7ebb 3622 1dbe
00000120: ee9c 17be d045 3ebc 2051 b3bd 387b bcbd
00000130: 035c eb3d 78d7 b6bd 9aad 353d 2c0d febd
00000140: 387e 483d 7d40 163d 3b05 47bd 25b9 0ebe
00000150: cd6a 8abd 45d6 12bd 700b c2bb 4686 17be
00000160: 2ed5 97bd 2980 563d 7f25 273e ff63 27be
00000170: bf2f b7bd 554d abbd d43f 71bd c08a 51bd
00000180: 10e6 35be b7b1 be3c ccbb 70bd be3a 18bd
00000190: 8a6b 5bbe be71 2c3e cc67 7e3e 936d 60be
000001a0: 86b4 21bc 5b90 6bbd 5616 93bd 8011 bb3c
000001b0: 73ef bd3d 2787 27bb 8085 30be 3009 39be
000001c0: 0444 463e 974d 28be e5aa 07be 1197 57bd
000001d0: 8cbc 0cbd d3ce 6ebc ee43 113e 4e7b 9abd
000001e0: 6907 4ebe bb7e 7cbd c8c9 443e 2949 db3d
000001f0: 6e96 163e 6f7d d4bd 4aa1 51be 11f6 c33d
00000200: 41bc 43be 3853 32bf 70aa b4be d257 6dbf
00000210: 4857 bcbd 160b 18bf 0bea 7a3d 27d1 23be
00000220: 479e 2cbe 57db 393f ef0f 2240 116d debe
00000230: 5e1d ac3f c801 44bf ea2c e73d 80d8 b7be
00000240: 35c0 8bbe c8a9 41bd cb3a 813c c3e9 e3be
00000250: 5aee d3be 80de b6bd 15ef 8bbe bfc7 263f
00000260: 5153 c2be ee67 243d cd0c 093f 3f1f 27be
00000270: ae83 2f3c eb35 f23d 9093 30bf 8bf4 723d
00000280: c6f6 97be f0a2 183e d4b5 073e b47b f3be
00000290: 7ef8 213f 61ce 4dbe e786 a63e 06c0 1dbe
000002a0: be0b a43f 42ff 6e3f 769f 9ebd e571 84bd
000002b0: 5933 9a3d 6f74 a4be 6612 963e 2238 65be
000002c0: 02bf d3bd d7db 3b3d c17f 4bbf 710b 5b3f
000002d0: 9e73 273e 9d98 0cbe e3b1 0dbd 4b34 f8be
000002e0: 0de7 87bf cd85 92be de93 92bd c3a4 62bf
000002f0: a7f9 2f3f 4032 76bd 22be 57bf bf84 ad3e
00000300: badf d7bc eb36 763d fa6d 52bd 70fe 5b3d
00000310: ac22 bdbd e63d 15bd 833e f23c ba8e d8bd
00000320: 60d5 b7bd 70c4 81bd 83d5 6dbc 6182 49bc
00000330: c1ec d63d c2ef b8bd b85d e1bd a584 1d3c
00000340: 7109 d33c 607f bdbd bb7d f43d b860 36be
00000350: 8de2 0ebd ea36 5bbd d0b8 c83c 4739 adbd
00000360: 8a31 54be deb3 2e3d f89e 35bd ac17 8a3d
00000370: 5551 1e3e 729e 913c 9f3e f43c 249c febd
00000380: 8c60 fabc 4c42 813e b434 033c 0a2c 57be
00000390: 9f26 53bd ac36 f5bd 2317 28bd 5831 34be
000003a0: fd9f e3bc b8c6 553d bf11 23bc 83ca 99bd
000003b0: 22ac 643b d050 38bd 6097 6dbd 6568 903d
000003c0: 15ec 643e c031 3fbd 10b0 bebd 2593 0cbe
000003d0: 1c3c 78bd f5ce 143d 6af5 ecbc b08e 72bb
000003e0: 4721 2cbb cccc 82bd 5dde 6abd f6e2 19be
000003f0: ec3e 31bd f7af 533b 82f5 e03d fe68 a93d
-0.18774141 -0.1722889 0.41750413 0.12041714 0.025860975 -0.15863346 -0.49164045 -0.27799335
-0.10463829 0.041631278 -0.04564565 -0.25690523 -0.28458565 -0.058921855 -0.16932355 -0.10374273
-0.06890379 -0.57266414 -0.15083928 -0.2237784 0.0015980463 0.07134757 -0.6502456 -0.8274623
0.23111573 -0.47951686 0.6229227 0.24064653 -0.45941815 -0.0012380277 0.089300506 0.13166706
-0.6527371 0.07165936 -0.3135297 0.05354849 -0.11750397 -0.08048945 -0.22609107 -0.20427278
0.07714115 -0.2574953 0.013850549 -0.14283521 0.032602597 0.5082195 0.07274083 0.072657384
-0.054143187 -0.16465054 -0.10664846 -0.49336302 -0.09880597 -0.13739629 0.10854538 0.12371477
-0.044929653 -0.43561798 -0.004822993 -0.5097931 1.535119 -0.009862494 -0.22889249 0.44786078
0.093662076 0.1160198 -0.20061602 0.19812751 0.012940978 0.05835263 -0.0038862033 -0.15345082
-0.14805958 -0.011613324 -0.08755708 -0.092031896 0.11492159 -0.08927816 0.044355012 -0.12404856
0.048948497 0.036682595 -0.048588973 -0.13937815 -0.06758652 -0.035848875 -0.0059217736 -0.14797315
-0.07413708 0.052368317 0.16322897 -0.16346739 -0.08944654 -0.08364359 -0.058898762 -0.051157713
-0.17763543 0.0232781 -0.058772847 -0.037165396 -0.21427742 0.16840264 0.24844283 -0.21916799
-0.0098697 -0.057510715 -0.071819946 0.022835493 0.09274187 -0.0025562735 -0.17238426 -0.18069911
0.19361883 -0.16435848 -0.13248785 -0.052634303 -0.0343595 -0.014575678 0.1418607 -0.0754305
-0.20120014 -0.061644297 0.19217598 0.107073136 0.14705822 -0.10375487 -0.20471683 0.09568418
-0.19114782 -0.6965823 -0.35286283 -0.9271213 -0.09196335 -0.59391916 0.061258357 -0.15997754
-0.16857253 0.7260031 2.5322225 -0.43442586 1.3446462 -0.7656522 0.112878636 -0.35907364
-0.2729508 -0.047281057 0.015775105 -0.44514284 -0.41392785 -0.08929157 -0.27330843 0.6514854
-0.3795419 0.040138178 0.5353516 -0.16320513 0.010712547 0.1182669 -0.6897516 0.059315246
-0.2968046 0.14905906 0.13252956 -0.47555315 0.63269794 -0.20098259 0.32524797 -0.15405282
1.2816083 0.9335824 -0.077452585 -0.06467036 0.07529325 -0.32120082 0.29310912 -0.22384694
-0.10339166 0.045863952 -0.7949181 0.85564333 0.16352698 -0.13730092 -0.034593474 -0.48477396
-1.0617386 -0.28617707 -0.0715711 -0.88532656 0.68740314 -0.060106516 -0.84274495 0.3389034
-0.026351798 0.060110968 -0.051374413 0.053709447 -0.09235129 -0.036435984 0.029570824 -0.10574098
-0.08976245 -0.063362956 -0.014516237 -0.012299151 0.10494376 -0.09030105 -0.110042036 0.009614144
0.025761338 -0.092528105 0.11938044 -0.17810333 -0.034884024 -0.053519167 0.024502188 -0.084581904
-0.20722023 0.042652003 -0.044341058 0.06742796 0.15460713 0.017775748 0.029815016 -0.12432125
-0.030563615 0.25245893 0.008008171 -0.21012893 -0.051550504 -0.119733185 -0.04103769 -0.17596948
-0.02778625 0.052191466 -0.0099529615 -0.07509329 0.0034892638 -0.044998944 -0.05800569 0.07051162
0.22355683 -0.046678305 -0.09310925 -0.13728006 -0.0606042 0.036330182 -0.028925616 -0.0037011318
-0.0026264952 -0.06386718 -0.05734097 -0.15027985 -0.043272898 0.0032300928 0.10984327 0.08271979

net.2.bias f4 [64]
00000000: e554 0dbe 7cd1 823d 2c51 7bbe d14f cdbd
00000010: 394d 0f3f bab2 223f 7e1b 30be 0089 073f
00000020: 6df1 0bbe 675b 383f 4090 213e 1734 fd3e
00000030: 469f 083f 6615 063f cad2 bbbe 8d7b 9b3d
00000040: 86ad 1ebe 8e63 fa3e 4218 56bb 8d79 173f
00000050: 8d4a 1f3c 6a9b 5fbd 8293 153f 7b26 013f
00000060: 31c7 2b3f 4fa6 303d a5cc b03e 76a6 213e
00000070: c0d7 34bd 170b e63e f658 0cbe 89ce 173f
00000080: ef19 50be 23b5 fc3e 118c ffbb 5b05 65bd
00000090: c056 093f 0e1e 9cbd 8428 063f baff 283f
000000a0: eedb 99be 034a e33e 3e7e 93bd 142e 75be
000000b0: e7ae 413f 4c1f 1e3f f6ee 17be 7452 1a3f
000000c0: bd74 86bd acb2 773d c963 2d3f 0406 143f
000000d0: 9ee9 10be 64f1 d9bc 42b0 debd 101c 0a3f
000000e0: 798f 053e ccd6 403f 8532 0dbe 7a36 d5bd
000000f0: 6ddc 103f be06 39be a632 313f ffb1 f63e
-0.13801916 0.06387612 -0.24542683 -0.100249894 0.5597721 0.63553965 -0.17197987 0.5294342
-0.13666315 0.7201447 0.15777683 0.49453804 0.5336803 0.523764 -0.36684257 0.07591925
-0.15495881 0.4890408 -0.0032668267 0.59169847 0.009722364 -0.054591574 0.58428204 0.5044934
0.67100817 0.043127354 0.3453113 0.15786156 -0.044151068 0.44930336 -0.13705811 0.5929952
-0.20322393 0.49356946 -0.0077986796 -0.05591331 0.53647995 -0.0762292 0.5240557 0.6601521
-0.30050606 0.44392404 -0.07201813 -0.23943359 0.75657505 0.61766505 -0.1483725 0.60282063
-0.06565235 0.06047313 0.67730385 0.5782168 -0.14151618 -0.026604362 -0.10873462 0.5394907
0.13043012 0.75327754 -0.13788803 -0.10410781 0.56586343 -0.18068978 0.6921791 0.48182675

net.4.weight f4 [2, 64]
00000000: a657 18bf 69ea d6bd 9df2 16c0 aa1b 253e
00000010: 9f82 873f 1df6 b43f 75d7 4bc0 4ebd 813f
00000020: 3c79 7f3e c5db 9d3f e798 3fc0 e5d9 963f
00000030: e74c 0c3f 2bf8 9d3f 2ba8 1ec0 2dfe 8c3c
00000040: b0e0 453d 3730 653f de3d 983d 49a1 c03f
00000050: d74b 21bd 4b47 f9bd 660d 623f 4fdb b93f
00000060: 1698 c33f 28d6 b7bc de09 943f f70e b4bd
00000070: fd53 993d 5084 ba3f eb98 3bc0 6be4 923f
00000080: 2f93 80c0 702a 373f d46c 11c0 27bb 2fc0
00000090: 3127 7f3f 1114 583e 9638 9e3f c247 893f
000000a0: b5cd 8fbe 6551 693f 1e8c a53e 0e34 a9be
000000b0: 0e4a 603e 39c2 803f 2739 343c b1e8 823f
000000c0: f1b2 56bc 0e6e ab3e 172d a43f f948 953f
000000d0: ec0f 89bd 28b7 16c0 a8bc cebc bdf5 783f
000000e0: baa3 e5be b808 993f b9db 9ebb 5d6e 9dbd
000000f0: 473b 473f 5a77 b4bc 870c 443f 3992 9f3f
00000100: b898 4e3f 9f0a ac3c f9cf cabf a409 0cbe
00000110: 223d a73f a30f b03f a25f 90c0 4364 4f3f
00000120: 4e25 80be 9434 b13f 3cb9 2dc0 c6ed 5a3f
00000130: 2300 a43f 3931 433f f295 82c0 242f 0cbe
00000140: 7f25 283e a73f 9a3f 0658 a6bd cd94 9b3f
00000150: 4fdc a73c 8546 12be 75ce b03f b99a b33f
00000160: 5296 213f dd68 15be 9b38 793f 7491 ff3b
00000170: 569f 91bb 16ec 743f f209 48c0 5bc4 c23f
00000180: f0ad afc0 15c9 933f f46b dfbf a809 bebf
00000190: ecda a63f 2342 763d fb73 803f d7ae 4c3f
000001a0: b898 35c0 0331 553f 61aa 53be 221b 6e3e
000001b0: 76c0 993f 3184 183f 1bef cf3c c4e0 663f
000001c0: 4ce0 05bc c7fa 23be 7ecc a63f 9fab d83f
000001d0: bedb 05be 8940 56c0 de84 a13d 45a7 923f
000001e0: ea42 eb3e cb37 073f 400f 4b3d bd41 823b
000001f0: 32b0 a23f 78b8 ed3d 45fe a13f 481b 753f
-0.5950874 -0.10493929 -2.358558 0.16123834 1.0586737 1.4137608 -3.1850255 1.0135896
0.24948591 1.2332693 -2.9937074 1.1785246 0.54804844 1.234136 -2.4790142 0.017211044
0.04830998 0.89526695 0.07433675 1.504922 -0.039378967 -0.12171801 0.88301694 1.4520053
1.5280788 -0.022440985 1.1565511 -0.08791917 0.074867226 1.4571629 -2.9312084 1.1475958
-4.0179667 0.7154913 -2.2722673 -2.7457979 0.99669176 0.21101405 1.2361019 1.0725024
-0.2808663 0.91139823 0.32333463 -0.33047527 0.2190325 1.0059272 0.010999954 1.0227262
-0.013104186 0.33482403 1.282626 1.1662894 -0.0669249 -2.354929 -0.025236443 0.97249967
-0.44851476 1.1955786 -0.0048479703 -0.07687066 0.77824825 -0.022029568 0.76581615 1.2466499
0.8070178 0.021001158 -1.5844718 -0.13675553 1.3065531 1.3754772 -4.511674 0.8101236
-0.2502846 1.384417 -2.7144308 0.85519063 1.2812542 0.7624698 -4.080804 -0.13689858
0.16420554 1.2050675 -0.08122258 1.2154785 0.020490794 -0.14284714 1.3813006 1.4031593
0.63119996 -0.14590783 0.97352 0.007799322 -0.004444043 0.9567274 -3.125607 1.5216173
-5.4899826 1.154574 -1.745482 -1.4846697 1.303556 0.060121667 1.0035394 0.79954284
-2.8374462 0.8327791 -0.20670463 0.23252538 1.201186 0.5957671 0.025382569 0.90186715
-0.008171152 -0.16013633 1.3031156 1.6927375 -0.13072106 -3.347689 0.078866705 1.1457297
0.4594949 0.5281951 0.04957509 0.003975122 1.271002 0.1160745 1.2655722 0.9574475

net.4.bias f4 [2]
00000000: a89e 223f d697 b73e
0.6352334 0.3585803

exp_avg f4 [64, 4]
00000000: aac9 9bbe 0904 66bd 3613 76be 9516 1cbf
00000010: 5500 54bd 1cca ddbc 608b 93bd 4b94 8cbd
00000020: 4aaf e93f 2ba9 8fbf 4866 763f 754f d540
00000030: db3c 743d 1c4a a03d 7df4 0e3b ba70 2abd
00000040: 0400 0080 0400 0080 0400 0080 0400 0000
00000050: 45aa 0bbf 5623 f1bc 50a1 30be 2cca 8ebf
00000060: 0400 0000 0400 0000 0400 0000 0400 0000
00000070: bfee fbbe bcdc 8cbd 4bee c0be d233 81bf
00000080: fb04 3cbe d60f 4d3c 35f7 48be c93d fabe
00000090: 0400 0080 0400 0080 0400 0080 0400 0000
000000a0: 7b9f a2bf dfbd 6bbf b1db 4cbd 8eea a7ba
000000b0: b201 a6bf 0851 e5bf 01e7 bc3f d288 0940
000000c0: 7587 bdbf 6d7c 90bf 5227 1cbd 6f5b 24bc
000000d0: a5df e1bd e3b7 4ebe e817 04bc 209b de3d
000000e0: 0400 0000 0400 0000 0400 0000 0400 0000
000000f0: 9730 5dbc 246d 2a3e ed7a 3fbe 1ba4 b0be
00000100: 0b4d 88be 2d2c 76bc 0cc0 29bf 472c 8cbf
00000110: ddbe 733e 5a95 7e3e 7889 c83c a94b 89bc
00000120: 0400 0080 0400 0080 0400 0080 0400 0000
00000130: 94d9 f7bd a0a9 a0bd dd27 06bd 287f 1abe
00000140: 0400 0000 0400 0000 0400 0080 0400 0080
00000150: 899d 1d3f 4ef8 fb3e 7ad3 41bc eb83 cbbd
00000160: 317f 92be e39d d8bc f38f e1bd ea1b 30bf
00000170: 20b1 8e3e 286d ae3d 5e9b a5bb e81b 033e
00000180: 2270 c23e 20ce 543f a4b9 bcbe 205e 19bf
00000190: 809a b6bd e622 bfbd 2d4e 6ebc a2bb cc3c
000001a0: a7a1 d240 11af b340 7b6d 693f ad1e 0340
000001b0: e685 0040 948a 0240 00f4 283e 0634 cebd
000001c0: 2689 4f3e a975 ccbd 0379 793d 0237 153f
000001d0: 6cc2 3ebe 5bbf 25be c1af a4bb 77f2 9e3c
000001e0: 0d20 08be 855d 623c 39a5 3bbd 316f 4fbe
000001f0: 0400 0080 0400 0080 0400 0080 0400 0000
00000200: 49ae 84be a5da 8cbd 0513 8fbe 148b 2ebf
00000210: 0400 0000 0400 0000 0400 0000 0400 0000
00000220: 0400 0000 0400 0000 0400 0000 0400 0000
00000230: 63a6 e8be c966 bbbd bd01 99be df8d 5bbf
00000240: 8cf2 21be 13e5 6dbe 9562 0d3f 3063 293f
00000250: 2718 1f3d 0aff a63d d5e8 e53c 5218 b73b
00000260: 0400 0080 0400 0080 0400 0000 0400 0000
00000270: b542 23bf 51d1 d3bd 7a4a ecbe c1c5 a4bf
00000280: 0400 0080 0400 0080 0400 0080 0400 0080
00000290: 3451 0440 ea20 1e40 d398 0440 404f c53f
000002a0: 0bc8 333f f90c e13e ac75 8bbe 9a26 883d
000002b0: 0400 0080 0400 0000 0400 0000 0400 0080
000002c0: 0400 0080 0400 0080 0400 0080 0400 0080
000002d0: 8bd7 0e3f 0757 533f e7a3 52bf 654e a6bf
000002e0: ba04 fbbf 9bfe dabf 930c f13f f1d4 f43f
000002f0: 7456 0a3e 2d7a 043e 78b9 753b e243 1ebd
00000300: 0400 0080 0400 0080 0400 0080 0400 0080
00000310: 2e5f d5be ebae b6bd b1aa 85be 7291 3fbf
00000320: dcb9 ec3c 64de 823d 03cd 4f3d f123 65bd
00000330: f91c 63bd df91 89be 5370 593d 6e5d c63e
00000340: 0400 0080 0400 0080 0400 0080 0400 0000
00000350: 36df d8be ea21 663c 66f3 dabe e868 8cbf
00000360: 0000 0000 0000 0000 0000 0000 0000 0000
00000370: 0400 0000 0400 0000 0400 0000 0400 0080
00000380: 6be5 8c3e c833 353e be4b f8be 7bb9 24bf
00000390: 0400 0080 0400 0080 0400 0000 0400 0000
000003a0: 0400 0000 0400 0000 0400 0000 0400 0080
000003b0: 8b31 3fbf 0ebf 23bd 31a5 c6be 3cfa d3bf
000003c0: 0400 0000 0400 0000 0400 0000 0400 0000
000003d0: 0400 0000 0400 0000 0400 0080 0400 0080
000003e0: 3ef2 5abf fa82 72bd 41e2 92be 6b82 debf
000003f0: 0400 0000 0400 0000 0400 0000 0400 0000
-0.30427295 -0.056156192 -0.24030766 -0.6097196 -0.05175813 -0.027073912 -0.07204318 -0.06864222
1.8256619 -1.1223501 0.9624982 6.6659493 0.05962835 0.07826635 0.0021813207 -0.04161141
-6e-45 -6e-45 -6e-45 6e-45 -0.54556686 -0.029435795 -0.17249036 -1.1155448
6e-45 6e-45 6e-45 6e-45 -0.49205586 -0.06878039 -0.37681803 -1.0093939
-0.18361275 0.012515983 -0.19625552 -0.48875263 -6e-45 -6e-45 -6e-45 6e-45
-1.270492 -0.92086595 -0.0500142 -0.0012810992 -1.2969267 -1.7915354 1.4757997 2.1489758
-1.4806963 -1.1287972 -0.038123436 -0.010031565 -0.11028985 -0.20187335 -0.00806234 0.108694315
6e-45 6e-45 6e-45 6e-45 -0.013500354 0.16643196 -0.18699236 -0.34500203
-0.2662128 -0.015025181 -0.66308665 -1.0951012 0.23803277 0.2486166 0.024479613 -0.01675971
-6e-45 -6e-45 -6e-45 6e-45 -0.121020466 -0.078448534 -0.03275286 -0.15087569
6e-45 6e-45 -6e-45 -6e-45 0.61568505 0.4921288 -0.011830205 -0.09937271
-0.28612664 -0.026442474 -0.11013784 -0.68792593 0.2786951 0.08516914 -0.0050539216 0.12803614
0.37976176 0.8312702 -0.36860383 -0.5990925 -0.08916187 -0.09332828 -0.014545006 0.024991814
6.582233 5.6151204 0.9118268 2.0487473 2.0081725 2.0397081 0.16499329 -0.100685164
0.20267162 -0.099833794 0.06090642 0.5828706 -0.18628854 -0.16186278 -0.0050258343 0.019402726
-0.13293476 0.013816242 -0.045811865 -0.2025726 -6e-45 -6e-45 -6e-45 6e-45
-0.2591422 -0.06877641 -0.27944198 -0.68180966 6e-45 6e-45 6e-45 6e-45
6e-45 6e-45 6e-45 6e-45 -0.45439443 -0.09150464 -0.2988414 -0.85763353
-0.1581518 -0.23231916 0.5522855 0.66166973 0.038841393 0.081541136 0.028065125 0.005587616
-6e-45 -6e-45 6e-45 6e-45 -0.6377366 -0.10342658 -0.4615057 -1.287285
-6e-45 -6e-45 -6e-45 -6e-45 2.0674562 2.470759 2.0718277 1.541481
0.70227116 0.4395521 -0.27238214 0.06647988 -6e-45 6e-45 6e-45 -6e-45
-6e-45 -6e-45 -6e-45 -6e-45 0.5579764 0.8255467 -0.82281345 -1.2992674
-1.9610817 -1.710895 1.8831962 1.9127485 0.13509542 0.12937231 0.0037494581 -0.038638957
-6e-45 -6e-45 -6e-45 -6e-45 -0.4167418 -0.08920082 -0.2610679 -0.74831307
0.028897218 0.06390074 0.050732624 -0.05594248 -0.055447552 -0.26869103 0.053085636 0.38743156
-6e-45 -6e-45 -6e-45 6e-45 -0.42357796 0.014046172 -0.42763823 -1.0969515
0.0 0.0 0.0 0.0 6e-45 6e-45 6e-45 -6e-45
0.27518782 0.17695534 -0.48495287 -0.6434552 -6e-45 -6e-45 6e-45 6e-45
6e-45 6e-45 6e-45 -6e-45 -0.7468497 -0.039977126 -0.38797906 -1.656074
6e-45 6e-45 6e-45 6e-45 6e-45 6e-45 -6e-45 -6e-45
-0.8552588 -0.05920694 -0.28688243 -1.738355 6e-45 6e-45 6e-45 6e-45

exp_avg_sq f4 [64, 4]
00000000: 11ee 613f 1594 f63f 47a4 de3d b058 0540
00000010: d0d2 a43d bd5c 373e 8ee2 4d3c 647b 443e
00000020: 2009 2641 4de4 9e42 4500 cc40 d88c 5943
00000030: 4c37 173c f3cc 043c 7790 df39 e163 7a3c
00000040: fe06 0000 6f05 0000 f401 0000 f401 0000
00000050: 3b51 2e3f 22bf 6540 8ee4 6e3e c5b3 0541
00000060: 46c8 6003 0193 2403 407d 1900 6894 bc01
00000070: 8fe4 0b40 82aa 9540 adb0 8d3e 1f5d b040
00000080: 03f1 f73e 1731 8d3f 6b26 913d fdce a63f
00000090: c0fc 711c a132 7f1c f664 0217 0998 de1a
000000a0: 31b3 bc40 dbeb 6f40 c561 923c 6967 953d
000000b0: f52e 2840 2e74 b541 3e55 9a40 1cb0 6e42
000000c0: f43f 9d40 ce75 4040 d176 073c ad1f 813d
000000d0: 5177 d93d 4ca4 553e 597c 363b 4b32 433e
000000e0: f401 0000 f401 0000 f401 0000 f401 0000
000000f0: 1a48 ed3d 5d68 b83e 7ced 203d 4725 2f3f
00000100: f7a5 853f d5bb 2540 f775 f03e a51f af40
00000110: c04c fd3d 4607 023e 8d76 6d3a d27c 8e3b
00000120: f401 0000 f401 0000 f401 0000 f401 0000
00000130: 4c78 0f3e 3351 843e 1ead 703d b862 173f
00000140: 5b8b e837 78d6 5638 12a0 3d34 ea0b bf37
00000150: f974 d940 7cc4 8240 3cd9 c23b a933 453f
00000160: 086c 4f3e 0882 da3f f839 fd3d 1fba 9040
00000170: 6a19 9840 27a8 3940 ff61 183c 51cf 3e3f
00000180: 96b1 ad3e d016 0740 92e2 e83e 5106 d340
00000190: d0b4 bd3b 3d92 113d f57e 1d3b 92d9 b43d
000001a0: 6599 2a42 8424 0d42 3989 063f b3fe f840
000001b0: 2f0b f840 c692 da40 a125 113d 16bc 063f
000001c0: c547 243e 8c04 533f dc41 763d d553 0940
000001d0: f9b5 1c3e d77d 033e 3240 0f3a 8091 e73b
000001e0: 06fa 083e 8de6 933e a936 613b c9c8 603e
000001f0: f401 0000 f401 0000 f401 0000 f401 0000
00000200: f49b a33f e858 0b40 8808 ec3d 17ca fd3f
00000210: a2f2 2318 7b52 b317 8c85 b814 843f 6317
00000220: 8228 b13c 4573 3b3d ea09 d23a bf05 283c
00000230: 5251 ac3f 63e0 5640 db24 393e 20a0 7d40
00000240: d8fc 733f 0c5f 5540 9deb 0d3f 6493 cc40
00000250: 39a3 293c 63af af3d 1a49 073c e8d8 593e
00000260: f401 0000 f401 0000 f401 0000 f401 0000
00000270: a7f7 3c40 8002 ea40 b323 d73e c8e0 0b41
00000280: 9e7a 8017 fb85 8e16 9a85 8813 acd6 a513
00000290: 3edd 8f41 8b90 0942 63e1 cf40 fa09 6d42
000002a0: 898e e73e 361d e43f c6af 1a3e a2ea 4440
000002b0: 6230 5e2b a6fe 9628 7b8a 2726 3eca bb28
000002c0: b272 670f 1c74 540f 054c 120b 2ab0 6b0a
000002d0: 3b59 4a3f dd91 6a40 2559 663f 991a 1e41
000002e0: b6f3 a340 de01 f441 27ce ff40 1ff9 a742
000002f0: 88b9 173e 8bc5 db3d 539b 2139 7698 da3c
00000300: 97a1 0400 b699 0000 cf03 0000 1f15 0000
00000310: 4f2f 953f 7e64 1240 0cf9 083e 786f 3640
00000320: 75cd 0c3d 0418 0c3f 2e67 173d 2590 ab3f
00000330: b543 383d 1369 833f ff65 383d 871a 0940
00000340: 7475 053d 7b1f 8f3d 8cfc 193b 8b2b 693c
00000350: 7535 fc3f 2b31 9740 c89b a63e c2fd be40
00000360: 0000 0000 0000 0000 0000 0000 0000 0000
00000370: bdbf 3625 11ae 4426 1686 b722 8d4a 0825
00000380: 3fb8 293e 7d38 873f e4dc a83e c09a 6440
00000390: b3ac 0b11 5e2f d412 dce3 710d 0486 5e12
000003a0: f401 0000 f401 0000 f401 0000 f401 0000
000003b0: 99c4 e53f 4508 da40 ccc6 d43e f779 5241
000003c0: a229 2407 1dcf 5606 8d31 b702 a97f ad04
000003d0: f401 0000 f401 0000 f401 0000 f401 0000
000003e0: 0667 d43f 088d fa40 4080 003f af93 8d41
000003f0: 31d7 2e23 0ecb 1b22 23f3 ce1e 4d0c 3022
0.88253886 1.9263941 0.10871177 2.083538 0.08048022 0.1790647 0.012566222 0.19187695
10.377228 79.4459 6.375033 217.55017 0.009229492 0.008105504 0.0004264151 0.015282602
2.508e-42 1.949e-42 7e-43 7e-43 0.680927 3.5897908 0.23329374 8.356389
6.6057586e-37 4.836402e-37 2.340819e-39 6.9273246e-38 2.185825 4.677064 0.27673855 5.5113673
0.48426065 1.1030606 0.07087406 1.3031918 8.0066883e-22 8.443786e-22 4.2132696e-25 9.2062674e-23
5.896874 3.7487705 0.017868886 0.072951145 2.627866 22.681728 4.8229055 59.67198
4.914057 3.0071902 0.008268074 0.0630487 0.10618461 0.20863456 0.0027845113 0.19062154
7e-43 7e-43 7e-43 7e-43 0.11586018 0.36017123 0.039288983 0.68416256
1.0441273 2.5895894 0.46965 5.472613 0.123681545 0.12698087 0.0009058498 0.004348376
7e-43 7e-43 7e-43 7e-43 0.14010733 0.258432 0.058758847 0.5913501
2.7721448e-05 5.1221316e-05 1.766023e-07 2.2774522e-05 6.795529 4.086485 0.0059463065 0.7703195
0.20256054 1.7070932 0.12364572 4.52272 4.7531023 2.9008882 0.009300708 0.7453509
0.3392455 2.1107674 0.4548536 6.594521 0.005789377 0.035539854 0.002403197 0.08830561
42.6498 35.28566 0.52553135 7.781091 7.751365 6.8304167 0.035436276 0.52630746
0.16043003 0.82428813 0.060121402 2.1457417 0.15303792 0.12840973 0.0005464583 0.0070669055
0.13376626 0.28886834 0.0034364855 0.21951593 7e-43 7e-43 7e-43 7e-43
1.2781968 2.1773014 0.11525065 1.9827298 2.1189754e-24 1.1588425e-24 1.8631927e-26 7.3427824e-25
0.021625761 0.045764226 0.0016024683 0.010255276 1.3462317 3.3574455 0.18080465 3.9628983
0.95307684 3.3339262 0.5543764 6.392992 0.010353857 0.08578374 0.008257175 0.2127415
7e-43 7e-43 7e-43 7e-43 2.9526155 7.312805 0.42019424 8.742378
8.302759e-25 2.302589e-25 3.4462968e-27 4.186354e-27 17.983028 34.391155 6.496263 59.259743
0.45225933 1.7821414 0.15106115 3.0768209 7.893739e-13 1.6763782e-14 5.812744e-16 2.0848879e-14
1.1411269e-29 1.0474769e-29 2.8175768e-32 1.1347971e-32 0.79042405 3.6651528 0.89979774 9.881494
5.1235 30.500912 7.993915 83.986565 0.14816868 0.10731038 0.0001541202 0.026684027
4.2531e-40 5.5141e-41 1.366e-42 7.577e-42 1.1655062 2.2873836 0.13376254 2.8505535
0.034375627 0.54724145 0.036963634 1.3403364 0.044986445 1.0266441 0.045019146 2.142244
0.032582715 0.06988426 0.0023496477 0.014231573 1.9703814 4.724752 0.32540727 5.9684763
0.0 0.0 0.0 0.0 1.5850947e-16 6.8237064e-16 4.974422e-18 1.1821378e-16
0.1657419 1.0564114 0.32981026 3.5719452 1.1018384e-28 1.3390758e-27 7.4538134e-31 7.0216035e-28
7e-43 7e-43 7e-43 7e-43 1.7950622 6.8135095 0.4155792 13.154777
1.2350223e-34 4.040109e-35 2.6917874e-37 4.0789342e-36 7e-43 7e-43 7e-43 7e-43
1.659394 7.8297157 0.50195694 17.697111 9.4781275e-18 2.1113913e-18 2.1911657e-20 2.385896e-18

exp_avg f4 [64]
00000000: 6d07 0dbd 9ba8 9f3e ac9b f740 f87f ecbc
00000010: 0400 0000 4e42 aabf 0400 0000 74b1 c4bd
00000020: ddfa ac3d 0400 0000 03e4 363f 7a48 c5c0
00000030: 2237 623f 1f8e c0bd 0400 0000 f712 313f
00000040: 18a4 a73f 10c5 323e 0400 0000 d997 843e
00000050: 0400 0000 6f85 8c3e 1908 65bf 17f4 ec3d
00000060: 365e cf3f 7e91 193d b603 d240 8660 cb3f
00000070: bc11 173f 7838 0c3e b977 743d 0400 0000
00000080: 3f97 78bf 0400 0000 0400 0000 dcad 6abe
00000090: 7c15 f4bf ed8d c2bd 0400 0000 90f1 8abe
000000a0: 0400 0000 35a2 87c0 f019 2640 0400 0000
000000b0: 0400 0000 db42 4440 7529 f9c0 94b5 853d
000000c0: 0400 0000 19b5 65be 1bcf b4be ad79 c83e
000000d0: 0400 0080 d364 f43d 0000 0000 0400 0000
000000e0: 820d c03f 0400 0000 0400 0000 3205 c6bf
000000f0: 0400 0000 0400 0000 b787 07c0 0400 0000
-0.03443091 0.31183323 7.737753 -0.028869614 6e-45 -1.3301485 6e-45 -0.09604159
0.08446286 6e-45 0.7144167 -6.165097 0.88365376 -0.094021074 6e-45 0.69169563
1.3096952 0.17457986 6e-45 0.258971 6e-45 0.27445552 -0.8946548 0.11569994
1.6200626 0.037492268 6.562953 1.5888832 0.59011436 0.13693416 0.05968449 6e-45
-0.97105783 6e-45 6e-45 -0.22917885 -1.9069057 -0.094997264 6e-45 -0.27137423
6e-45 -4.2385507 2.595333 6e-45 6e-45 3.0665805 -7.7863107 0.06528774
6e-45 -0.22432365 -0.3531426 0.3915533 -6e-45 0.11933293 0.0 6e-45
1.5004122 6e-45 6e-45 -1.5470335 6e-45 6e-45 -2.1176584 6e-45
