CartPole/Experiment_1/23-09-26_22-10-39-937242_DQN/checkpoints/agent_115500.pt (torch, 82603 bytes, 24 tensors)

net.0.weight f4 [64, 4]
000000 14 41 b4 bc 99 78 0f 3e 95 95 43 3e 79 3d 27 3d
       -0.022003688 0.14010848 0.1910003 0.04083011
000010 8d f8 47 3d 74 6d 98 bd ce 85 1d 3f 9a 6a 9e bd
       0.04882102 -0.074427515 0.61532295 -0.077351764
000020 91 c2 fa bd a3 70 84 3d ec f5 0e 40 cd df 7c 3e
       -0.12244142 0.06466796 2.2337599 0.24694748
000030 18 8d 28 be fb d2 2f bf 1a 8b c4 be c4 ed c8 be
       -0.16460073 -0.68681306 -0.38387376 -0.392439
000040 e6 bc ab bd d7 7e a8 bc 0c d1 46 3d 72 b2 36 3b
       -0.08385639 -0.020568294 0.048539206 0.0027877358
000050 11 3e c0 3e 51 d3 21 be 9f 17 af bf 9c bb 5e be
       0.37547353 -0.15803267 -1.3679084 -0.21751255
000060 a2 e1 93 bd 8a 32 ca 3d 0e 2b 10 bf 5f 82 c1 3d
       -0.072207704 0.09872921 -0.56315696 0.094486944
000070 02 dc d9 bd 5f 89 65 3d 1e 93 8f 3d e8 63 ab 3d
       -0.10637666 0.05603921 0.07010482 0.08368665
000080 0b 83 14 bc 6a b5 0d bc ee 68 1c 3e d1 39 26 bd
       -0.009064446 -0.0086492095 0.15274402 -0.04058248
000090 aa 6b 13 be 61 6d 5e 3d ee 87 cd bb 0e ee 29 3e
       -0.1439654 0.05430353 -0.0062723076 0.16594717
0000a0 04 dc 7c be a7 ef ba bd 74 f2 59 bf ce 0b b1 bd
       -0.24693304 -0.09127741 -0.8513558 -0.0864483
0000b0 91 ac 5d 3e db d3 44 be 22 bb 19 c0 3e 22 d1 be
       0.2164786 -0.19221441 -2.4020467 -0.40846437
0000c0 4c b8 a5 be 57 bf 34 be 32 51 e8 3d 31 02 d9 bd
       -0.3236717 -0.17651115 0.11343612 -0.10596121
0000d0 90 d9 3e 3e 72 06 ce 3e 2b c7 89 3f 9c 44 fd 3e
       0.18637681 0.40239292 1.0763906 0.49466407
0000e0 6f bc db 3c 9e fd 0d bc fc 6a 3e be 88 86 b0 bc
       0.02682325 -0.008666424 -0.18595499 -0.021548524
0000f0 01 04 b1 bc 22 8a b1 3e e4 3b 61 3f a9 11 7d be
       -0.021608355 0.346757 0.8798201 -0.24713768
000100 e1 ef 65 3e 2e b6 fe 3e ae cf 53 bf 02 be 5c 3e
       0.22454788 0.49748367 -0.8273877 0.21556857
000110 d6 5e 77 3e 6a 3c 00 bd 49 85 54 be 7c a9 d4 bc
       0.24157271 -0.031307615 -0.20753969 -0.025959723
000120 ee 6e 45 3d 46 05 2e bd d7 e5 c4 bd 90 ed 03 bd
       0.048201494 -0.042485498 -0.09614151 -0.03220898
000130 5c e6 80 be 3e e0 bf be 1c d5 58 bf e0 72 98 be
       -0.2517575 -0.3747577 -0.8470018 -0.29775143
000140 f6 e3 02 3c 53 11 54 3d 4d 4c 15 bf de 0a b5 3c
       0.00798892 0.051774334 -0.5831955 0.022099908
000150 96 c0 ce 3e cd e9 4b 3d 08 3f ac 3e 71 0a 60 3d
       0.40381306 0.049783517 0.3364184 0.054697458
000160 ca 81 68 3c a9 5c 27 be aa 4a 0c bf 90 a8 b3 3c
       0.0141911 -0.16343941 -0.5480143 0.021930963
000170 55 02 cb 3e 89 c5 f6 bd 54 1d 63 be f9 84 a3 bd
       0.39650217 -0.120493956 -0.22179157 -0.07984347
000180 75 8e 0d be 62 f1 b3 3e 97 86 e1 3f f9 61 40 bd
       -0.13823874 0.35145098 1.7619199 -0.046968434
000190 6c 74 6c 3e b9 33 58 be 50 12 cb 3f d5 59 0f 3f
       0.23091286 -0.2111348 1.5864964 0.5599645
0001a0 0d 1b 4a 3e d1 c3 9e 3e df ce ab 3f 69 a3 71 3e
       0.19736882 0.3100877 1.3422507 0.23597492
0001b0 58 20 1f 3f db 04 17 3e f7 e9 00 3f 79 44 d7 3d
       0.6215873 0.14747946 0.50357 0.10511107
0001c0 ec 5c a8 3e 94 00 b9 bd f9 8d ba 3f 8e 4e be 3e
       0.32883394 -0.090333134 1.4574577 0.37169307
0001d0 63 de 30 be 9d 09 9e be df c0 84 bf bb 90 a3 be
       -0.17272334 -0.3086671 -1.037136 -0.31946358
0001e0 34 ee 42 bc 1c d9 c1 3e 9d 73 df 3f a4 57 cc 3d
       -0.011897612 0.37860954 1.7457157 0.099776536
0001f0 fb cd e9 bc 62 e9 a8 bc a6 4b ee 3c 74 01 91 bd
       -0.028540602 -0.020619098 0.029088806 -0.07080355
000200 93 60 c4 bc bc 8e 61 3c 01 0d 9d bf b7 3a 64 be
       -0.023971831 0.013766941 -1.2269593 -0.22288023
000210 d2 25 10 bd f5 ca cc 3c 08 65 4e bd cc 83 96 3c
       -0.03519232 0.024999121 -0.05038932 0.018373393
000220 68 74 f4 bd 4c 16 81 3e 76 cd 9c 3f 5f f5 9b 3e
       -0.11936265 0.25212324 1.2250202 0.3046064
000230 0b 3c 25 3e 59 ed f8 b9 1f ae 36 bd 78 2e 72 3d
       0.16136186 -0.00047479084 -0.04459965 0.059126347
000240 b2 da 50 3e 0c c7 f0 bd 4e 0a 22 c0 25 53 d6 be
       0.20395926 -0.11756715 -2.531879 -0.4186031
000250 5f 1a 9d 3d fd ad 0f bf 49 cc 40 3f 97 09 0c be
       0.076710455 -0.5612486 0.75311714 -0.13675533
000260 40 07 47 bd 42 28 86 3d 81 5a 55 be f0 70 24 3e
       -0.0485909 0.06550647 -0.20835306 0.16058707
000270 9d c8 04 3e dd 57 82 bd 1f 03 ea 3b f1 cf 31 3d
       0.12967153 -0.06364415 0.0071414853 0.0434112
000280 7c 2b 11 be 71 b7 42 bd e8 03 46 be 8c 7d 6e bd
       -0.14176744 -0.047538225 -0.19337428 -0.0582252
000290 01 4a 16 3f e0 59 bc bd 84 7e d4 bf 6f b1 ef bd
       0.5870667 -0.0919683 -1.660111 -0.11703765
0002a0 35 cd 88 be da a5 c5 3e d5 6d ca 3f 46 43 a2 3e
       -0.2671906 0.38603097 1.5814768 0.3169195
0002b0 21 39 50 be ed c2 5c 3e ce 35 ab 3e b0 34 c8 3d
       -0.20334293 0.21558733 0.33439487 0.09775674
0002c0 a4 b6 2b 3d f7 e1 e0 bc 99 a0 a6 bd dd ef 3c bc
       0.041922227 -0.027451498 -0.081361 -0.011531797
0002d0 c1 00 87 be ed 77 88 3e f4 8e da 3f c2 ff 55 3e
       -0.26367763 0.26653996 1.7074876 0.20898345
0002e0 4a 2a 96 3e 93 83 71 be 2c 81 2f c0 2d 13 f2 be
       0.2932914 -0.23585348 -2.742259 -0.47280255
0002f0 c2 65 1f 3f b8 ac 84 bd 20 b2 2c bf 7b 0c d0 be
       0.62264645 -0.06478256 -0.674593 -0.40634522
000300 8e 0a 30 bc 71 07 35 3d 3c 70 ca ba 19 4f 1f 3d
       -0.010744704 0.04419655 -0.0015444825 0.038893793
000310 02 bd e2 bd b4 43 9f 3d 0e b5 8d be e8 30 ab 3d
       -0.11071207 0.07776585 -0.27677196 0.083589375
000320 6d 3e a3 be a6 60 64 bc 3a 1f 87 bf b4 ad 4b be
       -0.31883565 -0.013939058 -1.0556405 -0.19890481
000330 a4 e6 46 bf 68 85 f0 bd 60 57 da 3e 5e 79 65 3d
       -0.7769568 -0.11744195 0.42644787 0.056023948
000340 fd 7b e8 bd 85 2c 4e 3e 2c e5 9e 3f c0 63 38 3e
       -0.11351774 0.2013417 1.2413688 0.18006802
000350 42 40 0c bd 00 74 88 bb 58 c3 c2 3e 78 e1 84 3d
       -0.03424097 -0.004164219 0.3803966 0.06488317
000360 47 a5 17 3d 22 8a 7d 3c 12 96 53 bd 53 c0 93 3c
       0.037022855 0.015474828 -0.05165679 0.018036043
000370 21 c8 50 be 97 9a 1f 3e 84 a2 45 3f 8b 49 5f 3d
       -0.20388843 0.15586315 0.77201104 0.054513495
000380 f0 f4 c6 3e ff df b5 3c 89 3f 82 bf 14 66 bf 3d
       0.38858747 0.022201536 -1.0175639 0.09345642
000390 f1 8d 8d 3d 5f bf af bd f7 fc ec be 7e 8e 7c 3c
       0.06911839 -0.08581423 -0.46286747 0.015414832
0003a0 4a 55 ee bc d7 a5 a8 3d 3d 15 94 bd 91 9a 3b 3d
       -0.029093403 0.082347564 -0.072306134 0.045801703
0003b0 57 66 f2 3d 4e c3 d4 bd 1c ff 77 bf 49 ba 93 be
       0.11835926 -0.10388814 -0.9687364 -0.28853062
0003c0 73 28 f0 3d 8a 49 4c bc e2 ef 82 3f b0 d8 97 3c
       0.11726465 -0.012468705 1.0229456 0.018535942
0003d0 3c b0 c5 bc d1 b4 82 3c 4f 6f 69 bd ae 8b ef bc
       -0.024131887 0.01595536 -0.056990918 -0.02924141
0003e0 1c 7b 75 3e f1 94 03 be c8 77 ed bf 11 e1 32 be
       0.23972744 -0.12849785 -1.8552179 -0.17468669
0003f0 7a 6c 15 3e ba 26 1f be c9 f2 cb 3e 99 fb b7 bc
       0.14592162 -0.15542117 0.39833668 -0.022458838

net.0.bias f4 [64]
000000 4b 0e d8 3e 12 1f 08 3a 39 b3 0a bf 6f 4b 6a be
       0.42198405 0.0005192618 -0.5417972 -0.22880338
000010 58 ed 97 be 6d 6b b1 3e de 51 23 be e7 27 0c 3f
       -0.29673266 0.34652272 -0.15949199 0.54748386
000020 9f a7 a3 3e c0 27 e4 be 67 55 ca be 59 58 db be
       0.31963822 -0.44561577 -0.39518282 -0.4284084
000030 7b 65 08 bf 61 c4 92 bd 2c 0f 16 be b8 13 8d 3d
       -0.53279847 -0.071663626 -0.14654225 0.06888527
000040 80 47 61 be 95 b3 f8 be bb ea b7 bd bc 63 14 be
       -0.21999931 -0.4857451 -0.08980318 -0.1449117
000050 d2 b2 e6 be 82 be 52 bf 14 59 68 3d ba 3c 3f bf
       -0.45058304 -0.8232194 0.056725577 -0.74702036
000060 2b 2f b7 3e 8f 6d 8d be 09 95 fd be 0f 3a 28 bf
       0.35778174 -0.2762265 -0.49527767 -0.6571359
000070 d8 0d 82 be fe 93 eb be 81 10 ea bd 53 54 86 be
       -0.25401187 -0.46011347 -0.11428929 -0.2623621
000080 55 af ed 3e 21 7f 2c be a2 a0 01 bf 27 e1 f6 3e
       0.4642283 -0.16845371 -0.5063573 0.48218653
000090 5d 9b a6 3e b5 22 c4 3e 25 5e 99 be c0 39 26 3f
       0.32540408 0.3830773 -0.2995464 0.6493187
0000a0 31 bf 0e bf 66 5b ae be 03 01 c3 3e c2 7e ca be
       -0.55760485 -0.34054106 0.3808671 -0.39549834
0000b0 b5 19 1b be 71 34 d2 3e d7 1a f7 be 8c d9 e4 be
       -0.15146525 0.41055635 -0.48262665 -0.44697225
0000c0 ab 13 fd bd bf ff c1 3e a3 bd 0f 3f be 52 b0 be
       -0.12357267 0.3789043 0.5614874 -0.34438127
0000d0 f9 ef f5 be 63 b9 07 3f b7 90 93 be cd 0a cb be
       -0.48034647 0.5301725 -0.28821346 -0.39656678
0000e0 99 24 ac 3d 21 36 dc be 47 91 0f be 8a 72 df 3e
       0.08405418 -0.43010047 -0.14020263 0.43642074
0000f0 cb a6 05 bf bf 71 40 be 72 4c c7 3e 5b 26 c2 be
       -0.5220763 -0.1879339 0.3892551 -0.37919888

net.2.weight f4 [64, 64]
000000 78 3f 40 be f4 6c 30 be 41 c3 d5 3e 76 9c f6 3d
       -0.18774211 -0.17229062 0.4175053 0.12041561
000010 65 da d3 3c 51 71 22 be 8b b8 fb be 9e 55 8e be
       0.025860975 -0.1586354 -0.49164233 -0.27799696
000020 a5 4c d6 bd a3 85 2a 3d 44 f6 3a bd 0d 89 83 be
       -0.104638375 0.041631352 -0.045645013 -0.256905
000030 78 b5 91 be 69 57 71 bd 44 63 2d be a2 77 d4 bd
       -0.28458762 -0.05892125 -0.16932398 -0.10374381
000040 2c 1e 8d bd 4e 9a 12 bf 9d 75 1a be b5 25 65 be
       -0.068905205 -0.572667 -0.15083928 -0.22377665
000050 b9 74 d1 3a 4b 1e 92 3d 9a 76 26 bf b2 d4 53 bf
       0.0015980221 0.07134684 -0.6502472 -0.8274642
000060 67 a9 6c 3e 4c 83 f5 be 53 77 1f 3f 76 6b 76 3e
       0.23111497 -0.47951734 0.6229145 0.2406443
000070 08 39 eb be 51 45 a2 ba 67 e2 b6 3d bb d3 06 3e
       -0.4594195 -0.0012380277 0.089299016 0.13166706
000080 ff 19 27 bf 24 c2 92 3d 40 87 a0 be 03 55 5b 3d
       -0.6527404 0.07165936 -0.31353188 0.05354787
000090 20 a6 f0 bd 4c d8 a4 bd 6b 84 67 be 10 2d 51 be
       -0.11750436 -0.08049068 -0.22609107 -0.20427346
0000a0 bb fc 9d 3d 83 d6 83 be ab ec 62 3c 1c 43 12 be
       0.0771422 -0.25749597 0.013850371 -0.14283413
0000b0 4d 8a 05 3d dc 19 02 3f fe f8 94 3d 1d cd 94 3d
       0.032602597 0.5082071 0.07274054 0.07265685
0000c0 3f c5 5d bd a2 9a 28 be d7 6a da bd 78 9a fc be
       -0.054143187 -0.16465238 -0.10664909 -0.493366
0000d0 5c 5b ca bd 57 b2 0c be 07 4d de 3d 58 5d fd 3d
       -0.09880707 -0.13739906 0.108545355 0.123713195
0000e0 bf 08 38 bd df 09 df be 33 0a 9e bb 2e 82 02 bf
       -0.044930216 -0.4356222 -0.004822993 -0.5097989
0000f0 a1 7e c4 3f 4c 96 21 bc f0 62 6a be 9e 4d e5 3e
       1.5351144 -0.009862494 -0.22889304 0.4478578
000100 3e d1 bf 3d 3d 9b ed 3d 4e 6e 4d be 71 e1 4a 3e
       0.09366082 0.11601875 -0.20061609 0.19812562
000110 65 06 54 3c a7 03 6f 3d e7 af 7e bb 5f 22 1d be
       0.012940978 0.058353093 -0.003886217 -0.15345143
000120 43 9d 17 be 4d 46 3e bc 24 51 b3 bd 37 7b bc bd
       -0.14806084 -0.011613441 -0.08755711 -0.09203189
000130 a1 5c eb 3d e5 d7 b6 bd 9a ad 35 3d 8a 0d fe bd
       0.11492277 -0.08927897 0.044355012 -0.12404926
000140 6e 7d 48 3d 14 40 16 3d 3b 05 47 bd 95 b9 0e be
       0.048947744 0.036682203 -0.048588973 -0.13937981
000150 35 6b 8a bd ee d5 12 bd 4d 0b c2 bb 92 86 17 be
       -0.06758729 -0.03584855 -0.0059217573 -0.14797428
000160 6e d5 97 bd b9 7f 56 3d 9e 25 27 3e 5b 64 27 be
       -0.07413755 0.0523679 0.16322944 -0.16346876
000170 15 2f b7 bd 55 4d ab bd 04 40 71 bd c0 8a 51 bd
       -0.08944527 -0.08364359 -0.05889894 -0.051157713
000180 9f e6 35 be b7 b1 be 3c 3c bc 70 bd 7b 3b 18 bd
       -0.17763756 0.0232781 -0.058773264 -0.0371661
000190 0a 6c 5b be f7 70 2c 3e c5 67 7e 3e a7 6d 60 be
       -0.21427932 0.16839968 0.24844272 -0.21916829
0001a0 ed b3 21 bc 6b 90 6b bd 78 16 93 bd 38 12 bb 3c
       -0.009869558 -0.057510775 -0.0718202 0.022835836
0001b0 73 ef bd 3d 48 87 27 bb e5 85 30 be e6 09 39 be
       0.09274187 -0.0025562812 -0.17238577 -0.18070182
0001c0 04 44 46 3e f3 4d 28 be 2a ab 07 be 69 96 57 bd
       0.19361883 -0.16435985 -0.13248888 -0.052633677
0001d0 d7 bb 0c bd d0 ce 6e bc eb 43 11 3e 49 7b 9a bd
       -0.034358826 -0.014575675 0.14186065 -0.07543046
0001e0 eb 07 4e be 56 7e 7c bd 39 c9 44 3e 0f 49 db 3d
       -0.20120208 -0.06164392 0.19217385 0.10707294
0001f0 cd 96 16 3e 6f 7d d4 bd 82 a1 51 be 94 f6 c3 3d
       0.14705963 -0.10375487 -0.20471767 0.095685154
000200 c7 bc 43 be 9f 53 32 bf 8a aa b4 be 2e 57 6d bf
       -0.19114982 -0.69658846 -0.3528636 -0.9271115
000210 80 57 bc bd 7e 0b 18 bf 70 e9 7a 3d cb d1 23 be
       -0.09196377 -0.59392536 0.06125778 -0.15997998
000220 4f 9e 2c be ee da 39 3f 30 10 22 40 80 6c de be
       -0.16857265 0.72599685 2.532238 -0.43442154
000230 91 1c ac 3f a1 01 44 bf c8 2c e7 3d aa d8 b7 be
       1.3446218 -0.76564986 0.11287838 -0.3590749
000240 be c0 8b be 40 a9 41 bd cb 3a 81 3c 3d ea e3 be
       -0.27295488 -0.04728055 0.015775105 -0.44514647
000250 ba ee d3 be b7 de b6 bd ad ef 8b be ec c7 26 3f
       -0.4139307 -0.08929198 -0.27331296 0.65148807
000260 94 53 c2 be 58 67 24 3d 36 0d 09 3f 3f 1f 27 be
       -0.3795439 0.04013762 0.53535783 -0.16320513
000270 37 83 2f 3c 54 35 f2 3d 41 94 30 bf 72 f4 72 3d
       0.010712436 0.11826578 -0.6897622 0.059315152
000280 f4 f6 97 be f0 a2 18 3e 19 b5 07 3e d5 7b f3 be
       -0.29680598 0.14905906 0.13252677 -0.47555414
000290 5b f8 21 3f 9c ce 4d be 26 87 a6 3e 3e c0 1d be
       0.63269585 -0.20098346 0.32524985 -0.15405366
0002a0 0d 0b a4 3f 84 fe 6e 3f d4 9f 9e bd 68 72 84 bd
       1.2815872 0.9335711 -0.077453285 -0.06467134
0002b0 59 33 9a 3d bb 74 a4 be e1 12 96 3e c1 37 65 be
       0.07529325 -0.32120308 0.29311278 -0.2238455
0002c0 02 bf d3 bd 06 db 3b 3d 61 80 4b bf 28 0b 5b 3f
       -0.10339166 0.045863174 -0.79492766 0.855639
0002d0 00 73 27 3e 28 99 0c be e3 b1 0d bd b1 33 f8 be
       0.16352463 -0.137303 -0.034593474 -0.48476937
0002e0 2e e7 87 bf 1c 85 92 be 97 94 92 bd 15 a5 62 bf
       -1.0617425 -0.2861718 -0.071572475 -0.88533145
0002f0 fc f9 2f 3f 40 32 76 bd 21 be 57 bf 22 85 ad 3e
       0.6874082 -0.060106516 -0.8427449 0.33890635
000300 58 e0 d7 bc 17 36 76 3d 77 6e 52 bd 70 fe 5b 3d
       -0.026352093 0.060110178 -0.05137488 0.053709447
000310 ac 22 bd bd 99 3e 15 bd 41 3e f2 3c 27 8f d8 bd
       -0.09235129 -0.03643665 0.0295707 -0.10574179
000320 c9 d5 b7 bd 70 c4 81 bd 83 d5 6d bc b3 82 49 bc
       -0.08976323 -0.063362956 -0.014516237 -0.0122992275
000330 3f ec d6 3d c2 ef b8 bd b8 5d e1 bd e1 83 1d 3c
       0.10494279 -0.09030105 -0.110042036 0.009613962
000340 11 09 d3 3c 08 80 bd bd bb 7d f4 3d b4 60 36 be
       0.02576116 -0.09252936 0.11938044 -0.17810327
000350 a1 e2 0e bd ea 36 5b bd 84 b8 c8 3c 47 39 ad bd
       -0.0348841 -0.053519167 0.024502046 -0.084581904
000360 df 31 54 be 46 b3 2e 3d f7 9e 35 bd ac 17 8a 3d
       -0.2072215 0.042651437 -0.044341054 0.06742796
000370 f8 50 1e 3e 72 9e 91 3c 9f 3e f4 3c 1a 9c fe bd
       0.15460575 0.017775748 0.029815016 -0.12432118
000380 cf 60 fa bc 4c 42 81 3e e9 33 03 3c 04 2c 57 be
       -0.03056374 0.25245893 0.008007982 -0.21012884
000390 9f 26 53 bd d2 36 f5 bd 23 17 28 bd 9a 31 34 be
       -0.051550504 -0.11973347 -0.04103769 -0.17597046
0003a0 fd 9f e3 bc b8 c6 55 3d 0e 12 23 bc 83 ca 99 bd
       -0.02778625 0.052191466 -0.009953035 -0.07509329
0003b0 22 ac 64 3b d8 50 38 bd 60 97 6d bd 26 68 90 3d
       0.0034892638 -0.044998974 -0.05800569 0.07051115
0003c0 15 ec 64 3e 07 32 3f bd 91 b0 be bd 3c 93 0c be
       0.22355683 -0.04667857 -0.09311021 -0.1372804
0003d0 14 3c 78 bd 67 ce 14 3d 6a f5 ec bc b0 8e 72 bb
       -0.06060417 0.036329653 -0.028925616 -0.0037011318
0003e0 bb 21 2c bb 5f cc 82 bd 5d de 6a bd fd e2 19 be
       -0.0026265222 -0.06386637 -0.05734097 -0.15027995
0003f0 ec 3e 31 bd f7 af 53 3b 63 f5 e0 3d fe 68 a9 3d
       -0.043272898 0.0032300928 0.10984304 0.08271979

net.2.bias f4 [64]
000000 50 55 0d be c8 d0 82 3d dc 51 7b be 5d 50 cd bd
       -0.13802075 0.06387478 -0.24542946 -0.10025094
000010 37 f8 16 3f e6 fc 20 3f 01 0d 81 be 4b 9e 0d 3f
       0.58972496 0.6288589 -0.25205234 0.5531966
000020 d8 f1 0b be 48 ac 41 3f 7b a2 42 3e c9 31 02 3f
       -0.13666475 0.75653505 0.19007294 0.50857216
000030 d8 0e 22 3f 4b 90 0d 3f 55 2c b6 be 5e 7b 9b 3d
       0.633039 0.552983 -0.35580698 0.0759189
000040 b5 ad 1e be 05 be 09 3f 67 18 56 bb 7a b0 1e 3f
       -0.15495951 0.5380557 -0.0032668354 0.6198803
000050 34 4a 1f 3c 1a 9c 5f bd bc bf 20 3f e1 ad ff 3e
       0.009722281 -0.05459223 0.62792563 0.49937347
000060 07 37 38 3f 15 a6 30 3d 70 2c b7 3e 0e a6 21 3e
       0.71958965 0.04312714 0.3577609 0.15786001
000070 d1 d7 34 bd b9 65 f8 3e 83 bf 94 bd 33 11 20 3f
       -0.04415113 0.48515108 -0.072630905 0.62526244
000080 3c ee ff bd 95 bc 0a 3f e0 cf e7 3c a9 05 65 bd
       -0.124966115 0.54194003 0.028297365 -0.0559136
000090 a8 bf 14 3f 4c 1e 9c bd 95 b1 06 3f f5 06 2b 3f
       0.58104944 -0.07622966 0.5261472 0.6680749
0000a0 15 dc 99 be e3 e6 f3 3e 3c 7e 93 bd ff 4b 7f be
       -0.30050722 0.4763709 -0.07201812 -0.24931334
0000b0 80 b4 45 3f 38 c6 28 3f 0c ef 17 be d0 f0 24 3f
       0.77228546 0.6592746 -0.14837283 0.6442995
0000c0 2e 75 86 bd 85 c9 36 3e f5 42 32 3f 06 3b 21 3f
       -0.06565319 0.17850311 0.6963342 0.6298069
0000d0 ed 85 1b be bb 8e 39 bd cf b0 de bd a8 54 0c 3f
       -0.15187807 -0.045302134 -0.10873567 0.54816675
0000e0 0b 00 52 3e 4e 59 4a 3f a0 32 0d be 35 37 d5 bd
       0.20507829 0.7904252 -0.13788843 -0.104109205
0000f0 ac 60 20 3f 02 ad 48 be 2c 6b 3e 3f 58 0a 02 3f
       0.6264751 -0.19597247 0.7438228 0.50797033

net.4.weight f4 [2, 64]
000000 d9 57 18 bf b1 e9 d6 bd 52 f2 16 c0 aa 1b 25 3e
       -0.59509045 -0.10493792 -2.35854 0.16123834
000010 65 b0 a5 3f 8d dd be 3f 65 d7 4a c0 0d 2d 8b 3f
       1.2944456 1.4911362 -3.1693966 1.0873123
000020 b1 79 7f 3e 16 2c c4 3f d8 b1 8c c0 aa 3a a6 3f
       0.24948765 1.5325954 -4.3967094 1.2986653
000030 6b fa 4a 3f d3 5b a1 3f 92 06 42 c0 93 fe 8c 3c
       0.7928836 1.2606148 -3.031651 0.017211234
000040 4d e0 45 3d 2a 7a 8c 3f 3e 3e 98 3d 6c f4 c2 3f
       0.048309613 1.0974782 0.07433747 1.5230842
000050 d1 4b 21 bd b9 46 f9 bd 72 ce 90 3f d0 15 c0 3f
       -0.039378945 -0.121716924 1.1313002 1.5006657
000060 a0 93 d5 3f 9d d6 b7 bc 83 c2 b2 3f df 0e b4 bd
       1.6685677 -0.022441203 1.396561 -0.08791899
000070 31 53 99 3d 2d 00 b6 3f f7 29 a9 c0 1c ee a7 3f
       0.074865706 1.4218804 -5.2863727 1.311954
000080 7d 82 99 c0 4f 45 74 3f 60 cd 52 c0 b9 bb 2f c0
       -4.7971787 0.95418257 -3.293785 -2.7458327
000090 cd 48 9b 3f d2 13 58 3e a4 a3 be 3f a9 d9 97 3f
       1.2131592 0.21101311 1.4893689 1.18633
0000a0 b3 cd 8f be 9a f9 7b 3f 06 8c a5 3e 6e f2 95 be
       -0.28086624 0.98427737 0.32333392 -0.29286522
0000b0 94 75 48 3e 96 4a 8c 3f 77 38 34 3c 9c 0c 9a 3f
       0.19576102 1.0960262 0.01099979 1.2035098
0000c0 1e b2 56 bc 26 aa 24 3f 4d 48 a5 3f 8a 00 b5 3f
       -0.01310399 0.64322126 1.291269 1.414079
0000d0 9a 0f 89 bd 62 00 6d c0 78 bc ce bc f8 77 9b 3f
       -0.06692429 -3.7031484 -0.025236353 1.2145987
0000e0 61 d7 b3 be 8d 18 a5 3f b9 db 9e bb 5d 6e 9d bd
       -0.3512526 1.2898117 -0.0048479703 -0.07687066
0000f0 32 a9 64 3f b1 5c 12 3d f1 9d 5f 3f cc 4f a2 3f
       0.8932067 0.03573293 0.87350374 1.2680602
000100 48 98 4e 3f 45 0b ac 3c 2a d0 ca bf 73 09 0c be
       0.8070111 0.021001467 -1.5844777 -0.1367548
000110 44 0c c7 3f 66 0d b9 3f 7d d9 8e c0 1c 72 6e 3f
       1.5550618 1.4457214 -4.464049 0.9314287
000120 bc 24 80 be 75 ad cb 3f b6 2b 37 c0 78 25 8f 3f
       -0.25028026 1.591231 -2.862043 1.118331
000130 a8 7d c0 3f 53 50 5a 3f 8b 16 6b c0 bf 2e 0c be
       1.5038347 0.85278815 -3.673251 -0.13689707
000140 7f 25 28 3e 3d 27 af 3f ad 57 a6 bd 4e c1 b3 3f
       0.16420554 1.368385 -0.081221916 1.4043367
000150 8f dc a7 3c 60 46 12 be 01 3a c8 3f e5 fb cd 3f
       0.020490913 -0.14284658 1.5642701 1.6092497
000160 44 30 1e 3f c0 68 15 be 8a ae 91 3f 7a 91 ff 3b
       0.617924 -0.1459074 1.138139 0.0077993246
000170 53 9f 91 bb 35 b8 9e 3f 8b 83 2c c0 57 6a dc 3f
       -0.0044440418 1.2399966 -2.6955287 1.7219952
000180 c0 ec cd c0 02 95 ab 3f 5d 80 2d c0 e6 09 be bf
       -6.43515 1.3404849 -2.7109597 -1.4846771
000190 d9 ff cb 3f 23 42 76 3d 3e 7c 8d 3f f8 8e 59 3f
       1.5937454 0.060121667 1.1053541 0.8498378
0001a0 be 98 35 c0 db cb 8b 3f 29 aa 53 be c6 b2 7c 3e
       -2.8374476 1.0921587 -0.2067038 0.24677572
0001b0 c7 28 b0 3f 11 99 24 3f 1b ef cf 3c 66 4b 80 3f
       1.3762444 0.6429606 0.025382569 1.002301
0001c0 f1 df 05 bc 1b e5 fb be 8b 0b cd 3f 58 01 fb 3f
       -0.008171068 -0.4919823 1.6019148 1.9609785
0001d0 a4 c6 f6 bd 75 6e 66 c0 50 84 a1 3d 15 28 ae 3f
       -0.120496064 -3.6004918 0.07886565 1.3605982
0001e0 74 07 07 3f 66 31 0c 3f 11 0f 4b 3d 2d 42 82 3b
       0.5274575 0.54762876 0.049574915 0.003975174
0001f0 7f ec cf 3f fd b2 cb 3d d5 f6 ad 3f bd 1e 96 3f
       1.6244048 0.09946249 1.3590952 1.172813

net.4.bias f4 [2]
000000 6d 10 3a 3f 5f db a5 3e
       0.72681314 0.3239393

net.0.weight f4 [64, 4]
000000 c0 46 b5 bc ac 2b 0c 3e 42 a1 41 3e 1d 2f 3a 3d
       -0.022128463 0.13688534 0.18909171 0.045455087
000010 c3 b1 9c 3d 52 b0 8b bd 3d 52 1f 3f bb c1 53 bd
       0.07651093 -0.0682074 0.6223486 -0.051698428
000020 24 13 08 be 04 d2 9e 3d b2 13 10 40 ad 3c 7b 3e
       -0.13288552 0.07754901 2.251202 0.24534865
000030 3a 22 29 be cf dc 2f bf c7 39 c4 be 78 e4 c8 be
       -0.16516963 -0.686963 -0.3832533 -0.39236808
000040 46 bd ab bd 96 7f a8 bc 89 d0 46 3d bf b2 36 3b
       -0.083857104 -0.02056865 0.04853872 0.0027877537
000050 7a 86 b6 3e 79 66 1c be bc f8 ac bf 6d 41 6a be
       0.35649472 -0.15273465 -1.3513408 -0.2287652
000060 76 e1 93 bd f0 32 ca 3d ae 2a 10 bf b8 82 c1 3d
       -0.07220738 0.09872997 -0.56315124 0.09448761
000070 cd c2 dc bd d2 c8 5c 3d 33 c6 94 3d 34 94 ad 3d
       -0.10779343 0.053902455 0.07264366 0.08475533
000080 be c6 02 bc 1c 8f 36 bc c6 16 1d 3e c1 0d 0c bd
       -0.007981954 -0.011142518 0.15340719 -0.034192804
000090 45 6c 13 be 12 6d 5e 3d 49 87 cd bb ff ed 29 3e
       -0.1439677 0.054303236 -0.0062722308 0.16594695
0000a0 b4 db 7c be e7 ef ba bd 32 f2 59 bf 18 0b b1 bd
       -0.24693185 -0.09127789 -0.85135186 -0.08644694
0000b0 dc 90 51 3e 40 f0 46 be cc 48 17 c0 5a 31 d0 be
       0.20465416 -0.19427586 -2.3638182 -0.40662652
0000c0 df b7 a5 be c0 be 34 be e2 51 e8 3d 92 01 d9 bd
       -0.32366845 -0.1765089 0.11343743 -0.10596003
0000d0 3c fa 3f 3e 00 78 cd 3e 71 13 86 3f 90 9c fb 3e
       0.187478 0.40130615 1.0474683 0.49142885
0000e0 c9 bc db 3c a5 fd 0d bc 88 6a 3e be 48 86 b0 bc
       0.026823418 -0.008666431 -0.18595326 -0.021548405
0000f0 c3 8f 5f bc bb 1d ae 3e 97 92 5b 3f e9 e0 5a be
       -0.013645115 0.34007058 0.85770553 -0.21374859
000100 cb fe 64 3e 2f 71 fc 3e b8 18 59 bf 6e f2 66 3e
       0.22362821 0.49305102 -0.8480334 0.22553417
000110 49 f1 77 3e 3f 78 fb bc 7e ed 53 be 00 8a d2 bc
       0.24213137 -0.030696986 -0.20696065 -0.02570057
000120 a1 6e 45 3d a6 05 2e bd e8 e5 c4 bd 15 ed 03 bd
       0.048201207 -0.042485856 -0.09614164 -0.03220852
000130 e7 a3 80 be 64 0c c0 be a4 4e 59 bf 32 82 98 be
       -0.25125048 -0.37509453 -0.8488562 -0.2978683
000140 3c e4 02 3c 81 11 54 3d bd 4c 15 bf 88 0a b5 3c
       0.007988986 0.051774506 -0.5832022 0.022099748
000150 be 18 cd 3e 14 83 3b 3d fd c6 a6 3e 39 eb 56 3d
       0.4005794 0.045779303 0.3257369 0.05247042
000160 a9 07 dd bc 98 c3 30 be ed 17 0a bf 56 af 03 3d
       -0.026981192 -0.17262113 -0.5394276 0.032149635
000170 c0 02 cb 3e 1c c5 f6 bd da 1d 63 be 97 84 a3 bd
       0.39650536 -0.120493144 -0.22179356 -0.07984274
000180 69 2e 03 be 9a f6 b1 3e ea af e0 3f 0f 3d 0a bd
       -0.12810673 0.34758455 1.7553685 -0.033749636
000190 78 54 26 3e c9 43 4e be 1a 81 c0 3f 64 ce 05 3f
       0.1624316 -0.20143045 1.5039399 0.5226805
0001a0 e5 6c 45 3e f2 80 9c 3e c6 30 ab 3f 50 cc 73 3e
       0.19279821 0.30567127 1.337426 0.23808408
0001b0 98 c0 1e 3f fc 63 14 3e 1a a1 f8 3e 93 2f bf 3d
       0.62012625 0.14491266 0.4856041 0.09335246
0001c0 f2 38 b1 3e 61 31 bd bd 52 4b b7 3f f2 79 c4 3e
       0.34613758 -0.09237934 1.4319861 0.38374287
0001d0 8f de 30 be 76 09 9e be cd c0 84 bf 4f 90 a3 be
       -0.172724 -0.30866593 -1.0371338 -0.31946036
0001e0 9b 97 6b bb c3 4c c8 3e 0f 6b d9 3f 65 12 33 3d
       -0.0035948518 0.39121065 1.6985797 0.043718714
0001f0 5a ce e9 bc d6 e9 a8 bc 93 4b ee 3c be 00 91 bd
       -0.028540779 -0.020619314 0.029088771 -0.0708022
000200 d5 e2 04 bd 68 52 32 3c 2e 22 9e bf 8d be 68 be
       -0.032442886 0.010883905 -1.2354181 -0.2272894
000210 36 25 10 bd c8 cb cc 3c 61 64 4e bd 75 84 96 3c
       -0.035191737 0.024999514 -0.050388698 0.018373707
000220 e8 4a f3 bd 74 43 7f 3e d6 94 99 3f 09 43 96 3e
       -0.118795216 0.24928075 1.1998546 0.2934802
000230 4f 22 25 3e 42 a4 df ba 4d 8f 49 bd 78 3a 6d 3d
       0.16126369 -0.0017062502 -0.049208928 0.05791709
000240 c5 9d 44 3e d4 96 08 be ba d6 22 c0 24 6c cc be
       0.1920081 -0.13338786 -2.5443559 -0.39926255
000250 56 45 cd 3d 01 58 12 bf 78 28 4c 3f 9c ae 0c be
       0.100229904 -0.57165533 0.7974925 -0.13738483
000260 00 08 47 bd 2d 28 86 3d 6a 5a 55 be 4e 71 24 3e
       -0.048591614 0.06550632 -0.20835271 0.16058847
000270 e7 13 04 3e 2e 6f 86 bd 8a d1 99 3b 24 b4 32 3d
       0.12898217 -0.065641746 0.0046941685 0.043628827
000280 b5 2b 11 be 18 b8 42 bd a0 04 46 be 5a 7e 6e bd
       -0.14176829 -0.047538847 -0.19337702 -0.058225967
000290 bf d1 16 3f 6b 63 c3 bd 47 cc d2 bf 6a d9 f1 bd
       0.589138 -0.09540447 -1.646859 -0.118090466
0002a0 fc 9d 81 be 5f d9 c8 3e 44 6a cc 3f c5 69 a3 3e
       -0.25315845 0.3922834 1.596993 0.31916633
0002b0 e9 39 50 be 49 c3 5c 3e 1e 36 ab 3e 01 34 c8 3d
       -0.20334591 0.2155887 0.33439726 0.09775544
0002c0 3f b6 2b 3d c2 e2 e0 bc ae a0 a6 bd 67 f0 3c bc
       0.04192185 -0.027451877 -0.08136116 -0.011531926
0002d0 b8 b1 83 be e5 f2 87 3e f7 96 da 3f 6d e5 5b 3e
       -0.25721526 0.265525 1.7077321 0.21474238
0002e0 fd fb 8d 3e a3 74 78 be 3f c5 2c c0 ca 92 ee be
       0.27731314 -0.24263243 -2.699539 -0.46596366
0002f0 77 f4 1d 3f bb 5a 8e bd cc 45 28 bf 1f fb d3 be
       0.6170115 -0.06950899 -0.657315 -0.41402528
000300 d7 0a 30 bc 68 07 35 3d a8 70 ca ba 76 4e 1f 3d
       -0.010744772 0.044196516 -0.0015444951 0.038893186
000310 60 d5 e7 bd 27 5c 98 3d fe de 8a be e7 0a b3 3d
       -0.11319995 0.07439452 -0.27123255 0.08742314
000320 06 88 a8 be c4 ff 52 3b 8c 73 84 bf e7 3e 59 be
       -0.32916278 0.0032195905 -1.0347762 -0.21215402
000330 8d f3 46 bf dc 55 f1 bd 57 88 db 3e 51 e6 65 3d
       -0.7771538 -0.117839545 0.42877457 0.05612785
000340 e5 12 e5 bd 51 0d 50 3e fa 7c 9e 3f a8 6d 31 3e
       -0.111852445 0.2031758 1.238189 0.17326987
000350 16 c2 0d bd 1b e5 c5 bb 91 30 c2 3e f9 8b 86 3d
       -0.034608923 -0.0060392744 0.37927678 0.065696664
000360 47 a5 17 3d 22 8a 7d 3c 12 96 53 bd 53 c0 93 3c
       0.037022855 0.015474828 -0.05165679 0.018036043
000370 1a c8 50 be 05 9b 1f 3e f8 a2 45 3f 62 49 5f 3d
       -0.20388833 0.15586479 0.77201796 0.054513343
000380 a7 80 c1 3e 1b 00 d9 3c ec 8c 81 bf a8 86 b2 3d
       0.37793466 0.026489308 -1.0121131 0.0871709
000390 ed 8d 8d 3d d6 bf af bd 6b fc ec be 23 8f 7c 3c
       0.06911836 -0.08581512 -0.4628633 0.015414986
0003a0 f3 54 ee bc a6 a6 a8 3d 06 15 94 bd ff 9a 3b 3d
       -0.029093241 0.08234911 -0.072305724 0.045802113
0003b0 4b a6 e7 3d 69 88 da bd a8 cb 7a bf 1d 13 95 be
       0.11311015 -0.106705494 -0.97967005 -0.29116145
0003c0 eb 28 f0 3d 51 49 4c bc f4 ef 82 3f 15 d9 97 3c
       0.117265545 -0.012468652 1.0229478 0.01853613
0003d0 41 b0 c5 bc 5c b5 82 3c 0b 6f 69 bd e2 8b ef bc
       -0.024131896 0.01595562 -0.056990664 -0.029241506
0003e0 2c 5d 64 3e 9b b8 04 be 8a 55 ea bf 9f 86 36 be
       0.22301167 -0.12961046 -1.8307354 -0.17824791
0003f0 c5 6c 15 3e 9e 26 1f be 60 f3 cb 3e e0 fa b7 bc
       0.14592274 -0.15542075 0.39834118 -0.022458494

net.0.bias f4 [64]
000000 2e 77 d8 3e bf fb e8 3c a5 70 07 bf 94 f0 69 be
       0.42278427 0.028440354 -0.52906257 -0.2284568
000010 9e ec 97 be 5d 2c b0 3e cf 51 23 be 4d 42 0c 3f
       -0.29672712 0.34408846 -0.15949176 0.54788667
000020 86 fa a4 3e 7b 27 e4 be 51 55 ca be ba 12 de be
       0.32222384 -0.4456137 -0.39518216 -0.43373662
000030 d5 64 08 bf 83 e5 a2 bd 7e 0e 16 be e8 ee b2 3d
       -0.5327886 -0.07953932 -0.14653966 0.08736974
000040 0b a2 57 be e6 6a f8 be 78 ea b7 bd 75 8c 14 be
       -0.21057908 -0.48519057 -0.08980268 -0.14506705
000050 43 b2 e6 be 63 7e 53 bf 9f ad a6 3d b0 3c 3f bf
       -0.45057878 -0.82614726 0.08138584 -0.74701977
000060 4f bc be 3e 7a 30 95 be 79 e2 fe be 8e d6 28 bf
       0.37253043 -0.29138547 -0.4978216 -0.65952384
000070 7b 78 76 be 7b 93 eb be 34 d1 1c be ed 53 86 be
       -0.24069397 -0.46010956 -0.1531418 -0.26235905
000080 02 d4 e7 3e 07 7f 2c be 8b 68 01 bf db 7e f6 3e
       0.45278937 -0.16845332 -0.50550145 0.48143658
000090 f9 d2 a0 3e a6 e1 b3 3e 26 5e 99 be b8 fe 25 3f
       0.3141096 0.35133094 -0.29954642 0.64841795
0000a0 9d be 0e bf 05 58 b2 be 20 ec ca 3e b9 7e ca be
       -0.557596 -0.3483278 0.39633274 -0.39549807
0000b0 1e 19 1b be 14 4d d6 3e 47 53 fc be 2e fb eb be
       -0.151463 0.4185568 -0.49282286 -0.46090072
0000c0 2c 13 fd bd a6 fd c1 3e 44 c6 0d 3f f5 33 b0 be
       -0.12357172 0.3788883 0.55380654 -0.3441464
0000d0 d2 68 f5 be 61 c4 07 3f b7 90 93 be 91 0a cb be
       -0.47931534 0.53034025 -0.28821346 -0.396565
0000e0 1c b7 b3 3d e2 35 dc be c5 90 0f be d7 8e da 3e
       0.0877516 -0.4300986 -0.14020069 0.42687103
0000f0 7d a6 05 bf 49 71 40 be bd 3c c8 3e 01 26 c2 be
       -0.52207166 -0.18793215 0.3910884 -0.3791962

net.2.weight f4 [64, 64]
000000 49 3f 40 be 80 6c 30 be 1a c3 d5 3e 43 9d f6 3d
       -0.18774141 -0.1722889 0.41750413 0.12041714
000010 65 da d3 3c cf 70 22 be 4c b8 fb be 25 55 8e be
       0.025860975 -0.15863346 -0.49164045 -0.27799335
000020 9a 4c d6 bd 8f 85 2a 3d ef f6 3a bd 15 89 83 be
       -0.10463829 0.041631278 -0.04564565 -0.25690523
000030 36 b5 91 be 0b 58 71 bd 27 63 2d be 12 77 d4 bd
       -0.28458565 -0.058921855 -0.16932355 -0.10374273
000040 6e 1d 8d bd 1e 9a 12 bf 9d 75 1a be 2a 26 65 be
       -0.06890379 -0.57266414 -0.15083928 -0.2237784
000050 89 75 d1 3a ad 1e 92 3d 7f 76 26 bf 92 d4 53 bf
       0.0015980463 0.07134757 -0.6502456 -0.8274623
000060 9a a9 6c 3e 3c 83 f5 be dd 77 1f 3f 0b 6c 76 3e
       0.23111573 -0.47951686 0.6229227 0.24064653
000070 db 38 eb be 51 45 a2 ba 2f e3 b6 3d bb d3 06 3e
       -0.45941815 -0.0012380277 0.089300506 0.13166706
000080 c7 19 27 bf 24 c2 92 3d f7 86 a0 be a9 55 5b 3d
       -0.6527371 0.07165936 -0.3135297 0.05354849
000090 ec a5 f0 bd a7 d7 a4 bd 6b 84 67 be e2 2c 51 be
       -0.11750397 -0.08048945 -0.22609107 -0.20427278
0000a0 2e fc 9d 3d 6d d6 83 be 6a ed 62 3c 65 43 12 be
       0.07714115 -0.2574953 0.013850549 -0.14283521
0000b0 4d 8a 05 3d ac 1a 02 3f 25 f9 94 3d 65 cd 94 3d
       0.032602597 0.5082195 0.07274083 0.072657384
0000c0 3f c5 5d bd 27 9a 28 be 82 6a da bd 14 9a fc be
       -0.054143187 -0.16465054 -0.10664846 -0.49336302
0000d0 c9 5a ca bd 9d b1 0c be 0a 4d de 3d 2b 5e fd 3d
       -0.09880597 -0.13739629 0.10854538 0.12371477
0000e0 28 08 38 bd 52 09 df be 33 0a 9e bb cd 81 02 bf
       -0.044929653 -0.43561798 -0.004822993 -0.5097931
0000f0 c8 7e c4 3f 4c 96 21 bc cb 62 6a be 02 4e e5 3e
       1.535119 -0.009862494 -0.22889249 0.44786078
000100 e7 d1 bf 3d ca 9b ed 3d 49 6e 4d be f0 e1 4a 3e
       0.093662076 0.1160198 -0.20061602 0.19812751
000110 65 06 54 3c 2b 03 6f 3d ac af 7e bb 36 22 1d be
       0.012940978 0.05835263 -0.0038862033 -0.15345082
000120 ee 9c 17 be d0 45 3e bc 20 51 b3 bd 38 7b bc bd
       -0.14805958 -0.011613324 -0.08755708 -0.092031896
000130 03 5c eb 3d 78 d7 b6 bd 9a ad 35 3d 2c 0d fe bd
       0.11492159 -0.08927816 0.044355012 -0.12404856
000140 38 7e 48 3d 7d 40 16 3d 3b 05 47 bd 25 b9 0e be
       0.048948497 0.036682595 -0.048588973 -0.13937815
000150 cd 6a 8a bd 45 d6 12 bd 70 0b c2 bb 46 86 17 be
       -0.06758652 -0.035848875 -0.0059217736 -0.14797315
000160 2e d5 97 bd 29 80 56 3d 7f 25 27 3e ff 63 27 be
       -0.07413708 0.052368317 0.16322897 -0.16346739
000170 bf 2f b7 bd 55 4d ab bd d4 3f 71 bd c0 8a 51 bd
       -0.08944654 -0.08364359 -0.058898762 -0.051157713
000180 10 e6 35 be b7 b1 be 3c cc bb 70 bd be 3a 18 bd
       -0.17763543 0.0232781 -0.058772847 -0.037165396
000190 8a 6b 5b be be 71 2c 3e cc 67 7e 3e 93 6d 60 be
       -0.21427742 0.16840264 0.24844283 -0.21916799
0001a0 86 b4 21 bc 5b 90 6b bd 56 16 93 bd 80 11 bb 3c
       -0.0098697 -0.057510715 -0.071819946 0.022835493
0001b0 73 ef bd 3d 27 87 27 bb 80 85 30 be 30 09 39 be
       0.09274187 -0.0025562735 -0.17238426 -0.18069911
0001c0 04 44 46 3e 97 4d 28 be e5 aa 07 be 11 97 57 bd
       0.19361883 -0.16435848 -0.13248785 -0.052634303
0001d0 8c bc 0c bd d3 ce 6e bc ee 43 11 3e 4e 7b 9a bd
       -0.0343595 -0.014575678 0.1418607 -0.0754305
0001e0 69 07 4e be bb 7e 7c bd c8 c9 44 3e 29 49 db 3d
       -0.20120014 -0.061644297 0.19217598 0.107073136
0001f0 6e 96 16 3e 6f 7d d4 bd 4a a1 51 be 11 f6 c3 3d
       0.14705822 -0.10375487 -0.20471683 0.09568418
000200 41 bc 43 be 38 53 32 bf 70 aa b4 be d2 57 6d bf
       -0.19114782 -0.6965823 -0.35286283 -0.9271213
000210 48 57 bc bd 16 0b 18 bf 0b ea 7a 3d 27 d1 23 be
       -0.09196335 -0.59391916 0.061258357 -0.15997754
000220 47 9e 2c be 57 db 39 3f ef 0f 22 40 11 6d de be
       -0.16857253 0.7260031 2.5322225 -0.43442586
000230 5e 1d ac 3f c8 01 44 bf ea 2c e7 3d 80 d8 b7 be
       1.3446462 -0.7656522 0.112878636 -0.35907364
000240 35 c0 8b be c8 a9 41 bd cb 3a 81 3c c3 e9 e3 be
       -0.2729508 -0.047281057 0.015775105 -0.44514284
000250 5a ee d3 be 80 de b6 bd 15 ef 8b be bf c7 26 3f
       -0.41392785 -0.08929157 -0.27330843 0.6514854
000260 51 53 c2 be ee 67 24 3d cd 0c 09 3f 3f 1f 27 be
       -0.3795419 0.040138178 0.5353516 -0.16320513
000270 ae 83 2f 3c eb 35 f2 3d 90 93 30 bf 8b f4 72 3d
       0.010712547 0.1182669 -0.6897516 0.059315246
000280 c6 f6 97 be f0 a2 18 3e d4 b5 07 3e b4 7b f3 be
       -0.2968046 0.14905906 0.13252956 -0.47555315
000290 7e f8 21 3f 61 ce 4d be e7 86 a6 3e 06 c0 1d be
       0.63269794 -0.20098259 0.32524797 -0.15405282
0002a0 be 0b a4 3f 42 ff 6e 3f 76 9f 9e bd e5 71 84 bd
       1.2816083 0.9335824 -0.077452585 -0.06467036
0002b0 59 33 9a 3d 6f 74 a4 be 66 12 96 3e 22 38 65 be
       0.07529325 -0.32120082 0.29310912 -0.22384694
0002c0 02 bf d3 bd d7 db 3b 3d c1 7f 4b bf 71 0b 5b 3f
       -0.10339166 0.045863952 -0.7949181 0.85564333
0002d0 9e 73 27 3e 9d 98 0c be e3 b1 0d bd 4b 34 f8 be
       0.16352698 -0.13730092 -0.034593474 -0.48477396
0002e0 0d e7 87 bf cd 85 92 be de 93 92 bd c3 a4 62 bf
       -1.0617386 -0.28617707 -0.0715711 -0.88532656
0002f0 a7 f9 2f 3f 40 32 76 bd 22 be 57 bf bf 84 ad 3e
       0.68740314 -0.060106516 -0.84274495 0.3389034
000300 ba df d7 bc eb 36 76 3d fa 6d 52 bd 70 fe 5b 3d
       -0.026351798 0.060110968 -0.051374413 0.053709447
000310 ac 22 bd bd e6 3d 15 bd 83 3e f2 3c ba 8e d8 bd
       -0.09235129 -0.036435984 0.029570824 -0.10574098
000320 60 d5 b7 bd 70 c4 81 bd 83 d5 6d bc 61 82 49 bc
       -0.08976245 -0.063362956 -0.014516237 -0.012299151
000330 c1 ec d6 3d c2 ef b8 bd b8 5d e1 bd a5 84 1d 3c
       0.10494376 -0.09030105 -0.110042036 0.009614144
000340 71 09 d3 3c 60 7f bd bd bb 7d f4 3d b8 60 36 be
       0.025761338 -0.092528105 0.11938044 -0.17810333
000350 8d e2 0e bd ea 36 5b bd d0 b8 c8 3c 47 39 ad bd
       -0.034884024 -0.053519167 0.024502188 -0.084581904
000360 8a 31 54 be de b3 2e 3d f8 9e 35 bd ac 17 8a 3d
       -0.20722023 0.042652003 -0.044341058 0.06742796
000370 55 51 1e 3e 72 9e 91 3c 9f 3e f4 3c 24 9c fe bd
       0.15460713 0.017775748 0.029815016 -0.12432125
000380 8c 60 fa bc 4c 42 81 3e b4 34 03 3c 0a 2c 57 be
       -0.030563615 0.25245893 0.008008171 -0.21012893
000390 9f 26 53 bd ac 36 f5 bd 23 17 28 bd 58 31 34 be
       -0.051550504 -0.119733185 -0.04103769 -0.17596948
0003a0 fd 9f e3 bc b8 c6 55 3d bf 11 23 bc 83 ca 99 bd
       -0.02778625 0.052191466 -0.0099529615 -0.07509329
0003b0 22 ac 64 3b d0 50 38 bd 60 97 6d bd 65 68 90 3d
       0.0034892638 -0.044998944 -0.05800569 0.07051162
0003c0 15 ec 64 3e c0 31 3f bd 10 b0 be bd 25 93 0c be
       0.22355683 -0.046678305 -0.09310925 -0.13728006
0003d0 1c 3c 78 bd f5 ce 14 3d 6a f5 ec bc b0 8e 72 bb
       -0.0606042 0.036330182 -0.028925616 -0.0037011318
0003e0 47 21 2c bb cc cc 82 bd 5d de 6a bd f6 e2 19 be
       -0.0026264952 -0.06386718 -0.05734097 -0.15027985
0003f0 ec 3e 31 bd f7 af 53 3b 82 f5 e0 3d fe 68 a9 3d
       -0.043272898 0.0032300928 0.10984327 0.08271979

net.2.bias f4 [64]
000000 e5 54 0d be 7c d1 82 3d 2c 51 7b be d1 4f cd bd
       -0.13801916 0.06387612 -0.24542683 -0.100249894
000010 67 24 17 3f 17 9c 20 3f 5d 0c 81 be 81 e8 0c 3f
       0.5903992 0.62738174 -0.25204745 0.5504227
000020 6d f1 0b be 6f 55 41 3f 81 ed 51 3e c7 72 01 3f
       -0.13666315 0.75520986 0.20500757 0.5056576
000030 87 d1 21 3f 58 e2 0c 3f bd 18 b9 be 8d 7b 9b 3d
       0.6321034 0.55032873 -0.36151686 0.07591925
000040 86 ad 1e be c8 c1 09 3f 42 18 56 bb f4 2c 1e 3f
       -0.15495881 0.5381131 -0.0032668267 0.61787343
000050 8d 4a 1f 3c 6a 9b 5f bd 73 53 20 3f 32 85 fe 3e
       0.009722364 -0.054591574 0.62627333 0.49710995
000060 bb 21 38 3f 4f a6 30 3d ca 71 b5 3e 76 a6 21 3e
       0.7192647 0.043127354 0.35438377 0.15786156
000070 c0 d7 34 bd 22 81 f6 3e c3 8c 82 bd b3 bc 1f 3f
       -0.044151068 0.48145396 -0.063745044 0.6239731
000080 9c 75 02 be a2 85 0a 3f f2 62 b7 3c 5b 05 65 bd
       -0.12740177 0.5411016 0.022386048 -0.05591331
000090 a9 e0 13 3f 0e 1e 9c bd 17 9e 06 3f 35 b2 2a 3f
       0.5776468 -0.0762292 0.52584976 0.6667817
0000a0 ee db 99 be 9f cd f2 3e 3e 7e 93 bd a2 d9 78 be
       -0.30050606 0.474225 -0.07201813 -0.2430177
0000b0 e6 73 45 3f d3 18 28 3f f6 ee 17 be ec 3b 24 3f
       0.7712997 0.6566288 -0.1483725 0.64153934
0000c0 bd 74 86 bd 6e cc 32 3e b4 36 31 3f 00 52 21 3f
       -0.06565235 0.17460796 0.69224095 0.6301575
0000d0 b6 85 1b be 9c df bd bc 42 b0 de bd 6f 1e 0c 3f
       -0.15187725 -0.023177914 -0.10873462 0.5473394
0000e0 46 7f 4c 3e 25 96 4a 3f 85 32 0d be 7a 36 d5 bd
       0.19970426 0.7913535 -0.13788803 -0.10410781
0000f0 dd e9 1f 3f 51 ac 48 be e6 ec 3d 3f f6 d8 00 3f
       0.6246622 -0.19596983 0.74189603 0.50331056

net.4.weight f4 [2, 64]
000000 a6 57 18 bf 69 ea d6 bd 9d f2 16 c0 aa 1b 25 3e
       -0.5950874 -0.10493929 -2.358558 0.16123834
000010 be ac a3 3f 8c 5d c0 3f c8 d7 4a c0 e8 b7 8a 3f
       1.2787092 1.5028548 -3.1694202 1.0837374
000020 3c 79 7f 3e 14 5e c2 3f 36 3a 87 c0 50 bf a5 3f
       0.24948591 1.518496 -4.225856 1.2949009
000030 88 df 4d 3f 4f 3a a1 3f 98 f0 3a c0 2d fe 8c 3c
       0.80419207 1.2595919 -2.9209347 0.017211044
000040 b0 e0 45 3d 6f ce 8c 3f de 3d 98 3d 80 d9 c2 3f
       0.04830998 1.1000499 0.07433675 1.5222626
000050 d7 4b 21 bd 4b 47 f9 bd bc e9 90 3f db d8 c1 3f
       -0.039378967 -0.12171801 1.132133 1.5144304
000060 37 25 d4 3f 28 d6 b7 bc 45 da b0 3f f7 0e b4 bd
       1.6573857 -0.022440985 1.381661 -0.08791917
000070 fd 53 99 3d 90 46 b6 3f 13 10 a3 c0 ae 02 aa 3f
       0.074867226 1.4240284 -5.095712 1.3282068
000080 bf 3b 99 c0 2c 87 77 3f 76 f4 50 c0 27 bb 2f c0
       -4.788543 0.9669063 -3.2649207 -2.7457979
000090 df 1c 9c 3f 11 14 58 3e 85 ec bb 3f ba 85 96 3f
       1.2196311 0.21101405 1.4681555 1.175956
0000a0 b5 cd 8f be 6a 53 7d 3f 1e 8c a5 3e 26 f4 a1 be
       -0.2808663 0.98955405 0.32333463 -0.31631583
0000b0 2a 4b 5a 3e c7 a5 8b 3f 27 39 34 3c de 9a 99 3f
       0.21317735 1.0909966 0.010999954 1.2000387
0000c0 f1 b2 56 bc 15 62 1b 3f 53 fa a7 3f 83 a1 b3 3f
       -0.013104186 0.60696536 1.3123268 1.4033664
0000d0 ec 0f 89 bd b3 51 63 c0 a8 bc ce bc d6 f4 97 3f
       -0.0669249 -3.5518615 -0.025236443 1.1871593
0000e0 18 67 c7 be d9 f9 a3 3f b9 db 9e bb 5d 6e 9d bd
       -0.38945842 1.2810622 -0.0048479703 -0.07687066
0000f0 59 ae 6a 3f 66 5c 12 3d a7 7a 5f 3f cc 6e a2 3f
       0.91672283 0.03573265 0.8729653 1.2690063
000100 b8 98 4e 3f 9f 0a ac 3c f9 cf ca bf a4 09 0c be
       0.8070178 0.021001158 -1.5844718 -0.13675553
000110 29 81 c7 3f eb 66 b7 3f f4 d9 8e c0 5a 94 6e 3f
       1.5586292 1.4328283 -4.4641056 0.93195117
000120 4e 25 80 be 54 62 cc 3f c8 6d 3b c0 59 c9 90 3f
       -0.2502846 1.5967507 -2.9285755 1.1311446
000130 f9 2d bf 3f b0 d8 5b 3f 4f 0a 75 c0 24 2f 0c be
       1.4935905 0.85877514 -3.8287542 -0.13689858
000140 7f 25 28 3e 57 e2 ae 3f 06 58 a6 bd e4 92 b3 3f
       0.16420554 1.3662823 -0.08122258 1.4029202
000150 4f dc a7 3c 85 46 12 be 13 d7 c7 3f 26 44 cc 3f
       0.020490794 -0.14284714 1.561251 1.5958297
000160 95 73 20 3f dd 68 15 be fc 21 92 3f 74 91 ff 3b
       0.62676364 -0.14590783 1.1416621 0.007799322
000170 56 9f 91 bb c7 c3 9e 3f 1b 9a 31 c0 83 9a da 3f
       -0.004444043 1.2403497 -2.7750309 1.7078403
000180 11 ec cd c0 39 d2 a9 3f 0f 80 2d c0 a8 09 be bf
       -6.4350667 1.326728 -2.710941 -1.4846697
000190 91 c2 ca 3f 23 42 76 3d 8c 12 8f 3f 6c 6c 5b 3f
       1.5840627 0.060121667 1.1177535 0.85712314
0001a0 b8 98 35 c0 ad 7c 8a 3f 61 aa 53 be 28 b6 73 3e
       -2.8374462 1.0819298 -0.20670463 0.23799956
0001b0 86 1c af 3f 6f c1 25 3f 1b ef cf 3c 5a 69 81 3f
       1.368058 0.6474828 0.025382569 1.0110276
0001c0 4c e0 05 bc d9 cd f6 be d0 54 ca 3f da 49 fb 3f
       -0.008171152 -0.48203924 1.5807133 1.9631913
0001d0 73 c7 f6 bd 40 1e 69 c0 de 84 a1 3d 58 26 af 3f
       -0.12049761 -3.6424713 0.078866705 1.3683577
0001e0 06 73 0b 3f 14 df 0d 3f 40 0f 4b 3d bd 41 82 3b
       0.54472387 0.55418515 0.04957509 0.003975122
0001f0 57 d0 cd 3f 50 b3 cb 3d cd f8 ad 3f 29 d1 95 3f
       1.6079205 0.099463105 1.3591553 1.1704456

net.4.bias f4 [2]
000000 89 06 39 3f d4 81 a5 3e
       0.72275597 0.32325613

exp_avg f4 [64, 4]
000000 96 ac 3c bc c6 2e ae 3a 5e ba ee b9 53 5c 27 bc
       -0.011515757 0.0013289086 -0.00045533752 -0.010214883
000010 63 00 13 3a 48 8f fc 3a e7 4e 5e 39 5f ab 88 ba
       0.00056076626 0.0019268775 0.00021200963 -0.0010427049
000020 04 00 00 80 04 00 00 80 04 00 00 00 04 00 00 00
       -6e-45 -6e-45 6e-45 6e-45
000030 04 00 00 00 04 00 00 00 04 00 00 80 04 00 00 80
       6e-45 6e-45 -6e-45 -6e-45
000040 04 00 00 80 04 00 00 80 04 00 00 80 04 00 00 00
       -6e-45 -6e-45 -6e-45 6e-45
000050 1a f3 3e b9 6c b0 20 3c 74 0c fe 38 a9 fb 2e bc
       -0.00018210374 0.009807687 0.000121139834 -0.010680118
000060 04 00 00 00 04 00 00 00 04 00 00 00 04 00 00 00
       6e-45 6e-45 6e-45 6e-45
000070 d2 66 1b bd ee 83 a5 bc ae a9 2c bb 1e 72 65 bc
       -0.037939854 -0.02020451 -0.0026346254 -0.014004258
000080 2b 18 e2 bb fd 1c 90 3a 1c 01 b8 b9 03 76 d8 bb
       -0.0068998537 0.0010994967 -0.0003509604 -0.006605865
000090 04 00 00 80 04 00 00 80 04 00 00 80 04 00 00 00
       -6e-45 -6e-45 -6e-45 6e-45
0000a0 04 00 00 00 04 00 00 80 04 00 00 00 04 00 00 00
       6e-45 -6e-45 6e-45 6e-45
0000b0 04 00 00 80 04 00 00 80 04 00 00 00 04 00 00 00
       -6e-45 -6e-45 6e-45 6e-45
0000c0 04 00 00 80 04 00 00 00 04 00 00 80 04 00 00 80
       -6e-45 6e-45 -6e-45 -6e-45
0000d0 20 c4 34 bd 88 59 20 bd 8d 67 b5 bb b2 f3 36 bc
       -0.044132352 -0.039147884 -0.005536026 -0.0111665
0000e0 04 00 00 00 04 00 00 00 04 00 00 00 04 00 00 00
       6e-45 6e-45 6e-45 6e-45
0000f0 7f 73 6b bc b3 12 48 bc ac 81 03 bb 71 5a 7a bb
       -0.014370798 -0.0122114895 -0.0020066304 -0.003820088
000100 a7 bb 21 bd 65 0b 0c bd 98 73 a9 bb 12 e8 e4 bb
       -0.0394856 -0.034190554 -0.0051712506 -0.0069856727
000110 04 00 00 00 04 00 00 00 04 00 00 00 04 00 00 00
       6e-45 6e-45 6e-45 6e-45
000120 04 00 00 80 04 00 00 80 04 00 00 80 04 00 00 00
       -6e-45 -6e-45 -6e-45 6e-45
000130 04 00 00 80 04 00 00 00 04 00 00 00 04 00 00 80
       -6e-45 6e-45 6e-45 -6e-45
000140 04 00 00 00 04 00 00 00 04 00 00 80 04 00 00 80
       6e-45 6e-45 -6e-45 -6e-45
000150 62 25 d6 3e 0d 56 e1 3e 8b f8 48 3d 52 14 94 3c
       0.41825396 0.44010964 0.049065154 0.018076096
000160 60 25 42 ba cb 31 80 b9 6a 5e 83 b7 d0 0e 9b ba
       -0.0007406082 -0.0002445116 -1.5660382e-05 -0.0011829976
000170 04 00 00 00 04 00 00 00 04 00 00 80 04 00 00 00
       6e-45 6e-45 -6e-45 6e-45
000180 08 d9 be bb 8b 51 a0 b9 68 80 fc b9 d6 16 a6 bb
       -0.005824212 -0.00030578332 -0.00048160856 -0.00506864
000190 e5 fa ba 39 0c 1b 07 bb 25 d8 fa 39 a6 c2 d2 3b
       0.00035663616 -0.0020615486 0.00047844756 0.0064318953
0001a0 48 0b df 3d 48 f5 26 3e 8b a5 76 3c b0 9f 19 bd
       0.108908236 0.16304505 0.015054117 -0.037505805
0001b0 ab 29 97 3c 31 f2 32 3d ca d9 2e 3a 5e 89 af bc
       0.018452486 0.043688003 0.00066700263 -0.021427806
0001c0 c3 66 57 bc 88 0f 4b bc 92 0f d0 ba 32 39 5a 3a
       -0.013147059 -0.01239384 -0.0015873781 0.0008324563
0001d0 04 00 00 00 04 00 00 00 04 00 00 00 04 00 00 00
       6e-45 6e-45 6e-45 6e-45
0001e0 9b 95 3a bd 71 52 33 bd 1c a2 87 bb e5 d9 1a bb
       -0.04555283 -0.043779794 -0.004139198 -0.002362841
0001f0 04 00 00 80 04 00 00 80 04 00 00 80 04 00 00 00
       -6e-45 -6e-45 -6e-45 6e-45
000200 60 6f 7e bc 19 27 ea 3a 1e 40 9b ba 88 c8 8b bc
       -0.015529484 0.0017864435 -0.001184467 -0.017063394
000210 04 00 00 00 04 00 00 00 04 00 00 00 04 00 00 00
       6e-45 6e-45 6e-45 6e-45
000220 7a c2 9f 3d 81 fe a6 3d c9 4e 0e 3c 06 b2 82 3b
       0.07800765 0.081540115 0.008685776 0.003988507
000230 a0 65 e8 bb 5f 63 2a 3c 18 03 26 3a 5a 78 4a bc
       -0.007092193 0.0103996685 0.00063328585 -0.012357796
000240 e6 c8 5a bc 34 5d 18 bd ba 32 0a bb d9 fb b8 3c
       -0.013353562 -0.03719826 -0.0021087364 0.022581028
000250 94 4a d5 bb 8c 9c a5 ba e6 44 eb b9 72 0a 02 bc
       -0.0065091345 -0.0012635156 -0.00044874026 -0.007937061
000260 04 00 00 80 04 00 00 80 04 00 00 00 04 00 00 00
       -6e-45 -6e-45 6e-45 6e-45
000270 cf ea ec bb 2d 46 9b 3c e0 5c a3 3a f8 96 94 bc
       -0.00723014 0.01895436 0.0012463592 -0.018138394
000280 04 00 00 80 04 00 00 80 04 00 00 80 04 00 00 80
       -6e-45 -6e-45 -6e-45 -6e-45
000290 06 82 c1 3d 69 a4 d3 3d 5c ce 3a 3c a4 d9 b5 39
       0.09448628 0.10334093 0.011401739 0.00034685165
0002a0 f6 66 46 bd 55 b0 7f bd 72 2f a4 bb 11 55 3c 3c
       -0.048438035 -0.062424023 -0.0050105387 0.011494891
0002b0 04 00 00 80 04 00 00 00 04 00 00 00 04 00 00 80
       -6e-45 6e-45 6e-45 -6e-45
0002c0 04 00 00 80 04 00 00 80 04 00 00 80 04 00 00 80
       -6e-45 -6e-45 -6e-45 -6e-45
0002d0 4f c1 57 bc b3 6d c3 bb 0e a4 a9 b9 a3 c0 54 bb
       -0.013168647 -0.005964005 -0.00032356422 -0.0032463453
0002e0 04 00 00 80 04 00 00 80 04 00 00 00 04 00 00 00
       -6e-45 -6e-45 6e-45 6e-45
0002f0 a5 15 a2 3d 9d 47 be 3d 9d 46 0f 3c 25 40 10 bc
       0.079142846 0.09291003 0.008744863 -0.008804356
000300 04 00 00 80 04 00 00 80 04 00 00 80 04 00 00 80
       -6e-45 -6e-45 -6e-45 -6e-45
000310 0b 17 57 bd a8 00 34 bd 2f 1d a7 bb bb 37 1d bc
       -0.05251221 -0.04394594 -0.0050999145 -0.009595807
000320 46 c8 0d bc 01 38 3d bb 2f 1a c2 ba 09 64 1a bc
       -0.008653706 -0.0028872492 -0.0014808829 -0.009423264
000330 04 00 00 80 04 00 00 00 04 00 00 00 04 00 00 80
       -6e-45 6e-45 6e-45 -6e-45
000340 04 00 00 00 04 00 00 00 04 00 00 00 04 00 00 00
       6e-45 6e-45 6e-45 6e-45
000350 7e 36 93 bc 13 60 0b 3a d6 1e ad b9 3c 07 50 bc
       -0.01797032 0.00053167454 -0.00033020106 -0.012697037
000360 00 00 00 00 00 00 00 00 00 00 00 00 00 00 00 00
       0.0 0.0 0.0 0.0
000370 04 00 00 00 04 00 00 00 04 00 00 00 04 00 00 80
       6e-45 6e-45 6e-45 -6e-45
000380 56 c6 fd bc 96 a5 d5 bc b4 03 75 bb 46 a4 24 bc
       -0.030978363 -0.026079934 -0.003738624 -0.010048931
000390 04 00 00 80 04 00 00 80 04 00 00 00 04 00 00 00
       -6e-45 -6e-45 6e-45 6e-45
0003a0 04 00 00 00 04 00 00 00 04 00 00 00 04 00 00 80
       6e-45 6e-45 6e-45 -6e-45
0003b0 d1 cc b2 bb ae 6e 56 3c ec f8 1f b9 55 2d 8e bc
       -0.005456545 0.0130879115 -0.00015256152 -0.0173556
0003c0 04 00 00 00 04 00 00 00 04 00 00 00 04 00 00 00
       6e-45 6e-45 6e-45 6e-45
0003d0 04 00 00 00 04 00 00 00 04 00 00 80 04 00 00 80
       6e-45 6e-45 -6e-45 -6e-45
0003e0 cb 4d 26 bc f6 d6 a8 3b d0 f0 32 ba 3c 01 7f bc
       -0.010150383 0.0051525785 -0.0006826045 -0.015564259
0003f0 04 00 00 00 04 00 00 00 04 00 00 00 04 00 00 00
       6e-45 6e-45 6e-45 6e-45
