CartPole/Experiment_1/23-09-26_22-10-39-937242_DQN/checkpoints/agent_89500.pt (torch, 82571 bytes, 24 tensors)

net.0.weight f4 [64, 4]
000000 8b 2a fa bc db 28 02 3e 92 84 dd 3d 03 f0 0e 3d
       -0.030537864 0.12710898 0.108163014 0.03489686
000010 0f d9 98 3e 68 b1 2e bc 8a a7 0d 3f 2a ea cc 3c
       0.29853103 -0.010662414 0.5533377 0.025014002
000020 32 ff e3 bd 1d e9 34 3e 07 ae 10 40 48 4c 72 3e
       -0.11132659 0.1766705 2.2606218 0.23661911
000030 4e 40 7f be 3d fe 17 bf 39 1a 32 3e 4c 20 b6 be
       -0.24926874 -0.5937231 0.17392816 -0.35571516
000040 e6 bc ab bd d7 7e a8 bc 0c d1 46 3d 72 b2 36 3b
       -0.08385639 -0.020568294 0.048539206 0.0027877358
000050 fc 43 92 3e 23 f7 31 be ab a0 94 bf 57 bd 34 be
       0.28567493 -0.17379431 -1.1611532 -0.17650352
000060 a2 e1 93 bd 8a 32 ca 3d 0e 2b 10 bf 5f 82 c1 3d
       -0.072207704 0.09872921 -0.56315696 0.094486944
000070 f5 0d f0 bd 0e e2 1b 3d ba ef 0d ba ef 5a 7b 3d
       -0.11721412 0.03805738 -0.0005414445 0.061366018
000080 16 ea 85 bc 79 41 4b bd 81 0d c3 3d 99 85 5b bc
       -0.016346972 -0.049622986 0.0952406 -0.013398551
000090 aa 6b 13 be 61 6d 5e 3d ee 87 cd bb 0e ee 29 3e
       -0.1439654 0.05430353 -0.0062723076 0.16594717
0000a0 b1 63 7c be 1f f6 c5 bd 62 f2 52 bf 5e cf a2 bd
       -0.24647404 -0.096660845 -0.82401097 -0.079497084
0000b0 a4 af 71 3e 57 1e f1 bd b2 e0 0b c0 60 a7 a0 be
       0.23602158 -0.11773365 -2.1855893 -0.31377697
0000c0 1c c0 a5 be 3d 63 30 be e2 22 19 3e fd d3 d8 bd
       -0.3237313 -0.17225356 0.14954713 -0.105873086
0000d0 ae 6a 12 3e 9b 82 04 3f 23 8c 1e 3f 9f f1 fd 3d
       0.14298508 0.5176179 0.6193258 0.12399601
0000e0 6f bc db 3c 9e fd 0d bc fc 6a 3e be 88 86 b0 bc
       0.02682325 -0.008666424 -0.18595499 -0.021548524
0000f0 80 ac 8f 3c ab ae 14 3e a7 ed 28 3f f0 eb e7 bd
       0.01753831 0.14519756 0.6598763 -0.113242984
000100 7f b4 5b 3e eb ac c0 3e 8e 21 82 bf 80 70 4d 3e
       0.21455573 0.37631926 -1.016649 0.20062447
000110 b9 9f 9d 3e 53 3f 23 3d ea 30 10 be c7 69 c8 bc
       0.3078592 0.039855313 -0.14081159 -0.024464501
000120 ee 6e 45 3d 46 05 2e bd d7 e5 c4 bd 90 ed 03 bd
       0.048201494 -0.042485498 -0.09614151 -0.03220898
000130 85 7b 7a be 3e ba b4 be 00 d4 3d bf 6c 5d 86 be
       -0.24461181 -0.35298342 -0.7415161 -0.2624315
000140 f6 e3 02 3c 53 11 54 3d 4d 4c 15 bf de 0a b5 3c
       0.00798892 0.051774334 -0.5831955 0.022099908
000150 8c 5a c1 3e b8 4d cb 3c 76 cd a0 3e 79 01 4a bc
       0.37764394 0.024817333 0.31406754 -0.012329453
000160 c9 5b 3f bb 74 51 86 be 29 cc 1d bf 0d da ad 3d
       -0.0029198995 -0.2623402 -0.6163965 0.084888555
000170 de 3e dc 3e cc 53 bb bd f9 36 88 be a6 a6 26 bd
       0.43016714 -0.09146842 -0.2660444 -0.040686272
000180 8d 10 01 be 45 05 69 3e ba ed c3 3f be fd 61 bd
       -0.1260397 0.22755916 1.5306923 -0.055173628
000190 38 b1 a6 be d8 5b 43 be ca 6a 9e 3f 64 b1 ec 3e
       -0.32557082 -0.19078004 1.237634 0.46229088
0001a0 26 3a 12 3e 4c 81 91 3e 0c 35 b1 3f 76 e7 7f 3e
       0.14279994 0.28418958 1.3844314 0.24990639
0001b0 31 7f 0c 3f 95 b2 d6 3d e1 fe f9 3e 11 62 6c 3d
       0.5488158 0.104832806 0.4882727 0.05771071
0001c0 36 03 d0 3e 2c 1b 92 bd 02 0c b9 3f e8 9c 9f 3e
       0.4062745 -0.07134089 1.445679 0.31174397
0001d0 7d 43 2e be 2b ed 9a be dd 42 84 bf 7a 1d a1 be
       -0.17017932 -0.3025907 -1.0332905 -0.314678
0001e0 96 c9 8e 3d e6 ad d9 3e ce 23 8e 3f 29 68 03 be
       0.06972043 0.42515486 1.1104677 -0.12832703
0001f0 fb cd e9 bc 62 e9 a8 bc a6 4b ee 3c 74 01 91 bd
       -0.028540602 -0.020619098 0.029088806 -0.07080355
000200 3e 41 38 bd de 10 03 bd 75 22 92 bf c2 66 41 be
       -0.044984095 -0.031998508 -1.1416765 -0.18886855
000210 d2 25 10 bd f5 ca cc 3c 08 65 4e bd cc 83 96 3c
       -0.03519232 0.024999121 -0.05038932 0.018373393
000220 d1 28 f0 bd 65 55 71 3e 99 80 95 3f 40 76 9f 3e
       -0.11726535 0.23567732 1.167987 0.31144905
000230 7f b8 20 3e b9 b9 27 bc 4c b9 e2 bd c2 ab 31 3d
       0.1569538 -0.010237151 -0.11070499 0.04337669
000240 c9 28 37 3e 1a 01 04 be ae af 17 c0 d4 d7 9c be
       0.17886652 -0.12891045 -2.3700976 -0.30633414
000250 6c 87 6a bd 86 7b 45 bf 67 2a 36 3f 2a 7a 1c be
       -0.057258055 -0.77141607 0.7115845 -0.15280977
000260 40 07 47 bd 42 28 86 3d 81 5a 55 be f0 70 24 3e
       -0.0485909 0.06550647 -0.20835306 0.16058707
000270 f7 b9 02 3e a1 a5 9b bd a6 27 5c bd 9d fd fe 3c
       0.12766252 -0.075999506 -0.05374875 0.031126792
000280 7c 2b 11 be 71 b7 42 bd e8 03 46 be 8c 7d 6e bd
       -0.14176744 -0.047538225 -0.19337428 -0.0582252
000290 7e 06 17 3f 79 06 6a bd 82 5c cb bf 38 59 04 be
       0.5899428 -0.05713508 -1.5887606 -0.12924659
0002a0 ff 4e 82 be 2e f5 5c 3e a9 da b6 3f c2 ac 82 3e
       -0.25450894 0.21577904 1.428548 0.2552243
0002b0 21 39 50 be ed c2 5c 3e ce 35 ab 3e b0 34 c8 3d
       -0.20334293 0.21558733 0.33439487 0.09775674
0002c0 a4 b6 2b 3d f7 e1 e0 bc 99 a0 a6 bd dd ef 3c bc
       0.041922227 -0.027451498 -0.081361 -0.011531797
0002d0 1c 28 42 be 5a 0b 21 3e 94 ec c2 3f 71 73 1d 3e
       -0.18960613 0.15726987 1.5228448 0.15376069
0002e0 af 23 db 3e dc e2 40 be 1a 31 1f c0 66 e6 a8 be
       0.42800662 -0.1883654 -2.487372 -0.3298828
0002f0 79 26 02 3f c4 73 34 be 8b 71 04 bf 4a d7 d8 be
       0.50839955 -0.17622286 -0.5173575 -0.42351753
000300 8e 0a 30 bc 71 07 35 3d 3c 70 ca ba 19 4f 1f 3d
       -0.010744704 0.04419655 -0.0015444825 0.038893793
000310 1d ac 07 be fd 50 42 3d be 87 97 be ec 40 9f 3d
       -0.1324925 0.047440518 -0.2959575 0.07776055
000320 d4 27 98 be a0 bb e9 bd c7 ec 86 bf d0 b3 6d be
       -0.29717886 -0.1141274 -1.0541009 -0.23213124
000330 4f df 58 bf 0c 99 4a be 5d cf 25 3f e6 84 fa 3c
       -0.8471574 -0.19784945 0.64769536 0.030580949
000340 64 e1 a1 bd b6 bd 71 3e a2 ff a1 3f 7a 28 49 3e
       -0.07904318 0.23607525 1.2656138 0.19644347
000350 c4 a7 30 bd a1 1c 0a bd 1e c1 92 3e e8 ce 44 3d
       -0.043128744 -0.03371871 0.28662962 0.048048884
000360 47 a5 17 3d 22 8a 7d 3c 12 96 53 bd 53 c0 93 3c
       0.037022855 0.015474828 -0.05165679 0.018036043
000370 21 c8 50 be 97 9a 1f 3e 84 a2 45 3f 8b 49 5f 3d
       -0.20388843 0.15586315 0.77201104 0.054513495
000380 fd 5e 73 3e cf 39 80 be a7 33 7c bf 22 7d e9 3d
       0.23766704 -0.25044104 -0.98516315 0.1140082
000390 f1 8d 8d 3d 5f bf af bd f7 fc ec be 7e 8e 7c 3c
       0.06911839 -0.08581423 -0.46286747 0.015414832
0003a0 4a 55 ee bc d7 a5 a8 3d 3d 15 94 bd 91 9a 3b 3d
       -0.029093403 0.082347564 -0.072306134 0.045801703
0003b0 87 68 e2 3d b6 80 10 be d2 7b 63 bf 0a 2a 77 be
       0.11055093 -0.141116 -0.8886081 -0.2413713
0003c0 73 28 f0 3d 8a 49 4c bc e2 ef 82 3f b0 d8 97 3c
       0.11726465 -0.012468705 1.0229456 0.018535942
0003d0 3c b0 c5 bc d1 b4 82 3c 4f 6f 69 bd ae 8b ef bc
       -0.024131887 0.01595536 -0.056990918 -0.02924141
0003e0 6b 3c 5c 3e 0a 13 23 be 81 3d cd bf 9f 4b f5 bd
       0.21507423 -0.15925232 -1.6034395 -0.11977314
0003f0 7a 6c 15 3e ba 26 1f be c9 f2 cb 3e 99 fb b7 bc
       0.14592162 -0.15542117 0.39833668 -0.022458838

net.0.bias f4 [64]
000000 63 da d4 3e 24 f4 36 3e bc c1 e2 be 40 2a 61 be
       0.41572866 0.1786657 -0.44288433 -0.21988773
000010 58 ed 97 be 4b 29 c6 3e de 51 23 be b0 87 09 3f
       -0.29673266 0.3870338 -0.15949199 0.5372267
000020 04 61 a8 3e c0 27 e4 be 48 bf c9 be 7d 18 ed be
       0.32886517 -0.44561577 -0.3940375 -0.46307746
000030 4b 45 08 bf af 6b 93 be 2c 0f 16 be 0c 3c 17 3e
       -0.5323073 -0.28793094 -0.14654225 0.14769
000040 8e f3 38 bd 72 bb c3 be bb ea b7 bd 76 65 34 be
       -0.045154147 -0.38228947 -0.08980318 -0.1761683
000050 d2 b2 e6 be f2 e9 50 bf 64 ae 4f 3e 46 15 36 bf
       -0.45058304 -0.8160697 0.20281368 -0.7112621
000060 25 ae c5 3e 39 38 07 bf 89 f9 01 bf 8d 98 29 bf
       0.38609424 -0.52820164 -0.50771385 -0.662484
000070 41 96 fb bd 2c 84 eb be 46 da 99 be 53 54 86 be
       -0.12284518 -0.45999277 -0.30049342 -0.2623621
000080 d7 c3 e5 3e 21 7f 2c be 67 07 fe be 1f 87 f4 3e
       0.44875976 -0.16845371 -0.49615023 0.4775934
000090 20 2a be 3e e3 c5 05 3e 25 5e 99 be 14 38 23 3f
       0.37141514 0.13063769 -0.2995464 0.63757443
0000a0 31 bf 0e bf f2 f4 c9 be 7c 57 ec 3e c2 7e ca be
       -0.55760485 -0.3944469 0.46160495 -0.39549834
0000b0 b5 19 1b be 37 ce da 3e 92 5d 0d bf ec 4d 07 bf
       -0.15146525 0.42735454 -0.552209 -0.52853274
0000c0 ab 13 fd bd 15 1a bb 3e f1 eb e1 3e 88 cf a8 be
       -0.12357267 0.36543337 0.44125322 -0.32970834
0000d0 f6 f5 e4 be 92 1a 05 3f b7 90 93 be cd 0a cb be
       -0.44718903 0.5199367 -0.28821346 -0.39656678
0000e0 68 c6 da 3d 21 36 dc be 47 91 0f be 1e e3 dd 3e
       0.10682374 -0.43010047 -0.14020263 0.4333734
0000f0 cb a6 05 bf bf 71 40 be e9 73 e2 3e 5b 26 c2 be
       -0.5220763 -0.1879339 0.44229057 -0.37919888

net.2.weight f4 [64, 64]
000000 78 3f 40 be f4 6c 30 be 41 c3 d5 3e 76 9c f6 3d
       -0.18774211 -0.17229062 0.4175053 0.12041561
000010 65 da d3 3c 51 71 22 be 8b b8 fb be 9e 55 8e be
       0.025860975 -0.1586354 -0.49164233 -0.27799696
000020 a5 4c d6 bd a3 85 2a 3d 44 f6 3a bd 0d 89 83 be
       -0.104638375 0.041631352 -0.045645013 -0.256905
000030 78 b5 91 be 69 57 71 bd 44 63 2d be a2 77 d4 bd
       -0.28458762 -0.05892125 -0.16932398 -0.10374381
000040 2c 1e 8d bd 4e 9a 12 bf 9d 75 1a be b5 25 65 be
       -0.068905205 -0.572667 -0.15083928 -0.22377665
000050 b9 74 d1 3a 4b 1e 92 3d 9a 76 26 bf b2 d4 53 bf
       0.0015980221 0.07134684 -0.6502472 -0.8274642
000060 67 a9 6c 3e 4c 83 f5 be 53 77 1f 3f 76 6b 76 3e
       0.23111497 -0.47951734 0.6229145 0.2406443
000070 08 39 eb be 51 45 a2 ba 67 e2 b6 3d bb d3 06 3e
       -0.4594195 -0.0012380277 0.089299016 0.13166706
000080 ff 19 27 bf 24 c2 92 3d 40 87 a0 be 03 55 5b 3d
       -0.6527404 0.07165936 -0.31353188 0.05354787
000090 20 a6 f0 bd 4c d8 a4 bd 6b 84 67 be 10 2d 51 be
       -0.11750436 -0.08049068 -0.22609107 -0.20427346
0000a0 bb fc 9d 3d 83 d6 83 be ab ec 62 3c 1c 43 12 be
       0.0771422 -0.25749597 0.013850371 -0.14283413
0000b0 4d 8a 05 3d dc 19 02 3f fe f8 94 3d 1d cd 94 3d
       0.032602597 0.5082071 0.07274054 0.07265685
0000c0 3f c5 5d bd a2 9a 28 be d7 6a da bd 78 9a fc be
       -0.054143187 -0.16465238 -0.10664909 -0.493366
0000d0 5c 5b ca bd 57 b2 0c be 07 4d de 3d 58 5d fd 3d
       -0.09880707 -0.13739906 0.108545355 0.123713195
0000e0 bf 08 38 bd df 09 df be 33 0a 9e bb 2e 82 02 bf
       -0.044930216 -0.4356222 -0.004822993 -0.5097989
0000f0 a1 7e c4 3f 4c 96 21 bc f0 62 6a be 9e 4d e5 3e
       1.5351144 -0.009862494 -0.22889304 0.4478578
000100 3e d1 bf 3d 3d 9b ed 3d 4e 6e 4d be 71 e1 4a 3e
       0.09366082 0.11601875 -0.20061609 0.19812562
000110 65 06 54 3c a7 03 6f 3d e7 af 7e bb 5f 22 1d be
       0.012940978 0.058353093 -0.003886217 -0.15345143
000120 43 9d 17 be 4d 46 3e bc 24 51 b3 bd 37 7b bc bd
       -0.14806084 -0.011613441 -0.08755711 -0.09203189
000130 a1 5c eb 3d e5 d7 b6 bd 9a ad 35 3d 8a 0d fe bd
       0.11492277 -0.08927897 0.044355012 -0.12404926
000140 6e 7d 48 3d 14 40 16 3d 3b 05 47 bd 95 b9 0e be
       0.048947744 0.036682203 -0.048588973 -0.13937981
000150 35 6b 8a bd ee d5 12 bd 4d 0b c2 bb 92 86 17 be
       -0.06758729 -0.03584855 -0.0059217573 -0.14797428
000160 6e d5 97 bd b9 7f 56 3d 9e 25 27 3e 5b 64 27 be
       -0.07413755 0.0523679 0.16322944 -0.16346876
000170 15 2f b7 bd 55 4d ab bd 04 40 71 bd c0 8a 51 bd
       -0.08944527 -0.08364359 -0.05889894 -0.051157713
000180 9f e6 35 be b7 b1 be 3c 3c bc 70 bd 7b 3b 18 bd
       -0.17763756 0.0232781 -0.058773264 -0.0371661
000190 0a 6c 5b be f7 70 2c 3e c5 67 7e 3e a7 6d 60 be
       -0.21427932 0.16839968 0.24844272 -0.21916829
0001a0 ed b3 21 bc 6b 90 6b bd 78 16 93 bd 38 12 bb 3c
       -0.009869558 -0.057510775 -0.0718202 0.022835836
0001b0 73 ef bd 3d 48 87 27 bb e5 85 30 be e6 09 39 be
       0.09274187 -0.0025562812 -0.17238577 -0.18070182
0001c0 04 44 46 3e f3 4d 28 be 2a ab 07 be 69 96 57 bd
       0.19361883 -0.16435985 -0.13248888 -0.052633677
0001d0 d7 bb 0c bd d0 ce 6e bc eb 43 11 3e 49 7b 9a bd
       -0.034358826 -0.014575675 0.14186065 -0.07543046
0001e0 eb 07 4e be 56 7e 7c bd 39 c9 44 3e 0f 49 db 3d
       -0.20120208 -0.06164392 0.19217385 0.10707294
0001f0 cd 96 16 3e 6f 7d d4 bd 82 a1 51 be 94 f6 c3 3d
       0.14705963 -0.10375487 -0.20471767 0.095685154
000200 c7 bc 43 be 9f 53 32 bf 8a aa b4 be 2e 57 6d bf
       -0.19114982 -0.69658846 -0.3528636 -0.9271115
000210 80 57 bc bd 7e 0b 18 bf 70 e9 7a 3d cb d1 23 be
       -0.09196377 -0.59392536 0.06125778 -0.15997998
000220 4f 9e 2c be ee da 39 3f 30 10 22 40 80 6c de be
       -0.16857265 0.72599685 2.532238 -0.43442154
000230 91 1c ac 3f a1 01 44 bf c8 2c e7 3d aa d8 b7 be
       1.3446218 -0.76564986 0.11287838 -0.3590749
000240 be c0 8b be 40 a9 41 bd cb 3a 81 3c 3d ea e3 be
       -0.27295488 -0.04728055 0.015775105 -0.44514647
000250 ba ee d3 be b7 de b6 bd ad ef 8b be ec c7 26 3f
       -0.4139307 -0.08929198 -0.27331296 0.65148807
000260 94 53 c2 be 58 67 24 3d 36 0d 09 3f 3f 1f 27 be
       -0.3795439 0.04013762 0.53535783 -0.16320513
000270 37 83 2f 3c 54 35 f2 3d 41 94 30 bf 72 f4 72 3d
       0.010712436 0.11826578 -0.6897622 0.059315152
000280 f4 f6 97 be f0 a2 18 3e 19 b5 07 3e d5 7b f3 be
       -0.29680598 0.14905906 0.13252677 -0.47555414
000290 5b f8 21 3f 9c ce 4d be 26 87 a6 3e 3e c0 1d be
       0.63269585 -0.20098346 0.32524985 -0.15405366
0002a0 0d 0b a4 3f 84 fe 6e 3f d4 9f 9e bd 68 72 84 bd
       1.2815872 0.9335711 -0.077453285 -0.06467134
0002b0 59 33 9a 3d bb 74 a4 be e1 12 96 3e c1 37 65 be
       0.07529325 -0.32120308 0.29311278 -0.2238455
0002c0 02 bf d3 bd 06 db 3b 3d 61 80 4b bf 28 0b 5b 3f
       -0.10339166 0.045863174 -0.79492766 0.855639
0002d0 00 73 27 3e 28 99 0c be e3 b1 0d bd b1 33 f8 be
       0.16352463 -0.137303 -0.034593474 -0.48476937
0002e0 2e e7 87 bf 1c 85 92 be 97 94 92 bd 15 a5 62 bf
       -1.0617425 -0.2861718 -0.071572475 -0.88533145
0002f0 fc f9 2f 3f 40 32 76 bd 21 be 57 bf 22 85 ad 3e
       0.6874082 -0.060106516 -0.8427449 0.33890635
000300 58 e0 d7 bc 17 36 76 3d 77 6e 52 bd 70 fe 5b 3d
       -0.026352093 0.060110178 -0.05137488 0.053709447
000310 ac 22 bd bd 99 3e 15 bd 41 3e f2 3c 27 8f d8 bd
       -0.09235129 -0.03643665 0.0295707 -0.10574179
000320 c9 d5 b7 bd 70 c4 81 bd 83 d5 6d bc b3 82 49 bc
       -0.08976323 -0.063362956 -0.014516237 -0.0122992275
000330 3f ec d6 3d c2 ef b8 bd b8 5d e1 bd e1 83 1d 3c
       0.10494279 -0.09030105 -0.110042036 0.009613962
000340 11 09 d3 3c 08 80 bd bd bb 7d f4 3d b4 60 36 be
       0.02576116 -0.09252936 0.11938044 -0.17810327
000350 a1 e2 0e bd ea 36 5b bd 84 b8 c8 3c 47 39 ad bd
       -0.0348841 -0.053519167 0.024502046 -0.084581904
000360 df 31 54 be 46 b3 2e 3d f7 9e 35 bd ac 17 8a 3d
       -0.2072215 0.042651437 -0.044341054 0.06742796
000370 f8 50 1e 3e 72 9e 91 3c 9f 3e f4 3c 1a 9c fe bd
       0.15460575 0.017775748 0.029815016 -0.12432118
000380 cf 60 fa bc 4c 42 81 3e e9 33 03 3c 04 2c 57 be
       -0.03056374 0.25245893 0.008007982 -0.21012884
000390 9f 26 53 bd d2 36 f5 bd 23 17 28 bd 9a 31 34 be
       -0.051550504 -0.11973347 -0.04103769 -0.17597046
0003a0 fd 9f e3 bc b8 c6 55 3d 0e 12 23 bc 83 ca 99 bd
       -0.02778625 0.052191466 -0.009953035 -0.07509329
0003b0 22 ac 64 3b d8 50 38 bd 60 97 6d bd 26 68 90 3d
       0.0034892638 -0.044998974 -0.05800569 0.07051115
0003c0 15 ec 64 3e 07 32 3f bd 91 b0 be bd 3c 93 0c be
       0.22355683 -0.04667857 -0.09311021 -0.1372804
0003d0 14 3c 78 bd 67 ce 14 3d 6a f5 ec bc b0 8e 72 bb
       -0.06060417 0.036329653 -0.028925616 -0.0037011318
0003e0 bb 21 2c bb 5f cc 82 bd 5d de 6a bd fd e2 19 be
       -0.0026265222 -0.06386637 -0.05734097 -0.15027995
0003f0 ec 3e 31 bd f7 af 53 3b 63 f5 e0 3d fe 68 a9 3d
       -0.043272898 0.0032300928 0.10984304 0.08271979

net.2.bias f4 [64]
000000 50 55 0d be c8 d0 82 3d dc 51 7b be 5d 50 cd bd
       -0.13802075 0.06387478 -0.24542946 -0.10025094
000010 83 a2 12 3f 04 56 1c 3f 01 0d 81 be 14 02 08 3f
       0.57279223 0.6106875 -0.25205234 0.5312817
000020 d8 f1 0b be 7b fa 3b 3f 50 1c 4f 3e 46 1d f7 3e
       -0.13666475 0.7342908 0.20225644 0.4826452
000030 3a 0f 13 3f 80 fc 05 3f 35 a7 b9 be 5e 7b 9b 3d
       0.5744511 0.5233841 -0.3626038 0.0759189
000040 b5 ad 1e be b1 8a 02 3f 67 18 56 bb df 92 16 3f
       -0.15495951 0.50992876 -0.0032668354 0.5881786
000050 34 4a 1f 3c 1a 9c 5f bd 3b 0e 19 3f a1 8c fe 3e
       0.009722281 -0.05459223 0.5978734 0.49716666
000060 42 05 2e 3f 15 a6 30 3d a9 8d a9 3e 0e a6 21 3e
       0.6797677 0.04312714 0.3311589 0.15786001
000070 d1 d7 34 bd 4a 15 e1 3e 48 45 c7 bd 55 bb 1c 3f
       -0.04415113 0.43961555 -0.09730011 0.61223346
000080 9a 0c f6 bd 65 05 05 3f 5d 2d 1c 3c a9 05 65 bd
       -0.12014122 0.51961356 0.0095323 -0.0559136
000090 13 1b 0c 3f 4c 1e 9c bd d6 55 05 3f f0 f9 25 3f
       0.5472881 -0.07622966 0.520841 0.648345
0000a0 15 dc 99 be 7b 55 e9 3e 3c 7e 93 bd 53 2e 75 be
       -0.30050722 0.4557303 -0.07201812 -0.23943453
0000b0 df b7 46 3f 61 c8 1e 3f 0c ef 17 be f0 4f 19 3f
       0.77624315 0.62024504 -0.14837283 0.598876
0000c0 2e 75 86 bd b3 4a 5c 3d 59 80 2c 3f 68 74 18 3f
       -0.06565319 0.053782176 0.67383343 0.5955262
0000d0 ed 85 1b be 00 fe 36 bb cf b0 de bd 37 5f 08 3f
       -0.15187807 -0.0027922392 -0.10873567 0.53270286
0000e0 89 7d bd 3d dd be 42 3f a0 32 0d be 35 37 d5 bd
       0.092524596 0.76072484 -0.13788843 -0.104109205
0000f0 2c 71 18 3f 02 ad 48 be 8e f0 33 3f 04 da f2 3e
       0.59547687 -0.19597247 0.7028893 0.47431958

net.4.weight f4 [2, 64]
000000 d9 57 18 bf b1 e9 d6 bd 52 f2 16 c0 aa 1b 25 3e
       -0.59509045 -0.10493792 -2.35854 0.16123834
000010 74 7b 9c 3f 08 66 bf 3f 65 d7 4a c0 24 7a 86 3f
       1.2225175 1.4953012 -3.1693966 1.0506024
000020 b1 79 7f 3e 94 4e b7 3f 86 52 54 c0 fc 5e a6 3f
       0.24948765 1.4320855 -3.3175368 1.2997737
000030 ad 05 4b 3f 52 c6 9f 3f 81 ab 20 c0 93 fe 8c 3c
       0.79305536 1.2482398 -2.5104678 0.017211234
000040 4d e0 45 3d 25 89 8a 3f 3e 3e 98 3d e9 dc c4 3f
       0.048309613 1.0823103 0.07433747 1.5379916
000050 d1 4b 21 bd b9 46 f9 bd 8a 96 89 3f 41 b5 cc 3f
       -0.039378945 -0.121716924 1.0749066 1.5992814
000060 39 18 ca 3f 9d d6 b7 bc d6 8e a6 3f df 0e b4 bd
       1.5788642 -0.022441203 1.301234 -0.08791899
000070 31 53 99 3d bc a8 bd 3f 16 b2 77 c0 83 50 ab 3f
       0.074865706 1.4817119 -3.8702445 1.3383945
000080 59 fe 90 c0 a7 1a 70 3f 10 15 31 c0 b9 bb 2f c0
       -4.5310483 0.9379067 -2.7669106 -2.7458327
000090 ca 5e 98 3f d2 13 58 3e e2 f9 b1 3f d9 d5 8e 3f
       1.1903927 0.21101311 1.3904383 1.1159011
0000a0 b3 cd 8f be 24 a1 81 3f 06 8c a5 3e a7 33 a9 be
       -0.28086624 1.0127301 0.32333392 -0.3304722
0000b0 4b 71 8e 3e c2 48 84 3f 77 38 34 3c 64 00 96 3f
       0.2782081 1.0334704 0.01099979 1.1718869
0000c0 1e b2 56 bc 0b 0a 91 3e 8a 48 b7 3f b8 23 ae 3f
       -0.01310399 0.28327975 1.4319012 1.360465
0000d0 9a 0f 89 bd 7f 22 2a c0 78 bc ce bc 00 8f 8e 3f
       -0.06692429 -2.6583555 -0.025236353 1.113739
0000e0 95 fd a3 be 9a bb 9b 3f b9 db 9e bb 5d 6e 9d bd
       -0.32029405 1.2166626 -0.0048479703 -0.07687066
0000f0 a9 c9 71 3f b1 5c 12 3d cc 0f 56 3f 5b 98 a3 3f
       0.94448334 0.03573293 0.83617854 1.278087
000100 48 98 4e 3f 45 0b ac 3c 2a d0 ca bf 73 09 0c be
       0.8070111 0.021001467 -1.5844777 -0.1367548
000110 95 50 b8 3f 34 47 b1 3f 7d d9 8e c0 00 fb 66 3f
       1.4399592 1.3849854 -4.464049 0.90226746
000120 bc 24 80 be be c9 c1 3f 07 f4 4b c0 0a bd 76 3f
       -0.25028026 1.5139692 -3.1867692 0.963822
000130 56 e7 ae 3f c0 2d 56 3f 9b 0b 86 c0 bf 2e 0c be
       1.3664348 0.8366356 -4.1889167 -0.13689707
000140 7f 25 28 3e 83 66 a3 3f ad 57 a6 bd c0 37 aa 3f
       0.16420554 1.2765659 -0.081221916 1.3298264
000150 8f dc a7 3c 60 46 12 be 59 d5 bc 3f 9d 80 ba 3f
       0.020490913 -0.14284658 1.4752609 1.45705
000160 1f c8 2b 3f c0 68 15 be d1 e1 88 3f 7a 91 ff 3b
       0.67102236 -0.1459074 1.0693914 0.0077993246
000170 53 9f 91 bb 46 0b 8c 3f 82 dc 57 c0 d8 e2 ca 3f
       -0.0044440418 1.094094 -3.3728337 1.5850477
000180 d1 95 be c0 9d 48 9b 3f a9 dd 0f c0 e6 09 be bf
       -5.955788 1.2131535 -2.247904 -1.4846771
000190 5f c5 b8 3f 23 42 76 3d 82 05 8a 3f 10 4e 58 3f
       1.4435233 0.060121667 1.0782931 0.84494114
0001a0 be 98 35 c0 0e 3f 74 3f 29 aa 53 be 83 1a 6e 3e
       -2.8374476 0.95408714 -0.2067038 0.23252301
0001b0 1a 13 9d 3f dd fe 28 3f 1b ef cf 3c 82 6f 75 3f
       1.2271454 0.6601389 0.025382569 0.9587327
0001c0 f1 df 05 bc 35 5b 49 be e1 d4 b0 3f c8 3c e9 3f
       -0.008171068 -0.19663699 1.3814965 1.8221674
0001d0 a4 c6 f6 bd c3 3c 73 c0 50 84 a1 3d a9 2a a0 3f
       -0.120496064 -3.8005836 0.07886565 1.2513019
0001e0 09 09 c8 3e 30 7c 14 3f 11 0f 4b 3d 2d 42 82 3b
       0.39069393 0.58001995 0.049574915 0.003975174
0001f0 7d 04 b8 3f fd b2 cb 3d dd a5 aa 3f a1 27 8b 3f
       1.437637 0.09946249 1.3331867 1.0871469

net.4.bias f4 [2]
000000 4b 65 24 3f 2f da b7 3e
       0.6421706 0.35908648

net.0.weight f4 [64, 4]
000000 ae f1 03 bd a6 00 ff 3d 04 d2 d9 3d 37 3d 22 3d
       -0.032212906 0.124512956 0.106357604 0.03960916
000010 dc 39 95 3e 48 05 0c bc 74 65 0d 3f ce f8 cf 3c
       0.29145706 -0.008546181 0.5523293 0.025387194
000020 48 1e e8 bd dd 7f 33 3e fc 40 10 40 62 4a 71 3e
       -0.11333901 0.17529245 2.2539663 0.23563531
000030 37 dd 7f be af 3e 18 bf 5e 63 38 3e b5 5a b3 be
       -0.2498673 -0.5947065 0.18006656 -0.3503014
000040 46 bd ab bd 96 7f a8 bc 89 d0 46 3d bf b2 36 3b
       -0.083857104 -0.02056865 0.04853872 0.0027877537
000050 8b 2b 96 3e 26 87 46 be 81 f7 94 bf 2b a7 39 be
       0.29330096 -0.19387493 -1.1638032 -0.18130176
000060 76 e1 93 bd f0 32 ca 3d ae 2a 10 bf b8 82 c1 3d
       -0.07220738 0.09872997 -0.56315124 0.09448761
000070 a1 9f ef bd 1a 30 10 3d 23 75 24 bb 28 c8 85 3d
       -0.11700369 0.035202123 -0.0025094233 0.065323174
000080 90 75 90 bc 34 a7 52 bd dc ca bf 3d f2 04 31 bc
       -0.017634183 -0.05142899 0.09364864 -0.010804402
000090 45 6c 13 be 12 6d 5e 3d 49 87 cd bb ff ed 29 3e
       -0.1439677 0.054303236 -0.0062722308 0.16594695
0000a0 b2 0f 7b be 32 ae bc bd a3 7a 55 bf e5 bf 93 bd
       -0.24517706 -0.092129126 -0.83390254 -0.07214335
0000b0 32 a0 6a 3e db e8 08 be 60 1b 0c c0 49 d7 9c be
       0.22912672 -0.13370077 -2.1891708 -0.30633
0000c0 85 da a4 be 7c 15 2d be 78 e6 15 3e 46 52 d8 bd
       -0.32197967 -0.16902727 0.14638698 -0.105625674
0000d0 20 f7 0d 3e de cd 03 3f 21 be 1d 3f 85 60 fb 3d
       0.13863802 0.51486003 0.6161824 0.12274269
0000e0 c9 bc db 3c a5 fd 0d bc 88 6a 3e be 48 86 b0 bc
       0.026823418 -0.008666431 -0.18595326 -0.021548405
0000f0 6a a0 84 bb 0f 7e 11 3e 7d 6a 28 3f b0 fd ec bd
       -0.004047443 0.14208244 0.6578749 -0.115718246
000100 42 f9 60 3e b0 80 c5 3e 84 9c 82 bf 9c 8d 4a 3e
       0.21970084 0.38574743 -1.0204015 0.19780582
000110 8a b4 9c 3e 32 c7 21 3d 5e 4e 12 be b2 87 ed bc
       0.3060649 0.039496608 -0.14287707 -0.028995369
000120 a1 6e 45 3d a6 05 2e bd e8 e5 c4 bd 15 ed 03 bd
       0.048201207 -0.042485856 -0.09614164 -0.03220852
000130 20 89 76 be ad 26 b6 be 7b 5a 3d bf 4e d7 82 be
       -0.24075747 -0.35576382 -0.7396619 -0.2555489
000140 b5 c4 03 3c ab 43 54 3d d3 4d 15 bf e6 ca b4 3c
       0.008042504 0.051822346 -0.58321875 0.022069406
000150 40 06 c1 3e 10 ea cd 3c 2b 9c a1 3e 44 2c 58 bc
       0.3770008 0.025136024 0.3156446 -0.0131941475
000160 60 01 2a b9 f6 6e 8a be 8d 3a 1d bf 6c 70 9a 3d
       -0.00016212976 -0.2703778 -0.61417466 0.07540974
000170 a9 e1 db 3e 0b 27 bb bd 86 d6 87 be 42 3c 28 bd
       0.42945603 -0.09138306 -0.26530856 -0.04107309
000180 fe 01 01 be 2d 14 7e 3e 73 19 c4 3f e0 40 83 bd
       -0.12598416 0.24812384 1.5320266 -0.06408858
000190 56 cf a7 be 06 fe 4c be 44 6a 9a 3f da 35 f4 3e
       -0.32775372 -0.20018777 1.206368 0.47697335
0001a0 74 8f 12 3e c7 c1 91 3e 96 40 b0 3f a4 c4 7e 3e
       0.14312536 0.28468153 1.376971 0.248797
0001b0 fa 6c 0c 3f 78 c9 d5 3d 40 56 fb 3e 1c 1d 7a 3d
       0.54853785 0.10438818 0.4908924 0.061062917
0001c0 c0 22 cf 3e 8e 63 93 bd 91 6b b8 3f d6 27 9f 3e
       0.404562 -0.07196723 1.4407827 0.3108508
0001d0 d7 5e 38 be 77 d8 97 be 23 fd 7d bf 5d 5e 94 be
       -0.18004929 -0.29657337 -0.9921438 -0.28978243
0001e0 82 e6 83 3d 84 82 d6 3e 08 bd 8d 3f 64 57 02 be
       0.0644045 0.4189645 1.1073313 -0.1272865
0001f0 5a ce e9 bc d6 e9 a8 bc 93 4b ee 3c be 00 91 bd
       -0.028540779 -0.020619314 0.029088771 -0.0708022
000200 6d ed 33 bd 84 b2 1e bd ea c8 92 bf 02 1a 46 be
       -0.0439276 -0.038744465 -1.1467564 -0.19345859
000210 36 25 10 bd c8 cb cc 3c 61 64 4e bd 75 84 96 3c
       -0.035191737 0.024999514 -0.050388698 0.018373707
000220 ce 24 f0 bd d4 52 71 3e 1d 80 95 3f 74 76 9f 3e
       -0.1172577 0.23566753 1.1679722 0.3114506
000230 c4 29 1f 3e 08 a7 67 bc ff 6c eb bd 12 00 42 3d
       0.15543276 -0.014138944 -0.11495399 0.04736335
000240 33 41 36 3e fb 1d 0c be 57 e5 17 c0 00 0a 98 be
       0.17798309 -0.13683312 -2.3733728 -0.2969513
000250 9c 69 64 bd f8 99 39 bf 95 2a 46 3f f3 e6 10 be
       -0.05576478 -0.7250056 0.77408725 -0.141506
000260 00 08 47 bd 2d 28 86 3d 6a 5a 55 be 4e 71 24 3e
       -0.048591614 0.06550632 -0.20835271 0.16058847
000270 fc f2 01 3e 3a f8 a1 bd a0 aa 66 bd 9d 57 0e 3d
       0.12690347 -0.079086736 -0.056315064 0.034751523
000280 b5 2b 11 be 18 b8 42 bd a0 04 46 be 5a 7e 6e bd
       -0.14176829 -0.047538847 -0.19337702 -0.058225967
000290 74 fe 16 3f d6 10 70 bd 8c 10 cb bf 0b db 04 be
       0.58982015 -0.058609806 -1.5864425 -0.12974183
0002a0 ec 33 82 be 0b 72 70 3e 4d 1c b8 3f 81 c5 80 3e
       -0.25430238 0.23481004 1.4383637 0.25150684
0002b0 e9 39 50 be 49 c3 5c 3e 1e 36 ab 3e 01 34 c8 3d
       -0.20334591 0.2155887 0.33439726 0.09775544
0002c0 3f b6 2b 3d c2 e2 e0 bc ae a0 a6 bd 67 f0 3c bc
       0.04192185 -0.027451877 -0.08136116 -0.011531926
0002d0 cf f9 40 be 5e ad 32 3e e1 90 c3 3f e4 3b 19 3e
       -0.18845294 0.17448947 1.5278589 0.14964253
0002e0 00 6e d8 3e da 4e 53 be c7 71 1f c0 0b ca a3 be
       0.42271423 -0.20635548 -2.4913194 -0.31990084
0002f0 2a f9 00 3f d6 a3 2c be 6f ea 01 bf 53 18 de be
       0.50380194 -0.16859373 -0.5074834 -0.43377933
000300 d7 0a 30 bc 68 07 35 3d a8 70 ca ba 76 4e 1f 3d
       -0.010744772 0.044196516 -0.0015444951 0.038893186
000310 8f d9 07 be bf 29 37 3d d3 ed 97 be c5 5e a4 3d
       -0.13266586 0.044717547 -0.29673633 0.08025888
000320 fc 56 93 be 24 e5 01 be 50 2f 87 bf 7c 80 7a be
       -0.287773 -0.12685066 -1.0561314 -0.24463075
000330 3a 9c 59 bf 2c 07 44 be a2 c4 2b 3f d0 5f 45 3d
       -0.8500401 -0.19143361 0.6709691 0.048187077
000340 30 df a1 bd 63 bb 71 3e 5b ff a1 3f 80 29 49 3e
       -0.07903898 0.23606639 1.2656053 0.19644737
000350 6d 69 33 bd 92 65 0d bd 72 19 92 3e 97 20 54 3d
       -0.043801714 -0.034520693 0.28535038 0.051788893
000360 47 a5 17 3d 22 8a 7d 3c 12 96 53 bd 53 c0 93 3c
       0.037022855 0.015474828 -0.05165679 0.018036043
000370 1a c8 50 be 05 9b 1f 3e f8 a2 45 3f 62 49 5f 3d
       -0.20388833 0.15586479 0.77201796 0.054513343
000380 7d b3 4b 3e f7 13 82 be 4e 23 7b bf b9 49 dd 3d
       0.19892688 -0.25405857 -0.98100746 0.10805077
000390 ed 8d 8d 3d d6 bf af bd 6b fc ec be 23 8f 7c 3c
       0.06911836 -0.08581512 -0.4628633 0.015414986
0003a0 f3 54 ee bc a6 a6 a8 3d 06 15 94 bd ff 9a 3b 3d
       -0.029093241 0.08234911 -0.072305724 0.045802113
0003b0 a1 46 e4 3d 94 a9 12 be f9 15 63 bf 44 a1 78 be
       0.11146284 -0.14322501 -0.887054 -0.24280268
0003c0 eb 28 f0 3d 51 49 4c bc f4 ef 82 3f 15 d9 97 3c
       0.117265545 -0.012468652 1.0229478 0.01853613
0003d0 41 b0 c5 bc 5c b5 82 3c 0b 6f 69 bd e2 8b ef bc
       -0.024131896 0.01595562 -0.056990664 -0.029241506
0003e0 2c 54 5e 3e b1 8e 28 be 13 4e cd bf 07 0f 00 be
       0.21711797 -0.16460682 -1.6039451 -0.12505732
0003f0 c5 6c 15 3e 9e 26 1f be 60 f3 cb 3e e0 fa b7 bc
       0.14592274 -0.15542075 0.39834118 -0.022458494

net.0.bias f4 [64]
000000 27 75 d4 3e 5b a3 36 3e fb 3f e3 be 0a af 62 be
       0.4149563 0.17835753 -0.4438475 -0.22137085
000010 9e ec 97 be 72 32 c0 3e cf 51 23 be 7e f8 08 3f
       -0.29672712 0.37538487 -0.15949176 0.5350417
000020 3a 6c a8 3e 7b 27 e4 be 8f b1 c8 be 42 22 e9 be
       0.3289507 -0.4456137 -0.39197966 -0.4553395
000030 c4 5b 07 bf 58 88 94 be 7e 0e 16 be 07 cb 1a 3e
       -0.528744 -0.29010272 -0.14653966 0.15116511
000040 4e f9 27 bd 65 fb c3 be 78 ea b7 bd e7 1b 35 be
       -0.04100924 -0.38277736 -0.08980268 -0.17686425
000050 1f ab e6 be ae de 50 bf 2f cb 47 3e aa 11 36 bf
       -0.4505243 -0.8158978 0.19511102 -0.71120703
000060 c9 b8 c2 3e 03 38 07 bf 1c 91 02 bf 11 fd 29 bf
       0.38031605 -0.5281984 -0.5100267 -0.66401774
000070 c1 c3 f8 bd 1a 0e e6 be 8e 37 9c be ed 53 86 be
       -0.12146712 -0.44932634 -0.30511135 -0.26235905
000080 c1 95 e3 3e 07 7f 2c be 2c 06 fe be 58 07 f4 3e
       0.4445019 -0.16845332 -0.49614084 0.47661853
000090 66 f1 be 3e 21 8d ab 3d 26 5e 99 be a3 d0 22 3f
       0.37293547 0.083765276 -0.29954642 0.63599604
0000a0 9d be 0e bf 3a 79 c9 be 93 c3 e7 3e b9 7e ca be
       -0.557596 -0.393503 0.452664 -0.39549807
0000b0 1e 19 1b be 58 e3 d6 3e 00 bf 0b bf ab 6c 05 bf
       -0.151463 0.41970325 -0.5458832 -0.5211894
0000c0 2c 13 fd bd 4a 5e ba 3e f0 36 e0 3e b8 83 a6 be
       -0.12357172 0.36400062 0.43791914 -0.32522368
0000d0 1f f5 e4 be 1c ae 04 3f b7 90 93 be 91 0a cb be
       -0.44718263 0.5182817 -0.28821346 -0.396565
0000e0 d6 c8 dc 3d e2 35 dc be c5 90 0f be 60 8f dd 3e
       0.10780494 -0.4300986 -0.14020069 0.4327345
0000f0 7d a6 05 bf 49 71 40 be 11 01 e1 3e 01 26 c2 be
       -0.52207166 -0.18793215 0.43946126 -0.3791962

net.2.weight f4 [64, 64]
000000 49 3f 40 be 80 6c 30 be 1a c3 d5 3e 43 9d f6 3d
       -0.18774141 -0.1722889 0.41750413 0.12041714
000010 65 da d3 3c cf 70 22 be 4c b8 fb be 25 55 8e be
       0.025860975 -0.15863346 -0.49164045 -0.27799335
000020 9a 4c d6 bd 8f 85 2a 3d ef f6 3a bd 15 89 83 be
       -0.10463829 0.041631278 -0.04564565 -0.25690523
000030 36 b5 91 be 0b 58 71 bd 27 63 2d be 12 77 d4 bd
       -0.28458565 -0.058921855 -0.16932355 -0.10374273
000040 6e 1d 8d bd 1e 9a 12 bf 9d 75 1a be 2a 26 65 be
       -0.06890379 -0.57266414 -0.15083928 -0.2237784
000050 89 75 d1 3a ad 1e 92 3d 7f 76 26 bf 92 d4 53 bf
       0.0015980463 0.07134757 -0.6502456 -0.8274623
000060 9a a9 6c 3e 3c 83 f5 be dd 77 1f 3f 0b 6c 76 3e
       0.23111573 -0.47951686 0.6229227 0.24064653
000070 db 38 eb be 51 45 a2 ba 2f e3 b6 3d bb d3 06 3e
       -0.45941815 -0.0012380277 0.089300506 0.13166706
000080 c7 19 27 bf 24 c2 92 3d f7 86 a0 be a9 55 5b 3d
       -0.6527371 0.07165936 -0.3135297 0.05354849
000090 ec a5 f0 bd a7 d7 a4 bd 6b 84 67 be e2 2c 51 be
       -0.11750397 -0.08048945 -0.22609107 -0.20427278
0000a0 2e fc 9d 3d 6d d6 83 be 6a ed 62 3c 65 43 12 be
       0.07714115 -0.2574953 0.013850549 -0.14283521
0000b0 4d 8a 05 3d ac 1a 02 3f 25 f9 94 3d 65 cd 94 3d
       0.032602597 0.5082195 0.07274083 0.072657384
0000c0 3f c5 5d bd 27 9a 28 be 82 6a da bd 14 9a fc be
       -0.054143187 -0.16465054 -0.10664846 -0.49336302
0000d0 c9 5a ca bd 9d b1 0c be 0a 4d de 3d 2b 5e fd 3d
       -0.09880597 -0.13739629 0.10854538 0.12371477
0000e0 28 08 38 bd 52 09 df be 33 0a 9e bb cd 81 02 bf
       -0.044929653 -0.43561798 -0.004822993 -0.5097931
0000f0 c8 7e c4 3f 4c 96 21 bc cb 62 6a be 02 4e e5 3e
       1.535119 -0.009862494 -0.22889249 0.44786078
000100 e7 d1 bf 3d ca 9b ed 3d 49 6e 4d be f0 e1 4a 3e
       0.093662076 0.1160198 -0.20061602 0.19812751
000110 65 06 54 3c 2b 03 6f 3d ac af 7e bb 36 22 1d be
       0.012940978 0.05835263 -0.0038862033 -0.15345082
000120 ee 9c 17 be d0 45 3e bc 20 51 b3 bd 38 7b bc bd
       -0.14805958 -0.011613324 -0.08755708 -0.092031896
000130 03 5c eb 3d 78 d7 b6 bd 9a ad 35 3d 2c 0d fe bd
       0.11492159 -0.08927816 0.044355012 -0.12404856
000140 38 7e 48 3d 7d 40 16 3d 3b 05 47 bd 25 b9 0e be
       0.048948497 0.036682595 -0.048588973 -0.13937815
000150 cd 6a 8a bd 45 d6 12 bd 70 0b c2 bb 46 86 17 be
       -0.06758652 -0.035848875 -0.0059217736 -0.14797315
000160 2e d5 97 bd 29 80 56 3d 7f 25 27 3e ff 63 27 be
       -0.07413708 0.052368317 0.16322897 -0.16346739
000170 bf 2f b7 bd 55 4d ab bd d4 3f 71 bd c0 8a 51 bd
       -0.08944654 -0.08364359 -0.058898762 -0.051157713
000180 10 e6 35 be b7 b1 be 3c cc bb 70 bd be 3a 18 bd
       -0.17763543 0.0232781 -0.058772847 -0.037165396
000190 8a 6b 5b be be 71 2c 3e cc 67 7e 3e 93 6d 60 be
       -0.21427742 0.16840264 0.24844283 -0.21916799
0001a0 86 b4 21 bc 5b 90 6b bd 56 16 93 bd 80 11 bb 3c
       -0.0098697 -0.057510715 -0.071819946 0.022835493
0001b0 73 ef bd 3d 27 87 27 bb 80 85 30 be 30 09 39 be
       0.09274187 -0.0025562735 -0.17238426 -0.18069911
0001c0 04 44 46 3e 97 4d 28 be e5 aa 07 be 11 97 57 bd
       0.19361883 -0.16435848 -0.13248785 -0.052634303
0001d0 8c bc 0c bd d3 ce 6e bc ee 43 11 3e 4e 7b 9a bd
       -0.0343595 -0.014575678 0.1418607 -0.0754305
0001e0 69 07 4e be bb 7e 7c bd c8 c9 44 3e 29 49 db 3d
       -0.20120014 -0.061644297 0.19217598 0.107073136
0001f0 6e 96 16 3e 6f 7d d4 bd 4a a1 51 be 11 f6 c3 3d
       0.14705822 -0.10375487 -0.20471683 0.09568418
000200 41 bc 43 be 38 53 32 bf 70 aa b4 be d2 57 6d bf
       -0.19114782 -0.6965823 -0.35286283 -0.9271213
000210 48 57 bc bd 16 0b 18 bf 0b ea 7a 3d 27 d1 23 be
       -0.09196335 -0.59391916 0.061258357 -0.15997754
000220 47 9e 2c be 57 db 39 3f ef 0f 22 40 11 6d de be
       -0.16857253 0.7260031 2.5322225 -0.43442586
000230 5e 1d ac 3f c8 01 44 bf ea 2c e7 3d 80 d8 b7 be
       1.3446462 -0.7656522 0.112878636 -0.35907364
000240 35 c0 8b be c8 a9 41 bd cb 3a 81 3c c3 e9 e3 be
       -0.2729508 -0.047281057 0.015775105 -0.44514284
000250 5a ee d3 be 80 de b6 bd 15 ef 8b be bf c7 26 3f
       -0.41392785 -0.08929157 -0.27330843 0.6514854
000260 51 53 c2 be ee 67 24 3d cd 0c 09 3f 3f 1f 27 be
       -0.3795419 0.040138178 0.5353516 -0.16320513
000270 ae 83 2f 3c eb 35 f2 3d 90 93 30 bf 8b f4 72 3d
       0.010712547 0.1182669 -0.6897516 0.059315246
000280 c6 f6 97 be f0 a2 18 3e d4 b5 07 3e b4 7b f3 be
       -0.2968046 0.14905906 0.13252956 -0.47555315
000290 7e f8 21 3f 61 ce 4d be e7 86 a6 3e 06 c0 1d be
       0.63269794 -0.20098259 0.32524797 -0.15405282
0002a0 be 0b a4 3f 42 ff 6e 3f 76 9f 9e bd e5 71 84 bd
       1.2816083 0.9335824 -0.077452585 -0.06467036
0002b0 59 33 9a 3d 6f 74 a4 be 66 12 96 3e 22 38 65 be
       0.07529325 -0.32120082 0.29310912 -0.22384694
0002c0 02 bf d3 bd d7 db 3b 3d c1 7f 4b bf 71 0b 5b 3f
       -0.10339166 0.045863952 -0.7949181 0.85564333
0002d0 9e 73 27 3e 9d 98 0c be e3 b1 0d bd 4b 34 f8 be
       0.16352698 -0.13730092 -0.034593474 -0.48477396
0002e0 0d e7 87 bf cd 85 92 be de 93 92 bd c3 a4 62 bf
       -1.0617386 -0.28617707 -0.0715711 -0.88532656
0002f0 a7 f9 2f 3f 40 32 76 bd 22 be 57 bf bf 84 ad 3e
       0.68740314 -0.060106516 -0.84274495 0.3389034
000300 ba df d7 bc eb 36 76 3d fa 6d 52 bd 70 fe 5b 3d
       -0.026351798 0.060110968 -0.051374413 0.053709447
000310 ac 22 bd bd e6 3d 15 bd 83 3e f2 3c ba 8e d8 bd
       -0.09235129 -0.036435984 0.029570824 -0.10574098
000320 60 d5 b7 bd 70 c4 81 bd 83 d5 6d bc 61 82 49 bc
       -0.08976245 -0.063362956 -0.014516237 -0.012299151
000330 c1 ec d6 3d c2 ef b8 bd b8 5d e1 bd a5 84 1d 3c
       0.10494376 -0.09030105 -0.110042036 0.009614144
000340 71 09 d3 3c 60 7f bd bd bb 7d f4 3d b8 60 36 be
       0.025761338 -0.092528105 0.11938044 -0.17810333
000350 8d e2 0e bd ea 36 5b bd d0 b8 c8 3c 47 39 ad bd
       -0.034884024 -0.053519167 0.024502188 -0.084581904
000360 8a 31 54 be de b3 2e 3d f8 9e 35 bd ac 17 8a 3d
       -0.20722023 0.042652003 -0.044341058 0.06742796
000370 55 51 1e 3e 72 9e 91 3c 9f 3e f4 3c 24 9c fe bd
       0.15460713 0.017775748 0.029815016 -0.12432125
000380 8c 60 fa bc 4c 42 81 3e b4 34 03 3c 0a 2c 57 be
       -0.030563615 0.25245893 0.008008171 -0.21012893
000390 9f 26 53 bd ac 36 f5 bd 23 17 28 bd 58 31 34 be
       -0.051550504 -0.119733185 -0.04103769 -0.17596948
0003a0 fd 9f e3 bc b8 c6 55 3d bf 11 23 bc 83 ca 99 bd
       -0.02778625 0.052191466 -0.0099529615 -0.07509329
0003b0 22 ac 64 3b d0 50 38 bd 60 97 6d bd 65 68 90 3d
       0.0034892638 -0.044998944 -0.05800569 0.07051162
0003c0 15 ec 64 3e c0 31 3f bd 10 b0 be bd 25 93 0c be
       0.22355683 -0.046678305 -0.09310925 -0.13728006
0003d0 1c 3c 78 bd f5 ce 14 3d 6a f5 ec bc b0 8e 72 bb
       -0.0606042 0.036330182 -0.028925616 -0.0037011318
0003e0 47 21 2c bb cc cc 82 bd 5d de 6a bd f6 e2 19 be
       -0.0026264952 -0.06386718 -0.05734097 -0.15027985
0003f0 ec 3e 31 bd f7 af 53 3b 82 f5 e0 3d fe 68 a9 3d
       -0.043272898 0.0032300928 0.10984327 0.08271979

net.2.bias f4 [64]
000000 e5 54 0d be 7c d1 82 3d 2c 51 7b be d1 4f cd bd
       -0.13801916 0.06387612 -0.24542683 -0.100249894
000010 29 a1 11 3f 9c c1 1c 3f 33 0f 80 be 39 f1 06 3f
       0.56886536 0.61232924 -0.25011596 0.52711827
000020 6d f1 0b be 93 6e 3b 3f f5 06 4e 3e 4c 1c f8 3e
       -0.13666315 0.732156 0.20119841 0.4845909
000030 fa 0d 12 3f d4 19 06 3f 1e 4a b9 be 8d 7b 9b 3d
       0.57052577 0.5238316 -0.3618936 0.07591925
000040 86 ad 1e be 4b 7b 01 3f 42 18 56 bb 53 0e 17 3f
       -0.15495881 0.50578755 -0.0032668267 0.5900623
000050 8d 4a 1f 3c 6a 9b 5f bd ac 20 18 3f fa 60 fc 3e
       0.009722364 -0.054591574 0.59424853 0.49292737
000060 6e b2 2c 3f 4f a6 30 3d de 3e ab 3e 76 a6 21 3e
       0.6745976 0.043127354 0.334464 0.15786156
000070 c0 d7 34 bd 55 df e0 3e 22 0d b8 bd b3 b0 1b 3f
       -0.044151068 0.4392039 -0.0898688 0.60816497
000080 f6 59 ee bd c8 fa 03 3f dd a0 a0 3c 5b 05 65 bd
       -0.116382524 0.51554537 0.019607956 -0.05591331
000090 cf 4c 0c 3f 0e 1e 9c bd ec 1e 04 3f 83 ce 26 3f
       0.548047 -0.0762292 0.51609683 0.6515886
0000a0 ee db 99 be d2 e4 e6 3e 3e 7e 93 bd 14 2e 75 be
       -0.30050606 0.4509645 -0.07201813 -0.23943359
0000b0 db 07 46 3f 57 b5 1d 3f f6 ee 17 be 2e 58 18 3f
       0.77355736 0.6160483 -0.1483725 0.5950955
0000c0 bd 74 86 bd 3b cd 48 3d 38 cb 2c 3f f3 c6 18 3f
       -0.06565235 0.049023848 0.6749759 0.5967857
0000d0 d1 46 1b be 33 53 52 bb 42 b0 de bd a0 d9 08 3f
       -0.15163733 -0.0032093048 -0.10873462 0.5345707
0000e0 2e 2d c1 3d 3f 8f 41 3f 85 32 0d be 7a 36 d5 bd
       0.094324455 0.756092 -0.13788803 -0.10410781
0000f0 41 34 17 3f 5e 4f 48 be 6c 10 33 3f a6 bd f3 3e
       0.5906411 -0.19561526 0.6994693 0.47605628

net.4.weight f4 [2, 64]
000000 a6 57 18 bf 69 ea d6 bd 9d f2 16 c0 aa 1b 25 3e
       -0.5950874 -0.10493929 -2.358558 0.16123834
000010 9e cf 9c 3f 1f ed be 3f 01 dd 4a c0 cd 63 85 3f
       1.225086 1.4916114 -3.169739 1.0421082
000020 3c 79 7f 3e 01 93 b7 3f 1c 81 53 c0 ae 71 a6 3f
       0.24948591 1.4341737 -3.3047552 1.3003442
000030 31 30 47 3f a8 9b 9f 3f a8 a8 20 c0 2d fe 8c 3c
       0.7780791 1.2469378 -2.510294 0.017211044
000040 b0 e0 45 3d f5 08 89 3f de 3d 98 3d 18 64 c5 3f
       0.04830998 1.0705858 0.07433675 1.5421171
000050 d7 4b 21 bd 4b 47 f9 bd e1 17 88 3f 19 6f cb 3f
       -0.039378967 -0.12171801 1.0632287 1.5893279
000060 74 e3 c8 3f 28 d6 b7 bc ad 6f a6 3f f7 0e b4 bd
       1.5694413 -0.022440985 1.3002831 -0.08791917
000070 fd 53 99 3d be 74 bf 3f 77 97 69 c0 45 ce a9 3f
       0.074867226 1.4957502 -3.6498697 1.3266073
000080 de 6c 90 c0 31 9d 6c 3f eb 54 30 c0 27 bb 2f c0
       -4.5132895 0.92427355 -2.755183 -2.7457979
000090 f5 4d 98 3f 11 14 58 3e 58 c7 b0 3f 90 09 8f 3f
       1.1898791 0.21101405 1.3810835 1.1174793
0000a0 b5 cd 8f be 17 5e 84 3f 1e 8c a5 3e 0e 34 a9 be
       -0.2808663 1.0341214 0.32333463 -0.33047527
0000b0 a3 3a 8b 3e 35 2a 83 3f 27 39 34 3c c2 a4 94 3f
       0.27193174 1.0247256 0.010999954 1.161278
0000c0 f1 b2 56 bc e9 83 94 3e 56 6a b7 3f e5 19 ae 3f
       -0.013104186 0.2900689 1.4329326 1.3601652
0000d0 ec 0f 89 bd 9c 5c 29 c0 a8 bc ce bc f2 62 8e 3f
       -0.0669249 -2.6462774 -0.025236443 1.1123946
0000e0 70 8d a7 be fe c6 9a 3f b9 db 9e bb 5d 6e 9d bd
       -0.32725096 1.2091978 -0.0048479703 -0.07687066
0000f0 84 1d 77 3f b0 d9 0c 3d 90 cd 54 3f 71 f4 a3 3f
       0.9652941 0.03438729 0.83126163 1.2808973
000100 b8 98 4e 3f 9f 0a ac 3c f9 cf ca bf a4 09 0c be
       0.8070178 0.021001158 -1.5844718 -0.13675553
000110 2e 9b b7 3f 9a 57 b2 3f 24 e3 8e c0 54 0b 66 3f
       1.4344232 1.3932984 -4.465227 0.89861035
000120 4e 25 80 be ac 1d c1 3f aa dd 4a c0 f4 11 78 3f
       -0.2502846 1.508718 -3.1697793 0.96902394
000130 ac 26 ae 3f 52 0d 58 3f 93 da 85 c0 24 2f 0c be
       1.3605552 0.84395325 -4.1829314 -0.13689858
000140 7f 25 28 3e 92 cd a2 3f 06 58 a6 bd 2a 01 aa 3f
       0.16420554 1.2718985 -0.08122258 1.3281605
000150 4f dc a7 3c 85 46 12 be a3 00 bc 3f b6 fc b9 3f
       0.020490794 -0.14284714 1.4687694 1.4530246
000160 47 02 2c 3f dd 68 15 be b1 ea 88 3f 74 91 ff 3b
       0.67190975 -0.14590783 1.0696622 0.007799322
000170 56 9f 91 bb 05 23 8a 3f e1 cf 5d c0 60 3a ca 3f
       -0.004444043 1.0791937 -3.465813 1.5799065
000180 1a e9 bd c0 06 c8 9a 3f 46 91 0e c0 a8 09 be bf
       -5.934705 1.2092292 -2.2276168 -1.4846697
000190 c4 51 b8 3f 23 42 76 3d 91 68 89 3f 8c 70 59 3f
       1.4399953 0.060121667 1.0735036 0.8493736
0001a0 b8 98 35 c0 3c 91 70 3f 61 aa 53 be 22 1b 6e 3e
       -2.8374462 0.9397161 -0.20670463 0.23252538
0001b0 ed 64 9c 3f ce 97 28 3f 1b ef cf 3c cf 08 74 3f
       1.22183 0.65856636 0.025382569 0.9532594
0001c0 4c e0 05 bc 17 45 41 be c0 c6 b0 3f 64 f2 e8 3f
       -0.008171152 -0.18874012 1.3810654 1.8198972
0001d0 f5 43 f7 bd 91 2e 72 c0 de 84 a1 3d a5 0f a0 3f
       -0.12073509 -3.7840922 0.078866705 1.2504774
0001e0 0b ac c9 3e b0 3e 14 3f 40 0f 4b 3d bd 41 82 3b
       0.3938907 0.57908154 0.04957509 0.003975122
0001f0 26 e4 b5 3f db 7d cc 3d 50 bd a9 3f 70 30 8b 3f
       1.421025 0.099849425 1.3260899 1.0874157

net.4.bias f4 [2]
000000 a9 0e 23 3f db 0e b7 3e
       0.63694245 0.3575352

exp_avg f4 [64, 4]
000000 ff 14 92 bc 2e 03 7c ba 2b d6 02 3b 2b b9 8f 3c
       -0.017832277 -0.0009613511 0.001996408 0.01754435
000010 97 b6 50 ba 46 39 0f bb ac 64 97 b8 c8 9b 0d 3b
       -0.00079617783 -0.0021854206 -7.218993e-05 0.0021607745
000020 04 00 00 80 04 00 00 80 04 00 00 80 04 00 00 80
       -6e-45 -6e-45 -6e-45 -6e-45
000030 c2 96 af bc 17 ba 87 bb 74 16 49 3a d6 a4 13 3c
       -0.021434192 -0.0041420567 0.0007670887 0.009011468
000040 04 00 00 80 04 00 00 80 04 00 00 80 04 00 00 00
       -6e-45 -6e-45 -6e-45 6e-45
000050 c4 f5 17 3e 44 f1 98 3d b7 55 08 3c ba 57 57 bc
       0.14839846 0.07467893 0.008321217 -0.013143474
000060 04 00 00 00 04 00 00 00 04 00 00 00 04 00 00 00
       6e-45 6e-45 6e-45 6e-45
000070 5f 4f 63 bc f8 b4 18 3c fb 98 96 3b 96 31 e5 3c
       -0.013873904 0.00932049 0.0045958734 0.027977746
000080 e4 b4 54 bc 9c 24 c8 ba a6 f7 a7 3a 80 50 51 3c
       -0.012982581 -0.00152697 0.0012814894 0.01277554
000090 04 00 00 80 04 00 00 80 04 00 00 80 04 00 00 00
       -6e-45 -6e-45 -6e-45 6e-45
0000a0 a5 c9 7a 3e bc 8d f9 bd 86 1a d8 bc 81 87 6e 3c
       0.24490984 -0.12185237 -0.026379835 0.014558674
0000b0 ac b6 83 87 d1 a6 b7 06 0f 7d 07 88 41 18 9e 88
       -1.9818054e-34 6.9082064e-35 -4.077209e-34 -9.514981e-34
0000c0 6b 0b f9 3d 27 54 58 be 44 9d fe bc 60 4e 0d 3d
       0.12160381 -0.21125852 -0.03108085 0.034498572
0000d0 dd c7 9f b4 e7 d3 1a 37 40 21 2b 34 ca 1f 5a b7
       -2.9761478e-07 9.228453e-06 1.5937712e-07 -1.3001214e-05
0000e0 04 00 00 00 04 00 00 00 04 00 00 00 04 00 00 00
       6e-45 6e-45 6e-45 6e-45
0000f0 fc f8 b1 3b 39 d1 32 bb e7 f1 ab b8 05 a3 07 3b
       0.0054312926 -0.002728535 -8.198973e-05 0.0020696532
000100 a9 6a a4 b8 44 3c 6c ba 43 fd 26 b9 a2 b1 90 3a
       -7.8399964e-05 -0.0009011666 -0.00015925341 0.0011039267
000110 04 00 00 00 04 00 00 00 04 00 00 80 04 00 00 00
       6e-45 6e-45 -6e-45 6e-45
000120 04 00 00 80 04 00 00 80 04 00 00 80 04 00 00 00
       -6e-45 -6e-45 -6e-45 6e-45
000130 27 fe aa 3d 1f 2c b7 3b c8 ba 27 bb 36 08 c6 bc
       0.08349257 0.0055899764 -0.0025593508 -0.024173837
000140 04 00 00 00 04 00 00 00 04 00 00 80 04 00 00 80
       6e-45 6e-45 -6e-45 -6e-45
000150 04 00 00 80 04 00 00 80 04 00 00 80 04 00 00 00
       -6e-45 -6e-45 -6e-45 6e-45
000160 b0 28 bb 3d 46 e4 90 3d fe 7c d4 3b 1c 66 c0 bc
       0.0913862 0.0707479 0.006484627 -0.02348619
000170 04 00 00 80 04 00 00 80 04 00 00 80 04 00 00 80
       -6e-45 -6e-45 -6e-45 -6e-45
000180 6e 06 a8 bc 35 15 44 bc b8 42 03 ba 24 6a 0a 3c
       -0.020510878 -0.011967947 -0.0005007195 0.008448157
000190 14 c0 b9 bc 97 82 b6 bc 8a 60 28 bb 10 f2 87 3b
       -0.022674598 -0.022279067 -0.0025692307 0.004148729
0001a0 04 00 00 80 04 00 00 80 04 00 00 80 04 00 00 80
       -6e-45 -6e-45 -6e-45 -6e-45
0001b0 04 00 00 80 04 00 00 80 04 00 00 80 04 00 00 80
       -6e-45 -6e-45 -6e-45 -6e-45
0001c0 24 05 77 39 56 5d 85 3a e9 49 29 38 f8 5b 8e ba
       0.0002355767 0.0010174911 4.0361574e-05 -0.0010861149
0001d0 a1 ca b2 bd dd b5 50 bd 17 4f a6 bb 33 59 4a 3c
       -0.08730055 -0.05095469 -0.005075346 0.012350368
0001e0 22 3b ef b8 b8 00 46 3a bf ce 33 b8 cf d8 a6 ba
       -0.000114074224 0.00075532077 -4.2869473e-05 -0.0012729409
0001f0 04 00 00 80 04 00 00 80 04 00 00 80 04 00 00 00
       -6e-45 -6e-45 -6e-45 6e-45
000200 e6 3a 4a 3d 8c 7b 6f 3d c5 18 13 3c 30 10 46 3c
       0.049372576 0.058467433 0.0089780735 0.01208882
000210 04 00 00 00 04 00 00 00 04 00 00 00 04 00 00 00
       6e-45 6e-45 6e-45 6e-45
000220 04 00 00 00 04 00 00 00 04 00 00 00 04 00 00 00
       6e-45 6e-45 6e-45 6e-45
000230 71 f1 b0 bc 0d 81 88 3b 4c ca 64 3b 82 4d c9 3c
       -0.021599503 0.0041657747 0.0034910617 0.024573091
000240 b2 3b f7 3c bc 9f 5a 3c 0c b1 a4 b9 a4 f1 af bc
       0.030179832 0.013343748 -0.00031412428 -0.021477528
000250 25 9d 6b bb f8 14 84 bb c3 48 45 b9 1f 9f fe 3a
       -0.003595182 -0.00403082 -0.0001881449 0.0019426084
000260 04 00 00 80 04 00 00 80 04 00 00 00 04 00 00 00
       -6e-45 -6e-45 6e-45 6e-45
000270 fd 7a f7 bc 51 df af 3b 5d 89 a8 3b 5a 8f 18 3d
       -0.030210013 0.0053671976 0.005143328 0.037246086
000280 04 00 00 80 04 00 00 80 04 00 00 80 04 00 00 80
       -6e-45 -6e-45 -6e-45 -6e-45
000290 04 00 00 80 04 00 00 80 04 00 00 80 04 00 00 80
       -6e-45 -6e-45 -6e-45 -6e-45
0002a0 69 1c 5d 3b 05 08 b7 bb 70 ec 0e bb 21 cd 6e bc
       0.0033738858 -0.005585673 -0.0021808408 -0.014575274
0002b0 04 00 00 80 04 00 00 00 04 00 00 00 04 00 00 80
       -6e-45 6e-45 6e-45 -6e-45
0002c0 04 00 00 80 04 00 00 80 04 00 00 80 04 00 00 80
       -6e-45 -6e-45 -6e-45 -6e-45
0002d0 a6 c4 da bc b3 2a 52 bc 6f c1 78 39 88 20 74 3c
       -0.026705097 -0.012827563 0.00023723183 0.014900334
0002e0 d9 b1 88 87 18 14 0e 88 9c ea 3d 88 f7 fb 26 88
       -2.0567535e-34 -4.275519e-34 -5.71509e-34 -5.024999e-34
0002f0 04 00 00 80 04 00 00 00 04 00 00 80 04 00 00 80
       -6e-45 6e-45 -6e-45 -6e-45
000300 04 00 00 80 04 00 00 80 04 00 00 80 04 00 00 80
       -6e-45 -6e-45 -6e-45 -6e-45
000310 6c 8d 31 bc 9b 2f 4e 3b 6b 59 1f 3b 80 1d 8e 3c
       -0.01083694 0.003146148 0.0024314772 0.017348051
000320 ec 1a 57 3d 98 79 23 3d 9c 47 86 3b 13 73 ff bb
       0.05251591 0.039910883 0.004097892 -0.0077957003
000330 e4 d1 1d bd 68 6e 14 bd db 1f 9f bb ce 07 0c ba
       -0.038530245 -0.036238104 -0.0048560924 -0.0005341739
000340 04 00 00 80 04 00 00 80 04 00 00 80 04 00 00 00
       -6e-45 -6e-45 -6e-45 6e-45
000350 32 df 14 bd 60 21 a1 bb 3c 0a 4c 3b 71 0f ff 3c
       -0.036345668 -0.0049173087 0.003113403 0.031135293
000360 00 00 00 00 00 00 00 00 00 00 00 00 00 00 00 00
       0.0 0.0 0.0 0.0
000370 04 00 00 00 04 00 00 00 04 00 00 00 04 00 00 80
       6e-45 6e-45 6e-45 -6e-45
000380 75 06 0e 3d a2 a5 a2 3c 94 29 01 3b 53 c4 81 bb
       0.034674127 0.01985437 0.001970862 -0.0039601712
000390 04 00 00 80 04 00 00 80 04 00 00 00 04 00 00 00
       -6e-45 -6e-45 6e-45 6e-45
0003a0 04 00 00 00 04 00 00 00 04 00 00 00 04 00 00 80
       6e-45 6e-45 6e-45 -6e-45
0003b0 aa 32 4e bb 79 49 80 3c 7e 83 8b 3b 1b 39 a3 3c
       -0.0031463304 0.015660034 0.0042576184 0.019924691
0003c0 04 00 00 00 04 00 00 00 04 00 00 00 04 00 00 00
       6e-45 6e-45 6e-45 6e-45
0003d0 04 00 00 00 04 00 00 00 04 00 00 80 04 00 00 80
       6e-45 6e-45 -6e-45 -6e-45
0003e0 d2 c6 b4 3d f2 ad b5 3d c7 53 42 3c c6 8d 5a 3b
       0.088269845 0.08871068 0.011860794 0.0033348664
0003f0 04 00 00 00 04 00 00 00 04 00 00 00 04 00 00 00
       6e-45 6e-45 6e-45 6e-45
