CartPole/Experiment_2/23-09-26_22-46-35-883766_DDQN/checkpoints/agent_200000.pt (torch, 82603 bytes, 24 tensors)

net.0.weight f4 [64, 4]
00000000: aa6c 803e 3e06 043e 4520 b33f cca5 463e
00000010: 34e6 2f3e 12ef 71be 8c8f c73f fd4e 90be
00000020: 42bb 843d 61a7 ecbc c512 3240 a3ab 143e
00000030: c229 5d3d 91d6 8bbd 9331 6e3f d1f9 2fbe
00000040: 3f7d 73be 66df ebbb cf18 bfbc 7294 33bd
00000050: 4d99 1bbe 48e6 843e 7533 72bf 590c bbbe
00000060: 1e1f 46bd cc6c 43bd 4995 9fbf 7104 d0bd
00000070: 2f8d 2cbc 6afa 1e3d 4971 3abf 726e 333d
00000080: 76a2 913e 39a5 813d a825 363f a9fa d9bd
00000090: 4b17 013f 89aa 063e a84f 00c0 4424 2cbe
000000a0: f62c 14be 9ac5 463e b3b2 583f 0083 e23d
000000b0: c90f 39bd 36d8 523e 9062 2f40 070d b03e
000000c0: 0ec4 f0be c603 c13c 81df 04bf 2992 483d
000000d0: 53b9 9b3e 8e60 e83d 6f1b 4abe a475 fa3c
000000e0: 7d88 a0bc e5d9 c53c 69b1 e2bd f3fd 613a
000000f0: 4340 2dbc a6bb 8c3d 8593 8c3f 69b4 8fbb
00000100: 9d94 d4be f77d acbe 32b8 48bf 990c 5bbe
00000110: db4e 52bd e962 4a3e 842f 3c3f b147 513c
00000120: dff2 eebe bd22 9cbe a816 f53f 4f5d 55be
00000130: 4570 f0bd ee8d 053e 1951 2f40 7fd3 653e
00000140: ce1f c33c 8fb1 063e 7b69 5a3f 8252 a83d
00000150: 5142 343d e9be c63c 2735 84be e0d4 073d
00000160: 84dd bf3d 8707 8abe 17c1 04c0 107f 2c3e
00000170: 1469 af3e 77bf b53c 4232 29bf 6df2 3fbe
00000180: 4419 303d d5eb 203d 3438 bb3f e040 e0bd
00000190: 5f1b a8bd d07a 5a3d df95 cabf 731c 2fbe
000001a0: 2328 2bbd 5cc3 343e 36ad 0f40 3f87 a53e
000001b0: 91ba 1b3c d4e5 d9bc 3898 973f cdae 9cba
000001c0: 7bb5 2e3f 2057 5ebe c848 debf a297 85be
000001d0: 5f02 ccbb 370b c2b8 796e 6b3d d252 f5bc
000001e0: a858 9e3c b486 8d3d a6d6 cf3f b161 b23c
000001f0: 7ee8 39be 7d59 143d edda 8e3d 41bf ccbc
00000200: 6a0d fcb9 c680 a3bd 7239 f4bf 7366 f9bd
00000210: 50b2 81bc 3a6c 833d 0aa7 babc f916 513d
00000220: 9ec9 edbd 9875 8e3d fb9d cebf 7284 dabe
00000230: c6d3 803d 273f 043e 9553 213f 4826 cd3d
00000240: 163a f73e 0be7 543e 6e35 0ac0 bba7 f7be
00000250: cc52 9a3e 17bd 503d cd80 9b3e ae25 3a3e
00000260: 859e 993d 646f 5a3d 5227 1740 7bf3 983e
00000270: de00 493e b8e3 37bd 7c91 e93e 2652 103e
00000280: 9d1f cb3d 0680 39be df52 96bf 8875 debd
00000290: 7f69 b13c dc58 0cbe d8ed 36c0 2adb 93be
000002a0: cb48 e1bc c380 043e 7317 c53f 5fbf b33c
000002b0: 4873 483e f242 12bd fc61 14c0 47a9 80be
000002c0: 73e5 a3be d261 47be c34c 8dbf 8170 fabd
000002d0: 6a76 46bd 4dfb e83d 5292 db3f b349 e93d
000002e0: b739 00be 016a f23d 9ac8 823f 253a 963d
000002f0: 7133 ec3e f8df 2c3d 6507 b23d 9fa0 e2bc
00000300: e8b8 8cbc 803d 0d3d ba79 f1bc 2ef2 02bc
00000310: f001 ecbc 43d6 76bb 0784 b8bf f58b 84bd
00000320: 5810 5d3e 9cca de3c b67b 02bf fae9 7bbe
00000330: 2fa3 02bf b5d1 a7be f491 b83f 3eb2 2abe
00000340: 9256 f33c 487e 3c3c ed27 6dbe c4ca f1bd
00000350: d413 efba 097f 88bc 13b4 ab3f 3e8f 0b3e
00000360: 47a5 173d 228a 7d3c 1296 53bd 53c0 933c
00000370: e66f 2d3e 177b df3d f799 a93f a5ba f33d
00000380: 41c9 7c3d f222 30bd 79b2 813f 774a 673d
00000390: 1f78 f93e 15bb 863c 9e07 253d 533e f7bb
000003a0: eda3 643e bc57 f83e 3672 9a3f 09d4 6e3e
000003b0: 7460 a2bd 2797 edbd 8ee6 a4bf cc61 9b3e
000003c0: 2fe1 9e3d 89bb 6abd 777f fbbd a403 e6bc
000003d0: e382 403c 8610 c2bb 0362 b0bd 5e6e 49bb
000003e0: c5dd 083d 2c3f f9bd c00a d1bf 76a2 b8bd
000003f0: 9d1d d73e b3cb 193e 386e 2ebe 9eb9 773d
0.25082904 0.12893006 1.3994223 0.19399184 0.1717766 -0.23626354 1.5590682 -0.28185263
0.06481029 -0.028888406 2.7823956 0.14518599 0.0539949 -0.06828035 0.93044394 -0.17185141
-0.23778246 -0.007198262 -0.02332726 -0.04384274 -0.15195198 0.2595694 -0.9460977 -0.36532858
-0.04836952 -0.04771118 -1.2467433 -0.10157097 -0.010531708 0.038813032 -0.7282911 0.0438065
0.2844426 0.06330342 0.7115121 -0.10643513 0.5042617 0.13150991 -2.0048618 -0.16810709
-0.14470276 0.19411317 0.84647673 0.110601425 -0.04518107 0.2059029 2.7403908 0.3438494
-0.47024578 0.02356137 -0.5190354 0.048967514 0.3041483 0.11346541 -0.19737028 0.030573674
-0.019596333 0.024151752 -0.110689946 0.000862091 -0.010574403 0.068717286 1.0982519 -0.0043855202
-0.41519633 -0.33689854 -0.7840606 -0.21391524 -0.051344734 0.19764294 0.73510003 0.01277344
-0.4666967 -0.30495253 1.9147539 -0.20836376 -0.11740164 0.13042423 2.7393248 0.2244396
0.023818877 0.1315367 0.853172 0.08218862 0.044008557 0.024260955 -0.25821802 0.033161998
0.093684226 -0.26958868 -2.0742853 0.16845345 0.34259856 0.022186024 -0.6609231 -0.18744822
0.042992845 0.039287407 1.4626527 -0.10949874 -0.082083456 0.05333978 -1.5826987 -0.17100696
-0.041786324 0.17652649 2.244947 0.32329747 0.00950493 -0.026598848 1.1843328 -0.001195395
0.6824567 -0.21712923 -1.7365961 -0.2609225 -0.0062258686 -9.25273e-05 0.0574784 -0.029946718
0.019329384 0.06910458 1.623738 0.021775099 -0.18155095 0.036218155 0.069753505 -0.02499354
-0.0004807518 -0.07983546 -1.9080031 -0.12177744 -0.015832096 0.06417127 -0.022784729 0.0510473
-0.11610721 0.06956023 -1.6141962 -0.42679173 0.062903926 0.12914716 0.6301816 0.10017067
0.48286504 0.20791261 -2.159511 -0.48370156 0.30141294 0.05096158 0.30371705 0.18178436
0.07500938 0.053328887 2.361775 0.2987326 0.19629237 -0.044894904 0.45618808 0.14093837
0.09918139 -0.18115243 -1.174404 -0.10862261 0.02165675 -0.13705772 -2.8582668 -0.28878146
-0.02750053 0.12939744 1.5397781 0.021941839 0.19575226 -0.035708375 -2.3184805 -0.25129148
-0.32010993 -0.19470909 -1.1039051 -0.1222849 -0.048452772 0.11376057 1.7154028 0.1139101
-0.12522016 0.11836625 1.0217469 0.07335309 0.46132997 0.04220578 0.08692817 -0.02766448
-0.017178014 0.03448248 -0.029476989 -0.00799231 -0.028809518 -0.003766433 -1.4415292 -0.06472007
0.21588266 0.027196221 -0.5097002 -0.24600974 -0.5103025 -0.3277718 1.4419541 -0.16669556
0.029704366 0.011504717 -0.23159762 -0.118062526 -0.0018240162 -0.016662138 1.3414329 0.13628861
0.037022855 0.015474828 -0.05165679 0.018036043 0.16937217 0.109121494 1.3250111 0.11900834
0.06171537 -0.043002076 1.013259 0.0564675 0.48724458 0.01644663 0.040290467 -0.0075452714
0.22328158 0.48504436 1.2066104 0.23323072 -0.07928553 -0.11601096 -1.288286 0.3034805
0.07757794 -0.057307754 -0.12280171 -0.028077908 0.011749956 -0.00592238 -0.08612444 -0.003073595
0.03341462 -0.12170252 -1.6331406 -0.09015362 0.4201478 0.15019111 -0.17034233 0.060479753

net.0.bias f4 [64]
00000000: 2c0a af3d 15c1 783e af86 10bf 135a a9be
00000010: da41 2ebf 7b1a 70be ac06 193f da0b f33e
00000020: f6e2 8d3e ae8e 61be 5e6a 05bf ae0c f1be
00000030: 8a6d 65bf f7a9 2cbf 91b0 efbd d820 a0be
00000040: ad9b 3fbf 9ce6 f4be 161b 0fbf cd48 fb3d
00000050: 7ce7 063f ea8d 8ebe 2a74 e63c 7091 53bf
00000060: 7d0c b73e 5a51 ef3e f644 10bf b3f4 c4be
00000070: 453b d1be 0118 6abe ec35 f43e 13af 0dbf
00000080: d0a7 013f 13e8 62be 57c2 ef3e 190e c33e
00000090: 79f0 26bf ffac b5be 0495 1dbf 6877 223f
000000a0: ecfc cfbe 9a1b 21bf 6c51 053f 0035 04bf
000000b0: 7797 36bf 22e0 0c3f 2a68 04bf f73d 50bf
000000c0: 3364 cebd 8b5a 063f c9a3 39bf 016f 81bf
000000d0: ab8a d9be 84c9 133f b790 93be b922 c8be
000000e0: 6d72 efbe 3c17 d0bd 27ee 23bf b4f0 17be
000000f0: 1147 53be b8b0 50be 5f30 d63e 698d 4cbf
0.08546862 0.24292405 -0.5645551 -0.33076534 -0.6806923 -0.23447601 0.59775805 0.4746998
0.2771222 -0.22027084 -0.5211543 -0.47079986 -0.8962027 -0.67446846 -0.11703599 -0.31275058
-0.7484692 -0.4783219 -0.55900705 0.12269745 0.5269697 -0.27842647 0.028131563 -0.82643795
0.35751715 0.46741754 -0.56355226 -0.3846794 -0.40865532 -0.2286072 0.4769739 -0.5534527
0.50646687 -0.22158842 0.46827957 0.38096693 -0.6521068 -0.35483548 -0.61555505 0.6346345
-0.40622652 -0.6293274 0.52077365 -0.5164337 -0.71324867 0.550295 -0.5172144 -0.8134455
-0.10077705 0.5248191 -0.7251554 -1.0112001 -0.42488608 0.57729363 -0.28821346 -0.3908899
-0.46766987 -0.101606816 -0.64035267 -0.14837915 -0.20632578 -0.20379913 0.4183378 -0.79903275

net.2.weight f4 [64, 64]
00000000: e36f 10be 37ab 08be 1d64 7b3c 17e8 85bd
00000010: 6241 c1bb df7f 84bb a73c 97bc 2f43 51be
00000020: 7175 d93d d047 9abb 13df 8bbd ad78 06bd
00000030: 7fdf 173d 8571 fdbc 34f2 08be 22c1 adbd
00000040: fd7c e8ba 59f9 1bbd ce37 5bbe 940b c2bd
00000050: f9a4 4b3b f58a ba3d a8dd 7bbe 3323 18bd
00000060: d6b1 c73d 6537 d3bd 00d0 bfbd 5aab fe3d
00000070: 4535 f5bd 5145 a2ba 226d 09bd 1a9f cc3d
00000080: 277a d2bd 24c2 923d 985d b43d 04d5 723d
00000090: e222 b7bd 813d 50be a2dd 1d3d 9b40 03be
000000a0: 7228 f03c b422 5fbc 3f24 163c 2980 0bbe
000000b0: 43c8 5c3a 1a04 23bd cc2b aa3d 022f 7f3d
000000c0: 3fc5 5dbd c3d9 01bd e329 abbc 063d 07be
000000d0: 6cc1 29bd 1395 f2bd 074d de3d 2090 2ebd
000000e0: d9fa 863d 1da1 f8bd 330a 9ebb 8a91 ddbd
000000f0: 202e 07bd 4c96 21bc f258 babc 5a07 cd3d
00000100: a276 d23d 0486 e63d 20a7 41be 6278 583e
00000110: 6f91 99bc 10a0 7c3c 08c7 df3c 9313 18be
00000120: ff55 11be b225 33bd 0c60 d8bd f6ad a7bd
00000130: bdfd 803c 9903 b3bd 9aad 353d b53c eabd
00000140: a3ab 853c 3405 293d 2287 a4bd 401a 02be
00000150: 1366 79bd 7d0a 1dbd 84e6 cebc 7365 14be
00000160: d08d 96bd 345d 133d 1f07 183e a24e cebd
00000170: da12 02be 554d abbd 56b6 a0bd 0599 a9bd
00000180: 4c64 24be b7b1 be3c f861 7dbd 82ae 21bd
00000190: 26cc 2dbe 2829 2f3e 317a 643e 2427 64be
000001a0: 00a6 80bc 3c39 63bd 3343 85bd 3099 2d3d
000001b0: 4a0c 7a3d 14ef 4bbc cc2b 18be 2760 22be
000001c0: 0444 463e 7443 17be 1e77 d1bd 0c9a 95bd
000001d0: aec6 86bd a8d9 81bc eb43 113e 87b9 2fbd
000001e0: 78c1 45be 27b6 b2bd 0968 4b3e 03f0 c83d
000001f0: 00fe db3d 6f7d d4bd e7cc 48be 98b8 b33d
00000200: 3f0f 76bd f5f8 65be be8a 623c d36a b6bc
00000210: 1853 a9bd f3c3 bcbc 91de 8c3d 8c93 4dbd
00000220: c8ff 52bd 070d d53d 7398 6a3d f010 f3bd
00000230: 0b77 10be f8c9 00be c809 143e f3ff c23d
00000240: 938e 64bd 3b67 8fbd 1c71 03bd 258a 723c
00000250: dac4 8abe 5784 efbb 9711 06bd aa5d db3d
00000260: c9e1 b8bd 2605 02be 9c10 703c 7bb6 803d
00000270: 81e7 24bc e3e4 043e dcac 1dbe 4fbb e03d
00000280: 2ce7 d5bd f0a2 183e b7e1 393b 5c2b 91bc
00000290: e67e 10be 8e25 c0bd 883b 673d 7ddf 643d
000002a0: f610 10be 55da ecbd 266b 653d a390 a8bc
000002b0: 5933 9a3d 634c 0d3c 8373 c43d d58d 89bd
000002c0: 02bf d3bd 9946 193e a198 63bd e7eb 483d
000002d0: aeca 64bd d44f 8abc e3b1 0dbd 283e b33b
000002e0: abd8 73be 39ab 043b f7cc 2fbe e7be 1bbe
000002f0: 349d 393d 4032 76bd e481 9ebe 8f91 a23d
00000300: 479a 10bd cb0d c33c d2c0 463c 70fe 5b3d
00000310: ac22 bdbd b94d 6fbd 221c 00bd 7899 17be
00000320: f9a8 03be d136 8dbd 83d5 6dbc 79c1 783a
00000330: c1b8 053e c2ef b8bd b85d e1bd ea05 5e3d
00000340: 7fc6 313d 89ec 20be 2bb9 933d 8656 5fbe
00000350: 2c31 6ebd ea36 5bbd afc8 45bc 4739 adbd
00000360: 703a 85be 7ebd 0e3b 54b7 c3bd b445 483d
00000370: 8def 253e 729e 913c 74a6 cdbc 1a9c febd
00000380: 0040 73bd 4c42 813e d582 02bd 6e8c 7ebe
00000390: 9f26 53bd 9831 2abe b5b9 cebd adc6 5dbe
000003a0: fd9f e3bc 0cec 873c 66ed 7cbd 83ca 99bd
000003b0: b0d0 a6b8 0195 4bbd 6097 6dbd b703 a23d
000003c0: 15ec 643e aeaf abbd f9b6 95bd acf8 a5bd
000003d0: 0fc4 27bd 6d2c dbb9 6af5 ecbc d244 84bd
000003e0: 6730 5d3c ba09 2cbe dd9b d2bc 1f5b 4bbe
000003f0: ec3e 31bd f7af 533b 8950 763d fe68 a93d
-0.14105181 -0.13346563 0.015343693 -0.06538408 -0.005897687 -0.0040435637 -0.018461538 -0.20435785
0.10618103 -0.0047082677 -0.068296574 -0.03282993 0.037078377 -0.03093792 -0.13373643 -0.08484103
-0.0017737445 -0.038079593 -0.21408007 -0.094748646 0.0031073673 0.09108535 -0.24596274 -0.037142944
0.097507164 -0.103133 -0.09365845 0.124350265 -0.11973051 -0.0012380277 -0.033551343 0.09991284
-0.10277205 0.07165936 0.08806914 0.05928518 -0.089422 -0.20335962 0.038541444 -0.12817614
0.02931616 -0.013619114 0.009163915 -0.13623108 0.00084221753 -0.039798833 0.08309135 0.06230069
-0.054143187 -0.031701814 -0.020893997 -0.13206872 -0.041444227 -0.1184484 0.108545355 -0.042617917
0.06590814 -0.12140105 -0.004822993 -0.10818775 -0.033002973 -0.009862494 -0.02274749 0.10011168
0.10276534 0.1125603 -0.1891141 0.21139672 -0.018746106 0.015419021 0.027316585 -0.14851217
-0.14192961 -0.04373712 -0.105651945 -0.08187477 0.015745992 -0.087409206 0.044355012 -0.1143736
0.016317194 0.041264728 -0.08033587 -0.12705326 -0.06088836 -0.03834008 -0.025256403 -0.14491825
-0.07351267 0.035977557 0.14846466 -0.10073592 -0.12702504 -0.08364359 -0.07847278 -0.08281139
-0.16053885 0.0232781 -0.06186101 -0.039473064 -0.16972408 0.17105544 0.22312237 -0.22280556
-0.015704155 -0.055474505 -0.06506958 0.04238242 0.061046876 -0.012447137 -0.14860457 -0.15856992
0.19361883 -0.14771825 -0.10227798 -0.07304773 -0.06580864 -0.015850857 0.14186065 -0.042901542
-0.19312084 -0.08726149 0.19863905 0.098114036 0.10741806 -0.10375487 -0.19609414 0.08775443
-0.060073134 -0.22458251 0.013827024 -0.022267735 -0.08267802 -0.023042655 0.06878389 -0.05018954
-0.051513463 0.104028754 0.057274293 -0.11868465 -0.14107911 -0.12577045 0.14456856 0.09521475
-0.055800032 -0.070021115 -0.03209029 0.014803444 -0.2710331 -0.0073094773 -0.03273162 0.107112244
-0.0902744 -0.12697276 0.0146523975 0.062848054 -0.01006496 0.12977938 -0.15397972 0.10973226
-0.10444483 0.14905906 0.0028363296 -0.01772087 -0.14110908 -0.09382163 0.056453258 0.055877198
-0.1406897 -0.11565081 0.056010388 -0.02057678 0.07529325 0.008624169 0.095923446 -0.067165054
-0.10339166 0.14968337 -0.05556548 0.0490531 -0.055857353 -0.016883768 -0.034593474 0.005470056
-0.23813121 0.0020243658 -0.17168032 -0.15209542 0.045315936 -0.060106516 -0.30958474 0.07937919
-0.03530338 0.023810288 0.012130933 0.053709447 -0.09235129 -0.05842373 -0.03127683 -0.14804637
-0.12857427 -0.06895221 -0.014516237 0.0009489279 0.1305876 -0.09030105 -0.110042036 0.05420486
0.04340219 -0.15715231 0.07213052 -0.2181035 -0.058152363 -0.053519167 -0.0120717725 -0.084581904
-0.26021147 0.0021780427 -0.095564514 0.0488946 0.16204663 0.017775748 -0.025103785 -0.12432118
-0.059387207 0.25245893 -0.031863052 -0.24858257 -0.051550504 -0.16620481 -0.100940146 -0.2165782
-0.02778625 0.016592048 -0.06174984 -0.07509329 -7.954368e-05 -0.049702648 -0.05800569 0.07910865
0.22355683 -0.083831176 -0.0731029 -0.08104071 -0.04095846 -0.00041804035 -0.028925616 -0.06458439
0.01350031 -0.16800585 -0.025709087 -0.19858979 -0.043272898 0.0032300928 0.060135398 0.08271979

net.2.bias f4 [64]
00000000: 26a7 9dbd 6ef7 873d 2945 61bd 6565 12be
00000010: 7614 2e3f e98b 80bc 8509 00bd 5f13 013f
00000020: c77d 8ebd 725d 663f 29ee b63d 4e46 2c3f
00000030: e899 3d3f 0825 093f bbd7 82be 92a3 913d
00000040: 9226 1bbe 1ffe 02be a091 32bc be34 3c3f
00000050: 5452 1b3c 0e71 5dbd c246 4e3f 50f1 1c3f
00000060: 55d7 243f b524 9c3d 0c8d ed3e c80f ef3d
00000070: d775 07bd 0f3d 203f f9ba 3abd 29cd c53e
00000080: 35a1 6bbe 2e1d 393f 379e 65bc 0f88 f7bd
00000090: 3900 363f eb5b 9bbd d356 143f c2c0 293f
000000a0: 4ddf f7bd a6ff 1f3f 8e71 cebd 1f52 14be
000000b0: cb1e 133f 03ad 2d3f 613d c93d 1f33 263f
000000c0: 36b0 a93e 3e05 39be d1c6 593f ef90 413f
000000d0: 7e02 0abf 5a23 39be 8375 aebd 7557 473f
000000e0: 9d33 32be d409 3e3f ad3a 81be f131 13be
000000f0: 4ae8 2e3f 1b56 44be d412 e23e dacc 023f
-0.07697897 0.0663899 -0.054997597 -0.14296491 0.6799997 -0.015691714 -0.03125908 0.5042018
-0.06957584 0.89986336 0.08932144 0.67294776 0.7406297 0.5357213 -0.25555214 0.07111277
-0.15151432 -0.12792252 -0.0108989775 0.7351798 0.009480078 -0.054062895 0.8057672 0.61305714
0.6439107 0.07624189 0.46396673 0.11672932 -0.033071365 0.6259317 -0.045588467 0.38633087
-0.23010714 0.7231015 -0.014014772 -0.12086498 0.7109409 -0.07585891 0.57944983 0.6630975
-0.12103138 0.62499464 -0.100802526 -0.14484452 0.5746886 0.6784212 0.0982616 0.64921755
0.3314225 -0.18068406 0.85068995 0.75611776 -0.5391005 -0.18079892 -0.08518507 0.77867824
-0.17402501 0.74233747 -0.2524008 -0.1437452 0.68323195 -0.19173472 0.4415499 0.5109383

net.4.weight f4 [2, 64]
00000000: 5d4f 39b9 319c c9bd ce9f efba cb6a 2a3e
00000010: 955a ba3f 948f 52be 3cbf b3c0 33cf 953f
00000020: e200 1b3d 9d1c ad3f 4d42 a4bd b026 ae3f
00000030: 1eb8 b13f d0a9 a53f 5d8b a4c0 1b07 923c
00000040: 7854 95ba 70d5 8a3c 1710 913d 8a9a d33f
00000050: d64b 673c 2981 febd a836 cc3f 0ad1 e23f
00000060: b24f bd3f 22ff 113c 40b8 8c3f 2e80 1ebd
00000070: 0515 8e3d e722 ce3f d31c 91c0 cf4b 5fc0
00000080: 822c d93e d33e c63f 869c 813d b807 26c0
00000090: 3d29 ba3f 703a 783e 7576 af3f aa2b b63f
000000a0: 4ec0 dec0 a178 af3f d645 da3e ccf6 0ebd
000000b0: 3510 f9bf d915 b83f 7af2 bb3e 1774 883f
000000c0: 4f4b 143e 640e 88be 85cf c83f 9fa1 d73f
000000d0: 9cba 7dbf c55a 13bf 93bb 76bd 31cf da3f
000000e0: b8f1 8ac0 bdf1 b23f f764 80c0 5af5 57bd
000000f0: 3a6c 963f 6759 d8ba ba2e 6fbf 4a92 8e3f
00000100: db1e 6f3d f7fa cc3c 2736 943c 158d cdbd
00000110: 2bb2 e13f 26c3 663f 48e1 00c1 6d84 b53f
00000120: 655d bfbc 3837 dd3f 5171 363b 3781 c43f
00000130: 0acf bb3f b133 973f 1af6 e9bf 74eb 0abe
00000140: 880e 1a3e 8551 5a3c 9eda a9bd b1f2 993f
00000150: 4ec4 573d e6f0 e6bd adcd b63f 70e9 c63f
00000160: 4012 8d3f 0c42 16be bc0c c33f 6514 5fbd
00000170: aa2e 3bbd a80e 8f3f d5b1 19c0 2649 dbbf
00000180: 281a 1ebf 0faf bb3f 097a 66bd 100c 943f
00000190: 4be2 d03f 0938 ef3c 7c20 b53f 1b2e b23f
000001a0: 1c27 91c0 3c57 7b3f 76f9 27be 1958 a33d
000001b0: 3d99 cf3f f11f 333f d5ef 2fbf 7b19 e93f
000001c0: fe2f b0bf f6a2 a93e 8003 8a3f a7f0 ca3f
000001d0: f6c3 e1bf facb 84bf 6d92 cc3d 2984 ac3f
000001e0: d400 53c0 7b18 b03f 98c3 54c0 911c c6bc
000001f0: ec87 c73f e106 b23d afb2 a63f 09a8 aa3f
-0.0001767254 -0.09844244 -0.0018281878 0.16642301 1.4558893 -0.20562583 -5.617094 1.1703857
0.03784264 1.3524357 -0.08020458 1.3605556 1.3884313 1.2942448 -5.142012 0.017825654
-0.0011392972 0.016947478 0.07083147 1.6531537 0.014117202 -0.12426979 1.595418 1.7720044
1.4789946 0.008910926 1.0993729 -0.03869646 0.06937603 1.6104401 -4.5347686 -3.489002
0.4241677 1.5487922 0.063286826 -2.594221 1.4543835 0.24241042 1.3708025 1.4232075
-6.9609747 1.3708688 0.42631406 -0.034903333 -1.9458071 1.4381667 0.36708432 1.0660428
0.14481853 -0.2657348 1.568833 1.6846198 -0.9911287 -0.5756038 -0.06023748 1.709448
-4.3420067 1.3980023 -4.012325 -0.05272422 1.1751778 -0.0016506136 -0.93430674 1.1138394
0.058379035 0.025022013 0.018092228 -0.10036675 1.7632498 0.9014152 -8.055 1.4181038
-0.023359964 1.7282476 0.0027838538 1.5351933 1.4672558 1.181265 -1.8278229 -0.1356638
0.15044606 0.0133251 -0.08293651 1.2027189 0.052677445 -0.112764165 1.4281517 1.553999
1.1021194 -0.14673632 1.5238261 -0.05446281 -0.0456988 1.1176348 -2.401479 -1.7131698
-0.6175866 1.4662799 -0.056268726 1.1566181 1.6319059 0.029201524 1.4150538 1.392032
-4.536024 0.98179984 -0.16403756 0.07975788 1.621864 0.69970614 -0.6872533 1.8210901
-1.3764646 0.33132142 1.0782318 1.5854691 -1.7637928 -1.0374749 0.09988866 1.3477832
-3.2969255 1.3757471 -3.324438 -0.024183543 1.5588355 0.08692718 1.302328 1.333253

net.4.bias f4 [2]
00000000: ccf9 593f 9409 463e
0.85146785 0.19339591

net.0.weight f4 [64, 4]
00000000: 2aa1 733e d4ba 953d 066f aa3f 199b ec3d
00000010: 6439 1f3e 8c8a 83be b2e3 c43f ab84 8ebe
00000020: a0d5 2a3d 3bbc 50bd 7fa9 3240 2ad9 013e
00000030: a229 5d3d dcd6 8bbd ca31 6e3f a7f9 2fbe
00000040: 0b7e 73be 0ae0 ebbb 8719 bfbc 1795 33bd
00000050: d4b1 1ebe f479 673e b196 6dbf 6cb5 a4be
00000060: bc67 2bbd 8124 1abd 313b 9ebf 4824 c8bd
00000070: 353b f4ba f85e 5c3d 72fa 3cbf 95db 413d
00000080: 92f9 603e dc37 5c3d 1b76 3c3f ca4c a1bd
00000090: 21f8 003f 132b 2f3d d3cc 00c0 6ffd afbd
000000a0: 762c 14be 60c6 463e 71b3 583f 2a83 e23d
000000b0: 35f6 87bd 7612 113e 785e 2c40 330d b23e
000000c0: 7508 ebbe c0df 923c c017 e8be 5341 043d
000000d0: 0dba 9b3e ba60 e83d 801b 4abe a475 fa3c
000000e0: 8788 a0bc a9d9 c53c 0ab2 e2bd 5afe 613a
000000f0: c640 2dbc fdba 8c3d ec93 8c3f edb3 8fbb
00000100: 573d d6be ada4 acbe 9ae0 4dbf 4996 66be
00000110: dc51 52bd 8863 4a3e 3730 3c3f eb3f 513c
00000120: 8869 f0be 60e8 a5be 4635 ee3f 007c 61be
00000130: 46ab f8bc 5657 343e 485b 2940 e262 843d
00000140: 606b c9bc 86a3 af3d 1973 553f 329e a13d
00000150: 8742 343d 58bf c63c f534 84be 4dd4 073d
00000160: be86 a83d 1b88 7dbe c777 03c0 4413 3c3e
00000170: e669 af3e 00bf b53c b731 29bf f0f1 3fbe
00000180: fa48 ea3c aedf b03c 49e0 b83f 0159 cfbd
00000190: ff1a 91bd 048c aa3d 7e3f c6bf d7d5 26be
000001a0: 02e7 83bd 39eb 243e 0cfd 1140 929d a63e
000001b0: d5ba 1b3c 79e6 d9bc 0599 973f 96ae 9cba
000001c0: ce14 3d3f 3d4f 77be bff4 e1bf 9725 6fbe
000001d0: 0003 ccbb 700b c2b8 c26e 6b3d cc52 f5bc
000001e0: c87d 19bc f945 3b3d 0277 cd3f eacf a53c
000001f0: 9fe8 39be fe58 143d bdda 8e3d 10c0 ccbc
00000200: 42e2 003c 16ff 6ebd 418e f1bf f90e efbd
00000210: c4b2 81bc 2d6c 833d 3fa7 babc c917 513d
00000220: 9333 d6bd 1c75 9f3d 029b c7bf 0ac1 c0be
00000230: 53bd 863d a7d8 bf3d e7bf 1b3f cf99 ca3d
00000240: 76ee c43e 16d5 543e 24ba 03c0 f4d0 e9be
00000250: 7553 9a3e 29bd 503d 3e80 9b3e 9025 3a3e
00000260: 6b43 993d ecb2 593d 552a 1740 730a 993e
00000270: dcd8 503e cc3b 1cbd 3f17 e23e 7236 153e
00000280: e21e cb3d f07f 39be 3d53 96bf e274 debd
00000290: 8b26 9ebc ac99 08be a7ee 35c0 5334 94be
000002a0: c177 7cbd 528b cc3d 5ae4 c23f 9ef5 a73c
000002b0: 65cb 6c3e 6292 46bd 788f 15c0 98cd 6ebe
000002c0: fbe5 9abe ef01 63be 70c2 8dbf e0f8 39be
000002d0: 32b9 96bd 525f b83d 72a8 d93f d0fc e53d
000002e0: 023a 00be 7c69 f23d e4c8 823f 3d3a 963d
000002f0: db32 ec3e e7df 2c3d 7007 b23d daa0 e2bc
00000300: a5b8 8cbc 3c3e 0d3d a479 f1bc 4cf2 02bc
00000310: 4f7a 93bc ead1 813c d20f b6bf 908d 69bd
00000320: a110 5d3e d1ca de3c 547c 02bf 4bea 7bbe
00000330: 7dcf f9be eac9 82be 3778 c83f b1ab 123c
00000340: 3456 f33c 577e 3c3c 2a28 6dbe e3ca f1bd
00000350: 5f67 2fbc b8ce ebbc ade3 a93f 14b4 0c3e
00000360: 47a5 173d 228a 7d3c 1296 53bd 53c0 933c
00000370: 6e70 2d3e 617b df3d 669a a93f fbba f33d
00000380: bbc9 7c3d 4822 30bd c4b2 813f 9a4a 673d
00000390: bc77 f93e 0dbb 863c 1608 253d 343e f7bb
000003a0: b3a3 643e 7457 f83e b572 9a3f 4ad4 6e3e
000003b0: 18c5 6cbd 397c 15be 0ad2 a4bf 4dde 8d3e
000003c0: 16e1 9e3d dabb 6abd 447f fbbd 4303 e6bc
000003d0: 4083 403c 2110 c2bb 9061 b0bd d86e 49bb
000003e0: e81c 393d 7a0b cfbd 7baf cdbf 27e4 a5bd
000003f0: 321d d73e 86cb 193e 566e 2ebe a4b9 773d
0.23791948 0.07311025 1.3315132 0.1155302 0.15549237 -0.2569164 1.5381987 -0.27835593
0.041707635 -0.05096076 2.7915952 0.12680498 0.053994782 -0.068280905 0.9304472 -0.17185079
-0.2377855 -0.0071983384 -0.023327602 -0.043843355 -0.15497524 0.22605115 -0.9280806 -0.32169664
-0.041846976 -0.03763247 -1.2361814 -0.09772545 -0.0018633368 0.053801507 -0.7381965 0.04732855
0.21970204 0.05376421 0.73617715 -0.078759745 0.50378615 0.04276569 -2.0125015 -0.085932605
-0.14470086 0.19411612 0.84648806 0.11060174 -0.06638757 0.14167199 2.693266 0.34775695
-0.4590489 0.017928958 -0.4533062 0.03228886 0.30415383 0.11346574 -0.19737053 0.030573674
-0.019596351 0.02415164 -0.110691145 0.000862097 -0.010574525 0.06871603 1.0982642 -0.0043854625
-0.41843674 -0.33719388 -0.8042084 -0.22518267 -0.0513476 0.1976453 0.7351107 0.012771587
-0.46955514 -0.3240385 1.8610008 -0.22019958 -0.030355107 0.17611441 2.6461964 0.06464173
-0.024587333 0.085761115 0.8337875 0.078915015 0.044008758 0.024261162 -0.25821653 0.03316145
0.08228825 -0.24758951 -2.0541856 0.18366724 0.34260482 0.022185802 -0.66091484 -0.18744636
0.028599251 0.021591034 1.4443446 -0.10124398 -0.07085227 0.08327487 -1.5488126 -0.16292511
-0.064405456 0.16105355 2.2810698 0.32542092 0.009504993 -0.026599156 1.1843573 -0.0011953886
0.7385987 -0.24151321 -1.7652816 -0.23354183 -0.0062259436 -9.252771e-05 0.057478674 -0.029946707
-0.0093683675 0.045721028 1.6051943 0.020240743 -0.18155144 0.036217682 0.06975315 -0.024993926
0.007866444 -0.058348738 -1.8871537 -0.11672778 -0.015832312 0.06417117 -0.022784827 0.051048074
-0.10459056 0.07786009 -1.559418 -0.37647277 0.065790795 0.09367495 0.60839695 0.09892618
0.3846318 0.20784411 -2.0582361 -0.4566723 0.30141798 0.050961647 0.3037128 0.18178391
0.07483562 0.05314915 2.3619587 0.29890785 0.20395225 -0.038142964 0.4415836 0.1457155
0.09918 -0.1811521 -1.1744152 -0.108621374 -0.019305488 -0.13339871 -2.8426912 -0.2894617
-0.061637644 0.09987511 1.5225937 0.020502862 0.23124464 -0.048479445 -2.3368816 -0.23320615
-0.30253586 -0.22168706 -1.1074963 -0.18161345 -0.07359542 0.09002556 1.700453 0.11229861
-0.12522128 0.11836526 1.0217557 0.07335327 0.4613255 0.042205717 0.08692825 -0.02766459
-0.01717789 0.03448318 -0.029476948 -0.007992338 -0.018002657 0.015847165 -1.4223578 -0.05701977
0.21588375 0.02719632 -0.5097096 -0.24601094 -0.48791113 -0.25544673 1.5661687 0.008952067
0.02970419 0.011504731 -0.23159853 -0.11806276 -0.010705798 -0.028785095 1.3272606 0.1374057
0.037022855 0.015474828 -0.05165679 0.018036043 0.1693742 0.109122045 1.3250244 0.11900898
0.061715823 -0.043001443 1.013268 0.05646763 0.48724163 0.016446615 0.040290914 -0.007545257
0.22328071 0.4850422 1.2066256 0.2332317 -0.05780515 -0.14598168 -1.2876599 0.27708665
0.077577755 -0.057308055 -0.12280133 -0.028077727 0.011750042 -0.005922333 -0.086123586 -0.0030736234
0.045193583 -0.10109611 -1.6069177 -0.08100157 0.42014462 0.15019044 -0.17034277 0.060479775

net.0.bias f4 [64]
00000000: 3b1d f13d 3c99 753e 1ba9 0bbf 8f59 a9be
00000010: cf41 2ebf 7bc7 79be c100 1a3f 2da9 f23e
00000020: fdc9 853e 5a70 57be 556a 05bf d3a2 03bf
00000030: 060e 61bf ffa9 2cbf 9bb0 efbd 9f20 a0be
00000040: 1fe5 40bf 34e6 f4be 6576 0dbf 5ae7 e13d
00000050: b2a0 063f 658d 8ebe 1145 7e3d 6291 53bf
00000060: 633a b33e 112f fc3e a43a 04bf f9f3 c4be
00000070: 8239 b4be cb17 6abe 6f09 f13e bdae 0dbf
00000080: 30cb 033f f3e7 62be 97af 003f e88b ba3e
00000090: 5fd8 30bf 08ad b5be 5489 1dbf 3d51 203f
000000a0: 32fc cfbe dc27 20bf 93df 033f 585b febe
000000b0: f9c8 35bf 1bdf 0a3f bd67 04bf d23d 50bf
000000c0: 9963 cebd 50e2 073f 18a3 39bf 9ad5 81bf
000000d0: 4a8a d9be cb90 113f b790 93be 0922 c8be
000000e0: 1b72 efbe c216 d0bd 0fee 23bf 19b5 0bbe
000000f0: 6246 53be aab0 50be dd33 dd3e 498d 4cbf
0.117731534 0.23984236 -0.5455491 -0.3307614 -0.68069166 -0.24392502 0.601574 0.47394696
0.26130667 -0.21038952 -0.52115375 -0.51420325 -0.87912023 -0.67446893 -0.11703607 -0.31274888
-0.7534961 -0.4783188 -0.5525878 0.11030455 0.5258895 -0.2784225 0.062077586 -0.8264371
0.35005483 0.4925466 -0.5165198 -0.38467386 -0.35200125 -0.22860639 0.4707751 -0.55344754
0.51481915 -0.22158794 0.5026793 0.36434865 -0.69080156 -0.35483575 -0.6153767 0.6262396
-0.40622097 -0.6256082 0.5151302 -0.49679065 -0.71009785 0.5424668 -0.5172079 -0.8134433
-0.100775905 0.530797 -0.72514486 -1.0143311 -0.4248832 0.5686156 -0.28821346 -0.39088467
-0.46766743 -0.10160591 -0.64035124 -0.13643302 -0.20632318 -0.20379892 0.4320363 -0.79903084

net.2.weight f4 [64, 64]
00000000: 6e6f 10be 25ab 08be b364 7b3c 1de8 85bd
00000010: 1941 c1bb 928f 673b ae51 32bc ac81 49be
00000020: f975 d93d be47 9abb 13df 8bbd ad78 06bd
00000030: 7fdf 173d 8571 fdbc 34f2 08be e7c0 adbd
00000040: db7c e8ba 56f9 1bbd 6c82 53be 248d b2bd
00000050: ed05 2f3c f58a ba3d 04dd 7bbe 3323 18bd
00000060: c233 d73d 58b1 c3bd 00d0 bfbd 5aab fe3d
00000070: 1c35 f5bd 5145 a2ba 6ad1 d4bc 409f cc3d
00000080: c0f5 c2bd 24c2 923d 0ae4 c33d 16dd 883d
00000090: 7822 b7bd 0a3d 50be a2dd 1d3d 6d40 03be
000000a0: eb28 f03c 5222 5fbc 6323 893c 2980 0bbe
000000b0: c1c8 5c3a 83fd 03bd 7e2c aa3d 042f 7f3d
000000c0: 3fc5 5dbd caa1 c5bc e329 abbc bd3c 07be
000000d0: b0c0 29bd f617 e3bd 0a4d de3d 2090 2ebd
000000e0: d9fa 863d 1da1 f8bd 330a 9ebb 8a91 ddbd
000000f0: 202e 07bd 4c96 21bc 9ba7 78bc 5a07 cd3d
00000100: 5977 d23d 8286 e63d a9a6 41be d978 583e
00000110: ee90 99bc 53a0 7c3c 29c7 df3c e612 18be
00000120: e655 11be 6025 33bd da5f d8bd 6fad a7bd
00000130: 4cfe 803c 0003 b3bd 9aad 353d 833c eabd
00000140: f4ab 853c f605 293d 6786 a4bd e519 02be
00000150: c465 79bd 7d0a 1dbd 11e6 cebc b664 14be
00000160: d68d 96bd 6d5d 133d 6606 183e a24e cebd
00000170: dd12 02be 554d abbd d7b5 a0bd d798 a9bd
00000180: 0764 24be b7b1 be3c 4c61 7dbd 47ae 21bd
00000190: d7cb 2dbe d629 2f3e 4a7a 643e b326 64be
000001a0: 05a6 80bc 3339 63bd 7d42 85bd 3099 2d3d
000001b0: f30c 7a3d b1ee 4bbc 1e2b 18be 9f5f 22be
000001c0: 0444 463e 1643 17be 1a77 d1bd 4e99 95bd
000001d0: fdc5 86bd 0dd9 81bc ee43 113e cfb8 2fbd
000001e0: 71c1 45be a8b5 b2bd 5068 4b3e 48f0 c83d
000001f0: 00fe db3d 6f7d d4bd 59cc 48be 07b9 b33d
00000200: 140f 76bd 53f8 65be fa8a 623c 186a b6bc
00000210: 1853 a9bd e0c3 bcbc ecde 8c3d 0193 4dbd
00000220: 4aff 52bd d90d d53d b298 6a3d ac10 f3bd
00000230: 7676 10be f5c9 00be c809 143e c000 c33d
00000240: 9b8e 64bd 9566 8fbd dd70 03bd 4b8a 723c
00000250: a5c4 8abe 5784 efbb 8511 06bd 415e db3d
00000260: 58e1 b8bd cd04 02be b310 703c 34b7 803d
00000270: 47e7 24bc bde4 043e 7eac 1dbe ebba e03d
00000280: 0ae7 d5bd f0a2 183e 5fe2 393b ee2a 91bc
00000290: 467e 10be 8125 c0bd c23b 673d dadf 643d
000002a0: e610 10be 0bda ecbd b26b 653d ff8f a8bc
000002b0: 5933 9a3d 144d 0d3c d873 c43d b58d 89bd
000002c0: 02bf d3bd b546 193e 8398 63bd 60ec 483d
000002d0: fbc9 64bd 754f 8abc e3b1 0dbd 5f3e b33b
000002e0: acd8 73be b4ab 043b 57cc 2fbe bebe 1bbe
000002f0: 349d 393d 4032 76bd c681 9ebe 9e91 a23d
00000300: 9e99 10bd 080e c33c d2c0 463c 70fe 5b3d
00000310: ac22 bdbd 634d 6fbd ef1b 00bd 0699 17be
00000320: 55a8 03be 6d36 8dbd 83d5 6dbc b3c1 783a
00000330: 3cb9 053e c2ef b8bd b85d e1bd f205 5e3d
00000340: 97c6 313d 87ec 20be 9db9 933d e255 5fbe
00000350: 0331 6ebd ea36 5bbd 79c8 45bc 4739 adbd
00000360: e539 85be d4bd 0e3b c9b6 c3bd f845 483d
00000370: 1ef0 253e 729e 913c c1a5 cdbc 249c febd
00000380: 8c3f 73bd 4c42 813e 9582 02bd bc8b 7ebe
00000390: 9f26 53bd 2f31 2abe 89b9 cebd aac6 5dbe
000003a0: fd9f e3bc 84ec 873c e4ec 7cbd 83ca 99bd
000003b0: 57d0 a6b8 d994 4bbd 6097 6dbd 3604 a23d
000003c0: 15ec 643e 37af abbd feb6 95bd f0f7 a5bd
000003d0: 17c4 27bd 422c dbb9 6af5 ecbc 9544 84bd
000003e0: a930 5d3c 0f09 2cbe 119c d2bc 095b 4bbe
000003f0: ec3e 31bd f7af 533b b350 763d fe68 a93d
-0.14105007 -0.13346536 0.015343833 -0.06538413 -0.005897653 0.0035333377 -0.010883732 -0.19678372
0.106182046 -0.0047082594 -0.068296574 -0.03282993 0.037078377 -0.03093792 -0.13373643 -0.08484059
-0.0017737405 -0.038079582 -0.20655221 -0.08718327 0.010682565 0.09108535 -0.2459603 -0.037142944
0.10507919 -0.0955531 -0.09365845 0.124350265 -0.119730204 -0.0012380277 -0.025978763 0.09991312
-0.09519529 0.07165936 0.095649794 0.06682794 -0.08942121 -0.20335785 0.038541444 -0.12817545
0.029316386 -0.013619022 0.016740507 -0.13623108 0.00084222486 -0.03222419 0.083092675 0.062300697
-0.054143187 -0.024124999 -0.020893997 -0.13206764 -0.041443527 -0.110885546 0.10854538 -0.042617917
0.06590814 -0.12140105 -0.004822993 -0.10818775 -0.033002973 -0.009862494 -0.015176679 0.10011168
0.1027667 0.11256124 -0.18911232 0.2113985 -0.018745866 0.015419084 0.027316647 -0.14850959
-0.14192924 -0.043736815 -0.10565157 -0.08187377 0.015746258 -0.087408066 0.044355012 -0.11437323
0.016317345 0.04126545 -0.08033448 -0.1270519 -0.060888067 -0.03834008 -0.025256189 -0.14491543
-0.07351272 0.03597777 0.14846191 -0.10073592 -0.12702508 -0.08364359 -0.07847183 -0.08281105
-0.16053782 0.0232781 -0.061860368 -0.039472844 -0.1697229 0.17105803 0.22312275 -0.22280388
-0.015704164 -0.05547447 -0.06506822 0.04238242 0.061047506 -0.012447045 -0.14860198 -0.15856789
0.19361883 -0.14771685 -0.10227795 -0.07304631 -0.06580732 -0.015850568 0.1418607 -0.042900857
-0.19312073 -0.087260544 0.19864011 0.09811455 0.10741806 -0.10375487 -0.19609202 0.087755255
-0.060072973 -0.2245801 0.01382708 -0.022267386 -0.08267802 -0.02304262 0.068784565 -0.050189022
-0.051512994 0.10403032 0.057274528 -0.11868414 -0.1410769 -0.1257704 0.14456856 0.095216274
-0.05580006 -0.07001988 -0.032090057 0.014803479 -0.27103153 -0.0073094773 -0.03273155 0.10711337
-0.09027356 -0.12697144 0.014652419 0.06284943 -0.010064906 0.12977882 -0.15397832 0.10973152
-0.10444458 0.14905906 0.0028363687 -0.017720666 -0.1411067 -0.09382153 0.056453474 0.055877544
-0.14068946 -0.11565026 0.05601091 -0.020576475 0.07529325 0.008624334 0.09592408 -0.067164816
-0.10339166 0.14968379 -0.05556537 0.04905355 -0.055856686 -0.016883591 -0.034593474 0.0054700817
-0.23813123 0.0020243945 -0.17167793 -0.15209481 0.045315936 -0.060106516 -0.30958384 0.079379305
-0.03530275 0.023810402 0.012130933 0.053709447 -0.09235129 -0.05842341 -0.03127664 -0.14804468
-0.12857182 -0.068951465 -0.014516237 0.00094893127 0.13058943 -0.09030105 -0.110042036 0.05420489
0.04340228 -0.15715228 0.07213137 -0.21810105 -0.05815221 -0.053519167 -0.012071722 -0.084581904
-0.26020733 0.0021780627 -0.09556348 0.048894852 0.16204879 0.017775748 -0.025103452 -0.12432125
-0.059386775 0.25245893 -0.031862814 -0.24857992 -0.051550504 -0.16620325 -0.10093982 -0.21657816
-0.02778625 0.016592272 -0.061749354 -0.07509329 -7.954303e-05 -0.0497025 -0.05800569 0.079109594
0.22355683 -0.08383029 -0.073102936 -0.08103931 -0.04095849 -0.0004180391 -0.028925616 -0.064583935
0.013500371 -0.1680033 -0.025709184 -0.19858946 -0.043272898 0.0032300928 0.060135555 0.08271979

net.2.bias f4 [64]
00000000: b521 8ebd 3cf8 873d 3345 61bd fe64 12be
00000010: 641a 2b3f a78b 80bc c899 b2bc 4aed fe3e
00000020: c57d 8ebd 03b4 623f e7ee b63d 23c9 2a3f
00000030: cad0 3c3f 6515 083f ca2b 80be 05a4 913d
00000040: 6626 1bbe 05fe 02be f090 32bc d6b5 383f
00000050: ed52 1b3c ba70 5dbd 22c3 4d3f 17d0 1b3f
00000060: 63c5 233f 1525 9c3d f17a ec3e 7210 ef3d
00000070: c575 07bd cffc 1d3f 90fb 1dbd 0547 8e3e
00000080: c3a0 6bbe e928 383f b39d 65bc a487 f7bd
00000090: ab5a 363f 865b 9bbd 08e3 103f 48f4 243f
000000a0: 9a87 0bbe 67cb 1a3f e170 cebd f651 14be
000000b0: 6cb8 0e3f 92b1 2a3f e311 ce3d 0771 263f
000000c0: c59a a13e 4805 39be 5b6d 563f 895b 413f
000000d0: 7c69 ddbe f822 39be 8375 aebd da51 463f
000000e0: 3033 32be 7c9c 3c3f 46c4 7dbe ae31 13be
000000f0: 7836 2f3f 6155 44be f56a db3e b08d 013f
-0.06940023 0.06639144 -0.054997634 -0.14296338 0.66837144 -0.015691591 -0.021801844 0.49790412
-0.069575824 0.88555926 0.08932286 0.6671316 0.73756087 0.53157645 -0.25033408 0.07111362
-0.15151367 -0.12792213 -0.010898814 0.7215246 0.00948022 -0.054062583 0.80375874 0.60864395
0.63973063 0.0762426 0.46187547 0.116730586 -0.0330713 0.6171388 -0.038569987 0.2778856
-0.23010544 0.71937424 -0.014014649 -0.12086418 0.712321 -0.07585816 0.5659642 0.64435244
-0.13625947 0.6046662 -0.10080124 -0.1448439 0.55750155 0.666772 0.10062005 0.65016216
0.31563392 -0.18068421 0.83760613 0.75530297 -0.4324454 -0.18079746 -0.08518507 0.77468646
-0.17402339 0.73676276 -0.24781904 -0.1437442 0.6844249 -0.19173194 0.4285504 0.5060682

net.4.weight f4 [2, 64]
00000000: 313b f13b f09c c9bd 32a0 efba fe6a 2a3e
00000010: 47ba b63f 928f 52be 96cd b0c0 e12f 933f
00000020: e600 1b3d 36d7 a83f 6e42 a4bd 3390 ab3f
00000030: fd65 b23f a529 a33f 178b a4c0 7606 923c
00000040: c653 95ba 0dd5 8a3c 960f 913d 3599 d13f
00000050: 634b 673c 9381 febd 7307 cd3f 99e3 e23f
00000060: 82c7 ba3f a6fe 113c 0057 893f fd80 1ebd
00000070: 1415 8e3d d70a cc3f 161c 91c0 4b79 45c0
00000080: 512d d93e 0968 c73f 1d9c 813d 8f07 26c0
00000090: 67d3 b83f 703a 783e a5c4 ad3f dc59 b23f
000000a0: 8e77 dbc0 f6bf ad3f 9146 da3e dcf6 0ebd
000000b0: 1902 f2bf ecee b53f d450 b23e 2fec 853f
000000c0: 3672 013e 1d0e 88be fb2a c73f e52c d63f
000000d0: d0c1 4abf 4e5a 13bf 93bb 76bd 3a5d da3f
000000e0: 2df1 8ac0 d4d9 b03f 9764 80c0 d2f4 57bd
000000f0: 7d4e 943f 6759 d8ba 37a8 62bf d195 8c3f
00000100: 4a1f 6f3d 70fb cc3c d635 943c 888d cdbd
00000110: 78d1 e33f 72c3 663f cedc 00c1 ee69 b53f
00000120: b85c bfbc 7f06 de3f 2071 363b f6e7 c23f
00000130: d488 ba3f ce82 983f f063 eabf b4eb 0abe
00000140: b50e 1a3e 4952 5a3c 3edb a9bd 7b4f 983f
00000150: 9ac3 573d 8af1 e6bd abc4 b43f cfec c33f
00000160: 8cb7 8b3f d542 16be 5510 c53f 4214 5fbd
00000170: 682e 3bbd c7c3 8d3f f31c 1ac0 afb0 f0bf
00000180: a51a 1ebf b3c5 b93f ca7a 66bd 6d0c 943f
00000190: a47d d03f 4a38 ef3c 7360 b23f 5381 b23f
000001a0: 2e23 91c0 e13d 783f fef9 27be 1958 a33d
000001b0: b800 cf3f 1edc 2f3f c32d 36bf fb5a ea3f
000001c0: 079c aebf ffa2 a93e 55d7 873f 4508 cb3f
000001d0: 1309 e7bf 84cc 84bf 6d92 cc3d 878e aa3f
000001e0: a101 53c0 6f99 ad3f aa10 55c0 111c c6bc
000001f0: 7b8e c83f 6f07 b23d c1ca a83f 29d7 ab3f
0.0073617925 -0.098443866 -0.0018281995 0.16642377 1.4275597 -0.2056258 -5.525096 1.1498986
0.037842654 1.3190677 -0.08020483 1.3403381 1.3937374 1.2747084 -5.1419787 0.017825346
-0.0011392764 0.016947294 0.07083051 1.637488 0.014117095 -0.12427058 1.6017898 1.7725707
1.4592135 0.008910811 1.0729675 -0.03869723 0.06937614 1.5940808 -4.5346785 -3.0855281
0.42417386 1.5578624 0.06328604 -2.5942113 1.4439515 0.24241042 1.3575636 1.3933673
-6.858344 1.3574207 0.42631963 -0.034903392 -1.890689 1.4213538 0.34827292 1.0462703
0.12641224 -0.26573268 1.5559992 1.6732451 -0.79201984 -0.5755967 -0.06023748 1.70597
-4.3419404 1.3816476 -4.012279 -0.052723713 1.1586453 -0.0016506136 -0.88537925 1.098322
0.05837945 0.025022238 0.018092077 -0.100367606 1.77983 0.90141976 -8.053907 1.4172952
-0.023359641 1.7345732 0.0027838424 1.5227039 1.4573007 1.1914918 -1.8311749 -0.13566476
0.15044673 0.013325282 -0.0829377 1.1899256 0.052676775 -0.11276539 1.4122518 1.5306643
1.0915389 -0.14673932 1.5395609 -0.05446268 -0.045698553 1.1075372 -2.408017 -1.880392
-0.61759406 1.4513458 -0.056269445 1.1566292 1.6288342 0.029201645 1.3935684 1.3945717
-4.5355444 0.9696942 -0.16403958 0.07975788 1.6172094 0.6869525 -0.71163577 1.8309015
-1.3641366 0.3313217 1.0612589 1.5861899 -1.8049644 -1.0374913 0.09988866 1.3324746
-3.2969744 1.3562449 -3.329142 -0.024183305 1.5668482 0.08692824 1.3186876 1.3425037

net.4.bias f4 [2]
00000000: bd75 593f dc30 3f3e
0.8494528 0.18670982

exp_avg f4 [64, 4]
00000000: 9bc9 9837 5419 47bd b530 5abc c86a 42ba
00000010: f841 87bd 62c8 9abd e725 aebb 376e 1bbb
00000020: cca9 23bc f8e1 48be f9a0 83bd 6260 85bd
00000030: 0400 0080 0400 0080 0400 0000 0400 0000
00000040: 0400 0080 0400 0080 0400 0080 0400 0080
00000050: 0b2d 06bd a3b9 c1bc aeb6 03bb 1f83 f5ba
00000060: aa68 c33f 0340 ad3f e11e 923d 3a82 a03e
00000070: 71d5 663f b50d 4c3f 72b3 223d db81 473e
00000080: de84 00bd 8e20 95bd d3db 52bc 44ce 26bd
00000090: a21f 0fbb 8ff4 9a39 a188 5abb 47a1 5abc
000000a0: 0400 0000 0400 0000 0400 0000 0400 0000
000000b0: eaef 33bd 0375 f3be ccb6 c2bd ee9d 1d3b
000000c0: 44ad 3ac0 3252 9dbf cad5 9e3c 19d3 42be
000000d0: 0400 0000 0400 0000 0400 0080 0400 0080
000000e0: 0400 0000 0400 0080 0400 0080 0400 0000
000000f0: 0400 0080 0400 0080 0400 0000 0400 0000
00000100: f72a 84c0 ceaa 4cc0 722b 99bd 54ef 1cbf
00000110: 0400 0080 0400 0000 0400 0000 0400 0080
00000120: 8972 97be 74dc 63be da45 0cba 47b4 8ebd
00000130: cb99 1b3f 9e46 dc3e f2b3 9f3c 1092 3a3d
00000140: 3d2b 023f 376f d43e fedf 853c ddc4 da3d
00000150: 0400 0000 0400 0000 0400 0000 0400 0080
00000160: 239f c13e 6374 a83e 9faf aa3c 14a2 f53d
00000170: 0400 0080 0400 0080 0400 0080 0400 0000
00000180: d3c1 243f c9ee 0f3f df5a e23c 5091 de3d
00000190: b6c1 4e3f 8b46 463f f3cc 573d bd02 203e
000001a0: 50c4 71bc 026f 5fbe 8982 86bd 223d 83bd
000001b0: 0400 0000 0400 0080 0400 0000 0400 0000
000001c0: 2863 e73a 3d9c 96bc 9ac4 10bb 6044 5c3c
000001d0: 0400 0080 0400 0080 0400 0000 0400 0000
000001e0: 7728 313f bf6c 1c3f 324e d33c 4421 2b3e
000001f0: 0400 0080 0400 0080 0400 0080 0400 0080
00000200: d187 bb3f cbda ab3f dbc6 9d3d d377 a73e
00000210: 0400 0080 0400 0080 0400 0080 0400 0000
00000220: 5316 3e3f dfa9 343f ac81 4a3d 0e8d 053e
00000230: 54a7 0d3f 7d66 f33e 979d ab3c 09bb e33d
00000240: 7016 ed3b d361 1e3d 0c3c 93bb ade4 44bd
00000250: 0400 0000 0400 0000 0400 0080 0400 0080
00000260: 0400 0080 0400 0080 0400 0000 0400 0000
00000270: c11e ce3f 1284 b43f 2e65 853d 3d19 b23e
00000280: 0400 0080 0400 0080 0400 0080 0400 0000
00000290: a588 a9bf a956 7fbf 8e42 aabd 42a4 0cbe
000002a0: bf64 563f 5d9c 393f 3100 013d b494 463e
000002b0: 5e98 013e 442c e0ba fbd0 d3bd d6e0 3bbb
000002c0: 09df 85c0 3a74 30c0 9369 c5bd 983e 38bf
000002d0: 2fc0 de3f 5f0c c33f 29be 8f3d a497 c63e
000002e0: 0400 0080 0400 0000 0400 0000 0400 0000
000002f0: 0400 0080 0400 0080 0400 0080 0400 0080
00000300: 0400 0000 0400 0000 0400 0000 0400 0080
00000310: e988 8f3f 2e3e 813f 3331 653d 8438 793e
00000320: 0400 0000 0400 0000 0400 0080 0400 0080
00000330: 95c5 2dc0 1fde f4bf 3d0a 35bd 8408 9dbe
00000340: 0400 0080 0400 0000 0400 0080 0400 0080
00000350: 38f3 c33f 0f5b ab3f 6e3d 783d e8af a63e
00000360: 0000 0000 0000 0000 0000 0000 0000 0000
00000370: 0400 0000 0400 0000 0400 0000 0400 0000
00000380: 0400 0000 0400 0000 0400 0000 0400 0000
00000390: 0400 0080 0400 0080 0400 0000 0400 0000
000003a0: 0400 0000 0400 0000 0400 0080 0400 0080
000003b0: 3298 843c df4b a6b9 0a6e f8b9 7844 22bc
000003c0: 0400 0080 0400 0080 0400 0000 0400 0000
000003d0: 0400 0000 0400 0000 0400 0000 0400 0080
000003e0: c7b4 443f f8da 343f 7b58 303d fb95 293e
000003f0: 0400 0080 0400 0080 0400 0080 0400 0080
1.8213692e-05 -0.04860814 -0.013317277 -0.00074164243 -0.066043794 -0.07557751 -0.005314577 -0.0023716816
-0.009989213 -0.1961745 -0.064271875 -0.06512524 -6e-45 -6e-45 6e-45 6e-45
-6e-45 -6e-45 -6e-45 -6e-45 -0.0327578 -0.023648089 -0.00200979 -0.0018731094
1.5266316 1.353516 0.07134796 0.31349355 0.90169436 0.79708415 0.039721914 0.1948313
-0.031376712 -0.072816 -0.012869793 -0.040724054 -0.0021838923 0.0002955538 -0.0033345597 -0.013344116
6e-45 6e-45 6e-45 6e-45 -0.04392997 -0.4755021 -0.09507522 0.0024050432
-2.9168253 -1.2290709 0.019389052 -0.1902584 6e-45 6e-45 -6e-45 -6e-45
6e-45 -6e-45 -6e-45 6e-45 -6e-45 -6e-45 6e-45 6e-45
-4.1302447 -3.197925 -0.0747899 -0.61302686 -6e-45 6e-45 6e-45 -6e-45
-0.2957957 -0.22252065 -0.0005350985 -0.06967979 0.60781544 0.43022627 0.019494984 0.045549452
0.50847226 0.414911 0.01634216 0.1068208 6e-45 6e-45 6e-45 -6e-45
0.37816724 0.32901296 0.020835696 0.119938046 -6e-45 -6e-45 -6e-45 6e-45
0.6435825 0.5622373 0.027631221 0.1086756 0.8076433 0.7745139 0.05268569 0.15626045
-0.014756277 -0.2181969 -0.06567866 -0.064081445 6e-45 -6e-45 6e-45 6e-45
0.0017653452 -0.018385047 -0.002208984 0.013444036 -6e-45 -6e-45 6e-45 6e-45
0.6920237 0.61103433 0.025794122 0.16711909 -6e-45 -6e-45 -6e-45 -6e-45
1.4650823 1.3426145 0.07703944 0.32708606 -6e-45 -6e-45 -6e-45 6e-45
0.74252814 0.705717 0.04944007 0.1304209 0.5533345 0.4753913 0.020949168 0.111196585
0.007235341 0.03866751 -0.004493242 -0.048069645 6e-45 6e-45 -6e-45 -6e-45
-6e-45 -6e-45 6e-45 6e-45 1.6103135 1.4102805 0.06513439 0.3478488
-6e-45 -6e-45 -6e-45 6e-45 -1.3244826 -0.9974161 -0.083134755 -0.13734534
0.83747476 0.72504216 0.031494323 0.19392663 0.1265578 -0.0017103036 -0.10342594 -0.0028667948
-4.183476 -2.757094 -0.09639277 -0.7197051 1.74024 1.523815 0.07018692 0.38787568
-6e-45 6e-45 6e-45 6e-45 -6e-45 -6e-45 -6e-45 -6e-45
6e-45 6e-45 6e-45 -6e-45 1.1213657 1.0097101 0.055955123 0.24337965
6e-45 6e-45 -6e-45 -6e-45 -2.7151845 -1.9130286 -0.044199217 -0.3067056
-6e-45 6e-45 -6e-45 -6e-45 1.53086 1.3387164 0.06060546 0.3255608
0.0 0.0 0.0 0.0 6e-45 6e-45 6e-45 6e-45
6e-45 6e-45 6e-45 6e-45 -6e-45 -6e-45 6e-45 6e-45
6e-45 6e-45 -6e-45 -6e-45 0.016185854 -0.00031718516 -0.00047384232 -0.00990402
-6e-45 -6e-45 6e-45 6e-45 6e-45 6e-45 6e-45 -6e-45
0.76838344 0.7064662 0.04305313 0.1656112 -6e-45 -6e-45 -6e-45 -6e-45

exp_avg_sq f4 [64, 4]
00000000: 1dbb 953c 9e6f 663e 5bd1 393d 4d8d 243e
00000010: 0334 c340 5a29 d940 e5ce 183f 64b8 c340
00000020: 33ba 7740 1fa6 9741 20b0 8140 5118 4041
00000030: eb30 2908 a81e 5108 89dc fa04 687c 1605
00000040: f401 0000 f401 0000 f401 0000 f401 0000
00000050: fab2 fb40 89aa c340 4b0f 0c3f d09c f440
00000060: c2e0 6a42 9eff a341 e050 743e 4a33 ed3f
00000070: bd31 c341 8fca 0541 6dab a73d 0adb 3a3f
00000080: d8e3 cc3d 5510 bc3e 1d73 333d 2116 e53e
00000090: c7e3 1d3e bee3 793f d6d0 ea3d 1f88 a63f
000000a0: f401 0000 f401 0000 f401 0000 f401 0000
000000b0: caa4 a740 e0ee 0a42 dada e640 9546 bd41
000000c0: 82de eb44 d891 b743 f3b8 af3f 97b5 4341
000000d0: 4a68 9d21 7cf2 8620 4336 611e 49c8 1920
000000e0: f401 0000 f401 0000 f401 0000 f401 0000
000000f0: 17d5 7520 2678 a41e 842d 441d 9c13 511c
00000100: 4148 2f44 e89a 4643 3b57 193f 2708 f440
00000110: 7cf0 2e2b a1d1 d22a cf83 5827 0e57 f32a
00000120: 6423 ca40 0d6f de3f 7acb 7d3b 9c9e 3b3d
00000130: beb0 e440 973f d33f bc90 153d 958c 4b3e
00000140: 2b3a 9141 778d 8341 8942 a73f b2f8 5441
00000150: f401 0000 f401 0000 f401 0000 f401 0000
00000160: 22f4 9340 c006 0240 374a d43c 39a9 953e
00000170: d5e6 3e14 df2b 2a13 51d0 f30e 6627 c111
00000180: 36c2 7341 3bc0 1d41 57ec 223f d717 d740
00000190: 63d2 8541 5859 cf40 7a65 603e 7903 7e3f
000001a0: 35a1 7d40 9433 d741 0a35 ce40 b3ea 9a41
000001b0: f401 0000 f401 0000 f401 0000 f401 0000
000001c0: 1506 203d 4929 483e fc75 dd3c c11f 803e
000001d0: f401 0000 f401 0000 f401 0000 f401 0000
000001e0: 15ef eb41 8134 8c41 230e 783f 93aa 2141
000001f0: f401 0000 f401 0000 f401 0000 f401 0000
00000200: 0e6f 8442 b17a bc41 f7bb b33e 286c 1140
00000210: 15db ed14 ea4b d714 d558 a90e 3821 3515
00000220: 51f3 3041 aefc 8b40 2a6a 4c3e c795 3e3f
00000230: e0d9 a540 2ff2 2840 3ba5 fd3d ed31 a73f
00000240: 99e9 ac3d 5afc 103f 611d bf3c 7170 f73f
00000250: f4f7 dd23 252b 0b23 e6bd 0421 0f4d f321
00000260: 95f9 e335 3138 1836 a4ab 1b33 24e2 3c35
00000270: 9a28 a542 f6bd e641 c0f3 903e 5699 5240
00000280: e9f6 b628 0c7b 3128 ad76 7826 9ce6 3727
00000290: 3763 2c43 b8f5 fc42 414a 1341 9d87 1743
000002a0: be31 1742 fa60 c841 68c4 c73f 8088 8141
000002b0: 76ff 0543 8cb7 8743 e142 2042 d076 0944
000002c0: 97ec 3444 cc82 2543 c3a2 603f 9a50 1e41
000002d0: 146a 0e43 b850 ae42 bf04 a140 3292 5042
000002e0: fcd6 9e22 7552 be20 a27d 7b1f 2f16 1a1f
000002f0: 5d3c 4a16 25d2 7414 c6e0 e911 9f94 2513
00000300: f401 0000 f401 0000 f401 0000 f401 0000
00000310: 8253 0b42 8323 4441 2507 313e f8ad 963f
00000320: 3e04 0000 73cd 0100 f401 0000 f19b 0300
00000330: cf80 d742 afb9 bd41 ba36 a73d 8ec1 b93f
00000340: f401 0000 f401 0000 f401 0000 f401 0000
00000350: 5676 9b42 fb20 fe41 f005 4c3f 68a3 0841
00000360: 0000 0000 0000 0000 0000 0000 0000 0000
00000370: 8563 1f1d ee5f 041f 0ac5 831c 3fff 741d
00000380: f401 0000 f401 0000 f401 0000 f401 0000
00000390: 95b5 e227 f598 5527 4491 1625 9f41 0d27
000003a0: 3613 bc24 3654 0626 117d 5a23 e975 b324
000003b0: 9e67 323f bddd ac3e 3563 4a3c 980c b33d
000003c0: f401 0000 f401 0000 f401 0000 f401 0000
000003d0: f401 0000 f401 0000 f401 0000 f401 0000
000003e0: 4bbd 8241 189b be40 8304 003e 8a1c 333f
000003f0: 097f a417 bf1c c715 910a 2e13 33bb 3014
0.0182777 0.22503516 0.045365673 0.16069527 6.100099 6.786298 0.59690696 6.1162586
3.8707397 18.956114 4.0527496 12.005937 5.091409e-34 6.2929686e-34 5.8977247e-36 7.075816e-36
7e-43 7e-43 7e-43 7e-43 7.8655977 6.1145673 0.54710835 7.644142
58.71949 20.499813 0.23858976 1.8531277 24.399286 8.361953 0.08186994 0.7299048
0.10004395 0.3673121 0.043810952 0.44743446 0.15418921 0.9761313 0.114656135 1.3010291
7e-43 7e-43 7e-43 7e-43 5.238866 34.733276 7.2142153 23.659464
1886.9534 367.1394 1.3728317 12.231833 1.0666339e-18 2.2860946e-19 1.1922622e-20 1.3025873e-19
7e-43 7e-43 7e-43 7e-43 2.0822813e-19 1.7413868e-20 2.5963915e-21 6.9177644e-22
701.12897 198.6051 0.5989873 7.625995 6.2150957e-13 3.7448953e-13 3.0047475e-15 4.3225878e-13
6.31682 1.737764 0.0038726018 0.04580556 7.146575 1.6503781 0.036514983 0.19877847
18.153402 16.444075 1.306718 13.310717 7e-43 7e-43 7e-43 7e-43
4.6235514 2.031662 0.025914295 0.2923067 9.638072e-27 2.1478647e-27 6.0104726e-30 3.0474312e-28
15.234915 9.859431 0.63641876 6.72166 16.727728 6.479656 0.2191371 0.9922405
3.9629643 26.900185 6.4439745 19.3646 7e-43 7e-43 7e-43 7e-43
0.0390683 0.19546999 0.027033798 0.25024226 7e-43 7e-43 7e-43 7e-43
29.49174 17.525637 0.9689657 10.104144 7e-43 7e-43 7e-43 7e-43
66.2169 23.559908 0.35104343 2.2722263 2.4017297e-26 2.1739395e-26 4.174726e-30 3.6578864e-26
11.059403 4.3745947 0.19962373 0.7444729 5.182846 2.6397817 0.12385031 1.3062111
0.08442993 0.5663506 0.023329439 1.9331189 2.406588e-17 7.544341e-18 4.497467e-19 1.6486718e-18
1.6985456e-06 2.2682473e-06 3.6244856e-08 7.0364536e-07 82.5793 28.842754 0.28310966 3.290609
2.031314e-14 9.852155e-15 8.620312e-16 2.5521365e-15 172.38756 126.47992 9.205628 151.52974
37.798576 25.047352 1.5606813 16.19165 133.9979 271.43396 40.06531 549.85645
723.6967 165.51093 0.87748355 9.894678 142.41437 87.15765 5.0318294 52.14277
4.305361e-18 3.2241817e-19 5.325524e-20 3.2629118e-20 1.6336477e-25 1.23602956e-26 3.6899446e-28 2.0899204e-27
7e-43 7e-43 7e-43 7e-43 34.83155 12.25867 0.17287882 1.1771841
1.522e-42 1.65537e-40 7e-43 3.31448e-40 107.75158 23.715666 0.08164735 1.4512193
7e-43 7e-43 7e-43 7e-43 77.731125 31.766104 0.7969656 8.539894
0.0 0.0 0.0 0.0 2.1094925e-21 2.803144e-20 8.719786e-22 3.242509e-21
7e-43 7e-43 7e-43 7e-43 6.2924473e-15 2.9642606e-15 1.3059644e-16 1.9603254e-15
8.156455e-17 4.6604716e-16 1.18442875e-17 7.782862e-17 0.6968936 0.33762923 0.012352754 0.087426364
7e-43 7e-43 7e-43 7e-43 7e-43 7e-43 7e-43 7e-43
16.342428 5.9564323 0.12501721 0.6996542 1.063032e-24 8.0420813e-26 2.1967097e-27 8.922648e-27

exp_avg f4 [64]
00000000: 9c2c 08bd 55b4 3a3d ae6e 95be 0400 0000
00000010: 0400 0000 c96f 523b 19f0 84bf a827 22bf
00000020: aa65 093d 1d61 943d 0400 0000 a7a6 cdbe
00000030: df38 aa3f 0400 0000 0400 0000 0400 0000
00000040: e9b5 2240 0400 0000 1281 5b3e 0eeb 82be
00000050: cfc8 bfbe 0400 0000 e72c 8dbe 0400 0080
00000060: 9373 d9be 11a0 f3be 985a 94be 0400 0000
00000070: a789 823c 0400 0000 f6df 07bf 0400 0000
00000080: b391 7abf 0400 0000 bae9 d8be d191 d1be
00000090: 3570 933d 0400 0000 0400 0000 05b9 95bf
000000a0: 0400 0000 4dae 233f 4d75 1fbf 1468 ed3e
000000b0: e69a 1040 7717 a3bf 0400 0000 0400 0080
000000c0: 0400 0000 d07b 41bf 0400 0000 5d2a bc3f
000000d0: 0400 0000 c310 8fbf 0000 0000 0400 0000
000000e0: 0400 0000 0400 0080 0400 0000 2f97 063c
000000f0: 0400 0000 0400 0000 2c7e fbbe 0400 0080
-0.033245668 0.045582134 -0.29186004 6e-45 6e-45 0.0032110086 -1.0385772 -0.6334176
0.03354422 0.072450854 6e-45 -0.40166208 1.3298606 6e-45 6e-45 6e-45
2.542353 6e-45 0.21435955 -0.25569957 -0.37457892 6e-45 -0.2757332 -6e-45
-0.4247099 -0.47583058 -0.28975368 6e-45 0.015934778 6e-45 -0.5307611 6e-45
-0.9787857 6e-45 -0.4236582 -0.40931562 0.07199136 6e-45 6e-45 -1.1697088
6e-45 0.63937837 -0.6228836 0.46368468 2.2594543 -1.2741536 6e-45 -6e-45
6e-45 -0.7557955 6e-45 1.4700428 6e-45 -1.117699 0.0 6e-45
6e-45 -6e-45 6e-45 0.008214756 6e-45 6e-45 -0.491197 -6e-45
