CartPole/Experiment_2/23-09-26_22-46-35-883766_DDQN/checkpoints/agent_90000.pt (torch, 82571 bytes, 24 tensors)

net.0.weight f4 [64, 4]
00000000: 2c0b 1dbe 2dcf f53d d38d 823f afc9 ac3d
00000010: fc3f 3b3d 1074 8ebd 0714 943f e59e 123d
00000020: 9e9c 0b3e d33f 683e 1f31 e33f 2149 efbb
00000030: 87e6 1f3c d51e edbd 7b42 783f db30 f9bd
00000040: 3f7d 73be 66df ebbb cf18 bfbc 7294 33bd
00000050: 035b 903e 5c9b 87be 9654 55be 2822 0cbc
00000060: 9055 573c e803 c53c 5785 84bf e11e 42be
00000070: ea62 86bd 2ec1 013e 9c82 14bf 9f4f a0bd
00000080: 2962 c6bc 3550 64bd 43b6 f63e a0b3 49bd
00000090: 8e5f 2f3e 7990 5cbe a231 abbf bc9e 773e
000000a0: 7d4b e7bd d14c 673e 6fd4 603f 9cc8 113e
000000b0: 8d72 063e 42ca e23e ccd2 4d3f 79a2 e93d
000000c0: 82b4 f9be c2ab 30bc 5ed7 603e 204a fe3c
000000d0: bced 823e dbd4 303d ddf9 65be 4fee f8bc
000000e0: 7d88 a0bc e5d9 c53c 69b1 e2bd f3fd 613a
000000f0: a0c9 acbd fa07 c7b9 6d39 963f cefe 743d
00000100: 65e7 dabe f813 11be 075c 94be 5ce5 acbd
00000110: fc78 1dbe c161 483e e168 6c3c e528 34be
00000120: 40af 0bbf 44ea c0be 4cc5 813f 4c5a 81bc
00000130: ea61 a3be 5a59 463e deed 633f ca53 edbe
00000140: 198e 74bd 6683 8abe 6c27 1e3f 4f3f 043e
00000150: 5142 343d e9be c63c 2735 84be e0d4 073d
00000160: b9be 5d3e fb4e 95bd c6e6 bebf 8128 fd3d
00000170: b469 bb3e a04a 0c3d de76 00bf d48f 1ebe
00000180: 495e 09be b0a0 f13d 5794 a03f e31d 293e
00000190: 1b09 74bb eb23 693d 731d acbf fe23 ab3c
000001a0: 3f64 8abe 0c47 083e e6f8 f53f f0b7 a23e
000001b0: 91ba 1b3c d4e5 d9bc 3898 973f cdae 9cba
000001c0: 13f8 ac3e c1c3 a3be 314f bcbf 8b09 903e
000001d0: 5f02 ccbb 370b c2b8 796e 6b3d d252 f5bc
000001e0: a19f 20be e5ce d93d ca33 c33f 549d 5a3e
000001f0: 7ee8 39be 7d59 143d edda 8e3d 41bf ccbc
00000200: 390b dd3d 43ed 59bd e05d c3bf b844 1abe
00000210: 30bd 42bd 58f7 043d 7a81 50bd e282 a93d
00000220: edea 653d bc2f 62bd 9f3c b7bf 9a1e 8ebd
00000230: 02f7 e6bc 7b7b 7abc d5b1 8a3e 6815 b63d
00000240: 3698 5c3e 39e1 0a3e f74e 26bf b20a 903d
00000250: 1670 8f3e c916 31bd c8bc bdbe f679 1a3d
00000260: 65e8 253c 1fa3 9b3c f697 ff3f cca9 843e
00000270: 8567 b73d 644f 2dbd 4240 9c3e c9d4 443d
00000280: 1fdf 553d 5d95 5a3b 64d2 8abf a5d0 a3bc
00000290: b0e9 5b3c e43e 04bb 7a8e 0fc0 94e4 79be
000002a0: 1fe3 76bd ddfb 44bb 6590 a83f 4b9d 243e
000002b0: 5fe9 ccbc a4f7 283d b15a 01c0 9fe8 e6bd
000002c0: 7863 83be a4a6 76be 77ba 57bf c7bf 45be
000002d0: a555 9ebd 3c4a 953d f69e c83f bc72 303e
000002e0: 6528 83be 4f07 1e3e f770 813f 5769 b23c
000002f0: 7cea b33e cd41 383d 5a0c ba3d 9ccd 8ebd
00000300: e8b8 8cbc 803d 0d3d ba79 f1bc 2ef2 02bc
00000310: 4906 d8bb f363 5e3d 1cb4 8abf e9aa 03be
00000320: be3f 68bd 53c2 403e e890 04bf 0208 f8be
00000330: a6a1 ecbe c68c 8e3c 3b3b 4b3f ce36 7c3e
00000340: 9256 f33c 487e 3c3c ed27 6dbe c4ca f1bd
00000350: 257d 4cbd eca4 9bbd 146d 863f f231 023e
00000360: 47a5 173d 228a 7d3c 1296 53bd 53c0 933c
00000370: 3864 1b3d ab39 983c 2633 723f 1a7e 393d
00000380: 3079 0e3e f887 0e3d 1da2 8b3f d6ca 043e
00000390: aa44 293f 93fb 673d a656 28bf 02bf f13b
000003a0: 3648 083e 0da6 ef3e badb 863f a73b e53e
000003b0: b437 3b3e d963 c6bd 2b9d 34bf 57d8 19be
000003c0: 2fe1 9e3d 89bb 6abd 777f fbbd a403 e6bc
000003d0: e382 403c 8610 c2bb 0362 b0bd 5e6e 49bb
000003e0: b70a 653e 5f65 dabd 012e a8bf 5a47 ecbd
000003f0: 33a2 c63e 4b83 c63c 06ec afbe e54a fbbc
-0.15336293 0.12002406 1.0199531 0.084369056 0.045715317 -0.06955731 1.1568612 0.035796065
0.13633963 0.22680597 1.7749366 -0.007302419 0.009759552 -0.11578146 0.9697644 -0.121675216
-0.23778246 -0.007198262 -0.02332726 -0.04384274 0.28194436 -0.26485717 -0.20833048 -0.008553065
0.013142958 0.024049714 -1.0353192 -0.18957092 -0.06561835 0.12671348 -0.58011794 -0.078276865
-0.024216728 -0.055740554 0.4818593 -0.04924357 0.17126295 -0.21539487 -1.3374522 0.24181646
-0.11293695 0.22587897 0.8782415 0.14236683 0.13129635 0.44294935 0.80399776 0.11407942
-0.4877053 -0.010783138 0.21957156 0.031041205 0.25572002 0.043171745 -0.22458597 -0.030387072
-0.019596333 0.024151752 -0.110689946 0.000862091 -0.084368944 -0.0003796218 1.1736275 0.059813313
-0.42754665 -0.14167774 -0.2897646 -0.08442184 -0.15378183 0.1956854 0.014429302 -0.17593725
-0.54564285 -0.3767873 1.0138335 -0.015790127 -0.3191064 0.19370022 0.8903483 -0.46352988
-0.059705827 -0.27053374 0.61778903 0.12914775 0.044008557 0.024260955 -0.25821802 0.033161998
0.21654786 -0.07290455 -1.4914176 0.12361241 0.36604083 0.034250855 -0.50181377 -0.15484554
-0.13414873 0.11798227 1.254527 0.16515307 -0.0037236873 0.05691902 -1.3446487 0.020891186
-0.27029607 0.13308352 1.9216583 0.31780958 0.00950493 -0.026598848 1.1843328 -0.001195395
0.33783016 -0.31985286 -1.4711667 0.2813228 -0.0062258686 -9.25273e-05 0.0574784 -0.029946718
-0.15685894 0.10635165 1.525018 0.21349078 -0.18155095 0.036218155 0.069753505 -0.02499354
0.10793156 -0.053204786 -1.5263023 -0.15065277 -0.047543705 0.032462448 -0.05090473 0.08276917
0.056132246 -0.055221304 -1.4315375 -0.069394305 -0.028193954 -0.015288229 0.270888 0.08890802
0.21542439 0.13562478 -0.6496424 0.0703329 0.28015202 -0.04323462 -0.3705809 0.037713967
0.010126208 0.01899868 1.996825 0.25910795 0.08955292 -0.04231204 0.30517775 0.04805449
0.052214738 0.0033353188 -1.0845456 -0.01999695 0.013422415 -0.0020179087 -2.243071 -0.24403602
-0.060275193 -0.0030057349 1.3169066 0.16075628 -0.025013624 0.041251794 -2.0211604 -0.11274838
-0.25661826 -0.24087006 -0.842689 -0.19311439 -0.07731179 0.0728955 1.5673511 0.17231268
-0.25616756 0.15432476 1.0112599 0.021778746 0.35139835 0.044984628 0.09084387 -0.069728106
-0.017178014 0.03448248 -0.029476989 -0.00799231 -0.006592546 0.054294538 -1.0836215 -0.12858166
-0.056701414 0.18824129 -0.5178361 -0.4844361 -0.46217078 0.01740111 0.79387254 0.24630281
0.029704366 0.011504717 -0.23159762 -0.118062526 -0.049924035 -0.07599816 1.0502038 0.12714365
0.037022855 0.015474828 -0.05165679 0.018036043 0.037937373 0.018582186 0.94609296 0.045286275
0.13913417 0.03479764 1.0908848 0.12968001 0.661204 0.056636404 -0.65757215 0.0073775062
0.13308796 0.46806374 1.0535805 0.44772074 0.18282968 -0.09687013 -0.7055232 -0.15023933
0.07757794 -0.057307754 -0.12280171 -0.028077908 0.011749956 -0.00592238 -0.08612444 -0.003073595
0.22367369 -0.10663866 -1.3139039 -0.11537047 0.38795623 0.024232527 -0.3435976 -0.030675361

net.0.bias f4 [64]
00000000: fdb2 af3e 7e69 863e 248a d03a 4d28 92be
00000010: da41 2ebf beb8 a93e edd0 fd3e 08c2 ed3e
00000020: f8eb c83e ab2b 273d 3091 fabe 99e6 dfbd
00000030: 8b29 31bf a01b 1abf 91b0 efbd ec32 72be
00000040: bfbe 38bf 589c c3bc 1cb1 30be 2565 8dbd
00000050: 408f f73e ea8d 8ebe 9a81 913e cf01 48bf
00000060: c654 a13e 32e5 b23e ff79 fbbe b3f4 c4be
00000070: bfb2 bf3c 0118 6abe 4a2d cb3e 13af 0dbf
00000080: 228c dc3e 8177 42be da70 c13e 20be ce3e
00000090: 653a ccbe a0f5 1abe d4f8 adbe b665 133f
000000a0: cadc 95be f1c7 ccbe 6299 d83e 54a4 cbbe
000000b0: 5411 18bf a5f7 c33e 858c d5be ac6f 08bf
000000c0: 3364 cebd 8249 e83e 1ae8 b9be 3dec 33bf
000000d0: ab8a d9be 3d31 fd3e b790 93be 982f 76be
000000e0: aadf c7be 1092 213e e4de b5be a512 8b3e
000000f0: 1147 53be b8b0 50be 992f c43e 5e2f 26bf
0.34316245 0.2625236 0.001591031 -0.28546372 -0.6806923 0.3314876 0.4957346 0.46437097
0.3924253 0.04081313 -0.48938894 -0.10932655 -0.69204015 -0.601984 -0.11703599 -0.23652238
-0.72166055 -0.023878261 -0.17255062 -0.069040574 0.4835148 -0.27842647 0.2841919 -0.7812776
0.3150999 0.34940487 -0.49116513 -0.3846794 0.023400662 -0.2286072 0.3968299 -0.5534527
0.43075663 -0.189909 0.3778141 0.4037943 -0.39888301 -0.15132761 -0.33978903 0.57577074
-0.2927001 -0.39996293 0.42304522 -0.3977381 -0.5940144 0.38274875 -0.4170877 -0.532954
-0.10077705 0.45368582 -0.36309892 -0.70282346 -0.42488608 0.49451628 -0.28821346 -0.24041593
-0.3903783 0.15778375 -0.35521615 0.27162662 -0.20632578 -0.20379913 0.38317564 -0.64916027

net.2.weight f4 [64, 64]
00000000: e36f 10be 37ab 08be 1d64 7b3c 17e8 85bd
00000010: 6241 c1bb 33d9 e23c 408a 593c d6c7 30be
00000020: 7175 d93d d047 9abb 13df 8bbd ad78 06bd
00000030: 7fdf 173d 8571 fdbc 34f2 08be 22c1 adbd
00000040: fd7c e8ba 59f9 1bbd 7eef 3abe 9c25 81bd
00000050: 5baf 0e3d f58a ba3d a8dd 7bbe 3323 18bd
00000060: 4a52 043e a333 92bd 00d0 bfbd 5aab fe3d
00000070: 4535 f5bd 5145 a2ba d05a f0ba 1a9f cc3d
00000080: 777c 91bd 24c2 923d f563 f53d 801c ba3d
00000090: e222 b7bd 813d 50be a2dd 1d3d 9b40 03be
000000a0: 7228 f03c b422 5fbc 0a84 273d 2980 0bbe
000000b0: 43c8 5c3a a944 04bc cc2b aa3d 022f 7f3d
000000c0: 3fc5 5dbd 1efe 0b38 e329 abbc 063d 07be
000000d0: 6cc1 29bd b0b6 b1bd 074d de3d 2090 2ebd
000000e0: d9fa 863d 1da1 f8bd 330a 9ebb 8a91 ddbd
000000f0: 202e 07bd 4c96 21bc 20d7 123c 5a07 cd3d
00000100: a276 d23d 0486 e63d 20a7 41be 6278 583e
00000110: 6f91 99bc 10a0 7c3c 08c7 df3c 9313 18be
00000120: ff55 11be b225 33bd 0c60 d8bd f6ad a7bd
00000130: bdfd 803c 9903 b3bd 9aad 353d b53c eabd
00000140: a3ab 853c 3405 293d 2287 a4bd 401a 02be
00000150: 1366 79bd 7d0a 1dbd 84e6 cebc 7365 14be
00000160: d08d 96bd 345d 133d 1f07 183e a24e cebd
00000170: da12 02be 554d abbd 56b6 a0bd 0599 a9bd
00000180: 4c64 24be b7b1 be3c f861 7dbd 82ae 21bd
00000190: 26cc 2dbe 2829 2f3e 317a 643e 2427 64be
000001a0: 00a6 80bc 3c39 63bd 3343 85bd 3099 2d3d
000001b0: 4a0c 7a3d 14ef 4bbc cc2b 18be 2760 22be
000001c0: 0444 463e 7443 17be 1e77 d1bd 0c9a 95bd
000001d0: aec6 86bd a8d9 81bc eb43 113e 87b9 2fbd
000001e0: 78c1 45be 27b6 b2bd 0968 4b3e 03f0 c83d
000001f0: 00fe db3d 6f7d d4bd e7cc 48be 98b8 b33d
00000200: 3f0f 76bd f5f8 65be be8a 623c d36a b6bc
00000210: 1853 a9bd f3c3 bcbc 91de 8c3d 8c93 4dbd
00000220: c8ff 52bd 070d d53d 7398 6a3d f010 f3bd
00000230: 0b77 10be f8c9 00be c809 143e f3ff c23d
00000240: 938e 64bd 3b67 8fbd 1c71 03bd 258a 723c
00000250: dac4 8abe 5784 efbb 9711 06bd aa5d db3d
00000260: c9e1 b8bd 2605 02be 9c10 703c 7bb6 803d
00000270: 81e7 24bc e3e4 043e dcac 1dbe 4fbb e03d
00000280: 2ce7 d5bd f0a2 183e b7e1 393b 5c2b 91bc
00000290: e67e 10be 8e25 c0bd 883b 673d 7ddf 643d
000002a0: f610 10be 55da ecbd 266b 653d a390 a8bc
000002b0: 5933 9a3d 634c 0d3c 8373 c43d d58d 89bd
000002c0: 02bf d3bd 9946 193e a198 63bd e7eb 483d
000002d0: aeca 64bd d44f 8abc e3b1 0dbd 283e b33b
000002e0: abd8 73be 39ab 043b f7cc 2fbe e7be 1bbe
000002f0: 349d 393d 4032 76bd e481 9ebe 8f91 a23d
00000300: 479a 10bd 5525 633d d2c0 463c 70fe 5b3d
00000310: ac22 bdbd 0c6f 18bd 8b9a ca39 fa71 eebd
00000320: 6289 c6bd d136 8dbd 83d5 6dbc 79c1 783a
00000330: 3922 263e c2ef b8bd b85d e1bd ea05 5e3d
00000340: bbd3 993d 4596 00be a8b8 d43d 8656 5fbe
00000350: 51d8 d8bc ea36 5bbd 7ace a03c 4739 adbd
00000360: a332 6bbe a091 0a3d 54b7 c3bd b445 483d
00000370: 8def 253e 729e 913c eb48 a93b 1a9c febd
00000380: 13ff e2bc 4c42 813e b843 32b9 0735 5ebe
00000390: 9f26 53bd 9831 2abe b5b9 cebd fa94 3dbe
000003a0: fd9f e3bc f336 403d ff99 f7bc 83ca 99bd
000003b0: d58e 013d 0195 4bbd 6097 6dbd b703 a23d
000003c0: 15ec 643e a0b8 55bd f9b6 95bd 3872 4abd
000003d0: 0fc4 27bd 828a ff3c 6af5 ecbc d244 84bd
000003e0: 6730 5d3c ba09 2cbe dd9b d2bc 28ec 2abe
000003f0: ec3e 31bd f7af 533b 1d01 bc3d fe68 a93d
-0.14105181 -0.13346563 0.015343693 -0.06538408 -0.005897687 0.02769146 0.01327759 -0.17263731
0.10618103 -0.0047082677 -0.068296574 -0.03282993 0.037078377 -0.03093792 -0.13373643 -0.08484103
-0.0017737445 -0.038079593 -0.18255422 -0.063060015 0.0348352 0.09108535 -0.24596274 -0.037142944
0.12922016 -0.07138755 -0.09365845 0.124350265 -0.11973051 -0.0012380277 -0.0018337611 0.09991284
-0.07103818 0.07165936 0.11981956 0.09087467 -0.089422 -0.20335962 0.038541444 -0.12817614
0.02931616 -0.013619114 0.040897407 -0.13623108 0.00084221753 -0.0080730105 0.08309135 0.06230069
-0.054143187 3.3376848e-05 -0.020893997 -0.13206872 -0.041444227 -0.08677423 0.108545355 -0.042617917
0.06590814 -0.12140105 -0.004822993 -0.10818775 -0.033002973 -0.009862494 0.008962423 0.10011168
0.10276534 0.1125603 -0.1891141 0.21139672 -0.018746106 0.015419021 0.027316585 -0.14851217
-0.14192961 -0.04373712 -0.105651945 -0.08187477 0.015745992 -0.087409206 0.044355012 -0.1143736
0.016317194 0.041264728 -0.08033587 -0.12705326 -0.06088836 -0.03834008 -0.025256403 -0.14491825
-0.07351267 0.035977557 0.14846466 -0.10073592 -0.12702504 -0.08364359 -0.07847278 -0.08281139
-0.16053885 0.0232781 -0.06186101 -0.039473064 -0.16972408 0.17105544 0.22312237 -0.22280556
-0.015704155 -0.055474505 -0.06506958 0.04238242 0.061046876 -0.012447137 -0.14860457 -0.15856992
0.19361883 -0.14771825 -0.10227798 -0.07304773 -0.06580864 -0.015850857 0.14186065 -0.042901542
-0.19312084 -0.08726149 0.19863905 0.098114036 0.10741806 -0.10375487 -0.19609414 0.08775443
-0.060073134 -0.22458251 0.013827024 -0.022267735 -0.08267802 -0.023042655 0.06878389 -0.05018954
-0.051513463 0.104028754 0.057274293 -0.11868465 -0.14107911 -0.12577045 0.14456856 0.09521475
-0.055800032 -0.070021115 -0.03209029 0.014803444 -0.2710331 -0.0073094773 -0.03273162 0.107112244
-0.0902744 -0.12697276 0.0146523975 0.062848054 -0.01006496 0.12977938 -0.15397972 0.10973226
-0.10444483 0.14905906 0.0028363296 -0.01772087 -0.14110908 -0.09382163 0.056453258 0.055877198
-0.1406897 -0.11565081 0.056010388 -0.02057678 0.07529325 0.008624169 0.095923446 -0.067165054
-0.10339166 0.14968337 -0.05556548 0.0490531 -0.055857353 -0.016883768 -0.034593474 0.005470056
-0.23813121 0.0020243658 -0.17168032 -0.15209542 0.045315936 -0.060106516 -0.30958474 0.07937919
-0.03530338 0.055455524 0.012130933 0.053709447 -0.09235129 -0.037215278 0.00038643586 -0.11642833
-0.096941724 -0.06895221 -0.014516237 0.0009489279 0.16223992 -0.09030105 -0.110042036 0.05420486
0.075110875 -0.12557323 0.10386783 -0.2181035 -0.026470335 -0.053519167 0.019629706 -0.084581904
-0.22968535 0.033830285 -0.095564514 0.0488946 0.16204663 0.017775748 0.005166163 -0.12432118
-0.02770952 0.25245893 -0.0001700063 -0.21699916 -0.051550504 -0.16620481 -0.100940146 -0.18513861
-0.02778625 0.046927404 -0.030224798 -0.07509329 0.031630356 -0.049702648 -0.05800569 0.07910865
0.22355683 -0.052178025 -0.0731029 -0.049425334 -0.04095846 0.031193975 -0.028925616 -0.06458439
0.01350031 -0.16800585 -0.025709087 -0.16691649 -0.043272898 0.0032300928 0.091799 0.08271979

net.2.bias f4 [64]
00000000: 1949 39bd 6ef7 873d 2945 61bd f3df e3bd
00000010: 833e 053f 8bb5 ef3c 013a 4ebc 7817 ae3e
00000020: 47c8 1dbd a6f0 363f 29ee b63d c32d ee3e
00000030: 0d9d 0f3f c38f ae3e aa53 f8bd 92a3 913d
00000040: 544f f5bd 1ffe 02be 5def aa3c f0a9 163f
00000050: 5452 1b3c 0e71 5dbd c015 1a3f 6ba5 f33e
00000060: 385a e13e b524 9c3d 6745 9b3e c80f ef3d
00000070: d775 07bd 8f8b f73e 5f2c e73d 123d 033d
00000080: 15ca e1bd 7b13 053f 379e 65bc 08ae 1ebc
00000090: 5b3a 133f eb5b 9bbd fcf7 d13e 2c75 003f
000000a0: 8cea 51bd d968 003f 8d34 73bd 1f52 14be
000000b0: 7e62 083f 2873 073f 6c68 fabd ad83 003f
000000c0: 336d cfbc 3e05 39be 62da 313f 7d45 183f
000000d0: 11f1 27be 5a23 39be 8375 aebd 3f0e 173f
000000e0: 8d03 cb3c a8a6 0e3f 5d76 b8bd f131 13be
000000f0: 40c4 0f3f 1b56 44be ed53 d03e 504c ae3e
-0.045235727 0.0663899 -0.054997597 -0.11126699 0.5204851 0.029261371 -0.012587071 0.3400228
-0.038521077 0.7146095 0.08932144 0.46519288 0.56099015 0.34094056 -0.12125333 0.07111277
-0.11978021 -0.12792252 0.02086609 0.58853054 0.009480078 -0.054062895 0.6018944 0.4758714
0.44014144 0.07624189 0.30326387 0.11672932 -0.033071365 0.48348662 0.1128776 0.032040663
-0.11024872 0.5198285 -0.014014772 -0.009685047 0.5751092 -0.07585891 0.4100951 0.5017879
-0.051249072 0.50159985 -0.05937629 -0.14484452 0.5327529 0.5291009 -0.12226948 0.5020092
-0.025320625 -0.18068406 0.6947385 0.5948103 -0.16400553 -0.18079892 -0.08518507 0.5900611
0.024781967 0.5572305 -0.09006951 -0.1437452 0.5615883 -0.19173472 0.4068903 0.34042597

net.4.weight f4 [2, 64]
00000000: 059b 003d 319c c9bd ce9f efba 5098 473e
00000010: 6240 853f a71a 32be e5b8 74c0 f0db 563f
00000020: e200 1b3d f2ed 813f 4d42 a4bd ec5e 893f
00000030: 6356 393f 5848 703f 55ad 38c0 1b07 923c
00000040: d5c5 fa3c 70d5 8a3c 1710 913d a4ab 8f3f
00000050: d64b 673c 2981 febd 6a99 673f d88c 8a3f
00000060: e254 8c3f 22ff 113c 28f7 473f 2e80 1ebd
00000070: 0515 8e3d bb9d 8c3f d364 0dc0 83af 493d
00000080: 5da1 56be 1b6d 573f 869c 813d b807 26c0
00000090: a8be 6c3f 703a 783e fed1 5e3f f9b5 533f
000000a0: 5747 97c0 5141 5d3f 7f5b a53e ccf6 0ebd
000000b0: 0ca9 94bf f422 683f 032a 8d3c cd1e 493f
000000c0: a0d6 c53c 640e 88be dbec 813f e5e4 6d3f
000000d0: 0083 29bd c55a 13bf 93bb 76bd 3958 7e3f
000000e0: f1db 61c0 c3bf 853f b7d9 17c0 5af5 57bd
000000f0: e2f1 3a3f 6759 d8ba 659f 49bf fb71 523f
00000100: db1e 6f3d f7fa cc3c 2736 943c 158d cdbd
00000110: 8f7b 7c3f 3104 773f f954 b7c0 4a66 303f
00000120: ad24 e03b cad9 7b3f 5171 363b c6df 3a3f
00000130: c9b7 753f 2f44 1f3f 7c10 30c0 74eb 0abe
00000140: 880e 1a3e 8551 5a3c f0db eabd 9999 453f
00000150: 4ec4 573d e6f0 e6bd 5fcb 713f 5541 773f
00000160: 693a f13e 0c42 16be de2e 623f 6514 5fbd
00000170: aa2e 3bbd c8d8 283f 9b5b 28c0 f9bd d73d
00000180: 0346 10bf 4c68 773f 097a 66bd fa67 643f
00000190: 4a9e 853f 0938 ef3c 8065 2f3f 5ed2 3a3f
000001a0: 9478 5cc0 71cb 0d3f d021 73be 1958 a33d
000001b0: f6de 973f a047 af3e 43d5 8f3c a2b7 703f
000001c0: 631a 37bd f6a2 a93e 356b 1f3f cda7 883f
000001d0: 6520 65bf facb 84bf 6d92 cc3d affd 653f
000001e0: 5b74 31c0 a0ef 0c3f e858 35c0 911c c6bc
000001f0: 3589 6c3f e106 b23d 5457 563f 4c49 2a3f
0.03139784 -0.09844244 -0.0018281878 0.19491696 1.0410273 -0.1739298 -3.823785 0.8392935
0.03784264 1.015074 -0.08020458 1.0732093 0.7239744 0.9386039 -2.8855793 0.017825654
0.030611912 0.016947478 0.07083147 1.1224256 0.014117202 -0.12426979 0.90468466 1.0824232
1.0963404 0.008910926 0.78111506 -0.03869646 0.06937603 1.0985636 -2.2092788 0.049239647
-0.20959993 0.84150857 0.063286826 -2.594221 0.9247842 0.24241042 0.8703917 0.82699543
-4.7274585 0.8642779 0.32296368 -0.034903333 -1.1614089 0.90678334 0.017231947 0.78562623
0.024150193 -0.2657348 1.0150408 0.9292739 -0.041384697 -0.5756038 -0.06023748 0.9935337
-3.5290492 1.0449146 -2.3726633 -0.05272422 0.73025334 -0.0016506136 -0.7875884 0.8220517
0.058379035 0.025022013 0.018092228 -0.10036675 0.98626035 0.9649077 -5.7291226 0.6890608
0.0068403096 0.98379195 0.0027838538 0.729977 0.9598356 0.62213415 -2.7510061 -0.1356638
0.15044606 0.0133251 -0.11467731 0.77187496 0.052677445 -0.112764165 0.94450945 0.96584064
0.47114876 -0.14673632 0.88352764 -0.05446281 -0.0456988 0.6595578 -2.6305912 0.10534281
-0.5635683 0.9664352 -0.056268726 0.89221156 1.0438931 0.029201524 0.6851425 0.72977245
-3.4448595 0.5538855 -0.23743367 0.07975788 1.1864917 0.34234333 0.017557746 0.940302
-0.0447029 0.33132142 0.6227296 1.0676209 -0.89502555 -1.0374749 0.09988866 0.89840215
-2.7727268 0.5505314 -2.8335514 -0.024183543 0.9239686 0.08692718 0.83727 0.6651809

net.4.bias f4 [2]
00000000: 1eed 173f 2cff c73d
0.5934619 0.09765467

net.0.weight f4 [64, 4]
00000000: 1238 1abe 605e f73d eb85 803f 28b2 b73d
00000010: 5119 493d 9585 7dbd e6ca 913f 335e e93c
00000020: fb54 fb3d f21b 703e b4f6 e03f 06f7 a2bc
00000030: d929 2c3c c595 ebbd ce73 783f 60b9 fabd
00000040: 0b7e 73be 0ae0 ebbb 8719 bfbc 1795 33bd
00000050: 49e4 883e e792 85be d5e6 3cbe 073d b8bb
00000060: 02da 073c 3a3a d33c 87d1 82bf 0281 3fbe
00000070: 1c23 80bd 4803 003e 8582 14bf ae40 97bd
00000080: 43ae 99bc b02d 6bbd b522 f03e b4fc 3ebd
00000090: 8baa 303e 1279 58be e764 abbf 540c 6d3e
000000a0: 634b e7bd f24c 673e ebd3 603f f6c7 113e
000000b0: add0 ee3d c985 d63e af04 4a3f 1a5a db3d
000000c0: dee6 fabe 7f20 04bc 505c 843e 9d47 433d
000000d0: 64ee 823e 68d4 303d e3f9 65be 3cee f8bc
000000e0: 8788 a0bc a9d9 c53c 0ab2 e2bd 5afe 613a
000000f0: fa14 b5bd 1f54 03bc 1648 943f 7f44 6c3d
00000100: d8d3 dbbe 33b7 09be 544b 87be 5e8b a4bd
00000110: 48b5 19be c546 3a3e c51d 363c 1d7f 1cbe
00000120: 5778 06bf 60de bfbe fcbb 7e3f 7ea3 25bc
00000130: 6318 8fbe a8b5 4b3e 1de5 633f dfdb e5be
00000140: 42a7 86bd fc41 89be da18 203f 0780 043e
00000150: 8742 343d 58bf c63c f534 84be 4dd4 073d
00000160: 81f5 513e fef4 88bd b556 bdbf 5b6f f83d
00000170: 0069 bb3e 7d4a 0c3d 5677 00bf d68f 1ebe
00000180: 6776 0abe 34e0 f63d 05f3 9e3f 68b7 233e
00000190: 1d5e bdbb fac2 723d 5adc aabf 3991 b53c
000001a0: ee16 88be 3fd0 043e c531 f43f 73e4 a13e
000001b0: d5ba 1b3c 79e6 d9bc 0599 973f 96ae 9cba
000001c0: a17b a63e bc37 a4be 71bf bcbf e867 893e
000001d0: 0003 ccbb 700b c2b8 c26e 6b3d cc52 f5bc
000001e0: 9216 21be d7aa db3d 77b4 c03f 124e 593e
000001f0: 9fe8 39be fe58 143d bdda 8e3d 10c0 ccbc
00000200: f778 d73d f81a 59bd fce0 c1bf d20a 17be
00000210: c9bc 42bd b5f6 043d 0281 50bd f682 a93d
00000220: 61f0 663d d28c 64bd ca3c b6bf b034 8dbd
00000230: 91a3 c8bc 4316 8ebc 4f9a 863e c543 be3d
00000240: 5198 5c3e 8ce1 0a3e a74e 26bf 6d0b 903d
00000250: 67f1 843e ed27 18bd fde7 bdbe a214 283d
00000260: 1518 fe3a b5b4 4c3c 7342 fd3f bdd3 833e
00000270: 8931 bc3d a0f5 34bd 3ae7 993e 366b 533d
00000280: 39df 553d 7995 5a3b b4d2 8abf 26d1 a3bc
00000290: 9c0a 843c d12c 8fbb 22f3 0cc0 7eb5 83be
000002a0: 8011 7bbd 0f7b 24bb 24d2 a63f afdc 243e
000002b0: 88f9 f5bc 105c 343d 0349 00c0 3683 d2bd
000002c0: b750 83be b08b 71be d94b 54bf 29c4 3dbe
000002d0: 48c1 9fbd bcec 993d d831 c73f 14b8 2e3e
000002e0: 4a89 83be 297d 1e3e 5d73 813f eb3e a93c
000002f0: 07eb b33e 3041 383d c80b ba3d 75cd 8ebd
00000300: a5b8 8cbc 3c3e 0d3d a479 f1bc 4cf2 02bc
00000310: 040d cebb 12fa 663d b880 89bf 92e4 00be
00000320: c321 29bd f52b 3b3e 2d8d 08bf 26b9 f5be
00000330: 04c2 e9be e919 003d 4ae0 5f3f 0c4e 5a3e
00000340: 3456 f33c 577e 3c3c 2a28 6dbe e3ca f1bd
00000350: 1998 3ebd 6a88 9bbd 7757 853f 6c75 033e
00000360: 47a5 173d 228a 7d3c 1296 53bd 53c0 933c
00000370: baef 1a3d 04a1 9a3c 8c46 723f ec80 383d
00000380: 5621 0f3e 867c 093d 2745 8b3f ed6d 063e
00000390: 2974 223f d994 523d 7ff2 2abf fb98 ab3a
000003a0: 2f7d f23d d20f e83e a657 853f 68bb e03e
000003b0: aa96 353e d3ff c1bd b189 31bf 24b5 17be
000003c0: 16e1 9e3d dabb 6abd 447f fbbd 4303 e6bc
000003d0: 4083 403c 2110 c2bb 9061 b0bd d86e 49bb
000003e0: 4af4 5f3e 94d0 e1bd e108 a7bf b102 ebbd
000003f0: 70a2 c63e 3183 c63c 5eec afbe ec4a fbbc
-0.15060452 0.120785475 1.0040869 0.089695275 0.04909641 -0.061894972 1.1390045 0.0284873
0.12272068 0.2344816 1.7575288 -0.01989318 0.010508024 -0.11503176 0.97051704 -0.12242389
-0.2377855 -0.0071983384 -0.023327602 -0.043843355 0.26736668 -0.2608864 -0.1844743 -0.0056225094
0.008291723 0.0257846 -1.0220193 -0.18701556 -0.062566966 0.12501252 -0.58011657 -0.073853835
-0.018759852 -0.057416618 0.4690148 -0.046627715 0.17252557 -0.21139935 -1.3390168 0.23149234
-0.11293676 0.22587946 0.8782336 0.14236435 0.116608955 0.41898945 0.78913397 0.10710545
-0.49004263 -0.008064388 0.2585168 0.047675718 0.25572503 0.043171316 -0.22458605 -0.030387037
-0.019596351 0.02415164 -0.110691145 0.000862097 -0.088418916 -0.0080156615 1.1584499 0.05768251
-0.4293506 -0.13448791 -0.26424658 -0.08034395 -0.1501056 0.18191059 0.011115496 -0.15282865
-0.52527374 -0.37474346 0.9950559 -0.01010978 -0.27948293 0.19893515 0.89021474 -0.4489431
-0.06574871 -0.26808155 0.6253792 0.12939464 0.044008758 0.024261162 -0.25821653 0.03316145
0.20503809 -0.066873536 -1.4792086 0.12130614 0.36603546 0.034250725 -0.5018209 -0.15484557
-0.1352173 0.12054482 1.2417914 0.15987933 -0.0057790414 0.059267975 -1.3348496 0.022163974
-0.26579994 0.12970065 1.9077688 0.31619605 0.009504993 -0.026599156 1.1843573 -0.0011953886
0.32516196 -0.32073772 -1.4745923 0.26837087 -0.0062259436 -9.252771e-05 0.057478674 -0.029946707
-0.15731266 0.107259445 1.5055073 0.21221188 -0.18155144 0.036217682 0.06975315 -0.024993926
0.10521119 -0.053004235 -1.5146785 -0.14750221 -0.04754332 0.03246184 -0.05090428 0.08276932
0.056381587 -0.05579836 -1.4237301 -0.06894815 -0.024492057 -0.0173446 0.26289603 0.0929027
0.21542479 0.13562602 -0.64963764 0.07033429 0.25965425 -0.03714745 -0.37091056 0.041035302
0.0019385839 0.012494256 1.9785904 0.2574748 0.091891356 -0.04417956 0.30059224 0.051615916
0.052214835 0.0033353253 -1.0845551 -0.01999719 0.01611834 -0.004369356 -2.2023396 -0.25724405
-0.061295986 -0.0025097763 1.303288 0.16099809 -0.030026212 0.04403311 -2.0044563 -0.10278933
-0.25647518 -0.23588443 -0.82928234 -0.1853186 -0.07800537 0.075158566 1.5562086 0.17062408
-0.2569068 0.15477432 1.0113331 0.020659884 0.3514025 0.044984043 0.09084278 -0.069727816
-0.01717789 0.03448318 -0.029476948 -0.007992338 -0.0062881727 0.05639083 -1.0742407 -0.12587193
-0.041291963 0.18278487 -0.5334042 -0.4799282 -0.45655835 0.03127471 0.8745161 0.21318835
0.02970419 0.011504731 -0.23159853 -0.11806276 -0.04653177 -0.07594378 1.0417317 0.12837762
0.037022855 0.015474828 -0.05165679 0.018036043 0.037826277 0.018875606 0.94638896 0.045044824
0.1397756 0.03356602 1.0880479 0.13127871 0.63458496 0.051411483 -0.6677627 0.0013091856
0.11840283 0.4532457 1.0417373 0.4389298 0.17733255 -0.09472623 -0.69350725 -0.14815193
0.077577755 -0.057308055 -0.12280133 -0.028077727 0.011750042 -0.005922333 -0.086123586 -0.0030736234
0.21870533 -0.11026111 -1.3049585 -0.11475123 0.38795805 0.024232479 -0.3436002 -0.030675374

net.0.bias f4 [64]
00000000: b284 ae3e e81c 863e 1488 8f3b 4cc6 91be
00000010: cf41 2ebf 9aa6 a53e 4b3d fe3e 91ca ec3e
00000020: cd5b c73e af39 fc3c fc90 fabe be57 e4bd
00000030: 816b 30bf 361b 1abf 9bb0 efbd 2aa9 6cbe
00000040: 004e 39bf 4e03 c2bc 4fcc 32be e77a 8abd
00000050: bf6d f33e 658d 8ebe bbad 913e 3901 48bf
00000060: cc8f a13e 415e b23e 9241 fbbe f9f3 c4be
00000070: 2469 913c cb17 6abe b26e ca3e bdae 0dbf
00000080: 9e81 dc3e 4177 42be 1c7b bf3e 3105 ce3e
00000090: b139 ccbe 8835 13be c350 adbe d4e2 123f
000000a0: 7edc 95be c93f c9be 433f d63e bae8 cbbe
000000b0: 4db1 18bf 27e3 c13e 1925 d5be fd6e 08bf
000000c0: 9963 cebd 7091 e73e f769 b7be 3693 2ebf
000000d0: 4a8a d9be 29c6 fb3e b790 93be 17e2 75be
000000e0: 6887 c7be ea37 173e 71c0 b6be c5e7 8a3e
000000f0: 6246 53be aab0 50be c004 c33e 672f 26bf
0.34085613 0.2619393 0.0043802354 -0.284716 -0.68069166 0.3235367 0.49656138 0.46248296
0.38937226 0.030789224 -0.4893874 -0.11149548 -0.6891404 -0.6019777 -0.11703607 -0.23111406
-0.72384644 -0.023683216 -0.1746075 -0.06761723 0.47544667 -0.2784225 0.28452858 -0.78126866
0.3155502 0.34837535 -0.49073464 -0.38467386 0.01775033 -0.22860639 0.3953758 -0.55344754
0.4306764 -0.18990804 0.37398612 0.40238336 -0.39887765 -0.1437589 -0.3385068 0.5737736
-0.29269785 -0.39306477 0.4184514 -0.39825994 -0.5964554 0.37868616 -0.41629866 -0.53294355
-0.100775905 0.45228148 -0.35823032 -0.68193376 -0.4248832 0.49174622 -0.28821346 -0.24012028
-0.38970494 0.14767423 -0.35693696 0.2712995 -0.20632318 -0.20379892 0.3808956 -0.6491608

net.2.weight f4 [64, 64]
00000000: 6e6f 10be 25ab 08be b364 7b3c 1de8 85bd
00000010: 1941 c1bb e2d9 e23c 118b 593c 20c7 30be
00000020: f975 d93d be47 9abb 13df 8bbd ad78 06bd
00000030: 7fdf 173d 8571 fdbc 34f2 08be e7c0 adbd
00000040: db7c e8ba 56f9 1bbd 20ef 3abe 9c25 81bd
00000050: c4af 0e3d f58a ba3d 04dd 7bbe 3323 18bd
00000060: a452 043e fe32 92bd 00d0 bfbd 5aab fe3d
00000070: 1c35 f5bd 5145 a2ba 245a f0ba 409f cc3d
00000080: 2e7c 91bd 24c2 923d c364 f53d f71c ba3d
00000090: 7822 b7bd 0a3d 50be a2dd 1d3d 6d40 03be
000000a0: eb28 f03c 5222 5fbc ce84 273d 2980 0bbe
000000b0: c1c8 5c3a 9544 04bc 7e2c aa3d 042f 7f3d
000000c0: 3fc5 5dbd b4fe 0b38 e329 abbc bd3c 07be
000000d0: b0c0 29bd 30b6 b1bd 0a4d de3d 2090 2ebd
000000e0: d9fa 863d 1da1 f8bd 330a 9ebb 8a91 ddbd
000000f0: 202e 07bd 4c96 21bc d5d7 123c 5a07 cd3d
00000100: 5977 d23d 8286 e63d a9a6 41be d978 583e
00000110: ee90 99bc 53a0 7c3c 29c7 df3c e612 18be
00000120: e655 11be 6025 33bd da5f d8bd 6fad a7bd
00000130: 4cfe 803c 0003 b3bd 9aad 353d 833c eabd
00000140: f4ab 853c f605 293d 6786 a4bd e519 02be
00000150: c465 79bd 7d0a 1dbd 11e6 cebc b664 14be
00000160: d68d 96bd 6d5d 133d 6606 183e a24e cebd
00000170: dd12 02be 554d abbd d7b5 a0bd d798 a9bd
00000180: 0764 24be b7b1 be3c 4c61 7dbd 47ae 21bd
00000190: d7cb 2dbe d629 2f3e 4a7a 643e b326 64be
000001a0: 05a6 80bc 3339 63bd 7d42 85bd 3099 2d3d
000001b0: f30c 7a3d b1ee 4bbc 1e2b 18be 9f5f 22be
000001c0: 0444 463e 1643 17be 1a77 d1bd 4e99 95bd
000001d0: fdc5 86bd 0dd9 81bc ee43 113e cfb8 2fbd
000001e0: 71c1 45be a8b5 b2bd 5068 4b3e 48f0 c83d
000001f0: 00fe db3d 6f7d d4bd 59cc 48be 07b9 b33d
00000200: 140f 76bd 53f8 65be fa8a 623c 186a b6bc
00000210: 1853 a9bd e0c3 bcbc ecde 8c3d 0193 4dbd
00000220: 4aff 52bd d90d d53d b298 6a3d ac10 f3bd
00000230: 7676 10be f5c9 00be c809 143e c000 c33d
00000240: 9b8e 64bd 9566 8fbd dd70 03bd 4b8a 723c
00000250: a5c4 8abe 5784 efbb 8511 06bd 415e db3d
00000260: 58e1 b8bd cd04 02be b310 703c 34b7 803d
00000270: 47e7 24bc bde4 043e 7eac 1dbe ebba e03d
00000280: 0ae7 d5bd f0a2 183e 5fe2 393b ee2a 91bc
00000290: 467e 10be 8125 c0bd c23b 673d dadf 643d
000002a0: e610 10be 0bda ecbd b26b 653d ff8f a8bc
000002b0: 5933 9a3d 144d 0d3c d873 c43d b58d 89bd
000002c0: 02bf d3bd b546 193e 8398 63bd 60ec 483d
000002d0: fbc9 64bd 754f 8abc e3b1 0dbd 5f3e b33b
000002e0: acd8 73be b4ab 043b 57cc 2fbe bebe 1bbe
000002f0: 349d 393d 4032 76bd c681 9ebe 9e91 a23d
00000300: 9e99 10bd aa25 633d d2c0 463c 70fe 5b3d
00000310: ac22 bdbd 4e6e 18bd d89a ca39 db71 eebd
00000320: a988 c6bd 6d36 8dbd 83d5 6dbc b3c1 783a
00000330: 1f22 263e c2ef b8bd b85d e1bd f205 5e3d
00000340: 56d3 993d cf95 00be b2b8 d43d e255 5fbe
00000350: 2ad8 d8bc ea36 5bbd d6ce a03c 4739 adbd
00000360: 9b32 6bbe dc91 0a3d c9b6 c3bd f845 483d
00000370: 1ef0 253e 729e 913c 2649 a93b 249c febd
00000380: 9bfe e2bc 4c42 813e 9843 32b9 d234 5ebe
00000390: 9f26 53bd 2f31 2abe 89b9 cebd 7894 3dbe
000003a0: fd9f e3bc 7837 403d 9c99 f7bc 83ca 99bd
000003b0: d58e 013d d994 4bbd 6097 6dbd 3604 a23d
000003c0: 15ec 643e 2ab8 55bd feb6 95bd 0073 4abd
000003d0: 17c4 27bd 338b ff3c 6af5 ecbc 9544 84bd
000003e0: a930 5d3c 0f09 2cbe 119c d2bc e7eb 2abe
000003f0: ec3e 31bd f7af 533b 5701 bc3d fe68 a93d
-0.14105007 -0.13346536 0.015343833 -0.06538413 -0.005897653 0.027691785 0.013277785 -0.1726346
0.106182046 -0.0047082594 -0.068296574 -0.03282993 0.037078377 -0.03093792 -0.13373643 -0.08484059
-0.0017737405 -0.038079582 -0.18255281 -0.063060015 0.034835592 0.09108535 -0.2459603 -0.037142944
0.1292215 -0.07138632 -0.09365845 0.124350265 -0.119730204 -0.0012380277 -0.0018337411 0.09991312
-0.071037635 0.07165936 0.119821094 0.09087556 -0.08942121 -0.20335785 0.038541444 -0.12817545
0.029316386 -0.013619022 0.040898137 -0.13623108 0.00084222486 -0.008072992 0.083092675 0.062300697
-0.054143187 3.3377393e-05 -0.020893997 -0.13206764 -0.041443527 -0.08677328 0.10854538 -0.042617917
0.06590814 -0.12140105 -0.004822993 -0.10818775 -0.033002973 -0.009862494 0.008962591 0.10011168
0.1027667 0.11256124 -0.18911232 0.2113985 -0.018745866 0.015419084 0.027316647 -0.14850959
-0.14192924 -0.043736815 -0.10565157 -0.08187377 0.015746258 -0.087408066 0.044355012 -0.11437323
0.016317345 0.04126545 -0.08033448 -0.1270519 -0.060888067 -0.03834008 -0.025256189 -0.14491543
-0.07351272 0.03597777 0.14846191 -0.10073592 -0.12702508 -0.08364359 -0.07847183 -0.08281105
-0.16053782 0.0232781 -0.061860368 -0.039472844 -0.1697229 0.17105803 0.22312275 -0.22280388
-0.015704164 -0.05547447 -0.06506822 0.04238242 0.061047506 -0.012447045 -0.14860198 -0.15856789
0.19361883 -0.14771685 -0.10227795 -0.07304631 -0.06580732 -0.015850568 0.1418607 -0.042900857
-0.19312073 -0.087260544 0.19864011 0.09811455 0.10741806 -0.10375487 -0.19609202 0.087755255
-0.060072973 -0.2245801 0.01382708 -0.022267386 -0.08267802 -0.02304262 0.068784565 -0.050189022
-0.051512994 0.10403032 0.057274528 -0.11868414 -0.1410769 -0.1257704 0.14456856 0.095216274
-0.05580006 -0.07001988 -0.032090057 0.014803479 -0.27103153 -0.0073094773 -0.03273155 0.10711337
-0.09027356 -0.12697144 0.014652419 0.06284943 -0.010064906 0.12977882 -0.15397832 0.10973152
-0.10444458 0.14905906 0.0028363687 -0.017720666 -0.1411067 -0.09382153 0.056453474 0.055877544
-0.14068946 -0.11565026 0.05601091 -0.020576475 0.07529325 0.008624334 0.09592408 -0.067164816
-0.10339166 0.14968379 -0.05556537 0.04905355 -0.055856686 -0.016883591 -0.034593474 0.0054700817
-0.23813123 0.0020243945 -0.17167793 -0.15209481 0.045315936 -0.060106516 -0.30958384 0.079379305
-0.03530275 0.05545584 0.012130933 0.053709447 -0.09235129 -0.03721457 0.0003864381 -0.1164281
-0.096940346 -0.068951465 -0.014516237 0.00094893127 0.16223954 -0.09030105 -0.110042036 0.05420489
0.07511012 -0.12557147 0.1038679 -0.21810105 -0.026470263 -0.053519167 0.019629877 -0.084581904
-0.22968523 0.03383051 -0.09556348 0.048894852 0.16204879 0.017775748 0.0051661907 -0.12432125
-0.027709296 0.25245893 -0.00017000583 -0.21699837 -0.051550504 -0.16620325 -0.10093982 -0.18513668
-0.02778625 0.0469279 -0.030224614 -0.07509329 0.031630356 -0.0497025 -0.05800569 0.079109594
0.22355683 -0.052177586 -0.073102936 -0.04942608 -0.04095849 0.031194305 -0.028925616 -0.064583935
0.013500371 -0.1680033 -0.025709184 -0.16691552 -0.043272898 0.0032300928 0.09179943 0.08271979

net.2.bias f4 [64]
00000000: 7848 39bd 3cf8 873d 3345 61bd 9bdf e3bd
00000010: af26 063f 2a95 153d 056b 0bbc 6e10 ab3e
00000020: d6c7 1dbd 008c 353f e7ee b63d bf34 ef3e
00000030: 3716 0e3f dae9 aa3e acaa fbbd 05a4 913d
00000040: e44e f5bd 05fe 02be ceef aa3c d6cf 143f
00000050: ed52 1b3c ba70 5dbd 08b9 183f 0bab f03e
00000060: 2935 e03e 1525 9c3d 15ba 9b3e 7210 ef3d
00000070: c575 07bd db82 f33e 0ca7 e13d 4c3d 033d
00000080: 03ca e1bd 76b0 033f b39d 65bc 6cec 893b
00000090: db4c 133f 865b 9bbd 6e5a d23e 9d3c fe3e
000000a0: 77e8 5dbd 23b3 fd3e d433 73bd f651 14be
000000b0: aea7 093f aa43 063f 5c68 fabd db46 013f
000000c0: 396d cfbc 4805 39be 3a84 303f bec1 173f
000000d0: c213 2ebe f822 39be 8375 aebd acd0 153f
000000e0: aad3 9d3c 5a10 0d3f ee71 bcbd ae31 13be
000000f0: 710b 0e3f 6155 44be 444d d13e 4db2 ad3e
-0.045235127 0.06639144 -0.054997634 -0.11126634 0.52402776 0.036519207 -0.008509402 0.33410972
-0.038520657 0.7091675 0.08932286 0.4671993 0.5550265 0.3338154 -0.122884125 0.07111362
-0.11977938 -0.12792213 0.0208663 0.5812963 0.00948022 -0.054062583 0.59657335 0.47005495
0.43790558 0.0762426 0.30415407 0.116730586 -0.0330713 0.47560772 0.1101819 0.03204088
-0.11024859 0.51441133 -0.014014649 0.004209092 0.5753915 -0.07585816 0.41084617 0.4965562
-0.054176774 0.49550733 -0.0593756 -0.1448439 0.53771484 0.52447 -0.12226936 0.5049874
-0.025320636 -0.18068421 0.6895176 0.5928 -0.16999725 -0.18079746 -0.08518507 0.58521533
0.019265968 0.55103076 -0.09201418 -0.1437442 0.5548621 -0.19173194 0.40879261 0.33925095

net.4.weight f4 [2, 64]
00000000: 059b 003d f09c c9bd 32a0 efba c197 473e
00000010: d706 863f 301a 32be 8e45 75c0 51ee 573f
00000020: e600 1b3d fde2 823f 6e42 a4bd a688 883f
00000030: 9724 323f 9ab2 703f cc74 32c0 7606 923c
00000040: 1bc6 fa3c 0dd5 8a3c 960f 913d 46e5 8e3f
00000050: 634b 673c 9381 febd 1c2e 603f 1e3f 883f
00000060: c9e1 8b3f a6fe 113c b0e5 493f fd80 1ebd
00000070: 1415 8e3d 2e29 8c3f d7bb 08c0 83af 493d
00000080: faa0 56be a03b 503f 1d9c 813d 8ec6 25c0
00000090: 6782 6a3f 703a 783e 8f5b 5f3f 21a0 553f
000000a0: 8a66 97c0 596f 5b3f e75a a53e dcf6 0ebd
000000b0: 0f44 94bf b00d 673f b42a 8d3c b5f6 4a3f
000000c0: 89d6 c53c 1d0e 88be dcea 803f cb38 6b3f
000000d0: f070 3fbd 4e5a 13bf 93bb 76bd 1185 783f
000000e0: 9dd4 5ac0 6332 863f a2a2 13c0 d2f4 57bd
000000f0: ebc3 3b3f 6759 d8ba e083 47bf f6cd 533f
00000100: 4a1f 6f3d 70fb cc3c d635 943c 888d cdbd
00000110: 32fd 793f 72dd 783f 8ae7 b4c0 c4d4 2d3f
00000120: 2324 e03b a824 783f 2071 363b 0ede 393f
00000130: 6f7f 733f f2bf 1b3f 7ae4 2bc0 b4eb 0abe
00000140: b50e 1a3e 4952 5a3c aadc eabd 4066 423f
00000150: 9ac3 573d 8af1 e6bd 6cae 6f3f ffe4 743f
00000160: d84d ee3e d542 16be ec5b 5f3f 4214 5fbd
00000170: 682e 3bbd eb86 253f 991b 24c0 21be d73d
00000180: cd46 10bf 6d56 753f ca7a 66bd 4599 653f
00000190: 6d6f 853f 4a38 ef3c 8013 2e3f 5d09 383f
000001a0: 83a6 5ac0 3a71 0b3f a322 73be 1958 a33d
000001b0: ebb9 963f 710f aa3e 84d5 8f3c 9646 6e3f
000001c0: a71a 37bd ffa2 a93e 20d3 1c3f 4a9b 883f
000001d0: 713c 63bf 84cc 84bf 6d92 cc3d 9dd5 633f
000001e0: 6f22 2ec0 63c3 0a3f 861d 31c0 111c c6bc
000001f0: 11a3 6a3f 6f07 b23d 7e91 543f b63c 283f
0.03139784 -0.098443866 -0.0018281995 0.19491483 1.0470837 -0.17392802 -3.8323703 0.84348017
0.037842654 1.0225521 -0.08020483 1.0666702 0.6958708 0.94022524 -2.7883787 0.017825346
0.030612042 0.016947294 0.07083051 1.1163719 0.014117095 -0.12427058 0.8757036 1.0644262
1.0928279 0.008910811 0.788661 -0.03869723 0.06937614 1.0950067 -2.1364648 0.049239647
-0.20959845 0.8134098 0.06328604 -2.5902438 0.9160523 0.24241042 0.8724908 0.8344746
-4.731267 0.8571678 0.32295915 -0.034903392 -1.158327 0.9025526 0.017232276 0.79282695
0.02415015 -0.26573268 1.0071673 0.91883534 -0.046738565 -0.5755967 -0.06023748 0.97078043
-3.419227 1.0484127 -2.3068013 -0.052723713 0.7334582 -0.0016506136 -0.779356 0.82736146
0.05837945 0.025022238 0.018092077 -0.100367606 0.9765197 0.972129 -5.653264 0.6790278
0.0068402453 0.96930933 0.0027838424 0.72604454 0.95116323 0.6083976 -2.68582 -0.13566476
0.15044673 0.013325282 -0.114678696 0.7593727 0.052676775 -0.11276539 0.9362552 0.9566192
0.46543765 -0.14673932 0.87249637 -0.05446268 -0.045698553 0.64658993 -2.5641844 0.10534311
-0.56358033 0.95835 -0.056269445 0.89686996 1.042463 0.029201645 0.67998505 0.7188929
-3.416413 0.54469645 -0.23743682 0.07975788 1.1775488 0.33214906 0.017557867 0.93076456
-0.044703152 0.3313217 0.6125965 1.067239 -0.887641 -1.0374913 0.09988866 0.88997823
-2.7208517 0.54204386 -2.767427 -0.024183305 0.9165507 0.08692824 0.83034503 0.6571764

net.4.bias f4 [2]
00000000: 20f7 163f 3def bc3d
0.5897083 0.092253186

exp_avg f4 [64, 4]
00000000: e9ea ccbb 1ffc a5ba 252a f139 3736 263b
00000010: ffe5 74bb 00dd 88b9 cb54 2b3a 729a 0e3b
00000020: 2af1 0839 1167 463a 3bb9 ecb8 3c2c 88ba
00000030: 0400 0000 0400 0000 0400 0000 0400 0080
00000040: 0400 0080 0400 0080 0400 0080 0400 0080
00000050: 5171 0cbb 6b09 35bb dec5 083a 3eaa ed3a
00000060: 287f 8bbc 2b81 e7bb c0cc 1f3a 21c1 993b
00000070: 34ad 81bc 9ca8 cbbb 7ad1 f139 bb31 993b
00000080: d939 3abc 9faa b8bb 9f1e 403a 641e 563b
00000090: 1dee 8c3b 4e9b dfb8 f6e9 1b3a 3c42 5a3b
000000a0: 0400 0000 0400 0000 0400 0000 0400 0080
000000b0: 3e4b deb7 4310 b538 fb47 4437 0476 f7b8
000000c0: e26d 443e c1d6 2d3e 2572 f43c dfb0 063c
000000d0: 0400 0080 0400 0080 0400 0080 0400 0000
000000e0: 0400 0000 0400 0080 0400 0080 0400 0000
000000f0: 0400 0000 0400 0000 0400 0080 0400 0080
00000100: f4e2 a63e 6027 733e e9fe 013d 0eef 143d
00000110: c0d3 8bbc f0a8 51bc 123a c3ba a26d e0ba
00000120: 6b01 4e3b 810d 1ebb 66d9 cc3a c1a9 bf3b
00000130: 541e 0a3c 27e4 2f3c 80aa 60ba fea0 6dbb
00000140: d9b3 bbbb 4d80 9dbb bde9 283a e5f7 da3a
00000150: 0400 0000 0400 0000 0400 0000 0400 0080
00000160: fa80 57bc cee7 e3bb 5dc7 71b9 46fb 8b3a
00000170: 0400 0080 0400 0080 0400 0080 0400 0000
00000180: be3e 5abc f7c6 8bbb 1c32 5e39 959a ce3a
00000190: 52e4 17bc cdd6 4ebb 20b3 5b39 fc1c 0b3b
000001a0: 0400 0080 0400 0080 0400 0000 0400 0000
000001b0: 0400 0000 0400 0080 0400 0000 0400 0000
000001c0: 544a c139 211a 09ba 77a4 9e39 fcae 713a
000001d0: 0400 0080 0400 0080 0400 0000 0400 0000
000001e0: fa34 06bc 19b7 e5ba 0915 363a b944 483b
000001f0: 0400 0080 0400 0080 0400 0080 0400 0080
00000200: 4bcd 94bc 835e dcbb ce9f 003a dc94 853b
00000210: 0400 0000 0400 0080 0400 0000 0400 0000
00000220: dc29 f8bb d69f 93bb 6216 ea39 cc40 133b
00000230: 1c5d 3fbc 3f2d aabb 7968 513a eba1 753b
00000240: 0400 0080 0400 0080 0400 0080 0400 0080
00000250: 0400 0000 0400 0080 0400 0000 0400 0000
00000260: 5924 c339 220d 853a e940 70b7 9117 39ba
00000270: 94f2 a9bc 1b2a f1bb 53ac a539 f49d 733b
00000280: 0400 0000 0400 0000 0400 0080 0400 0080
00000290: 11ea c0be dea7 89be 0562 23bd a300 c3bd
000002a0: 04fd 07bc 0c42 60bb ae42 353a 9a0b 4e3b
000002b0: 588e a9bf 9b76 5fbf 5169 17be cb5a ccbe
000002c0: e06a 9b3d d7c5 4d3d 025d 233c 9e7b a23c
000002d0: d953 b1bc be4b 05bc 2630 bf39 740e 813b
000002e0: 0400 0080 0400 0000 0400 0000 0400 0080
000002f0: 0400 0000 0400 0000 0400 0000 0400 0000
00000300: 0400 0000 0400 0000 0400 0000 0400 0080
00000310: 694f 20bc e932 1fbb 9c8f 473a d468 9c3b
00000320: 6eaa b138 e0a2 0eb6 c838 2fb9 9232 8139
00000330: 3454 0a3e ff0e f93d bed2 0b3c 8ade a6bb
00000340: 0400 0080 0400 0000 0400 0080 0400 0080
00000350: fe07 87bc 709e c6bb be93 923a 4efa b93b
00000360: 0000 0000 0000 0000 0000 0000 0000 0000
00000370: 0400 0080 0400 0000 0400 0000 0400 0080
00000380: 0400 0000 0400 0080 0400 0000 0400 0000
00000390: 7d78 4eba d205 76b9 9531 35ba de4e 90bb
000003a0: 0400 0080 0400 0080 0400 0000 0400 0000
000003b0: 7a00 04bb 5775 9db9 ae0d 3d38 d05a c23a
000003c0: 0400 0080 0400 0080 0400 0000 0400 0000
000003d0: 0400 0000 0400 0000 0400 0000 0400 0080
000003e0: d64e 43bc e9cb a4bb b8f4 9a39 7b4e 043b
000003f0: 0400 0000 0400 0000 0400 0000 0400 0000
-0.0062535894 -0.0012663639 0.00045998502 0.0025361904 -0.0037368534 -0.000261046 0.00065357675 0.0021759537
0.00013059811 0.00075684587 -0.00011287859 -0.001038916 6e-45 6e-45 6e-45 -6e-45
-6e-45 -6e-45 -6e-45 -6e-45 -0.0021429847 -0.0027624022 0.0005217473 0.0018132401
-0.017028406 -0.0070649586 0.0006095879 0.004692212 -0.01582966 -0.006215168 0.00046123174 0.004675118
-0.011366331 -0.005635574 0.00073287816 0.0032671923 0.0043008463 -0.000106623964 0.00059476437 0.003330364
6e-45 6e-45 6e-45 -6e-45 -2.64995e-05 8.6337815e-05 1.169927e-05 -0.0001179986
0.19182542 0.16976453 0.029839585 0.00822088 -6e-45 -6e-45 -6e-45 6e-45
6e-45 -6e-45 -6e-45 6e-45 6e-45 6e-45 -6e-45 -6e-45
0.32595026 0.23745489 0.031737242 0.036360793 -0.017068744 -0.0127966255 -0.0014894626 -0.0017122517
0.003143395 -0.0024116936 0.0015628755 0.0058490937 0.008430082 0.010735548 -0.00085703284 -0.003625929
-0.0057282266 -0.0048065544 0.0006443521 0.0016705958 6e-45 6e-45 6e-45 -6e-45
-0.013153309 -0.0069551235 -0.0002305782 0.0010679744 -6e-45 -6e-45 -6e-45 6e-45
-0.013320623 -0.004265662 0.00021190237 0.0015762622 -0.009270744 -0.0031561137 0.00020952197 0.0021226993
-6e-45 -6e-45 6e-45 6e-45 6e-45 -6e-45 6e-45 6e-45
0.00036867207 -0.0005230029 0.00030258644 0.0009219495 -6e-45 -6e-45 6e-45 6e-45
-0.0081913415 -0.0017525881 0.00069458835 0.003055854 -6e-45 -6e-45 -6e-45 -6e-45
-0.018164298 -0.006725134 0.0004906625 0.0040765833 6e-45 -6e-45 6e-45 6e-45
-0.0075733494 -0.004505138 0.00044648635 0.0022469042 -0.011679914 -0.005193382 0.0007988285 0.0037480544
-6e-45 -6e-45 -6e-45 -6e-45 6e-45 -6e-45 6e-45 6e-45
0.0003722038 0.0010151009 -1.4320228e-05 -0.00070607016 -0.020745553 -0.0073597557 0.00031599644 0.0037173005
6e-45 6e-45 -6e-45 -6e-45 -0.37678578 -0.26885885 -0.0398884 -0.09521606
-0.00830007 -0.0034219055 0.0006914538 0.003144002 -1.3246565 -0.8729035 -0.14786269 -0.3991302
0.07588744 0.050237503 0.009970905 0.019834336 -0.021646427 -0.008135734 0.00036466232 0.0039384905
-6e-45 6e-45 6e-45 -6e-45 6e-45 6e-45 6e-45 6e-45
6e-45 6e-45 6e-45 -6e-45 -0.009784558 -0.002429182 0.0007612647 0.0047732387
8.471763e-05 -2.1254455e-06 -0.00016710453 0.00024642475 0.13508683 0.121610634 0.008534132 -0.0050924467
-6e-45 6e-45 -6e-45 -6e-45 -0.016483303 -0.0060613677 0.0011182947 0.0056755906
0.0 0.0 0.0 0.0 -6e-45 6e-45 6e-45 -6e-45
6e-45 -6e-45 6e-45 6e-45 -0.00078762305 -0.00023462556 -0.00069119903 -0.004403933
-6e-45 -6e-45 6e-45 6e-45 -0.0020141886 -0.00030032799 4.507385e-05 0.001482809
-6e-45 -6e-45 6e-45 6e-45 6e-45 6e-45 6e-45 -6e-45
-0.011920651 -0.005029191 0.000295555 0.002018838 6e-45 6e-45 6e-45 6e-45

exp_avg_sq f4 [64, 4]
00000000: cf3a 793d 0049 6c3d 7adf 663a 05c6 123c
00000010: 12bd 233d ab70 1d3d f90c 6a3a ea6d 5a3c
00000020: 0fa7 ce3b cfd8 f63c c18c 073c ef14 8f3d
00000030: ab5a 832d 3bcd 5629 563b e12b 85b4 212d
00000040: 5761 1f14 8ae2 1314 94d7 8410 2b82 d111
00000050: 1657 303c f80d a53c 24b5 173a 6371 623d
00000060: 1aa3 ea3e 53f3 8b3f e6a0 773e 1e44 d53f
00000070: 59a6 6e3e be99 7a3e b330 173c 32de 853d
00000080: 93f0 f83d ecff e13d d02a f03a d0e5 5c3c
00000090: d2c7 a73c dd0d c23d 6312 a03b cd6b b53d
000000a0: f48a 431e 2dc3 c51e 59ec 231a 4ef9 611c
000000b0: 3cb8 143a a332 1b3b d6a6 e33a 71d5 193c
000000c0: fb19 0641 4eba b440 f1ee dd3d 4d8c cb3e
000000d0: 8b04 f428 608c f328 0dcf 3425 1ba7 7326
000000e0: f401 0000 f401 0000 f401 0000 f401 0000
000000f0: 3181 f93b 0fd7 0d3d 6d12 133c 2924 7a3d
00000100: b01a 9041 721e 4541 96c4 5f3e e6bf 883f
00000110: 6583 bb3b 3ef0 ba3c 4905 c93b edf1 6a3c
00000120: d8b1 ea3c 4676 ff3c 2704 703b bab8 ed3c
00000130: 4436 803c a0b2 693d ed78 903c 2e31 3a3d
00000140: c966 e93c aacd 003d 7007 863a 2552 3f3d
00000150: 26a4 bc19 b03c 201a 2216 9314 5286 a817
00000160: 84b5 533d 7370 1b3e 29f3 0d3d 6aed 873e
00000170: ffe6 8629 cdb7 8729 036e c725 e86e 0e27
00000180: 975d ff3d 2bb5 003e 1192 053b 2ef8 263d
00000190: 6c56 ea3d 39b4 6f3e bfdd 333d dd81 9c3e
000001a0: e409 9c3e 84ab bb3f ffb8 b33e a765 2240
000001b0: 2e6e 7520 4e19 8022 128e 801f d25e 4123
000001c0: 104b 683c 4dfd 863d e012 6f3b 82f9 843d
000001d0: 490d 0000 ee1b 0000 f401 0000 e110 0000
000001e0: 3856 e03d 859f e73d 8e04 383b 54ea 463d
000001f0: 10f9 9812 909c 4012 7e80 d90e 49ac 0811
00000200: 21dc ce3e 1881 503f 732e 173e 0f55 843f
00000210: c16a 1e1f 2906 8221 5a86 c81d b70f e321
00000220: 8ee9 bf3d 62f6 553e 96da 373d af31 9d3e
00000230: 5283 173e ebaa 0c3e 39ec 2a3b 8ff7 a73c
00000240: cb7e a627 4bb4 6026 ea78 4324 1c69 2927
00000250: 0f85 b03a 54af 473a d162 1439 43d8 843a
00000260: d836 4e3d ddfc 523e 2601 4f3d cae1 b63e
00000270: 11b2 a63e 02de a53e 0d6c eb3b ff80 693d
00000280: 648f a01e 10d3 851e 266f 1f1b 4d66 091d
00000290: 6824 7f40 27aa 2940 224a 7d3d 8453 103f
000002a0: 3488 b13d 3c6f b83d f6fb 033b 49f2 5d3d
000002b0: a6f6 f841 09e0 a841 dc9f 063f fd84 5a40
000002c0: 7cf8 bd3f 5377 843f 48e1 8d3c e0a4 be3d
000002d0: 7eef aa3e b75c c13e d757 b03b 053e 593e
000002e0: e72c 4b33 6239 4532 82a5 1e30 86e0 1633
000002f0: d217 7c29 29d4 a628 f9ef 1726 baba 5628
00000300: de78 5c09 4037 2809 e146 2b05 3837 c606
00000310: a7bc 723e 9656 d33e 97b0 883d 5443 ee3e
00000320: bdaa 4a3a ca43 8b3b c408 9a38 48c5 493c
00000330: e658 ff3d 938b ec3d 412a fe39 d330 073b
00000340: 6980 8b15 6b88 0516 579d bf0f 7ad9 f516
00000350: 2516 ae3e 58aa a53e 5196 b63b 7c39 733d
00000360: 0000 0000 0000 0000 0000 0000 0000 0000
00000370: 7395 2d29 abb0 302c 8bc4 aa2a 134a 1e2a
00000380: 58cd 3d32 a31e 4d33 1b7c b52e 09f4 4b33
00000390: 5830 373b 75f0 603c 4dd8 143a faa7 083d
000003a0: 9eb7 433c e64d 7a3d 7866 3a3d 84a7 843e
000003b0: 3a87 413d abdb 3e3e 0f3a 4a3d f38c ad3e
000003c0: f401 0000 f401 0000 f401 0000 f401 0000
000003d0: 48ca 3403 aad6 4003 4100 0d00 2753 9901
000003e0: 76e9 263e f328 b93e 1b83 933d cb96 003f
000003f0: e5c6 032b 8bdf 412a 9a9e 9127 2e1a b529
0.0608471 0.057686806 0.00088071043 0.008958344 0.039975233 0.038437527 0.00089283247 0.01333187
0.006306536 0.03013268 0.008273304 0.06986415 1.493324e-11 4.7695555e-14 1.6003681e-12 9.191874e-12
8.0466455e-27 7.46628e-27 5.239697e-29 3.3054608e-28 0.01076295 0.020148262 0.0005787185 0.055283915
0.45827562 1.0933632 0.24182472 1.6661413 0.23305644 0.2447271 0.009227919 0.06536521
0.12155261 0.11035141 0.0018323306 0.013482526 0.020481024 0.094753005 0.0048850044 0.08858452
1.0351949e-20 2.0938909e-20 3.389853e-23 7.4768474e-22 0.0005673205 0.0023681305 0.0017368447 0.009389267
8.381343 5.6477423 0.1083659 0.39755479 2.7091412e-14 2.7039297e-14 1.5682663e-16 8.453403e-16
7e-43 7e-43 7e-43 7e-43 0.007614278 0.034628924 0.008976561 0.06106964
18.013031 12.319933 0.21852335 1.0683563 0.0057224506 0.022819635 0.0061346632 0.014339906
0.028649256 0.031184327 0.0036623569 0.029018749 0.015650876 0.057055116 0.017635787 0.045457058
0.028491395 0.031446137 0.0010225605 0.0467092 1.9505043e-23 3.3136247e-23 1.4851937e-26 1.0890653e-24
0.05168678 0.15179615 0.034655724 0.2654832 5.990867e-14 6.027089e-14 3.4595544e-16 1.9766581e-15
0.12469023 0.1256911 0.0020381252 0.040764026 0.11442265 0.23408593 0.043912645 0.30567828
0.30476296 1.4661717 0.35102078 2.5374544 2.0788763e-19 3.472126e-18 5.4445144e-20 1.048263e-17
0.014178053 0.06591282 0.0036479756 0.06492902 4.766e-42 1.0019e-41 7e-43 6.055e-42
0.10953945 0.11309723 0.0028078887 0.048563316 9.653947e-28 6.0777496e-28 5.3618364e-30 1.0781598e-28
0.4040232 0.8144698 0.14763813 1.0338458 3.3546106e-20 8.810773e-19 5.3078475e-21 1.5386278e-18
0.09370719 0.20894769 0.044886194 0.30701968 0.14796188 0.13737075 0.002608074 0.020503787
4.6211725e-15 7.7959954e-16 4.2386303e-17 2.3510441e-15 0.0013467389 0.00076173735 0.00014151192 0.0010135252
0.05034527 0.20604272 0.050538205 0.35719138 0.3255773 0.3239594 0.0071845115 0.057007786
1.6999964e-20 1.4169216e-20 1.3188086e-22 1.8184687e-21 3.986597 2.6510103 0.061838277 0.56377435
0.08668557 0.09005591 0.0020139194 0.05418614 31.120434 21.109392 0.52587676 3.414367
1.4841456 1.0348915 0.017319337 0.09308791 0.33385843 0.37766048 0.005381565 0.21215065
4.730546e-08 1.14799565e-08 5.7715266e-10 3.51288e-08 5.59759e-14 1.8521712e-14 5.271387e-16 1.1919876e-14
2.6538368e-33 2.0248243e-33 8.0534e-36 7.456046e-35 0.23704778 0.41276997 0.06674307 0.46535742
0.00077311305 0.0042500244 7.344925e-05 0.012315102 0.12468128 0.11550059 0.00048478137 0.0020628467
5.634425e-26 1.07867e-25 1.8894659e-29 3.9719132e-25 0.3400127 0.32356524 0.0055721183 0.059380993
0.0 0.0 0.0 0.0 3.8543343e-14 2.5109175e-12 3.0334445e-13 1.4058919e-13
1.1047938e-08 4.7758146e-08 8.2529726e-11 4.748657e-08 0.00279524 0.013729204 0.0005677983 0.03336332
0.011945633 0.061109446 0.045507878 0.25909054 0.047248103 0.18638484 0.049371775 0.33896598
7e-43 7e-43 7e-43 7e-43 5.3129453e-37 5.667015e-37 1.193953e-39 5.632264e-38
0.16299996 0.36164054 0.07202741 0.5023009 4.681657e-13 1.72194e-13 4.041754e-15 8.042556e-14
