CartPole/Experiment_2/23-09-26_22-46-35-883766_DDQN/checkpoints/agent_170000.pt (torch, 82603 bytes, 24 tensors)

net.0.weight f4 [64, 4]
0	0xbc1a4431	-0.009415672
1	0x3e8cfb15	0.2753531
2	0x3fa28a1c	1.2698398
3	0xbe41a532	-0.18910673
4	0x3c45faf2	0.012083756
5	0xbe410084	-0.18847853
6	0x3fa5fe21	1.2968179
7	0xbe4693a8	-0.19392264
8	0x3c06a726	0.008218562
9	0xbcb2909b	-0.021797469
10	0x402de910	2.71735
11	0x3e085910	0.13315225
12	0x3d5d29c2	0.0539949
13	0xbd8bd691	-0.06828035
14	0x3f6e3193	0.93044394
15	0xbe2ff9d1	-0.17185141
16	0xbe737d3f	-0.23778246
17	0xbbebdf66	-0.007198262
18	0xbcbf18cf	-0.02332726
19	0xbd339472	-0.04384274
20	0xbdb66a81	-0.08907033
21	0xbe5f97dc	-0.21835274
22	0xbeab014f	-0.33399436
23	0xbeaebef8	-0.34130073
24	0xbcbdc385	-0.02316452
25	0xbd5ca59b	-0.05386887
26	0xbf9c00a0	-1.2187691
27	0xbe03bde3	-0.12865405
28	0x3c48b643	0.012250486
29	0x3db52de2	0.08846642
30	0xbf46d705	-0.77671844
31	0x3c80b1ed	0.015709842
32	0x3d01889d	0.031624425
33	0xbafa8220	-0.0019112267
34	0x3f2a4f23	0.66527003
35	0xbd7b9a75	-0.0614266
36	0x3e005740	0.12533283
37	0xbe52532a	-0.20539537
38	0xbff0d8b3	-1.8816131
39	0xbd823e65	-0.06359557
40	0xbe142cf6	-0.14470276
41	0x3e46c59a	0.19411317
42	0x3f58b2b3	0.84647673
43	0x3de28300	0.110601425
44	0xbdd4f06e	-0.10397421
45	0x3e8dc8c5	0.27692237
46	0x4019b383	2.4015815
47	0x3ebcc58d	0.3686947
48	0xbee5aaad	-0.44856778
49	0xbc0682a5	-0.008209859
50	0xbeb95509	-0.3619769
51	0x3c51012a	0.012756625
52	0x3e9bb953	0.3041483
53	0x3de8608e	0.11346541
54	0xbe4a1b6f	-0.19737028
55	0x3cfa75a4	0.030573674
56	0xbca0887d	-0.019596333
57	0x3cc5d9e5	0.024151752
58	0xbde2b169	-0.110689946
59	0x3a61fdf3	0.000862091
60	0xbc2d4043	-0.010574403
61	0x3d8cbba6	0.068717286
62	0x3f8c9385	1.0982519
63	0xbb8fb469	-0.0043855202
64	0xbeef7bba	-0.46774083
65	0xbeaea431	-0.34109643
66	0xbf6c1b16	-0.9222883
67	0xbe896806	-0.26837176
68	0xbd9aee6e	-0.07565008
69	0x3e62d02c	0.22149724
70	0x3f410d9f	0.7541141
71	0xbc0f1a75	-0.008734335
72	0xbf180310	-0.59379673
73	0xbe7dfc36	-0.24803242
74	0x3f686960	0.9078579
75	0xbeba86ef	-0.3643107
76	0xbddca4ff	-0.10773658
77	0x3ebc20ed	0.3674387
78	0x3fed00e3	1.8515896
79	0xbeaa4ec9	-0.33263233
80	0xbe4f23b4	-0.20228463
81	0xbd3bfe26	-0.04589667
82	0x3f365c40	0.7123451
83	0x3d6ec306	0.058291458
84	0x3d344251	0.044008557
85	0x3cc6bee9	0.024260955
86	0xbe843527	-0.25821802
87	0x3d07d4e0	0.033161998
88	0xbd170d24	-0.036877766
89	0xbe75479c	-0.23953098
90	0xbfd72c23	-1.6810344
91	0x3e880280	0.26564407
92	0x3eaf6914	0.34259856
93	0x3cb5bf77	0.022186024
94	0xbf293242	-0.6609231
95	0xbe3ff26d	-0.18744822
96	0xbd5ab4a9	-0.053394947
97	0x3d7ceb98	0.061748117
98	0x3fae986b	1.3640264
99	0xbc949893	-0.01813916
100	0xbcda2ad3	-0.026631748
101	0x3d9c0b0b	0.07619294
102	0xbfc4f3fb	-1.5386957
103	0xbda881fc	-0.082279176
104	0xbdc52e5f	-0.09627985
105	0x3eab685e	0.33478063
106	0x400c11e5	2.1885922
107	0x3eaadde4	0.33372414
108	0x3c1bba91	0.00950493
109	0xbcd9e5d4	-0.026598848
110	0x3f979838	1.1843328
111	0xba9caecd	-0.001195395
112	0x3eeaa99b	0.45832524
113	0xbe9f48ef	-0.3111033
114	0xbfd25ff6	-1.6435535
115	0xbddb04b2	-0.10694255
116	0xbbcc025f	-0.0062258686
117	0xb8c20b37	-9.25273e-05
118	0x3d6b6e79	0.0574784
119	0xbcf552d2	-0.029946718
120	0xbd9e8ad3	-0.07741322
121	0x3d8382d8	0.06421441
122	0x3fc5ca40	1.5452347
123	0x3d7ebfa7	0.062194493
124	0xbe39e87e	-0.18155095
125	0x3d14597d	0.036218155
126	0x3d8edaed	0.069753505
127	0xbcccbf41	-0.02499354
128	0x3cfb3764	0.03066606
129	0xbd5e9659	-0.0543426
130	0xbfed2994	-1.8528314
131	0xbe0f9775	-0.1402262
132	0xbc81b250	-0.015832096
133	0x3d836c3a	0.06417127
134	0xbcbaa70a	-0.022784729
135	0x3d5116f9	0.0510473
136	0xbd7509f0	-0.05982393
137	0xbcd4d964	-0.025982566
138	0xbfc5fa7a	-1.5467064
139	0xbe59f729	-0.2128569
140	0x3bdd7975	0.0067588636
141	0x3d1fe872	0.039040036
142	0x3ef4a915	0.4778525
143	0x3ddb4a89	0.10707576
144	0x3dc688fd	0.09694097
145	0x3e089d62	0.13341287
146	0xbfebddf6	-1.8427112
147	0xbf050d60	-0.51973534
148	0x3e9a52cc	0.30141294
149	0x3d50bd17	0.05096158
150	0x3e9b80cd	0.30371705
151	0x3e3a25ae	0.18178436
152	0x3d182c54	0.03715165
153	0x3ca09a99	0.019604968
154	0x40238971	2.5552638
155	0x3e870e92	0.26378304
156	0x3e77d7de	0.2420344
157	0xbc06bd9a	-0.0082239155
158	0x3ec115f8	0.37712073
159	0x3e1479f5	0.14499648
160	0x3dcb1f9d	0.09918139
161	0xbe398006	-0.18115243
162	0xbf9652df	-1.174404
163	0xbdde7588	-0.10862261
164	0x3d2796a6	0.040915154
165	0xbddb203d	-0.10699508
166	0xc038593b	-2.8804462
167	0xbe9f1956	-0.31074017
168	0xbe0d7966	-0.13815841
169	0x3daf6ca2	0.08565642
170	0x3fbc8ac6	1.472985
171	0x3d4b0124	0.049561635
172	0x3e35b1a2	0.17743543
173	0xbe1d7218	-0.15375555
174	0xc016d552	-2.35677
175	0xbe648ed0	-0.22320104
176	0xbe9557cb	-0.29168543
177	0xbea1a3f9	-0.31570414
178	0xbf897668	-1.073926
179	0xbe953e38	-0.29149032
180	0xbdebaebb	-0.115079366
181	0x3d918d30	0.071070075
182	0x3fd6d6da	1.6784317
183	0x3e1069cc	0.14102858
184	0xbe0039b7	-0.12522016
185	0x3df26a01	0.11836625
186	0x3f82c89a	1.0217469
187	0x3d963a25	0.07335309
188	0x3eec3371	0.46132997
189	0x3d2cdff8	0.04220578
190	0x3db20765	0.08692817
191	0xbce2a09f	-0.02766448
192	0xbc8cb8e8	-0.017178014
193	0x3d0d3d80	0.03448248
194	0xbcf179ba	-0.029476989
195	0xbc02f22e	-0.00799231
196	0xbb0e1746	-0.0021681353
197	0x3c82a37b	0.015947094
198	0xbfb2200a	-1.3916028
199	0xbda478d6	-0.0803086
200	0x3e5d1058	0.21588266
201	0x3cdeca9c	0.027196221
202	0xbf027bb6	-0.5097002
203	0xbe7be9fa	-0.24600974
204	0xbeaecf26	-0.34142417
205	0xbe234320	-0.15943575
206	0x3fc05a94	1.5027642
207	0x3e9a55ef	0.30143687
208	0x3cf35692	0.029704366
209	0x3c3c7e48	0.011504717
210	0xbe6d27ed	-0.23159762
211	0xbdf1cac4	-0.118062526
212	0xbc91256b	-0.017718038
213	0xbd14774d	-0.036246587
214	0x3fa446f1	1.283415
215	0x3e0dda49	0.138528
216	0x3d17a547	0.037022855
217	0x3c7d8a22	0.015474828
218	0xbd539612	-0.05165679
219	0x3c93c053	0.018036043
220	0x3e2d6fe6	0.16937217
221	0x3ddf7b17	0.109121494
222	0x3fa999f7	1.3250111
223	0x3df3baa5	0.11900834
224	0x3d7cc941	0.06171537
225	0xbd3022f2	-0.043002076
226	0x3f81b279	1.013259
227	0x3d674a77	0.0564675
228	0x3ef81260	0.4845152
229	0xba50c5c9	-0.00079640426
230	0x3dc4c0b5	0.096070684
231	0xbb88ea82	-0.004178346
232	0x3e64a3ed	0.22328158
233	0x3ef857bc	0.48504436
234	0x3f9a7236	1.2066104
235	0x3e6ed409	0.23323072
236	0xbe533ca8	-0.20628607
237	0xbf245448	-0.64191103
238	0xbf70835f	-0.93950456
239	0x3ea0213d	0.3127536
240	0x3d9ee12f	0.07757794
241	0xbd6abb89	-0.057307754
242	0xbdfb7f77	-0.12280171
243	0xbce603a4	-0.028077908
244	0x3c4082e3	0.011749956
245	0xbbc21086	-0.00592238
246	0xbdb06203	-0.08612444
247	0xbb496e5e	-0.003073595
248	0x3d5bfd9d	0.05370866
249	0xbe0bd856	-0.13656744
250	0xbfc68ea0	-1.5512276
251	0xbdbe138c	-0.09281072
252	0x3ed71d9d	0.4201478
253	0x3e19cbb3	0.15019111
254	0xbe2e6e38	-0.17034233
255	0x3d77b99e	0.060479753

net.0.bias f4 [64]
0	0x3e660a1c	0.22464794
1	0x3e774ae3	0.24149661
2	0xbeea5b79	-0.45772913
3	0xbea95a13	-0.33076534
4	0xbf2e41da	-0.6806923
5	0xbdb48272	-0.08813943
6	0x3f1794b7	0.59211296
7	0x3ef541be	0.4790172
8	0x3e8e7a4d	0.27827683
9	0xbdf094c6	-0.11747126
10	0xbf056a5e	-0.5211543
11	0xbf0838ca	-0.53211653
12	0xbf582a11	-0.8443919
13	0xbf2ca9f7	-0.67446846
14	0xbdefb091	-0.11703599
15	0xbea020d8	-0.31275058
16	0xbf35b224	-0.70974946
17	0xbee8c0f9	-0.45459726
18	0xbeec6a30	-0.46174765
19	0x3ea95d5f	0.3307905
20	0x3efc32e8	0.49257588
21	0xbe8e8dea	-0.27842647
22	0x3eb084d3	0.34476337
23	0xbf539170	-0.82643795
24	0x3ea09d59	0.31370047
25	0x3ef93259	0.48671225
26	0xbef5ac90	-0.47983217
27	0xbec4f4b3	-0.3846794
28	0xbea5282a	-0.32257205
29	0xbe6a1801	-0.2286072
30	0x3ed90e68	0.42393804
31	0xbf0daf13	-0.5534527
32	0x3f01ea83	0.5074846
33	0xbe62e813	-0.22158842
34	0x3efb2132	0.49048764
35	0x3eb7fe16	0.3593604
36	0xbf38740a	-0.7205206
37	0xbeb5acff	-0.35483548
38	0xbee34c57	-0.4439418
39	0x3f17d8c7	0.5931515
40	0xbecffcec	-0.40622652
41	0xbf1083f2	-0.5645133
42	0x3eeb1b85	0.45919433
43	0xbef696c2	-0.48161894
44	0xbf2dc6c0	-0.67881393
45	0x3ef29741	0.47381023
46	0xbf04682a	-0.5172144
47	0xbf503df7	-0.8134455
48	0xbdce6433	-0.10077705
49	0x3f08250d	0.53181535
50	0xbf39a3c9	-0.7251554
51	0xbf86b027	-1.0522507
52	0xbed98aab	-0.42488608
53	0x3f065050	0.524663
54	0xbe9390b7	-0.28821346
55	0xbec822b9	-0.3908899
56	0xbeef726d	-0.46766987
57	0xbdb59a78	-0.08867353
58	0xbf23ee27	-0.64035267
59	0x3ea18d75	0.31553236
60	0xbe534711	-0.20632578
61	0xbe50b0b8	-0.20379913
62	0x3ee6f9f9	0.4511259
63	0xbf4c8d69	-0.79903275

net.2.weight f4 [64, 64]
0	0xbe106fe3	-0.14105181
1	0xbe08ab37	-0.13346563
2	0x3c7b641d	0.015343693
3	0xbd85e817	-0.06538408
4	0xbbc14162	-0.005897687
5	0x3ce2d933	0.02769146
6	0x3c598a40	0.01327759
7	0xbe30c7d6	-0.17263731
8	0x3dd97571	0.10618103
9	0xbb9a47d0	-0.0047082677
10	0xbd8bdf13	-0.068296574
11	0xbd0678ad	-0.03282993
12	0x3d17df7f	0.037078377
13	0xbcfd7185	-0.03093792
14	0xbe08f234	-0.13373643
15	0xbdadc122	-0.08484103
16	0xbae87cfd	-0.0017737445
17	0xbd1bf959	-0.038079593
18	0xbe3aef7e	-0.18255422
19	0xbd81259c	-0.063060015
20	0x3d0eaf5b	0.0348352
21	0x3dba8af5	0.09108535
22	0xbe7bdda8	-0.24596274
23	0xbd182333	-0.037142944
24	0x3e04524a	0.12922016
25	0xbd9233a3	-0.07138755
26	0xbdbfd000	-0.09365845
27	0x3dfeab5a	0.124350265
28	0xbdf53545	-0.11973051
29	0xbaa24551	-0.0012380277
30	0xbaf05ad0	-0.0018337611
31	0x3dcc9f1a	0.09991284
32	0xbd917c77	-0.07103818
33	0x3d92c224	0.07165936
34	0x3df563f5	0.11981956
35	0x3dba1c80	0.09087467
36	0xbdb722e2	-0.089422
37	0xbe503d81	-0.20335962
38	0x3d1ddda2	0.038541444
39	0xbe03409b	-0.12817614
40	0x3cf02872	0.02931616
41	0xbc5f22b4	-0.013619114
42	0x3d27840a	0.040897407
43	0xbe0b8029	-0.13623108
44	0x3a5cc843	0.00084221753
45	0xbc0444a9	-0.0080730105
46	0x3daa2bcc	0.08309135
47	0x3d7f2f02	0.06230069
48	0xbd5dc53f	-0.054143187
49	0x380bfe1e	3.3376848e-05
50	0xbcab29e3	-0.020893997
51	0xbe073d06	-0.13206872
52	0xbd29c16c	-0.041444227
53	0xbdb1b6b0	-0.08677423
54	0x3dde4d07	0.108545355
55	0xbd2e9020	-0.042617917
56	0x3d86fad9	0.06590814
57	0xbdf8a11d	-0.12140105
58	0xbb9e0a33	-0.004822993
59	0xbddd918a	-0.10818775
60	0xbd072e20	-0.033002973
61	0xbc21964c	-0.009862494
62	0x3c12d720	0.008962423
63	0x3dcd075a	0.10011168
64	0x3dd276a2	0.10276534
65	0x3de68604	0.1125603
66	0xbe41a720	-0.1891141
67	0x3e587862	0.21139672
68	0xbc99916f	-0.018746106
69	0x3c7ca010	0.015419021
70	0x3cdfc708	0.027316585
71	0xbe181393	-0.14851217
72	0xbe1155ff	-0.14192961
73	0xbd3325b2	-0.04373712
74	0xbdd8600c	-0.105651945
75	0xbda7adf6	-0.08187477
76	0x3c80fdbd	0.015745992
77	0xbdb30399	-0.087409206
78	0x3d35ad9a	0.044355012
79	0xbdea3cb5	-0.1143736
80	0x3c85aba3	0.016317194
81	0x3d290534	0.041264728
82	0xbda48722	-0.08033587
83	0xbe021a40	-0.12705326
84	0xbd796613	-0.06088836
85	0xbd1d0a7d	-0.03834008
86	0xbccee684	-0.025256403
87	0xbe146573	-0.14491825
88	0xbd968dd0	-0.07351267
89	0x3d135d34	0.035977557
90	0x3e18071f	0.14846466
91	0xbdce4ea2	-0.10073592
92	0xbe0212da	-0.12702504
93	0xbdab4d55	-0.08364359
94	0xbda0b656	-0.07847278
95	0xbda99905	-0.08281139
96	0xbe24644c	-0.16053885
97	0x3cbeb1b7	0.0232781
98	0xbd7d61f8	-0.06186101
99	0xbd21ae82	-0.039473064
100	0xbe2dcc26	-0.16972408
101	0x3e2f2928	0.17105544
102	0x3e647a31	0.22312237
103	0xbe642724	-0.22280556
104	0xbc80a600	-0.015704155
105	0xbd63393c	-0.055474505
106	0xbd854333	-0.06506958
107	0x3d2d9930	0.04238242
108	0x3d7a0c4a	0.061046876
109	0xbc4bef14	-0.012447137
110	0xbe182bcc	-0.14860457
111	0xbe226027	-0.15856992
112	0x3e464404	0.19361883
113	0xbe174374	-0.14771825
114	0xbdd1771e	-0.10227798
115	0xbd959a0c	-0.07304773
116	0xbd86c6ae	-0.06580864
117	0xbc81d9a8	-0.015850857
118	0x3e1143eb	0.14186065
119	0xbd2fb987	-0.042901542
120	0xbe45c178	-0.19312084
121	0xbdb2b627	-0.08726149
122	0x3e4b6809	0.19863905
123	0x3dc8f003	0.098114036
124	0x3ddbfe00	0.10741806
125	0xbdd47d6f	-0.10375487
126	0xbe48cce7	-0.19609414
127	0x3db3b898	0.08775443
128	0xbd760f3f	-0.060073134
129	0xbe65f8f5	-0.22458251
130	0x3c628abe	0.013827024
131	0xbcb66ad3	-0.022267735
132	0xbda95318	-0.08267802
133	0xbcbcc3f3	-0.023042655
134	0x3d8cde91	0.06878389
135	0xbd4d938c	-0.05018954
136	0xbd52ffc8	-0.051513463
137	0x3dd50d07	0.104028754
138	0x3d6a9873	0.057274293
139	0xbdf310f0	-0.11868465
140	0xbe10770b	-0.14107911
141	0xbe00c9f8	-0.12577045
142	0x3e1409c8	0.14456856
143	0x3dc2fff3	0.09521475
144	0xbd648e93	-0.055800032
145	0xbd8f673b	-0.070021115
146	0xbd03711c	-0.03209029
147	0x3c728a25	0.014803444
148	0xbe8ac4da	-0.2710331
149	0xbbef8457	-0.0073094773
150	0xbd061197	-0.03273162
151	0x3ddb5daa	0.107112244
152	0xbdb8e1c9	-0.0902744
153	0xbe020526	-0.12697276
154	0x3c70109c	0.0146523975
155	0x3d80b67b	0.062848054
156	0xbc24e781	-0.01006496
157	0x3e04e4e3	0.12977938
158	0xbe1dacdc	-0.15397972
159	0x3de0bb4f	0.10973226
160	0xbdd5e72c	-0.10444483
161	0x3e18a2f0	0.14905906
162	0x3b39e1b7	0.0028363296
163	0xbc912b5c	-0.01772087
164	0xbe107ee6	-0.14110908
165	0xbdc0258e	-0.09382163
166	0x3d673b88	0.056453258
167	0x3d64df7d	0.055877198
168	0xbe1010f6	-0.1406897
169	0xbdecda55	-0.11565081
170	0x3d656b26	0.056010388
171	0xbca890a3	-0.02057678
172	0x3d9a3359	0.07529325
173	0x3c0d4c63	0.008624169
174	0x3dc47383	0.095923446
175	0xbd898dd5	-0.067165054
176	0xbdd3bf02	-0.10339166
177	0x3e194699	0.14968337
178	0xbd6398a1	-0.05556548
179	0x3d48ebe7	0.0490531
180	0xbd64caae	-0.055857353
181	0xbc8a4fd4	-0.016883768
182	0xbd0db1e3	-0.034593474
183	0x3bb33e28	0.005470056
184	0xbe73d8ab	-0.23813121
185	0x3b04ab39	0.0020243658
186	0xbe2fccf7	-0.17168032
187	0xbe1bbee7	-0.15209542
188	0x3d399d34	0.045315936
189	0xbd763240	-0.060106516
190	0xbe9e81e4	-0.30958474
191	0x3da2918f	0.07937919
192	0xbd109a47	-0.03530338
193	0x3cc30dcb	0.023810288
194	0x3c46c0d2	0.012130933
195	0x3d5bfe70	0.053709447
196	0xbdbd22ac	-0.09235129
197	0xbd6f4db9	-0.05842373
198	0xbd001c22	-0.03127683
199	0xbe179978	-0.14804637
200	0xbe03a8f9	-0.12857427
201	0xbd8d36d1	-0.06895221
202	0xbc6dd583	-0.014516237
203	0x3a78c179	0.0009489279
204	0x3e05b8c1	0.1305876
205	0xbdb8efc2	-0.09030105
206	0xbde15db8	-0.110042036
207	0x3d5e05ea	0.05420486
208	0x3d31c67f	0.04340219
209	0xbe20ec89	-0.15715231
210	0x3d93b92b	0.07213052
211	0xbe5f5686	-0.2181035
212	0xbd6e312c	-0.058152363
213	0xbd5b36ea	-0.053519167
214	0xbc45c8af	-0.0120717725
215	0xbdad3947	-0.084581904
216	0xbe853a70	-0.26021147
217	0x3b0ebd7e	0.0021780427
218	0xbdc3b754	-0.095564514
219	0x3d4845b4	0.0488946
220	0x3e25ef8d	0.16204663
221	0x3c919e72	0.017775748
222	0xbccda674	-0.025103785
223	0xbdfe9c1a	-0.12432118
224	0xbd734000	-0.059387207
225	0x3e81424c	0.25245893
226	0xbd0282d5	-0.031863052
227	0xbe7e8c6e	-0.24858257
228	0xbd53269f	-0.051550504
229	0xbe2a3198	-0.16620481
230	0xbdceb9b5	-0.100940146
231	0xbe5dc6ad	-0.2165782
232	0xbce39ffd	-0.02778625
233	0x3c87ec0c	0.016592048
234	0xbd7ced66	-0.06174984
235	0xbd99ca83	-0.07509329
236	0xb8a6d0b0	-7.954368e-05
237	0xbd4b9501	-0.049702648
238	0xbd6d9760	-0.05800569
239	0x3da203b7	0.07910865
240	0x3e64ec15	0.22355683
241	0xbdabafae	-0.083831176
242	0xbd95b6f9	-0.0731029
243	0xbda5f8ac	-0.08104071
244	0xbd27c40f	-0.04095846
245	0xb9db2c6d	-0.00041804035
246	0xbcecf56a	-0.028925616
247	0xbd8444d2	-0.06458439
248	0x3c5d3067	0.01350031
249	0xbe2c09ba	-0.16800585
250	0xbcd29bdd	-0.025709087
251	0xbe4b5b1f	-0.19858979
252	0xbd313eec	-0.043272898
253	0x3b53aff7	0.0032300928
254	0x3d765089	0.060135398
255	0x3da968fe	0.08271979

net.2.bias f4 [64]
0	0xbd394919	-0.045235727
1	0x3d87f76e	0.0663899
2	0xbd614529	-0.054997597
3	0xbe126565	-0.14296491
4	0x3f21bb62	0.6317655
5	0xbc808be9	-0.015691714
6	0x3d4a02b1	0.049318973
7	0x3ee63087	0.44958898
8	0xbd8e7dc7	-0.06957584
9	0x3f50b4b2	0.8152572
10	0x3db6ee29	0.08932144
11	0x3f1ca419	0.61187893
12	0x3f31b9bd	0.6942404
13	0x3efaa4c3	0.48953828
14	0xbe4e1e4d	-0.20128746
15	0x3d91a392	0.07111277
16	0xbe1b2692	-0.15151432
17	0xbe02fe1f	-0.12792252
18	0xbc3291a0	-0.0108989775
19	0x3f2c0504	0.67195153
20	0x3c1b5254	0.009480078
21	0xbd5d710e	-0.054062895
22	0x3f426547	0.75935787
23	0x3f10b2fa	0.56523097
24	0x3f17169a	0.5901886
25	0x3d9c24b5	0.07624189
26	0x3edb3f95	0.42821947
27	0x3def0fc8	0.11672932
28	0xbd0775d7	-0.033071365
29	0x3f11881d	0.5684832
30	0x3d0ee16c	0.034882948
31	0x3e6908af	0.22757219
32	0xbe6ba135	-0.23010714
33	0x3f2c3b17	0.67277664
34	0xbc659e37	-0.014014772
35	0xbdf7880f	-0.12086498
36	0x3f2be2bd	0.6714285
37	0xbd9b5beb	-0.07585891
38	0x3f0514cf	0.51984876
39	0x3f1a2585	0.602135
40	0xbd63780c	-0.055534407
41	0x3f0c167c	0.5472181
42	0xbdce718e	-0.100802526
43	0xbe14521f	-0.14484452
44	0x3f0ddb2e	0.55412567
45	0x3f1e0537	0.6172671
46	0x3d99993b	0.074999295
47	0x3f1e6e50	0.61887074
48	0x3eb1a717	0.34697792
49	0xbe39053e	-0.18068406
50	0x3f499b78	0.7875285
51	0x3f3611d8	0.7112098
52	0xbea581af	-0.32325503
53	0xbe39235a	-0.18079892
54	0xbdae7583	-0.08518507
55	0x3f3ae13f	0.7299995
56	0xbe32339d	-0.17402501
57	0x3f2f021e	0.68362606
58	0xbe4584c7	-0.19288932
59	0xbe1331f1	-0.1437452
60	0x3f25b1e3	0.6472456
61	0xbe44561b	-0.19173472
62	0x3ed6a2fa	0.41921216
63	0x3eed51f2	0.46351582

net.4.weight f4 [2, 64]
0	0x3d009b05	0.03139784
1	0xbdc99c31	-0.09844244
2	0xbaef9fce	-0.0018281878
3	0x3e2a6acb	0.16642301
4	0x3fb10444	1.3829427
5	0xbe528f94	-0.20562583
6	0xc0b6464a	-5.69608
7	0x3f8d689f	1.1047553
8	0x3d1b00e2	0.03784264
9	0x3fa066e7	1.2531403
10	0xbda4424d	-0.08020458
11	0x3fa284be	1.269676
12	0x3fb084fe	1.3790586
13	0x3f9cef80	1.226059
14	0xc0a48b5d	-5.142012
15	0x3c92071b	0.017825654
16	0xba955478	-0.0011392972
17	0x3c8ad570	0.016947478
18	0x3d911017	0.07083147
19	0x3fc5be98	1.544879
20	0x3c674bd6	0.014117202
21	0xbdfe8129	-0.12426979
22	0x3fcbaddd	1.5912434
23	0x3fde7010	1.7377949
24	0x3fb2d029	1.3969775
25	0x3c11ff22	0.008910926
26	0x3f826277	1.0186299
27	0xbd1e802e	-0.03869646
28	0x3d8e1505	0.06937603
29	0x3fbf3fdf	1.4941367
30	0xc0911cd3	-4.5347686
31	0xc005f15a	-2.092856
32	0x3ed92c82	0.4241677
33	0x3fc681ef	1.5508403
34	0x3d819c86	0.063286826
35	0xc02607b8	-2.594221
36	0x3fb5f84c	1.4216399
37	0x3e783a70	0.24241042
38	0x3faacabe	1.3343122
39	0x3fac314f	1.3452548
40	0xc0de0a6c	-6.938772
41	0x3fa372d3	1.2769417
42	0x3eda45d6	0.42631406
43	0xbd0ef6cc	-0.034903333
44	0xbfe6fca7	-1.8045853
45	0x3fa8067b	1.3126978
46	0x3e504ae0	0.20341063
47	0x3f846196	1.0342281
48	0xbaa5a2ec	-0.0012637055
49	0xbe880e64	-0.2657348
50	0x3fbc1209	1.4693004
51	0x3fd2e9fb	1.6477655
52	0xbec3aad3	-0.38216266
53	0xbf135ac5	-0.5756038
54	0xbd76bb93	-0.06023748
55	0x3fd6c3c4	1.6778493
56	0xc08af1b8	-4.3420067
57	0x3fad03e1	1.3516809
58	0xc08064f7	-4.012325
59	0xbd57f55a	-0.05272422
60	0x3f915f3f	1.1357192
61	0xbad85967	-0.0016506136
62	0xbf487a6d	-0.78311807
63	0x3f8920c4	1.0713124
64	0x3d6f1edb	0.058379035
65	0x3cccfaf7	0.025022013
66	0x3c943627	0.018092228
67	0xbdcd8d15	-0.10036675
68	0x3fd8b242	1.69294
69	0x3f66c326	0.9014152
70	0xc0fdc286	-7.9299955
71	0x3fa9c0d6	1.3261974
72	0xbcbf5d65	-0.023359964
73	0x3fcf4116	1.6191738
74	0x3b367151	0.0027838538
75	0x3fb38e38	1.4027777
76	0x3fb3bcac	1.4041953
77	0x3f8d0f8c	1.102037
78	0xbfeedbde	-1.8660848
79	0xbe0aeb74	-0.1356638
80	0x3e1a0e88	0.15044606
81	0x3c5a5185	0.0133251
82	0xbda9da9e	-0.08293651
83	0x3f938a64	1.1526608
84	0x3d57c44e	0.052677445
85	0xbde6f0e6	-0.112764165
86	0x3facb1dc	1.3491778
87	0x3fba3203	1.4546512
88	0x3f768503	0.9629671
89	0xbe16420c	-0.14673632
90	0x3fbdafde	1.4819295
91	0xbd5f1465	-0.05446281
92	0xbd3b2eaa	-0.0456988
93	0x3f8aba81	1.0838166
94	0xc01e9d75	-2.4783604
95	0xbfc25f9e	-1.518543
96	0xbf1e1a28	-0.6175866
97	0x3fb23de6	1.392514
98	0xbd667a09	-0.056268726
99	0x3f940c10	1.1566181
100	0x3fc46bf7	1.5345448
101	0x3cef3809	0.029201524
102	0x3f9d29e7	1.2278413
103	0x3fa2d6b4	1.2721772
104	0xc08f180c	-4.4716854
105	0x3f6be9f6	0.9215387
106	0xbe27f976	-0.16403756
107	0x3da35819	0.07975788
108	0x3fcbe464	1.5929074
109	0x3f292f08	0.6608739
110	0xbf368ee0	-0.7131176
111	0x3fd7f00d	1.6870133
112	0xbfb28a24	-1.3948407
113	0x3ea9a2f6	0.33132142
114	0x3f81ba4f	1.0134982
115	0x3fbf34eb	1.4938024
116	0xbfa15906	-1.2605293
117	0xbf84cbfa	-1.0374749
118	0x3dcc926d	0.09988866
119	0x3fa35c31	1.276251
120	0xc05300d4	-3.2969255
121	0x3f98188f	1.1882495
122	0xc058a5ac	-3.3851118
123	0xbcc61c91	-0.024183543
124	0x3fbc0ed6	1.4692028
125	0x3db206e1	0.08692718
126	0x3fa580af	1.2929896
127	0x3f9cbe25	1.2245528

net.4.bias f4 [2]
0	0x3f46553e	0.7747382
1	0x3e1c2844	0.15249735

net.0.weight f4 [64, 4]
0	0x3ca72ec1	0.020408036
1	0x3e8b97f8	0.2726438
2	0x3fa31f1f	1.2743872
3	0xbe490e74	-0.1963442
4	0x3d26bd3d	0.040707815
5	0xbe3f709f	-0.18695305
6	0x3fa494e3	1.2857937
7	0xbe3f3466	-0.18672332
8	0xbbbb29a4	-0.005711751
9	0x3b9fb5c3	0.0048739626
10	0x402eaf57	2.729452
11	0x3ddf8f38	0.10915989
12	0x3d5d29a2	0.053994782
13	0xbd8bd6dc	-0.068280905
14	0x3f6e31ca	0.9304472
15	0xbe2ff9a7	-0.17185079
16	0xbe737e0b	-0.2377855
17	0xbbebe00a	-0.0071983384
18	0xbcbf1987	-0.023327602
19	0xbd339517	-0.043843355
20	0xbd5b1672	-0.053488202
21	0xbe6c1f95	-0.23058923
22	0xbeb3f8bc	-0.35150707
23	0xbea9648e	-0.3308453
24	0xbced2573	-0.028948521
25	0xbd3ede02	-0.046598442
26	0xbf9bf2fa	-1.2183526
27	0xbe094784	-0.13406187
28	0x39bc56c8	0.0003592281
29	0x3dbdc530	0.09266126
30	0xbf451d4e	-0.7699784
31	0x3bf72228	0.0075419135
32	0x3d2c367e	0.042044155
33	0x3b39669c	0.002828992
34	0x3f299664	0.662451
35	0xbd50a4bb	-0.05093835
36	0x3dd19fe0	0.10235572
37	0xbe7671ae	-0.24066803
38	0xbfef5e39	-1.870063
39	0xbcaeebd3	-0.021352684
40	0xbe142c76	-0.14470086
41	0x3e46c660	0.19411612
42	0x3f58b371	0.84648806
43	0x3de2832a	0.11060174
44	0xbdf192ee	-0.11795603
45	0x3e9a6259	0.30153158
46	0x4019a59e	2.4007335
47	0x3eb3dff7	0.3513181
48	0xbee61ab5	-0.4494225
49	0xbbf10603	-0.007355453
50	0xbeb8e4b5	-0.3611199
51	0x3c5cc2b2	0.013474153
52	0x3e9bd31d	0.30434504
53	0x3de8c27b	0.11365219
54	0xbe4a48cd	-0.19754334
55	0x3cf98f55	0.030463854
56	0xbca08887	-0.019596351
57	0x3cc5d9a9	0.02415164
58	0xbde2b20a	-0.110691145
59	0x3a61fe5a	0.000862097
60	0xbc3b2cf9	-0.011424297
61	0x3d8afddc	0.06786701
62	0x3f8caf64	1.0991025
63	0xbb67b60f	-0.0035356318
64	0xbef0ec5d	-0.4705533
65	0xbead6ab0	-0.3387046
66	0xbf6c165a	-0.92221606
67	0xbe850151	-0.25977567
68	0xbdbd607b	-0.09246918
69	0x3e65df6b	0.22448508
70	0x3f442de6	0.76632535
71	0xbca2a5cc	-0.019854449
72	0xbf21c4f4	-0.6319115
73	0xbe8ac49c	-0.27103126
74	0x3f658ac7	0.8966488
75	0xbeb1cf15	-0.34728304
76	0xbd7add2b	-0.06124608
77	0x3ead52f2	0.33852345
78	0x3fed3fb1	1.8535062
79	0xbea64043	-0.32470903
80	0xbe2e8417	-0.17042576
81	0xbd479d3b	-0.04873393
82	0x3f334f63	0.7004301
83	0x3d8d931e	0.06912826
84	0x3d344287	0.044008758
85	0x3cc6bf58	0.024261162
86	0xbe8434f5	-0.25821653
87	0x3d07d44d	0.03316145
88	0xbd922ce8	-0.071374714
89	0xbe6ef96f	-0.23337339
90	0xbfd28962	-1.6448176
91	0x3e7e9280	0.24860573
92	0x3eaf69e6	0.34260482
93	0x3cb5bf00	0.022185802
94	0xbf2931b7	-0.66091484
95	0xbe3ff1f0	-0.18744636
96	0xbd0a1acf	-0.033716973
97	0x3d826093	0.06366076
98	0x3fad532b	1.3541006
99	0xbc688428	-0.014191665
100	0xbd27c0f2	-0.04095549
101	0x3d90288d	0.070389844
102	0xbfc43a1e	-1.5330236
103	0xbda06d47	-0.07833343
104	0xbdd28163	-0.10278585
105	0x3eb7f9e2	0.35932833
106	0x400af410	2.1711464
107	0x3ea02816	0.31280583
108	0x3c1bbad5	0.009504993
109	0xbcd9e679	-0.026599156
110	0x3f979905	1.1843573
111	0xba9cae96	-0.0011953886
112	0x3ee058e6	0.43817824
113	0xbea46037	-0.32104656
114	0xbfd0ebfb	-1.6322016
115	0xbde2eb57	-0.11080044
116	0xbbcc0300	-0.0062259436
117	0xb8c20b70	-9.252771e-05
118	0x3d6b6ec2	0.057478674
119	0xbcf552cc	-0.029946707
120	0xbd6bc49c	-0.05756055
121	0x3d82b8bc	0.063828915
122	0x3fc48f24	1.5356183
123	0x3d8afbb2	0.06786288
124	0xbe39e89f	-0.18155144
125	0x3d1458fe	0.036217682
126	0x3d8edabd	0.06975315
127	0xbcccc010	-0.024993926
128	0x3cbf572f	0.023357002
129	0xbd6fedac	-0.05857627
130	0xbfebd5d0	-1.8424625
131	0xbe09962f	-0.13436197
132	0xbc9848de	-0.018589433
133	0x3d7b8d3d	0.061413992
134	0xbcceae7c	-0.025229685
135	0x3d5c6386	0.05380585
136	0xbd830166	-0.06396751
137	0xbd0d37d9	-0.03447709
138	0xbfc66f33	-1.5502685
139	0xbe460932	-0.19339445
140	0x3c7d0089	0.015442022
141	0x3d33845a	0.043827392
142	0x3ef1c15c	0.47217834
143	0x3de0889e	0.10963558
144	0x3dbfdee8	0.09368688
145	0x3e1bee65	0.15227659
146	0xbfe59b61	-1.7938043
147	0xbef891ea	-0.48548824
148	0x3e9b048e	0.30276912
149	0x3d525896	0.051354013
150	0x3e9a774d	0.30169144
151	0x3e394893	0.18094091
152	0x3c4c7823	0.012479815
153	0x3cbaf988	0.022824064
154	0x40244fd0	2.5673714
155	0x3e6b7c1c	0.22996563
156	0x3e75c072	0.23999193
157	0xbb04d75f	-0.0020269973
158	0x3ec1061c	0.37699974
159	0x3e112d2d	0.1417739
160	0x3dca5b76	0.09880726
161	0xbe392eac	-0.1808421
162	0xbf9657cb	-1.1745542
163	0xbddaaf8b	-0.106780134
164	0x3cd6b9cc	0.026211642
165	0xbddbdab2	-0.10735072
166	0xc0381559	-2.876303
167	0xbe9921ea	-0.29908687
168	0xbdebc809	-0.11512763
169	0x3dac3171	0.08407868
170	0x3fbb4c79	1.4632713
171	0x3d697e60	0.057005286
172	0x3e129112	0.14313152
173	0xbe12a282	-0.14319804
174	0xc0159f75	-2.3378575
175	0xbe59e0f8	-0.21277225
176	0xbe95d111	-0.29261068
177	0xbea1c260	-0.3159361
178	0xbf899865	-1.0749632
179	0xbe95c0ed	-0.29248753
180	0xbdbc7ce7	-0.09203511
181	0x3d9007a2	0.07032706
182	0x3fd569d6	1.6672924
183	0x3e164110	0.14673257
184	0xbe018998	-0.12650144
185	0x3df108c2	0.117692485
186	0x3f82f208	1.0230112
187	0x3d99f3df	0.07517218
188	0x3eec32db	0.4613255
189	0x3d2cdfe7	0.042205717
190	0x3db20770	0.08692825
191	0xbce2a0da	-0.02766459
192	0xbc8cb8a5	-0.01717789
193	0x3d0d3e3c	0.03448318
194	0xbcf179a4	-0.029476948
195	0xbc02f24c	-0.007992338
196	0xbc4e8264	-0.01260433
197	0x3ca15966	0.019695949
198	0xbfb19a62	-1.3875239
199	0xbdb31d80	-0.08745861
200	0x3e5d10a1	0.21588375
201	0x3cdecad1	0.02719632
202	0xbf027c54	-0.5097096
203	0xbe7bea4b	-0.24601094
204	0xbeac4894	-0.33649123
205	0xbe189e33	-0.14904098
206	0x3fb6f482	1.4293368
207	0x3e9a1ba3	0.3009921
208	0x3cf35634	0.02970419
209	0x3c3c7e57	0.011504731
210	0xbe6d282a	-0.23159853
211	0xbdf1cae3	-0.11806276
212	0xbc064086	-0.0081940945
213	0xbd06dda9	-0.032926235
214	0x3fa35f7c	1.2763515
215	0x3e10d49e	0.14143607
216	0x3d17a547	0.037022855
217	0x3c7d8a22	0.015474828
218	0xbd539612	-0.05165679
219	0x3c93c053	0.018036043
220	0x3e2d9ae8	0.16953623
221	0x3ddfa356	0.10919826
222	0x3fa9a12f	1.3252314
223	0x3df4f167	0.11960106
224	0x3d7cc9bb	0.061715823
225	0xbd302248	-0.043001443
226	0x3f81b2c4	1.013268
227	0x3d674a9a	0.05646763
228	0x3ef8e633	0.48613128
229	0xbbcb37fc	-0.006201742
230	0x3dca914f	0.09890997
231	0x3bfa79c4	0.00764391
232	0x3e64213a	0.222783
233	0x3ef83592	0.4847837
234	0x3f9abbe7	1.2088593
235	0x3e71a0ad	0.23596449
236	0xbe6970f5	-0.22796996
237	0xbf221c3d	-0.6332434
238	0xbf6b3d9c	-0.91890883
239	0x3e978354	0.29592383
240	0x3d9ee116	0.077577755
241	0xbd6abbda	-0.057308055
242	0xbdfb7f44	-0.12280133
243	0xbce60343	-0.028077727
244	0x3c408340	0.011750042
245	0xbbc21021	-0.005922333
246	0xbdb06190	-0.086123586
247	0xbb496ed8	-0.0030736234
248	0x3d32b7be	0.04363226
249	0xbe091725	-0.13387735
250	0xbfc65c24	-1.5496869
251	0xbdc8a284	-0.097966224
252	0x3ed71d32	0.42014462
253	0x3e19cb86	0.15019044
254	0xbe2e6e56	-0.17034277
255	0x3d77b9a4	0.060479775

net.0.bias f4 [64]
0	0x3e55b9bd	0.20871635
1	0x3e7f9da4	0.24962479
2	0xbeddd47c	-0.43326175
3	0xbea9598f	-0.3307614
4	0xbf2e41cf	-0.68069166
5	0xbd9f7679	-0.07786269
6	0x3f155a9e	0.58341396
7	0x3eefdb53	0.4684702
8	0x3e92d553	0.28678378
9	0xbdf43899	-0.11924858
10	0xbf056a55	-0.52115375
11	0xbf0658e7	-0.52479404
12	0xbf57f242	-0.8435403
13	0xbf2c9d5b	-0.67427605
14	0xbdefb09b	-0.11703607
15	0xbe9fb19d	-0.31190196
16	0xbf35d896	-0.7103361
17	0xbedfe315	-0.43727937
18	0xbedeb574	-0.43497813
19	0x3e9e2c31	0.3089309
20	0x3efefe0a	0.4980319
21	0xbe8e8d65	-0.2784225
22	0x3eb830c6	0.3597471
23	0xbf539162	-0.8264371
24	0x3ea386f8	0.3193891
25	0x3ef23f10	0.47313738
26	0xbefb6cdf	-0.491065
27	0xbec4f3f9	-0.38467386
28	0xbea25d50	-0.31711817
29	0xbe6a17cb	-0.22860639
30	0x3edb9368	0.428859
31	0xbf0daebd	-0.55344754
32	0x3f001a7e	0.50040424
33	0xbe601635	-0.21883471
34	0x3ef238b6	0.47308892
35	0x3eb9d876	0.3629796
36	0xbf428b86	-0.75994146
37	0xbeb4fb0a	-0.35347778
38	0xbed99531	-0.42496637
39	0x3f17364d	0.5906723
40	0xbecfa088	-0.40552163
41	0xbf104753	-0.5635883
42	0x3eed997c	0.46406162
43	0xbefcdfee	-0.49389595
44	0xbf2d763e	-0.6775855
45	0x3ef4be43	0.47801408
46	0xbf04143d	-0.5159338
47	0xbf503dd2	-0.8134433
48	0xbdce6399	-0.100775905
49	0x3f04b364	0.5183623
50	0xbf39a318	-0.72514486
51	0xbf85fcea	-1.0467808
52	0xbed98a4a	-0.4248832
53	0x3f071ddb	0.5277993
54	0xbe9390b7	-0.28821346
55	0xbec802eb	-0.39064726
56	0xbeef721b	-0.46766743
57	0xbda582d8	-0.08081597
58	0xbf238918	-0.63881063
59	0x3ea30626	0.31840628
60	0xbe534662	-0.20632318
61	0xbe50b0aa	-0.20379892
62	0x3ede9a52	0.43477112
63	0xbf4c8d49	-0.79903084

net.2.weight f4 [64, 64]
0	0xbe106f6e	-0.14105007
1	0xbe08ab25	-0.13346536
2	0x3c7b64b3	0.015343833
3	0xbd85e81d	-0.06538413
4	0xbbc14119	-0.005897653
5	0x3ce2d9e2	0.027691785
6	0x3c598b11	0.013277785
7	0xbe30c720	-0.1726346
8	0x3dd975f9	0.106182046
9	0xbb9a47be	-0.0047082594
10	0xbd8bdf13	-0.068296574
11	0xbd0678ad	-0.03282993
12	0x3d17df7f	0.037078377
13	0xbcfd7185	-0.03093792
14	0xbe08f234	-0.13373643
15	0xbdadc0e7	-0.08484059
16	0xbae87cdb	-0.0017737405
17	0xbd1bf956	-0.038079582
18	0xbe3aef20	-0.18255281
19	0xbd81259c	-0.063060015
20	0x3d0eafc4	0.034835592
21	0x3dba8af5	0.09108535
22	0xbe7bdd04	-0.2459603
23	0xbd182333	-0.037142944
24	0x3e0452a4	0.1292215
25	0xbd9232fe	-0.07138632
26	0xbdbfd000	-0.09365845
27	0x3dfeab5a	0.124350265
28	0xbdf5351c	-0.119730204
29	0xbaa24551	-0.0012380277
30	0xbaf05a24	-0.0018337411
31	0x3dcc9f40	0.09991312
32	0xbd917c2e	-0.071037635
33	0x3d92c224	0.07165936
34	0x3df564c3	0.119821094
35	0x3dba1cf7	0.09087556
36	0xbdb72278	-0.08942121
37	0xbe503d0a	-0.20335785
38	0x3d1ddda2	0.038541444
39	0xbe03406d	-0.12817545
40	0x3cf028eb	0.029316386
41	0xbc5f2252	-0.013619022
42	0x3d2784ce	0.040898137
43	0xbe0b8029	-0.13623108
44	0x3a5cc8c1	0.00084222486
45	0xbc044495	-0.008072992
46	0x3daa2c7e	0.083092675
47	0x3d7f2f04	0.062300697
48	0xbd5dc53f	-0.054143187
49	0x380bfeb4	3.3377393e-05
50	0xbcab29e3	-0.020893997
51	0xbe073cbd	-0.13206764
52	0xbd29c0b0	-0.041443527
53	0xbdb1b630	-0.08677328
54	0x3dde4d0a	0.10854538
55	0xbd2e9020	-0.042617917
56	0x3d86fad9	0.06590814
57	0xbdf8a11d	-0.12140105
58	0xbb9e0a33	-0.004822993
59	0xbddd918a	-0.10818775
60	0xbd072e20	-0.033002973
61	0xbc21964c	-0.009862494
62	0x3c12d7d5	0.008962591
63	0x3dcd075a	0.10011168
64	0x3dd27759	0.1027667
65	0x3de68682	0.11256124
66	0xbe41a6a9	-0.18911232
67	0x3e5878d9	0.2113985
68	0xbc9990ee	-0.018745866
69	0x3c7ca053	0.015419084
70	0x3cdfc729	0.027316647
71	0xbe1812e6	-0.14850959
72	0xbe1155e6	-0.14192924
73	0xbd332560	-0.043736815
74	0xbdd85fda	-0.10565157
75	0xbda7ad6f	-0.08187377
76	0x3c80fe4c	0.015746258
77	0xbdb30300	-0.087408066
78	0x3d35ad9a	0.044355012
79	0xbdea3c83	-0.11437323
80	0x3c85abf4	0.016317345
81	0x3d2905f6	0.04126545
82	0xbda48667	-0.08033448
83	0xbe0219e5	-0.1270519
84	0xbd7965c4	-0.060888067
85	0xbd1d0a7d	-0.03834008
86	0xbccee611	-0.025256189
87	0xbe1464b6	-0.14491543
88	0xbd968dd6	-0.07351272
89	0x3d135d6d	0.03597777
90	0x3e180666	0.14846191
91	0xbdce4ea2	-0.10073592
92	0xbe0212dd	-0.12702508
93	0xbdab4d55	-0.08364359
94	0xbda0b5d7	-0.07847183
95	0xbda998d7	-0.08281105
96	0xbe246407	-0.16053782
97	0x3cbeb1b7	0.0232781
98	0xbd7d614c	-0.061860368
99	0xbd21ae47	-0.039472844
100	0xbe2dcbd7	-0.1697229
101	0x3e2f29d6	0.17105803
102	0x3e647a4a	0.22312275
103	0xbe6426b3	-0.22280388
104	0xbc80a605	-0.015704164
105	0xbd633933	-0.05547447
106	0xbd85427d	-0.06506822
107	0x3d2d9930	0.04238242
108	0x3d7a0cf3	0.061047506
109	0xbc4beeb1	-0.012447045
110	0xbe182b1e	-0.14860198
111	0xbe225f9f	-0.15856789
112	0x3e464404	0.19361883
113	0xbe174316	-0.14771685
114	0xbdd1771a	-0.10227795
115	0xbd95994e	-0.07304631
116	0xbd86c5fd	-0.06580732
117	0xbc81d90d	-0.015850568
118	0x3e1143ee	0.1418607
119	0xbd2fb8cf	-0.042900857
120	0xbe45c171	-0.19312073
121	0xbdb2b5a8	-0.087260544
122	0x3e4b6850	0.19864011
123	0x3dc8f048	0.09811455
124	0x3ddbfe00	0.10741806
125	0xbdd47d6f	-0.10375487
126	0xbe48cc59	-0.19609202
127	0x3db3b907	0.087755255
128	0xbd760f14	-0.060072973
129	0xbe65f853	-0.2245801
130	0x3c628afa	0.01382708
131	0xbcb66a18	-0.022267386
132	0xbda95318	-0.08267802
133	0xbcbcc3e0	-0.02304262
134	0x3d8cdeec	0.068784565
135	0xbd4d9301	-0.050189022
136	0xbd52ff4a	-0.051512994
137	0x3dd50dd9	0.10403032
138	0x3d6a98b2	0.057274528
139	0xbdf310ac	-0.11868414
140	0xbe107676	-0.1410769
141	0xbe00c9f5	-0.1257704
142	0x3e1409c8	0.14456856
143	0x3dc300c0	0.095216274
144	0xbd648e9b	-0.05580006
145	0xbd8f6695	-0.07001988
146	0xbd0370dd	-0.032090057
147	0x3c728a4b	0.014803479
148	0xbe8ac4a5	-0.27103153
149	0xbbef8457	-0.0073094773
150	0xbd061185	-0.03273155
151	0x3ddb5e41	0.10711337
152	0xbdb8e158	-0.09027356
153	0xbe0204cd	-0.12697144
154	0x3c7010b3	0.014652419
155	0x3d80b734	0.06284943
156	0xbc24e747	-0.010064906
157	0x3e04e4bd	0.12977882
158	0xbe1dac7e	-0.15397832
159	0x3de0baeb	0.10973152
160	0xbdd5e70a	-0.10444458
161	0x3e18a2f0	0.14905906
162	0x3b39e25f	0.0028363687
163	0xbc912aee	-0.017720666
164	0xbe107e46	-0.1411067
165	0xbdc02581	-0.09382153
166	0x3d673bc2	0.056453474
167	0x3d64dfda	0.055877544
168	0xbe1010e6	-0.14068946
169	0xbdecda0b	-0.11565026
170	0x3d656bb2	0.05601091
171	0xbca88fff	-0.020576475
172	0x3d9a3359	0.07529325
173	0x3c0d4d14	0.008624334
174	0x3dc473d8	0.09592408
175	0xbd898db5	-0.067164816
176	0xbdd3bf02	-0.10339166
177	0x3e1946b5	0.14968379
178	0xbd639883	-0.05556537
179	0x3d48ec60	0.04905355
180	0xbd64c9fb	-0.055856686
181	0xbc8a4f75	-0.016883591
182	0xbd0db1e3	-0.034593474
183	0x3bb33e5f	0.0054700817
184	0xbe73d8ac	-0.23813123
185	0x3b04abb4	0.0020243945
186	0xbe2fcc57	-0.17167793
187	0xbe1bbebe	-0.15209481
188	0x3d399d34	0.045315936
189	0xbd763240	-0.060106516
190	0xbe9e81c6	-0.30958384
191	0x3da2919e	0.079379305
192	0xbd10999e	-0.03530275
193	0x3cc30e08	0.023810402
194	0x3c46c0d2	0.012130933
195	0x3d5bfe70	0.053709447
196	0xbdbd22ac	-0.09235129
197	0xbd6f4d63	-0.05842341
198	0xbd001bef	-0.03127664
199	0xbe179906	-0.14804468
200	0xbe03a855	-0.12857182
201	0xbd8d366d	-0.068951465
202	0xbc6dd583	-0.014516237
203	0x3a78c1b3	0.00094893127
204	0x3e05b93c	0.13058943
205	0xbdb8efc2	-0.09030105
206	0xbde15db8	-0.110042036
207	0x3d5e05f2	0.05420489
208	0x3d31c697	0.04340228
209	0xbe20ec87	-0.15715228
210	0x3d93b99d	0.07213137
211	0xbe5f55e2	-0.21810105
212	0xbd6e3103	-0.05815221
213	0xbd5b36ea	-0.053519167
214	0xbc45c879	-0.012071722
215	0xbdad3947	-0.084581904
216	0xbe8539e5	-0.26020733
217	0x3b0ebdd4	0.0021780627
218	0xbdc3b6c9	-0.09556348
219	0x3d4845f8	0.048894852
220	0x3e25f01e	0.16204879
221	0x3c919e72	0.017775748
222	0xbccda5c1	-0.025103452
223	0xbdfe9c24	-0.12432125
224	0xbd733f8c	-0.059386775
225	0x3e81424c	0.25245893
226	0xbd028295	-0.031862814
227	0xbe7e8bbc	-0.24857992
228	0xbd53269f	-0.051550504
229	0xbe2a312f	-0.16620325
230	0xbdceb989	-0.10093982
231	0xbe5dc6aa	-0.21657816
232	0xbce39ffd	-0.02778625
233	0x3c87ec84	0.016592272
234	0xbd7cece4	-0.061749354
235	0xbd99ca83	-0.07509329
236	0xb8a6d057	-7.954303e-05
237	0xbd4b94d9	-0.0497025
238	0xbd6d9760	-0.05800569
239	0x3da20436	0.079109594
240	0x3e64ec15	0.22355683
241	0xbdabaf37	-0.08383029
242	0xbd95b6fe	-0.073102936
243	0xbda5f7f0	-0.08103931
244	0xbd27c417	-0.04095849
245	0xb9db2c42	-0.0004180391
246	0xbcecf56a	-0.028925616
247	0xbd844495	-0.064583935
248	0x3c5d30a9	0.013500371
249	0xbe2c090f	-0.1680033
250	0xbcd29c11	-0.025709184
251	0xbe4b5b09	-0.19858946
252	0xbd313eec	-0.043272898
253	0x3b53aff7	0.0032300928
254	0x3d7650b3	0.060135555
255	0x3da968fe	0.08271979

net.2.bias f4 [64]
0	0xbd394878	-0.045235127
1	0x3d87f83c	0.06639144
2	0xbd614533	-0.054997634
3	0xbe1264fe	-0.14296338
4	0x3f20c21d	0.62796193
5	0xbc808ba7	-0.015691591
6	0x3d43d086	0.047806285
7	0x3ee4713c	0.4461764
8	0xbd8d1f5a	-0.068907455
9	0x3f50068e	0.8126
10	0x3db6eee7	0.08932286
11	0x3f1bcc2d	0.6085842
12	0x3f30798b	0.6893546
13	0x3ef68c98	0.4815414
14	0xbe4e1e11	-0.20128657
15	0x3d91a405	0.07111362
16	0xbe1b2666	-0.15151367
17	0xbe02fe05	-0.12792213
18	0xbc3290f0	-0.010898814
19	0x3f2d02d7	0.6758246
20	0x3c1b52ed	0.00948022
21	0xbd5d70ba	-0.054062583
22	0x3f416f4f	0.7556047
23	0x3f113478	0.56720686
24	0x3f1589c4	0.5841334
25	0x3d9c2515	0.0762426
26	0x3ed9a3b7	0.42507717
27	0x3def1072	0.116730586
28	0xbd0775c5	-0.0330713
29	0x3f12310b	0.57106084
30	0x3d0ee1c4	0.034883276
31	0x3e7d672e	0.24746391
32	0xbe6ba0c3	-0.23010544
33	0x3f2b4da4	0.66915345
34	0xbc659db3	-0.014014649
35	0xbdf787a4	-0.12086418
36	0x3f2b0544	0.6680491
37	0xbd9b5b86	-0.07585816
38	0x3f038e9d	0.51389486
39	0x3f198d90	0.5998163
40	0xbd80b374	-0.06284228
41	0x3f0d2aa9	0.5514322
42	0xbdcca83d	-0.099930264
43	0xbe1451f6	-0.1448439
44	0x3f064fe9	0.52465683
45	0x3f1fa58f	0.62362
46	0x3d94d1e0	0.07266593
47	0x3f1b6fe7	0.60717624
48	0x3ea32475	0.31863752
49	0xbe390548	-0.18068421
50	0x3f4a4fbb	0.7902791
51	0x3f36588e	0.71228874
52	0xbea10ac2	-0.3145352
53	0xbe3922f8	-0.18079746
54	0xbdae7583	-0.08518507
55	0x3f3b2ded	0.7311695
56	0xbe323330	-0.17402339
57	0x3f2dc260	0.6787472
58	0xbe458481	-0.19288827
59	0xbe1331ae	-0.1437442
60	0x3f247bdd	0.642515
61	0xbe445561	-0.19173194
62	0x3ed1f461	0.4100676
63	0x3eeb4677	0.45952198

net.4.weight f4 [2, 64]
0	0x3d009b05	0.03139784
1	0xbdc99cf0	-0.098443866
2	0xbaefa032	-0.0018281995
3	0x3e2a6afe	0.16642377
4	0x3fae2100	1.3603821
5	0xbe528f92	-0.2056258
6	0xc0b39753	-5.612222
7	0x3f8a0732	1.0783446
8	0x3d1b00e6	0.037842654
9	0x3f9d76f6	1.2301929
10	0xbda4426e	-0.08020483
11	0x3fa02954	1.2512612
12	0x3fae58ec	1.3620887
13	0x3f9a833e	1.2071302
14	0xc0a48b17	-5.1419787
15	0x3c920676	0.017825346
16	0xba955198	-0.0011392115
17	0x3c8ad50d	0.016947294
18	0x3d910f96	0.07083051
19	0x3fc409f4	1.5315537
20	0x3c674b63	0.014117095
21	0xbdfe8193	-0.12427058
22	0x3fc9684e	1.5734956
23	0x3fdbbc2b	1.7166799
24	0x3faff6d9	1.3747207
25	0x3c11fea6	0.008910811
26	0x3f7fee47	0.9997296
27	0xbd1e80fd	-0.03869723
28	0x3d8e1514	0.06937614
29	0x3fbd9b1f	1.4812964
30	0xc0911c16	-4.5346785
31	0xc00afe5f	-2.1717756
32	0x3ed92d51	0.42417386
33	0x3fc44370	1.533308
34	0x3d819c1d	0.06328604
35	0xc026078f	-2.5942113
36	0x3fb2dfa6	1.3974502
37	0x3e783a70	0.24241042
38	0x3fa641dd	1.298885
39	0x3fa84da4	1.3148694
40	0xc0dae433	-6.8403563
41	0x3fa12237	1.2588567
42	0x3eda4691	0.42631963
43	0xbd0ef6dc	-0.034903392
44	0xbfe35782	-1.776108
45	0x3fa6915a	1.3013108
46	0x3e4ace1c	0.19805187
47	0x3f814e14	1.0101953
48	0x3a000b58	0.0004884503
49	0xbe880e1d	-0.26573268
50	0x3fba5f29	1.456029
51	0x3fd08e01	1.6293336
52	0xbeb1dc63	-0.34738454
53	0xbf135a4e	-0.5755967
54	0xbd76bb93	-0.06023748
55	0x3fd4668a	1.6593792
56	0xc08af12d	-4.3419404
57	0x3fa9a703	1.3254093
58	0xc0806497	-4.012279
59	0xbd57f4d2	-0.052723713
60	0x3f8e975e	1.1139944
61	0xbad85967	-0.0016506136
62	0xbf4533ef	-0.7703237
63	0x3f8674cf	1.0504397
64	0x3d6f1f4a	0.05837945
65	0x3cccfb70	0.025022238
66	0x3c9435d6	0.018092077
67	0xbdcd8d88	-0.100367606
68	0x3fd6c614	1.6779199
69	0x3f66c372	0.90141976
70	0xc0fd90fc	-7.9239483
71	0x3fa8ac37	1.3177556
72	0xbcba08ac	-0.022709213
73	0x3fcdc3f5	1.6075426
74	0x3b367120	0.0027838424
75	0x3fb1b512	1.3883383
76	0x3fb225dd	1.3917805
77	0x3f8b2178	1.0869589
78	0xbfeedc1a	-1.866092
79	0xbe0aebb4	-0.13566476
80	0x3e1a0eb5	0.15044673
81	0x3c5a5249	0.013325282
82	0xbda9db3e	-0.0829377
83	0x3f91a4e3	1.1378444
84	0x3d57c39a	0.052676775
85	0xbde6f18a	-0.11276539
86	0x3fab4b64	1.3382382
87	0x3fb7a6f5	1.4347826
88	0x3f72d5e9	0.9485765
89	0xbe1642d5	-0.14673932
90	0x3fbc579f	1.471424
91	0xbd5f1442	-0.05446268
92	0xbd3b2e68	-0.045698553
93	0x3f88c2e2	1.0684474
94	0xc01e9de5	-2.478387
95	0xbfb7f861	-1.4372674
96	0xbf1e1aa5	-0.61759406
97	0x3fb0fa18	1.3826323
98	0xbd667aca	-0.056269445
99	0x3f940c6d	1.1566292
100	0x3fc2a405	1.5206305
101	0x3cef384a	0.029201645
102	0x3f9b147e	1.2115629
103	0x3fa1580f	1.2604998
104	0xc08f0a70	-4.470024
105	0x3f67bc7c	0.9052198
106	0xbe28dabf	-0.16489695
107	0x3da35819	0.07975788
108	0x3fcb434b	1.5879911
109	0x3f25f6cd	0.64829713
110	0xbf32406e	-0.6962956
111	0x3fd5a604	1.6691289
112	0xbfb1b766	-1.3884094
113	0x3ea9a2ff	0.3313217
114	0x3f7eb0f8	0.9948878
115	0x3fbc9776	1.4733722
116	0xbfa103ed	-1.2579323
117	0xbf84cc84	-1.0374913
118	0x3dcc926d	0.09988866
119	0x3fa21ef3	1.2665695
120	0xc05301a1	-3.2969744
121	0x3f967efb	1.1757501
122	0xc058a629	-3.3851416
123	0xbcc61c11	-0.024183305
124	0x3fba1978	1.4539022
125	0x3db2076f	0.08692824
126	0x3fa568c4	1.2922597
127	0x3f9a5790	1.2057972

net.4.bias f4 [2]
0	0x3f493c8a	0.78608
1	0x3e15613b	0.14587872

exp_avg f4 [64, 4]
0	0x3b17c2d2	0.0023156893
1	0x3d2a772c	0.041617557
2	0xbc6cb8d6	-0.014448365
3	0xbd84b6f2	-0.064802065
4	0x3ca2caf4	0.019872166
5	0x3dea3632	0.11436118
6	0xbd11b0bc	-0.035568938
7	0xbe31c95b	-0.17361967
8	0xbcfaf61b	-0.03063493
9	0xbd17e48c	-0.037083194
10	0x3d6ee469	0.058323298
11	0x3ccdcb68	0.025121406
12	0x80000004	-6e-45
13	0x80000004	-6e-45
14	0x00000004	6e-45
15	0x00000004	6e-45
16	0x80000004	-6e-45
17	0x80000004	-6e-45
18	0x80000004	-6e-45
19	0x80000004	-6e-45
20	0x3d72d7a2	0.059287675
21	0x3e1c9e57	0.15294777
22	0xbd158ead	-0.03651302
23	0xbe5e27e9	-0.21694912
24	0xbacb0ccb	-0.0015491484
25	0x3d561ef6	0.05227562
26	0xbcaf6830	-0.021411985
27	0xbd84164c	-0.06449565
28	0xbbaa8fa4	-0.0052051116
29	0x3d342bde	0.043987148
30	0xbc892a5e	-0.016743835
31	0xbd625586	-0.055257343
32	0x3baef056	0.005338709
33	0x3d125daa	0.035733856
34	0xbc25192c	-0.010076802
35	0xbd50734b	-0.050891202
36	0xbb675f26	-0.0035304516
37	0xbde55d3e	-0.11199425
38	0x3cc5a03f	0.024124263
39	0x3e2aa4a2	0.16664365
40	0x00000004	6e-45
41	0x00000004	6e-45
42	0x00000004	6e-45
43	0x00000004	6e-45
44	0xbc25ef07	-0.010127789
45	0x3dd2d4dd	0.10294507
46	0x3c62d31b	0.013844277
47	0xbe304fb8	-0.1721791
48	0x80000004	-6e-45
49	0x00000004	6e-45
50	0x00000004	6e-45
51	0x00000004	6e-45
52	0x00000004	6e-45
53	0x00000004	6e-45
54	0x80000004	-6e-45
55	0x80000004	-6e-45
56	0x00000004	6e-45
57	0x80000004	-6e-45
58	0x80000004	-6e-45
59	0x00000004	6e-45
60	0x80000004	-6e-45
61	0x80000004	-6e-45
62	0x00000004	6e-45
63	0x00000004	6e-45
64	0x0447ad75	2.3471985e-36
65	0x03117e07	4.2756343e-37
66	0x82897685	-2.0198368e-37
67	0x83497453	-5.9202125e-37
68	0x93002c0d	-1.617759e-27
69	0x1483d20d	1.331047e-26
70	0x12a8ed7e	1.0660837e-27
71	0x94914880	-1.4669855e-26
72	0x3a934c89	0.0011238019
73	0xb928b3d6	-0.00016088723
74	0xba8384c1	-0.0010034071
75	0xba004448	-0.0004892987
76	0x3c379970	0.011206016
77	0x3d8429bb	0.06453272
78	0xbcddec6b	-0.027090272
79	0xbdcd93a7	-0.10037928
80	0x3d0ca8a5	0.03434052
81	0x3e1cf189	0.15326513
82	0xbd4b80d3	-0.049683403
83	0xbe7213a5	-0.23640306
84	0x00000004	6e-45
85	0x00000004	6e-45
86	0x00000004	6e-45
87	0x80000004	-6e-45
88	0xbc584974	-0.013201106
89	0x3ccc8fc4	0.024970897
90	0x3bbb9368	0.0057243593
91	0xbcad5646	-0.021159302
92	0x80000004	-6e-45
93	0x80000004	-6e-45
94	0x80000004	-6e-45
95	0x00000004	6e-45
96	0x3c7f691c	0.015589025
97	0x3e04b5f2	0.12960032
98	0xbd2b75a3	-0.041860234
99	0xbe471b53	-0.19444017
100	0xbbdbbddf	-0.006705984
101	0x3c16c125	0.009201323
102	0xbc03acfc	-0.008036848
103	0xbb4d9f40	-0.0031375438
104	0x3ad09a73	0.001591517
105	0x3d35d999	0.04439697
106	0xbca896bc	-0.020579688
107	0xbdc8fabe	-0.0981345
108	0x00000004	6e-45
109	0x80000004	-6e-45
110	0x00000004	6e-45
111	0x00000004	6e-45
112	0x3c938d6e	0.018011775
113	0x3c6e92e9	0.014561393
114	0xbc8f917b	-0.017525425
115	0xbcfafb93	-0.030637538
116	0x80000004	-6e-45
117	0x80000004	-6e-45
118	0x00000004	6e-45
119	0x00000004	6e-45
120	0x3ca6f975	0.020382622
121	0x3e22ac8f	0.15886138
122	0xbd540a76	-0.05176779
123	0xbe73731f	-0.23774384
124	0x80000004	-6e-45
125	0x80000004	-6e-45
126	0x80000004	-6e-45
127	0x80000004	-6e-45
128	0xbbce4f53	-0.0062960773
129	0x3d5edd63	0.05441035
130	0xbcbf95f2	-0.02338693
131	0xbd808cd3	-0.0627686
132	0x80000004	-6e-45
133	0x80000004	-6e-45
134	0x80000004	-6e-45
135	0x00000004	6e-45
136	0xb979e6b4	-0.00023832434
137	0x3bea76a9	0.0071552587
138	0xbbd5a82f	-0.006520293
139	0xbc338bb9	-0.010958605
140	0x3bc22e58	0.0059259348
141	0x3d8402af	0.06445824
142	0xbca6c616	-0.020358127
143	0xbdbf4648	-0.09339577
144	0xbd4e9e03	-0.05044366
145	0xbcfb503a	-0.030677903
146	0x3d6d1560	0.057881713
147	0x3dab0e6b	0.083523594
148	0x00000004	6e-45
149	0x00000004	6e-45
150	0x80000004	-6e-45
151	0x80000004	-6e-45
152	0xbf421327	-0.75810474
153	0xbf9b33ba	-1.2125161
154	0x3e2bc141	0.1677294
155	0x3fa8e863	1.3195919
156	0xbb250d23	-0.0025184832
157	0x3df08d71	0.11745728
158	0xbd1d327a	-0.038378216
159	0xbe248d5d	-0.16069551
160	0x80000004	-6e-45
161	0x80000004	-6e-45
162	0x80000004	-6e-45
163	0x00000004	6e-45
164	0xbe03105c	-0.1279921
165	0xbef521df	-0.47877404
166	0x3e26bbf8	0.16282642
167	0x3f3a47b5	0.72765666
168	0x3cf3b1be	0.02974784
169	0x3e4519c4	0.1924811
170	0xbd81b601	-0.063335426
171	0xbe947654	-0.28996527
172	0xbe911377	-0.28335163
173	0xbf98a2e1	-1.1924707
174	0x3e9ec59f	0.31010148
175	0x3fd78974	1.6838822
176	0x00000004	6e-45
177	0x00000004	6e-45
178	0x80000004	-6e-45
179	0x80000004	-6e-45
180	0x3d5a9d00	0.053372383
181	0x3eb90e6f	0.36143824
182	0xbdf850bd	-0.121247746
183	0xbf0b2995	-0.54360324
184	0x80000004	-6e-45
185	0x00000004	6e-45
186	0x00000004	6e-45
187	0x00000004	6e-45
188	0x80000004	-6e-45
189	0x80000004	-6e-45
190	0x80000004	-6e-45
191	0x80000004	-6e-45
192	0x00000004	6e-45
193	0x00000004	6e-45
194	0x00000004	6e-45
195	0x80000004	-6e-45
196	0xbb9eb808	-0.0048437156
197	0x3d178547	0.036992338
198	0xbc82e9c4	-0.015980609
199	0xbd2ef558	-0.042714447
200	0x00000004	6e-45
201	0x00000004	6e-45
202	0x80000004	-6e-45
203	0x80000004	-6e-45
204	0xbcc14535	-0.02359257
205	0xbce9f77f	-0.028560398
206	0x3a20365a	0.00061116146
207	0x3d17af48	0.037032396
208	0x80000004	-6e-45
209	0x00000004	6e-45
210	0x80000004	-6e-45
211	0x80000004	-6e-45
212	0x3c743aba	0.01490658
213	0x3e288265	0.16455992
214	0xbd5a7d59	-0.053342197
215	0xbe73395b	-0.23752348
216	0x00000000	0.0
217	0x00000000	0.0
218	0x00000000	0.0
219	0x00000000	0.0
220	0x00000004	6e-45
221	0x00000004	6e-45
222	0x00000004	6e-45
223	0x00000004	6e-45
224	0x00000004	6e-45
225	0x00000004	6e-45
226	0x00000004	6e-45
227	0x00000004	6e-45
228	0xbb3548fc	-0.002766191
229	0xbc1d0834	-0.009584475
230	0x3a370253	0.00069812423
231	0x3c0c8f87	0.008579141
232	0x00000004	6e-45
233	0x00000004	6e-45
234	0x80000004	-6e-45
235	0x80000004	-6e-45
236	0x3ab2fcea	0.0013655697
237	0x3ca8408b	0.020538589
238	0xbb927274	-0.0044692103
239	0xbcda03be	-0.026613113
240	0x80000004	-6e-45
241	0x80000004	-6e-45
242	0x00000004	6e-45
243	0x00000004	6e-45
244	0x00000004	6e-45
245	0x00000004	6e-45
246	0x00000004	6e-45
247	0x80000004	-6e-45
248	0xbb57fe86	-0.0032958104
249	0x3c9ba659	0.01900022
250	0xbc1ec5c7	-0.0096907085
251	0xbc957d86	-0.01824833
252	0x80000004	-6e-45
253	0x80000004	-6e-45
254	0x80000004	-6e-45
255	0x80000004	-6e-45
